data/models/autoencoder_epoch_40.pt (torch, 66986 bytes, 15 tensors)

encoder.0.weight f4 [16, 1, 5]
000000 d9 6c 52 be 49 76 12 bd 63 c2 09 be 57 02 c4 3e
       -0.20549335 -0.035757337 -0.13453059 0.38283035
000010 7a 34 c9 3e b0 93 27 be 98 a3 04 3d 0a 28 d6 be
       0.3929785 -0.16364932 0.032382578 -0.41827422
000020 22 b8 92 3e f0 11 52 3d e4 b8 db be d8 2c 3e be
       0.28656107 0.051286638 -0.42914498 -0.18571794
000030 88 d0 93 3d 24 eb 91 be da 3b 1d be bd f5 c2 3e
       0.072175086 -0.2849971 -0.15354863 0.38078108
000040 29 14 15 be 4a 1e a5 3e 30 af ed bc 9b 99 c4 be
       -0.14558472 0.3224967 -0.0290142 -0.38398442
000050 e4 1d 4d be 90 af 50 3d db b5 b3 be b8 09 d6 be
       -0.20030934 0.05094868 -0.35099682 -0.4180429
000060 86 7e aa 3e 4c 19 46 3e ba 3e a4 be 9e dd c5 be
       0.33299655 0.19345587 -0.32079107 -0.38645643
000070 24 60 ca 3e 30 95 c2 bd 70 ce eb bc 99 2c a2 3e
       0.39526474 -0.095011115 -0.02878496 0.3167465
000080 9d ea 1c 3e 08 d9 55 3d ab d2 7b be e0 71 cf 3e
       0.15323873 0.05220893 -0.24592082 0.40516567
000090 02 a4 1b 3e 3a 3f e1 3e 31 ee a1 be b9 48 f4 3e
       0.15199283 0.4399355 -0.31627038 0.47711733
0000a0 14 b9 0c 3d b3 91 84 3e 4e 75 85 3e 15 2c 4d 3e
       0.03435619 0.2589241 0.2606606 0.20036347
0000b0 ca 28 73 be b9 33 56 be 2a c8 d0 3e 72 ad bd be
       -0.23746029 -0.20918168 0.40777713 -0.3704639
0000c0 9f f8 ce be 6e d6 0c be 85 d8 b5 3e 30 9c 87 3e
       -0.40424058 -0.13753673 0.35516754 0.2648635
0000d0 dc 31 8e 3e 75 13 ee 3e c9 94 66 3d 98 19 7c 3e
       0.27772415 0.4649922 0.056294236 0.24619138
0000e0 33 61 aa 3e 79 82 16 3e 75 62 0c be cf f8 42 be
       0.33277282 0.14698209 -0.13709433 -0.19040225
0000f0 26 e2 a0 3d c7 3e 91 bd 6f fb f1 3e 4d d3 4e be
       0.078556344 -0.07092052 0.4726214 -0.20197792
000100 1e f8 c9 3e 32 91 c9 3e f7 47 42 3e fe 69 9f 3e
       0.3944711 0.39368588 0.18972765 0.31135553
000110 b0 74 11 be a1 65 a6 3e 06 e2 b0 be 20 08 40 3d
       -0.14204669 0.32499412 -0.34547442 0.04688275
000120 10 82 9f bd 40 1e 52 bd 6a c1 a8 3e d7 83 8c bc
       -0.07788479 -0.05129838 0.32960063 -0.01715271
000130 c3 0e a8 3e 63 74 ae be 9d fa a3 3e 10 d3 c3 bd
       0.32823762 -0.3407317 0.3202714 -0.09561741

encoder.0.bias f4 [16]
000000 31 e7 ef 3d 29 99 c9 be c3 fb b2 3e c8 fa ba be
       0.11714018 -0.39374664 0.34957704 -0.36519456
000010 9b 28 bb be e7 40 ca be f2 77 97 be 74 ff d5 3d
       -0.36554417 -0.39502642 -0.295837 0.104491144
000020 90 b0 ba be 59 69 ac be 9f 00 75 3e e9 ce ff 3d
       -0.36462831 -0.33674124 0.23926018 0.12490637
000030 7b 35 80 3e 9c 23 f2 3e 64 c5 e3 be 00 bf 63 3d
       0.25040802 0.47292793 -0.44486535 0.055602074

encoder.3.weight f4 [32, 16, 5]
000000 7f ba b5 bd 83 31 b6 3c 9d af 85 3d fd 62 1c 3d
       -0.08873462 0.022240406 0.06527636 0.03818034
000010 37 df b9 3c 1a 77 49 bd d0 33 1d bd dc c8 76 3d
       0.022689445 -0.04918585 -0.03837949 0.06025015
000020 80 f2 d4 3d 70 b5 bf 3b c4 b4 f8 3d 68 6f 02 3e
       0.10397816 0.0058504865 0.12143853 0.1273781
000030 dd aa c7 ba 9b 17 21 bd 07 0f b6 bd 68 a5 b8 bd
       -0.0015233416 -0.039329153 -0.08889585 -0.09015924
000040 bf 3e 12 3d 98 9b 12 bd 92 8d dc 3d 1f 05 9f 3b
       0.03570437 -0.035792917 0.1076919 0.0048529054
000050 80 17 26 3a c4 e2 d9 bc 40 b0 db 3d 40 f6 10 bb
       0.0006335899 -0.026597388 0.107269764 -0.0022119433
000060 b9 1e be bd ef fb 73 bd b4 b6 c2 3d e6 c0 c5 3d
       -0.09283204 -0.059566434 0.09507504 0.09655933
000070 c0 70 86 ba 04 c0 56 3d 9a 4b 13 3d d4 d3 7e 3d
       -0.0010256991 0.052429214 0.03596077 0.062213734
000080 1b 90 6f bd 41 ec 6b bc 96 15 14 bd fe bf 00 3b
       -0.05848704 -0.014399589 -0.0361534 0.0019645686
000090 1b 95 8c 3c a4 b5 42 bc 00 ad 8f 3d 0b 07 7c 3d
       0.017160943 -0.011884127 0.07015419 0.061530154
0000a0 f4 57 b4 bd da 00 bc 3d f6 4e e2 3d 62 dc 62 3d
       -0.08805838 0.0917985 0.11050217 0.055385955
0000b0 f1 94 d0 3c dc 78 24 3d 7c 3b c5 3d a8 4d 28 3d
       0.025461646 0.040154323 0.09630486 0.041089684
0000c0 6e de 85 bd 04 53 68 3d e9 4b 5a bd ac 7f 24 bc
       -0.06536566 0.056719795 -0.05329505 -0.010040205
0000d0 d3 03 2d bd b6 0a 15 bc 02 5e 3f 3d 46 50 e6 3d
       -0.042239975 -0.009096792 0.046720512 0.1124578
0000e0 95 d5 98 bd a0 c0 4c 3b 39 05 4f bd 2a 9a d6 3d
       -0.074626125 0.0031242743 -0.05054209 0.10478623
0000f0 18 94 27 3d 2c 93 95 bd 4d c2 1a 3d 38 82 b3 3d
       0.040912718 -0.073034614 0.037782956 0.08765072
000100 ed 72 4f 3d ba 10 34 ba 95 53 04 bd 50 ee 0e 3e
       0.05064671 -0.00068689475 -0.032306273 0.13958097
000110 7c 06 24 bd 58 3b 9b 3d 6e a9 6f bd f0 aa f1 bc
       -0.040045246 0.07579678 -0.05851119 -0.029500455
000120 b2 38 d5 bd ec 89 90 3d f0 4b 24 bd f1 41 34 3d
       -0.104112044 0.070575565 -0.040111482 0.0440082
000130 d7 cc f1 3b b2 4c 5e bd 93 c8 a9 3d ca 6c 8c bd
       0.007379155 -0.05427236 0.082902096 -0.06856687
000140 11 a5 1b 3e 6d 51 20 bd f8 04 35 3d 2b ac a5 3d
       0.15199687 -0.039140154 0.04419419 0.08089479
000150 84 1c 86 3c a8 05 28 3d 8d 9c 7c bd d8 21 d7 bd
       0.01637102 0.04102102 -0.061672736 -0.10504502
000160 8e fc cb 3d 94 b7 8c bc 3b 9e 9a 3b c5 5e ac 3c
       0.0996028 -0.01717738 0.0047185696 0.021041283
000170 14 9b 97 bc e3 4d 05 3e 2a b4 08 3e 9c 8d c0 bd
       -0.018506564 0.13017993 0.13349977 -0.0940201
000180 ec 29 83 bd 1c d0 b8 3a 0d 3e 90 bd 3f db ca bd
       -0.0640448 0.0014100107 -0.07043085 -0.09905099
000190 d8 9e a6 bc c0 02 28 bd 28 7a 78 bc b0 e3 82 3c
       -0.020339414 -0.041018248 -0.015165843 0.01597771
0001a0 1b 0f b2 bd 50 af b3 3c 9c 54 6f 3d 20 41 35 3d
       -0.086942874 0.021934181 0.0584303 0.04425156
0001b0 c6 41 cb 3d 5c e9 2d 3d 0d ed 7f 3d bd 15 f8 3c
       0.09924655 0.042458877 0.06248193 0.030283803
0001c0 24 6a 02 bc be 7e 31 bb 34 fd 60 bd 83 48 6f bd
       -0.007959876 -0.00270836 -0.054928973 -0.058418762
0001d0 27 eb e1 3d 38 d2 37 bc 35 f7 b2 3d d1 cd cf bc
       0.1103118 -0.011219554 0.08738557 -0.025366696
0001e0 5a eb 7c 3c ba eb 56 3d fa 43 00 3a 29 48 27 3b
       0.015436972 0.0524709 0.0004892942 0.0025525189
0001f0 d2 c4 66 bd a4 55 b1 3d c4 29 c8 bc a1 7c 4c bd
       -0.056340046 0.08658913 -0.024433978 -0.049923543
000200 d6 e7 b4 3d e0 f0 97 3b c1 f3 d9 3a 22 d9 78 bd
       0.08833282 0.004636869 0.001662843 -0.06075395
000210 17 5b 62 bc 36 84 0a 3e 92 49 8a bd ea 18 77 3d
       -0.013815663 0.13526997 -0.06752314 0.060326494
000220 9e dc 00 3e 57 06 b0 bb eb 59 9c bd 94 25 4e bc
       0.12584159 -0.0053718495 -0.07634338 -0.0125822015
000230 6b 7a 45 bd e9 68 bc 3d 14 51 ec 3d 11 72 08 3e
       -0.04821245 0.091996975 0.11538902 0.13324763
000240 0c ce c8 3c 9f 92 5b 3d 23 61 dd 3d 7e 0b 5e 3d
       0.024512313 0.053606626 0.10809543 0.05421018
000250 eb 35 96 bd be c5 3a bd c4 30 2a bd dc 1e 2f 3d
       -0.07334503 -0.045598738 -0.041550413 0.04275404
000260 aa 37 96 bd 4a 38 54 bd 60 ef 7d 3c db 4c 5b bd
       -0.07334836 -0.051811494 0.015498966 -0.053540092
000270 67 d2 3e bd 5f b6 3a 3c 0c 4c ec 3d 01 6c ef bc
       -0.046587374 0.01139602 0.11537942 -0.029226305
000280 d4 6f 34 bd b3 65 8c bd a2 4c c5 bc 13 85 df 3d
       -0.04405196 -0.06855335 -0.024084393 0.10914054
000290 37 1e b5 3c b8 85 58 3d c4 19 1a 3d 31 27 97 bd
       0.022109134 0.0528619 0.03762223 -0.07380522
0002a0 9c d6 9c 3d da 56 c9 3d 88 55 6d 3c 60 8d ba 3d
       0.07658121 0.09831019 0.014485724 0.091089964
0002b0 2d a4 9c 3d b2 43 4d bc 53 b1 47 3d 06 bc 26 bc
       0.076485015 -0.012528347 0.048753094 -0.010176664
0002c0 2f 2d f3 bc 91 de de bd e1 86 73 bd be 2c c2 bd
       -0.029684631 -0.10882295 -0.059454802 -0.0948119
0002d0 00 89 bd ba 00 3f cd 3a d2 be 8f 3d c4 b8 74 3d
       -0.0014460385 0.0015659034 0.07018818 0.05974652
0002e0 b8 0e e2 bc b7 1c aa bd 13 37 ae bd 74 65 c5 3d
       -0.02759491 -0.08306258 -0.08506598 0.09638491
0002f0 30 bb 48 3c b4 d6 a2 bc d3 a2 c0 3d 74 3a 5d 3d
       0.01225166 -0.019877769 0.09406056 0.054010823
000300 7a 21 aa bd f5 5f df bc e2 a6 d0 3d 78 e3 85 3c
       -0.083071664 -0.027267436 0.1018808 0.016343817
000310 2f 27 fb 3c 57 0c ff 3d 70 70 d1 3d 19 28 d2 3d
       0.030658333 0.124535255 0.10226524 0.10261554
000320 d8 1c 34 3d f5 22 13 bd e5 69 bd 3d 6d fe b4 3a
       0.04397282 -0.03592201 0.092487134 0.0013808735
000330 30 87 99 bd 70 c6 df 3c 90 0e aa 3b 58 4b 05 bc
       -0.07496488 0.027316302 0.0051897243 -0.008135639
000340 23 11 96 bd 3c 8e 9c 3d a3 2f d5 3d 80 8f 5e 3b
       -0.07327487 0.076443166 0.104094766 0.0033960044
000350 b0 d3 c6 3d 24 38 14 bc 39 e5 46 bd 13 b9 1a 3d
       0.09708345 -0.009046588 -0.048558448 0.037774157
000360 a4 da 96 3d 54 73 ec bc 51 a5 0f 3e f3 c2 5c 3c
       0.07365921 -0.028863586 0.14027907 0.013474214
000370 43 14 fd 3d be 1c 98 3d 8d 56 1f bd dc d1 83 bd
       0.1235738 0.07427357 -0.0389009 -0.06436512
000380 a9 7a a3 3d c1 85 0a 3e a9 b8 6b 3d cc d2 ee bc
       0.0798238 0.13527586 0.057549153 -0.02915325
000390 af 4e da 3d 48 1f f7 3d 10 b3 f9 3c ec 61 58 3d
       0.10659539 0.12066513 0.030480891 0.05282776
0003a0 9c 6b 3d bd 40 10 b8 3a 45 08 c9 bd f6 5e 45 bd
       -0.046245202 0.0014042929 -0.098160304 -0.048186265
0003b0 db 38 a7 3d ec b0 0d 3e cf 6d 85 bc 21 3b a6 bc
       0.08165141 0.13837022 -0.016287712 -0.020291867
0003c0 12 71 e4 bd 05 0d 5c bd 7c 9e be 3d 82 98 50 bd
       -0.11154379 -0.053723354 0.09307572 -0.050926693
0003d0 cd 2a 92 bc 90 c5 48 bd d8 d3 a6 3d f8 cb 6b bd
       -0.017842675 -0.049016535 0.08145875 -0.057567567
0003e0 00 c1 19 bd b2 94 80 3d 80 f7 af 3d 93 8f ec 3b
       -0.037537575 0.062783614 0.08592129 0.007219264
0003f0 b0 3e 5e 3d 6e e1 c1 bd 08 60 80 3d 6f ae f6 3c
       0.054259002 -0.094668254 0.062683165 0.030112473

encoder.3.bias f4 [32]
000000 9d 08 61 3d ec 5a 01 3e bf 70 82 3d 69 a5 ab bc
       0.054939855 0.1263234 0.06369161 -0.020952897
000010 40 bb 7a 3c ea ab 51 3c 30 18 b6 bc ee 08 4b bd
       0.015303433 0.012797335 -0.02222833 -0.049569063
000020 5f b4 fd 3d 1a b9 22 bd 2c 93 88 3c 06 93 2f bd
       0.12387919 -0.039727308 0.01667174 -0.04286482
000030 6d dd a3 bd 1b 0c ae ba ad 35 67 bd 7a 34 57 bd
       -0.08001218 -0.0013278754 -0.056447674 -0.05254028
000040 ad fb d2 3d 49 2e e3 bc 35 a8 8e 3d e3 62 21 bc
       0.103019096 -0.027732031 0.06965677 -0.009850237
000050 36 dc 86 3d b9 af 41 3d e8 a6 ff 3d 52 e6 c5 bd
       0.06584971 0.047286723 0.12483007 -0.09663071
000060 d0 b9 2b bd 6c 72 c4 bc 91 f7 ba bc f9 3c 71 3c
       -0.04192525 -0.023980342 -0.022823127 0.01472401
000070 af d8 c7 3d d1 62 ba 3d 92 96 ea 3d a6 77 c5 bd
       0.09758126 0.09100879 0.114545 -0.09641962

encoder.6.weight f4 [16, 32, 3]
000000 d5 20 bb 3d d7 5c 3e bd 46 ec ae 3d b4 79 54 bb
       0.091371216 -0.046475258 0.08541159 -0.0032421174
000010 74 7a 02 3e dd 36 51 bd de 79 09 bc 52 b4 14 3e
       0.12742025 -0.051077712 -0.008390872 0.14521912
000020 dc d8 e3 3d 28 c1 2a bd d2 fb 8a bd 17 14 71 3d
       0.11125347 -0.041688114 -0.06786312 0.05885705
000030 86 ae af bd 60 ea 11 3c 4a 60 a1 3d f5 8d 11 3d
       -0.085782096 0.008905977 0.07879694 0.03553577
000040 58 13 ae 3d af 38 1e 3d 3b fa ff 3c 44 93 50 3d
       0.08499783 0.038628276 0.031247249 0.050921693
000050 ff 7f e2 3d 1c 3b 96 3c 42 dc 65 bc 8a 7e a5 3c
       0.110595696 0.018338732 -0.014029564 0.02020194
000060 da 33 07 3d de 94 f3 3d 67 c6 04 3e 21 35 d6 3c
       0.033008434 0.118936285 0.1296631 0.02614838
000070 d4 3d e5 3d 8d 4b 2d 3d c7 2e 43 bd d8 1b d2 bc
       0.111934334 0.04230838 -0.047652032 -0.025648043
000080 f8 b9 6c bd f0 ba c4 3c 1c d1 94 3d c4 34 c4 bd
       -0.05779454 0.02401492 0.07266447 -0.09580377
000090 bf 0e d5 bb d7 61 b4 bd 38 3d ce 3c a8 99 eb bc
       -0.006502002 -0.08807724 0.025175676 -0.028759792
0000a0 8e 1f 3c bd 35 7b b9 3d 26 b1 cb 3d 37 89 2b 3d
       -0.04592853 0.09056703 0.09945898 0.041878905
0000b0 f0 14 0b 39 fb 52 08 bd df 48 34 bd 90 5e 8c bd
       0.00013263873 -0.03328226 -0.044014808 -0.06853974
0000c0 ee 49 63 3c b4 8e 93 3d 8f 52 97 3d 2a 28 91 3d
       0.013872607 0.07204953 0.07388794 0.07087739
0000d0 df 35 a5 3c 1e 89 81 3d 99 4e b8 3d 7d 61 3f bc
       0.02016729 0.06324981 0.08999366 -0.011680958
0000e0 99 73 78 3d e1 1b 46 bd cc 07 0a 3e b8 0d cc b9
       0.060657118 -0.04836643 0.13479537 -0.00038920133
0000f0 02 52 6c 3b af 27 90 bc 75 80 aa 3d bc a3 97 bd
       0.0036059623 -0.017597048 0.083252825 -0.07404277
000100 7f 30 73 bd 83 8f 69 3c 03 1d be 3c 12 b0 6b 3c
       -0.05937242 0.014255407 0.023207193 0.01438524
000110 11 b8 7d 3d c9 75 7d bd 4d 96 31 bd a9 6d cf bd
       0.061943118 -0.061879907 -0.04335623 -0.10128338
000120 d4 b5 a5 bd 5c d8 1f bd 98 0b 10 3d c0 ad 5f 3b
       -0.080913216 -0.039024696 0.035167307 0.0034130663
000130 ca 0c 30 bd 8c fe 8f bd ac d1 0f 3e 4a 32 de 3d
       -0.042980947 -0.07030973 0.14044827 0.108494356
000140 37 47 20 3d 0c 83 f2 bc 7e a0 ba 3d 02 cb 12 3e
       0.039130416 -0.029603504 0.09112643 0.14335254
000150 b6 2d f8 3d e2 7e 16 3d 32 79 bd 3d eb 51 0f 3d
       0.12118094 0.0367421 0.09251632 0.034990232
000160 7c 83 1f 3c 11 61 df 3d bd ad ad bc a5 08 d1 3d
       0.009735938 0.10907186 -0.021201009 0.10206727
000170 68 10 ad bb e2 59 a0 3d 4c cd 14 3d 4e bb 08 bd
       -0.005281497 0.07829644 0.0363286 -0.033381753
000180 ba 25 b4 3d 20 98 44 bd fa c5 aa 3d 92 1c 0a bd
       0.08796258 -0.04799664 0.08338542 -0.033718653
000190 29 28 85 bd 20 12 f7 3c 14 17 84 bc 60 36 87 bd
       -0.065018006 0.03016001 -0.016124286 -0.06602168
0001a0 0b 22 74 bd 14 b0 2b bd 48 68 be 3c 00 be 04 b9
       -0.05960278 -0.041915968 0.023243085 -0.00012659281
0001b0 28 24 d1 3c fa 0b 83 3d 48 07 6d 3d 76 95 94 3d
       0.025529936 0.06398769 0.057868272 0.0725507
0001c0 c4 40 da bc 14 3f bb 3d 1b a8 78 bd 27 8e 95 bd
       -0.02664221 0.091428906 -0.060707193 -0.07302504
0001d0 08 d6 ef 3c be 74 b7 3d c0 a5 c1 bc dc e4 b9 3d
       0.029276863 0.08957814 -0.023638606 0.090768546
0001e0 13 d1 b6 bd 00 2a 04 bc 18 5e 75 bd a4 13 96 3c
       -0.089265965 -0.008066654 -0.059904188 0.018319912
0001f0 7d d8 24 bd 94 c8 8a 3d 6b c4 56 bd d4 5e 7b 3d
       -0.04024552 0.067765385 -0.052433413 0.061369732
000200 a9 d2 2c bd ac 27 83 3d 91 9f 27 bd 48 67 b1 bd
       -0.04219309 0.06404051 -0.04092366 -0.086622775
000210 3a d8 af bd c0 45 cc 3b 6a 5c ce 3d d0 7d eb 3c
       -0.08586164 0.006233901 0.1007622 0.028746516
000220 04 8a da bc 28 b8 3c bc 94 ac b9 bd 26 59 a4 3d
       -0.02667714 -0.011518516 -0.0906612 0.08024816
000230 17 22 31 bd 8d 24 56 bd 80 b3 32 bc 2f 0a 43 bd
       -0.0432454 -0.05228095 -0.010907054 -0.047617134
000240 a4 df d3 bc 8c a5 11 bd 58 75 9a bc b8 67 f2 3c
       -0.025863476 -0.03555827 -0.018854782 0.029590473
000250 84 48 d8 bc 00 94 16 3d 6e 9a ac 3d 18 91 1f bd
       -0.026401766 0.036762238 0.084278926 -0.03895673
000260 98 7a ae bc 6c 30 2d 3d 9a 37 96 3d 16 0e 95 3d
       -0.021298692 0.042282507 0.07334824 0.07278077
000270 41 95 3f bd 30 ec 07 bd dc 8e 38 3d 86 e9 bd 3d
       -0.0467732 -0.03318423 0.045058116 0.09273057
000280 f4 bb 6b bd cf 19 72 bd d4 89 cc 3d cf 99 b6 bd
       -0.057552293 -0.059106644 0.09987226 -0.089160554
000290 ea ae a6 3d e6 92 b6 bd b6 6a af 3d 48 90 8d bc
       0.08138831 -0.089147374 0.08565275 -0.017280713
0002a0 cc 28 61 3d 00 b7 03 ba 34 6f d2 bc ec b0 53 bd
       0.054970548 -0.00050245225 -0.025687791 -0.051682398
0002b0 6c b1 03 3d 90 69 99 bc 04 d8 58 3d 39 e1 b3 bd
       0.032151625 -0.018727094 0.052940384 -0.08783192
0002c0 20 55 ab 3d b8 b3 88 bd 42 17 a1 bd 74 45 9e bd
       0.08365846 -0.06674904 -0.07865764 -0.07728091
0002d0 cc 14 3f bd 30 e8 b4 3d f0 23 b4 bb 14 f3 9a 3d
       -0.046650693 0.08833349 -0.005497448 0.07565895
0002e0 49 d7 32 bd 74 b5 5d 3d 88 0d a8 3d 0a 53 52 bd
       -0.043662343 0.054128125 0.08205706 -0.051348723
0002f0 80 89 a5 bc 98 81 05 3d a0 5c b6 bb b3 87 a8 bd
       -0.020207167 0.032594293 -0.005565241 -0.082290076
000300 97 5c 09 bd ff cd 80 3c c0 06 3c bb 14 fa 4a bc
       -0.033535566 0.015723227 -0.0028690547 -0.012388725
000310 ed 25 d4 ba 52 06 74 3d 76 85 e8 3d 68 81 e3 3d
       -0.0016185619 0.05957634 0.11353581 0.11108667
000320 5b 82 e0 3d 85 8b 37 bc df 14 b0 bd 42 9c 39 bd
       0.10962363 -0.011202698 -0.08597731 -0.045315035
000330 1c 61 92 bc 9c 69 90 3d 64 4c 51 3d c5 3a b4 3b
       -0.017868571 0.070513934 0.051098242 0.00550017
000340 e0 e2 2e 3c 62 a6 1c bd 32 de 78 bb 6c d4 08 bd
       0.010674208 -0.038244613 -0.0037974236 -0.033405706
000350 45 cc cd bc 03 df c6 3d d9 b0 bd bc c8 94 67 3d
       -0.025121817 0.09710505 -0.023155617 0.056538373
000360 d9 3f 74 bd 75 87 82 3d bc fb a6 3d 33 a8 a4 bb
       -0.059631202 0.06373493 0.08153483 -0.0050249337
000370 a6 34 65 3d 2a 2c bc 3d 09 b4 7c 3d 96 dd ad 3d
       0.055958413 0.09188111 0.061695132 0.0848953
000380 d7 2b 04 3a e0 bc 9f bd ae 93 84 3d 60 09 72 bc
       0.0005041933 -0.07799697 0.0647348 -0.014772743
000390 34 0c 59 3d 3a 2e 9d bd 13 d9 82 3d 73 e9 f3 3c
       0.052990153 -0.07674833 0.0638906 0.029774403
0003a0 91 08 2b bc 98 6a 0e 3d 1f e1 9b 3c ce 69 62 3d
       -0.010439054 0.034769624 0.019028245 0.055276684
0003b0 e9 ab 1e bd f4 4a 88 bd e6 6d 8a bd 94 d9 f0 3c
       -0.038738165 -0.06654921 -0.06759243 0.029400624
0003c0 2a d6 98 3d 11 52 47 3d 54 e5 ca 3d c0 34 34 3d
       0.074627236 0.04866225 0.09907022 0.04399562
0003d0 b2 1e 6a 3c b0 4c e3 3c bc 16 9b 3d 4f 1f f5 bc
       0.014289545 0.027746528 0.075726956 -0.029922156
0003e0 0e 7f b5 3d 2e 1c f1 3d 14 54 52 3c 1c 0e 76 3d
       0.088621244 0.11772953 0.012837429 0.06007205
0003f0 ac 7c cc 3d 57 d2 c1 3b b1 56 df 3d 56 2b 97 3d
       0.09984717 0.005914967 0.10905207 0.073813125

encoder.6.bias f4 [16]
000000 cc 18 c5 3d d2 59 55 bd a5 b2 c1 3c 74 fc fa 3c
       0.0962387 -0.052087612 0.023644755 0.030637957
000010 dd 2f c1 3d 08 9b 17 bd 50 26 ae 3d 40 fc 3f bb
       0.09432957 -0.037013084 0.08503401 -0.002929464
000020 aa 74 58 bd 28 78 fc bc 0d 9d 14 3d 00 03 4d bd
       -0.052845635 -0.030819014 0.036282588 -0.05005169
000030 84 db 8d 3d 5c 21 11 3d f2 80 23 bd 0e 15 01 3e
       0.06926635 0.035432205 -0.039917894 0.12605688

fc1.weight f4 [8, 400]
000000 9c 01 6f bd c6 34 ab bd 4a 37 95 bc 72 76 5e bd
       -0.058351144 -0.08359675 -0.01821484 -0.054312177
000010 e5 16 81 bd 42 6b e5 bb c2 32 42 bd c7 c2 80 bd
       -0.06303195 -0.0070013115 -0.047411688 -0.06287151
000020 fc 0f 5b bd bc 31 6a bc e1 5e 87 3b 7d c6 11 bd
       -0.05348204 -0.014294084 0.0041311835 -0.035589684
000030 78 5f 0f bc 10 34 d0 3b 2f a0 16 bd f4 69 7a bb
       -0.008750789 0.0063538626 -0.036773857 -0.0038210126
000040 8d 5d 8b bd 4a f7 86 bb 9b 86 10 bd fd 3d ec bc
       -0.06804953 -0.0041188346 -0.03528462 -0.028838152
000050 21 2f 7d bd 7e 72 93 bd b7 13 99 bd 9f 77 8c bd
       -0.061812524 -0.07199572 -0.074744634 -0.068587534
000060 eb 50 5b bc 5c 69 5e 3c 8e 92 ce 3c 3a eb c9 bc
       -0.013385992 0.013574924 0.025216367 -0.024648298
000070 40 d2 89 bb 27 53 3a 3d 40 7c 1b bc 8c d4 69 bc
       -0.004205972 0.045489457 -0.009490073 -0.0142718665
000080 50 d3 26 bb 9e 1c 02 bd 3b f6 3a 3d 2d b6 3e 3d
       -0.0025455542 -0.031765573 0.04564498 0.046560455
000090 cc 89 7a 3c 08 4f 08 bd c7 d8 db bc 12 b7 c7 3c
       0.015291642 -0.033278495 -0.026836766 0.024379287
0000a0 f3 ce bd bc 38 2c 02 bc 3c a7 88 bc 8c 6d 82 bc
       -0.02316997 -0.007945113 -0.016681306 -0.015921377
0000b0 80 7b 07 bd 3e 2a f2 3c 40 4b 46 ba 0a c5 45 bd
       -0.033076763 0.029561158 -0.0007564314 -0.048283614
0000c0 86 d5 14 bd c8 d6 05 3c bd bd b6 3c bc bf 90 3c
       -0.036336444 0.008168884 0.022307271 0.017669551
0000d0 d4 ba ef bb 83 16 f5 3c e2 1d 33 bd 16 d9 5c 3c
       -0.007315973 0.029917961 -0.04372967 0.013479492
0000e0 88 24 c4 ba f6 bf 0c bd bf b5 58 bd 72 e8 26 bd
       -0.00149645 -0.034362756 -0.0529077 -0.04074902
0000f0 3c 33 8b 3c 0d c2 91 ba cb 92 d9 3c d6 3b 0c bd
       0.016992204 -0.0011120454 0.026559254 -0.03423675
000100 bd 29 9b bd ae 23 24 bd 2b 16 fb 3b b1 4e 95 bd
       -0.0757632 -0.04007309 0.0076625547 -0.072904
000110 11 2d aa bd d2 9e 81 bd b2 21 6e bd ea 5a a6 bd
       -0.08309377 -0.06329121 -0.058137603 -0.08122809
000120 d2 b2 42 bd d6 81 35 bd 99 15 28 bd ed 36 30 bd
       -0.047533818 -0.044313274 -0.041036222 -0.04302113
000130 8d cc 63 bd d0 ec 1d bb 0a 82 d8 3c 53 4d 15 bd
       -0.055614997 -0.002409745 0.026429195 -0.036450695
000140 87 9f 1a 3c b5 e0 d4 ba ef d3 d1 bc 44 8d 02 3b
       0.009437448 -0.0016241284 -0.025613753 0.0019920627
000150 5a 5d 09 3c 0c df f9 bc 3b 97 8d bd ca 21 e0 bc
       0.008384073 -0.030501865 -0.069136105 -0.027359862
000160 93 03 80 bd 9a 56 94 3b a9 59 9b bc 2d 4f 6a bc
       -0.06250682 0.0045269253 -0.018963652 -0.014301104
000170 d9 4d 85 bc 6f 8d 8b bd 1a 99 8e 3c 51 15 53 bc
       -0.016272472 -0.06814086 0.017406989 -0.0128835
000180 1c 2c 5d bb a8 c5 9f b9 ce cc ad bc f4 20 a6 bd
       -0.0033748215 -0.0003047411 -0.021215823 -0.08111754
000190 3e 72 d0 ba 99 6a 44 bc 43 55 86 bd 4e c7 0a 3b
       -0.0015903187 -0.0119883055 -0.06559231 0.0021175924
0001a0 15 50 80 bd 22 1a 8a 3b 2b ce ee bc 7c a5 bc bc
       -0.062652744 0.004214541 -0.029151043 -0.023028128
0001b0 06 e2 1f bd 13 04 0f bb f5 5d 3f bd 9a 84 b1 bd
       -0.039033912 -0.0021822497 -0.046720464 -0.0866787
0001c0 a7 f4 95 bd 7a f8 92 bc 52 3f 77 3b 7c 53 b7 bc
       -0.07322054 -0.017940748 0.003772695 -0.022378676
0001d0 60 08 8c bd 7c 47 88 bc 62 57 46 bc 52 b6 ae bd
       -0.06837535 -0.016635649 -0.012105795 -0.085308686
0001e0 c1 35 88 bd 11 44 f2 bb e3 fb fa 3a ba cd fd bc
       -0.06650878 -0.007393368 0.0019148554 -0.030981887
0001f0 b9 7a 7f bd 20 e4 6a 3b 64 d1 61 3c fe e3 e7 3c
       -0.062372897 0.003584154 0.013782833 0.028306957
000200 73 5a 3c bd 97 a8 2f 3d 4f 2a 1b 3d 00 1e 06 3a
       -0.045984697 0.04288539 0.037882145 0.00051161647
000210 c0 19 5e bc 88 d4 46 bc 42 cf d6 3c 68 19 08 bc
       -0.013555944 -0.012135632 0.026221875 -0.008306839
000220 03 f9 fe bc c8 00 28 bd 1b e5 16 bd e0 18 25 bb
       -0.031124597 -0.04101637 -0.036839586 -0.0025191829
000230 60 2e 83 bc 83 67 21 3d af 64 37 bd 80 36 1b 3a
       -0.016013324 0.039405357 -0.044773754 0.0005920902
000240 5c ef 7f 3c 54 c3 3e bc a3 bf 35 3d 60 a9 c2 bc
       0.015621033 -0.01164325 0.044372212 -0.023762405
000250 51 0c 03 3d b0 4e 71 bb 9d a5 b2 bd 0e 27 48 3a
       0.031994168 -0.0036820583 -0.087229945 0.0007635214
000260 b0 7e 84 bd 0b 8b a3 bd f4 4f af bc 42 f6 82 3b
       -0.06469476 -0.07985505 -0.02140043 0.0039966414
000270 76 df 85 bd e9 4a cf ba 89 c0 84 bc 4d b3 91 bd
       -0.065367624 -0.0015815172 -0.01620509 -0.07114277
000280 13 07 ba bc 2b fb a1 bd 1f af 67 3c 51 8c a2 bd
       -0.022708451 -0.079092346 0.014140873 -0.079369195
000290 09 4d 42 bd 39 37 b3 bd 67 05 ae bc 57 96 ab bd
       -0.047436748 -0.08750767 -0.02124281 -0.083782844
0002a0 14 6e ed 3b 8f 0e 68 bd 93 4e 98 bd 5e 4f aa bc
       0.0072457884 -0.05665451 -0.07436862 -0.020789798
0002b0 43 c4 26 bd dd 97 5c bd f0 0a 69 bd d0 c9 c1 bc
       -0.040714514 -0.053855766 -0.056895196 -0.023655802
0002c0 ec 7f 53 bc 18 7f b0 bb 60 6f db bc 40 6a 9f 3b
       -0.012908917 -0.0053862445 -0.026786506 0.004864961
0002d0 80 a1 a1 3b 42 7e c4 3c 54 e8 06 bc fe 45 b6 3c
       0.0049325824 0.023985986 -0.008234102 0.022250172
0002e0 cc 9d 16 bc 4c a8 82 bc 28 c6 ae bb 8e 95 01 bd
       -0.009192895 -0.01594939 -0.0053336807 -0.031636767
0002f0 62 db a5 3c d1 a0 10 3d 51 1a 2f 3d 00 61 f0 bb
       0.020246211 0.035309616 0.042749707 -0.007335782
000300 2e a9 80 3c dd 34 27 bd 82 ef 28 bd ea e0 87 bc
       0.015705671 -0.0408219 -0.041244037 -0.01658674
000310 d9 9f 0b 3d db 2c 22 3d ea 10 e4 bc 8a c9 c3 3c
       0.03408799 0.03959356 -0.027840097 0.023899812
000320 40 1e 41 3c 30 72 41 3b 9d e3 bb bc 76 d3 9f 3c
       0.011786997 0.0029517524 -0.022935683 0.019510012
000330 f4 b5 05 3c ec 1f 51 bc 40 50 e8 3a 62 e1 8e 3c
       0.008161057 -0.012763958 0.0017724112 0.017441455
000340 21 b1 4c 3d 61 2b 07 3d 02 8c b7 3c 75 06 22 3d
       0.04997361 0.033000354 0.022405628 0.03955694
000350 63 33 31 bd 43 45 48 bd d2 11 88 3c b0 d8 dd 3b
       -0.043261897 -0.048894178 0.01661006 0.006770216
000360 ae a8 e0 3c 4b 17 42 3d 80 43 50 bc 20 c8 53 bc
       0.027424183 0.047385495 -0.012711406 -0.0129261315
000370 ed 79 3f 3d 02 1f a6 3c 7a 1f 34 bd 66 a4 eb 3c
       0.046747137 0.020278458 -0.04397533 0.028764915
000380 15 d7 08 bd 7c 5f 24 bd f4 57 e0 bc 3a 7a 31 3d
       -0.033408243 -0.040130123 -0.02738569 0.043329455
000390 3b dd 74 3b 23 39 28 3d a3 2c 0b 3d ff c9 ee 3a
       0.003736331 0.041070115 0.033978116 0.0018218159
0003a0 c3 83 c4 bc 81 b8 9b 3b 18 6f cf bc 13 64 1c 3d
       -0.02398861 0.004752219 -0.025321528 0.038181376
0003b0 e4 62 d7 3c af d4 4d 3c 20 a2 9d bc 62 20 87 3c
       0.026292272 0.012562915 -0.019242346 0.016494934
0003c0 85 15 14 bd ea 2a b2 bc 30 af 84 bc 2b f8 16 bd
       -0.036153335 -0.021748979 -0.016196817 -0.036857765
0003d0 c4 f4 6a 3c ed 9c ec bc 33 b6 a8 bc 40 bb 33 ba
       0.014340583 -0.028883422 -0.020594692 -0.00068562105
0003e0 50 f3 d7 bb 77 ea ff bc 3d fb 47 bd 22 25 cb 3b
       -0.0065902844 -0.031239731 -0.048823584 0.006199495
0003f0 cf 79 82 bd 7e b1 05 bd ff b2 7b bd 16 89 d5 3c
       -0.063708894 -0.032639973 -0.06145 0.026066344

fc1.bias f4 [8]
000000 0a a5 46 bd 18 34 4b 3d 4f 4b d0 3c 67 d2 fb bc
       -0.048497237 0.049610227 0.025426535 -0.030739976
000010 52 a1 b2 bc 3d 59 5b 3c d1 38 83 bd 57 09 a1 3d
       -0.02180544 0.013387975 -0.06407321 0.078631096

fc2.weight f4 [400, 8]
000000 b1 f1 93 3e b2 30 3c be 1d d8 86 be 31 5d 9a bd
       0.28895333 -0.18377951 -0.26336756 -0.07537306
000010 46 67 5a 3e fc 52 3e be 29 10 06 3e 42 a4 62 3d
       0.21328458 -0.18586344 0.13092102 0.05533243
000020 f9 05 71 3e e0 c7 ae bd 6e 93 51 3e cd c0 8a 3e
       0.23537435 -0.08534217 0.20466396 0.2710022
000030 fe 7f 89 be f0 ca 1f 3e 99 9d 6d be ab 5e 8b 3e
       -0.26855463 0.15604758 -0.2320465 0.27220663
000040 ce a8 48 3e a0 fa 80 bd 31 e5 30 be 0f 0d 93 be
       0.19595644 -0.06297803 -0.1727493 -0.287209
000050 d9 f5 99 3e e5 aa 55 3e 48 17 00 3e 39 db 85 be
       0.3007038 0.20865972 0.12508881 -0.26143816
000060 69 5b 3f be 91 1a a4 3d 1e 52 0b bb 16 3c 81 be
       -0.18687214 0.0801288 -0.0021258662 -0.25241154
000070 c7 c6 85 3e 2e d4 3e be bc 1e 80 3e f0 61 12 b8
       0.26128218 -0.18635628 0.25023448 -3.4900324e-05
000080 8d 96 8e 3e 43 ea 48 be a3 f3 03 be 15 2e a0 3e
       0.27849236 -0.19620614 -0.12885909 0.31285158
000090 e5 5f 94 3d 62 db 97 be 4b ab 38 bd ca d4 75 be
       0.07244853 -0.29659563 -0.045085233 -0.24006954
0000a0 41 77 90 3e ee ba 8d be 7c 5e 01 bd 03 5f 1e 3e
       0.28215984 -0.2768168 -0.031584248 0.15465932
0000b0 d9 05 53 bd 3a fa 91 be 7c 7c 84 3d f2 19 24 be
       -0.05151925 -0.2851122 0.06469056 -0.16025522
0000c0 08 3e ba 3e 0c 78 9e 3e 2f b5 93 bd 72 37 a1 bd
       0.3637545 0.30950963 -0.072122924 -0.078719035
0000d0 d1 23 b9 3e e1 9a 7a 3d 7b bd 56 3c 30 f9 78 be
       0.36160138 0.06118286 0.013106699 -0.24313807
0000e0 8b 7c 81 be e5 22 31 be 66 68 9d 3b b3 8e 75 bd
       -0.2529033 -0.17298467 0.004803705 -0.05995054
0000f0 7f 3b f7 bc 8a e3 44 3e 59 58 62 3e 73 2d fc 3d
       -0.030179737 0.19227424 0.22104014 0.12313356
000100 e5 6e 76 be d2 4c 63 3e 76 90 ae 3d 67 9f 29 be
       -0.2406574 0.22197273 0.085236475 -0.16564713
000110 41 07 4c bd ee 8c 64 3e 78 41 19 be ec 34 50 3e
       -0.049811605 0.22319385 -0.1496638 0.20332688
000120 d7 9e 9a be c4 ad 7b be ea d8 3e be 08 7a 82 3e
       -0.3019931 -0.24578005 -0.18637434 0.25483727
000130 be 80 64 3e 9f 72 0b 3e 46 78 43 3e e8 00 3e be
       0.22314736 0.13617943 0.1908885 -0.18555033
000140 88 2f f7 bc 93 61 57 be 42 80 1a 3d bb d0 9d bd
       -0.030174032 -0.21033315 0.037719972 -0.07705828
000150 88 27 5e be 49 a0 32 3e 6d 32 bc 3d b8 9b a3 bc
       -0.21694767 0.17443956 0.091893055 -0.019971713
000160 26 ef 47 3e 3c f7 90 bd 6f 42 0c 3e 65 1b 7b 3e
       0.19524822 -0.07078406 0.13697217 0.24522169
000170 32 3a 1e be a9 b4 2b 3e 6c 2f 89 be dc 3a 30 3e
       -0.15451887 0.16768135 -0.26793993 0.17209953
000180 83 25 20 be ab 20 a8 be d9 96 79 3e f2 5b 76 3e
       -0.1563931 -0.32837424 0.2437395 0.24058512
000190 ed 96 b8 3e 73 53 86 be 2e 5d 82 be 48 06 91 3d
       0.36052647 -0.26235542 -0.25461715 0.07081276
0001a0 fd 17 85 3c 3c 8f 15 3e 4f ee c1 bd bc 69 b2 be
       0.01624679 0.14605421 -0.09469282 -0.34846294
0001b0 1e 5a 9e be 66 56 00 bc 66 fa 83 3d 33 c2 30 be
       -0.3092813 -0.007833099 0.06444244 -0.17261581
0001c0 4f b5 99 be c9 99 ae ba 56 da 23 3e f7 6e c0 be
       -0.3002114 -0.0013320978 0.16001257 -0.3758466
0001d0 32 b6 82 3e 76 7c 61 be 4f b8 1e 3e 9c 1c d0 bd
       0.2552963 -0.22020134 0.15499996 -0.10161707
0001e0 31 84 73 be a9 85 63 be 52 1d 17 bc 45 a5 96 be
       -0.23780896 -0.22218956 -0.009223299 -0.29422966
0001f0 d4 9a a0 bc 54 65 19 3d bc 3c 78 3d b4 8f b6 3e
       -0.019605078 0.03745015 0.060604796 0.35656512
000200 24 5d 3b 3e 64 b0 55 be 2b 67 a0 be 99 b0 b1 be
       0.18297249 -0.20868069 -0.3132871 -0.34705046
000210 33 42 2e be a0 fd 73 3e 07 c1 b1 be e3 6c 9c be
       -0.1701744 0.23827219 -0.3471758 -0.30551824
000220 21 22 95 bd 83 93 c5 3c 10 2e 04 3e cc 03 75 be
       -0.072819 0.02411819 0.12908196 -0.2392723
000230 a8 2f 9b 3e e0 92 96 bd 9d d7 1c be ad 11 c0 3e
       0.30309796 -0.07352233 -0.15316625 0.37513486
000240 94 23 82 3e 30 73 91 be 1d ba bb 3e b4 eb 9a bd
       0.2541777 -0.28408194 0.3666543 -0.07564488
000250 d5 33 81 be 9a 14 64 be 88 85 a7 be 5e 1d 5d 3e
       -0.25234857 -0.22273484 -0.32719064 0.21593234
000260 de 3a c9 bc 8e 20 cf 3d 0e f5 0a 3e 69 24 8e 3e
       -0.024564203 0.10113631 0.13570043 0.27762154
000270 87 63 3a 3e 7d 56 56 be 82 0d 9e be 1f a6 b5 3e
       0.18202029 -0.2093143 -0.3086968 0.35478303
000280 fb 19 c8 be ff 54 c9 3d f4 0c ad 3d 70 8a b5 be
       -0.39082322 0.09830665 0.08449736 -0.35457182
000290 ca 59 48 bd 43 e2 8b 3e 1b fe 6c 3e 76 67 97 3e
       -0.048913755 0.27321061 0.23143809 0.29571122
0002a0 76 89 8d be 5b 60 8f 3e 5d c9 e1 3d d0 82 56 bc
       -0.27643937 0.280032 0.11024735 -0.013092712
0002b0 55 02 a1 3e 08 f5 59 3e c2 9b 36 be e0 b1 f4 3d
       0.31447092 0.21284878 -0.17832854 0.119479895
0002c0 00 b7 93 bc 77 ac 98 be 99 5e 56 3d 7a 85 ad be
       -0.018031597 -0.2981908 0.05233631 -0.33890897
0002d0 a7 4a 8f 3d b8 f2 9f 3c dc e4 a0 3e b1 3f 55 3e
       0.06996661 0.019524917 0.31424606 0.20825078
0002e0 fd 17 09 3e 1b 3c 9a 3d ad be fc 3d e6 fd a2 bd
       0.13388057 0.075309955 0.12341056 -0.079585835
0002f0 c8 9c 4e be 97 2c 22 3e 9d a4 63 3e e8 b3 aa 3e
       -0.20176995 0.15837322 0.22230764 0.33340383
000300 54 be e9 bc f9 ca 52 be 78 89 c4 3d 04 41 10 bd
       -0.028533138 -0.2058524 0.095965326 -0.035218254
000310 c3 0f c1 be d2 4a bc 3e 22 c5 a8 bd aa 6a 53 3d
       -0.37707338 0.36775833 -0.08240725 0.051615395
000320 be 5a 92 be dd cc 92 ba c7 db 92 3e 5d a2 2a 3e
       -0.28584856 -0.001119997 0.28683302 0.16663499
000330 25 b6 11 3e dd dc 5c be 38 ce 80 be 98 21 31 be
       0.14229639 -0.21568628 -0.25157332 -0.17297971
000340 0e 54 a6 3e ca 3b 96 be 13 5a 57 3e 72 3f c9 3d
       0.32486004 -0.2934249 0.21030454 0.09826554
000350 24 3d e3 bd a3 bc ac 3d ec 47 02 3e 29 24 c2 be
       -0.11095646 0.08434417 0.12722749 -0.37918213
000360 c4 11 69 bd 02 60 cc bc 30 42 f4 3d cf be 30 3e
       -0.05690171 -0.024948124 0.11926687 0.17260288
000370 66 18 b6 3e 87 d6 90 be f3 4b 90 3e 44 e9 74 be
       0.3556549 -0.2828867 0.28182945 -0.23917109
000380 e7 2d 7f be 02 fc 4d 3e a7 2a 0b be 6f 19 28 3b
       -0.24919854 0.20115665 -0.1359049 0.0025649925
000390 33 f8 8f bd d2 c3 50 3d d7 a6 8b be 9d c5 54 bd
       -0.07029762 0.050968 -0.27275726 -0.05194627
0003a0 b1 06 96 3c 27 26 0e 3c 87 52 a4 3d 53 2f 1d 3e
       0.018313738 0.008676088 0.08023553 0.15350084
0003b0 d2 40 79 be 71 ca bb be fb 5d 9f be fd ee 84 be
       -0.24341133 -0.36677888 -0.3112639 -0.25963584
0003c0 46 21 0b bd 9b 8b 9c bd 62 cb 9e be 5d 9d 3c 3d
       -0.03396728 -0.07643815 -0.31014544 0.04604851
0003d0 e4 55 52 3e e4 ae 73 bd fc d1 04 3e 61 55 8d 3e
       0.20540577 -0.05949296 0.12970728 0.276042
0003e0 da 54 3a be 08 dc 0c 3e 55 c3 53 be 4c f1 9d bd
       -0.18196431 0.1375581 -0.20679982 -0.07712039
0003f0 ad eb 06 3e 9b ff 6b bd 29 9b 7c bb 5c 91 ba 3d
       0.1317584 -0.05761681 -0.003854463 0.09109756

fc2.bias f4 [400]
000000 20 df 8e 3e 8e 8c 24 be 5a 45 2b 3e 33 ab 97 be
       0.27904606 -0.16069242 0.16725674 -0.29622802
000010 fd 34 41 be ff fb 49 be 74 3f b7 bd d5 50 ce bc
       -0.1886787 -0.19725035 -0.089476496 -0.025185028
000020 a4 04 93 3e 79 c7 7c be f0 e8 cd bc b5 1a 4c 3e
       0.28714478 -0.24685468 -0.025135487 0.19932063
000030 a0 99 40 3d 0b 7b 3f 3e b1 8b 63 3e e5 58 9a 3e
       0.04702151 0.18699281 0.22221257 0.30145946
000040 20 c7 38 3e cb a7 5c 3c 87 1c 9f 3e 66 ed c9 3e
       0.1804471 0.013467739 0.31076452 0.39438933
000050 33 7c 6f 3e b7 b8 c8 3d 66 21 84 be 6a 47 b7 bd
       0.23387222 0.098008566 -0.2580673 -0.08949168
000060 c6 dc c0 3c 89 53 20 be 73 71 7f 3e db cf 73 3e
       0.023542773 -0.15656866 0.24945621 0.2380976
000070 62 89 18 be 6c 74 bb be 84 c8 93 be ba 87 1d bd
       -0.14896157 -0.3661226 -0.2886392 -0.038459517
000080 04 4c d1 bd 4d 9c c2 be 48 7c 86 be a7 c9 48 3e
       -0.10219577 -0.38009873 -0.26266694 0.19608174
000090 20 35 b5 3d d9 d0 98 be c5 0c 1e be ae 73 76 bc
       0.088480234 -0.29846838 -0.15434559 -0.015042229
0000a0 c9 48 5b bd 71 43 6d 3e 62 35 8e 3d a3 b2 1a bd
       -0.05353621 0.23170258 0.06943776 -0.037768018
0000b0 01 1d 9c 3d 60 c1 4f be 14 be 66 bd 1e de 58 bd
       0.076227196 -0.2028861 -0.056333616 -0.052946202
0000c0 4e 28 13 be de 7d ba 3c 8f 6c 71 3c b3 f9 44 bd
       -0.14370844 0.022765096 0.014735355 -0.048089694
0000d0 ae 54 95 be 99 f0 17 be 23 7c a5 be d5 7d 24 bc
       -0.29166168 -0.14837874 -0.3232127 -0.010039766
0000e0 6e 58 da bd 03 11 4d 3d a4 8d da bd 0d 59 77 3e
       -0.10661398 0.05006505 -0.10671547 0.24155064
0000f0 af cd 20 be 0b 61 b2 be 5a 52 06 be e5 cc 75 3e
       -0.15703462 -0.34839663 -0.13117352 0.24003942
000100 3b e9 9f 3e a7 3d 65 3d 0e f0 cc bd 12 13 9b be
       0.31232628 0.055967 -0.10006724 -0.30287987
000110 e9 84 3c 3d df 94 3e 3e 3f c5 0c 3d 9f a4 a8 3d
       0.04602519 0.18611477 0.034367796 0.08234524
000120 27 48 91 be 5c 30 34 be 5a 90 2b 3d 1a 32 b7 3d
       -0.2837536 -0.17596573 0.04188571 0.08945103
000130 22 d9 1b be 6c c3 10 3e c3 ed ad bd ee 3c 9e be
       -0.15219548 0.14137048 -0.08492615 -0.3090586
000140 f2 69 ac be 38 8c 5e be b4 40 7b be c1 65 5f be
       -0.3367458 -0.21733177 -0.24536401 -0.2181616
000150 f8 51 17 be b5 47 88 3e fc 85 d7 bd bf 26 95 bd
       -0.14777362 0.26617208 -0.10523602 -0.07282781
000160 aa 60 95 3e de bb 08 3e d9 b4 0a be 0f 03 c5 3e
       0.2917531 0.13352916 -0.1354555 0.38478896
000170 4d 20 c8 3e 3e 6f d6 bd d3 7c 97 3e ed 82 73 be
       0.39087144 -0.104704365 0.2958742 -0.23780413
000180 b5 67 64 bc 34 36 9f 3c 82 a6 15 bd f2 a5 e3 3c
       -0.013940741 0.019435026 -0.036535747 0.02778909
000190 3f d4 fa bc 0e 08 18 3e 19 f5 03 3e 66 09 98 be
       -0.030618785 0.14846823 0.12886466 -0.2969467
0001a0 75 4e 0c 3c 27 fd 6a be de 08 64 be fd 0f 9c 3e
       0.0085636275 -0.22948132 -0.22269008 0.30480948
0001b0 49 37 bb bd f8 45 7e bd 37 3b 3e 3e 3a df a2 be
       -0.09141404 -0.062078446 0.18577276 -0.31810933
0001c0 ec aa 93 be 5b 25 5c 3d bf 84 27 be da db f2 3d
       -0.2884134 0.053746562 -0.16359232 0.118583396
0001d0 ce d9 a4 3e 3b 9f 60 3e 30 c4 90 3d 6a c0 3a bb
       0.32197422 0.21935742 0.0706867 -0.0028496035
0001e0 1f fe 9c 3d be ba 93 3e b5 b6 5c 3e b7 79 19 be
       0.07665657 0.2885341 0.21554072 -0.14987837
0001f0 8e d9 56 3e a0 c2 06 be eb 70 cc bd 46 33 c2 3d
       0.20981428 -0.13160181 -0.09982475 0.09482436
000200 c1 f6 09 3e 36 32 2e bd 24 5a 62 3d de 08 89 3e
       0.13473035 -0.042528354 0.055261746 0.26764578
000210 3e 09 90 3e a6 7a 0f 3d d6 b4 30 3d 1f 02 5c 3d
       0.2813205 0.035029076 0.04314121 0.05371296
000220 d5 17 ae 3d 57 42 5b be d4 b9 f9 3c 9d cb a2 3e
       0.08500639 -0.21412025 0.030484118 0.3179597
000230 5d bb 3b be 07 6e 18 3e 9d 3a 91 bc a6 40 2a be
       -0.18333192 0.14885722 -0.017728144 -0.16626224
000240 8d 46 8a 3e 7a 0d 16 3d 2b 94 95 3e 45 16 2d 3e
       0.2700695 0.036633946 0.29214606 0.16903026
000250 3a 3e 1b be 3c 0e ac be 93 59 93 3e 15 c8 af 3e
       -0.15160456 -0.3360461 0.28779277 0.34332338
000260 fd 91 81 be a5 a4 5a be 98 86 7e 3e 3e c4 53 3e
       -0.25306693 -0.2135187 0.24856031 0.20680329
000270 93 65 e7 bd 23 7b 84 3d 5e 97 85 be 46 fc 84 3d
       -0.112986706 0.06468799 -0.26092046 0.0649343
000280 c2 5e a5 3e ea b5 69 3e 69 56 99 bd 50 d7 2d bd
       0.32298857 0.22823301 -0.074871846 -0.042441666
000290 38 75 a0 3e 53 87 93 be 71 03 2e 3e aa 0e 97 3c
       0.3133943 -0.28814182 0.169935 0.01843961
0002a0 a3 0e b1 bd a1 72 88 3e 12 e6 2a 3e b8 1b 9d be
       -0.0864537 0.26649955 0.16689327 -0.3068521
0002b0 11 d3 a1 bd ca ba 61 3e 93 e3 3e 3e ff e6 6a be
       -0.07901586 0.2204391 0.186415 -0.2293968
0002c0 8b a3 04 3e 34 82 27 3e 04 a5 9d 3d f2 78 2c 3e
       0.12953012 0.16358262 0.0769749 0.16843012
0002d0 49 a1 36 bd a8 32 61 3e f2 d8 b8 bd 5b 05 13 bb
       -0.044587407 0.2199198 -0.09025754 -0.0022433612
0002e0 2f 19 bc 3e 53 5f 15 3e d6 51 73 3e 2d 86 1d be
       0.36737964 0.14587145 0.23761687 -0.15383215
0002f0 4d a1 4c be 40 a1 84 be 0b a4 1a be 0b d4 85 3d
       -0.19983406 -0.25904274 -0.1510164 0.065345846
000300 c3 0c 47 bc 43 46 db 3d c5 ec 36 be ff c4 86 3e
       -0.012149039 0.10706761 -0.17863758 0.2632217
000310 03 58 90 bc c2 04 d2 bd b7 30 1d be 70 ac 6a bb
       -0.017620092 -0.10254814 -0.15350614 -0.0035808347
000320 df 2c 4b bc f1 d6 7e 3e fe 3d bf 3e d7 82 2d be
       -0.012400835 0.24886681 0.37351984 -0.16944443
000330 e4 e0 54 be ed 9e 8b be 91 c5 4e bb 76 8b b7 3e
       -0.20788914 -0.27269688 -0.0031550864 0.35848588
000340 15 4a ed 3c 55 6a 2e bc cd a2 d2 3d 9e 2d b9 3e
       0.02896599 -0.010645469 0.10284958 0.36167616
000350 40 df ac 3d af 2f 98 bd f4 51 b1 be c7 6a 96 bd
       0.08441019 -0.0743097 -0.34632838 -0.07344585
000360 7b 6f 85 be 79 65 02 be 44 f7 1f 3e e3 4f 9b bd
       -0.26061615 -0.12734021 0.15621668 -0.075835966
000370 32 72 58 be 91 7c 26 3e cf db cb 3d 4b c9 13 be
       -0.21137312 0.16258456 0.099540345 -0.14432256
000380 87 68 a6 be 95 94 22 3e 12 64 88 3e f7 c7 8b bd
       -0.32501623 0.15876992 0.26638848 -0.0682525
000390 ad c2 60 be de 8d a2 3e 9a 5f 80 be d5 7d a3 3e
       -0.21949263 0.3174886 -0.25072938 0.3193194
0003a0 fc 5b da bd db a8 63 3b fd ef 9a 3e 01 64 ae 3e
       -0.10662076 0.0034738097 0.30261222 0.34060672
0003b0 a1 6b 50 3e 30 7f 96 be b1 c8 bf be ce 23 24 3e
       0.20353557 -0.2939391 -0.37457803 0.16029283
0003c0 f4 07 f2 3d 65 40 8f 3e 88 33 31 3e af 87 c5 be
       0.11817923 0.27978817 0.17304814 -0.3858008
0003d0 33 f0 26 bd 38 63 79 be d9 65 25 be bb 31 6e 3e
       -0.040756416 -0.24354255 -0.16152133 0.23261158
0003e0 4f ed 9b bd bf 2b 3d 3e 70 f5 c2 bd 37 c9 de bd
       -0.076136224 0.18473719 -0.0951947 -0.108782224
0003f0 2b a7 48 3e d7 a5 2f bb 8f 69 95 3d b3 7a a4 3e
       0.1959502 -0.002680173 0.07295524 0.32124862

decoder.0.weight f4 [16, 32, 3]
000000 99 c2 81 3c 5e 88 c9 3d b1 39 5f 3a 19 f4 8d bc
       0.015839862 0.09840463 0.00085153716 -0.017328309
000010 54 80 26 bd 5e 13 d5 3d c6 e1 a0 3d d5 ed b8 3c
       -0.040649727 0.104040846 0.07855563 0.022574345
000020 a6 18 8f bd eb 66 e7 bd cd 6d a2 bd cf 4d 4a bd
       -0.06987123 -0.11298927 -0.07931099 -0.04939061
000030 89 02 71 3d f2 fa 33 bd 2a 54 a0 3d 39 ef 19 3d
       0.05884031 -0.043940492 0.07828553 0.037581656
000040 a4 a9 56 bd 8d 50 e8 3d 29 cf c6 bd 85 bc f0 3c
       -0.052407876 0.11343489 -0.097074814 0.029386768
000050 0a ab 23 bd 44 be 22 3d c4 88 ce 3c 67 8d b5 3c
       -0.039958037 0.039732233 0.0252117 0.022162152
000060 39 25 14 3d ce b7 c6 bd 0d a2 04 3d 7e 60 e1 bb
       0.03616831 -0.09703027 0.032381106 -0.006877958
000070 99 0e 09 be 68 e7 4e 3c a2 f4 52 bd f5 66 00 3e
       -0.13384475 0.012628414 -0.05150283 0.12539275
000080 c1 2d d5 3c 5b 1a 0a 3e f8 51 d6 3d 86 02 69 bd
       0.026022794 0.13486616 0.10464853 -0.056887172
000090 70 47 8e 3d f9 fb f9 3c 72 2a 27 bd cc bf 17 3d
       0.06947219 0.030515658 -0.040811963 0.037048146
0000a0 7a 25 60 bd 54 cb 87 bc 52 b0 83 3d c2 e7 09 3d
       -0.05472324 -0.016576447 0.06430115 0.033668287
0000b0 f4 e7 bc bd f4 ce ea 3d dc 75 12 3e 2b ca 0e 3e
       -0.09223929 0.114652544 0.14302772 0.13944308
0000c0 db 51 a5 bc 77 db dd bc 11 53 a5 bd f7 5b 5b 3d
       -0.020180633 -0.027082188 -0.08072484 0.0535545
0000d0 ec 51 e0 3d ec eb 9f bd 7d 22 00 be 3b e2 9b bd
       0.10953125 -0.078086704 -0.12513156 -0.076115094
0000e0 36 2a 86 bb 97 51 98 3c 57 bd a4 bc 3b 4b 15 bd
       -0.0040943874 0.018593593 -0.020109816 -0.0364487
0000f0 e1 87 4c bd e7 90 bc bd 3b 62 95 3d 34 96 a5 bc
       -0.04993427 -0.092073254 0.072941266 -0.020213224
000100 9a b8 a3 bd d9 2e c4 bd 70 a3 83 3d a7 07 b8 3d
       -0.07994194 -0.09579248 0.064276576 0.089858346
000110 16 87 8c 3d 87 ab 7e 3c f2 1f e1 3d 34 63 a5 3d
       0.06861703 0.015543825 0.10992421 0.08075562
000120 67 d1 cb bc 21 f2 34 bd 5a f5 f6 bc 5f f1 54 3d
       -0.024880124 -0.044176225 -0.03014629 0.051988002
000130 42 95 dc 3d 44 85 36 bc b8 1d 5a 3d d5 1d ba 3d
       0.10770656 -0.011140171 0.053251 0.09087721
000140 e8 55 e5 3c 59 94 4a 3d 3f 09 86 3d 00 ea 08 3d
       0.027995065 0.04945788 0.06544732 0.033426285
000150 b5 ee e3 bc 28 c6 8d 3d 36 82 d4 3d 21 ca 95 3c
       -0.027823785 0.06922561 0.10376398 0.01828486
000160 62 b7 2b bd a3 81 48 bc 2e 8c 9f 3d c1 8f bc 3d
       -0.041922934 -0.012237939 0.07790409 0.092071064
000170 85 46 db 3d f2 7a 6e bd 47 b4 dd 3c e3 bf 72 ba
       0.1070681 -0.05822272 0.027063502 -0.0009260161
000180 8c e6 5d 3d 55 00 e5 3d c3 9d d4 3b 20 76 4b 3d
       0.054174945 0.11181704 0.006488533 0.0496732
000190 7c 64 c6 bd 37 e9 2d bc 89 fa 03 3d c5 94 80 3d
       -0.096871346 -0.010614685 0.03222135 0.062783755
0001a0 a2 67 7e 3d a7 fd 45 3d cd dd 70 bd 02 18 a7 3d
       0.06211055 0.048337605 -0.058805276 0.08158876
0001b0 a1 b5 88 3a b3 9a 44 3d 4e da c9 3d c1 da 2e bd
       0.0010430106 0.047999095 0.098560914 -0.04268909
0001c0 9c 86 0d 3d 6c 29 11 bc d3 78 a6 bd be 5f af bd
       0.0345522 -0.008859973 -0.08128514 -0.08563183
0001d0 e5 78 55 bd 3a b2 aa bd 9f d7 8d 3d ca 76 be bc
       -0.052117247 -0.08334775 0.06925892 -0.023250002
0001e0 07 c7 d5 bd 51 2b 10 bd e6 1a f1 3c d2 43 f7 bd
       -0.10438352 -0.03519756 0.029431771 -0.120734826
0001f0 1f 7c 49 bd 3d 4c 0c be fb 51 3d 3d 40 91 24 bd
       -0.049190637 -0.13700958 0.04622076 -0.040177584
000200 25 14 9c 3c 4b 1c bf 3d ef a0 23 bd 40 fc cd 3d
       0.019052574 0.09331568 -0.0399484 0.100578785
000210 c4 d9 4f 3b 03 87 88 3d 08 54 96 bd bc ec e1 bd
       0.0031715492 0.066663764 -0.073402464 -0.110314816
000220 79 5e eb bd 94 21 dd 3a f0 3a 6d bd 4c 10 8b 3d
       -0.114926286 0.0016870969 -0.057917535 0.06790218
000230 c6 5e 86 3c 36 29 97 bc 8b bf b2 3d 3e 4c 9e 3d
       0.016402613 -0.018452268 0.0872794 0.07729386
000240 a4 10 b9 3d d4 4e 26 3d 51 d3 94 bd 47 37 d0 3b
       0.09036377 0.04060252 -0.07266868 0.006354246
000250 63 c0 d5 bd a7 48 89 bc 57 30 d7 bd 5f e3 3a bc
       -0.104370855 -0.016758276 -0.10507267 -0.011406749
000260 1f e8 88 bd 36 4d aa 3c cb 3e 71 bd 7b 39 7e 3d
       -0.066848986 0.02078877 -0.058897775 0.062066536
000270 fa 01 8f 3d e7 26 b5 bd cc a8 94 3c e1 54 42 bd
       0.06982799 -0.08845311 0.018146895 -0.047444228
000280 9c 76 e3 bd 00 da e2 bd 28 ea 05 bc 10 3c 8d 3c
       -0.11106607 -0.110767365 -0.008173503 0.017240554
000290 f1 84 1f 3d 1c 1c d3 bd 07 1f d5 3d 3b 4e 6d bd
       0.038945142 -0.10308096 0.104063086 -0.057935935
0002a0 48 d9 1d 3d c7 cc 21 bc d9 70 14 3d 10 9a 8f bd
       0.038537294 -0.009875483 0.036240432 -0.07011807
0002b0 0d 35 0f bc 93 0b fc b9 06 3c 96 bd 9d ed 8d bd
       -0.008740676 -0.0004807381 -0.07335667 -0.06930087
0002c0 cd 3a dc bd cb c5 4e bd 4c 6c be bd f1 b6 f4 bc
       -0.10753403 -0.0504816 -0.09298 -0.02987239
0002d0 fe bb 61 3d 5e 06 90 3c f0 9d e5 bc 54 e0 fd 39
       0.055110924 0.017581161 -0.028029412 0.00048423058
0002e0 4d fa 94 3c 9d 9b 23 3d 45 47 6b 3d 06 48 16 3c
       0.018185759 0.039943326 0.057441015 0.009172445
0002f0 ea 2e e7 3c ed 7e a4 bd 6e 4f 07 be 4f 88 8f bd
       0.028220613 -0.08032022 -0.13213894 -0.07008421
000300 4a d4 c8 3d 50 81 f5 3d cd 4a 91 3d 8b 8f 76 bc
       0.09806116 0.11987555 0.07094345 -0.015048872
000310 a9 4f 6e bd bf b0 bb bd d2 94 73 3c 23 8e 69 bc
       -0.05818144 -0.09164571 0.0148670245 -0.014255079
000320 49 9f 22 ba ad a3 7b bd 28 20 83 bd df 33 b8 bd
       -0.0006203545 -0.06143539 -0.06402618 -0.089942686
000330 ac d9 01 3d e4 e4 28 bc 68 7c 9c 3d e0 5b ad bd
       0.03170173 -0.010308478 0.07640916 -0.084647894
000340 c6 6f 71 3d de e6 09 3e 3a 3b 88 3c 9e f4 a4 3d
       0.058944486 0.13466975 0.016629804 0.080544695
000350 ab d4 e1 bc 64 d6 6c bd c2 39 b4 bb 9d f4 b2 bb
       -0.027567228 -0.057821646 -0.0055000493 -0.005461289
000360 f4 69 a4 bc 2e bb 60 bd da 00 8f 3d 5e d3 78 bd
       -0.020070054 -0.05486601 0.06982584 -0.06074845
000370 ee b4 0a 3e aa b0 87 3c 3c a7 14 3d bd 6e aa 3d
       0.13545582 0.016563732 0.0362923 0.08321903
000380 b7 6e 60 3d 9c 33 5c bd 33 6c 57 bd 10 bc 21 ba
       0.054793086 -0.053760156 -0.05259342 -0.0006169686
000390 7d 8b bf bd 44 cf 4f 3b a3 f5 f7 bd 82 3b 6d bd
       -0.09352777 0.0031709233 -0.12107398 -0.05791808
0003a0 47 ad 96 3a ff 94 2f 3d 55 b5 81 3d 0e 14 81 3d
       0.0011495732 0.042866703 0.063334145 0.06302653
0003b0 a9 d8 10 3d 6b 39 01 3e 28 8b c0 3c aa d0 d3 3d
       0.035362873 0.1261956 0.023503855 0.10342534
0003c0 54 43 a3 bd c4 ba e6 3d 11 a4 29 bd 20 d2 d0 3d
       -0.07971826 0.112660915 -0.04141623 0.10196328
0003d0 14 0a 7a 3d a8 31 0b 3d 0f 54 78 bc 61 9f de bd
       0.061044767 0.033982903 -0.01515676 -0.10870243
0003e0 67 f4 74 bc c8 6c ae bd 6f 08 3d bc 27 65 72 3c
       -0.014950848 -0.08516842 -0.011537655 0.014794624
0003f0 15 d9 24 bd e0 0e 48 bc 01 8f 47 3d ff ad d2 bd
       -0.040246088 -0.012210578 0.048720364 -0.10287093

decoder.0.bias f4 [32]
000000 21 f5 ee bc 72 f0 49 3d 8f e7 22 bd 06 bc 89 3d
       -0.029169621 0.049301572 -0.039771613 0.06725316
000010 1b 49 05 3d f7 98 6a 3c ca d2 1a bd 37 7b bc bc
       0.032540422 0.014318696 -0.03779868 -0.023007972
000020 55 a3 ab bd 27 bb 50 3c 6a 7d c6 3d 7d d4 79 3c
       -0.083807625 0.012739933 0.096918896 0.015248415
000030 3d ec 0b bc 8c 7b 74 3c 75 ec c5 bb 89 19 b3 3c
       -0.00854021 0.014922034 -0.0060401508 0.021862762
000040 31 e1 9a 3d dc 2a a6 bc bd 5f 90 3d 63 c8 f1 bc
       0.07562483 -0.020284109 0.07049511 -0.029514497
000050 30 b5 0a bd f8 ab ac 3d 9f 63 73 bd d3 84 bb 3c
       -0.0338642 0.08431238 -0.059421178 0.022890484
000060 d8 a6 fa 3c 53 1c 40 3d ea f6 45 bd ce 6a 10 bc
       0.030597135 0.046902012 -0.04833118 -0.008814527
000070 f3 26 e8 3d 5d bd 79 bd d0 2b 98 3d 91 3f ee 3d
       0.11335554 -0.060971607 0.074302316 0.11633218
