data/models/autoencoder_epoch_40.pth (torch, 118024 bytes, 43 tensors)

encoder.0.weight f4 [16, 1, 3]
000000 34 78 e6 3e c5 dd f0 3e bd 79 13 be 30 fe 08 3f
       0.45013583 0.47044197 -0.14401908 0.5351286
000010 95 de f9 bd 55 cc f7 3d b0 35 8c be fe 48 b1 3e
       -0.12200657 0.1209952 -0.2738471 0.34626
000020 c3 22 04 3f 52 0c db be 51 c0 fe 3e 5f 8f d4 3d
       0.5161554 -0.42782837 0.497561 0.10378908
000030 d5 71 df 3e 8b d5 8b 3d 01 76 89 3e a0 e5 b0 bd
       0.43641534 0.068278395 0.26847842 -0.086375475
000040 48 65 e1 3e ad d4 a4 3d e3 3d 8e be 57 51 1f 3e
       0.44022584 0.08048377 -0.2778159 0.15558372
000050 49 e3 83 be aa 10 9f bd b5 b4 7a be 8f cd be 3e
       -0.25759342 -0.0776685 -0.24482997 0.37266204
000060 6a 85 e5 be 1b 17 8c be 62 91 2e be 98 af b3 be
       -0.4482835 -0.27361378 -0.17047647 -0.35094905
000070 c1 64 6e 3d cf 07 11 bf 52 01 02 3f 65 d3 00 bf
       0.058201555 -0.5665254 0.50783265 -0.5032256
000080 4f ab dd 3e 9e b9 c2 3d a7 d4 3e be c5 3c b7 3e
       0.4329476 0.0950806 -0.18635808 0.3578855
000090 e4 fe c6 3d 45 27 eb 3e 3a f7 64 3d 79 39 3f be
       0.09716585 0.45928398 0.055899836 -0.18674268
0000a0 2e dd 24 3e 76 4e 1a be 30 15 81 3e 4b 9d 01 3f
       0.16099998 -0.15068993 0.25211477 0.50630635
0000b0 ae 2e a6 3e dc c1 83 be c2 1d a8 3e 61 75 c9 3d
       0.3245749 -0.2573384 0.32835203 0.098368414

encoder.0.bias f4 [16]
000000 b6 5e 97 3e 86 8e b2 be 32 99 12 bf a3 48 5e be
       0.29564446 -0.34874362 -0.5726501 -0.21707396
000010 d1 e2 e3 be 9a 2b f1 3e d9 1a 2b 3e eb c8 6e 3e
       -0.44508985 0.47103578 0.1670946 0.23318832
000020 91 23 3f 3e 9e a0 e0 bb 4c 50 e5 3e 91 90 d0 be
       0.18665911 -0.0068550846 0.44787824 -0.40735295
000030 bc 2d 25 3d bf 00 c7 be 8d fc 39 3e 7d 34 51 be
       0.04032682 -0.38867757 0.18162747 -0.20430179

encoder.1.weight f4 [16]
000000 dc 9f 80 3f 04 45 7f 3f 81 25 80 3f b4 ec 80 3f
       1.0048785 0.99714684 1.0011445 1.0072236
000010 79 cc 7f 3f ae 75 80 3f 4c 83 80 3f a2 77 7f 3f
       0.99921376 1.0035913 1.0040069 0.9979192
000020 45 cc 7e 3f 27 1c 80 3f d0 8b 80 3f f2 c1 7e 3f
       0.9953044 1.0008591 1.0042667 0.9951469
000030 ae e1 7e 3f 7e 90 80 3f d5 d7 7f 3f df 2a 7d 3f
       0.9956311 1.0044096 0.9993871 0.9889354

encoder.1.bias f4 [16]
000000 0d 76 a4 3b 58 25 3e bb d7 c8 c4 3a c6 9d 84 3b
       0.0050189556 -0.0029013958 0.0015013468 0.0040471284
000010 08 a0 39 3a 86 36 26 3a 93 77 85 3b 08 66 21 bb
       0.00070810365 0.0006340522 0.0040730922 -0.0024627466
000020 56 82 a1 bb 3e 7a c2 39 98 cf 99 3b 56 4e a5 bb
       -0.0049288673 0.0003709364 0.0046939366 -0.0050447388
000030 6d 8a 8f bb a4 c3 a6 3b 68 bf 91 ba 86 64 37 bc
       -0.0043805153 0.00508924 -0.0011119666 -0.0111934

encoder.1.running_mean f4 [16]
000000 07 51 97 3e 5b 39 ad be 97 18 11 bf 73 78 5f be
       0.29554006 -0.3383282 -0.56678146 -0.21823291
000010 ac 3d de be 69 37 ed 3e 46 eb 25 3e 44 dd 6a 3e
       -0.43406427 0.46331337 0.16203031 0.22935969
000020 f9 a0 37 3e 93 13 28 bc 32 95 e4 3e 4b ff cc be
       0.179325 -0.010258573 0.44645077 -0.40038523
000030 0b 2f 26 3d 54 15 c5 be d4 a4 39 3e 08 74 50 be
       0.040572207 -0.38492835 0.18129283 -0.20356762

encoder.1.running_var f4 [16]
000000 2c 65 19 3f 89 90 95 3e 09 9d bb 3e 7a 59 6e 3d
       0.5992 0.29211834 0.36643246 0.0581908
000010 9e 22 18 3f 71 07 51 3e b8 c7 1f 3e f6 26 95 3c
       0.5942782 0.20412995 0.1560353 0.018207055
000020 58 09 49 3f 8b 13 3b 3f c4 f0 52 3e 9a 65 ab 3d
       0.7852988 0.73076695 0.20599657 0.08368988
000030 e8 84 c3 3e 43 df 39 3d 1f 61 94 3f c3 ef 4a 3d
       0.38187337 0.045378935 1.1592139 0.04954506

encoder.3.weight f4 [32, 16, 3]
000000 3d 89 13 3d 34 a8 ab bc 42 a3 03 3e c2 fe bf bd
       0.036019552 -0.020954229 0.12855247 -0.09374763
000010 5f 11 c1 bd e6 3b 9e bd bf 12 f9 3d ae 6f 68 3d
       -0.094271414 -0.077262685 0.12161779 0.05674713
000020 6d 44 17 3e 12 61 02 be 64 fb 09 be 9d 32 d5 bd
       0.14772196 -0.12732342 -0.13474804 -0.10410044
000030 55 a5 d7 bd 8b 4e 8a 3d 9c dd 77 3d cd d4 e4 3d
       -0.105295815 0.06753262 0.060514078 0.11173401
000040 7b b7 86 bd 60 6f b7 bd 27 4d a5 3d 19 8e 72 bd
       -0.06577965 -0.0895679 0.08071356 -0.059217546
000050 76 50 a1 3d 2b e4 2d bd 89 c3 ba 3d 9e a2 d3 bd
       0.07876675 -0.042453926 0.091193266 -0.10333751
000060 22 ab 8c bd 80 96 27 3d d6 b0 b1 3c 5c bf 05 bd
       -0.068685785 0.040915012 0.021690767 -0.032653198
000070 38 64 a2 3d 9f dd b6 3d aa 2b e7 bd 77 12 af bd
       0.079292715 0.089289896 -0.11287625 -0.08548444
000080 d7 61 10 3e 63 14 69 bd 17 be 2c bd d1 f9 05 be
       0.14099823 -0.056904208 -0.04217347 -0.13083579
000090 7e 12 ba bd 0f 12 38 3d 05 8f 27 bc d4 25 ce bd
       -0.09085558 0.044939097 -0.01022697 -0.10065809
0000a0 4f dd f9 3b 81 05 dc bd ba ca 05 be a1 7d 90 bd
       0.007625259 -0.10743237 -0.13065615 -0.07055212
0000b0 eb a1 f0 bd 1b fe cc bd f4 75 1c 3e 3e bb 13 3d
       -0.117496334 -0.10009404 0.1527937 0.03606724
0000c0 5b 43 1d 3d ab cf 0f be 00 96 cd bd 1c ae 5d bd
       0.038394313 -0.14044063 -0.10038376 -0.05412112
0000d0 26 1e 87 3c 25 c6 07 be 4b d2 8b bd ae 0d bc bd
       0.016493868 -0.1325918 -0.068272196 -0.09182297
0000e0 1d ea a9 bb f9 db 74 bd ef 6f 6f bc 06 bd d3 bd
       -0.005185379 -0.059780095 -0.014614089 -0.10338788
0000f0 a1 5a d7 bd 98 58 b8 bd 6d 40 61 bd 86 c4 f5 bd
       -0.10515333 -0.09001273 -0.05499308 -0.120003745
000100 f7 8d ec 3d 8d 36 0c bd bb 3f 05 3e 87 65 50 3d
       0.11550515 -0.03423171 0.13012592 0.050878074
000110 44 df ee bd 31 28 c0 3d c4 d0 37 bd 90 7b 79 bd
       -0.11663678 0.09382666 -0.04487683 -0.060908854
000120 92 39 e9 bd 66 ed 0c be b9 07 40 3d c2 a9 d1 bc
       -0.11387934 -0.13762435 0.046882365 -0.025593642
000130 a9 0d 7e 3d 0a 26 e7 bd 7c 02 cf 3d a2 9c e5 bd
       0.062024746 -0.11286552 0.10107896 -0.11211516
000140 16 ee f9 bc 6c 31 c5 3c c1 ea 8c 3d 53 34 e3 3d
       -0.030509036 0.024071418 0.06880713 0.110939644
000150 26 6b 00 3e 75 f0 f5 bd f0 d0 fb 3c b2 f9 65 bd
       0.12540874 -0.12008754 0.030739278 -0.05614633
000160 59 b3 21 bc 91 d0 d1 bd 6b 66 00 3e aa 8f e4 bd
       -0.00986942 -0.10244859 0.1253907 -0.11160214
000170 50 8b 92 3d cd eb 36 3d e0 7d 2b 3d a6 40 ab bd
       0.07155478 0.04465847 0.04186809 -0.0836194
000180 c3 d1 08 3e f3 ea 0b 3d 0b fc a9 3c 73 8c ff bd
       0.13361268 0.034159612 0.020750066 -0.124779604
000190 25 0c 81 3d 5e 81 9f bc 1c 7a 82 bd 86 e6 00 3e
       0.063011445 -0.019470867 -0.06370947 0.12587938
0001a0 0f ba 0c 3d 05 a0 9e bd db 01 94 bd 9e 04 9b bb
       0.034357127 -0.07745365 -0.072269164 -0.004730775
0001b0 75 04 aa 3d 8c 09 0d bd ae 2e a4 bd 2f 8a 40 bd
       0.08301631 -0.034432933 -0.08016716 -0.047006782
0001c0 c2 93 d8 bd 89 ca 5b 3d 34 cc e0 3d b7 25 0d be
       -0.105750576 0.05365995 0.10976449 -0.13783918
0001d0 ed 52 00 3d 4a a4 9d 3d 1d d0 e3 3c 24 b0 49 bd
       0.031329084 0.07697351 0.027809197 -0.049240246
0001e0 d4 48 96 3d 02 59 97 3d 55 1f 54 3d 12 d2 df bc
       0.073381096 0.07390024 0.051787693 -0.027321849
0001f0 cd b2 24 bd 70 13 59 3c 8f 17 bd bc 46 9d 26 bd
       -0.04020958 0.013249263 -0.023082523 -0.04067733
000200 ef 6a c1 3d 74 7f 01 3e b6 28 43 bc 44 df f6 bc
       0.09444224 0.12646276 -0.011911562 -0.030135758
000210 2f 4e 94 3b 54 37 d0 bb 1d 12 17 3d be b6 1d 3d
       0.004525922 -0.006354252 0.03688251 0.038504355
000220 ee 3c 08 be 36 1b 63 bd 94 e6 fd 3d 68 c6 6f 3d
       -0.13304493 -0.055445872 0.12397495 0.058538824
000230 86 8c a3 bb 62 42 ad bd e3 0d b2 bd 0b 2a 02 be
       -0.004991117 -0.08459927 -0.08694055 -0.1271135
000240 77 2c 27 bd 40 33 55 3d 38 87 b6 3d 85 3f 95 3d
       -0.04081389 0.05205083 0.0891251 0.07287506
000250 f8 dd f8 bd dc ca b7 bd 97 56 87 bc 76 13 0a 3e
       -0.12151712 -0.08974239 -0.016520781 0.13483986
000260 f0 18 93 3c 27 c0 fe bc 61 25 5a 3d dc 23 6d bd
       0.017956227 -0.031097485 0.053258304 -0.057895526
000270 bf 8e b2 bd ef e2 dd 3d 42 69 8c bd ac ed b9 bc
       -0.08718633 0.108343 -0.06856014 -0.022696339
000280 9d f1 16 be 29 dd bf 3d ad 91 f7 3d 64 e0 81 3d
       -0.14740606 0.09368355 0.12088332 0.06341627
000290 e2 24 c8 bd e6 6b 0b be 8d 2d fb bd 2e 4a d6 3d
       -0.0977266 -0.13615379 -0.122645475 0.104633674
0002a0 37 7a a5 3d 37 c5 06 3e 1e e1 a0 3d 9f d6 44 3d
       0.08079951 0.13161169 0.07855438 0.04805624
0002b0 4b 30 ea 3b 95 d4 da bd 2b 85 f0 bd 67 ff 05 be
       0.0071468703 -0.10685078 -0.1174415 -0.1308571
0002c0 9d 0f 66 3d 2b 54 84 bd d8 03 eb bc bd 2a b0 bd
       0.056167234 -0.06461366 -0.028688356 -0.08601902
0002d0 54 3e a4 bc c4 fb d3 bd 7d 2e c7 bd fd 41 73 3d
       -0.020049252 -0.10350755 -0.09725664 0.059389103
0002e0 57 f3 00 bd 2e 75 bc 3d c6 17 24 bd c7 4f db bd
       -0.031482067 0.09202038 -0.040061735 -0.10708576
0002f0 64 a0 e8 bc 8b 6b 82 bd a5 98 4d bd 1c c0 0f be
       -0.028396793 -0.063681684 -0.0501944 -0.14038128
000300 e9 6f 98 3d f4 d7 c6 bd e0 46 9d 3d 91 68 72 3d
       0.0744322 -0.097091585 0.07679534 0.059181754
000310 5c 10 c6 3d e2 00 da bd 11 a4 c7 3d 80 25 82 bd
       0.09671089 -0.106447 0.0974809 -0.06354809
000320 af ce 6c 3d 48 51 04 3e b8 be 75 bc 8b 01 4e 3b
       0.057814296 0.12921631 -0.014999084 0.0031434025
000330 32 04 22 bd d5 bd ef bd 42 96 96 3d ce 30 19 be
       -0.039554782 -0.117061295 0.07352878 -0.14960024
000340 a1 98 c0 3d 19 e4 e5 3d 0a 28 04 3e 6b 2a 27 bd
       0.09404112 0.11225147 0.12905899 -0.040811937
000350 15 97 fb bd 0e d6 d5 3c 6c 42 ad 3d 64 b2 0e be
       -0.12284676 0.026103046 0.084599346 -0.13935238
000360 5f 75 24 bd 50 b7 bd bd 21 63 8a bc 2f aa a0 bd
       -0.040150996 -0.0926348 -0.016892971 -0.0784496
000370 39 7b 83 bd fd 1e 4d bd ca e9 12 be 65 d6 e7 3d
       -0.06419987 -0.05007838 -0.14346996 0.113201894
000380 49 43 00 3e ba 4d ed bc fa 7f 4f bc 13 ca 5f bd
       0.12525667 -0.028967727 -0.012664789 -0.054636072
000390 8d f4 0b be 27 a3 0b be 47 36 6d 3d 09 98 b1 bd
       -0.13667507 -0.13636456 0.05791309 -0.086715765
0003a0 38 f4 cc bd cd 2a 7e bc 1a cb 5e bd 19 f4 2e bd
       -0.100075185 -0.015513134 -0.05439291 -0.04271326
0003b0 6e cd 11 3c 41 5b 17 bd 4b 7a 36 bd f6 bf 84 bd
       0.008899076 -0.03695226 -0.04455022 -0.06481926
0003c0 9f 34 db bd f8 3d f9 3d d3 86 77 bd 2c 4c 47 3d
       -0.10703396 0.12170023 -0.060431313 0.048656628
0003d0 b1 f0 22 bd 10 09 15 3c c4 76 14 3e e2 7a 7f 3d
       -0.039780322 0.009096399 0.1449843 0.06237305
0003e0 83 c8 02 be 5a b8 8a 3d 36 37 06 3e a0 ec 10 3d
       -0.12771802 0.067734435 0.13106999 0.035381913
0003f0 0e 87 db 3d 1b 44 12 3e 29 f5 ca bc 3a 6e 25 3d
       0.10719119 0.14283793 -0.024775105 0.040388323

encoder.3.bias f4 [32]
000000 71 cb 02 be 6f 49 97 3d d2 5e 0b be 3d fd 8f bc
       -0.12772919 0.07387053 -0.1361039 -0.017576808
000010 e8 b6 16 3c 45 98 cf 3d 7a ff 56 bd 5a 11 33 3d
       0.009198882 0.10136465 -0.052489735 0.04371772
000020 ca 89 9c 3c 7d d5 bb 3d e7 93 1e 3c af bf 58 3d
       0.019108672 0.09171579 0.009678817 0.05291718
000030 e5 3d b4 bd a4 90 ce bd 5b 6d 06 3e 34 4d d8 bd
       -0.08800868 -0.10086182 0.13127653 -0.105616
000040 37 14 d6 bc 00 05 8b bc 93 c6 14 3e 7e fc 03 bd
       -0.026132686 -0.016970158 0.14528875 -0.032223217
000050 cf d5 dc bd 4a 18 0d bd 57 4b a0 3d 98 e3 61 3d
       -0.10782968 -0.034446992 0.0782687 0.05514869
000060 23 32 fd 3d a1 53 e9 bc b6 a8 87 3d d3 0e 0a be
       0.123630784 -0.02848226 0.06623976 -0.13482217
000070 5e 09 5b 3d 90 0a 88 3d c6 4e b6 3d bd 32 b7 bd
       0.05347573 0.0664264 0.089017436 -0.089452244

encoder.4.weight f4 [32]
000000 af a4 80 3f c1 fe 7f 3f fe 31 7d 3f 21 8a 81 3f
       1.0050257 0.999981 0.9890441 1.0120279
000010 3f 00 80 3f 34 fe 7e 3f b1 17 7f 3f ab 34 80 3f
       1.0000075 0.99606633 0.99645525 1.0016073
000020 ee c5 81 3f 47 86 80 3f a8 cc 7d 3f 9d ef 7f 3f
       1.0138528 1.0040978 0.99140406 0.99974996
000030 c0 cc 7f 3f 85 06 81 3f 94 ec 7e 3f 55 99 7e 3f
       0.999218 1.0080115 0.9957974 0.99452716
000040 db 14 7f 3f 43 11 7f 3f a2 0e 80 3f 64 b8 80 3f
       0.996412 0.99635714 1.0004466 1.0056272
000050 57 13 7f 3f bf 93 80 3f d4 9b 7f 3f e7 22 81 3f
       0.99638885 1.0045089 0.9984715 1.0088776
000060 89 06 7d 3f 60 2d 81 3f 7e 4d 7e 3f 35 f0 80 3f
       0.98838097 1.0091972 0.99336994 1.0073305
000070 d2 9f 7c 3f 56 c3 7d 3f fa 26 7f 3f b4 13 80 3f
       0.98681366 0.99126184 0.9966885 1.0006013

encoder.4.bias f4 [32]
000000 1c 17 b1 3b ec 41 d2 3b b0 33 53 bb b0 f7 3f 3c
       0.005404366 0.00641655 -0.0032226853 0.011716768
000010 6a dd 0c ba 10 08 84 bb 78 79 0f b9 bf 80 22 b9
       -0.00053735694 -0.0040292814 -0.00013682793 -0.00015497486
000020 b1 a6 15 bc 1d 9a 9f 3b 78 95 1e bc 7a 0f 71 3a
       -0.009133981 0.0048706667 -0.009679191 0.00091957266
000030 9c 3d b1 39 4f 82 fd 3b 92 64 9c bb 4d f8 0a bc
       0.00033805973 0.0077364813 -0.004772731 -0.008482051
000040 9e 08 7d bb ef 5b 75 3b 23 24 ad 39 f2 b9 a3 3b
       -0.0038609873 0.003743883 0.00033024055 0.0049965316
000050 9d d6 24 bb 81 c1 2a 3a 2a cb 8e 39 68 f2 16 3c
       -0.0025152334 0.00065138197 0.0002723572 0.009213068
000060 2f ec 41 bc 83 c9 e8 ba 5e 44 9c bb 06 36 0f 3c
       -0.011836096 -0.001776025 -0.004768892 0.008740908
000070 e2 a8 4d bc 25 dd 09 bc 70 ad 77 3b bc 81 32 ba
       -0.012552472 -0.008414541 0.0037792586 -0.0006809493

encoder.4.running_mean f4 [32]
000000 2c d2 d5 be 16 5c b5 be 6c 7d f7 bd eb d6 a7 be
       -0.4176191 -0.35421818 -0.12084469 -0.32781157
000010 27 0a 91 be 59 a5 78 bd ff 7a 11 be 5e 7b 5e bd
       -0.28328058 -0.060704563 -0.14207076 -0.05431687
000020 66 ea b5 3d a0 c2 e6 3d e2 c0 72 3d 9f 90 f4 be
       0.088825986 0.112675905 0.05926598 -0.47766587
000030 4c 26 86 bd 16 fa 49 3d 11 e1 bf 3d 0a cf 9e bd
       -0.06550273 0.049310766 0.093691 -0.07754333
000040 fc 0b 03 bd 0a 0c 6a 3e c0 67 65 be b8 c4 97 be
       -0.03199385 0.22856155 -0.22402859 -0.29642272
000050 df 7d 8f 3d 6b 89 61 3c 16 84 30 3e 66 54 af 3d
       0.0700643 0.013765673 0.17237887 0.085610196
000060 cc f5 d3 3d f8 9f 55 3e 1f 91 45 bd 64 61 91 be
       0.103496164 0.20861804 -0.0482341 -0.28394616
000070 aa e2 16 be a1 4f f4 3c e2 49 ea 3e 38 4f da bd
       -0.14734903 0.029823126 0.45759493 -0.10659641

encoder.4.running_var f4 [32]
000000 9f 6d 74 3e 49 70 3f 3d 44 b5 9f 3c f3 e6 70 3f
       0.23869942 0.046737943 0.019495614 0.941024
000010 ee bd 8f 3d b8 68 d5 3d 4b 85 f3 3e ad d5 ba 3c
       0.07018648 0.10420364 0.47562632 0.022806967
000020 db 4b a5 3c 92 1f 73 3d 8b d7 13 3f 61 44 08 3f
       0.020177772 0.05935628 0.5775077 0.5322934
000030 56 af 81 3d 86 f3 8e 3e cc 38 0e 3e fb a2 11 3d
       0.06332271 0.2792017 0.13888854 0.03555582
000040 65 54 5c 3e 76 77 ee 3e a4 73 ac 3c 21 92 bd 3d
       0.21516569 0.46575516 0.021051235 0.092563875
000050 cb 68 ff 3d 3e d1 f7 3c a8 3b 03 3e 77 63 56 3d
       0.124711595 0.030251142 0.12815726 0.05234095
000060 f2 fe 9e 3d e2 75 0c 3d cc f4 2d 3e c5 d9 cc 3c
       0.07763471 0.03429211 0.16987914 0.025006184
000070 f3 4f 16 3e 99 d2 c9 3e a8 b3 65 3d 41 81 ae 3c
       0.14678936 0.39418486 0.056079537 0.021301867

encoder.6.weight f4 [64, 32, 3]
000000 ae 4f 12 bd f2 77 8e 3c fb 02 a7 bd 3c 57 9c bd
       -0.03572052 0.017391179 -0.08154865 -0.07633826
000010 d0 5a dd bd ea 3c 51 3c 72 dc 93 3d f4 05 d3 3c
       -0.10808337 0.012770871 0.07219781 0.025759675
000020 05 13 4f 3c 29 23 de 3c f9 6d 94 bd 38 2b d8 3a
       0.012638812 0.027116375 -0.07247538 0.0016492372
000030 bb d4 9a bc ba f5 29 bd 22 24 c7 3d c4 e4 93 bd
       -0.018900266 -0.04149411 0.09723689 -0.07221368
000040 65 dc af 3c 70 a7 a7 bd 20 0e 44 bc 2c 0d 60 bd
       0.021467397 -0.08186233 -0.011966258 -0.05470006
000050 88 60 21 3d a2 df 4d bd 49 01 8e 3d ef fb 9b bd
       0.0393987 -0.0502621 0.06933839 -0.07616412
000060 7c 1d 5f 3d 72 a9 a2 bd 95 9b 44 3d 44 9c 16 bd
       0.054471478 -0.079424754 0.047999937 -0.03677012
000070 b6 2b 02 3c c2 d9 c1 bc aa 2e 95 3d ee a1 22 3d
       0.007944992 -0.023663405 0.07284291 0.03970521
000080 5c 9d a6 bd 00 90 8f 3a 9e f9 a1 bd a3 ec 8e 3d
       -0.08135483 0.001095295 -0.07908939 0.069787286
000090 ae a3 0b 3c e5 6f 10 bd 22 07 3e bd bd 6e 2a 3d
       0.008522911 -0.03526296 -0.04639352 0.041609515
0000a0 fc 8b 5a bd 31 09 35 3d 99 ff 7d 3d 3b 59 94 3d
       -0.053356156 0.04419822 0.062011335 0.07243582
0000b0 4f 44 bb 3c be 31 aa bd a8 83 a1 3d bd cc 19 bd
       0.02285972 -0.08310269 0.078864396 -0.03754877
0000c0 10 f9 1d bd ec 17 a2 bc 20 05 86 3d 0e e7 ad 3d
       -0.038567603 -0.019786797 0.06543946 0.08491336
0000d0 c0 24 b8 3c 94 5d 36 3d 8e 0f d5 bd cc 79 29 bb
       0.022478461 0.044522837 -0.104033574 -0.002585995
0000e0 98 8f ad bd c1 8e e6 3c b8 b8 a7 bd a1 4b fc bc
       -0.08474654 0.028144242 -0.08189529 -0.030797781
0000f0 d9 fa 9e 3d 1a 67 d0 3d 8b 4f 87 bd 40 32 4a bd
       0.07762689 0.10175915 -0.066069685 -0.04936433
000100 e6 c5 8e 3c e6 c6 3d 3d 16 c9 21 bc 56 54 d5 bc
       0.01742835 0.046332262 -0.009874603 -0.026041191
000110 9c b5 73 bd 3f 1e 4c 3d ac c1 e1 3d 2a 8c 5b bd
       -0.059499368 0.049833532 0.11023268 -0.053600468
000120 e6 5a 22 3d c0 ca 33 3d 3a 4b 95 3d d4 97 7b bb
       0.03963747 0.04389453 0.07289739 -0.0038390057
000130 c8 8f 06 3c 22 3c a5 3d ee 5f 64 3d 40 a9 bc 3d
       0.008212991 0.0806811 0.05575555 0.092119694
000140 f1 11 c0 bc da e7 03 3d b9 0e 8b 3d 89 1d 9c bd
       -0.023446055 0.032203533 0.067899175 -0.07622821
000150 1d d2 42 3c fa 2e fb bc ea 95 67 3d fe bf 20 bd
       0.011890915 -0.030662049 0.056539454 -0.039245598
000160 2d 33 70 3c 6d 7e 6d 3d 4a 58 d2 bd 9d 34 bb bd
       0.014660639 0.057981897 -0.10270746 -0.091408946
000170 17 bf 75 bd 69 28 92 3d 8a 83 87 3d 52 49 9a bd
       -0.05999669 0.07136614 0.06616886 -0.07533516
000180 96 d7 55 3c ea 33 78 bd 81 2f 5d bd 7c 16 a5 3d
       0.013051888 -0.060596384 -0.05400038 0.08060929
000190 d4 78 2b 3d 31 f8 0c bd b7 0c 10 3c 62 c7 65 3c
       0.041863278 -0.03441638 0.008792094 0.014024587
0001a0 35 d8 8a 3c 56 61 29 bd 96 7d 88 bd a1 66 79 3d
       0.016948799 -0.041352592 -0.066645786 0.06088889
0001b0 aa bc 81 3c f8 dc 48 3d 87 76 00 bd 74 53 52 3d
       0.015837032 0.049038857 -0.031363036 0.05134912
0001c0 c7 0d a3 3d c6 30 8c 3d 13 97 ac 3c 00 fc bf 3d
       0.07961612 0.0684524 0.021068132 0.09374237
0001d0 78 2f e6 bb 96 3e 93 3c c9 99 bd 3d 08 e5 bc 3d
       -0.0070247017 0.01797418 0.09257848 0.09223372
0001e0 3a fc 39 bd b8 3d c8 3d ac d7 39 3d 62 68 04 bc
       -0.045406558 0.09777397 0.045371696 -0.008081527
0001f0 3b d4 c4 3d 89 4b 3c bd 08 98 8c 3d b5 39 d5 3d
       0.09610792 -0.045970473 0.06864935 0.10411397
000200 bd 54 82 bd 20 84 88 bd 9d 94 dc bd 1c c0 ce bc
       -0.06363819 -0.06665826 -0.10770533 -0.02523809
000210 5b b7 cb bd 33 d1 27 bd 3b 52 c5 3c f6 de 99 3d
       -0.09947082 -0.040970992 0.024087062 0.075132295
000220 37 48 81 3d 22 2d 82 3d f5 75 39 3d f5 b5 68 bd
       0.06312602 0.06356265 0.04527851 -0.056814153
000230 02 ce 97 bd 0b b3 c9 3b 55 d8 d1 3d 6e 34 4a 3c
       -0.0741234 0.006155377 0.1024634 0.012341602
000240 ee 9e 78 bc 56 54 9b bd 5e af 6a bd 16 22 9b bd
       -0.015174611 -0.07584445 -0.05729615 -0.07574861
000250 51 0a b2 3d 3f 1a 21 bc 25 55 c5 bd ca 03 6b 3c
       0.08693374 -0.009832918 -0.09635381 0.014344165
000260 35 ce 91 3a b4 b5 9e bc c7 d5 f5 3c 41 27 44 3d
       0.0011124077 -0.019373752 0.030009164 0.047888998
000270 d2 0a be bd b7 6f 92 bd 2a 32 02 3b 77 d4 d8 bd
       -0.092794076 -0.07150214 0.0019866326 -0.105873995
000280 ef b9 cc bd 22 a6 a9 3d 40 70 d4 bb 27 b2 53 bd
       -0.099964015 0.082836404 -0.006483108 -0.05168357
000290 5f 5b 1c bd 9d 17 9d bd 01 09 b0 3d 16 6a 79 bc
       -0.038173076 -0.076705195 0.08595467 -0.015223047
0002a0 85 7c 82 bd d7 49 ac bd 5d ff 59 3d 0c 69 9a bc
       -0.063714065 -0.08412521 0.05322205 -0.018848918
0002b0 70 16 79 bc 83 a5 13 bd f1 cd 64 bd 9b e0 3c 3c
       -0.015203103 -0.036046516 -0.055860464 0.0115281595
0002c0 6d 10 93 3d e0 3f 84 bd 57 ca 0d 3c 73 ee a5 bd
       0.07180867 -0.06457496 0.008654199 -0.08102121
0002d0 c7 26 5e bd 50 ab aa 3d 14 d0 b7 bb a2 05 cf 3d
       -0.0542362 0.083334565 -0.0056095216 0.10108496
0002e0 ed a3 3b bc 7d 8b 48 bd 20 ef 8b bd 4e d0 c4 3d
       -0.011452657 -0.04896115 -0.06832719 0.096100435
0002f0 ec 7b 95 bd 56 f2 68 3d b9 42 01 3d f2 19 18 3d
       -0.07299027 0.056871735 0.031557772 0.03713412
000300 37 14 7c 3d f9 c1 a7 bc 77 0a 8c 3d 74 40 a7 bd
       0.061542716 -0.020478236 0.068379335 -0.0816659
000310 10 93 f8 bc 7f 0d 88 3d 4d ed 0c 3d d9 07 01 bc
       -0.030343562 0.06643199 0.034405995 -0.007875406
000320 28 5b 02 bd bd 65 6f bd 1f f8 8b 3d 60 0d 27 3b
       -0.031825215 -0.058446635 0.06834435 0.002549015
000330 8b 9f ef bb e6 e4 91 3c b0 ff 8c 3d c9 fc 5f bd
       -0.00731272 0.017809343 0.06884706 -0.054684434
000340 97 de 28 bd ca 47 7d 3d 81 51 85 3d 58 ff 33 bd
       -0.041227903 0.06183604 0.06509686 -0.043944687
000350 cf 2e e0 bd 79 26 a6 3c c8 6e 54 3d 11 17 86 3c
       -0.10946428 0.020282017 0.05186346 0.01636842
000360 c6 87 95 3d f5 3e ae bd f9 9e 74 3d b7 0a 8f bd
       0.07301287 -0.08508102 0.05972192 -0.069844656
000370 8c 3d 52 3d 7f e8 ac 3d 59 28 e8 3c f1 d4 9c 3d
       0.051328227 0.084427826 0.028339552 0.07657803
000380 da 53 91 bd 62 aa b1 bd 3f 0a bc bd 2e f0 81 3d
       -0.070960715 -0.08675076 -0.09181642 0.06344639
000390 ba 85 32 3d e6 7e 8c bd 3d 53 28 3d 56 ea b2 3d
       0.043584563 -0.068601415 0.041095007 0.08736102
0003a0 5b e8 da bd 7d 67 a9 3d 87 0c 24 3c 6e 80 4e 3b
       -0.106888495 0.08271692 0.010012752 0.0031509656
0003b0 75 d0 cd 3d e7 a6 ae 3d 08 34 13 3d d5 38 b6 3d
       0.10049526 0.08527928 0.035938293 0.088975586
0003c0 0c f4 3d 3d 2e 12 bc 3c f3 da ab bd 56 25 5c 3c
       0.04637532 0.022957888 -0.083913706 0.013436636
0003d0 6e 45 a1 bd 0a d6 24 3d 26 28 be 3c 64 ca e7 3b
       -0.07874571 0.040243186 0.023212504 0.0070736874
0003e0 54 1f a2 bd d1 9a 59 bd 58 73 a7 3d 45 ff 29 3d
       -0.079161316 -0.05312616 0.08176297 0.04150321
0003f0 0a 0f 44 3d bb da 15 bd 25 09 12 bc bc fc d7 bc
       0.047865905 -0.03658555 -0.008913313 -0.02636563

encoder.6.bias f4 [64]
000000 f0 25 61 bd 38 6b 96 bd 99 94 6c bd 6d 1d ab bc
       -0.05496782 -0.07344669 -0.0577589 -0.020888055
000010 45 69 ca 3c e3 08 9d 3c 0f fa c1 bd 3a 9b c7 bd
       0.0247084 0.019169277 -0.09471523 -0.09746404
000020 3d 26 85 bc 6e 93 b6 3d f0 cc 1c 3d 68 04 b8 3d
       -0.016253585 0.08914839 0.03828138 0.089852154
000030 8f 1b 44 bd 5f b3 f2 3c ee 66 b7 bd 62 9a 5d 3d
       -0.047877844 0.029626546 -0.08955179 0.05410231
000040 5f 47 f6 ba a3 22 05 bc a7 43 64 bd 7e e8 b0 bd
       -0.0018789581 -0.008125934 -0.05572858 -0.08638094
000050 f4 2e 1c bd 4e b3 25 bc 7e 92 5d bd 71 e2 2c 3d
       -0.038130715 -0.01011355 -0.054094784 0.04220814
000060 52 3f 87 bc ae fa 41 3c 92 2d c7 bd c1 e6 e6 3c
       -0.016509686 0.011839552 -0.09725489 0.028186204
000070 4c a8 53 bd 57 59 9e bd ff d0 30 bd 02 a0 be bd
       -0.051674172 -0.07731884 -0.043168064 -0.09307863
000080 88 f3 9d bd 21 5f 9b 3d 80 8c ad 3d 5e cf 8d bd
       -0.077124655 0.07586504 0.08474064 -0.06924318
000090 da f9 b3 3c 39 c7 57 bd d3 f9 c8 3d b4 4a 7b 3d
       0.021969724 -0.052680228 0.09813275 0.06135054
0000a0 6e 71 28 3d a6 88 aa bd 2f 05 4a bd c0 3b bc bc
       0.0411238 -0.08326845 -0.04932135 -0.02297771
0000b0 fa 67 bb bd 5b 05 73 bd a9 d2 df 3c e8 b8 a7 bd
       -0.09150691 -0.05933128 0.02732213 -0.08189565
0000c0 63 94 dd 3c 50 eb 88 bb 82 f0 80 bb 06 7e f8 bc
       0.027048295 -0.004178442 -0.0039349208 -0.03033353
0000d0 ee fe 61 bd d5 c5 be bd 4c 43 91 bd 4e ca 9f 3d
       -0.05517476 -0.09315077 -0.07092914 0.078022584
0000e0 c8 6e e9 bb 60 9e cf 3d 25 cf d1 3b 1e e2 2b bc
       -0.007123802 0.101376295 0.0064028674 -0.010490922
0000f0 66 c8 79 3d e5 0c c5 bd e8 67 82 bd 85 49 69 3d
       0.06098213 -0.096216 -0.06367475 0.05695488

encoder.7.weight f4 [64]
000000 18 63 7d 3f 7f 97 7d 3f c3 21 80 3f ed ab 80 3f
       0.9897933 0.9905929 1.0010303 1.0052468
000010 b3 07 81 3f af 39 81 3f 26 73 7e 3f 85 a5 7f 3f
       1.0080475 1.0095729 0.9939445 0.9986194
000020 6c 08 80 3f bf 45 80 3f 66 28 7e 3f c8 d2 7e 3f
       1.000257 1.0021285 0.99280393 0.99540377
000030 3a 07 7e 3f c9 ba 7e 3f 1a c7 80 3f 99 9e 7d 3f
       0.99229777 0.9950376 1.0060761 0.99070126
000040 0d 0f 7f 3f 97 0c 80 3f 88 f1 80 3f a9 80 80 3f
       0.9963234 1.0003842 1.007371 1.0039264
000050 4b 9d 80 3f 1c 0d 81 3f 24 3a 80 3f 0a 60 7d 3f
       1.0048002 1.0082126 1.0017743 0.9897467
000060 7a e1 80 3f 48 2a 81 3f 49 16 7e 3f 84 4d 7f 3f
       1.006881 1.0091028 0.99252754 0.99727654
000070 0e 1d 80 3f 32 ec 7f 3f 1a 2e 7d 3f 66 cf 7f 3f
       1.0008867 0.9996978 0.9889847 0.9992584
000080 11 75 7d 3f 81 4f 80 3f e2 17 81 3f d0 46 7d 3f
       0.99006754 1.0024263 1.0085413 0.98936176
000090 99 f0 7e 3f 89 70 80 3f 8a 7b 80 3f 66 8c 80 3f
       0.9958587 1.0034343 1.0037701 1.0042846
0000a0 b6 21 7f 3f 15 1a 80 3f 94 ce 7d 3f 09 4d 80 3f
       0.99660814 1.000796 0.9914334 1.0023509
0000b0 23 23 7e 3f 00 c3 7d 3f 7a 77 81 3f 2e 3c 81 3f
       0.99272364 0.9912567 1.0114586 1.009649
0000c0 fd ef 7e 3f fc 5e 81 3f 8e 8e 7e 3f 21 03 81 3f
       0.99584943 1.0107112 0.9943627 1.007908
0000d0 08 21 7f 3f 62 e5 7d 3f ac 58 80 3f ec bb 81 3f
       0.99659777 0.99178135 1.002706 1.0135474
0000e0 31 11 81 3f af a6 80 3f b5 6b 80 3f 32 f3 7f 3f
       1.0083371 1.0050868 1.003287 0.9998046
0000f0 bc 0d 7f 3f e6 9c 80 3f 91 b1 7d 3f f3 36 7d 3f
       0.9963033 1.0047882 0.9909907 0.9891197

encoder.7.bias f4 [64]
000000 0f 96 18 bc 1a 69 ab ba 7f c1 92 ba 35 50 a9 3b
       -0.0093131205 -0.0013077587 -0.0011196582 0.005167032
000010 ab 95 44 3b 5e ec 3d 3c cb 95 cd bb 5d 65 87 3a
       0.0029996436 0.011591999 -0.00627396 0.0010329891
000020 56 60 94 bb 64 c6 6b 3b 76 35 e1 bb a8 e0 46 bb
       -0.0045280857 0.0035976404 -0.006872828 -0.0030346308
000030 a2 ab 14 bc fe 98 a3 bb fd 04 fb 3b 75 4f 1e bc
       -0.009074124 -0.0049926033 0.0076605068 -0.009662499
000040 c4 9b ce bb ad 81 8a 3b 5c 2d 05 3c a9 a2 05 bc
       -0.00630519 0.0042268843 0.00812849 -0.008156457
000050 8f e2 cd 3b 66 69 03 3c c0 35 81 3a 10 1c 8d bb
       0.0062831114 0.008020734 0.0009857938 -0.004306324
000060 29 d7 e1 3b ea 1e 19 3c bb 2f 96 bb 67 67 f0 ba
       0.006892104 0.009345749 -0.0045833266 -0.0018341363
000070 0d 1a 72 bb 0c b0 7a 3a 60 eb ee 3a 93 0a b7 ba
       -0.0036941797 0.0009562976 0.0018228106 -0.0013964943
000080 8a 2d 05 bc e8 ee 2b 3b 72 47 0b 3c dd 11 0d bc
       -0.008128533 0.0026234929 0.008500921 -0.008610216
000090 4c 4e ad 3b cb 27 d6 3b cd e5 62 3b 3a b7 43 3b
       0.0052888747 0.0065355054 0.0034621835 0.002986385
0000a0 96 f5 81 bb 5b 56 ea 3a 11 ff 12 bc f7 0a ab 3a
       -0.0039660437 0.0017878519 -0.008971945 0.0013049532
0000b0 33 92 ef bb 2e 3c 0f bc dc cf d2 3b 71 9e 28 3c
       -0.0073111295 -0.008742375 0.00643347 0.010291682
0000c0 b5 67 66 bb 9e 1d 20 bb 89 61 58 3b 2c 68 05 3c
       -0.003515703 -0.0024431716 0.003301712 0.008142512
0000d0 eb 3c 81 bb d7 71 4f 3b 93 ca 22 3b 18 b7 ff b9
       -0.0039440296 0.0031653547 0.0024839982 -0.00048773806
0000e0 3a 8e 79 3b dc 9a 1d 3c 5e 47 b7 3b 6e 43 19 3c
       0.0038079158 0.009619441 0.0055932244 0.009354455
0000f0 b3 16 5a bb ad 55 f5 3a 0c 1e 0f bc b6 fc 2e bc
       -0.003327769 0.001871755 -0.008735191 -0.010680368

encoder.7.running_mean f4 [64]
000000 62 80 61 bd 3a b7 18 bc 39 3d 38 bd b4 ce 8e be
       -0.055054076 -0.009321028 -0.04498026 -0.27892077
000010 ed 13 26 3e d0 7f b4 3e 2a 5c 12 bf 30 de 8a be
       0.16218539 0.35253763 -0.5717188 -0.2712264
000020 72 25 96 bd 0b 4f 92 3e ce 60 2c be e6 80 c9 3e
       -0.07331361 0.2857593 -0.16833803 0.39356154
000030 7d f1 01 3e 58 24 f8 3c a8 dc be 3c 1a 43 4e bd
       0.12689777 0.030290768 0.023298576 -0.05035696
000040 d2 b3 71 3e 34 2d 98 be c8 d7 0d be 6e 85 93 be
       0.23603752 -0.29721987 -0.13851845 -0.28812736
000050 b3 c9 32 bd 9b d3 ba bd 62 ba 0c bc c4 9b 95 bd
       -0.043649387 -0.09122392 -0.008589359 -0.073051006
000060 0e 3f 42 3e 73 a7 61 3e 2d 0f 98 bd a4 1d b0 bd
       0.18969366 0.22036533 -0.074247696 -0.085994035
000070 f9 47 29 be 97 87 38 bf a5 b1 e0 bd 92 71 29 3e
       -0.16531362 -0.72081894 -0.10971383 0.1654723
000080 51 32 5e be 9f 96 b8 3e aa 6a 45 3d 53 dd 86 3e
       -0.21698882 0.36052415 0.048197426 0.26340732
000090 e4 fe d6 3e 20 e1 be bb 48 f3 68 3e ee 3c de bd
       0.4199134 -0.005825177 0.22749054 -0.10851465
0000a0 bc a3 4f 3e 7e 54 1f 3e f8 11 81 bd 57 4e 79 bd
       0.20277303 0.15559575 -0.063022554 -0.060865726
0000b0 14 41 a0 3c a3 d2 f7 be 01 86 69 bd bb f3 91 be
       0.019562282 -0.4840289 -0.05701256 -0.28506264
0000c0 42 ca d5 3c 1e c6 28 bd cc ad c0 3e 73 30 c1 3d
       0.02609742 -0.041204564 0.37632596 0.09433069
0000d0 d7 04 2b 3e 8e 7c d7 bb f7 c8 83 be 12 55 41 3d
       0.16701065 -0.0065761274 -0.25739262 0.04720027
0000e0 43 a0 27 be 71 5d 03 bd 42 61 25 bc 72 ee b1 bc
       -0.16369729 -0.032071535 -0.010093989 -0.021720145
0000f0 f2 74 80 3e e7 a3 f9 bb 63 8b 28 bd bf 65 0b be
       0.25089222 -0.0076184156 -0.041148555 -0.13613032

encoder.7.running_var f4 [64]
000000 28 a5 ae 3e a0 13 19 3f 14 c0 cd 3d 8b d8 9c 3d
       0.3411038 0.5979557 0.100464016 0.0765849
000010 26 b3 bd 3d 28 4f ba 3d e5 03 57 3d b1 65 af 3d
       0.092626855 0.09097129 0.05249395 0.08564318
000020 44 82 9f 3d 54 01 24 3e b2 41 14 3f 81 74 5b 3e
       0.07788518 0.16016132 0.57912743 0.21431161
000030 c5 2d 9b 3d cd 94 44 3d 66 e1 91 3e 7d 0b 15 3d
       0.07577089 0.04799347 0.28492278 0.03638791
000040 5b 29 d0 3d d0 28 56 3e 7b 3c 9b 3e ea 30 2c 3d
       0.10164138 0.20914006 0.3031958 0.042038836
000050 c9 d8 28 3e 37 b8 3e 3e f3 d9 2a 3e 38 09 bf 3d
       0.16488947 0.1862496 0.16684704 0.0932793
000060 9f 26 7c 3e 52 94 96 3e b4 5d 18 3e 34 f8 00 3e
       0.24624108 0.29410034 0.14879495 0.12594682
000070 92 b7 ce 3d 8f b0 53 3f 44 73 5b 3e 3b f6 47 3e
       0.10093607 0.8269128 0.21430689 0.19527523
000080 68 1d 10 3d 9a f6 b3 3e 50 9c be 3e 67 5a cc 3d
       0.035184294 0.3514908 0.37228632 0.099781804
000090 9c f6 cd 3e fb c6 e1 3e 18 42 7b 3d 14 2f 5d 3e
       0.4022721 0.44097123 0.06134233 0.2159999
0000a0 6e 60 91 3e 8e 68 8e 3e d8 fc 65 3e ee 4f b7 3e
       0.28393883 0.27814144 0.22459733 0.3580317
0000b0 0e 96 a0 3d 3a 5b ac 3e 31 51 10 3e b2 95 9c 3e
       0.07841121 0.3366335 0.14093472 0.30582958
0000c0 29 45 11 3e fc 14 5a 3d 32 27 82 3d e7 92 96 3e
       0.14186539 0.05324267 0.06355132 0.29408953
0000d0 fe cf 82 3e 11 d9 3d 3e f1 5e bf 3d ca b2 9d 3d
       0.2554931 0.18539836 0.093442805 0.07700117
0000e0 0d 91 79 3d 7c ce a9 3e 4c 86 b8 3e cb 65 bf 3e
       0.060929347 0.33165348 0.3603996 0.3738235
0000f0 a6 9e 6f 3e 6c d2 5d 3e 08 ba ac 3d 0b 83 0c 3e
       0.23400363 0.21662301 0.0843392 0.13721864

encoder.9.weight f4 [16, 64, 3]
000000 36 71 0c bc 31 8d 87 3d 61 d3 02 3b ff f0 70 3d
       -0.0085719135 0.06618727 0.0019962417 0.05882358
000010 44 ae 2a 3c db 0d 73 3c ff 74 4f bd b1 bd 80 bc
       0.010417525 0.014834846 -0.050648686 -0.015715452
000020 00 71 42 3c d6 3c e5 3c 0f 8c a4 3b 9c f0 a7 bc
       0.011867762 0.02798311 0.005021579 -0.020500474
000030 20 7c de 3b 00 03 8a 3d 49 1b 5b 3d c5 78 b5 3c
       0.006789699 0.067388535 0.053492818 0.022152314
000040 15 58 3d bd ba 69 a3 bc a8 9c 32 3d 6b 16 88 3d
       -0.04622658 -0.019947875 0.04360643 0.06644901
000050 46 87 15 bd 3a 9d de 3c 4c cc c7 bc 51 8c 46 3d
       -0.03650596 0.02717458 -0.024389409 0.04847366
000060 8d 16 d7 bb 7c a9 53 bd 27 14 83 bd 18 a0 a5 3b
       -0.0065639676 -0.051675305 -0.06400328 0.005054485
000070 46 83 f5 3c 4a 76 0e bd 84 bd 4a 3d 30 ee d8 3c
       0.029969823 -0.034780778 0.049497142 0.026480764
000080 a4 32 13 3d d6 ee 1e 3d 3e 36 81 bd a6 48 80 bb
       0.035936967 0.03880199 -0.06309174 -0.0039149104
000090 d3 61 39 3d 92 44 2f 3d 67 28 6b bd 76 99 04 bd
       0.045259308 0.042790003 -0.057411578 -0.032372914
0000a0 04 66 7a 3d 98 61 51 bd 95 4e 3b 3d fb e4 b4 bc
       0.061132446 -0.051118463 0.04572924 -0.022081843
0000b0 1b b1 22 bb 57 d7 e7 3c 12 df 3c 3c 95 31 5d bd
       -0.0024824801 0.028300924 0.0115277935 -0.054002363
0000c0 45 19 fa 3c 2f 14 63 bd 72 06 f3 bc a4 11 9b bb
       0.030529628 -0.05543917 -0.02966616 -0.0047323275
0000d0 4f 29 d6 bb 4e 7b 7a 3d 8e 13 40 bd c6 ea 55 3d
       -0.006535686 0.06115275 -0.04689365 0.05222585
0000e0 e5 4b db 3c 1c 96 bc 3c a4 a3 37 3d fa f9 57 bd
       0.026769588 0.023020796 0.044833794 -0.05272863
0000f0 7e e8 8c bd 38 c5 a9 bb 47 0a ed 3c d1 6a c5 3c
       -0.06880282 -0.005180981 0.028935565 0.024098786
000100 5b 93 81 bb b6 54 7b 3d 5e 07 9b 3c ce cc c0 3c
       -0.0039543337 0.061360084 0.018924411 0.023535158
000110 b3 31 2e bd f2 fd 80 3c 55 7b 11 bd 77 ec 86 bd
       -0.042527866 0.01574609 -0.03551801 -0.06588071
000120 73 39 63 bd 69 bf 53 bd 09 16 9c bc 75 e9 b8 bc
       -0.05547471 -0.051696215 -0.019053476 -0.022572258
000130 40 64 99 3d 98 0c 1a 3d 66 49 57 bd 63 73 3f 3c
       0.07489824 0.037609667 -0.052560233 0.011685225
000140 b2 4c 8e 3d ed ed bf 3b 6e 5d 9f 3c 1a 19 e3 3c
       0.06948222 0.0058572204 0.01945373 0.02772193
000150 fc c4 af bc 11 b3 2d bd 22 04 b1 bc 3a b8 1c bc
       -0.021456234 -0.0424071 -0.021608416 -0.009565407
000160 98 8b 85 3d 6e 46 4e bd 3c a8 9d 3c 8e 7d a6 bc
       0.06520766 -0.050360136 0.01924526 -0.020323541
000170 00 73 85 ba be 26 37 3b 47 07 9d bc fe e4 c9 3c
       -0.0010181367 0.0027946676 -0.01916851 0.024645325
000180 35 94 a6 3c 95 58 09 bd a7 e0 52 3d d2 32 92 3d
       0.020334342 -0.033531744 0.051483776 0.071385995
000190 6f 73 b5 bc 7f f2 b4 3c 3c 52 7c bc 67 66 70 3d
       -0.02214977 0.022088287 -0.015400466 0.05869141
0001a0 82 eb 2f 3b 00 8a 94 bd 65 bd 05 3c b4 e0 5a 3d
       0.0026843254 -0.07252884 0.008162831 0.05343695
0001b0 f0 c2 1f 3c c5 c4 1d bc 66 52 c6 3b 54 dc 4c 3d
       0.009751067 -0.009629433 0.006052303 0.05001481
0001c0 c3 24 90 3d a5 88 23 bc 03 d6 2a 3d 7d 2d 37 3d
       0.07038262 -0.009981309 0.041708004 0.044721115
0001d0 f3 e3 8d 3d 6e 77 36 3d 68 c6 8b bd d1 10 8a bd
       0.069282435 0.04454749 -0.06824952 -0.06741489
0001e0 da d5 51 bd be 44 5b 3d 49 aa e9 bc ab a3 03 3d
       -0.051229335 0.053532355 -0.028523581 0.032138508
0001f0 39 02 9d bc 4b fa 1a bd 58 06 42 3d 97 fe b3 bc
       -0.019166099 -0.037836354 0.04736933 -0.021971984
000200 c3 b9 3e bd c2 df 8f bc ac 84 5c bd ea 4b 9e bd
       -0.046563875 -0.01756275 -0.053837463 -0.07729323
000210 f4 31 a4 bb 33 0d 99 3b 4a 3b 06 bd 73 9a 68 3d
       -0.0050108377 0.004670763 -0.032771386 0.05678792
000220 da a5 c4 bc 44 04 d5 bc ea a7 4b 3d 22 c4 92 b9
       -0.024004865 -0.02600301 0.049720682 -0.0002799342
000230 6c d7 cb bc 5f 9e de 3b 60 b5 97 bd bf 03 81 3d
       -0.024882995 0.0067937816 -0.074076414 0.06299543
000240 10 56 52 3c 05 d1 8a 3c 4b c8 76 bd 30 2a 5f 3d
       0.012837902 0.016945371 -0.060249608 0.054483593
000250 b4 10 5e bd a2 5a b4 bc 5f e0 42 bd 08 d4 e1 bc
       -0.054215148 -0.022015873 -0.04757726 -0.027566925
000260 40 10 aa 3c ee ee 9f bd e6 c5 a0 bd f6 78 17 3c
       0.020759702 -0.07809244 -0.07850246 0.009245148
000270 cc e7 04 3d 0f 48 11 3c ef 4a 9d bc c9 12 a0 bc
       0.03244762 0.008867278 -0.01920077 -0.019540207
000280 d6 b7 b5 bc 35 72 3c bc 80 59 07 bd 1b 31 5d 3d
       -0.022182386 -0.011501838 -0.03304434 0.05400191
000290 05 19 b3 3c bc a2 42 bd 53 15 1f bc 6a 8d 3e bd
       0.021862516 -0.047518477 -0.009709674 -0.04652158
0002a0 b1 2f ed bc 3e 00 86 3d 46 30 00 3d 6f 2a c6 3c
       -0.028953405 0.06543015 0.031296037 0.024190156
0002b0 4b 92 45 bc 9f 43 de bc 7c 19 cb 38 05 e6 77 bd
       -0.012058805 -0.027131854 9.684541e-05 -0.060522098
0002c0 dd 17 a3 bd 17 77 7b 3d 69 18 71 3c 7c 85 50 3d
       -0.07963536 0.06139287 0.0147152925 0.05090855
0002d0 46 9a 35 3d 29 73 ba 3c 90 a4 04 bd 95 15 61 bb
       0.04433658 0.02275999 -0.0323835 -0.003434514
0002e0 3c 28 ac 3b 4d c5 4c 3c 74 ec cf 3b 19 61 4b bd
       0.0052538197 0.012498212 0.006345326 -0.049653146
0002f0 85 d1 0b bd 41 e8 72 3d f8 13 34 3c 94 0d cd bc
       -0.03413536 0.059303526 0.010991089 -0.025030889
000300 95 7f 6f 3d 7d 1c 3f bc 1b 9d a3 bc 11 c4 74 3d
       0.05847128 -0.011664507 -0.019972375 0.059757296
000310 99 19 3e bd 9d 5e ca bc e2 c1 83 3d d3 34 16 3b
       -0.04641113 -0.024703318 0.064334646 0.002291967
000320 85 b8 a6 bc 42 74 4e 3d f7 02 47 3b 5b 38 9c bd
       -0.020351658 0.05040384 0.0030366757 -0.076279365
000330 e6 56 38 bd aa 8e f6 bb 59 9f c4 3b 3c 8f 40 bd
       -0.045004748 -0.007524331 0.006000441 -0.0470116
000340 9f 75 02 bd e9 21 d4 3c fa ed 83 bd 74 a2 80 bd
       -0.031850453 0.025895076 -0.06441875 -0.062809855
000350 6b 18 bc 3c 14 66 d2 3b d1 57 a2 bd e5 36 91 bd
       0.022960862 0.00642086 -0.07926906 -0.070905484
000360 05 50 8f 3d a1 62 a7 3d 35 29 af bc 53 ef a7 3d
       0.069976844 0.08173109 -0.021381954 0.08199944
000370 21 97 72 3d 70 15 97 3d 6a 73 27 bd 19 95 e1 bc
       0.05922616 0.07377136 -0.04088155 -0.027536916
000380 d7 9e 07 3d 3d a0 08 3d 7b 2f 44 bd 6a 5f 57 3d
       0.033110466 0.03335594 -0.047896843 0.05258123
000390 63 a6 a4 3d 08 5a 13 bd 76 ba 6b bd 4b 05 70 bd
       0.08039548 -0.035974532 -0.05755087 -0.058598798
0003a0 db f5 13 bd 75 4b b1 bc e5 2f 4e bd 11 b6 95 bd
       -0.036123138 -0.021642426 -0.050338645 -0.07310117
0003b0 9d dc 12 3d da f4 77 3d c0 3a 4f 3d f8 70 11 3d
       0.035854924 0.060536243 0.050593138 0.035508126
0003c0 21 c9 29 3d fc 32 88 bc 00 25 45 bd 60 83 09 bd
       0.041451577 -0.016625874 -0.04813099 -0.033572555
0003d0 4c 41 2f 3d 3b a6 d0 3c c6 54 23 ba 1d 14 5b bd
       0.04278688 0.02546989 -0.0006230589 -0.05348598
0003e0 fe e1 2f bd 33 a0 d0 bc a8 59 15 bb 32 19 02 bc
       -0.042940132 -0.025467014 -0.0022789035 -0.007940577
0003f0 13 8f 32 bb 9e 37 09 bd 56 e0 8f bc 17 4f 58 bd
       -0.0027245923 -0.033500306 -0.017563026 -0.0528098

encoder.9.bias f4 [16]
000000 56 a9 5b 3d 32 50 c7 3c a0 97 75 bd 6f 17 1e 3d
       0.05362829 0.024330232 -0.059959054 0.038596567
000010 24 11 94 3d 66 a8 5d bd 65 62 70 bc d0 1b 72 bd
       0.07229832 -0.054115675 -0.014671897 -0.059108555
000020 6b d5 46 3d df dc 11 3d 00 39 56 3d c2 76 9e 3c
       0.048543375 0.03561103 0.052300453 0.019343738
000030 9e 96 49 bc e4 6b c3 bb bb 93 62 bd 13 f2 37 3d
       -0.012303976 -0.0059637893 -0.055316668 0.044908594

encoder.10.weight f4 [16]
000000 b7 32 80 3f a4 a5 7e 3f 46 80 7d 3f 69 69 81 3f
       1.0015477 0.994715 0.99023855 1.0110294
000010 7b 17 81 3f ae 98 80 3f e1 d6 7c 3f 7a cf 80 3f
       1.0085291 1.0046594 0.9876538 1.0063317
000020 c4 b3 7e 3f c9 c1 7e 3f 4a 7f 81 3f 99 4d 7e 3f
       0.9949305 0.9951444 1.011697 0.99337155
000030 96 e1 80 3f 37 80 81 3f 24 1e 7e 3f e3 62 7e 3f
       1.0068843 1.0117253 0.9926474 0.9936964

encoder.10.bias f4 [16]
000000 20 d8 d8 bb 81 b9 ec bb 85 2c 1a bc 7d be 08 3c
       -0.006617561 -0.007224262 -0.009410028 0.008346197
000010 b7 71 07 3c d8 88 0d 3c 30 a5 34 bc 94 e9 bd 3b
       0.008266858 0.008638583 -0.011025712 0.005795667
000020 64 f5 dc bb ff 15 bd bb bb fb 3d 3c 72 ec e0 bb
       -0.00674312 -0.0057704444 0.011595662 -0.006864124
000030 6a af 2e 3c 4e 1b 33 3c aa 8a 0e bc 10 08 22 bb
       0.010661939 0.010931803 -0.008700052 -0.0024724044

encoder.10.running_mean f4 [16]
000000 50 d4 c3 3d be c9 96 3d 8e 27 a9 3e 92 4c b5 3d
       0.0956198 0.07362698 0.3303799 0.08852495
000010 53 61 c0 3d ba 03 59 be 5e 0f ed 3c 32 12 ae 3e
       0.09393563 -0.21192828 0.028937992 0.33998257
000020 cd ba 12 3e ae 9b e8 3d b3 af 03 bc 8f 10 1b 3d
       0.14329071 0.113578185 -0.008037495 0.03785759
000030 98 c5 5a be c3 d6 a7 be db 2e 31 be d9 e7 58 bd
       -0.21364439 -0.32781038 -0.1730303 -0.052955482

encoder.10.running_var f4 [16]
000000 43 56 2a 3f 7f 04 80 3f ed bd 88 3e a7 0c e2 3d
       0.66537875 1.0001372 0.26707402 0.110375695
000010 c9 44 b3 3e 29 ef 9c 3f e6 28 67 3e 30 84 e8 3d
       0.35013416 1.2260486 0.22574195 0.11353338
000020 94 5f 25 3e 6a f0 99 3e 91 30 8a 3e ad 67 86 3e
       0.16149741 0.30066234 0.26990178 0.26250973
000030 09 df 80 3f 34 b8 93 3f dd fa a2 3e b0 31 82 3e
       1.0068065 1.1540589 0.31832018 0.25428534

decoder.0.weight f4 [64, 16, 3]
000000 5f a3 49 bd 10 dc b0 3c 3e 38 d0 bb 63 b8 f5 3c
       -0.04922807 0.021589309 -0.006354361 0.029995149
000010 78 61 01 be da 75 f8 bc 19 83 8f 3d b4 b4 e8 bd
       -0.12634838 -0.030329634 0.07007427 -0.113625914
000020 bc aa 72 bd 4f 17 90 bd 3e dc e4 bd 6b 0c 07 3e
       -0.059244856 -0.07035696 -0.1117482 0.13188331
000030 e6 00 0a 3e 84 6f cc 3d 31 23 e0 bd be e5 a5 3b
       0.13476905 0.099822074 -0.10944212 0.005062788
000040 0f 10 05 3d 68 ae 92 3d 39 1c 2f 3d 00 e2 b4 bd
       0.032486018 0.071621716 0.042751525 -0.088321686
000050 00 df 60 38 22 5a f0 bd b7 f5 91 3d 8b 7b c6 3d
       5.3613447e-05 -0.117359415 0.071269445 0.09691533
000060 d5 70 32 bd 90 2b f7 bd a5 c1 89 bb b0 90 8c 3d
       -0.043564636 -0.12068856 -0.0042039924 0.068635345
000070 39 14 c7 bd bb de 60 3d ad 87 d7 3d 9f d1 e9 bd
       -0.09720654 0.054899912 0.10523925 -0.11416935
000080 31 af b0 3d 60 0d 92 3d 1a 48 92 bd d9 44 08 3e
       0.08627165 0.07131457 -0.071426585 0.13307513
000090 e1 f2 a0 bd 34 ec cc 3d 3d 24 f8 bd 93 9d da 3d
       -0.078588255 0.1000599 -0.12116287 0.10674586
0000a0 6b d6 2b bd 1d b9 0a be 8e 5c a6 3d 13 b1 8e bb
       -0.04195253 -0.13547178 0.08123122 -0.004354605
0000b0 6a 91 46 3d c4 54 82 3d 4a c5 28 3a 63 85 1e 3d
       0.04847852 0.06363824 0.000643809 0.038701426
0000c0 64 00 fc bd 3d 0e f4 bd f6 0f 84 bd af 3c ab bd
       -0.12304762 -0.11916778 -0.06448357 -0.08361184
0000d0 b1 85 0f be 39 8f cc 3c 5c ad 63 bc 18 ce 3c bd
       -0.14015843 0.024970638 -0.013896313 -0.046094984
0000e0 3f 87 e4 bb 88 4e 87 3d 3f 9d 60 bd 00 84 64 bb
       -0.0069741304 0.066067755 -0.05483746 -0.0034868717
0000f0 39 e7 5d bb 33 ce 91 3d dd 69 a0 bc 4c f5 5b 3d
       -0.0033859743 0.071194075 -0.01958173 0.05370073
000100 ab 30 80 bd 7d 93 c8 3d a4 f5 04 3d 56 94 97 3c
       -0.06259283 0.09793756 0.032460824 0.01850335
000110 69 e0 7d 3d ba c6 19 be 37 bb 6e 3d 42 9c eb 3d
       0.061981592 -0.15017214 0.05828401 0.11504413
000120 c7 c8 c1 3d 81 06 b7 3d 0d ed f9 bd c7 07 11 3e
       0.09462123 0.089367874 -0.12203417 0.14163123
000130 66 df 2d 3d 2f 80 1a be 0d 8b 01 3e 9a dc e8 3d
       0.042449377 -0.1508796 0.126507 0.113702014
000140 59 aa 08 bd b0 c2 04 3e ab e4 6c bb e8 67 e7 3d
       -0.03336558 0.12964892 -0.003614704 0.112991154
000150 9a 58 0d be 62 5f 05 be 3a 61 32 3d db fc a0 bb
       -0.1380333 -0.13024667 0.043549754 -0.004912955
000160 07 45 f6 bd 46 21 9b bd f4 8f af 3d 56 5c da 3d
       -0.12024885 -0.07574706 0.08572379 0.10662143
000170 11 ea f1 bd 27 99 83 bd d6 1e 89 3b 58 ea cc 3b
       -0.11812223 -0.06425696 0.004184584 0.006253522
000180 c0 2a e2 bd 7e 22 df 3d 10 b1 ce bd b6 a3 bf 3d
       -0.1104331 0.10895251 -0.10092366 0.09357397
000190 ff 95 c6 bd ac ea 19 be a0 ec 32 3d e0 65 80 bd
       -0.09696578 -0.15030926 0.043682694 -0.06269431
0001a0 d8 96 d4 3d 9a da 30 bd 06 ed 9d 3c 26 c2 dc 3d
       0.10380334 -0.043177225 0.01927806 0.107792184
0001b0 a9 74 b2 bd 2d c4 50 bd f2 ef cc 3d 5c 8b ee 3d
       -0.087136574 -0.050968338 0.100067034 0.116476744
0001c0 2c 8e a5 3c 47 e9 d8 3d 0c 85 cb 3d 53 a6 b7 3d
       0.020209394 0.10591369 0.09937486 0.08967271
0001d0 80 62 f4 3a e4 00 16 3e 3e 14 29 bd 79 ae 49 3c
       0.0018645078 0.14648777 -0.04127907 0.012309664
0001e0 ce 22 27 bd ab 73 8a bb 62 44 bd 3d 8e 01 ec 3d
       -0.040804677 -0.0042252145 0.092415586 0.11523734
0001f0 ef de dd 3c 8f cb cc 3d de 13 c3 3d 7d 47 86 3d
       0.027083842 0.09999763 0.09525274 0.06556604
000200 34 52 36 bd 38 b5 9f 3d e1 fe f1 3d 18 98 e9 3d
       -0.04451199 0.077982366 0.118161924 0.11405963
000210 8c f6 2a 3d ce 9c e2 3d 5a 1b c1 bd 01 a3 04 3d
       0.04173903 0.11065064 -0.09429045 0.032382015
000220 aa d0 f8 bd f0 3e a5 3d 9e 13 12 3a fd 5a 06 bd
       -0.121491745 0.08068645 0.0005572381 -0.032801617
000230 56 38 b1 3d 36 2d 97 bc d8 ab 7e 3d 44 8a aa 3d
       0.08653323 -0.018454175 0.0621756 0.08327153
000240 6b 55 7a bd 05 fd 01 be ee f8 df 3c 15 0f b9 bd
       -0.061116617 -0.12694176 0.027340379 -0.0903608
000250 c0 e3 cd bd b1 29 ad 3d 7a 52 f8 3c 98 17 15 bd
       -0.100532055 0.08455218 0.030312765 -0.036399454
000260 1c 69 20 bd cc 30 ca bd 49 21 8a bd 1b 35 e4 3c
       -0.03916274 -0.098725885 -0.0674463 0.027857354
000270 ed 90 b1 bd 32 1f 05 be 62 40 fa bd da c2 0f be
       -0.086702205 -0.13000181 -0.12219311 -0.14039174
000280 de 4f 9a bd 9a 27 15 3d 72 b2 8c bd 92 50 bc 3d
       -0.07534765 0.03641472 -0.06869973 0.09195055
000290 c2 63 c7 3d fd 94 fb bd 64 28 82 3d 4c 2f 38 bd
       0.09735824 -0.12284277 0.0635536 -0.04496698
0002a0 0b 01 fb 3d 4c 35 be 3d 8f 65 a8 3d b0 7e a4 bd
       0.12256058 0.09287509 0.08222496 -0.08031976
0002b0 cb bd 1c 3c e6 5d ca bd 17 f9 79 3c 9b fe 08 3e
       0.009566735 -0.09881191 0.015257142 0.13378374
0002c0 95 39 07 bd 49 a2 b8 bd 01 57 94 bd 51 21 9c bd
       -0.0330139 -0.090153284 -0.07243157 -0.07623542
0002d0 7e 9e 80 3d 93 1a b8 bd d2 42 b0 3d be c2 99 3d
       0.0628023 -0.08989444 0.08606495 0.07507847
0002e0 cd 4d 9f 3d 01 a0 74 bc 22 25 05 bd c9 38 4b 3d
       0.07778511 -0.014930726 -0.032506116 0.0496147
0002f0 2f 96 e1 bc 6a 04 78 3d df 38 b7 3c e3 da 81 3d
       -0.027537433 0.060551085 0.022365985 0.063405775
000300 d3 fa 8c bd 88 17 c3 3d da 88 fb bc 79 8c b3 3d
       -0.068837784 0.095259726 -0.030704904 0.087670274
000310 64 af 87 bb 5b 4d 0d be 9b e5 10 bc 97 9d 26 bd
       -0.0041407812 -0.1379904 -0.008843805 -0.040677633
000320 a2 7a 92 bd 96 ee 74 bc b1 e1 81 bd 97 02 a2 3b
       -0.071522966 -0.014949461 -0.06341875 0.0049441564
000330 0b 5e 51 bd 0f be c7 bd fc 56 3f 3d b8 97 00 be
       -0.051115077 -0.09753048 0.046713814 -0.12557876
000340 01 2d f4 bd 19 e7 f7 bc cb 5d 55 bb eb fd 00 be
       -0.11922646 -0.030261563 -0.0032557126 -0.12596862
000350 91 ee a1 3d e4 fa 38 3b 1a 14 66 3d 17 26 4e ba
       0.07906831 0.0028225714 0.056171514 -0.0007863952
000360 ef ad ea bc ce 93 2d bd 5b 8d d6 bc 5a c6 e3 bd
       -0.028647391 -0.042377286 -0.02619045 -0.11121817
000370 6c 7a 85 3d 77 10 35 3d 95 c9 c3 3d 9d d6 11 be
       0.06517491 0.044205155 0.09559933 -0.14242025
000380 c9 60 b5 bc c6 fe 81 bd f7 e2 83 bb cd b6 5c 3c
       -0.022140877 -0.06347422 -0.004024859 0.0134713175
000390 66 2a 5e bc 8e bb 75 bb bd 65 84 bc 59 ad 2f 3d
       -0.013559913 -0.0037495825 -0.016161794 0.042889927
0003a0 ed 86 91 bd e3 05 1c bc 00 24 82 3d ed 5f b6 3d
       -0.07105813 -0.009522888 0.06354523 0.08905015
0003b0 9f 92 10 3c 2f 09 22 bc b1 7c 06 3d ec f4 95 3d
       0.00882402 -0.009889885 0.03283376 0.07322106
0003c0 c4 91 f3 3c fc f1 9a bd a0 3d f6 bd b5 3a 6f 3d
       0.029732592 -0.07565686 -0.12023473 0.058405597
0003d0 f3 98 92 bd bf 76 1d 3d ae 99 e5 bd 4a 30 a7 3d
       -0.07158079 0.038443323 -0.11210953 0.08163507
0003e0 a1 07 50 3d 9d 6d b9 bc 72 fd d5 bd ca dd 63 bc
       0.050788525 -0.022635275 -0.104487315 -0.013907859
0003f0 03 f7 a9 3d 7a 4e e7 3d 04 39 34 3b 5e de d7 ba
       0.08299067 0.11294265 0.0027499804 -0.0016469469

decoder.0.bias f4 [64]
000000 ca b6 fe 3d a5 d5 60 bd c0 38 bb 3d d5 64 34 bd
       0.12437208 -0.054891247 0.091416836 -0.044041473
000010 cb ff a7 3d 27 07 fc bc f7 7b 7f bd 61 88 30 3d
       0.082030855 -0.03076513 -0.06237408 0.04309881
000020 de f7 9d 3d 45 7a dd bd 7d 9f 0c bc 76 3b fd 3c
       0.077132925 -0.10814337 -0.008582947 0.030912142
000030 00 f1 d2 3c 45 48 12 3e 15 40 00 be 4e 6f ff 3d
       0.025749683 0.14285381 -0.12524445 0.124724016
000040 f0 08 9a 3d e0 df 0a be 91 4c 65 bd 84 50 59 3d
       0.07521236 -0.13561964 -0.055981223 0.0530553
000050 a3 2d d9 bd 0b 22 0b 3e 47 1a 5e bd 84 aa 61 3d
       -0.10604408 0.13587205 -0.05422428 0.055094257
000060 2c 9f e9 3c 1f 47 5b bd ed 95 0b be 30 76 2d 3c
       0.028518282 -0.053534623 -0.13631411 0.01058726
000070 57 b3 f1 bd 1b 6d 02 bd 4f 85 ff 3c 2f 11 4c bd
       -0.118017845 -0.031842332 0.031191496 -0.049821075
000080 7e fe a6 3d 0f 1c 04 be fa 18 e9 bd 16 c7 9f 3d
       0.08154009 -0.12901329 -0.11381717 0.078016445
000090 aa b1 9b bd 3b ec f5 3d 0a 12 dd bc 59 e0 c4 bc
       -0.07602246 0.12007948 -0.02698614 -0.024032759
0000a0 4e f3 0c 3e b5 1a 7f bc ad 17 ed bd 59 09 7d bd
       0.13764688 -0.015570332 -0.115767814 -0.061776493
0000b0 e5 30 35 3d eb c4 ca 3d 06 5a f8 3d 25 3a 5a bd
       0.044236083 0.0990084 0.121265456 -0.053278107
0000c0 5c 39 b1 3c ae fb d6 3d d0 75 6a bd 14 21 0d 3c
       0.021633796 0.10497223 -0.05724126 0.0086138435
0000d0 4f 03 8e bd 96 ea a5 3c b8 d0 0f 3e b0 0c fc 3d
       -0.06934225 0.02025346 0.14044464 0.123071074
0000e0 8a 00 c0 bd 47 16 8f 3d 08 72 0c 3e 5d b9 dc bc
       -0.09375103 0.06986671 0.13715374 -0.026943857
0000f0 02 2a 4f 3d 80 73 04 be 4e 13 a2 3d 02 47 e7 bc
       0.05057717 -0.12934685 0.07913838 -0.028232101
