data/models/autoencoder_epoch_50.pth (torch, 118024 bytes, 43 tensors)

encoder.0.weight f4 [16, 1, 3]
000000 cf 76 e6 3e 3c e0 f0 3e c9 74 13 be 9c 02 09 3f
       0.4501252 0.47046077 -0.14400019 0.53519607
000010 34 e2 f9 bd b3 c8 f7 3d aa 20 8c be d6 5d b1 3e
       -0.12201348 0.12098827 -0.2736867 0.34641904
000020 32 2d 04 3f 9c 38 db be 14 93 fe 3e 6b da d3 3d
       0.5163146 -0.42816627 0.49721587 0.10344394
000030 40 6b df 3e fa f6 8b 3d 5a 7e 89 3e 3d de b0 bd
       0.43636513 0.068342164 0.2685421 -0.086361386
000040 e0 67 e1 3e fa de a4 3d 07 92 8e be 8b 04 20 3e
       0.44024563 0.08050342 -0.27845785 0.15626733
000050 b5 89 83 be c5 b8 9e bd 45 6b 7a be 3e f2 be 3e
       -0.25691 -0.07750086 -0.24454983 0.3729419
000060 0d 90 e5 be 81 0d 8c be 2b 7e 2e be 3b e5 b3 be
       -0.44836465 -0.27354053 -0.17040317 -0.35135826
000070 d8 16 70 3d ae ec 10 bf b8 f0 01 3f ed e2 00 bf
       0.058615535 -0.56611145 0.5075793 -0.5034626
000080 3f 8c dd 3e ee e1 c2 3d 05 e8 3e be 22 33 b7 3e
       0.43271062 0.09515749 -0.18643196 0.357812
000090 57 e5 c6 3d 80 2f eb 3e c0 37 65 3d aa db 3e be
       0.09711712 0.45934677 0.05596137 -0.18638483
0000a0 b5 26 25 3e f2 04 1a be f5 17 81 3e 40 9c 01 3f
       0.16128047 -0.15040949 0.2521359 0.50629044
0000b0 a5 2c a6 3e 23 d0 83 be 8b 0f a8 3e 84 3c c9 3d
       0.32455936 -0.25744733 0.32824358 0.098259956

encoder.0.bias f4 [16]
000000 4e 65 97 3e b7 8e b2 be 7b 9c 12 bf 01 48 5e be
       0.29569477 -0.34874508 -0.5727002 -0.21707155
000010 2d ea e3 be ad 28 f1 3e 07 02 2b 3e be a9 6e 3e
       -0.445146 0.47101346 0.16699992 0.23306939
000020 2e 27 3f 3e 1d 78 e0 bb 0e 48 e5 3e 10 93 d0 be
       0.1866729 -0.006850256 0.44781536 -0.407372
000030 64 2f 25 3d 41 ff c6 be 50 00 3a 3e b9 46 51 be
       0.0403284 -0.38866618 0.18164182 -0.20437135

encoder.1.weight f4 [16]
000000 be a3 80 3f 71 3e 7f 3f 6a 28 80 3f 6d f1 80 3f
       1.004997 0.99704653 1.0012333 1.0073677
000010 4f c9 7f 3f b0 63 80 3f 37 87 80 3f 38 76 7f 3f
       0.9991655 1.0030422 1.0041264 0.9978976
000020 11 bd 7e 3f 24 1f 80 3f dc 8e 80 3f de b7 7e 3f
       0.9950724 1.0009503 1.0043597 0.9949931
000030 c8 e2 7e 3f f6 93 80 3f 11 de 7f 3f e1 15 7d 3f
       0.9956479 1.0045154 0.9994822 0.9886151

encoder.1.bias f4 [16]
000000 b7 0d a6 3b f9 4c 43 bb df 33 d2 3a 2c 52 81 3b
       0.005067553 -0.0029800518 0.0016037187 0.003946563
000010 c9 f6 29 3a ae f9 9f 38 8f da 89 3b fa 91 22 bb
       0.0006483612 7.628217e-05 0.0042069624 -0.0024806247
000020 90 0b a9 bb c1 1f e4 39 c7 30 9d 3b d7 b9 ab bb
       -0.005158849 0.00043511207 0.0047970745 -0.0052406597
000030 e5 fa 8e bb fb b7 ab 3b 4d a4 86 ba aa 04 3c bc
       -0.004363405 0.005240438 -0.0010272354 -0.011475721

encoder.1.running_mean f4 [16]
000000 e6 dc 98 3e 77 e9 ae be 33 89 12 bf d2 8d 61 be
       0.29856032 -0.34162495 -0.572406 -0.22026756
000010 29 79 e0 be b1 7f ef 3e 47 66 27 3e 82 da 6c 3e
       -0.43842438 0.46777108 0.1634761 0.23130229
000020 ea 89 39 3e 23 3b 29 bc 3a bd e6 3e e8 01 cf be
       0.18119016 -0.010329041 0.45066243 -0.40431142
000030 f6 1e 28 3d d4 f3 c6 be 05 8e 3b 3e a6 af 52 be
       0.04104515 -0.388579 0.18315895 -0.20574817

encoder.1.running_var f4 [16]
000000 a0 45 18 3f 2e 62 92 3e 51 98 b9 3e 16 32 47 3d
       0.5948124 0.2859053 0.3624902 0.04863175
000010 bd fc 16 3f 85 87 48 3e cf 13 16 3e e5 14 09 3c
       0.589794 0.19582947 0.14655994 0.008366798
000020 19 99 48 3f 6e 54 3a 3f d6 b1 48 3e e0 2a 99 3d
       0.7835861 0.7278508 0.19599089 0.07478881
000030 3f 40 c0 3e 3d ba 12 3d 17 76 94 3f 83 dc 22 3d
       0.37549016 0.035822142 1.1598538 0.039761078

encoder.3.weight f4 [32, 16, 3]
000000 ed f9 12 3d df 6b ab bc d4 9e 03 3e e4 46 c0 bd
       0.03588288 -0.02092546 0.12853557 -0.09388521
000010 41 58 c1 bd 35 44 9e bd c1 cb f8 3d 4c 4a 68 3d
       -0.09440661 -0.07727853 0.12148238 0.05671148
000020 0f 40 17 3e b3 83 02 be a6 0e 0a be 4d 3a d5 bd
       0.1477053 -0.12745552 -0.1348215 -0.104115106
000030 11 ed d7 bd 1c 61 8a 3d b5 cc 77 3d a5 8d e4 3d
       -0.10543264 0.067568034 0.06049796 0.11159829
000040 0f c7 86 bd 2d 78 b7 bd 8b 49 a6 3d 47 8f 70 bd
       -0.06580936 -0.089584686 0.08119496 -0.05873039
000050 67 59 a1 3d ed 6f 2e bd 79 89 ba 3d b8 a6 d3 bd
       0.0787838 -0.04258721 0.09108252 -0.103345335
000060 19 b2 8b bd d9 78 29 3d 9c d0 b1 3c ef c9 03 bd
       -0.06821079 0.041375015 0.021705918 -0.032175
000070 26 1a a3 3d 18 e6 b6 3d a4 73 e7 bd a4 64 af bd
       0.07963972 0.08930606 -0.113013536 -0.085641176
000080 6c 5d 10 3e 06 a4 69 bd 8e aa 2c bd ce fd 05 be
       0.14098138 -0.05704119 -0.04215484 -0.130851
000090 19 5a ba bd 39 10 38 3d 66 cf 27 bc fc 29 cd bd
       -0.09099216 0.044937346 -0.010242319 -0.100177735
0000a0 59 63 04 3c b0 fc db bd 86 ee 05 be 32 7b 90 bd
       0.008080327 -0.10741556 -0.1307927 -0.07054748
0000b0 4e aa f0 bd b2 44 cd bd 77 65 1c 3e 88 ae 13 3d
       -0.11751233 -0.10022868 0.15273081 0.036055118
0000c0 61 fd 1c 3d ec e1 0f be ac b9 cd bd f0 f3 5d bd
       0.03832758 -0.14051026 -0.1004518 -0.054187715
0000d0 f0 91 86 3c f3 d7 07 be 33 f5 8b bd ee 2f bc bd
       0.01642701 -0.13265972 -0.068338774 -0.09188829
0000e0 1b 24 ac bb ec 21 75 bd 28 56 70 bc 9b e0 d3 bd
       -0.0052533275 -0.059846804 -0.014668979 -0.103455745
0000f0 9d 7d d7 bd 20 7d b8 bd b9 87 61 bd 66 e7 f5 bd
       -0.10522006 -0.09008241 -0.055061076 -0.120070264
000100 cf 6a ec 3d ca 7d 0c bd d2 4f 05 3e bc a5 50 3d
       0.115438096 -0.03429965 0.1301873 0.050939307
000110 9d bb ee bd 52 04 c0 3d cc 18 38 bd ee c2 79 bd
       -0.11656878 0.09375824 -0.044945523 -0.060976915
000120 47 19 e9 bd 1f dd 0c be fc 4e 40 3d a9 28 d1 bc
       -0.113817744 -0.13756226 0.046950325 -0.025532084
000130 d6 4f 7e 3d 61 02 e7 bd 91 df ce 3d 16 be e5 bd
       0.062087856 -0.112797506 0.10101236 -0.11217897
000140 9f 7c fa bc 66 a5 c4 3c 33 c6 8c 3d b3 10 e3 3d
       -0.030577002 0.02400465 0.06873741 0.110871695
000150 ac 59 00 3e 73 14 f6 bd 76 42 fb 3c 48 b9 65 bd
       0.12534207 -0.12015619 0.03067134 -0.0560849
000160 d8 b1 20 bc e9 ac d1 bd ee 54 00 3e de b3 e4 bd
       -0.009808026 -0.10238058 0.12532398 -0.111671194
000170 ab 67 92 3d 57 a5 36 3d ac 3d 2b 3d 42 64 ab bd
       0.07148679 0.044591274 0.04180686 -0.08368732
000180 fa fb 08 3e 3d b2 0c 3d 58 ae ab 3c c9 38 ff bd
       0.13377371 0.03434967 0.020957157 -0.12462003
000190 4f 5f 81 3d 48 d3 9d bc 15 26 82 bd 8c 1f 01 3e
       0.06317007 -0.019265786 -0.0635492 0.1260969
0001a0 2f 92 0d 3d 02 4d 9e bd f2 76 93 bd af 58 94 bb
       0.03456324 -0.07729532 -0.072004214 -0.0045271735
0001b0 6d 58 aa 3d 09 42 0c bd b8 c2 a3 bd ed e1 3f bd
       0.08317647 -0.034242664 -0.07996124 -0.04684632
0001c0 0a 25 d8 bd ed a2 5c 3d 00 74 e0 3d c6 52 0d be
       -0.1055394 0.053866316 0.10959625 -0.13801107
0001d0 3b f3 fe 3c 86 f4 9d 3d 70 b9 e5 3c 19 e2 48 bd
       0.03112184 0.07712655 0.028042525 -0.04904375
0001e0 d4 f1 95 3d cb fe 96 3d dc 48 53 3d 16 31 e1 bc
       0.07321516 0.07372817 0.051583156 -0.027489226
0001f0 e8 6e 25 bd 29 b2 55 3c b7 c6 bb bc 3d fa 25 bd
       -0.04038897 0.013042965 -0.022921903 -0.04052185
000200 36 d7 c1 3d 25 a9 01 3e ec f2 3f bc 8f 32 f5 bc
       0.09464876 0.1266218 -0.011715632 -0.029931335
000210 9b 85 99 3b d5 a2 c9 bb aa e8 17 3d c0 06 1d 3d
       0.0046851165 -0.0061534443 0.03708712 0.038336515
000220 8c 68 08 be 07 f4 63 bd 7c 3a fe 3d 48 98 70 3d
       -0.13321131 -0.055652644 0.12413499 0.058738977
000230 6f ce 9c bb 71 f0 ac bd 5e 91 b1 bd 6a f5 01 be
       -0.004785351 -0.08444298 -0.08670305 -0.12691274
000240 69 5b 23 bd 3a 77 51 3d 2d 61 b4 3d 35 24 97 3d
       -0.039882097 0.051139094 0.08807597 0.07379953
000250 af 04 f7 bd eb eb b9 bd ea 85 7f bc 10 1c 09 3e
       -0.1206144 -0.09078201 -0.015595892 0.13389611
000260 81 89 8a 3c 3a 4b f7 bc 57 a7 56 3d 99 5d 71 bd
       0.01691127 -0.030187238 0.05240568 -0.058927152
000270 01 a9 b0 bd 62 fd db 3d dd 8b 8e bd 00 57 b2 bc
       -0.08625985 0.10741688 -0.069602706 -0.02177
000280 3d fc 17 be 1b b9 bd 3d 3b 07 f7 3d 5e e0 81 3d
       -0.14842315 0.09263822 0.12061926 0.06341623
000290 f6 fe c5 bd 7f 85 0a be 32 64 fd bd 12 44 d4 3d
       -0.096677706 -0.13527487 -0.12372626 0.10364546
0002a0 fc f0 a4 3d 5c f9 06 3e 04 00 a3 3d bb c1 43 3d
       0.080537766 0.1318106 0.07958987 0.047792178
0002b0 5e 8c fa 3b 9a b1 d8 bd 9b 9d ee bd 7d b9 04 be
       0.0076461276 -0.1058075 -0.116511546 -0.12961383
0002c0 51 c6 61 3d 40 72 82 bd e4 e3 f3 bc a4 49 b2 bd
       0.05512077 -0.06369448 -0.029771753 -0.08705452
0002d0 93 b4 9c bc 02 25 d6 bd 1c 4e c9 bd 51 31 72 3d
       -0.019129073 -0.104562774 -0.09829351 0.059129063
0002e0 50 7a 02 bd 7e 9a be 3d 08 4e 20 bd 8e 82 dd bd
       -0.031854928 0.09306811 -0.039136916 -0.10815917
0002f0 1d 29 f1 bc d3 94 80 bd a4 36 51 bd 10 ca 10 be
       -0.02943855 -0.06278386 -0.0510775 -0.1413958
000300 62 64 98 3d c5 76 c7 bd 1d cc 9c 3d 4a 53 72 3d
       0.074410215 -0.0973945 0.07656119 0.059161462
000310 51 06 c6 3d b6 79 da bd e8 97 c7 3d 86 86 82 bd
       0.096691735 -0.10667746 0.09745771 -0.063733146
000320 cb da 6b 3d 0a 4a 04 3e d9 89 77 bc a3 f2 3e 3b
       0.057581704 0.12918869 -0.015108549 0.0029136322
000330 e5 1a 22 bd 3d 5a f0 bd ba 1c 96 3d a6 36 19 be
       -0.03957643 -0.117359616 0.07329698 -0.14962253
000340 a0 28 c0 3d 22 6a e5 3d fb 35 03 3e 27 b5 28 bd
       0.093827486 0.11201884 0.1281356 -0.041188385
000350 9c 1c fb bd 11 9d d5 3c 4d e9 ac 3d e6 eb 0e be
       -0.12261316 0.026075872 0.08442936 -0.13957176
000360 c4 30 28 bd 3f 16 be bd 3c 81 88 bc 3c 8b a2 bd
       -0.04106213 -0.09281587 -0.016663186 -0.07936713
000370 8c 6b 83 bd 68 2b 4c bd 2a ef 12 be 50 57 e8 3d
       -0.06416997 -0.049846083 -0.14349046 0.113447785
000380 30 06 00 3e a0 7a ed bc 87 19 54 bc d8 ba 60 bd
       0.1250236 -0.028989136 -0.012945539 -0.054865688
000390 50 fa 0b be 05 e4 0b be 3a 45 6c 3d c2 7c b3 bd
       -0.13669705 -0.13661201 0.057683207 -0.0876403
0003a0 47 d1 ce bd 00 57 7a bc 4b e2 5e bd fa 04 30 bd
       -0.1009851 -0.0152795315 -0.05441503 -0.042973496
0003b0 2f 02 0e 3c 42 75 17 bd 95 06 37 bd 95 35 85 bd
       0.008667513 -0.03697706 -0.04468401 -0.065043606
0003c0 6d 5b da bd b0 5f f9 3d d8 b5 77 bd a7 fb 48 3d
       -0.10661969 0.12176454 -0.060476154 0.04906812
0003d0 3c 3c 21 bd 1c 51 14 3c d1 e2 14 3e fa 1d 7f 3d
       -0.039364085 0.009052541 0.14539649 0.062284447
0003e0 00 d4 02 be 86 8e 8b 3d db 0d 06 3e 89 bd 10 3d
       -0.12776184 0.068142936 0.13091223 0.035337005
0003f0 44 5f dc 3d 3b 53 12 3e 16 53 cb bc 41 1f 27 3d
       0.10760358 0.14289562 -0.024819892 0.04080129

encoder.3.bias f4 [32]
000000 73 ca 02 be 47 57 97 3d 6f 62 0b be 74 03 90 bc
       -0.12772541 0.07389694 -0.13611768 -0.017579772
000010 8d 01 17 3c b2 aa cf 3d e2 f8 56 bd c2 24 33 3d
       0.009216678 0.101399794 -0.052483447 0.043736227
000020 5f c9 9b 3c 0a ef bb 3d 11 cb 1e 3c a6 bb 58 3d
       0.01901692 0.091764525 0.0096919695 0.05291333
000030 1a 20 b4 bd bb 8d ce bd 42 67 06 3e fa 5c d8 bd
       -0.087951854 -0.10085627 0.13125327 -0.10564609
000040 f1 23 d6 bc a7 21 8b bc 8f dd 14 3e 08 fc 03 bd
       -0.026140185 -0.01698382 0.14537643 -0.032222778
000050 7e df dc bd 00 f1 0c bd 0a 55 a0 3d 79 be 61 3d
       -0.10784815 -0.034409523 0.0782872 0.05511329
000060 57 3d fd 3d e5 05 e9 bc aa a4 87 3d b2 0c 0a be
       0.12365215 -0.028445194 0.06623204 -0.13481405
000070 59 f4 5a 3d 9e 0e 88 3d a9 4e b6 3d 8c 5f b7 bd
       0.053455684 0.06643413 0.08901722 -0.08953771

encoder.4.weight f4 [32]
000000 ff a3 80 3f c0 00 80 3f fe 41 7d 3f 27 95 81 3f
       1.0050048 1.0000229 0.9892882 1.0123643
000010 af fe 7f 3f 51 e8 7e 3f 4d d4 7e 3f 91 37 80 3f
       0.9999799 0.99573237 0.99542695 1.0016958
000020 5e ea 81 3f da 7b 80 3f ee bd 7d 3f 93 00 80 3f
       1.0149648 1.0037796 0.99117935 1.0000175
000030 8e c0 7f 3f 46 01 81 3f fd e5 7e 3f 11 99 7e 3f
       0.9990319 1.0078514 0.99569684 0.9945231
000040 49 22 7f 3f 0f 1c 7f 3f 9f 0e 80 3f f6 b8 80 3f
       0.9966169 0.9965219 1.0004462 1.0056446
000050 85 0d 7f 3f 18 9e 80 3f 65 8f 7f 3f 0b 23 81 3f
       0.99630004 1.0048246 0.9982818 1.0088819
000060 aa 0b 7d 3f f7 14 81 3f 55 4e 7e 3f 10 ef 80 3f
       0.9884592 1.0084523 0.99338275 1.0072956
000070 1f a3 7c 3f 31 b0 7d 3f a2 0e 7f 3f b8 20 80 3f
       0.98686403 0.9909697 0.996317 1.0009985

encoder.4.bias f4 [32]
000000 da a0 b0 3b 26 0e d6 3b 59 eb 47 bb e5 c2 44 3c
       0.0053902688 0.0065324483 -0.0030505268 0.012009357
000010 8b 2c e3 b9 f5 e3 8c bb 44 21 9a ba 54 00 18 b9
       -0.0004333 -0.0042996355 -0.0011759182 -0.00014495972
000020 70 75 17 bc 73 1d 97 3b 95 1c 23 bc b9 73 a0 3a
       -0.009244308 0.004611665 -0.009955545 0.0012241519
000030 c3 48 7a 39 4c 23 f9 3b a8 cb 9f bb 25 3e 11 bc
       0.00023868964 0.0076030847 -0.0048765726 -0.008864914
000040 76 45 71 bb b0 b6 82 3b 57 ab a0 39 ec 67 a7 3b
       -0.0036815084 0.003989063 0.00030645236 0.005108824
000050 39 c7 2b bb 71 6b 8a 3a 4e 4e a5 38 f1 f9 16 3c
       -0.0026211275 0.0010560584 7.8823985e-05 0.009214864
000060 c3 47 40 bc 5d 7c 07 bb a1 9c 9a bb 95 3b 12 3c
       -0.011735859 -0.0020673492 -0.0047183787 0.008925338
000070 50 7c 4d bc a0 cc 10 bc 7f f5 6d 3b 3f 07 fc b9
       -0.012541845 -0.008837849 0.0036309657 -0.00048070584

encoder.4.running_mean f4 [32]
000000 1d 22 d7 be 24 70 b8 be eb 82 f5 bd 3e e8 a7 be
       -0.42018214 -0.36023057 -0.11987861 -0.32794374
000010 0a 67 95 be a3 ed 7e bd db b5 15 be c0 f4 5e bd
       -0.29180175 -0.062238347 -0.14620154 -0.05443263
000020 57 86 b3 3d 23 ee ec 3d f8 a4 77 3d bd 69 f7 be
       0.08765858 0.115688585 0.06046006 -0.4832286
000030 43 15 8b bd 5d 29 44 3d 3b e6 bd 3d 34 ee 91 bd
       -0.06791165 0.04789101 0.092724286 -0.07125512
000040 2b e8 0a bd 85 a0 67 3e 43 e9 67 be 4a bb 9b be
       -0.03391282 0.22619827 -0.22647576 -0.30416328
000050 50 d8 92 3d f5 6d 01 3c a4 d7 33 3e cc 7b ac 3d
       0.071701646 0.007899751 0.17562729 0.0842205
000060 8e 12 b5 3d 75 4b 54 3e 94 5f 4a bd de 7c 92 be
       0.0884143 0.2073191 -0.049407557 -0.2861089
000070 7f e6 18 be df e6 10 3d 07 c7 eb 3e 21 8c e0 bd
       -0.14931677 0.035376426 0.46050283 -0.109642275

encoder.4.running_var f4 [32]
000000 0c 81 69 3e 9f a6 24 3d 45 8d 27 3c 76 f6 71 3f
       0.22803134 0.040197965 0.010226552 0.94516695
000010 fd 5c 79 3d 8e d0 b7 3d 76 1a f9 3e 84 29 5f 3c
       0.060879696 0.089753255 0.48653 0.013620738
000020 64 37 32 3c 37 ea 5b 3d 8c 64 13 3f 89 78 07 3f
       0.010877464 0.05369016 0.575753 0.529183
000030 49 62 65 3d e6 36 8d 3e 09 7d 01 3e 84 ce f1 3c
       0.056001935 0.27580947 0.12645353 0.02951742
000040 1a 68 54 3e 55 35 e9 3e 7a ea 3b 3c 11 5c bc 3d
       0.20742837 0.45548502 0.011469478 0.09197248
000050 ce c7 f5 3d ad 67 c7 3c 31 ce f8 3d 10 37 38 3d
       0.12001 0.024341429 0.12148703 0.044974387
000060 bd d5 ad 3d d7 44 ce 3c cf 7a 2a 3e e0 7e 7e 3c
       0.08488033 0.02517931 0.1664841 0.015533179
000070 a8 51 10 3e 92 db d0 3e d4 0d 47 3d f8 e6 37 3c
       0.1409365 0.4079252 0.048597172 0.011224501

encoder.6.weight f4 [64, 32, 3]
000000 bf 39 13 bd 25 f3 8d 3c f2 7a a7 bd 5a 37 9c bd
       -0.035943743 0.017327854 -0.08177747 -0.07627745
000010 77 e8 dd bd 69 18 52 3c 5e ed 94 3d 34 ed d0 3c
       -0.10835355 0.012823203 0.07271837 0.025503732
000020 5d 7d 4f 3c fd 55 dc 3c 8c bc 94 bd 05 36 bc 3a
       0.012664166 0.026896471 -0.07262525 0.0014359361
000030 3f 38 9a bc 20 01 29 bd 5d a1 c7 3d 2d a1 93 bd
       -0.018825648 -0.04126084 0.097475745 -0.07208476
000040 4f 1a b0 3c 7d 4e a7 bd 91 5d 46 bc f4 0a 61 bd
       0.02149692 -0.08169267 -0.012107269 -0.054942086
000050 f9 5c 21 3d 6b f5 4c bd af e7 8d 3d 7a df 9b bd
       0.039395306 -0.050038736 0.06928956 -0.07610984
000060 bb f0 5d 3d 86 6c a2 bd f3 70 44 3d 62 7d 16 bd
       0.054184657 -0.079308555 0.04795928 -0.036740668
000070 28 17 05 3c 6e 95 c1 bc b0 5e 95 3d 77 c4 22 3d
       0.008123197 -0.023630824 0.07293451 0.039738145
000080 e7 14 a6 bd e1 fc 6d 3a 14 54 a2 bd 3d 66 8e 3d
       -0.081094556 0.00090785144 -0.07926193 0.06953094
000090 15 80 09 3c 54 7a 11 bd e4 fd 3d bd 31 97 2a 3d
       0.008392354 -0.03551705 -0.046384707 0.041648094
0000a0 bd 0c 5a bd fa 4f 35 3d 64 2d 7e 3d 78 f6 94 3d
       -0.053234804 0.044265725 0.062055007 0.07273573
0000b0 8d eb bb 3c ff 41 aa bd db a5 a2 3d f4 47 1a bd
       0.022939468 -0.08313369 0.07941791 -0.037666276
0000c0 1c d7 1e bd e3 9a a3 bc f9 92 85 3d 6f 09 ae 3d
       -0.038779363 -0.019971317 0.065221734 0.08497893
0000d0 7b 98 b8 3c d2 a5 36 3d 98 8a d5 bd 3e 72 1d bb
       0.022533646 0.044591732 -0.10426825 -0.0024024392
0000e0 3d 8f ad bd 8c ba e6 3c 41 4d a8 bd 6f 66 fc bc
       -0.08474586 0.028165124 -0.0821786 -0.030810563
0000f0 f4 0c 9f 3d cd d5 d0 3d a3 37 87 bd 1b 85 49 bd
       0.077661425 0.10197029 -0.06602409 -0.049199205
000100 32 7a 8e 3c f6 cb 3d 3d 1b c4 1f bc a8 2f d5 bc
       0.017392252 0.04633709 -0.009751345 -0.0260237
000110 0a 50 73 bd 61 42 4c 3d 3a 7a e2 3d 85 42 5b bd
       -0.059402503 0.04986799 0.11058469 -0.053530235
000120 f9 71 21 3d d2 01 34 3d 2e ea 94 3d 5e 8b 69 bb
       0.039415333 0.04394705 0.07271229 -0.0035636048
000130 1b 30 06 3c 21 34 a5 3d 52 98 63 3d a3 4f bc 3d
       0.00819018 0.080665834 0.055565186 0.09194877
000140 7e 24 c0 bc be f8 02 3d b4 5b 8b 3d f7 3f 9c bd
       -0.0234549 0.0319755 0.068046 -0.07629388
000150 0b 5d 3f 3c e8 27 fc bc cd b7 66 3d 97 67 20 bd
       0.011679898 -0.030780748 0.05632763 -0.03916129
000160 c8 95 71 3c 03 bc 6d 3d 18 02 d3 bd cd 48 bb bd
       0.014745183 0.05804063 -0.10303134 -0.09144745
000170 db 29 76 bd 58 06 92 3d 01 c2 87 3d 84 42 9a bd
       -0.06009851 0.07130116 0.066288 -0.07532218
000180 7d 5f 53 3c 35 ac 78 bd 44 99 5d bd 86 de a4 3d
       0.012901184 -0.060711104 -0.054101244 0.080502555
000190 18 f3 2a 3d d7 56 0d bd 6b da 11 3c de ec 64 3c
       0.04173574 -0.034506645 0.008902173 0.013972489
0001a0 39 e2 89 3c a7 fe 29 bd a4 b5 88 bd ab f9 78 3d
       0.016831504 -0.04150262 -0.0667527 0.060784977
0001b0 0d bc 82 3c cc 42 49 3d 77 bd ff bc 0a 17 53 3d
       0.01595881 0.049135968 -0.031218274 0.051535644
0001c0 ac 49 a3 3d 12 65 8c 3d 06 bc ab 3c c3 c9 bf 3d
       0.07973036 0.06855215 0.02096368 0.09364655
0001d0 c5 b4 e9 bb d4 7e 96 3c 32 96 bd 3d 8d a9 bc 3d
       -0.007132145 0.018371023 0.09257163 0.09212027
0001e0 c9 8e 3a bd 0e 59 c8 3d e8 78 3a 3d fe ba 02 bc
       -0.045546327 0.09782611 0.04552546 -0.007979153
0001f0 78 08 c5 3d 00 d6 3b bd 50 df 8c 3d 25 6b d5 3d
       0.09620756 -0.045858383 0.06878531 0.10420827
000200 0a 1c 82 bd 03 c9 88 bd 82 ca dc bd b0 ad cf bc
       -0.06353004 -0.06678965 -0.10780813 -0.025351375
000210 09 ed cb bd 62 34 28 bd 8f 6c c4 3c 6a 13 9a 3d
       -0.0995732 -0.04106558 0.023977546 0.07523234
000220 31 83 81 3d dd 68 82 3d a2 df 39 3d 84 57 68 bd
       0.06323851 0.06367657 0.04537929 -0.056724086
000230 13 92 97 bd ae b0 c9 3b aa ed d1 3d 13 c3 4b 3c
       -0.07400908 0.006155095 0.10250409 0.012436646
000240 2a 00 7b bc 75 89 9b bd b7 1d 6b bd d1 e2 9a bd
       -0.015319863 -0.07594577 -0.057401385 -0.07562793
000250 27 47 b2 3d 80 54 1f bc 3f 99 c5 bd 53 b4 6a 3c
       0.087049775 -0.009724736 -0.0964837 0.014325219
000260 40 2d 87 3a a0 5b 9f bc ab 1d f5 3c 87 aa 43 3d
       0.0010313168 -0.01945287 0.029921373 0.04777005
000270 ba d5 bd bd aa 41 92 bd 0f 8d 09 3b ed f7 d8 bd
       -0.09269281 -0.07141431 0.0020988618 -0.10594163
000280 e6 e5 cc bd e9 64 a9 3d dd bc ce bb d2 6f 53 bd
       -0.10004787 0.082712 -0.0063091354 -0.051620312
000290 0c 5f 1c bd 41 e5 9c bd da 36 b0 3d 96 8a 77 bc
       -0.03817658 -0.07660914 0.08604212 -0.015108725
0002a0 d1 c9 82 bd bf 8d ac bd 66 9f 59 3d 6b e8 97 bc
       -0.0638615 -0.084254734 0.05313053 -0.018543443
0002b0 3f 42 79 bc 50 a7 14 bd e4 49 65 bd 7c 2e 3b 3c
       -0.015213548 -0.036292374 -0.05597867 0.011424657
0002c0 8e da 92 3d 5f 8c 84 bd 32 b5 0d 3c 19 e5 a5 bd
       0.07170592 -0.06472086 0.008649157 -0.081003375
0002d0 5f bf 5e bd a8 6f aa 3d f6 3a bb bb 3e 48 cf 3d
       -0.054381724 0.08322078 -0.005713816 0.10121201
0002e0 76 c6 39 bc b1 23 48 bd 47 97 8c bd 1e e5 c4 3d
       -0.011338821 -0.048862163 -0.06864791 0.09614013
0002f0 13 60 95 bd 41 3e 69 3d 8a 8c 01 3d 5d 96 18 3d
       -0.07293715 0.056944136 0.03162817 0.037252773
000300 d7 c8 7c 3d 79 09 a5 bc 7c e1 8c 3d 74 fb a6 bd
       0.061714973 -0.020146118 0.06878945 -0.081534296
000310 89 92 f4 bc 30 da 87 3d 42 83 0d 3d 00 13 03 bc
       -0.02985503 0.06633413 0.034549005 -0.008000135
000320 8b 09 03 bd 7f ae 6e bd 5f a8 8c 3d 43 61 3e 3b
       -0.031991523 -0.05827188 0.06868052 0.0029049672
000330 4e 43 f6 bb 7e 31 8f 3c 30 98 8c 3d a2 66 60 bd
       -0.0075153476 0.017479654 0.06864965 -0.05478538
000340 39 3c 2a bd 2b 20 7c 3d 6c 20 86 3d 53 ad 32 bd
       -0.04156134 0.061554115 0.06549153 -0.043622326
000350 94 5e e0 bd 49 a7 a6 3c 44 57 51 3d 72 cc 84 3c
       -0.10955539 0.02034344 0.051108614 0.016210768
000360 dd a1 95 3d 70 37 ae bd e3 72 75 3d 7b c7 8f bd
       0.073062636 -0.085066676 0.059924018 -0.0702047
000370 ed e8 50 3d ff 0f ad 3d 30 7a e6 3c 21 21 9c 3d
       0.051003385 0.08450317 0.028134435 0.07623506
000380 de 20 92 bd d3 38 b1 bd 18 5f bb bd d9 b5 82 3d
       -0.07135175 -0.086534165 -0.09148997 0.06382341
000390 0b 18 34 3d 1f d8 8b bd fa ef 27 3d d8 3a b2 3d
       0.04396824 -0.06828331 0.041000344 0.0870263
0003a0 d6 9b db bd 49 87 a9 3d 7d d4 1e 3c 84 20 3a 3b
       -0.10723083 0.08277757 0.009694216 0.0028400728
0003b0 ee ea cd 3d d9 20 ae 3d 80 51 12 3d a8 88 b6 3d
       0.10054575 0.08502359 0.035722256 0.08912784
0003c0 e2 aa 3e 3d 72 b8 be 3c 66 2b ab bd bc 5a 57 3c
       0.046549685 0.02328131 -0.08357887 0.013144191
0003d0 57 f9 a1 bd 4a d9 24 3d d1 03 c0 3c 56 3d f0 3b
       -0.07908886 0.040246285 0.02343932 0.0073315306
0003e0 b5 ed a1 bd 7b f5 57 bd 25 1d a8 3d a0 88 29 3d
       -0.07906667 -0.052724343 0.08208684 0.04139006
0003f0 2f 9e 42 3d 4c 0a 17 bd 98 e4 10 bc 84 ec d6 bc
       0.047514137 -0.036875054 -0.0088435635 -0.026235826

encoder.6.bias f4 [64]
000000 c5 35 61 bd ac 6b 96 bd f7 90 6c bd 1b 96 aa bc
       -0.05498292 -0.073447555 -0.057755437 -0.020823529
000010 de 5c ca 3c 2e 14 9d 3c e2 de c1 bd 3b a1 c7 bd
       0.024702486 0.019174661 -0.0946634 -0.09747549
000020 ca 31 85 bc e2 93 b6 3d c8 cd 1c 3d bc 05 b8 3d
       -0.016259093 0.08914925 0.038282186 0.08985469
000030 69 2d 44 bd 1f 7a f2 3c b2 65 b7 bd aa 99 5d 3d
       -0.04789487 0.029599248 -0.08954944 0.054101624
000040 34 14 f6 ba e9 17 05 bc a3 4a 64 bd 2e df b0 bd
       -0.0018774332 -0.008123376 -0.05573524 -0.08636318
000050 3d 2e 1c bd 72 4f 25 bc 32 96 5d bd dd d7 2c 3d
       -0.038130034 -0.010089742 -0.054098316 0.04219805
000060 49 2f 87 bc a0 2a 42 3c aa 30 c7 bd f2 dd e6 3c
       -0.01650204 0.011850983 -0.09726079 0.028182004
000070 7b ae 53 bd f8 5a 9e bd 46 de 30 bd 85 a2 be bd
       -0.05168007 -0.07732195 -0.043180726 -0.09308342
000080 6e eb 9d bd 33 62 9b 3d bc 90 ad 3d 12 c3 8d bd
       -0.0771092 0.075870894 0.084748715 -0.06921972
000090 0e f9 b3 3c 59 c4 57 bd d3 03 c9 3d a8 48 7b 3d
       0.021969344 -0.052677486 0.098151825 0.061348587
0000a0 f1 77 28 3d 56 8a aa bd 7a 03 4a bd 4b 58 bc bc
       0.04113001 -0.08327167 -0.04931972 -0.02299132
0000b0 c2 70 bb bd 79 ff 72 bd a5 f2 df 3c 1c b9 a7 bd
       -0.09152366 -0.05932567 0.027337382 -0.08189604
0000c0 63 a1 dd 3c a1 d1 88 bb 2c 63 7c bb c6 74 f8 bc
       0.027054494 -0.0041753803 -0.003851126 -0.03032912
0000d0 3d ff 61 bd cb bc be bd bc 46 91 bd fa d5 9f 3d
       -0.055175055 -0.09313353 -0.0709357 0.07804485
0000e0 41 5e e9 bb 3c a7 cf 3d 66 d8 d1 3b cc c4 2b bc
       -0.0071218316 0.10139319 0.0064039705 -0.010483932
0000f0 46 c6 79 3d 62 12 c5 bd c7 6a 82 bd 06 40 69 3d
       0.060980104 -0.09622647 -0.063680224 0.056945823

encoder.7.weight f4 [64]
000000 24 60 7d 3f e7 77 7d 3f 0d 19 80 3f cf 9d 80 3f
       0.98974824 0.9901108 1.0007645 1.0048159
000010 c3 00 81 3f de 34 81 3f fd 5a 7e 3f c1 b5 7f 3f
       1.0078357 1.0094259 0.9935759 0.9988671
000020 d3 fc 7f 3f d0 41 80 3f 16 31 7e 3f 6f f5 7e 3f
       0.99995154 1.0020084 0.9929365 0.9959325
000030 ff 13 7e 3f dc b6 7e 3f fd d5 80 3f 2f 8d 7d 3f
       0.9924926 0.9949777 1.0065304 0.99043554
000040 89 fe 7e 3f 87 17 80 3f 9d f6 80 3f 72 8b 80 3f
       0.9960714 1.000718 1.007526 1.0042555
000050 87 99 80 3f 77 01 81 3f 9c 41 80 3f 23 5d 7d 3f
       1.0046853 1.0078572 1.0020022 0.9897024
000060 82 e9 80 3f f8 2c 81 3f a3 07 7e 3f 1e 41 7f 3f
       1.0071261 1.0091848 0.992304 0.99708736
000070 da 1e 80 3f ae f5 7f 3f cd 11 7d 3f 3b ca 7f 3f
       1.0009415 0.9998425 0.98855287 0.99917954
000080 bb 78 7d 3f f9 59 80 3f 98 19 81 3f e3 3b 7d 3f
       0.99012345 1.0027457 1.0085936 0.98919505
000090 40 ca 7e 3f 72 7b 80 3f 2f 84 80 3f 65 82 80 3f
       0.9952736 1.0037673 1.0040339 1.0039793
0000a0 32 3f 7f 3f a0 1b 80 3f 8a b9 7d 3f 70 5b 80 3f
       0.99705803 1.000843 0.99111235 1.0027905
0000b0 7a 1e 7e 3f 6d b9 7d 3f 6c 7c 81 3f 17 49 81 3f
       0.99265254 0.9911106 1.0116096 1.010043
0000c0 ae e5 7e 3f 31 70 81 3f 8c 72 7e 3f 35 0e 81 3f
       0.99569213 1.0112363 0.99393535 1.0082461
0000d0 27 21 7f 3f 99 f4 7d 3f 72 61 80 3f ba c1 81 3f
       0.9965996 0.9920135 1.0029738 1.0137246
0000e0 ac 25 81 3f 34 ae 80 3f d4 6a 80 3f 14 f1 7f 3f
       1.0089622 1.0053163 1.0032601 0.9997723
0000f0 b8 f4 7e 3f 1e 9e 80 3f 7d 7c 7d 3f c4 1e 7d 3f
       0.9959216 1.0048254 0.9901808 0.9887507

encoder.7.bias f4 [64]
000000 d9 85 18 bc 19 66 eb ba 3e d9 c2 ba 41 d1 a2 3b
       -0.0093092555 -0.0017959505 -0.0014865769 0.0049687927
000010 b8 b2 44 3b fb c4 3e 3c f6 66 db bb 92 96 9f 3a
       0.0030013751 0.0116436435 -0.0066956235 0.0012175611
000020 6e 46 9a bb ec 54 66 3b 0e d8 dc bb 0d 04 21 bb
       -0.004708103 0.0035145832 -0.006739623 -0.0024569065
000030 3c 08 13 bc cd 74 a1 bb a9 aa 08 3c 5f 0b 21 bc
       -0.008974131 -0.004927254 0.00834147 -0.009829371
000040 fb 7b d4 bb 8d 51 95 3b 0c c0 05 3c 0f b6 03 bc
       -0.006484506 0.0045568408 0.008163463 -0.008039012
000050 5e 7c cc 3b 90 02 03 3c a1 4f 9b 3a df b3 95 bb
       0.0062404117 0.007996216 0.0011849293 -0.0045685614
000060 00 7c e9 3b 05 fd 19 3c 41 2f a8 bb 9c 46 02 bb
       0.0071253777 0.009398703 -0.005132586 -0.0019878512
000070 55 1a 80 bb ee b1 91 3a 3c b7 ce 3a 19 c6 d8 ba
       -0.003909389 0.0011115649 0.0015771161 -0.001653853
000080 ca 66 07 bc e1 d3 3f 3b f3 0f 0c 3c 1c 15 0c bc
       -0.008264253 0.0029270577 0.008548724 -0.008549955
000090 7e 58 98 3b 1d 92 e8 3b 60 10 61 3b c0 f4 2e 3b
       0.004649221 0.007097496 0.0034342036 0.0026696175
0000a0 7a d1 6e bb 58 0d f8 3a 56 a9 18 bc 9c 5f f9 3a
       -0.0036440776 0.0018924875 -0.009317717 0.0019025686
0000b0 97 f5 f7 bb f6 6d 11 bc ac 88 d5 3b e8 e2 2d 3c
       -0.0075671184 -0.008876314 0.0065165367 0.010613181
0000c0 9c 2c 77 bb 58 f9 03 bb 09 6a 54 3b be b7 0a 3c
       -0.0037715798 -0.0020137634 0.0032411835 0.008466659
0000d0 6f 5e 88 bb 8d 25 5f 3b 98 f7 27 3b 4e f3 46 ba
       -0.004161648 0.0034049482 0.0025629755 -0.0007589356
0000e0 10 f0 71 3b ca d8 22 3c 63 88 b5 3b 60 3f 1a 3c
       0.003691677 0.009939382 0.00553994 0.009414524
0000f0 47 15 6a bb 44 5b 01 3b 25 31 14 bc 1c 66 33 bc
       -0.0035718249 0.0019738236 -0.00904492 -0.010949638

encoder.7.running_mean f4 [64]
000000 d5 13 64 bd 0a 67 d1 bb ff c1 0c bd eb 33 8e be
       -0.055682976 -0.006390457 -0.034364697 -0.27773985
000010 8e 44 26 3e 0a 1d b6 3e 68 0b 15 bf 97 01 90 be
       0.16237089 0.3556903 -0.5822053 -0.28126213
000020 76 09 94 bd 0e a6 96 3e 07 51 29 be 34 97 ce 3e
       -0.07228367 0.29423565 -0.16534816 0.40349734
000030 25 90 f5 3d 4e 73 0e 3d 3f 39 e7 3c 1c 79 6d bd
       0.11990384 0.034777932 0.02822554 -0.057976827
000040 64 b5 77 3e 91 98 97 be 11 fb 0d be 30 e6 90 be
       0.24190289 -0.29608586 -0.13865305 -0.2830062
000050 bb 6b 57 bd 07 48 af bd 59 46 60 bc a9 f2 af bd
       -0.052592974 -0.0855866 -0.013688647 -0.085912056
000060 c6 ea 47 3e e9 4f 61 3e 6e 86 a5 bd c8 4d af bd
       0.19523153 0.2200314 -0.08082281 -0.085597575
000070 1b 19 28 be 00 47 3b bf fe 91 f1 bd 9a ab 2e 3e
       -0.16415827 -0.7315521 -0.11795424 0.17057648
000080 25 4e 55 be 48 51 bd 3e bc 19 7b 3d 3e b7 87 3e
       -0.20830591 0.36976075 0.06130384 0.2650699
000090 a2 fc db 3e 86 15 c9 bb 7e 9b 6e 3e f4 18 ee bd
       0.4296618 -0.006136599 0.23301503 -0.11625853
0000a0 b7 28 5e 3e db 2a 25 3e 98 04 87 bd 0b 98 88 bd
       0.21695219 0.1612963 -0.06592673 -0.06669625
0000b0 44 15 aa 3c 2a 93 ff be d4 81 6f bd 7d ba 95 be
       0.020762093 -0.49916965 -0.058473423 -0.29243842
0000c0 4d 87 d3 3c b8 fc 34 bd a9 65 c0 3e d2 8f d7 3d
       0.025821352 -0.044186324 0.3757756 0.105254784
0000d0 08 b5 31 3e 34 cf 30 bc ab 8f 85 be f1 2e 3d 3d
       0.17354214 -0.010791589 -0.26086172 0.046187345
0000e0 f4 92 22 be 3c 7e 21 bd 5d d5 ed bb 98 8b dd bc
       -0.1587637 -0.039427027 -0.007258101 -0.027044103
0000f0 92 04 87 3e c2 7c f0 bb 56 64 39 bd 8f bc 12 be
       0.26370674 -0.007339091 -0.045261703 -0.14329742

encoder.7.running_var f4 [64]
000000 e5 63 b5 3e 33 7c 20 3f da 90 c5 3d e3 18 8f 3d
       0.35427776 0.6268951 0.09646769 0.06987169
000010 dc 5c d2 3d 5e ea c5 3d dc 07 34 3d cf ac 93 3d
       0.10271618 0.096638426 0.043952808 0.07210695
000020 3f b5 a0 3d 1b 48 20 3e 72 47 18 3f 2d 61 3d 3e
       0.0784707 0.15652506 0.59484017 0.18494101
000030 6d 5a 9b 3d 8b 21 38 3d ef ed a0 3e 96 ef 02 3d
       0.07585607 0.044953864 0.3143153 0.03196677
000040 04 6f ba 3d 48 ea 56 3e 4a eb 9a 3e e5 54 10 3d
       0.09103206 0.20987809 0.30257636 0.03523721
000050 99 50 30 3e 34 55 31 3e 46 43 2d 3e 46 55 a6 3d
       0.17218246 0.17317659 0.16920194 0.08121733
000060 44 f3 75 3e b7 4a 8b 3e 78 1b 13 3e 83 bf 18 3e
       0.2401858 0.2720544 0.14365947 0.14916806
000070 01 bb cf 3d 69 83 55 3f ed ae 4b 3e db bb 75 3e
       0.1014309 0.8340364 0.19890948 0.23997442
000080 17 5e f2 3c cd 42 c8 3e 2c 85 d8 3e 5a 15 cf 3d
       0.029585881 0.39113465 0.42289102 0.10111494
000090 6d 9b cc 3e c6 be db 3e 62 b8 65 3d 3c 57 6a 3e
       0.3996233 0.42918986 0.056084044 0.2288484
0000a0 7d 4f ad 3e 58 cb 8b 3e af f5 5c 3e e2 ea b6 3e
       0.33849707 0.27303576 0.21578096 0.35726076
0000b0 11 e2 8d 3d 3b 7a bd 3e 25 20 06 3e 79 69 98 3e
       0.06927884 0.37007317 0.130982 0.2976797
0000c0 82 14 01 3e 32 de 2f 3d fe 60 8c 3d b0 fa 88 3e
       0.1260548 0.04293651 0.06854437 0.2675376
0000d0 21 47 6f 3e 83 f8 38 3e 92 b9 ac 3d fa 45 9f 3d
       0.23366977 0.1806355 0.08433832 0.07777019
0000e0 40 c6 3d 3d 8c a9 b7 3e 4e bb b7 3e b9 43 c3 3e
       0.046331644 0.35871542 0.3588509 0.38137606
0000f0 f1 dc 62 3e da bd 66 3e 86 bf bc 3d 07 91 13 3e
       0.22154595 0.2253336 0.09216218 0.14410792

encoder.9.weight f4 [16, 64, 3]
000000 de c2 0a bc 25 fe 87 3d f0 1d 08 3b d5 3a 71 3d
       -0.0084693115 0.06640271 0.0020769797 0.058893997
000010 50 50 2d 3c d3 80 74 3c 08 cb 4e bd cf 77 80 bc
       0.01057823 0.014923292 -0.050486594 -0.01568213
000020 24 8e 40 3c a6 c4 e0 3c 15 2d ad 3b 5a 31 a4 bc
       0.011752639 0.02743752 0.005284915 -0.020043064
000030 37 4c e0 3b 7c de 8a 3d d7 15 5c 3d a1 81 b4 3c
       0.006845023 0.06780717 0.053731766 0.022034468
000040 83 83 3d bd c0 38 9e bc 76 cb 32 3d 7a 98 87 3d
       -0.046267997 -0.01931417 0.043651067 0.066208795
000050 e0 5a 17 bd 4f 9e dd 3c b9 b4 c7 bc 86 24 48 3d
       -0.0369519 0.027053026 -0.024378167 0.048862956
000060 29 b8 d5 bb 58 9c 53 bd 30 77 82 bd a7 ba a8 3b
       -0.0065221977 -0.051662773 -0.063703895 0.005149204
000070 d9 e0 f5 3c 9a 9a 0e bd cc 71 4a 3d 8f 12 d8 3c
       0.030014442 -0.03481541 0.04942493 0.026376037
000080 ab 2c 13 3d 32 2b 1f 3d ac 40 81 bd 1c b3 75 bb
       0.03593127 0.038859554 -0.06311163 -0.003749079
000090 70 e6 39 3d 55 70 2f 3d 3e d7 6a bd ed 4c 04 bd
       0.045385778 0.042831738 -0.057334177 -0.032299925
0000a0 72 5b 7a 3d cf 6a 4f bd 0d da 3a 3d 06 e6 b5 bc
       0.061122365 -0.05063897 0.045618106 -0.02220441
0000b0 13 2e 1c bb e4 5f e7 3c c1 8b 3b 3c 50 d2 5d bd
       -0.0023831173 0.028243966 0.011446894 -0.054155648
0000c0 ee 5d fa 3c d2 23 61 bd ac f9 ef bc e3 1f 98 bb
       0.030562367 -0.0549658 -0.029293858 -0.004642473
0000d0 ca 59 d2 bb b0 a0 7a 3d dd 5b 40 bd 7c ad 55 3d
       -0.006419395 0.0611884 -0.046962608 0.0521674
0000e0 a6 f0 db 3c 18 a8 ba 3c 3c 94 39 3d fe 73 53 bd
       0.026848149 0.022785231 0.045307383 -0.05162429
0000f0 41 10 8d bd 48 2a a8 bb 2e b9 ed 3c fc 7b c3 3c
       -0.06887866 -0.0051319934 0.029018965 0.023862831
000100 d1 e6 83 bb 14 d9 7d 3d b1 78 9a 3c c8 e6 bf 3c
       -0.004025318 0.0619746 0.018856378 0.023425475
000110 28 01 2e bd 31 ba 80 3c a1 3e 12 bd 77 99 87 bd
       -0.04248157 0.015713783 -0.03570426 -0.06621068
000120 ed 9e 63 bd 65 3d 54 bd 15 54 9b bc ea 5c b8 bc
       -0.055571485 -0.051816363 -0.018960992 -0.022505242
000130 d9 b5 99 3d 1e 4b 1a 3d cc df 56 bd b1 39 41 3c
       0.07505388 0.037669294 -0.052459523 0.01179354
000140 03 98 8e 3d a8 01 c4 3b cf bb 9f 3c 75 9e e2 3c
       0.06962588 0.0059816428 0.019498734 0.027663449
000150 55 c4 af bc f6 ab 2d bd aa 91 ad bc 43 12 1b bc
       -0.021455923 -0.042400323 -0.021187622 -0.009464803
000160 ec d2 85 3d 21 22 4e bd ed 42 9f 3c b4 ae a6 bc
       0.06534371 -0.050325517 0.019441092 -0.020346977
000170 b7 60 b2 ba 8c 94 3e 3b 4c c4 9c bc f4 e2 c9 3c
       -0.0013609146 0.002908024 -0.01913657 0.024644352
000180 90 27 a6 3c 17 e6 08 bd 42 09 54 3d c5 4b 92 3d
       0.020282537 -0.033422556 0.05176664 0.07143358
000190 03 12 b4 bc 1f 93 b5 3c c3 72 79 bc 69 8f 70 3d
       -0.021981245 0.02216488 -0.015225115 0.058730517
0001a0 37 8f 28 3b dc c3 94 bd 7a d3 07 3c e5 8a 5b 3d
       0.0025720128 -0.0726392 0.008290166 0.053599257
0001b0 97 7c 21 3c 5c e4 1a bc 85 b8 c7 3b 95 58 4d 3d
       0.009856365 -0.009453859 0.0060949945 0.050133307
0001c0 f9 48 90 3d ef 33 24 bc 1a db 2a 3d 0a 1b 37 3d
       0.070451684 -0.010022148 0.041712858 0.04470352
0001d0 85 ce 8e 3d 90 3e 36 3d 02 fd 8b bd a0 38 8a bd
       0.06972984 0.044493258 -0.06835367 -0.067490816
0001e0 d4 61 51 bd 14 52 5b 3d b5 c7 e9 bc 36 68 03 3d
       -0.051118687 0.053545073 -0.02853761 0.032081805
0001f0 fe a7 9d bc c3 55 1b bd 25 cf 41 3d 93 f5 b4 bc
       -0.019245144 -0.037923586 0.04731669 -0.022089755
000200 2e 2f 3f bd 69 35 90 bc be d9 5c bd c8 88 9e bd
       -0.046675853 -0.017603593 -0.053918593 -0.07740933
000210 4e 32 a2 bb ea 2a 9a 3b 38 ed 04 bd b9 53 68 3d
       -0.0049498444 0.004704823 -0.032452792 0.05672047
000220 50 5d c5 bc 55 44 d5 bc b0 6c 4b 3d ab 67 b9 b9
       -0.024092346 -0.02603356 0.0496642 -0.00035363188
000230 1c bf cc bc 0b 34 db 3b 6c f5 97 bd c2 14 81 3d
       -0.024993472 0.0066895536 -0.074198574 0.06302787
000240 3d eb 51 3c d1 9f 89 3c cd 6e 77 bd c9 1c 5f 3d
       0.012812433 0.01679984 -0.060408402 0.05447081
000250 19 1f 5e bd 86 3a b3 bc 0f ed 42 bd eb 17 e1 bc
       -0.054228876 -0.021878492 -0.047589358 -0.027477225
000260 c5 c9 ac 3c c8 0d a0 bd 4b d4 a0 bd 4d 60 17 3c
       0.021092305 -0.078151286 -0.07852992 0.0092392685
000270 fd 6f 05 3d 21 7c 11 3c a9 da 9d bc 12 c2 9e bc
       0.032577503 0.008879692 -0.019269304 -0.01937965
000280 35 7c b6 bc fd ff 3b bc 44 46 06 bd b8 1d 5b 3d
       -0.022276023 -0.011474607 -0.032781854 0.05349514
000290 ff 69 af 3c 88 c2 42 bd 95 43 1e bc 7d ef 3c bd
       0.021412848 -0.0475488 -0.0096596675 -0.04612683
0002a0 f5 61 ee bc cb 45 87 3d 1f 53 03 3d 3c 59 c5 3c
       -0.029099444 0.06605109 0.032061692 0.024090402
0002b0 1f cc 47 bc f3 bc dc bc 99 3d 1d 37 a2 76 78 bd
       -0.012194662 -0.026945567 9.372271e-06 -0.060660012
0002c0 be 20 a3 bd 7f a7 7b 3d 0a e8 77 3c 27 8b 50 3d
       -0.079652295 0.061439034 0.015131006 0.050913956
0002d0 e6 07 35 3d af 04 b9 3c 6c e8 03 bd b0 38 59 bb
       0.044196986 0.022585241 -0.032204077 -0.003314536
0002e0 47 bb af 3b b0 88 4c 3c 3e 69 ce 3b 5f d1 49 bd
       0.0053629014 0.012483761 0.006299167 -0.049271937
0002f0 35 46 0a bd c2 2f 73 3d be 15 35 3c 7a 03 cd bc
       -0.03375836 0.059371717 0.011052547 -0.025026072
000300 49 09 70 3d 63 77 3c bc d7 73 a2 bc 6c 6e 75 3d
       0.058602605 -0.011503073 -0.019830627 0.05991976
000310 b5 4f 3d bd 54 06 c9 bc 88 eb 83 3d 7c 3d 1d 3b
       -0.046218593 -0.02453915 0.064414084 0.0023992946
000320 ca 41 a6 bc 20 6c 4e 3d 22 b0 4a 3b 3a b0 9b bd
       -0.020295043 0.050396085 0.0030927737 -0.07601972
000330 80 20 38 bd ba 4a e8 bb c3 af ce 3b 88 a9 3f bd
       -0.04495287 -0.007088986 0.0063075735 -0.046792537
000340 75 97 03 bd 0c 1d d8 3c e0 dd 83 bd a3 7d 80 bd
       -0.032126863 0.026381038 -0.06438804 -0.06273963
000350 86 a3 bb 3c 05 f4 cf 3b 29 8f a2 bd a6 ee 90 bd
       0.022905122 0.006346228 -0.07937462 -0.070767686
000360 40 d8 8f 3d 89 91 a7 3d 1c 55 ad bc 9a 19 a8 3d
       0.07023668 0.081820555 -0.021158747 0.08208008
000370 82 0a 73 3d fe 3c 97 3d db ff 27 bd 56 c3 e2 bc
       0.059336193 0.0738468 -0.041015487 -0.027681034
000380 b0 34 07 3d bc ba 09 3d e6 a7 43 bd fb d4 57 3d
       0.03300923 0.03362535 -0.047767542 0.05269335
000390 ce 41 a5 3d 9c db 12 bd 40 48 6b bd 4c 43 6f bd
       0.08069192 -0.035853967 -0.05744195 -0.05841379
0003a0 e5 9d 13 bd 77 32 b0 bc 90 ab 4e bd 6f 04 96 bd
       -0.03603925 -0.021508439 -0.050456583 -0.073250644
0003b0 13 90 12 3d 30 42 77 3d 49 ae 4e 3d a5 e4 10 3d
       0.03578193 0.060365856 0.05045918 0.035374302
0003c0 d9 ba 2a 3d 12 6e 85 bc a2 aa 43 bd 54 ee 08 bd
       0.041682098 -0.016287837 -0.04777015 -0.033430412
0003d0 9a d9 2f 3d fe a7 d1 3c 79 5b 4d ba 49 a0 5b bd
       0.04293213 0.0255928 -0.000783376 -0.053619657
0003e0 3a 3b 30 bd b9 ca ce bc 71 8c 05 bb 3a be f0 bb
       -0.043025233 -0.02524315 -0.00203779 -0.0073468955
0003f0 db f8 3d bb d8 8f 09 bd 92 25 90 bc d3 68 58 bd
       -0.002898744 -0.033584446 -0.01759604 -0.052834343

encoder.9.bias f4 [16]
000000 de 97 5b 3d a6 52 c7 3c c4 97 75 bd 91 22 1e 3d
       0.05361163 0.024331402 -0.059959188 0.038607184
000010 66 22 94 3d a8 b7 5d bd 04 11 70 bc a7 2b 72 bd
       0.072331235 -0.054130226 -0.014652494 -0.05912366
000020 6b cf 46 3d d0 ca 11 3d 28 0e 56 3d 22 89 9e 3c
       0.048537653 0.035593808 0.052259594 0.0193525
000030 08 b4 49 bc 5f 88 c3 bb 8a 97 62 bd d2 df 37 3d
       -0.012310989 -0.0059671844 -0.0553203 0.044891186

encoder.10.weight f4 [16]
000000 e3 3a 80 3f e1 cb 7e 3f 09 6e 7d 3f d6 86 81 3f
       1.0017971 0.99529845 0.98996025 1.0119274
000010 68 19 81 3f 34 89 80 3f 4a f2 7c 3f 16 cf 80 3f
       1.0085878 1.0041871 0.98807204 1.0063198
000020 0c ad 7e 3f b6 b8 7e 3f 4b 80 81 3f 90 42 7e 3f
       0.994828 0.99500597 1.0117277 0.99320316
000030 c8 d4 80 3f f7 77 81 3f 5e 20 7e 3f 9f 4a 7e 3f
       1.0064936 1.0114735 0.9926814 0.9933261

encoder.10.bias f4 [16]
000000 a5 40 d6 bb 1f eb db bb 96 53 1d bc 5d 40 28 3c
       -0.006538468 -0.006711378 -0.009602448 0.010269252
000010 47 15 0b 3c ff 66 07 3c 8e 1e 2b bc bb 2e af 3b
       0.00848896 0.008264302 -0.0104442965 0.005346147
000020 76 58 e7 bb 89 a9 bd bb e8 f7 40 3c 84 45 e8 bb
       -0.007060106 -0.0057880324 0.011777855 -0.007088365
000030 e8 d5 28 3c 37 a7 32 3c 3e ce 0e bc ca c7 52 bb
       0.0103049055 0.010904125 -0.008716164 -0.003216254

encoder.10.running_mean f4 [16]
000000 ee f2 d2 3d ea 07 b5 3d 49 64 a9 3e 6d d0 ac 3d
       0.103002414 0.088394 0.33084324 0.084381916
000010 da 7f a6 3d 32 99 60 be f4 e8 2b 3d be 65 ba 3e
       0.081298545 -0.2193344 0.04197021 0.36405748
000020 e5 9a 07 3e 92 18 f3 3d 6d e0 55 ba c4 00 5d 3d
       0.13242681 0.11869921 -0.0008158747 0.05395581
000030 2c 59 66 be 20 00 b5 be 68 0a 3a be 15 ab 77 bd
       -0.22494954 -0.35351658 -0.18168032 -0.06046589

encoder.10.running_var f4 [16]
000000 c0 2b 37 3f b1 c7 96 3f 57 e2 7d 3e 6d 76 e0 3d
       0.7155113 1.1779691 0.24793373 0.10960088
000010 f4 2f ba 3e 84 39 9a 3f b8 04 4c 3e 1a dc cf 3d
       0.3636471 1.2048802 0.19923675 0.10149403
000020 8a 4e 4b 3e db 25 a0 3e 9a e5 8f 3e 31 26 6e 3e
       0.19854179 0.3127888 0.2810486 0.23256756
000030 ea 26 84 3f d3 32 a1 3f 28 cc 96 3e b9 d0 88 3e
       1.0324376 1.2593635 0.29452634 0.26721743

decoder.0.weight f4 [64, 16, 3]
000000 ae 35 4c bd d5 f7 a9 3c 1a 5d e6 bb 9b 90 ee 3c
       -0.04985588 0.020748058 -0.0070301415 0.029121688
000010 4e 6e 03 be 07 5f 00 bd 86 be 90 3d 90 4b e8 bd
       -0.12835047 -0.031340625 0.070675895 -0.113425374
000020 25 c3 73 bd 03 f9 8f bd e5 27 e6 bd 6b 40 06 3e
       -0.059512276 -0.07029917 -0.11238078 0.13110511
000030 31 aa 0a 3e 3f 84 ce 3d b9 95 dc bd 23 46 ba 3b
       0.13541485 0.10083818 -0.10770745 0.0056846305
000040 ec af 07 3d 28 5c 93 3d 63 3d 34 3d 4e 11 b5 bd
       0.033126757 0.07195312 0.044003855 -0.08841191
000050 ff 13 05 b9 14 ea ee bd 5f 1e 91 3d 1c 5c c4 3d
       -0.00012691318 -0.116657406 0.07085871 0.09587881
000060 39 52 33 bd f7 5f f8 bd f4 40 91 bb 5d 0f 8e 3d
       -0.043779586 -0.12127679 -0.004432792 0.06936524
000070 1a 17 c4 bd 06 bc 62 3d 66 b3 d8 3d 0e eb e8 bd
       -0.09574719 0.055355094 0.105810925 -0.11372958
000080 68 ae b0 3d e5 31 93 3d 14 a3 92 bd 52 86 07 3e
       0.08627015 0.07187251 -0.07160011 0.13234833
000090 c2 88 a2 bd 45 a4 cb 3d 27 47 f9 bd cc 7e d9 3d
       -0.07936241 0.09943441 -0.12171774 0.10619888
0000a0 7f f6 2e bd 6b 1c 0b be 67 be a6 3d 10 3d 79 bb
       -0.042715546 -0.1358506 0.08141785 -0.003803078
0000b0 c1 53 4a 3d 92 f3 7e 3d 58 49 a4 ba f4 59 1d 3d
       0.04939628 0.062244006 -0.0012534065 0.038415864
0000c0 3c 9d fc bd 5e 41 f5 bd c4 98 85 bd e9 fa ab bd
       -0.123346776 -0.119753584 -0.06523278 -0.08397467
0000d0 19 b1 0f be cf c6 cb 3c d0 7c 6a bc 3d 35 3b bd
       -0.14032401 0.024875073 -0.014311984 -0.04570507
0000e0 09 5b e6 bb 4c d7 88 3d e9 40 63 bd 4b a8 7d bb
       -0.007029895 0.066816896 -0.055481825 -0.0038705047
0000f0 ab b1 45 bb 53 02 91 3d c4 7c a0 bc 77 76 5c 3d
       -0.0030165713 0.070805214 -0.019590743 0.053823914
000100 7f af 7d bd 04 fa c7 3d 86 90 07 3d 17 ad 95 3c
       -0.061934944 0.097644836 0.033096813 0.018271012
000110 26 ca 7c 3d 00 a6 19 be 26 4a 6f 3d 28 7c ea 3d
       0.06171622 -0.1500473 0.058420323 0.11449462
000120 07 fb c1 3d 89 37 b6 3d e6 28 fa bd 78 ec 11 3e
       0.09471708 0.08897311 -0.12214832 0.14250362
000130 f3 dc 2e 3d 4d e0 19 be 01 b9 01 3e 32 bd ea 3d
       0.042691182 -0.1502697 0.1266823 0.114618674
000140 97 fa 0b bd 64 6c 04 3e 4e d1 4c bb 72 8e e5 3d
       -0.034174528 0.12931973 -0.0031252685 0.1120881
000150 c1 4e 0e be e9 12 06 be 1f dd 31 3d 2c 7c ba bb
       -0.1389723 -0.13093151 0.043423768 -0.005691072
000160 f9 eb f6 bd a0 cf 9b bd 01 b9 af 3d 88 86 db 3d
       -0.12056727 -0.07607961 0.085802086 0.10719019
000170 3d 1f f2 bd 98 8b 85 bd 90 d7 7e 3b 11 b0 be 3b
       -0.118223645 -0.06520766 0.003888581 0.0058193286
000180 ba 07 e2 bd bd 8e de 3d 0d 34 cf bd a8 53 be 3d
       -0.1103663 0.10867069 -0.1011735 0.092933
000190 3d 57 c6 bd 0f cb 19 be 3a db 33 3d 25 b4 80 bd
       -0.09684608 -0.15018867 0.043910243 -0.0628436
0001a0 88 d4 d5 3d 9a 50 31 bd 8a 0f a8 3c 54 82 da 3d
       0.10440928 -0.04328976 0.020515222 0.10669389
0001b0 bf e8 b1 bd 87 29 4f bd 37 5e cb 3d b9 84 ee 3d
       -0.08686971 -0.050576713 0.099300794 0.116464086
0001c0 c6 3a a5 3c 38 4b d9 3d c6 01 cc 3d 66 20 b8 3d
       0.020169627 0.1061005 0.09961276 0.089905545
0001d0 c8 70 02 3b a1 46 16 3e 84 f5 28 bd 9c 0c 4a 3c
       0.0019903649 0.1467538 -0.041249767 0.012332108
0001e0 b5 aa 27 bd ec 92 83 bb 5b 7b bd 3d 1d e2 eb 3d
       -0.040934283 -0.004015317 0.09252044 0.11517737
0001f0 0c 64 e0 3c 88 73 cc 3d 69 1f c3 3d fd 14 86 3d
       0.027391456 0.09982973 0.095274754 0.06546972
000200 da ad 35 bd 15 cd 9f 3d b2 b3 f1 3d 4e d5 ea 3d
       -0.04435525 0.07802788 0.11801852 0.11466466
000210 8d d1 2a 3d 9f 83 e2 3d e0 11 c1 bd 8c 83 04 3d
       0.04170375 0.11060261 -0.094272375 0.032352015
000220 59 d5 f8 bd 13 8c a5 3d 7b dc 0e 3a 37 8a 06 bd
       -0.12150068 0.08083358 0.0005449724 -0.032846656
000230 2d 40 b1 3d f5 9b 95 bc 22 02 7d 3d 81 ed aa 3d
       0.08654819 -0.018262843 0.061769612 0.083460815
000240 3b a0 7b bd bb 92 00 be 20 b4 e4 3c 00 6c b9 bd
       -0.061432105 -0.12555973 0.027917922 -0.090538025
000250 d0 f8 d0 bd 1e 60 ac 3d 7b bc f5 3c 35 f4 0c bd
       -0.10203707 0.084167704 0.029997101 -0.03441258
000260 d9 05 20 bd 7b c3 cb bd a2 fc 8d bd 88 cd fb 3c
       -0.039068077 -0.09949394 -0.069329515 0.030737653
000270 c8 60 b4 bd 4a 4a 06 be 42 e1 f4 bd b7 7d 10 be
       -0.08807522 -0.13114277 -0.11957027 -0.14110456
000280 3d 8e 9d bd 32 d5 10 3d 3e 35 8e bd 23 c0 ba 3d
       -0.076931454 0.03535957 -0.06943749 0.091186784
000290 55 73 cb 3d 06 b7 f9 bd a4 13 89 3d d7 55 2e bd
       0.09934107 -0.12193112 0.06693199 -0.042562332
0002a0 6a 59 f9 3d 73 bc bc 3d 37 50 aa 3d ba 47 a6 bd
       0.121752575 0.09215631 0.08316081 -0.081191495
0002b0 41 c4 13 3c 95 d5 c9 bd c6 1c 74 3c 79 40 06 3e
       0.009018959 -0.09855191 0.014899438 0.13110532
0002c0 cc 11 0e bd 43 fb b5 bd 40 84 95 bd e2 8c 9b bd
       -0.03468494 -0.08885815 -0.07300615 -0.07595231
0002d0 ee 35 80 3d 95 bd b8 bd 01 af ae 3d 5f a3 99 3d
       0.06260286 -0.09020535 0.08529473 0.07501864
0002e0 f3 94 9e 3d 05 37 89 bc eb 27 07 bd 23 82 48 3d
       0.077432536 -0.016749868 -0.032997053 0.048952233
0002f0 7e c1 e9 bc d3 4c 77 3d 89 38 c0 3c 10 99 82 3d
       -0.028534647 0.060376 0.023464458 0.063768506
000300 5d 90 8d bd e4 3a c3 3d 52 15 00 bd bc 0b b3 3d
       -0.06912301 0.09532717 -0.031270333 0.087424725
000310 da c0 9d bb b3 56 0e be 32 5e 07 bc 9b 4b 25 bd
       -0.0048142495 -0.1390026 -0.008262204 -0.040355306
000320 0c 48 92 bd 44 25 7c bc e2 36 82 bd d9 d7 b7 3b
       -0.07142648 -0.015389744 -0.06358124 0.005610448
000330 30 22 51 bd 64 79 c7 bd f2 4c 40 3d 1f 8c 00 be
       -0.051057994 -0.0973995 0.04694838 -0.12553452
000340 81 22 f4 bd 4c 32 f7 bc 85 8b 3f bb 47 9b 00 be
       -0.119206436 -0.03017535 -0.0029227447 -0.12559234
000350 61 6c a3 3d 30 29 23 3b 2d b2 65 3d 4c f8 26 38
       0.07979656 0.0024896376 0.056078125 3.980873e-05
000360 ac d6 e6 bc b8 a7 2d bd 57 fa e6 bc 85 7a e3 bd
       -0.028178535 -0.042396277 -0.028195543 -0.11107353
000370 0e da 85 3d 11 fc 35 3d 25 c1 c3 3d ce cc 11 be
       0.06535731 0.044429842 0.09558324 -0.14238283
000380 99 43 b3 bc 3c 1a 82 bd b5 d6 89 bb 74 26 5c 3c
       -0.021882819 -0.0635266 -0.0042065033 0.013436902
000390 db 8d 5e bc 77 a3 78 bb 54 72 85 bc c6 8b 2f 3d
       -0.013583626 -0.003793923 -0.016289867 0.042857908
0003a0 7f b9 91 bd e0 a9 1f bc eb 2e 82 3d 40 46 b6 3d
       -0.07115459 -0.009745091 0.06356605 0.08900118
0003b0 de a8 10 3c c6 0e 21 bc 80 25 07 3d cf 57 95 3d
       0.008829324 -0.009830182 0.032994747 0.07292139
0003c0 26 8f f0 3c 4f 26 9c bd 52 b4 f7 bd 7b 2d 6d 3d
       0.029365133 -0.07624494 -0.1209494 0.0579047
0003d0 2a ea 93 bd 0f f2 1b 3d fd cc e1 bd c0 65 a7 3d
       -0.072223976 0.038072642 -0.110254265 0.08173704
0003e0 97 51 4f 3d 85 2f bd bc c2 41 d5 bd 88 a1 6f bc
       0.05061492 -0.023093948 -0.10412933 -0.014625914
0003f0 86 9b a7 3d 6b 3a e7 3d b4 1e 58 3b fa e1 26 ba
       0.081839606 0.11290439 0.0032977285 -0.00063660706

decoder.0.bias f4 [64]
000000 ed b8 fe 3d b8 c5 60 bd 80 36 bb 3d b6 72 34 bd
       0.124376155 -0.05487606 0.091412544 -0.04405471
000010 d2 ce a7 3d d6 eb fb bc 93 8b 7f bd f4 91 30 3d
       0.08193745 -0.030752104 -0.062388968 0.04310794
000020 8d f6 9d 3d a7 71 dd bd 04 76 0c bc aa 3a fd 3c
       0.077130415 -0.10812693 -0.008573059 0.030911762
000030 38 f6 d2 3c 2a 49 12 3e b5 3b 00 be 08 6d ff 3d
       0.025752172 0.14285722 -0.12522776 0.12471968
000040 8f 0e 9a 3d f5 de 0a be d0 63 65 bd 79 4b 59 3d
       0.07522308 -0.13561614 -0.05600339 0.053050492
000050 48 27 d9 bd fe 25 0b 3e 07 1e 5e bd 69 b8 61 3d
       -0.106031954 0.13588712 -0.054227855 0.055107508
000060 1c 72 e9 3c cc 34 5b bd af 97 0b be fa 4c 2d 3c
       0.028496794 -0.053517148 -0.13632081 0.010577435
000070 fb af f1 bd 09 67 02 bd 6f 8b ff 3c a4 0d 4c bd
       -0.11801144 -0.031836543 0.031194417 -0.049817696
000080 d1 fb a6 3d 05 1c 04 be fd 25 e9 bd f5 cb 9f 3d
       0.08153499 -0.12901314 -0.11384199 0.078025736
000090 c3 ae 9b bd d7 fd f5 3d 79 df dc bc 91 cf c4 bc
       -0.076016925 0.12011307 -0.026962029 -0.024024757
0000a0 69 f4 0c 3e c8 f4 7e bc 5a 10 ed bd a4 53 7d bd
       0.1376511 -0.01556129 -0.115753844 -0.061847344
0000b0 1c 2a 35 3d a4 c1 ca 3d a8 54 f8 3d bc 3d 5a bd
       0.04422961 0.09900215 0.12125522 -0.05328153
0000c0 ab 35 b1 3c 40 f8 d6 3d f9 76 6a bd b8 2b 0c 3c
       0.021632036 0.10496569 -0.057242367 0.008555345
0000d0 2a 04 8e bd 54 d8 a5 3c b1 d8 0f 3e b8 16 fc 3d
       -0.06934388 0.020244755 0.14047505 0.12309021
0000e0 24 fc bf bd 6a 22 8f 3d 7f 76 0c 3e 01 bf dc bc
       -0.09374264 0.06988986 0.13717078 -0.026946547
0000f0 63 34 4f 3d 87 73 04 be 2c 15 a2 3d 3a 5b e7 bc
       0.05058707 -0.12934695 0.079141945 -0.028241742
