data/models/autoencoder_epoch_20.pth (torch, 118024 bytes, 43 tensors)

encoder.0.weight f4 [16, 1, 3]
0	0x3ee5e871	0.449039
1	0x3ef16efc	0.47154987
2	0xbe125767	-0.14291154
3	0x3f08cd7a	0.5343853
4	0xbdfbc281	-0.12292958
5	0x3df5e8ac	0.12007269
6	0xbe8d4e9b	-0.27599034
7	0x3eb03657	0.34416458
8	0x3f039941	0.5140572
9	0xbedaba7c	-0.427204
10	0x3eff1176	0.4981801
11	0x3dd5d3bc	0.10440776
12	0x3edec72d	0.43511334
13	0x3d8e88c4	0.0695968
14	0x3e8a22d1	0.26979688
15	0xbdaf39e2	-0.08555962
16	0x3ee1d238	0.44105697
17	0x3da6892e	0.08131634
18	0xbe8c4724	-0.27398026
19	0x3e1b16ee	0.15145466
20	0xbe860070	-0.2617221
21	0xbd987a9e	-0.07445262
22	0xbe7710e0	-0.24127531
23	0x3ec09f82	0.37621695
24	0xbee5f795	-0.44915453
25	0xbe8ba51c	-0.27274406
26	0xbe2dad81	-0.16960718
27	0xbeb3fc67	-0.35153505
28	0x3d70f6db	0.05882917
29	0xbf10deb4	-0.5658982
30	0x3f02b454	0.5105641
31	0xbf003651	-0.5008288
32	0x3edee562	0.4353438
33	0x3dc3cc5b	0.09560462
34	0xbe3f61f8	-0.18689716
35	0x3eb6f61d	0.35734645
36	0x3dc57898	0.09642142
37	0x3eeb8816	0.46002263
38	0x3d680329	0.05664364
39	0xbe3e097c	-0.18558306
40	0x3e23c0a0	0.1599145
41	0xbe1b6afe	-0.15177533
42	0x3e8050d2	0.2506166
43	0x3f020106	0.5078281
44	0x3ea6f640	0.3260975
45	0xbe830cc9	-0.25595692
46	0x3ea8d56b	0.32975325
47	0x3dcc53f6	0.09976952

encoder.0.bias f4 [16]
0	0x3e973192	0.29530007
1	0xbeb28ab9	-0.34871462
2	0xbf128853	-0.57239264
3	0xbe5e92bc	-0.21735662
4	0xbee3c02d	-0.44482556
5	0x3ef142f4	0.47121394
6	0x3e2b67de	0.16738841
7	0x3e6fa7b3	0.23403816
8	0x3e3ecc30	0.18632579
9	0xbbe323f0	-0.0069317743
10	0x3ee57336	0.4481446
11	0xbed08c8c	-0.4073223
12	0x3d24282d	0.040077377
13	0xbec71d7c	-0.38889682
14	0x3e39bf22	0.18139318
15	0xbe50c020	-0.2038579

encoder.1.weight f4 [16]
0	0x3f809ac0	1.0047226
1	0x3f7f1ef4	0.99656606
2	0x3f80099c	1.0002933
3	0x3f80cbbc	1.0062175
4	0x3f7fdda2	0.9994756
5	0x3f803edd	1.0019184
6	0x3f8069c4	1.0032277
7	0x3f7fa504	0.9986117
8	0x3f7f0bc5	0.99627334
9	0x3f803194	1.001513
10	0x3f8067b6	1.003165
11	0x3f7ef6de	0.9959544
12	0x3f7eef4b	0.9958388
13	0x3f808349	1.0040065
14	0x3f7fe07a	0.999519
15	0x3f7dc835	0.99133617

encoder.1.bias f4 [16]
0	0x3b9c000d	0.0047607482
1	0xbb610659	-0.003433606
2	0x3a15e42e	0.00057179003
3	0x3b6ac70f	0.0035824215
4	0x3a4b8d49	0.00077648886
5	0xba5f2abf	-0.00085131446
6	0x3b55cbf8	0.0032622796
7	0xbada87f5	-0.0016672598
8	0xbb813e42	-0.0039441893
9	0x3a75d2e4	0.00093774335
10	0x3b6a3522	0.0035737236
11	0xbb8b23c5	-0.0042462074
12	0xbb894eea	-0.0041903155
13	0x3b936d76	0.0044991327
14	0xba6b4dc4	-0.00089761266
15	0xbc0f377d	-0.008741257

encoder.1.running_mean f4 [16]
0	0x3e86a2d2	0.26296097
1	0xbe9a9420	-0.30191135
2	0xbf014909	-0.5050207
3	0xbe482f2f	-0.19549249
4	0xbec5e242	-0.38649184
5	0x3ed3b0f7	0.4134595
6	0x3e14278b	0.1446821
7	0x3e52d6e1	0.20589782
8	0x3e22e999	0.15909423
9	0xbc1d2752	-0.009591894
10	0x3ecc2559	0.39872244
11	0xbeb6ee20	-0.3572855
12	0x3d11ad2e	0.035565548
13	0xbeb005a8	-0.34379315
14	0x3e24ed85	0.16106232
15	0xbe38e428	-0.18055785

encoder.1.running_var f4 [16]
0	0x3f254884	0.64563775
1	0x3ebaeee3	0.3651038
2	0x3edb3a93	0.42818126
3	0x3e25b674	0.16182882
4	0x3f244a24	0.6417563
5	0x3e9637e6	0.29339522
6	0x3e7f939d	0.24958654
7	0x3e00eee0	0.12591124
8	0x3f4e4090	0.80567265
9	0x3f424bcf	0.75896925
10	0x3e9a646a	0.30154735
11	0x3e3b460f	0.18288444
12	0x3ee6c816	0.45074528
13	0x3e19447f	0.14967535
14	0x3f92d1b1	1.1470243
15	0x3e1d7a29	0.15378632

encoder.3.weight f4 [32, 16, 3]
0	0x3d18209a	0.037140466
1	0xbcba4ea6	-0.02274258
2	0x3e01e89c	0.1268639
3	0xbdbdb705	-0.09263424
4	0xbdbeccc0	-0.09316397
5	0xbda1ab9a	-0.078940585
6	0x3dfb5e21	0.12273813
7	0x3d61c2d1	0.055117432
8	0x3e158b35	0.14603885
9	0xbe013a84	-0.12619978
10	0xbe0b9d88	-0.13634312
11	0xbdd8a154	-0.10577646
12	0xbdd55b7d	-0.10417841
13	0x3d86b903	0.06578257
14	0x3d70f97a	0.05883167
15	0x3de71ef9	0.112852044
16	0xbd8a229f	-0.06744885
17	0xbdbae135	-0.09124986
18	0x3da5f117	0.08102625
19	0xbd6f1c49	-0.058376584
20	0x3da4c4d8	0.080453575
21	0xbd295316	-0.041339003
22	0x3db74da1	0.089503534
23	0xbdd709c8	-0.104999125
24	0xbd8c0d16	-0.068384334
25	0x3d2c4ee1	0.042067412
26	0x3cbf6e12	0.023367915
27	0xbd047bb8	-0.03234455
28	0x3da5c0b2	0.08093394
29	0x3dba50d7	0.0909745
30	0xbde4e176	-0.11175816
31	0xbdac8772	-0.08424272
32	0x3e0ea83b	0.13931362
33	0xbd64837f	-0.055789467
34	0xbd33c8eb	-0.043892782
35	0xbe07b168	-0.13251269
36	0xbdb7c9ff	-0.089740746
37	0x3d312a5c	0.043253288
38	0xbc430993	-0.011904138
39	0xbdcd811a	-0.1003439
40	0x3c009afd	0.007849452
41	0xbdd8910f	-0.10574543
42	0xbe04a5ca	-0.12953869
43	0xbd93fa19	-0.07225437
44	0xbdf413af	-0.11917817
45	0xbdcab6eb	-0.0989817
46	0x3e1acfd8	0.15118349
47	0x3d0cea82	0.03440333
48	0x3d2221cd	0.039583016
49	0xbe0ee67b	-0.13955109
50	0xbdcc1d2a	-0.099665
51	0xbd58d82b	-0.05294053
52	0x3c90ca93	0.01767472
53	0xbe070a48	-0.13187516
54	0xbd896515	-0.06708733
55	0xbdbacc0b	-0.09120949
56	0xbb92664a	-0.00446776
57	0xbd70085f	-0.058601733
58	0xbc6d614d	-0.01448853
59	0xbdd245e4	-0.10267237
60	0xbdd4edf8	-0.103969514
61	0xbdb68e94	-0.08913913
62	0xbd5e5014	-0.054275587
63	0xbdf3578d	-0.11881933
64	0x3dedeff4	0.11618033
65	0xbd09462a	-0.03351418
66	0x3e040f70	0.12896514
67	0x3d4bc9ab	0.049752872
68	0xbdf057fc	-0.11735532
69	0x3dc28a37	0.09499019
70	0xbd360682	-0.0444398
71	0xbd769148	-0.060197145
72	0xbdeb961a	-0.11503239
73	0xbe0e0ada	-0.13871327
74	0x3d3d1893	0.046166014
75	0xbcdb275e	-0.02675217
76	0x3d79d13f	0.06099057
77	0xbde89e68	-0.113583386
78	0x3dd17055	0.10226504
79	0xbde2fad3	-0.11082997
80	0xbcf40c69	-0.029791074
81	0x3ccedaec	0.025250874
82	0x3d8e8972	0.06959809
83	0x3de4abd9	0.1116559
84	0x3e01a061	0.12658836
85	0xbdf46782	-0.11933805
86	0x3d00d79d	0.031455625
87	0xbd6abb07	-0.05730727
88	0xbc34dcf7	-0.01103901
89	0xbdd34944	-0.10316709
90	0x3e019c9b	0.12657396
91	0xbde2fe0c	-0.11083612
92	0x3d940369	0.07227213
93	0x3d3bb55e	0.045827262
94	0x3d2d08d1	0.042244736
95	0xbda9caa2	-0.08290602
96	0x3e086bf8	0.13322437
97	0x3d09e2b1	0.033663455
98	0x3ca61a07	0.020276083
99	0xbe002b72	-0.12516573
100	0x3d804304	0.06262782
101	0xbca35cc8	-0.019941702
102	0xbd83453e	-0.06409691
103	0x3e007634	0.12545091
104	0x3d0acb33	0.033885192
105	0xbd9f6a25	-0.07783917
106	0xbd948324	-0.072515756
107	0xbbaa59ef	-0.005198709
108	0x3da93920	0.08262849
109	0xbd0f1624	-0.034933224
110	0xbda52699	-0.080640025
111	0xbd42212d	-0.04739492
112	0xbdd98302	-0.10620691
113	0x3d59da89	0.053186927
114	0x3de1591d	0.11003325
115	0xbe0cdc4f	-0.13755916
116	0x3d02451f	0.0318042
117	0x3d9cdcdb	0.07659312
118	0x3ce0bd5b	0.027434042
119	0xbd4b9317	-0.049700823
120	0x3d96d4ba	0.07364793
121	0x3d97ef07	0.07418638
122	0x3d560ce8	0.052258402
123	0xbcdd9f49	-0.027053492
124	0xbd2364db	-0.039891105
125	0x3c60d7da	0.013723338
126	0xbcc0441b	-0.023469975
127	0xbd28054b	-0.041020673
128	0x3dc072fe	0.09396933
129	0x3e011a49	0.12607683
130	0xbc4b5da4	-0.012412462
131	0xbcfab8f0	-0.030605763
132	0x3b87a6a9	0.0041397405
133	0xbbe00e41	-0.0068376367
134	0x3d1524f4	0.036412194
135	0x3d1ece6d	0.03877108
136	0xbe07f67a	-0.13277617
137	0xbd612b08	-0.05497268
138	0x3dfd1b3f	0.123587124
139	0x3d6dc249	0.058046613
140	0xbbb30936	-0.0054637445
141	0xbdae0bb4	-0.08498326
142	0xbdb2bd97	-0.08727568
143	0xbe02a41d	-0.12757917
144	0xbd28dcaa	-0.041226067
145	0x3d4b421f	0.049623605
146	0x3db4dff3	0.088317774
147	0x3d946a19	0.07246799
148	0xbdf99ac1	-0.1218772
149	0xbdb96a5c	-0.090534896
150	0xbc8ac936	-0.016941648
151	0x3e09e3b2	0.13465765
152	0x3c8c89ee	0.017155614
153	0xbd012a01	-0.0315342
154	0x3d5bfad0	0.05370599
155	0xbd7067c7	-0.05869272
156	0xbdb36685	-0.087597884
157	0x3dd90ec0	0.105985165
158	0xbd8e0c15	-0.06935898
159	0xbcbd5413	-0.023111379
160	0xbe177604	-0.14791113
161	0x3dbe3950	0.09288275
162	0x3df1e91b	0.118120395
163	0x3d7a59ae	0.06112068
164	0xbdc67f6a	-0.09692271
165	0xbe0bdc00	-0.13658142
166	0xbdfaf479	-0.12253661
167	0x3dd4b1e9	0.10385496
168	0x3d9fdc34	0.07805672
169	0x3e04c3d2	0.12965325
170	0x3da280e1	0.07934738
171	0x3d39880a	0.045295753
172	0x3bc16b87	0.005902711
173	0xbdd92ffe	-0.10604857
174	0xbdf15a63	-0.11784818
175	0xbe058b88	-0.13041508
176	0x3d62c64f	0.055364903
177	0xbd852cb5	-0.06502668
178	0xbcf96a4b	-0.030446192
179	0xbdb1c99c	-0.08681032
180	0xbca7a3e6	-0.020463895
181	0xbdd64324	-0.10462025
182	0xbdc8cdc8	-0.09804875
183	0x3d67fa23	0.056635033
184	0xbd0bfc46	-0.034176134
185	0x3dbe1b5b	0.092825614
186	0xbd25c9eb	-0.040475767
187	0xbdde06e8	-0.10841161
188	0xbcef2a41	-0.029194953
189	0xbd834abf	-0.06410741
190	0xbd4c70b3	-0.049912166
191	0xbe108c9b	-0.14116137
192	0x3d9a1382	0.07523252
193	0xbdc507ea	-0.0962065
194	0x3d9e59bc	0.07731959
195	0x3d75a650	0.05997306
196	0x3dc7a267	0.09747773
197	0xbdd8f534	-0.10593644
198	0x3dc948b7	0.098283224
199	0xbd8186b6	-0.06324522
200	0x3d6eee75	0.05833288
201	0x3e0526b2	0.13003042
202	0xbc767b01	-0.015043975
203	0x3b6f6f0b	0.0036534693
204	0xbd1ebf90	-0.038756907
205	0xbdedfb18	-0.11620158
206	0x3d97a49f	0.07404446
207	0xbe185fca	-0.1488029
208	0x3dc179e1	0.09447075
209	0x3de6f3fa	0.112770036
210	0x3e076166	0.13220748
211	0xbd2109ca	-0.039315976
212	0xbdfca8b4	-0.12336865
213	0x3cdc7eaa	0.026915867
214	0x3dadb258	0.08481282
215	0xbe0e35ad	-0.13887663
216	0xbd17baa8	-0.037043244
217	0xbdbbeae7	-0.091756634
218	0xbc8e8dfe	-0.017401692
219	0xbd9a4232	-0.07532157
220	0xbd831fd9	-0.06402559
221	0xbd4f3dfb	-0.05059622
222	0xbe1219ce	-0.14267656
223	0x3de759c8	0.11296421
224	0x3e00cba4	0.12577683
225	0xbce6c8e6	-0.028171968
226	0xbc43484d	-0.011919093
227	0xbd5db584	-0.054128185
228	0xbe0b238b	-0.13587777
229	0xbe0b0809	-0.13577284
230	0x3d6f4be3	0.05842198
231	0xbdab214f	-0.083559625
232	0xbdc6b3b2	-0.09702243
233	0xbc835ccb	-0.016035458
234	0xbd5b84ec	-0.05359356
235	0xbd2c4ba6	-0.04206433
236	0x3c1a3d00	0.009413958
237	0xbd14134c	-0.036151215
238	0xbd363492	-0.04448373
239	0xbd83bef4	-0.06432906
240	0xbddd012b	-0.107912384
241	0x3dfdfb1e	0.124014124
242	0xbd6cc421	-0.05780423
243	0x3d43b841	0.04778314
244	0xbd26baaf	-0.04070538
245	0x3c3fac3a	0.011698777
246	0x3e138e9f	0.14409874
247	0x3d8512d7	0.06497734
248	0xbe001c16	-0.12510714
249	0x3d88dad2	0.06682362
250	0x3e08d798	0.13363492
251	0x3d1b8370	0.037967145
252	0x3dd9ba9e	0.106312975
253	0x3e14a516	0.145161
254	0xbcb5834e	-0.022157338
255	0x3d21cf43	0.0395043

encoder.3.bias f4 [32]
0	0xbe02dbd6	-0.12779173
1	0x3d97073d	0.073744275
2	0xbe0af716	-0.13570818
3	0xbc9004a8	-0.017580345
4	0x3c150fc0	0.009097993
5	0x3dcf9b44	0.101370364
6	0xbd56ece3	-0.052472007
7	0x3d32ee0e	0.043684058
8	0x3ca26ca0	0.019827187
9	0x3dba835c	0.09107086
10	0x3c1da110	0.00962092
11	0x3d5933de	0.05302798
12	0xbdb45b40	-0.08806467
13	0xbdce8c04	-0.100852996
14	0x3e0653df	0.13117932
15	0xbdd8139a	-0.10550614
16	0xbcd60b72	-0.026128504
17	0xbc8ac83a	-0.016941179
18	0x3e1438c0	0.14474773
19	0xbd0330e8	-0.032029063
20	0xbddcf193	-0.10788264
21	0xbd0e5d39	-0.034756873
22	0x3d9fd2cf	0.078038804
23	0x3d628fd3	0.055312943
24	0x3dfca27c	0.12335679
25	0xbceab8d1	-0.02865258
26	0x3d87d6a6	0.06632738
27	0xbe0a3e1d	-0.13500257
28	0x3d5b7a67	0.05358353
29	0x3d87ec62	0.06636883
30	0x3db6ede7	0.08932095
31	0xbdb5eaa7	-0.08882647

encoder.4.weight f4 [32]
0	0x3f809793	1.0046257
1	0x3f7fe415	0.999574
2	0x3f7dd30c	0.99150157
3	0x3f8137da	1.009517
4	0x3f7ff771	0.9998694
5	0x3f7ed7ae	0.9954785
6	0x3f7f7183	0.9978258
7	0x3f8017fe	1.0007322
8	0x3f8112b7	1.0083836
9	0x3f808d6b	1.0043157
10	0x3f7e4fa1	0.99340254
11	0x3f7fbb36	0.99895036
12	0x3f7fc35d	0.99907476
13	0x3f80f3ea	1.0074437
14	0x3f7f234e	0.99663246
15	0x3f7ec681	0.9952164
16	0x3f7ef7c7	0.9959683
17	0x3f7f80de	0.9980601
18	0x3f801eee	1.0009439
19	0x3f80aa03	1.0051883
20	0x3f7f3050	0.99683094
21	0x3f8085e9	1.0040866
22	0x3f8019c7	1.0007867
23	0x3f810692	1.008013
24	0x3f7d9eb1	0.9907027
25	0x3f80fabc	1.0076518
26	0x3f7ea614	0.99472165
27	0x3f80d881	1.0066072
28	0x3f7d70a4	0.99
29	0x3f7e1694	0.992532
30	0x3f7f3e47	0.997044
31	0x3f801037	1.0004948

encoder.4.bias f4 [32]
0	0x3ba191df	0.0049307193
1	0x3b98dcb2	0.004664981
2	0xbb397839	-0.0028300418
3	0x3c199186	0.009373074
4	0xba74132c	-0.0009310718
5	0xbb91d403	-0.0044503226
6	0x3a6d4cc2	0.00090522703
7	0xba0a703f	-0.0005281008
8	0xbc0993df	-0.008397072
9	0x3b9ecfec	0.0048465636
10	0xbbf4d4d2	-0.007471659
11	0x39824989	0.0002485032
12	0x3971c0f2	0.00023055429
13	0x3be81696	0.0070827706
14	0xbb7d74cb	-0.003867435
15	0xbbd70545	-0.0065619075
16	0xbb8a7e99	-0.0042265174
17	0x3b783c15	0.0037877609
18	0x3a297f1f	0.0006465781
19	0x3b86bfdb	0.0041122264
20	0xbb0e8e7a	-0.0021752403
21	0xb9c88795	-0.0003824799
22	0x3b153334	0.0022766115
23	0x3c07e02e	0.008293195
24	0xbc1a748f	-0.009427204
25	0xbab5e6ef	-0.0013878028
26	0xbb66ed71	-0.003523674
27	0x3bfd5ff0	0.007732384
28	0xbc1c45f5	-0.009538163
29	0xbbe3392f	-0.006934307
30	0x3b5f7155	0.003409465
31	0xb981e142	-0.00024772628

encoder.4.running_mean f4 [32]
0	0xbec1a055	-0.37817636
1	0xbe9bfaf7	-0.30464908
2	0xbde53cb4	-0.11193219
3	0xbea0265c	-0.31279266
4	0xbe7a2313	-0.24427442
5	0xbd7f6db0	-0.062360466
6	0xbde3ad3f	-0.111170284
7	0xbd594533	-0.05304451
8	0x3db72f56	0.089445755
9	0x3db8c33f	0.09021615
10	0x3d528984	0.051400676
11	0xbed7a871	-0.42120698
12	0xbd4af336	-0.04954835
13	0x3d31ae7d	0.043379296
14	0x3dae0d7e	0.08498667
15	0xbd8379d2	-0.0641972
16	0xbcb1e439	-0.02171527
17	0x3e5fcad0	0.2185471
18	0xbe47f5d4	-0.1952737
19	0xbe80ab5a	-0.2513073
20	0x3d60072e	0.054694347
21	0x3cfe7630	0.031062216
22	0x3e0f3c75	0.13987906
23	0x3da85a81	0.08220387
24	0x3e0c5a90	0.13706422
25	0x3e4d989e	0.2007775
26	0xbd02e04b	-0.031952184
27	0xbe8385e7	-0.25688097
28	0xbe005fed	-0.12536593
29	0x3d05a0db	0.032624107
30	0x3ed5cdb8	0.41758513
31	0xbdb93f6c	-0.090453

encoder.4.running_var f4 [32]
0	0x3eaf21a1	0.34205344
1	0x3e0f4922	0.13992742
2	0x3e0067d8	0.12539613
3	0x3f74a929	0.9557062
4	0x3e2d0b64	0.16898876
5	0x3e531dc4	0.20616823
6	0x3eee58a9	0.46552017
7	0x3e01c889	0.12674154
8	0x3e006498	0.12538373
9	0x3e17ea48	0.14835465
10	0x3f1c7cf2	0.6112815
11	0x3f131cde	0.5746592
12	0x3e1f07db	0.1553034
13	0x3eb7d4a1	0.3590441
14	0x3e74f5bf	0.2392187
15	0x3e134b61	0.14384224
16	0x3e977e0c	0.29588354
17	0x3f0817ca	0.531613
18	0x3e009c89	0.12559713
19	0x3e300b4c	0.1719181
20	0x3e4ef7e9	0.20211758
21	0x3e024f4e	0.12725565
22	0x3e4fb591	0.20284106
23	0x3e26bf70	0.16283965
24	0x3e15fa27	0.14646207
25	0x3e0ebea1	0.13939907
26	0x3e6c846c	0.2309739
27	0x3e05c9c5	0.1306525
28	0x3e6d65e1	0.23183395
29	0x3ee4a451	0.44656613
30	0x3e1901b7	0.1494206
31	0x3e0360f0	0.12829947

encoder.6.weight f4 [64, 32, 3]
0	0xbd0b49fc	-0.034006104
1	0x3c95d2df	0.018289028
2	0xbda20130	-0.07910383
3	0xbd9cd676	-0.07658093
4	0xbdd7249a	-0.10505028
5	0x3c4b9fa4	0.012428198
6	0x3d8ea0d4	0.06964269
7	0x3ce0ba99	0.027432727
8	0x3c4f10a4	0.012638245
9	0x3cec1f5e	0.02882355
10	0xbd911b0d	-0.07085238
11	0x3b83d11b	0.00402273
12	0xbca0952e	-0.019602384
13	0xbd3341ab	-0.043763798
14	0x3dc1ab36	0.09456484
15	0xbd95b3fd	-0.07309721
16	0x3cab4ab1	0.02090964
17	0xbda9a2f8	-0.08283037
18	0xbc276d9a	-0.010219002
19	0xbd55f4f5	-0.052235562
20	0x3d231a5d	0.039820064
21	0xbd531935	-0.05153771
22	0x3d8e649e	0.06952785
23	0xbd9c7f95	-0.07641522
24	0x3d66473e	0.056220286
25	0xbda459e3	-0.08024957
26	0x3d459db7	0.04824611
27	0xbd18c029	-0.037292633
28	0x3bc6fe9f	0.0060728337
29	0xbcc8b49d	-0.024500186
30	0x3d939a32	0.07207145
31	0x3d206943	0.039162885
32	0xbdad14de	-0.08451246
33	0x3b30a142	0.0026951586
34	0xbd9e3fc0	-0.07727003
35	0x3d960d3f	0.07326745
36	0x3c269eba	0.010169679
37	0xbd060298	-0.032717317
38	0xbd3c6d3d	-0.046002615
39	0x3d281e86	0.041044734
40	0xbd6000e7	-0.05468836
41	0x3d2f96bc	0.04286836
42	0x3d7b9755	0.06142362
43	0x3d8e69af	0.06953751
44	0x3caf0876	0.02136634
45	0xbdaad9d6	-0.0834233
46	0x3d986165	0.074404515
47	0xbd1a0410	-0.03760153
48	0xbd1724e7	-0.036900427
49	0xbc925cd4	-0.01786653
50	0x3d8b1728	0.06791526
51	0x3dac8c19	0.08425159
52	0x3cb202cb	0.021729847
53	0x3d31cd00	0.043408394
54	0xbdd155b0	-0.10221422
55	0xbb8027da	-0.0039110007
56	0xbdace1e2	-0.08441521
57	0x3cef2def	0.029196708
58	0xbda1fee7	-0.07909947
59	0xbcf883f6	-0.030336361
60	0x3d9dd979	0.07707495
61	0x3dcbff6f	0.099608295
62	0xbd896e37	-0.06710475
63	0xbd4e30fa	-0.050339676
64	0x3c927643	0.017878657
65	0x3d3e23d0	0.046420872
66	0xbc3079fe	-0.010771273
67	0xbcd89705	-0.0264392
68	0xbd7729cf	-0.060342606
69	0x3d49dd3c	0.04928325
70	0x3ddb3d2c	0.10705027
71	0xbd611231	-0.05494899
72	0x3d2957db	0.04134355
73	0x3d33a9a2	0.043862946
74	0x3d99bce5	0.07506732
75	0xbbac075c	-0.0052499007
76	0x3c0994c3	0.008397284
77	0x3da6f04f	0.08151304
78	0x3d6be122	0.05758775
79	0x3dc06209	0.09393699
80	0xbcbca933	-0.0230299
81	0x3d09e464	0.033665076
82	0x3d88d41b	0.06681081
83	0xbd9c00d8	-0.076173484
84	0x3c5dfa49	0.013548442
85	0xbcf0664f	-0.02934566
86	0x3d7186dd	0.058966506
87	0xbd23d3a5	-0.03999676
88	0x3c5e99c7	0.013586468
89	0x3d671d02	0.05642415
90	0xbdcdb2ac	-0.100438446
91	0xbdba2bfe	-0.09090422
92	0xbd721546	-0.05910232
93	0x3d91d447	0.07120567
94	0x3d8577bb	0.065169774
95	0xbd9b950e	-0.07596789
96	0x3c685997	0.014181516
97	0xbd73642f	-0.059421714
98	0xbd591973	-0.053002786
99	0x3da79405	0.08182529
100	0x3d30e2df	0.04318511
101	0xbd09971b	-0.03359137
102	0x3c16229b	0.009163524
103	0x3c6c895b	0.014437045
104	0x3c932202	0.017960552
105	0xbd24b9a0	-0.04021609
106	0xbd864415	-0.06555954
107	0x3d7da3cc	0.061923787
108	0x3c7303e9	0.014832475
109	0x3d44d7ac	0.048057243
110	0xbd061702	-0.032736786
111	0x3d4e355e	0.050343864
112	0x3da09a6f	0.07841956
113	0x3d8a2a2a	0.067463234
114	0x3cb58593	0.02215842
115	0x3dc1edb9	0.0946917
116	0xbbc5bbdd	-0.006034358
117	0x3c8cbfb4	0.017181255
118	0x3dbd89e0	0.09254813
119	0x3dbeee60	0.0932281
120	0xbd3a2b13	-0.045451235
121	0x3dc74ea3	0.09731796
122	0x3d349c6b	0.044094484
123	0xbc167655	-0.009183486
124	0x3dc2ceef	0.09512126
125	0xbd4093b8	-0.047015876
126	0x3d8a7ed5	0.067624725
127	0x3dd31bea	0.103080586
128	0xbd847b50	-0.064688325
129	0xbd863d50	-0.06554663
130	0xbdda7584	-0.106669456
131	0xbcc5cf39	-0.024146663
132	0xbdc97385	-0.09836487
133	0xbd240155	-0.040040333
134	0x3ccdb066	0.025108527
135	0x3d97b7cf	0.074081056
136	0x3d7dcf50	0.061965287
137	0x3d7ffc41	0.062496427
138	0x3d35321f	0.044237252
139	0xbd6c5b13	-0.057704043
140	0xbd9a0015	-0.07519547
141	0x3bbaff4f	0.0057067047
142	0x3dd0febe	0.10204838
143	0x3c3b78a1	0.011442334
144	0xbc663e8e	-0.014053
145	0xbd993e88	-0.0748263
146	0xbd666b93	-0.056254935
147	0xbd9d49ff	-0.07680129
148	0x3daf86ed	0.08570657
149	0xbc31ae32	-0.010844754
150	0xbdc34e08	-0.09536368
151	0x3c6f007a	0.014587516
152	0x3af88c61	0.0018962735
153	0xbc962c4c	-0.01833167
154	0x3cfcfe36	0.030882936
155	0x3d488ff6	0.048965417
156	0xbdc03dc4	-0.09386781
157	0xbd942e81	-0.072354324
158	0x3a75ca69	0.000937617
159	0xbdd5d3d2	-0.10440792
160	0xbdcaf53b	-0.09910055
161	0x3dabf47f	0.08396243
162	0xbbf55b8c	-0.00748772
163	0xbd56b537	-0.052418914
164	0xbd1da100	-0.03848362
165	0xbd9f3824	-0.0777438
166	0x3dae3c98	0.08507651
167	0xbc85721f	-0.016289769
168	0xbd80391f	-0.06260895
169	0xbda9a007	-0.08282476
170	0x3d5dc56f	0.054143365
171	0xbc9a51db	-0.01883786
172	0xbc7697dc	-0.0150508545
173	0xbd0acf6f	-0.03388923
174	0xbd6056e3	-0.05477036
175	0x3c4df405	0.012570386
176	0x3d950524	0.07276371
177	0xbd828ea4	-0.06374863
178	0x3c0f16d7	0.008733473
179	0xbda622e1	-0.081121214
180	0xbd598e22	-0.053114064
181	0x3dad128a	0.08450802
182	0xbb95f336	-0.004576112
183	0x3dccde9a	0.100033954
184	0xbc4ea5d9	-0.012612783
185	0xbd4c8128	-0.04992786
186	0xbd87ef6e	-0.066374645
187	0x3dc42fab	0.095794044
188	0xbd96344a	-0.07334192
189	0x3d649672	0.05580754
190	0x3cfd2ca3	0.030905074
191	0x3d139f5c	0.03604065
192	0x3d7a698c	0.061135814
193	0xbcaa459a	-0.020785142
194	0x3d8b90cc	0.06814727
195	0xbda72742	-0.08161785
196	0xbcfa334b	-0.030542037
197	0x3d89cdbc	0.06728694
198	0x3d0cade7	0.034345534
199	0xbc0e865e	-0.008699028
200	0xbcfea9b1	-0.031086775
201	0xbd710002	-0.058837898
202	0x3d8b26d7	0.067945175
203	0x3b0fe2c9	0.0021955243
204	0xbbe9a624	-0.007130401
205	0x3c95c3ad	0.018281782
206	0x3d8e38cc	0.06944427
207	0xbd5f16d9	-0.05446515
208	0xbd27e057	-0.04098543
209	0x3d7fdfbc	0.06246923
210	0x3d8453b6	0.06461279
211	0xbd35d3f6	-0.044391595
212	0xbdde69ff	-0.10860061
213	0x3ca60f99	0.02027111
214	0x3d4fd414	0.050739363
215	0x3c8c5899	0.01713209
216	0x3d946f0f	0.07247745
217	0xbdaccc19	-0.08437366
218	0x3d712045	0.058868665
219	0xbd8e7917	-0.0695669
220	0x3d53d9e9	0.051721487
221	0x3dab242d	0.08356509
222	0x3cea576d	0.028606141
223	0x3d9d4cec	0.07680687
224	0xbd912c0b	-0.07088479
225	0xbdb26b3c	-0.087118596
226	0xbdbce7f1	-0.09223927
227	0x3d82aef0	0.06381023
228	0x3d301fa3	0.04299892
229	0xbd8d6774	-0.06904498
230	0x3d2bd1c8	0.04194811
231	0x3db3618f	0.08758842
232	0xbdda2629	-0.1065181
233	0x3da79bbf	0.08184003
234	0x3c27e412	0.010247247
235	0x3b6fee51	0.0036610554
236	0x3dcc051d	0.09961913
237	0x3daf30f8	0.08554262
238	0x3d1880c8	0.03723219
239	0x3db489af	0.088153236
240	0x3d3c66e5	0.045996565
241	0x3cb8840c	0.022523902
242	0xbdac9bef	-0.084281795
243	0x3c61ca6c	0.013781171
244	0xbda0b263	-0.078465246
245	0x3d20ea88	0.039286166
246	0x3cb8df8d	0.022567535
247	0x3bf079a0	0.0073387176
248	0xbd9fddaa	-0.07805951
249	0xbd5b7015	-0.053573687
250	0x3da6691b	0.08125516
251	0x3d2d2bce	0.042278104
252	0x3d44fced	0.04809277
253	0xbd13efa9	-0.03611723
254	0xbc206b03	-0.009791139
255	0xbcd663b5	-0.02617059

encoder.6.bias f4 [64]
0	0xbd60fe05	-0.054929752
1	0xbd966d75	-0.07345096
2	0xbd6c7a1b	-0.057733636
3	0xbcacee91	-0.021109851
4	0x3cc93e3f	0.024565814
5	0x3c9ce6f4	0.019153096
6	0xbdc2d96f	-0.095141284
7	0xbdc78515	-0.0974218
8	0xbc84db8d	-0.016217971
9	0x3db652bc	0.08902499
10	0x3d1caac5	0.038248796
11	0x3db81fc0	0.08990431
12	0xbd443371	-0.04790062
13	0x3cf2f4d7	0.029657764
14	0xbdb75827	-0.089523606
15	0x3d5d6541	0.05405164
16	0xbafbadb2	-0.0019201546
17	0xbc04de12	-0.008109586
18	0xbd6419ae	-0.055688553
19	0xbdb16ccd	-0.0866333
20	0xbd1c3818	-0.038139433
21	0xbc264c6e	-0.010150058
22	0xbd5d79e7	-0.054071333
23	0x3d2d0b36	0.04224702
24	0xbc882b70	-0.016622275
25	0x3c409943	0.01175529
26	0xbdc6f2ea	-0.09714301
27	0x3ce70969	0.02820273
28	0xbd532c75	-0.05155607
29	0xbd9e51f7	-0.07730477
30	0xbd3049ba	-0.04303906
31	0xbdbe9819	-0.09306354
32	0xbd9e6e86	-0.077359244
33	0x3d9b7049	0.07589776
34	0x3dad5f7b	0.08465477
35	0xbd8e164b	-0.06937846
36	0x3cb419c1	0.021984937
37	0xbd57c2d4	-0.052676037
38	0x3dc8a933	0.09797897
39	0x3d7b7dfd	0.06139945
40	0x3d285152	0.041093178
41	0xbdaa8546	-0.08326201
42	0xbd4a16a7	-0.04933801
43	0xbcbb8742	-0.022891644
44	0xbdbb544e	-0.09146939
45	0xbd73424c	-0.059389398
46	0x3cdf8dc1	0.027289273
47	0xbda7cc4a	-0.08193262
48	0x3cdd3fe1	0.027007999
49	0xbb865710	-0.004099734
50	0xbb97a399	-0.0046276567
51	0xbcf8acf6	-0.030355912
52	0xbd62094c	-0.055184647
53	0xbdbf07dc	-0.09327671
54	0xbd9103b1	-0.07080782
55	0x3d9f68ba	0.07783647
56	0xbbe9eeac	-0.0071390476
57	0x3dcf59cb	0.101245485
58	0x3bd0cda7	0.006372172
59	0xbc2d56a2	-0.010579737
60	0x3d79ae96	0.060957514
61	0xbdc4f15c	-0.09616348
62	0xbd826377	-0.06366628
63	0x3d69a7a3	0.057044636

encoder.7.weight f4 [64]
0	0x3f7dec1e	0.9918841
1	0x3f7e1d33	0.99263304
2	0x3f80264e	1.001169
3	0x3f80cee3	1.0063137
4	0x3f80e804	1.0070806
5	0x3f80ee74	1.007277
6	0x3f7e8a5f	0.9942989
7	0x3f7f9789	0.998406
8	0x3f805496	1.0025814
9	0x3f803a33	1.0017761
10	0x3f7e7b9e	0.99407375
11	0x3f7ebefc	0.9951017
12	0x3f7e1818	0.99255514
13	0x3f7eb818	0.99499655
14	0x3f80b54e	1.005533
15	0x3f7e0301	0.99223334
16	0x3f7f6574	0.9976418
17	0x3f800973	1.0002884
18	0x3f80ccf8	1.0062551
19	0x3f804211	1.0020162
20	0x3f80880d	1.0041519
21	0x3f80c5e6	1.0060394
22	0x3f8011bc	1.0005412
23	0x3f7d696b	0.9898898
24	0x3f80c2f6	1.0059497
25	0x3f8104e0	1.0079613
26	0x3f7e67db	0.9937722
27	0x3f7f5cfe	0.9975127
28	0x3f80360a	1.0016491
29	0x3f800076	1.0000141
30	0x3f7da4a5	0.9907935
31	0x3f7fc39c	0.9990785
32	0x3f7dbe30	0.9911833
33	0x3f80543a	1.0025704
34	0x3f810206	1.0078743
35	0x3f7da7fe	0.9908446
36	0x3f7f04f0	0.9961691
37	0x3f806f87	1.0034035
38	0x3f80797f	1.0037078
39	0x3f808762	1.0041316
40	0x3f7f01d4	0.99612164
41	0x3f801031	1.0004941
42	0x3f7e4f81	0.99340063
43	0x3f803de2	1.0018885
44	0x3f7e570b	0.9935157
45	0x3f7e09e2	0.9923383
46	0x3f810b69	1.0081607
47	0x3f80fef5	1.0077807
48	0x3f7edc8e	0.9955529
49	0x3f81358c	1.0094466
50	0x3f7f7e56	0.9980215
51	0x3f80d762	1.006573
52	0x3f7f0629	0.99618775
53	0x3f7df708	0.99205065
54	0x3f8042d9	1.00204
55	0x3f819050	1.0122166
56	0x3f8071f0	1.0034771
57	0x3f808b36	1.0042484
58	0x3f8038e6	1.0017364
59	0x3f7feeef	0.9997396
60	0x3f7f6ee9	0.9977861
61	0x3f8088d5	1.0041758
62	0x3f7e2909	0.99281365
63	0x3f7dcac7	0.9913754

encoder.7.bias f4 [64]
0	0xbbf67918	-0.0075217597
1	0xb98499da	-0.0002529163
2	0xba2674bc	-0.0006349792
3	0x3bbc36c3	0.005743833
4	0x3ab498b8	0.0013778424
5	0x3c072f33	0.008250999
6	0xbbb8b46c	-0.0056367423
7	0x3a47193c	0.0007595008
8	0xbb7328b1	-0.0037103111
9	0x3b3f1ee4	0.00291627
10	0xbbb7d27e	-0.0056098094
11	0xbb00654a	-0.0019591623
12	0xbc0654dd	-0.008198944
13	0xbb9f7b6e	-0.004867009
14	0x3bd8d982	0.006617726
15	0xbc054e3b	-0.008136327
16	0xbb9b21bd	-0.0047342465
17	0x3b6069eb	0.003424282
18	0x3be9d01f	0.0071354057
19	0xbc0a32f1	-0.008434997
20	0x3bb2b464	0.005453633
21	0x3bd57ea2	0.00651534
22	0xb965bacd	-0.0002190873
23	0xbb67b2ae	-0.0035354304
24	0x3bc48f29	0.0059985113
25	0x3c084415	0.008317013
26	0xba9c9fa1	-0.0011949429
27	0xbb0d9a81	-0.0021606984
28	0xbb469d3f	-0.0030306128
29	0x3a993eac	0.0011691651
30	0x3b119955	0.0022216637
31	0xbab947e8	-0.001413581
32	0xbbdbf8d2	-0.0067130113
33	0x3b26db86	0.0025460436
34	0x3c00b741	0.007856191
35	0xbbf6c063	-0.0075302585
36	0x3b9fb044	0.0048733074
37	0x3bc58db9	0.0060288575
38	0x3b524c9f	0.0032089127
39	0x3b3f717c	0.002921193
40	0xbb8f8a2d	-0.0043804855
41	0x3a97442d	0.0011540704
42	0xbbdcdc0c	-0.006740099
43	0x3a42af91	0.0007426674
44	0xbbd2583b	-0.0064192093
45	0xbbfbde84	-0.007686438
46	0x3b942f1c	0.0045222174
47	0x3c0dfed2	0.008666711
48	0xbb859608	-0.004076723
49	0xbb54a4f5	-0.0032446955
50	0x3b85028e	0.0040591424
51	0x3bdba7b3	0.006703341
52	0xbb7917e3	-0.0038008622
53	0x3b34d511	0.0027592818
54	0x3b0cf7a1	0.0021509903
55	0x38ea80a2	0.00011181949
56	0x3ac6ad31	0.0015157816
57	0x3c039940	0.008032143
58	0x3b9057ab	0.004404982
59	0x3c080a30	0.00830321
60	0xbb143de8	-0.0022619907
61	0x3aa3842b	0.0012475302
62	0xbbfcde72	-0.0077169472
63	0xbc0dfbab	-0.008665959

encoder.7.running_mean f4 [64]
0	0xbd4230b3	-0.047409724
1	0xbc2472a0	-0.010037094
2	0xbd39b74a	-0.045340814
3	0xbe88eb40	-0.26741982
4	0x3e1edeb0	0.15514636
5	0x3e9b4600	0.30326843
6	0xbf011953	-0.50429267
7	0xbe6e6408	-0.23280346
8	0xbd9939d0	-0.0748173
9	0x3e7e65e8	0.24843562
10	0xbe1a7e06	-0.15087137
11	0x3ea66918	0.32502055
12	0x3de163f2	0.11005391
13	0x3c8f830d	0.017518545
14	0xbbe2c04c	-0.006919896
15	0xbd07048b	-0.032963317
16	0x3e6995c6	0.2281104
17	0xbe8d3cfc	-0.2758559
18	0xbe06e292	-0.13172367
19	0xbe8d1de8	-0.2756188
20	0xbcecddce	-0.028914358
21	0xbdbc68c5	-0.09199671
22	0xbc852029	-0.016250687
23	0xbd1f44db	-0.038884025
24	0x3e247c8a	0.16063133
25	0x3e4d76f4	0.20064908
26	0xbd921d95	-0.071345486
27	0xbda67941	-0.08128596
28	0xbe1d6ab3	-0.15372734
29	0xbf23a9c3	-0.6393091
30	0xbdd52f3b	-0.10409399
31	0x3e1a0df7	0.1504439
32	0xbe4ba104	-0.19885641
33	0x3ea19d88	0.315655
34	0x3d4dbdeb	0.050229948
35	0x3e6bf279	0.23041715
36	0x3ebad931	0.3649383
37	0xbcbcfc4c	-0.023069523
38	0x3e3fc780	0.18728447
39	0xbdb5170f	-0.08842289
40	0x3e2764d5	0.16347058
41	0x3dfafd4c	0.12255344
42	0xbd4d34f2	-0.05009932
43	0xbd549fad	-0.05191009
44	0xba0621a6	-0.00051167083
45	0xbee8bece	-0.45458072
46	0xbd9559a7	-0.072924905
47	0xbe7eca10	-0.24881768
48	0x3ce5f41d	0.028070504
49	0xbd110b1f	-0.035410997
50	0x3ea7584f	0.32684562
51	0x3da851c8	0.082187235
52	0x3e202121	0.15637638
53	0x3c0ca1ff	0.008583545
54	0xbe5f2759	-0.21792354
55	0x3d683f66	0.056701086
56	0xbe28eb5e	-0.16496035
57	0xbc808b23	-0.015691346
58	0xbc9e37c6	-0.019313704
59	0xbb94ea7f	-0.0045445557
60	0x3e53ad9c	0.20671695
61	0x3a525df9	0.0008024867
62	0xbcfc016f	-0.030762402
63	0xbdd75e7e	-0.1051607

encoder.7.running_var f4 [64]
0	0x3eb2968a	0.34880477
1	0x3f0da490	0.5532923
2	0x3e486ed1	0.19573523
3	0x3e36c07f	0.17846869
4	0x3e3823de	0.17982432
5	0x3e3a4d18	0.18193471
6	0x3e136bd4	0.14396602
7	0x3e35025c	0.17676681
8	0x3e207e6d	0.15673228
9	0x3e7410e7	0.23834573
10	0x3ef8f7ef	0.48626658
11	0x3eb11800	0.34588623
12	0x3e2f43b9	0.17115678
13	0x3e4b6413	0.19862394
14	0x3e8e2c9b	0.27768406
15	0x3e3c9694	0.18416816
16	0x3e617eee	0.22021076
17	0x3e84cb32	0.25936276
18	0x3ebd8d3c	0.37021816
19	0x3e12c679	0.14333524
20	0x3e721397	0.23640285
21	0x3e980ab2	0.2969566
22	0x3e57c864	0.21072537
23	0x3e446a77	0.19181238
24	0x3e8a6296	0.2702834
25	0x3eaed746	0.34148616
26	0x3e6cc174	0.23120672
27	0x3e5bd4b1	0.21467854
28	0x3e314b2e	0.17313835
29	0x3f38ca67	0.7218384
30	0x3e872f1b	0.26403126
31	0x3eb6ec69	0.35727242
32	0x3e0b6f30	0.13616633
33	0x3ea8a680	0.3293953
34	0x3ec05ffe	0.37573236
35	0x3e334247	0.17505752
36	0x3eecd65d	0.46257296
37	0x3f054a8e	0.52066886
38	0x3e19beec	0.15014237
39	0x3e8b2f08	0.2718432
40	0x3edf5872	0.43622166
41	0x3e9fa2ec	0.31178987
42	0x3e8eeb86	0.27914065
43	0x3ed087fd	0.4072875
44	0x3e5bec31	0.21476819
45	0x3eb0d909	0.34540585
46	0x3e85319e	0.26014417
47	0x3ec1b18a	0.37830764
48	0x3e5f82bc	0.21827215
49	0x3e21f592	0.15816334
50	0x3e0f5c85	0.14000137
51	0x3eb778d0	0.3583436
52	0x3ea3af83	0.31969842
53	0x3e71f325	0.23627909
54	0x3e3fb007	0.18719493
55	0x3e1a978d	0.15096875
56	0x3e33ae89	0.17547049
57	0x3e993208	0.29920983
58	0x3ec23687	0.37932226
59	0x3ea8a47d	0.32937995
60	0x3eb76f20	0.3582697
61	0x3e7b6d82	0.24553493
62	0x3e362108	0.17786038
63	0x3e412dee	0.18865177

encoder.9.weight f4 [16, 64, 3]
0	0xbc22347f	-0.009900211
1	0x3d85289f	0.065018885
2	0x3a8283f5	0.0009957539
3	0x3d6d98d3	0.058007073
4	0x3c1dda90	0.009634629
5	0x3c65b187	0.014019377
6	0xbd552f50	-0.052047074
7	0xbc8971ae	-0.01677784
8	0x3c35539b	0.011067296
9	0x3cebc809	0.028781908
10	0x3bbee219	0.005825293
11	0xbca6b373	-0.02034924
12	0x3bc89afb	0.0061219907
13	0x3d88b8d0	0.06675875
14	0x3d5841dd	0.052797187
15	0x3cbbd4ca	0.022928614
16	0xbd3fc12a	-0.046815075
17	0xbca94715	-0.020663777
18	0x3d322193	0.04348905
19	0x3d876904	0.06611827
20	0xbd141413	-0.036151957
21	0x3ce6063a	0.028079141
22	0xbcbff78d	-0.023433471
23	0x3d4509d4	0.048105076
24	0xbbde196a	-0.006777932
25	0xbd55a0f4	-0.05215545
26	0xbd84dae4	-0.064870626
27	0x3b844580	0.0040366054
28	0x3ced39df	0.02895826
29	0xbd11bf84	-0.035583034
30	0x3d4e1aa9	0.050318394
31	0x3ce032f5	0.027368048
32	0x3d166f71	0.036727373
33	0x3d1cf9b5	0.038324077
34	0xbd82712e	-0.063692436
35	0xbba7aa6d	-0.005116752
36	0x3d364c59	0.044506405
37	0x3d2c9540	0.042134523
38	0xbd6ee787	-0.05832627
39	0xbd085d2f	-0.03329199
40	0x3d769533	0.06020088
41	0xbd573799	-0.052543256
42	0x3d3fda44	0.046839014
43	0xbcad2d09	-0.021139638
44	0xbae3abfc	-0.0017369981
45	0x3cedc58e	0.029024865
46	0x3c4bc555	0.012437184
47	0xbd5965b5	-0.05307551
48	0x3cf3f992	0.02978209
49	0xbd66f618	-0.056387037
50	0xbcfa9663	-0.030589288
51	0xbbb91409	-0.0056481403
52	0xbbf4c174	-0.0074693505
53	0x3d76afee	0.060226373
54	0xbd3ca061	-0.046051387
55	0x3d59d28d	0.053179312
56	0x3ce14252	0.027497444
57	0x3cc1e238	0.02366744
58	0x3d391de8	0.045194536
59	0xbd5a88f8	-0.05335328
60	0xbd8b7ec8	-0.06811291
61	0xbb8ebece	-0.004356242
62	0x3cf24d6e	0.029577937
63	0x3cd35eb1	0.025801988
64	0xbb57f31e	-0.0032951306
65	0x3d7cf1fd	0.061754216
66	0x3ca100e7	0.01965375
67	0x3cc7f737	0.024409873
68	0xbd2b416e	-0.041810445
69	0x3c8658a2	0.016399685
70	0xbd0d20d3	-0.03445513
71	0xbd84e647	-0.064892344
72	0xbd5f0193	-0.05444486
73	0xbd4fd8cd	-0.050743867
74	0xbc9596b2	-0.018260334
75	0xbcc0f775	-0.023555497
76	0x3d9736c8	0.073834956
77	0x3d168dd8	0.036756366
78	0xbd5ab19f	-0.05339205
79	0x3c2ed9ac	0.010672014
80	0x3d8c9b05	0.06865505
81	0x3b9f45c6	0.0048606126
82	0x3c98e421	0.018663468
83	0x3cdc5ee9	0.026900725
84	0xbcaf756f	-0.021418301
85	0xbd2f0815	-0.042732317
86	0xbcb68efb	-0.022284975
87	0xbc301f51	-0.010749654
88	0x3d83724c	0.06418285
89	0xbd51fecd	-0.051268388
90	0x3c8d3e5a	0.017241646
91	0xbcadaf4a	-0.021201748
92	0xbabf12f5	-0.0014577793
93	0x3ad3e094	0.0016164952
94	0xbca55a95	-0.020184794
95	0x3cc30f06	0.023810875
96	0x3ca53aa4	0.020169564
97	0xbd0d4998	-0.034494013
98	0x3d4f2d9b	0.050580602
99	0x3d90bd20	0.07067323
100	0xbcbd0722	-0.02307469
101	0x3cae491d	0.021275098
102	0xbc8b1aa5	-0.016980479
103	0x3d6c02b8	0.05761978
104	0x3af49aeb	0.0018661892
105	0xbd92def1	-0.07171429
106	0x3c142dc9	0.009044119
107	0x3d5cb7ea	0.05388633
108	0x3c0be60c	0.008538734
109	0xbc2fd3b0	-0.010731623
110	0x3ba9b864	0.005179452
111	0x3d480c9b	0.048840147
112	0x3d8e26b4	0.06940976
113	0xbc3127eb	-0.01081274
114	0x3d2a8dce	0.04163914
115	0x3d35e1d8	0.044404835
116	0x3d8c757b	0.06858345
117	0x3d39e7be	0.045387022
118	0xbd8998e0	-0.06718612
119	0xbd8846e9	-0.0665415
120	0xbd55fb00	-0.052241325
121	0x3d57ad39	0.052655432
122	0xbcf0ca3d	-0.02939331
123	0x3d071a7e	0.03298425
124	0xbc94de2a	-0.018172342
125	0xbd1723f3	-0.03689952
126	0x3d452e53	0.04813988
127	0xbcac1117	-0.021004243
128	0xbd3b2173	-0.045686197
129	0xbc8a6605	-0.01689435
130	0xbd58bb79	-0.052913163
131	0xbd9c7034	-0.076385885
132	0xbbbfc6a7	-0.0058525386
133	0x3b6e3c72	0.0036351946
134	0xbd0ae0b4	-0.0339057
135	0x3d6bd3df	0.057575103
136	0xbcbd4379	-0.023103463
137	0xbcce50a4	-0.025184937
138	0x3d4ef91f	0.05053055
139	0x3a369968	0.00069656083
140	0xbcc43d7d	-0.023955101
141	0x3c035415	0.008015652
142	0xbd9584ed	-0.07300744
143	0x3d82b43e	0.06382035
144	0x3c5e265f	0.013558953
145	0x3c9392b4	0.01801429
146	0xbd7369e8	-0.059427172
147	0x3d611a2d	0.054956604
148	0xbd5fb996	-0.054620348
149	0xbcb4eea4	-0.022086449
150	0xbd403fca	-0.046935834
151	0xbcea5c36	-0.028608423
152	0x3ca74a4e	0.020421173
153	0xbd9e898f	-0.07741081
154	0xbd9f003f	-0.07763719
155	0x3c24691a	0.010034824
156	0x3d00cb91	0.031444136
157	0x3c04096b	0.008058886
158	0xbca409c5	-0.02002419
159	0xbc9ee1df	-0.019394813
160	0xbca80896	-0.020511907
161	0xbc3e4737	-0.011613659
162	0xbd0c9e45	-0.034330625
163	0x3d5ee176	0.054414235
164	0x3cae5bbe	0.02128398
165	0xbd4177ad	-0.047233272
166	0xbc2635e0	-0.010144681
167	0xbd418716	-0.04724797
168	0xbcfc91bb	-0.030831208
169	0x3d8263bf	0.06366681
170	0x3cf3a3e7	0.02974124
171	0x3cd0d08f	0.025490073
172	0xbc383c42	-0.011244835
173	0xbcd6ec3d	-0.026235694
174	0x3aa94e2d	0.0012916975
175	0xbd731dc9	-0.059354577
176	0xbda15db6	-0.07879202
177	0x3d7439d7	0.059625473
178	0x3c501fa0	0.0127028525
179	0x3d4d9135	0.05018731
180	0x3d3b1184	0.045671
181	0x3cc33b01	0.023831846
182	0xbd01fdbe	-0.031736128
183	0xbb9b160a	-0.004732852
184	0x3b8813f4	0.004152769
185	0x3c3ebbfd	0.0116415
186	0x3bca48b4	0.0061732177
187	0xbd4f417c	-0.05059956
188	0xbd0eeac6	-0.034891866
189	0x3d6fab39	0.0585129
190	0x3c235386	0.009968644
191	0xbcd388bc	-0.025822036
192	0x3d6abbdf	0.057308074
193	0xbc54dc16	-0.012991926
194	0xbcac049d	-0.020998294
195	0x3d6fda8c	0.058558032
196	0xbd44936b	-0.04799215
197	0xbcd364d4	-0.025804915
198	0x3d8186e4	0.063245565
199	0x3ab0da85	0.0013492858
200	0xbcae2bce	-0.021261122
201	0x3d5262f1	0.05136389
202	0x3b411caf	0.002946656
203	0xbd9b0da2	-0.0757096
204	0xbd3b3cb7	-0.0457122
205	0xbc2339c4	-0.009962503
206	0x3b9945c6	0.004677507
207	0xbd4783a0	-0.04870951
208	0xbcf9735a	-0.030450512
209	0x3cbd01b8	0.023072109
210	0xbd8525fd	-0.06501386
211	0xbd81c461	-0.063362844
212	0x3cb91656	0.022593658
213	0x3be8ed19	0.0071083424
214	0xbda05f30	-0.078306556
215	0xbd91dcda	-0.07122202
216	0x3d8c4fd6	0.06851165
217	0x3da55752	0.08073296
218	0xbcbc54ef	-0.022989718
219	0x3da582ac	0.08081564
220	0x3d6e9bf8	0.058254212
221	0x3d94ebf3	0.07271566
222	0xbd22818e	-0.039674334
223	0xbcd77937	-0.026302917
224	0x3d0b8484	0.034061924
225	0x3d034bba	0.03205464
226	0xbd48e518	-0.049046606
227	0x3d523aa7	0.051325466
228	0x3da1dbc2	0.079032436
229	0xbd17e68a	-0.037085094
230	0xbd6fec37	-0.05857488
231	0xbd7549aa	-0.059884705
232	0xbd1808d8	-0.03711781
233	0xbcbd76f2	-0.023128007
234	0xbd49a76f	-0.049231943
235	0xbd932d18	-0.07186335
236	0x3d1615e4	0.03664197
237	0x3d7d5688	0.0618501
238	0x3d5423a0	0.051791787
239	0x3d164617	0.036687937
240	0x3d251d9c	0.04031144
241	0xbc9e4189	-0.019318359
242	0xbd4ac48c	-0.049503848
243	0xbd0e1d13	-0.034695696
244	0x3d29f391	0.04149205
245	0x3cc84a3e	0.024449464
246	0x3a2f85d3	0.00066956616
247	0xbd5656da	-0.05232892
248	0xbd2c08bf	-0.04200053
249	0xbcd9d3d8	-0.026590273
250	0xbb8d7931	-0.0043174257
251	0xbc24c6bd	-0.0100571485
252	0xbaae5d36	-0.0013302926
253	0xbd05920d	-0.032609988
254	0xbc878bea	-0.016546208
255	0xbd5642aa	-0.05230967

encoder.9.bias f4 [16]
0	0x3d5baac9	0.05362967
1	0x3cc71d3c	0.024305932
2	0xbd75d7a6	-0.06002011
3	0x3d1d9764	0.038474455
4	0x3d937cc4	0.072015315
5	0xbd5d8653	-0.05408318
6	0xbc6fb503	-0.014630559
7	0xbd718188	-0.05896142
8	0x3d475adb	0.04867063
9	0x3d12950b	0.03578667
10	0x3d567552	0.05235798
11	0x3c9ea316	0.019364875
12	0xbc49176b	-0.01227365
13	0xbbc45eb8	-0.0059927367
14	0xbd623c0c	-0.055233046
15	0x3d382134	0.04495354

encoder.10.weight f4 [16]
0	0x3f80648c	1.0030684
1	0x3f7e7875	0.9940255
2	0x3f7df577	0.99202675
3	0x3f810048	1.0078211
4	0x3f80f285	1.0074011
5	0x3f8081a4	1.0039563
6	0x3f7d3e2d	0.98923
7	0x3f80c967	1.0061463
8	0x3f7edc66	0.9955505
9	0x3f7e8c37	0.994327
10	0x3f81415a	1.0098069
11	0x3f7edaad	0.9955242
12	0x3f80c675	1.0060564
13	0x3f816357	1.0108441
14	0x3f7e3307	0.9929661
15	0x3f7ed562	0.99544346

encoder.10.bias f4 [16]
0	0xbbafd986	-0.005366507
1	0xbc026c80	-0.007960439
2	0xbc04848c	-0.008088242
3	0x3bab24d0	0.0052228943
4	0x3bea5027	0.007150668
5	0x3bffa94e	0.007802165
6	0xbc2dc0f7	-0.010605088
7	0x3be4754d	0.006971991
8	0xbbacbef1	-0.0052717854
9	0xbbc82cb1	-0.0061088433
10	0x3c21ab71	0.009867535
11	0xbbb623e4	-0.0055584777
12	0x3c0e2d5f	0.0086778095
13	0x3c20fa49	0.009825298
14	0xbc02fa17	-0.007994196
15	0xba931855	-0.0011222461

encoder.10.running_mean f4 [16]
0	0x3da3af5b	0.07992431
1	0x3c7718ee	0.015081627
2	0x3e99aa5e	0.30012792
3	0x3d5169b9	0.051126216
4	0x3d6333f4	0.05546947
5	0xbe4f186d	-0.20224161
6	0x3c5019ab	0.012701432
7	0x3e795b4f	0.24351238
8	0x3e0ed310	0.13947701
9	0x3dfe83e0	0.12427497
10	0x3ab899da	0.0014083937
11	0xbb2e80f4	-0.0026627155
12	0xbe191ab9	-0.149516
13	0xbe77341e	-0.24140975
14	0xbe0d86f3	-0.1382101
15	0xbd238130	-0.039918125

encoder.10.running_var f4 [16]
0	0x3f03260e	0.5122994
1	0x3f2267b9	0.6343952
2	0x3eb21d05	0.34787765
3	0x3e50c3d9	0.2038721
4	0x3e9c0827	0.3047497
5	0x3f934d09	1.1507884
6	0x3e96fb7c	0.29488742
7	0x3e8549cf	0.26032874
8	0x3e70394f	0.23459361
9	0x3eb26250	0.3484063
10	0x3ebc55a3	0.36784086
11	0x3ed13490	0.40860415
12	0x3f48058a	0.7813345
13	0x3f6b32a2	0.91874135
14	0x3ec541d8	0.38526797
15	0x3e834873	0.25641212

decoder.0.weight f4 [64, 16, 3]
0	0xbd48ce40	-0.04902482
1	0x3cbbe618	0.022936866
2	0xbb7bdb56	-0.0038430295
3	0x3d07a6a4	0.033117905
4	0xbdf7d379	-0.12100882
5	0xbce30439	-0.027711974
6	0x3d8d3da1	0.068965204
7	0xbde7a679	-0.11311049
8	0xbd737255	-0.059435207
9	0xbd92e36c	-0.071722835
10	0xbde49fd3	-0.111632966
11	0x3e095c57	0.13414131
12	0x3e074d63	0.13213114
13	0x3dc58363	0.09644201
14	0xbde5b9d8	-0.112170875
15	0x3b64cecb	0.0034913297
16	0x3cfc0c14	0.030767478
17	0x3d8fec6f	0.07027518
18	0x3d1d87ed	0.038459707
19	0xbdb5135e	-0.088415846
20	0x39dcb1a4	0.00042094023
21	0xbdf0de9b	-0.117612086
22	0x3d93716f	0.0719937
23	0x3dca1819	0.098678775
24	0xbd361e1d	-0.044462312
25	0xbdf54d2e	-0.119776115
26	0xbb657f69	-0.003501857
27	0x3d8a1034	0.06741372
28	0xbdcc3f9f	-0.09973072
29	0x3d5fc3ec	0.054630205
30	0x3dd5539c	0.10416338
31	0xbded3550	-0.11582434
32	0x3daf4497	0.08558004
33	0x3d912ef5	0.070890345
34	0xbd92d6ac	-0.07169852
35	0x3e08230c	0.1329462
36	0xbd9c2a6b	-0.07625278
37	0x3dd14c80	0.10219669
38	0xbdf3e2f5	-0.11908523
39	0x3dde02a0	0.108403444
40	0xbd21a525	-0.039464135
41	0xbe093a8a	-0.13401237
42	0x3da4df5e	0.080504164
43	0xbbcd0517	-0.0062567103
44	0x3d3db9b4	0.04631968
45	0x3d879d91	0.0662185
46	0x3bc80168	0.0061036833
47	0x3d238576	0.0399222
48	0xbdf9afdf	-0.12191748
49	0xbdf1bce8	-0.11803609
50	0xbd81e334	-0.06342164
51	0xbda74f40	-0.081694126
52	0xbe0f1e44	-0.13976389
53	0x3cc91237	0.024544818
54	0xbc2236f3	-0.009900796
55	0xbd37c60d	-0.04486661
56	0xbbcd7d14	-0.006271014
57	0x3d84e5eb	0.06489166
58	0xbd53bc46	-0.051693223
59	0xbae8c76f	-0.0017759631
60	0xbc020362	-0.007935377
61	0x3d8f896d	0.07008634
62	0xbc9d0e87	-0.019171966
63	0x3d5ac8ff	0.05341434
64	0xbd82569a	-0.06364174
65	0x3dcd0fd7	0.10012787
66	0x3cfee17d	0.03111338
67	0x3cae55d0	0.021281153
68	0x3d822738	0.06355137
69	0xbe1738fb	-0.1476783
70	0x3d72ed6d	0.059308458
71	0x3deefc04	0.11669162
72	0x3dbe06c3	0.092786334
73	0x3dbead5a	0.09310408
74	0xbdf8c477	-0.12146848
75	0x3e08f42c	0.13374394
76	0x3d313c69	0.043270502
77	0xbe1ac5e8	-0.15114558
78	0x3e03d8ee	0.12875721
79	0x3ddee4d7	0.108834915
80	0xbcfa2c7f	-0.030538796
81	0x3e0adaf7	0.13560091
82	0xbb5ec8b8	-0.003399415
83	0x3ded355b	0.115824424
84	0xbe098333	-0.13428955
85	0xbe042a4c	-0.1290676
86	0x3d318201	0.043336872
87	0xbb02dc56	-0.0019967756
88	0xbdf3e7ec	-0.1190947
89	0xbd9ab952	-0.07554878
90	0x3da8ef3a	0.08248754
91	0x3dcbc6f9	0.099500604
92	0xbdf02bb5	-0.117270865
93	0xbd7c7283	-0.061632644
94	0x3b4d31fd	0.0031310313
95	0x3bca75b3	0.0061785816
96	0xbde1f1e1	-0.11032463
97	0x3de144f5	0.10999481
98	0xbdcbc1c3	-0.099490665
99	0x3dc5e717	0.096632175
100	0xbdc6067f	-0.09669208
101	0xbe19c93b	-0.1501817
102	0x3d2bd9e2	0.041955836
103	0xbd7eff8d	-0.06225543
104	0x3dcf9ce6	0.10137348
105	0xbd2dd166	-0.042436026
106	0x3c6a43ed	0.014298421
107	0x3de48b20	0.111593485
108	0xbdb29833	-0.08720436
109	0xbd59ab02	-0.0531416
110	0x3dd33c39	0.10314221
111	0x3def2a36	0.11677973
112	0x3ca867be	0.02055728
113	0x3dd81ee8	0.1055277
114	0x3dc70240	0.09717226
115	0x3db44c6d	0.088036396
116	0x3a7ad5be	0.0009568593
117	0x3e1542e4	0.14576298
118	0xbd2a8568	-0.041631132
119	0x3c4a16fc	0.012334581
120	0xbd2b31c3	-0.041795503
121	0xbbb0aaaa	-0.0053914385
122	0x3dbcc845	0.09217886
123	0x3deab3ba	0.11460061
124	0x3cd10ad2	0.025517855
125	0x3dcd59e6	0.100269124
126	0x3dc401a4	0.095706254
127	0x3d8703e9	0.06592543
128	0xbd386f83	-0.04502822
129	0x3da07700	0.078351974
130	0x3df47c00	0.119377136
131	0x3de58271	0.1120652
132	0x3d2ae497	0.041721907
133	0x3de29e6e	0.11065374
134	0xbdc1a8bb	-0.09456011
135	0x3d03f167	0.03221264
136	0xbdf92e33	-0.12167015
137	0x3da38248	0.079838336
138	0x3a949152	0.0011334813
139	0xbd0530ce	-0.032517247
140	0x3db196cb	0.086713396
141	0xbc9e8105	-0.01934863
142	0x3d8256aa	0.06364186
143	0x3da8bc9a	0.08239098
144	0xbd8acedf	-0.06777739
145	0xbe07c1a7	-0.13257466
146	0x3cc051f4	0.023476578
147	0xbdbf9017	-0.09353655
148	0xbdc5d3af	-0.09659516
149	0x3da879a5	0.08226327
150	0x3d06ffc4	0.03295876
151	0xbd170e4c	-0.03687887
152	0xbd26c516	-0.0407153
153	0xbdceb637	-0.100933485
154	0xbd8aa85d	-0.06770394
155	0x3c898d8c	0.016791128
156	0xbda0c6d3	-0.07850423
157	0xbe005864	-0.12533718
158	0xbe023278	-0.12714565
159	0xbe0683d5	-0.13136227
160	0xbd86c9f2	-0.06581487
161	0x3d2a64eb	0.04160015
162	0xbd827bb9	-0.063712545
163	0x3dcaeafb	0.099081
164	0x3dbc3575	0.091898836
165	0xbdfdcd36	-0.123926565
166	0x3d494a85	0.049143333
167	0xbd684b02	-0.056712158
168	0x3dfdc175	0.123904146
169	0x3dc9e3f3	0.09857931
170	0x3da299ed	0.07939515
171	0xbd9bbb2e	-0.07604061
172	0x3c5554e7	0.013020731
173	0xbdc79b83	-0.097464584
174	0x3cc04e28	0.023474768
175	0x3e134b8b	0.14384286
176	0xbcfb7edf	-0.030700145
177	0xbdb79b3a	-0.08965154
178	0xbd8f3d58	-0.06994122
179	0xbda0b495	-0.07846943
180	0x3d797849	0.06090573
181	0xbdbd8d56	-0.09255473
182	0x3db3b929	0.08775551
183	0x3d935e8b	0.07195767
184	0x3d9d3991	0.076769955
185	0xbc4c7a64	-0.012480352
186	0xbcd23e1a	-0.025664378
187	0x3d6f97d7	0.058494415
188	0xbcae2610	-0.021258384
189	0x3d6b46aa	0.057440437
190	0x3ca1f609	0.019770639
191	0x3d7895f7	0.060689893
192	0xbd8b2550	-0.06794226
193	0x3dc13e9a	0.094357684
194	0xbcf9bdf4	-0.030486085
195	0x3db32f57	0.08749264
196	0xbb67cd78	-0.0035370272
197	0xbe0b7886	-0.13620195
198	0xbc226092	-0.0099107195
199	0xbd2bbb24	-0.041926518
200	0xbd93666d	-0.071972705
201	0xbc634095	-0.013870378
202	0xbd7ff56f	-0.062489923
203	0x3ba45da4	0.0050160456
204	0xbd4eaa35	-0.05045529
205	0xbdc6a47f	-0.09699344
206	0x3d3ec76d	0.046576906
207	0xbdffeecc	-0.12496719
208	0xbdf2f530	-0.11863172
209	0xbcf38256	-0.029725235
210	0xbb97cde7	-0.0046327
211	0xbe0254aa	-0.1272761
212	0x3d9fcbe7	0.07802563
213	0x3b56e8db	0.0032792601
214	0x3d681f0d	0.056670237
215	0xbad1e33c	-0.0016013156
216	0xbcf977ec	-0.030452691
217	0xbd325cfd	-0.04354571
218	0xbcc25514	-0.023722209
219	0xbde44331	-0.11145628
220	0x3d84c719	0.06483287
221	0x3d328359	0.043582294
222	0x3dc52752	0.096266404
223	0xbe1130b1	-0.1417873
224	0xbcb15109	-0.021645086
225	0xbd80ebd8	-0.062949836
226	0xbb5079a4	-0.0031810785
227	0x3c6d5648	0.014485903
228	0xbc6906da	-0.014222825
229	0xbb8eca76	-0.0043576313
230	0xbc87e668	-0.016589358
231	0x3d2d2a2e	0.042276554
232	0xbd929cd7	-0.07158821
233	0xbc206b8a	-0.009791264
234	0x3d83a24f	0.06427442
235	0x3db811f9	0.08987803
236	0x3c1a7c83	0.0094291
237	0xbc2b1ae3	-0.010443422
238	0x3d027af8	0.031855553
239	0x3d94d136	0.07266466
240	0x3d01576a	0.031577505
241	0xbd98d5d0	-0.074626565
242	0xbdef015e	-0.11670183
243	0x3d79566e	0.06087344
244	0xbd8c2b82	-0.06844236
245	0x3d296e71	0.04136509
246	0xbdf28cde	-0.118432745
247	0x3da5fa44	0.08104375
248	0x3d5ab77c	0.05339764
249	0xbca6ce0e	-0.020361926
250	0xbdd88004	-0.10571292
251	0xbc520a42	-0.012819828
252	0x3dad5312	0.0846311
253	0x3de54d37	0.11196368
254	0xb9fdea7c	-0.00048430625
255	0xbbffe9f1	-0.0078098704

decoder.0.bias f4 [64]
0	0x3dfeb915	0.12437645
1	0xbd6156de	-0.055014484
2	0x3dbb472a	0.09144433
3	0xbd343568	-0.043996245
4	0x3da8bc30	0.08239019
5	0xbcfcd41b	-0.030862859
6	0xbd7ebcba	-0.062191702
7	0x3d30842b	0.043094795
8	0x3d9df179	0.07712073
9	0xbdddb266	-0.108250424
10	0xbc0e86b2	-0.008699106
11	0x3cfcfc5c	0.030882053
12	0x3cd30e7a	0.025763739
13	0x3e123a4c	0.14280051
14	0xbe005f43	-0.1253634
15	0x3dff4d78	0.12465948
16	0x3d99ec9b	0.07515832
17	0xbe0af43c	-0.1356973
18	0xbd652dbd	-0.055951823
19	0x3d58a9bd	0.05289625
20	0xbdd98658	-0.10621327
21	0x3e0b07b4	0.13577157
22	0xbd5e0cff	-0.054211613
23	0x3d619ddf	0.0550822
24	0x3ce9b9df	0.028531013
25	0xbd5bff6d	-0.05371039
26	0xbe0b8987	-0.13626681
27	0x3c2bfcb9	0.0104972655
28	0xbdf1bc13	-0.118034504
29	0xbd027853	-0.03185303
30	0x3cff2535	0.031145671
31	0xbd4c112b	-0.04982106
32	0x3da71b3f	0.08159494
33	0xbe0428ce	-0.12906191
34	0xbde900b1	-0.11377085
35	0x3d9fb4ea	0.077981785
36	0xbd9ba556	-0.07599895
37	0x3df597be	0.11991833
38	0xbcde2dcd	-0.027121449
39	0xbcc59c1b	-0.024122288
40	0x3e0cdf2c	0.13757008
41	0xbc7ec656	-0.015550217
42	0xbded18b3	-0.115769766
43	0xbd7be919	-0.061501596
44	0x3d354e5a	0.044264175
45	0x3dcac77f	0.09901332
46	0x3df876f7	0.12132066
47	0xbd59e19f	-0.053193685
48	0x3cb15b18	0.021649882
49	0x3dd7021d	0.1049845
50	0xbd6acbec	-0.05732338
51	0x3c0ff251	0.0087858
52	0xbd8dffde	-0.069335684
53	0x3ca65e21	0.020308556
54	0x3e0fc82c	0.14041203
55	0x3dfbd8c0	0.12297201
56	0xbdc02af0	-0.0938319
57	0x3d8f10d1	0.06985629
58	0x3e0c5cc7	0.13707267
59	0xbcdb8ec6	-0.026801478
60	0x3d4f4b6c	0.050609037
61	0xbe048356	-0.12940726
62	0x3da22600	0.07917404
63	0xbce65990	-0.028118879

decoder.1.weight f4 [64]
0	0x3f810044	1.0078206
1	0x3f7dd52c	0.991534
2	0x3f7e9b8c	0.99456096
3	0x3f7fa6f1	0.9986411
4	0x3f813aa1	1.0096017
5	0x3f805cf7	1.0028371
6	0x3f80187b	1.0007471
7	0x3f7eeee3	0.9958326
8	0x3f80a71e	1.0051
9	0x3f80c646	1.0060508
10	0x3f7e0443	0.9922525
11	0x3f81a633	1.0128845
12	0x3f7dd2a9	0.99149567
13	0x3f7db2c3	0.99100894
14	0x3f7ec1d7	0.99514526
15	0x3f7faef7	0.9987635
16	0x3f7dddc2	0.991665
17	0x3f803e9c	1.0019107
18	0x3f7f01bb	0.99612015
19	0x3f8156a0	1.0104561
20	0x3f7e44a0	0.99323463
21	0x3f814031	1.0097715
22	0x3f7d9021	0.9904805
23	0x3f80fd99	1.0077392
24	0x3f819799	1.0124389
25	0x3f7db8e4	0.99110246
26	0x3f7f9c61	0.9984799
27	0x3f7f42fe	0.99711597
28	0x3f80affb	1.0053705
29	0x3f7e2e2f	0.9928922
30	0x3f8169f9	1.0110465
31	0x3f7d5ee3	0.9897291
32	0x3f806d3c	1.0033336
33	0x3f8077b6	1.0036533
34	0x3f8055fa	1.0026238
35	0x3f7e7b6f	0.99407095
36	0x3f7f78e2	0.9979383
37	0x3f7ca6ac	0.9869182
38	0x3f7ffd9a	0.9999634
39	0x3f7eb1a1	0.9948979
40	0x3f80712f	1.0034541
41	0x3f7c4bb7	0.9855303
42	0x3f80ae7d	1.005325
43	0x3f7d82ca	0.99027693
44	0x3f814ee1	1.0102197
45	0x3f7fc188	0.9990468
46	0x3f814191	1.0098134
47	0x3f8084b6	1.00405
48	0x3f8150fa	1.0102837
49	0x3f8183dd	1.0118366
50	0x3f806619	1.0031158
51	0x3f801740	1.0007095
52	0x3f804077	1.0019673
53	0x3f813235	1.0093447
54	0x3f7d53aa	0.98955786
55	0x3f7f40c8	0.99708223
56	0x3f80aa30	1.0051937
57	0x3f80d3c1	1.0064622
58	0x3f7e2534	0.9927552
59	0x3f7f985f	0.99841875
60	0x3f815b87	1.0106057
61	0x3f818913	1.0119957
62	0x3f7fc60e	0.9991158
63	0x3f81645a	1.010875

decoder.1.bias f4 [64]
0	0x3b5a88e3	0.003334575
1	0xbc08aa04	-0.008341316
2	0xbb75d2fb	-0.0037509787
3	0xbb8bcfa6	-0.004266697
4	0x3b5199c5	0.0031982523
5	0xbac2bd22	-0.0014857391
6	0x3b897c37	0.0041957158
7	0xbbcc16c8	-0.0062283017
8	0x3bc75a49	0.006083761
9	0x3b71f0f4	0.00369173
10	0xbbf7e120	-0.007564679
11	0x3b80f429	0.003935356
12	0xbbc58ffc	-0.006029127
13	0xbbba9c05	-0.0056948685
14	0x3bf4c1b6	0.007469381
15	0x3c001552	0.007817583
16	0xbc22e5eb	-0.009942512
17	0x3c0318a4	0.00800148
18	0x3b290d58	0.0025795307
19	0x3beea895	0.00728328
20	0xbbe128e4	-0.0068713296
21	0x3c147b28	0.009062566
22	0xbc213c1a	-0.0098409895
23	0x3bc6f362	0.006071494
24	0x3c47840b	0.012177478
25	0xbc254405	-0.010087018
26	0x3bde0925	0.0067759925
27	0x3a542951	0.0008093315
28	0x3a820f50	0.0009922776
29	0xbbeda142	-0.0072518894
30	0xbb343481	-0.0027497115
31	0xbc2d89a0	-0.010591894
32	0x3b26b4f9	0.0025437458
33	0x3c18d021	0.009326966
34	0xbbbaed8c	-0.0057045873
35	0xba6abd3b	-0.0008954589
36	0x3abe970e	0.0014540867
37	0xbc24c897	-0.01005759
38	0x3aaaa3d5	0.0013018796
39	0xbba96693	-0.0051696985
40	0x3be8c1ee	0.0071031963
41	0xbc2f1967	-0.010687209
42	0x3c2ec620	0.010667354
43	0xbc026abd	-0.007960019
44	0x3c153e75	0.009109129
45	0xbbbc358d	-0.0057436884
46	0x3aa53074	0.0012602941
47	0x3c1dcd1f	0.009631424
48	0x3c0337c2	0.008008899
49	0x3c2d6e98	0.01058545
50	0xbc1c06ca	-0.009523103
51	0xbb4e2e30	-0.0031460635
52	0x3bd6e098	0.0065575354
53	0x3c035160	0.008015007
54	0xbc64f801	-0.013975144
55	0xbbbb63d5	-0.005718688
56	0x3be7c2b8	0.007072773
57	0x3be89b04	0.0070985574
58	0xbbbf079e	-0.0058297655
59	0xbb94c5e6	-0.004540193
60	0x3c01e6f0	0.007928595
61	0xbbe97f15	-0.007125745
62	0xbb8365d3	-0.004009941
63	0x3c3e2084	0.011604432
