data/models/autoencoder_epoch_10.pth (torch, 118024 bytes, 43 tensors)

encoder.0.weight f4 [16, 1, 3]
0	0x3ee4f112	0.44715172
1	0x3ef267f9	0.4734495
2	0xbe10658b	-0.14101236
3	0x3f0889ed	0.5333546
4	0xbdfddd34	-0.12395707
5	0x3df3ce49	0.1190458
6	0xbe8def8d	-0.27721825
7	0x3eaf95f7	0.34294102
8	0x3f034915	0.5128339
9	0xbed9c342	-0.42531782
10	0x3f0004e5	0.5000747
11	0x3dd9b4c0	0.106301785
12	0x3eddaa3e	0.43293947
13	0x3d930521	0.07178713
14	0x3e8b41f0	0.27198744
15	0xbdad28d8	-0.08455056
16	0x3ee256ee	0.44206947
17	0x3da89de7	0.082332425
18	0xbe8be29a	-0.2732132
19	0x3e1a58d6	0.1507295
20	0xbe865f2d	-0.26244488
21	0xbd93a465	-0.0720909
22	0xbe7488da	-0.2388033
23	0x3ec1e3a0	0.37868977
24	0xbee6cf41	-0.45079997
25	0xbe8ace42	-0.27110487
26	0xbe2bfff6	-0.1679686
27	0xbeb41b69	-0.35177162
28	0x3d721ff0	0.05911249
29	0xbf10cc2e	-0.56561553
30	0x3f03ac18	0.5143447
31	0xbefea253	-0.4973322
32	0x3ee0af9c	0.4388398
33	0x3dc34ddf	0.09536337
34	0xbe3f2bbb	-0.18669026
35	0x3eb71138	0.35755324
36	0x3dc1ef52	0.09469475
37	0x3eec6d78	0.46177268
38	0x3d6f3609	0.05840114
39	0xbe3c792b	-0.18405597
40	0x3e2149fe	0.15750882
41	0xbe1de19e	-0.15418097
42	0x3e7e75bc	0.248496
43	0x3f028d24	0.50996614
44	0x3ea80eb6	0.32823724
45	0xbe82c5d3	-0.25541553
46	0x3ea919e9	0.3302758
47	0x3dcd669a	0.10029335

encoder.0.bias f4 [16]
0	0x3e96ecd0	0.2947755
1	0xbeb2aa56	-0.3489558
2	0xbf1270a5	-0.5720313
3	0xbe5fa0b5	-0.21838649
4	0xbee374e8	-0.4442513
5	0x3ef16ee8	0.47154927
6	0x3e2b8af4	0.16752225
7	0x3e70ffe2	0.23535112
8	0x3e3de716	0.18545184
9	0xbbf23f34	-0.0073927883
10	0x3ee5ce06	0.44883746
11	0xbed0bc41	-0.40768626
12	0x3d21cc30	0.03950137
13	0xbec76906	-0.38947314
14	0x3e392cad	0.18083449
15	0xbe4fbbf6	-0.20286545

encoder.1.weight f4 [16]
0	0x3f807491	1.0035573
1	0x3f7f195c	0.9964807
2	0x3f801137	1.0005254
3	0x3f80b534	1.0055299
4	0x3f7fc58c	0.9991081
5	0x3f8038a0	1.001728
6	0x3f8048ea	1.0022252
7	0x3f7fdf71	0.9995032
8	0x3f7f437f	0.99712366
9	0x3f803d16	1.0018642
10	0x3f80558d	1.0026108
11	0x3f7f016c	0.99611545
12	0x3f7f0c02	0.996277
13	0x3f805604	1.002625
14	0x3f7fd906	0.99940526
15	0x3f7e5bf0	0.99359035

encoder.1.bias f4 [16]
0	0x3b72b46b	0.0037033807
1	0xbb649b7e	-0.003488272
2	0x3a3bdddd	0.0007166544
3	0x3b8f6f94	0.004377315
4	0xb630e0c0	-2.6356865e-06
5	0xba4d0d4a	-0.00078221096
6	0x3b13440c	0.002247098
7	0xba2e8510	-0.0006657401
8	0xbb478b10	-0.0030447878
9	0x3aaa4764	0.0012991247
10	0x3b3f63eb	0.0029203843
11	0xbb8505ee	-0.0040595448
12	0xbb76dae0	-0.003766708
13	0x3b3c74f1	0.0028756226
14	0xba67251b	-0.000881748
15	0xbbd501e8	-0.0065004714

encoder.1.running_mean f4 [16]
0	0x3e473b96	0.19456324
1	0xbe65ae21	-0.22429706
2	0xbebfa47d	-0.37430182
3	0xbe15819e	-0.14600226
4	0xbe92718a	-0.28602248
5	0x3e9d2730	0.3069396
6	0x3ddbc3eb	0.10730728
7	0x3e1d6960	0.15372229
8	0x3df0294a	0.11726625
9	0xbbfb03c4	-0.007660361
10	0x3e97c0e3	0.29639348
11	0xbe87dd53	-0.26536044
12	0x3cd2fc50	0.025755078
13	0xbe82fbb2	-0.25582653
14	0x3df34e34	0.118801504
15	0xbe081e9a	-0.13292924

encoder.1.running_var f4 [16]
0	0x3f3d5833	0.73962706
1	0x3f06f818	0.5272231
2	0x3f12b24e	0.5730332
3	0x3ec27988	0.37983346
4	0x3f3cb0f4	0.7370751
5	0x3ef48d0a	0.47763854
6	0x3ee3485f	0.44391152
7	0x3eb46231	0.35231164
8	0x3f5a87c5	0.8536342
9	0x3f52918a	0.82253325
10	0x3efa3966	0.48871917
11	0x3ec9dd3c	0.394266
12	0x3f18221d	0.5942705
13	0x3ebd9aee	0.37032264
14	0x3f8e5c28	1.1121874
15	0x3ebf35b2	0.37345654

encoder.3.weight f4 [32, 16, 3]
0	0x3d1f0d07	0.038830783
1	0xbcca8824	-0.02472312
2	0x3dffe35b	0.124945365
3	0xbdba42dc	-0.09094784
4	0xbdbb59a2	-0.091479555
5	0xbda596a3	-0.08085372
6	0x3dfed3e4	0.12442759
7	0x3d5a1cd4	0.05325015
8	0x3e139500	0.14412308
9	0xbdfefecf	-0.12450945
10	0xbe0d79c7	-0.13815986
11	0xbddc8c02	-0.10768892
12	0xbdd1e663	-0.10249021
13	0x3d82b313	0.06381812
14	0x3d692123	0.056916367
15	0x3dea939d	0.11453936
16	0xbd8e05db	-0.069347106
17	0xbdbeccdb	-0.09316417
18	0x3da52814	0.08064285
19	0xbd6e2303	-0.05813886
20	0x3da8b205	0.082370795
21	0xbd226846	-0.039650224
22	0x3db37799	0.08763046
23	0xbddaf214	-0.10690704
24	0xbd8cdbcc	-0.068778604
25	0x3d2ee63e	0.042700045
26	0x3ccf192a	0.025280554
27	0xbd061318	-0.032733053
28	0x3da89a72	0.08232583
29	0x3dbe3d84	0.09289077
30	0xbde16bd3	-0.11006894
31	0xbda8f7c1	-0.0825038
32	0x3e0cb1ed	0.13739748
33	0xbd5d9a5e	-0.054102294
34	0xbd3bc509	-0.045842204
35	0xbe09a6e1	-0.13442566
36	0xbdb455b9	-0.08805413
37	0x3d2947ca	0.04132823
38	0xbc626193	-0.013817209
39	0xbdce488f	-0.10072433
40	0x3bf2a2d8	0.0074046664
41	0xbdd4a3b8	-0.103827894
42	0xbe02eb4c	-0.12785071
43	0xbd97f191	-0.07419122
44	0xbdf7ffc4	-0.1210933
45	0xbdc74402	-0.09729768
46	0x3e18ed58	0.1493429
47	0x3d051bd2	0.032497235
48	0x3d266ade	0.04062926
49	0xbe0dd645	-0.13851269
50	0xbdca0d99	-0.09865875
51	0xbd548f66	-0.051894568
52	0x3c995b3e	0.018720265
53	0xbe060268	-0.13086855
54	0xbd8740b2	-0.066041365
55	0xbdb8cc5a	-0.09023352
56	0xbb62dc9b	-0.0034616354
57	0xbd6bc136	-0.057557307
58	0xbc5fa496	-0.01365008
59	0xbdd036f5	-0.10166732
60	0xbdd2c97b	-0.102923356
61	0xbdb46e44	-0.08810094
62	0xbd5a30a2	-0.053269036
63	0xbdf13344	-0.11777356
64	0x3deff969	0.11717493
65	0xbd05271d	-0.032508004
66	0x3e030855	0.12796147
67	0x3d47aeeb	0.0487508
68	0xbdf267b9	-0.1183619
69	0x3dc4ae3e	0.096035466
70	0xbd322ae3	-0.04349793
71	0xbd727219	-0.059190843
72	0xbdeda423	-0.11603572
73	0xbe0f1119	-0.13971366
74	0x3d38f91d	0.045159448
75	0xbce35fd9	-0.027755665
76	0x3d75b683	0.05998851
77	0xbdeaae19	-0.11458988
78	0x3dd39499	0.10331077
79	0xbde0d615	-0.10978333
80	0xbcebce6e	-0.028784957
81	0x3cd76c7a	0.026296843
82	0x3d90a42d	0.07062564
83	0x3de6bb95	0.11266247
84	0x3e02b299	0.12763442
85	0xbdf25308	-0.11832243
86	0x3d04f71c	0.032462224
87	0xbd6ed716	-0.05831059
88	0xbc4552fe	-0.012043713
89	0xbdd558df	-0.104173414
90	0x3e02aedc	0.12762016
91	0xbde0e746	-0.10981612
92	0x3d961322	0.07327868
93	0x3d3ffddb	0.046872955
94	0x3d30c5b4	0.043157294
95	0xbda7bad5	-0.08189932
96	0x3e07f03c	0.13275236
97	0x3d07a43f	0.03311562
98	0x3ca225d0	0.019793421
99	0xbe00a6ed	-0.12563677
100	0x3d7e9a60	0.062158942
101	0xbca74de1	-0.020422878
102	0xbd843c76	-0.064568445
103	0x3e000d57	0.12505089
104	0x3d08d2ca	0.03340415
105	0xbda060bd	-0.07830951
106	0xbd94a7f9	-0.07258601
107	0xbbba07de	-0.0056772074
108	0x3da84134	0.082155615
109	0xbd115949	-0.03548554
110	0xbda623e1	-0.08112312
111	0xbd4410db	-0.047867637
112	0xbdda6fe2	-0.10665871
113	0x3d57e045	0.052704114
114	0x3de1f93d	0.110338666
115	0xbe0c8a85	-0.13724716
116	0x3d04419b	0.03228913
117	0x3d9be6b6	0.07612364
118	0x3cde2a28	0.027119711
119	0xbd4d8614	-0.050176695
120	0x3d977450	0.07395232
121	0x3d9894c7	0.07450252
122	0x3d58062b	0.052740257
123	0xbcdb1e4d	-0.026747847
124	0xbd21fbc0	-0.039546728
125	0x3c68c90b	0.014208089
126	0xbcc420da	-0.023941446
127	0xbd29c8f7	-0.04145142
128	0x3dbf7642	0.09348728
129	0x3e009ec3	0.12560563
130	0xbc542fb8	-0.01295083
131	0xbcfea8c4	-0.031086333
132	0x3b706771	0.003668275
133	0xbbf09d4f	-0.0073429714
134	0x3d132c8a	0.035931148
135	0x3d200b11	0.039073054
136	0xbe07a6a7	-0.13247167
137	0xbd5f31d7	-0.05449089
138	0x3dfc2340	0.12311411
139	0x3d6ba16b	0.057526987
140	0xbbc2dd91	-0.005946823
141	0xbdaf0309	-0.08545501
142	0xbdb33a15	-0.08751313
143	0xbe0321cd	-0.12805863
144	0xbd2cf235	-0.042223174
145	0x3d43c3fd	0.04779433
146	0x3db4c122	0.088259
147	0x3d926067	0.071472935
148	0xbdfb8877	-0.12281888
149	0xbdb9834b	-0.09058245
150	0xbc92fe0b	-0.017943403
151	0x3e0a6c63	0.13517909
152	0x3c8c174b	0.01710095
153	0xbd054881	-0.03253985
154	0x3d605cfa	0.05477617
155	0xbd70a4bf	-0.058750864
156	0xbdb57174	-0.0885953
157	0x3dd57ad1	0.10423816
158	0xbd8e271a	-0.06941052
159	0xbcc57a2e	-0.024106111
160	0xbe173c52	-0.14769104
161	0x3dbe1b83	0.09282591
162	0x3debf9eb	0.115222774
163	0x3d6fc704	0.058539405
164	0xbdc66205	-0.096866645
165	0xbe0ce616	-0.13759646
166	0xbdf9790a	-0.121812895
167	0x3dd4a2d9	0.10382623
168	0x3d99f342	0.07517101
169	0x3e026192	0.12732533
170	0x3da29a74	0.07939616
171	0x3d2daa75	0.04239889
172	0x3b87c0e7	0.004142869
173	0xbdd912e2	-0.10599305
174	0xbdf36255	-0.1188399
175	0xbe05df9c	-0.13073581
176	0x3d628b1f	0.055308457
177	0xbd87395f	-0.066027395
178	0xbd00ed8d	-0.031476546
179	0xbdb1e0dd	-0.086854674
180	0xbcafd611	-0.02146438
181	0xbdd6ff38	-0.10497898
182	0xbdc8e65c	-0.098095626
183	0x3d5c233c	0.05374454
184	0xbd178cb6	-0.036999427
185	0x3dbe3917	0.09288233
186	0xbd29e13f	-0.041474577
187	0xbddf3269	-0.10898287
188	0xbcef9641	-0.029246451
189	0xbd855b25	-0.06511525
190	0xbd48a31e	-0.048983686
191	0xbe109676	-0.14119896
192	0x3d9d990e	0.076952085
193	0xbdc632da	-0.09677668
194	0x3d9c99ae	0.076464996
195	0x3d7ca8fa	0.061684586
196	0x3dcb1e9a	0.09917946
197	0xbddab68f	-0.106793515
198	0x3dcccbc5	0.099998035
199	0xbd8387f6	-0.06422417
200	0x3d6b6e04	0.057477966
201	0x3e06e63c	0.13173765
202	0xbc84f52a	-0.016230185
203	0x3b378935	0.0028005366
204	0xbd17b74f	-0.03704005
205	0xbdef314c	-0.116793245
206	0x3d95e3b4	0.073188215
207	0xbe169f83	-0.14709286
208	0x3dbf9cf3	0.093561076
209	0x3de533fa	0.11191554
210	0x3e07d60e	0.13265249
211	0xbd1d64ad	-0.03842609
212	0xbdfae83a	-0.12251325
213	0x3cea82d7	0.028626842
214	0x3dab8667	0.083752446
215	0xbe0f172d	-0.13973685
216	0xbd15e9cf	-0.03659993
217	0xbdb9fcdb	-0.090814315
218	0xbc878949	-0.016544955
219	0xbd995ba7	-0.074881844
220	0xbd814285	-0.06311516
221	0xbd4bbcf7	-0.049740758
222	0xbe1058f5	-0.14096434
223	0x3dea5ee1	0.11443878
224	0x3dffd701	0.124921806
225	0xbcd8bed9	-0.02645819
226	0xbc4eec84	-0.012629632
227	0xbd6138b4	-0.054985717
228	0xbe09624f	-0.13416408
229	0xbe0bdae0	-0.13657713
230	0x3d6bc93f	0.05756497
231	0xbdaa3407	-0.08310705
232	0xbdc61287	-0.096715026
233	0xbc78b76c	-0.01518045
234	0xbd547cc0	-0.051876783
235	0xbd2f75cf	-0.04283696
236	0x3c0c35fc	0.008557793
237	0xbd0d1899	-0.034447286
238	0xbd3acb5b	-0.04560409
239	0xbd858100	-0.065187454
240	0xbde379b0	-0.111071944
241	0x3dfdf21d	0.12399695
242	0xbd68c36f	-0.056827005
243	0x3d36d7ee	0.04463952
244	0xbd339df0	-0.043851793
245	0x3c4f778d	0.0126627805
246	0x3e105487	0.14094745
247	0x3d87d8b8	0.06633133
248	0xbdfe3ce4	-0.12413958
249	0x3d82612e	0.06366192
250	0x3e0accde	0.13554713
251	0x3d1f721e	0.03892719
252	0x3dd34620	0.1031611
253	0x3e14acca	0.14519039
254	0xbcad89e2	-0.021183912
255	0x3d14e1a9	0.03634802

encoder.3.bias f4 [32]
0	0xbe02ffb8	-0.12792861
1	0x3d96c7f8	0.0736236
2	0xbe09a04f	-0.13440059
3	0xbc903f4e	-0.017608311
4	0x3c131395	0.008976837
5	0x3dd03c37	0.10167735
6	0xbd56aa87	-0.05240872
7	0x3d31f7cf	0.04344922
8	0x3ca5b4c1	0.020227792
9	0x3db79dd9	0.08965654
10	0x3c1b0ea4	0.00946394
11	0x3d5a49a5	0.05329289
12	0xbdb3e1ac	-0.08783278
13	0xbdce5511	-0.10074819
14	0x3e05f2a0	0.13080835
15	0xbdd81c9b	-0.10552331
16	0xbcd50327	-0.02600248
17	0xbc8ab9da	-0.016934324
18	0x3e12f7dc	0.14352363
19	0xbd028d8f	-0.031873282
20	0xbdddadfc	-0.108242005
21	0xbd12519b	-0.035722356
22	0x3d9eb017	0.0774843
23	0x3d636f8b	0.055526298
24	0x3dfb2510	0.122629285
25	0xbceb3128	-0.028709963
26	0x3d885977	0.06657689
27	0xbe0ab650	-0.13546109
28	0x3d5ca070	0.053863943
29	0x3d87c1f3	0.0662879
30	0x3db87079	0.090058275
31	0xbdb36b65	-0.08760718

encoder.4.weight f4 [32]
0	0x3f80785e	1.0036733
1	0x3f7fd193	0.9992916
2	0x3f7ea9b1	0.9947768
3	0x3f80e428	1.0069628
4	0x3f7ffc2f	0.99994177
5	0x3f7ef4f9	0.9959255
6	0x3f7fbc56	0.9989675
7	0x3f801d1d	1.0008885
8	0x3f80b337	1.0054692
9	0x3f806e89	1.0033733
10	0x3f7e9b19	0.9945541
11	0x3f7fbf39	0.9990116
12	0x3f7f9ed0	0.99851704
13	0x3f80c677	1.0060567
14	0x3f7f5325	0.99736243
15	0x3f7ef54a	0.9959303
16	0x3f7f2478	0.9966502
17	0x3f800ecf	1.0004519
18	0x3f801f83	1.0009617
19	0x3f808a01	1.0042115
20	0x3f7f65b8	0.99764585
21	0x3f806bb8	1.0032873
22	0x3f803d27	1.0018662
23	0x3f80c38a	1.0059674
24	0x3f7e5852	0.99353516
25	0x3f80993f	1.0046767
26	0x3f7ef390	0.99590397
27	0x3f80a3a5	1.004994
28	0x3f7e4ae6	0.99333036
29	0x3f7e9876	0.99451387
30	0x3f7f609c	0.9975679
31	0x3f801101	1.0005189

encoder.4.bias f4 [32]
0	0x3b7f26d9	0.0038933067
1	0x3b478068	0.0030441526
2	0xbb1030f7	-0.0022001842
3	0x3be0e1ac	0.0068628397
4	0xba31ab71	-0.0006777561
5	0xbb7ef022	-0.0038900455
6	0x3aa3af4b	0.0012488154
7	0xba2d95e3	-0.0006621761
8	0xbbc60eff	-0.006044268
9	0x3b6ec364	0.003643238
10	0xbbc3dc31	-0.0059771766
11	0x3881efef	6.1958905e-05
12	0xb9b9baff	-0.00035425273
13	0x3bbbc54a	0.005730306
14	0xbb4697be	-0.0030302848
15	0xbba28a43	-0.0049603297
16	0xbb62ac34	-0.0034587504
17	0x3b6f1d67	0.003648603
18	0x3a10b5b9	0.0005520243
19	0x3b30cc64	0.0026977295
20	0xbacc7a20	-0.0015600361
21	0x39132a5b	0.00014034791
22	0x3b409681	0.0029386582
23	0x3bca3161	0.006170437
24	0xbbd737f0	-0.0065679476
25	0xbac571d0	-0.0015063826
26	0xbb3a0b29	-0.0028388
27	0x3bb1bd43	0.005424173
28	0xbbd54415	-0.00650836
29	0xbba693b3	-0.005083525
30	0x3b25b4bd	0.002528473
31	0x394441fc	0.00018716598

encoder.4.running_mean f4 [32]
0	0xbe91c532	-0.2847076
1	0xbe5ee199	-0.21765746
2	0xbdaeb2ad	-0.085301735
3	0xbe75ba73	-0.23996906
4	0xbe3889a9	-0.18021263
5	0xbd72ac72	-0.059246488
6	0xbd8b637d	-0.06806085
7	0xbd33fc12	-0.043941565
8	0x3d8f512e	0.06997906
9	0x3d6f7f48	0.058470994
10	0x3d2294e2	0.039692767
11	0xbe9d7d87	-0.30759832
12	0xbcefa724	-0.029254504
13	0x3d079498	0.033100694
14	0x3d72f3fe	0.05931472
15	0xbc9d3b10	-0.019193202
16	0xbc17c3ee	-0.009263022
17	0x3e30f836	0.17282185
18	0xbe188f5c	-0.14898437
19	0xbe39e43e	-0.18153474
20	0x3d0787f0	0.033088624
21	0x3cf45555	0.029825846
22	0x3dbf3866	0.09336929
23	0x3d812166	0.06305198
24	0x3ded71d3	0.11593976
25	0x3e263147	0.16229735
26	0xbc5d5aa2	-0.013510378
27	0xbe450278	-0.19239223
28	0xbdb9980b	-0.09062203
29	0x3d034035	0.032043654
30	0x3ea371fc	0.319229
31	0xbd89b845	-0.067246

encoder.4.running_var f4 [32]
0	0x3f049f16	0.51805246
1	0x3eb6a41d	0.35672083
2	0x3eb3e65c	0.35136688
3	0x3f755ab7	0.95841545
4	0x3ec1a029	0.37817505
5	0x3ecd04e1	0.40042785
6	0x3f0c458d	0.54793626
7	0x3eb3eeb9	0.35143068
8	0x3eb3f75d	0.3514966
9	0x3eb891c4	0.3604871
10	0x3f34cf56	0.7062887
11	0x3f2e031a	0.6797348
12	0x3ebb5963	0.36591634
13	0x3f05d788	0.52282
14	0x3ede4bf4	0.43417323
15	0x3ec3d030	0.38244772
16	0x3ef24c45	0.47323814
17	0x3f28be12	0.65915024
18	0x3eb497ef	0.35272166
19	0x3ec2ad73	0.38022956
20	0x3eca57b1	0.39520028
21	0x3eb41a80	0.35176468
22	0x3ec9f26f	0.39442775
23	0x3ec48b2b	0.38387427
24	0x3eb9eba1	0.36312583
25	0x3eba5c2a	0.3639844
26	0x3ed0be5e	0.4077024
27	0x3eb63aba	0.3559168
28	0x3ed9130e	0.4239735
29	0x3f16f93e	0.58974063
30	0x3eb98347	0.3623297
31	0x3eb4a82a	0.3528455

encoder.6.weight f4 [64, 32, 3]
0	0xbd0527bc	-0.032508597
1	0x3c9df109	0.019279974
2	0xbd9f80f8	-0.07788271
3	0xbd9f461d	-0.07777045
4	0xbdd4afc0	-0.10385084
5	0x3c327c0e	0.010893835
6	0x3d8a737b	0.067603074
7	0x3ce80bd2	0.028325949
8	0x3c3604ec	0.011109572
9	0x3cf85c16	0.030317347
10	0xbd8e7337	-0.06955569
11	0x3bae1bd7	0.0053133774
12	0xbca8e939	-0.020619022
13	0xbd398acb	-0.04529838
14	0x3dbf49b9	0.09340233
15	0xbd97f845	-0.074204005
16	0x3ca45bdd	0.020063335
17	0xbdac9c9b	-0.084283076
18	0xbc1526e6	-0.009103512
19	0xbd4fe63a	-0.05075667
20	0x3d1d11ac	0.03834693
21	0xbd58ce29	-0.052930985
22	0x3d8db32c	0.0691894
23	0xbd9f8c96	-0.077904865
24	0x3d6bfc24	0.057613507
25	0xbda4129a	-0.080113605
26	0x3d4c0179	0.049806092
27	0xbd1c0e35	-0.038099486
28	0x3b9fe360	0.0048794
29	0xbcbd1e35	-0.023085693
30	0x3d9178fa	0.071031526
31	0x3d1ce7f4	0.038307145
32	0xbdaeb46a	-0.08530505
33	0x3b86ea5b	0.004117293
34	0xbd9b6bdd	-0.07588933
35	0x3d9621f3	0.07330694
36	0x3c38db26	0.011282718
37	0xbd001e1f	-0.031278726
38	0xbd424aa6	-0.04743447
39	0x3d248fae	0.040176086
40	0xbd64ea0b	-0.055887263
41	0x3d3529b0	0.04422921
42	0x3d77ece1	0.06052864
43	0x3d8adb4a	0.06780107
44	0x3cb9c3ec	0.02267643
45	0xbdad138d	-0.08450995
46	0x3d937332	0.07199706
47	0xbd13c4dc	-0.03607641
48	0xbd110cbc	-0.035412535
49	0xbc86c273	-0.016450142
50	0x3d8db58e	0.069193944
51	0x3daaa8ac	0.08332953
52	0x3caa6468	0.02079983
53	0x3d370b7d	0.04468869
54	0xbdce2652	-0.10065903
55	0xbb8a90c3	-0.0042286827
56	0xbdaf8d35	-0.08571855
57	0x3cf2c36e	0.029634204
58	0xbd9ecb6d	-0.07753644
59	0xbd0222c6	-0.031771444
60	0x3d9c21cc	0.07623634
61	0x3dca4d6f	0.098780505
62	0xbd868735	-0.065687574
63	0xbd554cea	-0.052075304
64	0x3c8a9f84	0.016921766
65	0x3d381ad8	0.044947475
66	0xbc436137	-0.011925033
67	0xbcdedf67	-0.027206136
68	0xbd7d3592	-0.061818667
69	0x3d464c77	0.048412766
70	0x3dd758f3	0.105150126
71	0xbd5b7e4d	-0.053587247
72	0x3d2f9c8e	0.04287391
73	0x3d357066	0.044296645
74	0x3d9ccb2d	0.0765594
75	0xbbe36310	-0.0069392994
76	0x3bfa77be	0.007643669
77	0x3da3ab67	0.07991677
78	0x3d71346a	0.058887877
79	0x3dc3272c	0.09528956
80	0xbcc8bc55	-0.024503866
81	0x3d109729	0.035300408
82	0x3d891d23	0.066950105
83	0xbd9895b2	-0.07450427
84	0x3c765219	0.015034222
85	0xbce63797	-0.02810268
86	0x3d76a82d	0.06021898
87	0xbd27e774	-0.040992215
88	0x3c4d19f7	0.0125183975
89	0x3d6ba991	0.057534758
90	0xbdca4740	-0.09876871
91	0xbdb899e4	-0.09013727
92	0xbd6bd680	-0.05757761
93	0x3d910837	0.07081645
94	0x3d85ff5b	0.06542846
95	0xbd98808b	-0.074463926
96	0x3c81b83a	0.015834916
97	0xbd6c65ee	-0.057714395
98	0xbd52cd43	-0.051465284
99	0x3dab54bf	0.083657734
100	0x3d38a9f3	0.04508395
101	0xbd040179	-0.032227967
102	0x3c25dbd2	0.01012321
103	0x3c7b9430	0.015355155
104	0x3c9fc76d	0.019504273
105	0xbd1deee4	-0.038557902
106	0xbd82f608	-0.06394583
107	0x3d820917	0.0634939
108	0x3c607b46	0.013701266
109	0x3d3ecce8	0.046582133
110	0xbd0dc544	-0.034611955
111	0x3d499073	0.049210023
112	0x3d9d461f	0.0767939
113	0x3d86f50c	0.06589708
114	0x3cc2e816	0.023792308
115	0x3dc4fc46	0.0961843
116	0xbb93e84b	-0.0045137755
117	0x3c892781	0.01674247
118	0x3dbe38f4	0.09288207
119	0x3dc213c1	0.09476424
120	0xbd3afe8e	-0.04565292
121	0x3dc5692f	0.09639203
122	0x3d2ccf1d	0.042189706
123	0xbc2c7a67	-0.01052723
124	0x3dbfa1b4	0.09357014
125	0xbd4705f2	-0.048589654
126	0x3d88134d	0.06644306
127	0x3dd08f3c	0.1018357
128	0xbd87b707	-0.066267066
129	0xbd82e4b2	-0.063912764
130	0xbdd73f15	-0.10510079
131	0xbcb890b7	-0.022529943
132	0xbdc61032	-0.09671058
133	0xbd1deeff	-0.038558003
134	0x3cda7007	0.026664747
135	0x3d952296	0.07281987
136	0x3d77051d	0.06030761
137	0x3d797968	0.060906798
138	0x3d3014e1	0.04298866
139	0xbd72238c	-0.05911593
140	0xbd9d4474	-0.07679072
141	0x3ba38a60	0.004990861
142	0x3dcf2f64	0.10116461
143	0x3c23e0d1	0.010002331
144	0xbc4b54de	-0.012410371
145	0xbd961116	-0.07327478
146	0xbd5ffb21	-0.054682855
147	0xbd9fe187	-0.07806688
148	0x3dac2f30	0.08407438
149	0xbc4b051e	-0.012391357
150	0xbdc02e4b	-0.0938383
151	0x3c703905	0.014662032
152	0x3b5361bc	0.00322543
153	0xbc891f25	-0.016738484
154	0x3d04360a	0.0322781
155	0x3d4f1ce8	0.050564677
156	0xbdc2e940	-0.09517145
157	0xbd971027	-0.07376128
158	0xba2712af	-0.00063733285
159	0xbdd0dc74	-0.10198298
160	0xbdc81f74	-0.09771624
161	0x3daf6039	0.08563275
162	0xbc0be605	-0.008538728
163	0xbd59bf65	-0.053161044
164	0xbd1e0320	-0.0385772
165	0xbda1c64c	-0.0789915
166	0x3dab6b02	0.083700195
167	0xbc927584	-0.017878301
168	0xbd79cbab	-0.06098525
169	0xbda5bbd9	-0.0809247
170	0x3d63b9a1	0.05559695
171	0xbc99bc0c	-0.018766426
172	0xbc70ce14	-0.01469757
173	0xbd0086aa	-0.031378426
174	0xbd59a99e	-0.053140275
175	0x3c67d884	0.014150742
176	0x3d9812f8	0.07425493
177	0xbd7fd639	-0.062460158
178	0x3c0d6f94	0.008632559
179	0xbda54c12	-0.0807115
180	0xbd52d466	-0.05147209
181	0x3db08171	0.08618439
182	0xbb4539b2	-0.0030094204
183	0x3dca4e4e	0.09878217
184	0xbc6a4a04	-0.014299873
185	0xbd52a6f9	-0.05142877
186	0xbd82d950	-0.06389105
187	0x3dc293b0	0.095008254
188	0xbd97ecf9	-0.07418246
189	0x3d5f3db4	0.054502204
190	0x3cf3a569	0.02974196
191	0x3d0cfe74	0.034422353
192	0x3d7a1483	0.061054718
193	0xbcafc8e1	-0.021458091
194	0x3d8b29c0	0.067950726
195	0xbda759fd	-0.08171461
196	0xbcfb73fa	-0.03069495
197	0x3d8d41a4	0.068972856
198	0x3d05c558	0.032658905
199	0xbc211b82	-0.0098332185
200	0xbcf218e7	-0.02955289
201	0xbd7145be	-0.058904402
202	0x3d89cfc4	0.06729081
203	0x3ae4e9a8	0.0017464655
204	0xbbe604a7	-0.0070195976
205	0x3c9af782	0.018916849
206	0x3d8ffad5	0.07030264
207	0xbd601997	-0.054711904
208	0xbd2549c1	-0.04035354
209	0x3d8243fd	0.06360624
210	0x3d825a2e	0.06364857
211	0xbd388713	-0.04505069
212	0xbddab100	-0.10678291
213	0x3c9dcd32	0.019262884
214	0x3d4c7784	0.049918666
215	0x3c98f0ca	0.018669505
216	0x3d95235a	0.072821334
217	0xbdabcaf8	-0.083883226
218	0x3d6a7a89	0.057245765
219	0xbd8d02e4	-0.06885317
220	0x3d565351	0.05232555
221	0x3da747a6	0.08167963
222	0x3ceae491	0.028673442
223	0x3d9e8c32	0.07741584
224	0xbd91c206	-0.07117085
225	0xbdb2ea25	-0.08736066
226	0xbdbe4a05	-0.09291462
227	0x3d85d21a	0.06534214
228	0x3d2b8f98	0.04188499
229	0xbd8ead5c	-0.069666594
230	0x3d331cac	0.043728516
231	0x3db477ec	0.08811936
232	0xbdd8d837	-0.10588115
233	0x3da381fc	0.07983777
234	0x3c30347e	0.010754703
235	0x3b8e66ab	0.004345735
236	0x3dc7da82	0.09758474
237	0x3db1fc13	0.086906575
238	0x3d1d40bd	0.038391817
239	0x3db1073f	0.0864396
240	0x3d3c0923	0.04590715
241	0x3cb2f1f7	0.021843893
242	0xbdad9209	-0.084751196
243	0x3c699401	0.014256478
244	0xbd9f6aae	-0.077840194
245	0x3d18424e	0.037172608
246	0x3cb5d69d	0.022197062
247	0x3bdca8f7	0.0067340094
248	0xbd9b2b1a	-0.0757658
249	0xbd61d57f	-0.055135246
250	0x3da50075	0.08056728
251	0x3d3413d9	0.04396424
252	0x3d4752fe	0.048663132
253	0xbd111256	-0.035417877
254	0xbc406010	-0.011741653
255	0xbcd9d0e6	-0.026588868

encoder.6.bias f4 [64]
0	0xbd60b9eb	-0.054864805
1	0xbd966d8f	-0.073451154
2	0xbd6baead	-0.05753963
3	0xbcaf3c71	-0.021391125
4	0x3cc70c35	0.024297813
5	0x3c9c92b3	0.01911292
6	0xbdc4b788	-0.09605318
7	0xbdc7767b	-0.09739395
8	0xbc85263c	-0.016253583
9	0x3db5a462	0.08869244
10	0x3d1c57ea	0.03816978
11	0x3db8779e	0.0900719
12	0xbd4473b7	-0.047961917
13	0x3cf19f45	0.029494891
14	0xbdb73881	-0.08946324
15	0x3d5c8c70	0.05384487
16	0xbb02c1d8	-0.0019951966
17	0xbc043194	-0.008068461
18	0xbd63be2f	-0.055601295
19	0xbdb21c73	-0.086968325
20	0xbd1c4102	-0.038147934
21	0xbc265170	-0.010151252
22	0xbd5d814d	-0.05407839
23	0x3d2d5dc7	0.04232576
24	0xbc89e2a6	-0.016831707
25	0x3c3d13df	0.011540382
26	0xbdc6632c	-0.09686884
27	0x3ce7d50f	0.028299836
28	0xbd51dfe6	-0.051238917
29	0xbd9e4643	-0.07728245
30	0xbd2f13c2	-0.042743452
31	0xbdbe8b00	-0.09303856
32	0xbd9f297f	-0.077715866
33	0x3d9b94c7	0.075967364
34	0x3dad118e	0.08450614
35	0xbd8e9d4c	-0.06963596
36	0x3cb46c83	0.022024399
37	0xbd57b2b6	-0.052660666
38	0x3dc7d058	0.09756535
39	0x3d7c04f4	0.06152816
40	0x3d281bec	0.041042253
41	0xbdaa8227	-0.08325606
42	0xbd4a522d	-0.049394775
43	0xbcb9e2fe	-0.022691246
44	0xbdbb3c17	-0.091423206
45	0xbd73a9ed	-0.059488226
46	0x3cdf7ca7	0.027281119
47	0xbda81f39	-0.0820908
48	0x3cdcd70b	0.02695801
49	0xbb7b698f	-0.0038362478
50	0xbbb5c2a0	-0.0055468827
51	0xbcf8c685	-0.030368099
52	0xbd61f2f6	-0.055163346
53	0xbdbf9843	-0.093552135
54	0xbd908d0e	-0.07058154
55	0x3d9ea11e	0.077455744
56	0xbbeb198e	-0.007174677
57	0x3dcebba4	0.10094383
58	0x3bcdf332	0.0062850947
59	0xbc30aab7	-0.010782889
60	0x3d79c706	0.06098082
61	0xbdc4c45e	-0.096077666
62	0xbd8251e1	-0.063632734
63	0x3d6a97ec	0.05727379

encoder.7.weight f4 [64]
0	0x3f7e6942	0.9937936
1	0x3f7ea857	0.99475616
2	0x3f801f49	1.0009547
3	0x3f80adcb	1.0053037
4	0x3f80bc58	1.0057478
5	0x3f80ade7	1.0053071
6	0x3f7ec498	0.9951873
7	0x3f7f93e7	0.99835056
8	0x3f800c48	1.0003748
9	0x3f802637	1.0011662
10	0x3f7ed46b	0.99542874
11	0x3f7ec982	0.99526227
12	0x3f7e82b7	0.99418205
13	0x3f7f2877	0.9967112
14	0x3f80a51c	1.0050387
15	0x3f7e663d	0.99374753
16	0x3f7fbe43	0.9989969
17	0x3f801530	1.0006466
18	0x3f80b02d	1.0053765
19	0x3f80507a	1.002456
20	0x3f80708d	1.0034348
21	0x3f80a461	1.0050164
22	0x3f800694	1.0002007
23	0x3f7e23e0	0.9927349
24	0x3f80997b	1.0046839
25	0x3f80cb77	1.0062093
26	0x3f7ed8d5	0.9954961
27	0x3f7f7f70	0.9980383
28	0x3f801ce8	1.0008821
29	0x3f7fcff2	0.99926674
30	0x3f7e3507	0.99299663
31	0x3f7ff19c	0.9997804
32	0x3f7e4eca	0.9933897
33	0x3f8048ad	1.0022179
34	0x3f80c4ee	1.0060098
35	0x3f7e422a	0.9931971
36	0x3f7f336f	0.99687856
37	0x3f8028ce	1.0012453
38	0x3f806d83	1.003342
39	0x3f805300	1.002533
40	0x3f7f3b08	0.9969945
41	0x3f80190a	1.0007641
42	0x3f7e9e77	0.9946055
43	0x3f80319e	1.0015142
44	0x3f7ea792	0.9947444
45	0x3f7e7caa	0.9940897
46	0x3f80b7ab	1.0056051
47	0x3f80bec7	1.0058221
48	0x3f7f048f	0.9961633
49	0x3f80e1f6	1.0068958
50	0x3f7fcaa8	0.99918604
51	0x3f809e6c	1.0048347
52	0x3f7f256f	0.99666494
53	0x3f7e6d6e	0.99385726
54	0x3f802be0	1.001339
55	0x3f8129c2	1.0090868
56	0x3f803be3	1.0018276
57	0x3f80731e	1.0035131
58	0x3f8039b0	1.0017605
59	0x3f800253	1.0000709
60	0x3f7f8056	0.998052
61	0x3f808225	1.0039717
62	0x3f7e7792	0.994012
63	0x3f7e67f3	0.99377364

encoder.7.bias f4 [64]
0	0xbbb5e13a	-0.0055505307
1	0x38940835	7.0587186e-05
2	0xb9d0483b	-0.00039726667
3	0x3bab33b9	0.0052246717
4	0x3ab4e6ab	0.0013801655
5	0x3bd6ccba	0.006555167
6	0xbb9bcfae	-0.004754982
7	0x38db0f68	0.000104456034
8	0xbb45f458	-0.0030205455
9	0x3af6ec23	0.0018838685
10	0xbb8e674c	-0.00434581
11	0xbb33582b	-0.0027365785
12	0xbbc50835	-0.0060129412
13	0xbb51b82c	-0.0032000644
14	0x3bbb641c	0.005718721
15	0xbbd4bbe2	-0.006492124
16	0xbb0e8f50	-0.0021752901
17	0x3b364485	0.0027811837
18	0x3bc1676f	0.005902223
19	0xbbd8aeb7	-0.0066126245
20	0x3b918447	0.0044408175
21	0x3baf34fa	0.0053468915
22	0xba02742a	-0.0004976416
23	0xbad2b2fa	-0.0016075068
24	0x3b9ae5f3	0.004727119
25	0x3bcfdcbe	0.006343453
26	0x39a0621e	0.0003059068
27	0xbad24822	-0.0016043226
28	0xbb298b96	-0.0025870553
29	0x3986710a	0.00025642692
30	0x3b03eab3	0.0020128905
31	0xb9abe498	-0.00032785977
32	0xbbac25e7	-0.0052535417
33	0x3b1a7541	0.0023568424
34	0x3bc4bdd5	0.006004075
35	0xbbc32e45	-0.0059564435
36	0x3b884896	0.0041590435
37	0x3b50d21c	0.0031863516
38	0x3b2d0e62	0.0026406278
39	0x3ad24d20	0.0016044714
40	0xbb5c9846	-0.0033660098
41	0x3a936898	0.0011246381
42	0xbbb3f0a6	-0.005491334
43	0x3a1aa88c	0.0005899749
44	0xbba9f1d4	-0.005186299
45	0xbbc398e3	-0.0059691533
46	0x3b60c6c1	0.0034298154
47	0x3bd62c06	0.0065360097
48	0xbb656b8c	-0.003500673
49	0xbb58a4ae	-0.003305714
50	0x3b62a3ef	0.0034582575
51	0x3ba190a1	0.004930571
52	0xbb513b4e	-0.0031926217
53	0x3b20b096	0.0024519316
54	0x3ad2ba78	0.00160773
55	0xb94205ba	-0.00018503415
56	0x3a4756da	0.00076041894
57	0x3bc9ac3a	0.006154564
58	0x3b69ac6e	0.0035655755
59	0x3bc702ab	0.006073316
60	0xbb01a6e0	-0.0019783303
61	0x3a9c48e4	0.0011923579
62	0xbbbc4df3	-0.005746597
63	0xbbd0c0ac	-0.0063706245

encoder.7.running_mean f4 [64]
0	0xbd201681	-0.03908396
1	0xbbc16c13	-0.005902776
2	0xbc9d152a	-0.01917513
3	0xbe61142a	-0.21980348
4	0x3dd4a922	0.10383822
5	0x3e519018	0.20465124
6	0xbebbdc7f	-0.36691663
7	0xbe459027	-0.19293271
8	0xbd348cb0	-0.044079483
9	0x3e4b87c4	0.19876009
10	0xbdb268a8	-0.08711368
11	0x3e7cf338	0.24702156
12	0x3d914e52	0.070950165
13	0x3b8cf8d8	0.0043021254
14	0xb9932d5e	-0.00028071826
15	0xbd2fb9b1	-0.0429017
16	0x3e4cc85b	0.19998305
17	0xbe49157a	-0.19637099
18	0xbde7b862	-0.11314465
19	0xbe4dc0d8	-0.20093095
20	0xbcc42d9c	-0.02394753
21	0xbd606748	-0.054785997
22	0xbccef65e	-0.025263961
23	0xbcf12ff1	-0.029441806
24	0x3df6facf	0.12059557
25	0x3e0289d4	0.1274789
26	0xbd9d6698	-0.07685584
27	0xbd0eec6b	-0.034893434
28	0xbdd5ae32	-0.10433616
29	0xbef37cf3	-0.47556266
30	0xbdc8eca0	-0.09810758
31	0x3dd14c98	0.10219687
32	0xbdffb00e	-0.12484752
33	0x3e6b5ec0	0.22985363
34	0x3d78c8bb	0.060738306
35	0x3e370891	0.17874362
36	0x3e8f35a4	0.27970612
37	0xbcfa6a42	-0.030568246
38	0x3e04ee27	0.12981473
39	0xbd6f5eaa	-0.058439888
40	0x3e11551c	0.14192623
41	0x3dc6d585	0.09708694
42	0xbcb6c730	-0.022311777
43	0xbd25bcd5	-0.040463287
44	0x3c08513e	0.008320151
45	0xbebc6f43	-0.36803636
46	0xbd9f3a5c	-0.07774803
47	0xbe38eeb1	-0.18059804
48	0x3cc199bc	0.023632877
49	0xbd28f44b	-0.0412486
50	0x3e6ea815	0.23306306
51	0x3da0aabc	0.07845065
52	0x3de78eec	0.11306557
53	0x3cb5de27	0.022200657
54	0xbe0d0deb	-0.1377484
55	0x3d732ff4	0.059371904
56	0xbdf2f7be	-0.11863659
57	0xbbb8f81c	-0.0056448113
58	0xba8fafc0	-0.0010962412
59	0xbb6032c4	-0.0034209946
60	0x3e15c1fd	0.14624782
61	0xbc0efca5	-0.008727227
62	0xbcae894d	-0.021305704
63	0xbda8663b	-0.08222624

encoder.7.running_var f4 [64]
0	0x3ef6a378	0.48171592
1	0x3f1ebe03	0.62008685
2	0x3ed8247a	0.4221533
3	0x3eca25a2	0.39481837
4	0x3ec77126	0.38953513
5	0x3ecac295	0.3960158
6	0x3eb77225	0.35829273
7	0x3ec7f5ed	0.39054814
8	0x3ec3d3b5	0.38247457
9	0x3ed93156	0.42420453
10	0x3f03f66a	0.51547873
11	0x3efa2fc0	0.48864555
12	0x3ecbf6dc	0.39836776
13	0x3ed58d75	0.41709486
14	0x3ee525d6	0.4475543
15	0x3edb647e	0.42850107
16	0x3ee7061c	0.4512185
17	0x3edc9259	0.43080404
18	0x3f05d391	0.5227595
19	0x3eba4149	0.36377934
20	0x3edcb6ef	0.43108317
21	0x3ee4ae19	0.44664076
22	0x3ed0156c	0.40641344
23	0x3ed31065	0.41223446
24	0x3ed37301	0.4129868
25	0x3eeb6a53	0.45979556
26	0x3ecddab1	0.4020591
27	0x3edf3417	0.4359443
28	0x3ebec694	0.37260878
29	0x3f28cecb	0.6594054
30	0x3eca642a	0.39529544
31	0x3f0f7f43	0.5605356
32	0x3eb838ff	0.35980985
33	0x3ee532e2	0.44765383
34	0x3f0adfb6	0.54247606
35	0x3ec81a7c	0.39082706
36	0x3f179d9a	0.59224856
37	0x3f26c5b7	0.6514544
38	0x3ebcda93	0.3688551
39	0x3eec038d	0.4609646
40	0x3f29293e	0.66078556
41	0x3eeb6ab6	0.4597985
42	0x3ef612ab	0.48061118
43	0x3f0af5d6	0.54281366
44	0x3ee4a4ce	0.44656986
45	0x3f0c086b	0.54700345
46	0x3ef99adc	0.4875096
47	0x3f0df6b2	0.5545455
48	0x3ecf1f8c	0.40453756
49	0x3ec0902b	0.3760999
50	0x3eb868af	0.36017367
51	0x3eedba60	0.46431255
52	0x3efb3d87	0.4907038
53	0x3ecb75eb	0.39738402
54	0x3eca25e6	0.3948204
55	0x3eb7e0d0	0.35913706
56	0x3ec649ae	0.38728088
57	0x3ed7a959	0.4212139
58	0x3f0036c9	0.50083596
59	0x3ed8e402	0.42361456
60	0x3f0a9a03	0.54141253
61	0x3ed72c4c	0.42025983
62	0x3ec6770d	0.38762704
63	0x3ec583dc	0.38577163

encoder.9.weight f4 [16, 64, 3]
0	0xbc48eb2d	-0.0122631015
1	0x3d812fcb	0.06307944
2	0xba761c43	-0.00093883666
3	0x3d676cc5	0.056500215
4	0x3c093333	0.008374023
5	0x3c4c815f	0.012482016
6	0xbd5f1349	-0.05446175
7	0xbc9aaedf	-0.018882213
8	0x3c18aa2a	0.009317914
9	0x3cf691f8	0.0300989
10	0x3c039664	0.008031461
11	0xbca09f7d	-0.0196073
12	0x3ba06179	0.004894432
13	0x3d872f7e	0.06600855
14	0x3d53e668	0.051733404
15	0x3cc551f7	0.024086935
16	0xbd445d19	-0.047940347
17	0xbcac2dcf	-0.021017937
18	0x3d326ae3	0.043558966
19	0x3d85409a	0.065064624
20	0xbd136e62	-0.03599394
21	0x3cf2175f	0.02955216
22	0xbcb10c7e	-0.021612402
23	0x3d44b2de	0.048022144
24	0xbbf17b4d	-0.007369435
25	0xbd599f4e	-0.05313044
26	0xbd87c0fc	-0.06628606
27	0x3b161b6f	0.0022904535
28	0x3cdd2f7e	0.027000185
29	0xbd184bd6	-0.037181698
30	0x3d5432b0	0.051806152
31	0x3ced40b4	0.028961517
32	0x3d1cfb7b	0.038325768
33	0x3d18f33a	0.037341334
34	0xbd84d9c1	-0.06486846
35	0xbbe6351f	-0.0070253755
36	0x3d2fe48c	0.04294257
37	0x3d27130a	0.04078964
38	0xbd7631d3	-0.06010611
39	0xbd1009c5	-0.035165567
40	0x3d6ef621	0.058340196
41	0xbd5e07b2	-0.054206558
42	0x3d47da8e	0.048792414
43	0xbc9f40a7	-0.019440008
44	0xb82a56d8	-4.0612038e-05
45	0x3cf90e8b	0.030402442
46	0x3c66cf8e	0.014087571
47	0xbd52e79a	-0.051490404
48	0x3ce84bdd	0.028356487
49	0xbd6b354b	-0.05742387
50	0xbd0345d1	-0.032049004
51	0xbbf02d1a	-0.0073295953
52	0xbc14faf7	-0.009093038
53	0x3d6f0ff0	0.05836481
54	0xbd364f66	-0.044509314
55	0x3d612174	0.054963544
56	0x3ced8218	0.028992698
57	0x3cc899f7	0.024487479
58	0x3d4196fb	0.047263127
59	0xbd58ae5d	-0.05290066
60	0xbd88d0db	-0.06680461
61	0xbb2d2b76	-0.002642361
62	0x3cfcfcf3	0.030882334
63	0x3ceab2c1	0.02864969
64	0xbaeab816	-0.0017907645
65	0x3d824a72	0.063618556
66	0x3cabd395	0.020974914
67	0x3cd4c392	0.025972161
68	0xbd24c54b	-0.040227216
69	0x3c909a7c	0.017651789
70	0xbd058793	-0.032599997
71	0xbd81b746	-0.06333785
72	0xbd577f78	-0.052611798
73	0xbd48e017	-0.049041834
74	0xbc86ce09	-0.016455667
75	0xbcced161	-0.025246324
76	0x3d936e14	0.0719873
77	0x3d0fc9dc	0.035104617
78	0xbd611968	-0.05495587
79	0x3c0f3d41	0.008742631
80	0x3d899804	0.06718448
81	0x3b42a352	0.0029699397
82	0x3c8bf408	0.017084137
83	0x3cce14e2	0.025156442
84	0xbcb030c8	-0.021507636
85	0xbd318d89	-0.04334787
86	0xbcbcab2a	-0.023030836
87	0xbc52684c	-0.012842249
88	0x3d7f806c	0.062378332
89	0xbd596e19	-0.053083513
90	0x3c69ff37	0.014282039
91	0xbcbc14c2	-0.022959117
92	0xbb3757eb	-0.0027975987
93	0xb9fd749f	-0.0004834281
94	0xbcb57032	-0.022148225
95	0x3cb54456	0.022127312
96	0x3ca1f1f8	0.0197687
97	0xbd145295	-0.03621157
98	0x3d499597	0.049214926
99	0x3d8e2a86	0.069417045
100	0xbcc9c8b4	-0.024631836
101	0x3ca19925	0.019726345
102	0xbca15ad0	-0.019696623
103	0x3d6368bc	0.055519804
104	0x38cb7048	9.700708e-05
105	0xbd8f932f	-0.07010495
106	0x3c3419fd	0.010992524
107	0x3d6133e4	0.054981127
108	0x3bd16e60	0.0063913316
109	0xbc4edce3	-0.012625906
110	0x3b622bce	0.0034510973
111	0x3d3fa276	0.046785794
112	0x3d8a5fe5	0.06756572
113	0xbc4d3915	-0.012525816
114	0x3d294322	0.04132379
115	0x3d335980	0.043786526
116	0x3d8b2ace	0.06795274
117	0x3d400b8b	0.04688601
118	0xbd85b081	-0.06527806
119	0xbd84f87e	-0.064927086
120	0xbd5db402	-0.054126747
121	0x3d507aed	0.05089848
122	0xbcfec996	-0.031101983
123	0x3d0d9cee	0.034573488
124	0xbc8641c0	-0.016388774
125	0xbd102d86	-0.035199665
126	0x3d4af6bb	0.049551707
127	0xbc9e2c46	-0.01930822
128	0xbd34a18c	-0.044099376
129	0xbc80067e	-0.015628096
130	0xbd51ee39	-0.051252577
131	0xbd9927f1	-0.07478321
132	0xbbf6aa8a	-0.007527654
133	0x3adbc4c3	0.0016767014
134	0xbd11c034	-0.03558369
135	0x3d71c91a	0.059029676
136	0xbcafd3ab	-0.021463236
137	0xbcc131d1	-0.023583325
138	0x3d553c2e	0.052059345
139	0x3b214bb9	0.0024611785
140	0xbcb6d2fe	-0.022317406
141	0x3c270527	0.0101940995
142	0xbd919b8c	-0.07109746
143	0x3d863944	0.06553891
144	0x3c72e124	0.0148241855
145	0x3ca2c6ed	0.019870246
146	0xbd6da1ae	-0.058015518
147	0x3d63eefd	0.05564784
148	0xbd635e9a	-0.05551014
149	0xbcb5f968	-0.022213653
150	0xbd3c7cf9	-0.04601762
151	0xbcfb03c4	-0.030641444
152	0x3ca0b747	0.019618643
153	0xbd9bed65	-0.07613639
154	0xbd9b945c	-0.07596657
155	0x3c3c138f	0.0114792725
156	0x3cf25ec4	0.029586203
157	0x3bd31483	0.006441654
158	0xbcb250fa	-0.021767128
159	0xbc9c5e87	-0.019088043
160	0xbc9214b9	-0.017832147
161	0xbc42abfd	-0.0118818255
162	0xbd170f68	-0.036879927
163	0x3d5e5703	0.0542822
164	0x3c9fc70d	0.019504094
165	0xbd40087b	-0.046883088
166	0xbc32e979	-0.010919922
167	0xbd45425c	-0.04815899
168	0xbd0c8268	-0.034304053
169	0x3d7b75c8	0.06139162
170	0x3ce1f42c	0.02758225
171	0x3ce34a02	0.02774525
172	0xbc242aea	-0.010019997
173	0xbcc58d30	-0.024115175
174	0x3b5d0dd2	0.0033730161
175	0xbd6a9b03	-0.057276737
176	0xbd9df6fc	-0.07713124
177	0x3d68e72f	0.0568611
178	0x3c1e4f33	0.009662437
179	0x3d478e77	0.04871985
180	0x3d445905	0.04793646
181	0x3cd2f3a5	0.025750944
182	0xbcf5e6af	-0.030017225
183	0xbbe5441b	-0.006996644
184	0x3b0c04de	0.0021365206
185	0x3c21f156	0.009884199
186	0x3bbb81bb	0.005722252
187	0xbd544cbb	-0.05183099
188	0xbd12ef4d	-0.035872746
189	0x3d69f7e6	0.05712118
190	0x3c039740	0.008031666
191	0xbce02bb5	-0.027364591
192	0x3d627125	0.055283684
193	0xbc75e492	-0.015008109
194	0xbcbc049c	-0.022951417
195	0x3d67b0be	0.05656504
196	0xbd4da762	-0.050208457
197	0xbce413ac	-0.027841412
198	0x3d7b1e63	0.061308276
199	0xba1b59d4	-0.0005926166
200	0xbcbe9e07	-0.023268713
201	0x3d595898	0.053063005
202	0x3b99391a	0.0046759965
203	0xbd9722df	-0.07379698
204	0xbd42e616	-0.04758271
205	0xbc46199e	-0.012091069
206	0x3b31138d	0.002701971
207	0xbd4fbdca	-0.050718106
208	0xbcf26240	-0.029587865
209	0x3cbf2d38	0.023336992
210	0xbd86e97d	-0.06587503
211	0xbd849f70	-0.06475723
212	0x3cadd99c	0.021221928
213	0x3c07a9d2	0.008280234
214	0xbd9c6624	-0.07636669
215	0xbd8f4e21	-0.06997324
216	0x3d8787f2	0.066177264
217	0x3da0d625	0.07853345
218	0xbccdc867	-0.025119973
219	0x3da15241	0.07877017
220	0x3d66a616	0.056310736
221	0x3d90c014	0.07067886
222	0xbd19fce6	-0.0375947
223	0xbcc698df	-0.024242816
224	0x3d138e31	0.036024276
225	0x3cf7038e	0.030153062
226	0xbd519ad1	-0.051173035
227	0x3d4a450a	0.049382247
228	0x3d9d54c9	0.07682187
229	0xbd20b1db	-0.039232116
230	0xbd781b3c	-0.060572848
231	0xbd7df8a4	-0.0620047
232	0xbd205c80	-0.039150715
233	0xbcce53eb	-0.0251865
234	0xbd418b4c	-0.047251984
235	0xbd8efc36	-0.06981699
236	0x3d1dfef4	0.03857322
237	0x3d830fc5	0.06399492
238	0x3d5ca1f1	0.053865377
239	0x3d1e67fa	0.03867338
240	0x3d1c7a90	0.038202822
241	0xbcb1b1a5	-0.021691153
242	0xbd52f379	-0.051501725
243	0xbd15ccbc	-0.036572203
244	0x3d214c8f	0.039379653
245	0x3cb79949	0.02241196
246	0x3b359e4c	0.002771276
247	0xbd4df91a	-0.05028639
248	0xbd246a3a	-0.040140368
249	0xbce79c53	-0.028272783
250	0xbbcc8470	-0.0062413737
251	0xbc3a859c	-0.011384394
252	0x3a5eb9c0	0.0008496307
253	0xbcfa8d4c	-0.030584954
254	0xbc6ee748	-0.014581509
255	0xbd519436	-0.051166736

encoder.9.bias f4 [16]
0	0x3d5b5ad7	0.05355343
1	0x3cc70dcc	0.024298571
2	0xbd760c24	-0.060070172
3	0x3d1c49dc	0.038156375
4	0x3d923b39	0.07140202
5	0xbd5d54f5	-0.0540361
6	0xbc6c6c70	-0.01443015
7	0xbd712216	-0.058870398
8	0x3d470c66	0.04859581
9	0x3d146a2c	0.036234066
10	0x3d56faad	0.052485157
11	0x3c9f6656	0.019457977
12	0xbc48c3ba	-0.012253696
13	0xbbc850aa	-0.0061131315
14	0xbd617dbe	-0.055051558
15	0x3d385499	0.045002554

encoder.10.weight f4 [16]
0	0x3f80505b	1.0024523
1	0x3f7eb389	0.994927
2	0x3f7e74e2	0.993971
3	0x3f80a80b	1.0051283
4	0x3f80c96e	1.0061471
5	0x3f806a06	1.0032356
6	0x3f7e726d	0.9939335
7	0x3f8096c2	1.0046008
8	0x3f7f1125	0.99635535
9	0x3f7ec0a2	0.99512684
10	0x3f80e274	1.0069108
11	0x3f7fc70d	0.999131
12	0x3f805edc	1.0028949
13	0x3f80fbd9	1.0076858
14	0x3f7e8522	0.99421895
15	0x3f7f0243	0.99612826

encoder.10.bias f4 [16]
0	0xbb8e3da7	-0.0043408456
1	0xbbd1c1ac	-0.0064012613
2	0xbbc23db5	-0.005927766
3	0x3b2a6e03	0.0026005514
4	0x3bbfd618	0.0058543794
5	0x3bcb611a	0.006206644
6	0xbbdb56c9	-0.006693695
7	0x3b9f7972	0.0048667723
8	0xbb79d05b	-0.0038118574
9	0xbba98511	-0.0051733335
10	0x3beb24a2	0.007175998
11	0xbb6d5a53	-0.0036217168
12	0x3b862ad6	0.004094462
13	0x3be63d4a	0.007026349
14	0xbbced041	-0.006311447
15	0xba9907a0	-0.0011675246

encoder.10.running_mean f4 [16]
0	0x3d1e83dc	0.03869997
1	0x3b8eac93	0.0043540685
2	0x3e6fb2cf	0.23408054
3	0xb98fe5c0	-0.00027446263
4	0x3b50edd9	0.003188005
5	0xbe0f2afc	-0.13981241
6	0x3ce01814	0.027355231
7	0x3e2a23e4	0.16615254
8	0x3de2ee10	0.11080563
9	0x3db7ba3c	0.08971068
10	0xbc205886	-0.009786731
11	0xbce6f1e2	-0.02819151
12	0xbddcc682	-0.1078005
13	0xbe2971a2	-0.16547254
14	0xbdcc1e97	-0.09966772
15	0xbd0460ec	-0.032318994

encoder.10.running_var f4 [16]
0	0x3f05cb46	0.52263296
1	0x3f16eb13	0.58952445
2	0x3ef1ecd5	0.47251
3	0x3ecd662a	0.40117007
4	0x3efc2257	0.4924495
5	0x3f79e8ef	0.97621053
6	0x3eda34c5	0.42618385
7	0x3ee496ff	0.4464645
8	0x3edd7f0c	0.43260992
9	0x3ef62d6c	0.4808153
10	0x3f0aadd7	0.5417151
11	0x3f0762aa	0.52884924
12	0x3f2f3827	0.68445057
13	0x3f3d0d92	0.7384883
14	0x3f0c4612	0.5479442
15	0x3ed01c4f	0.40646598

decoder.0.weight f4 [64, 16, 3]
0	0xbd512458	-0.05106005
1	0x3cb6856f	0.022280423
2	0xba9254bc	-0.0011164169
3	0x3d15c271	0.036562387
4	0xbdf1f882	-0.11814977
5	0xbcd7984d	-0.02631774
6	0x3d8c6358	0.06854886
7	0xbde3dc54	-0.11126009
8	0xbd797067	-0.06089821
9	0xbd97f189	-0.07419116
10	0xbde92eb5	-0.11385862
11	0x3e0bddcb	0.13658826
12	0x3e048cfb	0.12944405
13	0x3dbebe32	0.093136206
14	0xbde82655	-0.11335436
15	0x3b196856	0.0023408136
16	0x3cf35db9	0.029707776
17	0x3d8c367e	0.06846331
18	0x3d0ed602	0.034872063
19	0xbdb3e81b	-0.08784505
20	0x3a847bbf	0.001010768
21	0xbdeff9a0	-0.11717534
22	0x3d92fcfc	0.07177159
23	0x3dc8bc28	0.09801513
24	0xbd3d0ae9	-0.046152983
25	0xbdf5f2e9	-0.12009222
26	0xbb2b0f6d	-0.0026101724
27	0x3d8b523f	0.068027966
28	0xbdce6d02	-0.10079385
29	0x3d652ac2	0.05594898
30	0x3dd41a59	0.10356588
31	0xbdefaef0	-0.117032886
32	0x3dac6602	0.08417894
33	0x3d915c10	0.07097638
34	0xbd93b636	-0.07212488
35	0x3e04ff59	0.12988032
36	0xbd98161d	-0.07426093
37	0x3dd59b61	0.10430027
38	0xbdef3fb0	-0.11682069
39	0x3de104db	0.10987254
40	0xbd185e97	-0.037199583
41	0xbe079c42	-0.13243201
42	0x3da332d2	0.079686776
43	0xbc0468f1	-0.008081661
44	0x3d370000	0.044677734
45	0x3d87c622	0.06629588
46	0x3c2d71c0	0.010586202
47	0x3d297ce0	0.041378856
48	0xbdf9d35a	-0.12198515
49	0xbdf751b0	-0.120761275
50	0xbd820ce5	-0.06350116
51	0xbda3c09d	-0.079957224
52	0xbe0eb975	-0.13937934
53	0x3cbdda10	0.02317527
54	0xbbfc741b	-0.0077042705
55	0xbd251c86	-0.040310405
56	0xbbd1fe28	-0.0064084716
57	0x3d88719c	0.06662294
58	0xbd51242f	-0.051059898
59	0x3aac0d2c	0.0013126484
60	0xbc1e90bc	-0.009678062
61	0x3d8ca011	0.06866468
62	0xbc8e3056	-0.017357033
63	0x3d5825e2	0.052770503
64	0xbd788197	-0.06067046
65	0x3dd37c33	0.103264235
66	0x3cecce07	0.028906835
67	0x3ccd7a49	0.025082724
68	0x3d880ca5	0.06643037
69	0xbe13fa20	-0.14450884
70	0x3d79780d	0.060905505
71	0x3dee7602	0.11643602
72	0x3db941bf	0.09045743
73	0x3dc434fe	0.0958042
74	0xbdf36a72	-0.11885537
75	0x3e03be66	0.128656
76	0x3d25ebca	0.04050807
77	0xbe17894b	-0.14798467
78	0x3e059f50	0.13049054
79	0x3dde2548	0.108469546
80	0xbcef4d48	-0.029211655
81	0x3e101c49	0.1407329
82	0x396944f4	0.00022246299
83	0x3deb424a	0.11487253
84	0xbe089534	-0.13338166
85	0xbe06a514	-0.1314891
86	0x3d2cfd66	0.042233847
87	0xba87940a	-0.0010343802
88	0xbdf34e8c	-0.11880216
89	0xbd9ce5b7	-0.07661002
90	0x3da588c0	0.080827236
91	0x3dc03192	0.09384455
92	0xbdebd425	-0.11515073
93	0xbd822221	-0.06354166
94	0x3a99d16a	0.0011735384
95	0x3b8a5e94	0.0042227004
96	0xbddf6d82	-0.10909559
97	0x3de19ea0	0.110165834
98	0xbdcaf9a2	-0.09910895
99	0x3dca7505	0.09885601
100	0xbdc2e980	-0.09517193
101	0xbe186a97	-0.14884411
102	0x3d269774	0.04067178
103	0xbd82cf35	-0.06387178
104	0x3dcebbd6	0.100944206
105	0xbd3978fe	-0.045281403
106	0x3c7d65bc	0.01546615
107	0x3de40b06	0.11134915
108	0xbdb69716	-0.08915536
109	0xbd5eeb97	-0.054423895
110	0x3dd26156	0.102724716
111	0x3df0e52e	0.117624626
112	0x3cad3bb0	0.021146625
113	0x3dda24d2	0.10651554
114	0x3dc17698	0.09446448
115	0x3db0f36d	0.0864018
116	0xba57649a	-0.000821659
117	0x3e139d1f	0.14415406
118	0xbd2bf46a	-0.04198114
119	0x3c52d63b	0.012868459
120	0xbd2daa1a	-0.04239855
121	0xbbd84035	-0.006599451
122	0x3dba2f52	0.09091057
123	0x3de7e5e7	0.11323147
124	0x3cc8fbbc	0.024534099
125	0x3dcaf4a6	0.09909944
126	0x3dc60892	0.096696034
127	0x3d8814ec	0.066446155
128	0xbd338f2b	-0.043837707
129	0x3da2cb1b	0.079488955
130	0x3df3819c	0.118899554
131	0x3de9f348	0.11423355
132	0x3d28b885	0.041191597
133	0x3de17600	0.11008835
134	0xbdc41312	-0.0957395
135	0x3d00d1bd	0.031450022
136	0xbdfb1072	-0.12258996
137	0x3da0ee50	0.078579545
138	0x3b0f3a64	0.0021854872
139	0xbd025843	-0.031822454
140	0x3db38849	0.08766229
141	0xbc9c390a	-0.019070167
142	0x3d813f12	0.06310858
143	0x3da6a0c8	0.08136135
144	0xbd8e387c	-0.06944367
145	0xbe02bd8b	-0.12767617
146	0x3ca4e552	0.02012888
147	0xbdbb63d4	-0.091499
148	0xbdb92bd4	-0.09041563
149	0x3d9aa339	0.075506635
150	0x3d0413b9	0.03224537
151	0xbd0e1463	-0.03468741
152	0xbd397857	-0.04528078
153	0xbdd1013d	-0.10205314
154	0xbd8a3cd4	-0.06749883
155	0x3c64b4ec	0.013959151
156	0xbda887c9	-0.08229024
157	0xbe031a47	-0.12802993
158	0xbe06fa72	-0.13181475
159	0xbe0787c1	-0.1323538
160	0xbd878a06	-0.06618123
161	0x3d1f62f2	0.03891272
162	0xbd8433c6	-0.064551875
163	0x3dc8b84d	0.098007776
164	0x3db0d757	0.08634823
165	0xbdf8e7ef	-0.12153613
166	0x3d2adb80	0.041713238
167	0xbd73d900	-0.05953312
168	0x3dfa5472	0.12223138
169	0x3dd48f47	0.103788905
170	0x3d9747ec	0.07386765
171	0xbd9b6360	-0.07587314
172	0x3c7b0568	0.015321113
173	0xbdc54139	-0.09631581
174	0x3cb8c0f6	0.022552948
175	0x3e12a44b	0.14320485
176	0xbd06a0ff	-0.03286838
177	0xbdb3fdfc	-0.08788678
178	0xbd8e8b7f	-0.069602005
179	0xbda96eef	-0.08273112
180	0x3d86acb8	0.06575912
181	0xbdb5bfa6	-0.08874445
182	0x3dbe57c3	0.09294083
183	0x3d9e5a0b	0.07732018
184	0x3da68e98	0.08132666
185	0xbc104b41	-0.008807004
186	0xbcde45a9	-0.027132826
187	0x3d621fa7	0.055205967
188	0xbcb3eb4d	-0.021962786
189	0x3d682de9	0.05668441
190	0x3cccce80	0.02500081
191	0x3d6b8360	0.057498336
192	0xbd88a0b5	-0.066712774
193	0x3dbd209e	0.09234737
194	0xbcf7f9d7	-0.0302705
195	0x3db13095	0.086518444
196	0xbb9010a4	-0.004396515
197	0xbe0bef6a	-0.13665548
198	0xbc2a6f51	-0.010402516
199	0xbd3144a1	-0.04327834
200	0xbd9330bd	-0.071870305
201	0xbc4805f5	-0.0122084515
202	0xbd7a4fd1	-0.061111275
203	0x3bb9986c	0.005663922
204	0xbd478148	-0.048707277
205	0xbdc35cd4	-0.0953919
206	0x3d435bf8	0.04769513
207	0xbdfcd308	-0.123449385
208	0xbdefea61	-0.11714626
209	0xbce7b344	-0.028283723
210	0xbbd5d502	-0.0065256367
211	0xbe045a19	-0.12924995
212	0x3d9d7961	0.07689167
213	0x3b94f3b4	0.0045456532
214	0x3d6bbba7	0.057552006
215	0xbb0e3a5b	-0.0021702263
216	0xbcfe98fc	-0.031078808
217	0xbd3a57a9	-0.045493755
218	0xbca96fae	-0.020683136
219	0xbde49588	-0.11161333
220	0x3d849146	0.06473021
221	0x3d3036cf	0.04302102
222	0x3dc86119	0.09784145
223	0xbe0fac0e	-0.14030477
224	0xbca688bb	-0.02032887
225	0xbd7c6aa8	-0.061625153
226	0xbae4461e	-0.0017415916
227	0x3c8355e3	0.016032165
228	0xbc818e60	-0.01581496
229	0xbbc1c356	-0.0059131784
230	0xbc93b4a7	-0.018030478
231	0x3d26c91d	0.04071914
232	0xbd95cef3	-0.07314863
233	0xbc36a783	-0.011148336
234	0x3d86f2d3	0.06589284
235	0x3dbb94ab	0.091592155
236	0x3c31f1e1	0.010860891
237	0xbc3ddfe3	-0.011589023
238	0x3cf53eac	0.02993711
239	0x3d921d31	0.07134474
240	0x3cfd73fb	0.030939093
241	0xbd9d6fd7	-0.076873474
242	0xbde93c42	-0.113884464
243	0x3d814d93	0.06313624
244	0xbd879615	-0.06620423
245	0x3d3c4994	0.045968607
246	0xbdf414e3	-0.11918046
247	0x3da1a1a3	0.07892158
248	0x3d667385	0.05626251
249	0xbcc199ec	-0.023632966
250	0xbddc01ff	-0.10742568
251	0xbc6f98d8	-0.014623843
252	0x3dab6396	0.08368604
253	0x3de3ba3b	0.11119505
254	0xbb178daa	-0.002312521
255	0xbc241f66	-0.010017252

decoder.0.bias f4 [64]
0	0x3dfec560	0.1243999
1	0xbd621f96	-0.055205904
2	0x3dbb195c	0.09135696
3	0xbd33c739	-0.043891165
4	0x3daa2823	0.08308437
5	0xbcfed3b2	-0.031106804
6	0xbd7d41a5	-0.06183018
7	0x3d307829	0.043083344
8	0x3d9dc1d9	0.07702989
9	0xbdde361c	-0.10850164
10	0xbc126532	-0.00893526
11	0x3cfbd236	0.030739885
12	0x3cd3552d	0.02579745
13	0x3e11f63e	0.1425409
14	0xbe009ae4	-0.12559086
15	0x3dfee949	0.12446839
16	0x3d99d12f	0.07510602
17	0xbe0b0944	-0.13577753
18	0xbd651f33	-0.055937957
19	0x3d56919a	0.05238495
20	0xbdda5166	-0.10660057
21	0x3e0ac49b	0.13551562
22	0xbd5e46f1	-0.054266874
23	0x3d61ae8d	0.055098105
24	0x3ce9d15d	0.028542215
25	0xbd5d78de	-0.054070346
26	0xbe0b6fae	-0.13616821
27	0x3c29ef2c	0.010371964
28	0xbdf1ad49	-0.1180063
29	0xbd029f9c	-0.031890497
30	0x3cfe9a1f	0.03107935
31	0xbd4c2e23	-0.049848687
32	0x3da75bd8	0.08171815
33	0xbe044a11	-0.12918879
34	0xbde8dc23	-0.11370113
35	0x3d9f87e9	0.07789595
36	0xbd9b7c40	-0.07592058
37	0x3df51525	0.119669236
38	0xbce08a50	-0.027409703
39	0xbcc7492f	-0.024326889
40	0x3e0cdafd	0.13755412
41	0xbc7f3dc4	-0.015578691
42	0xbded06aa	-0.11573537
43	0xbd7b2769	-0.06131688
44	0x3d357c85	0.044308204
45	0x3dcabc17	0.098991565
46	0x3df87278	0.12131208
47	0xbd59495e	-0.053048484
48	0x3cb15688	0.021647707
49	0x3dd71d7e	0.10503672
50	0xbd6bd23b	-0.05757354
51	0x3c12f1c2	0.008968772
52	0xbd8e18b2	-0.06938304
53	0x3ca78c4d	0.020452643
54	0x3e0fd36b	0.14045493
55	0x3dfb6c9e	0.122765765
56	0xbdc08bbc	-0.09401652
57	0x3d8f3964	0.06993368
58	0x3e0c3b9b	0.13694613
59	0xbcda68ec	-0.026661359
60	0x3d4fd429	0.05073944
61	0xbe0494a9	-0.12947334
62	0x3da25c2f	0.07927739
63	0xbce452c8	-0.027871504

decoder.1.weight f4 [64]
0	0x3f80c91f	1.0061377
1	0x3f7e6d68	0.9938569
2	0x3f7eda38	0.99551725
3	0x3f7f9c8b	0.9984824
4	0x3f80d458	1.0064802
5	0x3f800385	1.0001074
6	0x3f8030f9	1.0014945
7	0x3f7f17f0	0.996459
8	0x3f807ce8	1.0038118
9	0x3f809c64	1.0047727
10	0x3f7e7385	0.9939502
11	0x3f80fa5f	1.0076407
12	0x3f7eac87	0.99482006
13	0x3f7e7e30	0.99411297
14	0x3f7e64c1	0.9937249
15	0x3f7fe989	0.9996572
16	0x3f7e6826	0.9937767
17	0x3f8021c8	1.0010309
18	0x3f7ee871	0.9957343
19	0x3f80e6a8	1.0070391
20	0x3f7ebb2c	0.9950435
21	0x3f80ccc5	1.0062491
22	0x3f7e436b	0.9932162
23	0x3f80b052	1.0053809
24	0x3f810b6b	1.008161
25	0x3f7e89df	0.99429125
26	0x3f800eb8	1.0004492
27	0x3f7fb49c	0.99884963
28	0x3f808495	1.0040461
29	0x3f7eba1c	0.9950273
30	0x3f80edab	1.007253
31	0x3f7e475f	0.99327654
32	0x3f804347	1.0020531
33	0x3f807e7a	1.0038598
34	0x3f8055f2	1.0026228
35	0x3f7eff86	0.9960865
36	0x3f7fd88b	0.99939793
37	0x3f7de772	0.9918128
38	0x3f800498	1.0001402
39	0x3f7eee0d	0.99581987
40	0x3f805573	1.0026077
41	0x3f7d7efe	0.990219
42	0x3f807a63	1.003735
43	0x3f7e734a	0.9939467
44	0x3f810b09	1.0081493
45	0x3f804849	1.002206
46	0x3f810a59	1.0081283
47	0x3f80a0bd	1.0049053
48	0x3f80fcf3	1.0077194
49	0x3f80f324	1.0074201
50	0x3f806013	1.002932
51	0x3f8032b9	1.0015479
52	0x3f8036bd	1.0016705
53	0x3f80e948	1.0071192
54	0x3f7e81d6	0.99416864
55	0x3f7f8fa8	0.9982858
56	0x3f807cd5	1.0038096
57	0x3f80af88	1.0053568
58	0x3f7e5d2f	0.99360937
59	0x3f7f7fe0	0.99804497
60	0x3f8104e7	1.0079621
61	0x3f80d864	1.0066037
62	0x3f7f8de8	0.99825907
63	0x3f80aa08	1.005189

decoder.1.bias f4 [64]
0	0x3b54c436	0.0032465584
1	0xbbc6825b	-0.00605802
2	0xbb5907ed	-0.0033116296
3	0xbb420378	-0.0029604118
4	0x3b0efc8a	0.0021818005
5	0xbb09699d	-0.0020967491
6	0x3b59ec05	0.003325225
7	0xbba78cf8	-0.0051132403
8	0x3bace999	0.0052768704
9	0x3b408b22	0.0029379805
10	0xbbc3f163	-0.0059797033
11	0xba142a2f	-0.0005652038
12	0xbb7a32ab	-0.0038177173
13	0xbb8979e1	-0.0041954373
14	0x3baa4970	0.0051967427
15	0x3bbab201	0.0056974893
16	0xbbe38d67	-0.0069443467
17	0x3ba80d1e	0.005128517
18	0x3b064062	0.0020485152
19	0x3bb325b2	0.00546714
20	0xbba3cbdf	-0.0049986686
21	0x3bc0a865	0.005879449
22	0xbbe69121	-0.0070363437
23	0x3b99ba3f	0.0046913917
24	0x3c063da3	0.008193406
25	0xbbd96a56	-0.0066349907
26	0x3bb0e0d8	0.005397897
27	0x3a87d04a	0.0010361758
28	0x3ab8e5ed	0.0014106609
29	0xbba1c329	-0.004936595
30	0xbb362d0d	-0.0027797848
31	0xbbf3ed10	-0.0074440315
32	0x3ab47652	0.0013768172
33	0x3bdcc80b	0.006737714
34	0xbb479c58	-0.0030458178
35	0xb8c700f4	-9.489237e-05
36	0x3b05172d	0.0020308003
37	0xbbe43a5b	-0.0069649643
38	0x3a485586	0.00076421385
39	0xbb8e719e	-0.0043470403
40	0x3b9a5ef9	0.0047110287
41	0xbbff84c6	-0.0077978102
42	0x3bfc5cfd	0.0077015148
43	0xbbb643da	-0.0055622878
44	0x3bdf1d64	0.0068089236
45	0xbacdaae1	-0.0015691185
46	0x39ea050b	0.00044635715
47	0x3bf93bc3	0.007606001
48	0x3bca04df	0.0061651315
49	0x3bf7f85f	0.00756745
50	0xbbd8879b	-0.0066079623
51	0xbb278d86	-0.0025566532
52	0x3ba941a7	0.005165297
53	0x3bcdedb6	0.006284441
54	0xbc0ef3a6	-0.0087250825
55	0xbb4aac84	-0.0030925581
56	0x3bad77ee	0.0052938377
57	0x3bb57e24	0.005538719
58	0xbb8c68b3	-0.004284942
59	0xbb829447	-0.003984961
60	0x3bc9ecde	0.00616227
61	0xbbb69e30	-0.0055730566
62	0xbb5d5aaf	-0.0033775975
63	0x3c037347	0.00802309
