data/models/autoencoder_epoch_10.pt (torch, 66986 bytes, 15 tensors)

encoder.0.weight f4 [16, 1, 5]
00000000: 140c ba3e 6f72 c4be 4b51 de3e bc73 a53e
00000010: a12b c3be 3328 9f3e 9bc0 2ebe e27c d9be
00000020: 2131 68be 9a32 423e a76d ac3d ff38 ce3e
00000030: 1795 863d 4085 e13d 6ba2 96be 2a88 c7be
00000040: f24a 503e 2b11 5abd 0436 90be 5191 253e
00000050: 3809 bbbe d49f a83e 5059 15be 562b a2be
00000060: a884 c63d c17f af3e 5bfa 63be e277 cc3d
00000070: 25e3 b63e 7b34 1a3e d479 403e f7c2 0cbe
00000080: 4002 e13e 2a2d 9d3e 74bb a63e 5c1d 9d3e
00000090: c24e e9bd 6471 e83e 80f2 92bd 37a7 b63e
000000a0: 243e f7bd 61e4 68be f762 483e 62b6 7abe
000000b0: 818e 9d3e a641 35be 38f3 d1be c9dc fe3d
000000c0: be30 c9be 1226 4f3e f943 943e 0f66 223e
000000d0: 53a8 e23e 4369 b03e b352 933d 8f08 983b
000000e0: 4448 73be c8b7 9abd e48c b7be 2060 8f3e
000000f0: 5361 3a3e c380 28be dec8 8dbe 0218 a4be
00000100: a86e 653e ec21 2b3d 6137 bbbe 7f32 3e3e
00000110: 6f65 c73e b14d c53d 2d63 c9be ece5 ed3e
00000120: cd4e a6be 5b93 7d3e b1ff cb3e c36b a63e
00000130: 97e1 e43c 40e6 32be c2fb 46be 5683 81be
0.3633734 -0.38368556 0.43421397 0.3231486 -0.38119224 0.31085357 -0.1706566 -0.4247809
-0.22674991 0.18964615 0.08419352 0.4027786 0.065714054 0.110117435 -0.2942079 -0.38971072
0.2034109 -0.05323903 -0.2816621 0.16168715 -0.3653047 0.3293444 -0.14584851 -0.31673688
0.09693271 0.34277156 -0.22263472 0.09983803 0.35720173 0.15059082 0.18796474 -0.13746248
0.4394703 0.3069852 0.3256489 0.30686462 -0.11391975 0.4539901 -0.071751595 0.3567445
-0.12072399 -0.2274337 0.19569002 -0.24483636 0.30772784 -0.17700824 -0.41005874 0.12444455
-0.39295 0.20229366 0.2895811 0.15859245 0.44269046 0.34455308 0.07193508 0.004639692
-0.23758036 -0.07554585 -0.3584968 0.28003025 0.18201189 -0.16455369 -0.27692312 -0.32049567
0.22405493 0.041780397 -0.36565688 0.1857395 0.38944575 0.09633959 -0.39333478 0.4646448
-0.32481995 0.24763243 0.39843515 0.3250409 0.0279396 -0.17470646 -0.19431975 -0.25295514

encoder.0.bias f4 [16]
00000000: 2546 b23e f52b 8d3e 018d c33d 392f b53e
00000010: 02cd 01be cb63 533a 1547 333e 871a 0a3e
00000020: 446b 3ebd eda0 dd3e 9d22 583e d1ab 6b3d
00000030: 4888 903e b9ae 8ebd 2bd4 7ebc 9e44 aa3e
0.3481914 0.275726 0.09548379 0.3538759 -0.1267586 0.00080638815 0.17507584 0.13486682
-0.046489015 0.4328684 0.21106954 0.057536904 0.28228974 -0.069669195 -0.0155535145 0.33255476

encoder.3.weight f4 [32, 16, 5]
00000000: 5362 633d a0c6 0e3d 9985 1e3c 0731 4f3c
00000010: 863b 983c 8881 c63d 79f0 c4bd ecda 08bc
00000020: 3970 9fbd 9d74 633d abb7 1a3d 2c2a 853d
00000030: 3065 2a3d 55de cc3d a7e9 c33d 1ace 763d
00000040: 5eed de3d c561 abbb 6f8c 383c e0e4 c4bd
00000050: fcc5 d93d c8bd b43d c8b2 a53c 4879 c83d
00000060: d8dd ce3c c8a0 903d e475 adbb afd2 763d
00000070: 9c75 8e3d 4caf 8dbd 5742 77bd bc79 e33d
00000080: 1e89 2fbd 1236 4bbd 4631 a0bc 6725 69bd
00000090: 12ad 993d aa55 dd3d f706 38bd 4ec5 99bd
000000a0: 2133 a93d 6cb3 a9bd b8c6 193d c0d8 91bc
000000b0: e75d 8ebd 1687 1a3b e809 7e3c f45e a53d
000000c0: 5af9 48bd fb3a db3d 5aa5 a3bd fc7b 863d
000000d0: a7a7 a2bd ab5b 18bd 4f3d a9bd a8d5 fc3b
000000e0: f876 80bc fd85 993d 1980 00bd 30bd e53d
000000f0: fcbb bf3d 44e4 7abd ca60 9f3d f419 533c
00000100: 217c 243d 1e09 19bc 7825 66bd 3a0a b23c
00000110: 8117 93bd 3b2e 48bd 738e f23d 7217 2d3c
00000120: 84f6 8f3d 7320 993d e2bc a0bd 7128 993d
00000130: dcb4 3abd 7d0b abbd f8e0 aebd 933c d43d
00000140: 4c23 053e 9748 c43c 43a2 23bd 0e49 a03d
00000150: 9b1f 0bbd e681 b83d 3da9 233c e224 df3d
00000160: 534d 1ebd 998c 58bd b3e0 55bd 7d10 843d
00000170: d68f 573d 05f2 0e3d 99d4 d6bc 0e86 c4bd
00000180: da68 5c3d 2c58 d93d 2160 33bd 0cc5 50bd
00000190: 10be bd3c 6cc0 bc3d 0e43 9f3d f262 90bd
000001a0: 1a1d 81bd 288d 613b 2ba8 e03d d4c8 893d
000001b0: 92aa 903d ea83 8abc 2af0 853d 59b8 d93a
000001c0: 6817 18bd 98cc 83bd 16fd 6cbd 2124 6e3c
000001d0: f737 eb3d 09d7 8b3d dc09 61bd b405 c33d
000001e0: 0685 2dbd 0cb9 5d3b 7c26 00bd da42 babd
000001f0: 1286 9c3d 6b2a 3d3d 5b7c f9bc 6efb 983b
00000200: 8494 53bc 7eb1 0d3e 87b0 be3c e00b 763d
00000210: 4d66 3a3d 4361 c33c 931e e93d 15a5 c33d
00000220: 7836 2fbd 1179 a83d 3a68 9dbd 6b89 553d
00000230: da87 c73d 807c 8f3d 1fee b93d 2a40 fc3c
00000240: 9b10 373d 2eee ed3d aaef c33c bf15 903d
00000250: 73bc 9b3d 0466 843d 7c09 a13d b51c b1bd
00000260: bd91 c53c 77da bdbc 4557 ba3d bb8a a2bc
00000270: e0c6 a73d 8877 a2bd f89e 3dbb fb4a d83d
00000280: 4b8f bf3a 80ab 2937 8983 4cbd 1d6c c03d
00000290: 656b dd3d dc48 813d 8c1d 223d 1fa9 e23c
000002a0: 5c0d 82bd 934e 9bbd e682 853d 579e b23d
000002b0: 912e c13d 3887 053e 20ff 0bbd 0f5e 87bc
000002c0: 20d4 9dbd 78b4 a8bc 200a a43d a865 47bc
000002d0: 6d86 6abd fa34 35bd d4d3 203d 380a d3bd
000002e0: 0610 a1bd 84af e3ba 4b81 883d 3760 633c
000002f0: 9623 063e 5921 193d 36f4 9bbb 1806 a93d
00000300: 0396 c63d 4868 bbbc c2c5 323d ea04 493d
00000310: 0ff4 3f3d efdd c23c 1d21 5dbd 40eb cf3d
00000320: 65c2 0c3e 11c8 ee3d 93ee a2bd 1860 213c
00000330: 1a32 3ebd b8c8 c93d c2fc d33d da90 693d
00000340: 09b3 063d 058a 88bd 9e58 7c3d 2ac1 1abd
00000350: 181f fc3d f2b7 733d 8597 9fba 0cd3 f13d
00000360: cfd5 e03d 2a0e 033e b984 6e3d 4dd6 923d
00000370: c39b 453d 6c76 873d e358 a63d 36d4 063e
00000380: 355d ee3c b346 a83b 467d d13b f3d6 813d
00000390: 033e 23bd 1a48 33bd a476 473d 1900 8e3d
000003a0: c8d1 fe3d ba86 ed3c e8c5 f13d cdfb 9fbd
000003b0: 0c8a 7b3c 3487 463d 3df8 13bd 0201 cd3d
000003c0: ead3 c53d 4406 eb3d ce62 0abd 796e 2fbd
000003d0: e04c b53d 8e4f 803d f198 93bc 5a40 933d
000003e0: 01e3 ce3d 21e8 743d 647f 9a3c 38c7 2c3d
000003f0: 52f0 bbbd 692c 40bd a55e 46ba ae69 be3d
0.05551369 0.034857392 0.009675407 0.012645966 0.01858307 0.09692675 -0.09616179 -0.008352976
-0.07785077 0.055531133 0.037772816 0.06502184 0.041600406 0.10003344 0.0956605 0.060255148
0.10885118 -0.005230161 0.011263951 -0.09613967 0.10633466 0.088252604 0.020226851 0.097887576
0.025252268 0.070619166 -0.0052935947 0.060259517 0.06956026 -0.06918201 -0.060366 0.11107203
-0.042855375 -0.049612112 -0.019554745 -0.056920435 0.07503714 0.10807355 -0.044928517 -0.07508336
0.08261705 -0.08286175 0.03754303 -0.01780355 -0.06951504 0.0023579053 0.0155052915 0.080747515
-0.049065925 0.10704609 -0.07990523 0.06566617 -0.079421334 -0.037196796 -0.08263647 0.0077158995
-0.015681729 0.07496259 -0.031372163 0.11217725 0.09362027 -0.061252847 0.07782133 0.012884606
0.04015744 -0.009340553 -0.056188077 0.021733392 -0.071822174 -0.048872214 0.11843576 0.010564672
0.07029441 0.07476892 -0.078485265 0.07478417 -0.045582637 -0.083518006 -0.08539003 0.10363116
0.13001746 0.023960395 -0.039949667 0.07826434 -0.03396569 0.09009151 0.00998908 0.10895707
-0.03864796 -0.05286846 -0.052216243 0.064484574 0.052627407 0.034898777 -0.026224421 -0.095958814
0.05381093 0.106125206 -0.043792848 -0.05096917 0.023161918 0.09216389 0.077764615 -0.07050122
-0.06304379 0.003441641 0.109695755 0.06727758 0.07063784 -0.016908605 0.06539948 0.0016610726
-0.037131697 -0.064355075 -0.05785855 0.014534981 0.11485284 0.06828124 -0.054941043 0.09522572
-0.04236319 0.003383222 -0.0312867 -0.09094782 0.076427594 0.04618303 -0.030454805 0.0046686446
-0.012913827 0.13837239 0.023277534 0.06006992 0.045507718 0.023850089 0.11382785 0.09552971
-0.042776555 0.082262166 -0.07685895 0.052133005 0.097427085 0.07006168 0.09078621 0.030792315
0.04469357 0.11617695 0.023917992 0.07035398 0.07604303 0.064647704 0.07863137 -0.086480536
0.024117345 -0.023175461 0.090986766 -0.019841542 0.08192229 -0.07932955 -0.0028933864 0.105611764
0.0014614848 1.0113115e-05 -0.04993013 0.09395621 0.108114995 0.06312725 0.03957896 0.027668534
-0.06350204 -0.07583346 0.065191075 0.08721607 0.0943271 0.13039863 -0.034178853 -0.016524343
-0.07706475 -0.020593867 0.08009744 -0.012170233 -0.057257105 -0.044239976 0.039264515 -0.103046834
-0.07864384 -0.0017371033 0.06665286 0.01387792 0.13099512 0.03738532 -0.004759337 0.082531154
0.09696581 -0.022876874 0.043645628 0.049076952 0.04686361 0.023787467 -0.053986657 0.10152292
0.1374603 0.116592534 -0.07955661 0.009849571 -0.0464345 0.09852737 0.10350944 0.057022907
0.032885585 -0.0666695 0.06160795 -0.03778187 0.12310618 0.059501596 -0.0012175894 0.11807832
0.10978281 0.12798372 0.058232043 0.07169781 0.04824425 0.06614384 0.081224225 0.1316689
0.029097179 0.005135381 0.0063931076 0.063398264 -0.03985406 -0.043769933 0.04869713 0.069336124
0.12442356 0.028994907 0.11805326 -0.07811699 0.015352737 0.048468783 -0.03612541 0.10009958
0.0965956 0.114758044 -0.033785634 -0.042829964 0.08852553 0.06265174 -0.018017264 0.071900085
0.10101891 0.059791688 0.018859573 0.042182177 -0.09176697 -0.046917353 -0.0007567204 0.092975006

encoder.3.bias f4 [32]
00000000: 65a1 76bc 592e bc3c f6b5 de3d bf28 003d
00000010: fd23 973d 5fd7 f03d 40d6 9abd e4a3 813d
00000020: 2d23 9fbd 640f 6bbd 0b9f 71bd 3017 d13d
00000030: 9564 16bc e3cb 8c3d ceea 2f3d 1850 2e3d
00000040: c7c5 02bd 9235 bcbd ffac a83d f58a ea3d
00000050: b19a a03d 8d3f a83d 4e38 85bd e8c7 303d
00000060: d750 b8bc 5e6d 983d 2f64 f53d b67e b0bc
00000070: 6516 96bd cd34 55bd 801d dfbb b0cf d43c
-0.015053128 0.022971319 0.1087455 0.03128886 0.07379911 0.11759829 -0.07560396 0.06330088
-0.07770381 -0.057387725 -0.058989566 0.10209501 -0.009179254 0.06874826 0.042948537 0.042556852
-0.031926896 -0.09189905 0.082361214 0.11452285 0.07842005 0.08215246 -0.0650488 0.043159395
-0.022499485 0.07442735 0.11981999 -0.021544795 -0.0732849 -0.052052308 -0.0068089366 0.02597794

encoder.6.weight f4 [16, 32, 3]
00000000: 220e 9d3d 5235 a03d 4a69 6a3c 027b 8fbd
00000010: fa4e 63bd c9f6 cc3d 7ca4 033e b675 823d
00000020: dae2 243d 753a 80bd f38d 323d 4e20 9e3c
00000030: d362 043e a5b9 f6bc 8f9e 3a3d 5ff3 48bd
00000040: 0449 d3ba 9265 4d3d 6941 48bc 97fe 5bbd
00000050: 471a 173c f1f8 ec3d 59a3 8abc e6b3 5e3d
00000060: eb4b e5bc 4a06 86bc e21a ebbc 4114 7c3d
00000070: 88d9 103d f5a7 c6bd 582e 933d a97c b33d
00000080: 0c41 ae3a 950f 4bbd 4b72 38bd d49c 17bd
00000090: 52fc 4c3d a51e baba 77f2 583d c323 0c3d
000000a0: 1325 75bd e1c4 c3bc da9a 03bd 28e1 453d
000000b0: 5d23 e23c 1e7f 93bc 073d 13bd 26cc 873d
000000c0: 2963 be3d d5d3 8d3c 1136 8e3b e417 babd
000000d0: 64bc c23d 20a7 863d c792 72bd bb07 b7bd
000000e0: 6a1a 9a3d e5de 29bd 4187 7d3d 8174 97bc
000000f0: a88d 7f3c fb0c cb3d e2c1 8f3c be39 473c
00000100: 02df 383d 8104 983c bac9 f03d 28bc 02bb
00000110: 4530 a73d a4ca c03d 5210 aabd 8689 953d
00000120: 5476 cd3d 4b94 50bd 49b0 3f3d 1ced 0fbd
00000130: a814 3d3a dfed 25bd 5cd2 fe3d 6a01 d03b
00000140: b36f fa3d 56e6 c33c f7bf 853c 820c e13c
00000150: 4889 923b 7b79 613d d02d ab3d 2fc6 44bd
00000160: fbbb b5bd 2e6c c43d bcb6 1fba 3188 b43d
00000170: caf5 f53d 55f4 bf3d 4090 9fbd 13aa 4f3d
00000180: 315d 93bd a4c3 95bc 6003 38bb f900 c5bd
00000190: 4032 6b3c ec8c c0bc b418 d9bc 0063 2f3a
000001a0: fe56 02bd 7280 cfbd 0067 59bc 0a86 0bbd
000001b0: b077 afbc 9cb2 83bd 28f5 633d f0a9 ba3d
000001c0: 32d3 8b3d 1cde c63d e890 0dbd d048 573c
000001d0: 2864 be3c 38b8 89bd 20e0 0bbb 585e ae3d
000001e0: 745f 663d 8430 0dbd 3c48 193d 359f cabd
000001f0: 7076 cd3d d699 b93d 7222 9cbd 8234 8e3d
00000200: e65a a6bd 1048 b9bd b2c6 1dbd 8e4e 1abd
00000210: 7794 babd ec64 fbbc ee6d 0ebd 02fe a53d
00000220: dacf b1bd 863a c83d 020f 3abd c40a 6f3d
00000230: 8305 37bd 14da 2d3d f5e0 b9bd 327a 28bd
00000240: c060 d9bb 9093 e4bb 1e6e 16bd 3604 05bd
00000250: 68ab 6c3c 8c7c 873c f8cc 233c d431 a23d
00000260: 6a9b 0abd 8ef8 a2bd 788b 033d 826e 09bd
00000270: d824 e93c d4a3 19bd 1081 d0bc 9c13 2dbd
00000280: ee35 c03d e028 95bb 285e c83d c1df b3bd
00000290: 4f40 9abd 3874 3d3d 7887 2e3c 1676 9b3d
000002a0: 6860 783c 0e34 c43d 200d c4bc c18b 34bd
000002b0: 189b 8c3d 78c5 923d 50a4 ab3d 2c66 3e3d
000002c0: e4cc b03d 3674 b7bd c84a 843d c884 a63c
000002d0: c0cb fb3c 705e e9bb 4658 93bd 80c6 74bb
000002e0: 28df fb3c 00bc 10b9 6a55 04bd 50ff 92bb
000002f0: e079 82bd 77e5 8cbd 18b7 923d 00ec 1439
00000300: 123c cdba a910 8b3d 8c07 903d 6c96 7fbd
00000310: 9acb 91bc 0a02 543d 16cd a83d b6e5 813d
00000320: 0a34 933d 7833 e0bd e4b1 02bd 6efd d2bd
00000330: 2aa6 3a3b b829 80bd c1cd 1bbd 574c 26bd
00000340: 7c9a 8dbc 0c73 42bc 3086 963d 3a60 2abd
00000350: eac2 a13d 529d 043e db21 9bbb 50cd bc3c
00000360: 8af7 61bd e019 633b 7cff 9d3c 684d 0d3c
00000370: 3023 b53d c908 893c 8012 2d3c 5a80 973d
00000380: 7b16 993d 695e b63d c727 babc e9db 963d
00000390: 3cef c2bc 85f4 5f3d 23e7 36bc 2beb eb3d
000003a0: cf98 c83c 1a7e 8b3b 7094 d03d d011 c03c
000003b0: eb5f da3c eb0b 303d 3df6 013e 2d01 36bd
000003c0: b348 f63d 15c8 ea3d 351e 283d 5c8e 6c3d
000003d0: d239 9b3d cee6 a3bd 7c38 053d c887 e03c
000003e0: e404 6e3d 0362 85ba ee83 bc3d 8bde 463c
000003f0: 9f86 9b3c 0410 223d 5e39 c93d 831f 5e3d
0.07668711 0.0782267 0.014307329 -0.07005884 -0.05549524 0.10008008 0.12855715 0.06370108
0.040255405 -0.0626115 0.043592405 0.019302513 0.12928323 -0.03011782 0.04556137 -0.04906022
-0.0016119783 0.050145693 -0.012222626 -0.053709593 0.009222574 0.11570919 -0.016923593 0.054370783
-0.027990302 -0.01636042 -0.028699342 0.061542753 0.035363704 -0.09700004 0.07186574 0.087640114
0.0013294532 -0.049575407 -0.045030873 -0.037014797 0.05004532 -0.0014199807 0.052965607 0.034213793
-0.05984981 -0.02389759 -0.0321301 0.04831043 0.027604753 -0.01800495 -0.035946872 0.06630735
0.09296257 0.017312923 0.0043399413 -0.09086588 0.09508589 0.06574845 -0.05922201 -0.08937021
0.07524569 -0.041472334 0.061896566 -0.01848817 0.015597738 0.09914585 0.017548505 0.012159763
0.04513455 0.018556835 0.11757226 -0.0019948576 0.081635036 0.09413651 -0.08303894 0.07301621
0.10032335 -0.050922673 0.046798978 -0.035138234 0.0007212856 -0.040510055 0.124424666 0.006347825
0.12228336 0.023913544 0.016326888 0.027471785 0.0044719316 0.055047493 0.083583474 -0.048040565
-0.08873745 0.09590946 -0.0006092598 0.08815039 0.12009771 0.093727745 -0.077911854 0.050699305
-0.07195509 -0.018281765 -0.0028078184 -0.09619326 0.014355242 -0.023504697 -0.026501037 0.00066904724
-0.031821243 -0.10131921 -0.013269186 -0.034063376 -0.021419376 -0.064305514 0.05565372 0.09114444
0.06827392 0.09710333 -0.03456202 0.013139918 0.023241118 -0.0672459 -0.0021343306 0.085140884
0.056243375 -0.034470096 0.037422404 -0.098936476 0.10032356 0.09062545 -0.076237574 0.06943609
-0.08122806 -0.09046948 -0.03851957 -0.03767257 -0.09110349 -0.030687772 -0.034772806 0.08105089
-0.08682223 0.097767875 -0.04542447 0.058359876 -0.04468299 0.042444304 -0.0907611 -0.04113216
-0.006633848 -0.0069755986 -0.03672611 -0.03247472 0.014445163 0.01653888 0.009997599 0.0791966
-0.03383962 -0.07957564 0.03211543 -0.033552654 0.028459951 -0.037509754 -0.025452167 -0.04225503
0.09385286 -0.004551992 0.09783584 -0.08782912 -0.07531797 0.046253413 0.010652415 0.075908825
0.015159704 0.09580241 -0.02393204 -0.044078592 0.06865519 0.071665704 0.083809495 0.046484157
0.0863283 -0.08957712 0.06459576 0.020326987 0.030736804 -0.0071218535 -0.07194571 -0.003734976
0.030746058 -0.00013802946 -0.03230802 -0.004486002 -0.06370902 -0.068797044 0.071638286 0.00014202297
-0.0015658161 0.06790287 0.070326895 -0.062399313 -0.01779728 0.051759757 0.08242242 0.06342642
0.0718766 -0.10947317 -0.03190793 -0.10302244 0.002848039 -0.06257957 -0.03803802 -0.040600147
-0.017285578 -0.01186825 0.07349813 -0.041595675 0.07898505 0.12950638 -0.0047342605 0.02304712
-0.055167712 0.0034652874 0.019286864 0.008624412 0.08844602 0.016727822 0.010563493 0.07397528
0.07474991 0.08904726 -0.022724045 0.07366163 -0.023795716 0.05467655 -0.011163506 0.11519464
0.024486927 0.004256976 0.10184562 0.023445994 0.026657065 0.042980116 0.12691589 -0.044434715
0.12025585 0.11463944 0.041044433 0.057752952 0.07579388 -0.08003007 0.03252457 0.027408496
0.058110133 -0.0010176304 0.09204851 0.012138019 0.01898509 0.039566055 0.09825395 0.05422927

encoder.6.bias f4 [16]
00000000: 9a29 653d 78b0 c1bc 040f fbba b93a ab3c
00000010: 2415 a3bb d109 1bbd 6457 b8bd 7fbd 7f3d
00000020: b428 39bc 8026 afbd 583b 503d 8545 35bd
00000030: 2f7f db3d 99cc 153d 7b21 923d 69b2 693d
0.055947877 -0.023643717 -0.0019154255 0.020902025 -0.0049768854 -0.03785116 -0.090010434 0.062436577
-0.011301208 -0.08552265 0.050837845 -0.044255752 0.10717618 0.036572073 0.07135292 0.05705491

fc1.weight f4 [8, 400]
00000000: 8246 ce3c 2635 7e3d 3939 b03d d754 933d
00000010: c6e0 d03c de6a e13c 2973 2d3b a7a6 0bbc
00000020: c79d 833b c140 c63c e9cd 333d 5ec8 ad3d
00000030: 36b3 b63c 3232 8e3d 681d 07bc a83e 053d
00000040: a3d6 593d 0d03 74bc 64dc c63c 7158 963d
00000050: f9a7 19bc eae6 2f3c 8f5c 843d a5f3 d43c
00000060: 17ec 64bc c016 c8bb 5805 58bc 0bed 44bd
00000070: 14f0 1ebc c079 89bb c054 55bc d71f a3bc
00000080: e975 153d f5c8 0ebd 106e 46bd fae3 48bd
00000090: 8357 9fbc 478b d6bc 2aa3 febc 8428 86bc
000000a0: 68da 0dbd 54ce 2ebc 1daa 3dbd e5dd 3cbd
000000b0: 7945 3d3d 22c1 903c 46a7 0cbd fa52 dd3c
000000c0: e3aa 223d 42bf 30bd bc8d 883d 98a5 8c3d
000000d0: 71fb 9a3c d83c 273d 5c35 e93c 3c2f 1b3d
000000e0: 91b8 993d 7e73 a93c 1125 7ebc dbdb b93c
000000f0: 091c 5d3c 9b54 aa3c 6029 b1bc e8db a4bb
00000100: f846 493c dd82 4bbc 50b8 bb3a 5519 b43c
00000110: 6e6a 6bbc bc3a 3f39 558e 763b fe16 733d
00000120: d34a 043d 29bd d6bc 739a f03c 24b9 123d
00000130: 8c19 ecbc 8a6c 803d ab9c 01bd 55d1 dd3c
00000140: 5451 413c b5e6 563d 010d 693c d2ea 3dbc
00000150: c15a f53c e0cf 973b 66b6 263c 89a2 b1bb
00000160: f42a d33b 4233 2d3d b8f0 043d 6f5b 8f3c
00000170: eae3 f6ba 1511 793d 3ccf 413c daa2 863d
00000180: 8489 a23b b6b6 7e3d 4040 323d c081 42bc
00000190: b5fe a03d d51b 473d 1a42 2f3d dbfb cbbb
000001a0: 33b1 c93c c457 823d eb8a 813d ae72 de3b
000001b0: f72d 5b3d 6cb2 2bbc fc9e 083d d4b7 4e3d
000001c0: 620c 8e3d c86f 823d 1b85 03bc a68f 173b
000001d0: 1a96 8a3d 0397 353d 5a26 533d 62aa 9bbb
000001e0: 3dd0 7cba 7e74 573c 6e98 123d ca92 5f3c
000001f0: a6e4 f6bb d1c4 2abd b906 3a3d 4255 f33c
00000200: eb15 1abd 7da1 b73c a858 2f3b 63f3 10bd
00000210: 36e3 743c 5e26 7e3c 564d b8bc 3571 cb3c
00000220: 8bc1 003d b8fd 25bb 8c2f e2bc f102 cdbc
00000230: 85e8 f1bc fb04 f63a 0523 1fbd c232 b7bb
00000240: c178 fdbc 4c75 253d 15f4 2dbd e145 8e3a
00000250: b850 fd3c 1752 913c 80f1 623b a80c 59bc
00000260: bd8a acbc 0d6f e2bc 00c7 ea39 6ae3 aebc
00000270: 93a3 33bd b07f 32bd aaa8 ebbc 7abf 9ebc
00000280: 33ba dcbc 3eaa bf3c 008a 4bbd 28e3 903b
00000290: e891 10bd 0068 ddbc a363 acbc 9b6e 143d
000002a0: f865 7fbc 3693 903c 8052 4dbc 8c0f 46bc
000002b0: 7f7e 1c3d 47bf 493d 7ae8 be3c 4fbd b13d
000002c0: c245 a33c 7e52 5a3d ac41 0f3d a34c 353b
000002d0: dc65 993d e6f4 a03d 32d5 8f3b 8d76 c13c
000002e0: e317 b83d 4873 293d 9d3c 183d 5735 823c
000002f0: 8d9f 0f3d c0d9 3138 4b96 9b3b f060 883d
00000300: c9fb 4e3d 8ae3 eb3a 592b ad3d 5c86 5d3d
00000310: beea c8bb 976d 853d ca43 423d 7732 8e3d
00000320: cbce 00bd 98dd a43b 3586 05bd cebd 29bd
00000330: 6341 3e3d f6dd 9b3c 4aab b0bc bace 99bc
00000340: 238e aabc d86d 06bd 0037 383c 8881 6fbc
00000350: 901e 14bd 5cf3 5b3c f03e d1bc 0570 34bd
00000360: 33da debc 90b7 fabc 40ef 903a e598 26bd
00000370: e85c c73b d47f 693c ea3c dcbc 819b 393d
00000380: c031 a9ba cc18 733b 8ac6 973c 2039 2fbb
00000390: 99f3 10bd 1621 4fba b1c9 2ebc 7a3f 9c3b
000003a0: d43b a73c 342f 22bd 8782 323c 10c0 3abd
000003b0: c641 1ebd eac7 343d c960 a93c 3535 603d
000003c0: 0ca3 9bbc 9395 513d f742 2b3c 2916 d83c
000003d0: 7b43 623d eaa4 673c 949a 98bb 81ef 1fbd
000003e0: 1deb 163d a022 89bc 2a25 813d d730 143d
000003f0: ff3c 913c 1334 1f3d c0a7 8f3d ae28 9c3d
0.025180105 0.062062405 0.08604664 0.07193916 0.025497805 0.027516779 0.0026466346 -0.00852362
0.0040166113 0.024200799 0.043897543 0.08485483 0.022302251 0.06943168 -0.008246757 0.032530457
0.05318321 -0.0148933055 0.024275012 0.073410876 -0.009378427 0.010736207 0.06462967 0.025995085
-0.013972304 -0.0061062276 -0.013184868 -0.048077624 -0.009700794 -0.004195422 -0.013020694 -0.019912643
0.0364894 -0.034859616 -0.048444808 -0.04904554 -0.019450909 -0.02618946 -0.031083662 -0.016376741
-0.034632117 -0.01066931 -0.04630481 -0.046110053 0.046208832 0.017670218 -0.034339212 0.027017105
0.03971375 -0.043151148 0.06667659 0.06867522 0.018918725 0.04082951 0.028467827 0.037886843
0.075059064 0.020684954 -0.015511767 0.022687843 0.013495454 0.020792296 -0.021626174 -0.0050310977
0.012284987 -0.012421337 0.0014321897 0.021984736 -0.0143686365 0.0001823706 0.0037621458 0.0593481
0.03229792 -0.026213245 0.029370522 0.035821095 -0.028820775 0.06270702 -0.03164355 0.027077356
0.011799175 0.052466113 0.014224292 -0.01159163 0.029950501 0.004632935 0.010175323 -0.005420987
0.0064443294 0.04228521 0.03245613 0.017499654 -0.0018836234 0.060807306 0.011829194 0.0657403
0.004960241 0.062185965 0.043518305 -0.011871755 0.078610815 0.048610527 0.04278765 -0.006225092
0.024620628 0.06364396 0.063253246 0.006788573 0.053510632 -0.010479551 0.033354744 0.05046828
0.069359556 0.06368977 -0.00802734 0.0023126393 0.06766911 0.04433347 0.051550247 -0.004750536
-0.0009644067 0.0131503325 0.0357899 0.013645837 -0.0075345812 -0.041691605 0.045416567 0.02970374
-0.03761856 0.02241587 0.0026755724 -0.03538836 0.014946749 0.015512077 -0.022497814 0.024834255
0.031434577 -0.002532823 -0.027610563 -0.025025817 -0.02952982 0.0018769795 -0.038851757 -0.0055907676
-0.030941369 0.040395066 -0.042469103 0.0010854566 0.030922279 0.017739339 0.0034628808 -0.013247646
-0.02106225 -0.027640844 0.00044780225 -0.021348674 -0.04385717 -0.043578804 -0.028766949 -0.019378413
-0.026944255 0.023396607 -0.049692154 0.0044216104 -0.035295397 -0.02702713 -0.021043604 0.036238294
-0.015588276 0.01764832 -0.012531877 -0.012088668 0.038206574 0.049254682 0.023304213 0.08678686
0.019930724 0.053301327 0.03497474 0.0027664087 0.07490131 0.07859211 0.0043894285 0.0236161
0.08988931 0.041369706 0.03716718 0.015894575 0.03506427 4.2402884e-05 0.004748141 0.06659114
0.05053309 0.0017996889 0.084555335 0.054083213 -0.006131499 0.06515043 0.04742793 0.06943219
-0.031447213 0.005031299 -0.032598693 -0.041440777 0.046449076 0.019026738 -0.021566052 -0.018775333
-0.02081973 -0.0328196 0.011243582 -0.014618285 -0.03616196 0.013424721 -0.025542706 -0.044052143
-0.027203655 -0.030605108 0.001105763 -0.040673155 0.0060840733 0.014251668 -0.026884515 0.045314316
-0.0012908503 0.0037093638 0.018527288 -0.002673693 -0.035388563 -0.00079013535 -0.010668204 0.004768309
0.02041427 -0.039595798 0.010895378 -0.04559332 -0.038636945 0.044135965 0.020676034 0.054738242
-0.018998645 0.051168036 0.010452977 0.026377754 0.055240136 0.01413844 -0.004657099 -0.039046768
0.036845315 -0.016740143 0.063059166 0.03617939 0.01772928 0.03886802 0.07014418 0.076249465

fc1.bias f4 [8]
00000000: bd40 423d db64 563c 6359 163b f290 20bd
00000010: be81 493c e778 02bc 9a7b 3f3d d3d2 40bd
0.04742502 0.013085569 0.0022941462 -0.03920073 0.012298999 -0.007963396 0.046748735 -0.047076058

fc2.weight f4 [400, 8]
00000000: 6408 893e a950 8e3d 1eef b6be de0f 9fbe
00000010: 00c4 5ebe a42e 493e cc74 a13d b158 04be
00000020: 6c77 5d3e 11a5 5e3e eb97 a73d 9d2e 5a3e
00000030: 4a39 9f3e fe7a b33d 90c6 3b3d 6a3e 98bd
00000040: cbe8 853d 9666 70bd 6ae7 92be 6133 843e
00000050: 31c0 813e de26 c0be d942 17be a7a2 113e
00000060: 7aa5 983b 57ea ffbd 8e5a babe 7d33 ae3d
00000070: 2602 243e 4b1e b13c e433 af3c 0ed6 59bd
00000080: adbc a53e e721 e13d 368f 43bc b80e 7ebe
00000090: 7049 863e 603b 0cbe efb9 5f3e 1ae3 24bd
000000a0: 5f01 3dbd 4240 8fbe 39b9 943e 4024 93be
000000b0: eadc 893e 0b55 88bc 78c9 3e3e 3b1d 7e3e
000000c0: 40ff f93c e1e2 1abe 2c13 a8be 6f64 333e
000000d0: aa97 a4be d81b b4bd cf3e 8ebd 54da 45be
000000e0: c9ae 90be 2522 84be 9220 183d abcc a83e
000000f0: b654 703d c454 6ebe 5517 a33e 9c70 be3d
00000100: 41be 80bb 4ce4 71be 1a91 ea3d 6e30 8abe
00000110: 27b6 4f3d 5ad4 8cbd 88d3 90bd b22e a1be
00000120: d680 d8bd 0d1a 1c3e 14f3 593e 18fd bcbe
00000130: e8b4 0f3e 0c66 3fbe 0b57 6e3e 1b95 043c
00000140: 56d5 c53d 1dea 8dbe 2160 b0be b45e 22be
00000150: eefa a73d 32a5 35be c064 acbd 2f4b 9dbe
00000160: df73 3e3e 9c19 25be b5a6 99be a73a b1bc
00000170: 9892 a83d 2cf0 3b3c b7d1 55be ace7 f03d
00000180: d86c 06be 4ec5 3bbe 0a2c 543b 5260 e9bd
00000190: 5982 7dbd fd62 d0bd 4140 aa3e 1948 c73b
000001a0: 6eac 173e aeeb 323e eb3f 3bbe bcdd 253d
000001b0: 32ea 203e 0bd6 b43e 564d 0f3e 60ed 263e
000001c0: b14d 9a3d 6152 8a3e 0aeb 85be 182d 3c3d
000001d0: 2aae 4ebe 0c90 8a3e 536e 53be 437b aebe
000001e0: 37f4 70be cf56 56be 6f4b 4bbe 2546 9b3e
000001f0: 5da2 91be b593 9c3e f03a 433e d404 73bd
00000200: 69aa 7d3e fb61 913c 6e7e 9a3e d731 663e
00000210: 9919 96be 7300 5b3e f6b8 6bbe 4ba7 f4bd
00000220: 6fb2 933e dedc c5bd aa64 afbe 4860 a2be
00000230: 47fe 0bbd 0b67 1e3e 6b46 c7bd 3ed3 653e
00000240: f70f 30be 2106 acbe ab91 b3be 711a ddbd
00000250: 5cfc 8d3e 5f80 54be ba40 a8be f505 23be
00000260: 4068 febd 6cbb 15be 5924 983e edec 593e
00000270: 6e8a 383e 933a 523e c386 62be c8c0 39bd
00000280: 3ee7 8b3e 91c3 abbe d865 0ebe f8a3 a03e
00000290: aa35 edbc 60a4 133e c4c7 a1be 4dd7 9bbe
000002a0: a6e4 7ebe 5876 84be 1f63 05be f92b 383e
000002b0: ba45 763e d257 9abe 1e69 04bd aa61 3d3e
000002c0: d944 7ebe d13c b2be cbfa 323e 5d68 91be
000002d0: d0cb 323e f258 6d3e 389d 22be 6d9c 373e
000002e0: 846c 123d 8eff 41be d64a 85be 86be 963e
000002f0: 3331 42bd f83e 9ebe 4255 fd3d 323e a23e
00000300: 14cd 913d d02c 193e c63b fe3d 3ac9 ebbc
00000310: 3b88 683e 241c 943e 1431 eebd cc77 3a3d
00000320: 00bc 05be 185c 613d a4cd ae3e 1587 edbd
00000330: 41b7 443e 9065 bc3d 4423 22be b438 9cbe
00000340: 7603 1dbe c647 573d 9e82 a93e f592 773d
00000350: 1d3d 843d 71b6 97be 8738 9c3d 8f67 b43e
00000360: 4691 133e 1aea 8cbd 86cc 1e3e b377 dbbd
00000370: 3158 4d3e 4a6b 9cbd 124f 8bbd c110 c63d
00000380: 8c45 6bbe 90ba a03d 282b 563e 8597 343e
00000390: e8c4 51bd d720 243d e862 f83d 79dd 943e
000003a0: 188f 46bb 6cf8 883e 7f1b b9be 0dc0 e23d
000003b0: 2ff8 073d ea7a b9bc eea6 1dbe f57f 9e3e
000003c0: 5fc8 10be b2f2 943d 0374 8a3e 55f3 e03c
000003d0: e03e 163e 9b3f a43e e94b 483c 67e2 57be
000003e0: 09ff b23e 89e0 633e 2a19 39bd a6d0 75be
000003f0: 45fe e3bc c783 a8be 1485 b03c 49f4 4cbe
0.26764214 0.069489785 -0.35729307 -0.31066793 -0.21754456 0.19646698 0.07883605 -0.12924458
0.21627587 0.21742655 0.08183273 0.21306844 0.31098396 0.08763693 0.04584366 -0.074337795
0.06538542 -0.058691584 -0.2869218 0.2582045 0.25341943 -0.37529653 -0.14771594 0.14222203
0.004658398 -0.12495869 -0.36397213 0.08505914 0.16016445 0.02162089 0.021387048 -0.053182654
0.3237051 0.109927945 -0.011936 -0.24810302 0.26227903 -0.13694525 0.21848272 -0.040255643
-0.046143886 -0.27978712 0.29047564 -0.28738594 0.26926357 -0.016642114 0.18631542 0.24815838
0.03051722 -0.1512561 -0.32827127 0.17518781 -0.3214696 -0.08794373 -0.069455735 -0.19321567
-0.2825835 -0.258073 0.037140436 0.3296865 0.058674537 -0.23274523 0.31853738 0.09298822
-0.00392893 -0.23622245 0.11453457 -0.26990074 0.050710823 -0.0687644 -0.070715964 -0.31480938
-0.105714485 0.15244313 0.21284133 -0.36911845 0.14033854 -0.18691272 0.23275392 0.00809219
0.09659831 -0.27717677 -0.3444834 -0.15856439 0.08202158 -0.17738798 -0.08417654 -0.30721423
0.18598889 -0.1612305 -0.3001 -0.021634413 0.082310855 0.011470836 -0.20880781 0.11762938
-0.13127458 -0.18336985 0.0032374882 -0.11395325 -0.061891887 -0.101751305 0.33252147 0.0060815928
0.1481187 0.17472717 -0.18286102 0.040494666 0.15714338 0.35319552 0.13994345 0.16301489
0.0753435 0.27015975 -0.26155883 0.045941442 -0.20183626 0.27063024 -0.20647554 -0.34078416
-0.2353066 -0.20931552 -0.19852994 0.30326954 -0.28444186 0.30581442 0.19065452 -0.059330776
0.24772038 0.017746916 0.30174583 0.2247995 -0.29316404 0.2138689 -0.23019776 -0.11945971
0.28847072 -0.09661268 -0.34256488 -0.31714082 -0.034178045 0.15468995 -0.09730228 0.22443864
-0.1719359 -0.33598426 -0.35072073 -0.10796059 0.27731597 -0.20752095 -0.32861882 -0.15920241
-0.12422228 -0.14622277 0.2971523 0.21281786 0.18021557 0.20530157 -0.2212172 -0.045349866
0.2732486 -0.33547643 -0.13906038 0.31375098 -0.028956253 0.14418173 -0.31597722 -0.304377
-0.2489191 -0.2587154 -0.13026093 0.17985524 0.24050036 -0.30145127 -0.03232681 0.18494287
-0.24830951 -0.34812024 0.17478482 -0.28399935 0.17460561 0.23178461 -0.15880287 0.17930765
0.03574802 -0.18945143 -0.26033658 0.29442233 -0.0474102 -0.30907416 0.12369777 0.31688076
0.07119194 0.14958501 0.12413745 -0.028782476 0.22708218 0.2892772 -0.11630455 0.045524403
-0.13059998 0.055019468 0.34141266 -0.115980305 0.19210531 0.09199059 -0.15833765 -0.3051201
-0.15333351 0.052558683 0.33107466 0.060442884 0.06456969 -0.2963138 0.07627969 0.3523526
0.14410886 -0.06880589 0.15507707 -0.1071619 0.20053174 -0.07637651 -0.06802191 0.09671164
-0.22975749 0.07848084 0.209149 0.17635925 -0.051213175 0.04007038 0.1212824 0.2907522
-0.0030297693 0.2675203 -0.3615379 0.11071787 0.03319567 -0.022641618 -0.1539571 0.30956998
-0.14138936 0.07272853 0.27041635 0.02745978 0.14672422 0.32079777 0.01222513 -0.2108246
0.349602 0.22253622 -0.045190014 -0.24005374 -0.027831206 -0.32913038 0.021547832 -0.20015062

fc2.bias f4 [400]
00000000: 0547 f53d fad5 a13e b32c 98be 33bd c4bd
00000010: b168 023e d4b4 36be 2dca 813d 4181 74be
00000020: 9a97 2abe a747 443e 1566 b33e 6260 553e
00000030: 0cb2 1d3e ba60 1ebd 4ed0 7a3b 2fcc b4be
00000040: fee3 2c3e 7891 f03d 815f 49be e500 8fbd
00000050: 29ad 8dbe da1c 5f3e 482b 53be c8ce a6bd
00000060: f237 74be 518a b3be fbb7 72be f45d 8c3e
00000070: a0da da3d 7cdc f13d 5802 97be 930f 963e
00000080: f019 11be 6090 8a3e a7f5 92be 86d8 3d3e
00000090: 8d69 3a3d 0c09 2bbe c4b6 84bd 1c12 a6bd
000000a0: f0b1 6f3d 9a70 b33e d92e 9a3e f2d3 9e3e
000000b0: af28 8c3d 919a 74bb a58d 0b3d 9b2a a13e
000000c0: d4dc ea3d 6b13 2bbe 301d 1fbe eb3b 653d
000000d0: d212 f63d 9066 a63e fd02 243e b0ff 39bd
000000e0: 3547 a93d f4b8 13be cc7e 69be 820f 883e
000000f0: 1344 893e 6374 b33d 04ae 9b3e 5971 fbbc
00000100: 1fa4 e7bc 6152 9cbe 9447 cc3d df53 d03d
00000110: 7072 7d3c 556a 0a3d 0c7a 003e 3473 a3bd
00000120: d154 5f3e 257a b9be 1e4a 963e 6c4a a23d
00000130: 662e a73e 831f a73e 81f0 6c3e c3ec 57bd
00000140: 0da1 b2bd 3e07 913e e465 60be c9cd 64be
00000150: d7ef d23c f4a1 a1be c270 ec3d 5a7d b43d
00000160: 1684 95be 9f70 58be 0159 5cbe 71c7 9bbe
00000170: c0eb 8cbe feca 32bd c945 9bbe c30f debc
00000180: 7833 4abe 5799 a43e 91d9 a0be 4dcc 463d
00000190: be3c 7a3e a19a 213e 322b b73e 13f9 5e3e
000001a0: d01c 71be 0391 54bc 71a7 a0bd 58a8 343e
000001b0: c65e f63b ea58 8f3e 8a9a 853e 50e7 343e
000001c0: 57e0 903e 5b18 743e 66fc 7c3e 0c0f 7b3a
000001d0: c8c1 fd3d 6d75 1a3e 5483 a53e d25c b1bd
000001e0: 6ef8 753d 8ef5 bebe 6222 3f3e 3716 b7be
000001f0: d0f2 973e ad83 b53e 485c 0abe 0b50 8abe
00000200: cab8 573d dff1 2e3e 5ca0 143e 041d 94be
00000210: 9007 fdbd 1dc9 9b3e 70a5 edbc 61f8 9dbe
00000220: eedd 85bd 2cf9 59be 822e 97be f43a 6dbe
00000230: 5ab5 233c 0663 6abe dae6 9ebd 2947 7c3e
00000240: dbe2 543e 4fda b63e b2e0 fdbd 614d 75be
00000250: 8e9a d6bd 5cd1 763d d171 323d 2f34 c5be
00000260: e0c7 bbbe f13c c0be 7d36 573e 2604 c0be
00000270: dc2c 0f3c a259 783e faf8 1ebe f0fa 223e
00000280: b7d4 aabe 5153 f7bd 83f8 e1bd 18b1 a4be
00000290: 6b84 abbd cc65 073e d16c b2be 68a1 81be
000002a0: 500a 92be e619 193e 6cf6 123e 1178 9dbe
000002b0: ef3a 6fbe 6ab2 333e 84e6 383c 7f6d a13e
000002c0: 8116 b0be a923 5f3e f825 80be aef9 de3d
000002d0: 7ab0 883b c622 9d3e ee22 653c 44fd 6abd
000002e0: d3a7 5abe b41c bcbc 030d 863d 2b6f 15be
000002f0: f705 b2be bd25 c0bb 08b9 a33e d9a1 cb3d
00000300: dccd babe 4fb2 96be 91b6 7b3c 8e1c 7b3d
00000310: 9675 0fbe cbad 933e 8817 55bd d714 043e
00000320: e265 a7be 1342 aebd 326b 8d3e 2ef9 1d3e
00000330: d3ec afbe eb0c 93bc 179c 6c3d 2c8c aa3e
00000340: 2c91 61be 6492 2bbe 5770 f73d 5356 453b
00000350: 761d 0fbe bbae 0d3e 2582 9c3e d894 aa3d
00000360: 2659 8e3d eb2e 39be 12e2 1fbe 422b 2ebe
00000370: 4b65 e9bd 989a bcbd b915 3f3e 322a 5b3e
00000380: fdac 0a3e 375a e8bc 52a9 4dbe 6119 c7be
00000390: cf92 04be db13 013e 10ae a8be 5156 713e
000003a0: dc6f 8cbe f97b 32bd c98f 373e 5114 b43e
000003b0: 4dfa 813d a5be afbd ced3 89be da58 863e
000003c0: 066c 613e 49fd ef3c d0e2 5a3e d269 febd
000003d0: fe3d 0cbe 0db8 fc3d cc9a a8bd 327f 10be
000003e0: c6f1 38be aae7 9ebe 2f8f 4f3e a8e9 7c3d
000003f0: b85e 493e 1f54 9cbd dc44 343e f265 933e
0.119764365 0.31608564 -0.29721603 -0.096063994 0.12735249 -0.17842418 0.0633739 -0.23877431
-0.16659394 0.19167958 0.3503882 0.20837548 0.1539995 -0.038666464 0.0038271132 -0.3531203
0.16883847 0.11746496 -0.19665338 -0.069825925 -0.27671173 0.2178835 -0.20621979 -0.08144909
-0.23849466 -0.35066465 -0.23702995 0.2741543 0.10686231 0.11809632 -0.29493976 0.29308757
-0.1417005 0.27063274 -0.28703043 0.18539628 0.045510817 -0.1670267 -0.06480172 -0.08108923
0.058519304 0.35046846 0.30113867 0.31021076 0.06843697 -0.0037323574 0.03407063 0.31477818
0.11467901 -0.16706626 -0.15538478 0.055965345 0.120153084 0.32500124 0.16016765 -0.04540986
0.08265535 -0.14426023 -0.22802275 0.26574332 0.2680975 0.087624334 0.304062 -0.030693697
-0.028276501 -0.305316 0.0997459 0.10172247 0.015469179 0.033792812 0.12546557 -0.079809576
0.21809699 -0.36226 0.29353422 0.07924351 0.32652587 0.3264123 0.2313862 -0.052716028
-0.08722124 0.28325838 -0.21913868 -0.22344126 0.02574913 -0.31568873 0.11544944 0.088129714
-0.29202336 -0.21136712 -0.21518327 -0.304256 -0.27523613 -0.04365062 -0.3032668 -0.027107125
-0.19746196 0.3214824 -0.3141599 0.04853468 0.24437234 0.15781642 0.35775143 0.21774702
-0.23546147 -0.012974027 -0.07844437 0.17642343 0.007518622 0.27997524 0.26094466 0.17666364
0.28296158 0.23837416 0.24705657 0.00095771323 0.123904765 0.15083857 0.32326758 -0.08660282
0.060051374 -0.37296718 0.1866546 -0.35759136 0.2967744 0.35452023 -0.13511765 -0.27014193
0.052666463 0.17084454 0.14514297 -0.28928387 -0.12354958 0.30426875 -0.02900955 -0.3085356
-0.0653647 -0.21286458 -0.2952767 -0.2316702 0.009991968 -0.22889337 -0.07758875 0.2463652
0.20789663 0.3571343 -0.12396373 -0.23955299 -0.10478698 0.060258254 0.043565575 -0.38516375
-0.3667593 -0.37546495 0.2101688 -0.37503165 0.008738723 0.24252942 -0.15524665 0.15916038
-0.33365414 -0.12076438 -0.11033728 -0.32166362 -0.08374866 0.13222426 -0.34848645 -0.25318456
-0.28523493 0.14951286 0.14351815 -0.30755666 -0.23362325 0.17548528 0.011285428 0.3152885
-0.3439217 0.21790947 -0.25028968 0.10887466 0.0041714283 0.30690593 0.013985379 -0.05737044
-0.21353082 -0.022962905 0.065454505 -0.14593188 -0.34770176 -0.0058638738 0.31977105 0.09942979
-0.36485183 -0.29432914 0.015363351 0.06130653 -0.14009699 0.2884353 -0.052024394 0.12898575
-0.32694918 -0.085086964 0.27620846 0.15427086 -0.3436037 -0.017950496 0.057766046 0.33310068
-0.22028035 -0.16755062 0.12081974 0.0030111268 -0.13976082 0.13836186 0.30568042 0.08329171
0.069505975 -0.18084304 -0.15613583 -0.17008689 -0.11396273 -0.09209174 0.1866063 0.21402815
0.13542552 -0.02836333 -0.20084122 -0.3888655 -0.12946628 0.1260523 -0.329453 0.23568083
-0.27429092 -0.04357526 0.17925943 0.3517175 0.06346569 -0.085812844 -0.26919407 0.26239663
0.22013864 0.02929558 0.21375585 -0.124225274 -0.13695523 0.123397924 -0.0823265 -0.14111021
-0.18060979 -0.3103612 0.20269464 0.06174627 0.19665039 -0.07633232 0.17604393 0.28788716

decoder.0.weight f4 [16, 32, 3]
00000000: 6173 943c d30c d3bc dcc3 893d b861 213d
00000010: 7ff9 13bd a4df c0bd a300 9fbc 5c74 ad3d
00000020: e6ae 41bd 0aa9 303d ad9f b4bd 3098 05be
00000030: da2c 813c a689 61bd 8fc8 e6bd e632 eabd
00000040: 828d 4cbd 25b4 243d 753b d1bd f335 8fbd
00000050: 1d19 e0bc 1de1 56bd c67d cf3c d23f 903d
00000060: f55a b1bd 99a4 463c de30 fb3c d560 25bd
00000070: 45a3 d53d c4af 56bd 8771 843d 193a 853d
00000080: 1a75 863d 9524 e03c 0310 37bd b41f 78bd
00000090: 5740 ce3d 057b b93d 1b3d 34bd 2aad 813d
000000a0: 9cc6 143d db47 373d a3b3 f13d 3b6f 5cbd
000000b0: a21c 3a3d 1aae 1bbd 1735 b13d 6ce2 813d
000000c0: 3dd7 2cbd 95d5 213c 2e5b 023e 9549 32bd
000000d0: 62d6 bc3c 2088 d5bc d7f5 e9bd 2039 b63b
000000e0: 999c 673d 61d4 97bd a52c debd ca84 b4bd
000000f0: 7435 7a3d aedb 513d aa5e 09bc 6aa7 c43b
00000100: 898d 44bd b35d 0f3d 062f 1f3d 831d 3e3d
00000110: 87e7 623d 5537 853d 183d 32bd adca 13bd
00000120: 8ed6 75bd 0130 a43d 0baf cc3d 03c5 ccbc
00000130: e6f5 8f3d 6ff9 273c e245 cebd 863f 363d
00000140: aa6e 923c d26f 303c 2479 9c3d d83c d3bd
00000150: f70f ed3d df91 42bc 5152 d1bc eb19 25bd
00000160: 0cf3 613c 3578 023e e0f8 a53c 3afe 11bd
00000170: 0bce a2bd 54c1 52bd 13a4 793d 71c7 c93d
00000180: cb51 d2bd b04e 07bd 6362 c9bc d904 a4bc
00000190: a73b da3d cd6f f43c 78a7 f03d 7caf 0cbd
000001a0: bd00 f3bd 227b d4ba 7c00 813d 2eec cb3c
000001b0: 9bea 9638 5221 5dbd eb12 603d 4fe8 623d
000001c0: eed3 1c3c f3af 893c 658c db3d 5246 df3d
000001d0: 626c 88bd 67bd 76bd f668 83bc c13e 2a3d
000001e0: 644e 903d 97ed 75bc 3409 52bc 0f9c 94bd
000001f0: 8d31 60bd 8270 2e3d 511a bf3d e302 7f3d
00000200: d290 ce3d 3b45 9ebd 3714 b53d 1a65 0a3e
00000210: bc0d 2d3d 922a 143d ed1e 2a3c 5125 c7bd
00000220: 7e5d 2dbd 908e 893d e9e6 b9bd 8832 953d
00000230: a1cf 9bbd 4e83 a3bc 77d3 43bd f7f9 9c3d
00000240: 4aa7 d3bd 275e 8d3d faff 94bd 798c a03d
00000250: 8373 e93d 7f0c ab3d e437 a1bd e651 8b3d
00000260: 5809 3f3d 2a97 7b3d 91ac e13c 1781 de3b
00000270: a7d5 0b3d f35c 53bd 4f48 0c3e c0c2 3e3c
00000280: 237f a3bd 12d0 14bc b8c0 51bc 6d1a 0cbd
00000290: 71c2 23bc f9d2 eebc 192e 813d cd23 81bc
000002a0: 9bf4 2a3d cbeb 8d3d 3374 a73d bf6f a9bd
000002b0: 90d1 bd3d ecdd 6dbd 90ca 253d 4210 923d
000002c0: 7efd bcbd 3408 5fbc 149e 41bd 658b 943d
000002d0: 1fd5 2a3c 7893 0dbb 6715 98bd 90b7 8c3d
000002e0: c2a4 9a3d f1da ccbd 57e8 a43d ce82 a6bc
000002f0: 17b7 ee3b 99be d5bd 4625 d8bd 5469 27bd
00000300: 1f87 96bc c4ac 0cbd 1e02 9d3d 986d febd
00000310: a5fa 9abc bfda 8d3d dde9 4b3c 79e3 963d
00000320: 1da2 9bbd cd5f ddbd 7f25 fe3c 8ca6 963d
00000330: f470 2f3c b17d 503d 2904 393d 080e 963d
00000340: e06a f3bd 478e 9bbd 8edc 703d 7934 de3d
00000350: 2c23 0fbd ef11 643d 797e 1c3c 5aa5 c1bb
00000360: 72aa dc3d ad6f 01be 07f5 86bd f953 11bd
00000370: ed14 a7bd 7ff0 93bd bcf3 fb3c 5320 c83d
00000380: f6c6 d6bc 3cba 43bb df0b f2bd efbd ae3c
00000390: fc1a 8dbd 2d4f 0bbd 52bb 573c d4ac 94bd
000003a0: 14ca 3f3d 46bf 103d 0be6 ec3d 689f ba3b
000003b0: 3611 6f3d 377f 2d3c 264a cb3d 3392 683d
000003c0: 9f00 aa3d 8770 f83d 5fdc e83d 7d95 8fbd
000003d0: 8e13 c83c a7fc 2cbc 6627 68bc d20a 643d
000003e0: dc22 a5bd 5134 ec3d d647 c83c 86a5 473d
000003f0: 1572 18bc 1d2d db3b c9b5 023d 8225 853d
0.018121423 -0.025762951 0.0672681 0.039399832 -0.03612661 -0.09417656 -0.019409483 0.084694594
-0.047285937 0.04312996 -0.08819518 -0.13046336 0.015768457 -0.055062912 -0.11268722 -0.11435489
-0.04993964 0.04021086 -0.10216419 -0.06992712 -0.027355725 -0.05246078 0.025328528 0.07043423
-0.08659927 0.012124204 0.03066295 -0.04037555 0.10431532 -0.052413717 0.06466966 0.06505222
0.06565304 0.027361194 -0.044693004 -0.06057711 0.100708656 0.09056667 -0.044003587 0.063318565
0.03632222 0.04474626 0.11801841 -0.053817015 0.045437463 -0.038007833 0.08652704 0.06342015
-0.042197455 0.009877582 0.12730095 -0.043527205 0.023051444 -0.026065886 -0.11423843 0.005561009
0.056545828 -0.07413555 -0.10848359 -0.0881439 0.061086133 0.051234894 -0.008384386 0.0060014026
-0.04798654 0.035001468 0.038863204 0.046414863 0.055396583 0.06504694 -0.043515295 -0.03608196
-0.06001907 0.080169685 0.09994324 -0.024996286 0.07029323 0.010252341 -0.10071923 0.044494174
0.017875034 0.010768848 0.07640293 -0.103143394 0.11575311 -0.011875599 -0.025551947 -0.04030792
0.013790857 0.12741168 0.020260274 -0.03564284 -0.07949456 -0.051453903 0.06094749 0.098524936
-0.10269507 -0.033034027 -0.024583047 -0.020021843 0.10655909 0.029838467 0.11750692 -0.034347042
-0.11865375 -0.0016211013 0.062989205 0.024892893 7.196256e-05 -0.053986855 0.05470554 0.055397328
0.009572012 0.016807532 0.107201375 0.109020844 -0.066612974 -0.060239222 -0.01604126 0.041563753
0.07046202 -0.015010259 -0.012819577 -0.07256328 -0.054734755 0.042587765 0.09331191 0.062258612
0.10086216 -0.077280484 0.08841746 0.1351513 0.042249426 0.03617341 0.01038335 -0.097239144
-0.04232549 0.06716645 -0.09077246 0.07285029 -0.076079614 -0.019960072 -0.04780909 0.076648645
-0.10334642 0.06902724 -0.07275386 0.07839293 0.11398985 0.08351993 -0.078719884 0.0680273
0.04663977 0.06142346 0.027548106 0.006790291 0.0341393 -0.051602315 0.13699459 0.011643112
-0.07983234 -0.009082811 -0.012802295 -0.03420489 -0.009995089 -0.029153334 0.063076206 -0.015764141
0.04173718 0.069297396 0.0817646 -0.08273267 0.092684865 -0.05807297 0.04047638 0.07132007
-0.09228037 -0.013612796 -0.047269896 0.0725315 0.010426789 -0.002160279 -0.07425957 0.06870949
0.07550956 -0.10002697 0.08052128 -0.020326044 0.0072850096 -0.10436744 -0.10553984 -0.040871933
-0.018374978 -0.03434445 0.076664194 -0.12423247 -0.018918345 0.06926488 0.012445894 0.07367606
-0.0759928 -0.10809288 0.031023739 0.07355985 0.0107080825 0.05090112 0.045169983 0.07326895
-0.11885619 -0.075954966 0.058804087 0.10849852 -0.034945652 0.055681165 0.009551638 -0.005909604
0.10774697 -0.12640257 -0.06589704 -0.035480473 -0.08158288 -0.07223605 0.03075587 0.0977179
-0.026217919 -0.0029865643 -0.118186705 0.021330802 -0.068899125 -0.034011055 0.013167219 -0.07259527
0.046823576 0.035338663 0.11567315 0.0056952722 0.058366023 0.010589412 0.09926252 0.05678005
0.083009 0.12130838 0.113701575 -0.070109345 0.024423387 -0.010558284 -0.01416955 0.05567438
-0.080632895 0.11533416 0.024448317 0.04874184 -0.009304543 0.0066887275 0.031911645 0.06501295

decoder.0.bias f4 [32]
00000000: e12e ad3d f68b b2bc 7865 703d 99e5 613d
00000010: 26cf 6cbc d7f8 a13c fa0e 4f3d 4922 9d3d
00000020: eeb4 f5bd 3dc2 05bd 5892 9b3d 4954 803d
00000030: ebf7 ac3d 0362 2abd 920d 01bc 7114 c33d
00000040: a092 8ebd 57fa ae3c 12e3 56bd 8b31 0bbc
00000050: 0494 423c 985f 7a3d 7ce2 2cbd b317 b3bd
00000060: 9981 a3bc 684c dc3c a5cb 4dbd 9bbd 72bd
00000070: edbc cb3d ac8d a03d db58 583d e702 3c3d
0.08456207 -0.021795254 0.05869052 0.055150602 -0.014453685 0.019771976 0.050551392 0.07672555
-0.119974 -0.032655943 0.07596272 0.06266076 0.08445724 -0.041597378 -0.007876771 0.09525383
-0.0696156 0.021359606 -0.052462645 -0.008495699 0.01187611 0.06112632 -0.04220818 -0.08744755
-0.019959258 0.026891902 -0.05024304 -0.059262853 0.09948144 0.07839522 0.052819114 0.045901205

decoder.2.weight f4 [32, 16, 5]
00000000: 3fa0 d9bd ddaf 673c c06c 43bd 590e bdbd
00000010: c26d 02bd ba3a 13bd d084 2abd eef1 623d
00000020: 1aec b1bd bdf3 c8bc 7d96 73bd 5c21 2ebd
00000030: f30c 4bbc 5701 573d eecc e6bd 2437 5d3a
00000040: 2900 85bd f2a3 8e3d a9cf 9cbd c7f0 093d
00000050: 3cff 09bd ac34 13bd 710b 693d 14c5 17bd
00000060: 46a9 813d 8669 c5bd 9690 53bd eeeb a43b
00000070: dfeb 5bbd 68af 29bd bb7b 33bd 7743 edbd
00000080: f83a 703d 685e 4f3d 13a2 0d3d 050f 8dbc
00000090: 61aa 633d b42c 64bc 9108 a53d 51e1 2f3d
000000a0: f13a 1a3e 23f0 86bd 4a89 483d 376f c3bd
000000b0: 86ae 5d3d 258c 10bd 97e7 9cbc f7ac 22bd
000000c0: f6c7 8ebd 3f73 81bd 91a4 893d b579 ac3d
000000d0: fc0c 473b dae2 b83d e22f 97bd c167 963d
000000e0: 5f02 bbbd 4c19 6d3d ff13 d8bd 3b53 a2bb
000000f0: 4b9f b9bb 8645 6abd c480 9abd a876 9a3d
00000100: 63d4 bebd 5ab2 68bd bebb 023e 7fea 0b3e
00000110: c584 42bd 237e d93c d495 9dbc 09a3 2a3d
00000120: a6b0 11bd d371 0f3e f7a8 3c3c 15f0 0bbc
00000130: 8030 ed3d 4a88 9bbd 80c7 75bd 726a eebc
00000140: a257 073e 5060 2b3d 577c c23d 3df5 493c
00000150: 464c 643c 8068 803d 4371 863d e652 2dbd
00000160: 1403 7abd 1196 f53d f32d bcbd b560 63bd
00000170: 4499 233d cc4d b93c 8198 bebc 2854 1b3d
00000180: 4440 c8bd 2145 d03b 56e2 b93b d7b7 babb
00000190: 23df 943d 4004 98bd d604 063e 27b3 8dbd
000001a0: 5015 15bc 2a3e 01bc de8c f43d 4077 d7bc
000001b0: bff6 043e f7ea 5e3d 0c34 1b3d a20d 893d
000001c0: 3377 19bc b095 06bd 1c17 bebc b3ee 853c
000001d0: 7a2a 4e3d 9ddf 83bd f56c 4ebd 7b08 a2bd
000001e0: cc75 523d d7c0 34bd f0fd 41bd 8b57 a93d
000001f0: 2d15 d0bd 2dc5 083d 5cde babb c6ff 3dbd
00000200: 0709 9fbc b2ed 3c3c caa6 b63d 9f31 c4bd
00000210: 7e26 91bd 4be3 973d ea02 ef3c ae05 9fbd
00000220: b4c4 85bd d15b ed3c 3bfc 75bd d2bf 093d
00000230: 1eea d1bd a05b 95bc 4c2d 913d 5664 75bd
00000240: e8a6 753c c05e 26bd 71c9 babc 2c19 593d
00000250: 6f4b 1ebd ecb8 cebd 105d 4cbc ad12 e3bc
00000260: 915d cdbd 8f4d 733c 5a0f ccbd 653f 17bd
00000270: c13c ad3d 6b11 d4bc ede5 b2bd ead8 9abd
00000280: 68f6 31ba ffe9 cdbd 562b 0d3d 2e9f 043d
00000290: 75e6 2b3d 969f 7abd 5c36 993d 5bc3 aebc
000002a0: 7824 e2bb fbca a23d d3b2 0c3e b99c c1bc
000002b0: ab1f a6bc 28c1 e63d 4ab3 09bd a401 973b
000002c0: a781 eabd bb31 f9bc 8e99 773d 62c9 323d
000002d0: 9ab4 433d dc05 59bd 6497 b3bc 80ea 2a3c
000002e0: f9a0 2bbc d56c f33d 8602 84bd e5eb 4ebc
000002f0: ca5a d4bc af7a 03bd 82f3 5fbb 7042 ecbd
00000300: 933f c7bd 6508 a9bc d4c7 da3d f5f0 69bd
00000310: a419 3e3d 6cc1 103d 20d0 d338 1dbd 2d3d
00000320: 9f0d 92bd 99ff c9bd c2af e63d e58b c1bd
00000330: 3bcd 07bd 5979 5c3d 97a2 453d 9887 b13c
00000340: e8ef 5a3d 1627 ee3c 74cf 013e c504 64bd
00000350: b66b 853d 7b00 9dbd 17ee f93d 7595 f2bc
00000360: 2c19 1ebd 360f d23d 1cf3 a4bd f72c cdbd
00000370: d418 413d 922e adbd 88e0 f9bb cfe4 503d
00000380: ca1b b83c 6ad5 e73d 2eca 46bd 32b1 79bc
00000390: 02fd d5bc d843 b03d ebdf b1bd c1b9 ffbc
000003a0: c628 f0bd 2144 c83d d03d a73d 8fd9 c43c
000003b0: aed0 a0bd a6b7 85bd af8a 51bc 2b68 cd3d
000003c0: 23a0 37bd 4d7e d93d 2790 8abd 8f1b bd3d
000003d0: 7ed6 c13d 87a5 01bd cf66 333d e471 0a3e
000003e0: 26b4 903d 2fe9 ae3d 01ca 36bd 7c67 29bd
000003f0: 5310 bd3d 2007 2c3d 9cb7 fe3c 1346 7c3d
-0.10626268 0.01414105 -0.047711134 -0.09231252 -0.031842954 -0.035944678 -0.041630566 0.055406503
-0.08687611 -0.024530286 -0.05946969 -0.042512283 -0.012393224 0.052491512 -0.11269556 0.00084386976
-0.06494171 0.06964864 -0.076567955 0.03367689 -0.033690676 -0.035938904 0.056895677 -0.037053183
0.063311145 -0.096392676 -0.05165156 0.005033008 -0.05369174 -0.041427046 -0.04381917 -0.115851335
0.058649987 0.050627142 0.034578394 -0.017219076 0.055582408 -0.013926674 0.080582745 0.042939488
0.15061547 -0.06588771 0.048959054 -0.09542697 0.054121517 -0.035289902 -0.0191534 -0.039715733
-0.06971733 -0.063208096 0.06720842 0.08421651 0.003037273 0.090276435 -0.0738218 0.07344008
-0.091313116 0.057885453 -0.10550689 -0.0049537695 -0.005664741 -0.05719521 -0.07544091 0.07542163
-0.09317853 -0.056810714 0.1276693 0.13663672 -0.0474899 0.026549404 -0.019236483 0.04165939
-0.035568856 0.14008264 0.011514894 -0.008541127 0.11581516 -0.075943545 -0.06000471 -0.029103491
0.13217023 0.041839898 0.09496372 0.012326536 0.013934201 0.06269932 0.06564572 -0.042315386
-0.06103809 0.119915135 -0.091884516 -0.05551215 0.039941087 0.022620104 -0.023266079 0.037922055
-0.09777883 0.006355897 0.0056727333 -0.005698185 0.072691225 -0.074226856 0.13087782 -0.06918936
-0.00909932 -0.007888356 0.11940931 -0.02630198 0.12984751 0.0544233 0.037891433 0.066920534
-0.009366798 -0.032857597 -0.023204379 0.016349172 0.050333478 -0.06439135 -0.05039688 -0.07911774
0.05138187 -0.04412922 -0.047361314 0.082686506 -0.10160289 0.033391166 -0.005702777 -0.046386503
-0.019413484 0.01153128 0.08918531 -0.09579777 -0.0708742 0.074163996 0.029176194 -0.07764755
-0.06531659 0.028974446 -0.060055 0.0336302 -0.102497324 -0.018232167 0.07088718 -0.05991014
0.014993407 -0.040617704 -0.022801133 0.05300252 -0.038646158 -0.10093865 -0.01247336 -0.027718866
-0.10027612 0.014850034 -0.099638656 -0.036925692 0.084588535 -0.025887212 -0.08735261 -0.07560904
-0.00067887316 -0.10054397 0.034465156 0.032378368 0.041967828 -0.06118735 0.07481071 -0.021333387
-0.00690132 0.07948872 0.13740091 -0.023634301 -0.020278772 0.112673104 -0.03361825 0.00460835
-0.114505105 -0.030419221 0.060449176 0.043649085 0.047779657 -0.052984104 -0.021922775 0.010431886
-0.010475391 0.118859924 -0.06445794 -0.012629484 -0.025922198 -0.032099422 -0.0034172242 -0.115361094
-0.09728923 -0.020633886 0.106826454 -0.05711456 0.04641117 0.03534071 0.0001010003 0.04241668
-0.07131504 -0.098632045 0.11263992 -0.09450511 -0.033154707 0.053826664 0.04825076 0.021671101
0.05345145 0.029071372 0.12676793 -0.05566861 0.06514685 -0.07666107 0.12203615 -0.029612282
-0.038598225 0.102568075 -0.08054182 -0.10018342 0.04714282 -0.08456148 -0.007625643 0.05099946
0.022474188 0.113200024 -0.048532657 -0.015240001 -0.02612162 0.0860669 -0.08685287 -0.031216504
-0.11726527 0.097786196 0.08166087 0.024029521 -0.078523025 -0.06529169 -0.012789412 0.10029634
-0.044830453 0.10619793 -0.06765776 0.09233772 0.09464739 -0.031652 0.043799218 0.13520008
0.070656106 0.0854057 -0.04462624 -0.041358456 0.09231629 0.041998982 0.031093411 0.061590265

decoder.2.bias f4 [16]
00000000: 4664 723d a75b 153d da89 663d 37b5 11be
00000010: d096 0cbd eafc dcbd 7b56 b1bd 138d 553d
00000020: ccf4 1a3d 8672 033e 3116 98bd c625 193d
00000030: 036e d8bd d018 68bc 97bd 46bc de03 4ebd
0.05917766 0.03646436 0.05628381 -0.14229284 -0.034323514 -0.10790427 -0.08659073 0.052136492
0.037831113 0.12836656 -0.07426108 0.03738954 -0.10567858 -0.014166072 -0.012130163 -0.050296657
