data/models/autoencoder_epoch_30.pth (torch, 118024 bytes, 43 tensors)

encoder.0.weight f4 [16, 1, 3]
000000 25 59 e6 3e 8e fc f0 3e 32 3c 13 be 19 f1 08 3f
       0.44989887 0.47067684 -0.14378431 0.53492886
000010 0d 48 fa bd e8 62 f7 3d 5d a1 8c be 00 e0 b0 3e
       -0.12220774 0.12079412 -0.2746686 0.34545898
000020 32 ee 03 3f b7 fa da be 92 d1 fe 3e 4e d4 d4 3d
       0.5153533 -0.42769405 0.49769264 0.103920564
000030 c9 4d df 3e 61 64 8c 3d b6 99 89 3e 30 84 b0 bd
       0.43614033 0.06855083 0.26875085 -0.08618963
000040 c0 7d e1 3e aa 36 a5 3d 9e 3b 8d be d6 19 1d 3e
       0.44041252 0.08067067 -0.27584547 0.15341887
000050 0d ff 84 be 34 31 9d bd bd ad 79 be 13 51 bf 3e
       -0.25975838 -0.076754004 -0.24382682 0.37366542
000060 60 96 e5 be 83 05 8c be 3b 6e 2e be 9b 9a b3 be
       -0.4484129 -0.27347955 -0.17034237 -0.35078892
000070 d0 c2 6d 3d ec 11 11 bf 58 3a 02 3f 90 a2 00 bf
       0.058047116 -0.5666797 0.50870275 -0.5024805
000080 f5 0c de 3e e5 21 c3 3d 98 09 3f be 43 22 b7 3e
       0.4336926 0.09527949 -0.18656003 0.35768327
000090 12 68 c6 3d b9 4d eb 3e 96 2c 66 3d 58 d6 3e be
       0.096878186 0.45957735 0.056194864 -0.18636453
0000a0 28 8f 24 3e 79 9c 1a be 28 e5 80 3e 8c b5 01 3f
       0.16070235 -0.15098752 0.25174832 0.50667644
0000b0 29 5f a6 3e e8 68 83 be 78 78 a8 3e 2f e0 ca 3d
       0.32494476 -0.25665975 0.3290441 0.09906041

encoder.0.bias f4 [16]
000000 d7 4d 97 3e d4 88 b2 be 71 93 12 bf 39 4f 5e be
       0.29551575 -0.34870017 -0.5725623 -0.21709909
000010 14 d6 e3 be 62 32 f1 3e 9a 41 2b 3e 59 07 6f 3e
       -0.44499266 0.47108752 0.16724244 0.23342647
000020 5f 18 3f 3e 9c 98 df bb 0d 61 e5 3e 56 86 d0 be
       0.1866164 -0.0068236124 0.44800606 -0.4072749
000030 c8 09 25 3d 99 0e c7 be d7 ea 39 3e a3 0c 51 be
       0.04029253 -0.38878325 0.1815599 -0.20414977

encoder.1.weight f4 [16]
000000 cf a0 80 3f 0b 39 7f 3f 5d 19 80 3f 64 df 80 3f
       1.0049075 0.99696416 1.000774 1.0068173
000010 fb d6 7f 3f 7f 66 80 3f 3c 7b 80 3f 7e 85 7f 3f
       0.9993741 1.0031279 1.0037608 0.9981307
000020 a9 e3 7e 3f 64 20 80 3f cd 7f 80 3f 27 d5 7e 3f
       0.9956613 1.0009885 1.0039002 0.99543995
000030 49 e3 7e 3f 60 8d 80 3f fc da 7f 3f 3e 60 7d 3f
       0.9956556 1.0043144 0.9994352 0.9897498

encoder.1.bias f4 [16]
000000 cd b6 a4 3b e1 ad 49 bb 43 04 90 3a db c6 75 3b
       0.0050266744 -0.0030773806 0.0010987598 0.003750256
000010 8c 4b 5c 3a 32 f0 6b 39 a6 df 79 3b 99 e6 11 bb
       0.00084035913 0.00022500826 0.003812769 -0.002226269
000020 d6 bd 95 bb e9 30 01 3a 6d 81 8d 3b dc ff 9a bb
       -0.0045697493 0.00049282477 0.0043184073 -0.004730208
000030 96 a6 8e bb be 6f a1 3b 3f 98 88 ba 45 66 29 bc
       -0.0043533547 0.004926651 -0.001042135 -0.010339324

encoder.1.running_mean f4 [16]
000000 bb f5 92 3e b3 64 a8 be d4 fe 0c bf f8 82 59 be
       0.28703102 -0.32889327 -0.55076337 -0.21241367
000010 6a ea d7 be 67 a4 e6 3e 1e 6a 21 3e 25 dd 64 3e
       -0.4217103 0.45047304 0.15763137 0.22349985
000020 1c 35 32 3e c0 43 25 bc 1e 4c de 3e 97 47 c7 be
       0.17403072 -0.010086954 0.43417448 -0.38921806
000030 e8 a6 20 3d 42 ab bf be 3c 3b 34 3e ae 42 4a be
       0.039221674 -0.37435347 0.17600721 -0.19751999

encoder.1.running_var f4 [16]
000000 5a 91 1c 3f 52 ee 9e 3e 86 cd c2 3e 6e 4e ae 3d
       0.6115929 0.310412 0.38047427 0.08511053
000010 09 64 1b 3f 05 30 69 3e ee 56 39 3e 55 bf 3d 3d
       0.60699517 0.22772224 0.18099567 0.046325047
000020 91 4f 4a 3f 56 d8 3c 3f 0a 6b 6d 3e 15 c5 df 3d
       0.7902766 0.737676 0.23185363 0.10926262
000030 ed b7 cc 3e ed 71 94 3d 25 13 94 3f c7 86 9d 3d
       0.39984074 0.07248292 1.1568342 0.07691722

encoder.3.weight f4 [32, 16, 3]
000000 28 ed 14 3d 6a 30 b0 bc 1a 23 03 3e d0 4d bf bd
       0.036358982 -0.02150746 0.12806359 -0.093410134
000010 ad 61 c0 bd 88 3a 9f bd 6b c4 f9 3d 85 8e 66 3d
       -0.0939363 -0.07774836 0.12195667 0.05628826
000020 b8 c4 16 3e 49 08 02 be 43 6c 0a be f8 30 d6 bd
       0.1472348 -0.12698473 -0.13517861 -0.10458559
000030 e5 f3 d6 bd bf 32 89 3d e8 de 75 3d 31 86 e5 3d
       -0.10495738 0.06699132 0.060027033 0.112072356
000040 3e b1 87 bd 9f 6e b8 bd d4 2f a5 3d d9 2b 72 bd
       -0.06625603 -0.09005474 0.08065763 -0.059123848
000050 78 50 a2 3d 45 83 2c bd 90 d3 b9 3d 0a 9f d4 bd
       0.079255044 -0.042117376 0.090735555 -0.10381897
000060 21 c9 8c bd e0 60 28 3d 17 ab b5 3c 4c fa 05 bd
       -0.068743 0.041108012 0.022176309 -0.032709405
000070 30 26 a3 3d 52 dd b7 3d 04 7a e6 bd 81 43 ae bd
       0.07966268 0.089777604 -0.112537414 -0.08508969
000080 05 e2 0f 3e 4c b2 67 bd a7 dd 2e bd 10 79 06 be
       0.14051063 -0.05656652 -0.042691853 -0.13132119
000090 82 61 b9 bd df 0a 36 3d 6c 83 2f bc ca 42 ce bd
       -0.09051801 0.04444396 -0.010712486 -0.10071333
0000a0 d2 5f f7 3b 6e 05 db bd 06 72 05 be fd 85 91 bd
       0.0075492645 -0.10694395 -0.13031778 -0.07105634
0000b0 2d a1 f1 bd e2 4d cc bd 97 02 1c 3e f4 c1 11 3d
       -0.1179832 -0.099757925 0.15235363 0.03558536
0000c0 63 08 1f 3d fc 80 0f be 0d 1f cd bd bf ec 5b bd
       0.038826358 -0.14014047 -0.10015688 -0.053692576
0000d0 d5 a0 8a 3c e8 8a 07 be a2 f0 8a bd e1 ad bb bd
       0.016922394 -0.13236582 -0.06784178 -0.09164024
0000e0 c3 7e a2 bb a9 1b 73 bd 64 d0 6f bc c1 46 d3 bd
       -0.004958959 -0.05935255 -0.014637087 -0.103162296
0000f0 3c 79 d6 bd e6 be b7 bd 1c 53 60 bd ef e2 f4 bd
       -0.10472342 -0.08971958 -0.05476676 -0.11957347
000100 48 fb ec 3d 28 49 0b bd d2 d0 04 3e 32 ba 4e 3d
       0.115713656 -0.034005314 0.12970284 0.05047054
000110 28 56 ef bd 92 04 c1 3d 64 63 37 bd fc 90 78 bd
       -0.11686355 0.094247 -0.04477252 -0.060685143
000120 97 15 ea bd 04 54 0d be ea 1a 3f 3d cf 1e d5 bc
       -0.11429899 -0.1380158 0.046656527 -0.026015667
000130 e6 8c 7c 3d c6 9c e7 bd 6f e4 cf 3d 67 a3 e4 bd
       0.06165781 -0.11309199 0.10150992 -0.11163979
000140 f7 12 f8 bc f7 b2 c8 3c 9d 71 8d 3d b4 aa e3 3d
       -0.03028248 0.0244994 0.06906436 0.111165434
000150 5d db 00 3e b7 72 f5 bd 90 aa fd 3c 6a b5 67 bd
       0.1258368 -0.11984771 0.03096512 -0.056569494
000160 6b b2 28 bc 75 47 d2 bd 0c d7 00 3e 47 0e e4 bd
       -0.010296444 -0.102675356 0.12582034 -0.11135536
000170 f0 01 93 3d 8c a7 38 3d 7d d4 2b 3d eb ca aa bd
       0.07178104 0.04508166 0.04195069 -0.08339485
000180 17 a8 08 3e 23 24 0b 3d ec 69 a8 3c 39 df ff bd
       0.13345371 0.03397001 0.02055832 -0.12493748
000190 e2 b9 80 3d 4c 10 a1 bc 2f cd 82 bd 80 b5 00 3e
       0.06285454 -0.019661091 -0.06386792 0.12569237
0001a0 e7 f1 0b 3d 6b f2 9e bd dd 5b 94 bd 36 36 a1 bb
       0.034166243 -0.07761081 -0.07244084 -0.0049197925
0001b0 59 b1 a9 3d 30 d1 0d bd d8 92 a4 bd 97 30 41 bd
       0.082857795 -0.034623325 -0.08035821 -0.04716548
0001c0 60 f7 d8 bd 02 02 5b 3d 8e 15 e1 3d 1f 00 0d be
       -0.10594058 0.05346871 0.10990439 -0.13769577
0001d0 53 1c 01 3d 9c 53 9d 3d 19 4a e2 3c d3 71 4a bd
       0.031521153 0.07681963 0.027623223 -0.049424957
0001e0 5f 91 96 3d 9b a4 97 3d 95 e6 54 3d bd ad de bc
       0.07351946 0.07404443 0.051977713 -0.027182454
0001f0 57 12 24 bd 8e 36 5c 3c 39 64 be bc e7 39 27 bd
       -0.040056553 0.013440741 -0.02324115 -0.040826704
000200 a9 06 c1 3d 21 56 01 3e 57 4f 46 bc 4b 6d f8 bc
       0.094250984 0.12630512 -0.012103877 -0.030325552
000210 06 23 8f 3b 71 78 d6 bb f2 4a 16 3d be 48 1e 3d
       0.004368189 -0.0065451195 0.036692567 0.03864359
000220 8e 18 08 be 80 52 62 bd 7e 93 fd 3d ac fc 6e 3d
       -0.13290617 -0.05525446 0.123816475 0.058346435
000230 33 ce a9 bb 2e 94 ad bd fb 6a b2 bd 2d 5b 02 be
       -0.0051820516 -0.08475529 -0.08711811 -0.12730093
000240 d3 1c 29 bd 65 22 54 3d 62 f5 b6 3d d1 49 94 3d
       -0.041287255 0.051790614 0.08933522 0.07240642
000250 aa c8 f9 bd c8 5c b7 bd ef 36 8b bc b8 69 0a 3e
       -0.12196477 -0.089532435 -0.016993968 0.13516891
000260 3b d1 94 3c 64 4f 01 bd 57 06 5c 3d ce 4c 6c bd
       0.018166175 -0.031569853 0.053716984 -0.057690434
000270 a8 85 b3 bd bf 66 dd 3d 6d fb 8b bd 40 cc bd bc
       -0.08765727 0.10810613 -0.06835065 -0.023168683
000280 55 a9 16 be 69 4b c0 3d c7 47 f6 3d ad 9e 80 3d
       -0.14713033 0.09389383 0.12025409 0.06280265
000290 86 93 c8 bd 32 e3 0b be 3a 37 fa bd 9c ad d6 3d
       -0.09793763 -0.13660887 -0.12217565 0.10482332
0002a0 ce 32 a4 3d ed 26 06 3e 06 74 a0 3d a6 43 42 3d
       0.08017503 0.13100787 0.0783463 0.047427796
0002b0 63 ac d8 3b 26 42 db bd 07 7c f1 bd 5d 61 06 be
       0.006612347 -0.10705976 -0.117912345 -0.13123079
0002c0 34 ec 66 3d 9d 49 85 bd 60 2b eb bc 95 bd af bd
       0.056377605 -0.06508181 -0.028707206 -0.08581082
0002d0 52 16 a8 bc c9 b5 d3 bd 0d c1 c6 bd bb ae 70 3d
       -0.020518456 -0.10337407 -0.0970479 0.058760386
0002e0 d1 41 03 bd 1f 07 bc 3d b0 05 26 bd 69 22 db bd
       -0.03204519 0.09181046 -0.040532768 -0.106999226
0002f0 6a e9 e6 bc 8b 5e 83 bd ed d8 4b bd 2b 8b 0f be
       -0.028187472 -0.06414517 -0.049767423 -0.14017932
000300 89 b4 98 3d 47 79 c5 bd 31 4f 9e 3d c3 ed 72 3d
       0.07456309 -0.096422724 0.07729948 0.05930878
000310 ab 4f c6 3d e7 fc d8 bd fc e9 c7 3d a6 58 81 bd
       0.09683164 -0.10595112 0.09761426 -0.063157365
000320 ba db 6e 3d 7f 76 04 3e 7b 38 72 bc b8 68 6e 3b
       0.058315016 0.12935828 -0.014783974 0.0036378335
000330 ee 7b 21 bd 2c 65 ee bd cf 9b 97 3d 61 0e 19 be
       -0.03942483 -0.11640391 0.07402765 -0.14946891
000340 ee 87 c1 3d a3 ea e6 3d bb 29 06 3e 71 e2 23 bd
       0.09449755 0.11275222 0.13101856 -0.040010873
000350 be 9e fc bd bc f9 d6 3c 65 fa ad 3d f7 36 0e be
       -0.12334965 0.02624213 0.084950246 -0.13888155
000360 61 8a 1c bd ff ed bc bd c5 6f 8e bc 7c ad 9c bd
       -0.038217906 -0.09225082 -0.01738728 -0.07650277
000370 86 9d 83 bd 43 2b 4f bd 41 c8 12 be fb d9 e6 3d
       -0.064265296 -0.050578367 -0.14334203 0.11272045
000380 cd c6 00 3e b6 3e ec bc f5 75 45 bc 22 c4 5d bd
       0.12575836 -0.028838497 -0.012052049 -0.054142125
000390 60 d2 0b be bf 16 0b be ea 3c 6f 3d 23 93 ad bd
       -0.1365447 -0.13582896 0.0584077 -0.0847533
0003a0 db 01 c9 bd 31 34 83 bc dc 41 5e bd 92 a3 2c bd
       -0.09814807 -0.016016098 -0.054262027 -0.04214818
0003b0 9e f7 19 3c 27 ce 16 bd ea 5d 35 bd 3d c3 83 bd
       0.009397415 -0.036817696 -0.044279017 -0.06433723
0003c0 28 16 db bd b3 dd fb 3d a3 3f 72 bd 65 88 47 3d
       -0.10697585 0.12298145 -0.05914272 0.04871406
0003d0 a4 cd 22 bd 69 f5 29 3c 5f 84 14 3e 61 39 82 3d
       -0.039746895 0.010373452 0.1450362 0.063586004
0003e0 a0 78 01 be 60 cc 8a 3d 7d 56 07 3e 31 1e 16 3d
       -0.12643671 0.06777263 0.13216586 0.036649887
0003f0 9a a4 db 3d 2d 93 13 3e 88 70 c0 bc bf a6 25 3d
       0.10724755 0.14411612 -0.02349116 0.040442225

encoder.3.bias f4 [32]
000000 40 cc 02 be e8 2d 97 3d 51 56 0b be d0 e6 8f bc
       -0.12773228 0.07381803 -0.13607146 -0.017566115
000010 50 43 16 3c 1c 80 cf 3d f3 fe 56 bd 69 09 33 3d
       0.009171322 0.10131857 -0.052489232 0.043710146
000020 8b b6 9e 3c 64 7c bb 3d 75 38 1e 3c f6 d8 58 3d
       0.019374153 0.09154585 0.009657015 0.052941285
000030 58 62 b4 bd 88 97 ce bd 25 6e 06 3e 9d 26 d8 bd
       -0.0880782 -0.10087496 0.13127954 -0.1055424
000040 8d 0c d6 bc f3 d9 8a bc 84 a5 14 3e 95 bd 03 bd
       -0.026129032 -0.01694963 0.14516264 -0.03216322
000050 dd cd dc bd 46 76 0d bd f9 26 a0 3d ee 35 62 3d
       -0.10781453 -0.034536622 0.078199334 0.055227213
000060 ec f7 fc 3d 95 03 ea bc b6 b6 87 3d 0c 1e 0a be
       0.12351975 -0.028566161 0.06626646 -0.13488024
000070 c6 2e 5b 3d 88 fd 87 3d 0a 70 b6 3d a5 c7 b6 bd
       0.053511404 0.06640154 0.089080885 -0.08924798

encoder.4.weight f4 [32]
000000 5d a0 80 3f 29 f4 7f 3f a0 4a 7d 3f 4a 6b 81 3f
       1.0048939 0.99981934 0.98941994 1.0110867
000010 43 01 80 3f 41 fd 7e 3f d4 91 7f 3f 73 24 80 3f
       1.0000385 0.99605185 0.9983189 1.0011123
000020 99 7c 81 3f f6 90 80 3f a1 09 7e 3f 92 d1 7f 3f
       1.0116149 1.0044239 0.9923344 0.99929154
000030 6b c8 7f 3f a2 00 81 3f 56 fd 7e 3f a1 b4 7e 3f
       0.9991519 1.0078318 0.9960531 0.9949437
000040 81 f8 7e 3f 12 11 7f 3f 7e 15 80 3f 15 b7 80 3f
       0.99597937 0.9963542 1.0006559 1.0055872
000050 74 19 7f 3f b1 89 80 3f 57 cf 7f 3f db 1f 81 3f
       0.99648213 1.004202 0.9992575 1.0087847
000060 83 28 7d 3f 1e 36 81 3f a9 6e 7e 3f 44 f0 80 3f
       0.9888994 1.009464 0.99387604 1.0073323
000070 a1 c8 7c 3f 85 e0 7d 3f ff 35 7f 3f 41 0f 80 3f
       0.98743635 0.99170715 0.99691767 1.0004655

encoder.4.bias f4 [32]
000000 09 6c ac 3b 8c a3 bd 3b e0 aa 52 bb 9e 46 32 3c
       0.005261902 0.0057873186 -0.0032145306 0.010881094
000010 71 7e 3d ba 27 23 83 bb 01 b5 e3 3a e0 27 b8 b9
       -0.0007228619 -0.004001993 0.0017372669 -0.00035124924
000020 dd 8b 13 bc c1 67 a7 3b 1f 91 0e bc 55 bd 06 3a
       -0.009005514 0.005108804 -0.008701592 0.0005139907
000030 63 15 9d 39 19 18 f7 3b be 01 93 bb 02 d8 f8 bb
       0.00029961308 0.0075407145 -0.0044862917 -0.0075941095
000040 fb 57 8b bb 0b d2 61 3b 0b b2 00 3a 2d db 9b 3b
       -0.0042524314 0.003445747 0.0004909343 0.0047563524
000050 a3 c2 1f bb 1c 4b 46 b8 37 31 84 3a 2f 2a 15 3c
       -0.0024377487 -4.727683e-05 0.0010085468 0.009104296
000060 b0 e8 38 bc 63 ad d1 ba 17 20 8a bb 35 ef 0c 3c
       -0.011285946 -0.0015997108 -0.004215251 0.008601953
000070 7a 6b 43 bc b2 7a fe bb a2 ae 77 3b d6 c0 1f ba
       -0.01192748 -0.0077660913 0.0037793298 -0.00060941034

encoder.4.running_mean f4 [32]
000000 a0 3c d1 be 0e da ad be 00 a4 f4 bd 72 4a a8 be
       -0.40866566 -0.33955425 -0.11945343 -0.32869297
000010 5a 81 8a be b6 25 73 bd b3 9b 07 be c5 7f 5e bd
       -0.27051812 -0.059362136 -0.13242988 -0.05432107
000020 bd 07 ba 3d f7 4f d8 3d 5d 17 68 3d 1d f6 ec be
       0.09083507 0.10562127 0.056662906 -0.4628152
000030 12 a9 76 bd 87 8b 44 3d d5 ef be 3d 53 05 ae bd
       -0.06021983 0.047984626 0.09323088 -0.08497109
000040 82 d4 ec bc 9f 6a 69 3e 4b d2 5c be 19 9e 90 be
       -0.028909925 0.22794579 -0.21564595 -0.2824562
000050 26 2c 86 3d 65 e5 c1 3c 9c ff 25 3e b6 b6 af 3d
       0.065513894 0.023668954 0.16210788 0.08579771
000060 4b ce fb 3d 74 b9 54 3e de 3e 31 bd 4e 7e 8e be
       0.12295207 0.2077387 -0.043272845 -0.27830738
000070 63 bc 0f be 72 fd eb 3c 27 6b e5 3e d8 c0 ce bd
       -0.14036708 0.028807376 0.44808313 -0.10095376

encoder.4.running_var f4 [32]
000000 9a 1f 8a 3e 5d b0 8c 3d b4 98 3f 3d 0f 62 73 3f
       0.26977235 0.06869576 0.04677649 0.950715
000010 12 71 c3 3d 35 22 0c 3e a8 4a ee 3e 4b fd 49 3d
       0.09543051 0.13684924 0.46541333 0.049313825
000020 69 b1 40 3d a1 37 a4 3d 17 76 15 3f 12 9c 0a 3f
       0.04704419 0.08018423 0.58383316 0.54144394
000030 b4 3a b0 3d e1 78 99 3e a3 25 2c 3e 08 6d 78 3d
       0.08604947 0.29975036 0.16811232 0.060650855
000040 af 7d 70 3e fc e1 f7 3e eb c8 43 3d 2d 84 df 3d
       0.23485444 0.484146 0.047799032 0.109138824
000050 c3 ba 11 3e 19 95 55 3d e4 3f 14 3e 6a c6 a3 3d
       0.142314 0.052144144 0.14477497 0.07996829
000060 b2 fd ae 3d 35 d5 7b 3d a8 9f 3a 3e 03 36 56 3d
       0.08544482 0.061482627 0.18224967 0.052297603
000070 5e f0 2b 3e 1c 42 cc 3e db 1f a2 3d ae 57 4a 3d
       0.16790912 0.39894187 0.07916232 0.049400024

encoder.6.weight f4 [64, 32, 3]
000000 b5 40 0f bd 40 f7 91 3c 58 82 a4 bd 9a 2c 9c bd
       -0.03497382 0.017818093 -0.080326736 -0.076256946
000010 c7 1e da bd 63 0e 52 3c ce b7 91 3d cc dc d7 3c
       -0.106504016 0.012820813 0.07115136 0.026350401
000020 1d 42 53 3c 90 3b e4 3c 5c e0 92 bd b6 6e 39 3b
       0.012894181 0.027860433 -0.071716994 0.0028294749
000030 78 38 9d bc 14 41 2e bd 12 44 c4 3d f7 a5 94 bd
       -0.019191965 -0.042542532 0.09583296 -0.07258218
000040 71 a0 ad 3c 6d 3b a8 bd c5 a1 35 bc 57 41 5b bd
       0.021194668 -0.082144596 -0.011085932 -0.05352911
000050 2c 6f 23 3d 7c e9 4f bd db 1e 8e 3d 29 c6 9b bd
       0.039900944 -0.050759777 0.06939479 -0.076061554
000060 4d 5f 62 3d 00 6a a3 bd 0f 39 44 3d 33 a6 17 bd
       0.055266667 -0.07979202 0.047905978 -0.037023734
000070 8c d1 e6 3b 37 e6 c7 bc b6 83 94 3d a0 9a 21 3d
       0.007044023 -0.024401767 0.07251684 0.039454103
000080 b8 29 aa bd e0 f4 eb 3a 42 3e a0 bd 14 19 93 3d
       -0.083087385 0.0018002056 -0.07824375 0.07182518
000090 d2 fa 18 3c e5 7c 0b bd 69 0e 3c bd f1 5d 29 3d
       0.009337144 -0.034054656 -0.04591218 0.041349355
0000a0 24 11 5d bd 66 d6 30 3d c8 e9 7c 3d 29 a0 91 3d
       -0.053971425 0.043173216 0.06174639 0.07110626
0000b0 ed 27 b2 3c ef 55 aa bd 36 ce 9d 3d 2d 48 1b bd
       0.021747554 -0.08317172 0.07705347 -0.03791063
0000c0 36 03 1b bd 18 c8 9a bc f6 93 88 3d c8 4a ad 3d
       -0.03784486 -0.01889424 0.06668846 0.08461529
0000d0 67 3d b5 3c b2 c8 32 3d f7 65 d3 bd ec de 48 bb
       0.022124005 0.04364843 -0.103221826 -0.003065045
0000e0 f6 af ac bd ee db eb 3c fa 0d a5 bd fd 13 f8 bc
       -0.084319994 0.028791394 -0.080593064 -0.030282969
0000f0 e0 70 9e 3d a4 37 ce 3d 1b 11 89 bd f3 1c 4b bd
       0.07736373 0.10069206 -0.06692716 -0.049588155
000100 6d c5 91 3c 93 e7 3e 3d 94 b6 27 bc c4 de d6 bc
       0.017794335 0.046607565 -0.010236401 -0.02622927
000110 76 c2 74 bd b9 16 4b 3d 96 ca de 3d de cb 5f bd
       -0.059755765 0.049582217 0.10878484 -0.054637782
000120 b9 5d 25 3d 03 2d 34 3d ee 70 97 3d 6d c0 8d bb
       0.040372584 0.04398824 0.073945865 -0.0043259175
000130 fc 33 09 3c 97 d7 a6 3d b8 f9 67 3d f6 68 be 3d
       0.00837421 0.08146589 0.056634635 0.092973635
000140 7b 09 bc bc 45 28 06 3d 89 08 8a 3d 32 ad 9c bd
       -0.02295374 0.032753248 0.06739909 -0.07650222
000150 e6 91 4e 3c 2a 50 f6 bc 6b 98 6c 3d 0e 18 22 bd
       0.012608027 -0.030067522 0.057762545 -0.03957372
000160 87 cd 67 3c 67 f5 68 3d 95 41 d0 bd 24 c1 ba bd
       0.014148123 0.05687466 -0.10168759 -0.0911887
000170 69 a0 74 bd fa c7 91 3d d2 65 86 3d ef 95 9b bd
       -0.05972329 0.071182206 0.065623894 -0.07596957
000180 0c a5 5b 3c ae 7f 76 bd 30 d5 5b bd 6b fa a5 3d
       0.013406049 -0.06018036 -0.05367011 0.08104404
000190 a8 5e 2d 3d de e9 0b bd a3 80 13 3c 6e 12 67 3c
       0.0423266 -0.03415858 0.009002837 0.014103515
0001a0 dc 90 8d 3c 85 e9 27 bd 53 ba 87 bd ed d3 7a 3d
       0.017280988 -0.040994186 -0.066273354 0.061237264
0001b0 75 2f 7d 3c da 86 47 3d 0a 84 02 bd ca f1 50 3d
       0.015453209 0.04871259 -0.031864204 0.051011838
0001c0 04 25 a2 3d 55 96 8b 3d 6f ac af 3c e1 9e c0 3d
       0.079172164 0.06815783 0.021444527 0.09405304
0001d0 1d 5b db bb c1 86 92 3c e8 6c bd 3d 3d 8f bd 3d
       -0.006694211 0.017886521 0.09249288 0.09255836
0001e0 48 23 3a bd 3f 06 c8 3d c5 3a 38 3d 28 87 0b bc
       -0.045443803 0.09766816 0.044977922 -0.0085161105
0001f0 50 2a c4 3d 67 be 3d bd 06 d4 8b 3d cd 62 d4 3d
       0.09578383 -0.04632416 0.0682755 0.10370407
000200 f0 0f 83 bd a6 c5 87 bd 5a dd db bd 36 b0 cb bc
       -0.06399524 -0.06629495 -0.10735579 -0.024864297
000210 5d ef ca bd 02 96 26 bd e4 24 c8 3c b1 05 99 3d
       -0.09908936 -0.040670402 0.024431653 0.07471789
000220 a2 71 80 3d 25 6e 81 3d 00 ca 37 3d 66 e2 69 bd
       0.06271674 0.063198365 0.044870377 -0.057100676
000230 33 8e 98 bd 2b 86 c2 3b d6 a9 d1 3d bd 30 45 3c
       -0.07448997 0.005936404 0.10237472 0.012035546
000240 9f ce 72 bc 6e a1 9a bd 99 3d 69 bd 16 f2 9b bd
       -0.01481977 -0.075503215 -0.05694351 -0.076145336
000250 9c 1a b1 3d 0a a4 26 bc 8b b1 c4 bd 3a 62 6d 3c
       0.086476535 -0.010170946 -0.09604176 0.014488751
000260 06 58 b2 3a f5 94 9b bc 11 27 f8 3c d1 a4 45 3d
       0.0013606555 -0.018991927 0.030292066 0.048252884
000270 3a e8 be bd af fc 92 bd e0 ba d5 3a 7f 87 d7 bd
       -0.093216375 -0.07177102 0.0016306303 -0.10523891
000280 ad 20 cc bd d9 65 aa 3d 53 a9 df bb 84 ff 54 bd
       -0.0996717 0.08320207 -0.006825605 -0.05200149
000290 6b 26 1d bd 5b ef 9d bd 10 76 af 3d 29 64 7f bc
       -0.038366716 -0.07711669 0.085674405 -0.015587845
0002a0 f4 c7 81 bd 93 59 ab bd 4b 41 5b 3d b7 f4 97 bc
       -0.06336966 -0.08366694 0.053529065 -0.018549306
0002b0 f9 94 78 bc ef 22 10 bd 6a 4f 63 bd 24 a3 42 3c
       -0.015172237 -0.035189565 -0.055495657 0.011879716
0002c0 cb b4 93 3d 06 d3 83 bd d4 17 0f 3c 28 38 a6 bd
       0.07212218 -0.06436734 0.008733708 -0.0811618
0002d0 3a b3 5c bd 15 84 ab 3d 55 63 ac bb 77 3c ce 3d
       -0.05388186 0.08374802 -0.0052608647 0.100701265
0002e0 73 4d 42 bc ab db 49 bd 35 b2 8a bd 98 b5 c4 3d
       -0.011859286 -0.049281757 -0.067722715 0.09604949
0002f0 96 9e 95 bd 57 2e 67 3d c6 80 00 3d fe 91 16 3d
       -0.073056385 0.056440677 0.031372808 0.036760323
000300 77 11 7b 3d b4 94 a9 bc 4c 57 8b 3d 29 62 a7 bd
       0.061295953 -0.02070079 0.0680376 -0.081730194
000310 3d aa fb bc dc 85 88 3d cd e3 0c 3d 58 7f 05 bc
       -0.030720824 0.06666157 0.034396935 -0.008148037
000320 2b 68 01 bd 8c 64 70 bd b0 58 8b 3d 4f 26 11 3b
       -0.031593483 -0.05868964 0.06804025 0.0022148078
000330 42 f0 ea bb a5 ed 94 3c cf a1 8d 3d c9 6b 5f bd
       -0.0071697542 0.018179724 0.06915628 -0.05454615
000340 3d 17 28 bd 67 7c 7e 3d 41 9b 84 3d 7e 59 35 bd
       -0.041037787 0.062130358 0.06474925 -0.0442748
000350 2c c5 df bd ff 49 a6 3c 89 8e 53 3d ae 0d 88 3c
       -0.109262794 0.020298956 0.051649604 0.016608085
000360 36 0f 95 3d 78 61 ad bd e6 74 73 3d b3 9a 8e bd
       0.07278292 -0.08465856 0.059437655 -0.069631
000370 2b 7e 53 3d d7 8b ac 3d 44 94 e9 3c 06 3b 9d 3d
       0.051633995 0.0842511 0.028513081 0.076772735
000380 97 9e 90 bd f8 2b b2 bd 31 ad bc bd 3d 46 81 3d
       -0.070614986 -0.086997926 -0.09212721 0.06312225
000390 da 0d 31 3d e2 2f 8d bd aa 25 29 3d 20 50 b3 3d
       0.0432261 -0.068938985 0.041295685 0.08755517
0003a0 9c 4f da bd f2 18 a9 3d b7 2e 27 3c f3 81 66 3b
       -0.106597155 0.08256711 0.010204009 0.003517267
0003b0 10 89 cd 3d 7b eb ae 3d ea 2f 16 3d c0 c0 b5 3d
       0.10035908 0.08541008 0.03666679 0.08874655
0003c0 c5 fc 3c 3d f4 78 b9 3c 0a 88 ac bd 7c bc 5f 3c
       0.046139497 0.022640683 -0.08424385 0.013655778
0003d0 25 cd a0 bd 03 3c 24 3d 74 68 bb 3c b2 55 ee 3b
       -0.07851628 0.040096294 0.022876956 0.0072733993
0003e0 32 cf a1 bd 95 db 5a bd dd b6 a6 3d 21 cc 2a 3d
       -0.079008475 -0.053432066 0.08140347 0.04169858
0003f0 72 e1 44 3d 5f 92 14 bd 90 ca 14 bc 22 12 d8 bc
       0.048066564 -0.036272403 -0.009081498 -0.026375834

encoder.6.bias f4 [64]
000000 94 13 61 bd 15 6b 96 bd e7 93 6c bd 70 fd ab bc
       -0.05495031 -0.07344643 -0.05775824 -0.020994872
000010 02 27 ca 3c 3a e6 9c 3c e6 3a c2 bd 59 91 c7 bd
       0.024676803 0.01915275 -0.0948389 -0.0974452
000020 1b 19 85 bc f0 86 b6 3d 9c c9 1c 3d 79 06 b8 3d
       -0.016247323 0.08912456 0.038278207 0.089856096
000030 37 10 44 bd eb 13 f3 3c 19 65 b7 bd 7e 97 5d 3d
       -0.047867026 0.029672584 -0.0895483 0.054099552
000040 70 1c f9 ba df 13 05 bc 54 33 64 bd e1 0f b1 bd
       -0.0019005667 -0.008122413 -0.055713013 -0.08645607
000050 a8 2c 1c bd 36 31 26 bc ec 90 5d bd 1f f9 2c 3d
       -0.038128525 -0.010143569 -0.054093286 0.042229768
000060 0d 76 87 bc 13 91 41 3c d8 1f c7 bd c3 d6 e6 3c
       -0.016535783 0.011814374 -0.097228706 0.028178578
000070 8b 8c 53 bd 08 56 9e bd 77 a8 30 bd 22 9d be bd
       -0.051647704 -0.07731253 -0.04312941 -0.093073145
000080 5a 09 9e bd 8b 62 9b 3d 4b 80 ad 3d 67 ea 8d bd
       -0.077166274 0.07587155 0.084717356 -0.06929474
000090 46 06 b4 3c 51 ce 57 bd c1 eb c8 3d 80 4e 7b 3d
       0.021975648 -0.052686993 0.098105915 0.06135416
0000a0 dd 67 28 3d e1 85 aa bd 2e 05 4a bd 8c fc bb bc
       0.041114677 -0.083263166 -0.049321346 -0.022947572
0000b0 fe 64 bb bd a8 1b 73 bd 18 a5 df 3c f9 bb a7 bd
       -0.09150122 -0.059352547 0.027300403 -0.0819015
0000c0 41 7b dd 3c b3 e3 88 bb ff ba 87 bb 2b 8e f8 bc
       0.027036311 -0.0041775345 -0.0041421647 -0.030341228
0000d0 79 01 62 bd d8 d7 be bd 7c 37 91 bd 18 ae 9f 3d
       -0.055177186 -0.09318513 -0.07090661 0.077968776
0000e0 c7 e2 e9 bb 6f 89 cf 3d 00 be d1 3b 73 3f 2c bc
       -0.0071376297 0.10133635 0.0064008236 -0.010513174
0000f0 05 c2 79 3d c2 00 c5 bd 72 65 82 bd 97 64 69 3d
       0.060976047 -0.09619285 -0.063670054 0.056980696

encoder.7.weight f4 [64]
000000 0c a0 7d 3f 21 d2 7d 3f fc 2a 80 3f 2b cf 80 3f
       0.9907234 0.99148756 1.0013118 1.0063223
000010 80 12 81 3f 46 27 81 3f 21 7f 7e 3f 2e 9d 7f 3f
       1.0083771 1.009011 0.99412733 0.9984921
000020 05 40 80 3f 82 41 80 3f 6e 40 7e 3f 10 b7 7e 3f
       1.0019537 1.0019991 0.9931706 0.9949808
000030 9c 01 7e 3f d9 ad 7e 3f 1c b9 80 3f fc cb 7d 3f
       0.99221206 0.9948402 1.0056491 0.9913938
000040 d5 24 7f 3f 6c 05 80 3f 41 df 80 3f 24 4f 80 3f
       0.99665576 1.0001655 1.0068132 1.0024152
000050 e2 99 80 3f 32 fa 80 3f 3a 24 80 3f aa 3f 7d 3f
       1.0046961 1.0076354 1.0011055 0.9892527
000060 ea d3 80 3f 0f 1a 81 3f b7 3a 7e 3f 14 51 7f 3f
       1.0064671 1.0086077 0.9930834 0.9973309
000070 22 26 80 3f 75 fb 7f 3f 64 68 7d 3f 87 e7 7f 3f
       1.0011637 0.9999307 0.9898741 0.9996266
000080 5c 78 7d 3f 7f 57 80 3f 53 15 81 3f 61 62 7d 3f
       0.9901178 1.0026702 1.0084633 0.9897824
000090 f7 fc 7e 3f 5a 7a 80 3f 87 78 80 3f 75 99 80 3f
       0.99604744 1.0037339 1.0036782 1.0046831
0000a0 8c 06 7f 3f 97 11 80 3f 8a 09 7e 3f 50 3f 80 3f
       0.99619365 1.0005368 0.99233305 1.0019321
0000b0 12 37 7e 3f 0a dd 7d 3f 57 5b 81 3f 17 19 81 3f
       0.9930278 0.99165404 1.0106 1.0085782
0000c0 f0 e0 7e 3f 16 4c 81 3f 3f ea 7e 3f 1a f0 80 3f
       0.9956198 1.0101345 0.9957618 1.0073273
0000d0 1f 0d 7f 3f 9f dd 7d 3f b3 51 80 3f 54 ae 81 3f
       0.99629396 0.9916629 1.0024933 1.0131326
0000e0 f2 b9 80 3f eb 97 80 3f 47 44 80 3f fb ee 7f 3f
       1.0056746 1.0046362 1.0020837 0.9997403
0000f0 b3 42 7f 3f 12 8b 80 3f 56 01 7e 3f 99 66 7d 3f
       0.9971115 1.0042441 0.9922079 0.98984677

encoder.7.bias f4 [64]
000000 01 f6 0c bc aa e5 2f ba 55 f5 37 ba 3e d9 b9 3b
       -0.008603574 -0.0006709943 -0.00070174533 0.0056716492
000010 3f a3 27 3b c9 ee 26 3c 82 d7 c2 bb da 01 88 3a
       0.002557948 0.010188767 -0.0059461007 0.0010376528
000020 55 7a 80 bb 1c 87 5a 3b 2b e4 d4 bb 88 19 3a bb
       -0.003920833 0.0033344692 -0.0064969263 -0.0028396565
000030 f0 5f 13 bc ef f0 a6 bb 32 93 de 3b 4d ae 13 bc
       -0.008995041 -0.0050946395 0.0067924494 -0.0090137245
000040 b5 46 c2 bb b9 a4 7b 3b dd c1 fd 3b ff ca 0e bc
       -0.005928839 0.0038397743 0.0077440576 -0.00871539
000050 b5 9f c6 3b 4f 5e f6 3b be 32 bf 39 06 ba 84 bb
       0.006061519 0.0075185667 0.00036468165 -0.004050496
000060 5b b7 d4 3b ea 5b 13 3c 00 83 42 bb 4f 7f 0d bb
       0.0064915842 0.008994082 -0.0029680133 -0.0021590774
000070 41 ae 5b bb ae 22 98 3a b2 82 13 3b 63 0b 6a ba
       -0.0033520611 0.0011607015 0.002250832 -0.00089280884
000080 0b be fe bb 0f 12 25 3b fb 44 0a 3c 41 03 08 bc
       -0.0077741197 0.0025187766 0.008439298 -0.008301557
000090 eb da ad 3b 39 20 dc 3b 56 de 60 3b 54 39 60 3b
       0.005305638 0.0067177084 0.003431221 0.0034213858
0000a0 36 12 8c bb 3d 77 ba 3a 9c ae 01 bc 79 68 3f 3a
       -0.004274632 0.001422621 -0.007915165 0.00073016394
0000b0 a1 f3 e2 bb 0d 13 09 bc cb 6b c3 3b 01 59 1b 3c
       -0.0069260155 -0.0083663585 0.0059637777 0.009481669
0000c0 a1 d3 78 bb 97 7a 41 bb ef 3d 79 3b d0 e9 f6 3b
       -0.0037967938 -0.0029522532 0.00380313 0.007535197
0000d0 20 69 7f bb 39 d6 41 3b 88 c0 1f 3b 88 24 7e b9
       -0.0038972571 0.002957715 0.0024376232 -0.00024236937
0000e0 6c 5f 50 3b 8f 80 12 3c ef b6 9f 3b 7d 21 14 3c
       0.0031795157 0.008941784 0.0048741023 0.009041187
0000f0 40 7f 36 bb b9 8c a5 3a d1 e7 08 bc 47 07 25 bc
       -0.0027846843 0.001263044 -0.008356051 -0.010072536

encoder.7.running_mean f4 [64]
000000 d5 6b 4f bd 3b 39 61 bc 08 4f 64 bd 23 b2 8e be
       -0.050639946 -0.013746555 -0.055739433 -0.27870283
000010 2f e3 27 3e e4 af ad 3e 2b 3b 0d bf a6 bb 81 be
       0.16395257 0.33923256 -0.5516841 -0.25338477
000020 0c 8c 9c bd 09 40 8a 3e 83 df 2d be 02 b9 bc 3e
       -0.07643899 0.2700198 -0.16979794 0.368599
000030 94 86 02 3e c3 36 c6 3c 52 60 4a 3c 3b ae 25 bd
       0.1274665 0.024196034 0.012352066 -0.040449362
000040 6b c8 6c 3e e4 f9 97 be b1 03 0e be 60 1a 94 be
       0.23123328 -0.2968284 -0.13868596 -0.28926373
000050 bd 64 0f bd 08 27 c2 bd bf 7e fe bb 6f 4a 65 bd
       -0.03500818 -0.09480101 -0.007766574 -0.05597919
000060 01 97 35 3e be 53 61 3e 3a e8 8f bd 60 62 b6 bd
       0.17733385 0.22004601 -0.070267156 -0.08905482
000070 86 8c 27 be 5d 48 32 bf 49 f6 d1 bd 33 d8 22 3e
       -0.16362199 -0.6964167 -0.10252053 0.15902786
000080 53 31 61 be 29 33 b0 3e a4 a4 1f 3d b7 3b 83 3e
       -0.21991472 0.34414032 0.038975373 0.25631496
000090 a5 1c ce 3e 9f 4f 24 bc 83 d8 5c 3e 1e 3a c8 bd
       0.4025623 -0.010028749 0.21566968 -0.0977671
0000a0 47 2a 3b 3e 57 43 12 3e 47 de 6e bd 70 bd 69 bd
       0.18277846 0.142835 -0.05831745 -0.057065427
0000b0 3c 75 4a 3c 67 3a f0 be ab e9 78 bd 17 00 8c be
       0.012357052 -0.46919557 -0.06076972 -0.2734382
0000c0 73 5f c6 3c e8 f2 12 bd db 05 bb 3e 9c c5 ab 3d
       0.024215436 -0.035876185 0.36527905 0.083873
0000d0 16 8c 28 3e 24 a2 e5 ba c0 7b 7e be 52 59 5b 3d
       0.16459689 -0.0017519635 -0.24851894 0.05355198
0000e0 b3 9a 2a be 3d 85 b2 bc 3f f8 7a bc 34 81 2a bc
       -0.16660576 -0.021792049 -0.015317976 -0.010406781
0000f0 0d d1 6d 3e 31 c7 b9 bb e1 97 17 bd f9 16 f8 bd
       0.23224278 -0.0056694974 -0.037010077 -0.12113757

encoder.7.running_var f4 [64]
000000 c2 d8 a9 3e af 4d 0f 3f 4d cd ea 3d 50 f9 d0 3d
       0.33173186 0.5597791 0.11464939 0.102038026
000010 8d db d8 3d 64 69 d2 3d 27 b8 99 3d 34 98 d2 3d
       0.10588751 0.10274008 0.075058274 0.10282937
000020 0c d9 b8 3d df 7a 32 3e a5 61 0b 3f f2 bb 87 3e
       0.090257734 0.17429684 0.5444587 0.26510578
000030 ff d2 c7 3d e3 a6 d7 3d 26 ae 83 3e a6 c0 a5 3d
       0.09757041 0.10529878 0.25718802 0.080933854
000040 bd 91 05 3e 81 78 59 3e f4 48 a0 3e db 72 8a 3d
       0.13043876 0.21237375 0.3130566 0.06760188
000050 59 00 30 3e dd 61 6a 3e c3 96 2b 3e 9d a2 f1 3d
       0.17187633 0.22888894 0.1675673 0.11798594
000060 9d b7 81 3e 41 e8 a4 3e ff 7e 2c 3e f9 61 02 3e
       0.25335398 0.32208446 0.1684532 0.12732686
000070 34 46 eb 3d a0 8b 4e 3f 21 5b 79 3e a5 68 5b 3e
       0.114879996 0.806818 0.24351169 0.21426637
000080 d8 0b 6e 3d 58 fe a2 3e 97 ff a5 3e 24 33 e7 3d
       0.058116764 0.31834674 0.32421562 0.11289051
000090 84 09 d0 3e 6c 96 f4 3e 1c 2d a1 3d af e2 59 3e
       0.4063226 0.47771013 0.07869932 0.21277879
0000a0 bc 89 9c 3e ab 1d 91 3e c4 41 80 3e 71 0a bb 3e
       0.30573833 0.28342947 0.25050175 0.36531404
0000b0 d7 dd e8 3d b9 08 95 3e 8e bd 2a 3e 61 a8 a3 3e
       0.113704376 0.29108217 0.16673872 0.319644
0000c0 64 29 24 3e 0e 15 a4 3d 40 72 93 3d 61 67 ad 3e
       0.16031414 0.08011828 0.07199526 0.33867934
0000d0 47 00 8a 3e 66 08 4c 3e ac 16 f1 3d 0e 12 bd 3d
       0.26953337 0.19925079 0.117719024 0.09231959
0000e0 09 b4 c2 3d a1 36 94 3e e6 7e b9 3e f1 6b b6 3e
       0.09506995 0.2894793 0.36229628 0.35629228
0000f0 4a e3 92 3e 5d 16 56 3e c1 9a d1 3d 69 2d 16 3e
       0.28689033 0.20906968 0.10234595 0.1466576

encoder.9.weight f4 [16, 64, 3]
000000 08 ea 12 bc e2 8b 86 3d 64 50 ee 3a b8 f8 6f 3d
       -0.00896693 0.06569649 0.0018181917 0.058586806
000010 19 8a 24 3c 6b 5b 70 3c 09 50 51 bd 59 67 82 bc
       0.010042691 0.014670233 -0.051101718 -0.01591842
000020 7b fe 3f 3c e4 40 e9 3c 8d db 9b 3b b2 78 a6 bc
       0.011718388 0.028473325 0.004756397 -0.020321224
000030 f3 41 d9 3b a2 e7 88 3d e6 8d 5a 3d 56 fe b7 3c
       0.006630176 0.066848055 0.05335798 0.022460144
000040 4a 93 3d bd f1 72 aa bc c3 1c 32 3d 49 8d 88 3d
       -0.046283044 -0.020806761 0.04348446 0.06667573
000050 17 7b 14 bd a5 67 e1 3c 95 4d c6 bc 55 02 45 3d
       -0.0362502 0.027515242 -0.024206916 0.048097927
000060 82 2f d8 bb f2 0e 54 bd 20 06 84 bd c8 df 9a 3b
       -0.0065974602 -0.051772065 -0.06446481 0.004726384
000070 17 bc f3 3c eb 64 0f bd 12 c4 4b 3d f9 50 db 3c
       0.029752774 -0.035008352 0.049747534 0.02677201
000080 b0 cb 13 3d 69 67 1e 3d 50 8c 81 bd 3f 2e 93 bb
       0.036082923 0.03867284 -0.063255906 -0.004491597
000090 a1 88 38 3d 9c 85 2e 3d 89 23 6c bd a0 71 05 bd
       0.045052174 0.04260789 -0.057651076 -0.032579064
0000a0 06 b1 79 3d 2f eb 54 bd 4f be 3c 3d 32 4e b2 bc
       0.06095984 -0.0519821 0.04607993 -0.021765802
0000b0 68 48 21 bb 27 86 e9 3c 0b 73 41 3c 85 c1 5b bd
       -0.0024609808 0.028506352 0.011807214 -0.05365135
0000c0 2f 9f f8 3c bc 60 66 bd 80 99 f4 bc 77 ed a3 bb
       0.030349342 -0.056244597 -0.02985835 -0.0050026732
0000d0 8f 3f e1 bb 1b bc 79 3d 03 fb 3e bd 79 05 57 3d
       -0.006874032 0.060970407 -0.046626102 0.052495454
0000e0 fd ab dc 3c ba 30 bf 3c 33 38 34 3d 37 af 5a bd
       0.02693748 0.023338664 0.04399891 -0.053389754
0000f0 f6 75 8c bd af 62 a6 bb 40 40 ef 3c 16 35 ca 3c
       -0.06858437 -0.005077682 0.029205441 0.024683516
000100 cd 7f 7b bb 1a 36 79 3d 40 e4 9c 3c 77 34 c3 3c
       -0.0038375736 0.06084261 0.019151807 0.023828728
000110 7e ef 2d bd c6 42 82 3c 32 01 10 bd a8 1f 86 bd
       -0.042464726 0.01590098 -0.03515739 -0.06549007
000120 96 e8 61 bd 25 72 52 bd cb cc 9b bc 04 5e bb bc
       -0.05515345 -0.051378388 -0.019018551 -0.022871979
000130 e7 a1 98 3d 2a 55 19 3d c5 22 58 bd 59 88 3b 3c
       0.074527554 0.037434734 -0.052767534 0.011446082
000140 7e b3 8d 3d 9d d4 b5 3b 50 a5 9d 3c 4b 09 e2 3c
       0.06919001 0.005549027 0.019243866 0.027592322
000150 ae 6c af bc 10 09 2e bd 08 7c b5 bc bc 98 22 bc
       -0.021414127 -0.04248911 -0.02215387 -0.00992411
000160 e7 d6 84 3d 16 ff 4e bd 3c 65 97 3c a5 7d a7 bc
       0.06486302 -0.050536238 0.01848089 -0.020445654
000170 83 e9 79 ba ea a6 1f 3b 49 c4 9e bc d4 d3 c7 3c
       -0.0009533392 0.0024360963 -0.019380705 0.024393
000180 cb 6f a6 3c fc 9e 0a bd 57 fc 50 3d 1f c3 91 3d
       0.020316979 -0.033843026 0.0510219 0.071172945
000190 7c 8b b8 bc 01 b6 b3 3c 0d 64 82 bc f9 7f 6f 3d
       -0.022527449 0.021937372 -0.015916849 0.058471654
0001a0 4c 55 25 3b 4f fe 93 bd a3 5b 06 3c 0a ab 5b 3d
       0.0025227843 -0.0722624 0.008200559 0.053629912
0001b0 f2 c2 19 3c 20 af 24 bc 64 63 c1 3b c6 5a 4b 3d
       0.0093848575 -0.010051519 0.005901741 0.049647115
0001c0 49 a3 8f 3d c3 46 26 bc 36 e9 2a 3d 47 e2 36 3d
       0.07013566 -0.010148707 0.041726314 0.04464939
0001d0 3d a3 8c 3d 61 7f 37 3d fe 1f 8b bd 63 80 89 bd
       0.06867073 0.044799212 -0.067932114 -0.06713941
0001e0 bc 17 53 bd 0c 88 5a 3d a5 c3 eb bc da ab 04 3d
       -0.051536307 0.0533524 -0.028779814 0.032390453
0001f0 60 6e 9a bc 08 b4 19 bd e8 f2 42 3d 12 56 b1 bc
       -0.018851459 -0.037525207 0.047594935 -0.021647487
000200 02 a6 3d bd ae 45 8e bc ea 55 5b bd ca 9f 9d bd
       -0.046300896 -0.01736721 -0.05354873 -0.07696493
000210 f3 a5 aa bb 03 9d 91 3b 53 d1 08 bd 14 93 69 3d
       -0.005207771 0.004443766 -0.033402752 0.05702503
000220 ff 5e c2 bc d5 57 d3 bc ae 9f 4c 3d 0a 2f a2 37
       -0.023726938 -0.025798718 0.04995697 1.933381e-05
000230 05 15 c9 bc ae 32 eb 3b c7 f9 96 bd bb 44 81 3d
       -0.024546156 0.0071776723 -0.0737186 0.063119374
000240 b8 bb 55 3c cd b7 8d 3c 69 a2 75 bd 51 d3 5f 3d
       0.013045244 0.017299557 -0.05996934 0.054644886
000250 c3 34 5e bd 30 63 b6 bc b6 eb 41 bd 02 49 e3 bc
       -0.054249536 -0.022264093 -0.047343932 -0.027744774
000260 03 4a a7 3c 8d 82 9f bd 48 5a a0 bd a9 42 1c 3c
       0.020421034 -0.077885725 -0.0782972 0.009537377
000270 bd a4 03 3d 67 46 0e 3c be 9a 9e bc 73 3b 9f bc
       0.03213953 0.008683777 -0.019360896 -0.019437527
000280 3f de af bc 28 60 3c bc 32 02 09 bd a6 d5 5e 3d
       -0.02146828 -0.011497535 -0.03344936 0.05440297
000290 38 cb b3 3c 19 22 42 bd 99 4b 21 bc df 84 40 bd
       0.021947488 -0.0473958 -0.009844684 -0.047001716
0002a0 3a 16 f0 bc 53 be 83 3d 10 da fb 3c 48 b1 c9 3c
       -0.029307473 0.06432786 0.030743629 0.024620667
0002b0 0d 4e 3e bc f5 85 de bc 7d b0 f3 39 84 65 76 bd
       -0.011615288 -0.027163485 0.00046480066 -0.060155407
0002c0 20 b9 a2 bd ad 11 79 3d 41 ba 61 3c 92 32 50 3d
       -0.07945466 0.060807873 0.013777317 0.050829478
0002d0 35 5e 37 3d 98 5a bd 3c 99 20 05 bd 12 6f 7b bb
       0.044767577 0.023114488 -0.03250179 -0.0038365764
0002e0 45 bf a1 3b 14 15 4a 3c eb b9 d0 3b 05 d3 4d bd
       0.004936131 0.012334127 0.0063698194 -0.050250072
0002f0 8f 3f 0d bd 65 e5 71 3d e6 16 30 3c 04 e5 ce bc
       -0.034484442 0.05905666 0.010747647 -0.025255688
000300 f3 fc 6d 3d 53 56 47 bc df a3 a5 bc a6 25 73 3d
       0.05810256 -0.012166577 -0.020219741 0.059362076
000310 b2 bb 40 bd 75 9f cc bc 4d 0d 83 3d f8 31 09 3b
       -0.047054 -0.024978379 0.06399021 0.0020934325
000320 03 1b a8 bc 6d a3 4f 3d 99 26 1f 3b 5c 0e 9c bd
       -0.020520693 0.050692964 0.002428448 -0.07619926
000330 dc bc 38 bd c4 58 13 bc 55 67 b7 3b c0 43 42 bd
       -0.045101985 -0.008993331 0.005597035 -0.047427893
000340 b9 c2 fe bc f3 aa bf 3c 87 6f 84 bd 39 ab 80 bd
       -0.03109871 0.023396945 -0.06466585 -0.06282658
000350 55 da bc 3c fa 1f de 3b 27 fb a1 bd dc 6a 92 bd
       0.023053328 0.0067787142 -0.07909232 -0.07149288
000360 b8 6e 8e 3d 87 02 a7 3d ea 46 b5 bc 4a 2d a7 3d
       0.06954712 0.08154779 -0.022128541 0.08162935
000370 e9 a8 71 3d d9 81 96 3d 74 e4 25 bd ee 3f de bc
       0.058998976 0.07348985 -0.040501073 -0.027130093
000380 31 79 08 3d e7 bd 06 3d 2c 6a 45 bd 97 6f 55 3d
       0.033318702 0.03289595 -0.048196957 0.052108373
000390 19 ba a3 3d 41 72 14 bd 93 d5 6c bd 66 b4 71 bd
       0.0799448 -0.036241774 -0.057820868 -0.059009932
0003a0 77 d3 14 bd e8 bc b6 bc 1e c0 4c bd 44 df 94 bd
       -0.03633448 -0.022306874 -0.049987905 -0.07269147
0003b0 f7 2c 13 3d 7e ac 79 3d 74 c4 50 3d 99 16 13 3d
       0.035931554 0.060955517 0.050968602 0.035910223
0003c0 9d 6d 28 3d 3f 16 95 bc 0b f6 46 bd b6 06 0b bd
       0.04112016 -0.018199084 -0.04857449 -0.033941947
0003d0 a1 79 2d 3d 92 c2 ce 3c b9 75 51 b9 69 ab 59 bd
       0.042352322 0.025239263 -0.00019975648 -0.053141985
0003e0 9b e8 2e bd ec 89 d3 bc c1 6c 61 bb d5 94 16 bc
       -0.0427023 -0.025822602 -0.0034397098 -0.009190758
0003f0 56 12 14 bb ae b6 08 bd 6c 4d 8d bc 05 80 57 bd
       -0.0022593937 -0.033377342 -0.017248832 -0.052612323

encoder.9.bias f4 [16]
000000 85 c0 5b 3d 1a 40 c7 3c 30 a9 75 bd 1b 07 1e 3d
       0.053650398 0.024322558 -0.059975803 0.038580995
000010 ef e6 93 3d 1c 98 5d bd a1 81 70 bc aa da 71 bd
       0.072217815 -0.05410014 -0.014679343 -0.059046425
000020 b3 01 47 3d 4b fe 11 3d 15 67 56 3d 0c 66 9e 3c
       0.048585605 0.035642903 0.0523444 0.01933577
000030 6b 5f 49 bc b6 5d c3 bb d5 7f 62 bd 53 11 38 3d
       -0.012290816 -0.005962099 -0.05529769 0.044938397

encoder.10.weight f4 [16]
000000 f1 52 80 3f 79 74 7e 3f fc ae 7d 3f 7e 43 81 3f
       1.0025312 0.99396473 0.9909513 1.0098722
000010 9a 04 81 3f f0 9f 80 3f 7d c8 7c 3f f2 d3 80 3f
       1.0079529 1.0048809 0.9874342 1.006468
000020 34 cf 7e 3f 39 b0 7e 3f da 67 81 3f 63 3d 7e 3f
       0.99534917 0.99487644 1.0109818 0.9931242
000030 60 fb 80 3f 5a 89 81 3f 0d 1f 7e 3f 9f 8c 7e 3f
       1.0076714 1.0120041 0.9926613 0.9943332

encoder.10.bias f4 [16]
000000 f4 8c c9 bb d9 04 07 bc a2 88 13 bc e9 a1 d8 3b
       -0.006150836 -0.008240902 -0.009004744 0.006611098
000010 8c 90 fe 3b dc 6c 0f 3c 28 48 3f bc 5d 1b e4 3b
       0.007768696 0.008753981 -0.011674918 0.00696127
000020 0a 38 c9 bb ae d2 c2 bb 04 95 30 3c 62 1b da bb
       -0.0061407136 -0.005945525 0.010777716 -0.0066560963
000030 a4 39 35 3c 4a 36 32 3c f5 07 0c bc a9 ab dd ba
       0.011061106 0.010877201 -0.008546819 -0.0016912121

encoder.10.running_mean f4 [16]
000000 27 a8 b0 3d fb 43 1b 3d 2c f0 a3 3e 57 51 8b 3d
       0.086258225 0.037906628 0.32019174 0.06802624
000010 9a 32 a8 3d 60 06 5d be 56 31 84 3c 7e 53 95 3e
       0.082127765 -0.21584463 0.016136806 0.29165262
000020 98 97 1a 3e da b8 ee 3d 2b 5b 86 3b 92 d7 cd 3c
       0.15096891 0.116563514 0.0041002235 0.025127206
000030 d7 3f 40 be 76 21 97 be c4 06 23 be f0 5a 52 bd
       -0.18774353 -0.29517716 -0.1592055 -0.051356256

encoder.10.running_var f4 [16]
000000 5d 02 18 3f 6f b9 3c 3f 9c 5e 9e 3e 31 7c 17 3e
       0.59378606 0.7372045 0.30931556 0.14793469
000010 25 bc 94 3e ab d8 9f 3f 3b b1 81 3e 17 fe 2d 3e
       0.29049793 1.2487997 0.2533053 0.16991459
000020 07 ef 1a 3e 95 86 9e 3e 26 a1 9a 3e 14 fa a6 3e
       0.15130244 0.30962053 0.30201072 0.3261267
000030 7b 12 6e 3f 09 30 87 3f f0 6c b5 3e 45 f2 74 3e
       0.9299695 1.0561534 0.35434675 0.23920543

decoder.0.weight f4 [64, 16, 3]
000000 7d 83 46 bd d0 a9 b9 3c 90 af ad bb 16 7f 00 3d
       -0.04846524 0.02266398 -0.0053004697 0.0313712
000010 d2 f9 fc bd 13 97 ed bc 32 36 8e 3d 85 f1 e8 bd
       -0.12352337 -0.029002702 0.06943931 -0.11374191
000020 0d f8 70 bd 8d 87 90 bd 4b 1a e3 bd 56 1b 08 3e
       -0.05883031 -0.07057104 -0.11088999 0.13291678
000030 fa b4 08 3e 7a 2c c9 3d 1f dc e4 bd a8 af 87 3b
       0.13350287 0.09822936 -0.11174797 0.004140813
000040 6a 12 01 3d 06 ba 91 3d 8e 6a 26 3d 22 e2 b4 bd
       0.0315117 0.07115559 0.040628962 -0.08832194
000050 21 31 8f 39 5b 02 f1 bd a1 5c 93 3d 48 98 c9 3d
       0.0002731169 -0.117680274 0.07195402 0.098434985
000060 a3 b6 32 bd ef c3 f5 bd c1 5c 7f bb d8 76 8a 3d
       -0.043631207 -0.12000262 -0.0038965198 0.06760949
000070 a9 9f ca bd 80 a8 5e 3d 33 07 d6 3d 1f 82 eb bd
       -0.09893734 0.054359913 0.10450592 -0.11499428
000080 f2 7f b0 3d 42 38 91 3d 01 0b 92 bd c0 32 09 3e
       0.08618154 0.070908085 -0.07131005 0.13398266
000090 4f 6c 9e bd 2f f9 ce 3d ff 5c f6 bd d8 58 dc 3d
       -0.07735502 0.10106122 -0.12029456 0.10759133
0000a0 6e 2a 27 bd 1b 1a 0a be 46 7c a5 3d f5 69 ae bb
       -0.04081195 -0.13486521 0.08080344 -0.0053226897
0000b0 7b 0a 41 3d 14 6e 86 3d 6c f8 52 3b 2f 75 20 3d
       0.047129136 0.065639645 0.0032191528 0.039174255
0000c0 47 bc fa bd 01 24 f2 bd 92 84 82 bd 87 f0 a9 bd
       -0.12242942 -0.118232735 -0.06372942 -0.0829783
0000d0 8d 4d 0f be 29 c6 cc 3c ab bd 51 bc 23 f2 3d bd
       -0.13994427 0.024996834 -0.012801568 -0.046373498
0000e0 18 0f d9 bb 50 69 85 3d e2 ed 5a bd 97 7d 3d bb
       -0.006624114 0.065142274 -0.05344952 -0.0028913969
0000f0 33 f4 98 bb e2 b8 92 3d 5d ba a0 bc c7 bd 5a 3d
       -0.0046677827 0.0716417 -0.019620115 0.053403642
000100 b3 3b 82 bd b3 08 ca 3d 3e 6d 01 3d 83 cf 9c 3c
       -0.06359043 0.098649405 0.031598322 0.019141918
000110 31 f2 7f 3d 32 6b 19 be 79 67 6f 3d 60 6c ed 3d
       0.06248683 -0.14982298 0.05844829 0.115929365
000120 76 d2 c0 3d 36 2f b9 3d ff a3 f9 bd 06 9e 0e 3e
       0.09415142 0.09042208 -0.12189483 0.13927469
000130 15 5f 2d 3d b0 41 1b be 73 ba 01 3e 54 fe e4 3d
       0.042327005 -0.15161777 0.12668781 0.11181322
000140 19 74 03 bd 63 18 06 3e be 4f 84 bb 4d c2 ea 3d
       -0.03209314 0.1309524 -0.0040378263 0.11462841
000150 cd 8a 0b be cf 63 04 be fd 9c 32 3d 7d 42 6c bb
       -0.13627167 -0.12928699 0.043606747 -0.0036050372
000160 bd 4d f5 bd 54 76 9a bd d4 29 ae 3d 8d 91 d6 3d
       -0.11977718 -0.075421005 0.08504072 0.1047698
000170 fd ad f1 bd 9e 45 80 bd 65 0d 8d 3b 29 77 d7 3b
       -0.11800764 -0.062632784 0.0043045753 0.0065754843
000180 c0 53 e3 bd f3 47 e0 3d e4 1f cd bd f4 83 c2 3d
       -0.110999584 0.10951223 -0.10015848 0.09497824
000190 d2 0c c7 bd 55 00 1a be a7 80 30 3d 3c d1 7e bd
       -0.09719242 -0.15039189 0.043091442 -0.06221126
0001a0 46 3a d1 3d 2e 2b 30 bd 7a f0 7c 3c c4 86 e1 3d
       0.10216193 -0.04300993 0.015438193 0.11012033
0001b0 68 e2 b2 bd 22 58 54 bd 13 b1 d1 3d b9 f6 ee 3d
       -0.0873459 -0.051841862 0.10238852 0.11668152
0001c0 86 c5 a6 3c 71 ef d7 3d 40 85 ca 3d 5d e2 b5 3d
       0.020357858 0.10543717 0.09888697 0.08881066
0001d0 f5 b5 b9 3a 6b ae 15 3e ab b4 2a bd 6d e0 41 3c
       0.0014168607 0.14617316 -0.041676205 0.011833292
0001e0 54 d9 27 bd c0 1d 98 bb f9 f1 bc 3d d3 0d ec 3d
       -0.040978745 -0.0046422184 0.0922584 0.11526074
0001f0 b0 d3 d9 3c 6c ac cd 3d 24 8a c3 3d 78 5a 86 3d
       0.026590198 0.100426525 0.095478326 0.06560224
000200 c8 90 38 bd 07 61 a0 3d 17 4d f2 3d e5 90 e5 3d
       -0.04505995 0.078310065 0.1183111 0.11209277
000210 18 c0 2a 3d 83 b6 e2 3d 5e fa c0 bd 5a 8b 04 3d
       0.0416871 0.110699676 -0.09422754 0.03235946
000220 c0 b9 f8 bd 9c 9f a4 3d 81 f4 46 3a 6e 9d 05 bd
       -0.12144804 0.080382556 0.00075895345 -0.03262084
000230 e5 80 b1 3d 02 ed 9d bc f7 5a 81 3d 53 d8 a9 3d
       0.08667163 -0.019278053 0.06316178 0.08293214
000240 65 21 83 bd da f7 06 be 96 06 d5 3c c4 ff bc bd
       -0.06402854 -0.13180485 0.026004117 -0.09228471
000250 65 a9 c8 bd 95 05 b1 3d dc f7 02 3d ca c3 1f bd
       -0.097979344 0.08643643 0.03197466 -0.03900508
000260 92 34 1e bd a9 20 cc bd 21 e6 85 bd e9 25 9e 3c
       -0.038624354 -0.09967167 -0.06538034 0.019305186
000270 01 93 a7 bd 8b 70 01 be 22 0c 01 be 8f 0e 0b be
       -0.08182336 -0.12640588 -0.12602285 -0.13579772
000280 8f 4a 8f bd ce a9 25 3d 43 b2 86 bd 74 88 c4 3d
       -0.06996643 0.04044514 -0.065769695 0.09596339
000290 ca cf bf 3d dc 82 fc bd 9b ae 65 3d f7 a5 56 bd
       0.093658045 -0.12329647 0.05607472 -0.05240437
0002a0 66 58 fd 3d cd a7 c3 3d ad 13 a7 3d 45 bc 9f bd
       0.12370376 0.0955349 0.0815805 -0.077995814
0002b0 9c 54 38 3c e3 bf ca bd c3 96 9d 3c 0c 2b 0f 3e
       0.011250641 -0.09899881 0.019236928 0.13981265
0002c0 80 c2 02 bd dd f2 b8 bd a0 04 91 bd e4 3e 9c bd
       -0.03192377 -0.090306975 -0.0708096 -0.07629183
0002d0 d4 a5 7a 3d 89 1e bb bd 7d 86 b2 3d a9 13 95 3d
       0.061193302 -0.091366835 0.08717058 0.072791405
0002e0 24 44 9e 3d 03 d1 33 bc 19 a4 eb bc 45 da 60 3d
       0.077278405 -0.010975125 -0.028764771 0.054895658
0002f0 3f 5f be bc e4 0d 73 3d 96 95 9b 3c 89 f6 81 3d
       -0.023238776 0.05933942 0.018992227 0.06345851
000300 6d 6f 8c bd 28 9b c2 3d 32 b3 ff bc 66 35 b3 3d
       -0.0685719 0.0950225 -0.031213377 0.08750419
000310 ae b9 8a bb a4 a4 0c be b4 3d 18 bc c0 62 27 bd
       -0.0042335605 -0.1373468 -0.009292055 -0.04086566
000320 bc 11 93 bd 22 ba 6c bc 79 2d 81 bd ea 30 b4 3b
       -0.07181117 -0.014448674 -0.06307501 0.005498995
000330 4a 8a 50 bd 51 6e c7 bd c1 0d 3f 3d 4c 73 00 be
       -0.050913133 -0.09737838 0.046643976 -0.12543982
000340 f8 c9 f3 bd 9f 53 f6 bc 0d ea 70 bb c3 45 01 be
       -0.11903757 -0.03006917 -0.00367606 -0.12624268
000350 38 e6 a1 3d 68 ee 4e 3b ba 21 68 3d a4 c1 51 ba
       0.07905239 0.0031575207 0.05667279 -0.0008001572
000360 8b be f3 bc d0 cd 2f bd 67 0b d2 bc 25 e4 e3 bd
       -0.029753944 -0.042920887 -0.025640203 -0.111274995
000370 f2 34 85 3d 35 a7 34 3d 35 21 c4 3d b0 99 11 be
       0.06504239 0.044104774 0.09576646 -0.14218783
000380 35 be b3 bc f3 dc 81 bd 1a 4a 6c bb d6 82 63 3c
       -0.021941284 -0.06340971 -0.003605491 0.013886174
000390 b6 2f 61 bc f2 8a 81 bb 8d b1 85 bc 53 e1 2e 3d
       -0.013744285 -0.003953331 -0.016320014 0.042695355
0003a0 97 f2 91 bd ef d6 1d bc dd 85 82 3d 6e cf b6 3d
       -0.071263485 -0.009633764 0.06373189 0.08926283
0003b0 2c 0a 13 3c 73 11 25 bc 14 66 05 3d 21 01 95 3d
       0.008974593 -0.010074961 0.032568052 0.07275606
0003c0 77 f5 fb 3c 64 49 99 bd 91 7a f3 bd fa 76 73 3d
       0.030756695 -0.07484701 -0.11888612 0.059439637
0003d0 9d 84 90 bd 6c 96 20 3d 07 42 ec bd 05 10 a8 3d
       -0.07056544 0.039205953 -0.11536031 0.082061805
0003e0 6c 72 54 3d e0 1b aa bc 05 db d6 bd 4e de 51 bc
       0.051866934 -0.020765245 -0.104909934 -0.012809349
0003f0 30 9f ac 3d 69 1e e6 3d ee 2b ae 3a d9 3e 92 bb
       0.084288 0.11236269 0.0013288239 -0.0044630584

decoder.0.bias f4 [64]
000000 d3 b9 fe 3d 08 01 61 bd 07 3e bb 3d 49 4e 34 bd
       0.12437787 -0.054932624 0.0914269 -0.04401997
000010 27 46 a8 3d ee 3f fc bc 82 47 7f bd 75 6a 30 3d
       0.082165055 -0.030792203 -0.062324055 0.043070275
000020 85 f7 9d 3d 8d 8b dd bd 75 19 0d bc ca 35 fd 3c
       0.07713226 -0.10817633 -0.008612026 0.030909438
000030 01 f1 d2 3c 15 42 12 3e f3 46 00 be 2b 6d ff 3d
       0.025749685 0.14283021 -0.12527065 0.12471994
000040 93 fe 99 3d 71 e3 0a be c3 2e 65 bd 52 41 59 3d
       0.07519259 -0.13563325 -0.0559528 0.05304081
000050 88 45 d9 bd 55 1c 0b 3e 49 0a 5e bd 39 a2 61 3d
       -0.10608965 0.13585027 -0.054209027 0.05508635
000060 eb cf e9 3c c4 70 5b bd 2e 93 0b be fa 11 2d 3c
       0.028541526 -0.05357434 -0.13630363 0.010563368
000070 38 b7 f1 bd 76 77 02 bd e3 6c ff 3c 36 09 4c bd
       -0.11802524 -0.031852208 0.03117985 -0.04981347
000080 cd 03 a7 3d d9 1d 04 be 9b 09 e9 bd 9b bd 9f 3d
       0.08155022 -0.12902011 -0.11378785 0.07799836
000090 c7 b3 9b bd 31 c4 f5 3d f7 72 dd bc 78 0e c5 bc
       -0.07602649 0.12000311 -0.027032359 -0.02405475
0000a0 b9 ec 0c 3e 2d fb 7e bc 6f 1d ed bd 5c 7b 7c bd
       0.13762178 -0.015562815 -0.1157788 -0.061641082
0000b0 b0 3c 35 3d f3 c5 ca 3d 25 67 f8 3d b3 22 5a bd
       0.04424733 0.09901037 0.12129048 -0.053255748
0000c0 33 6c b1 3c dd fd d6 3d 0f 7c 6a bd 74 c4 0e 3c
       0.021658039 0.10497639 -0.057247218 0.00871383
0000d0 da 00 8e bd 87 04 a6 3c 9f c4 0f 3e 84 f9 fb 3d
       -0.06933756 0.02026583 0.14039849 0.12303451
0000e0 55 0f c0 bd f9 08 8f 3d 95 6a 0c 3e 6d 84 dc bc
       -0.09377924 0.06984133 0.13712533 -0.026918614
0000f0 d1 1f 4f 3d 53 73 04 be 81 13 a2 3d 05 04 e7 bc
       0.050567452 -0.12934618 0.07913876 -0.028200159
