data/models/autoencoder_epoch_20.pt (torch, 66986 bytes, 15 tensors)

encoder.0.weight f4 [16, 1, 5]
00000000: 6864 c73e df34 b7be a372 eb3e 6094 b23e
00000010: 278a b6be e660 a33e 131b 30be ff2d dabe
00000020: d0ff 68be eb63 413e 4d71 eb3d def0 dd3e
00000030: b7b3 c43d 78cf 0f3e 9273 87be f838 bcbe
00000040: f603 663e a120 18bd c9d2 8cbe 2e59 2c3e
00000050: 3809 bbbe d49f a83e 5059 15be 562b a2be
00000060: a884 c63d 81e0 bc3e 9784 49be 08a2 003e
00000070: da15 c43e 78e9 333e 9dc4 593e b97f e7bd
00000080: 6b6a ed3e cd94 a93e d7df b23e 9866 aa3e
00000090: 53ea b4bd 026a f53e 672c 40bd 525e c33e
000000a0: 243e f7bd 61e4 68be c5c8 4a3e e550 78be
000000b0: 28c1 9e3e fd11 14be 38f3 d1be 83cb 003e
000000c0: 3482 c8be 1483 503e 0df5 a13e 26a0 3d3e
000000d0: 6b3b f03e d1fb bd3e b080 c83d 66b0 e33c
000000e0: 4448 73be c8b7 9abd e48c b7be 2060 8f3e
000000f0: dadd 613e a149 f3bd 33c8 6cbe e79c 9bbe
00000100: ee64 763e 72d0 8a3d 3beb adbe da82 583e
00000110: 978d d43e 0700 f93d a2a4 bbbe a56f fb3e
00000120: 7adc 98be 103c 8c3e 0b1f d93e 2bb4 af3e
00000130: 76b6 3c3d 2f4a 21be 04c8 37be 27d8 73be
0.3894379 -0.35782525 0.45985898 0.34878826 -0.35652277 0.31909865 -0.17197828 -0.42613217
-0.22753835 0.18885772 0.1149622 0.4334783 0.096045904 0.14043987 -0.2645536 -0.36762214
0.22462448 -0.037140492 -0.27504566 0.16830894 -0.3653047 0.3293444 -0.14584851 -0.31673688
0.09693271 0.36890033 -0.19679485 0.1256181 0.3829792 0.1756953 0.21266408 -0.11303658
0.46370253 0.33121338 0.349364 0.33281398 -0.08833756 0.4793244 -0.046917345 0.38157898
-0.12072399 -0.2274337 0.1980315 -0.24249609 0.31006742 -0.14459987 -0.41005874 0.12577634
-0.39161837 0.20362502 0.3163227 0.18518123 0.46920332 0.37106183 0.0979017 0.027794074
-0.23758036 -0.07554585 -0.3584968 0.28003025 0.22057286 -0.11879278 -0.23123245 -0.30393144
0.24061939 0.06778039 -0.3396853 0.21143666 0.41514274 0.12158208 -0.36649042 0.49108616
-0.2985571 0.27389574 0.42406496 0.34317145 0.046072446 -0.15750955 -0.17947394 -0.23812924

encoder.0.bias f4 [16]
00000000: dcd7 b03e 985e 913e c5c6 ba3d bbba a93e
00000010: 02cd 01be 3128 073b ca6e 303e f1e1 063e
00000020: e99f 34bd 2b6d cf3e 9226 543e fdd3 e93c
00000030: 0906 823e 27f6 33bd 6007 0f3c 6c74 a83e
0.34539688 0.28392482 0.091199435 0.33150277 -0.1267586 0.0020623321 0.17229763 0.13172127
-0.044097815 0.40512976 0.20717838 0.028543467 0.2539523 -0.04393592 0.008729786 0.32901323

encoder.3.weight f4 [32, 16, 5]
00000000: 6ece 8a3d f1e6 483d 7d79 bf3c 7159 f43c
00000010: 5a62 e83c dc5a 8b3d 270e 01be 15c8 11bd
00000020: 05c3 d6bd c9e5 1b3d 2cd3 9e3d b0ea d83d
00000030: d0a0 a83d c300 123e 77d7 0b3e ee3a fb3c
00000040: 1970 a43d 8660 08bd 7ec0 7dbc 2696 f8bd
00000050: fcc5 d93d c8bd b43d c8b2 a53c 4879 c83d
00000060: d8dd ce3c 59ef f23d 4e97 303d 7c11 df3d
00000070: c416 f33d 4963 a7bc 0552 8bbc 5425 1e3e
00000080: 0086 dab7 08a5 17bc b644 463c 54f8 53bc
00000090: c3e7 f33d ed77 1b3e 5fda 72bb 6fd8 21bd
000000a0: 36b3 5d3d e710 a5bd b8c6 193d c0d8 91bc
000000b0: e75d 8ebd f882 e6bc 4475 6cbc f8d1 523d
000000c0: 0581 9fbd 22f8 a53d f219 17bd 78c4 de3d
000000d0: b062 16bd 7ce5 973b c1fd 42bd 00d8 adbc
000000e0: 0284 35bd edb8 423d 03fc 6dbd 6fbe b83d
000000f0: 9895 833d 6262 babd 7c94 4d3d a2d5 64bc
00000100: fd79 a43c 42c9 233d 714e d2bb 4a19 933d
00000110: fe89 b1bc 5500 13bc 6144 2b3e 58f3 763d
00000120: 0ffd f53d 8483 ef3d 4f3a 10bd 8d45 483d
00000130: b28a 90bd 50e7 d8bd 61a0 d0bd 1ec8 ba3d
00000140: 8f63 0e3e 59b8 053d d5a7 f6bc cfbe b53d
00000150: 88a0 c4bc ed3f 673d 22f2 c5bc 9695 9f3d
00000160: a1f6 8dbd 944a a5bd a5bb 0dbd 8784 a73d
00000170: c424 913d ccab 603d 9f6b e4bb 0a0a 02be
00000180: 1c0f bc3c 0d6b 983d 4999 97bd eae2 a4bd
00000190: 10be bd3c 6cc0 bc3d 0e43 9f3d f262 90bd
000001a0: 1a1d 81bd 28e7 d23c a876 073e e886 b83d
000001b0: c672 c03d 4ad1 c03b 38dc aa3d 94be a13c
000001c0: ab97 97bc d22e 3cbd 295f 23bd 5bf0 063d
000001d0: 29be 083e 7782 b23d e127 13bd 22f4 e83d
000001e0: 0ec6 2bbd 7bd5 8a39 7c26 00bd da42 babd
000001f0: 1286 9c3d 86aa 643c a517 81bd ab2e e7bc
00000200: 29cb 36bd f2b6 dc3d 39c0 273d 2110 9f3d
00000210: c19c 823d e4d1 2c3d c9dd 063e c7e0 813d
00000220: a6d6 99bd 39d2 4d3d eb59 dbbd 7e36 bc3c
00000230: 5f33 833d 4d9d 133d c7b4 723d 1eb3 44b9
00000240: 4704 833c 017e 123e f6ef 4e3d e33e ca3d
00000250: f1b3 d43d 9f89 bc3d e2a5 d33d da74 78bd
00000260: 34ef 4b3d daee 273b efec ed3d 9c57 52bd
00000270: 006b 573d 0414 dabd 205c e1bc f882 a73d
00000280: 780e 403c 5139 253c e5ef 22bd 4e76 d43d
00000290: 25ef f13d 7897 ec3c c4ee dc3b 97b0 9fbb
000002a0: 1d68 bdbd 1726 d9bd 3b56 aa3d 0b03 d73d
000002b0: 0529 e53d 5d48 173e d8e3 89bc 81c7 43bd
000002c0: e35c debd e72a 57bd 6f75 483d fa88 2abd
000002d0: 6d86 6abd fa34 35bd d4d3 203d 380a d3bd
000002e0: 0610 a1bd 9693 9e3c 73ca b23d 8c36 0c3d
000002f0: edd3 1a3e d259 6a3d 5162 4b3c 082f cb3d
00000300: 355a e83d 3da9 d9bb 90da 733d d7aa 883d
00000310: 8336 833d 7ea9 263d 74a5 18bd 5d47 f13d
00000320: be45 0e3e b761 f73d 04ef a1bd 1860 213c
00000330: 1a32 3ebd a3e2 853d 8340 903d 1cd9 c03c
00000340: 0499 393a a5ca c8bd 5621 a13d e9bf adbc
00000350: 9acf 0e3e 70d3 9a3d 3015 703c 9ad9 ac3d
00000360: 5bc2 9d3d b1ad c33d d736 e23c de08 293d
00000370: dfcc 633c 0395 063d 0c76 463d 7401 d03d
00000380: d4e6 aeba ac1b f33c c2c7 fb3c 234f b53d
00000390: 5045 77bc 9d36 9ebc 32d5 913d 952f bc3d
000003a0: ffb1 163e fa3a 543d 3421 0f3e a752 ddbd
000003b0: 94eb 59bc 2b22 b63c a2b4 78bd df4b a03d
000003c0: 6ee4 d13d 56f0 f43d 1de6 e9bc 1f60 17bd
000003d0: bb36 c23d 7db0 413d 9819 f0bc 32c7 673d
000003e0: 4738 b13d 46bb 373d 91dd e83c 0e9f 513d
000003f0: ab29 aabd 5ecd 14bd 3a73 263c 0319 a33d
0.067776546 0.049048368 0.02337336 0.029827805 0.02836721 0.068044394 -0.12603055 -0.035591204
-0.10486416 0.038060937 0.077551216 0.10591638 0.082337976 0.14258103 0.13656412 0.030667748
0.080291934 -0.033295177 -0.015487788 -0.121380135 0.10633466 0.088252604 0.020226851 0.097887576
0.025252268 0.11862058 0.043113045 0.10892007 0.118695766 -0.020433085 -0.017006883 0.15443927
-2.6050024e-05 -0.009255655 0.012101343 -0.012937624 0.119094394 0.15182467 -0.003705643 -0.039513048
0.054125987 -0.080598645 0.03754303 -0.01780355 -0.06951504 -0.028138623 -0.014432255 0.051469773
-0.077882804 0.08103968 -0.036889978 0.10877317 -0.03671521 0.004635511 -0.04760528 -0.02122116
-0.044315346 0.04753964 -0.058101665 0.09020697 0.06425017 -0.09100796 0.050190434 -0.01396695
0.0200777 0.039986856 -0.0064180424 0.07182558 -0.021672245 -0.008972247 0.16725303 0.060290664
0.12011158 0.116950065 -0.035211857 0.048894454 -0.07057704 -0.10590994 -0.1018684 0.091202006
0.13905166 0.03264651 -0.030109325 0.088742845 -0.024002329 0.05645745 -0.02416331 0.07792203
-0.06931806 -0.08070865 -0.03460278 0.081795745 0.070870906 0.05485134 -0.0069708372 -0.12699142
0.022956423 0.07442293 -0.07402284 -0.08051093 0.023161918 0.09216389 0.077764615 -0.07050122
-0.06304379 0.02574499 0.13228858 0.09010106 0.09396891 0.005884324 0.08342785 0.019744195
-0.018504938 -0.04594309 -0.039885674 0.032944065 0.1335379 0.087162904 -0.035926703 0.1137469
-0.041936927 0.00026480466 -0.0312867 -0.09094782 0.076427594 0.013956672 -0.06303338 -0.028220495
-0.044627342 0.107770815 0.040954802 0.07766748 0.06377555 0.042192355 0.13170542 0.06341701
-0.07511644 0.050249312 -0.1071051 0.022975203 0.06406283 0.036038686 0.059254434 -0.00018758743
0.01599325 0.14305879 0.050521813 0.09875276 0.103858836 0.09205937 0.10334374 -0.060658313
0.04978867 0.0025624544 0.11617457 -0.051353082 0.052592278 -0.10648349 -0.027509749 0.08179277
0.0117222 0.010084466 -0.039779563 0.10374127 0.11813191 0.02888082 0.0067423303 -0.004873346
-0.09248374 -0.10602968 0.083172284 0.10498627 0.111894645 0.14773698 -0.016832277 -0.047797684
-0.108575605 -0.05253115 0.04894012 -0.041634537 -0.057257105 -0.044239976 0.039264515 -0.103046834
-0.07864384 0.019357484 0.087300204 0.034231707 0.15119906 0.057214566 0.012413577 0.0992108
0.113453306 -0.006642489 0.05953461 0.0667321 0.06406882 0.040688984 -0.037267163 0.117811896
0.13893792 0.120791845 -0.07906917 0.009849571 -0.0464345 0.06537368 0.07043555 0.023541026
0.0007079991 -0.098042764 0.078676865 -0.021209674 0.13946381 0.0755986 0.014653489 0.08439942
0.07703086 0.095546134 0.02761404 0.041268222 0.013903826 0.032856952 0.048452422 0.10156527
-0.0013343939 0.02967628 0.0307349 0.08852985 -0.015092209 -0.019313151 0.07120742 0.09188763
0.14716338 0.051814057 0.1397751 -0.1080678 -0.013300795 0.02223309 -0.06071914 0.07826971
0.10248648 0.11959903 -0.02855211 -0.036956903 0.09483095 0.047287453 -0.029309079 0.05658645
0.08653312 0.044856332 0.028425964 0.051177077 -0.08308729 -0.036328666 0.010159308 0.07963755

encoder.3.bias f4 [32]
00000000: d046 edbc d47c af3c 0949 df3d 9855 033d
00000010: 98c2 983d f4a1 f43d 3824 9bbd 4687 7f3d
00000020: 0005 a0bd 41b5 6bbd 4584 7cbd 365c d13d
00000030: 365b 1abc 911d 8c3d f705 3f3d 3e32 2d3d
00000040: a43f 07bd 9235 bcbd 5d5c a83d d403 e73d
00000050: 3119 a13d 9bee a43d d6dc 64bd e8c7 303d
00000060: 346f b5bc 7536 953d 9815 f13d 98a7 c4bc
00000070: 8e02 97bd a48c 5cbd 0172 b6bb 82c5 d03c
-0.02896443 0.021421827 0.10902602 0.03206405 0.07458991 0.119449526 -0.075752676 0.062384866
-0.07813454 -0.057545904 -0.06164958 0.10222666 -0.00942116 0.06841577 0.046636548 0.042284243
-0.033019677 -0.09189905 0.08220742 0.11280027 0.07866133 0.08053323 -0.055874668 0.043159395
-0.022147752 0.072857775 0.11771697 -0.024005696 -0.07373534 -0.053845063 -0.0055677895 0.025484804

encoder.6.weight f4 [16, 32, 3]
00000000: 1a28 b23d 5554 c23d f535 3b3d f132 4cbd
00000010: 783b 13bd d69c f33d cca4 143e 67df a33d
00000020: f575 663d 0fbd 86bd f124 283d b2a8 713c
00000030: 4849 153e f30c 63bc d904 7c3d 6f44 a3bd
00000040: df24 01bd 6af1 a63c 702b 48bc f0c0 5cbd
00000050: 26dd 133c 1fcb 083e cb74 163a ce60 923d
00000060: 74f7 e2bc 2a23 86bc dd16 ebbc 7211 7c3d
00000070: 5834 103d 0009 c7bd c8b8 923d 02ff b23d
00000080: 2f0e 883a c15b 27bd f4e7 15bd 335d e3bc
00000090: a2bd 4c3d 1f01 d8ba ea9a 583d 7124 513d
000000a0: c582 32bd a8c0 02bc 5c94 023c 0138 b83d
000000b0: 395e 8d3d c662 9e39 dfc6 8dbc 860a ac3d
000000c0: c332 e83d 21e9 1c3d 599e c63c e417 babd
000000d0: 64bc c23d 20a7 863d c792 72bd 1907 b7bd
000000e0: 4ed9 993d 172b cabc fc43 a03d 35e4 34bb
000000f0: bfad 093d 7643 ef3d 6a44 0f3d c5c3 e63c
00000100: e86e 783d 76fb 0a3d a0db 153e 0cf8 e33c
00000110: c726 e33d a4ca c03d 5210 aabd 8689 953d
00000120: 2c7a e83d e5a7 1abd 3056 723d a6cc 10bd
00000130: ff37 6b3a b833 27bd f2a5 153e caa2 ec3c
00000140: b0cb 123e 8e88 873d 6418 6d3d 10eb 923d
00000150: 2594 8e3b 97d0 5f3d 5a93 aa3d 723a c9bc
00000160: 2afc 86bd 04d1 f33d 7b27 983c 6b04 db3d
00000170: 590b 0e3e 8507 e33d f258 75bd 8843 8c3d
00000180: 315d 93bd a4c3 95bc 6003 38bb f900 c5bd
00000190: 4032 6b3c ec8c c0bc b418 d9bc 0063 2f3a
000001a0: fe56 02bd 7280 cfbd 0067 59bc 0a86 0bbd
000001b0: b077 afbc 9cb2 83bd 28f5 633d f0a9 ba3d
000001c0: 32d3 8b3d 1cde c63d e890 0dbd d048 573c
000001d0: 2864 be3c 38b8 89bd 20e0 0bbb 585e ae3d
000001e0: 745f 663d 8430 0dbd 3c48 193d 359f cabd
000001f0: 7076 cd3d d699 b93d 7222 9cbd 8234 8e3d
00000200: e65a a6bd 1048 b9bd b2c6 1dbd 8e4e 1abd
00000210: 7794 babd ec64 fbbc ee6d 0ebd 02fe a53d
00000220: dacf b1bd 863a c83d 020f 3abd c40a 6f3d
00000230: 8305 37bd 14da 2d3d f5e0 b9bd 327a 28bd
00000240: c060 d9bb 9093 e4bb 1e6e 16bd 3604 05bd
00000250: 68ab 6c3c 8c7c 873c f8cc 233c d431 a23d
00000260: 6a9b 0abd 8ef8 a2bd 788b 033d 826e 09bd
00000270: d824 e93c d4a3 19bd 1081 d0bc 9c13 2dbd
00000280: ee35 c03d e028 95bb 285e c83d c1df b3bd
00000290: 4f40 9abd 3874 3d3d 7887 2e3c 1676 9b3d
000002a0: 6860 783c 0e34 c43d 200d c4bc c18b 34bd
000002b0: 189b 8c3d 78c5 923d 50a4 ab3d 2c66 3e3d
000002c0: e4cc b03d 3674 b7bd c84a 843d c884 a63c
000002d0: c0cb fb3c 705e e9bb 4658 93bd 80c6 74bb
000002e0: 28df fb3c 00bc 10b9 6a55 04bd 50ff 92bb
000002f0: e079 82bd 77e5 8cbd 18b7 923d 00ec 1439
00000300: 6bf0 513b fd5f a93d b6f8 ac3d 094f 19bd
00000310: 66e1 d23b 5a5a 983d 77b0 d53d 7687 ad3d
00000320: ca80 bc3d 75d5 f7bd 3d08 30bd d364 e9bd
00000330: d547 ca3c 3b53 28bd 5be8 93bc 0934 93bd
00000340: 8c7c 46bd 1acc 26bd 3086 963d 3a60 2abd
00000350: d078 a13d ec9e 1d3e e23e 9a3c 64b8 3a3d
00000360: 4ba2 60bd e019 633b 7cff 9d3c 684d 0d3c
00000370: 3023 b53d 6bed 873c 647f 333c 73f1 973d
00000380: a043 933d 5428 c23d 53d8 89bc 68eb a13d
00000390: 0004 c0bc 6272 5f3d 4967 39bc d2fd 0b3e
000003a0: 66bc 373d 43dd c23c e076 0f3e a80a 803d
000003b0: 48d1 853d 5773 893d 5ae1 1a3e d116 b3bc
000003c0: 271e 153e 1f21 103e b4cf 843d 5c8e 6c3d
000003d0: d239 9b3d cee6 a3bd 7c38 053d c887 e03c
000003e0: e404 6e3d eac8 a43c 49a2 e63d 1128 ff3c
000003f0: 5857 323d a6ac 813d 929b f73d fe9d 9a3d
0.08699055 0.09488741 0.045705754 -0.04985327 -0.035945386 0.118951485 0.1451599 0.08001595
0.056264836 -0.06579029 0.041050855 0.014749693 0.14578736 -0.013858068 0.06152806 -0.07972037
-0.031529304 0.020378787 -0.012217388 -0.053894937 0.009024894 0.13358735 0.00057394494 0.0714737
-0.027705885 -0.01637419 -0.028697425 0.061540075 0.03520617 -0.097185135 0.071641505 0.08740045
0.0010380204 -0.040858988 -0.03659816 -0.027754402 0.049985535 -0.0016479826 0.052882113 0.051060144
-0.043581743 -0.007980503 0.007969942 0.08995057 0.06902737 0.000302097 -0.017306743 0.08400445
0.11337807 0.038308267 0.024245428 -0.09086588 0.09508589 0.06574845 -0.05922201 -0.08936901
0.07512151 -0.02467875 0.07825467 -0.0027601842 0.033612963 0.11682789 0.034977354 0.028169522
0.060652643 0.033931218 0.14634562 0.027828239 0.110913806 0.09413651 -0.08303894 0.07301621
0.113514274 -0.037757773 0.059164226 -0.035351418 0.00089728826 -0.040820807 0.14614084 0.028886218
0.14335513 0.066178426 0.05788459 0.07173741 0.0043511563 0.054642286 0.08328886 -0.024564002
-0.06591065 0.11905101 0.018573513 0.10694202 0.13871516 0.110854186 -0.059899278 0.06848818
-0.07195509 -0.018281765 -0.0028078184 -0.09619326 0.014355242 -0.023504697 -0.026501037 0.00066904724
-0.031821243 -0.10131921 -0.013269186 -0.034063376 -0.021419376 -0.064305514 0.05565372 0.09114444
0.06827392 0.09710333 -0.03456202 0.013139918 0.023241118 -0.0672459 -0.0021343306 0.085140884
0.056243375 -0.034470096 0.037422404 -0.098936476 0.10032356 0.09062545 -0.076237574 0.06943609
-0.08122806 -0.09046948 -0.03851957 -0.03767257 -0.09110349 -0.030687772 -0.034772806 0.08105089
-0.08682223 0.097767875 -0.04542447 0.058359876 -0.04468299 0.042444304 -0.0907611 -0.04113216
-0.006633848 -0.0069755986 -0.03672611 -0.03247472 0.014445163 0.01653888 0.009997599 0.0791966
-0.03383962 -0.07957564 0.03211543 -0.033552654 0.028459951 -0.037509754 -0.025452167 -0.04225503
0.09385286 -0.004551992 0.09783584 -0.08782912 -0.07531797 0.046253413 0.010652415 0.075908825
0.015159704 0.09580241 -0.02393204 -0.044078592 0.06865519 0.071665704 0.083809495 0.046484157
0.0863283 -0.08957712 0.06459576 0.020326987 0.030736804 -0.0071218535 -0.07194571 -0.003734976
0.030746058 -0.00013802946 -0.03230802 -0.004486002 -0.06370902 -0.068797044 0.071638286 0.00014202297
0.003203417 0.082702614 0.08445875 -0.03742889 0.006435561 0.07439108 0.104340486 0.08473103
0.09204252 -0.121012606 -0.042976607 -0.11396184 0.024692455 -0.041095 -0.018055132 -0.07187659
-0.04845862 -0.04072199 0.07349813 -0.041595675 0.07884371 0.15392655 0.018828813 0.045586005
-0.054842275 0.0034652874 0.019286864 0.008624412 0.08844602 0.016592702 0.010955665 0.074191
0.07190633 0.09480348 -0.016826784 0.07906228 -0.023439407 0.054552443 -0.011316129 0.13671044
0.044857405 0.023787146 0.14010191 0.062520325 0.06534058 0.067114525 0.15125027 -0.021861466
0.14562283 0.14075135 0.06484929 0.057752952 0.07579388 -0.08003007 0.03252457 0.027408496
0.058110133 0.020115335 0.11261422 0.031147035 0.04354033 0.06331758 0.120902196 0.07549666

encoder.6.bias f4 [16]
00000000: 5246 693d 78b0 c1bc ef06 03bc 98db cd3c
00000010: d373 5ebb ba91 1bbd 6457 b8bd 8f58 863d
00000020: 2cda 42bc aa85 88bd d026 563d 20b5 44bd
00000030: c122 e23d 4b8a 1a3d 18d7 963d b54b 703d
0.05695183 -0.023643717 -0.007997259 0.025129125 -0.0033943548 -0.037980773 -0.090010434 0.0655986
-0.011892837 -0.066661194 0.05228311 -0.048024297 0.11041785 0.037729543 0.073652446 0.05866595

fc1.weight f4 [8, 400]
00000000: 9536 063d eaff 8e3d ce26 c03d 6c35 a33d
00000010: 2214 083d 5559 103d 8dea 293c 06c5 51ba
00000020: e85c 403c aec5 023d 137b 533d 05d7 bd3d
00000030: 22d5 d43c 8252 6f3d 0bab babc 1091 933c
00000040: f262 1e3d 8fbd eebc 9402 2f3c 1520 883d
00000050: 0c69 42bb 507a 8c3c 457e 913d 41bd 043d
00000060: fc0c f6bb c016 c8bb 5805 58bc 0bed 44bd
00000070: 14f0 1ebc c079 89bb c054 55bc d71f a3bc
00000080: e975 153d f5c8 0ebd 106e 46bd fae3 48bd
00000090: 8357 9fbc 478b d6bc 2aa3 febc 8428 86bc
000000a0: 68da 0dbd 54ce 2ebc 1daa 3dbd e5dd 3cbd
000000b0: 7945 3d3d 22c1 903c 46a7 0cbd fa52 dd3c
000000c0: e3aa 223d 42bf 30bd 86d9 973d ec63 9c3d
000000d0: 3017 da3c 49b3 463d 46f1 133d e085 3a3d
000000e0: 9e63 a93d db1d e83c abcc 00bc 6b8b f83c
000000f0: 974a ad3c 77ea e93c 6332 92bc da27 81bc
00000100: f61d 18bb 4339 ddbc c16c 57bc 27ca f93b
00000110: b2eb e9bc 9217 04bc d6ae 223c e92c 863d
00000120: a48d 1d3d 8937 a4bc da84 113d 9928 343d
00000130: cfa0 a9bc cb02 913d b620 c1bc 02d2 0f3d
00000140: b37e a23c 3ad0 773d 2057 b63c 820d 69bb
00000150: 8299 1b3d 07c8 4f3c b605 963c c50b 3bbb
00000160: 2231 11bc cda7 cc3c e5a2 783c 540f 6c39
00000170: 82ef 96bc cd19 383d 5a2d 293c 7ae1 933d
00000180: bc39 3b3c fb99 8c3d 7ebd 4c3d 16c8 b0bb
00000190: b51b b03d eb1c 663d e456 4e3d c179 af3a
000001a0: 58bb 033d a1c9 913d 3afc 903d 10c1 6a3c
000001b0: 4e11 7a3d 397b 40bb 168c 273d 35d5 6d3d
000001c0: 3dc7 923d 0421 553d 0b31 aabc f9c7 2abc
000001d0: 8601 613d 8e66 013d abdf 213d ba0f b5bb
000001e0: c3da a83b 71d7 9d3c 0aa7 2b3d 97e6 a13c
000001f0: d1b5 b7ba 4a37 2abd b906 3a3d 4255 f33c
00000200: eb15 1abd 26af b73c e9c5 2f3b 8bec 10bd
00000210: 86fe 743c ae41 7e3c ad3f b8bc de7e cb3c
00000220: 63c8 003d 7790 25bb e321 e2bc 852e ccbc
00000230: 1914 f1bc d6a5 013b d1b8 1ebd 16e1 b3bb
00000240: 3ea4 fcbc fde0 253d 6488 2dbd adbb 9b3a
00000250: 1528 fe3c 8f2f 923c 80f1 623b a80c 59bc
00000260: bd8a acbc 0d6f e2bc 00c7 ea39 6ae3 aebc
00000270: 93a3 33bd b07f 32bd aaa8 ebbc 7abf 9ebc
00000280: 33ba dcbc 3eaa bf3c 008a 4bbd 28e3 903b
00000290: e891 10bd 0068 ddbc a363 acbc 9b6e 143d
000002a0: f865 7fbc 3693 903c 8052 4dbc 8c0f 46bc
000002b0: 7f7e 1c3d 47bf 493d 7ae8 be3c 8e73 c03d
000002c0: 3fd9 de3c 284a 783d a627 2d3d 0098 243c
000002d0: c54e a83d 82dd af3d b62c 3f3c 9319 fd3c
000002e0: 5001 c73d 954c 473d 7e9e 363d 99b2 a33c
000002f0: 1e8f f03c dd7d 01bc 2149 50bb 9f4a 703d
00000300: 65d2 2e3d b90e abbb 8e76 af3d fc66 763d
00000310: a4e3 72b8 e5dd 913d 6924 5b3d 6ba8 9a3d
00000320: ee9e fdbc 98dd a43b 3586 05bd cebd 29bd
00000330: 6341 3e3d f6dd 9b3c 4aab b0bc bace 99bc
00000340: 238e aabc d86d 06bd 0037 383c 8881 6fbc
00000350: 901e 14bd 5cf3 5b3c f03e d1bc 0570 34bd
00000360: 33da debc 90b7 fabc 40ef 903a e598 26bd
00000370: e85c c73b d47f 693c ea3c dcbc 819b 393d
00000380: c031 a9ba 19da bf3b cb6b a63c aa2e 46ba
00000390: 3b72 10bd e083 aaba 161b 2dbc 3b0c a03b
000003a0: a429 a83c 3fbb 21bd 4e5e 343c 1849 3abd
000003b0: 9fed 14bd 2588 873d 81e4 113d fddb 2e3d
000003c0: 9df0 fabc 75fa 213d 641a abba 1b85 3fbb
000003d0: ed97 cd3c 6305 7a3c 47b3 67bb 6557 1bbd
000003e0: 3983 1b3d 11ac 63bc acd0 8f3d d1fe 313d
000003f0: 9226 cd3c 9418 3d3d c38e 9e3d 7c0f ab3d
0.032766897 0.069824055 0.093824014 0.07969174 0.033222325 0.035241444 0.010370863 -0.0008002076
0.011740901 0.031926803 0.051631045 0.09269527 0.025980536 0.058428295 -0.022786638 0.018013507
0.03866858 -0.029143123 0.010681767 0.06646744 -0.0029664664 0.017148167 0.07104162 0.03240705
-0.007508872 -0.0061062276 -0.013184868 -0.048077624 -0.009700794 -0.004195422 -0.013020694 -0.019912643
0.0364894 -0.034859616 -0.048444808 -0.04904554 -0.019450909 -0.02618946 -0.031083662 -0.016376741
-0.034632117 -0.01066931 -0.04630481 -0.046110053 0.046208832 0.017670218 -0.034339212 0.027017105
0.03971375 -0.043151148 0.07414536 0.07636246 0.026622385 0.048510823 0.03611877 0.04553783
0.082709536 0.028334549 -0.007861297 0.030339917 0.021153731 0.028554184 -0.017846292 -0.015766073
-0.0023211217 -0.027004844 -0.013148488 0.0076229754 -0.028554771 -0.00806226 0.009929379 0.06551535
0.038465157 -0.020046012 0.035527088 0.04398403 -0.020706562 0.07080611 -0.023575168 0.03511239
0.019835806 0.060501315 0.022258341 -0.003556103 0.037988193 0.012681968 0.01831327 -0.002854095
-0.008861812 0.024982357 0.015175556 0.00022512424 -0.018424753 0.04494648 0.010325754 0.072207406
0.011427339 0.06865307 0.0499854 -0.005394946 0.08599035 0.056179922 0.050375834 0.0013387726
0.032161087 0.07118536 0.070793584 0.014328256 0.06105166 -0.0029370321 0.04090508 0.05806466
0.07166908 0.05203344 -0.020775339 -0.010423654 0.054933093 0.031591944 0.039519947 -0.0055255564
0.0051530316 0.01926777 0.041907348 0.019763274 -0.0014015978 -0.041556634 0.045416567 0.02970374
-0.03761856 0.022422384 0.0026820845 -0.035381835 0.014953261 0.015518589 -0.0224913 0.024840768
0.031441104 -0.002526311 -0.02760405 -0.024924526 -0.029428529 0.0019782684 -0.038750473 -0.005489479
-0.030840036 0.04049777 -0.0423664 0.0011881493 0.031024972 0.017844943 0.0034628808 -0.013247646
-0.02106225 -0.027640844 0.00044780225 -0.021348674 -0.04385717 -0.043578804 -0.028766949 -0.019378413
-0.026944255 0.023396607 -0.049692154 0.0044216104 -0.035295397 -0.02702713 -0.021043604 0.036238294
-0.015588276 0.01764832 -0.012531877 -0.012088668 0.038206574 0.049254682 0.023304213 0.0939704
0.0272032 0.060617596 0.04227414 0.010046005 0.08218149 0.08587171 0.011668375 0.030895984
0.09717047 0.04865702 0.044584744 0.019982623 0.029365119 -0.007903543 -0.003178187 0.058664914
0.042681117 -0.005220261 0.085675344 0.060156807 -5.7909303e-05 0.07122401 0.05350152 0.075516544
-0.030959573 0.005031299 -0.032598693 -0.041440777 0.046449076 0.019026738 -0.021566052 -0.018775333
-0.02081973 -0.0328196 0.011243582 -0.014618285 -0.03616196 0.013424721 -0.025542706 -0.044052143
-0.027203655 -0.030605108 0.001105763 -0.040673155 0.0060840733 0.014251668 -0.026884515 0.045314316
-0.0012908503 0.0058548567 0.020315072 -0.0007560054 -0.03526519 -0.0013009273 -0.01056554 0.0048842705
0.020527668 -0.039485212 0.011008812 -0.045479864 -0.036359426 0.066177644 0.03561831 0.042690266
-0.030632311 0.039545495 -0.001305413 -0.0029223624 0.025096858 0.015260073 -0.003535466 -0.037925143
0.03796694 -0.013896004 0.07022223 0.043455902 0.025042806 0.046166018 0.077420734 0.08352563

fc1.bias f4 [8]
00000000: 1177 583d d732 ad3c 1913 0f3b b362 53bd
00000010: 9e56 4b3c 9cae 27bc d39d 213d 481b 4fbd
0.052847926 0.021142406 0.0021831451 -0.0516078 0.012410788 -0.010234501 0.039457154 -0.050563127

fc2.weight f4 [400, 8]
00000000: 81e9 8b3e 8bd3 993d b8e2 b9be a10e a2be
00000010: cc06 59be b109 433e 3bf5 ac3d ee1e 0abe
00000020: c5ad 643e 18d7 653e 90e6 983d 43ce 523e
00000030: 71d2 a23e e86c a43d b176 583d 0ca8 a6bd
00000040: 512a 943d edf1 53bd 2384 96be bf8c 803e
00000050: db4c 853e 96dc c3be 732e 10be d280 0a3e
00000060: 487e 333c 5706 f3bd 3a9b bdbe fb0a a13d
00000070: 3a71 2a3e b694 773c 999e e23c ecaa 73bd
00000080: 4769 a83e 60d8 eb3d 56c2 8dbc d9d0 81be
00000090: d8f5 883e 84ed 11be e918 653e ec5f 3abd
000000a0: e397 25bd 9c52 8cbe 5ecd 913e 181a 96be
000000b0: 7cc8 8c3e 9dc5 b7bc 77a1 443e c43f 783e
000000c0: 3a2f 143d 7416 15be aff9 aabe 4e8a 2d3e
000000d0: d1b2 a1be ced6 bfbd dfab 82bd 67a7 4bbe
000000e0: 9eb6 8dbe c428 81be 4833 ff3c baba a53e
000000f0: f719 843d 6f92 74be b315 a63e 878b b23d
00000100: 7ccf 233b ba4e 6bbe 0b3e dd3d 7189 8dbe
00000110: 2a0e 6a3d 6567 9abd d1a8 83bd 457a a4be
00000120: 9ec7 ccbd a3f8 213e 33e9 533e 9b09 c0be
00000130: c293 153e cca2 45be ac3b 743e d1d6 193b
00000140: ba8b d33d 927c 8abe 5bdd b3be ba6c 29be
00000150: 55b0 b53d 5cd2 3cbe 8eb1 9ebd 2cbb a0be
00000160: 90cc 443e f2c0 1ebe 6ad4 9cbe 567d e4bc
00000170: 3e40 b53d 6fcd a93b f07c 4fbe c533 e43d
00000180: 192d 17be 1665 52be 829d 3d3c c3d0 b0bd
00000190: 311f 91bd ded1 c0bd 01d6 a73e 5b84 ac3c
000001a0: b0d4 173e 591d 303e 8a6d 3fbe 1d94 403d
000001b0: 3f8e 243e 3ea9 b13e b559 143e e16a 253e
000001c0: ab0f 9d3d a9c1 873e 50f7 8abe 297d 723d
000001d0: cd4a 45be 9ec7 843e 8c26 46be f26b b0be
000001e0: ffc6 71be 1d45 64be 004c 5cbe 3474 a83e
000001f0: 3bd1 89be 2fd9 933e 8d13 5a3e 1265 80bd
00000200: 661c 763e 2339 7e3b 7c86 993e f1e3 7b3e
00000210: 7ea1 95be ff8e 573e 4181 66be ce27 eabd
00000220: 9e47 933e cb5a d5bd 16d0 b3be 5ee7 99be
00000230: c6b8 d7bc f6d7 143e 87a6 adbd 60fc 633e
00000240: da63 2fbe 559a aebe 2931 b8be a9ff c0bd
00000250: 694b 923e e045 5ebe 9f99 a1be a75f 26be
00000260: b6a0 eebd 7686 13be f3e7 8f3e 0d5b 603e
00000270: 191d 473e d270 403e 91e4 50be 2442 62bd
00000280: 7401 883e 5da6 afbe 8c7c 06be 03a4 a43e
00000290: 4ea3 15bd 9cca 1b3e 2aa4 a5be 1df1 97be
000002a0: 69f9 82be d8fb 87be 9c79 fcbd 6556 3f3e
000002b0: b33b 6f3e b2b3 96be bf85 20bd d16d 443e
000002c0: 1ef0 82be 2707 b6be 81ba 3a3e 477b 8dbe
000002d0: 083b 2b3e fa66 753e db23 2abe bf38 3f3e
000002e0: 0ce5 fe3c 32c0 46be 63f4 82be d217 993e
000002f0: da27 55bd 6bf8 9bbe 44d2 f33d e59c a43e
00000300: 5a61 6f3d 1a73 0c3e f788 0c3e d050 7fbc
00000310: 8cb2 5b3e 8f41 9b3e 3375 03be a91b 6e3d
00000320: f7f5 05be d491 603d 4c98 ae3e 9519 eebd
00000330: a488 443e 9003 bb3d 7533 22be e51e 9cbe
00000340: a730 22be f48c 423d 8b36 ac3e 66d0 863d
00000350: 30d2 733d e9da 94be f6dc 913d 1f00 b73e
00000360: 750f 0f3e 6bfc 95bd ea92 233e 4a2f d2bd
00000370: 5ac6 483e 621e 93bd e28e 94bd 4d04 cf3d
00000380: 9db9 70be ebd2 953d 65c3 5b3e 6d3e 3a3e
00000390: 028d 67bd 0722 3b3d 1579 ed3d 9f97 973e
000003a0: 760e 82b8 567c 8a3e bcbf babe f379 dc3d
000003b0: 0045 143d 8721 d4bc ac8b 1abe 04f9 9c3e
000003c0: d9f2 0cbe e5a3 9c3d 587c 883e 38c6 c03c
000003d0: bc12 1a3e 4737 a23e fafc 823c 6fbc 5bbe
000003e0: 0ad6 b53e e98e 693e 6874 50bd 9bb7 7bbe
000003f0: aaa1 b6bc ee86 abbe 4a09 de3c 3fa5 52be
0.27326587 0.07511052 -0.36305785 -0.31651786 -0.21193999 0.19046666 0.084452115 -0.13488361
0.22331913 0.22445333 0.07465851 0.20586495 0.3180118 0.08028585 0.052847568 -0.08137521
0.07234634 -0.05174439 -0.29397687 0.2510738 0.260352 -0.3825423 -0.14080219 0.13525704
0.010955401 -0.118664436 -0.3703249 0.078634225 0.16644755 0.015111139 0.027663516 -0.059489176
0.3289282 0.1151588 -0.01730458 -0.2535465 0.26750064 -0.14250761 0.22372784 -0.045501634
-0.040428054 -0.27406776 0.28476995 -0.29316783 0.27496707 -0.022433097 0.19202219 0.24243075
0.03617785 -0.14559346 -0.33393618 0.1694729 -0.3158174 -0.093671426 -0.06380438 -0.19888078
-0.27678388 -0.25226414 0.031152382 0.32369024 0.06450265 -0.23883985 0.3243843 0.08718019
0.0024995496 -0.2297925 0.108028494 -0.27643922 0.057142414 -0.07539252 -0.064286835 -0.32124534
-0.099990115 0.15817504 0.20694427 -0.37507328 0.14607146 -0.19300383 0.23850888 0.0023473988
0.10329385 -0.27048165 -0.35129818 -0.16545382 0.08871523 -0.1843962 -0.077487096 -0.313928
0.1921866 -0.1550329 -0.3063081 -0.027891796 0.08850144 0.0051819603 -0.20262504 0.11142687
-0.14763297 -0.20546374 0.011573197 -0.08633568 -0.070860274 -0.09415029 0.3278046 0.021059206
0.14827228 0.17198695 -0.1869413 0.04701625 0.16069888 0.34699434 0.14487346 0.16154052
0.07669004 0.26514938 -0.2714181 0.059201393 -0.19266815 0.25933546 -0.19350642 -0.34457356
-0.23611067 -0.2229199 -0.21513367 0.32901156 -0.26917443 0.28876635 0.2129652 -0.06269278
0.2403427 0.003879138 0.29985416 0.24598671 -0.2922477 0.21050642 -0.22510244 -0.114333734
0.28765577 -0.10417708 -0.35119694 -0.30059332 -0.026333224 0.14535508 -0.08479028 0.22264242
-0.17127934 -0.3410212 -0.35975006 -0.09423763 0.28573158 -0.21706343 -0.31562516 -0.16247426
-0.11651747 -0.14406762 0.2810665 0.21909733 0.19444694 0.18793038 -0.20399691 -0.055238858
0.2656361 -0.34306613 -0.13133448 0.3215638 -0.036532693 0.15214008 -0.3235181 -0.29676142
-0.2558091 -0.2655933 -0.12327883 0.186853 0.23362617 -0.29433972 -0.03919005 0.19182517
-0.2557382 -0.35552332 0.18235208 -0.27633116 0.16721737 0.23965064 -0.1661524 0.1867399
0.031115077 -0.19409254 -0.25577077 0.29900986 -0.05203996 -0.30462965 0.11905339 0.3215095
0.05844245 0.13715783 0.13724123 -0.015583232 0.21454829 0.30323455 -0.12837677 0.058131848
-0.1308211 0.054826573 0.34100568 -0.11625973 0.1919275 0.09131539 -0.15839942 -0.3049232
-0.15838872 0.047497705 0.33635363 0.065827176 0.059526622 -0.29073265 0.07122223 0.3574228
0.1397074 -0.073235355 0.15974012 -0.10262926 0.19606915 -0.071835294 -0.07253815 0.10108242
-0.23508306 0.0731562 0.21461256 0.18187876 -0.05653096 0.045686748 0.1159536 0.29607865
-6.2015766e-05 0.27047986 -0.36474407 0.107654475 0.036198616 -0.025894893 -0.15092343 0.30658734
-0.13764514 0.07648448 0.26657367 0.023532018 0.15046209 0.31682798 0.01598977 -0.214586
0.3551486 0.22808422 -0.050892264 -0.24581759 -0.022293884 -0.3350138 0.027104039 -0.20570849

fc2.bias f4 [400]
00000000: b2e0 fe3d 077e a43e 8b2f 95be aedd b9bd
00000010: d0a5 063e 281e 33be bf3b 8a3d 4b62 71be
00000020: 152a 26be a9c9 483e 771a b63e 1dff 5a3e
00000030: 2163 0b3e 8879 43bd 95fd f6bb 0cf0 bebe
00000040: f087 1b3e ac99 d43d a0d8 53be 4f94 95bd
00000050: 7cac 90be 60e3 5a3e 5d25 59be b6b6 aebd
00000060: fbe8 7cbe 3cf0 b3be cdad 75be 3b17 8c3e
00000070: 4e6c d33d c525 f43d d8d1 95be 5a29 983e
00000080: 304b 11be 4559 883e 9a2d 93be a3f7 3d3e
00000090: 7b29 323d 6c98 2bbe 0fc2 93bd 3318 9bbd
000000a0: d237 853d 5279 b33e a092 9a3e bfa9 a43e
000000b0: 3c4e 883d 54d9 f23a 5c74 1e3d 0c08 a43e
000000c0: 6674 f13d 711a 2cbe 0956 20be 2038 6e3d
000000d0: 4ef4 fa3d 72c0 a83e 0f08 273e a0aa 2dbd
000000e0: 8c0d ad3d e462 10be ea68 65be ea27 8a3e
000000f0: 5438 8b3e 2243 bb3d 5910 993e 5453 48bd
00000100: 8399 34bd 9ebc 93be db12 a03d 58ee ca3d
00000110: 36de 6d3c 2c3e 023d 67fe fc3d 216a abbd
00000120: 7efa 613e b2a9 bbbe 50a8 983e 3498 a73d
00000130: 5cf9 a63e f6e7 a73e f666 693e 41f2 69bd
00000140: b748 b6bd 31a2 8f3e aa02 5ebe e986 67be
00000150: 6dd5 b93c d9ae a3be f034 ed3d 434a c43d
00000160: 08e6 8bbe 9838 4cbe 4c5d 4abe 73e9 8fbe
00000170: 3672 84be ca4d 0cbd f535 9dbe c662 bbbc
00000180: 9c12 46be 295c a43e db31 a0be bc4d 313d
00000190: d08e 7e3e 8a02 263e 6bb9 b93e a835 643e
000001a0: af9d 6dbe 0c8c 0bbc e2f2 97bd d964 383e
000001b0: 8930 463c 31b4 913e f01e 883e 3f16 3a3e
000001c0: 9584 903e a957 673e f848 723e ad58 8ebc
000001d0: dac1 da3d 9c12 0b3e 22e1 a13e 30fe b9bd
000001e0: 00a3 5f3d 4a55 c1be 2510 393e 31c5 b9be
000001f0: a02c 943e 73d1 b73e c561 06be ef87 87be
00000200: 4ad0 6d3d b240 333e d213 193e e28c 92be
00000210: 010c f3bd c5e2 9d3e 6e57 c7bc eba4 9bbe
00000220: 03b9 77bd 4edc 6abe b42d 98be 6c78 67be
00000230: e4b1 e7bb 1bb4 7dbe 5f8a b7bd 6e33 7e3e
00000240: 0cbd 533e 4d4d b73e 5d26 04be 4f14 7abe
00000250: 3277 cdbd af62 843d 350c 1f3d b358 c7be
00000260: ac93 bebe 47f0 c2be 5208 533e b81a c2be
00000270: 47ed a03b 8180 733e f6ca 23be fc2f 1e3e
00000280: 404f adbe aad6 00be e648 d9bd 8756 a1be
00000290: 60e1 98bd 721f 193e f398 a7be 9388 75be
000002a0: b222 8ebe f734 1b3e 225f 183e bdf4 9abe
000002b0: d710 6abe 3a2d 383e 6910 923c b12e a23e
000002c0: fcfc b0be 8bb8 5c3e 35c5 80be 15da e13d
000002d0: a491 683b 64fb 9b3e 24b5 903c 7f11 6cbd
000002e0: a0b7 5ebe 7195 d0bc 3731 8d3d 567f 15be
000002f0: e48e b2be e336 f9bb f0c5 9c3e 45db f03d
00000300: 3db2 bebe 4ffd 99be 8f45 3b3c 5aac 7c3d
00000310: 3ff5 12be f630 963e cb7d 5fbd 7b15 f13d
00000320: 25db a9be a655 b4bd 4ac4 8e3e 7ff5 1c3e
00000330: 957f b0be 90c9 8ebc 569d 693d fc7a ac3e
00000340: fafd 66be 256d 30be 1b6c ff3d a9bb bcba
00000350: eb00 18be 139f 1f3e 486f 993e 7cf1 d13d
00000360: 6bdf b03d edbb 3bbe c694 14be 2417 2fbe
00000370: eb8e eebd e5fe b7bd 8f72 3b3e 2ca7 583e
00000380: ed32 0c3e d2b3 f9bc b0e2 51be 1b42 c9be
00000390: abdc 08be 03bb 023e 2893 aabe 392c 6d3e
000003a0: 5d9a 8ebe 0b73 2dbd 9679 363e db18 b53e
000003b0: 5a77 6e3d 0de2 abbd 9e8b 8cbe 42c9 873e
000003c0: c79b 723e ba55 453d ef49 663e b72b 08be
000003d0: e7b8 0dbe cbeb 003e 6d93 a6bd b4c1 0ebe
000003e0: 6d64 33be 8ecf a0be 423d 543e 511f 873d
000003f0: 2494 4e3e 5af0 92bd 469b 383e d18e 953e
0.12445201 0.321274 -0.29137835 -0.09075485 0.1314919 -0.17491972 0.06749677 -0.23572652
-0.1622699 0.19608177 0.35567066 0.2138638 0.13612033 -0.047723323 -0.0075375536 -0.37292516
0.15188575 0.10380873 -0.20688105 -0.07303678 -0.28256595 0.21375799 -0.21205659 -0.08530943
-0.2469825 -0.35144222 -0.23992081 0.27361473 0.10323392 0.119212665 -0.2926166 0.2971905
-0.14188838 0.26630607 -0.2874573 0.18551497 0.04349659 -0.16757363 -0.07214748 -0.07572975
0.065047875 0.35053498 0.3018999 0.32160756 0.06655547 0.0018527904 0.038685188 0.3203739
0.11789779 -0.16806962 -0.1565782 0.058158994 0.12253629 0.32959324 0.16311668 -0.04239905
0.084498495 -0.14100224 -0.22403303 0.26983577 0.27191412 0.09143664 0.29895285 -0.048907593
-0.044091713 -0.2885484 0.078160964 0.09908742 0.014518311 0.031797573 0.12353211 -0.08369852
0.22068211 -0.36652905 0.29815912 0.08183327 0.3261212 0.3279416 0.22793183 -0.057115797
-0.08900588 0.2805343 -0.21680704 -0.22610058 0.022684777 -0.31969336 0.11582363 0.09584477
-0.27323937 -0.19943464 -0.19762152 -0.28107795 -0.25868386 -0.034253873 -0.30705228 -0.022874247
-0.19343036 0.32101563 -0.31288037 0.043287024 0.24859166 0.16211906 0.36274275 0.22286093
-0.23204683 -0.0085172765 -0.07419373 0.1800722 0.012096533 0.28457788 0.26586103 0.18172549
0.28226152 0.22592033 0.23660648 -0.017376268 0.106815055 0.13581318 0.31617075 -0.090816855
0.05459881 -0.37760383 0.18072565 -0.36283258 0.28940296 0.35901985 -0.13123234 -0.26470897
0.058059968 0.17505148 0.14948967 -0.2862311 -0.11867524 0.30837074 -0.024333682 -0.3039926
-0.060479175 -0.22935602 -0.2972237 -0.22604531 -0.0070707668 -0.24775736 -0.08961939 0.24824306
0.20677584 0.35801163 -0.1290526 -0.2442181 -0.100325 0.06464135 0.03883 -0.3893486
-0.3722204 -0.38073942 0.20608643 -0.3791101 0.004911098 0.23779489 -0.15995392 0.15447992
-0.33849525 -0.12581888 -0.106096074 -0.31511328 -0.07464862 0.14953402 -0.32733878 -0.2397788
-0.27760845 0.15156923 0.1488004 -0.30264845 -0.22857986 0.17986003 0.01783009 0.31676248
-0.34568012 0.21554773 -0.25150457 0.11027924 0.00354872 0.30465233 0.0176645 -0.057633873
-0.21749735 -0.025461884 0.068941526 -0.14599356 -0.34874642 -0.00760542 0.30619764 0.11760572
-0.3724536 -0.30076072 0.011430158 0.061687805 -0.14351366 0.2933423 -0.054563325 0.11771675
-0.33175007 -0.08805399 0.27884132 0.15328024 -0.34472337 -0.017430097 0.057034813 0.3368758
-0.22557822 -0.17229135 0.12471791 -0.0014399189 -0.148441 0.15588026 0.29967713 0.102511376
0.086363636 -0.18333407 -0.14509878 -0.17098671 -0.11648353 -0.08984164 0.1830542 0.21157521
0.13691302 -0.030481253 -0.2049663 -0.39308247 -0.13365428 0.12766652 -0.33315396 0.23161401
-0.27852145 -0.04234604 0.17819819 0.35370526 0.05821929 -0.08392725 -0.2745027 0.26520735
0.23692237 0.04817746 0.22489141 -0.13297926 -0.13840066 0.12589948 -0.08133588 -0.1394108
-0.17518778 -0.31408352 0.20726493 0.0659777 0.20173699 -0.0717475 0.18027982 0.29210523

decoder.0.weight f4 [16, 32, 3]
00000000: 4bbc 0b3c 74bf ecbc f9f3 9f3d ec5b 633d
00000010: fe07 93bc 332a d8bd 70cd 93bc 73a1 9e3d
00000020: 59d0 1fbd 9d36 8c3d 9ff5 9bbd 07eb 07be
00000030: 9bf7 393d 38c4 85bd cd3d f0bd 7fff ebbd
00000040: a4db 34bd c2bf 503d 9a80 b6bd 4a52 a1bd
00000050: 22a5 e9bc e88e 8abd a382 323d 0407 963d
00000060: 0e05 a1bd a6dc 8e3c 5224 083d 4639 23bd
00000070: dfb2 ec3d f12f 70bd 8b6e 593d b134 703d
00000080: dd46 893d df49 8b3c aa5f 0fbd c5f1 85bd
00000090: 6ad8 db3d 7267 ac3d 06e3 5abd e28d 853d
000000a0: 0f65 163d 916e f43c 542f e53d 37b8 2fbd
000000b0: f4b7 313d d2c6 0bbd 5619 ba3d 527d 833d
000000c0: 5617 49bd f653 9b3a 37ff 023e 0687 66bd
000000d0: 4581 f93c 9358 c0bc b7c6 09be eab1 a23c
000000e0: c9d4 963d 057b 9fbd 4603 fbbd 50c8 aebd
000000f0: b233 5d3d b6cf 943d 9a7d 8fbc 3050 133c
00000100: 3853 7fbd a601 153d 17eb 373d b997 683d
00000110: 6e1e 3e3d 8db2 8f3d e13e 24bd 858b 5ebd
00000120: 9ddf 5abd f725 bc3d b84b b53d d1eb 82bc
00000130: 0679 8d3d e12e d43c 2adf c3bd 4028 593d
00000140: 17b4 8c3c 2fc6 0d3c 6c42 8a3d e352 ddbd
00000150: a8f5 e83d 25bf 34bc 1629 99bc b216 15bd
00000160: 4d91 8b3c 0d79 003e ecff 153d 749f 2fbd
00000170: be11 acbd ef7d 82bd 170a 863d 1396 ce3d
00000180: 1de1 dcbd 4c48 a1bc 3ee8 f8bc 15dd e2bc
00000190: c407 e93d 7325 743c c38e da3d 8df9 97bc
000001a0: 8ce9 f6bd 2481 17bc 1aae 773d 69e9 6b3c
000001b0: 3b14 abbc f6d8 6dbd 223e 383d 4ddd 493d
000001c0: 084a 463b 009a 783c e4d7 003e 89db ed3d
000001d0: 272b 9cbd 1108 50bd 0508 b9bc 84f5 4a3d
000001e0: 8042 9e3d 5ed0 a3bc 2e54 5ebc a7c5 81bd
000001f0: e9d6 37bd 45eb 003d 7ea8 c13d 141e 883d
00000200: 5f30 e63d 6405 97bd 2a4c a63d ab1d 103e
00000210: b25f 3c3d 3f00 2a3d 492a 443c 57a6 a8bd
00000220: 1a7a 98bc 2b37 853d fc87 b9bd 2080 993d
00000230: 6950 a5bd 0066 95bc 8f55 5bbd 40bf b33d
00000240: e71d b6bd 75d8 a03d e802 70bd c3e6 993d
00000250: 8c59 ff3d 24f3 ac3d e5cf b3bd f676 893d
00000260: ac6d 4f3d 8cfd 7b3d 2556 9e3c d2c8 673c
00000270: a129 303d 176f 94bd 2c89 133e aa1c 373c
00000280: 0a5b dcbd 667e f8bb 4ae4 5bbc c2d2 37bd
00000290: 43b5 43bc f4f5 12bd 6c7f 8b3d 15c4 c5bc
000002a0: 3e89 453d fea4 a53d 9e39 b03d 5a5c c4bd
000002b0: 77ce cd3d d3a8 6abd 4851 693d 80e3 893d
000002c0: 3b57 72bd 80af 5ebc 2f7e f8bc d206 8d3d
000002d0: 5400 663a 917e b13b 3d22 81bd 2fe1 b73d
000002e0: 9bae ba3d 0b6d c5bd b353 bc3d 47d2 1ebd
000002f0: 62fd f23b 1db5 dcbd effb ccbd 191d f2bc
00000300: 3621 72bc 053e 16bd 5c69 ac3d 88d5 e7bd
00000310: 555d 60bc 65ce 8a3d 6f0b fa3c d87f a13d
00000320: 437b 83bd b7db c4bd 1c27 163d 001d 973d
00000330: da10 8a3c 2cc1 203d fd39 4d3d 7d28 8d3d
00000340: 4d2d fbbd 078b aebd a3fb 5e3d 32ff ec3d
00000350: 7e92 2fbd c4c4 483d 2861 913c 9f5f 28bc
00000360: b2fc cc3d ec90 f5bd 56c8 7cbd 7b86 1cbd
00000370: 0e3c 96bd 96e0 84bd e7e6 283d c84b d03d
00000380: 925c 93bc d76f 4dbc 0c47 e8bd 663d a63c
00000390: 3cf8 62bd 6720 17bd 8484 c53c dec2 44bd
000003a0: 70d8 7d3d 3bef 283d cfeb d93d ed9b 593b
000003b0: ebed 8e3d c594 043d 7b39 d43d 0f4c 8c3d
000003c0: 2792 bb3d ed7f 073e a4fd c73d 6d3e a1bd
000003d0: e914 b73c 7ec0 2dbc a091 28bd 3b04 663d
000003e0: d2cc a6bd 0945 e53d 38ed a43c fe91 2c3d
000003f0: b687 1ebc bf7e a93b cf9e 233d b91b 863d
0.008528779 -0.028899886 0.07810206 0.055507585 -0.017948147 -0.10554924 -0.018042296 0.07745638
-0.039017055 0.06846354 -0.07615208 -0.1327325 0.04540215 -0.065315664 -0.117305376 -0.115233414
-0.044154778 0.050964125 -0.089112476 -0.078770235 -0.028521124 -0.067655385 0.043581616 0.07325557
-0.07862292 0.017439198 0.033237763 -0.039849542 0.115575545 -0.05863947 0.053083938 0.058644
0.06702969 0.017002998 -0.03500334 -0.065402545 0.10734637 0.08418168 -0.053439163 0.065212026
0.03671747 0.029837878 0.11190668 -0.04290029 0.043388322 -0.034125157 0.09086864 0.06420387
-0.04909452 0.0011850584 0.12792669 -0.056281112 0.030457148 -0.023479735 -0.1345471 0.019860227
0.07364804 -0.07787136 -0.12256484 -0.085343 0.05400438 0.0726618 -0.017515946 0.008991286
-0.062335223 0.036378525 0.044901934 0.05678532 0.04641574 0.07016478 -0.04009903 -0.054332275
-0.05343591 0.09186929 0.08852333 -0.015981587 0.06907849 0.02590126 -0.095640495 0.0530169
0.017175717 0.008653208 0.0675095 -0.10806825 0.1137498 -0.0110319005 -0.01869635 -0.036398597
0.017037058 0.12546177 0.03662102 -0.042876676 -0.084018216 -0.06371676 0.06544893 0.10087218
-0.107851245 -0.019687794 -0.03038418 -0.02769331 0.11378434 0.014901507 0.10671761 -0.018551612
-0.12056264 -0.009247098 0.06046877 0.014398911 -0.02088367 -0.05806824 0.04498113 0.049283314
0.0030256528 0.015173435 0.12582356 0.11614139 -0.07625418 -0.050788943 -0.022586832 0.04955055
0.077275276 -0.019996818 -0.013569875 -0.06336527 -0.04488269 0.03147437 0.094559655 0.06646362
0.11239695 -0.07374075 0.08119996 0.14073817 0.0459897 0.04150414 0.011972972 -0.08234852
-0.01861291 0.06504663 -0.0905914 0.07495141 -0.08071978 -0.018237114 -0.053548392 0.087767124
-0.08892422 0.07853786 -0.05859652 0.075147174 0.124682516 0.08444813 -0.08779887 0.06712143
0.0506417 0.061521098 0.019328186 0.014147 0.04300845 -0.07247751 0.14407796 0.011176268
-0.10759552 -0.0075834272 -0.013421128 -0.04487873 -0.011945072 -0.03587909 0.06811413 -0.02414135
0.048226587 0.080881104 0.086047396 -0.09587927 0.10049146 -0.05728991 0.05696228 0.06732845
-0.05916522 -0.013591647 -0.030333607 0.068860665 0.00087738526 0.005416699 -0.063053586 0.08978497
0.091153346 -0.09639939 0.09195652 -0.038774755 0.0074154595 -0.10776732 -0.1000899 -0.02955489
-0.014778426 -0.03668024 0.08418533 -0.11320025 -0.013694127 0.06777648 0.03052303 0.078857124
-0.06419995 -0.0961222 0.03665839 0.07378578 0.016853739 0.039246723 0.05010413 0.06892488
-0.122645 -0.08522611 0.0544392 0.11572112 -0.042864315 0.049015775 0.017746523 -0.010276704
0.10009135 -0.11990532 -0.061714493 -0.038214188 -0.07335673 -0.06488149 0.04123583 0.10170704
-0.017988477 -0.012538872 -0.11341676 0.020292949 -0.055412516 -0.036896136 0.02411104 -0.048037402
0.06197399 0.041243773 0.1064068 0.0033204511 0.06978973 0.03236844 0.10362526 0.068504445
0.09158736 0.13232394 0.09765175 -0.07873235 0.022348838 -0.010604976 -0.041154504 0.05615638
-0.08144535 0.11194808 0.020132646 0.042131416 -0.009675911 0.00517258 0.039946374 0.065482564

decoder.0.bias f4 [32]
00000000: 4cfd 983d 2afa 50bc ac4e 6b3d 9fcd 823d
00000010: fa9e 253b 9ed3 043d 7632 6f3d 4b40 913d
00000020: 431b eabd a2ff 0abd d810 9b3d bfed 913d
00000030: 24f8 ab3d bb52 4ebd 8659 77bc c2a5 c13d
00000040: 7b00 a7bd b0b1 043d caf2 19bd c88a 843b
00000050: 2486 e93c b0ad 8d3d 5c0e 25bd 396e 9abd
00000060: 376c d4bc 5cb4 203d e062 59bd 7dd4 97bd
00000070: 5f7e cb3d 1dec a03d 54e8 773d 2813 363d
0.074701875 -0.012754956 0.057448074 0.06386875 0.002527176 0.032428376 0.058397733 0.07092341
-0.11430981 -0.033935197 0.07571572 0.071254246 0.083969384 -0.050371867 -0.015097028 0.09455444
-0.081543885 0.03239602 -0.037585057 0.0040448643 0.028506346 0.06917894 -0.040296897 -0.075405546
-0.025930507 0.039234504 -0.05307281 -0.07413576 0.09936213 0.07857535 0.0605243 0.044451863

decoder.2.weight f4 [32, 16, 5]
00000000: 5d22 dabd 13e6 8a3c a11b 3abd 58f8 cabd
00000010: 9a9c 2abd c3c7 1abd 2a81 2dbd 9af9 443d
00000020: 7fcd 6dbd 9db9 c9bc ae44 89bd 4a65 3abd
00000030: f877 e5bc 931b 6a3d 7d4d febd d2fe 0d3b
00000040: 135a 93bd de05 993d ad0a bdbd 4552 1f3d
00000050: 83d3 22bd 073c 49bd e1ea 833d c95f 09bd
00000060: 7805 953d 81d4 d8bd a35c 83bd b209 5ebb
00000070: 6d44 84bd 84a3 52bd 081e 32bd e989 f8bd
00000080: 8e12 353d d038 2c3d 15bf 053d 627a 26bc
00000090: 105d 873d cbb3 f43b 1440 9f3d 1d84 793d
000000a0: a866 253e bed4 9abd 806e 4b3d 3675 babd
000000b0: 2d93 7b3d 948a fbbc 2640 35bc 77c5 18bd
000000c0: 75ac 87bd 6370 89bd e77a 973d 57aa ca3d
000000d0: 5187 0f3c a597 bc3d 7678 9abd 1ffe 933d
000000e0: e82a aabd 2d0b 893d 53ef c7bd c090 f63b
000000f0: f27d 63bc 3c1a 6bbd 521a 0ebd 820d 893d
00000100: 5764 b0bd 63d7 5cbd 975b 063e 0642 143e
00000110: 6db8 5abd d9e9 0b3d 12ec b1bc 76d1 393d
00000120: 1baa 1cbd d79c 1c3e 2d26 0f3c a4c7 9ab8
00000130: 2178 033e a30b 8bbd d238 3cbd 7233 60bc
00000140: 9c89 113e 579a 493d 0dbe cd3d 01a9 6a3c
00000150: b9cc a43c e3c4 703d 637d 893d a291 4cbd
00000160: cf50 79bd d1fb 063e 688c b4bd 0c8d 3fbd
00000170: d992 293d 2fff f43c 1662 afbc f6a5 323d
00000180: d102 d9bd e69a cc3b 6423 ebbb 03e9 41bc
00000190: f1a6 a13d 87ee 8cbd c662 0f3e 73ac 70bd
000001a0: 4006 ab3b 8629 7ebc 31c1 023e cf1a d7bc
000001b0: 6af8 093e 3958 503d 4c1d 2f3d 15e7 993d
000001c0: c877 003b af82 bfbc 2443 b1bc d4dd cc3b
000001d0: b749 373d c029 7fbd ff2e 63bd b756 adbd
000001e0: e4c2 3d3d 308e 04bd 3a61 63bd 7d2d a13d
000001f0: 1d4d cfbd fd4e 183d 0523 5abc 21fd 23bd
00000200: a074 cbbc 08ab 9d3c 8f5e b03d 6b16 bfbd
00000210: a88e 92bd 6077 873d 3fa8 b63c 5b80 a1bd
00000220: 81d7 65bd a584 313d e1f0 4cbd 40ea f03c
00000230: 17a0 b1bd d41e cabc c3f5 983d be67 83bd
00000240: 0dd2 df3c 5e95 15bd 1fc4 04bd 940d 323d
00000250: 6e5c d8bc d68a d5bd 105d 4cbc acdc d1bc
00000260: e441 d1bd 1615 7e3c 42a5 d1bd 4cd1 1ebd
00000270: 5ee5 933d c8cf 10bd 3202 9ebd 7a1b 9cbd
00000280: 8213 e13b 8342 c1bd c151 303d a795 1c3d
00000290: c973 4e3d fcdb 66bd 9e1f a73d 771f 04bd
000002a0: 18d3 93bb 925b a83d 3d81 0a3e ebf0 86bc
000002b0: f893 9abc 0b1f f33d 9474 13bd 46a7 4a3c
000002c0: addf c7bd eea5 0dbd a129 213d c92a 503d
000002d0: d7dc 323d d767 70bd ce9a a7bc 9631 b43c
000002e0: e95b bcbb d8ec f33d e8ee 71bd 9075 6ebc
000002f0: d75f 0abd 2b3c 2abd 6dd5 4dbc 80c6 f6bd
00000300: 474f b7bd 6a30 34bd f27a b83d 4731 73bd
00000310: bd09 3b3d 803b 1c3d 059f 5d3b d5de 623d
00000320: 4047 84bd a490 d1bd 559d f23d 6817 d7bd
00000330: 2cfa 07bd f3f6 6b3d 7c0d 3e3d 61ec fe3c
00000340: 3a27 6c3d e421 ed3c 1442 073e f0a2 53bd
00000350: 2f8d 933d d107 99bd 5bb7 fa3d 55b4 08bd
00000360: 1669 15bd 1f06 e43d 3b84 b2bd 69f9 d3bd
00000370: b195 6e3d f586 c7bd 4bb9 22bc f75f 6a3d
00000380: 68db 563d e59c d83d 5f8d 59bd 03a4 0bbc
00000390: 8f85 81bc 8964 bc3d ebdf b1bd d11e f3bc
000003a0: 2d9e f5bd 79d6 d53d 6694 a13d c9f8 e23c
000003b0: 125c 9abd f706 7dbd 6a9b 1939 ea24 d03d
000003c0: 5568 f4bc 941c eb3d 9bd9 6dbd b312 d63d
000003d0: 884f de3d cf36 08bd 4bda 423d 5985 0e3e
000003e0: e0fb a33d 355a c73d d590 1dbd 1e91 c0bc
000003f0: 5f0e ca3d a1b3 5e3d 3c59 173d db4f 8a3d
-0.106510855 0.016955411 -0.045436505 -0.09910649 -0.041653253 -0.037788164 -0.04235951 0.0480896
-0.058057304 -0.02462464 -0.06702553 -0.045506753 -0.028011307 0.057155203 -0.124171235 0.0021666777
-0.07194915 0.07471822 -0.09230552 0.038896818 -0.039752495 -0.049129512 0.06441284 -0.033538613
0.07276434 -0.10587407 -0.064141534 -0.003388029 -0.06458364 -0.051425472 -0.04348567 -0.12135679
0.04420715 0.042046368 0.032652933 -0.010161014 0.06609547 0.007467722 0.07775894 0.06091701
0.16152442 -0.075601086 0.049665928 -0.091043875 0.061419655 -0.030705728 -0.011062657 -0.037297692
-0.066246904 -0.06710889 0.07396489 0.09895771 0.008760289 0.092086114 -0.07542507 0.07226204
-0.08308965 0.06691585 -0.09762444 0.0075245798 -0.013885008 -0.057398066 -0.03469307 0.066920295
-0.08612888 -0.053916346 0.13120876 0.14478311 -0.05339854 0.03415856 -0.021719012 0.045365773
-0.038248163 0.15294205 0.008737129 -7.380478e-05 0.12838794 -0.06789329 -0.045952626 -0.0136841405
0.1421265 0.049219456 0.10046015 0.01432252 0.02011715 0.058781516 0.06713369 -0.049943574
-0.06086808 0.13181998 -0.08815843 -0.046765372 0.04139981 0.029906837 -0.021409076 0.043615304
-0.1059624 0.0062440513 -0.0071758498 -0.0118353395 0.0789317 -0.06881433 0.14002523 -0.05875821
0.005219251 -0.01551283 0.12769009 -0.0262579 0.13473669 0.050865386 0.04275255 0.075147785
0.0019602645 -0.023377744 -0.02163846 0.00625203 0.044748034 -0.062295675 -0.05546474 -0.08463805
0.04632844 -0.032362163 -0.055512644 0.07870004 -0.1012213 0.037184704 -0.013314013 -0.040036324
-0.024835885 0.019246593 0.086117856 -0.09330448 -0.07156116 0.06614566 0.022297023 -0.0788581
-0.056113724 0.04333939 -0.050034408 0.029408574 -0.08673113 -0.024672903 0.0746875 -0.064162716
0.02732184 -0.0365194 -0.0324136 0.04346998 -0.026411261 -0.104268715 -0.01247336 -0.02561792
-0.10217646 0.015507957 -0.102365986 -0.03877382 0.07221483 -0.035354406 -0.077152625 -0.07622428
0.0068687806 -0.09436514 0.043046717 0.038228657 0.05040339 -0.056362137 0.081603274 -0.03225657
-0.0045112483 0.08220591 0.13525863 -0.0164723 -0.018869385 0.11871155 -0.03599985 0.012368983
-0.0975946 -0.03458207 0.03934634 0.050822053 0.04366764 -0.05869278 -0.020459559 0.0219963
-0.005748261 0.11910409 -0.05906573 -0.014554396 -0.033782806 -0.041561287 -0.012563092 -0.120495796
-0.08950668 -0.043991484 0.09007825 -0.059373166 0.045663584 0.03814268 0.0033816707 0.05538829
-0.06458902 -0.10232666 0.11846415 -0.10502511 -0.033197567 0.057608556 0.04639958 0.031118574
0.057654597 0.028946824 0.132088 -0.05166906 0.07204663 -0.07472194 0.122420035 -0.033375103
-0.03647717 0.1113398 -0.08716627 -0.103503056 0.058248226 -0.09742538 -0.009931873 0.057220425
0.052455336 0.105768 -0.053113338 -0.00852299 -0.015810756 0.09198863 -0.08685287 -0.02967778
-0.1199306 0.10441298 0.07889633 0.02770652 -0.07537092 -0.06177422 0.00014649113 0.10163291
-0.029834906 0.1148006 -0.058068853 0.10452785 0.10855013 -0.033255395 0.04757146 0.13918056
0.08007026 0.097340025 -0.0384682 -0.023506697 0.09866022 0.054370526 0.036950335 0.067535125

decoder.2.bias f4 [16]
00000000: 6871 893d 658d 4a3d 25fe 853d fd21 16be
00000010: 7001 9bbc 321d c5bd ce9c b9bd 5c44 333d
00000020: 8108 1b3d f706 033e bf5c a0bd 202f 353d
00000030: c6d3 ecbd b0e5 98bc 6b03 8fbc 4491 5abd
0.06711084 0.04945125 0.06542615 -0.14661403 -0.018921584 -0.09624709 -0.09063111 0.043766364
0.037849907 0.12795626 -0.0783019 0.044234395 -0.1156383 -0.018664211 -0.017457685 -0.053361192
