data/models/autoencoder_epoch_10.pt (torch, 66986 bytes, 15 tensors)

encoder.0.weight f4 [16, 1, 5]
0	0xbe718c3d	-0.23588653
1	0xbd877a9a	-0.06615181
2	0xbe2a2a0b	-0.166176
3	0x3eb3cf12	0.3511892
4	0x3eb9050c	0.36136663
5	0xbe2793b0	-0.16364932
6	0x3d04a398	0.032382578
7	0xbed6280a	-0.41827422
8	0x3e92b822	0.28656107
9	0x3d5211f0	0.051286638
10	0xbedbb8e4	-0.42914498
11	0xbe3e2cd8	-0.18571794
12	0x3d93d088	0.072175086
13	0xbe91eb24	-0.2849971
14	0xbe1d3bda	-0.15354863
15	0x3eb32f6b	0.34997115
16	0xbe34a951	-0.17642714
17	0x3e9553bb	0.29165444
18	0xbcedaf30	-0.0290142
19	0xbec4999b	-0.38398442
20	0xbe4d1de4	-0.20030934
21	0x3d50af90	0.05094868
22	0xbeb3b5db	-0.35099682
23	0xbed609b8	-0.4180429
24	0x3eaa7e86	0.33299655
25	0x3e46194c	0.19345587
26	0xbea43eba	-0.32079107
27	0xbec5dd9e	-0.38645643
28	0x3eca6024	0.39526474
29	0xbdc29530	-0.095011115
30	0xbc0d6ef8	-0.008632414
31	0x3eacde8a	0.33763534
32	0x3e29e09b	0.16589586
33	0x3d84d8b5	0.06486646
34	0xbe687251	-0.22699858
35	0x3ebec2b6	0.37257928
36	0x3df4eadc	0.11958858
37	0x3ed0a1b8	0.40748382
38	0xbeb2ac51	-0.34897092
39	0x3ee38a97	0.44441673
40	0x3ca83311	0.020532163
41	0x3e7b532c	0.24543446
42	0x3e7d1a09	0.24716963
43	0x3e3f5bdf	0.1868739
44	0xbe806836	-0.25079507
45	0xbe5633b9	-0.20918168
46	0x3ed0c82a	0.40777713
47	0xbebdad72	-0.3704639
48	0xbecef89f	-0.40424058
49	0xbe0cd66e	-0.13753673
50	0x3ea6c20c	0.3256992
51	0x3e7158bc	0.23569006
52	0x3e7ea294	0.24866706
53	0x3edf3300	0.43593597
54	0x3ce542b7	0.027985914
55	0x3e659d2b	0.22423236
56	0x3e9dc02e	0.30810684
57	0x3dfc784e	0.12327634
58	0xbe2201b6	-0.15820965
59	0xbe589799	-0.2115158
60	0x3d4d044d	0.05005293
61	0xbdcb1f20	-0.09918046
62	0x3ee43c27	0.44577143
63	0xbe6b4e51	-0.22979094
64	0x3ebbba6f	0.36665675
65	0x3eb9194d	0.36152115
66	0x3e2123b9	0.15736283
67	0x3e8ed48c	0.27896535
68	0xbe328103	-0.17432027
69	0x3e95df34	0.29271853
70	0xbeb0e206	-0.34547442
71	0x3d400820	0.04688275
72	0xbd9f8210	-0.07788479
73	0xbd521e40	-0.05129838
74	0x3ea8c16a	0.32960063
75	0xbd4d9328	-0.050189167
76	0x3e9730e4	0.29529488
77	0xbebf60b9	-0.3737848
78	0x3e930e21	0.28721717
79	0xbe036ef2	-0.12835291

encoder.0.bias f4 [16]
0	0x3dcb87d8	0.099380195
1	0xbec99929	-0.39374664
2	0x3ea1c80e	0.31597942
3	0xbecac125	-0.39600483
4	0xbebb289b	-0.36554417
5	0xbeca40e7	-0.39502642
6	0xbe8cc6dc	-0.27495468
7	0x3d91d7a2	0.07121207
8	0xbec192d8	-0.37807345
9	0xbeac6959	-0.33674124
10	0x3e5ffe35	0.21874316
11	0x3dd878ea	0.105699375
12	0x3e6f9646	0.23397169
13	0x3ee10ecf	0.4395661
14	0xbee3c564	-0.44486535
15	0x3cba47d0	0.022739321

encoder.3.weight f4 [32, 16, 5]
0	0xbdd38a57	-0.103291206
1	0x3bfb5a05	0.0076706433
2	0x3d0b8f9d	0.034072507
3	0x3c3ae1f4	0.0114064105
4	0xbb85bcda	-0.0040813508
5	0xbd49771a	-0.04918585
6	0xbd1d33d0	-0.03837949
7	0x3d76c8dc	0.06025015
8	0x3dd4f280	0.10397816
9	0x3bbfb570	0.0058504865
10	0x3dd8e1c3	0.10589936
11	0x3de4df19	0.11175365
12	0xbc8c8241	-0.017151954
13	0xbd561433	-0.052265357
14	0xbdd08d54	-0.10183206
15	0xbdc2095e	-0.09474443
16	0x3d0bdbcc	0.03414516
17	0xbd129b98	-0.035792917
18	0x3dc8bcec	0.09801659
19	0x3a223480	0.00061876327
20	0x3a261780	0.0006335899
21	0xbcd9e2c4	-0.026597388
22	0x3ddbb040	0.107269764
23	0xbb10f640	-0.0022119433
24	0xbdbe1eb9	-0.09283204
25	0xbd73fbef	-0.059566434
26	0x3dc2b6b4	0.09507504
27	0x3dc5c0e6	0.09655933
28	0xba8670c0	-0.0010256991
29	0x3d56c004	0.052429214
30	0x3d09e778	0.03366801
31	0x3d7ed3d4	0.062213734
32	0xbdac931f	-0.084264986
33	0xbd2961b7	-0.041352954
34	0xbd6e8542	-0.058232553
35	0xbc4c4816	-0.0124683585
36	0x3b34d229	0.0027591086
37	0xbd3174d8	-0.04332432
38	0x3d1cffaa	0.038329758
39	0x3cf36786	0.02971245
40	0xbdd5ef2e	-0.104460105
41	0x3d9a7060	0.07540965
42	0x3da1c9d4	0.07899824
43	0x3cc10a55	0.023564497
44	0xbbd1ce29	-0.00640275
45	0x3d2478dc	0.040154323
46	0x3dc53b7c	0.09630486
47	0x3d284da8	0.041089684
48	0xbd85de6e	-0.06536566
49	0x3d685304	0.056719795
50	0xbd8ad9df	-0.06779837
51	0xbcc8d9fe	-0.02451801
52	0xbd94797d	-0.072497346
53	0xbd22ac2e	-0.039714985
54	0x3c83fa27	0.016110493
55	0x3dc85412	0.0978166
56	0xbdb6aecf	-0.08920061
57	0xbc9cb479	-0.019129025
58	0xbd9f7889	-0.07786662
59	0x3d9ea5ea	0.07746489
60	0x3cd75569	0.026285844
61	0xbdb384ad	-0.0876554
62	0x3c1a3bbb	0.009413655
63	0x3d7c21cc	0.06155567
64	0x3cc92e6c	0.024558268
65	0xbc7b17d4	-0.015325505
66	0xbd403247	-0.04692295
67	0x3dea9808	0.11454779
68	0xbd862a55	-0.06551043
69	0x3d4e2b86	0.050334476
70	0xbd6fa96e	-0.05851119
71	0xbcf1aaf0	-0.029500455
72	0xbdd538b2	-0.104112044
73	0x3d9089ec	0.070575565
74	0xbd244bf0	-0.040111482
75	0x3ceef7b2	0.029170845
76	0xbbf1f7b3	-0.0073842644
77	0xbdaca1a0	-0.08429265
78	0x3d733ea2	0.059385903
79	0xbdbc949c	-0.092080325
80	0x3df466c3	0.11933663
81	0xbd84fb9d	-0.06493304
82	0x3c7916a7	0.015203155
83	0x3d54bf0a	0.05194
84	0xbc27b7c9	-0.010236689
85	0x3d2805a8	0.04102102
86	0xbd7c9c8d	-0.061672736
87	0xbdd721d8	-0.10504502
88	0x3dcbfc8e	0.0996028
89	0xbc8cb794	-0.01717738
90	0xbcf0565c	-0.029338054
91	0xbc553e4f	-0.013015344
92	0xbd574c81	-0.052563194
93	0x3dc50591	0.09620202
94	0x3dcf9332	0.10135497
95	0xbdc08d9c	-0.0940201
96	0xbdaaca81	-0.08339406
97	0x3a1ff641	0.00061020633
98	0xbd9fb28e	-0.077977285
99	0xbdd4d004	-0.10391238
100	0xbca69ed8	-0.020339414
101	0xbd2802c0	-0.041018248
102	0xbc787a28	-0.015165843
103	0x3c82e3b0	0.01597771
104	0xbdb20f1b	-0.086942874
105	0x3cb3af50	0.021934181
106	0x3d6f549c	0.0584303
107	0x3d354120	0.04425156
108	0x3dcb41c6	0.09924655
109	0x3d2de95c	0.042458877
110	0x3d4fb07b	0.050705414
111	0x3c7023d1	0.014656977
112	0xbc0f8298	-0.008759163
113	0xbc47cbdf	-0.012194603
114	0xbd78fd73	-0.060788583
115	0xbd999e63	-0.07500913
116	0x3db7e8f0	0.08979976
117	0xbd035a56	-0.032068573
118	0x3d845597	0.064616375
119	0xbd4a9897	-0.049461927
120	0x3ada5902	0.0016658606
121	0x3d0f8fa9	0.035049114
122	0xbbb1bfa0	-0.005424455
123	0xbc99f9fa	-0.018795956
124	0xbd9f6574	-0.077830225
125	0x3db155a4	0.08658913
126	0xbcc829c4	-0.024433978
127	0xbd4c7ca1	-0.049923543
128	0x3db4e7d6	0.08833282
129	0x3b97f0e0	0.004636869
130	0xbc997457	-0.018732233
131	0xbdaaca7b	-0.08339401
132	0xbd159be4	-0.036525622
133	0x3de255c6	0.11051516
134	0xbdbd94d3	-0.092569016
135	0x3d25efa0	0.040511727
136	0x3dcce39c	0.100043505
137	0xbcd997f5	-0.026561717
138	0xbdcbd054	-0.09951845
139	0xbd1fe336	-0.039035045
140	0xbd9b1ea1	-0.075742014
141	0x3d866eee	0.06564127
142	0x3db4ebcc	0.08834037
143	0x3dd6f3a2	0.10495688
144	0xbb0e027b	-0.002166896
145	0x3cee33c6	0.029077422
146	0x3da621e3	0.08111932
147	0x3cddb372	0.027063105
148	0xbdcf2369	-0.10114176
149	0xbd948e9d	-0.07253764
150	0xbd2a30c4	-0.041550413
151	0x3d2f1edc	0.04275404
152	0xbd9637aa	-0.07334836
153	0xbd54384a	-0.051811494
154	0x3c7def60	0.015498966
155	0xbdb174f5	-0.08664886
156	0xbd992b0b	-0.07478913
157	0xbc07aca2	-0.008280905
158	0x3dcb52fc	0.099279374
159	0xbd6ad8bd	-0.057335604
160	0xbd9e81d5	-0.07739607
161	0xbdd066e0	-0.10175872
162	0xbd6b98eb	-0.05751888
163	0x3d9b0757	0.07569759
164	0xbc3896b1	-0.011266396
165	0x3d5885b8	0.0528619
166	0x3d1a19c4	0.03762223
167	0xbd972731	-0.07380522
168	0x3d9cd69c	0.07658121
169	0x3dc956da	0.09831019
170	0xbca02f00	-0.019553661
171	0x3d69c5ed	0.057073522
172	0x3d2df3cd	0.042468835
173	0xbd3ec6a6	-0.046576165
174	0x3c72ec84	0.0148268975
175	0xbc3ba504	-0.011452917
176	0xbd20be14	-0.039243773
177	0xbde4a653	-0.11164536
178	0xbd7f9425	-0.06239714
179	0xbdcadbba	-0.09905191
180	0xbabd8900	-0.0014460385
181	0x3acd3f00	0.0015659034
182	0x3d8fbed2	0.07018818
183	0x3d74b8c4	0.05974652
184	0xbce20eb8	-0.02759491
185	0xbdaa1cb7	-0.08306258
186	0xbdae3713	-0.08506598
187	0x3dc56574	0.09638491
188	0x3c48bb30	0.01225166
189	0xbca2d6b4	-0.019877769
190	0x3d8e65cb	0.06953009
191	0x3cc55eda	0.02409308
192	0xbdd2362c	-0.10264239
193	0xbd5449ed	-0.051828314
194	0x3da3c9d7	0.07997482
195	0xbc85bb71	-0.01632473
196	0xbafdce64	-0.0019363877
197	0x3dbc51c5	0.09195284
198	0x3d8e76f5	0.06956283
199	0x3d8ee5c5	0.06977419
200	0x3c50e1f4	0.012749184
201	0xbd87ca62	-0.06630398
202	0x3d80497d	0.06264017
203	0xbcf66761	-0.030078592
204	0xbdda89b0	-0.10670793
205	0x3cdfc670	0.027316302
206	0x3baa0e90	0.0051897243
207	0xbc054b58	-0.008135639
208	0xbd961123	-0.07327487
209	0x3d9c8e3c	0.076443166
210	0x3d91c6e8	0.071180165
211	0xbcf12cdd	-0.029440338
212	0x3d839df9	0.06426615
213	0xbd2bfc4e	-0.041988663
214	0xbda71ae2	-0.08159424
215	0x3b95724f	0.004560746
216	0x3d25c6ad	0.040472675
217	0xbd7d1b0a	-0.061793365
218	0x3ddbb830	0.1072849
219	0xbca246b5	-0.019809106
220	0x3db8eede	0.09029935
221	0x3d28432d	0.04107969
222	0xbd93b868	-0.07212907
223	0xbdc80f28	-0.09768516
224	0x3d3e7a7b	0.046503525
225	0x3dd0ec14	0.10201278
226	0x3cc75d3d	0.024336452
227	0xbd7f6d7a	-0.062360264
228	0x3d963999	0.07335205
229	0x3db2e8e9	0.0873583
230	0x3cf9b310	0.030480891
231	0x3d5861ec	0.05282776
232	0xbd3d6b9c	-0.046245202
233	0x3ab81040	0.0014042929
234	0xbdc90845	-0.098160304
235	0xbda6e060	-0.08148265
236	0x3d461127	0.0483562
237	0x3dd7e480	0.1054163
238	0xbd483974	-0.048882917
239	0xbd5b6f87	-0.053573158
240	0xbdcfb5d9	-0.101421066
241	0xbd1b26c9	-0.037878785
242	0x3dcfd844	0.10148671
243	0xbd31da10	-0.04342085
244	0xbc2986d7	-0.01034709
245	0xbd48c590	-0.049016535
246	0x3da6d3d8	0.08145875
247	0xbd6bcbf8	-0.057567567
248	0xbd19c100	-0.037537575
249	0x3d8094b2	0.062783614
250	0x3dc14533	0.09437027
251	0x3cabe324	0.020982333
252	0x3d3e39d6	0.046441875
253	0xbdd01de9	-0.10161955
254	0x3d644718	0.055731863
255	0xbb26220d	-0.0025349886

encoder.3.bias f4 [32]
0	0x3d100b0a	0.035166778
1	0x3dbf9ddf	0.093562834
2	0x3cf5e0e9	0.030014472
3	0xbcb7fb6b	-0.022458753
4	0x3c7abb40	0.015303433
5	0x3d24ac7b	0.040203553
6	0xbd2ce5e6	-0.042211436
7	0xbd24cc83	-0.0402341
8	0x3db7dbd2	0.08977474
9	0xbd91b49e	-0.07114528
10	0x3cb32444	0.021867879
11	0xbd2f9306	-0.04286482
12	0xbda52471	-0.08063591
13	0xbc865d91	-0.016402038
14	0xbd5f299a	-0.054483034
15	0xbd287335	-0.041125495
16	0x3d8f3f6f	0.06994521
17	0xbccdd949	-0.025128024
18	0x3d112e03	0.03544427
19	0xbd2d76d5	-0.042349655
20	0x3d029c66	0.031887434
21	0x3d7d8ca2	0.061901696
22	0x3db9df18	0.09075755
23	0xbdc5e652	-0.09663071
24	0xbd2bb9d0	-0.04192525
25	0xbcc4726c	-0.023980342
26	0xbc5c20cd	-0.013435555
27	0xbc9d99a7	-0.019238306
28	0x3d817718	0.063215435
29	0x3d926c22	0.07149531
30	0x3da430f9	0.08017153
31	0xbdb18532	-0.08667983

encoder.6.weight f4 [16, 32, 3]
0	0x3d6e9f73	0.05825753
1	0xbda2a351	-0.079413064
2	0x3d564f53	0.052321743
3	0xbd170819	-0.036872957
4	0x3dbfecd8	0.09371346
5	0xbdada86f	-0.08479392
6	0xbd2e3d25	-0.04253878
7	0x3de3640b	0.11103066
8	0x3d9dc180	0.07702923
9	0xbd611834	-0.054954723
10	0xbda483a0	-0.08032918
11	0x3d184945	0.03717925
12	0xbdafae86	-0.085782096
13	0x3c11ea60	0.008905977
14	0x3da1604a	0.07879694
15	0x3918b8b8	0.00014564663
16	0x3d4b3856	0.049614273
17	0x3b5492df	0.0032436175
18	0xbb1a9d4a	-0.0023592287
19	0x3c8b7f11	0.017028363
20	0x3d9ce5b4	0.07661
21	0x3cdb51f1	0.026772471
22	0xbc8d7b83	-0.017270809
23	0x3c332e00	0.01093626
24	0xb924d398	-0.00015719084
25	0x3daf95c6	0.08573489
26	0x3dc58021	0.09643579
27	0xbbf742ab	-0.0075457892
28	0x3d9ff51d	0.078104235
29	0x3c0a1517	0.00842788
30	0xbd46b5b6	-0.048513137
31	0xbcd21bd8	-0.025648043
32	0xbd7f685a	-0.062355377
33	0x3cc4baf0	0.02401492
34	0x3d94d11c	0.07266447
35	0xbdc434c4	-0.09580377
36	0xbbd61310	-0.006533034
37	0xbdb461d7	-0.08807724
38	0x3ccd9018	0.025093123
39	0xbd710302	-0.05884076
40	0xbd9fcda4	-0.07802895
41	0x3d6b8249	0.057497296
42	0x3d8294b9	0.06376023
43	0x3bc90664	0.006134795
44	0xbd120a9b	-0.035654645
45	0xbd2c3bfb	-0.04204939
46	0xbd57c295	-0.052675802
47	0xbd9d7e8a	-0.07690151
48	0xbca6eb61	-0.02037591
49	0x3d1ab2f5	0.037768323
50	0x3d222e3e	0.03959488
51	0x3d91282a	0.07087739
52	0x3c914f1e	0.017737921
53	0x3d812409	0.06305701
54	0x3d68561a	0.056722738
55	0xbd378ff3	-0.044815015
56	0x3ce0d9ec	0.027447663
57	0xbda7c453	-0.08191743
58	0x3dcf406e	0.10119711
59	0xbd0b79a9	-0.03405157
60	0xbcfb9689	-0.03071143
61	0xbd54b1db	-0.05192743
62	0x3d484e95	0.048903067
63	0xbda766c1	-0.081738956
64	0xbd8b1886	-0.06791787
65	0x3b496bf9	0.0030734523
66	0xbc358c9f	-0.01108089
67	0xbca30c4d	-0.019903326
68	0x3ce25013	0.027626073
69	0xbd7d75c9	-0.061879907
70	0xbd31964d	-0.04335623
71	0xbdcf6da9	-0.10128338
72	0xbda5b5d4	-0.080913216
73	0xbd1fd85c	-0.039024696
74	0x3d100b98	0.035167307
75	0x3b5fadc0	0.0034130663
76	0xbd300cca	-0.042980947
77	0xbd8ffe8c	-0.07030973
78	0x3dd9d0c2	0.106355205
79	0x3d9857b6	0.074386045
80	0x3ba42950	0.0050098076
81	0xbd81cc54	-0.063378006
82	0x3d6ae32f	0.057345565
83	0x3de0675e	0.10957216
84	0x3db2ff54	0.08740106
85	0x3b3fae6c	0.002924825
86	0x3d705ae5	0.058680434
87	0x3a33fc0c	0.0006865866
88	0xbcc99e93	-0.024611747
89	0x3d98fc31	0.07469977
90	0xbd5ec668	-0.054388434
91	0x3d8d1465	0.068886556
92	0xbd1dd6c8	-0.03853491
93	0x3da5fc2c	0.081047386
94	0x3d06a27a	0.032869793
95	0xbd310f5c	-0.04322754
96	0x3db425ba	0.08796258
97	0xbd449820	-0.04799664
98	0x3daac5fa	0.08338542
99	0xbd0a1c92	-0.033718653
100	0xbd852829	-0.065018006
101	0x3cf71220	0.03016001
102	0xbc841714	-0.016124286
103	0xbd873660	-0.06602168
104	0xbd74220b	-0.05960278
105	0xbd2bb014	-0.041915968
106	0x3cbe6848	0.023243085
107	0xb904be00	-0.00012659281
108	0x3cd12428	0.025529936
109	0x3d830bfa	0.06398769
110	0x3d6d0748	0.057868272
111	0x3d949576	0.0725507
112	0xbcda40c4	-0.02664221
113	0x3dbb3f14	0.091428906
114	0xbd78a81b	-0.060707193
115	0xbd958e27	-0.07302504
116	0x3cefd608	0.029276863
117	0x3db774be	0.08957814
118	0xbcc1a5c0	-0.023638606
119	0x3db9e4dc	0.090768546
120	0xbdb6d113	-0.089265965
121	0xbc042a00	-0.008066654
122	0xbd755e18	-0.059904188
123	0x3c9613a4	0.018319912
124	0xbd24d87d	-0.04024552
125	0x3d8ac894	0.067765385
126	0xbd56c46b	-0.052433413
127	0x3d7b5ed4	0.061369732
128	0xbd2cd2a9	-0.04219309
129	0x3d8327ac	0.06404051
130	0xbd279f91	-0.04092366
131	0xbdb16748	-0.086622775
132	0xbdafd83a	-0.08586164
133	0x3bcc45c0	0.006233901
134	0x3dce5c6a	0.1007622
135	0x3ceb7dd0	0.028746516
136	0xbcda8a04	-0.02667714
137	0xbc3cb828	-0.011518516
138	0xbdb9ac94	-0.0906612
139	0x3da45926	0.08024816
140	0xbd312217	-0.0432454
141	0xbd56248d	-0.05228095
142	0xbc32b380	-0.010907054
143	0xbd430a2f	-0.047617134
144	0xbcd3dfa4	-0.025863476
145	0xbd11a58c	-0.03555827
146	0xbc9a7558	-0.018854782
147	0x3cf267b8	0.029590473
148	0xbcd84884	-0.026401766
149	0x3d169400	0.036762238
150	0x3dac9a6e	0.084278926
151	0xbd1f9118	-0.03895673
152	0xbcae7a98	-0.021298692
153	0x3d2d306c	0.042282507
154	0x3d96379a	0.07334824
155	0x3d950e16	0.07278077
156	0xbd3f9541	-0.0467732
157	0xbd07ec30	-0.03318423
158	0x3d388edc	0.045058116
159	0x3dbde986	0.09273057
160	0xbd6bbbf4	-0.057552293
161	0xbd7219cf	-0.059106644
162	0x3dcc89d4	0.09987226
163	0xbdb699cf	-0.089160554
164	0x3da6aeea	0.08138831
165	0xbdb692e6	-0.089147374
166	0x3daf6ab6	0.08565275
167	0xbc8d9048	-0.017280713
168	0x3d6128cc	0.054970548
169	0xba03b700	-0.00050245225
170	0xbcd26f34	-0.025687791
171	0xbd53b0ec	-0.051682398
172	0x3d03b16c	0.032151625
173	0xbc996990	-0.018727094
174	0x3d58d804	0.052940384
175	0xbdb3e139	-0.08783192
176	0x3dab5520	0.08365846
177	0xbd88b3b8	-0.06674904
178	0xbda11742	-0.07865764
179	0xbd9e4574	-0.07728091
180	0xbd3f14cc	-0.046650693
181	0x3db4e830	0.08833349
182	0xbbb423f0	-0.005497448
183	0x3d9af314	0.07565895
184	0xbd32d749	-0.043662343
185	0x3d5db574	0.054128125
186	0x3da80d88	0.08205706
187	0xbd52530a	-0.051348723
188	0xbca58980	-0.020207167
189	0x3d058198	0.032594293
190	0xbbb65ca0	-0.005565241
191	0xbda887b3	-0.082290076
192	0xbd894718	-0.06703013
193	0xbc479c75	-0.012183298
194	0xbd14d2a2	-0.036333688
195	0xbd3d8e54	-0.046278313
196	0xbd10e18a	-0.03537134
197	0x3cd3fc94	0.025877275
198	0x3daaf15e	0.083468184
199	0x3da834c4	0.08213189
200	0x3da9551a	0.08268185
201	0xbce1da92	-0.027570043
202	0xbdba4746	-0.090956256
203	0xbd27232e	-0.040805034
204	0xbc92611c	-0.017868571
205	0x3d90699c	0.070513934
206	0x3d514c64	0.051098242
207	0xbce1acb5	-0.027548173
208	0xbcaf5fcd	-0.021407986
209	0xbd8e4c12	-0.06948103
210	0xbc9656ba	-0.018351901
211	0xbd3394fb	-0.04384325
212	0xbd11be80	-0.035582066
213	0x3dc03992	0.09385981
214	0xbcbc491c	-0.02298408
215	0x3d6794c8	0.056538373
216	0xbdbda2c7	-0.09259563
217	0x3d00dc74	0.03146024
218	0x3d493890	0.049126208
219	0xbc97e4bf	-0.018541692
220	0x3d37c6a8	0.044867188
221	0x3da68f5d	0.08132813
222	0x3d7c3923	0.061577927
223	0x3daddd96	0.0848953
224	0x39d56265	0.00040699836
225	0xbd9fbce0	-0.07799697
226	0x3d8493ae	0.0647348
227	0xbc720960	-0.014772743
228	0x3d58c2bc	0.05292009
229	0xbd9d2e3a	-0.07674833
230	0x3d82cfe6	0.0638731
231	0xbb443e9e	-0.002994455
232	0xbd2b96f9	-0.041892026
233	0x3b30f3d5	0.0027000804
234	0x3940226f	0.00018323374
235	0x3d2abe80	0.04168558
236	0xbd53c055	-0.051697094
237	0xbd893cd3	-0.067010544
238	0xbd884923	-0.06654575
239	0x3cee240d	0.029069925
240	0x3d31951b	0.04335509
241	0x3c94f1c7	0.018181695
242	0x3d8cda57	0.068775825
243	0x3d299723	0.0414039
244	0x3c77a806	0.0151157435
245	0x3ce34cb0	0.027746528
246	0x3d2c81c1	0.04211593
247	0xbd823b10	-0.063589215
248	0x3d6123ff	0.05496597
249	0x3dbfd1f0	0.09366214
250	0xbbb0cd8a	-0.005395596
251	0x3d30bbae	0.043147735
252	0x3d8ed71d	0.06974623
253	0xbcb33df7	-0.021880133
254	0x3da5e842	0.0810094
255	0x3d8d62f4	0.069036394

encoder.6.bias f4 [16]
0	0x3d7cf4af	0.061756786
1	0xbd5559d2	-0.052087612
2	0xbc172923	-0.009226116
3	0x3aa7f893	0.001281517
4	0x3d7e7aec	0.062128946
5	0xbd179b08	-0.037013084
6	0x3d4fda0b	0.05074505
7	0xbb3ffc40	-0.002929464
8	0xbd5874aa	-0.052845635
9	0xbce4ec80	-0.027944803
10	0x3b2bbee4	0.002620631
11	0xbd321c43	-0.043483984
12	0x3d10544b	0.035236638
13	0x3bd03aec	0.0063546803
14	0xbd2380f2	-0.039917894
15	0x3dc2f0c6	0.0951858

fc1.weight f4 [8, 400]
0	0xbcbf675b	-0.023364713
1	0xbd470616	-0.04858979
2	0x3c899712	0.016795669
3	0xbc9e1f00	-0.019301891
4	0xbce58ccc	-0.028021239
5	0x3ce57472	0.028009627
6	0xbc4b2c7e	-0.0124007445
7	0xbce43b5b	-0.027860334
8	0xbc975111	-0.018471273
9	0x3ca9b4fc	0.020716183
10	0x3d2052e2	0.039141543
11	0xba1475ff	-0.0005663335
12	0x3cd6b6cd	0.026210213
13	0x3d292b69	0.041301165
14	0xbae16338	-0.0017195707
15	0x3cffdcea	0.03123327
16	0xbd072605	-0.032995243
17	0x3cfd6c56	0.030935448
18	0xb97185a8	-0.00023033342
19	0x3bcbb0b6	0.006216134
20	0xbcdb341a	-0.026758242
21	0xbd174fe8	-0.03694144
22	0xbd229259	-0.03969035
23	0xbd095a29	-0.03353325
24	0x3cb16458	0.021654293
25	0x3c5e695c	0.013574924
26	0x3cce928e	0.025216367
27	0xbcc9eb3a	-0.024648298
28	0xbb89d240	-0.004205972
29	0x3d3a5327	0.045489457
30	0xbc1b7c40	-0.009490073
31	0xbc69d48c	-0.0142718665
32	0xbb26d350	-0.0025455542
33	0xbd021c9e	-0.031765573
34	0x3d3af63b	0.04564498
35	0x3d3eb62d	0.046560455
36	0x3c7a89cc	0.015291642
37	0xbd084f08	-0.033278495
38	0xbcdbd8c7	-0.026836766
39	0x3cc7b712	0.024379287
40	0xbcbdcef3	-0.02316997
41	0xbc022c38	-0.007945113
42	0xbc88a73c	-0.016681306
43	0xbc826d8c	-0.015921377
44	0xbd077b80	-0.033076763
45	0x3cf22a3e	0.029561158
46	0xba464b40	-0.0007564314
47	0xbd45c50a	-0.048283614
48	0xbd14d586	-0.036336444
49	0x3c05d6c8	0.008168884
50	0x3d487f9c	0.048949823
51	0x3d29d242	0.041460283
52	0x3c86f5ad	0.01647457
53	0x3d5bfd1e	0.05370819
54	0xbca32cce	-0.019918825
55	0x3d18d084	0.03730823
56	0x3cb6f1fc	0.022332184
57	0xbc2c9061	-0.0105324695
58	0xbcee318b	-0.029076358
59	0xbc8ac9af	-0.016941873
60	0x3d270d33	0.040784072
61	0x3cbac402	0.022798542
62	0x3d488403	0.04895402
63	0xbb82ee3a	-0.003995684
64	0xbd2d029f	-0.042238828
65	0xbbd69682	-0.0065487036
66	0x3d28b3a1	0.041186932
67	0xbd214c87	-0.039379623
68	0xbd4b0947	-0.049569394
69	0xbcf3d98d	-0.029766822
70	0xbcc9a1a9	-0.024613218
71	0xbd4364fb	-0.047703724
72	0xbc6587d4	-0.014009435
73	0xbc30c3e4	-0.010788891
74	0xbc089672	-0.00833665
75	0xbc95149d	-0.018198306
76	0xbcf7fbb0	-0.030271381
77	0x3cb72705	0.022357473
78	0x3d51caa0	0.05121863
79	0xbc3f3432	-0.011670159
80	0x3d0beaea	0.03415958
81	0x3cbd389d	0.023098284
82	0xba6996eb	-0.0008910733
83	0x3cdaeecd	0.026725197
84	0x3d07c6c6	0.03314855
85	0xbbbbec3d	-0.005734949
86	0xbd3226c7	-0.043494012
87	0x3bdef0d9	0.0068036136
88	0xbce3e9af	-0.02782139
89	0x3cfc3f8e	0.030792024
90	0x3bef4100	0.00730145
91	0x3c4404a8	0.011964001
92	0x3c23b820	0.009992629
93	0xbd2b85e8	-0.04187575
94	0x3d32e181	0.04367209
95	0x3c5b3e84	0.013381604
96	0x3cbb8466	0.022890281
97	0x3cd4aad2	0.02596036
98	0x3ba57470	0.005049281
99	0xbd3c39c1	-0.045953516
100	0x3d091b9f	0.033473607
101	0x3cba73dd	0.022760326
102	0xbcfcaf66	-0.030845355
103	0x3d17004c	0.036865517
104	0xbce4937e	-0.027902361
105	0x3d1f9b52	0.038966484
106	0x3bb787c6	0.0056009023
107	0x3c40233c	0.0117271505
108	0xbb8c485b	-0.0042810864
109	0x3d0562d1	0.03256494
110	0xbc442b1e	-0.011973171
111	0xbd55b31d	-0.05217277
112	0xbd216492	-0.039402552
113	0x3c85f407	0.016351713
114	0x3d16cc29	0.036815796
115	0x3c2eb9d6	0.010664424
116	0xbd10b88d	-0.03533225
117	0x3c8668eb	0.01640745
118	0x3cab84b7	0.020937307
119	0xbd56146d	-0.052265573
120	0xbd09134e	-0.033465676
121	0x3cd21f63	0.025649732
122	0x3d0f3013	0.034957957
123	0x3b071569	0.0020612127
124	0xbd0514d7	-0.032490578
125	0x3b6ae420	0.003584154
126	0x3c61d164	0.013782833
127	0x3ce7e3fe	0.028306957
128	0xbd3c5a73	-0.045984697
129	0x3d2fa897	0.04288539
130	0x3d1b2a4f	0.037882145
131	0x3a061e00	0.00051161647
132	0xbc5e19c0	-0.013555944
133	0xbc46d488	-0.012135632
134	0x3cd6cf42	0.026221875
135	0xbc081968	-0.008306839
136	0xbcfef903	-0.031124597
137	0xbd2800c8	-0.04101637
138	0xbd16e51b	-0.036839586
139	0xbb2518e0	-0.0025191829
140	0xbc832e60	-0.016013324
141	0x3d216783	0.039405357
142	0xbd3764af	-0.044773754
143	0x3a1b3680	0.0005920902
144	0x3c7fef5c	0.015621033
145	0xbc3ec354	-0.01164325
146	0x3d35bfa3	0.044372212
147	0xbcc2a960	-0.023762405
148	0x3d030c51	0.031994168
149	0xbb714eb0	-0.0036820583
150	0xbd586a99	-0.052836034
151	0x3d07f9ab	0.033197086
152	0xbd042321	-0.032260064
153	0xbd423898	-0.047417253
154	0x3c351872	0.0110531915
155	0x3d154bfa	0.03644941
156	0xbd06d1c5	-0.032914896
157	0x3cfcec21	0.030874314
158	0x3c851be4	0.01624865
159	0xbd1e891f	-0.038704988
160	0x3c1f5578	0.009724967
161	0xbd3ea707	-0.04654601
162	0x3d41bc43	0.04729868
163	0xbd3690d7	-0.044571724
164	0xbc4e03ab	-0.012574117
165	0xbd57a253	-0.05264504
166	0x3c5f25a5	0.013619815
167	0xbd486091	-0.048920218
168	0x3d2c79e0	0.042108417
169	0xbcb284e3	-0.021791881
170	0xbd21d10c	-0.039506003
171	0x3c6691b6	0.014072826
172	0xbbbfc123	-0.005851881
173	0xbc9b977e	-0.018993136
174	0xbcb4175f	-0.0219838
175	0xbcc1c9d0	-0.023655802
176	0xbc537fec	-0.012908917
177	0xbbb07f18	-0.0053862445
178	0xbcdb6f60	-0.026786506
179	0x3b9f6a40	0.004864961
180	0x3ba1a180	0.0049325824
181	0x3cc47e42	0.023985986
182	0xbc06e854	-0.008234102
183	0x3cb645fe	0.022250172
184	0xbc169dcc	-0.009192895
185	0xbc82a84c	-0.01594939
186	0xbbaec628	-0.0053336807
187	0xbd01958e	-0.031636767
188	0x3ca5db62	0.020246211
189	0x3d10a0d1	0.035309616
190	0x3d2f1a51	0.042749707
191	0xbbf06100	-0.007335782
192	0x3c80a92e	0.015705671
193	0xbd2734dd	-0.0408219
194	0xbd28ef82	-0.041244037
195	0xbc87e0ea	-0.01658674
196	0x3d0b9fd9	0.03408799
197	0x3d222cdb	0.03959356
198	0xbce410ea	-0.027840097
199	0x3cc3c98a	0.023899812
200	0x3c411e40	0.011786997
201	0x3b417230	0.0029517524
202	0xbcbbe39d	-0.022935683
203	0x3c9fd376	0.019510012
204	0x3c05b5f4	0.008161057
205	0xbc511fec	-0.012763958
206	0x3ae85040	0.0017724112
207	0x3c8ee162	0.017441455
208	0x3d4cb121	0.04997361
209	0x3d072b61	0.033000354
210	0x3cb78c02	0.022405628
211	0x3d220675	0.03955694
212	0xbd313363	-0.043261897
213	0xbd484543	-0.048894178
214	0x3c8811d2	0.01661006
215	0x3bddd8b0	0.006770216
216	0x3ce0a8ae	0.027424183
217	0x3d42174b	0.047385495
218	0xbc504380	-0.012711406
219	0xbc53c820	-0.0129261315
220	0x3d3f79ed	0.046747137
221	0x3ca61f02	0.020278458
222	0xbd341f7a	-0.04397533
223	0x3ceba466	0.028764915
224	0xbd08d715	-0.033408243
225	0xbd1e2dec	-0.038618013
226	0xbceb3816	-0.028713267
227	0x3d2c0bd0	0.042003453
228	0x3b1dcff2	0.0024080244
229	0x3d22cae0	0.039744258
230	0x3d05bd82	0.03265143
231	0x3a01c9f9	0.0004951056
232	0xbccf5f21	-0.025313916
233	0x3b60c899	0.0034299253
234	0xbcda4d4a	-0.026648182
235	0x3d16f3d3	0.036853623
236	0x3cd471d6	0.025933187
237	0x3c2ff972	0.010740625
238	0xbc9da220	-0.019242346
239	0x3c872062	0.016494934
240	0xbd141585	-0.036153335
241	0xbcb22aea	-0.021748979
242	0xbc84af30	-0.016196817
243	0xbd16f82b	-0.036857765
244	0x3c6af4c4	0.014340583
245	0xbcec9ced	-0.028883422
246	0xbca8b633	-0.020594692
247	0xba33bb40	-0.00068562105
248	0xbbd7f350	-0.0065902844
249	0xbcffea77	-0.031239731
250	0xbc7348ab	-0.014848868
251	0x3d051ff0	0.03250116
252	0xbd193661	-0.037405375
253	0xbbcf5778	-0.0063275658
254	0xbd0fd3ba	-0.035114028
255	0x3d56bae0	0.05242431

fc1.bias f4 [8]
0	0xbc62da95	-0.013846059
1	0x3d18c33c	0.037295565
2	0xbaa76f30	-0.0012774225
3	0xba5caa3e	-0.0008417702
4	0x3c469834	0.012121249
5	0xbc881256	-0.016610306
6	0xbd0bd223	-0.03413595
7	0x3d378727	0.044806626

fc2.weight f4 [400, 8]
0	0x3e832289	0.25612286
1	0xbe1b0663	-0.15139155
2	0xbe6cfee0	-0.23144102
3	0xbddd1efa	-0.10796924
4	0x3e390729	0.18069138
5	0xbe1f7165	-0.155706
6	0x3dc76e9e	0.097378954
7	0x3db49751	0.08817924
8	0x3e512291	0.20423342
9	0xbd577599	-0.052602384
10	0x3e700724	0.23440224
11	0x3e757068	0.23968661
12	0xbe992336	-0.29909676
13	0x3e3c1556	0.18367514
14	0xbe871827	-0.26385614
15	0x3e9b5b7e	0.3034324
16	0x3e354d34	0.17705232
17	0xbd34096b	-0.043954294
18	0xbe1f2fa0	-0.15545511
19	0xbe9cb3cd	-0.30605927
20	0x3e90aea0	0.28258228
21	0x3e66bf1a	0.22533837
22	0x3dd749cb	0.10512122
23	0xbe784676	-0.24245629
24	0xbe5f96a1	-0.21834804
25	0x3de4bd0d	0.11168871
26	0x3cf8cf82	0.030372385
27	0xbe91a09f	-0.28442857
28	0x3e6a9633	0.22908859
29	0xbe1e3451	-0.15449645
30	0x3e606083	0.21911816
31	0x3d01c2a8	0.03167978
32	0x3e7cc356	0.2468389
33	0xbe28c75c	-0.164823
34	0xbdc7d400	-0.09757233
35	0x3e8fd71c	0.28093803
36	0x3d28129b	0.04103337
37	0xbe883dfe	-0.26609796
38	0xbd9db974	-0.07701388
39	0xbe554d95	-0.20830376
40	0x3e7f952c	0.24959248
41	0xbe792c81	-0.24333383
42	0x3aaa9a28	0.0013015913
43	0x3df92d3d	0.12166832
44	0xbdac9407	-0.084266715
45	0xbe817f3b	-0.25292382
46	0x3d0209c6	0.031747602
47	0xbe0276b4	-0.12740594
48	0x3eadedba	0.33970433
49	0x3eaa9c54	0.33322394
50	0xbd428b73	-0.04749627
51	0xbdd27c04	-0.1027756
52	0x3eacb8d6	0.3373477
53	0x3db05c20	0.086113214
54	0xbc2c4af0	-0.010515913
55	0xbe60661b	-0.2191395
56	0xbe913dd8	-0.28367496
57	0xbe0f29c3	-0.13980775
58	0x3d0f8efe	0.035048477
59	0xbdba71e3	-0.091037534
60	0xbd786825	-0.060646195
61	0x3e625567	0.22102891
62	0x3e421f07	0.18957148
63	0x3e1dbffb	0.15405266
64	0xbe8bd00d	-0.27307168
65	0x3e8255ff	0.25456235
66	0x3df18d7c	0.11794564
67	0xbe4b2257	-0.19837318
68	0xbda8af73	-0.08236589
69	0x3e82c5fa	0.2554167
70	0xbe3adcff	-0.18248366
71	0x3e719b27	0.23594342
72	0xbea9a3e5	-0.33132854
73	0xbe5cf396	-0.21577296
74	0xbe20677f	-0.1566448
75	0x3e669e61	0.22521354
76	0x3e464a65	0.19364317
77	0x3e297f88	0.16552556
78	0x3e255c52	0.16148499
79	0xbe1fd849	-0.1560985
80	0xbd65a040	-0.05606103
81	0xbe3cddbc	-0.1844396
82	0x3d821a15	0.06352631
83	0xbdd2194d	-0.10258732
84	0xbe78468a	-0.24245659
85	0x3e4d9b14	0.20078689
86	0x3d87a7a6	0.06623773
87	0x3bb5aaea	0.005544056
88	0x3e25eeb3	0.16204338
89	0xbd186baa	-0.03721205
90	0x3e2e6d82	0.17033961
91	0x3e58ad61	0.21159889
92	0xbe40316b	-0.18768851
93	0x3e4d5caa	0.2005488
94	0xbe9a5938	-0.30146194
95	0x3e526d8a	0.20549598
96	0xbe3e7b51	-0.18601729
97	0xbe995371	-0.29946473
98	0x3e8ca762	0.27471453
99	0x3e5748c0	0.21023846
100	0x3ea8e09a	0.32983857
101	0xbe6d39f2	-0.23166636
102	0xbe915443	-0.283846
103	0x3dce70ed	0.10080133
104	0x3d50c1ae	0.050965957
105	0x3de3ae8c	0.111172765
106	0xbe04489f	-0.12918328
107	0xbea0610c	-0.3132404
108	0xbe8ca4dc	-0.27469528
109	0xbd29956b	-0.04140226
110	0x3dcc1578	0.09965032
111	0xbe549ce0	-0.20762968
112	0xbe87d512	-0.26529747
113	0xbd18e4b3	-0.03732748
114	0x3e000c52	0.125047
115	0xbeae5437	-0.34048626
116	0x3e9493c2	0.2901898
117	0xbe82515c	-0.25452697
118	0x3e42fac2	0.19040969
119	0xbe0c0f2c	-0.13677663
120	0xbe4f6652	-0.20253876
121	0xbe84153d	-0.25797454
122	0xbd3457a2	-0.044028886
123	0xbe84585e	-0.2584867
124	0x3c7d292e	0.0154517125
125	0x3b7daa97	0.0038706416
126	0x3dc574f1	0.096414454
127	0x3ea45aed	0.3210062
128	0x3e5da41d	0.21644635
129	0xbe77770e	-0.2416651
130	0xbeb19ce3	-0.34690008
131	0xbea061d8	-0.3132465
132	0xbe0be672	-0.13662127
133	0x3e51c134	0.20483857
134	0xbea080e1	-0.31348327
135	0xbeadac75	-0.33920637
136	0xbd1d86af	-0.038458522
137	0xbc2aba7a	-0.010420436
138	0x3dc21032	0.09475745
139	0xbe516100	-0.20447159
140	0x3eacc147	0.3374121
141	0xbddba279	-0.107243486
142	0xbdf25e70	-0.11834419
143	0x3eae589b	0.34051976
144	0x3e9407ea	0.28912288
145	0xbea36e1d	-0.31919947
146	0x3eaa07d6	0.33209103
147	0xbd25aa5a	-0.040445663
148	0xbe5ec0eb	-0.2175328
149	0xbe8324d5	-0.25614038
150	0xbe955536	-0.29166573
151	0x3e391acf	0.18076633
152	0x3c2121a7	0.0098346835
153	0x3d86e195	0.06585995
154	0x3dd06010	0.101745725
155	0x3e9fff57	0.31249496
156	0x3e5d566e	0.21615002
157	0xbe77f172	-0.24213198
158	0xbe8c2e19	-0.2737892
159	0x3ea3e93e	0.32013887
160	0xbeb712ae	-0.3575644
161	0x3d86a5d8	0.06574601
162	0x3d5422d6	0.051791035
163	0xbea45f89	-0.32104138
164	0xbc8171e6	-0.015801381
165	0x3e77614d	0.24158211
166	0x3e87ce25	0.26524463
167	0x3e863f40	0.2622013
168	0xbe7b9688	-0.24569142
169	0x3e805396	0.2506377
170	0x3da1fe78	0.07909864
171	0x3c92a847	0.017902507
172	0x3eb0e2fc	0.34548175
173	0x3e39eed8	0.18157518
174	0xbe173bb2	-0.14768866
175	0x3db54b09	0.088522024
176	0xbaa4d4fa	-0.0012575679
177	0xbe9e897a	-0.3096426
178	0x3d05d87e	0.032677166
179	0xbea52f0c	-0.32262456
180	0x3db437f3	0.08799734
181	0xbb5b2b28	-0.0033442471
182	0x3ea919a3	0.33027372
183	0x3e444f71	0.1917093
184	0x3e2c4187	0.16821872
185	0x3d27b957	0.04094824
186	0x3db5d007	0.08877569
187	0xbd3733a5	-0.044726986
188	0xbe2b4e32	-0.16729048
189	0x3dfe29e2	0.12410332
190	0x3e839842	0.257021
191	0x3e98f5f1	0.29875138
192	0x3bd46408	0.006481651
193	0xbe7625e4	-0.24037892
194	0x3d79bb06	0.060969375
195	0x393dd170	0.00018102466
196	0xbeaf23b8	-0.3420694
197	0x3eaaaaec	0.33333528
198	0xbd4038b4	-0.046929076
199	0x3c85fae7	0.016354991
200	0xbea3c972	-0.31989628
201	0x3d0bc1a5	0.03412022
202	0x3ea3c51a	0.31986314
203	0x3e074d46	0.13213071
204	0x3ddea945	0.10872129
205	0xbe3d0bee	-0.18461582
206	0xbe928407	-0.28616354
207	0xbe0e0976	-0.13870797
208	0x3e95a19e	0.29224867
209	0xbe84e107	-0.25952932
210	0x3e78728d	0.24262448
211	0x3d85aa76	0.065266535
212	0xbe12ca93	-0.14335088
213	0x3ded05fc	0.11573407
214	0x3dc0c7cd	0.09413109
215	0xbeb15a18	-0.3463905
216	0xbdb758c6	-0.08952479
217	0x3c14416e	0.009048803
218	0x3e1a94bd	0.15095802
219	0x3e0ee1aa	0.13953272
220	0x3ea5a310	0.3235097
221	0xbe81688d	-0.25275078
222	0x3e7e9e5b	0.24865095
223	0xbe534ca1	-0.206347
224	0xbe90faf3	-0.2831646
225	0x3e711bbc	0.23545736
226	0xbdd29cec	-0.10283837
227	0xbd025bef	-0.031825956
228	0xbdd49027	-0.103790574
229	0x3da84f73	0.08218279
230	0xbe9d4b8a	-0.30721694
231	0xbc91adfa	-0.017783154
232	0xbc789181	-0.01517141
233	0x3d2dc31e	0.042422406
234	0x3de90c3e	0.11379288
235	0x3df4e902	0.11958505
236	0xbe8dbac4	-0.27681553
237	0xbeaae4d7	-0.33377716
238	0xbeb0ae0e	-0.34507793
239	0xbe6762db	-0.22596304
240	0xbd8874cd	-0.06662903
241	0xbd2f60b2	-0.042816825
242	0xbe8e111d	-0.2774743
243	0x3c5413b0	0.012944147
244	0x3e30f935	0.17282565
245	0xbce0d05d	-0.027443105
246	0x3dc5bff2	0.09655751
247	0x3e9e2a72	0.30891758
248	0xbe5bb5b5	-0.21456034
249	0x3e3054a7	0.17219792
250	0xbe331434	-0.17488176
251	0xbde199dd	-0.11015675
252	0x3dcbe13c	0.099550694
253	0xbce0204b	-0.027359148
254	0xbd17f094	-0.037094668
255	0x3dfdb778	0.123885095

fc2.bias f4 [400]
0	0x3e9b7949	0.3036597
1	0xbe09abea	-0.13444486
2	0x3e3c7b2a	0.18406358
3	0xbe8c49c2	-0.27400023
4	0xbe214bc7	-0.15751563
5	0xbe2c083d	-0.16800018
6	0xbd8e2d22	-0.06942202
7	0x3b737979	0.003715126
8	0x3ea100ea	0.3144601
9	0xbe60ee2d	-0.21965857
10	0xbb63b4be	-0.0034745182
11	0x3e6cb32c	0.23115224
12	0x3d96a508	0.07355696
13	0x3e1c1565	0.15242536
14	0x3e420b4d	0.18949623
15	0x3e88f20a	0.2674716
16	0x3e1878bc	0.14889807
17	0xbc9d1175	-0.019173363
18	0x3e8fd737	0.28093883
19	0x3eb849a3	0.3599368
20	0x3e4fe070	0.2030046
21	0x3d8d4279	0.06897444
22	0xbe881a86	-0.26582736
23	0xbdf9a559	-0.12189741
24	0xbbeff602	-0.0073230276
25	0xbdfe307f	-0.12411594
26	0x3e90284d	0.28155747
27	0x3e8a83b2	0.270536
28	0xbdf0448c	-0.11731824
29	0xbeaadecf	-0.33373114
30	0xbe83861c	-0.25688255
31	0xbbe61677	-0.007021721
32	0xbd8fc8d7	-0.07020729
33	0xbeb27a20	-0.348588
34	0xbe6d3295	-0.23163827
35	0x3e684b5d	0.22684999
36	0x3df5505c	0.11978218
37	0xbe87360a	-0.26408416
38	0xbe1d77e2	-0.15377763
39	0xbd42833b	-0.047488432
40	0xbdb3b27b	-0.08774277
41	0x3e4cba73	0.19993
42	0x3d251ae8	0.040308863
43	0xbd8cf612	-0.06882872
44	0x3d6481b7	0.05578777
45	0xbe711354	-0.2354253
46	0xbdb73a7e	-0.089467034
47	0xbdaea800	-0.08528137
48	0xbe31d6b2	-0.17367056
49	0xbc110541	-0.00885135
50	0x3d25d4df	0.040486213
51	0xbca003ba	-0.019533027
52	0xbe862e4d	-0.262072
53	0xbdf1a3ef	-0.11798846
54	0xbe985b1c	-0.2975701
55	0x3c7d8905	0.0154745625
56	0xbda346f2	-0.07972516
57	0x3d989cc7	0.07451778
58	0xbd9d8509	-0.0769139
59	0x3e8a07d5	0.269591
60	0xbe038863	-0.12844996
61	0xbea2e48d	-0.31814995
62	0xbdcd707a	-0.10031219
63	0x3e5cbe24	0.21556908
64	0x3e9222b4	0.285421
65	0x3cc22a6d	0.02370187
66	0xbe07e430	-0.1327064
67	0xbea99870	-0.33124113
68	0x3c8e533c	0.017373674
69	0x3e2111fc	0.15729517
70	0x3c1a026a	0.00939999
71	0x3d564f9b	0.05232201
72	0xbe9fdab4	-0.31221545
73	0xbe489730	-0.19588923
74	0x3d065bc7	0.03280237
75	0x3ded5ac9	0.115895815
76	0xbdf3f257	-0.11911457
77	0x3e301a70	0.17197585
78	0xbd5e3844	-0.054252878
79	0xbe8d61e5	-0.2761375
80	0xbe9dd3d4	-0.30825675
81	0xbe40685d	-0.18789811
82	0xbe5b98fd	-0.21445079
83	0xbe3fa448	-0.18715012
84	0xbdedbef1	-0.11608685
85	0x3e980727	0.29692957
86	0xbd93ec9c	-0.07222864
87	0xbd20c31e	-0.03924858
88	0x3e8553e4	0.26040566
89	0x3dca4d93	0.09878077
90	0xbe227a62	-0.15866998
91	0x3eb3a4f7	0.35086796
92	0x3eb75209	0.35804775
93	0xbe0cc4d6	-0.13746962
94	0x3e864041	0.26220897
95	0xbe8a058f	-0.26957366
96	0xbd421948	-0.04738739
97	0xbc6c1a45	-0.01441056
98	0xbd8ec63d	-0.06971405
99	0xbbb24100	-0.0054398775
100	0x3a1e22d8	0.0006032414
101	0x3e348d76	0.17632088
102	0x3e22dff9	0.15905751
103	0xbe882ffe	-0.26599115
104	0x3d1cbf40	0.038268328
105	0xbe4dc563	-0.20094828
106	0xbe44a59f	-0.19203804
107	0x3ea93684	0.33049405
108	0xbd818a72	-0.063252345
109	0xbd0f3fce	-0.03497296
110	0x3e5cd5b4	0.21565896
111	0xbe91e12f	-0.28492114
112	0xbe8302ba	-0.25588018
113	0x3cb6f07c	0.022331469
114	0xbe4a5916	-0.19760546
115	0x3dac7c32	0.08422126
116	0x3e9359da	0.2877949
117	0x3e3e6ad6	0.18595442
118	0x3d18cf52	0.03730709
119	0xbd11d4b4	-0.03560324
120	0x3d3730d6	0.044724308
121	0x3e82cf9b	0.25549015
122	0x3e3a913b	0.18219464
123	0xbe3ac910	-0.18240762
124	0x3e380a52	0.17972687
125	0xbe06b722	-0.13155797
126	0xbd8de50a	-0.06928451
127	0x3df2b27e	0.11850451
128	0x3e055bb7	0.13023268
129	0xbc4d7363	-0.012539717
130	0x3d7e489c	0.062080964
131	0x3e95304d	0.29138413
132	0x3e97fd50	0.2968545
133	0x3d077d6d	0.0330786
134	0x3d83d1ae	0.064364776
135	0x3d86d5da	0.06583758
136	0x3dd90388	0.10596377
137	0xbe3e4c8d	-0.1858389
138	0x3d3a5955	0.04549535
139	0x3e953ed7	0.29149505
140	0xbe2f8b8a	-0.17143074
141	0x3e04b799	0.12960662
142	0xbd0a5cdd	-0.033779968
143	0xbe0f9685	-0.14022262
144	0x3e92b7d0	0.28655863
145	0x3d89a137	0.067202024
146	0x3e9b0ea6	0.30284613
147	0x3e11e69c	0.14248127
148	0xbdf9a37b	-0.121893845
149	0xbea2811c	-0.31739128
150	0x3e90c618	0.28276134
151	0x3ea72717	0.3264701
152	0xbe888636	-0.26664895
153	0xbe6408a0	-0.22268915
154	0x3e6e2cd3	0.23259287
155	0x3e46e508	0.19423306
156	0xbe0c2efd	-0.136898
157	0x3d6527c5	0.05594613
158	0xbe925946	-0.28583735
159	0x3d47d353	0.04878552
160	0x3ea5edfa	0.32408124
161	0x3e5957be	0.21224877
162	0xbd8b39a9	-0.06798107
163	0xbc3d91e9	-0.011570432
164	0x3e9c4189	0.3051875
165	0xbe9049d3	-0.28181323
166	0x3e2fe084	0.1717549
167	0x3c973f1c	0.01846271
168	0xbdc8793b	-0.09788748
169	0x3e85d2c6	0.2613737
170	0x3e1bac10	0.15202355
171	0xbe952bb9	-0.2913492
172	0xbd55a1bf	-0.052156206
173	0x3e579aef	0.21055196
174	0x3e334817	0.17507969
175	0xbe83bb8a	-0.25729018
176	0x3dd11fe0	0.10211158
177	0x3e0881d6	0.13330778
178	0x3d4d74b0	0.05016011
179	0x3e100437	0.14064108
180	0xbd95611e	-0.07293914
181	0x3e4264ad	0.18983717
182	0xbdf50c1c	-0.119652
183	0xbcf38efb	-0.029731264
184	0x3eadae43	0.33922014
185	0x3ded8c2f	0.115990035
186	0x3e5ec421	0.21754505
187	0xbe3f4b15	-0.18680985
188	0xbe343071	-0.17596604
189	0xbe68bb1c	-0.22727627
190	0xbded617a	-0.11590858
191	0x3dc80263	0.0976608
192	0x3c9ded15	0.019278089
193	0x3e0ff9c0	0.14060116
194	0xbe15d5bb	-0.14632313
195	0x3e974028	0.29541135
196	0x3baec089	0.0053330106
197	0xbd8f6bcd	-0.07002983
198	0xbdffd973	-0.12492647
199	0x3cce60e1	0.02519268
200	0xbd1657b2	-0.036704727
201	0x3e5fd524	0.2185865
202	0x3eaff6c9	0.3436797
203	0xbe4da61f	-0.20082901
204	0xbe6ffdff	-0.23436736
205	0xbe97d135	-0.296518
206	0xbcd8bd29	-0.026457386
207	0x3ea897f5	0.32928434
208	0x3ac9d80e	0.0015399472
209	0xbd204d20	-0.039136052
210	0x3d97ac8e	0.07405959
211	0x3ea9e42a	0.33181888
212	0x3d6e392d	0.058159996
213	0xbd3e7ae8	-0.04650393
214	0xbea0e4cd	-0.3142456
215	0xbd2069f3	-0.03916354
216	0xbe68b600	-0.22725677
217	0xbdcabcff	-0.098993294
218	0x3e3fac66	0.18718109
219	0xbd3fc192	-0.046815462
220	0xbe37b547	-0.17940246
221	0x3e46bedc	0.19408745
222	0x3e084f0b	0.13311402
223	0xbdefa973	-0.11702242
224	0xbe972456	-0.2951991
225	0x3e068d1d	0.13139768
226	0x3e7318bf	0.23739909
227	0xbdcafa30	-0.09911001
228	0xbe806f41	-0.2508488
229	0x3e93222c	0.2873701
230	0xbe900290	-0.28126955
231	0x3e974239	0.2954271
232	0xbe0d7895	-0.1381553
233	0xbcde9d2f	-0.02717456
234	0x3e8b6e7a	0.27232724
235	0x3e9edf8f	0.31029937
236	0x3e343a54	0.17600375
237	0xbea7a059	-0.32739523
238	0xbeaf798f	-0.3427243
239	0x3e463224	0.19355065
240	0x3e1c4c69	0.15263523
241	0x3e9b64f6	0.30350465
242	0x3e4a4d6a	0.19756094
243	0xbeb5310a	-0.35388976
244	0xbc29e49d	-0.010369447
245	0xbe598b3c	-0.2124452
246	0xbe09aef1	-0.13445641
247	0x3e840ad9	0.25789526
248	0xbd3c0a54	-0.045908287
249	0x3e5adab6	0.21372494
250	0xbdd8809f	-0.105714075
251	0xbe0cfbfa	-0.13767996
252	0x3e293d19	0.16527213
253	0xbcfab702	-0.030604843
254	0x3d9c4f91	0.076323636
255	0x3e9c09de	0.30476278

decoder.0.weight f4 [16, 32, 3]
0	0xbc936e41	-0.01799691
1	0x3d823061	0.06356884
2	0xbc871ad6	-0.016492289
3	0xbd521d88	-0.051297694
4	0xbd884233	-0.066532515
5	0x3d983db0	0.07433641
6	0x3d8f4d78	0.06997198
7	0x3c668781	0.014070393
8	0xbdb781c1	-0.089602955
9	0xbdda5936	-0.10661547
10	0xbd550fb4	-0.05201693
11	0xbd279ba6	-0.040919922
12	0x3ce6b5fc	0.028162949
13	0xbda301a7	-0.079592995
14	0x3d392c0a	0.045208015
15	0x3ace8a82	0.0015757831
16	0xbdaeaf13	-0.085294865
17	0x3da0b3f2	0.07846822
18	0xbd998a52	-0.07497086
19	0x3d3f34e2	0.046681292
20	0xbc55315e	-0.013012258
21	0x3c6ff5b9	0.014645987
22	0x3b350008	0.0027618427
23	0x3b6c0612	0.003601436
24	0x3d83c68a	0.06434353
25	0xbd9b6937	-0.075884275
26	0x3d80bd34	0.06286088
27	0x3c9948f0	0.018711537
28	0xbdcad1e9	-0.099033184
29	0x3d442baa	0.047893204
30	0xbd9ce01a	-0.076599315
31	0x3dbd1bca	0.09233816
32	0xbc047976	-0.008085599
33	0x3dcb6428	0.09931213
34	0x3d8f93b7	0.07010596
35	0xbdb0e0e7	-0.08636647
36	0x3d72b17c	0.059251294
37	0x3d35bcea	0.044369616
38	0xbd03afd3	-0.0321501
39	0x3d8deeeb	0.069303356
40	0xbc98d69d	-0.018657023
41	0x3c98d407	0.01865579
42	0x3d5cad28	0.053876072
43	0x3d873488	0.066018164
44	0xbd930f55	-0.07180659
45	0x3db1c78e	0.0868064
46	0x3ddc10ec	0.10745415
47	0x3dd555cd	0.10416756
48	0xbd0bb91c	-0.03411208
49	0xbd793b54	-0.060847595
50	0xbdb7d16f	-0.08975493
51	0x3d5e6790	0.054297984
52	0x3dde5a7d	0.10857103
53	0xbd863ed8	-0.06554955
54	0xbdb996f4	-0.09061995
55	0xbd2ee389	-0.042697463
56	0x3cd1b6d7	0.02559988
57	0xbbec7ff2	-0.0072174007
58	0xbc4a1c59	-0.01233586
59	0xbce98b56	-0.028508823
60	0xbcc9d5fc	-0.024638169
61	0xbd6f3082	-0.05839587
62	0x3dbaecb7	0.09127181
63	0x3c0eacfe	0.008708237
64	0xbd594281	-0.05304194
65	0xbd7c13b7	-0.06154224
66	0x3db348dd	0.08754132
67	0x3dbcf041	0.09225512
68	0x3d3dee31	0.046369735
69	0xbc6faa2a	-0.014627973
70	0x3d9d7c76	0.07689755
71	0x3d82850a	0.063730314
72	0x3c25340a	0.010083208
73	0xbc064eb7	-0.008197478
74	0x3ad31532	0.0016104339
75	0x3c86c2d5	0.016450325
76	0x3d9382b1	0.07202662
77	0xbd39f379	-0.04539821
78	0x3da26de7	0.079311185
79	0x3db8f1ab	0.090304695
80	0x3d6572cd	0.056017686
81	0x3cc3031e	0.023805197
82	0x3d831b13	0.06401648
83	0x3ce330d0	0.027733237
84	0xbd82cdc4	-0.06386903
85	0x3d09f1f2	0.033678003
86	0x3d8a8d09	0.067651816
87	0x3d29b197	0.04142913
88	0xbd3099b2	-0.043115325
89	0xbc76b0ff	-0.015056848
90	0x3d2c361e	0.042043798
91	0x3d6d4e06	0.057935737
92	0x3da17df9	0.078853555
93	0xbcbfa71f	-0.02339512
94	0x3d808726	0.062757775
95	0x3cf9913e	0.030464765
96	0x3cad5c0a	0.021162052
97	0x3d9eac85	0.07747749
98	0xbc979e30	-0.018508047
99	0x3d645414	0.055744246
100	0xbdb1eb0f	-0.08687412
101	0xbd18a9a3	-0.037271153
102	0x3d251c15	0.040309984
103	0x3d9b96fe	0.07597159
104	0x3d6cb8ea	0.057793535
105	0x3d34a0b9	0.04409859
106	0xbd8f8184	-0.07007125
107	0x3da57c9a	0.080804065
108	0xbd00dbab	-0.03145949
109	0x3d13f50f	0.036122378
110	0x3db2b2d3	0.08725514
111	0xbd98c931	-0.07460249
112	0x3d058887	0.032600906
113	0xbcd3d4ad	-0.025858248
114	0xbd6a24a8	-0.057163864
115	0xbd9c5db4	-0.0763506
116	0xbcdd1ce3	-0.026991313
117	0xbdb9e425	-0.09076718
118	0x3d1a4d13	0.03767116
119	0xbd518620	-0.051153302
120	0xbdba795b	-0.09105178
121	0xbca93311	-0.020654233
122	0x3d2c4ae8	0.042063624
123	0xbdb58e92	-0.08865084
124	0xbca48b39	-0.020085918
125	0xbdd0ba12	-0.1019174
126	0x3d0005c3	0.031255495
127	0xbd81d870	-0.0634011
128	0x3b69a0f7	0.003564892
129	0x3d84a166	0.06476097
130	0xbd881156	-0.066439316
131	0x3dd50633	0.10401573
132	0x3ce3e8ef	0.027821032
133	0x3db2664d	0.087109186
134	0xbd6b3cb9	-0.057430957
135	0xbda2f0ea	-0.07956107
136	0xbdde55fe	-0.108562455
137	0x3c93406d	0.017975057
138	0xbd988b38	-0.07448429
139	0x3d5608ad	0.052254368
140	0xbb8134b4	-0.0039430503
141	0xbd479913	-0.048729967
142	0x3d814cf6	0.06313507
143	0x3d4431d1	0.04789907
144	0x3dc60781	0.096694
145	0x3c567d76	0.013091436
146	0xbd867de9	-0.06566984
147	0xbcb12dcd	-0.021628285
148	0xbdc855e7	-0.097820096
149	0xbc9d8637	-0.019229038
150	0xbd96ea9c	-0.07368967
151	0x3cbc7a52	0.023007546
152	0xbd37f710	-0.04491335
153	0x3ced9b1d	0.029004628
154	0xbda9b7f4	-0.082870394
155	0x3da68460	0.08130717
156	0x3dd111e0	0.102084875
157	0xbd92d4c6	-0.071694896
158	0xbad55734	-0.0016276599
159	0xbc739722	-0.014867576
160	0xbda5f7b4	-0.08103886
161	0xbd9fd82b	-0.07804903
162	0xbc240f8f	-0.010013475
163	0x3c77403f	0.015091001
164	0x3cf30277	0.029664261
165	0xbda50ba0	-0.08058858
166	0x3d9e4d38	0.07729572
167	0xbd69ee85	-0.057112236
168	0x3d83bb2e	0.06432186
169	0x3cbb7f45	0.022887835
170	0x3d8f70a5	0.07003907
171	0xbdc288a7	-0.094987206
172	0xbcedffa5	-0.029052565
173	0xbca2afce	-0.01985922
174	0xbd3d0041	-0.04614282
175	0xbd519880	-0.051170826
176	0xbd9c8f73	-0.07644548
177	0xbda5fca1	-0.08104826
178	0xbdd30588	-0.103037894
179	0xbd791c42	-0.060817964
180	0x3cf4677b	0.0298345
181	0xbc91989b	-0.017772963
182	0xbd54068a	-0.05176405
183	0xbcdab5c1	-0.026697995
184	0xbc013d47	-0.007888145
185	0x3d0d7399	0.03453407
186	0x3d577ef4	0.052611306
187	0xbcabdb1e	-0.020978507
188	0x3d48598d	0.048913527
189	0xbd410b66	-0.04713001
190	0xbdc7451b	-0.09729978
191	0xbd15f554	-0.036610916
192	0x3dc9ae7e	0.09847735
193	0x3dc0cf09	0.09414489
194	0x3d3f05a0	0.046636224
195	0xbcef8361	-0.029237451
196	0xbd364b4d	-0.044505406
197	0xbdcba92e	-0.09944378
198	0x3c3a6d15	0.011378546
199	0xbd14e34e	-0.036349587
200	0xbb011a2d	-0.001969944
201	0xbdbf8548	-0.09351593
202	0xbd90802c	-0.07055697
203	0xbdd09962	-0.101855054
204	0x3b7f2804	0.0038933763
205	0xbca6e746	-0.020373952
206	0x3d6415f8	0.055685014
207	0xbd9d668c	-0.07685575
208	0x3d4fb927	0.050713684
209	0x3dcdf004	0.10055545
210	0x3d39d2e1	0.045367125
211	0x3daa3f85	0.08312897
212	0x3ae97e61	0.0017814153
213	0xbda02134	-0.07818833
214	0xba702d0d	-0.00091619865
215	0xbc560186	-0.013061887
216	0x3b79d5e0	0.0038121864
217	0xbd249a32	-0.040186115
218	0x3d94d148	0.0726648
219	0xbd06e959	-0.03293738
220	0x3de3856b	0.11109432
221	0x3d010543	0.03149916
222	0x3b5a6544	0.003332452
223	0x3d7923c2	0.060825117
224	0x3cd3f0b0	0.025871605
225	0xbd9c0547	-0.07618194
226	0xbd9b784d	-0.07591305
227	0xbb1f3c5a	-0.0024297447
228	0xbda890f7	-0.08230775
229	0xbc254995	-0.010088344
230	0xbdcbef5b	-0.09957763
231	0xbcd4463b	-0.025912395
232	0x3c2b2330	0.010445401
233	0x3d2a6d05	0.041607875
234	0x3db286ee	0.08717142
235	0x3dacf35e	0.08444856
236	0x3d28611a	0.04110823
237	0x3dbfd4e5	0.09366778
238	0xbbfa9436	-0.0076470627
239	0x3dca4879	0.09877104
240	0xbd8da4cb	-0.069161974
241	0x3dacc5f6	0.084361956
242	0xbd6574ce	-0.056019597
243	0x3d986e47	0.07442909
244	0x3d975291	0.07388795
245	0x3cd10516	0.02551512
246	0xbbe6c068	-0.0070419796
247	0xbd9e6a3a	-0.07735105
248	0x3bb05e82	0.00538236
249	0xbd9fe45b	-0.07807227
250	0xbce6be43	-0.028166896
251	0x3c2d2baa	0.010569492
252	0xbd907df2	-0.07055272
253	0xbcb1aed4	-0.02168981
254	0x3ce5479f	0.027988253
255	0xbd9e6b7c	-0.07735345

decoder.0.bias f4 [32]
0	0xbd3a92da	-0.045550205
1	0x3ce20f0a	0.027595062
2	0xbd43fa32	-0.047846027
3	0x3dac9b73	0.08428087
4	0x3d17c4fb	0.03705309
5	0x3c6826c3	0.014169398
6	0xbd8201fc	-0.06348035
7	0xb791f5c0	-1.7399783e-05
8	0xbdc4a390	-0.096015096
9	0xbc9e05d8	-0.019289896
10	0x3db13027	0.086517625
11	0xbc94e892	-0.018177304
12	0xbc295780	-0.010335803
13	0x3d26fd81	0.040769104
14	0x3c96f004	0.018424995
15	0xbbbc8042	-0.005752594
16	0x3d901d16	0.07036798
17	0xbbd439c0	-0.006476611
18	0x3d2f6a2a	0.042825855
19	0xbd1936f2	-0.037405916
20	0xbd77f233	-0.060533714
21	0x3d8d5677	0.069012575
22	0xbd01916c	-0.031632826
23	0xbbe586c5	-0.007004591
24	0x3cf58693	0.029971397
25	0x3c5f59d8	0.01363226
26	0xbd803ea3	-0.06261947
27	0xbb7ef8e3	-0.0038905672
28	0x3db44b6a	0.088034466
29	0xbce84a26	-0.02835567
30	0x3d28b565	0.041188616
31	0x3dab8bd8	0.083762825
