data/models/autoencoder_final.pt (torch, 66926 bytes, 15 tensors)

encoder.0.weight f4 [16, 1, 5]
0	0xbe4aaf52	-0.19793442
1	0xbce70085	-0.02819849
2	0xbe0208d4	-0.1269868
3	0x3ec7df20	0.39037418
4	0x3ecd0e15	0.40049806
5	0xbe2793b0	-0.16364932
6	0x3d04a398	0.032382578
7	0xbed6280a	-0.41827422
8	0x3e92b822	0.28656107
9	0x3d5211f0	0.051286638
10	0xbedbb8e4	-0.42914498
11	0xbe3e2cd8	-0.18571794
12	0x3d93d088	0.072175086
13	0xbe91eb24	-0.2849971
14	0xbe1d3bda	-0.15354863
15	0x3ec69342	0.38784224
16	0xbe0de5e6	-0.1385723
17	0x3ea8b56a	0.32950908
18	0xbcedaf30	-0.0290142
19	0xbec4999b	-0.38398442
20	0xbe4d1de4	-0.20030934
21	0x3d50af90	0.05094868
22	0xbeb3b5db	-0.35099682
23	0xbed609b8	-0.4180429
24	0x3eaa7e86	0.33299655
25	0x3e46194c	0.19345587
26	0xbea43eba	-0.32079107
27	0xbec5dd9e	-0.38645643
28	0x3eca6024	0.39526474
29	0xbdc29530	-0.095011115
30	0xbcf1ee9b	-0.029532721
31	0x3ea1b3bd	0.31582442
32	0x3e1e3568	0.1545006
33	0x3d5b041c	0.053470716
34	0xbe7d45d0	-0.24733663
35	0x3ed33525	0.41251484
36	0x3e232db9	0.1593541
37	0x3ee5034a	0.44729072
38	0xbe9e2ab5	-0.30891958
39	0x3ef80c35	0.48446813
40	0x3d2ca1ca	0.04214648
41	0x3e889061	0.26672652
42	0x3e8973fc	0.26846302
43	0x3e552971	0.2081659
44	0xbe6b26c2	-0.22964004
45	0xbe5633b9	-0.20918168
46	0x3ed0c82a	0.40777713
47	0xbebdad72	-0.3704639
48	0xbecef89f	-0.40424058
49	0xbe0cd66e	-0.13753673
50	0x3eb9a56d	0.36259022
51	0x3e8b69c9	0.27229145
52	0x3e92005b	0.28515896
53	0x3ef1e1f4	0.472427
54	0x3d828505	0.06373028
55	0x3e820a6d	0.2539858
56	0x3eae5fd5	0.3405749
57	0x3e1e7e7f	0.15477942
58	0xbe046539	-0.12929238
59	0xbe3afb91	-0.18260027
60	0x3db034bd	0.08603809
61	0xbd81ebff	-0.06343841
62	0x3ef5cfc0	0.48010063
63	0xbe4729ab	-0.19449489
64	0x3ecdccef	0.40195414
65	0x3ecd43ec	0.40090883
66	0x3e49abf1	0.19694497
67	0x3ea31c3a	0.31857473
68	0xbe0a0e70	-0.1348207
69	0x3eaa18bf	0.33222005
70	0xbeb0e206	-0.34547442
71	0x3d400820	0.04688275
72	0xbd9f8210	-0.07788479
73	0xbd521e40	-0.05129838
74	0x3ea8c16a	0.32960063
75	0xbc201bf5	-0.0097722905
76	0x3eabd646	0.33561915
77	0xbeaaac14	-0.3333441
78	0x3ea7c2ed	0.32765904
79	0xbdb4b272	-0.08823098

encoder.0.bias f4 [16]
0	0x3dff88a2	0.124772325
1	0xbec99929	-0.39374664
2	0x3eb677e5	0.35638347
3	0xbeb75d43	-0.3581334
4	0xbebb289b	-0.36554417
5	0xbeca40e7	-0.39502642
6	0xbe97f0e3	-0.2967597
7	0x3de52e64	0.11190489
8	0xbeb6b1ed	-0.35682622
9	0xbeac6959	-0.33674124
10	0x3e7ca957	0.24673973
11	0x3e07d0d3	0.13263254
12	0x3e8403bb	0.25784096
13	0x3ef5cda1	0.48008445
14	0xbee3c564	-0.44486535
15	0x3d8119bb	0.06303736

encoder.3.weight f4 [32, 16, 5]
0	0xbda7c98b	-0.08192738
1	0x3cee1934	0.029064752
2	0x3d93af96	0.07211225
3	0x3d386789	0.045020614
4	0x3cf1de80	0.029525042
5	0xbd49771a	-0.04918585
6	0xbd1d33d0	-0.03837949
7	0x3d76c8dc	0.06025015
8	0x3dd4f280	0.10397816
9	0x3bbfb570	0.0058504865
10	0x3e0354c1	0.128253
11	0x3e098a47	0.13431655
12	0x3bb1dc87	0.0054279002
13	0xbd042dd5	-0.03227027
14	0xbda79a57	-0.08183735
15	0xbda9d68e	-0.08292876
16	0x3d35b7f1	0.044364873
17	0xbd08aff3	-0.033370923
18	0x3de98197	0.114016704
19	0x3c4f35b3	0.01264708
20	0x3a261780	0.0006335899
21	0xbcd9e2c4	-0.026597388
22	0x3ddbb040	0.107269764
23	0xbb10f640	-0.0022119433
24	0xbdbe1eb9	-0.09283204
25	0xbd73fbef	-0.059566434
26	0x3dc2b6b4	0.09507504
27	0x3dc5c0e6	0.09655933
28	0xba8670c0	-0.0010256991
29	0x3d56c004	0.052429214
30	0x3d2c80b0	0.042114913
31	0x3d8c5c6a	0.06853564
32	0xbd672805	-0.05643465
33	0xbc09eb3b	-0.0084179
34	0xbd0c5274	-0.03425832
35	0x3c0e878d	0.00869931
36	0x3cc35d9a	0.023848344
37	0xbbaa32ea	-0.0051940577
38	0x3d9d636f	0.07684981
39	0x3d8bb6c7	0.068219714
40	0xbda4ff89	-0.08056552
41	0x3dcb4691	0.09925569
42	0x3df1934b	0.11795672
43	0x3d80a04d	0.06280575
44	0x3d06cefb	0.032912236
45	0x3d2478dc	0.040154323
46	0x3dc53b7c	0.09630486
47	0x3d284da8	0.041089684
48	0xbd85de6e	-0.06536566
49	0x3d685304	0.056719795
50	0xbd3ec4a7	-0.04657426
51	0xbb5c1f60	-0.0033588037
52	0xbd11a1f3	-0.035554837
53	0xbb1d5d30	-0.0024011843
54	0x3d5ac2fc	0.053408608
55	0x3df48287	0.119389586
56	0xbd8ad6f7	-0.067792825
57	0x3c230a8d	0.009951246
58	0xbd32f67b	-0.043692093
59	0x3de49ff5	0.11163322
60	0x3d434542	0.04767347
61	0xbd87c08f	-0.066285245
62	0x3d366e0d	0.044538546
63	0x3dc15fbd	0.09442089
64	0x3d6b2786	0.05741074
65	0x3bc6a9e9	0.0060627353
66	0xbcd1a16f	-0.025589673
67	0x3e15cfa8	0.14629996
68	0xbd086db9	-0.033307765
69	0x3da90649	0.08253152
70	0xbd6fa96e	-0.05851119
71	0xbcf1aaf0	-0.029500455
72	0xbdd538b2	-0.104112044
73	0x3d9089ec	0.070575565
74	0xbd244bf0	-0.040111482
75	0x3d51c880	0.051216602
76	0x3c6d343b	0.014477785
77	0xbd414313	-0.047183108
78	0x3db85472	0.09000482
79	0xbd7bc478	-0.061466664
80	0x3e231ab4	0.15928155
81	0xbd022e26	-0.03178229
82	0x3d535374	0.05159326
83	0x3db4c6b0	0.08826959
84	0x3cc26a9f	0.023732482
85	0x3d2805a8	0.04102102
86	0xbd7c9c8d	-0.061672736
87	0xbdd721d8	-0.10504502
88	0x3dcbfc8e	0.0996028
89	0xbc8cb794	-0.01717738
90	0x3c40d137	0.011768631
91	0x3ce620c4	0.028091796
92	0xbc3bb22b	-0.011456053
93	0x3e0c8177	0.13721262
94	0x3e0fe613	0.1405261
95	0xbdbe8fbb	-0.09304758
96	0xbd6acebf	-0.057326075
97	0x3ba13c99	0.004920554
98	0xbd82ddae	-0.06389938
99	0xbdba85e1	-0.091075666
100	0xbca69ed8	-0.020339414
101	0xbd2802c0	-0.041018248
102	0xbc787a28	-0.015165843
103	0x3c82e3b0	0.01597771
104	0xbdb20f1b	-0.086942874
105	0x3cb3af50	0.021934181
106	0x3d6f549c	0.0584303
107	0x3d354120	0.04425156
108	0x3dcb41c6	0.09924655
109	0x3d2de95c	0.042458877
110	0x3d83b4db	0.0643098
111	0x3d14f162	0.036363013
112	0xbb94f142	-0.0045453617
113	0x3b708f87	0.0036706643
114	0xbd5dff10	-0.054198325
115	0xbd51970c	-0.05116944
116	0x3df0c8e2	0.11757065
117	0xbb80fa50	-0.0039360896
118	0x3dc1f1bc	0.09469935
119	0xbc93ad77	-0.01802705
120	0x3cbf10ac	0.02332338
121	0x3d76fad5	0.060297806
122	0x3c06321b	0.008190657
123	0x3c2a615d	0.01039919
124	0xbd464291	-0.048403326
125	0x3db155a4	0.08658913
126	0xbcc829c4	-0.024433978
127	0xbd4c7ca1	-0.049923543
128	0x3db4e7d6	0.08833282
129	0x3b97f0e0	0.004636869
130	0x3c1175bb	0.008878167
131	0xbd5b3c78	-0.053524464
132	0xbbd74f39	-0.0065707234
133	0x3e11f9d0	0.14255452
134	0xbd76a97c	-0.060220227
135	0x3d8a865e	0.0676391
136	0x3e0853dc	0.1331324
137	0x3af6b12a	0.001882111
138	0xbd8d5a68	-0.06902009
139	0xbba9a7c2	-0.005177469
140	0xbd27e4ab	-0.04098956
141	0x3dcb421e	0.0992472
142	0x3dfb346f	0.1226586
143	0x3e0fe963	0.14053874
144	0x3d0248bd	0.03180765
145	0x3d790797	0.060798254
146	0x3dec218b	0.11529835
147	0x3d7b9cf9	0.061428998
148	0xbd8765d1	-0.06611217
149	0xbd1cffc6	-0.038329862
150	0xbd2a30c4	-0.041550413
151	0x3d2f1edc	0.04275404
152	0xbd9637aa	-0.07334836
153	0xbd54384a	-0.051811494
154	0x3c7def60	0.015498966
155	0xbd3c9451	-0.046039883
156	0xbd200626	-0.039068364
157	0x3c9a8af2	0.018865082
158	0x3dfba433	0.12287178
159	0xbcb13b22	-0.021634642
160	0xbd181e0b	-0.037138026
161	0xbd7c9aba	-0.061670996
162	0xbc8cf216	-0.01720528
163	0x3ded9aeb	0.11601814
164	0x3ced7389	0.028985756
165	0x3d5885b8	0.0528619
166	0x3d1a19c4	0.03762223
167	0xbd972731	-0.07380522
168	0x3d9cd69c	0.07658121
169	0x3dc956da	0.09831019
170	0x3cac450d	0.02102902
171	0x3dc7ec9a	0.09761925
172	0x3daa0363	0.08301427
173	0xbbc34b27	-0.0059598866
174	0x3d629acf	0.05532342
175	0xbb5dcd81	-0.0033844414
176	0xbcb8adbd	-0.022543782
177	0xbdd32af5	-0.10310928
178	0xbd56ac3f	-0.05241036
179	0xbdb19f88	-0.08673006
180	0xbabd8900	-0.0014460385
181	0x3acd3f00	0.0015659034
182	0x3d8fbed2	0.07018818
183	0x3d74b8c4	0.05974652
184	0xbce20eb8	-0.02759491
185	0xbdaa1cb7	-0.08306258
186	0xbdae3713	-0.08506598
187	0x3dc56574	0.09638491
188	0x3c48bb30	0.01225166
189	0xbca2d6b4	-0.019877769
190	0x3dc4cd3d	0.096094586
191	0x3d7a02d8	0.06103787
192	0xbda6eda0	-0.08150792
193	0xbcac5f4c	-0.021041535
194	0x3dd38399	0.10327835
195	0x3cbe0ce3	0.023199504
196	0x3d19aa5c	0.037515983
197	0x3e0688a0	0.13138056
198	0x3ddf6d3a	0.10909505
199	0x3de022fe	0.10944174
200	0x3d5322ac	0.051546738
201	0xbce8b538	-0.028406724
202	0x3dcce1f9	0.10004038
203	0x3c124af6	0.008929005
204	0xbd8a13db	-0.067420684
205	0x3cdfc670	0.027316302
206	0x3baa0e90	0.0051897243
207	0xbc054b58	-0.008135639
208	0xbd961123	-0.07327487
209	0x3d9c8e3c	0.076443166
210	0x3de32499	0.11090965
211	0x3c2757ab	0.010213773
212	0x3dd4c2b7	0.103887014
213	0xbb13c9e4	-0.0022550756
214	0xbd2b17f8	-0.041770905
215	0x3d36e457	0.044651356
216	0x3da502ea	0.080571964
217	0xbcb3e6b8	-0.021960601
218	0x3e16b13d	0.14716049
219	0x3ca6bf9f	0.020355044
220	0x3e058583	0.13039212
221	0x3da60f4a	0.08108385
222	0xbd037d26	-0.032101773
223	0xbd6bcf5b	-0.057570796
224	0x3db16396	0.08661573
225	0x3e117412	0.14204434
226	0x3d83b99c	0.064318866
227	0xbcb76a8d	-0.022389675
228	0x3de82284	0.11334708
229	0x3e02799f	0.12741707
230	0x3cf9b310	0.030480891
231	0x3d5861ec	0.05282776
232	0xbd3d6b9c	-0.046245202
233	0x3ab81040	0.0014042929
234	0xbdc90845	-0.098160304
235	0xbd284c70	-0.04108852
236	0x3db5cf50	0.08877432
237	0x3e14fc4d	0.1454937
238	0xbc1668de	-0.009180276
239	0xbc57faeb	-0.013182382
240	0xbde68378	-0.112555444
241	0xbd673a53	-0.056452107
242	0x3dbcbcb0	0.09215677
243	0xbd540816	-0.051765524
244	0xbc98d76b	-0.018657407
245	0xbd48c590	-0.049016535
246	0x3da6d3d8	0.08145875
247	0xbd6bcbf8	-0.057567567
248	0xbd19c100	-0.037537575
249	0x3d8094b2	0.062783614
250	0x3dafd798	0.08586043
251	0x3b7fecc9	0.0039051047
252	0x3d6eea94	0.05832918
253	0xbdb9c1cf	-0.09070169
254	0x3d887fa7	0.06664973
255	0x3d14e867	0.03635445

encoder.3.bias f4 [32]
0	0x3d7cafb4	0.061691
1	0x3e08a1c3	0.13342957
2	0x3d90069d	0.070325114
3	0xbc99b18f	-0.018761424
4	0x3c7abb40	0.015303433
5	0x3c50769c	0.012723591
6	0xbc739725	-0.014867579
7	0xbd4c83c0	-0.049930334
8	0x3e05c0dc	0.13061851
9	0xbd045f41	-0.032317404
10	0x3c86f315	0.016473332
11	0xbd2f9306	-0.04286482
12	0xbd93bee4	-0.07214144
13	0x3bc89100	0.006120801
14	0xbd46aff2	-0.04850764
15	0xbd59128d	-0.052996207
16	0x3de0d51d	0.10978148
17	0xbce3fdd0	-0.027830988
18	0x3d9c7417	0.0763933
19	0xbb3d3b98	-0.0028874632
20	0x3d94e1bd	0.07269619
21	0x3d3eba96	0.04656466
22	0x3e06d680	0.13167763
23	0xbdc5e652	-0.09663071
24	0xbd2bb9d0	-0.04192525
25	0xbcc4726c	-0.023980342
26	0xbcc2804f	-0.023742823
27	0x3cb07973	0.021542287
28	0x3dd5c78e	0.10438453
29	0x3dc9021c	0.098148555
30	0x3df8744a	0.121315554
31	0xbdc63d43	-0.096796535

encoder.6.weight f4 [16, 32, 3]
0	0x3dca8369	0.09888346
1	0xbd1f621b	-0.03891192
2	0x3dbe5f27	0.092954926
3	0x3b76ee93	0.0037678822
4	0x3e09a7f9	0.13442983
5	0xbd3489ba	-0.04407666
6	0xbae1a7dd	-0.0017216165
7	0x3e1b8792	0.15188435
8	0x3df17e8d	0.11791716
9	0xbd1ea307	-0.038729694
10	0xbd858680	-0.065197945
11	0x3d8484d2	0.06470646
12	0xbdafae86	-0.085782096
13	0x3c11ea60	0.008905977
14	0x3da1604a	0.07879694
15	0x3d2ee8de	0.04270255
16	0x3dbcae7f	0.0921297
17	0x3d3b6515	0.045750696
18	0x3d1cd49a	0.03828869
19	0x3d6d6ac4	0.057963148
20	0x3df0e78e	0.117629156
21	0x3c9399ad	0.018017614
22	0xbc63d921	-0.013906748
23	0x3ca85f2c	0.020553194
24	0x3d22f052	0.03977997
25	0x3e00ba35	0.12571032
26	0x3e0bb616	0.13643679
27	0x3d0743aa	0.033023514
28	0x3df35129	0.118807144
29	0x3d49701a	0.049179174
30	0xbd431498	-0.04762706
31	0xbcd21bd8	-0.025648043
32	0xbd6c0ad0	-0.0576275
33	0x3cc4baf0	0.02401492
34	0x3d94d11c	0.07266447
35	0xbdc434c4	-0.09580377
36	0x3a9c993e	0.0011947525
37	0xbdacb190	-0.08432305
38	0x3d0c19e1	0.034204368
39	0xbca7451c	-0.020418696
40	0xbd1a760c	-0.037710235
41	0x3dca48af	0.098771445
42	0x3ddb0206	0.10693745
43	0x3d4a30bb	0.04936288
44	0x3bfa5250	0.007639207
45	0xbd06ecd8	-0.032940716
46	0xbd32ebdc	-0.043681964
47	0xbd8bb636	-0.06821863
48	0x3ca84ff8	0.020545945
49	0x3da137fc	0.07872006
50	0x3da4fb9d	0.08055804
51	0x3d91282a	0.07087739
52	0x3ca5f617	0.020258946
53	0x3d818b9b	0.06325456
54	0x3dc6ba93	0.09703555
55	0xbb983ce6	-0.0046459315
56	0x3d8a9ed0	0.06768572
57	0xbd2a187f	-0.041527268
58	0x3e110978	0.14163768
59	0x3bd3931a	0.006456745
60	0x3c29425c	0.010330763
61	0xbc3201ce	-0.010864688
62	0x3db8492e	0.08998333
63	0xbd9704f7	-0.07373994
64	0xbd71cede	-0.059035175
65	0x3c750eca	0.014957139
66	0x3cf4c095	0.029876987
67	0x3cac74d1	0.021051796
68	0x3d8c8398	0.06861037
69	0xbd7d75c9	-0.061879907
70	0xbd31964d	-0.04335623
71	0xbdcf6da9	-0.10128338
72	0xbda5b5d4	-0.080913216
73	0xbd1fd85c	-0.039024696
74	0x3d100b98	0.035167307
75	0x3b5fadc0	0.0034130663
76	0xbd300cca	-0.042980947
77	0xbd8ffe8c	-0.07030973
78	0x3e16b4d7	0.14717422
79	0x3debf6a0	0.11521649
80	0x3d3bd0e1	0.0458535
81	0xbcbb6e9b	-0.02287989
82	0x3dc864ac	0.09784827
83	0x3e19ae6a	0.1500794
84	0x3e02f9a1	0.12790538
85	0x3d31ffd1	0.043456856
86	0x3dcb38f8	0.09922975
87	0x3d2a911c	0.041642293
88	0x3c863ba2	0.016385857
89	0x3decfe1a	0.115719035
90	0xbc6babbb	-0.014384205
91	0x3ddefe28	0.1088832
92	0x3ac8dd24	0.0015324694
93	0x3da0221d	0.078190066
94	0x3d1557f4	0.03646083
95	0xbd073005	-0.03300478
96	0x3db425ba	0.08796258
97	0xbd449820	-0.04799664
98	0x3daac5fa	0.08338542
99	0xbd0a1c92	-0.033718653
100	0xbd852829	-0.065018006
101	0x3cf71220	0.03016001
102	0xbc841714	-0.016124286
103	0xbd873660	-0.06602168
104	0xbd74220b	-0.05960278
105	0xbd2bb014	-0.041915968
106	0x3cbe6848	0.023243085
107	0xb904be00	-0.00012659281
108	0x3cd12428	0.025529936
109	0x3d830bfa	0.06398769
110	0x3d6d0748	0.057868272
111	0x3d949576	0.0725507
112	0xbcda40c4	-0.02664221
113	0x3dbb3f14	0.091428906
114	0xbd78a81b	-0.060707193
115	0xbd958e27	-0.07302504
116	0x3cefd608	0.029276863
117	0x3db774be	0.08957814
118	0xbcc1a5c0	-0.023638606
119	0x3db9e4dc	0.090768546
120	0xbdb6d113	-0.089265965
121	0xbc042a00	-0.008066654
122	0xbd755e18	-0.059904188
123	0x3c9613a4	0.018319912
124	0xbd24d87d	-0.04024552
125	0x3d8ac894	0.067765385
126	0xbd56c46b	-0.052433413
127	0x3d7b5ed4	0.061369732
128	0xbd2cd2a9	-0.04219309
129	0x3d8327ac	0.06404051
130	0xbd279f91	-0.04092366
131	0xbdb16748	-0.086622775
132	0xbdafd83a	-0.08586164
133	0x3bcc45c0	0.006233901
134	0x3dce5c6a	0.1007622
135	0x3ceb7dd0	0.028746516
136	0xbcda8a04	-0.02667714
137	0xbc3cb828	-0.011518516
138	0xbdb9ac94	-0.0906612
139	0x3da45926	0.08024816
140	0xbd312217	-0.0432454
141	0xbd56248d	-0.05228095
142	0xbc32b380	-0.010907054
143	0xbd430a2f	-0.047617134
144	0xbcd3dfa4	-0.025863476
145	0xbd11a58c	-0.03555827
146	0xbc9a7558	-0.018854782
147	0x3cf267b8	0.029590473
148	0xbcd84884	-0.026401766
149	0x3d169400	0.036762238
150	0x3dac9a6e	0.084278926
151	0xbd1f9118	-0.03895673
152	0xbcae7a98	-0.021298692
153	0x3d2d306c	0.042282507
154	0x3d96379a	0.07334824
155	0x3d950e16	0.07278077
156	0xbd3f9541	-0.0467732
157	0xbd07ec30	-0.03318423
158	0x3d388edc	0.045058116
159	0x3dbde986	0.09273057
160	0xbd6bbbf4	-0.057552293
161	0xbd7219cf	-0.059106644
162	0x3dcc89d4	0.09987226
163	0xbdb699cf	-0.089160554
164	0x3da6aeea	0.08138831
165	0xbdb692e6	-0.089147374
166	0x3daf6ab6	0.08565275
167	0xbc8d9048	-0.017280713
168	0x3d6128cc	0.054970548
169	0xba03b700	-0.00050245225
170	0xbcd26f34	-0.025687791
171	0xbd53b0ec	-0.051682398
172	0x3d03b16c	0.032151625
173	0xbc996990	-0.018727094
174	0x3d58d804	0.052940384
175	0xbdb3e139	-0.08783192
176	0x3dab5520	0.08365846
177	0xbd88b3b8	-0.06674904
178	0xbda11742	-0.07865764
179	0xbd9e4574	-0.07728091
180	0xbd3f14cc	-0.046650693
181	0x3db4e830	0.08833349
182	0xbbb423f0	-0.005497448
183	0x3d9af314	0.07565895
184	0xbd32d749	-0.043662343
185	0x3d5db574	0.054128125
186	0x3da80d88	0.08205706
187	0xbd52530a	-0.051348723
188	0xbca58980	-0.020207167
189	0x3d058198	0.032594293
190	0xbbb65ca0	-0.005565241
191	0xbda887b3	-0.082290076
192	0xbcd28434	-0.025697805
193	0x3cc0f66b	0.023555001
194	0x3ba2fa74	0.004973704
195	0xbba53c83	-0.005042614
196	0x3bbaec9d	0.005704476
197	0x3d88fe0f	0.06689083
198	0x3df71b9f	0.12065815
199	0x3df21180	0.11819744
200	0x3def06db	0.116712295
201	0xbb8dd8be	-0.004328816
202	0xbda4aa23	-0.080402635
203	0xbd34cc3d	-0.04414009
204	0xbc92611c	-0.017868571
205	0x3d90699c	0.070513934
206	0x3d514c64	0.051098242
207	0x3c593fbb	0.013259823
208	0x3c96d348	0.018411294
209	0xbcfa3941	-0.030544879
210	0x3b78a139	0.0037937893
211	0xbcd3c7a9	-0.025852041
212	0xbc901480	-0.0175879
213	0x3dc71fa8	0.09722835
214	0xbcbdbd03	-0.023161417
215	0x3d6794c8	0.056538373
216	0xbd56b23f	-0.052416082
217	0x3d91394f	0.07091009
218	0x3db5a8b9	0.08870072
219	0x3b22df13	0.00248522
220	0x3d81f260	0.063450575
221	0x3dcb733f	0.09934091
222	0x3d7cb70a	0.061697997
223	0x3daddd96	0.0848953
224	0x3a04eccb	0.00050706853
225	0xbd9fbce0	-0.07799697
226	0x3d8493ae	0.0647348
227	0xbc720960	-0.014772743
228	0x3d7acccf	0.061230477
229	0xbd9792cf	-0.074010484
230	0x3d9188ae	0.07106148
231	0x3d1b8f43	0.037978422
232	0xbb0fb9ab	-0.0021930735
233	0x3d30019b	0.04297028
234	0x3cdd6ff3	0.02703092
235	0x3d8185ec	0.06324372
236	0xbcfc39a6	-0.030789208
237	0xbd8841b0	-0.06653154
238	0xbd8a9494	-0.0676662
239	0x3cf0f48e	0.029413488
240	0x3da76096	0.08172719
241	0x3d645237	0.05574247
242	0x3dd95ccf	0.10613405
243	0x3d349b68	0.04409352
244	0x3c69a998	0.014261626
245	0x3ce34cb0	0.027746528
246	0x3daa0a3f	0.083027355
247	0xbcb969a8	-0.022633389
248	0x3dc46780	0.095900536
249	0x3e000cda	0.12504902
250	0x3ca4e309	0.02012779
251	0x3d89f0f3	0.067354105
252	0x3ddb2b43	0.10701611
253	0x3c56056f	0.013062819
254	0x3dedf458	0.116188705
255	0x3d9792be	0.07401036

encoder.6.bias f4 [16]
0	0x3dd1ed2d	0.10250316
1	0xbd5559d2	-0.052087612
2	0x3cf7624b	0.030198237
3	0x3d1969c8	0.037454396
4	0x3dce4511	0.10071767
5	0xbd179b08	-0.037013084
6	0x3dbb4ae1	0.091451414
7	0xbb3ffc40	-0.002929464
8	0xbd5874aa	-0.052845635
9	0xbcfd5f34	-0.030929185
10	0x3d2efdf7	0.04272267
11	0xbd4e0ae6	-0.050303362
12	0x3d9ade5f	0.07561945
13	0x3d30ef74	0.04319711
14	0xbd2380f2	-0.039917894
15	0x3e07f267	0.13276063

fc1.weight f4 [8, 400]
0	0xbd858249	-0.065189905
1	0xbdb93f7c	-0.09045312
2	0xbccd6679	-0.025073277
3	0xbd7a8e0c	-0.061170623
4	0xbd8f2297	-0.06989019
5	0xbc6312e6	-0.013859486
6	0xbd5e4a12	-0.054269858
7	0xbd8ece69	-0.06972963
8	0xbd77273f	-0.060340162
9	0xbcad47e9	-0.021152453
10	0xbb32bb93	-0.0027272447
11	0xbd2dd9fa	-0.042444207
12	0xbc7f66a4	-0.015588436
13	0xb9ff2eca	-0.0004867225
14	0xbd3266f1	-0.043555204
15	0xbc2db57e	-0.010602353
16	0xbd9940ee	-0.074830875
17	0xbc3296a6	-0.010900175
18	0xbd2c4d5d	-0.042065967
19	0xbd11e5c0	-0.035619497
20	0xbd8c7af2	-0.068593875
21	0xbda155df	-0.07877707
22	0xbda6f718	-0.08152598
23	0xbd9a5b00	-0.07536888
24	0xbca50bb6	-0.020147186
25	0x3c5e695c	0.013574924
26	0x3cce928e	0.025216367
27	0xbcc9eb3a	-0.024648298
28	0xbb89d240	-0.004205972
29	0x3d3a5327	0.045489457
30	0xbc1b7c40	-0.009490073
31	0xbc69d48c	-0.0142718665
32	0xbb26d350	-0.0025455542
33	0xbd021c9e	-0.031765573
34	0x3d3af63b	0.04564498
35	0x3d3eb62d	0.046560455
36	0x3c7a89cc	0.015291642
37	0xbd084f08	-0.033278495
38	0xbcdbd8c7	-0.026836766
39	0x3cc7b712	0.024379287
40	0xbcbdcef3	-0.02316997
41	0xbc022c38	-0.007945113
42	0xbc88a73c	-0.016681306
43	0xbc826d8c	-0.015921377
44	0xbd077b80	-0.033076763
45	0x3cf22a3e	0.029561158
46	0xba464b40	-0.0007564314
47	0xbd45c50a	-0.048283614
48	0xbd14d586	-0.036336444
49	0x3c05d6c8	0.008168884
50	0x3c74cbfd	0.014941213
51	0x3c280ef8	0.010257475
52	0xbc714df1	-0.014728055
53	0x3cb85e12	0.022505794
54	0xbd5179d0	-0.05114156
55	0x3bc6d6fc	0.0060681086
56	0xbc11f22b	-0.008907835
57	0xbd2b1b4d	-0.041774083
58	0xbd771120	-0.060319066
59	0xbd454492	-0.048161097
60	0x3c1cf5f8	0.009580128
61	0xbc0b9a99	-0.008520746
62	0x3c9c7f4e	0.019103672
63	0xbd29ac76	-0.041424237
64	0xbda958d3	-0.08268895
65	0xbd4081da	-0.046998836
66	0x3a412698	0.00073681166
67	0xbda37dc7	-0.079829745
68	0xbdb85c27	-0.09001952
69	0xbd8fcde8	-0.070216954
70	0xbd853fef	-0.06506335
71	0xbdb48a00	-0.08815384
72	0xbd5f10fe	-0.054459564
73	0xbd51e002	-0.05123902
74	0xbd449991	-0.047998015
75	0xbd4e9ad1	-0.050440613
76	0xbd81100f	-0.06301891
77	0xbc20e114	-0.009819288
78	0x3c9bcff1	0.019020053
79	0xbd33a608	-0.04385951
80	0x3b04e8fa	0.0020280466
81	0xbc140161	-0.009033532
82	0xbd07436b	-0.03302328
83	0xbbb18553	-0.005417505
84	0x3a7f7111	0.0009744326
85	0xbd1b48f4	-0.03791137
86	0xbd9cae10	-0.07650387
87	0xbd0e0c39	-0.034679625
88	0xbd8ecba9	-0.06972439
89	0xbb3ab044	-0.002848641
90	0xbcd7c559	-0.02633922
91	0xbcb19346	-0.02167667
92	0xbcc1b989	-0.02364804
93	0xbd9aa85b	-0.075516425
94	0x3c245ad6	0.010031423
95	0xbca5f658	-0.020259067
96	0xbc302265	-0.010750388
97	0xbbfbab17	-0.0076803076
98	0xbcea387e	-0.02859139
99	0xbdb4dfbc	-0.088317364
100	0xbc112cc2	-0.008860769
101	0xbc9e1ef5	-0.01930187
102	0xbd954f57	-0.072905235
103	0xbbaa4135	-0.0051957616
104	0xbd8f4a12	-0.0699655
105	0xbb4b0734	-0.0030979635
106	0xbd155ace	-0.03646355
107	0xbcf88c00	-0.030340195
108	0xbd3dd5fa	-0.046346642
109	0xbc1b911c	-0.009495046
110	0xbd5d520a	-0.054033317
111	0xbdc084c1	-0.09400321
112	0xbda4f3c1	-0.08054305
113	0xbcce098f	-0.025151042
114	0xbb65836a	-0.0035020956
115	0xbcf2ebd4	-0.029653467
116	0xbd9aee75	-0.07565013
117	0xbcc3dfd4	-0.02391044
118	0xbc9ec408	-0.019380584
119	0xbdbd9c67	-0.09258347
120	0xbd971bd6	-0.07378356
121	0xbc7052b8	-0.014668159
122	0xbbafa267	-0.005359936
123	0xbd1cb309	-0.03825668
124	0xbd8ed915	-0.06974999
125	0x3b6ae420	0.003584154
126	0x3c61d164	0.013782833
127	0x3ce7e3fe	0.028306957
128	0xbd3c5a73	-0.045984697
129	0x3d2fa897	0.04288539
130	0x3d1b2a4f	0.037882145
131	0x3a061e00	0.00051161647
132	0xbc5e19c0	-0.013555944
133	0xbc46d488	-0.012135632
134	0x3cd6cf42	0.026221875
135	0xbc081968	-0.008306839
136	0xbcfef903	-0.031124597
137	0xbd2800c8	-0.04101637
138	0xbd16e51b	-0.036839586
139	0xbb2518e0	-0.0025191829
140	0xbc832e60	-0.016013324
141	0x3d216783	0.039405357
142	0xbd3764af	-0.044773754
143	0x3a1b3680	0.0005920902
144	0x3c7fef5c	0.015621033
145	0xbc3ec354	-0.01164325
146	0x3d35bfa3	0.044372212
147	0xbcc2a960	-0.023762405
148	0x3d030c51	0.031994168
149	0xbb714eb0	-0.0036820583
150	0xbdc11988	-0.09428698
151	0xbbccf8c4	-0.006255241
152	0xbd92de80	-0.07171345
153	0xbdb1eae2	-0.086873785
154	0xbce8ce5d	-0.028418714
155	0xbb46028d	-0.0030213923
156	0xbd943eed	-0.07238565
157	0xbc0ce50a	-0.008599529
158	0xbcbe3ea7	-0.023223234
159	0xbda01323	-0.0781615
160	0xbcf38682	-0.029727224
161	0xbdb057ea	-0.08610518
162	0x3bea1fda	0.0071449103
163	0xbdb08035	-0.086182036
164	0xbd5dc832	-0.054146
165	0xbdc0f4cf	-0.094216935
166	0xbce4fbba	-0.027952064
167	0xbdb953ed	-0.09049211
168	0x3a0ca610	0.00053653214
169	0xbd81c4dc	-0.06336376
170	0xbda60c29	-0.08107788
171	0xbce145b1	-0.027499052
172	0xbd423f6c	-0.047423765
173	0xbd781306	-0.060565017
174	0xbd824218	-0.06360263
175	0xbcc1c9d0	-0.023655802
176	0xbc537fec	-0.012908917
177	0xbbb07f18	-0.0053862445
178	0xbcdb6f60	-0.026786506
179	0x3b9f6a40	0.004864961
180	0x3ba1a180	0.0049325824
181	0x3cc47e42	0.023985986
182	0xbc06e854	-0.008234102
183	0x3cb645fe	0.022250172
184	0xbc169dcc	-0.009192895
185	0xbc82a84c	-0.01594939
186	0xbbaec628	-0.0053336807
187	0xbd01958e	-0.031636767
188	0x3ca5db62	0.020246211
189	0x3d10a0d1	0.035309616
190	0x3d2f1a51	0.042749707
191	0xbbf06100	-0.007335782
192	0x3c80a92e	0.015705671
193	0xbd2734dd	-0.0408219
194	0xbd28ef82	-0.041244037
195	0xbc87e0ea	-0.01658674
196	0x3d0b9fd9	0.03408799
197	0x3d222cdb	0.03959356
198	0xbce410ea	-0.027840097
199	0x3cc3c98a	0.023899812
200	0x3c411e40	0.011786997
201	0x3b417230	0.0029517524
202	0xbcbbe39d	-0.022935683
203	0x3c9fd376	0.019510012
204	0x3c05b5f4	0.008161057
205	0xbc511fec	-0.012763958
206	0x3ae85040	0.0017724112
207	0x3c8ee162	0.017441455
208	0x3d4cb121	0.04997361
209	0x3d072b61	0.033000354
210	0x3cb78c02	0.022405628
211	0x3d220675	0.03955694
212	0xbd313363	-0.043261897
213	0xbd484543	-0.048894178
214	0x3c8811d2	0.01661006
215	0x3bddd8b0	0.006770216
216	0x3ce0a8ae	0.027424183
217	0x3d42174b	0.047385495
218	0xbc504380	-0.012711406
219	0xbc53c820	-0.0129261315
220	0x3d3f79ed	0.046747137
221	0x3ca61f02	0.020278458
222	0xbd341f7a	-0.04397533
223	0x3ceba466	0.028764915
224	0xbd08d715	-0.033408243
225	0xbd249c39	-0.040188048
226	0xbcdfed5e	-0.027334865
227	0x3d31af75	0.04338022
228	0x3b783269	0.0037871844
229	0x3d286e5d	0.041120876
230	0x3d0b61e6	0.03402891
231	0x3af5724b	0.0018726079
232	0xbcc4195a	-0.02393787
233	0x3b9d6129	0.004802842
234	0xbccf0494	-0.025270738
235	0x3d1c9961	0.03823221
236	0x3cd77fbb	0.026306024
237	0x3c4ef8f4	0.012632597
238	0xbc9da220	-0.019242346
239	0x3c872062	0.016494934
240	0xbd141585	-0.036153335
241	0xbcb22aea	-0.021748979
242	0xbc84af30	-0.016196817
243	0xbd16f82b	-0.036857765
244	0x3c6af4c4	0.014340583
245	0xbcec9ced	-0.028883422
246	0xbca8b633	-0.020594692
247	0xba33bb40	-0.00068562105
248	0xbbd7f350	-0.0065902844
249	0xbcffea77	-0.031239731
250	0xbd6567e8	-0.056007296
251	0xba864a65	-0.001024556
252	0xbd914548	-0.070932925
253	0xbd2347f2	-0.039863534
254	0xbd8ca4bd	-0.06867359
255	0x3c9a5cf9	0.018843161

fc1.bias f4 [8]
0	0xbd5e7c6b	-0.054317873
1	0x3d5e2cc8	0.054241925
2	0x3cfeddaf	0.031111566
3	0xbd1804c4	-0.03711392
4	0xbcdeb710	-0.0271869
5	0x3c9b4256	0.01895253
6	0xbd8dc17f	-0.06921672
7	0x3dace5f8	0.084423006

fc2.weight f4 [400, 8]
0	0x3e977851	0.29583982
1	0xbe43715d	-0.19086213
2	0xbe8a6291	-0.27028325
3	0xbd8c93b4	-0.0686411
4	0x3e6175c6	0.22017583
5	0xbe45574a	-0.1927158
6	0x3e0d2dce	0.13787004
7	0x3d46ca79	0.048532937
8	0x3e759d83	0.23985867
9	0xbdb9ec2c	-0.09078249
10	0x3e4ce042	0.20007423
11	0x3e8d0241	0.27540782
12	0xbe8734df	-0.26407525
13	0x3e1b25f1	0.15151192
14	0xbe68ed35	-0.22746737
15	0x3e891d9d	0.26780406
16	0x3e4df5b8	0.20113266
17	0xbd8c6628	-0.06855422
18	0xbe3647eb	-0.17800872
19	0xbe9068ba	-0.282049
20	0x3e9c9bc7	0.305876
21	0x3e504a23	0.20340781
22	0x3e0570ae	0.13031265
23	0xbe887c3b	-0.2665728
24	0xbe39bb4a	-0.18137851
25	0x3d977946	0.07396178
26	0xbbfda87f	-0.0077410336
27	0xbe7cde9a	-0.24694291
28	0x3e889649	0.26677158
29	0xbe448d2d	-0.1919448
30	0x3e82f7a0	0.25579548
31	0xbbb33fd4	-0.0054702554
32	0x3e91b399	0.28457335
33	0xbe4f50e0	-0.20245695
34	0xbe0a3e72	-0.13500383
35	0x3ea34d75	0.31895033
36	0x3da0d1d0	0.078525186
37	0xbe9b004e	-0.3027367
38	0xbd1fad68	-0.038983732
39	0xbe7c0b47	-0.24613677
40	0x3e934f31	0.28771356
41	0xbe90b075	-0.28259626
42	0xbd185f0b	-0.037200015
43	0x3e240e51	0.16021086
44	0xbd3c4884	-0.045967594
45	0xbe94d859	-0.2907131
46	0x3d8fec52	0.070274964
47	0xbe29c3f0	-0.1657865
48	0x3ebccf80	0.3687706
49	0x3e9bc0ae	0.3042044
50	0xbd9e1d97	-0.077204876
51	0xbd96f41f	-0.07370781
52	0x3ebbb4fe	0.36661524
53	0x3d65d0f7	0.056107488
54	0x3c94bdcb	0.018156907
55	0xbe7e14d7	-0.24812637
56	0xbe7ee8de	-0.2489352
57	0xbe35e857	-0.17764412
58	0x3a491bec	0.0007671702
59	0xbd657a91	-0.05602509
60	0xbcd6bf70	-0.026214331
61	0x3e40cb81	0.1882763
62	0x3e66792f	0.22507165
63	0x3df42668	0.11921388
64	0xbe7189ab	-0.23587672
65	0x3e5e0959	0.21683253
66	0x3da4a0ae	0.0803846
67	0xbe24c01d	-0.1608891
68	0xbd38735d	-0.045031894
69	0x3e5f9a34	0.21836168
70	0xbe14506f	-0.14483808
71	0x3e4b58d3	0.19858103
72	0xbe98509f	-0.2974901
73	0xbe804b9b	-0.25057682
74	0xbe4384e1	-0.19093658
75	0x3e84c804	0.2593385
76	0x3e691c6f	0.22764753
77	0x3e06c848	0.13162339
78	0x3e481cd0	0.19542241
79	0xbe42971a	-0.19002953
80	0xbcd41580	-0.025889158
81	0xbe5c6ac9	-0.2152511
82	0x3d08a818	0.03336343
83	0xbd952386	-0.07282166
84	0xbe59c4e6	-0.21266517
85	0x3e2e3229	0.17011322
86	0x3dc516ab	0.09623464
87	0xbcc64760	-0.024203956
88	0x3e4eb636	0.20186695
89	0xbd9fcbae	-0.07802521
90	0x3e055222	0.13019612
91	0x3e80f3e9	0.2518609
92	0xbe1776f8	-0.14791477
93	0x3e24c86b	0.16092078
94	0xbe85c456	-0.26126355
95	0x3e298102	0.16553119
96	0xbe178918	-0.14798391
97	0xbeac9097	-0.33704063
98	0x3e70e15f	0.23523472
99	0x3e7f0022	0.24902394
100	0x3ebce1d6	0.3689105
101	0xbe8aac84	-0.27084744
102	0xbe7c1b73	-0.24619846
103	0x3d7fb951	0.06243259
104	0x3c0e7681	0.008695246
105	0x3e1d776f	0.15377592
106	0xbdb251cd	-0.087070085
107	0xbeb64ac0	-0.35603905
108	0xbea23678	-0.3168218
109	0xb96467fc	-0.00021782512
110	0x3d68f709	0.056876216
111	0xbe290ad6	-0.1650804
112	0xbe9e6af2	-0.30940968
113	0x3c04b6c9	0.00810022
114	0x3e2d5ca0	0.16929865
115	0xbec5259b	-0.38505253
116	0x3e7c074f	0.24612163
117	0xbe57ff10	-0.21093392
118	0x3e1546c1	0.14577772
119	0xbdbd5c95	-0.09246174
120	0xbe7c7e93	-0.24657659
121	0xbe5a64c2	-0.21327499
122	0xb9cbea96	-0.00038893957
123	0xbe9b259b	-0.30302128
124	0xbce841f6	-0.028351765
125	0x3d3d899f	0.046273824
126	0x3d544c8e	0.05183082
127	0x3ebb0a04	0.3653108
128	0x3e32d254	0.17463046
129	0xbe4cf3e2	-0.20014909
130	0xbe9c17b9	-0.3048685
131	0xbeb5f977	-0.3554189
132	0xbe36c861	-0.17849876
133	0x3e7c99ef	0.24668096
134	0xbeb607bd	-0.3555278
135	0xbe982a32	-0.29719692
136	0xbda37a1a	-0.079822734
137	0x3d0031fb	0.031297665
138	0x3e0b6c69	0.13615574
139	0xbe7c34bd	-0.24629493
140	0x3e979acd	0.2961029
141	0xbd8819f0	-0.06645572
142	0xbe2408cb	-0.16018979
143	0x3ec3a549	0.3821204
144	0x3e7c7bd5	0.24656613
145	0xbe8d7ef3	-0.27635917
146	0x3ebfa66c	0.37431657
147	0xbdaa826a	-0.08325656
148	0xbe851816	-0.2599494
149	0xbe5c409e	-0.21509025
150	0xbeab6cfa	-0.3348158
151	0x3e64e31e	0.22352263
152	0xbd01ef29	-0.03172222
153	0x3dde2f78	0.10848898
154	0x3e125d69	0.14293446
155	0x3e8a775e	0.27044195
156	0x3e3311d0	0.17487264
157	0xbe4ef03b	-0.20208828
158	0xbea1ba41	-0.31587413
159	0x3eb94dc9	0.36192158
160	0xbecb5851	-0.39715818
161	0x3dd6920c	0.10477075
162	0x3dba217f	0.0908842
163	0xbeb8cbf2	-0.36093098
164	0xbd624684	-0.05524303
165	0x3e8f26af	0.279592
166	0x3e667e7d	0.22509189
167	0x3e9aa516	0.30204076
168	0xbe9146d3	-0.28374347
169	0x3e932a08	0.28743005
170	0x3df0d6ad	0.11759696
171	0xbca73f2e	-0.020415869
172	0x3e9d4635	0.30717626
173	0x3e617a60	0.22019339
174	0xbe3e177c	-0.18563646
175	0x3e01d13d	0.12677474
176	0xbcd1eefd	-0.025626654
177	0xbe94b525	-0.29044452
178	0x3d75c272	0.05999989
179	0xbeb16aae	-0.34651703
180	0x3d7f856b	0.062383097
181	0x3cdeb28e	0.02718475
182	0x3e9cffef	0.30664012
183	0x3e5d00a0	0.2158227
184	0x3e01f1be	0.12689874
185	0x3da8ea9f	0.082478754
186	0x3e059917	0.1304668
187	0xbdb15673	-0.08659067
188	0xbe55c0c3	-0.20874314
189	0x3e29648a	0.16542259
190	0x3e5c795d	0.21530671
191	0x3eae44dd	0.34036914
192	0xbd16cec7	-0.036818292
193	0xbe49d7fe	-0.197113
194	0x3dd5caf9	0.104391046
195	0xbd3247ae	-0.04352539
196	0xbec54a02	-0.38533026
197	0x3ec09899	0.37616423
198	0xbdb9d0f9	-0.090730615
199	0x3d7523ef	0.059848722
200	0xbe8f32e3	-0.2796851
201	0xbbf9307e	-0.0076046577
202	0x3e8fa7f5	0.2805783
203	0x3e30f5b3	0.17281227
204	0x3e180402	0.14845279
205	0xbe6341d5	-0.22193082
206	0xbe7b4344	-0.24537379
207	0xbe376a1d	-0.17911573
208	0x3ea92f89	0.3304408
209	0xbe994117	-0.29932472
210	0x3e518d31	0.20464016
211	0x3dd4b39a	0.10385819
212	0xbdd7d207	-0.105381064
213	0x3da12695	0.07868687
214	0x3e0807f2	0.13284281
215	0xbec4fc5f	-0.38473794
216	0xbd53b69d	-0.051687825
217	0xbcf999ba	-0.03046881
218	0x3de96ccd	0.11397705
219	0x3e36187b	0.17782776
220	0x3eb8c328	0.36086392
221	0xbe938b20	-0.2881708
222	0x3e92fbb6	0.28707665
223	0xbe7a39f2	-0.24436167
224	0xbe794383	-0.2434216
225	0x3e47bd76	0.19505867
226	0xbe112bbd	-0.14176841
227	0x3c08ed1e	0.008357314
228	0xbd842684	-0.06452659
229	0x3d38c885	0.045113105
230	0xbe88acd0	-0.26694345
231	0xbd6c54ff	-0.057698246
232	0x3cc5c785	0.02414299
233	0x3b272479	0.0025503917
234	0x3d98361c	0.074321955
235	0x3e232b55	0.15934499
236	0xbe734a13	-0.23758726
237	0xbebed0b5	-0.37268606
238	0xbe9c5d6f	-0.30540034
239	0xbe87e7e6	-0.26544112
240	0xbced35af	-0.028956262
241	0xbda75e8b	-0.081723295
242	0xbea164f9	-0.3152235
243	0x3d512c3d	0.05106758
244	0x3e577680	0.21041298
245	0xbd843a50	-0.06456435
246	0x3e09fbd6	0.13474974
247	0x3e8ac750	0.27105188
248	0xbe3552fe	-0.1770744
249	0x3e0762b6	0.13221249
250	0xbe58da09	-0.21176924
251	0xbd93f1d8	-0.072238624
252	0x3e0bec59	0.13664378
253	0xbd8023f6	-0.06256859
254	0x3a8e08b2	0.0010836332
255	0x3db0a059	0.08624334

fc2.bias f4 [400]
0	0x3e8d9cb2	0.27658612
1	0xbe27110e	-0.163151
2	0x3e27c457	0.16383491
3	0xbe996236	-0.29957741
4	0xbe4671ec	-0.19379395
5	0xbe4df986	-0.20114717
6	0xbdbf501e	-0.09341453
7	0xbce47bad	-0.027891004
8	0x3e9181d8	0.28419375
9	0xbe803ca6	-0.2504627
10	0xbce57f88	-0.028014913
11	0x3e473be7	0.19456445
12	0x3d24ae3c	0.040205225
13	0x3e45becc	0.19311064
14	0x3e695f84	0.22790343
15	0x3e9d9e1a	0.30784684
16	0x3e3f5cc1	0.18687727
17	0x3c9882ca	0.018617053
18	0x3ea15632	0.31511074
19	0x3eccccb7	0.39999935
20	0x3e74ba9b	0.2389931
21	0x3dd6277b	0.10456749
22	0xbe815c15	-0.25265566
23	0xbdac5dfe	-0.08416365
24	0x3ce96b47	0.028493537
25	0xbe2503f5	-0.1611479
26	0x3e7b128e	0.24518797
27	0x3e6f882a	0.23391786
28	0xbe1d0412	-0.15333584
29	0xbebdccb7	-0.37070248
30	0xbe95c1f9	-0.29249552
31	0xbd2c5bf9	-0.0420799
32	0xbdd94a50	-0.10609877
33	0xbec4b055	-0.3841578
34	0xbe883a03	-0.2660676
35	0x3e450690	0.19240785
36	0x3dac0d8c	0.08401021
37	0xbe9ceebf	-0.306509
38	0xbe1f4062	-0.15551904
39	0xbc23a94d	-0.009989095
40	0xbd3fa298	-0.04678592
41	0x3e7343c9	0.23756327
42	0x3d95dbd0	0.073173165
43	0xbd0a2b11	-0.033732478
44	0x3da0e28b	0.0785571
45	0xbe4ae1e6	-0.19812736
46	0xbd536e2e	-0.051618747
47	0xbd47190c	-0.04860787
48	0xbe0eed17	-0.1395763
49	0x3cde73d2	0.027154837
50	0x3c51f555	0.012814839
51	0xbd52af9e	-0.051437013
52	0xbe970912	-0.29499108
53	0xbe1b8fbb	-0.15191548
54	0xbea78b08	-0.3272326
55	0xbc59d73c	-0.013295945
56	0xbde14289	-0.10999019
57	0x3d430c46	0.047619127
58	0xbde10fda	-0.109893516
59	0x3e746dae	0.23869964
60	0xbe23d498	-0.15999067
61	0xbeb491cb	-0.3526748
62	0xbe0b4e02	-0.13603976
63	0x3e78bfe4	0.2429195
64	0x3ea1c650	0.31596613
65	0x3d7d1e22	0.061796315
66	0xbdc10fe8	-0.09426862
67	0xbe98f828	-0.29876828
68	0x3d4c87b5	0.049934108
69	0x3e429925	0.19003733
70	0x3d181d2a	0.037137188
71	0x3db08406	0.086189315
72	0xbe8f5614	-0.2799536
73	0xbe31846d	-0.17335673
74	0x3d39afa5	0.045333523
75	0x3dadbb6c	0.084830135
76	0xbe2059d1	-0.15659262
77	0x3e0cc3f0	0.13746619
78	0xbdb6a67e	-0.089184746
79	0xbea0a7db	-0.31378064
80	0xbeae8542	-0.34086043
81	0xbe61adeb	-0.22039
82	0xbe7ed8d2	-0.24887398
83	0xbe62f5f0	-0.2216413
84	0xbe1b1333	-0.15144043
85	0x3e869278	0.26283622
86	0xbde15258	-0.11002034
87	0xbda2e557	-0.07953899
88	0x3e97bfa1	0.2963839
89	0x3e0f1940	0.13974476
90	0xbe046641	-0.12929632
91	0x3ec85e15	0.3913428
92	0x3eca7b55	0.3954722
93	0xbdcbdb6b	-0.0995396
94	0x3e9a4af6	0.30135316
95	0xbe6e0b55	-0.2324651
96	0xbc0bcefc	-0.008533236
97	0x3ccd4bdf	0.025060592
98	0xbcfc7fe5	-0.030822704
99	0x3d04b023	0.03239454
100	0xbd134d2a	-0.03596226
101	0x3e14b08e	0.14520475
102	0x3dfff792	0.12498392
103	0xbe9a0c69	-0.30087593
104	0x3b8b7f09	0.004257087
105	0xbe6e6b12	-0.23283032
106	0xbe67a0de	-0.2261996
107	0x3e9a95e2	0.30192477
108	0xbdc0f4d8	-0.094217
109	0xbd852818	-0.06501788
110	0x3e3ac2ef	0.18238424
111	0xbea58a37	-0.32332012
112	0xbe96ab81	-0.29427722
113	0x3d6e46a6	0.058172844
114	0xbe216ad5	-0.1576341
115	0x3dff45ed	0.12464509
116	0x3ea7ddae	0.32786316
117	0x3e659cd9	0.22423114
118	0x3d9b1bfa	0.075736955
119	0x3b2a83a5	0.0026018408
120	0x3da71b6a	0.08159526
121	0x3e965629	0.2936261
122	0x3e6290d8	0.22125566
123	0xbe14a78d	-0.1451704
124	0x3e5b8c2f	0.21440195
125	0xbe09ff2d	-0.13476248
126	0xbdd504b3	-0.10401287
127	0x3dbdfe7b	0.09277054
128	0x3e0a68c0	0.13516521
129	0xbd400a98	-0.046885103
130	0x3d52b96e	0.05144637
131	0x3e87c20d	0.26515236
132	0x3e8f3e47	0.279772
133	0x3d0cff30	0.034423053
134	0x3d23a81b	0.03995524
135	0x3d55e8fa	0.052224137
136	0x3da762d3	0.08173146
137	0xbe6145b0	-0.2199924
138	0x3cc18133	0.023621177
139	0x3ea50993	0.32233867
140	0xbe39f6cb	-0.1816055
141	0x3e1785ac	0.14797086
142	0xbc97ec22	-0.018545214
143	0xbe2d2463	-0.16908412
144	0x3e89ae2f	0.26890704
145	0x3d0428ef	0.0322656
146	0x3e93185a	0.28729516
147	0x3e2fd4ce	0.17171022
148	0xbe1fefd1	-0.15618826
149	0xbeac6fcd	-0.33679047
150	0x3e95810c	0.29200017
151	0x3eb20326	0.34768027
152	0xbe7ee6e7	-0.2489277
153	0xbe5630bc	-0.20917028
154	0x3e816c26	0.25277823
155	0x3e574522	0.21022466
156	0xbddf8321	-0.10913683
157	0x3d8c78ac	0.06858954
158	0xbe8371e8	-0.2567284
159	0x3d8d29cf	0.0689274
160	0x3ea6f06e	0.32605308
161	0x3e6f4410	0.23365808
162	0xbd8d2d17	-0.06893366
163	0xbd4f2b19	-0.05057821
164	0x3e9e97ed	0.30975285
165	0xbe965470	-0.29361296
166	0x3e29497d	0.1653194
167	0x3c87a593	0.016558444
168	0xbdb55c75	-0.088555254
169	0x3e86ce93	0.2632948
170	0x3e2b21eb	0.16712157
171	0xbe9fa559	-0.31180838
172	0xbdadef17	-0.084928684
173	0x3e615726	0.220059
174	0x3e3c10db	0.18365805
175	0xbe66458b	-0.22487466
176	0x3e08782d	0.13327093
177	0x3e2bb950	0.1676991
178	0x3da5c01a	0.08093281
179	0x3e304645	0.17214306
180	0xbd287e34	-0.04113598
181	0x3e64ac30	0.2233131
182	0xbdb271b0	-0.087130904
183	0x3a877705	0.0010335153
184	0x3ebdcfc6	0.3707258
185	0x3e189d61	0.14903785
186	0x3e776f57	0.24163567
187	0xbe175c83	-0.14781384
188	0xbe50e2fd	-0.20399089
189	0xbe87a000	-0.26489258
190	0xbe2145bd	-0.1574926
191	0x3d755c1f	0.059902307
192	0xbc8d70f1	-0.017265769
193	0x3dcfdb56	0.10149257
194	0xbe3cc19c	-0.18433231
195	0x3e841fac	0.25805414
196	0xbcb22d83	-0.021750217
197	0xbddd9df1	-0.108211406
198	0xbe220823	-0.15823416
199	0xbbf022a9	-0.0073283506
200	0xbc1c014f	-0.009521796
201	0x3e816d75	0.25278822
202	0x3ec10986	0.37702578
203	0xbe29488b	-0.16531579
204	0xbe516cc2	-0.20451644
205	0xbe8a628c	-0.2702831
206	0xbab350ca	-0.0013680693
207	0x3eb8fee8	0.36131978
208	0x3d0104ed	0.03149884
209	0xbc01c792	-0.007921116
210	0x3dd8254b	0.10553988
211	0x3ebb43c5	0.36575142
212	0x3db12ec7	0.086515
213	0xbd9c7938	-0.07640308
214	0xbeb412e9	-0.35170677
215	0xbda39d7a	-0.07989021
216	0xbe88686c	-0.26642168
217	0xbe0699b7	-0.13144575
218	0x3e1b7779	0.15182294
219	0xbda3a002	-0.079895034
220	0xbe5d4a67	-0.21610413
221	0x3e221c65	0.15831144
222	0x3dc04ae0	0.09389281
223	0xbe17bdf0	-0.14818549
224	0xbea89f3c	-0.32933986
225	0x3e275988	0.16342747
226	0x3e8a2e78	0.26988578
227	0xbd837e58	-0.064205825
228	0xbe5c74ab	-0.2152888
229	0x3ea4c80d	0.32183877
230	0xbe7c6fdd	-0.24652047
231	0x3ea56cf5	0.3230969
232	0xbdd2ca35	-0.10292474
233	0x3be150a3	0.0068760677
234	0x3e9ccd2b	0.3062528
235	0x3eb037da	0.3441761
236	0x3e557534	0.2084549
237	0xbe9330f0	-0.28748274
238	0xbec2ccb9	-0.38046816
239	0x3e1e8e49	0.15483965
240	0x3de5c412	0.11219038
241	0x3e8c2b4f	0.27376792
242	0x3e2cd874	0.16879445
243	0xbec7ed20	-0.390481
244	0xbd3908bb	-0.04517434
245	0xbe7dde82	-0.24791911
246	0xbe29cbdd	-0.16581674
247	0x3e69d919	0.22836722
248	0xbda3e8b0	-0.08003366
249	0x3e38eb92	0.18058613
250	0xbdbb8042	-0.091553226
251	0xbdd7e06a	-0.105408505
252	0x3e4cb0d5	0.19989331
253	0x3b0896f8	0.0020841938
254	0x3d9aabfc	0.07552335
255	0x3ea691d2	0.32533127

decoder.0.weight f4 [16, 32, 3]
0	0x3cbc2575	0.02296708
1	0x3dd76d9e	0.10518955
2	0x3b925f48	0.004466925
3	0xbc1c45cd	-0.009538126
4	0xbd069617	-0.03285798
5	0x3de4e8ed	0.111772396
6	0x3daf9e5c	0.085751265
7	0x3ceca489	0.02888705
8	0xbd79e11f	-0.061005708
9	0xbde6f84e	-0.11277829
10	0xbdaae739	-0.083448835
11	0xbd39bb41	-0.045344595
12	0x3d84025c	0.064457625
13	0xbd1b2889	-0.037880454
14	0x3daefa34	0.08543816
15	0x3d37d02a	0.044876255
16	0xbd3d28a3	-0.046181332
17	0x3df79c26	0.1209033
18	0xbdd2f41c	-0.103004664
19	0x3cbe57dc	0.023235254
20	0xbd3ac003	-0.045593273
21	0x3d3cdcd2	0.04610903
22	0x3d050542	0.032475717
23	0x3c9baadb	0.019002369
24	0x3d01fc55	0.031734783
25	0xbdd343e4	-0.103156835
26	0x3ccd3899	0.025051402
27	0xbc1212f8	-0.008915655
28	0xbe0f019a	-0.13965455
29	0x3bae7c6d	0.0053248913
30	0xbd38f029	-0.04515091
31	0x3e074866	0.13211212
32	0x3d073d9a	0.033017732
33	0x3e118e3c	0.14214414
34	0x3de57acb	0.112050615
35	0xbd44b7e7	-0.048026945
36	0x3d9e75e3	0.07737329
37	0x3ce0dfb8	0.027450427
38	0xbd320bf9	-0.04346845
39	0x3cfd9cfc	0.030958645
40	0xbd7caf1e	-0.061690442
41	0xbcb8319a	-0.02248459
42	0x3d86dda8	0.06585246
43	0x3cf67a67	0.030087663
44	0xbdc226ab	-0.094800316
45	0x3df8cf74	0.121489435
46	0x3e1a14fe	0.1504707
47	0x3e1794cf	0.1480286
48	0xbc3d6539	-0.011559778
49	0xbca153ef	-0.019693343
50	0xbd9d16ed	-0.07670388
51	0x3d62dd58	0.05538687
52	0x3deb1797	0.11479109
53	0xbdad0cc7	-0.08449703
54	0xbe06b74d	-0.13155861
55	0xbdab283d	-0.08357284
56	0xbc222d15	-0.009898444
57	0x3cc831a6	0.024437737
58	0xbcdefc42	-0.027219895
59	0xbd2233ed	-0.0396003
60	0xbd5f1f0b	-0.054472964
61	0xbdc9cfe0	-0.09854102
62	0x3d866d9c	0.06563875
63	0xbcd6bb19	-0.026212262
64	0xbdb2273b	-0.08698889
65	0xbdcf4fda	-0.10122652
66	0x3d862362	0.065497175
67	0x3dc33ce9	0.09533102
68	0x3d9d5830	0.07682836
69	0x3cb84916	0.022495788
70	0x3df06215	0.11737458
71	0x3db3b946	0.087755725
72	0xbcfe7eeb	-0.031066379
73	0xbd51021d	-0.051027406
74	0xbd0f7122	-0.03502
75	0x3d729a4a	0.059229173
76	0x3debfa5a	0.1152236
77	0xbbab2e4f	-0.0052240263
78	0x3d3e9f53	0.046538662
79	0x3dafeb82	0.085898414
80	0x3cbad772	0.02280781
81	0x3d6be18b	0.05758814
82	0x3d81dc47	0.06340843
83	0x3d21fa08	0.03954509
84	0xbcadd58c	-0.021219991
85	0x3d9c3560	0.07627368
86	0x3de40034	0.11132851
87	0x3c6fbb22	0.014632018
88	0xbd2a1b0d	-0.041529704
89	0xbc7f7380	-0.015591502
90	0x3daf39a0	0.08555913
91	0x3dca7318	0.09885234
92	0x3dec7299	0.11545295
93	0xbd83d54b	-0.06437167
94	0x3ca3d433	0.019998645
95	0xbb83d128	-0.004022736
96	0x3d7e4b41	0.062083486
97	0x3df5d779	0.12003989
98	0x3be3b5b3	0.0069491505
99	0x3d2e64a2	0.04257644
100	0xbdcce630	-0.10004842
101	0xbb2d8061	-0.0026474225
102	0x3d060e9b	0.032728773
103	0x3d632c1f	0.055462
104	0x3d8a9c0a	0.06768043
105	0x3d5424b0	0.0517928
106	0xbd583b59	-0.052790973
107	0x3dad254e	0.08454381
108	0x3bdf66e2	0.0068176845
109	0x3d399d75	0.04531618
110	0x3dc53265	0.096287526
111	0xbd177934	-0.036980823
112	0x3cf00f9b	0.029304316
113	0xbc3d41f6	-0.011551371
114	0xbdad6e54	-0.08468309
115	0xbdb8e793	-0.09028544
116	0xbd6c75e7	-0.057729628
117	0xbdb474c7	-0.08811336
118	0x3d9b4616	0.07581727
119	0xbcae6cc9	-0.021292107
120	0xbdde4fc2	-0.10855056
121	0xbd2102b3	-0.039309215
122	0x3cb706b5	0.022342065
123	0xbdfedc22	-0.12444331
124	0xbd52c5a3	-0.051458012
125	0xbe12e9b7	-0.14346968
126	0x3d5bc646	0.053655885
127	0xbd141806	-0.036155723
128	0x3c90ccce	0.017675783
129	0x3dcfb061	0.101410635
130	0xbd17c9cb	-0.03705768
131	0x3dca3fdc	0.098754615
132	0xbae4309e	-0.0017409509
133	0x3d868721	0.065687425
134	0xbd9eff18	-0.07763499
135	0xbdeaa96b	-0.11458095
136	0xbde38f4f	-0.11111318
137	0xbb82102b	-0.0039692125
138	0xbd57ebd3	-0.052715134
139	0x3d9a1ccc	0.07525024
140	0x3caa3c2d	0.020780647
141	0xbc4d825b	-0.012543286
142	0x3dc235b7	0.094829015
143	0x3daa2ca3	0.08309295
144	0x3dc8be49	0.09801919
145	0x3d49279c	0.04911004
146	0xbda4014d	-0.080080606
147	0x3c1cb2a4	0.009564076
148	0xbde0a697	-0.109692745
149	0xbca20e6f	-0.019782273
150	0xbde30e28	-0.110866845
151	0xbc93ec5b	-0.018057039
152	0xbd9011f0	-0.07034671
153	0x3cb08567	0.021547986
154	0xbd6507b4	-0.05591555
155	0x3d5e95f3	0.05434222
156	0x3d843afb	0.06456562
157	0xbdbf9652	-0.09354843
158	0x3c979ddb	0.018507889
159	0xbd56abc8	-0.052409917
160	0xbdebb83b	-0.115097485
161	0xbded400b	-0.11584481
162	0xbc612508	-0.013741739
163	0x3ca60c7a	0.020269621
164	0x3d3b7f44	0.045775667
165	0xbde08cb1	-0.10964335
166	0x3de5d6ec	0.11222634
167	0xbd51a07b	-0.051178437
168	0x3d07ce81	0.03315592
169	0xbc8706a0	-0.016482651
170	0x3cf6f1f9	0.030144678
171	0xbd801fc7	-0.06256061
172	0xba99ca20	-0.0011733212
173	0xb9729aa5	-0.00023136528
174	0xbd97e7d9	-0.07417268
175	0xbd99a740	-0.075026035
176	0xbde686f9	-0.11256213
177	0xbd390891	-0.045174185
178	0xbdb3d622	-0.08781077
179	0xbcb9b094	-0.022667207
180	0x3d7f6683	0.062353622
181	0x3cd3740f	0.025812177
182	0xbce1c931	-0.027561756
183	0x3b28dcdc	0.0025766408
184	0x3cba18ef	0.022716967
185	0x3d34d31f	0.044146653
186	0x3d847968	0.06468469
187	0x3c580e69	0.013187029
188	0x3cc90f1d	0.02454334
189	0xbdae4d99	-0.08510894
190	0xbe0dccdc	-0.13847679
191	0xbd9a9b2b	-0.07549127
192	0x3dd275e8	0.10276395
193	0x3e0312f8	0.12800205
194	0x3da1888e	0.07887374
195	0xbbfb4bc6	-0.007668945
196	0xbd5bb9ad	-0.05364387
197	0xbdac48cc	-0.084123224
198	0x3c85789a	0.016292859
199	0xbbc7399e	-0.0060798666
200	0x3b0ceaec	0.002150233
201	0xbd65c5ec	-0.056096956
202	0xbd7124eb	-0.0588731
203	0xbdbdd162	-0.09268452
204	0x3d04ac0a	0.03239063
205	0xbc31bf0d	-0.010848773
206	0x3d99acc3	0.07503655
207	0xbda20bc8	-0.07912403
208	0x3d868ce0	0.065698385
209	0x3e12ea09	0.1434709
210	0x3c341d09	0.010993251
211	0x3d9c2b58	0.07625455
212	0xbd09de91	-0.03365952
213	0xbd5be8d9	-0.053688858
214	0xbc2ae0c4	-0.010429565
215	0xba508b23	-0.00079553033
216	0xbcbec86f	-0.023288934
217	0xbd60a47d	-0.05484437
218	0x3d8b6a9a	0.06807442
219	0xbd7617ad	-0.060081173
220	0x3e0ef70e	0.13961431
221	0x3c3fed39	0.011714273
222	0x3d325475	0.043537576
223	0x3db538ef	0.0884875
224	0x3d80786c	0.06272969
225	0xbd3ce1bf	-0.046113726
226	0xbd37e07b	-0.044891816
227	0x3c16c16c	0.009201389
228	0xbdc34459	-0.09534521
229	0x3ba5e993	0.0050632446
230	0xbdff3a14	-0.124622494
231	0xbd81022a	-0.06299241
232	0xbbae1191	-0.0053121527
233	0x3d43fa66	0.04784622
234	0x3d84e26c	0.06488499
235	0x3d750a7a	0.059824444
236	0x3cfc4513	0.030794656
237	0x3e07a54b	0.13246648
238	0x3d01f315	0.03172596
239	0x3de48553	0.11158242
240	0xbd994b60	-0.0748508
241	0x3df804cc	0.1211029
242	0xbd070dec	-0.03297226
243	0x3ddb3f60	0.10705447
244	0x3d7481d3	0.059694123
245	0x3d255513	0.040364336
246	0xbca549fd	-0.020176882
247	0xbde3e552	-0.11127724
248	0xbca8c8e9	-0.020603614
249	0xbdb3b6f0	-0.08775127
250	0xbbe9ac07	-0.007131103
251	0x3c7f5f85	0.0155867385
252	0xbcf9894c	-0.030460976
253	0xbba02401	-0.0048871045
254	0x3d6814cf	0.05666047
255	0xbdda2efe	-0.10653494

decoder.0.bias f4 [32]
0	0xbcbe1925	-0.02320535
1	0x3d60028f	0.05468994
2	0xbd08ca63	-0.033396136
3	0x3d816f79	0.0632009
4	0x3d145c15	0.03622063
5	0x3ca33fbc	0.019927852
6	0xbd0c45fd	-0.034246434
7	0xbcc44782	-0.023959879
8	0xbda2ca01	-0.079486854
9	0x3c897858	0.016781017
10	0x3dd2d0b8	0.10293716
11	0x3cac9c00	0.02107048
12	0xbb9f6cac	-0.0048652496
13	0x3c3e606a	0.011619667
14	0xbc225305	-0.009907489
15	0x3ce3ffa6	0.027831864
16	0x3da710c7	0.08157497
17	0xbc9d681a	-0.019214679
18	0x3d9906db	0.07472011
19	0xbcc8d8c5	-0.024517426
20	0xbce7d053	-0.028297579
21	0x3db508c4	0.088395625
22	0xbd7c8be9	-0.061656866
23	0x3cea79a9	0.028622465
24	0x3d0a9634	0.03383465
25	0x3d58d455	0.05293687
26	0xbd38af7a	-0.045089222
27	0xbc0dcca8	-0.008654751
28	0x3df3d7d3	0.119063996
29	0xbd864721	-0.065565355
30	0x3da395f2	0.07987584
31	0x3df6c65a	0.12049551
