data/models/autoencoder_epoch_30.pt (torch, 66986 bytes, 15 tensors)

encoder.0.weight f4 [16, 1, 5]
0	0x3ec88933	0.39167175
1	0xbeb6101e	-0.3555917
2	0x3eec95c9	0.46208027
3	0x3eb3b692	0.35100228
4	0xbeb56cc9	-0.3543456
5	0x3ea2ea4a	0.31819373
6	0xbe309b36	-0.17246708
7	0xbeda64a1	-0.426549
8	0xbe6903f1	-0.2275541
9	0x3e415fca	0.18884197
10	0x3df13ed5	0.117795624
11	0x3edf636a	0.43630534
12	0x3dca7a42	0.098866
13	0x3e12aee1	0.14324524
14	0xbe860555	-0.26175943
15	0xbebd0c04	-0.3692323
16	0x3e644eeb	0.2229573
17	0xbd20bcf8	-0.039242715
18	0xbe8e5c46	-0.27804774
19	0x3e294660	0.16530752
20	0xbebb0938	-0.3653047
21	0x3ea89fd4	0.3293444
22	0xbe155950	-0.14584851
23	0xbea22b56	-0.31673688
24	0x3dc684a8	0.09693271
25	0x3ebe113d	0.37122527
26	0xbe4725e4	-0.19448048
27	0x3e0300be	0.12793252
28	0x3ec54434	0.38528597
29	0x3e3642e1	0.1779895
30	0x3e5bf2c4	0.21479326
31	0xbde329c3	-0.1109195
32	0x3eee7e60	0.4658079
33	0x3eaaa7db	0.3333119
34	0x3eb3f0c0	0.35144615
35	0x3eab8ee7	0.33507463
36	0xbdb04a28	-0.08607894
37	0x3ef68fca	0.48156577
38	0xbd3715a2	-0.044698365
39	0x3ec4812c	0.383798
40	0xbdf73e24	-0.12072399
41	0xbe68e461	-0.2274337
42	0x3e4b3494	0.19844276
43	0xbe77e51d	-0.24208494
44	0x3e9ef706	0.3104784
45	0xbe12d300	-0.14338303
46	0xbed1f338	-0.41005874
47	0x3e00c988	0.12576878
48	0xbec88331	-0.3916259
49	0x3e508118	0.20361745
50	0x3ea32e20	0.31871128
51	0x3e400f08	0.18755734
52	0x3ef1727b	0.47157654
53	0x3ebf31dc	0.37342727
54	0x3dcd4eed	0.100248195
55	0x3ce7bb35	0.02828751
56	0xbe734844	-0.23758036
57	0xbd9ab7c8	-0.07554585
58	0xbeb78ce4	-0.3584968
59	0x3e8f6020	0.28003025
60	0x3e651967	0.22372971
61	0xbde927aa	-0.113845184
62	0xbe67bd36	-0.22630772
63	0xbe97cb66	-0.29647368
64	0x3e7e07fb	0.24807732
65	0x3d8f999c	0.070117205
66	0xbeacbb65	-0.3373672
67	0x3e5addc3	0.21373658
68	0x3ed5bb0f	0.41744277
69	0x3dfdad22	0.12386538
70	0xbeba655b	-0.36405453
71	0x3efcaafe	0.49349207
72	0xbe97a18c	-0.29615438
73	0x3e8d76fe	0.27629846
74	0x3eda51a7	0.4264042
75	0x3eb0062c	0.3437971
76	0x3d3f48f5	0.046700437
77	0xbe20aefb	-0.1569175
78	0xbe3750e2	-0.17901948
79	0xbe736220	-0.237679

encoder.0.bias f4 [16]
0	0x3eb0f231	0.34559777
1	0x3e930dd9	0.28721502
2	0x3dbb85aa	0.09156354
3	0x3ea8e443	0.3298665
4	0xbe01cd02	-0.1267586
5	0x3b392e99	0.0028256534
6	0x3e308c6b	0.17241065
7	0x3e0705a7	0.1318575
8	0xbd32eb64	-0.043681517
9	0x3eced1e3	0.40394506
10	0x3e543fa3	0.207274
11	0x3ce00204	0.027344711
12	0x3e814da7	0.25254557
13	0xbd2a7498	-0.0416151
14	0x3c2c753f	0.0105260005
15	0x3ea86d35	0.32895818

encoder.3.weight f4 [32, 16, 5]
0	0x3d91076a	0.07081492
1	0x3d5605b1	0.05225152
2	0x3cd9d69a	0.026591588
3	0x3d07ee55	0.033186276
4	0x3d0096c0	0.031393766
5	0x3d8762f2	0.06610669
6	0xbe02ff61	-0.12792732
7	0xbd195bc8	-0.037441045
8	0xbdda2daa	-0.10653241
9	0x3d16e4c6	0.03683927
10	0x3da87514	0.08225456
11	0x3de2993c	0.110643834
12	0x3db23e6d	0.08703313
13	0x3e16b4d8	0.14717424
14	0x3e10ced2	0.14141396
15	0x3ced4d12	0.028967414
16	0x3da0fc0e	0.078605756
17	0xbd0f2256	-0.034944855
18	0xbc8bfa5c	-0.017087154
19	0xbdfb9d75	-0.12285892
20	0x3dd9c5fc	0.10633466
21	0x3db4bdc8	0.088252604
22	0x3ca5b2c8	0.020226851
23	0x3dc87948	0.097887576
24	0x3cceddd8	0.025252268
25	0x3dfbce07	0.12295156
26	0x3d42c8b8	0.0475547
27	0x3de83938	0.113390386
28	0x3dfcbffb	0.12341305
29	0xbc7c2226	-0.015389001
30	0xbc4da61f	-0.012551813
31	0x3e22ca65	0.1589752
32	0x3b97590e	0.0046187704
33	0xbb8e4b84	-0.0043424983
34	0x3c8e4808	0.017368332
35	0xbc0ad990	-0.0084747225
36	0x3dfd487b	0.1236734
37	0x3e203a80	0.15647316
38	0x3aa1fa95	0.0012358004
39	0xbd0c4852	-0.034248658
40	0x3d5ffb9d	0.054683316
41	0xbda20b01	-0.07912255
42	0x3d19c6b8	0.03754303
43	0xbc91d8c0	-0.01780355
44	0xbd8e5de7	-0.06951504
45	0xbcf660e1	-0.030075492
46	0xbc85e6f0	-0.016345471
47	0x3d4b0c06	0.049572013
48	0xbda34c24	-0.07973507
49	0x3da283db	0.07935306
50	0xbd04f942	-0.032464273
51	0x3de7f3f3	0.113258265
52	0xbd039d6a	-0.032132544
53	0x3c199179	0.009373062
54	0xbd2df82d	-0.042473007
55	0xbcbb7c83	-0.02288652
56	0xbd3c1312	-0.045916624
57	0x3d3c4229	0.045961533
58	0xbd73fa4f	-0.059564885
59	0x3db6395a	0.08897658
60	0x3d7fc6a0	0.062445283
61	0xbdbdfcf7	-0.09276765
62	0x3d46a7a9	0.048499737
63	0xbc7dc8e2	-0.015489789
64	0x3c9a9eba	0.018874515
65	0x3d37a405	0.044834156
66	0xbacfc317	-0.0015850988
67	0x3d9d386d	0.07676778
68	0xbc865b3f	-0.016400931
69	0xbb492fdc	-0.0030698692
70	0x3e30113f	0.17194079
71	0x3d8553a7	0.06510096
72	0x3dfff30f	0.124975316
73	0x3dfb10ae	0.12259041
74	0xbcf0dcbe	-0.029402133
75	0x3d42b647	0.047537114
76	0xbd931e0a	-0.07183464
77	0xbddb0cf6	-0.106958315
78	0xbdd1d976	-0.102465555
79	0x3dba0503	0.09082987
80	0x3e0f732a	0.14008775
81	0x3d09b7bc	0.03362249
82	0xbcedc7b0	-0.029025882
83	0x3db7fb91	0.08983529
84	0xbcbbd8e1	-0.022930564
85	0x3d5da3e4	0.054111376
86	0xbcd90d97	-0.026495738
87	0x3d9afd8d	0.07567892
88	0xbd924520	-0.07142091
89	0xbda99cd0	-0.08281863
90	0xbd06331c	-0.032763585
91	0x3dab1df5	0.08355323
92	0x3d94e49d	0.07270167
93	0x3d688d10	0.056775153
94	0xbba719c1	-0.0050995057
95	0xbe0421c2	-0.12903503
96	0x3cab6c3a	0.02092563
97	0x3d9435e1	0.07236839
98	0xbd9bbb68	-0.07604104
99	0xbda8e14a	-0.082460955
100	0x3cbdbe10	0.023161918
101	0x3dbcc06c	0.09216389
102	0x3d9f430e	0.077764615
103	0xbd9062f2	-0.07050122
104	0xbd811d1a	-0.06304379
105	0x3ce360e1	0.027756156
106	0x3e09896f	0.13431333
107	0x3dbcab37	0.09212344
108	0x3dc4ada5	0.096034326
109	0x3c016740	0.007898152
110	0x3dae355f	0.085062735
111	0x3caf1c9e	0.02137595
112	0xbc89efd1	-0.016837986
113	0xbd356fa3	-0.04429592
114	0xbd1cb8be	-0.03826212
115	0x3d0dd881	0.034630302
116	0x3e0a7b9e	0.13523719
117	0x3db5fe0b	0.088863455
118	0xbd0c2097	-0.034210768
119	0x3dec62a6	0.11542253
120	0xbd2acf24	-0.04170145
121	0x397fac87	0.00024382967
122	0xbd00267c	-0.0312867
123	0xbdba42da	-0.09094782
124	0x3d9c8612	0.076427594
125	0x3c3f77d7	0.011686287
126	0xbd85b851	-0.06529296
127	0xbcf9e91a	-0.03050666
128	0xbd3fdd23	-0.04684175
129	0x3dd84544	0.10560086
130	0x3d2e5689	0.042562995
131	0x3da25004	0.07925418
132	0x3d85f739	0.065412946
133	0x3d337e21	0.043821458
134	0x3e08830a	0.13331237
135	0x3d7b75fa	0.061391808
136	0xbd9de94a	-0.07710512
137	0x3d458d00	0.04823017
138	0xbddf27ba	-0.10896249
139	0x3cacb3bc	0.021081798
140	0x3d7d6207	0.061861064
141	0x3d0a92b1	0.033831302
142	0x3d69ffde	0.05712878
143	0xbb10db55	-0.0022103388
144	0x3c65232e	0.013985438
145	0x3e152bff	0.14567564
146	0x3d598a3b	0.053110342
147	0x3dcfc6e5	0.10145358
148	0x3dda2594	0.10651699
149	0x3dc1f6af	0.09470879
150	0x3dd86ee3	0.10568025
151	0xbd6e8aa5	-0.05823769
152	0x3d55a94b	0.052163403
153	0x3ba42e75	0.005010421
154	0x3df2bfff	0.118530266
155	0xbd59ef26	-0.053206585
156	0x3d50228d	0.0508142
157	0xbddd6922	-0.10811068
158	0xbced780c	-0.028987907
159	0x3da48140	0.08032465
160	0x3c4d2071	0.012519942
161	0x3c321097	0.010868213
162	0xbd1fb176	-0.0389876
163	0x3dd608b1	0.104508765
164	0x3df38704	0.118909866
165	0x3cda8855	0.026676336
166	0x3b97c3e7	0.0046315077
167	0xbbe65966	-0.0070297
168	0xbdc15c64	-0.0944145
169	0xbddd5439	-0.1080708
170	0x3dad37cb	0.08457907
171	0x3dd9da99	0.10637397
172	0x3de7fa99	0.113270946
173	0x3e18aef3	0.14910488
174	0xbc7d8397	-0.015473268
175	0xbd4b82cf	-0.049685296
176	0xbde24759	-0.11048765
177	0xbd5f15f3	-0.05446429
178	0x3d409fd3	0.04702742
179	0xbd320ed2	-0.043471165
180	0xbd6a866d	-0.057257105
181	0xbd3534fa	-0.044239976
182	0x3d20d3d4	0.039264515
183	0xbdd30a38	-0.103046834
184	0xbda11006	-0.07864384
185	0x3cab2095	0.02088956
186	0x3db5e49f	0.08881497
187	0x3d125613	0.035726618
188	0x3e1c5bc0	0.15269375
189	0x3d70608b	0.05868582
190	0x3c5f9393	0.013646024
191	0x3dcda67e	0.100415215
192	0x3deacd3a	0.11464925
193	0xbbb2ebb5	-0.0054602274
194	0x3d789fba	0.060699202
195	0x3d8b48a1	0.06800962
196	0x3d85c7e0	0.06532264
197	0x3d2bb836	0.041923724
198	0xbd139d3d	-0.036038626
199	0x3df3be5b	0.11901542
200	0x3e0e8f79	0.13921918
201	0x3df83dbb	0.12121149
202	0xbda1e9f3	-0.079059504
203	0x3c216018	0.009849571
204	0xbd3e321a	-0.0464345
205	0x3d81903e	0.0632634
206	0x3d8bf169	0.06833155
207	0x3caf4f34	0.021400072
208	0xbab3ac5e	-0.0013707986
209	0xbdccffa4	-0.10009697
210	0x3da3a0e1	0.079896696
211	0xbca4022d	-0.020020569
212	0x3e1004f6	0.14064392
213	0x3d9d3675	0.076764025
214	0x3c817e31	0.015807243
215	0x3da8f02b	0.082489334
216	0x3d99fda2	0.0751908
217	0x3dbfd938	0.09367603
218	0x3cd3d7c2	0.025859717
219	0x3d21b0a8	0.039475113
220	0x3c417ce3	0.0118095605
221	0x3cfc8795	0.03082637
222	0x3d3e1abb	0.04641221
223	0x3dcc226e	0.099675044
224	0xbb565ad8	-0.0032707956
225	0x3d019f50	0.031646073
226	0x3d05f5a4	0.032704964
227	0x3db97ca8	0.090569794
228	0xbc562fd9	-0.013072931
229	0xbc8dbdd1	-0.017302426
230	0x3d956c47	0.07296043
231	0x3dbfd1f8	0.0936622
232	0x3e188682	0.1489506
233	0x3d5ba42f	0.053623375
234	0x3e10ec20	0.14152575
235	0xbde0db5b	-0.10979339
236	0xbc751b6a	-0.014960149
237	0x3ca978ce	0.020687487
238	0xbd7ea198	-0.062165827
239	0x3d9d9261	0.07693935
240	0x3dd2e32f	0.10297238
241	0x3df5d17c	0.120028466
242	0xbce621ab	-0.028092226
243	0xbd153fb7	-0.036437716
244	0x3dc350fd	0.09536932
245	0x3d3e4a17	0.046457376
246	0xbcf4ff95	-0.029907027
247	0x3d642fe5	0.05570974
248	0x3daf8f21	0.085722215
249	0x3d345469	0.044025812
250	0x3cef0756	0.029178303
251	0x3d549294	0.0518976
252	0xbda8b32b	-0.082372986
253	0xbd1147d8	-0.035468906
254	0x3c34d8d8	0.011038028
255	0x3da1ca68	0.07899934

encoder.3.bias f4 [32]
0	0xbced273f	-0.028949378
1	0x3caf9dff	0.021437643
2	0x3ddf4794	0.10902324
3	0x3d03e351	0.032199208
4	0x3d98e4ad	0.074654914
5	0x3df56568	0.11982232
6	0xbd9b25c8	-0.075755656
7	0x3d7f55a4	0.062337533
8	0xbda00983	-0.07814314
9	0xbd6bb88f	-0.057549056
10	0xbd7cbc09	-0.06170276
11	0x3dd17de9	0.102290936
12	0xbc1a6f80	-0.009425998
13	0x3d8c202a	0.06842072
14	0x3d4560bc	0.048187956
15	0x3d2d4595	0.042302687
16	0xbd075fa6	-0.0330502
17	0xbdbc3592	-0.09189905
18	0x3da85ac1	0.08220435
19	0x3de6f60e	0.112774
20	0x3da11002	0.078643814
21	0x3da4fed3	0.08056416
22	0xbd5fa7d4	-0.054603413
23	0x3d30c7e8	0.043159395
24	0xbcb41d67	-0.021986676
25	0x3d952606	0.07282643
26	0x3df0eacb	0.11763533
27	0xbcbcb8b1	-0.023037286
28	0xbd970747	-0.07374435
29	0xbd5cc448	-0.053898126
30	0xbbb3c16c	-0.005485704
31	0x3cd0c956	0.02548663

encoder.6.weight f4 [16, 32, 3]
0	0x3dbd52a8	0.09244281
1	0x3dcdb967	0.10045128
2	0x3d519622	0.05116857
3	0xbd4523b0	-0.048129737
4	0xbd0c43c4	-0.034244314
5	0x3df7019b	0.12060853
6	0x3e15f893	0.14645605
7	0x3da684b2	0.08130778
8	0x3d6b9c5e	0.05752217
9	0xbd83ff27	-0.06445151
10	0x3d2e0999	0.04248962
11	0x3c838e9e	0.016059216
12	0x3e1693e9	0.14704861
13	0xbc4e89d5	-0.012606104
14	0x3d8083c3	0.062751316
15	0xbda67414	-0.08127609
16	0xbd075dc2	-0.0330484
17	0x3c9b4048	0.01895155
18	0xbc482b1d	-0.01221731
19	0xbd5cc4ce	-0.053898625
20	0x3c13cca3	0.009020957
21	0x3e0a1acb	0.13486783
22	0x3af1bfc7	0.0018443995
23	0x3d94ecff	0.07271766
24	0xbce2eb90	-0.027700216
25	0xbc862397	-0.016374392
26	0xbceb16d1	-0.028697403
27	0x3d7c116a	0.061540045
28	0x3d10310f	0.035203036
29	0xbdc70aed	-0.09718881
30	0x3d92b66e	0.07163702
31	0x3db2fc80	0.08739567
32	0x3a874ac3	0.0010321963
33	0xbd2302ad	-0.039797474
34	0xbd119c17	-0.03554925
35	0xbcdabcd5	-0.02670137
36	0x3d4cbc62	0.049984343
37	0xbad899ee	-0.0016525367
38	0x3d58992b	0.052880447
39	0x3d56c097	0.05242976
40	0xbd2cf46b	-0.042225283
41	0xbbd9fdd4	-0.006652573
42	0x3c3f5d27	0.011679924
43	0x3dbffdbe	0.09374569
44	0x3d94cea3	0.07265975
45	0x3adcb2ef	0.0016837994
46	0xbc82400c	-0.01589968
47	0x3daec7aa	0.08534177
48	0x3debaa58	0.115071
49	0x3d240a2f	0.040048774
50	0x3cd42402	0.025896076
51	0xbdba17e4	-0.09086588
52	0x3dc2bc64	0.09508589
53	0x3d86a720	0.06574845
54	0xbd7292c7	-0.05922201
55	0xbdb70719	-0.08936901
56	0x3d99d803	0.07511904
57	0xbcbe8ea1	-0.02326137
58	0x3da3206f	0.079651706
59	0xbab7b710	-0.0014016349
60	0x3d0ef2c5	0.03489949
61	0x3df1e102	0.11810495
62	0x3d145f5e	0.03622376
63	0x3cf0f7ef	0.029415099
64	0x3d7d764c	0.061880395
65	0x3d0fea45	0.035135526
66	0x3e182f1f	0.14861725
67	0x3cf75e1d	0.030196244
68	0x3de7da3a	0.1132092
69	0x3dc0caa4	0.09413651
70	0xbdaa1052	-0.08303894
71	0x3d958986	0.07301621
72	0x3ded6c38	0.11592907
73	0xbd10c63c	-0.0353453
74	0x3d7c2554	0.061559036
75	0xbd10d11a	-0.035355665
76	0x3a6c23da	0.0009008028
77	0xbd273a3c	-0.04082702
78	0x3e17771d	0.14791532
79	0x3cfbc768	0.030734733
80	0x3e149599	0.14510192
81	0x3d91944f	0.07108366
82	0x3d80c8c5	0.06288294
83	0x3d9cf306	0.076635405
84	0x3b8e8280	0.004349053
85	0x3d5fc81c	0.0546342
86	0x3daa9044	0.08328298
87	0xbcb8d8d9	-0.022564339
88	0xbd82e40f	-0.06391155
89	0x3df7e37a	0.121039346
90	0x3ca4290e	0.020039108
91	0x3dde04b4	0.10840741
92	0x3e0f83dd	0.14015146
93	0x3de6592c	0.11247477
94	0xbd6e63f8	-0.058200806
95	0x3d8fa1ca	0.07013281
96	0xbd935d31	-0.07195509
97	0xbc95c3a4	-0.018281765
98	0xbb380360	-0.0028078184
99	0xbdc500f9	-0.09619326
100	0x3c6b3240	0.014355242
101	0xbcc08cec	-0.023504697
102	0xbcd918b4	-0.026501037
103	0x3a2f6300	0.00066904724
104	0xbd0256fe	-0.031821243
105	0xbdcf8072	-0.10131921
106	0xbc596700	-0.013269186
107	0xbd0b860a	-0.034063376
108	0xbcaf77b0	-0.021419376
109	0xbd83b29c	-0.064305514
110	0x3d63f528	0.05565372
111	0x3dbaa9f0	0.09114444
112	0x3d8bd332	0.06827392
113	0x3dc6de1c	0.09710333
114	0xbd0d90e8	-0.03456202
115	0x3c5748d0	0.013139918
116	0x3cbe6428	0.023241118
117	0xbd89b838	-0.0672459
118	0xbb0be020	-0.0021343306
119	0x3dae5e58	0.085140884
120	0x3d665f74	0.056243375
121	0xbd0d3084	-0.034470096
122	0x3d19483c	0.037422404
123	0xbdca9f35	-0.098936476
124	0x3dcd7670	0.10032356
125	0x3db999d6	0.09062545
126	0xbd9c2272	-0.076237574
127	0x3d8e3482	0.06943609
128	0xbda65ae6	-0.08122806
129	0xbdb94810	-0.09046948
130	0xbd1dc6b2	-0.03851957
131	0xbd1a4e8e	-0.03767257
132	0xbdba9477	-0.09110349
133	0xbcfb64ec	-0.030687772
134	0xbd0e6dee	-0.034772806
135	0x3da5fe02	0.08105089
136	0xbdb1cfda	-0.08682223
137	0x3dc83a86	0.097767875
138	0xbd3a0f02	-0.04542447
139	0x3d6f0ac4	0.058359876
140	0xbd370583	-0.04468299
141	0x3d2dda14	0.042444304
142	0xbdb9e0f5	-0.0907611
143	0xbd287a32	-0.04113216
144	0xbbd960c0	-0.006633848
145	0xbbe49390	-0.0069755986
146	0xbd166e1e	-0.03672611
147	0xbd050436	-0.03247472
148	0x3c6cab68	0.014445163
149	0x3c877c8c	0.01653888
150	0x3c23ccf8	0.009997599
151	0x3da231d4	0.0791966
152	0xbd0a9b6a	-0.03383962
153	0xbda2f88e	-0.07957564
154	0x3d038b78	0.03211543
155	0xbd096e82	-0.033552654
156	0x3ce924d8	0.028459951
157	0xbd19a3d4	-0.037509754
158	0xbcd08110	-0.025452167
159	0xbd2d139c	-0.04225503
160	0x3dc035ee	0.09385286
161	0xbb9528e0	-0.004551992
162	0x3dc85e28	0.09783584
163	0xbdb3dfc1	-0.08782912
164	0xbd9a404f	-0.07531797
165	0x3d3d7438	0.046253413
166	0x3c2e8778	0.010652415
167	0x3d9b7616	0.075908825
168	0x3c786068	0.015159704
169	0x3dc4340e	0.09580241
170	0xbcc40d20	-0.02393204
171	0xbd348bc1	-0.044078592
172	0x3d8c9b18	0.06865519
173	0x3d92c578	0.071665704
174	0x3daba450	0.083809495
175	0x3d3e662c	0.046484157
176	0x3db0cce4	0.0863283
177	0xbdb77436	-0.08957712
178	0x3d844ac8	0.06459576
179	0x3ca684c8	0.020326987
180	0x3cfbcbc0	0.030736804
181	0xbbe95e70	-0.0071218535
182	0xbd935846	-0.07194571
183	0xbb74c680	-0.003734976
184	0x3cfbdf28	0.030746058
185	0xb910bc00	-0.00013802946
186	0xbd04556a	-0.03230802
187	0xbb92ff50	-0.004486002
188	0xbd8279e0	-0.06370902
189	0xbd8ce577	-0.068797044
190	0x3d92b718	0.071638286
191	0x3914ec00	0.00014202297
192	0x3bfa104d	0.0076313377
193	0x3db2ddb8	0.08733696
194	0x3db60fc4	0.08889726
195	0xbd106ef3	-0.03526206
196	0x3c0be9f1	0.008539663
197	0x3d9c6c5f	0.07637858
198	0x3dd95174	0.10611239
199	0x3db112d0	0.08646166
200	0x3dbfd942	0.093676105
201	0xbdf6c19e	-0.12048648
202	0xbd2d8f07	-0.04237273
203	0xbde8678d	-0.11347876
204	0x3cd8781e	0.026424464
205	0xbd216d19	-0.039410684
206	0xbc86eddd	-0.016470844
207	0xbd96679d	-0.073439814
208	0xbd4cb7b9	-0.0499799
209	0xbd2c577e	-0.042075627
210	0x3d968630	0.07349813
211	0xbd2a603a	-0.041595675
212	0x3da1775b	0.078840934
213	0x3e1f7355	0.1557134
214	0x3ca87884	0.020565279
215	0x3d417ee1	0.04724014
216	0xbd609b7d	-0.054835785
217	0x3b6319e0	0.0034652874
218	0x3c9dff7c	0.019286864
219	0x3c0d4d68	0.008624412
220	0x3db52330	0.08844602
221	0x3c87e7cc	0.016590022
222	0x3c33a039	0.010963493
223	0x3d97f3b4	0.074195296
224	0x3d9325e1	0.07184959
225	0x3dc475b6	0.09592764
226	0xbc80dcc3	-0.015730267
227	0x3da3fe35	0.080074705
228	0xbcbff514	-0.023432292
229	0x3d5f6fe5	0.05455007
230	0xbc39740f	-0.011319174
231	0x3e0dda37	0.13852774
232	0x3d3ef159	0.046616886
233	0x3cd0820d	0.025452638
234	0x3e12f0e7	0.1434971
235	0x3d86df7f	0.06585597
236	0x3d8cb79f	0.068709604
237	0x3d8d37af	0.068953864
238	0x3e1cc3b7	0.15309034
239	0xbca4de89	-0.020125644
240	0x3e17460b	0.14772813
241	0x3e124f41	0.14288045
242	0x3d88f4c6	0.06687312
243	0x3d6c8e5c	0.057752952
244	0x3d9b39d2	0.07579388
245	0xbda3e6ce	-0.08003007
246	0x3d05387c	0.03252457
247	0x3ce087c8	0.027408496
248	0x3d6e04e4	0.058110133
249	0x3cb41084	0.021980532
250	0x3dea59fe	0.11442946
251	0x3d068ac4	0.03284718
252	0x3d39a3b9	0.045322154
253	0x3d8535ed	0.06504426
254	0x3dfaf750	0.12254202
255	0x3d9e2a53	0.077229165

encoder.6.bias f4 [16]
0	0x3d6919c5	0.05690934
1	0xbcc1b078	-0.023643717
2	0xbc0a0555	-0.008424123
3	0x3ccf80a4	0.025329895
4	0xbb5a272e	-0.0033287513
5	0xbd1b9470	-0.037983358
6	0xbdb85764	-0.090010434
7	0x3d86913f	0.06570672
8	0xbc430bc4	-0.011904661
9	0xbd85418f	-0.06506645
10	0x3d563706	0.05229857
11	0xbd459dd8	-0.048246235
12	0x3de25f7e	0.1105337
13	0x3d1a8101	0.037720684
14	0x3d96fbbc	0.07372233
15	0x3d707820	0.05870831

fc1.weight f4 [8, 400]
0	0x3d05b4d6	0.03264316
1	0x3d8eb226	0.06967573
2	0x3dbfd4a8	0.09366733
3	0x3da2b351	0.07944358
4	0x3d06ab31	0.032878105
5	0x3d0ee7da	0.03488908
6	0x3c24242f	0.0100183925
7	0xba971bcf	-0.0011528673
8	0x3c3a95a0	0.011388212
9	0x3d01542e	0.03157442
10	0x3d520bad	0.051280666
11	0x3dbd25e7	0.09235745
12	0x3cceb204	0.025231369
13	0x3d66edeb	0.05637924
14	0xbccd1543	-0.025034552
15	0x3c813834	0.01577387
16	0x3d1536df	0.036429282
17	0xbd0069ce	-0.031350903
18	0x3c0bf81b	0.00854304
19	0x3d8535dc	0.065044135
20	0xbb39c999	-0.0028348921
21	0x3c8d8e3d	0.017279739
22	0x3d91c33f	0.07117318
23	0x3d05473b	0.032538634
24	0xbbf1bd57	-0.0073773074
25	0xbbc816c0	-0.0061062276
26	0xbc580558	-0.013184868
27	0xbd44ed0b	-0.048077624
28	0xbc1ef014	-0.009700794
29	0xbb8979c0	-0.004195422
30	0xbc5554c0	-0.013020694
31	0xbca31fd7	-0.019912643
32	0x3d1575e9	0.0364894
33	0xbd0ec8f5	-0.034859616
34	0xbd466e10	-0.048444808
35	0xbd48e3fa	-0.04904554
36	0xbc9f5783	-0.019450909
37	0xbcd68b47	-0.02618946
38	0xbcfea32a	-0.031083662
39	0xbc862884	-0.016376741
40	0xbd0dda68	-0.034632117
41	0xbc2ece54	-0.01066931
42	0xbd3daa1d	-0.04630481
43	0xbd3cdde5	-0.046110053
44	0x3d3d4579	0.046208832
45	0x3c90c122	0.017670218
46	0xbd0ca746	-0.034339212
47	0x3cdd52fa	0.027017105
48	0x3d22aae3	0.03971375
49	0xbd30bf42	-0.043151148
50	0x3d979d88	0.074030936
51	0x3d9c17db	0.076217376
52	0x3cd8dac5	0.026471505
53	0x3d45b97c	0.048272595
54	0x3d128c22	0.035778172
55	0x3d39182e	0.045189075
56	0x3da8acb8	0.082360685
57	0x3ce541dc	0.027985506
58	0xbc0684c5	-0.008210366
59	0x3cf5afe5	0.0299911
60	0x3caa7260	0.020806491
61	0x3ce72b23	0.028218811
62	0xbc986067	-0.018600656
63	0xbc91ab1b	-0.017781785
64	0xbb9583a7	-0.0045628133
65	0xbcef848d	-0.02923801
66	0xbc7c0197	-0.015381238
67	0x3bb1b346	0.0054229824
68	0xbcfbcb5e	-0.030736621
69	0xbc1d8e4d	-0.009616447
70	0x3c24fcda	0.01007005
71	0x3d8676ac	0.065656036
72	0x3d1e2126	0.03860583
73	0xbca31087	-0.019905342
74	0x3d121bd7	0.03567108
75	0x3d32c49a	0.043644525
76	0xbcac8d62	-0.02106351
77	0x3d903e13	0.0704309
78	0xbcc5665d	-0.024096662
79	0x3d0d19dd	0.034448493
80	0x3c9cf986	0.01916195
81	0x3d750d66	0.05982723
82	0x3cb0d0de	0.02158397
83	0xbb8a9fdc	-0.0042304825
84	0x3d18d6d8	0.037314266
85	0x3c44ca38	0.012011103
86	0x3c90a113	0.017654931
87	0xbb857aa1	-0.0040734564
88	0xbc3bd280	-0.011463761
89	0x3cb6fd36	0.022337537
90	0x3c4d6e80	0.012538552
91	0xbb1e0312	-0.0024110717
92	0xbcabe948	-0.02098526
93	0x3d2df4e2	0.042469867
94	0x3c1aa440	0.009438574
95	0x3d941994	0.07231441
96	0x3c3cfa95	0.011534353
97	0x3d8cd215	0.068760075
98	0x3d4d2db4	0.050092414
99	0xbbad5fab	-0.0052909455
100	0x3dafe473	0.08588495
101	0x3d659123	0.056046616
102	0x3d4dc1a4	0.0502335
103	0x3a8f8f1a	0.0010952682
104	0x3d0266d6	0.031836353
105	0x3d911d50	0.07085669
106	0x3d904fd4	0.07046476
107	0x3c655d27	0.01399926
108	0x3d78b85b	0.06072269
109	0xbb5604f2	-0.0032656756
110	0x3d263556	0.04057821
111	0x3d6c867f	0.057745453
112	0x3d90fe4c	0.07079753
113	0x3d4ce643	0.050024282
114	0xbcbacb33	-0.022801971
115	0xbc4be9d0	-0.012445882
116	0x3d58b92f	0.05291098
117	0x3cf23aa9	0.029568987
118	0x3d19dc9b	0.0375639
119	0xbbcd0c23	-0.0062575503
120	0x3bad47ac	0.005288085
121	0x3c9ef2aa	0.01940282
122	0x3d2c34a5	0.042042393
123	0x3ca301d0	0.019898325
124	0xbaa5ca79	-0.0012648843
125	0xbd2a3475	-0.041553933
126	0x3d3a06b9	0.045416567
127	0x3cf35542	0.02970374
128	0xbd1a15eb	-0.03761856
129	0x3cb7af57	0.022422476
130	0x3b2fc78a	0.0026821815
131	0xbd10ec74	-0.03538175
132	0x3c74feef	0.014953359
133	0x3c7e4217	0.015518687
134	0xbcb83f7c	-0.02249121
135	0x3ccb7f0f	0.02484086
136	0x3d00c87a	0.03144119
137	0xbb258ed6	-0.0025262139
138	0xbce221b2	-0.027603958
139	0xbccc2a51	-0.024922522
140	0xbcf10fe5	-0.029426524
141	0x3b01c77d	0.0019802742
142	0xbd1eb6b5	-0.03874846
143	0xbbb3d044	-0.0054874737
144	0xbcfca009	-0.03083803
145	0x3d25e322	0.040499814
146	0xbd2d863f	-0.042364355
147	0x3a9c0040	0.001190193
148	0x3cfe2c5e	0.031027015
149	0x3c9233f6	0.017847043
150	0x3b62f180	0.0034628808
151	0xbc590ca8	-0.013247646
152	0xbcac8abd	-0.02106225
153	0xbce26f0d	-0.027640844
154	0x39eac700	0.00044780225
155	0xbcaee36a	-0.021348674
156	0xbd33a393	-0.04385717
157	0xbd327fb0	-0.043578804
158	0xbceba8aa	-0.028766949
159	0xbc9ebf7a	-0.019378413
160	0xbcdcba33	-0.026944255
161	0x3cbfaa3e	0.023396607
162	0xbd4b8a00	-0.049692154
163	0x3b90e328	0.0044216104
164	0xbd1091e8	-0.035295397
165	0xbcdd6800	-0.02702713
166	0xbcac63a3	-0.021043604
167	0x3d146e9b	0.036238294
168	0xbc7f65f8	-0.015588276
169	0x3c909336	0.01764832
170	0xbc4d5280	-0.012531877
171	0xbc460f8c	-0.012088668
172	0x3d1c7e7f	0.038206574
173	0x3d49bf47	0.049254682
174	0x3cbee87a	0.023304213
175	0x3dc05d57	0.09392803
176	0x3cde66ed	0.027148688
177	0x3d780994	0.06055601
178	0x3d2c9c91	0.0421415
179	0x3c2153c7	0.009846634
180	0x3da7e375	0.08197681
181	0x3daf7229	0.08566696
182	0x3c3bd143	0.011463466
183	0x3cfb6bdb	0.030691078
184	0x3dc69601	0.0969658
185	0x3d467781	0.04845381
186	0x3d35dab9	0.044398043
187	0x3c9f765f	0.019465623
188	0x3ce5949b	0.028024962
189	0xbc19c74d	-0.009385896
190	0xbb98893c	-0.0046550315
191	0x3d6a3e2f	0.05718821
192	0x3d28dc31	0.041225616
193	0xbbd79ee7	-0.006580222
194	0x3dae8179	0.08520789
195	0x3d76e66c	0.06027834
196	0x38856fc2	6.362751e-05
197	0x3d921d9c	0.07134554
198	0x3d5ba3d9	0.053623054
199	0x3d9ae847	0.07563835
200	0xbcfd8a7e	-0.030949827
201	0x3ba4dd98	0.005031299
202	0xbd058635	-0.032598693
203	0xbd29bdce	-0.041440777
204	0x3d3e4163	0.046449076
205	0x3c9bddf6	0.019026738
206	0xbcb0ab4a	-0.021566052
207	0xbc99ceba	-0.018775333
208	0xbcaa8e23	-0.02081973
209	0xbd066dd8	-0.0328196
210	0x3c383700	0.011243582
211	0xbc6f8188	-0.014618285
212	0xbd141e90	-0.03616196
213	0x3c5bf35c	0.013424721
214	0xbcd13ef0	-0.025542706
215	0xbd347005	-0.044052143
216	0xbcdeda33	-0.027203655
217	0xbcfab790	-0.030605108
218	0x3a90ef40	0.001105763
219	0xbd2698e5	-0.040673155
220	0x3bc75ce8	0.0060840733
221	0x3c697fd4	0.014251668
222	0xbcdc3cea	-0.026884515
223	0x3d399b81	0.045314316
224	0xbaa931c0	-0.0012908503
225	0x3bd047db	0.006356222
226	0x3cad1bb2	0.02113137
227	0x39cb4154	0.0003876785
228	0xbd09f502	-0.033680923
229	0xb94edbd4	-0.00019727583
230	0xbc1d464c	-0.00959928
231	0x3bbfc1c1	0.0058519547
232	0x3cb01692	0.021495137
233	0xbd1dc506	-0.038517974
234	0x3c4436cc	0.011975955
235	0xbd365437	-0.044513907
236	0xbd10266b	-0.03519289
237	0x3d8b5581	0.06803418
238	0x3d172013	0.036895823
239	0x3d2d3000	0.042282104
240	0xbcfd9450	-0.03095451
241	0x3d20aa47	0.03922489
242	0xbad66d8f	-0.0016359555
243	0xbbbe9acf	-0.0058167945
244	0x3cb2206c	0.021743976
245	0x3c7b750a	0.0153477285
246	0xbb61f4b3	-0.0034478127
247	0xbd1afb7e	-0.037837498
248	0x3d1bdf20	0.038054585
249	0xbc627d10	-0.013823763
250	0x3d8fba90	0.07018006
251	0x3d31c649	0.04340199
252	0x3ccca2c6	0.02497996
253	0x3d3c9e53	0.046049427
254	0x3d9e2730	0.07722318
255	0x3daaa30d	0.08331881

fc1.bias f4 [8]
0	0x3d58df4b	0.052947324
1	0x3cb111ac	0.021614872
2	0x3b21836a	0.002464498
3	0xbd569c5d	-0.052395213
4	0x3c4954b0	0.0122882575
5	0xbc2a8952	-0.010408716
6	0x3d1fcdc1	0.03901458
7	0xbd4f0937	-0.050545897

fc2.weight f4 [400, 8]
0	0x3e8bf83d	0.27337828
1	0x3d9a0e6d	0.07522283
2	0xbeb9f1d2	-0.36317307
3	0xbea21df2	-0.3166347
4	0xbe58e970	-0.211828
5	0x3e42ea45	0.19034679
6	0x3dad3013	0.08456435
7	0xbe0a3c78	-0.1349963
8	0x3e64d2a0	0.22345972
9	0x3e65fbdf	0.22459362
10	0x3d989b71	0.07451523
11	0x3e52a893	0.20572118
12	0x3ea2e4dc	0.3181523
13	0x3da41ff1	0.08013905
14	0x3d590972	0.052987523
15	0xbda6f1bf	-0.08151578
16	0x3d947315	0.07248513
17	0xbd5360a1	-0.051605824
18	0xbe969699	-0.29411772
19	0x3e807a1f	0.2509317
20	0x3e855efb	0.26049027
21	0xbec3ef83	-0.3826867
22	0xbe100a42	-0.14066413
23	0x3e0a5c63	0.13511805
24	0x3c3560c4	0.011070434
25	0xbdf2c9b3	-0.11854877
26	0xbebdaa9d	-0.3704423
27	0x3da0cf5a	0.07852049
28	0x3e2a905c	0.16656631
29	0x3c75afe5	0.01499555
30	0x3ce39a6a	0.027783591
31	0xbd742596	-0.059606157
32	0x3ea87675	0.32902876
33	0x3dec0d4c	0.11525974
34	0xbc8e9b56	-0.017408054
35	0xbe81de5a	-0.25364953
36	0x3e890332	0.2676025
37	0xbe12090d	-0.14261265
38	0x3e6533da	0.22383061
39	0xbd3aca69	-0.04560319
40	0xbd2528db	-0.040322166
41	0xbe8c44a5	-0.27396122
42	0x3e91bf6b	0.28466353
43	0xbe9627bd	-0.29327193
44	0x3e8cd6bc	0.2750758
45	0xbcb89fda	-0.02253716
46	0x3e44be3b	0.19213192
47	0x3e78239a	0.24232331
48	0x3d149bd4	0.03628142
49	0xbe14fb21	-0.14548923
50	0xbeab076c	-0.334041
51	0x3e2d6fd0	0.16937184
52	0xbea1a4cb	-0.3157104
53	0xbdc00c08	-0.09377295
54	0xbd827317	-0.06369608
55	0xbe4bc302	-0.19898608
56	0xbe8daa43	-0.27668962
57	0xbe811c3b	-0.2521685
58	0x3cfe61f6	0.03105257
59	0x3ea5af20	0.32360172
60	0x3d844ff4	0.06460562
61	0xbe74aa0d	-0.23892994
62	0x3ea623a0	0.32449055
63	0x3db2582d	0.087082244
64	0x3b2a9be3	0.0026032857
65	0xbe6b331b	-0.22968714
66	0x3ddd050d	0.10791979
67	0xbe8d963e	-0.27653688
68	0x3d6a84ba	0.057255484
69	0xbd9a9c0d	-0.075492956
70	0xbd836bd0	-0.06417048
71	0xbea4886b	-0.3213533
72	0xbdcca252	-0.09991898
73	0x3e220bef	0.15824865
74	0x3e53d451	0.20686461
75	0xbec010e2	-0.3751288
76	0x3e15aaf2	0.14615992
77	0xbe45b23e	-0.19306275
78	0x3e74548d	0.23860379
79	0x3b14a7e3	0.0022683076
80	0x3dd3b9b2	0.10338153
81	0xbe8a70bc	-0.27039135
82	0xbeb3ea03	-0.35139474
83	0xbe297ff6	-0.1655272
84	0x3db5e7c0	0.088820934
85	0xbe3ce6c6	-0.18447408
86	0xbd9e76c6	-0.07737498
87	0xbea0c7c5	-0.31402412
88	0x3e44e0c4	0.19226366
89	0xbe1eac09	-0.15495314
90	0xbe9cdfa1	-0.30639365
91	0xbce4fe6c	-0.027953349
92	0x3db5725b	0.08859702
93	0x3ba7a4e1	0.0051160906
94	0xbe4f6223	-0.2025228
95	0x3de406de	0.11134122
96	0xbe140ab7	-0.14457212
97	0xbe4fb97d	-0.20285602
98	0x3c142429	0.009041824
99	0xbdb60bcf	-0.08888971
100	0xbd8b6d38	-0.06807941
101	0xbdc72e2f	-0.09725606
102	0x3ea8ffad	0.33007565
103	0x3c97f9ce	0.018551733
104	0x3e17e5a6	0.14833698
105	0x3e30097d	0.1719112
106	0xbe3fb657	-0.18721901
107	0x3d4199a6	0.04726567
108	0x3e24ccd3	0.16093759
109	0x3eb181d5	0.34669366
110	0x3e14b02a	0.14520326
111	0x3e2547bb	0.16140644
112	0x3d9c87a0	0.07643056
113	0x3e875ee8	0.26439595
114	0xbe8b32fd	-0.27187338
115	0x3d77c11e	0.060486905
116	0xbe44e4ab	-0.19227855
117	0x3e849520	0.25895023
118	0xbe456e8c	-0.19280452
119	0xbeb06172	-0.34449345
120	0xbe72d54a	-0.23714176
121	0xbe66b5c5	-0.22530277
122	0xbe5d9da0	-0.2164216
123	0x3eaa2962	0.33234698
124	0xbe89478d	-0.268124
125	0x3e9373ab	0.28799185
126	0x3e5c052d	0.2148635
127	0xbd7f153d	-0.062276114
128	0x3e75c4fd	0.24000926
129	0x3b4c12b2	0.0031139073
130	0x3e9963e1	0.29959014
131	0x3e7d1668	0.24715579
132	0xbe95818f	-0.29200408
133	0x3e574b78	0.21024883
134	0xbe65fd8c	-0.22460002
135	0xbde9b34f	-0.114111535
136	0x3e932a74	0.28743327
137	0xbdd6b96e	-0.10484587
138	0xbeb40946	-0.35163325
139	0xbe9952d7	-0.29946014
140	0xbcd4955f	-0.025950132
141	0x3e147bce	0.14500353
142	0xbdac4339	-0.08411259
143	0x3e640e1d	0.22271009
144	0xbe2f72dd	-0.1713366
145	0xbeaecfac	-0.34142816
146	0xbeb86f55	-0.3602244
147	0xbdbf4ac3	-0.093404315
148	0x3e9282bf	0.28615376
149	0xbe5eae98	-0.2174629
150	0xbea1416d	-0.31495228
151	0xbe2676f1	-0.1625631
152	0xbdeec9a1	-0.116595514
153	0xbe140c46	-0.14457807
154	0x3e8f921e	0.28041166
155	0x3e61901e	0.22027633
156	0x3e47abdb	0.19499151
157	0x3e3fe7ca	0.18740764
158	0xbe5006ac	-0.20315045
159	0xbd62ec67	-0.055401232
160	0x3e87ed7d	0.26548377
161	0xbeafba44	-0.34321797
162	0xbe065402	-0.13117984
163	0x3ea4b882	0.32172018
164	0xbd16424a	-0.036684312
165	0x3e1bf45d	0.15229936
166	0xbea5b7f0	-0.32366896
167	0xbe97dd24	-0.29660904
168	0xbe830b76	-0.25594682
169	0xbe880ddc	-0.26573074
170	0xbdfc306e	-0.12313925
171	0x3e3f7b12	0.18699291
172	0x3e6f17b1	0.23348881
173	0xbe96a111	-0.2941976
174	0xbd2115a4	-0.03932728
175	0x3e4491e2	0.19196275
176	0xbe83039c	-0.2558869
177	0xbeb61a92	-0.35567147
178	0x3e3ae231	0.18250348
179	0xbe8d672b	-0.27617773
180	0x3e2b1448	0.16706955
181	0x3e75903d	0.23980804
182	0xbe2a4a65	-0.16629942
183	0x3e3f5fb9	0.18688859
184	0x3cfe22be	0.031022426
185	0xbe46d884	-0.19418532
186	0xbe82e86c	-0.2556795
187	0x3e9923da	0.29910165
188	0xbd5588ec	-0.052132532
189	0xbe9becc1	-0.30454066
190	0x3df3a196	0.118960544
191	0x3ea4a906	0.32160205
192	0x3d6dd98f	0.05806881
193	0x3e0c13a6	0.1367937
194	0x3e0ce4c4	0.13759142
195	0xbc785a33	-0.015158224
196	0x3e5b5ba1	0.21421672
197	0x3e9b7679	0.30363825
198	0xbe03c2fc	-0.1286735
199	0x3d6f8881	0.05847979
200	0xbe05f71d	-0.13082547
201	0x3d608de0	0.054822803
202	0x3eae9737	0.34099743
203	0xbdee1c94	-0.116265446
204	0x3e4487b8	0.19192398
205	0x3dbafc6b	0.09130176
206	0xbe2233c3	-0.15840058
207	0xbe9c1e65	-0.3049194
208	0xbe224b25	-0.15848978
209	0x3d4222e9	0.047396574
210	0x3eac4460	0.33645916
211	0x3d8708ca	0.06593473
212	0x3d736886	0.059425853
213	0xbe94cc4f	-0.29062125
214	0x3d91a7f8	0.071121156
215	0x3eb70d67	0.35752413
216	0x3e0ef8ac	0.13962048
217	0xbd962a50	-0.07332289
218	0x3e23ab1d	0.15983243
219	0xbdd20090	-0.102540135
220	0x3e48af27	0.19598065
221	0xbd92ef86	-0.07174592
222	0xbd94bdf4	-0.07262793
223	0x3dcf31a3	0.10116889
224	0xbe70d5ee	-0.23519108
225	0x3d959a60	0.07304835
226	0x3e5be05d	0.21472307
227	0x3e3a5bee	0.18199131
228	0xbd67fd67	-0.056638148
229	0x3d3b9a05	0.04580118
230	0x3ded40e1	0.1158464
231	0x3e97a5be	0.2961864
232	0x36b83dc8	5.4908196e-06
233	0x3e8a8515	0.2705466
234	0xbebac941	-0.3648167
235	0x3ddc5402	0.10758211
236	0x3d1489f6	0.036264382
237	0xbcd4c305	-0.025971899
238	0xbe1a7a7e	-0.1508579
239	0x3e9cf048	0.3065207
240	0xbe0ce0c4	-0.13757616
241	0x3d9cc85f	0.07655405
242	0x3e887315	0.266503
243	0x3cc034bc	0.023462646
244	0x3e1a2551	0.15053298
245	0x3ea22e39	0.3167589
246	0x3c83942d	0.016061867
247	0xbe5bced2	-0.21465614
248	0x3eb5e3ec	0.35525453
249	0x3e69aabd	0.22819038
250	0xbd50e758	-0.051001877
251	0xbe7bd3d8	-0.2459253
252	0xbcb5bfae	-0.022186127
253	0xbeab9563	-0.3351241
254	0x3cdeed95	0.027212897
255	0xbe52c14e	-0.20581552

fc2.bias f4 [400]
0	0x3dff11d5	0.12454573
1	0x3ea48b9e	0.3213777
2	0xbe952040	-0.29126167
3	0xbdb9a76e	-0.09065138
4	0x3e06bb53	0.13157396
5	0xbe330c15	-0.17485078
6	0x3d8a6612	0.067577496
7	0xbe715323	-0.2356687
8	0xbe2614e6	-0.1621891
9	0x3e48de7b	0.1961612
10	0x3eb62709	0.35576656
11	0x3e5b189e	0.2139611
12	0x3e0bc395	0.13648827
13	0xbd443b17	-0.047907915
14	0xbc06f4e6	-0.008237099
15	0xbebfdc16	-0.374726
16	0x3e1ab5d9	0.15108432
17	0x3dd31b4e	0.10307942
18	0xbe5458d3	-0.20737009
19	0xbd95fba9	-0.07323391
20	0xbe90bbd1	-0.28268293
21	0x3e5acdbe	0.21367547
22	0xbe5943f3	-0.21217327
23	0xbdaedf2d	-0.08538661
24	0xbe7d1af7	-0.24717318
25	0xbeb3f247	-0.3514578
26	0xbe75bcf2	-0.23997858
27	0x3e8c15d3	0.273604
28	0x3dd34626	0.10316114
29	0x3df431c9	0.11923558
30	0xbe95cbd9	-0.29257086
31	0x3e9833fe	0.29727167
32	0xbe114c25	-0.14189203
33	0x3e884e33	0.2662216
34	0xbe932e5d	-0.2874631
35	0x3e3dfcff	0.18553542
36	0x3d32055c	0.043462142
37	0xbe2c231c	-0.16810268
38	0xbd92b41d	-0.0716326
39	0xbd9a8b15	-0.07546059
40	0x3d864ae6	0.065572545
41	0x3eb344af	0.3501334
42	0x3e9ae694	0.30254042
43	0x3ea4f7dd	0.32220355
44	0x3d88f363	0.06687047
45	0x3b00bf45	0.0019645256
46	0x3d1ed514	0.038777426
47	0x3ea416b6	0.32048577
48	0x3df1962f	0.11796223
49	0xbe2c2732	-0.16811827
50	0xbe205c49	-0.15660204
51	0x3d6e661b	0.058202844
52	0x3dfb0d46	0.12258391
53	0x3ea8cc63	0.32968435
54	0x3e27170a	0.16317382
55	0xbd2d6bf5	-0.042339284
56	0x3dad2022	0.084533945
57	0xbe105320	-0.1409421
58	0xbe655537	-0.22395788
59	0x3e8a3220	0.26991367
60	0x3e8b40f4	0.27197993
61	0x3dbb67b6	0.09150641
62	0x3e993883	0.29925928
63	0xbd4a0111	-0.049317423
64	0xbd378432	-0.044803806
65	0xbe936168	-0.28785253
66	0x3d9aeb61	0.07564426
67	0x3dcb0365	0.09912757
68	0x3c6cf1a4	0.0144619085
69	0x3d01a3a5	0.031650204
70	0x3dfcea2a	0.12349351
71	0xbdab92e3	-0.08377626
72	0x3e62080b	0.2207338
73	0xbebbb4e1	-0.36661437
74	0x3e98ac75	0.29819074
75	0x3da7b358	0.08188504
76	0x3ea6f84b	0.32611308
77	0x3ea7ebf8	0.32797217
78	0x3e6954c3	0.2278624
79	0xbd6a4c9e	-0.057201974
80	0xbdb65b6f	-0.08904158
81	0x3e8f9b49	0.2804816
82	0xbe5df637	-0.21675955
83	0xbe679433	-0.22615127
84	0x3cb959b2	0.022625778
85	0xbea3b7c2	-0.31976134
86	0x3ded3b44	0.1158357
87	0x3dc52ea9	0.0962804
88	0xbe8b9c7d	-0.2726783
89	0xbe4bb142	-0.19891837
90	0xbe494b12	-0.19657543
91	0xbe8f0fde	-0.27941793
92	0xbe840ca0	-0.25790882
93	0xbd0af5ee	-0.033925943
94	0xbe9d2970	-0.30695677
95	0xbcbab101	-0.02278948
96	0xbe45fd7c	-0.19334978
97	0x3ea45af0	0.3210063
98	0xbea02e7d	-0.31285468
99	0x3d3074b4	0.043080047
100	0x3e7ea4eb	0.24867599
101	0x3e261917	0.16220509
102	0x3eb9c67f	0.36284253
103	0x3e645013	0.22296171
104	0xbe6d8c00	-0.23197937
105	0xbc0a1a37	-0.008429102
106	0xbd97c72f	-0.07411038
107	0x3e387773	0.18014316
108	0x3c47a416	0.012185117
109	0x3e91bf75	0.28466383
110	0x3e882a92	0.2659498
111	0x3e3a2e85	0.18181808
112	0x3e90b00e	0.2825932
113	0x3e674329	0.22584213
114	0x3e71b54b	0.23604314
115	0xbc97f2f4	-0.018548466
116	0x3dd84325	0.10559682
117	0x3e0a6a57	0.13517128
118	0x3ea1a816	0.31573552
119	0xbdba769e	-0.09104656
120	0x3d5f30ad	0.05448978
121	0xbec16170	-0.3776965
122	0x3e38f113	0.18060713
123	0xbeb9d2eb	-0.3629373
124	0x3e94145a	0.28921777
125	0x3eb7dd3f	0.35910985
126	0xbe064d67	-0.13115464
127	0xbe8779b9	-0.26460055
128	0x3d6e3ce5	0.058163542
129	0x3e335640	0.1751337
130	0x3e192a1c	0.1495747
131	0xbe92855e	-0.28617376
132	0xbdf2dacb	-0.11858138
133	0x3e9decff	0.30844876
134	0xbcc6b07e	-0.02425408
135	0xbe9b998b	-0.3039058
136	0xbd776c11	-0.060405795
137	0xbe6a0630	-0.22853923
138	0xbe98319a	-0.29725343
139	0xbe674a88	-0.22587025
140	0xbc0a3ce1	-0.008437366
141	0xbe7f46dd	-0.24929376
142	0xbdb81967	-0.0898922
143	0x3e7dc127	0.24780713
144	0x3e5377f4	0.20651227
145	0x3eb74f98	0.35802913
146	0xbe044107	-0.12915431
147	0xbe7a2cc1	-0.24431135
148	0xbdcd486c	-0.10023579
149	0x3d84a82b	0.06477388
150	0x3d1ea8ec	0.038735315
151	0xbec763a5	-0.3894321
152	0xbebea1f9	-0.3723295
153	0xbec2fdd4	-0.3808428
154	0x3e52f365	0.2060066
155	0xbec22532	-0.37919003
156	0x3b9e7dc5	0.0048367702
157	0x3e7368ee	0.23770496
158	0xbe23e21f	-0.16004227
159	0x3e1e1935	0.15439303
160	0xbead595a	-0.33857232
161	0xbe00ed11	-0.12590434
162	0xbddab8c9	-0.10679776
163	0xbea192b9	-0.31557253
164	0xbd97c249	-0.07410104
165	0x3e1ac80e	0.15115377
166	0xbea6dee9	-0.32591942
167	0xbe749657	-0.23885475
168	0xbe8ddd4a	-0.27707893
169	0x3e1b9fda	0.15197697
170	0x3e187ad2	0.14890602
171	0xbe9ae7df	-0.3025503
172	0xbe69f668	-0.22847903
173	0x3e384426	0.17994747
174	0x3c93cf7c	0.018043272
175	0x3ea2328d	0.31679192
176	0xbeb10198	-0.34571528
177	0x3e5cac29	0.21550049
178	0xbe80c878	-0.25152946
179	0x3de1e93c	0.11030814
180	0x3b67bc0e	0.0035359892
181	0x3e9bf58e	0.3046078
182	0x3c914b54	0.017736115
183	0xbd6c197e	-0.0576415
184	0xbe5eccf4	-0.21757871
185	0xbcd0e139	-0.02549802
186	0x3d8d51fc	0.06900403
187	0xbe1599af	-0.14609407
188	0xbeb2b9c7	-0.34907362
189	0xbc01df3a	-0.0079267565
190	0x3e9b9f3f	0.30394933
191	0x3df3519c	0.118808
192	0xbebed6fc	-0.37273395
193	0xbe9a301a	-0.30114824
194	0x3c389478	0.011265866
195	0x3d7cb457	0.061695423
196	0xbe130727	-0.14358197
197	0x3e963dd4	0.29344046
198	0xbd5fb305	-0.054614086
199	0x3df0462e	0.11732136
200	0xbea9e7b4	-0.33184588
201	0xbdb474bd	-0.088113286
202	0x3e8ecb2f	0.27889392
203	0x3e1cf01e	0.15325972
204	0xbeb08232	-0.3447433
205	0xbc8eb20d	-0.017418886
206	0x3d699079	0.057022545
207	0x3eac84dd	0.33695117
208	0xbe671863	-0.22567897
209	0xbe3083d6	-0.17237791
210	0x3dff9b24	0.124807626
211	0xbac6c70b	-0.0015165521
212	0xbe19110f	-0.14947914
213	0x3e1f7a31	0.15573956
214	0x3e9931af	0.29920718
215	0x3dd56cd0	0.10421145
216	0x3db5e7f0	0.08882129
217	0xbe3b0148	-0.18262208
218	0xbe14261d	-0.14467664
219	0xbe2e8d7e	-0.17046162
220	0xbdeea947	-0.11653381
221	0xbdb7e750	-0.08979666
222	0x3e3b5ff3	0.1829832
223	0x3e589a4d	0.21152611
224	0x3e0c2191	0.1368468
225	0xbcfa0c9d	-0.030523593
226	0xbe51f852	-0.20504883
227	0xbec94d20	-0.39316654
228	0xbe08f258	-0.13373697
229	0x3e02c374	0.12769872
230	0xbeaa9cd6	-0.3332278
231	0x3e6d1756	0.23153433
232	0xbe8ea52f	-0.278604
233	0xbd2d5807	-0.042320278
234	0x3e367489	0.17817892
235	0x3eb51ec0	0.35375023
236	0x3d6e1d02	0.058133133
237	0xbdacae99	-0.08431739
238	0xbe8cd05a	-0.2750271
239	0x3e87ea02	0.2654572
240	0x3e73de03	0.2381516
241	0x3d4855f9	0.048910115
242	0x3e67189e	0.22567984
243	0xbe091b84	-0.13389403
244	0xbe0db8a3	-0.13839965
245	0x3e00f8ea	0.12594953
246	0xbda6890a	-0.08131607
247	0xbe0eb8cb	-0.1393768
248	0xbe3347fc	-0.17507929
249	0xbea0dbf5	-0.31417814
250	0x3e545535	0.20735629
251	0x3d874ba9	0.06606228
252	0x3e4eaec5	0.20183857
253	0xbd92c0e9	-0.07165701
254	0x3e38b0a9	0.1803614
255	0x3e9599c7	0.29218885

decoder.0.weight f4 [16, 32, 3]
0	0x3c10155c	0.008794155
1	0xbcf54d72	-0.029944155
2	0x3da1a6d0	0.07893145
3	0x3d67e0b6	0.056610785
4	0xbc8e3af7	-0.017362101
5	0xbdde2ed4	-0.108487755
6	0xbc9bda24	-0.019024916
7	0x3d9c6dbd	0.076381184
8	0xbd2291e1	-0.039689902
9	0x3d8f0409	0.069831915
10	0xbd9959c8	-0.074878275
11	0xbe07f53f	-0.13277148
12	0x3d3c06bc	0.04590486
13	0xbd89072f	-0.06690823
14	0xbdf38c0c	-0.11891946
15	0xbdec58f3	-0.11540403
16	0xbd3677d5	-0.044547874
17	0x3d543883	0.051811706
18	0xbdb3c835	-0.08778421
19	0xbda1af1f	-0.0789473
20	0xbce7c5b5	-0.028292516
21	0xbd8bcd38	-0.06826252
22	0x3d35eb99	0.044414137
23	0x3d98ce8f	0.07461273
24	0xbd9f5941	-0.07780696
25	0x3c8dd97e	0.017315622
26	0x3d0a6ac5	0.03379323
27	0xbd276238	-0.040865153
28	0x3def26b9	0.11677308
29	0xbd74efcf	-0.05979901
30	0x3d5ae504	0.053441063
31	0x3d6cde21	0.057829026
32	0x3d87ba34	0.06627312
33	0x3c81b3fa	0.01583289
34	0xbd0eb04e	-0.034836106
35	0xbd852b84	-0.065024406
36	0x3ddc7820	0.107650995
37	0x3daaa372	0.08331956
38	0xbd5feae8	-0.054667383
39	0x3d87a279	0.06622786
40	0x3d10e39f	0.035373326
41	0x3cead6c9	0.02866687
42	0x3de63026	0.11239652
43	0xbd2e73a3	-0.04259075
44	0x3d35bca4	0.044369355
45	0xbd065891	-0.032799307
46	0x3db9619b	0.0905182
47	0x3d81f561	0.063456304
48	0xbd4c2b0a	-0.049845733
49	0x3a87334e	0.0010314973
50	0x3e0304a6	0.12794742
51	0xbd6d09ec	-0.05787079
52	0x3cfde50f	0.030993013
53	0xbcbd7eac	-0.02313169
54	0xbe0b3a00	-0.13596344
55	0x3ca7f27f	0.020501373
56	0x3d999c42	0.07500507
57	0xbda13c8f	-0.07872879
58	0xbdfc7b6c	-0.12328228
59	0xbdadbc96	-0.084832355
60	0x3d5c9f06	0.053862594
61	0x3d979ba1	0.07402731
62	0xbc90fd69	-0.01769896
63	0x3c144024	0.009048495
64	0xbd82b160	-0.06381488
65	0x3d14dedb	0.036345344
66	0x3d3b4838	0.04572317
67	0x3d692d27	0.056927826
68	0x3d3aa39f	0.045566197
69	0x3d8ed5c1	0.06974364
70	0xbd248aee	-0.040171556
71	0xbd669aa5	-0.056299824
72	0xbd56487e	-0.052315228
73	0x3dbeba6b	0.093129
74	0x3db2d0be	0.08731221
75	0xbc7dbc2f	-0.015486761
76	0x3d8d6bca	0.06905325
77	0x3cdc744e	0.026910927
78	0xbdc25a8c	-0.09489927
79	0x3d57e8e6	0.052712344
80	0x3c84780d	0.016170526
81	0x3c1cfa99	0.0095812315
82	0x3d898681	0.06715108
83	0xbddf5f4f	-0.109068505
84	0x3de62582	0.11237623
85	0xbc2df03d	-0.010616359
86	0xbc999dd1	-0.01875201
87	0xbd0f3b06	-0.0349684
88	0x3c80f881	0.015743496
89	0x3dfe025e	0.12402795
90	0x3d18f482	0.037342556
91	0xbd3a64ea	-0.045506395
92	0xbdac61a6	-0.084170625
93	0xbd85365c	-0.06504509
94	0x3d870bb6	0.065940306
95	0x3dd0f957	0.10203808
96	0xbddd3126	-0.1080039
97	0xbc9e0c08	-0.019292846
98	0xbcf6e48e	-0.03013828
99	0xbcf7d637	-0.030253513
100	0x3de84eb7	0.11343139
101	0x3c3c6425	0.011498486
102	0x3dd80c42	0.10549213
103	0xbc938b75	-0.018010834
104	0xbdf64137	-0.120241575
105	0xbc19f817	-0.009397528
106	0x3d79a678	0.060949773
107	0x3c634350	0.013871029
108	0xbcc36e4a	-0.0238563
109	0xbd6f1b0f	-0.058375414
110	0x3d351f86	0.044219516
111	0x3d49a0c6	0.04922559
112	0x3aac51f0	0.0013146978
113	0x3c69c201	0.014267446
114	0x3e0296ba	0.1275281
115	0x3dee258b	0.116282545
116	0xbd9e91b4	-0.077426344
117	0xbd4910bf	-0.049088236
118	0xbcb9538c	-0.022622846
119	0x3d4f7900	0.050652504
120	0x3d9ef381	0.077612884
121	0xbcac6715	-0.021045247
122	0xbc690697	-0.014222763
123	0xbd81ba9c	-0.06334421
124	0xbd35cb0a	-0.044383086
125	0x3cfce673	0.030871606
126	0x3dbf100d	0.09329233
127	0x3d879a35	0.066212095
128	0x3de60a1b	0.11232396
129	0xbd957d54	-0.07299295
130	0x3da35d45	0.07976774
131	0x3e109d4b	0.14122503
132	0x3d3d95a3	0.046285283
133	0x3d2acd0a	0.041699447
134	0x3c4b0044	0.0123902
135	0xbda726a1	-0.08161665
136	0xbc91ae1a	-0.017783213
137	0x3d84ebee	0.064903125
138	0xbdb8b823	-0.09019496
139	0x3d9a2400	0.07526398
140	0xbda589fc	-0.08082959
141	0xbc94e984	-0.018177755
142	0xbd5dcd63	-0.05415095
143	0x3db3ad93	0.08773341
144	0xbdb34530	-0.08753431
145	0x3da3375a	0.07969542
146	0xbd6c0d64	-0.057629958
147	0x3d98f66b	0.074688755
148	0x3e002b85	0.12516601
149	0x3dabc53c	0.08387229
150	0xbdb58b96	-0.088645145
151	0x3d89d2b5	0.06729642
152	0x3d4efe22	0.05053533
153	0x3d7aa443	0.06119181
154	0x3c95a76e	0.018268313
155	0x3c67e399	0.014153385
156	0x3d30e40a	0.043186225
157	0xbd97934d	-0.07401142
158	0x3e13ae4f	0.14421962
159	0x3c36afc6	0.011150306
160	0xbde05a65	-0.109547414
161	0xbbfc9b6d	-0.007708958
162	0xbc788f2d	-0.0151708545
163	0xbd444b76	-0.047923528
164	0xbc5243f1	-0.012833581
165	0xbd16d6a3	-0.036825787
166	0x3d8bdf7a	0.06829734
167	0xbcd06e29	-0.025443153
168	0x3d44fd39	0.048093054
169	0x3da53604	0.08066943
170	0x3dafe142	0.085878864
171	0xbdc7276a	-0.097243145
172	0x3dce2015	0.10064713
173	0xbd6dd307	-0.05806258
174	0x3d6cef1f	0.05784523
175	0x3d8a8c0c	0.06764993
176	0xbd67b0de	-0.056565158
177	0xbc57d525	-0.013173376
178	0xbcf2047f	-0.02954316
179	0x3d8d4bd2	0.06899227
180	0x3939fe6d	0.00017737756
181	0x3ba1471d	0.0049218074
182	0xbd7f0eed	-0.062270094
183	0x3db743fd	0.089485146
184	0x3dbb00b8	0.091309965
185	0xbdc6b952	-0.09703316
186	0x3dbdac0c	0.09261331
187	0xbd2677df	-0.04064166
188	0x3bd072e6	0.006361353
189	0xbddcf25e	-0.10788415
190	0xbdcb81aa	-0.09936841
191	0xbcedac1b	-0.02901273
192	0xbc7aa1f6	-0.015297404
193	0xbd19b1cc	-0.037523076
194	0x3dafa95c	0.085772246
195	0xbde646c9	-0.1124397
196	0xbc56ece4	-0.013118003
197	0x3d8760fc	0.06610295
198	0x3cf8dea5	0.030379603
199	0x3da32669	0.079663105
200	0xbd8363a4	-0.06415489
201	0xbdc20d3d	-0.09475181
202	0x3d166bf2	0.03672404
203	0x3d967bf6	0.073478624
204	0x3c8aed78	0.016958937
205	0x3d1cd36e	0.038287573
206	0x3d498a33	0.049204063
207	0x3d8bb54a	0.068216875
208	0xbdfd163f	-0.12357759
209	0xbdafe9c0	-0.08589506
210	0x3d5b49cf	0.053537186
211	0x3ded4bf8	0.115867555
212	0xbd30d16f	-0.04316848
213	0x3d46acd0	0.04850465
214	0x3c9112c7	0.017709149
215	0xbc184f98	-0.00929632
216	0x3dcb8d29	0.099390335
217	0xbdf57d79	-0.11986823
218	0xbd7aed29	-0.06126133
219	0xbd1f77c2	-0.03893257
220	0xbd95f2b9	-0.07321686
221	0xbd850c86	-0.06496529
222	0x3d2827b9	0.041053507
223	0x3dd1e063	0.102478765
224	0xbc8cf7af	-0.017207948
225	0xbc4a3990	-0.0123428255
226	0xbde88323	-0.11353137
227	0x3c9fec3d	0.019521827
228	0xbd61334a	-0.054980554
229	0xbd19cf69	-0.037551317
230	0x3cc2218a	0.023697633
231	0xbd3db995	-0.046319563
232	0x3d803429	0.06259949
233	0x3d29a5f8	0.041418046
234	0x3dd9389f	0.10606503
235	0x3b5df467	0.00338676
236	0x3d923bb1	0.071402915
237	0x3d06d930	0.03292197
238	0x3dd63467	0.10459214
239	0x3d8dd857	0.06926029
240	0x3dbc0644	0.091808826
241	0x3e0848fb	0.1330909
242	0x3dc63df7	0.096797876
243	0xbda25149	-0.0792566
244	0x3cb58e3f	0.022162555
245	0xbc30cf94	-0.010791678
246	0xbd2e9a07	-0.04262736
247	0x3d647fb5	0.055785853
248	0xbda70321	-0.08154894
249	0x3de4044b	0.11133631
250	0x3c9de4c9	0.019274132
251	0x3d29f41d	0.04149257
252	0xbc1ea193	-0.009682077
253	0x3ba6dd1f	0.0050922777
254	0x3d244775	0.04010721
255	0x3d862eae	0.06551872

decoder.0.bias f4 [32]
0	0x3d97e755	0.0741717
1	0xbc40bb70	-0.011763439
2	0x3d6b0841	0.05738092
3	0x3d837fcd	0.064208604
4	0x3b5c5a31	0.0033623094
5	0x3d07c459	0.033146236
6	0x3d7060f5	0.058686215
7	0x3d90684f	0.07051145
8	0xbde90ed4	-0.11379781
9	0xbd0bb7ce	-0.034110837
10	0x3d9b235b	0.07575103
11	0x3d92eb70	0.071738124
12	0x3dabae42	0.083828464
13	0xbd511344	-0.051043764
14	0xbc7cb462	-0.015423866
15	0x3dc17ed5	0.094480194
16	0xbda86bcd	-0.08223686
17	0x3d06a8ba	0.032875754
18	0xbd16f2a0	-0.03685248
19	0x3b9854ec	0.0046487954
20	0x3cf187c8	0.02948369
21	0x3d8ec971	0.06972016
22	0xbd22c9b9	-0.03974316
23	0xbd98fcdb	-0.07470103
24	0xbcd79271	-0.026314946
25	0x3d235722	0.03987802
26	0xbd5a56c1	-0.05330539
27	0xbd9927dc	-0.07478306
28	0x3dcb6ad2	0.09932484
29	0x3da0f267	0.078587346
30	0x3d79fd01	0.0610323
31	0x3d35092a	0.044198193
