data/models/autoencoder_epoch_20.pt (torch, 66986 bytes, 15 tensors)

encoder.0.weight f4 [16, 1, 5]
00000000: 4811 6abe 6908 71bd eb8d 21be a81c b83e
00000010: 5154 bd3e b093 27be 98a3 043d 0a28 d6be
00000020: 22b8 923e f011 523d e4b8 dbbe d82c 3ebe
00000030: 88d0 933d 24eb 91be da3b 1dbe f90b b73e
00000040: 31f0 2cbe 4930 993e 30af edbc 9b99 c4be
00000050: e41d 4dbe 90af 503d dbb5 b3be b809 d6be
00000060: 867e aa3e 4c19 463e ba3e a4be 9edd c5be
00000070: 2460 ca3e 3095 c2bd 57e3 83bc a3fd a83e
00000080: a8bf 233e 5a2d 713d c8eb 6fbe 1670 c33e
00000090: 1ca9 033e dd3e d53e eeef adbe 0047 e83e
000000a0: 98b5 7f3c cd78 763e b840 783e 7e82 3a3e
000000b0: 4fa8 82be b933 56be 2ac8 d03e 72ad bdbe
000000c0: 9ff8 cebe 6ed6 0cbe 35f9 a93e a378 773e
000000d0: fc4d 823e 972f e23e 7692 073d 2272 683e
000000e0: 4b81 a03e a49d 023e 2fb7 1ebe 444d 55be
000000f0: 9095 633d f357 c0bd a343 e63e 5253 66be
00000100: 1b38 be3e 77bc bd3e 4f98 2a3e 8996 933e
00000110: 9117 29be 2894 9a3e 06e2 b0be 2008 403d
00000120: 1082 9fbd 401e 52bd 6ac1 a83e 7ba2 24bd
00000130: d643 9c3e ca43 babe 2f2b 983e 21e8 f2bd
-0.22858155 -0.05884591 -0.15776794 0.35959363 0.3697839 -0.16364932 0.032382578 -0.41827422
0.28656107 0.051286638 -0.42914498 -0.18571794 0.072175086 -0.2849971 -0.15354863 0.35751322
-0.16888501 0.2991965 -0.0290142 -0.38398442 -0.20030934 0.05094868 -0.35099682 -0.4180429
0.33299655 0.19345587 -0.32079107 -0.38645643 0.39526474 -0.095011115 -0.016099615 0.3300601
0.1599108 0.05888114 -0.23429787 0.38171452 0.12857479 0.41649523 -0.33972114 0.4536667
0.01560726 0.2406952 0.24243438 0.18213841 -0.25519034 -0.20918168 0.40777713 -0.3704639
-0.40424058 -0.13753673 0.33197942 0.24167113 0.25450122 0.44176933 0.03309866 0.22699788
0.31348643 0.12755448 -0.15499566 -0.20830256 0.055562556 -0.09391775 0.44973478 -0.22492722
0.3715218 0.3705785 0.16659664 0.28825787 -0.16512896 0.3019116 -0.34547442 0.04688275
-0.07788479 -0.05129838 0.32960063 -0.040194016 0.30520505 -0.36379844 0.29720446 -0.11860681

encoder.0.bias f4 [16]
00000000: 1fa7 ce3d 2999 c9be 22ea a63e 8ce4 c6be
00000010: 9b28 bbbe e740 cabe daa6 90be 2f14 a63d
00000020: 8103 c4be 5969 acbe a2da 5d3e cac7 d73d
00000030: e3d8 693e 8329 e63e 64c5 e3be db21 053d
0.100904696 -0.39374664 0.32600504 -0.38846242 -0.36554417 -0.39502642 -0.28252298 0.081093185
-0.38283923 -0.33674124 0.21665433 0.105361536 0.22836642 0.44953546 -0.44486535 0.03250299

encoder.3.weight f4 [32, 16, 5]
00000000: 5b3f dabd ca09 903b 1d6e 323d cf79 8e3c
00000010: f2a6 f93a 1a77 49bd d033 1dbd dcc8 763d
00000020: 80f2 d43d 70b5 bf3b e73e d23d 3d3c de3d
00000030: af0d a7bc 29d2 6abd 4dec dabd 5e09 c2bd
00000040: ccdb 0b3d 989b 12bd ecbc c83d 8034 223a
00000050: 8017 263a c4e2 d9bc 40b0 db3d 40f6 10bb
00000060: b91e bebd effb 73bd b4b6 c23d e6c0 c53d
00000070: c070 86ba 04c0 563d 78e7 093d d4d3 7e3d
00000080: 6b2e 98bd 732c 01bd 4750 46bd 1482 80bc
00000090: e9f0 f0b9 5ece 08bd 9748 463d aefc 223d
000000a0: 2eef d5bd 6070 9a3d f947 b53d d049 083d
000000b0: daaa 583b dc78 243d 7c3b c53d a84d 283d
000000c0: 6ede 85bd 0453 683d 7c62 91bd 70fc e2bc
000000d0: 680e 82bd 2703 fabc 544f cf3c 609d c13d
000000e0: 8165 bdbd e5ff 88bc fe42 92bd 4bdb ab3d
000000f0: 00fa bc3c 861b babd 7d5c 893c 503d 893d
00000100: c7df f53c d20e 98bc ba73 4dbd ba27 f43d
00000110: 1f03 78bd 017d 623d 6ea9 6fbd f0aa f1bc
00000120: b238 d5bd ec89 903d f04b 24bd 3f04 d43c
00000130: c1e2 2ebc 44e6 9abd 6056 7f3d 6289 b6bd
00000140: 9aea 033e 0bdb 7cbd fe0b ad3c abe8 6c3d
00000150: 580e d1bb a805 283d 8d9c 7cbd d821 d7bd
00000160: 8efc cb3d 94b7 8cbc 1e16 99bc 44f7 1abb
00000170: 61ac 2bbd c1ce da3d eeb4 e23d 9c8d c0bd
00000180: 7fbf adbd 069e 0ebc 8eb2 9fbd 04d0 d4bd
00000190: d89e a6bc c002 28bd 287a 78bc b0e3 823c
000001a0: 1b0f b2bd 50af b33c 9c54 6f3d 2041 353d
000001b0: c641 cb3d 5ce9 2d3d 30e6 493d 3129 253c
000001c0: f409 97bc 51c0 83bc 8b0d 79bd 81a0 a2bd
000001d0: 9e31 b53d dd5d 07bd 809f 853d 8e86 43bd
000001e0: 7ed4 76bb 9fc4 ff3c 1bef 71bc 5d90 96bc
000001f0: 5a9c 9ebd a455 b13d c429 c8bc a17c 4cbd
00000200: d6e7 b43d e0f0 973b f7f2 a5bc 02f0 a9bd
00000210: fe8e 13bd 64e4 e63d 9b88 b8bd 1959 1d3d
00000220: 9372 d33d 18ca e0bc 5f05 cabd fadb 10bd
00000230: 6448 91bd b506 8e3d a8b7 bd3d 85e5 e13d
00000240: 400e e53a 5405 ff3c 97e3 ae3d 12e4 003d
00000250: 96fe c4bd 9b13 8cbd c430 2abd dc1e 2f3d
00000260: aa37 96bd 4a38 54bd 60ef 7d3c 8177 9cbd
00000270: 777f 8dbd 012f 2dbc ae5b c03d 4265 54bd
00000280: 9eb3 8abd 29b6 bcbd 2c6d 43bd 2621 af3d
00000290: 3b4b c7ba b885 583d c419 1a3d 3127 97bd
000002a0: 9cd6 9c3d da56 c93d 8781 19bc a0c6 893d
000002b0: 39bb 573d 77ef 14bd 0701 cc3c 53d8 56bc
000002c0: 3656 23bd 8656 e5bd 943d 7cbd badb cabd
000002d0: 0089 bdba 003f cd3a d2be 8f3d c4b8 743d
000002e0: b80e e2bc b71c aabd 1337 aebd 7465 c53d
000002f0: 30bb 483c b4d6 a2bc 95fd a13d 4f76 083d
00000300: 5590 c2bd ae28 2ebd a0d6 b73d 0b61 eabb
00000310: b47b eb3b bc01 cf3d 7b5f a13d 4913 a23d
00000320: 92ba a73c 7ce0 70bd 9e99 8d3d 5ed6 b3bc
00000330: 97c7 c9bd 70c6 df3c 900e aa3b 584b 05bc
00000340: 2311 96bd 3c8e 9c3d 9aea a43d 51ff a4bc
00000350: 98a2 963d b778 05bd a4ab 93bd d09a 673c
00000360: 28db 4c3d 2af5 56bd 5ae4 ee3d 72a7 26bc
00000370: f89f cc3d 9f81 4f3d b30a 80bd 9032 b4bd
00000380: 9f2d 663d 829f e43d c4f5 0a3d 4a21 58bd
00000390: 60f1 a93d 0cbe c63d 10b3 f93c ec61 583d
000003a0: 9c6b 3dbd 4010 b83a 4508 c9bd 6b88 92bd
000003b0: bee1 6e3d 159c eb3d 116c 22bd e8d5 32bd
000003c0: 98fa debd 22ca 39bd 09a2 bf3d 7b15 51bd
000003d0: 7b36 93bc 90c5 48bd d8d3 a63d f8cb 6bbd
000003e0: 00c1 19bd b294 803d 1216 b53d e454 763c
000003f0: 6e91 2a3d bca6 dabd 7335 4f3d 6e77 f63b
-0.10656615 0.004395698 0.043562043 0.017392067 0.0019046946 -0.04918585 -0.03837949 0.06025015
0.10397816 0.0058504865 0.10265904 0.10851333 -0.020392267 -0.05732933 -0.10689602 -0.09474443
0.03414516 -0.035792917 0.09801659 0.00061876327 0.0006335899 -0.026597388 0.107269764 -0.0022119433
-0.09283204 -0.059566434 0.09507504 0.09655933 -0.0010256991 0.052429214 0.03366801 0.062213734
-0.074307285 -0.03153653 -0.048416402 -0.015687026 -0.0004595586 -0.033399932 0.04840907 0.039791755
-0.104460105 0.07540965 0.08851618 0.033273518 0.003306082 0.040154323 0.09630486 0.041089684
-0.06536566 0.056719795 -0.070988625 -0.027708262 -0.06350404 -0.030519081 0.025306381 0.09453845
-0.09247876 -0.016723583 -0.07141684 0.08391436 0.023068428 -0.09087281 0.016767735 0.067011476
0.030013932 -0.018561754 -0.050159194 0.1192164 -0.06054985 0.055294994 -0.05851119 -0.029500455
-0.104112044 0.070575565 -0.040111482 0.025880931 -0.0106741795 -0.07563451 0.062338233 -0.089129224
0.12882462 -0.061732333 0.021123882 0.057839077 -0.0063798837 0.04102102 -0.061672736 -0.10504502
0.0996028 -0.01717738 -0.018687304 -0.0023645917 -0.04191244 0.106839664 0.11069666 -0.0940201
-0.084837906 -0.008704668 -0.077977285 -0.10391238 -0.020339414 -0.041018248 -0.015165843 0.01597771
-0.086942874 0.021934181 0.0584303 0.04425156 0.09924655 0.042458877 0.04929179 0.010080622
-0.018437363 -0.016082915 -0.06080393 -0.0794077 0.08847354 -0.0330485 0.06524563 -0.047735743
-0.0037663276 0.031221686 -0.01476648 -0.018379385 -0.077446654 0.08658913 -0.024433978 -0.049923543
0.08833282 0.004636869 -0.020257456 -0.08297731 -0.03602504 0.11274031 -0.090104304 0.03841505
0.10324588 -0.027440116 -0.09864306 -0.035366036 -0.070938855 0.06934873 0.09263545 0.110301055
0.001747556 0.03113047 0.08539503 0.031467505 -0.09618871 -0.06839677 -0.041550413 0.04275404
-0.07334836 -0.051811494 0.015498966 -0.07639981 -0.069090776 -0.010570289 0.093924865 -0.05185438
-0.067725405 -0.09214432 -0.047711536 0.085512444 -0.0015204916 0.0528619 0.03762223 -0.07380522
0.07658121 0.09831019 -0.009369261 0.06727338 0.052668784 -0.036361184 0.024902834 -0.013113099
-0.03987714 -0.11198144 -0.061582163 -0.09905191 -0.0014460385 0.0015659034 0.07018818 0.05974652
-0.02759491 -0.08306258 -0.08506598 0.09638491 0.01225166 -0.019877769 0.07909695 0.033315953
-0.095001854 -0.042519264 0.08976483 -0.0071526817 0.0071863774 0.10107753 0.078795396 0.079138346
0.020474706 -0.058807835 0.06914066 -0.021952804 -0.09852522 0.027316302 0.0051897243 -0.008135639
-0.07327487 0.076443166 0.08052559 -0.020141276 0.07355231 -0.032585826 -0.07210472 0.014136031
0.05001369 -0.0524799 0.11664648 -0.010171758 0.09991449 0.050660726 -0.06252041 -0.087987065
0.05619585 0.11163236 0.033925787 -0.052766122 0.08297992 0.09704217 0.030480891 0.05282776
-0.046245202 0.0014042929 -0.098160304 -0.07154926 0.058320753 0.1150438 -0.03965384 -0.04366103
-0.10887641 -0.045358784 0.09357078 -0.051045876 -0.017970314 -0.049016535 0.08145875 -0.057567567
-0.037537575 0.062783614 0.088421 0.015034888 0.0416426 -0.10676333 0.050588083 0.0075215613

encoder.3.bias f4 [32]
00000000: 27ef 103d 7852 d33d 49a9 233d ed26 ecbc
00000010: 40bb 7a3c bde8 fb3c ced4 12bd 2a92 3dbd
00000020: 1869 cd3d 340d 81bd d55f 973c 0693 2fbd
00000030: 7124 a5bd f995 b9bc 8ee1 83bd ac3d 46bd
00000040: b798 a23d 1fc7 dbbc c173 3d3d eb5b 08bd
00000050: fd20 2e3d 312d 593d 90a0 cf3d 52e6 c5bd
00000060: d0b9 2bbd 6c72 c4bc dcb4 cfbb 79e9 10bc
00000070: d986 973d 1004 8f3d df4b ba3d 4373 bebd
0.035384323 0.10318464 0.039956365 -0.028827155 0.015303433 0.030750627 -0.035847478 -0.04628197
0.10029811 -0.063013464 0.018478313 -0.04286482 -0.08063591 -0.02265452 -0.064395055 -0.04839866
0.07939284 -0.026828347 0.04625297 -0.033290785 0.04251193 0.053021614 0.10138047 -0.09663071
-0.04192525 -0.023980342 -0.006338699 -0.008844727 0.07398767 0.06983197 0.090965025 -0.09299328

encoder.6.weight f4 [16, 32, 3]
00000000: 6ada 8b3d c0c6 8dbd e41a 803d f7c9 d7bc
00000010: c69e d53d f3f7 97bd c6eb 02bd 4316 f93d
00000020: 247f b33d daa6 47bd 6111 98bd 2fb4 333d
00000030: 86ae afbd 60ea 113c 4a60 a13d aaa1 313c
00000040: f40d 773d 928b 643c 4d18 ff3b 7453 e03c
00000050: 3c4e b23d 0043 ae3c d244 78bc 0520 8b3c
00000060: d123 1e3c dabf c33d bfb5 d93d ee04 373b
00000070: ca4c b53d 5ac8 9a3c de45 44bd d81b d2bc
00000080: ca1d 73bd f0ba c43c 1cd1 943d c434 c4bd
00000090: 1013 d6bb d761 b4bd 1890 cd3c 8598 53bd
000000a0: 790e 8ebd 5e8f 883d 2683 983d 421f 8a3c
000000b0: 5422 ccbc 8408 15bd 96ab 40bd fd57 92bd
000000c0: 5bb0 1fbc ed55 463d 43d5 4d3d 2a28 913d
000000d0: be52 9e3c 4f6c 813d 9cee 883d e94e 0ebd
000000e0: 5bf4 193d 5fa1 92bd d96c e43d bfe7 c1bc
000000f0: 2d5a a4bc 8406 29bd e802 743d 4146 9dbd
00000100: 6ebd 7fbd 1352 0f3c f00f f4b9 3824 18bc
00000110: e1ac 1c3d c975 7dbd 4d96 31bd a96d cfbd
00000120: d4b5 a5bd 5cd8 1fbd 980b 103d c0ad 5f3b
00000130: ca0c 30bd 8cfe 8fbd 6c62 ef3d 95e4 ad3d
00000140: 1c63 7e3c 2068 59bd 108b 8a3d ee7d f53d
00000150: 7b21 c83d 1813 593c 4750 8d3d 180d 3a3c
00000160: 2440 64bc c5e0 ae3d 863d 36bd 1d5c a13d
00000170: 3a21 eabc 7355 a23d b6df 0f3d 69d4 16bd
00000180: ba25 b43d 2098 44bd fac5 aa3d 921c 0abd
00000190: 2928 85bd 2012 f73c 1417 84bc 6036 87bd
000001a0: 0b22 74bd 14b0 2bbd 4868 be3c 00be 04b9
000001b0: 2824 d13c fa0b 833d 4807 6d3d 7695 943d
000001c0: c440 dabc 143f bb3d 1ba8 78bd 278e 95bd
000001d0: 08d6 ef3c be74 b73d c0a5 c1bc dce4 b93d
000001e0: 13d1 b6bd 002a 04bc 185e 75bd a413 963c
000001f0: 7dd8 24bd 94c8 8a3d 6bc4 56bd d45e 7b3d
00000200: a9d2 2cbd ac27 833d 919f 27bd 4867 b1bd
00000210: 3ad8 afbd c045 cc3b 6a5c ce3d d07d eb3c
00000220: 048a dabc 28b8 3cbc 94ac b9bd 2659 a43d
00000230: 1722 31bd 8d24 56bd 80b3 32bc 2f0a 43bd
00000240: a4df d3bc 8ca5 11bd 5875 9abc b867 f23c
00000250: 8448 d8bc 0094 163d 6e9a ac3d 1891 1fbd
00000260: 987a aebc 6c30 2d3d 9a37 963d 160e 953d
00000270: 4195 3fbd 30ec 07bd dc8e 383d 86e9 bd3d
00000280: f4bb 6bbd cf19 72bd d489 cc3d cf99 b6bd
00000290: eaae a63d e692 b6bd b66a af3d 4890 8dbc
000002a0: cc28 613d 00b7 03ba 346f d2bc ecb0 53bd
000002b0: 6cb1 033d 9069 99bc 04d8 583d 39e1 b3bd
000002c0: 2055 ab3d b8b3 88bd 4217 a1bd 7445 9ebd
000002d0: cc14 3fbd 30e8 b43d f023 b4bb 14f3 9a3d
000002e0: 49d7 32bd 74b5 5d3d 880d a83d 0a53 52bd
000002f0: 8089 a5bc 9881 053d a05c b6bb b387 a8bd
00000300: 006f 69bd 4cfa c8bb a317 d8bc d92a 14bd
00000310: c988 cfbc 1422 133d d06a ba3d 8232 b63d
00000320: f142 b43d c631 e4bc a7e7 bbbd 6e4d 2abd
00000330: 1c61 92bc 9c69 903d 644c 513d 3a2b 97bc
00000340: 3785 52bc b898 7bbd 3bef abbc 7597 48bd
00000350: 8f37 27bd 9b90 c43d c639 bdbc c894 673d
00000360: 8568 a9bd f930 283d 7ae7 703d 998d b2bc
00000370: b94b 243d 3cd6 9b3d 2d91 7c3d 96dd ad3d
00000380: 7471 f839 e0bc 9fbd ae93 843d 6009 72bc
00000390: bcc2 583d 3a2e 9dbd e6cf 823d 8ac0 bb3b
000003a0: 789f 0abd 8c0e 313c 96e2 283b 6d13 293d
000003b0: d86a 58bd 259f 88bd 620e 89bd 6ce4 ef3c
000003c0: 2762 533d 50c4 d43c 957e 9c3d ce87 303d
000003d0: 8899 6e3c b04c e33c cd90 543d c319 5cbd
000003e0: e9c0 843d 6641 c63d 5939 e0bb c65f 273d
000003f0: b00c 9e3d 120e 84bc 99fc b13d a97f 933d
0.068287686 -0.06922674 0.06255129 -0.026341422 0.10430674 -0.074203394 -0.031963132 0.12162449
0.087644845 -0.048743106 -0.0742519 0.04387301 -0.085782096 0.008905977 0.07879694 0.010841766
0.06031604 0.013949292 0.0077848793 0.027383544 0.08706328 0.021272182 -0.015153127 0.016983042
0.009652094 0.09558077 0.106303684 0.0027926522 0.08852537 0.018894363 -0.047918193 -0.025648043
-0.05935458 0.02401492 0.07266447 -0.09580377 -0.006533034 -0.08807724 0.025093123 -0.051659126
-0.06936354 0.0666797 0.074468896 0.016860608 -0.024918713 -0.036385074 -0.047038637 -0.07145689
-0.009746636 0.04842179 0.05025221 0.07087739 0.019326564 0.06319486 0.06686136 -0.034743223
0.03758655 -0.07159685 0.111535735 -0.023670075 -0.02006253 -0.04126598 0.059573084 -0.076794155
-0.062436514 0.008747595 -0.0004655118 -0.009285979 0.038250808 -0.061879907 -0.04335623 -0.10128338
-0.080913216 -0.039024696 0.035167307 0.0034130663 -0.042980947 -0.07030973 0.11688694 0.08490864
0.015526559 -0.053077817 0.06764805 0.1198691 0.09772011 0.013249181 0.06900077 0.011355661
-0.013931308 0.08538965 -0.044492267 0.07878897 -0.028580297 0.079264544 0.035125457 -0.036823664
0.08796258 -0.04799664 0.08338542 -0.033718653 -0.065018006 0.03016001 -0.016124286 -0.06602168
-0.05960278 -0.041915968 0.023243085 -0.00012659281 0.025529936 0.06398769 0.057868272 0.0725507
-0.02664221 0.091428906 -0.060707193 -0.07302504 0.029276863 0.08957814 -0.023638606 0.090768546
-0.089265965 -0.008066654 -0.059904188 0.018319912 -0.04024552 0.067765385 -0.052433413 0.061369732
-0.04219309 0.06404051 -0.04092366 -0.086622775 -0.08586164 0.006233901 0.1007622 0.028746516
-0.02667714 -0.011518516 -0.0906612 0.08024816 -0.0432454 -0.05228095 -0.010907054 -0.047617134
-0.025863476 -0.03555827 -0.018854782 0.029590473 -0.026401766 0.036762238 0.084278926 -0.03895673
-0.021298692 0.042282507 0.07334824 0.07278077 -0.0467732 -0.03318423 0.045058116 0.09273057
-0.057552293 -0.059106644 0.09987226 -0.089160554 0.08138831 -0.089147374 0.08565275 -0.017280713
0.054970548 -0.00050245225 -0.025687791 -0.051682398 0.032151625 -0.018727094 0.052940384 -0.08783192
0.08365846 -0.06674904 -0.07865764 -0.07728091 -0.046650693 0.08833349 -0.005497448 0.07565895
-0.043662343 0.054128125 0.08205706 -0.051348723 -0.020207167 0.032594293 -0.005565241 -0.082290076
-0.056990623 -0.0061333533 -0.026378458 -0.036173675 -0.025333779 0.03592117 0.09102404 0.08896352
0.088018306 -0.027855765 -0.091750436 -0.04157775 -0.017868571 0.070513934 0.051098242 -0.01845323
-0.012849144 -0.06142494 -0.020988097 -0.048972566 -0.04082447 0.09597894 -0.023098838 0.056538373
-0.08271889 0.04106233 0.058814503 -0.021796035 0.040111277 0.07609221 0.061661888 0.0848953
0.00047386775 -0.07799697 0.0647348 -0.014772743 0.05292009 -0.07674833 0.0638731 0.0057297396
-0.033843488 0.010806691 0.0025769821 0.04127829 -0.05283627 -0.066709794 -0.066921964 0.029283725
0.051607277 0.025972515 0.07641331 0.043098263 0.014562972 0.027746528 0.051895905 -0.053735506
0.06482107 0.096804425 -0.006842774 0.04086282 0.07717264 -0.01611999 0.08690757 0.072020836

encoder.6.bias f4 [16]
00000000: b764 943d d259 55bd 70c9 0939 248c 0b3c
00000010: fe13 913d 089b 17bd ca58 7a3d 40fc 3fbb
00000020: aa74 58bd 5e45 f4bc 77df 4d3c 5ba5 43bd
00000030: a98d 3a3d 5e52 443c f280 23bd 4618 d13d
0.07245772 -0.052087612 0.0001314038 0.008517299 0.07083891 -0.037013084 0.061119832 -0.002929464
-0.052845635 -0.029818233 0.012565485 -0.047765117 0.045545254 0.0119825285 -0.039917894 0.10209708

fc1.weight f4 [8, 400]
00000000: 5160 0abd 2aae 71bd 0215 d13b 3970 f3bc
00000010: 646f 1dbd c021 903c f1e8 babc 3bc7 1cbd
00000020: 9fa3 ecbc bfc6 283c 3154 eb3c 5c12 34bc
00000030: b0b7 813c 577e fd3c 9932 47bc d259 aa3c
00000040: 91e7 31bd 3ee9 a73c 49cc 2ebc af5b 8abb
00000050: 9a5b 18bd 7411 42bd e553 4dbd b51b 34bd
00000060: a8c9 373c 5c69 5e3c 8e92 ce3c 3aeb c9bc
00000070: 40d2 89bb 2753 3a3d 407c 1bbc 8cd4 69bc
00000080: 50d3 26bb 9e1c 02bd 3bf6 3a3d 2db6 3e3d
00000090: cc89 7a3c 084f 08bd c7d8 dbbc 12b7 c73c
000000a0: f3ce bdbc 382c 02bc 3ca7 88bc 8c6d 82bc
000000b0: 807b 07bd 3e2a f23c 404b 46ba 0ac5 45bd
000000c0: 86d5 14bd c8d6 053c 2955 3b3d e57f 253d
000000d0: 44a2 7c3c 14ab 573d 54ef abbc 2962 143d
000000e0: 7015 ae3c 3f4e 3ebc 4113 f7bc 6d86 93bc
000000f0: 00ba 223d 5267 b13c 600a 483d 14a7 27bc
00000100: 6224 53bd 28e9 81bc de91 023d 4a6e 47bd
00000110: 0a2b 71bd 8a0e 20bd 99f2 0abd be86 69bd
00000120: 7207 bfbc 7ba5 a4bc d373 8abc 7111 a8bc
00000130: d8bf 06bd 16cd a53c b20a 493d 6710 62bc
00000140: c069 033d c635 ac3c 8c7f 42bb ced5 c93c
00000150: 7039 fe3c 13aa 00bc 91e3 3dbd 2bf6 5bbb
00000160: c2d9 1bbd 1c4f e13c 387f 833b c323 0e3c
00000170: 76ae db3b 21fe 38bd 4869 253d 9f5d 253c
00000180: f493 a03c 60ba b93c 9eca e63a de53 67bd
00000190: b078 bb3c aa8c 4a3c 90ed 28bd 90d6 d83c
000001a0: a8e0 1cbd 7106 ea3c 0839 9dbb b3da ad3a
000001b0: 0a89 70bc 4699 b53c ce41 b7bc eac2 7fbd
000001c0: 7b24 49bd 6aeb cf3b 7b46 e43c 3fb1 e03a
000001d0: 7961 35bd 535c f43b c065 443c 59bd 7abd
000001e0: 3abc 2dbd 8ccd 883c 4e0e d53c a9bc e1bb
000001f0: 6514 1fbd 20e4 6a3b 64d1 613c fee3 e73c
00000200: 735a 3cbd 97a8 2f3d 4f2a 1b3d 001e 063a
00000210: c019 5ebc 88d4 46bc 42cf d63c 6819 08bc
00000220: 03f9 febc c800 28bd 1be5 16bd e018 25bb
00000230: 602e 83bc 8367 213d af64 37bd 8036 1b3a
00000240: 5cef 7f3c 54c3 3ebc a3bf 353d 60a9 c2bc
00000250: 510c 033d b04e 71bb c7eb 80bd 33f8 c93c
00000260: b121 27bd 193a 65bd 7274 233b 777b e43c
00000270: fadf 29bd 46ca b63c 7ef1 fb3b 108a 41bd
00000280: dcfd 9a3a 4d0a 62bd 162f 1c3d aeb9 60bd
00000290: 95fd bbbc 1a10 81bd 94b8 543b 72de 72bd
000002a0: fffb 013d 51c0 03bd ed4e 4cbd d868 723b
000002b0: 09ec 84bc 3e93 f0bc 92a7 04bd d0c9 c1bc
000002c0: ec7f 53bc 187f b0bb 606f dbbc 406a 9f3b
000002d0: 80a1 a13b 427e c43c 54e8 06bc fe45 b63c
000002e0: cc9d 16bc 4ca8 82bc 28c6 aebb 8e95 01bd
000002f0: 62db a53c d1a0 103d 511a 2f3d 0061 f0bb
00000300: 2ea9 803c dd34 27bd 82ef 28bd eae0 87bc
00000310: d99f 0b3d db2c 223d ea10 e4bc 8ac9 c33c
00000320: 401e 413c 3072 413b 9de3 bbbc 76d3 9f3c
00000330: f4b5 053c ec1f 51bc 4050 e83a 62e1 8e3c
00000340: 21b1 4c3d 612b 073d 028c b73c 7506 223d
00000350: 6333 31bd 4345 48bd d211 883c b0d8 dd3b
00000360: aea8 e03c 4b17 423d 8043 50bc 20c8 53bc
00000370: ed79 3f3d 021f a63c 7a1f 34bd 66a4 eb3c
00000380: 15d7 08bd 8437 22bd e920 e4bc 5396 2f3d
00000390: 4d91 563b 4955 263d 7c48 093d cb44 b23a
000003a0: 114b c8bc 16a4 8c3b 6137 d3bc 887f 1a3d
000003b0: c85c d63c d471 433c 20a2 9dbc 6220 873c
000003c0: 8515 14bd ea2a b2bc 30af 84bc 2bf8 16bd
000003d0: c4f4 6a3c ed9c ecbc 33b6 a8bc 40bb 33ba
000003e0: 50f3 d7bb 77ea ffbc d086 ccbc 3496 ef3c
000003f0: 9d8c 26bd da20 1dbc d344 1dbd d337 493d
-0.03378326 -0.059003986 0.006380678 -0.029716598 -0.03843631 0.017594218 -0.022816153 -0.03827594
-0.028886614 0.010301291 0.028726669 -0.010990705 0.01583466 0.030944033 -0.0121580595 0.020794783
-0.04343373 0.02049696 -0.010668823 -0.0042223553 -0.037196733 -0.047379926 -0.050128836 -0.043971736
0.011217512 0.013574924 0.025216367 -0.024648298 -0.004205972 0.045489457 -0.009490073 -0.0142718665
-0.0025455542 -0.031765573 0.04564498 0.046560455 0.015291642 -0.033278495 -0.026836766 0.024379287
-0.02316997 -0.007945113 -0.016681306 -0.015921377 -0.033076763 0.029561158 -0.0007564314 -0.048283614
-0.036336444 0.008168884 0.045735512 0.040405173 0.0154195465 0.052653387 -0.020988144 0.036226425
0.021250457 -0.011615335 -0.030160548 -0.018008435 0.039728165 0.021655712 0.04883802 -0.010232706
-0.05154837 -0.015858248 0.03187739 -0.048689164 -0.058878936 -0.039076366 -0.033922765 -0.057013266
-0.02331898 -0.020098438 -0.016900932 -0.02051613 -0.0328978 0.020239394 0.049082465 -0.013797856
0.032083273 0.021021735 -0.0029678075 0.024638083 0.031033248 -0.007853049 -0.046359602 -0.0033563476
-0.038049467 0.027503543 0.0040129684 0.008675518 0.006704147 -0.04516423 0.040383607 0.010093122
0.0196018 0.022671878 0.0017607992 -0.056476466 0.022884697 0.0123626385 -0.041242182 0.026469499
-0.038300186 0.028567525 -0.0047980584 0.001326403 -0.01468111 0.022167813 -0.022370245 -0.062441744
-0.049107056 0.006345202 0.027865639 0.0017142667 -0.04428241 0.007457295 0.01198715 -0.061215732
-0.042415835 0.016699575 0.026007798 -0.006888945 -0.03883781 0.003584154 0.013782833 0.028306957
-0.045984697 0.04288539 0.037882145 0.00051161647 -0.013555944 -0.012135632 0.026221875 -0.008306839
-0.031124597 -0.04101637 -0.036839586 -0.0025191829 -0.016013324 0.039405357 -0.044773754 0.0005920902
0.015621033 -0.01164325 0.044372212 -0.023762405 0.031994168 -0.0036820583 -0.06294971 0.024654483
-0.040803615 -0.05596361 0.0024941233 0.027890904 -0.041473366 0.022313248 0.0076887 -0.047250807
0.0011824924 -0.055185605 0.038130842 -0.054864578 -0.022948066 -0.06301899 0.003245865 -0.05929417
0.031734463 -0.03216583 -0.049879957 0.0036988761 -0.016225832 -0.029367086 -0.03238637 -0.023655802
-0.012908917 -0.0053862445 -0.026786506 0.004864961 0.0049325824 0.023985986 -0.008234102 0.022250172
-0.009192895 -0.01594939 -0.0053336807 -0.031636767 0.020246211 0.035309616 0.042749707 -0.007335782
0.015705671 -0.0408219 -0.041244037 -0.01658674 0.03408799 0.03959356 -0.027840097 0.023899812
0.011786997 0.0029517524 -0.022935683 0.019510012 0.008161057 -0.012763958 0.0017724112 0.017441455
0.04997361 0.033000354 0.022405628 0.03955694 -0.043261897 -0.048894178 0.01661006 0.006770216
0.027424183 0.047385495 -0.012711406 -0.0129261315 0.046747137 0.020278458 -0.04397533 0.028764915
-0.033408243 -0.039603725 -0.027847724 0.04286797 0.0032740415 0.040608678 0.033516392 0.0013600824
-0.024449857 0.0042920215 -0.025783243 0.03771928 0.026167288 0.011928994 -0.019242346 0.016494934
-0.036153335 -0.021748979 -0.016196817 -0.036857765 0.014340583 -0.028883422 -0.020594692 -0.00068562105
-0.0065902844 -0.031239731 -0.024966627 0.029246427 -0.040661443 -0.009590352 -0.038395714 0.049125504

fc1.bias f4 [8]
00000000: 463a c8bc c023 0a3d a806 b53b 4298 0bbc
00000010: f94d cd3a 6838 e2bb 370f 2bbd 83ae 603d
-0.02444185 0.0337255 0.005524475 -0.008520188 0.0015663496 -0.006903697 -0.041762557 0.054853927

fc2.weight f4 [400, 8]
00000000: c55c 883e e20b 26be 31b9 76be 93c3 c7bd
00000010: 8236 433e e1bb 27be 234a dd3d 9355 9f3d
00000020: a255 5b3e 388c 81bd 2c58 673e b4d8 7f3e
00000030: 0353 94be 5858 353e 96c3 81be d32e 963e
00000040: c740 333e 9685 31bd c98b 1bbe 57ad 9dbe
00000050: 3a43 8f3e 2d15 6b3e 0540 d53d 1865 76be
00000060: 8007 57be 030c d53d d233 ae3c 5e20 8dbe
00000070: 01e0 733e 58f0 26be e879 683e cce6 bc3c
00000080: 8ed2 823e 8790 31be 959e d8bd 3a4d 943e
00000090: 46bb 4a3d 2a0f 8cbe fd79 8bbd 3739 5ebe
000000a0: 037a 843e 2d92 81be fed1 03bc 7849 063e
000000b0: 9174 99bd aafd 85be beb7 283d 2518 0cbe
000000c0: 29ed af3e afea a83e 7460 54bd 1c8f cabd
000000d0: f2d2 ae3e 8bcf a63d a965 e8bb a15c 64be
000000e0: 8b2d 8cbe 7b3b 1abe 39c2 d33c a8ab a5bd
000000f0: 3603 51bd 9c3f 5a3e b0c5 4c3e 7270 133e
00000100: aecc 86be 8b46 7a3e dd27 dd3d 3bd4 40be
00000110: 5c5b 94bd f7b6 7b3e b58e 30be c860 673e
00000120: abc6 a5be 25de 64be 215e 28be 4285 6e3e
00000130: 8935 4e3e 69e9 213e 221b 2d3e 71b0 27be
00000140: 4c9d 53bd 2081 40be 5a25 733d f0be c9bd
00000150: 0a22 74be 48b4 483e b104 903d 9a5c bc3a
00000160: c6e8 2f3e 359b 40bd ee82 243e 84d2 623e
00000170: 5938 36be 9ede 433e 6d3c 95be a050 483e
00000180: 16d9 38be dffa 9bbe ab2e 893e 557e 5d3e
00000190: ba3e ac3e bddd 73be 9faf 8ebe d690 c23d
000001a0: d688 273d 1669 f93d 5d9e f4bd 61a7 a5be
000001b0: 9cbe 91be a53d 05bd 6d8a b63d 9f1d 4abe
000001c0: fbc7 8cbe 712b dcbc 8edd 093e 7c6a b3be
000001d0: ba9f 8f3e 2661 7bbe faa3 383e 4df4 01be
000001e0: 1394 59be ea26 7dbe 93be 0dbd 7a90 89be
000001f0: e383 ba3b 1a17 473c 8d10 b03d 158b a93e
00000200: af7c 543e 58f2 6dbe ccfb acbe 2a0d a5be
00000210: df24 15be 85d4 5a3e 5a31 a5be 3607 a9be
00000220: 3b69 45bd c0e3 15b8 68bb d53d 4c98 5bbe
00000230: 5dc8 a73e 7225 c9bd dd93 03be 4e6c b33e
00000240: 23ef 8e3e edf2 9dbe 36f2 ae3e 867d 4fbd
00000250: 06d3 68be 906f 7dbe ebac 9abe 737f 433e
00000260: 0071 c436 40c4 9c3d 8f5f e33d 64d8 9a3e
00000270: fe82 533e 6a88 6fbe c374 91be 8c06 a93e
00000280: c334 bcbe da7c 9c3d 4a4e 7b3d 07a0 a9be
00000290: 5f53 d2bc b70c 803e a36c 823e c279 8b3e
000002a0: 4067 81be b7c3 833e 3230 b13d 48fc 2f3c
000002b0: 0c24 ad3e be9c 413e 2563 1ebe 0f02 c43d
000002c0: e767 933b 1948 a2be 5708 f43c 2f16 a2be
000002d0: 5685 bd3d 9f30 56bb f240 ac3e b945 3e3e
000002e0: 5c55 223e c587 513d 2e04 ca3d fe16 60bd
000002f0: d362 35be b5d5 083e 50eb 7c3e 3e09 9e3e
00000300: 7e24 5fbb 3ea1 6bbe 0edf 903d 977d 22bc
00000310: 9134 b4be 4b63 af3e 0c5f 6abd 0273 d83c
00000320: 46aa 9ebe 3a58 be3c 283c 9f3e 2ccb 113e
00000330: 6d42 f23d d231 44be ca27 8dbe 4673 18be
00000340: 097e 9a3e 8640 8abe b029 6f3e 4a90 993d
00000350: 0f44 09be 4a38 dc3d e611 d53d d748 b6be
00000360: d185 a3bd af56 cdba 99cb 113e 8505 193e
00000370: 825e aa3e 7b07 85be ff83 843e 895e 5dbe
00000380: 5c9e 8bbe ff46 663e b2e3 e5bd a2b9 adbc
00000390: 25fb bfbd 3895 983d 34bb 97be d579 e8bc
000003a0: a361 a9bb 8283 043d 61d0 d43d 8bde 043e
000003b0: 59a2 88be c2b1 afbe 7f6d abbe 4dc0 71be
000003c0: e5b6 69bd 968e 59bd 4be1 92be 9e59 ba3c
000003d0: 56b8 3a3e 2f99 14bd e930 da3d 462e 993e
000003e0: 337f 51be 8e2c 253e 4863 3cbe 6da6 ccbd
000003f0: f198 df3d b6f4 0ebd ffeb d9bc 95eb e83d
0.26633278 -0.1621547 -0.24094082 -0.097541 0.19063762 -0.16380264 0.10805156 0.07779994
0.21419385 -0.06325573 0.22592229 0.2498501 -0.28969583 0.17709482 -0.25344533 0.293326
0.1750518 -0.043340288 -0.15190043 -0.3079631 0.27980977 0.22957297 0.104126014 -0.24062002
-0.20998955 0.10402682 0.021264944 -0.27563757 0.2381592 -0.16302621 0.22702754 0.023059271
0.25551265 -0.17340289 -0.10577122 0.2896517 0.049495004 -0.2735532 -0.06810377 -0.21701513
0.25874338 -0.25306836 -0.0080456715 0.13113964 -0.074929364 -0.26170093 0.041190855 -0.13681085
0.34360626 0.3299155 -0.051849797 -0.09890577 0.34145314 0.081450544 -0.007092197 -0.2230096
-0.27378497 -0.15061752 0.025849449 -0.080893815 -0.051028453 0.21313328 0.19997287 0.14398363
-0.26328033 0.24440973 0.10798619 -0.1883096 -0.07243988 0.24581514 -0.17241938 0.22595513
-0.32378134 -0.22350366 -0.16442157 0.23293021 0.2013761 0.15811695 0.16904882 -0.16375901
-0.051663682 -0.18799257 0.059361793 -0.098508716 -0.2384111 0.19600022 0.07032145 0.0014370859
0.1717864 -0.047023017 0.1606557 0.22150618 -0.17794932 0.1912789 -0.29147664 0.19562006
-0.18051562 -0.30464837 0.26793417 0.21630223 0.33641607 -0.23815055 -0.27868363 0.095002815
0.04090198 0.12178247 -0.11944268 -0.32354262 -0.28465736 -0.032529492 0.08913121 -0.19737862
-0.27496323 -0.026876183 0.13463423 -0.3504218 0.2805155 -0.24548778 0.18031302 -0.1269085
-0.21247892 -0.24721876 -0.034605574 -0.2686804 0.0056919917 0.012151504 0.08596907 0.33113924
0.20750688 -0.23236978 -0.33785856 -0.32236606 -0.14564846 0.21370132 -0.32264215 -0.33013314
-0.04819606 -3.5736477e-05 0.104361355 -0.21444815 0.32770053 -0.09821595 -0.12849374 0.35043567
0.27916822 -0.308494 0.34169167 -0.050656818 -0.22736749 -0.24749589 -0.3021005 0.19091587
5.85441e-06 0.07654619 0.11102211 0.30243218 0.20655438 -0.23391882 -0.28409395 0.33012807
-0.36759004 0.07641001 0.06135396 -0.33129904 -0.02567452 0.250097 0.25473508 0.2724133
-0.25274086 0.25735256 0.08651771 0.010741301 0.33816564 0.18907449 -0.15467508 0.09570705
0.00449847 -0.3169563 0.029789133 -0.3165755 0.092539474 -0.003268279 0.336433 0.18581285
0.15852875 0.05115487 0.098640785 -0.054709427 -0.1771348 0.13362773 0.2469914 0.30866426
-0.003404885 -0.23010728 0.07073794 -0.009917638 -0.35196355 0.34255442 -0.05721955 0.026422027
-0.30989283 0.02323543 0.31100583 0.1423766 0.11829076 -0.1915963 -0.2756942 -0.14887723
0.30174282 -0.27002352 0.23355746 0.07498224 -0.13404869 0.10752924 0.104038045 -0.35602447
-0.07984508 -0.0015666093 0.14237823 0.14943512 0.3327523 -0.2598227 0.25881955 -0.21618094
-0.27269256 0.2248802 -0.1122507 -0.02120668 -0.09374074 0.07450336 -0.29635012 -0.028378407
-0.00516911 0.032351978 0.103913076 0.12975518 -0.2668636 -0.34315306 -0.33481976 -0.23608513
-0.057059187 -0.053114496 -0.2868751 0.02274781 0.18234381 -0.0362789 0.1065386 0.29918116
-0.20458679 0.16130278 -0.18397248 -0.09992681 0.10917843 -0.034901343 -0.02660179 0.11373059

fc2.bias f4 [400]
00000000: dbff 953e 62e3 13be 012e 3b3e 7576 8ebe
00000010: ef4f 2abe 317b 35be 1265 92bd e3c3 e9bb
00000020: 3cf8 9b3e 1a06 68be de3c ecbb ac9a 623e
00000030: b75a 903d 0828 273e d402 4d3e d086 8e3e
00000040: 5ffa 213e 222b 0bbc 0f6e 953e 21db bd3e
00000050: 5bf9 5a3e 729f 993d 4f60 8bbe ad2b e5bd
00000060: 0a4b 503b 5eb5 09be aca8 8a3e fa29 853e
00000070: a394 02be c50e b0be aafa 88be 5b17 91bc
00000080: e6bb a5bd 4e8c b7be a155 78be 28f8 5d3e
00000090: 55f3 e03d 6a0c 8cbe 6d4b 22be 2bc3 15bd
000000a0: 70ca 9dbd 6dfe 553e 064d 513d b933 6ebd
000000b0: 9456 863d 083e 66be 8c5c a1bd 535e 98bd
000000c0: a516 27be ff9f d93a 5c3f f53c fd52 f4bc
000000d0: 269c 8bbe f9e1 03be 8e05 9dbe eff7 c03b
000000e0: 6bce b6bd 8cef 823d 673d b3bd 7e99 843e
000000f0: fa49 0ebe cf32 a8be aa2a e0bd 2b33 663e
00000100: 28a7 973e dade 0a3d cefa fabd 2e6f a5be
00000110: 0c18 e63c 0ec9 2b3e 5cf5 a43c bd49 813d
00000120: ab64 9abe 05a3 3fbe cf96 173d 6877 e03d
00000130: 1fee 04be 5ab9 253e 3e9e 83bd 2ebc 92be
00000140: 08db a1be b15e 4bbe 33b5 66be 0ca7 4abe
00000150: 15c1 01be 9e7b 923e 7677 a9bd 2f9b 4bbd
00000160: a687 8a3e f282 e03d c454 22be 0317 b93e
00000170: f4e2 bc3e 8bcc 01be 5ec3 8b3e 0cc8 84be
00000180: 6cae 16bd 16bf 66bb 09ed 71bd 99ec b03b
00000190: 800d f5bb 6bda 293e d299 183e 37b1 8dbe
000001a0: 4040 ea3c a667 58be 8fa6 4fbe 0e17 a43e
000001b0: f66a 97bd 982a 38bd 7b66 523e c814 97be
000001c0: ec8a 88be aea6 063d 5552 3fbe 8869 c23d
000001d0: 39ca 983e cb7e 493e 718c 453d d4a8 cbbc
000001e0: 2d43 623d 555c 883e 368e 453e 4b96 2fbe
000001f0: 6ab1 423e 613e 01be f6dd a0bd 3e59 dd3d
00000200: 648d 003e 66c5 b8bc f139 8e3d 773c 903e
00000210: e1e6 923e bd96 033d 5d22 7c3d c6c1 6e3d
00000220: fe1f c73d 2590 48be ca77 333d 7bac 983e
00000230: 5e62 39be 1e9e 0e3e eb1e d1bc 6bf9 19be
00000240: b2f6 8d3e c106 6d3d b14b 9b3e 90d5 1c3e
00000250: e128 07be b3ce a7be b131 8c3e 298c a63e
00000260: 8928 8abe 8d0f 6bbe 8007 6c3e a864 433e
00000270: 80c6 08be 099e 4a3d 2530 90be eae4 3a3d
00000280: 285d a13e 1d97 563e e35b 9fbd 2dd5 a9bc
00000290: b6cf a03e 25c8 8bbe fb36 393e a8e7 c93c
000002a0: d93e b6bd da03 8a3e abd8 243e f17b 94be
000002b0: a398 6ebd b810 5f3e 8903 3d3e db5f 7ebe
000002c0: 5d27 e13d 456a 123e 8574 6c3d 9aa1 183e
000002d0: 5165 80bd aed0 4c3e 0fdd dfbd 0d77 aabc
000002e0: 2d00 b23e 9cc8 013e 6473 613e 619e 34be
000002f0: 17e2 3cbe 1ff7 72be f98a 01be b749 b23d
00000300: 785a 1c3c faac 053e 6c68 20be 6bc8 913e
00000310: 2e1a a9bb dd3d a5bd 33c3 0abe 659f 6c3c
00000320: 5344 dbbc ce89 6a3e c738 b53e f0e7 42be
00000330: 723d 66be 54e1 92be cf98 80bc 5a08 ae3e
00000340: 213f 483c 6deb e7bc 36ed ad3d 84b3 ae3e
00000350: 8a91 8b3d 84e2 66bd 1d76 a6be 3d4d 4dbd
00000360: c0b3 73be 5c74 e0bd 9993 343e 6b3c 6cbd
00000370: 28ae 42be 5db3 3b3e 61ef fa3d e685 02be
00000380: ad6a 9cbe 8f12 0d3e 377b 7d3e 1f3e b7bd
00000390: 1636 76be bae6 973e bec8 8abe 6907 993e
000003a0: 467f 02be b6bf 86bc d07c 903e 1bf0 a33e
000003b0: c37d 393e 4380 a2be 2a84 b4be d20c 3b3e
000003c0: 5532 113e af69 9a3e 91c1 403e 4ecc babe
000003d0: 5df4 adbc b482 64be 11cb 14be 53fb 7c3e
000003e0: 9ee3 67bd 82dc 4f3e c413 dcbd 5ced 02be
000003f0: 42ee 323e 8f90 c9bc d8bc 903d 2286 9a3e
0.29296765 -0.14442208 0.18279268 -0.2782475 -0.16632055 -0.17722775 -0.07148184 -0.007133947
0.30462825 -0.22658578 -0.0072094044 0.22129315 0.070485525 0.16323864 0.2002061 0.2783723
0.15818165 -0.00849417 0.2918553 0.37081245 0.21384184 0.07501115 -0.27221915 -0.11189971
0.0031783008 -0.13448092 0.2708181 0.26008588 -0.12752013 -0.34386268 -0.26753742 -0.017711332
-0.080924794 -0.3584923 -0.24251415 0.21676695 0.10983912 -0.2735322 -0.15849085 -0.03656308
-0.077046275 0.20897837 0.051098846 -0.058154795 0.06559482 -0.224846 -0.0787898 -0.07439866
-0.16317232 0.0016603469 0.029937439 -0.029824728 -0.2726757 -0.1287917 -0.306683 0.005888931
-0.0892609 0.06393346 -0.08751946 0.25898355 -0.13895407 -0.32851264 -0.109456375 0.22480457
0.29619718 0.033903934 -0.122548684 -0.32311386 0.028087638 0.16775915 0.020136528 0.063128926
-0.3015493 -0.18714531 0.037009057 0.10960275 -0.12981461 0.16183987 -0.06426667 -0.28659195
-0.3161242 -0.1986034 -0.2253006 -0.19790286 -0.12671311 0.28609937 -0.082747385 -0.04970854
0.27056617 0.10962476 -0.15852648 0.3615037 0.36891901 -0.12675683 0.2729749 -0.25933874
-0.036787435 -0.003520911 -0.059063945 0.0053992984 -0.007478416 0.16587226 0.14902428 -0.27674267
0.02859509 -0.21133289 -0.20278381 0.3204884 -0.07393448 -0.044962496 0.20546906 -0.29508042
-0.2666849 0.032873802 -0.18683751 0.09492785 0.29841784 0.19677274 0.04822964 -0.024860777
0.055239845 0.26632944 0.1929253 -0.17147176 0.1901299 -0.12621452 -0.07854836 0.10808037
0.12553936 -0.022555064 0.06944645 0.2817113 0.28691772 0.032126177 0.06155621 0.058290266
0.09722899 -0.19586237 0.04381541 0.29819092 -0.1810393 0.13927504 -0.025527438 -0.15036552
0.27727276 0.05786777 0.30331185 0.15315843 -0.13199188 -0.32774886 0.27381662 0.3252881
-0.2698405 -0.22955151 0.23049736 0.19081366 -0.13356972 0.04946712 -0.2816173 0.045628466
0.31516385 0.20956083 -0.07781198 -0.020731533 0.3140847 -0.27301136 0.1808738 0.024646595
-0.08898706 0.26956064 0.16098277 -0.2900081 -0.058251034 0.21783721 0.1845838 -0.24841253
0.10993836 0.14298351 0.05772831 0.14905396 -0.062693246 0.2000148 -0.109308355 -0.020808721
0.3476576 0.12674183 0.22016674 -0.17638542 -0.18445621 -0.23727082 -0.1265067 0.08705466
0.009543054 0.13054267 -0.15664834 0.2847322 -0.0051605916 -0.0806844 -0.13551025 0.0144422995
-0.026765978 0.22904131 0.3539488 -0.1903379 -0.22484377 -0.28687537 -0.015697865 0.33990747
0.012222082 -0.028310502 0.0849251 0.34121335 0.06814869 -0.056368366 -0.32511988 -0.05012249
-0.23799038 -0.10959694 0.17634429 -0.057674807 -0.19011748 0.1833014 0.12252689 -0.1274639
-0.30550137 0.13776611 0.24754034 -0.089473955 -0.2404407 0.29668218 -0.2710628 0.29888466
-0.12743863 -0.016448837 0.28220224 0.32019123 0.1811438 -0.3173848 -0.35257083 0.1826661
0.14179356 0.30158755 0.1882384 -0.36483997 -0.021234686 -0.22315484 -0.14530589 0.24705248
-0.056613557 0.20298961 -0.107459575 -0.12785858 0.174737 -0.024605064 0.07067269 0.3018046

decoder.0.weight f4 [16, 32, 3]
00000000: 6db2 0bbc c390 973d 0993 0bbc f56d 26bd
00000010: 33c1 6bbd 10ed a23d ea5b 7b3d 9ad1 243c
00000020: 1c0d bcbd c57f f0bd 394e 80bd 20ba 50bd
00000030: bf9c 163d dcb6 8cbd 7b9d 613d be84 4a3c
00000040: a576 98bd acec b63d 6253 a5bd a839 293d
00000050: 43b6 92bc ca29 cf3c 89ce 9d3b 4552 633c
00000060: 3609 6c3d 7a82 9bbd 7b63 633d 6201 043c
00000070: b02c e1bd 42da 183d a23d 97bd 8335 cf3d
00000080: 6668 f53a b8c0 e03d 0f60 a33d 6897 a6bd
00000090: 6318 763d bfc6 4a3d 2f63 d9bc bccb 6f3d
000000a0: 5776 f2bc 0223 003c 2431 593d 38a0 623d
000000b0: 32be a6bd 81e6 c53d 492f f23d d661 ea3d
000000c0: fe8c 1fbd 770f 54bd 8425 c6bd 12ba 813d
000000d0: 4d16 e93d f815 7abd 40c4 cebd 571e 56bd
000000e0: 0e21 9d3c 0175 443b aa34 8fbc 56e3 bdbc
000000f0: 4cbf f0bc fa55 8cbd e670 c13d d4ee 7fb9
00000100: e823 82bd c6f7 93bd 9254 a23d 26c0 bd3d
00000110: 422b 403d a62d adbb da83 b13d 85f3 6f3d
00000120: 922c 43ba 6b56 9bbc 40df ebbb a0e9 dd3c
00000130: ebc1 a93d cbf7 0ebd 3274 963d 9fa3 b33d
00000140: f8cd 3a3d fbd5 093d fc29 973d 1df6 113d
00000150: cdaf 58bd 4d6c 353d 7e82 a03d 3be1 fb3c
00000160: cdfd 1fbd 4861 39bc 443e 573d 9b9d 8b3d
00000170: 5f2e aa3d 7d10 0cbd 419b 543d 87c2 a03c
00000180: f3f0 ef3c b5e2 b23d 0289 09bc 046d 833d
00000190: 1abd a6bd b223 edbc 7cf0 283d 3c2c 983d
000001a0: 1e54 713d dd5b 0b3d 653b 9fbd d752 913d
000001b0: d230 abbc 331f 3c3d f5e2 b93d 45a1 85bd
000001c0: f313 1e3d 7953 86bc e296 7bbd fe5b 90bd
000001d0: 0aa2 f5bc 1f69 a7bd ab37 413d 600c 27bd
000001e0: 8142 adbd 4fbf 8cbc 1f0d 4a3d 25e3 cabd
000001f0: 7d46 fcbc e9be e6bd eed1 073d ce50 73bd
00000200: fc7a 233c b46a 8d3d 1018 67bd efe7 e03d
00000210: d652 ca3c c30d af3d 0375 5bbd a7a4 b5bd
00000220: 5c31 f2bd 3121 a13c 145a 9cbd 1136 4e3d
00000230: 0813 97bb 22a7 1ebd b65c 853d 3b40 6d3d
00000240: cbfa c13d 612b af3c a362 6dbd 9776 48bc
00000250: 08aa cdbd 6d16 67bc debc a9bd bbcd 523c
00000260: b8db 4fbd 577e d63c 679e 9abd ee47 ac3d
00000270: 239c bf3d bad2 8fbd 4f0c 87ba efb3 c8bc
00000280: b657 b8bd ad60 b4bd 936d 33ba 70c6 913c
00000290: fc11 143d ab67 b2bd 0345 ad3d 5b4e 83bd
000002a0: bcd7 763d f038 633c 658b 763d 1c61 bebd
000002b0: e067 00bd 46ed 72bc cd04 67bd 4594 42bd
000002c0: 12d0 b1bd 4c92 92bd f4b5 e1bd 7ea9 57bd
000002d0: c36e 253d 93ae e9bb c118 36bd 2343 9bbc
000002e0: a538 78ba 89eb 133d 133a 403d 17c2 42bc
000002f0: b5b2 4c3d 9e11 6bbd db6f ddbd 3987 40bd
00000300: 4656 cb3d 4769 d23d 3ee3 4a3d 7254 13bd
00000310: 4c89 4bbd 1671 ddbd e075 3b3c f6d4 00bd
00000320: a698 983b bd8f aabd d3ea 9dbd 7507 bfbd
00000330: 6150 413c bca2 94bc cf04 7f3d 7a5d 99bd
00000340: dc16 503d c28f e23d 834a 1e3d c8a2 bd3d
00000350: e4b0 94bb 7bd4 93bd 3242 603a 8e67 a8bc
00000360: c093 9cb8 5ad4 25bd dcca a23d 0465 2cbd
00000370: f8fe f13d cd26 153d be41 5a3c 968e 8b3d
00000380: d20c 0b3d b97e 9bbd b831 9cbd bbc8 3cbc
00000390: 574b 9dbd 2e7c bdbb cf8d d7bd a59c 0fbd
000003a0: 0d3c 8e3c 5948 0d3d 3466 9f3d bc61 aa3d
000003b0: d9a2 123d 09cf d03d fbfb 593a 8956 c63d
000003c0: e3d8 9cbd 9aa6 b83d 0267 63bd 2bef a93d
000003d0: ae01 9f3d 6c4d 0c3d 94d3 013a 775e b2bd
000003e0: 76ac ac3b 9bf1 98bd 2aa8 00bd a65d 273b
000003f0: 1304 78bd 6a66 c0bc c990 d33c 6173 a6bd
-0.008526427 0.07400658 -0.008518943 -0.040632207 -0.057557296 0.07955372 0.061366953 0.0100597385
-0.09182188 -0.1174312 -0.0626492 -0.050958753 0.03677058 -0.06870815 0.055081826 0.01236075
-0.07444505 0.0893186 -0.08072545 0.04131475 -0.017909175 0.025288481 0.0048158807 0.013874595
0.05762597 -0.07593246 0.055514794 0.00805697 -0.109948516 0.037317522 -0.073848024 0.101176284
0.001872313 0.10974258 0.07977306 -0.08134347 0.06008185 0.049505945 -0.026536552 0.058543906
-0.029597444 0.0078208465 0.05302538 0.055328578 -0.081417456 0.09663106 0.11825425 0.11444442
-0.03895282 -0.05177256 -0.09675124 0.06334318 0.11381207 -0.061056107 -0.100960255 -0.052275028
0.0191808 0.0029976966 -0.017481167 -0.023179691 -0.029388092 -0.06852336 0.09445362 -0.00024407665
-0.06354505 -0.072249934 0.07926287 0.09265165 0.046916254 -0.0052849827 0.08667727 0.058581848
-0.0007445301 -0.018962106 -0.0071982443 0.02708894 0.0828894 -0.034904283 0.07346381 0.087714426
0.045606583 0.033651333 0.07381055 0.035635103 -0.05290203 0.044292737 0.078373894 0.030747047
-0.039060403 -0.011314698 0.052549616 0.0681717 0.08309626 -0.034195412 0.051905874 0.019624008
0.029289698 0.08734647 -0.008394482 0.064172775 -0.08141537 -0.028947685 0.04124497 0.07430312
0.05891811 0.034023155 -0.077750005 0.070958786 -0.020897303 0.04592819 0.09076492 -0.065249
0.038593244 -0.016397225 -0.06142319 -0.07048796 -0.029984493 -0.08174347 0.04717223 -0.040783286
-0.0845995 -0.017181067 0.04932892 -0.09906606 -0.03079533 -0.11266882 0.03315919 -0.059403233
0.009978052 0.06905118 -0.056419432 0.10981738 0.024697702 0.08547547 -0.053578388 -0.088692956
-0.11825821 0.019669147 -0.076343685 0.05034453 -0.004610423 -0.03873361 0.06511824 0.057922583
0.09471663 0.02138299 -0.057955395 -0.012235305 -0.100421965 -0.014104468 -0.08287977 0.012866433
-0.05074665 0.02618329 -0.07549744 0.08412157 0.093559526 -0.07022615 -0.0010303351 -0.024499862
-0.090011045 -0.08807502 -0.0006844636 0.017794818 0.036149964 -0.08711179 0.084604286 -0.064114295
0.060264334 0.013868555 0.06019153 -0.09295866 -0.031349063 -0.014827078 -0.056401063 -0.047504682
-0.086822644 -0.0715681 -0.11021033 -0.052651875 0.040388834 -0.0071314066 -0.0444572 -0.018952912
-0.000946889 0.036113296 0.046930384 -0.011887095 0.049975116 -0.057389848 -0.1081235 -0.04700396
0.09928565 0.10273986 0.04953312 -0.035969205 -0.049691483 -0.10812585 0.011441678 -0.031453095
0.004656869 -0.08328197 -0.07710805 -0.09327594 0.011798949 -0.018144004 0.062260445 -0.07488532
0.05080305 0.11062576 0.03864528 0.09259564 -0.0045376886 -0.07218262 0.0008554786 -0.020557191
-7.46618e-05 -0.040485717 0.079488486 -0.042088524 0.118162096 0.036413956 0.013321338 0.068143055
0.033947773 -0.0759253 -0.076266706 -0.011522467 -0.076803856 -0.0057826256 -0.10525095 -0.035061497
0.017362619 0.034492824 0.077831656 0.083194226 0.035799835 0.10195739 0.0008315441 0.09684474
-0.07658555 0.09016152 -0.055518158 0.08297571 0.07763992 0.034253523 0.0004952487 -0.08709424
0.0052695824 -0.074679576 -0.031410374 0.0025537997 -0.06055076 -0.023486335 0.025825875 -0.081274755

decoder.0.bias f4 [32]
00000000: 3be1 43bd 98c4 ea3c 5aef 64bd b0a8 b03d
00000010: cb26 eb3c 6a2e 2f3c 0562 6fbd 6948 25bc
00000020: c119 cfbd 142f 10bc 6754 a33d cc9e f6bb
00000030: 219e 80bc eee9 fb3c 714c 693c 3d31 193b
00000040: 278b 803d dd37 1cbc 0bf5 513d 3818 20bd
00000050: c9f1 61bd def1 833d 4410 29bd 7c26 183a
00000060: 398d d03c bf8d c63c 9943 87bd b862 463b
00000070: 9656 b93d 46d1 1dbd 0a28 543d c338 c13d
-0.04782222 0.028658196 -0.055892326 0.086259246 0.028705021 0.010692218 -0.058443088 -0.010088065
-0.10112334 -0.008800287 0.07975083 -0.0075262543 -0.015700402 0.030751195 0.014239416 0.0023375296
0.06276541 -0.009534803 0.05125908 -0.039085597 -0.055162225 0.06442617 -0.041275278 0.00058040745
0.025457965 0.024237512 -0.0660469 0.0030271243 0.09049718 -0.038529657 0.051795997 0.094346546

decoder.2.weight f4 [32, 16, 5]
00000000: b8c3 19bd a95a 82bc 81c6 bebd abb1 b1bd
00000010: bcfc c5bc 4192 4d3c 68ea c33c a784 cabc
00000020: 5188 88bd 5974 5e3d 6232 59bd 081c 93bc
00000030: b25f 86bc af03 f0bc 2e1b 7cbd e87e 493c
00000040: 8e56 e23d d68f 503d 3842 9f3c ff8b ccbd
00000050: c4c7 ccbd 90f8 4b3c 98c0 d43d c07c 96ba
00000060: 460d a03d 1005 b6bd 557f 943d ae84 f13d
00000070: 1173 afbd 8c40 d7bc 2cc9 b63d 9a3a d9bd
00000080: 196b 5dbc 5430 633d f2eb 7bbc 463b 833d
00000090: ee6c 193d 1518 983c bc4b d53c 9933 7c3d
000000a0: 7920 b5bd 9002 70bd e098 d5bd 0d66 f8bd
000000b0: ce2d 71bc f574 b9bd e8ed ab3c c882 4bbd
000000c0: 1068 523d 85f2 55bd 18b3 9c3d 7ae4 b53d
000000d0: b3b7 85bd de63 9bbc 60a5 5c3c f098 723c
000000e0: 3eff 33bd 2120 963d ecc5 29bc 6d64 c0bd
000000f0: b079 0cbd 360a 42bd 8b28 c7bd ab1a 0c3d
00000100: 2b1b 6f3c 38e8 f5bd 4063 813c d038 e03c
00000110: 1573 3b3d 0768 f4bd b42f c3bc bd58 62bd
00000120: 0680 93bd 235d 19bd 596c 88bc 2e80 a73d
00000130: 268e 883d 58d9 8b3d e520 703d 89ff 87bd
00000140: 2db1 c8bc 1569 af3d bd83 1cbd 0659 cb3d
00000150: 9c82 fb3b a9aa 5bbc f94a 4bbd a951 473d
00000160: 9ec6 fdbc 9a15 cdbc 648b 913c bc52 5b3d
00000170: be35 143d 84cb 8fbd bf22 4fbd 2181 27bb
00000180: 4442 afbd cd25 cfbd 5275 84bd 4a3d 6a3d
00000190: 1e6d e13d 1999 78bd 726e 173c fed8 cebc
000001a0: c310 febc 8567 39bd e7b4 65bc 8948 23bd
000001b0: 9254 79bc 3312 b63d 40e9 3fbd bc93 10bd
000001c0: 2f1a d83d 501f a6bd 989a cfbc e9cd de3d
000001d0: 7c7a e5bd 3b96 143d 7e9e 3e3c 721e c23d
000001e0: 4624 bfbd 5e3e b4bd 6de3 fc3d 2149 4d3d
000001f0: 09d9 f33d 66da f9bc 4644 42bd 7e13 3cbd
00000200: 1458 cf3d c2d6 e2bd afba 373d d9a2 b93d
00000210: f819 c7bd 0763 a0ba c3cc a83d 343f 203d
00000220: d16b 5e3c 9b82 7bbc cac0 e5bc c070 a1bc
00000230: 798d abbb 58ea cb3c ded2 813c 84c1 d43c
00000240: 8cca 663d 119f 0a3b c7ee 743d b699 af3d
00000250: 81b5 1dbd c8b2 9c3d 4aa7 743d 8066 303b
00000260: 8d9d 8a3d f9ed c93d 04cb 38bd e981 92bd
00000270: 2865 b73c a836 dc3c c0d3 d83c 286d 353d
00000280: fc47 833d 6d4b 863c c863 a53d 7fe2 3c3b
00000290: 88e1 ae3d 5a46 20bd 6814 ab3d 86e3 26bd
000002a0: 808b e4bd 164b d1bd 03c6 a23d c511 09bd
000002b0: 7358 803d 8074 443d 3f2d 54bd 4aac c43d
000002c0: b8ac 1fbc 9c74 353d f122 b1bd 5adc 003d
000002d0: 695c 1abc fd85 bb3d ebac b2bc aa10 91bd
000002e0: f660 a23d 1724 f1bc d8d4 9f3a a579 b5bd
000002f0: ed1e d63d f251 bb3a 9c1f 903d 718b d2bd
00000300: 61e6 5d3d d04a 89bd 6a17 d2bd 0de3 b2bd
00000310: 5774 003e 0a9c 323c 4e21 2ebd 5586 603d
00000320: fe69 a6bc 01c7 2b3c 8d35 e3bd 457f 9c3d
00000330: e77b 433d 38cf 6abc c25c 66bd d87e a43d
00000340: 2abd 8d3d 866a 873d b08c 6f3d 8bc2 94bd
00000350: 105e 593d b9dc c13d 981e af3c 55b3 963c
00000360: 17f3 c2bd c88b 43bc 18c3 783d a819 243b
00000370: 3053 813d 0094 acbd c32c d13d 569c be3d
00000380: 9053 fabc a33a fb3d dfb9 8ebd cbff eb3d
00000390: 8f0a 823d 664e 2cbd 29e1 e23d 90de 8e3d
000003a0: b2b5 5abd 7aa1 b8bd 79ee 2ebb 3ec9 953d
000003b0: 8cd3 1d3d 004e 9aba c745 943d 464c b73d
000003c0: 15e0 42bc 2252 1f3d 106d 3dbd f2f2 0b3d
000003d0: da6a d83d ee3f d53d 3837 c4bc fa19 5dbd
000003e0: 31e1 98bd 4d13 ccbd 03c2 fbbc 62f7 d6bd
000003f0: 1709 88bd f121 f1bd 83fe 733c 6b82 b0bd
-0.037540168 -0.01591237 -0.09315205 -0.086764656 -0.024168365 0.012547077 0.023915485 -0.024721457
-0.06666625 0.054310177 -0.053026564 -0.017957702 -0.016403053 -0.029298631 -0.061549358 0.012298323
0.11051665 0.050918423 0.019440755 -0.0998764 -0.0999904 0.012449399 0.10388297 -0.001148127
0.07815032 -0.08887684 0.07250849 0.11792885 -0.08566869 -0.026275896 0.08925089 -0.106068805
-0.013514304 0.05546601 -0.015376078 0.0640779 0.0374574 0.01856617 0.02603709 0.061572645
-0.08844084 -0.058596194 -0.10429549 -0.1212884 -0.014720393 -0.09055511 0.020987466 -0.04968527
0.051368773 -0.052233238 0.07651347 0.08881469 -0.065291785 -0.018968519 0.013467163 0.014806971
-0.04394459 0.07330347 -0.01036213 -0.09394155 -0.034295738 -0.04737302 -0.0972453 0.03420512
0.01459388 -0.12007183 0.015794396 0.02737084 0.045764048 -0.11933904 -0.023826458 -0.05526041
-0.07202153 -0.037442338 -0.016653227 0.08178745 0.06667738 0.068285644 0.05862512 -0.06640536
-0.024498546 0.08564965 -0.038211573 0.09929089 0.007675482 -0.013407388 -0.049632046 0.04866186
-0.030978497 -0.025034714 0.017766662 0.0535457 0.036184065 -0.070212394 -0.050570246 -0.0025559145
-0.08557561 -0.10114632 -0.064676896 0.057187356 0.110071406 -0.06069288 0.009242641 -0.025249954
-0.031013852 -0.04526474 -0.014020181 -0.039864097 -0.015217917 0.0889019 -0.046853304 -0.03529714
0.10551869 -0.08111441 -0.02534227 0.10879118 -0.11205003 0.036276083 0.011634467 0.09478463
-0.093330905 -0.08800958 0.123480655 0.05011857 0.119066305 -0.030499648 -0.047428392 -0.045917027
0.101242214 -0.11076118 0.04485577 0.09064264 -0.0972175 -0.0012236544 0.0824218 0.039122775
0.01357551 -0.015350963 -0.02804603 -0.019707084 -0.0052353707 0.024892017 0.01584762 0.025971182
0.056345508 0.002115194 0.05979803 0.0857424 -0.038503174 0.07651287 0.05972985 0.0026916564
0.06768332 0.09859843 -0.045115486 -0.07153685 0.022387102 0.02688153 0.026468158 0.044293553
0.06410214 0.016393388 0.080756724 0.0028821526 0.085391104 -0.039129592 0.083535016 -0.040744327
-0.1115942 -0.102194 0.07947924 -0.033464212 0.0626687 0.047962666 -0.051800963 0.09603174
-0.009745769 0.04430066 -0.08649243 0.031460144 -0.009421446 0.091564156 -0.02181097 -0.070832565
0.0792865 -0.029436154 0.001219417 -0.088610925 0.104551174 0.0014291389 0.07037279 -0.102805026
0.054174785 -0.067037225 -0.10258372 -0.08734713 0.1254438 0.01090146 -0.04251223 0.05481561
-0.020314213 0.010484458 -0.110941984 0.07641462 0.047725584 -0.014331631 -0.056240804 0.08032006
0.06920846 0.066121146 0.05848378 -0.072636686 0.05306822 0.09465928 0.021376893 0.018396059
-0.09519022 -0.011935182 0.06073293 0.0025039706 0.06314695 -0.08426666 0.10213616 0.093071625
-0.030557424 0.122670434 -0.06969046 0.11523398 0.0634967 -0.042066954 0.11078102 0.06976044
-0.053395934 -0.09015174 -0.0026692434 0.073137745 0.038531825 -0.0011772513 0.072398715 0.08950095
-0.011894246 0.038896687 -0.04624659 0.034167238 0.10567255 0.10412584 -0.023952112 -0.05397985
-0.07464827 -0.09964619 -0.03073216 -0.10496403 -0.06642359 -0.11774052 0.014892223 -0.08618625

decoder.2.bias f4 [16]
00000000: 3cbf d43d 498c 8bbd e8b0 13bd 59dc b1bd
00000010: 25bf c9bd 1ad5 453b 5181 fc3b 2bb5 8c3d
00000020: da05 9b3d d0b3 a3bd 77a9 56bd 2ea0 933d
00000030: 15ef 7bbd 2577 7b3d ad56 f7bc 3fc9 e0bd
0.103880376 -0.06813867 -0.036057383 -0.08684606 -0.09850911 0.0030186833 0.0077058454 0.068704925
0.075694755 -0.07993281 -0.052407708 0.07208286 -0.061507303 0.061392922 -0.030192697 -0.10975885
