data/models/autoencoder_epoch_30.pt (torch, 66986 bytes, 15 tensors)

encoder.0.weight f4 [16, 1, 5]
0	0xbe5f5003	-0.21807866
1	0xbd460306	-0.048342727
2	0xbe16a9cc	-0.1471321
3	0x3ebd8ea0	0.37022877
4	0x3ec2c17f	0.3803825
5	0xbe2793b0	-0.16364932
6	0x3d04a398	0.032382578
7	0xbed6280a	-0.41827422
8	0x3e92b822	0.28656107
9	0x3d5211f0	0.051286638
10	0xbedbb8e4	-0.42914498
11	0xbe3e2cd8	-0.18571794
12	0x3d93d088	0.072175086
13	0xbe91eb24	-0.2849971
14	0xbe1d3bda	-0.15354863
15	0x3ebc91e5	0.3683006
16	0xbe21e456	-0.1580976
17	0x3e9eb635	0.30998388
18	0xbcedaf30	-0.0290142
19	0xbec4999b	-0.38398442
20	0xbe4d1de4	-0.20030934
21	0x3d50af90	0.05094868
22	0xbeb3b5db	-0.35099682
23	0xbed609b8	-0.4180429
24	0x3eaa7e86	0.33299655
25	0x3e46194c	0.19345587
26	0xbea43eba	-0.32079107
27	0xbec5dd9e	-0.38645643
28	0x3eca6024	0.39526474
29	0xbdc29530	-0.095011115
30	0xbcc9c2d5	-0.024629036
31	0x3ea47945	0.3212377
32	0x3e1c8dc5	0.15288456
33	0x3d5465be	0.05185484
34	0xbe781ad2	-0.24228981
35	0x3ec8f68b	0.39250597
36	0x3e0eadd7	0.13933502
37	0x3edac3db	0.4272755
38	0xbea869e4	-0.32893288
39	0x3eedcd08	0.4644549
40	0x3cb41668	0.02198334
41	0x3e7c82c1	0.24659254
42	0x3e7e49f2	0.24832895
43	0x3e408b6b	0.18803184
44	0xbe7fc32e	-0.24976799
45	0xbe5633b9	-0.20918168
46	0x3ed0c82a	0.40777713
47	0xbebdad72	-0.3704639
48	0xbecef89f	-0.40424058
49	0xbe0cd66e	-0.13753673
50	0x3eaf5a93	0.3424879
51	0x3e811dfa	0.25218183
52	0x3e87b27b	0.26503357
53	0x3ee79414	0.45230162
54	0x3d329fc1	0.043609384
55	0x3e6f65c4	0.23378664
56	0x3ea40b0c	0.32039678
57	0x3e09d346	0.134595
58	0xbe18ff0b	-0.14941041
59	0xbe4f9564	-0.20271832
60	0x3d86eee7	0.06588536
61	0xbdab31a5	-0.08359078
62	0x3eeb7f71	0.45995668
63	0xbe5bcd12	-0.21464947
64	0x3ec37b3d	0.3817996
65	0x3ec31be2	0.3810721
66	0x3e355d64	0.17711407
67	0x3e98f531	0.29874566
68	0xbe1e5eb1	-0.1546581
69	0x3e9ff09f	0.31238267
70	0xbeb0e206	-0.34547442
71	0x3d400820	0.04688275
72	0xbd9f8210	-0.07788479
73	0xbd521e40	-0.05129838
74	0x3ea8c16a	0.32960063
75	0xbcf3ecbe	-0.029775973
76	0x3ea19822	0.3156138
77	0xbeb4eb88	-0.35335946
78	0x3e9d8377	0.30764362
79	0xbdddab16	-0.10823648

encoder.0.bias f4 [16]
0	0x3dd6a280	0.10480213
1	0xbec99929	-0.39374664
2	0x3eac977c	0.33709323
3	0xbec15ea0	-0.37767506
4	0xbebb289b	-0.36554417
5	0xbeca40e7	-0.39502642
6	0xbe952b54	-0.2913462
7	0x3dbc1188	0.09183031
8	0xbec100e4	-0.37695992
9	0xbeac6959	-0.33674124
10	0x3e680ee0	0.22661924
11	0x3de65f38	0.1124863
12	0x3e737f90	0.2377913
13	0x3eebad5d	0.46030703
14	0xbee3c564	-0.44486535
15	0x3d2ff150	0.042954743

encoder.3.weight f4 [32, 16, 5]
0	0xbdce4362	-0.10071446
1	0x3c27e45b	0.010247315
2	0x3d5a002a	0.053222813
3	0x3cd64534	0.026156045
4	0x3c2ecbda	0.010668719
5	0xbd49771a	-0.04918585
6	0xbd1d33d0	-0.03837949
7	0x3d76c8dc	0.06025015
8	0x3dd4f280	0.10397816
9	0x3bbfb570	0.0058504865
10	0x3ddfb79f	0.10923695
11	0x3debb4f5	0.11509124
12	0xbc62559d	-0.013814357
13	0xbd53a304	-0.051669136
14	0xbdcf54ba	-0.10123582
15	0xbdc2095e	-0.09474443
16	0x3d0bdbcc	0.03414516
17	0xbd129b98	-0.035792917
18	0x3dc8bcec	0.09801659
19	0x3a223480	0.00061876327
20	0x3a261780	0.0006335899
21	0xbcd9e2c4	-0.026597388
22	0x3ddbb040	0.107269764
23	0xbb10f640	-0.0022119433
24	0xbdbe1eb9	-0.09283204
25	0xbd73fbef	-0.059566434
26	0x3dc2b6b4	0.09507504
27	0x3dc5c0e6	0.09655933
28	0xba8670c0	-0.0010256991
29	0x3d56c004	0.052429214
30	0x3d09e778	0.03366801
31	0x3d7ed3d4	0.062213734
32	0xbd8298fd	-0.063768364
33	0xbcc496ae	-0.02399763
34	0xbd277175	-0.040879685
35	0xbc22c4b5	-0.009934594
36	0x3bad6fe9	0.0052928817
37	0xbcc2d2b3	-0.02378211
38	0x3d6e8f2c	0.058242008
39	0x3d4b4348	0.04962471
40	0xbdcd71b8	-0.10031456
41	0x3da2edd2	0.07955517
42	0x3dc92f16	0.09823434
43	0x3d30ba46	0.043146394
44	0x3c57eb9a	0.01317873
45	0x3d2478dc	0.040154323
46	0x3dc53b7c	0.09630486
47	0x3d284da8	0.041089684
48	0xbd85de6e	-0.06536566
49	0x3d685304	0.056719795
50	0xbd858902	-0.06520273
51	0xbcb3968c	-0.021922372
52	0xbd5dd210	-0.05415541
53	0xbcac3944	-0.0210234
54	0x3d0e8c99	0.034802053
55	0x3dcd9c60	0.10039592
56	0xbdb16673	-0.08662119
57	0xbc119282	-0.008885028
58	0xbd802b35	-0.06258241
59	0x3dbdf313	0.09274878
60	0x3ced2a65	0.02895088
61	0xbdae0f6c	-0.08499035
62	0x3cd3443b	0.02578937
63	0x3d9af1ac	0.075656265
64	0x3d1e5894	0.038658693
65	0xbc4f423e	-0.012650071
66	0xbd353cdc	-0.044247493
67	0x3e02ad22	0.12761357
68	0xbd5518f1	-0.05202574
69	0x3d82b39a	0.063819125
70	0xbd6fa96e	-0.05851119
71	0xbcf1aaf0	-0.029500455
72	0xbdd538b2	-0.104112044
73	0x3d9089ec	0.070575565
74	0xbd244bf0	-0.040111482
75	0x3d023a46	0.031793855
76	0xbb9c041a	-0.004761231
77	0xbd881434	-0.066444784
78	0x3d90dc8e	0.070733175
79	0xbda55829	-0.08073456
80	0x3e0ec954	0.13943988
81	0xbd5381ce	-0.051637463
82	0x3d019e0d	0.03164487
83	0x3d8bfbaf	0.06835114
84	0x3b7d3b6e	0.003864016
85	0x3d2805a8	0.04102102
86	0xbd7c9c8d	-0.061672736
87	0xbdd721d8	-0.10504502
88	0x3dcbfc8e	0.0996028
89	0xbc8cb794	-0.01717738
90	0xbc012f64	-0.007884834
91	0x3c0a3f08	0.008437879
92	0xbcfeda55	-0.031109968
93	0x3df0d347	0.11759048
94	0x3df7bd36	0.12096636
95	0xbdc08d9c	-0.0940201
96	0xbd9be38d	-0.07611761
97	0xbbebe314	-0.0071987007
98	0xbd9fb28e	-0.077977285
99	0xbdd4d004	-0.10391238
100	0xbca69ed8	-0.020339414
101	0xbd2802c0	-0.041018248
102	0xbc787a28	-0.015165843
103	0x3c82e3b0	0.01597771
104	0xbdb20f1b	-0.086942874
105	0x3cb3af50	0.021934181
106	0x3d6f549c	0.0584303
107	0x3d354120	0.04425156
108	0x3dcb41c6	0.09924655
109	0x3d2de95c	0.042458877
110	0x3d6cb1ba	0.05778668
111	0x3c9942e3	0.018708652
112	0xbc878f84	-0.016547926
113	0xbc466108	-0.012108095
114	0xbd686b36	-0.05674287
115	0xbd911475	-0.0708398
116	0x3dc8717a	0.09787269
117	0xbcc1be51	-0.02365032
118	0x3d998144	0.074953586
119	0xbd1adae3	-0.037806403
120	0x3b450f92	0.0030069095
121	0x3d231b54	0.039820984
122	0xbc4204d3	-0.0118419705
123	0xbc1ea33f	-0.009682476
124	0xbd8cbe82	-0.06872274
125	0x3db155a4	0.08658913
126	0xbcc829c4	-0.024433978
127	0xbd4c7ca1	-0.049923543
128	0x3db4e7d6	0.08833282
129	0x3b97f0e0	0.004636869
130	0xbc30c882	-0.010789992
131	0xbd95f211	-0.07321561
132	0xbcd72fa3	-0.026267832
133	0x3dfb7e86	0.12279992
134	0xbda3d205	-0.079990424
135	0x3d43e6a9	0.047827397
136	0x3de80d78	0.11330694
137	0xbc9241c0	-0.017853618
138	0xbdb5f571	-0.08884705
139	0xbccdd0c5	-0.025123963
140	0xbd78bb5c	-0.060725555
141	0x3da2cbd8	0.07949036
142	0x3dd2b0bd	0.102876164
143	0x3df73a1e	0.12071632
144	0x3c44ad02	0.012004139
145	0x3d28655e	0.041112296
146	0x3dc3c559	0.095591255
147	0x3d2acfad	0.04170196
148	0xbdafd622	-0.085857645
149	0xbd6e0866	-0.058113478
150	0xbd2a30c4	-0.041550413
151	0x3d2f1edc	0.04275404
152	0xbd9637aa	-0.07334836
153	0xbd54384a	-0.051811494
154	0x3c7def60	0.015498966
155	0xbd8764f9	-0.06611056
156	0xbd724648	-0.059149057
157	0xba965a4b	-0.0011471001
158	0x3dd2b0e7	0.10287648
159	0xbd2b102f	-0.04176348
160	0xbd67de1f	-0.056608316
161	0xbda60c7a	-0.081078485
162	0xbd15f701	-0.036612514
163	0x3dc5dbc1	0.09661055
164	0x3c1cf1f3	0.00957917
165	0x3d5885b8	0.0528619
166	0x3d1a19c4	0.03762223
167	0xbd972731	-0.07380522
168	0x3d9cd69c	0.07658121
169	0x3dc956da	0.09831019
170	0x3b092594	0.002092694
171	0x3da134ce	0.078714
172	0x3d834b9f	0.06410908
173	0xbccc4318	-0.024934337
174	0x3d14dbfb	0.036342602
175	0xbc62e31d	-0.013848093
176	0xbd28c0ed	-0.041199613
177	0xbde4e36e	-0.11176191
178	0xbd8cefcd	-0.06881676
179	0xbdcadbba	-0.09905191
180	0xbabd8900	-0.0014460385
181	0x3acd3f00	0.0015659034
182	0x3d8fbed2	0.07018818
183	0x3d74b8c4	0.05974652
184	0xbce20eb8	-0.02759491
185	0xbdaa1cb7	-0.08306258
186	0xbdae3713	-0.08506598
187	0x3dc56574	0.09638491
188	0x3c48bb30	0.01225166
189	0xbca2d6b4	-0.019877769
190	0x3db5f9cd	0.08885536
191	0x3d2b8f60	0.04188478
192	0xbdb244c1	-0.0870452
193	0xbd164540	-0.036687136
194	0x3dc9539d	0.09830401
195	0x3b7b5c6a	0.0038354644
196	0x3c94b65d	0.018153364
197	0x3de57545	0.11204008
198	0x3db7dd92	0.08977808
199	0x3db89578	0.09012884
200	0x3d001d39	0.03127787
201	0xbd46c22a	-0.048525013
202	0x3da36b3c	0.07979438
203	0xbc38a850	-0.011270598
204	0xbdb38982	-0.08766462
205	0x3cdfc670	0.027316302
206	0x3baa0e90	0.0051897243
207	0xbc054b58	-0.008135639
208	0xbd961123	-0.07327487
209	0x3d9c8e3c	0.076443166
210	0x3dbb9725	0.09159688
211	0xbc15107f	-0.009098171
212	0x3dad425d	0.084599234
213	0xbcb052de	-0.02152389
214	0xbd7a000b	-0.061035197
215	0x3ccec597	0.025240703
216	0x3d7a49fe	0.06110572
217	0xbd299b2c	-0.04140775
218	0x3e02d05e	0.12774798
219	0x3a76f280	0.00094202906
220	0x3de37530	0.11106336
221	0x3d7d086e	0.061775617
222	0xbd5280f9	-0.05139253
223	0xbd9d65d2	-0.07685436
224	0x3d89e68c	0.067334265
225	0x3dfb79fa	0.122791246
226	0x3d3898c0	0.04506755
227	0xbd2a8353	-0.041629147
228	0x3dc0c574	0.09412661
229	0x3ddd9569	0.10819513
230	0x3cf9b310	0.030480891
231	0x3d5861ec	0.05282776
232	0xbd3d6b9c	-0.046245202
233	0x3ab81040	0.0014042929
234	0xbdc90845	-0.098160304
235	0xbd78f5ab	-0.060781162
236	0x3d8d6d3c	0.069056004
237	0x3e00cb4a	0.12577549
238	0xbcec9504	-0.02887965
239	0xbd06b050	-0.03288299
240	0xbde19c91	-0.11016191
241	0xbd4788cd	-0.048714448
242	0x3dbfa367	0.093573384
243	0xbd4f0fed	-0.050552297
244	0xbc8f24a3	-0.017473524
245	0xbd48c590	-0.049016535
246	0x3da6d3d8	0.08145875
247	0xbd6bcbf8	-0.057567567
248	0xbd19c100	-0.037537575
249	0x3d8094b2	0.062783614
250	0x3db07110	0.08615315
251	0x3c466c31	0.012110756
252	0x3d3a9d2b	0.045560043
253	0xbdd3178d	-0.10307226
254	0x3d5e53d1	0.054279152
255	0x3c9584f2	0.01825187

encoder.3.bias f4 [32]
0	0x3d2f9c13	0.042873453
1	0x3de9018c	0.11377248
2	0x3d51fcbc	0.051266417
3	0xbcd6fc0c	-0.026243232
4	0x3c7abb40	0.015303433
5	0x3c9a5541	0.01883948
6	0xbd0b797e	-0.03405141
7	0xbd473c89	-0.048641715
8	0x3de42dec	0.111415714
9	0xbd56b4f7	-0.052418675
10	0x3c8cbfab	0.017181238
11	0xbd2f9306	-0.04286482
12	0xbda52471	-0.08063591
13	0xbc632faa	-0.0138663445
14	0xbd8a6103	-0.06756785
15	0xbd526a64	-0.051370993
16	0x3db96990	0.090533376
17	0xbce11884	-0.02747751
18	0x3d6a658b	0.057225745
19	0xbcb765c2	-0.02238739
20	0x3d5a9502	0.05336476
21	0x3d49457d	0.049138535
22	0x3de60eea	0.112333134
23	0xbdc5e652	-0.09663071
24	0xbd2bb9d0	-0.04192525
25	0xbcc4726c	-0.023980342
26	0xbc83c093	-0.016083037
27	0x3b11f1b8	0.002226932
28	0x3dae4ee0	0.08511138
29	0x3da0e7dc	0.07856724
30	0x3dd10e14	0.10207763
31	0xbdc37ca7	-0.0954526

encoder.6.weight f4 [16, 32, 3]
0	0x3da1b3fe	0.07895659
1	0xbd70ab02	-0.058756836
2	0x3d95bb10	0.0731107
3	0xbc8100fb	-0.015747538
4	0x3deb586f	0.11491477
5	0xbd8236bc	-0.06358096
6	0xbcaa74b4	-0.020807602
7	0x3e07fd41	0.13280202
8	0x3dca6a54	0.09883562
9	0xbd3ddd87	-0.046353843
10	0xbd93c538	-0.07215351
11	0x3d479358	0.048724502
12	0xbdafae86	-0.085782096
13	0x3c11ea60	0.008905977
14	0x3da1604a	0.07879694
15	0x3cba2187	0.022721065
16	0x3d93e052	0.0722052
17	0x3cd3b25e	0.025841888
18	0x3c98ec92	0.018667493
19	0x3d1d028e	0.038332514
20	0x3dc8b909	0.09800918
21	0x3c9cff84	0.019164808
22	0xbc6b0a79	-0.014345759
23	0x3c9e1446	0.019296777
24	0x3ca86ccd	0.020559693
25	0x3dda1586	0.106486365
26	0x3df00d4c	0.11721286
27	0x3c5fafc0	0.013652742
28	0x3dcba3c7	0.099433474
29	0x3cf42f68	0.029807761
30	0xbd4377be	-0.047721617
31	0xbcd21bd8	-0.025648043
32	0xbd6e81fd	-0.058229435
33	0x3cc4baf0	0.02401492
34	0x3d94d11c	0.07266447
35	0xbdc434c4	-0.09580377
36	0xbbd61310	-0.006533034
37	0xbdb461d7	-0.08807724
38	0x3ccd9018	0.025093123
39	0xbd2a9779	-0.04164836
40	0xbd70fd83	-0.058835518
41	0x3d9ee87f	0.07759189
42	0x3db115c3	0.08646729
43	0x3cec92e0	0.02887863
44	0xbc530cb5	-0.012881448
45	0xbd0be982	-0.034158237
46	0xbd37c802	-0.044868477
47	0xbd8e0e57	-0.06936329
48	0x3abe0607	0.0014497646
49	0x3d743bc5	0.059627313
50	0x3d7bc284	0.0614648
51	0x3d91282a	0.07087739
52	0x3ca34648	0.019930974
53	0x3d8181e6	0.06323604
54	0x3d9eb29b	0.0774891
55	0xbcc6119b	-0.024178317
56	0x3d454490	0.04816109
57	0xbd792c3e	-0.06083321
58	0x3dfa84fb	0.12232395
59	0xbc52c4d8	-0.012864314
60	0xbc10f4bc	-0.008847412
61	0xbcf63444	-0.030054219
62	0x3d90fd25	0.070795335
63	0xbd993af7	-0.0748195
64	0xbd76bb85	-0.060237426
65	0x3c4c1254	0.012455542
66	0x3c30a00a	0.010780344
67	0x3b007f92	0.0019607288
68	0x3d4ad0b6	0.04951545
69	0xbd7d75c9	-0.061879907
70	0xbd31964d	-0.04335623
71	0xbdcf6da9	-0.10128338
72	0xbda5b5d4	-0.080913216
73	0xbd1fd85c	-0.039024696
74	0x3d100b98	0.035167307
75	0x3b5fadc0	0.0034130663
76	0xbd300cca	-0.042980947
77	0xbd8ffe8c	-0.07030973
78	0x3e031268	0.1279999
79	0x3dc4b359	0.0960452
80	0x3cda8bb4	0.026677944
81	0xbd2c31b9	-0.042039607
82	0x3da128b2	0.0786909
83	0x3e060e35	0.13091357
84	0x3ddeb679	0.10874648
85	0x3cc7243c	0.02430927
86	0x3da40190	0.080081105
87	0x3cb8f1fa	0.02257632
88	0xbb2fad26	-0.0026806085
89	0x3dc5f301	0.0966549
90	0xbd09e406	-0.033664726
91	0x3db7831d	0.08960555
92	0xbc915d19	-0.017744588
93	0x3da0e90e	0.07856952
94	0x3d13695f	0.03598916
95	0xbd0cb3e7	-0.034351256
96	0x3db425ba	0.08796258
97	0xbd449820	-0.04799664
98	0x3daac5fa	0.08338542
99	0xbd0a1c92	-0.033718653
100	0xbd852829	-0.065018006
101	0x3cf71220	0.03016001
102	0xbc841714	-0.016124286
103	0xbd873660	-0.06602168
104	0xbd74220b	-0.05960278
105	0xbd2bb014	-0.041915968
106	0x3cbe6848	0.023243085
107	0xb904be00	-0.00012659281
108	0x3cd12428	0.025529936
109	0x3d830bfa	0.06398769
110	0x3d6d0748	0.057868272
111	0x3d949576	0.0725507
112	0xbcda40c4	-0.02664221
113	0x3dbb3f14	0.091428906
114	0xbd78a81b	-0.060707193
115	0xbd958e27	-0.07302504
116	0x3cefd608	0.029276863
117	0x3db774be	0.08957814
118	0xbcc1a5c0	-0.023638606
119	0x3db9e4dc	0.090768546
120	0xbdb6d113	-0.089265965
121	0xbc042a00	-0.008066654
122	0xbd755e18	-0.059904188
123	0x3c9613a4	0.018319912
124	0xbd24d87d	-0.04024552
125	0x3d8ac894	0.067765385
126	0xbd56c46b	-0.052433413
127	0x3d7b5ed4	0.061369732
128	0xbd2cd2a9	-0.04219309
129	0x3d8327ac	0.06404051
130	0xbd279f91	-0.04092366
131	0xbdb16748	-0.086622775
132	0xbdafd83a	-0.08586164
133	0x3bcc45c0	0.006233901
134	0x3dce5c6a	0.1007622
135	0x3ceb7dd0	0.028746516
136	0xbcda8a04	-0.02667714
137	0xbc3cb828	-0.011518516
138	0xbdb9ac94	-0.0906612
139	0x3da45926	0.08024816
140	0xbd312217	-0.0432454
141	0xbd56248d	-0.05228095
142	0xbc32b380	-0.010907054
143	0xbd430a2f	-0.047617134
144	0xbcd3dfa4	-0.025863476
145	0xbd11a58c	-0.03555827
146	0xbc9a7558	-0.018854782
147	0x3cf267b8	0.029590473
148	0xbcd84884	-0.026401766
149	0x3d169400	0.036762238
150	0x3dac9a6e	0.084278926
151	0xbd1f9118	-0.03895673
152	0xbcae7a98	-0.021298692
153	0x3d2d306c	0.042282507
154	0x3d96379a	0.07334824
155	0x3d950e16	0.07278077
156	0xbd3f9541	-0.0467732
157	0xbd07ec30	-0.03318423
158	0x3d388edc	0.045058116
159	0x3dbde986	0.09273057
160	0xbd6bbbf4	-0.057552293
161	0xbd7219cf	-0.059106644
162	0x3dcc89d4	0.09987226
163	0xbdb699cf	-0.089160554
164	0x3da6aeea	0.08138831
165	0xbdb692e6	-0.089147374
166	0x3daf6ab6	0.08565275
167	0xbc8d9048	-0.017280713
168	0x3d6128cc	0.054970548
169	0xba03b700	-0.00050245225
170	0xbcd26f34	-0.025687791
171	0xbd53b0ec	-0.051682398
172	0x3d03b16c	0.032151625
173	0xbc996990	-0.018727094
174	0x3d58d804	0.052940384
175	0xbdb3e139	-0.08783192
176	0x3dab5520	0.08365846
177	0xbd88b3b8	-0.06674904
178	0xbda11742	-0.07865764
179	0xbd9e4574	-0.07728091
180	0xbd3f14cc	-0.046650693
181	0x3db4e830	0.08833349
182	0xbbb423f0	-0.005497448
183	0x3d9af314	0.07565895
184	0xbd32d749	-0.043662343
185	0x3d5db574	0.054128125
186	0x3da80d88	0.08205706
187	0xbd52530a	-0.051348723
188	0xbca58980	-0.020207167
189	0x3d058198	0.032594293
190	0xbbb65ca0	-0.005565241
191	0xbda887b3	-0.082290076
192	0xbd3ce87d	-0.046120156
193	0x3b501d1d	0.0031755634
194	0xbc7e7b26	-0.015532291
195	0xbccddb7e	-0.025129076
196	0xbc6abe9d	-0.014327672
197	0x3d4002ca	0.04687766
198	0x3dced2cb	0.10098799
199	0x3dc9e043	0.09857228
200	0x3dc6f17f	0.097140305
201	0xbcbc6776	-0.022998553
202	0xbdbd3fa1	-0.09240652
203	0xbd366e1c	-0.044538602
204	0xbc92611c	-0.017868571
205	0x3d90699c	0.070513934
206	0x3d514c64	0.051098242
207	0xbbf6592a	-0.0075179534
208	0xbb15f382	-0.0022880738
209	0xbd518dc9	-0.051160607
210	0xbc851d14	-0.016249217
211	0xbd3b7a0a	-0.045770682
212	0xbd199942	-0.037499674
213	0x3dc638bd	0.09678791
214	0xbcbd9062	-0.023140136
215	0x3d6794c8	0.056538373
216	0xbd93f71d	-0.072248675
217	0x3d519f76	0.051177464
218	0x3d8d4484	0.06897834
219	0xbc8f1a07	-0.017468465
220	0x3d3276e3	0.04357041
221	0x3da2cdbd	0.07949398
222	0x3d7cab53	0.061686825
223	0x3daddd96	0.0848953
224	0x3a0214e1	0.00049622176
225	0xbd9fbce0	-0.07799697
226	0x3d8493ae	0.0647348
227	0xbc720960	-0.014772743
228	0x3d58c2bc	0.05292009
229	0xbd9d2e3a	-0.07674833
230	0x3d82cfe6	0.0638731
231	0x3c89caf0	0.016820401
232	0xbcbf244e	-0.023332741
233	0x3cb26f07	0.021781458
234	0x3bd79945	0.0065795504
235	0x3d301f39	0.042998526
236	0xbd511fad	-0.0510556
237	0xbd8862b8	-0.06659454
238	0xbd8a0aae	-0.06740318
239	0x3cf09460	0.029367626
240	0x3d7e28c6	0.062050603
241	0x3d13f996	0.036126696
242	0x3db13e37	0.08654445
243	0x3d332c2b	0.043743294
244	0x3c6b5755	0.014364083
245	0x3ce34cb0	0.027746528
246	0x3d80fbf7	0.062980585
247	0xbd2eb739	-0.042655203
248	0x3d9b6e69	0.075894184
249	0x3dd76fa0	0.10519338
250	0x39b3abfc	0.0003426968
251	0x3d42f3c7	0.047595765
252	0x3db2be38	0.087276876
253	0xbbd8b137	-0.0066129225
254	0x3dc5b0c1	0.09652854
255	0x3d962217	0.07330721

encoder.6.bias f4 [16]
0	0x3dac1b68	0.08403665
1	0xbd5559d2	-0.052087612
2	0x3c38d950	0.01128228
3	0x3c95539a	0.01822834
4	0x3da80ea6	0.08205919
5	0xbd179b08	-0.037013084
6	0x3d94f325	0.07272939
7	0xbb3ffc40	-0.002929464
8	0xbd5874aa	-0.052845635
9	0xbcfa279c	-0.030536465
10	0x3cc44255	0.02395741
11	0xbd4a5e23	-0.049406182
12	0x3d6989bc	0.05701612
13	0x3cbe6b8a	0.023244638
14	0xbd2380f2	-0.039917894
15	0x3de8771c	0.11350843

fc1.weight f4 [8, 400]
0	0xbd3b3486	-0.045704387
1	0xbd9146d0	-0.070935845
2	0xbbb5f004	-0.0055522937
3	0xbd2a98c5	-0.0416496
4	0xbd4e5041	-0.050369505
5	0x3bb98080	0.0056610703
6	0xbd0e5549	-0.034749303
7	0xbd4da81d	-0.050209153
8	0xbd273290	-0.040819705
9	0xbad5dba4	-0.0016316068
10	0x3c8992f8	0.016793713
11	0xbcbbd513	-0.02292875
12	0x3b7f793c	0.0038982173
13	0x3c9baf0a	0.019004364
14	0xbcc5e554	-0.024157204
15	0x3c101b96	0.0087956395
16	0xbd630d94	-0.05543287
17	0x3c0b3a6e	0.008497817
18	0xbcb9b22c	-0.022667967
19	0xbc84e2f3	-0.0162215
20	0xbd49819d	-0.049195874
21	0xbd733777	-0.059379067
22	0xbd7e79e8	-0.062127978
23	0xbd6541b8	-0.055970877
24	0xba4d7e26	-0.0007838927
25	0x3c5e695c	0.013574924
26	0x3cce928e	0.025216367
27	0xbcc9eb3a	-0.024648298
28	0xbb89d240	-0.004205972
29	0x3d3a5327	0.045489457
30	0xbc1b7c40	-0.009490073
31	0xbc69d48c	-0.0142718665
32	0xbb26d350	-0.0025455542
33	0xbd021c9e	-0.031765573
34	0x3d3af63b	0.04564498
35	0x3d3eb62d	0.046560455
36	0x3c7a89cc	0.015291642
37	0xbd084f08	-0.033278495
38	0xbcdbd8c7	-0.026836766
39	0x3cc7b712	0.024379287
40	0xbcbdcef3	-0.02316997
41	0xbc022c38	-0.007945113
42	0xbc88a73c	-0.016681306
43	0xbc826d8c	-0.015921377
44	0xbd077b80	-0.033076763
45	0x3cf22a3e	0.029561158
46	0xba464b40	-0.0007564314
47	0xbd45c50a	-0.048283614
48	0xbd14d586	-0.036336444
49	0x3c05d6c8	0.008168884
50	0x3d0f8e01	0.035047535
51	0x3cf89eb6	0.030349117
52	0x3bafc107	0.005363587
53	0x3d2e7abc	0.042597517
54	0xbcfe5bc4	-0.031049617
55	0x3cd64d9c	0.026160054
56	0x3c373d92	0.011184113
57	0xbcb19ecb	-0.021682164
58	0xbd24c544	-0.04022719
59	0xbce5f0bd	-0.028068895
60	0x3cf3124d	0.029671812
61	0x3c3d9231	0.011570499
62	0x3d2094c3	0.03920437
63	0xbcaff075	-0.021476964
64	0xbd814245	-0.06311468
65	0xbce0a979	-0.02742456
66	0x3ca6636b	0.020311078
67	0xbd76ce73	-0.06025548
68	0xbd904599	-0.07044525
69	0xbd4f6eb3	-0.05064268
70	0xbd3a52c2	-0.04548908
71	0xbd8c7372	-0.06857957
72	0xbd0ee3e1	-0.03488529
73	0xbd01b2e6	-0.03166475
74	0xbce8788f	-0.0283778
75	0xbcf898c1	-0.030346276
76	0xbd2fcc4f	-0.042919453
77	0x3c287823	0.010282549
78	0x3d203e05	0.039121646
79	0xbcc2a0e5	-0.023758361
80	0x3cb548a0	0.022129357
81	0x3c3555a6	0.011067783
82	0xbc53b5de	-0.0129217785
83	0x3c70951e	0.01468399
84	0x3caca85c	0.021076374
85	0xbc91e58c	-0.017809652
86	0xbd673f88	-0.056457072
87	0xbc6e8dd9	-0.014560186
88	0xbd4b8c2c	-0.049694225
89	0x3c8d2b9e	0.017232712
90	0xbbcd0ec7	-0.006257865
91	0xbad119e7	-0.0015953154
92	0xbb69bf14	-0.003566687
93	0xbd630fe0	-0.05543506
94	0x3cf6af12	0.030112777
95	0xb93a5838	-0.00017771206
96	0x3c18e0e8	0.009330966
97	0x3c4b2dc2	0.012401046
98	0xbc0b6dac	-0.0085100345
99	0xbd8bdd28	-0.068292916
100	0x3c386a9c	0.011255886
101	0x3a630dec	0.00086614373
102	0xbd580448	-0.052738458
103	0x3c754cce	0.014971925
104	0xbd4bf993	-0.04979856
105	0x3c8bd333	0.017068481
106	0xbc858182	-0.016297106
107	0xbc26b1bc	-0.010174211
108	0xbcd67781	-0.02618003
109	0x3c2ed742	0.010671439
110	0xbd0ab7bd	-0.033866633
111	0xbd9735a4	-0.07383278
112	0xbd7768ca	-0.06040267
113	0xbba910e8	-0.005159486
114	0x3c87ae08	0.016562477
115	0xbc1d1abf	-0.009588896
116	0xbd63adb3	-0.055585574
117	0xbb7c0af4	-0.0038458677
118	0x3a334da4	0.00068398775
119	0xbd9484ca	-0.0725189
120	0xbd5c0874	-0.053719
121	0x3bb0d466	0.0053964136
122	0x3c70ebb7	0.014704636
123	0xbc95079c	-0.018192105
124	0xbd4b2cbd	-0.049603213
125	0x3b6ae420	0.003584154
126	0x3c61d164	0.013782833
127	0x3ce7e3fe	0.028306957
128	0xbd3c5a73	-0.045984697
129	0x3d2fa897	0.04288539
130	0x3d1b2a4f	0.037882145
131	0x3a061e00	0.00051161647
132	0xbc5e19c0	-0.013555944
133	0xbc46d488	-0.012135632
134	0x3cd6cf42	0.026221875
135	0xbc081968	-0.008306839
136	0xbcfef903	-0.031124597
137	0xbd2800c8	-0.04101637
138	0xbd16e51b	-0.036839586
139	0xbb2518e0	-0.0025191829
140	0xbc832e60	-0.016013324
141	0x3d216783	0.039405357
142	0xbd3764af	-0.044773754
143	0x3a1b3680	0.0005920902
144	0x3c7fef5c	0.015621033
145	0xbc3ec354	-0.01164325
146	0x3d35bfa3	0.044372212
147	0xbcc2a960	-0.023762405
148	0x3d030c51	0.031994168
149	0xbb714eb0	-0.0036820583
150	0xbd989cba	-0.07451768
151	0x3c5be311	0.013420836
152	0xbd55253c	-0.052037463
153	0xbd899ef4	-0.06719771
154	0xbc0f3ec4	-0.008742992
155	0x3c886de9	0.016653972
156	0xbd57e6bf	-0.05271029
157	0x3c35777b	0.01107585
158	0xbb6882aa	-0.0035478272
159	0xbd6f8e5b	-0.05848537
160	0xbc24ad82	-0.010051133
161	0xbd880fec	-0.06643662
162	0x3cdb898b	0.026798984
163	0xbd88b65c	-0.06675407
164	0xbd0edd11	-0.034878794
165	0xbd997f3e	-0.07494973
166	0xbc0e4af6	-0.008684864
167	0xbd91de5c	-0.0712249
168	0x3ca23b72	0.019803736
169	0xbd349e97	-0.044096556
170	0xbd7d2d33	-0.061810683
171	0xbc06dee5	-0.008231853
172	0xbce6a896	-0.02815656
173	0xbd2927e5	-0.041297812
174	0xbd35995a	-0.0443357
175	0xbcc1c9d0	-0.023655802
176	0xbc537fec	-0.012908917
177	0xbbb07f18	-0.0053862445
178	0xbcdb6f60	-0.026786506
179	0x3b9f6a40	0.004864961
180	0x3ba1a180	0.0049325824
181	0x3cc47e42	0.023985986
182	0xbc06e854	-0.008234102
183	0x3cb645fe	0.022250172
184	0xbc169dcc	-0.009192895
185	0xbc82a84c	-0.01594939
186	0xbbaec628	-0.0053336807
187	0xbd01958e	-0.031636767
188	0x3ca5db62	0.020246211
189	0x3d10a0d1	0.035309616
190	0x3d2f1a51	0.042749707
191	0xbbf06100	-0.007335782
192	0x3c80a92e	0.015705671
193	0xbd2734dd	-0.0408219
194	0xbd28ef82	-0.041244037
195	0xbc87e0ea	-0.01658674
196	0x3d0b9fd9	0.03408799
197	0x3d222cdb	0.03959356
198	0xbce410ea	-0.027840097
199	0x3cc3c98a	0.023899812
200	0x3c411e40	0.011786997
201	0x3b417230	0.0029517524
202	0xbcbbe39d	-0.022935683
203	0x3c9fd376	0.019510012
204	0x3c05b5f4	0.008161057
205	0xbc511fec	-0.012763958
206	0x3ae85040	0.0017724112
207	0x3c8ee162	0.017441455
208	0x3d4cb121	0.04997361
209	0x3d072b61	0.033000354
210	0x3cb78c02	0.022405628
211	0x3d220675	0.03955694
212	0xbd313363	-0.043261897
213	0xbd484543	-0.048894178
214	0x3c8811d2	0.01661006
215	0x3bddd8b0	0.006770216
216	0x3ce0a8ae	0.027424183
217	0x3d42174b	0.047385495
218	0xbc504380	-0.012711406
219	0xbc53c820	-0.0129261315
220	0x3d3f79ed	0.046747137
221	0x3ca61f02	0.020278458
222	0xbd341f7a	-0.04397533
223	0x3ceba466	0.028764915
224	0xbd08d715	-0.033408243
225	0xbd23c3ac	-0.03998153
226	0xbce1696b	-0.027516088
227	0x3d30f1a8	0.04319921
228	0x3b6c5044	0.0036058584
229	0x3d27b093	0.04093988
230	0x3d0aa3ff	0.033847805
231	0x3addb556	0.0016915004
232	0xbcc594c4	-0.024118789
233	0x3b9776f9	0.004622337
234	0xbcd08061	-0.02545184
235	0x3d1bdb53	0.03805096
236	0x3cd718ea	0.026256997
237	0x3c4ae685	0.012384062
238	0xbc9da220	-0.019242346
239	0x3c872062	0.016494934
240	0xbd141585	-0.036153335
241	0xbcb22aea	-0.021748979
242	0xbc84af30	-0.016196817
243	0xbd16f82b	-0.036857765
244	0x3c6af4c4	0.014340583
245	0xbcec9ced	-0.028883422
246	0xbca8b633	-0.020594692
247	0xba33bb40	-0.00068562105
248	0xbbd7f350	-0.0065902844
249	0xbcffea77	-0.031239731
250	0xbd13ebd4	-0.036113575
251	0x3c9a7c42	0.018858079
252	0xbd511a08	-0.051050216
253	0xbca3afe0	-0.019981325
254	0xbd47d903	-0.048790943
255	0x3d1e9ee4	0.03872575

fc1.bias f4 [8]
0	0xbd163f22	-0.036681302
1	0x3d242c03	0.040081035
2	0x3c628d9a	0.013827706
3	0xbc992a7d	-0.018697018
4	0xbc27b7ac	-0.010236662
5	0x3af7ac9a	0.0018896044
6	0xbd59868b	-0.053106826
7	0x3d88f22b	0.06686815

fc2.weight f4 [400, 8]
0	0x3e8dca4c	0.27693403
1	0xbe2ffdfc	-0.17186731
2	0xbe80b929	-0.25141266
3	0xbdb24bf0	-0.0870589
4	0x3e4e125d	0.20124193
5	0xbe323978	-0.17404735
6	0x3df34a24	0.118793756
7	0x3d89a627	0.06721144
8	0x3e676554	0.22597247
9	0xbd9945d8	-0.07484025
10	0x3e5b4e67	0.21416627
11	0x3e85ff69	0.26171425
12	0xbe8e4f76	-0.27795
13	0x3e296ec7	0.16546164
14	0xbe7760a6	-0.24157962
15	0x3e9021c2	0.28150755
16	0x3e3d325e	0.18476245
17	0xbd525e00	-0.051359177
18	0xbe2553ce	-0.1614525
19	0xbe98c45b	-0.29837307
20	0x3e943b5d	0.2895154
21	0x3e613b67	0.21995316
22	0x3de91f02	0.113828674
23	0xbe8027c6	-0.25030345
24	0xbe4b22d3	-0.19837503
25	0x3dbd3110	0.092378736
26	0x3c1c0fc6	0.009525245
27	0xbe871c24	-0.26388657
28	0x3e7fc6ee	0.2497823
29	0xbe32eee8	-0.17473948
30	0x3e745fe5	0.23864706
31	0x3c3ac165	0.011398648
32	0x3e885be1	0.26632598
33	0xbe3c8f95	-0.18414147
34	0xbdeee6ca	-0.11665113
35	0x3e99ed90	0.30064058
36	0x3d76ee3b	0.060285788
37	0xbe919a66	-0.2843811
38	0xbd6a83a7	-0.05725446
39	0xbe695d0a	-0.22789398
40	0x3e8a5b6d	0.27022877
41	0xbe878e63	-0.2647582
42	0xbca06c87	-0.019583
43	0x3e1224a5	0.14271791
44	0xbd81f0d3	-0.06344762
45	0xbe8bd808	-0.27313256
46	0x3d57f7c1	0.05272651
47	0xbe17e6cf	-0.1483414
48	0x3eb489e1	0.35261443
49	0x3ea45718	0.32097697
50	0xbd79692c	-0.060891315
51	0xbdb80573	-0.08985414
52	0x3eb37013	0.35046443
53	0x3d944a7f	0.072407715
54	0x3afb9168	0.0019193115
55	0xbe6d9af5	-0.23203643
56	0xbe8635f9	-0.26213053
57	0xbe268196	-0.1626037
58	0x3c679cc8	0.014136501
59	0xbd8d869e	-0.06910442
60	0xbd2162d3	-0.039400887
61	0x3e4e5df1	0.20153023
62	0x3e58c7f0	0.2117002
63	0x3e077491	0.1322806
64	0xbe80b77d	-0.2513999
65	0x3e6eb3cd	0.23310776
66	0x3dc4c392	0.096076146
67	0xbe3498d9	-0.17636432
68	0xbd780688	-0.060553104
69	0x3e6f9dee	0.23400089
70	0xbe245274	-0.16047078
71	0x3e5b29fe	0.21402737
72	0xbea00560	-0.312541
73	0xbe7074e7	-0.23482095
74	0xbe33f1e6	-0.17572746
75	0x3e7a2524	0.2442823
76	0x3e59b536	0.21260533
77	0x3e1657ef	0.14681982
78	0x3e389e85	0.1802922
79	0xbe333d13	-0.17503767
80	0xbd24025d	-0.040041316
81	0xbe4c43c6	-0.19947729
82	0x3d435b89	0.047694717
83	0xbdb1d779	-0.08683676
84	0xbe6840fe	-0.22681043
85	0x3e3cc8b6	0.1843594
86	0x3da7cc4b	0.08193263
87	0xbc27010d	-0.010193122
88	0x3e3b7b74	0.18308812
89	0xbd6edcca	-0.05831603
90	0x3e18d60e	0.14925405
91	0x3e6e9a8f	0.23301147
92	0xbe2aab9a	-0.16667023
93	0x3e38480a	0.1799623
94	0xbe8f6e93	-0.2801405
95	0x3e3ca96c	0.18424004
96	0xbe2d4ac5	-0.16923054
97	0xbea1bfe6	-0.3159172
98	0x3e835c29	0.2565625
99	0x3e692ad9	0.22770251
100	0x3eb204c8	0.34769273
101	0xbe7f81ce	-0.2495186
102	0xbe88eb53	-0.26742038
103	0x3dab60cd	0.08368073
104	0x3cef8342	0.029237393
105	0x3e0880e0	0.13330412
106	0xbddc9081	-0.107697494
107	0xbeabbb71	-0.33541444
108	0xbe97b429	-0.2962964
109	0xbcaac104	-0.02084399
110	0x3d9e8cbd	0.077416874
111	0xbe3e1652	-0.18563202
112	0xbe92c04c	-0.28662336
113	0xbc73145c	-0.014836397
114	0x3e15e868	0.14639437
115	0xbeb9788b	-0.3622478
116	0x3e89aa6a	0.26887828
117	0xbe6f6a66	-0.23380432
118	0x3e2ca6e2	0.16860536
119	0xbdebeaf4	-0.11519423
120	0xbe65bba5	-0.22434862
121	0xbe70f27d	-0.23530002
122	0xbcb9b86d	-0.022670949
123	0xbe8fba68	-0.28071904
124	0xbbc98c7a	-0.0061507793
125	0x3cc497ae	0.023998108
126	0x3d97a356	0.07404201
127	0x3eafa78c	0.34307516
128	0x3e48bb3d	0.19602676
129	0xbe62bd6f	-0.22142576
130	0xbea715bc	-0.3263377
131	0xbeaafa2d	-0.33393994
132	0xbe20e575	-0.15712531
133	0x3e669e85	0.22521408
134	0xbeab1599	-0.33414915
135	0xbea3202d	-0.31860486
136	0xbd7533ae	-0.05986374
137	0x3c390f0b	0.01129509
138	0x3dedbfe2	0.11608864
139	0xbe67b239	-0.2262658
140	0x3ea1d0de	0.31604666
141	0xbdb1309a	-0.08651848
142	0xbe0f9353	-0.14021043
143	0x3eb96e0a	0.36216766
144	0x3e88e360	0.26735973
145	0xbe980ee1	-0.29698852
146	0x3eb4fc41	0.35348704
147	0xbd7fe41f	-0.062473413
148	0xbe74e89c	-0.23916858
149	0xbe718875	-0.2358721
150	0xbea0c595	-0.31400743
151	0x3e4f9cb5	0.20274623
152	0xbc3e18c7	-0.011602587
153	0x3db4eef9	0.08834643
154	0x3dfb4df0	0.12270725
155	0x3e94ce35	0.29063573
156	0x3e47a799	0.19497527
157	0xbe63a5d6	-0.2223123
158	0xbe976b52	-0.29574066
159	0x3eaf0144	0.34180653
160	0xbec1f622	-0.37883097
161	0x3db10f6b	0.08645519
162	0x3d9474d8	0.07248849
163	0xbeaf5e8e	-0.34251827
164	0xbd17406c	-0.03692667
165	0x3e85bc1d	0.26120082
166	0x3e794295	0.24341805
167	0x3e913fd5	0.28369012
168	0xbe8724f4	-0.2639538
169	0x3e891fe6	0.2678215
170	0x3dc83cf5	0.09777252
171	0xba1413d6	-0.0005648708
172	0x3ea76666	0.3269531
173	0x3e4d2cb7	0.20036589
174	0xbe29d9f3	-0.16587047
175	0x3ddb1169	0.1069668
176	0xbbacdfdf	-0.005275711
177	0xbe9f12a0	-0.31068897
178	0x3d220d32	0.039563365
179	0xbea6fb65	-0.32613674
180	0x3da9696d	0.082720615
181	0x3bdc9ca6	0.006732541
182	0x3ea76a2b	0.32698187
183	0x3e482f50	0.19549298
184	0x3e164165	0.14673384
185	0x3d8044bb	0.06263109
186	0x3de259d2	0.11052288
187	0xbd888c49	-0.06667382
188	0xbe4174cb	-0.18892209
189	0x3e14f8b4	0.14547998
190	0x3e70cc46	0.23515424
191	0x3ea41ca8	0.32053113
192	0xbc7a8b14	-0.015291948
193	0xbe604574	-0.21901494
194	0x3da94ff4	0.08267203
195	0xbcb3aa7b	-0.021931877
196	0xbeba493d	-0.36384
197	0x3eb57c9a	0.35446626
198	0xbd8da082	-0.0691538
199	0x3d1d2b04	0.0383711
200	0xbe98ae60	-0.29820538
201	0x3c3a0012	0.011352556
202	0x3e993a22	0.29927164
203	0x3e1def98	0.15423429
204	0x3e051103	0.1299477
205	0xbe502130	-0.2032516
206	0xbe872560	-0.26395702
207	0xbe247c9c	-0.1606316
208	0x3ea04cdc	0.3130864
209	0xbe901699	-0.2814224
210	0x3e638164	0.22217327
211	0x3db10d91	0.08645166
212	0xbdfb55f3	-0.12272253
213	0x3dc50a71	0.09621132
214	0x3dec61b8	0.11542076
215	0xbebc1ee5	-0.3674232
216	0xbd8bfcd3	-0.06835332
217	0xbc589c1f	-0.013220816
218	0x3e05f4d3	0.13081674
219	0x3e24fae4	0.16111332
220	0x3eb03c87	0.3442118
221	0xbe8aece2	-0.27133852
222	0x3e8a6a00	0.27033997
223	0xbe693456	-0.22773871
224	0xbe85bd22	-0.2612086
225	0x3e5a7ee6	0.2133747
226	0xbdfd8ba5	-0.12380151
227	0xbc1b85b2	-0.009492325
228	0xbda88c69	-0.08229906
229	0x3d8128da	0.0630662
230	0xbe91d1c1	-0.28480342
231	0xbd23a10f	-0.03994852
232	0x3bcc6e94	0.006238768
233	0x3cab5188	0.0209129
234	0x3dbd3c7c	0.09240052
235	0x3e10c639	0.14138116
236	0xbe82ce3a	-0.25547963
237	0xbeb58ff0	-0.35461378
238	0xbea590ba	-0.3233698
239	0xbe7d838b	-0.24757211
240	0xbd395d95	-0.045255262
241	0xbd84dbba	-0.06487222
242	0xbe98f737	-0.2987611
243	0x3d0e3d1d	0.03472625
244	0x3e46c8cb	0.19412534
245	0xbd4513b8	-0.04811451
246	0x3df270e1	0.11837936
247	0x3e931a75	0.28731123
248	0xbe45a640	-0.193017
249	0x3e18ddc4	0.14928347
250	0xbe485152	-0.19562271
251	0xbdb493a6	-0.08817224
252	0x3df73988	0.1207152
253	0xbd3e56f7	-0.046469655
254	0xbc758051	-0.014984206
255	0x3dd1192b	0.102098785

fc2.bias f4 [400]
0	0x3e91930d	0.28432503
1	0xbe1e64bc	-0.15468115
2	0x3e337a9e	0.17527243
3	0xbe939e6e	-0.2883181
4	0xbe35aeeb	-0.17742507
5	0xbe40ae04	-0.18816382
6	0xbda4317a	-0.080172494
7	0xbc96fa30	-0.018429846
8	0x3e96b595	0.2943541
9	0xbe73b19f	-0.23798226
10	0xbc938c62	-0.018011276
11	0x3e56c3e9	0.20973171
12	0x3d7343fb	0.059391003
13	0x3e33234b	0.17493932
14	0x3e59037e	0.21192738
15	0x3e947665	0.28996578
16	0x3e2cc278	0.16871059
17	0x3b328e56	0.0027245483
18	0x3e9ab28a	0.3021434
19	0x3ec40292	0.3828321
20	0x3e6499ad	0.22324248
21	0x3daf1abf	0.08550023
22	0xbe8939c1	-0.26801875
23	0xbdce024a	-0.1005903
24	0x3c6166b7	0.013757399
25	0xbe15c56c	-0.14626092
26	0x3e84ca65	0.25935665
27	0x3e7dfa14	0.24802428
28	0xbe0e3ea9	-0.1389109
29	0xbeb61915	-0.3556601
30	0xbe8f058d	-0.27933922
31	0xbcf31815	-0.02967457
32	0xbdbe3415	-0.092872776
33	0xbebda4e2	-0.37039858
34	0xbe823632	-0.25431973
35	0x3e51f13c	0.2050218
36	0x3dc98da5	0.0984147
37	0xbe922ca9	-0.28549698
38	0xbe1e5e99	-0.15465774
39	0xbccb7e8c	-0.024840616
40	0xbd86859b	-0.06568452
41	0x3e615aa7	0.22007237
42	0x3d7b52d1	0.061358277
43	0xbd400505	-0.046879787
44	0x3d92c20b	0.07165917
45	0xbe5a83e8	-0.2133938
46	0xbd88bf8b	-0.06677159
47	0xbd8063d8	-0.06269044
48	0xbe1c4647	-0.15261184
49	0x3c5c9186	0.01346243
50	0x3ca0da4d	0.019635344
51	0xbd250cea	-0.04029552
52	0xbe913918	-0.28363872
53	0xbe0f46be	-0.1399183
54	0xbea1071b	-0.31450734
55	0xbb1c5dd4	-0.0023859637
56	0xbdc9bf51	-0.09850944
57	0x3d651a08	0.05593303
58	0xbdca95c2	-0.09891845
59	0x3e7e8a7c	0.24857515
60	0xbe194b5f	-0.14970158
61	0xbeadad0b	-0.33921084
62	0xbdf731a6	-0.120700166
63	0x3e6e617d	0.23279376
64	0x3e9cbf75	0.3061482
65	0x3d38b6a2	0.045096047
66	0xbde40905	-0.11134533
67	0xbe9fc2eb	-0.31203398
68	0x3d1bc795	0.038032133
69	0x3e35ebfb	0.177658
70	0x3cece142	0.028916005
71	0x3d973388	0.07382876
72	0xbe950758	-0.29107165
73	0xbe3a3ce6	-0.18187293
74	0x3d1c3a59	0.038141582
75	0x3dcb64ca	0.09931333
76	0xbe11658b	-0.14198892
77	0x3e1a4559	0.15065517
78	0xbd99df4c	-0.075132936
79	0xbe98b6b7	-0.298269
80	0xbea768ee	-0.32697242
81	0xbe56ce90	-0.20977235
82	0xbe729103	-0.2368813
83	0xbe56c093	-0.20971899
84	0xbe0e1ed2	-0.13878945
85	0x3e8c7e78	0.27440238
86	0xbdc22847	-0.094803385
87	0xbd7a6fc8	-0.06114176
88	0x3e901364	0.28139794
89	0x3df91c57	0.121636085
90	0xbe16df6b	-0.14733665
91	0x3ebeceab	0.3726705
92	0x3ec2e5a9	0.38065842
93	0xbdecaa16	-0.11555879
94	0x3e91b51e	0.28458494
95	0xbe7ea2fd	-0.24866863
96	0xbccdd0d3	-0.02512399
97	0x3c044ea8	0.008075394
98	0xbd44a321	-0.048007134
99	0x3c8de81f	0.017322598
100	0xbc9c374e	-0.01906934
101	0x3e1fce33	0.15606003
102	0x3e0d2a46	0.13785657
103	0xbe9365ff	-0.28788754
104	0x3c958d7a	0.018255938
105	0xbe62ca59	-0.22147502
106	0xbe5b6344	-0.21424586
107	0x3e9fad58	0.31186938
108	0xbdad18c8	-0.08451992
109	0xbd60d5d1	-0.05489141
110	0x3e46b4a6	0.1940485
111	0xbe9d0b98	-0.30672908
112	0xbe8e6561	-0.2781172
113	0x3d32cb6f	0.04365104
114	0xbe330831	-0.17483594
115	0x3ddb0e9e	0.106961474
116	0x3e9edc22	0.31027323
117	0x3e55b436	0.20869526
118	0x3d75c408	0.060001403
119	0xbc622302	-0.013802292
120	0x3d8783df	0.06616949
121	0x3e8e3e68	0.27781987
122	0x3e5145e6	0.2043682
123	0xbe23cf00	-0.15996933
124	0x3e4cfe68	0.20018923
125	0xbe01579f	-0.12631081
126	0xbdb8886d	-0.09010396
127	0x3dcbddef	0.0995444
128	0x3e07ef1e	0.1327481
129	0xbd054283	-0.032534134
130	0x3d8327db	0.06404086
131	0x3e8c08e6	0.2735054
132	0x3e91bfa3	0.2846652
133	0x3d131dc1	0.035917047
134	0x3d50dee4	0.050993815
135	0x3d694639	0.056951735
136	0x3dbb4892	0.09144701
137	0xbe525825	-0.20541437
138	0x3d243ffb	0.04010008
139	0x3e9e0c56	0.30868787
140	0xbe3eb386	-0.1862317
141	0x3e1750b8	0.14776886
142	0xbc920414	-0.01782421
143	0xbe23aefe	-0.15984723
144	0x3e8ac488	0.27103066
145	0x3d3e8471	0.046513025
146	0x3e9aa3ff	0.30203244
147	0x3e26eda8	0.16301596
148	0xbe113351	-0.14179732
149	0xbeab49a2	-0.33454615
150	0x3e8e9d48	0.2785437
151	0x3eaade9e	0.33372968
152	0xbe867341	-0.26259807
153	0xbe64a315	-0.22327836
154	0x3e74bdf6	0.2390059
155	0x3e4b6f1b	0.19866602
156	0xbdfa7b8c	-0.12230596
157	0x3d64126b	0.055681627
158	0xbe8aa239	-0.2707689
159	0x3d62ce72	0.055372663
160	0x3ea1b885	0.3158609
161	0x3e5e5c8b	0.2171499
162	0xbda793ed	-0.081825115
163	0xbd00c9bf	-0.0314424
164	0x3ea285fc	0.31742847
165	0xbe8e1cf0	-0.27756453
166	0x3e371e45	0.1788264
167	0x3cbb58c9	0.022869484
168	0xbdabcd04	-0.08388713
169	0x3e8b5da4	0.2721988
170	0x3e298a57	0.16556679
171	0xbe983e27	-0.29734918
172	0xbd8c2609	-0.06843192
173	0x3e62277d	0.22085376
174	0x3e42c5da	0.19020787
175	0xbe74be95	-0.23900826
176	0x3df7dcfb	0.121026956
177	0x3e1dc9a0	0.15408945
178	0x3d8b01be	0.06787442
179	0x3e23bdee	0.15990421
180	0xbd57ea4d	-0.05271368
181	0x3e58a79d	0.2115769
182	0xbdc89f0f	-0.09795963
183	0xbc285684	-0.010274533
184	0x3eb7e80d	0.35919228
185	0x3e0d6e6e	0.13811657
186	0x3e6a7bf5	0.22898848
187	0xbe29836a	-0.16554037
188	0xbe44205b	-0.19152968
189	0xbe7e89f4	-0.24857312
190	0xbe0de5ca	-0.13857189
191	0x3d9b8fab	0.07595762
192	0xba90dd97	-0.0011052367
193	0x3df2d9dd	0.118579604
194	0xbe2b71fd	-0.16742702
195	0x3e8c53b7	0.2740762
196	0xbc2b2811	-0.010446564
197	0xbdbbc404	-0.091682464
198	0xbe1407ab	-0.1445605
199	0x3b9a4e2f	0.0047090272
200	0xbc9913e6	-0.018686246
201	0x3e758c8b	0.23979394
202	0x3ebaf285	0.36513153
203	0xbe374526	-0.17897472
204	0xbe5ceeaa	-0.21575418
205	0xbe8e9c20	-0.2785349
206	0xbbf405bc	-0.0074469727
207	0x3eb3e95b	0.35138974
208	0x3cb9b1b8	0.02266775
209	0xbc8e7368	-0.017389014
210	0x3dc51508	0.09623152
211	0x3eb47d8b	0.35252032
212	0x3da0ab2c	0.078451484
213	0xbd8859b7	-0.06657737
214	0xbeac4563	-0.33646688
215	0xbd7cb40b	-0.06169514
216	0xbe7f48d2	-0.24930122
217	0xbdf2dde2	-0.11858727
218	0x3e296b91	0.1654494
219	0xbd8aa755	-0.06770197
220	0xbe4de067	-0.20105134
221	0x3e30242b	0.17201297
222	0x3de3798d	0.11107168
223	0xbe0baabe	-0.13639352
224	0xbea197b7	-0.31561062
225	0x3e1821a5	0.14856584
226	0x3e843aba	0.25826055
227	0xbd9f2f28	-0.07772666
228	0xbe6aa67b	-0.2291507
229	0x3e9d8459	0.30765036
230	0xbe856b28	-0.26058316
231	0x3e9ecf75	0.31017652
232	0xbdecc1c6	-0.11560397
233	0xbba0234e	-0.004887021
234	0x3e966674	0.2937504
235	0x3ea9f32a	0.33193332
236	0x3e455288	0.19269764
237	0xbe9c893c	-0.30573452
238	0xbeba263e	-0.363573
239	0x3e2f21ff	0.17102812
240	0x3e04d751	0.12972762
241	0x3e952275	0.2912785
242	0x3e3a35c1	0.18184568
243	0xbec08482	-0.37601095
244	0xbd0265da	-0.031835414
245	0xbe6f67ab	-0.2337939
246	0xbe1d40cf	-0.15356754
247	0x3e74a607	0.2389146
248	0xbd8a0faa	-0.06741269
249	0x3e46365c	0.19356674
250	0xbdd2316b	-0.10263332
251	0xbdef6058	-0.11688298
252	0x3e3ee85b	0.18643324
253	0xbc5aedf4	-0.0133623965
254	0x3d8af46d	0.06784902
255	0x3e9f8469	0.31155708

decoder.0.weight f4 [16, 32, 3]
0	0x3b517178	0.0031958502
1	0x3db00cc8	0.08596188
2	0xbb1469f9	-0.0022646172
3	0xbcf0b156	-0.029381435
4	0xbd4a818c	-0.04943995
5	0x3dba49fc	0.09096143
6	0x3d8788cc	0.06617889
7	0x3c34a629	0.011025944
8	0xbda93c81	-0.08263493
9	0xbdf332ac	-0.11874899
10	0xbd926596	-0.07148282
11	0xbd66669a	-0.056250192
12	0x3d407a60	0.046991706
13	0xbd6725cd	-0.056432534
14	0x3d8742fd	0.06604574
15	0x3cc8f8fc	0.024532788
16	0xbd806b22	-0.06270434
17	0x3dcdf6f2	0.10056867
18	0xbdb1a783	-0.086745284
19	0x3d1dfaa3	0.038569104
20	0xbce98ba6	-0.028508972
21	0x3d064380	0.032779217
22	0x3c7e61c6	0.015526241
23	0x3cb57cd4	0.02215425
24	0x3d415dd0	0.047208607
25	0xbdae93c0	-0.08524275
26	0x3d36e756	0.044654213
27	0x3ad296a4	0.0016066623
28	0xbdfa3f3b	-0.122190915
29	0x3ccf9f8c	0.025344633
30	0xbd826d62	-0.06368519
31	0x3de6cfef	0.11270129
32	0x3c5c67b4	0.013452459
33	0x3df98d4a	0.12185152
34	0x3dbbadef	0.091640346
35	0xbd8ef16b	-0.069796406
36	0x3d7415d5	0.059591133
37	0x3d25b67a	0.040457226
38	0xbd12379f	-0.035697576
39	0x3d47e8f2	0.04880614
40	0xbd2b4d5d	-0.041821826
41	0xbb8ad094	-0.00423629
42	0x3d782ba9	0.060588513
43	0x3d344dce	0.044019513
44	0xbdb7d99b	-0.08977052
45	0x3dd32697	0.10310095
46	0x3e05185c	0.12997574
47	0x3e011ca2	0.12608579
48	0xbd061f5f	-0.03274476
49	0xbd242670	-0.04007572
50	0xbdb69796	-0.089156315
51	0x3d71530f	0.0589171
52	0x3dd79136	0.10525744
53	0xbd88609b	-0.06659051
54	0xbde6bfce	-0.112670526
55	0xbd81862e	-0.06324421
56	0x3c035ce2	0.00801775
57	0x3bfebaf8	0.0077737533
58	0xbc9d2850	-0.019184262
59	0xbce7d24d	-0.028298521
60	0xbd200126	-0.039063595
61	0xbda36487	-0.079781584
62	0x3daf2898	0.085526645
63	0xbc080e89	-0.008304247
64	0xbd8ce32c	-0.06879267
65	0xbdac815c	-0.08423111
66	0x3d8a9273	0.06766214
67	0x3dad2db8	0.08455986
68	0x3d681981	0.056664947
69	0x3b4b6136	0.0031033284
70	0x3dc70935	0.09718553
71	0x3d8bb292	0.06821169
72	0xbc5133de	-0.012768714
73	0xbcfed334	-0.031106569
74	0xbc99e640	-0.01878655
75	0x3d1fe074	0.039032415
76	0x3dc213de	0.094764456
77	0xbcbe495a	-0.023228336
78	0x3d85bc25	0.06530026
79	0x3dc56789	0.096388884
80	0x3d1ecc48	0.038769037
81	0x3d1a1b20	0.037623525
82	0x3d91d310	0.07120335
83	0x3ce4ccf6	0.027929764
84	0xbd262f59	-0.040572498
85	0x3d66992d	0.056298424
86	0x3db99fc5	0.09063677
87	0x3cc8177d	0.024425263
88	0xbd1b48da	-0.037911274
89	0xbc14e2ef	-0.009087308
90	0x3d848a01	0.06471635
91	0x3da2a76f	0.07942092
92	0x3dc05349	0.093908854
93	0xbd3d3c2a	-0.046199955
94	0x3d229ce2	0.039700396
95	0x3c011b4e	0.007880045
96	0x3d288e9c	0.041151628
97	0x3dc9e5f8	0.09858316
98	0x3b5607ee	0.0032658535
99	0x3d79a08e	0.060944133
100	0xbdb22b20	-0.08699632
101	0xbcbbce82	-0.022925619
102	0x3d1dc5fb	0.038518887
103	0x3d9745f1	0.07386387
104	0x3d6a5b95	0.057216246
105	0x3d1dd96d	0.03853743
106	0xbd90c94c	-0.07069644
107	0x3d952e79	0.072842546
108	0xbc15e146	-0.009147948
109	0x3d56e4a5	0.052464146
110	0x3dcd8d42	0.100367084
111	0xbd5b6f17	-0.05357274
112	0x3d34018d	0.04394679
113	0xbbb85ac6	-0.0056260554
114	0xbd93a905	-0.07209972
115	0xbd9a5d45	-0.07537321
116	0xbd2645f2	-0.04059405
117	0xbd98c120	-0.07458711
118	0x3d713edf	0.05889785
119	0xbcf24bc7	-0.02957715
120	0xbdbf5a25	-0.093433656
121	0xbccc266d	-0.024920667
122	0x3d2a9e58	0.041654915
123	0xbde2b598	-0.110697925
124	0xbd2eb465	-0.042652506
125	0xbdff71c2	-0.124728695
126	0x3d0beafa	0.034159638
127	0xbd4e13bd	-0.050311793
128	0x3c718c2c	0.014742892
129	0x3da4c99d	0.08046267
130	0xbd378fa6	-0.04481473
131	0x3ddc069c	0.10743448
132	0x3c64dc7c	0.013968583
133	0x3d99b68d	0.07505522
134	0xbd81bebb	-0.06335207
135	0xbdcd5ee8	-0.100278676
136	0xbdf9fa19	-0.122059055
137	0x3c3aafd6	0.011394462
138	0xbd8bff19	-0.068357654
139	0x3d67d87a	0.056602933
140	0x3bc70a92	0.006074258
141	0xbcdde889	-0.02708842
142	0x3d9ac39c	0.07556841
143	0x3d8ae0e6	0.06781177
144	0x3db06c7e	0.08614443
145	0x3cee0d8a	0.02905919
146	0xbd79cdb1	-0.06098718
147	0xbacc290f	-0.0015576201
148	0xbdc20849	-0.094742365
149	0xbc18c0f3	-0.009323346
150	0xbdbf03ad	-0.09326873
151	0x3aa0d158	0.001226942
152	0xbd6f5d22	-0.058438428
153	0x3cd7dadb	0.026349476
154	0xbd874166	-0.06604271
155	0x3d997759	0.07493467
156	0x3da77e66	0.081784055
157	0xbd9ed60d	-0.07755671
158	0x3c16314a	0.009167025
159	0xbd1478bd	-0.036247957
160	0xbdcf2f45	-0.10116438
161	0xbdcbee4b	-0.0995756
162	0x3af5cac6	0.0018752448
163	0x3ca5b264	0.020226665
164	0x3d069959	0.032861087
165	0xbdbb1e2a	-0.09136613
166	0x3dbf76f4	0.093488604
167	0xbd8847f4	-0.06654349
168	0x3d4c7eef	0.04992574
169	0x3b217d00	0.0024641156
170	0x3d4613dc	0.048358783
171	0xbda9c904	-0.08290294
172	0xbcae77dd	-0.02129739
173	0xbba5373c	-0.005041985
174	0xbd8ac02c	-0.06774935
175	0xbd6d4745	-0.057929296
176	0xbdc8544d	-0.09781704
177	0xbd769269	-0.06019822
178	0xbdd4dcc5	-0.10393671
179	0xbd2c115b	-0.04200874
180	0x3d3b59e4	0.045740023
181	0x3b8f3d7c	0.004371343
182	0xbd0a78dd	-0.03380667
183	0xbbf08da3	-0.007341103
184	0x3c0c9c5a	0.008582199
185	0x3d199e73	0.037504625
186	0x3d44b77c	0.048026547
187	0xba2ca186	-0.0006585348
188	0x3d21b9fa	0.039484
189	0xbd8e4079	-0.06945891
190	0xbdf5f07f	-0.120087616
191	0xbd70c2ac	-0.058779404
192	0x3dbce90e	0.09224139
193	0x3ddc23a8	0.107489884
194	0x3d6ff7da	0.05858598
195	0xbce0ffb0	-0.027465671
196	0xbd62ac0d	-0.05533986
197	0xbdd4de2e	-0.1039394
198	0x3c3421eb	0.010994415
199	0xbcd60c5f	-0.026128946
200	0x3b8cd8bd	0.004298298
201	0xbd93f6ad	-0.07224784
202	0xbd9934e0	-0.07480788
203	0xbdb39e28	-0.087704
204	0x3cb58630	0.022158712
205	0xbc90f4ca	-0.01769485
206	0x3d8d25b6	0.068919584
207	0xbdad1636	-0.08451502
208	0x3d5dd6bb	0.05415986
209	0x3df94820	0.1217196
210	0x3ce34de1	0.027747096
211	0x3db8f3c3	0.09030869
212	0xbc8032ff	-0.015649317
213	0xbd7ecc47	-0.062206533
214	0x3b6f1db6	0.0036486215
215	0xbc6486c7	-0.013948149
216	0xbc1ed93a	-0.009695346
217	0xbd4c07d0	-0.049812138
218	0x3da01354	0.078161865
219	0xbd5abe21	-0.053403977
220	0x3e043a49	0.12912859
221	0x3ce099f2	0.027417157
222	0x3cc1ec80	0.023672342
223	0x3d93cd0f	0.07216846
224	0x3d2df64d	0.04247122
225	0xbd867b86	-0.06566529
226	0xbd8603f2	-0.06543721
227	0xbc2f63ae	-0.010704918
228	0xbdb07192	-0.08615412
229	0x3ae2ad58	0.0017294092
230	0xbde40d03	-0.11135294
231	0xbd4025be	-0.046910994
232	0x3c431d43	0.011908832
233	0x3d086630	0.03330058
234	0x3d89a7dc	0.0672147
235	0x3d975d65	0.073908605
236	0x3d2281af	0.039674457
237	0x3de8d9e0	0.11369681
238	0x3c2e4e3f	0.0106387725
239	0x3dbd2de8	0.092372715
240	0xbda86898	-0.08223075
241	0x3dcc22f3	0.099676035
242	0xbd5b67c6	-0.053565763
243	0x3dc0f61c	0.09421942
244	0x3d8e01a0	0.06933904
245	0x3ce7a870	0.02827856
246	0xbb8cf22a	-0.004301329
247	0xbdca6a81	-0.09883595
248	0xbb6a9a5d	-0.0035797574
249	0xbd9db41d	-0.077003695
250	0xbcabe264	-0.020981975
251	0x3bd4a45a	0.006489319
252	0xbd52bc0d	-0.05144887
253	0xbcba9529	-0.022776203
254	0x3d1384af	0.03601521
255	0xbdbe2c62	-0.09285809

decoder.0.bias f4 [32]
0	0xbd262e83	-0.0405717
1	0x3d1d3073	0.038376283
2	0xbd53a0f8	-0.051667184
3	0x3d9cc2d2	0.076543465
4	0x3ccd700d	0.025077844
5	0x3bc34b02	0.0059598694
6	0xbd414ea8	-0.047194153
7	0xbca166b2	-0.01970229
8	0xbdbf7b4c	-0.09349689
9	0x3b5a4dc2	0.0033310507
10	0x3daee3e0	0.085395575
11	0x3b72ec24	0.003706702
12	0xbc813bd1	-0.015775593
13	0x3cb6751e	0.022272643
14	0x3b5b74a2	0.0033486267
15	0x3c331803	0.010931018
16	0x3d856e99	0.065152355
17	0xbc98f0d5	-0.018669525
18	0x3d796bed	0.06089394
19	0xbd1dbceb	-0.038510244
20	0xbd390410	-0.04516989
21	0x3d993c31	0.07482184
22	0xbd5713db	-0.05250917
23	0x3c37f76e	0.011228425
24	0x3cc09bf4	0.023511864
25	0x3d0f2362	0.034945853
26	0xbd67308d	-0.056442786
27	0xbbac66f8	-0.0052612983
28	0x3dd05d0e	0.10173999
29	0xbd4f276e	-0.050574712
30	0x3d81f57f	0.06345653
31	0x3dda28e9	0.10652334
