data/gan_output/discriminator_epoch_50.pth (torch, 191742 bytes, 21 tensors)

conv_blocks.0.weight f4 [16, 1, 4]
000000 1a f2 6a 3d 21 44 bc 3d 96 9e 40 bd d0 58 d4 3e
       0.057359792 0.09192682 -0.04702624 0.4147401
000010 a3 74 f6 ba eb 05 59 3d c0 c5 c6 be 66 f9 58 3d
       -0.0018803071 0.05298416 -0.38822746 0.05297222
000020 e9 28 10 3e f9 a2 d3 be dc 61 d8 3d b4 7d fb bc
       0.14078106 -0.41335276 0.1056554 -0.030699588
000030 46 63 e0 be 75 05 95 3e a0 42 be 3e 25 da e2 be
       -0.4382574 0.29105726 0.37160206 -0.44307056
000040 c9 60 ce be 98 97 aa 3d d0 fd b6 bd 6d 15 8e 3e
       -0.40308216 0.083296955 -0.0893513 0.27750722
000050 80 f0 c0 be 49 5f 8b 3e 47 eb fa bd 63 b1 b9 3e
       -0.37683487 0.27221134 -0.12251907 0.36268148
000060 34 b9 a4 3e 46 1f ff be 1f e1 c5 3e 45 07 6b 3e
       0.3217255 -0.49828547 0.38648316 0.22951992
000070 9a 4c 13 bc 42 86 5d be 37 13 a0 3e a2 88 f6 be
       -0.008990431 -0.21633247 0.3126466 -0.48151118
000080 1e 42 7b be 99 31 b0 be 01 67 f3 3d 9a f5 78 3e
       -0.2453694 -0.3441284 0.11884881 0.2431244
000090 f8 5f cc 3d 17 4d 33 3e cf b0 e8 3e 7a ae eb 3d
       0.09979242 0.17509876 0.45447394 0.11507888
0000a0 3d f3 6c 3e e5 6f a5 be 1c d2 f3 be 34 93 a2 be
       0.23139663 -0.3231193 -0.47621238 -0.31752932
0000b0 f6 ee 4b be 87 e1 7b 3d e0 a9 93 be 40 11 dd bd
       -0.19915375 0.061494377 -0.28840542 -0.10794306
0000c0 79 a2 1f be b4 7e 62 3e 89 96 d2 be 64 92 fc be
       -0.15589322 0.22118646 -0.41130474 -0.49330437
0000d0 ec 0c c3 3b a5 4f ec bd 3f 25 ab be 1d d7 da be
       0.005952468 -0.115386285 -0.33426854 -0.42742243
0000e0 56 ec 14 be 46 42 43 be 47 8c dc 3c 6f c3 30 be
       -0.1454328 -0.1906825 0.026922358 -0.17262052
0000f0 12 a8 71 3e 43 8f 55 3e 7b 8c a0 be d8 19 bb be
       0.2359927 0.20855431 -0.31357178 -0.36543155

conv_blocks.0.bias f4 [16]
000000 20 94 ff be 35 7b 06 be c8 da 75 be 7f 92 77 3e
       -0.49917698 -0.13132937 -0.2400924 0.24176978
000010 ea c1 16 3e 6e 57 44 3d 94 e4 a9 be 43 72 eb 3e
       0.1472241 0.047934942 -0.33182204 0.45985612
000020 b0 3c 73 3e 2b 45 ab 3d 8a f9 1e be 78 ac f5 be
       0.23753619 0.08362802 -0.15524879 -0.47983146
000030 92 5b 6f bd 15 82 bf 3d e6 58 ae 3e 42 2c 7e be
       -0.058436938 0.09350983 0.340522 -0.2482157

conv_blocks.3.weight f4 [32, 16, 4]
000000 04 7f 6d bd 43 38 cf 3d 00 b7 b0 3d 67 36 c0 bd
       -0.05798246 0.10118153 0.086286545 -0.093853764
000010 7f c0 e2 bd 32 55 31 3d bc 19 bd bd c3 d4 43 3d
       -0.11071872 0.04329414 -0.09233424 0.047810327
000020 ff c9 1e 3d 53 cc 6c 3d b2 1d 78 3c bb d0 c0 bc
       0.038766857 0.057812046 0.015143799 -0.02353703
000030 8e e0 21 bd 1a bd fc bd 5a 75 f6 3d e9 9e c6 bd
       -0.039520793 -0.12340756 0.12034102 -0.096982785
000040 e1 1f 62 bd 59 45 6a 3d c2 b2 f5 bd 12 a5 90 3d
       -0.055206183 0.05719504 -0.11996986 0.07062735
000050 c3 56 94 bd 25 9c a5 3c 88 fb f0 3d c2 64 30 bd
       -0.07243111 0.020216057 0.11766726 -0.04306484
000060 2f 51 80 3b f9 b6 8b 3d 95 92 af bc 27 03 34 3d
       0.003915928 0.06822009 -0.0214322 0.04394832
000070 53 2b ae 3d 31 02 f5 bd 94 e7 bc bd 79 bc 90 3d
       0.08504357 -0.119633086 -0.092238575 0.07067198
000080 20 75 3a bd e2 ac 4c bb ac 46 41 3d 22 d8 cd bd
       -0.045521855 -0.0031230976 0.04718654 -0.1005099
000090 5e f0 5f bd c2 20 64 3b 41 bd 74 3b 61 c8 52 bc
       -0.05467259 0.0034809564 0.003734425 -0.012865157
0000a0 0f 73 70 bd 3c 20 19 bd be b5 03 3d 2d 9b 5c 3d
       -0.05870348 -0.037384257 0.032155745 0.053858925
0000b0 74 7e 7e bd 25 e4 e7 bc 7f 16 2a bd a3 e7 2b 3d
       -0.062132314 -0.02830703 -0.04152536 0.041968953
0000c0 c6 b5 ac 3d 68 43 fb 3c 44 67 cd 3d 3a 69 38 3d
       0.08433108 0.03067179 0.10029462 0.045022227
0000d0 9f b6 bf bd a1 f9 3c bd c0 d9 b1 3b 25 7f 22 bc
       -0.09361004 -0.046136502 0.005427569 -0.009918009
0000e0 2c d8 f9 bd 58 8f a4 bd 94 f0 ea bd e9 db 49 3d
       -0.12199435 -0.08035153 -0.11471668 0.04928199
0000f0 36 bc 8f bd 9f 14 80 3d c1 5c 7a bd 6b 8a 6c bc
       -0.0701832 0.06253933 -0.061123613 -0.014437298
000100 05 46 9b bd 01 c4 e6 3d 60 ef 53 3a 5a 57 b0 3d
       -0.075817145 0.112678535 0.0008084681 0.08610411
000110 e4 1f d4 bd 1e 1f 8c bd cc f1 c8 bb cb ce d2 3c
       -0.10357645 -0.06841873 -0.00613234 0.025733372
000120 5c 09 95 bd 07 54 c9 bd 2e f7 e0 3d c7 88 84 bd
       -0.07277176 -0.0983048 0.10984646 -0.06471401
000130 bd c5 8e bd 8d d8 6a 3d cc c2 82 bd a7 ee e0 3d
       -0.06971309 0.057335425 -0.06384811 0.10983019
000140 c5 04 6a 3c e1 5d ea 3d 10 44 9e 3c 61 fb 7c bd
       0.014283364 0.11443687 0.019319564 -0.06176317
000150 81 3c 64 bd 52 c4 48 3d e1 3e 58 3d 84 1b 8d 3d
       -0.055721764 0.04901535 0.05279434 0.06890014
000160 99 16 62 bc a6 3f aa bd f9 21 eb bb 2f 7b ac bc
       -0.013799333 -0.08312921 -0.0071756807 -0.021054832
000170 91 cb c2 bb 15 86 47 3c e2 88 3f bc 60 1b 76 3d
       -0.005944677 0.012177964 -0.01169035 0.0600847
000180 bc d5 12 bd f7 02 d9 3d e2 80 ec 3c 8a cc 5e bd
       -0.035848364 0.105962686 0.02887005 -0.054394282
000190 2c 5f 87 bd ad b6 10 3d 60 87 c9 3d 46 d4 e6 bd
       -0.066099495 0.035330463 0.09840274 -0.11270957
0001a0 4d ed c4 bc ee ba cf bd ad 76 74 bd c2 ce f5 bd
       -0.024038935 -0.10143076 -0.05968349 -0.120023265
0001b0 b7 d3 a7 bc 9b 83 5e 3d 0d 9e c3 3d 2e c8 56 bd
       -0.020486696 0.054324728 0.0955163 -0.052437
0001c0 34 62 ea 3d b6 6b 57 bd 2b e3 c6 3d c4 5e 76 3d
       0.11444512 -0.052592956 0.097112976 0.06014897
0001d0 43 89 0f 3c 60 5b 00 be 10 6a 1c 3d 8c 5e 8d bd
       0.008760753 -0.12534857 0.038187087 -0.06902799
0001e0 88 0e 84 3d 2f e4 fd bd d8 9c 3f 3d ad d7 8e bd
       0.06448084 -0.12397038 0.046780437 -0.06974731
0001f0 ba 6d cd 3d ea c2 cd 3c 4e 38 4f bd 61 23 f1 3c
       0.10030694 0.025117356 -0.050590806 0.029435815
000200 cd a7 b0 3d 02 bd 88 3c c2 09 23 3d d6 d7 e7 3b
       0.086257555 0.016691688 0.039804228 0.00707529
000210 3c 52 3b bb 42 43 46 b9 a4 21 96 3d c1 58 be bc
       -0.002858295 -0.00018907807 0.07330635 -0.02323568
000220 e0 b3 33 bd ec f0 62 3d b2 9c 4e bc 4a e0 cc bd
       -0.043872714 0.055405542 -0.012610601 -0.10003717
000230 d7 6f 88 bd a4 04 90 3d 54 33 d6 3b 2a 53 f5 3d
       -0.06661957 0.07032135 0.0065368805 0.11978753
000240 ac 1c a7 bd 91 e2 c1 bd 34 13 e9 bd cc 26 f7 bd
       -0.081597656 -0.09467042 -0.11380616 -0.12067947
000250 4a 1b 40 3b 5c 04 be bb 3d 6d eb 3d 97 c1 0d 3c
       0.002931314 -0.0057988595 0.11495445 0.008652112
000260 13 62 8d bd f3 29 e2 bd e8 a8 da 3d 57 ff b8 3d
       -0.06903472 -0.110431574 0.106767476 0.09033077
000270 30 a6 9c bd 8f b9 99 bd ea 7b b0 3d 61 fa 66 3d
       -0.07648885 -0.075060956 0.08617385 0.056391124
000280 e3 43 bd 3d 96 dc fb bd ac 56 cc 3d ac eb 80 bd
       0.09241464 -0.12297933 0.09977469 -0.06294951
000290 ef 9d a6 3d 10 99 d1 3d f8 cf 28 3d 56 c9 f2 3c
       0.08135592 0.102342725 0.04121396 0.02963702
0002a0 1c 78 cb 3d dd 1c 83 3d 05 74 1e 3d 9a 25 db bc
       0.099350184 0.064019896 0.038684864 -0.026751328
0002b0 3f 9b 9e bd 21 f6 a3 bd 98 8e a4 3c 56 73 39 3c
       -0.077444546 -0.0800593 0.020087525 0.011319002
0002c0 c6 9a f8 bd fd 29 cf bd f9 10 a3 3c ad 50 45 bb
       -0.12138896 -0.101154305 0.019905554 -0.00301079
0002d0 11 65 86 3d 97 69 79 3d 38 aa cb bd d9 f5 9e 3d
       0.06562246 0.060891714 -0.09944576 0.077617355
0002e0 55 1c d0 bb c0 bf e2 3c 6d a8 14 3d cd 8c 51 bd
       -0.0063510337 0.027679324 0.036293436 -0.05115967
0002f0 91 c3 f0 3d 24 34 6e bd 57 98 8c 3d 47 6b a2 bd
       0.11756051 -0.058155194 0.06864994 -0.07930618
000300 4a cd 5d bd 88 34 cc 3d e1 5d c9 bd fd 46 c9 3d
       -0.054150857 0.09970957 -0.09832359 0.09827993
000310 f6 2f a5 bd 52 42 ff 3a 78 b1 5c 3d c2 74 18 bd
       -0.080657884 0.0019474721 0.053880185 -0.037220724
000320 e1 d8 a1 bd 74 7c 97 bd 28 90 81 3c b1 6f d1 3c
       -0.079026945 -0.073967844 0.01581581 0.025565954
000330 e4 bb ae 3d 21 f1 58 bd 61 27 91 bd 66 12 81 3d
       0.08531931 -0.052964333 -0.07087589 0.06302337
000340 c9 89 43 3c 19 26 1c 3c 1b 23 af 3d e7 67 80 3c
       0.011934706 0.009530568 0.08551618 0.015674544
000350 bb 5a 9b bd e1 83 01 3e 88 8a c1 bc 9a 46 05 3c
       -0.07585665 0.12647964 -0.023625627 0.0081345085
000360 07 52 de 3d 48 70 b3 bd 6c e4 a7 bd 1e 97 f1 bd
       0.10855489 -0.0876165 -0.08197865 -0.117964014
000370 dd 72 f7 3d 67 e1 8f 3d 0d 37 c3 3d b1 b5 a4 3d
       0.12082455 0.07025414 0.095319845 0.080424674
000380 db 0c a2 bd 82 51 68 bc 13 c8 ac 3c c7 95 41 3d
       -0.07912608 -0.014179589 0.021091497 0.04726198
000390 a6 99 4c bc a4 d9 4f bd 5c 82 df 3d 50 65 99 bd
       -0.0124878045 -0.050744668 0.10913536 -0.07490027
0003a0 d8 14 a7 bd ae 9e e8 bd 54 e5 b0 3d 57 b6 3d bd
       -0.081582725 -0.11358391 0.08637491 -0.04631647
0003b0 0f 2f d3 3d 09 aa ee 3d 2a 1e f5 3d d3 f3 ba bd
       0.1031171 0.116535254 0.11968644 -0.09128537
0003c0 09 a2 b7 bd 08 20 b8 bc b4 8b 89 bc 81 d9 b9 bd
       -0.08966453 -0.022476211 -0.016790248 -0.09074689
0003d0 bb a2 be 3d 3f c6 ba bd 59 67 88 bd 4c 81 c8 bc
       0.09308382 -0.09119844 -0.06660337 -0.024475716
0003e0 8f c4 f0 bd 3e 91 6d bc c3 bc e7 3c 8b 86 65 bc
       -0.117562406 -0.0144999605 0.02828825 -0.014009128
0003f0 82 29 cc bd d2 fa 87 3d 0d bd c9 bd 1e 78 e8 3c
       -0.099688545 0.06639637 -0.09850512 0.028377589

conv_blocks.3.bias f4 [32]
000000 f5 27 5c bd e3 4a 1d bd f0 12 0e 3d f2 2f 8c bc
       -0.053749043 -0.038401496 0.03468603 -0.017112706
000010 7f 50 bb bd 6e 1d c3 bc a4 38 aa 3c 87 1d 1d bc
       -0.09146213 -0.023817744 0.020778961 -0.009589559
000020 83 f2 81 3c 93 7f dd 3d 83 82 70 3b a1 e6 60 bb
       0.015862709 0.108153485 0.0036698885 -0.0034317153
000030 4e 7d 1d 3c ed 8b 19 3d 7d 63 5a 3d 91 15 3e 3d
       0.0096123945 0.03748696 0.053317536 0.046407286
000040 60 6a a2 bd 47 a5 a6 3d a6 bc 74 bd 58 47 24 3d
       -0.07930446 0.08136993 -0.05975022 0.0401071
000050 8b d5 44 3d 62 cd d6 3c 16 75 52 3d 7c e3 2e 3d
       0.048055213 0.026220981 0.051381193 0.042697415
000060 1e 16 f0 bd b7 09 9a 3d c7 41 ae 3b 08 fc e1 3d
       -0.117229685 0.07521384 0.0053179 0.11034399
000070 32 ce 63 bd 49 e2 7a bb 7e c6 54 3d 7b ae 73 bd
       -0.055616565 -0.003828185 0.05194711 -0.05949257

conv_blocks.4.weight f4 [32]
000000 74 63 7f 3f 07 19 80 3f fd 35 80 3f 36 ed 7f 3f
       0.9976113 1.0007638 1.0016476 0.9997133
000010 c2 8d 7f 3f 72 5a 80 3f 3b 25 80 3f e1 3f 80 3f
       0.9982568 1.0027602 1.0011362 1.0019494
000020 10 55 7f 3f d2 03 80 3f 29 26 80 3f 4d 16 7f 3f
       0.9973917 1.0001166 1.0011646 0.99643403
000030 76 24 80 3f 4e ce 7f 3f 16 8b 7f 3f 1f e7 7f 3f
       1.0011127 0.9992417 0.99821603 0.9996204
000040 a8 4b 80 3f f6 31 80 3f fb 2a 80 3f 98 10 80 3f
       1.0023088 1.0015247 1.0013117 1.0005064
000050 43 6d 7f 3f ca b5 7f 3f 5a 30 80 3f db 9a 7f 3f
       0.99776095 0.99886763 1.0014756 0.99845666
000060 93 45 7f 3f 69 ca 7f 3f c0 e9 7f 3f 59 05 80 3f
       0.99715537 0.9991823 0.9996605 1.0001632
000070 85 10 80 3f 95 af 7f 3f 76 d0 7f 3f 5c 70 80 3f
       1.0005041 0.9987729 0.9992746 1.0034289

conv_blocks.4.bias f4 [32]
000000 bc 1d d8 ba a2 39 6a 38 6b 5d 9e ba 57 8b 06 39
       -0.0016488354 5.5843622e-05 -0.0012082284 0.00012831144
000010 05 03 ac ba f8 0f eb 3a 71 ae c3 3a 14 40 5d 3a
       -0.0013123458 0.0017933836 0.0014929307 0.00084400293
000020 a3 9b 0b ba e4 3d 18 38 1a 67 38 3a a8 ff f1 ba
       -0.0005325621 3.6297264e-05 0.00070344063 -0.0018463032
000030 cd 99 1d ba b1 66 d9 ba 13 c5 97 ba cf b2 55 3a
       -0.0006011993 -0.001658639 -0.0011579118 0.000815195
000040 00 d8 4a 3a 4c 6f 8a 3a df b2 01 39 6f 14 30 ba
       0.0007737875 0.0010561734 0.00012369033 -0.0006716912
000050 4c 04 89 ba 93 33 de ba 74 9d 7c 3a 08 51 07 ba
       -0.0010453551 -0.0016952626 0.00096364995 -0.0005161916
000060 3f a5 22 bb 7c 01 8e ba 81 b5 98 ba 17 89 04 ba
       -0.0024817733 -0.0010834183 -0.0011650772 -0.00050558284
000070 c7 6e 8c 3a c8 24 77 ba cc dd b1 b9 26 ec 3f 3b
       0.0010714167 -0.0009427783 -0.00033925322 0.0029285043

conv_blocks.4.running_mean f4 [32]
000000 be ae 86 be 9a 31 0f bd 1b 4e 32 3d e4 ed bd 3d
       -0.26305193 -0.034959413 0.04353152 0.0927389
000010 41 e9 10 3e 8e b0 66 bc f8 6d 30 be 03 15 2f 3c
       0.1415148 -0.01408018 -0.1722945 0.010686162
000020 88 bd 31 3e 4a 66 80 3e 02 79 10 be 60 01 11 3e
       0.17357457 0.2507804 -0.14108661 0.14160681
000030 aa f1 ad 3d c8 eb e2 bd 81 c4 c3 bd f6 f4 39 be
       0.084933594 -0.11080128 -0.095589645 -0.18159851
000040 08 91 fb 3d 87 c1 cb 3d 4c 73 5e 3b b4 0d 8c 3d
       0.12283522 0.09949022 0.0033943234 0.06838551
000050 75 a8 35 3e 4e b4 20 be ca e8 82 bd df 1c 05 3e
       0.17740043 -0.15693781 -0.06392057 0.12999295
000060 7a e0 48 be db ff 9a 3d 5f bd 4e 3e d9 72 4a bd
       -0.19616881 0.07568332 0.20189427 -0.049425934
000070 ae 2d 99 3d 29 b6 47 3e bd a6 ec 3b 3d 96 14 bc
       0.07479416 0.19503082 0.007222025 -0.009069023

conv_blocks.4.running_var f4 [32]
000000 bf 18 e8 3c 72 2f c2 3c 9c 67 de 3c 69 66 c3 3c
       0.028332112 0.023704264 0.027149014 0.023852544
000010 3d 43 a0 3c dd ac 3e 3d a5 69 86 3d ad 0a c4 3c
       0.019563312 0.046551574 0.06563119 0.023930872
000020 e1 aa bd 3c 5a 1f 87 3d b0 b9 48 3d 52 71 ae 3c
       0.02315277 0.06597777 0.04900521 0.02129427
000030 b1 d7 a2 3c 99 28 71 3d b0 f8 95 3c af 40 93 3c
       0.01987824 0.058876608 0.01830706 0.01797518
000040 3b f6 ad 3c 39 57 9b 3c dd a0 d3 3c ef 99 9e 3c
       0.021235576 0.01896249 0.025833542 0.01936051
000050 f8 51 ae 3c 5e b7 5b 3d 83 03 01 3d 7a bc a3 3c
       0.02127932 0.05364167 0.03149749 0.019987334
000060 2a 65 9d 3c ac 2d 9d 3c 05 b6 df 3c 78 0a 8d 3d
       0.019213278 0.019186817 0.027308473 0.068867624
000070 f4 e1 f1 3c 1c 0b bc 3c 2e 5a 0a 3d 98 bb a6 3c
       0.029526688 0.022954516 0.03377741 0.020353124

conv_blocks.7.weight f4 [64, 32, 4]
000000 c8 ce 11 3c d2 19 70 3c bc 21 e0 bb 20 1a 6a 3d
       0.008899398 0.014654594 -0.006839959 0.05715382
000010 0c 62 3e 3d 12 99 b7 bc 86 b6 5e 3d c1 8e a8 3c
       0.046480224 -0.022411857 0.054373287 0.020575883
000020 b5 18 49 bd 24 0d 44 bd 8b dc 89 3d 6e 06 85 3d
       -0.049095828 -0.047864094 0.06731518 0.06495367
000030 bc c2 08 bd 2d f3 69 3d b9 df b0 3d 97 d4 7a bd
       -0.03338884 0.057116676 0.08636422 -0.061237898
000040 06 fc 85 bc f1 9e 2b 3d d0 d4 31 bb 44 b4 84 3d
       -0.016355526 0.041899625 -0.0027134903 0.064796954
000050 53 66 89 bd 3d 39 73 bd 47 1a 4a 3d ed ab 92 3c
       -0.0670897 -0.05938076 0.049341466 0.017904246
000060 36 29 46 bc 55 81 88 3d 31 35 59 3d 37 31 5c bd
       -0.012094786 0.06665293 0.053029243 -0.053757872
000070 e4 c8 84 bd fd dd 8f 3d 86 71 b1 bc 7b 8d 43 3d
       -0.06483629 0.07024763 -0.021660578 0.04774235
000080 bb 12 93 3c 6e 2f 92 3d 04 e9 b4 3d 5c 50 93 3d
       0.017953267 0.07137953 0.08833507 0.07193062
000090 e5 e8 56 bd 05 3e 0f bd 0e 8f 04 3c e4 8d 90 3d
       -0.0524682 -0.034971256 0.0080907475 0.070583135
0000a0 81 d6 a3 bb 0a 3a 88 3d 59 a1 88 3d ce 33 dc 3c
       -0.004999936 0.06651695 0.066713996 0.026880171
0000b0 dc 4a 1a 3d af 9b c5 bc 54 01 19 bd 17 63 e4 3c
       0.037669048 -0.024122087 -0.037354782 0.027879281
0000c0 2b 54 70 3c e9 05 0e bb af 00 e6 3c 01 42 79 bd
       0.014668505 -0.0021671003 0.028076498 -0.06085396
0000d0 fb cf 14 3d 7c 4e 87 bd c0 17 98 3c 0f a9 cc 3a
       0.036331158 -0.066067666 0.018566012 0.0015614348
0000e0 33 a4 42 bd 03 2f 16 bd 81 23 cd bc 55 2c 74 bd
       -0.047519874 -0.036665928 -0.025041344 -0.05961259
0000f0 29 2a 02 bd 47 42 64 bd 68 94 0c bd 68 ef 36 bd
       -0.03177849 -0.05572727 -0.03432122 -0.04466191
000100 77 bf 50 bc fc ee 44 3c fc 3b ac 3d ce d0 3a 3d
       -0.012740961 0.012019869 0.084098786 0.045609288
000110 8c 17 da bc c0 05 13 bc a3 f0 9c 3d da 36 dc 3b
       -0.026622556 -0.008973539 0.07663085 0.006720406
000120 c0 7f f3 3c c6 54 1f 3d 4e 7e f6 bc 18 46 4a bd
       0.029724002 0.038899206 -0.030089524 -0.049383253
000130 5f 47 1d bd f4 cc b3 3b 83 ee 4e 3d b7 0c 6f 3d
       -0.038398143 0.005487079 0.05052043 0.058361735
000140 f5 f1 67 bd 9d b0 e0 3c cb 42 0d 3d 08 6d 57 bc
       -0.056627233 0.027427966 0.034487527 -0.013148554
000150 a6 fe 8f bd 13 04 18 bb 4a 88 03 3d 52 b1 36 bd
       -0.07030992 -0.0023195788 0.032112397 -0.0446027
000160 ed 65 86 bd 71 31 57 3d 87 ce aa 3d 1b cd 85 3c
       -0.065624095 0.052537385 0.08340173 0.016333153
000170 48 c9 a9 3d f4 4d 3b bd 98 cd 83 3d 02 95 08 3c
       0.082903445 -0.04572864 0.06435698 0.0083363075
000180 f5 42 7f 3d cf c1 8c bc 63 a8 2e 3d c0 d0 3a bd
       0.062319715 -0.017182259 0.042641055 -0.045609236
000190 63 20 8d 3d df 57 9f 3d da 9d 98 3d 1d 47 5d 3d
       0.06890943 0.07780432 0.07451983 0.054022897
0001a0 e2 4e 5c 3d e1 15 e4 3b 6a c8 72 bc c7 cb a5 3d
       0.053786166 0.006960616 -0.01481829 0.08095508
0001b0 8c 5a a7 bd 42 55 8e bd 73 9d 53 3c c4 20 3d bd
       -0.08171567 -0.069498554 0.012915957 -0.046173826
0001c0 78 f7 c8 3c a5 9e 97 3d f7 cb 40 bd 20 c4 30 3d
       0.024532065 0.07403306 -0.047069516 0.04315579
0001d0 10 e8 49 bd c1 f0 9f bc 8c c1 5c bd bf 1c 6e 3d
       -0.049293578 -0.01952398 -0.05389552 0.058132883
0001e0 c6 ad 16 bd 12 9f 5d 3d 43 8b 88 3c 44 c0 67 bd
       -0.036786817 0.05410678 0.016667968 -0.056579843
0001f0 f4 59 9f 3d 13 22 af ba d7 ec a4 bd 58 e4 7d bd
       0.07780829 -0.0013361595 -0.08052986 -0.061985344
000200 72 dd 1a 3d 14 49 c9 bc 7f e4 f7 3c 75 57 2a 3d
       0.037808843 -0.02457098 0.030260323 0.04158731
000210 b7 b6 e0 3b 25 6c eb 3b 97 55 95 bc d4 28 59 3d
       0.006857719 0.0071845227 -0.018229289 0.053017452
000220 a3 ac 7f 3c 89 bb b1 3d c5 f4 20 bd 35 77 b4 bd
       0.015605125 0.086783476 -0.03929593 -0.088117994
000230 94 75 20 3d ce 17 88 bd 04 a9 37 3c c9 4f 3c 3d
       0.03917463 -0.066451654 0.01120973 0.045974527
000240 01 58 b2 bd d4 2c 86 3d fb 84 a8 3d 1a ba 85 3d
       -0.08708192 0.06551519 0.08228489 0.06529637
000250 d7 64 f5 3c 7a 4e 83 bd 3c 53 9a 3d 25 28 49 3d
       0.02995531 -0.064114526 0.07535407 0.04911055
000260 d0 d7 8d 3c 54 8a 1a bd 35 4d 82 bd f3 a9 8f bd
       0.017314821 -0.037729576 -0.06362382 -0.07014837
000270 9a 38 9d 3d a0 38 6a 3d 2a 9a ec bc f2 cc f7 bc
       0.076768115 0.057182908 -0.028882105 -0.030249093
000280 ba df 82 bd 05 a9 a4 bd c2 af d7 3b 5f 5e 60 bd
       -0.06390329 -0.080400504 0.0065822313 -0.0547775
000290 c4 83 88 3d 94 3f ae bc 32 e2 72 bd 75 d7 7e bd
       0.06665757 -0.02127055 -0.059297748 -0.062217195
0002a0 a3 3d b3 bd 85 3b 13 bc a6 41 99 bc 59 ed 58 3d
       -0.08751991 -0.0089863585 -0.018708061 0.052960727
0002b0 82 fe 09 3c 10 77 4b bc d3 82 e4 3b 23 0e 74 bc
       0.008422496 -0.012418523 0.0069736033 -0.014895949
0002c0 c7 ef 5f 3c b3 b2 66 3d 14 7f 7f 3d 9d 74 37 3d
       0.013668007 0.056322765 0.06237705 0.044788945
0002d0 96 6e 8d bb bf 29 13 3d e1 09 a6 bd 07 13 8b bd
       -0.0043161614 0.035928484 -0.08107353 -0.067907386
0002e0 05 15 9e 3d 82 1c a6 3d 8c 70 a4 3d 0c 1a 99 bd
       0.07718853 0.08110906 0.08029279 -0.07475671
0002f0 af 76 a4 3d 12 b3 af bb b7 36 b1 3c 12 a2 06 3d
       0.080304496 -0.005361923 0.021632535 0.032869406
000300 e1 25 09 3d e1 dd 46 3a 67 2b 0a bc d7 ea 4c ba
       0.03348339 0.0007586163 -0.0084331995 -0.0007816976
000310 84 73 3e 3d 37 05 ee 3c 8f de 70 3d 18 05 ca bc
       0.046496883 0.029055221 0.058806 -0.024660632
000320 9f d3 d4 3c c4 f7 8c 3d 70 aa 9f bd 7d 6b 72 bd
       0.025979815 0.06883195 -0.0779618 -0.05918454
000330 4f 8c 6f bd 0e 55 07 3d 01 91 29 3d 41 67 1e 3d
       -0.058483418 0.0330401 0.041398052 0.03867269
000340 33 4e 10 3d d5 e5 a1 bc 59 6c 9c 3d 52 93 7c bd
       0.035230827 -0.019762913 0.07637853 -0.061663933
000350 29 fb 93 3d e4 65 8f 3d 3c 9a 76 bc df 2a 92 3c
       0.072256394 0.07001856 -0.015051421 0.017842708
000360 ed 3b 86 bc e7 0a 37 3c f0 07 7c 3d c3 29 63 3c
       -0.016385997 0.011172033 0.061531007 0.013864937
000370 f5 29 83 bd b1 9e 52 bd 50 77 3b 3d b4 b1 ec bb
       -0.06404487 -0.05142087 0.045768082 -0.0072233323
000380 f9 af fd 3b 38 5e a1 bd 7b 5e ad 3d da 7b 82 3d
       0.007741925 -0.07879299 0.08465286 0.06371279
000390 bd 3b aa bd 79 f5 ac 3d 44 41 4f 3d 9c ec cb 3c
       -0.083121754 0.08445258 0.05059935 0.024893098
0003a0 40 34 65 3d bb 94 54 bd 42 de 0d bd e0 be 94 3d
       0.055958033 -0.051899653 -0.03463579 0.07262969
0003b0 a5 3f 02 3c c8 c2 1a 3c 7e 34 9b 3d dc 12 4e 3c
       0.007949744 0.0094458535 0.075783715 0.012577739
0003c0 fc 7e 2a bd 3c 88 ca 3c 44 6c 6f 3d 36 ca b0 3d
       -0.041625008 0.024723165 0.05845286 0.08632319
0003d0 c6 e6 4c 3d b5 4f ae bd 36 ff 23 bd 5c e8 ef 39
       0.05002477 -0.08511297 -0.04003831 0.00045758754
0003e0 99 67 c9 bc 70 cd 63 3c c2 f9 cf bc 63 64 df bc
       -0.024585532 0.013903961 -0.025387648 -0.027269548
0003f0 1d 7b 97 bd 5f 6f a6 3d 02 7e 6e bc 2f 28 98 3d
       -0.07396529 0.08126711 -0.01455641 0.074295394

conv_blocks.7.bias f4 [64]
000000 61 0b 8b 3c ac 46 74 bd e0 39 89 ba 6f 09 f8 bc
       0.0169732 -0.05963771 -0.0010469519 -0.030277936
000010 67 b2 3c bd cb 8b 8f bc 7d d2 5b bd 38 c3 ca 3b
       -0.046068575 -0.017522713 -0.053667534 0.0061878227
000020 a9 20 d0 3c 07 42 5d bd 31 4d 9a 3d ad ab 82 bc
       0.025406199 -0.054018047 0.07534254 -0.015951002
000030 59 ce 32 bd eb d7 55 bb f4 50 77 3d 1d df 1a bd
       -0.04365382 -0.0032629918 0.060379937 -0.037810434
000040 4c 8a 1e bd 74 b2 c2 3b 1a f4 ac 3d 04 a9 b2 bd
       -0.03870611 0.0059416834 0.08444996 -0.087236434
000050 93 2f 87 bd c6 94 93 bc 3a 7a 24 bd 0f 56 47 bd
       -0.06600871 -0.018015277 -0.040155627 -0.048666056
000060 99 37 b4 3c ae 08 5a bd db e8 a7 bd 1e ed 72 3d
       0.021999167 -0.053230934 -0.081987105 0.059308164
000070 d5 37 49 3d df 8d 8e 3d f0 b8 ae bd 1b 4a f8 bc
       0.04912551 0.069606535 -0.08531368 -0.030308774
000080 b7 2e 98 3d d2 e2 a4 bc 0d da a3 3d c5 91 2a bd
       0.07430785 -0.020127688 0.08000574 -0.041642923
000090 d8 8b 2b 3d f0 bc 74 3d 10 a1 f0 bc 1c 86 43 bd
       0.041881412 0.059750497 -0.029373676 -0.04773532
0000a0 e9 c2 b0 3d fc b9 5c bd e7 69 2b bd 6f 13 ae bd
       0.08630926 -0.053888306 -0.041849043 -0.084998004
0000b0 db 90 30 bd 10 70 43 bd 49 e5 9a bd d9 91 4b 3d
       -0.043106895 -0.047714293 -0.07563264 0.049699638
0000c0 1f 59 79 bd f8 75 35 bd cc 41 9d 3c 1e e7 1d bd
       -0.060876008 -0.044301957 0.019196413 -0.03855049
0000d0 ff 86 a2 3c 09 92 97 3d 9c 7f 41 bd 42 f3 1f bc
       0.019839762 0.07400901 -0.04724084 -0.009762587
0000e0 82 95 8a bc 7b cf 86 bd 9a d8 0d bd 13 06 5d 3d
       -0.016916994 -0.065825425 -0.034630395 0.05396087
0000f0 78 b6 b0 3d b9 44 46 bc 20 b0 a8 bd 93 a1 9c bd
       0.08628553 -0.012101346 -0.08236718 -0.07648005

conv_blocks.8.weight f4 [64]
000000 1c 33 80 3f 9e 11 80 3f 78 b9 7f 3f d5 1d 80 3f
       1.0015597 1.0005376 0.9989238 1.0009104
000010 c2 4d 80 3f 67 22 80 3f ca 33 80 3f 88 79 7f 3f
       1.002373 1.0010499 1.0015805 0.99794817
000020 c4 18 7f 3f 20 79 80 3f 00 32 80 3f 46 21 80 3f
       0.99647164 1.0036964 1.0015259 1.0010154
000030 c3 41 80 3f 58 cd 7f 3f 44 ec 7f 3f b5 3f 80 3f
       1.0020069 0.99922705 0.9996989 1.0019442
000040 72 28 80 3f e0 4e 80 3f 1b 09 80 3f 4a 56 7f 3f
       1.0012343 1.0024071 1.0002779 0.9974104
000050 26 38 80 3f 0d 60 80 3f 61 3e 7f 3f 13 c4 7f 3f
       1.0017135 1.0029312 0.9970456 0.9990856
000060 50 5f 80 3f b2 e2 7f 3f 9c 5a 80 3f 59 a5 7f 3f
       1.0029087 0.99955285 1.0027652 0.99861676
000070 d3 6c 80 3f d6 04 80 3f 49 ba 7f 3f 44 4c 7f 3f
       1.003321 1.0001476 0.99893624 0.9972575
000080 6c 24 80 3f 7d 4f 7f 3f d9 8c 7f 3f aa e1 7f 3f
       1.0011115 0.99730664 0.9982429 0.9995371
000090 37 7c 7f 3f 49 46 7f 3f 35 d0 7f 3f d5 47 7f 3f
       0.9979891 0.9971662 0.99927074 0.9971898
0000a0 9a 52 80 3f 35 4b 7f 3f 3c e5 7f 3f 6f f5 7f 3f
       1.0025208 0.9972413 0.9995916 0.99983877
0000b0 33 3b 80 3f 13 2c 80 3f 57 0e 7f 3f f5 4a 80 3f
       1.0018066 1.001345 0.99631256 1.0022875
0000c0 81 82 7f 3f ef 09 80 3f a5 41 80 3f 12 16 80 3f
       0.9980851 1.0003031 1.0020033 1.0006735
0000d0 52 36 7f 3f e5 9a 80 3f 68 72 7f 3f 50 5a 80 3f
       0.9969226 1.004727 0.99783945 1.0027561
0000e0 2c 2c 7f 3f 4a fa 7f 3f 0a 42 80 3f c5 83 7f 3f
       0.99676776 0.99991286 1.0020154 0.9981044
0000f0 af 12 80 3f 1e 95 7f 3f 7a d7 7f 3f 75 49 7f 3f
       1.0005702 0.9983691 0.99938166 0.9972146

conv_blocks.8.bias f4 [64]
000000 43 73 0b 3b 92 29 e4 39 f9 07 82 ba 71 09 87 3a
       0.0021278418 0.0004351852 -0.0009920589 0.0010302496
000010 aa fc ab 3a 54 00 86 38 35 ae 03 3b 01 6f b6 ba
       0.0013121564 6.389679e-05 0.002009285 -0.001391858
000020 9d 8c 43 ba 9e d2 18 3b a3 0d b2 3a 4e 7e 9b 3a
       -0.00074596127 0.0023318897 0.0013584386 0.0011863203
000030 fc bd 60 b9 d6 7b f3 3a b9 df 8c ba 99 b8 95 3a
       -0.0002143308 0.0018576335 -0.0010747827 0.0011422812
000040 81 07 b4 3a a0 f1 4a 3a 8d 73 4a 3a 8a 0a f1 ba
       0.0013735146 0.00077416934 0.0007722907 -0.0018389982
000050 f2 b6 f2 3a c9 9b ad b9 68 0e 4f bb 18 c5 0b ba
       0.0018517657 -0.000331132 -0.003159428 -0.00053317985
000060 10 12 2c 3b 54 95 6f 3a d8 be c0 3a 5e 68 26 ba
       0.0026255883 0.0009139378 0.0014705313 -0.00063479494
000070 be ac 42 3b 7d 3c 48 bb 28 6a dd 39 72 48 60 ba
       0.0029705013 -0.0030553632 0.00042231497 -0.0008555717
000080 01 ca 91 39 1d f2 18 bb ca 45 41 b9 23 6b 9b 39
       0.0002780706 -0.002333767 -0.00018431913 0.00029643727
000090 77 46 be b8 82 ba bf ba b3 6d 26 ba a0 49 7f ba
       -9.073031e-05 -0.0014627727 -0.0006348744 -0.0009738449
0000a0 aa e8 0e 3b ad df 1e bb 80 d5 1c ba 33 62 1a bb
       0.002180616 -0.0024242208 -0.0005982742 -0.0023557066
0000b0 93 f4 8b 3a ef f7 0e 3a 6c a1 2a bb b3 c1 d8 3a
       0.0010677747 0.0005453815 -0.0026036156 0.0016537219
0000c0 52 df 67 ba 33 ab 1e ba 4a ec a0 39 5c 37 73 3a
       -0.0008845228 -0.00060527324 0.00030693627 0.00092779635
0000d0 a1 5f 02 bb 68 88 5d 3b 8e dc cc ba 05 ad dd 39
       -0.0019893425 0.0033803228 -0.0015629695 0.00042281314
0000e0 44 12 3e bb 5a a4 ed b8 a9 cd 2d 3b 14 ef 0c bb
       -0.0029002586 -0.000113316535 0.0026520288 -0.0021504806
0000f0 e0 07 85 39 c9 11 56 b8 eb a6 e8 ba 8b 3c fe ba
       0.00025373604 -5.103814e-05 -0.0017749941 -0.0019396705

conv_blocks.8.running_mean f4 [64]
000000 1c 85 a7 3e 8c 08 62 3e e8 e2 f7 3d 36 9f 1c 3e
       0.32718742 0.22073573 0.12103826 0.15295109
000010 70 d5 8a 3b b1 1c 34 bd c7 1f 05 3d a8 e0 60 be
       0.0042368695 -0.043972675 0.03250101 -0.219607
000020 44 da c9 bd c9 6b 8e be 55 67 b6 bd 54 ae d9 3d
       -0.09856084 -0.2781661 -0.08906428 0.106289536
000030 57 8f d1 bd 47 dd 2e bd cd 2b 61 3e f9 e9 9b bd
       -0.10232418 -0.042691495 0.21989365 -0.07612986
000040 e6 c2 aa 3e 58 ba ba 3d fc 46 73 bd 2e 9e 82 3e
       0.3335182 0.091175735 -0.059393868 0.25511307
000050 92 a1 bf be 8e 6b c8 3d 64 df 0c be 29 cf b9 bd
       -0.37427956 0.097861394 -0.13757092 -0.09072716
000060 bc 9f 74 bc 3c 35 54 be 66 ec 26 be 7b 85 fe 3e
       -0.014930662 -0.20723432 -0.16301116 0.49711213
000070 c8 b5 37 3d f1 1d 37 be c5 9b 99 be 1d 21 b8 bd
       0.044851094 -0.17882515 -0.30001655 -0.08990691
000080 81 3c 78 3e 0e 20 dc 3d 26 9a 64 3e 58 34 9f 3d
       0.2424183 0.107483014 0.22324428 0.07773656
000090 ba 5b 87 3e 16 41 4a 3d c2 d0 8d bd 26 e5 dc 3c
       0.2643717 0.049378477 -0.06924583 0.026964735
0000a0 f2 82 49 be 73 87 9c 3e 83 13 12 bd 86 21 01 bd
       -0.19678858 0.3057209 -0.03566314 -0.03152611
0000b0 86 c0 9c 3d 59 ef 53 be b5 d5 f7 3c fd ac 02 be
       0.076539084 -0.20696773 0.03025327 -0.12761302
0000c0 60 cf e8 bb 11 92 39 be f0 c2 83 3e 9a f7 67 bd
       -0.007104799 -0.18122126 0.25734663 -0.056632616
0000d0 09 c4 9d 3e 34 26 0e 3e 36 c9 83 3d b3 68 f7 3d
       0.30813625 0.13881761 0.06434862 0.12080517
0000e0 49 88 10 3e 4d cb b7 3c 2d 2f b6 be 12 16 02 3e
       0.14114489 0.022435809 -0.35582867 0.12703732
0000f0 bb db d3 bc 9f fb 39 3e f9 d3 8b bd 99 b3 3c be
       -0.025861612 0.18162392 -0.0682754 -0.18427886

conv_blocks.8.running_var f4 [64]
000000 e3 e0 6b 3e 27 3f 54 3e 87 46 8c 3e 2f fd 81 3e
       0.23035006 0.20727216 0.27397558 0.25388476
000010 33 de 4e 3e 26 e8 88 3e 2a 2e 38 3e c0 b1 ce 3e
       0.2020195 0.26739615 0.1798636 0.40369987
000020 48 a3 5d 3e d2 52 60 3e 4a b2 21 3e e8 eb 50 3e
       0.21644318 0.21906593 0.15790668 0.20402491
000030 cd 16 38 3e 1f e1 7e 3e de 94 3d 3e 86 b4 46 3e
       0.17977448 0.24890564 0.1851382 0.19404802
000040 f8 7a 70 3e f1 cf 87 3e 84 cb 71 3e 40 67 73 3e
       0.23484409 0.26525834 0.23612791 0.23769855
000050 e5 de 41 3e 7f 87 42 3e 6b c8 2a 3e c9 f8 6f 3e
       0.18932684 0.18997 0.16678016 0.23434748
000060 81 b7 55 3e 32 38 45 3e 48 d0 54 3e fa 91 6d 3e
       0.20870782 0.19259718 0.20782578 0.23200217
000070 23 a0 89 3e ba 11 59 3e c5 04 84 3e f6 4c 5a 3e
       0.26879987 0.21198168 0.2578489 0.21318421
000080 41 bb 5f 3e 75 b6 58 3e 5f d0 1e 3e 40 a8 58 3e
       0.21848775 0.21163352 0.15509175 0.21157932
000090 16 42 60 3e ad 19 40 3e c9 7d 43 3e 73 be 2f 3e
       0.2190021 0.18759795 0.19090952 0.17162494
0000a0 71 43 4e 3e bc 1f 51 3e 45 4a 4d 3e 76 82 66 3e
       0.20142914 0.20422262 0.20047863 0.22510704
0000b0 7d e0 51 3e 8f b8 62 3e 42 77 3c 3e 14 49 28 3e
       0.20495792 0.22140716 0.18404868 0.16434127
0000c0 35 85 36 3e 3a 6e 3a 3e 04 a1 29 3e c7 64 3d 3e
       0.17824252 0.1820611 0.16565329 0.18495475
0000d0 e5 6b 52 3e fe 43 4f 3e 5b 9a 3e 3e dd 68 3c 3e
       0.20548971 0.2024078 0.1861357 0.18399377
0000e0 47 0a 60 3e 6a 8f 4a 3e 86 3f 5c 3e 7c 0d 57 3e
       0.2187892 0.1978127 0.21508607 0.21001238
0000f0 c9 99 29 3e f4 9b 3c 3e ec e7 66 3e 84 c9 5c 3e
       0.1656257 0.18418866 0.22549409 0.21561247

conv_blocks.11.weight f4 [128, 64, 4]
000000 13 34 74 bd 49 75 ab bc d2 b8 3c bc ad ca dc bc
       -0.059619974 -0.02092995 -0.011518674 -0.026952112
000010 38 0f 54 bd ca 78 9b 3c 54 88 0b 3c e4 79 25 3c
       -0.051772326 0.018978495 0.00851639 0.010099862
000020 88 a8 36 3d 47 4b 1a 3d e6 b9 97 bc 26 21 3c 3d
       0.044594318 0.037669446 -0.01852126 0.04593005
000030 47 c5 17 3d 00 a3 6d bd 9f 3c 29 bd e5 b0 09 bd
       0.037053373 -0.058016777 -0.04131758 -0.033615965
000040 92 63 5e bd b2 b4 df 3c fd 33 33 bc bc 23 6e bd
       -0.054294176 0.027307842 -0.010937688 -0.058139548
000050 70 bf 55 3d 4f 54 fe 3c 58 16 0c 3d a4 0d 2a bc
       0.052184522 0.03104606 0.034200996 -0.010379229
000060 5a f5 8c bc da 39 72 ba b8 3f 7c bd 97 88 8a bc
       -0.017206836 -0.0009240188 -0.061584204 -0.016910834
000070 fd 19 2f bc dd 4c 52 3d 30 b2 10 3d 6d 54 28 3d
       -0.010687348 0.051342834 0.035326183 0.04109614
000080 7d 03 45 3c a0 0e 03 bc db 5b 58 3a 7e 02 30 3d
       0.012024757 -0.007999092 0.00082534336 0.042971127
000090 39 fa 49 bc 8e 15 10 bd 9e 1b 59 bd 76 57 59 bd
       -0.012327724 -0.035176806 -0.053004853 -0.053061925
0000a0 75 00 99 bb f2 4c e1 bc e6 ae 74 3d 25 67 47 3d
       -0.004669244 -0.02750251 0.05973711 0.04868235
0000b0 bc 30 4d 3c 25 90 b5 b9 38 40 27 ba 4b e5 8c bb
       0.012523826 -0.00034630406 -0.0006380114 -0.004299795
0000c0 38 1c db 3c f0 de 5c bd cf e7 b8 3c 86 57 38 bc
       0.026746854 -0.053923547 0.022571472 -0.011251336
0000d0 f4 8f 54 3c f2 1d fd bb 15 5a 33 bd 50 76 a4 bc
       0.012973774 -0.007724517 -0.04378708 -0.020075947
0000e0 e3 0a cf bc 57 c5 02 bd 90 94 d2 bc 1e cc 48 3d
       -0.025273746 -0.03192648 -0.025705606 0.049022786
0000f0 90 b1 54 3d 45 07 33 3d d2 3a 47 bd e2 2d 78 bd
       0.05192715 0.043708105 -0.04864008 -0.060590632
000100 21 bc 3c 3d ee f6 6d bd d4 5c f6 3c 9e 3a d9 3c
       0.04607785 -0.05809682 0.03007356 0.026517209
000110 6e 6b 30 3c 24 8e bf bc fb 57 59 bd 30 e7 bc bc
       0.010767801 -0.023383208 -0.05306242 -0.023059458
000120 97 05 04 bd 8f 6e 48 bc 4a ba 81 bd 20 89 dc bc
       -0.032231893 -0.0122333905 -0.0633436 -0.026920855
000130 73 25 b9 3c 24 6b 54 bd 18 28 a0 3c 22 41 1b bd
       0.022600865 -0.05185999 0.019550368 -0.037903912
000140 ff c2 2d bd 76 b7 32 3d e7 92 9a bc c3 fe 48 bd
       -0.04242229 0.043631993 -0.018868877 -0.049071085
000150 93 28 19 bc 53 ec 37 bd 6a 5b 7e bb 90 8b 1a bd
       -0.009348053 -0.04490311 -0.0038811811 -0.037730753
000160 e8 5f 52 bd fe d0 67 3d 61 a4 f3 39 df e2 85 3c
       -0.051360995 0.056595795 0.00046471044 0.016343532
000170 a9 1d 70 3d d2 07 5e 3c f5 c3 e1 3c 02 30 6f bb
       0.058622036 0.013551669 0.02755926 -0.003649712
000180 dd 92 24 3d bc e3 ca 3b 17 11 c5 bc ea 4a 33 bd
       0.040179122 0.006191699 -0.024056 -0.043772615
000190 47 d7 e3 bc 05 90 47 bd 29 22 de bb fa 3b fb 3c
       -0.027812613 -0.048721332 -0.0067789746 0.030668247
0001a0 e8 91 25 bd c6 88 16 3d 6c b3 2d bd 0b 81 be 3c
       -0.04042235 0.03675153 -0.04240744 0.023254892
0001b0 9c 3a 77 bd ea 9d 24 3d 57 47 5e 3c a2 46 4a bd
       -0.06035863 0.04018966 0.013566813 -0.049383767
0001c0 bc 81 4e bc 26 03 3c 3d 8b ec f6 bc 7d db 28 bd
       -0.012604173 0.04590144 -0.03014209 -0.041224945
0001d0 73 ce 60 bd a0 6d 9b 3c 16 cc 65 bc d3 aa a5 bb
       -0.054884385 0.018973172 -0.014025709 -0.005055764
0001e0 84 94 ee bc 0c e2 dd 3c 59 d0 0d 3b 3a dc 42 bd
       -0.029123552 0.027085327 0.0021639077 -0.047573306
0001f0 5c ef 00 bd 61 7d 70 bd b6 bc 26 3c be 66 98 3c
       -0.03147827 -0.05871332 0.010176828 0.018603679
000200 ce 65 36 3d cb 17 cb bc af 88 2e bd c1 d5 6e bd
       0.044530682 -0.024791619 -0.04261082 -0.05830932
000210 3e 07 d7 3c b1 ec 66 bd fa ef d3 bc d6 f1 20 bd
       0.02624857 -0.05637807 -0.025871266 -0.039293133
000220 88 da 04 3c a2 8e 5d bd 93 85 a8 3c 92 4a 4d bd
       0.008108743 -0.054091103 0.020571506 -0.050119944
000230 cb 4a d4 bc 6c b8 0c 3d ff 99 43 bd f0 1b 0e bd
       -0.02591457 0.034355566 -0.047754284 -0.034694612
000240 4b 75 77 3c bb e2 c7 3c c5 b2 ff 3c 08 f1 06 bd
       0.015103648 0.024400106 0.031213174 -0.03294471
000250 24 06 31 bd 16 89 be bc a3 5f 05 bc 6e b6 47 bd
       -0.043218747 -0.023258727 -0.008140477 -0.048757963
000260 b7 12 1d 3d 5e 81 18 3d 4f df 16 3d 3e 06 8a 3c
       0.038347926 0.03723275 0.036834057 0.01684868
000270 e8 6b 64 bd 7e 51 59 bd 05 90 d4 bc ee a0 2e bd
       -0.05576697 -0.053056233 -0.02594758 -0.042633943
000280 92 3a 23 3d 1d 76 49 3d d3 4d 40 3c 76 1f 13 3d
       0.03985078 0.049184907 0.011737305 0.035918675
000290 a4 d9 08 3d 7b 7b 48 bd de fb 5c 3c 60 e5 22 3d
       0.033410683 -0.048945885 0.013487784 0.03976953
0002a0 75 74 66 bd 07 d3 4e bd d3 1d dd 3c 57 66 09 bc
       -0.056263406 -0.05049422 0.02699176 -0.008386216
0002b0 08 67 aa bc a4 8c 46 bc 2e 88 67 bd a7 91 49 bd
       -0.020801082 -0.012118492 -0.056526355 -0.04921117
0002c0 aa 47 38 bc a9 8e 0c 3d 1f d5 6a bd 20 af 3e bd
       -0.011247555 0.03431574 -0.057332154 -0.04655373
0002d0 a1 76 68 bd 39 fb 63 3c 22 3a 08 bd cc 27 0c 3d
       -0.05675376 0.013914877 -0.033258565 0.03421764
0002e0 bd 91 1c 3d 93 5a 71 bd 12 3f fc bc 65 a5 4f bd
       0.038224924 -0.05892427 -0.030791793 -0.050694842
0002f0 89 43 c5 bc fd 63 24 bd ba b1 f3 bc fe b9 b6 bb
       -0.024080055 -0.04013442 -0.029747833 -0.005576371
000300 be e6 a0 bb d1 0e 44 3c 94 d4 3c bd f4 0a 00 3d
       -0.004910319 0.011966423 -0.046101168 0.031260446
000310 ee 10 68 bd ca f7 17 3d 14 f6 f9 bc 38 74 65 bd
       -0.05665677 0.037101544 -0.030512847 -0.056019038
000320 f9 a9 2e 3d ac fc 2f bd 98 4d 8b 3c be 14 e9 bc
       0.042642567 -0.042965576 0.017004773 -0.028452273
000330 35 5c 79 3d 8b df c6 3c 0a c7 ea 3c 65 f1 37 bd
       0.06087895 0.024276515 0.028659362 -0.044907946
000340 23 95 34 3d c0 18 f0 bc ff 69 fb bc 55 26 5a bc
       0.04408754 -0.029308677 -0.030690191 -0.013314803
000350 e2 e5 05 bd 60 9d 5f bd 96 10 99 3c 05 66 f6 3c
       -0.032689936 -0.054593444 0.018684667 0.030077944
000360 37 cb 13 3d 59 f1 81 3c 9b 1d 77 bd 8b e9 21 3c
       0.036082473 0.015862154 -0.06033097 0.009882341
000370 f5 a3 f3 3a 16 62 8b 3a 67 d2 6e ba 42 53 46 bb
       0.0018588292 0.001063409 -0.0009110332 -0.0030262028
000380 09 48 da 3b dc b8 0f bd 62 1b 9e 3c c2 87 8c 3c
       0.0066614193 -0.035088405 0.019300167 0.017154578
000390 b7 26 38 3d 24 19 1a bd 34 d8 33 bd 74 e0 3b 3d
       0.044958796 -0.037621632 -0.04390736 0.045868352
0003a0 83 c5 90 bb 32 32 1f bd ea 8c 17 bd 46 53 55 3d
       -0.0044180765 -0.03886623 -0.03699962 0.05208137
0003b0 2f 50 d8 bb fd 1e 64 bd 82 20 ba bb 1d b2 9e bc
       -0.0066013555 -0.055693615 -0.0056801448 -0.01937204
0003c0 2b 9d a5 3b 5d f0 76 bb f3 e1 3d 3d 87 1d 3b bd
       0.0050541363 -0.0037679889 0.04635806 -0.045682456
0003d0 af 02 58 3d 53 e4 2c 3d 71 8e 16 3d 1a 0c 22 39
       0.052736934 0.042209934 0.036756936 0.00015454032
0003e0 bc 77 32 bd 6f cb 3b bd ab bb d1 bc 69 54 16 3d
       -0.04357122 -0.045848306 -0.025602182 0.036701594
0003f0 07 b4 03 3c 36 7e 06 3d 6d 71 09 3d ad d9 b3 bc
       0.008038527 0.032835208 0.033555437 -0.021954382

conv_blocks.11.bias f4 [128]
000000 47 06 9c bc 76 fe 32 3d 04 ce 80 ba 61 07 32 ba
       -0.019045962 0.043699704 -0.0009827022 -0.00067912607
000010 47 f4 5b b9 cf 77 07 bd eb 51 72 3c 1b b7 73 bd
       -0.00020976468 -0.033073243 0.014790039 -0.059500795
000020 d3 63 fe bb 1a 74 48 bb 64 ae 57 3c 0a 00 01 bd
       -0.007763365 -0.003058678 0.013164137 -0.031494178
000030 3e d3 79 bd 0c ae 75 3d 0c 17 16 bd 86 7f f8 bc
       -0.060992472 0.059980437 -0.036643073 -0.030334245
000040 91 d2 1f 3d 6d e0 d1 bb 2d 25 1f bd 46 40 2f bd
       0.03901917 -0.0064049275 -0.038853813 -0.042785905
000050 5f 0e 6b bd 91 bb 46 3b 80 74 74 3b da 45 53 3d
       -0.057386752 0.00303242 0.0037300885 0.051580288
000060 78 ee 7c bd 52 54 d7 3c 8d 29 20 3b fe f4 57 bd
       -0.06175086 0.026285324 0.0024438829 -0.052723877
000070 4b 77 84 3b 2f 31 02 bd e8 de 82 3c 17 d0 e1 3c
       0.004042541 -0.031785186 0.01597543 0.027565045
000080 7e 3c 67 3d e6 33 9e bc 7f 78 72 3d 75 04 7d 3c
       0.056454174 -0.019311856 0.059196945 0.015442957
000090 94 c1 95 3c a3 d2 69 bd 80 f7 60 bd d2 6c b9 bc
       0.018280782 -0.057085644 -0.054923534 -0.022634897
0000a0 7d aa 73 3d 2c a6 08 3d 9b e9 61 3d 05 3a 6e bd
       0.059488762 0.0333616 0.055154424 -0.0581608
0000b0 f3 73 83 3b 4c 63 69 bd 3a 89 73 3d 8f 86 2e 3d
       0.004011625 -0.056979463 0.05945704 0.042608794
0000c0 09 91 0c 3d 54 a2 fe bc aa cb 0e bd d4 88 1b bd
       0.034318004 -0.031083263 -0.034862198 -0.037972286
0000d0 f1 c8 5b 3d 55 20 0e bd f5 86 f6 3c 63 ff 07 3d
       0.05365843 -0.034698803 0.03009365 0.03320254
0000e0 cf 68 9a bc 66 5a 64 3d 7b ca 48 bd 71 a7 04 bd
       -0.018848805 0.055750273 -0.049021225 -0.032386247
0000f0 b3 f8 9d 3c 61 6d 50 3c d9 0d d5 bc ac 2e a9 bc
       0.019283628 0.01272139 -0.02600758 -0.020652138
000100 8d 3d 35 3a 41 83 08 3d 24 92 48 3d 95 31 72 3d
       0.0006913774 0.0333283 0.048967496 0.059129316
000110 7b c4 5a 3d 56 90 86 bc a1 59 c3 3c e5 b9 5a bb
       0.053410035 -0.016426247 0.02384645 -0.0033374962
000120 b5 e0 71 bd e5 d3 3e bd 5f ff 5d bd 95 83 62 3d
       -0.059052188 -0.046588797 -0.05419862 0.055301268
000130 a9 56 0c bc 1d ba 46 3d d1 d0 e5 3b 72 1b 65 3d
       -0.008565583 0.048517335 0.0070134182 0.055934377
000140 f8 c7 06 3d f6 57 26 3d cc 5e 69 3d 5e 2c d6 3b
       0.03290555 0.04061123 0.05697517 0.0065360507
000150 06 01 4e bd 07 72 b6 3c 92 f5 70 3d bb d5 07 3d
       -0.050293945 0.02227117 0.058827944 0.033162814
000160 e6 f1 04 bb 64 ca 4f 3d fc f3 77 bd dc 5b 9b 3c
       -0.0020285784 0.050730124 -0.060535416 0.0189647
000170 07 bf 7a 3d 11 e8 d6 bc 0d 92 bf bc 1b 3b a6 3c
       0.061217334 -0.026233705 -0.023385072 0.020291856
000180 9c f2 10 3d 33 d2 7c bd 03 02 1b 3d a1 9f 3e 3d
       0.03538762 -0.0617239 0.037843715 0.046538953
000190 36 a5 fc bc 5c 68 13 3d c9 33 6a bd b9 1e 3d bc
       -0.030840497 0.035988197 -0.057178292 -0.011542969
0001a0 d6 23 4c bd 09 87 e4 bc 19 24 f7 3c 6d 6b 4b 3d
       -0.049838863 -0.027896421 0.03016858 0.049662996
0001b0 b3 4f 2f 3d f0 16 03 3d 12 d9 00 bd 8b 5d 00 3c
       0.042800616 0.032004297 -0.031457014 0.007834802
0001c0 89 af 1f 3d 44 0e 77 3d cb 3c 0c bd 02 4c 3e bd
       0.038985763 0.06031634 -0.034237664 -0.046459205
0001d0 db 9e 0d bd 18 fe 05 3d 00 df 78 bd 25 83 16 3d
       -0.034575325 0.032713026 -0.060759544 0.036746163
0001e0 51 a4 8b 3c 6b 3c 6c 3d c8 f5 46 3d f3 d5 7c 3c
       0.017046126 0.057674807 0.04857424 0.015431869
0001f0 97 72 09 3d c9 a6 68 bc a2 28 ed bc a9 36 ce bc
       0.033556547 -0.014199921 -0.02895004 -0.025172548

conv_blocks.12.weight f4 [128]
000000 29 ed 7e 3f e8 b5 7f 3f 89 12 80 3f 53 3a 7f 3f
       0.9958063 0.9988694 1.0005656 0.9969837
000010 a4 ed 7f 3f 65 31 7f 3f 5c 41 80 3f a8 52 80 3f
       0.99971986 0.99684745 1.0019946 1.0025225
000020 25 45 7f 3f aa eb 7f 3f 0d 0b 80 3f fa 75 7f 3f
       0.9971488 0.9996897 1.0003372 0.9978939
000030 da 8b 7f 3f 7b f8 7f 3f cc 03 80 3f e8 7b 7f 3f
       0.9982277 0.99988526 1.0001159 0.9979844
000040 1e 95 7f 3f 80 4f 80 3f 87 73 80 3f 7b 6b 7f 3f
       0.9983691 1.0024261 1.0035256 0.9977338
000050 1b bb 7f 3f f5 25 7f 3f 43 5a 80 3f 56 01 80 3f
       0.99894875 0.9966729 1.0027546 1.0000408
000060 14 5a 80 3f 8c 86 7f 3f 0f 30 7f 3f 8a 15 7f 3f
       1.002749 0.9981468 0.99682707 0.9964224
000070 df 6a 80 3f e8 9c 80 3f 87 81 7f 3f 85 1e 80 3f
       1.0032614 1.0047884 0.9980702 1.0009314
000080 4f 8a 80 3f e8 56 7f 3f 7a df 7f 3f 01 74 80 3f
       1.0042208 0.99741983 0.99950373 1.0035402
000090 32 5e 80 3f ac 1f 80 3f 79 96 80 3f e3 7f 80 3f
       1.0028746 1.0009665 1.0045921 1.0039028
0000a0 4b 72 80 3f 0d 4d 80 3f cd d5 7f 3f de 83 80 3f
       1.003488 1.0023514 0.9993561 1.0040243
0000b0 92 85 7f 3f d9 9e 7f 3f d5 11 80 3f 27 40 80 3f
       0.9981319 0.9985176 1.0005442 1.0019578
0000c0 1a 43 7f 3f 32 34 7f 3f 63 6b 80 3f 5f 22 7f 3f
       0.99711764 0.9968902 1.0032772 0.9966182
0000d0 0f 6c 80 3f ae 0b 80 3f 18 af 7f 3f 07 6d 80 3f
       1.0032977 1.0003564 0.99876547 1.0033273
0000e0 09 af 80 3f 29 52 80 3f 44 3a 7f 3f 9d 77 80 3f
       1.0053416 1.0025073 0.9969828 1.0036503
0000f0 d7 8c 7f 3f 83 d6 7f 3f 23 a8 7f 3f c9 60 80 3f
       0.9982428 0.99936694 0.9986593 1.0029536
000100 50 63 80 3f 4a 0a 80 3f 3d 84 7f 3f 4f 35 7f 3f
       1.0030308 1.000314 0.99811155 0.9969072
000110 b1 20 80 3f df 0e 7f 3f 0c 3a 80 3f f9 21 80 3f
       1.0009977 0.99632066 1.0017715 1.0010368
000120 99 52 80 3f 4a e1 7f 3f 51 a2 7f 3f 51 3b 80 3f
       1.0025207 0.9995314 0.9985705 1.0018102
000130 8f 58 80 3f 14 6f 80 3f b9 89 7f 3f 7d 72 80 3f
       1.0027026 1.0033898 0.99819523 1.0034939
000140 7f 22 7f 3f 18 23 80 3f ab db 7f 3f 6f 18 80 3f
       0.9966201 1.001071 0.9994456 1.0007457
000150 6e 58 80 3f 6e 51 80 3f 3e 81 80 3f 3f 82 80 3f
       1.0026987 1.002485 1.0039442 1.0039748
000160 f9 1d 7f 3f 93 26 7f 3f 28 b1 7f 3f 2a 65 7f 3f
       0.9965511 0.99668235 0.99879694 0.9976374
000170 fd 72 7f 3f de 79 7f 3f 09 10 80 3f e7 d9 7f 3f
       0.99784833 0.9979533 1.0004894 0.9994187
000180 83 73 80 3f cc 0b 80 3f 6a 05 80 3f 31 07 80 3f
       1.0035251 1.00036 1.0001652 1.0002195
000190 61 09 80 3f 79 05 80 3f ad 04 80 3f ff 67 80 3f
       1.0002862 1.000167 1.0001427 1.0031737
0001a0 4c 66 80 3f ea bd 7f 3f 06 31 80 3f 2b 67 80 3f
       1.0031219 0.9989916 1.0014961 1.0031484
0001b0 c1 1a 7f 3f 56 84 80 3f a7 39 80 3f 64 71 7f 3f
       0.996502 1.0040386 1.0017594 0.99782395
0001c0 8a 61 7f 3f 4b 73 80 3f 6c 5d 7f 3f 4c cf 7f 3f
       0.9975821 1.0035185 0.99751925 0.99925685
0001d0 b0 fb 7e 3f 1e 9e 7f 3f 29 fc 7f 3f 52 3b 80 3f
       0.99602795 0.9985064 0.9999414 1.0018103
0001e0 20 2f 80 3f 98 2a 80 3f dd 76 80 3f 29 ac 80 3f
       1.0014381 1.0012999 1.0036274 1.0052539
0001f0 4b 1f 80 3f f0 7a 80 3f 6d 60 80 3f ae 0f 80 3f
       1.000955 1.0037518 1.0029427 1.0004785

conv_blocks.12.bias f4 [128]
000000 89 10 c9 b9 a7 4a 2c bb af 7c 9c ba 71 bb 92 b8
       -0.00038350027 -0.0026289613 -0.0011939014 -6.996736e-05
000010 c6 55 02 ba 12 3a 0e bb 5c 19 56 3a 47 a3 d3 3a
       -0.00049718877 -0.0021702093 0.0008167231 0.0016146683
000020 57 dd 5c bb e9 b9 de ba 52 c7 ad 39 27 10 e7 ba
       -0.0033701265 -0.0016992661 0.00033145637 -0.0017628715
000030 e8 c3 b3 b9 cd 52 ad ba 74 c5 27 b9 b0 e8 0b bb
       -0.00034287502 -0.0013223529 -0.00015999918 -0.002134841
000040 d0 ba 50 bb 46 d3 83 3a 05 b7 d1 3a 88 4f 22 bb
       -0.003184963 0.0010057471 0.0015999979 -0.0024766643
000050 48 d9 a9 3a b9 96 20 bb 9c a7 3f 3b 53 69 e5 ba
       0.0012958432 -0.00245039 0.002924419 -0.0017502703
000060 6f 35 40 3b 45 c0 a1 3a 53 33 d5 ba 47 3f 43 bb
       0.0029328724 0.0012340626 -0.0016265906 -0.0029792355
000070 5a 56 8f b9 07 e4 36 3b e6 b9 91 ba c6 75 69 3b
       -0.00027339422 0.002790691 -0.0011118024 0.0035623177
000080 61 14 73 3b db a8 c8 3a cc f4 e5 3a a3 33 04 3b
       0.0037091004 0.0015309112 0.0017544269 0.002017238
000090 d9 39 31 3b 26 ce 60 ba 91 e4 04 3b 09 3b 4e 3b
       0.0027042537 -0.00085756404 0.0020277838 0.0031468293
0000a0 00 35 38 3b 8e 11 48 3b 84 76 3c b8 51 0e 06 3b
       0.0028107762 0.0030528042 -4.493307e-05 0.002045531
0000b0 f9 54 1d 3a 4d c4 aa 3a fe ec 59 39 f1 70 0f 3b
       0.00060017366 0.0013028473 0.00020783019 0.0021887387
0000c0 5d f2 5d 38 b7 7d 86 3a 75 0e 36 3b 5a b5 0a bb
       5.2916224e-05 0.0010260855 0.0027779613 -0.0021165223
0000d0 58 6d 96 3b e2 05 a5 ba 1e 40 6d 3a 35 4f 93 3b
       0.0045906715 -0.0012590254 0.0009050387 0.004495526
0000e0 ce 96 28 3b 7b 32 ee 3a f8 d7 52 bb 82 8d 3d 3a
       0.0025724652 0.0018173003 -0.0032172184 0.0007230864
0000f0 e3 d4 91 ba 82 e1 1e ba 37 8e f0 ba eb f6 ee 3a
       -0.0011126067 -0.0006060825 -0.001835293 0.0018231546
000100 8a 48 ae 3a d1 d1 93 ba ec 5e 9d ba d3 82 17 bb
       0.0013296765 -0.001127774 -0.0012006438 -0.0023118749
000110 13 8d e1 39 e6 87 20 bb 45 e2 5f ba ac 8c 5c 3b
       0.00043020453 -0.0024495064 -0.00085404917 0.0033653183
000120 57 d4 41 3b ee 36 71 bb 6f 31 e6 3a de a4 0a 3b
       0.0029576027 -0.0036806422 0.001756234 0.0021155397
000130 59 df fc 3a 8f 46 39 3b 28 47 36 b9 70 9d be 3a
       0.0019292637 0.0028270816 -0.0001738338 0.001454277
000140 60 18 61 bb d4 ba 8d b9 9e b2 86 b9 e1 c3 71 3a
       -0.0034346804 -0.00027032814 -0.00025691552 0.00092226086
000150 5c 91 4d 3b 4f 56 b6 39 c0 ef e8 3a 4a f8 76 3b
       0.0031367159 0.0003477805 0.0017771646 0.0037684613
000160 99 4b 6b ba d7 76 e0 ba b0 8b cb ba 53 0f 59 bb
       -0.00089758035 -0.0017125261 -0.0015529301 -0.0033120706
000170 ee 84 ae b7 83 ec 1c bb f8 b2 8a 3b 7a 2f d2 38
       -2.0804317e-05 -0.0023944683 0.0042327605 0.000100224235
000180 c9 c7 8b 3b 65 1e c0 b8 1a e5 93 3a cb 53 9c ba
       0.0042657596 -9.160935e-05 0.0011283488 -0.0011926828
000190 d2 5c c4 b8 c6 3d 34 3a 5b 5c 54 3a d1 57 82 3b
       -9.3632974e-05 0.000687566 0.000810092 0.0039777537
0001a0 b2 9f 17 3b fc a7 0d 3b e9 9f d5 ba b2 28 34 3b
       0.0023135957 0.002161502 -0.0016298267 0.0027490077
0001b0 df 2c 29 bb 15 95 a9 3a 73 db c8 39 dd 2c 95 b9
       -0.0025814099 0.0012938107 0.00038310475 -0.0002845292
0001c0 23 8b 54 ba fa 6c 14 3a 8a e7 39 b9 ae cb 03 3a
       -0.0008107891 0.0005661991 -0.0001772923 0.0005027604
0001d0 31 4e 7f bb 34 f5 b8 b9 b4 30 b4 ba e1 b2 6a 3a
       -0.0038956518 -0.00035277905 -0.0013747425 0.00089530466
0001e0 35 e8 d7 ba 1f 1e 28 3b 31 a3 c2 39 b7 08 74 3b
       -0.0016472401 0.002565272 0.0003712415 0.003723664
0001f0 20 a1 de 39 17 ef 8a 3b 06 15 6e 3b e4 0e cc ba
       0.00042463187 0.0042399275 0.003632845 -0.0015568403
