data/gan_output/discriminator_epoch_70.pth (torch, 191742 bytes, 21 tensors)

conv_blocks.0.weight f4 [16, 1, 4]
0.043950167 0.09401369 -0.024987428 0.43531477 -0.015001521 0.029519372 -0.38798943 0.03614452
0.11529084 -0.41790533 0.07886755 -0.05144607 -0.42918345 0.31135094 0.39785537 -0.44153902
-0.3950648 0.10690587 -0.086631455 0.29628623 -0.38311762 0.26722947 -0.12273472 0.36218804
0.29158106 -0.48815864 0.3574643 0.21042232 0.0048497603 -0.21496812 0.33862385 -0.45891514
-0.20990376 -0.32266358 0.16770512 0.2915668 0.09433743 0.18065336 0.42168954 0.11726559
0.23702317 -0.2888881 -0.44908687 -0.29933915 -0.20663197 0.036292434 -0.31279963 -0.12532404
-0.13891274 0.23570244 -0.41579884 -0.48494205 0.02629079 -0.07631979 -0.31174746 -0.40688315
-0.12253247 -0.15712087 0.044596523 -0.15277818 0.25146443 0.22432657 -0.27872428 -0.33909497
00000000: 1705 343d 408a c03d 6fb2 ccbc 94e1 de3e
00000010: f1c8 75bc 9cd2 f13c 8da6 c6be 470c 143d
00000020: 9b1d ec3d b0f7 d5be 4f85 a13d 1db9 52bd
00000030: efbd dbbe 6469 9f3e b3b3 cb3e 6711 e2be
00000040: ef45 cabe 77f1 da3d d56b b1bd d4b2 973e
00000050: fe27 c4be 4dd2 883e 575c fbbd b670 b93e
00000060: 1d4a 953e eeef f9be 9005 b73e f378 573e
00000070: bdea 9e3b 9a20 5cbe 1b60 ad3e edf6 eabe
00000080: 03f1 56be 2934 a5be e4ba 2b3e 3e48 953e
00000090: fc33 c13d 32fd 383e b1e7 d73e f128 f03d
000000a0: 34b6 723e 24e9 93be b7ee e5be fb42 99be
000000b0: 5597 53be 60a7 143d 4627 a0be f254 00be
000000c0: 243f 0ebe fb5b 713e 96e3 d4be 534a f8be
000000d0: c85f d73c 8d4d 9cbd 5d9d 9fbe fd52 d0be
000000e0: 4ef2 fabd 4be4 20be d8aa 363d e271 1cbe
000000f0: f2bf 803e ddb5 653e f3b4 8ebe db9d adbe

conv_blocks.0.bias f4 [16]
-0.5416956 -0.1472283 -0.27178663 0.2554904 0.16214067 0.069910415 -0.37135968 0.450049
0.24860275 0.09195023 -0.20772462 -0.53142816 -0.00013870382 0.0972529 0.3527397 -0.25953305
00000000: 90ac 0abf 04c3 16be 9e27 8bbe a3cf 823e
00000010: 3408 263e 312d 8f3d db22 bebe d36c e63e
00000020: b891 7e3e 6750 bc3d c3b5 54be ad0b 08bf
00000030: 0671 11b9 872c c73d 4c9a b43e 84e1 84be

conv_blocks.3.weight f4 [32, 16, 4]
-0.022690138 0.15108451 0.12767306 -0.0401972 -0.12174162 0.024296768 -0.09847409 0.03832686
0.06411592 0.048822157 0.028309694 -0.015550166 -0.05069307 -0.13029505 0.13402265 -0.10514336
-0.0462776 0.06253317 -0.11919343 0.06992865 -0.07060986 0.034011167 0.12517066 -0.04528566
0.019135423 0.05791178 0.0056248843 0.07435265 0.07281396 -0.10967505 -0.07851309 0.056016296
-0.028491005 -0.011800015 0.05210548 -0.08706058 -0.056416675 0.0057956227 0.012797884 -0.004890885
-0.04650741 -0.038400758 0.042865824 0.035048127 -0.02878853 -0.015827738 -0.030761246 0.043414664
0.083225444 0.049312323 0.11362463 0.03586622 -0.096873656 -0.04865839 0.012546522 -0.02223448
-0.10930165 -0.080797486 -0.09094019 0.042158723 -0.0754247 0.06459191 -0.047241203 -0.025576146
-0.054437593 0.14541043 0.015889047 0.08269602 -0.112614535 -0.083605126 0.0012805926 0.025254332
-0.06659237 -0.08308708 0.10951166 -0.049543794 -0.06041353 0.051322073 -0.054022025 0.1096706
0.009498907 0.12253679 0.016177641 -0.042991817 -0.058800746 0.049769532 0.05650568 0.08382937
0.002222741 -0.059635557 0.0017322868 -0.0025622456 0.006704053 0.011236319 -0.004450716 0.05663172
-0.037627287 0.12986532 0.011322107 -0.026700342 -0.05900018 0.031230306 0.08690867 -0.10921703
-0.01791781 -0.10819597 -0.04775052 -0.108433135 -0.032166567 0.03474088 0.08708631 -0.051874615
0.12026784 -0.057356242 0.1238225 0.062326543 0.017727477 -0.13201268 0.056958046 -0.06345345
0.06302251 -0.10648145 0.047874104 -0.059377354 0.11986404 0.015660873 -0.012202286 0.026287345
0.12037203 0.053741116 0.0772435 0.051373582 -0.02213456 -0.008252333 0.062033337 -0.034272198
-0.030474924 0.06331354 -0.019160517 -0.099798016 -0.07468774 0.06267125 -0.0009065272 0.11348733
-0.08754554 -0.11530934 -0.1241601 -0.14831795 -0.01158978 -0.035402287 0.100840315 -0.020488761
-0.06783013 -0.096608296 0.09667757 0.08677251 -0.07148212 -0.0686197 0.096549146 0.05394693
0.09633746 -0.13533235 0.10457242 -0.07384622 0.07831058 0.078527704 0.024599327 0.017499411
0.098575845 0.05907611 0.043679208 -0.03879412 -0.045939043 -0.057253364 0.054081462 0.032751873
-0.11408231 -0.092524864 0.026891986 -0.007059549 0.059803277 0.056156196 -0.09558288 0.062944725
0.007857116 0.039983165 0.061202098 -0.04427266 0.11297249 -0.057873253 0.06983526 -0.08137399
-0.021106414 0.11119701 -0.08605515 0.11609642 -0.100140706 -0.016462244 0.025326815 -0.05865837
-0.108156234 -0.09986585 0.009411735 0.01623756 0.083734095 -0.051482055 -0.069274895 0.04486779
0.015484598 0.0053280937 0.074796885 0.0030704937 -0.07308635 0.10235323 -0.046753727 -0.0104231415
0.08665317 -0.10686934 -0.08009711 -0.123322025 0.092234366 0.060735717 0.08559158 0.07196209
-0.08897306 -0.01952651 0.019469414 0.037239116 -0.030884922 -0.07050915 0.09061608 -0.09769872
-0.107452884 -0.13622592 0.06256527 -0.063764855 0.09521635 0.11179416 0.109473 -0.09588633
-0.10430573 -0.0413655 -0.041840762 -0.109045096 0.07620567 -0.10427746 -0.08425875 -0.036900803
-0.10521937 -0.0051117577 0.038159356 -0.010415683 -0.11204263 0.059495877 -0.11819437 0.022022383
00000000: abe0 b9bc e6b5 1a3e babc 023e d2a5 24bd
00000010: ac53 f9bd 040a c73c c9ac c9bd a0fc 1c3d
00000020: 354f 833d bef9 473d bbe9 e73c 20c6 7ebc
00000030: 89a3 4fbd 116c 05be 3c3d 093e 6755 d7bd
00000040: 958d 3dbd 6411 803d af1b f4bd c136 8f3d
00000050: e79b 90bd 4b4f 0b3d bd2c 003e 757d 39bd
00000060: e4c1 9c3c e734 6d3d f350 b83b 3446 983d
00000070: 7c1f 953d 509d e0bd 79cb a0bd 5871 653d
00000080: f865 e9bc da54 41bc 8e6c 553d d14c b2bd
00000090: 2c15 67bd 35e9 bd3b 37ae 513c b843 a0bb
000000a0: 8e7e 3ebd 1d4a 1dbd 1394 2f3d a08e 0f3d
000000b0: ecd5 ebbc 2ca9 81bc 02ff fbbc 93d3 313d
000000c0: 1a72 aa3d b8fb 493d 08b4 e83d 75e8 123d
000000d0: b265 c6bd 054e 47bd ed8f 4d3c 1625 b6bc
000000e0: 8bd9 dfbd 2779 a5bd da3e babd a0ae 2c3d
000000f0: 4478 9abd c348 843d fe7f 41bd 1185 d1bc
00000100: f4f9 5ebd 79e6 143e bf29 823c 885c a93d
00000110: 73a2 e6bd 2a39 abbd 8fd9 a73a 2ce2 ce3c
00000120: 9561 88bd 8f29 aabd a647 e03d 6fee 4abd
00000130: 2d74 77bd 1837 523d 3346 5dbd fb9a e03d
00000140: 4ea1 1b3c 92f4 fa3d f986 843c 3018 30bd
00000150: 0dd9 70bd 23db 4b3d 8072 673d bcae ab3d
00000160: 68ab 113b 6a44 74bd e60d e33a 59eb 27bb
00000170: acad db3b 8a18 383c 50d7 91bb aaf6 673d
00000180: 121f 1abd 6afb 043e 5c80 393c adba dabc
00000190: 2caa 71bd b3d6 ff3c 2cfd b13d 2ead dfbd
000001a0: 5fc8 92bc d995 ddbd 0d96 43bd 3112 debd
000001b0: 17c1 03bd 744c 0e3d 4f5a b23d 7a7a 54bd
000001c0: fc4e f63d 61ee 6abd a796 fd3d 1e4a 7f3d
000001d0: 3739 913c 552e 07be d74c 693d e2f3 81bd
000001e0: f211 813d f212 dabd a317 443d ab35 73bd
000001f0: 477b f53d 3b4b 803c 19ec 47bc 8f58 d73c
00000200: 9c85 f63d a51f 5c3d d731 9e3d 1b6d 523d
00000210: 8953 b5bc cb34 07bc ab16 7e3d 0161 0cbd
00000220: 8ca6 f9bc 87aa 813d 84f6 9cbc e762 ccbd
00000230: e3f5 98bd c959 803d 03a4 6dba 0c6c e83d
00000240: 134b b3bd 4e27 ecbd a747 febd a9e0 17be
00000250: 10e3 3dbc fd01 11bd 5e85 ce3d 0cd8 a7bc
00000260: 86ea 8abd 92da c5bd e4fe c53d c9b5 b13d
00000270: 3865 92bd 7c88 8cbd 8fbb c53d 75f7 5c3d
00000280: 934c c53d 9094 0abe 112a d63d b03c 97bd
00000290: 4c61 a03d 22d3 a03d 8784 c93c ed5a 8f3c
000002a0: 22e2 c93d cbf9 713d f8e8 323d 95e6 1ebd
000002b0: 942a 3cbd 8182 6abd 8684 5d3d d426 063d
000002c0: fca3 e9bd ad7d bdbd 954c dc3c ca53 e7bb
000002d0: 48f4 743d 0a04 663d f5c0 c3bd 2ae9 803d
000002e0: 22bb 003c 63c5 233d 0daf 7a3d 4057 35bd
000002f0: 1f5e e73d 810c 6dbd ca05 8f3d 68a7 a6bd
00000300: 5ce7 acbc 42bb e33d af3d b0bd f6c3 ed3d
00000310: 9216 cdbd d4db 86bc 2e7a cf3c c243 70bd
00000320: 0481 ddbd 7786 ccbd ae33 1a3c a204 853c
00000330: c87c ab3d d9de 52bd ffdf 8dbd 4ac7 373d
00000340: 1db3 7d3c 4a97 ae3b 1c2f 993d 563a 493b
00000350: 4cae 95bd 929e d13d d680 3fbd d3c5 2abc
00000360: 3877 b13d 50de dabd f409 a4bd 4290 fcbd
00000370: 5fe5 bc3d 04c6 783d a34a af3d dc60 933d
00000380: 8237 b6bd 0ff6 9fbc 527e 9f3c 0b88 183d
00000390: 6002 fdbc 1a67 90bd ec94 b93d 4416 c8bd
000003a0: 4210 dcbd cf7e 0bbe 3822 803d 2697 82bd
000003b0: ca00 c33d 56f4 e43d 6133 e03d 0d60 c4bd
000003c0: 3e9e d5bd df6e 29bd 3861 2bbd 0953 dfbd
000003d0: b811 9c3d 6c8f d5bd da8f acbd 4c25 17bd
000003e0: 417d d7bd 8880 a7bb fc4c 1c3d 8aa6 2abc
000003f0: 9b76 e5bd f3b1 733d e40f f2bd 4968 b43c

conv_blocks.3.bias f4 [32]
-0.056598518 -0.03667054 0.034974515 -0.01595923 -0.08789545 -0.024646113 0.018263092 -0.011697764
0.017231803 0.10795944 0.0025818052 -0.0050147 0.011783331 0.03567694 0.052162573 0.046832476
-0.07860554 0.0796885 -0.05910737 0.039589856 0.045332752 0.027293669 0.05136976 0.042941306
-0.119557954 0.07470276 0.0051797307 0.11185927 -0.058702737 -0.004733747 0.052929115 -0.060780067
00000000: d9d3 67bd d933 16bd 7041 0f3d eebc 82bc
00000010: 8802 b4bd a5e6 c9bc 7b9c 953c faa7 3fbc
00000020: b629 8d3c d719 dd3d 8133 293b 5a52 a4bb
00000030: df0e 413c fc21 123d 6ca8 553d 69d3 3f3d
00000040: f1fb a0bd b933 a33d 921a 72bd f928 223d
00000050: d6ae 393d f996 df3c 1969 523d 39e3 2f3d
00000060: cdda f4bd c3fd 983d bbba a93b 7916 e53d
00000070: 4872 70bd 8c1d 9bbb 33cc 583d 85f4 78bd

conv_blocks.4.weight f4 [32]
1.0063462 0.99946266 1.0010104 1.0109711 0.9906946 1.0047041 1.0182164 0.99298996
0.99074924 0.99615484 0.9907663 0.993563 1.0230273 0.9987297 0.99476415 1.0106434
1.0123297 1.0079609 1.0118418 1.0011674 0.98107034 1.006227 0.99335724 0.9989004
0.9880926 0.9964095 0.9997908 1.0071448 0.97391117 0.9851107 1.0277091 0.985975
00000000: f4cf 803f c9dc 7f3f 1c21 803f 8067 813f
00000010: 299e 7d3f 259a 803f ea54 823f 9734 7e3f
00000020: bea1 7d3f 0104 7f3f dca2 7d3f 255a 7e3f
00000030: 8ff2 823f c0ac 7f3f dda8 7e3f c35c 813f
00000040: 0594 813f dd04 813f 0884 813f 4126 803f
00000050: 6d27 7b3f 0ccc 803f a94c 7e3f f0b7 7f3f
00000060: a3f3 7c3f b114 7f3f 4af2 7f3f 1fea 803f
00000070: 3e52 793f 3730 7c3f f98b 833f dc68 7c3f

conv_blocks.4.bias f4 [32]
-0.012839369 -0.0199419 0.009762985 -0.018208593 0.0047041858 0.015057679 -0.014361894 0.009329125
0.023467368 -0.007653559 -0.029163342 -0.02235441 0.017766979 -0.022783114 -0.017702322 -0.011670604
0.024474513 -0.0058454317 -0.008736809 0.008606754 -0.0071154973 -0.015798979 -0.019593082 -0.012271336
-0.0302211 -0.020596432 -0.022033067 -0.011414291 0.007909908 -0.021869238 0.0155866295 0.018814828
00000000: 375c 52bc 325d a3bc edf4 1f3c 302a 95bc
00000010: 9225 9a3b 7cb4 763c 264e 6bbc 30d9 183c
00000020: a33e c03c b5ca fabb f6e7 eebc 9820 b7bc
00000030: 0e8c 913c a7a3 babc 7604 91bc 1036 3fbc
00000040: c67e c83c 098b bfbb d524 0fbc 5803 0d3c
00000050: 1e29 e9bb dc6c 81bc ac81 a0bc b70d 49bc
00000060: 3e92 f7bc d9b9 a8bc b17e b4bc 0203 3bbc
00000070: 8f98 013c 1e27 b3bc 105f 7f3c 8e21 9a3c

conv_blocks.4.running_mean f4 [32]
-0.26411918 0.023202172 0.015636256 -0.032944944 0.13348146 0.011251438 -0.19789913 -0.03954112
0.15322141 0.15392831 -0.17646505 0.12857458 -0.0061582727 -0.1095778 -0.13499047 -0.18349777
0.17554295 0.09698513 0.03090471 0.09002777 0.17408282 -0.10857814 -0.07816937 0.16335937
-0.24206062 0.089999914 0.24890329 -0.04411605 0.075129025 0.20452885 -0.023227157 -0.0021169193
00000000: a13a 87be 7b12 be3c 9b17 803c 47f1 06bd
00000010: 5daf 083e f457 383c 12a6 4abe dff5 21bd
00000020: 13e6 1c3e 629f 1d3e 41b3 34be 0ea9 033e
00000030: 56cb c9bb 536a e0bd f13a 0abe d7e6 3bbe
00000040: 88c1 333e 24a0 c63d e02b fd3c 7b60 b83d
00000050: c442 323e 375e debd 4317 a0bd ae47 273e
00000060: bdde 77be e051 b83d 81e0 7e3e 08b3 34bd
00000070: 3fdd 993d 0370 513e e146 bebc 03bc 0abb

conv_blocks.4.running_var f4 [32]
0.047515012 0.041672967 0.04102421 0.041802235 0.040245146 0.052828588 0.048613347 0.03795627
0.028480744 0.06461027 0.07870495 0.041750737 0.02409132 0.07288073 0.038479738 0.028533466
0.028460227 0.037170015 0.036249015 0.03582343 0.031047398 0.05747465 0.044405267 0.041111678
0.04150659 0.040263675 0.038000837 0.039862312 0.037672084 0.040226992 0.029917058 0.025469052
00000000: 1a9f 423d 46b1 2a3d 0109 283d d238 2b3d
00000010: 18d8 243d ca62 583d ca1e 473d 0978 1b3d
00000020: 7350 e93c 6452 843d 1030 a13d d202 2b3d
00000030: 295b c53c 7e42 953d ee9c 1d3d 04bf e93c
00000040: 6c25 e93c 963f 183d d979 143d 97bb 123d
00000050: 1d57 fe3c 8a6a 6b3d 4ce2 353d b864 283d
00000060: d002 2a3d 86eb 243d c4a6 1b3d aa46 233d
00000070: 0b4e 1a3d 0fc5 243d 9e14 f53c 79a4 d03c

conv_blocks.7.weight f4 [64, 32, 4]
0.0016208045 0.016509837 0.007153269 0.06098401 0.0516094 -0.005586787 0.0600587 0.02878817
-0.048245672 -0.03352409 0.06973891 0.06771981 -0.03250209 0.06729132 0.09629373 -0.06755592
-0.02410598 0.045703158 -0.010478144 0.054083187 -0.07261483 -0.04526152 0.037969753 0.015236906
-0.012689431 0.07343067 0.06306244 -0.048587047 -0.072982274 0.055503152 -0.0296384 0.041807946
0.005704149 0.06446538 0.089099035 0.080949485 -0.060675714 -0.04570675 0.015589074 0.07935563
-0.013914681 0.05905211 0.07039269 0.012173974 0.023102086 -0.01833774 -0.047876645 0.027353117
0.013678441 -0.007902305 0.04337672 -0.05842574 0.02529771 -0.07775187 0.014751138 -0.022919148
-0.05902473 -0.034108732 -0.027698833 -0.055397846 -0.040304694 -0.051106412 -0.03467941 -0.046004113
-0.029379774 0.0014323215 0.09226159 0.049718514 -0.027298927 -0.0001311102 0.05903198 0.0014881659
0.01763801 0.047683083 -0.03521658 -0.05738176 -0.050874565 -0.007882634 0.041280184 0.05183104
-0.07146864 0.013079101 0.031917743 -0.02114284 -0.07883382 0.0022835638 0.027538126 -0.04317458
-0.07456776 0.041208215 0.078110375 -0.00066597504 0.07003161 -0.05210399 0.06102956 0.012294026
0.053751044 -0.020492842 0.03972886 -0.04621207 0.059916183 0.091468915 0.067507565 0.061223928
0.050028674 0.005279425 0.0018997531 0.07867879 -0.080506146 -0.0748913 0.009706044 -0.046969526
0.013191841 0.060196035 -0.04769316 0.036824312 -0.059254326 -0.02437876 -0.04976256 0.041682553
-0.032285474 0.0667914 0.013472735 -0.049840003 0.061425887 -0.019300928 -0.082072414 -0.050870795
0.031833485 -0.03893314 0.03082349 0.030907769 -0.0047790124 -0.002854598 -0.011718312 0.049245194
0.008887169 0.07233153 -0.055116996 -0.09101161 0.04448191 -0.05922446 0.016935507 0.045997627
-0.08307691 0.06588213 0.07746284 0.06516798 0.029610977 -0.078610204 0.06730051 0.052901547
0.015486008 -0.030933712 -0.06632159 -0.07212106 0.073318586 0.04316827 -0.029612685 -0.027629819
-0.07617005 -0.08811413 -0.0015557904 -0.05624952 0.06821553 -0.0118144825 -0.049190044 -0.063241
-0.09546946 -0.0011903677 -0.019323321 0.040090468 -0.003483399 -0.025486799 0.00027274358 -0.024815649
0.010624044 0.06844364 0.060896013 0.033224113 -0.010240547 0.023770219 -0.08873604 -0.07793666
0.08541449 0.0690756 0.07473205 -0.08597583 0.08000485 -0.018103987 0.021106342 0.0226361
0.028520577 -0.008300126 -0.025033165 -0.009368205 0.041268375 0.033849664 0.053669255 -0.023372045
0.025934156 0.074723415 -0.09720588 -0.07560196 -0.059650425 0.040703088 0.035890523 0.034837756
0.023171596 -0.02146007 0.075366355 -0.072960705 0.061123136 0.061226446 -0.019878937 0.0098163
-0.033703867 0.003578714 0.064396106 0.009158456 -0.06604849 -0.050569862 0.043629788 -0.008004946
0.008846845 -0.0681291 0.08518311 0.06377067 -0.07904663 0.08823304 0.045317706 0.028015248
0.05313324 -0.060140166 -0.040846277 0.06312661 0.009558702 0.0028827675 0.06797782 0.0123604555
-0.056853216 0.019445047 0.05651311 0.08092328 0.04820981 -0.100290395 -0.04426842 -0.0119283125
-0.033951696 0.0029381297 -0.023040991 -0.020528324 -0.08373522 0.05860901 -0.016387573 0.06461422
00000000: 2d71 d43a a33f 873c f865 ea3b 5fca 793d
00000010: 6164 533d 5e11 b7bb 1d00 763d 2bd5 eb3c
00000020: 419d 45bd 8e50 09bd 46d3 8e3d afb0 8a3d
00000030: e920 05bd 08d0 893d a635 c53d c25a 8abd
00000040: e779 c5bc 3c33 3b3d 85ac 2bbc 5586 5d3d
00000050: 16b7 94bd 2564 39bd 2c86 1b3d 37a4 793c
00000060: 55e7 4fbc d262 963d e126 813d 3603 47bd
00000070: bb77 95bd 4657 633d 3bcc f2bc cf3e 2b3d
00000080: dfe9 ba3b 6d06 843d 8e79 b63d d8c8 a53d
00000090: 1987 78bd 0037 3bbd 5169 7f3c 3485 a23d
000000a0: 67fa 63bc a0e0 713d 0b2a 903d 5975 473c
000000b0: 9640 bd3c 0739 96bc 4d1a 44bd a513 e03c
000000c0: 8a1b 603c ab78 01bc caab 313d d44f 6fbd
000000d0: 253d cf3c 5f3c 9fbd c2ae 713c f0c0 bbbc
000000e0: eac3 71bd 99b5 0bbd aae8 e2bc dae8 62bd
000000f0: 8916 25bd f554 51bd ff0b 0ebd cf6e 3cbd
00000100: daad f0bc bcbc bb3a a5f3 bc3d a4a5 4b3d
00000110: 00a2 dfbc a07a 09b9 84cb 713d 900e c33a
00000120: 977d 903c 564f 433d 433f 10bd 2309 6bbd
00000130: d961 50bd 2a26 01bc 6915 293d c94c 543d
00000140: 265e 92bd ba49 563c 2ebc 023d c033 adbc
00000150: a073 a1bd d8a7 153b a397 e13c d4d7 30bd
00000160: fbb6 98bd f2c9 283d 55f8 9f3d d494 2eba
00000170: bc6c 8f3d fe6a 55bd 22fa 793d e26c 493c
00000180: 0e2a 5c3d 9be0 a7bc bbba 223d de48 3dbd
00000190: ac6a 753d 0e54 bb3d 6841 8a3d f1c5 7a3d
000001a0: deea 4c3d 07ff ac3b 2301 f93a 5822 a13d
000001b0: 68e0 a4bd 9c60 99bd 1906 1f3c 1e63 40bd
000001c0: 9722 583c 1e90 763d e759 43bd 17d5 163d
000001d0: aab4 72bd f7b5 c7bc d3d3 4bbd 53bb 2a3d
000001e0: c63d 04bd eec9 883d bfbc 5c3c 0825 4cbd
000001f0: b699 7b3d fb1c 9ebc 9515 a8bd e55d 50bd
00000200: d463 023d 5b78 1fbd 8b81 fc3c 4a32 fd3c
00000210: 4399 9cbb 3514 3bbb 2afe 3fbc 54b5 493d
00000220: 7d9b 113c 8e22 943d 5cc2 61bd 4c64 babd
00000230: aa32 363d 5995 72bd 55bc 8a3c 0268 3c3d
00000240: 3a24 aabd 36ed 863d d6a4 9e3d ca76 853d
00000250: b892 f23c 63fe a0bd dad4 893d 4baf 583d
00000260: 06b9 7d3c b268 fdbc 9dd3 87bd 35b4 93bd
00000270: 0e28 963d 36d1 303d 4d96 f2bc ee57 e2bc
00000280: 0bff 9bbd 2e75 b4bd aaeb cbba e665 66bd
00000290: 95b4 8b3d 8891 41bc 807b 49bd 7f84 81bd
000002a0: 7e85 c3bd 1d06 9cba f14b 9ebc e735 243d
000002b0: bd49 64bb b1c9 d0bc 06ff 8e39 304a cbbc
000002c0: 7810 2e3c 2e2c 8c3d 196e 793d 0216 083d
000002d0: f8c7 27bc c3b9 c23c 3ebb b5bd 419d 9fbd
000002e0: cbed ae3d 8277 8d3d 1e0d 993d 1914 b0bd
000002f0: 95d9 a33d d04e 94bc 35e7 ac3c 586f b93c
00000300: fca3 e93c 40fd 07bc 5a12 cdbc 1a7d 19bc
00000310: 0709 293d f2a5 0a3d 4bd4 5b3d bb76 bfbc
00000320: de73 d43c 9708 993d e013 c7bd 33d5 9abd
00000330: 0154 74bd 48b8 263d f101 133d 09b2 0e3d
00000340: 5cd2 bd3c 07cd afbc ad59 9a3d 6c6c 95bd
00000350: 415c 7a3d 95c8 7a3d 27d9 a2bc 8cd4 203c
00000360: 110d 0abd dc88 6a3b 1be2 833d 590d 163c
00000370: 6e44 87bd 5822 4fbd 26b5 323d 2d27 03bc
00000380: 5bf2 103c 4587 8bbd 7b74 ae3d 329a 823d
00000390: 33e3 a1bd 86b3 b43d 0f9f 393d 3c80 e53c
000003a0: 3ea2 593d 8955 76bd 6d4e 27bd 8648 813d
000003b0: 1a9c 1c3c d0ec 3c3b f537 8b3d 8283 4a3c
000003c0: ebde 68bd 384b 9f3c 4a7a 673d 1bbb a53d
000003d0: a677 453d 0d65 cdbd ce52 35bd f86e 43bc
000003e0: ef10 0bbd a38d 403b 76c0 bcbc 042b a8bc
000003f0: 5f7d abbd 0010 703d 3b3f 86bc 7654 843d

conv_blocks.7.bias f4 [64]
0.016767122 -0.060142845 -0.0026532398 -0.029765273 -0.045157593 -0.018463844 -0.053964354 0.0052873553
0.024418915 -0.05445058 0.07489957 -0.016858554 -0.044795744 -0.002600072 0.057986893 -0.038171697
-0.038257312 0.0056489953 0.08372274 -0.08738872 -0.06693769 -0.017492212 -0.038970884 -0.04831614
0.022055065 -0.052695528 -0.0814104 0.059808876 0.048691962 0.0685804 -0.08431762 -0.029082863
0.07543942 -0.020651333 0.08033074 -0.04147688 0.041649576 0.05978553 -0.030163212 -0.048421945
0.08601518 -0.0537449 -0.042261597 -0.08401794 -0.042667255 -0.047596566 -0.07665302 0.049956854
-0.06095426 -0.043773476 0.017832197 -0.038571227 0.019405156 0.07437515 -0.047788933 -0.010185144
-0.016690826 -0.066354804 -0.035424683 0.054535966 0.08567422 -0.013258844 -0.08243371 -0.076438926
00000000: 345b 893c 5858 76bd fae1 2dbb 4dd6 f3bc
00000010: 2bf7 38bd 7d41 97bc ba09 5dbd 8d41 ad3b
00000020: 2d0a c83c 9207 5fbd f264 993d f31a 8abc
00000030: be7b 37bd f865 2abb aa83 6d3d ed59 1cbd
00000040: b3b3 1cbd 351b b93b d476 ab3d dbf8 b2bd
00000050: a116 89bd d44b 8fbc ef9f 1fbd 25e7 45bd
00000060: d3ac b43c 44d7 57bd 7fba a6bd 27fa 743d
00000070: 3971 473d e173 8c3d b7ae acbd 2f3f eebc
00000080: fc7f 9a3d fc2c a9bc 7184 a43d a9e3 29bd
00000090: bf98 2a3d ace1 743d d718 f7bc 1756 46bd
000000a0: ba28 b03d 9d23 5cbd 7f1a 2dbd 9911 acbd
000000b0: dcc3 2ebd 9ef4 42bd 42fc 9cbd 8f9f 4c3d
000000c0: 2dab 79bd d14b 33bd d414 923c ddfc 1dbd
000000d0: 90f7 9e3c 0052 983d 54be 43bd 97df 26bc
000000e0: 33bb 88bc 07e5 87bd 7919 11bd 1b61 5f3d
000000f0: f775 af3d 9f3b 59bc 01d3 a8bd 038c 9cbd

conv_blocks.8.weight f4 [64]
1.0141609 0.9948031 0.99785936 1.0098302 1.0037854 0.9912412 1.0048164 1.0161794
0.9903793 1.0065007 0.98935556 0.9870434 1.0006033 1.0052179 0.99133927 1.0057936
0.9986604 1.0014015 1.0139784 0.9834006 1.0038452 0.99733543 0.99124545 0.9910724
1.0046226 0.99763185 0.9964658 0.99992055 1.029635 1.0010923 0.989232 0.9835519
0.9965058 1.0081409 1.0238992 0.9997983 0.99577683 0.9896926 1.0099311 0.99091274
1.0001605 1.007974 0.99521804 0.99067205 1.0103528 0.99270016 0.9918884 1.0236293
1.0093368 0.9883133 1.0043775 1.0193669 0.9890287 1.0137699 0.98806113 0.9974965
0.98232144 0.99129415 1.0069596 0.9801758 0.99207836 1.0024539 0.99106634 1.0102684
00000000: 06d0 813f 6aab 7e3f b673 7f3f 1e42 813f
00000010: 0a7c 803f fcc1 7d3f d39d 803f 2b12 823f
00000020: 7f89 7d3f 04d5 803f 6846 7d3f e0ae 7c3f
00000030: c513 803f fbaa 803f 69c8 7d3f d8bd 803f
00000040: 35a8 7f3f ed2d 803f 0bca 813f 24c0 7b3f
00000050: 007e 803f 6051 7f3f 43c2 7d3f ecb6 7d3f
00000060: 7997 803f cd64 7f3f 6218 7f3f cbfa 7f3f
00000070: 14cb 833f cb23 803f 4f3e 7d3f 0fca 7b3f
00000080: 011b 7f3f c30a 813f 210f 833f c8f2 7f3f
00000090: 3beb 7e3f 7f5c 7d3f 6c45 813f 75ac 7d3f
000000a0: 4205 803f 4b05 813f 9cc6 7e3f af9c 7d3f
000000b0: 3e53 813f 9921 7e3f 66ec 7d3f 4906 833f
000000c0: f331 813f 1a02 7d3f 718f 803f 9d7a 823f
000000d0: fc30 7d3f 36c3 813f 93f1 7c3f ee5b 7f3f
000000e0: 6b79 7b3f 74c5 7d3f 0de4 803f cdec 7a3f
000000f0: d9f8 7d3f 6950 803f 86b6 7d3f 7a50 813f

conv_blocks.8.bias f4 [64]
0.023774752 0.0065232576 -0.016936857 -0.0036878423 0.0115744965 0.0038094334 0.0108329635 0.009909666
-0.007862099 -0.015248591 -0.015871154 0.0051355874 -0.013180189 0.00056831166 -0.010288176 0.017875725
0.01690101 0.026602853 -0.005983942 -0.0068175155 -0.006045296 0.017913878 -0.01407993 -0.008944848
0.015375753 -0.00032015264 0.00043275568 0.033136845 0.0015381072 -0.01746982 -0.0115451515 -0.020535078
0.013214797 -0.017399108 0.015494385 0.0042060097 0.0027951547 -0.00784012 -0.00046993856 0.010479544
-0.014596713 0.014166605 -0.013195087 -0.007935518 -0.005568015 -0.030464206 0.01055142 0.029402565
0.0021522115 -0.030215256 0.011706058 0.0076138033 -0.009327018 -0.00048225964 -0.018154481 -0.00430962
-0.027120357 -0.007708871 0.014658819 -0.021259302 -0.013722464 0.0029566337 -0.0128120575 0.006151472
00000000: 45c3 c23c 0dc1 d53b 2abf 8abc baaf 71bb
00000010: f5a2 3d3c b0a7 793b be7c 313c 275c 223c
00000020: 09d0 00bc 3ad5 79bc 3904 82bc 6e48 a83b
00000030: b8f1 57bc c0fa 143a bd8f 28bc 1d70 923c
00000040: fd73 8a3c 3aee d93c f214 c4bb 7765 dfbb
00000050: 9e17 c6bb 20c0 923c 82af 66bc 698d 12bc
00000060: 95ea 7b3c 29da a7b9 7ce3 e239 80ba 073d
00000070: 509a c93a de1c 8fbc e027 3dbc 2e39 a8bc
00000080: e082 583c 9388 8ebc 29dc 7d3c 91d2 893b
00000090: ea2e 373b d973 00bc 1662 f6b9 65b2 2b3c
000000a0: 0d27 6fbc 0c1b 683c 3530 58bc fa03 02bc
000000b0: e573 b6bb 1290 f9bc dddf 2c3c a6dd f03c
000000c0: 1e0c 0d3b fc85 f7bc c4ca 3f3c 367d f93b
000000d0: 59d0 18bc cbd7 fcb9 b5b8 94bc b637 8dbb
000000e0: 832b debc b29a fcbb 8b2b 703c fd27 aebc
000000f0: 30d4 60bc 15c4 413b aae9 51bc 4a92 c93b

conv_blocks.8.running_mean f4 [64]
0.22009674 0.055459253 -0.018021856 0.13426547 -0.07636323 -0.14531595 0.073716484 -0.1266979
-0.052786846 -0.30047342 -0.20104069 0.2547329 -0.034774497 -0.18697059 0.13683948 -0.059102576
0.19504085 0.055104237 -0.022173058 0.15179315 -0.33256873 0.03543616 -0.04491457 -0.11559604
0.025667112 -0.15873685 -0.13893211 0.3286855 -0.09649965 -0.1667183 -0.3532823 -0.006447388
0.16393758 0.06556579 0.23147161 0.1908846 0.24009207 -0.018754007 -0.018666066 0.025875844
-0.37432688 0.29944074 -0.109891556 -0.018120583 0.020880563 -0.13661872 -0.09500833 -0.13195355
-0.057728007 -0.17200391 0.19056188 -0.15035088 0.123506814 0.10953442 0.1375682 0.031820767
0.20575291 0.13753821 -0.2600819 0.11340994 0.05854643 0.20828587 -0.13417037 -0.23109855
00000000: 0a61 613e 3e29 633d 92a2 93bc e37c 093e
00000010: 5364 9cbd b4cd 14be abf8 963d 18bd 01be
00000020: 0537 58bd a7d7 99be 9cdd 4dbe 5a6c 823e
00000030: b46f 0ebd 3875 3fbe a61f 0c3e 8b15 72bd
00000040: cab8 473e fbb4 613d 46a4 b5bc aa6f 1b3e
00000050: 7346 aabe 8225 113d 57f8 37bd 9ebd ecbd
00000060: d643 d23c ea8b 22be 3844 0ebe 7749 a83e
00000070: 9ca1 c5bd 34b8 2abe 6be1 b4be 9c44 d3bb
00000080: 41df 273e 5b47 863d e506 6d3e 4177 433e
00000090: b2da 753e 01a2 99bc 94e9 98bc 94f9 d33c
000000a0: c6a7 bfbe 4c50 993e d30e e1bd 9e71 94bc
000000b0: b70d ab3c c7e5 0bbe ba93 c2bd d51e 07be
000000c0: 3474 6cbd cb21 30be a722 433e 95f5 19be
000000d0: 24f1 fc3d 9553 e03d aede 0c3e 7e56 023d
000000e0: e4b0 523e d1d6 0c3e 7429 85be 7843 e83d
000000f0: 62ce 6f3d e448 553e f563 09be 19a5 6cbe

conv_blocks.8.running_var f4 [64]
0.22909014 0.26033884 0.24431707 0.3024529 0.21051352 0.22849318 0.21022314 0.29400063
0.2741495 0.21224007 0.17285554 0.23996338 0.18647875 0.29184857 0.2210479 0.22433096
0.21258703 0.27836794 0.20545484 0.23052272 0.197074 0.21872753 0.2220325 0.25558624
0.19423793 0.21048293 0.22338799 0.23752718 0.22983742 0.23208119 0.22413056 0.23393965
0.23469284 0.20206472 0.15237948 0.23391443 0.21980032 0.21767361 0.19662513 0.22832718
0.23762874 0.22234261 0.21928169 0.21958116 0.18244737 0.22439553 0.18604335 0.16460843
0.17331657 0.17091608 0.17021357 0.2493365 0.1793981 0.22176234 0.23201945 0.1763335
0.21983394 0.25307858 0.2309072 0.21677968 0.17320244 0.21049923 0.19910531 0.28425023
00000000: 9b96 6a3e 224b 853e 412e 7a3e 1bdb 9a3e
00000010: db90 573e 1efa 693e bc44 573e 4087 963e
00000020: 535d 8c3e 7655 593e 0b01 313e f6b8 753e
00000030: 49f4 3e3e 2d6d 953e 615a 623e 04b7 653e
00000040: 6ab0 593e 3e86 8e3e c162 523e 260e 6c3e
00000050: c4cd 493e 1cfa 5f3e 7d5c 633e 33dc 823e
00000060: 4fe6 463e d688 573e d2bf 643e 533a 733e
00000070: 805a 6b3e b1a6 6d3e 7b82 653e e08d 6f3e
00000080: 5253 703e 0eea 4e3e 5e09 1c3e 4487 6f3e
00000090: 5613 613e d5e5 5e3e 1958 493e 9ace 693e
000000a0: f354 733e c8ad 633e 618b 603e e2d9 603e
000000b0: 7cd3 3a3e f1c7 653e 2682 3e3e 1d8f 283e
000000c0: e679 313e a004 2f3e 774c 2e3e 1152 7f3e
000000d0: 23b4 373e ab15 633e 8296 6d3e c590 343e
000000e0: 261c 613e 8493 813e f072 6c3e 7efb 5d3e
000000f0: fb5b 313e 1c8d 573e 43e2 4b3e 3f89 913e

conv_blocks.11.weight f4 [128, 64, 4]
-0.06000454 -0.007624003 -0.009833095 -0.025970666 -0.049598787 0.026213223 0.020037994 0.01645012
0.054398205 0.030705843 -0.021555578 0.051054552 0.030159883 -0.06257291 -0.036491387 -0.010560471
-0.058588006 0.025223095 0.0017770261 -0.04313423 0.04350194 0.029595058 0.036921423 -0.011572677
-0.015640415 -0.0041680797 -0.070464544 -0.026168086 -0.004494528 0.04873369 0.02693036 0.045667097
0.0094064 0.00338621 0.02171981 0.03814962 -0.016770002 -0.032387543 -0.044660952 -0.06232135
-0.01505377 -0.03788569 0.072535455 0.05240597 0.004909987 0.0015417442 0.02073479 0.010500877
0.03528469 -0.046655577 0.026843496 -0.011903539 0.025727035 0.003473249 -0.059649654 -0.03219969
-0.014841777 -0.030475495 -0.01734992 0.059938088 0.05026823 0.04544285 -0.047920458 -0.07494027
0.041131865 -0.043740563 0.035474915 0.019184306 0.0017278286 -0.027602544 -0.03387094 -0.009778774
-0.038462665 -0.0066545475 -0.08085435 -0.032067277 0.02339102 -0.056858383 0.01381738 -0.03967379
-0.041287944 0.04084364 -0.009734529 -0.04501792 -0.015033118 -0.048695516 -0.008995444 -0.031965055
-0.05385636 0.045733042 0.009145641 0.017789202 0.057443183 -0.00030638554 0.029501108 -0.010685008
0.038183045 0.0108786775 -0.018000925 -0.038607057 -0.03152175 -0.04781328 -0.0009852055 0.04261566
-0.03021567 0.034574393 -0.03349869 0.007091333 -0.054617655 0.041455492 0.025816675 -0.04058327
-0.011104683 0.052707464 -0.027495272 -0.04476784 -0.048674084 0.0064941607 -0.013131921 -0.0050097513
-0.029392222 0.036633287 0.0029951066 -0.048269443 -0.028202672 -0.07202284 0.015333725 0.028992398
0.04790131 -0.032715596 -0.04642199 -0.052442674 0.034826722 -0.041092727 -0.020172628 -0.05351812
0.0061270758 -0.05536048 0.030323645 -0.04160767 -0.03543523 0.041118197 -0.051480006 -0.033176135
0.018012177 0.024818737 0.027452169 -0.03363771 -0.040435538 -0.023612933 -0.006980639 -0.033102084
0.03343408 0.034506254 0.032659456 0.020205 -0.059035085 -0.06550483 -0.029432584 -0.036046796
0.047542796 0.036922235 0.005212083 0.030979652 0.043811187 -0.04113178 0.010720875 0.038129147
-0.064851575 -0.036701437 0.014905809 -0.010229775 -0.025262386 -0.018040508 -0.058307823 -0.033160493
-0.0053280024 0.034781862 -0.07055531 -0.05301499 -0.04516975 0.017805392 -0.031971455 0.023432842
0.041751564 -0.06628003 -0.031568926 -0.042221386 -0.017153861 -0.03897856 -0.03185906 0.008255473
-0.00036299284 0.0017192393 -0.04982119 0.032266945 -0.052713484 0.030372022 -0.03134236 -0.049148344
0.029789299 -0.047818135 0.009095037 -0.024860604 0.076442465 0.013436018 0.020121392 -0.03670587
0.038545012 -0.026923396 -0.018989198 0.0009694784 -0.037402473 -0.0600011 0.009019132 0.026485361
0.032005068 0.03177353 -0.061481435 0.013728026 0.0040823873 0.004321989 4.352541e-05 -0.0015014352
0.017590083 -0.038211975 0.012465492 0.01961719 0.05098992 -0.031136312 -0.04514915 0.046597786
-0.00014026482 -0.030871714 -0.031877168 0.049385212 0.0029446154 -0.050599907 0.0024550336 -0.008851923
0.011119009 -0.01728695 0.037075512 -0.036934752 0.04755335 0.03565229 0.03764433 0.011531022
-0.03901861 -0.056574333 -0.032078024 0.04350026 0.028188495 0.042871732 0.02382129 -0.029316153
00000000: 52c7 75bd c6d2 f9bb fd1a 21bc 6fc0 d4bc
00000010: 1928 4bbd 1dbd d63c b826 a43c 67c2 863c
00000020: a7d0 5e3d d28a fb3c 5395 b0bc 941e 513d
00000030: dc11 f73c 3a26 80bd fe77 15bd d305 2dbc
00000040: faf9 6fbd aaa0 ce3c 1aeb e83a 85ad 30bd
00000050: 172f 323d 5671 f23c eb3a 173d 539b 3dbc
00000060: 5420 80bc 6394 88bb b74f 90bd 745e d6bc
00000070: d546 93bb fa9c 473d 0f9d dc3c 6c0d 3b3d
00000080: 4d1d 1a3c 2deb 5d3b beed b13c c742 1c3d
00000090: 3e61 89bc cda8 04bd 67ee 36bd ac44 7fbd
000000a0: 16a4 76bc 062e 1bbd 788d 943d a4a7 563d
000000b0: f5e3 a03b 5a14 ca3a 02dc a93c df0b 2c3c
000000c0: ae86 103d eb19 3fbd e4e6 db3c 1007 43bc
000000d0: 81c1 d23c 739f 633b 3253 74bd d2e3 03bd
000000e0: ed2a 73bc bfa7 f9bc 6b21 8ebc a481 753d
000000f0: 0fe6 4d3d 4822 3a3d 3e48 44bd 497a 99bd
00000100: e379 283d 4e29 33bd 254e 113d 6828 9d3c
00000110: 4f78 e23a bb1e e2bc 41bc 0abd 2737 20bc
00000120: 078b 1dbd 640e dabb f796 a5bd fa58 03bd
00000130: 869e bf3c 56e4 68bd 4b62 623c fc80 22bd
00000140: 8c1d 29bd a94b 273d 937d 1fbc b664 38bd
00000150: 784d 76bc f374 47bd a061 13bc caed 02bd
00000160: 7d98 5cbd 9252 3b3d 99d7 153c a9ba 913c
00000170: 8b49 6b3d 5fa2 a0b9 4fac f13c 2c10 2fbc
00000180: d365 1c3d 7b3c 323c ad76 93bc 6f22 1ebd
00000190: f31c 01bd dcd7 43bd 0322 81ba c28d 2e3d
000001a0: da86 f7bc e19d 0d3d ec35 09bd 6a5e e83b
000001b0: c3b6 5fbd 3ccd 293d 7e7d d33c a53a 26bd
000001c0: 6bf0 35bc c8e3 573d c43d e1bc 7c5e 37bd
000001d0: 7a5e 47bd f8cc d43b 4527 57bc d728 a4bb
000001e0: f5c7 f0bc c90c 163d 8d49 443b 2eb6 45bd
000001f0: 4a09 e7bc b680 93bd 4e3a 7b3c 7781 ed3c
00000200: 2a34 443d ca00 06bd fc24 3ebd 21ce 56bd
00000210: 77a6 0e3d d950 28bd 1141 a5bc d135 5bbd
00000220: a3c5 c83b acc1 62bd 4b69 f83c ce6c 2abd
00000230: 8824 11bd 8e6b 283d b3dc 52bd b3e3 07bd
00000240: 468e 933c aa50 cb3c 5fe3 e03c b2c7 09bd
00000250: bc9f 25bd e96f c1bc d8bd e4bb 0d96 07bd
00000260: 2df2 083d 6e56 0d3d ecc5 053d f584 a53c
00000270: c6ce 71bd 6527 86bd 9a1c f1bc cea5 13bd
00000280: 3cbc 423d c53b 173d 1fca aa3b 0ac9 fd3c
00000290: 5c73 333d cc79 28bd 9ca6 2f3c 4f2d 1c3d
000002a0: e7d0 84bd 3f54 16bd 7f37 743c c99a 27bc
000002b0: 10f3 cebc b0c9 93bc 2fd4 6ebd 4cd3 07bd
000002c0: 8696 aebb 6d77 0e3d 4d7f 90bd 3f26 59bd
000002d0: ea03 39bd 9ddc 913c 80f4 02bd 3bf6 bf3c
000002e0: b003 2b3d d3bd 87bd 6b4e 01bd 55f0 2cbd
000002f0: 4186 8cbc fca7 1fbd a57e 02bd f741 073c
00000300: 1350 beb9 1958 e13a 4e11 4cbd 582a 043d
00000310: 18ea 57bd bfce f83c d960 00bd c64f 49bd
00000320: b008 f43c f3dc 43bd 5a03 153c 77a8 cbbc
00000330: de8d 9c3d be22 5c3c 9ed5 a43c e558 16bd
00000340: 60e1 1d3d 748e dcbc 3c8f 9bbc 9824 7e3a
00000350: 5633 19bd b7c3 75bd fbc4 133c d4f7 d83c
00000360: bf17 033d f624 023d f5d3 7bbd 84eb 603c
00000370: 8cc5 853b 799f 8d3b 0e8f 3638 cecb c4ba
00000380: 1419 903c 2984 1cbd 103c 4c3c 3bb4 a03c
00000390: ceda 503d 9411 ffbc 51ee 38bd 52dd 3e3d
000003a0: 0d14 13b9 ade6 fcbc a291 02bd 2648 4a3d
000003b0: 73fa 403b d941 4fbd a1e4 203b a807 11bc
000003c0: 812c 363c 5d9d 8dbc 7edc 173d e548 17bd
000003d0: 4dc7 423d 2308 123d f130 1a3d 9dec 3c3c
000003e0: fad1 1fbd 7dba 67bd 3f64 03bd 542d 323d
000003f0: 8feb e63c 459a 2f3d de24 c33c 6e28 f0bc

conv_blocks.11.bias f4 [128]
-0.01865578 0.04301224 -0.0011257483 -0.000630398 -1.795926e-05 -0.0328745 0.014994685 -0.059597608
-0.00755847 -0.0032476818 0.012412799 -0.031520348 -0.06115408 0.059618223 -0.036976535 -0.030298866
0.038724966 -0.0069841556 -0.038626865 -0.04282045 -0.056817893 0.002951197 0.003329162 0.050756924
-0.060551062 0.02673805 0.0021723614 -0.052843705 0.003996146 -0.031768247 0.01577201 0.02749971
0.056343265 -0.019227961 0.059140254 0.0154903615 0.01822627 -0.057332534 -0.05526724 -0.02305262
0.059134744 0.03334517 0.05515623 -0.05831 0.00475066 -0.056637425 0.059752587 0.04258129
0.034656893 -0.031307876 -0.03472933 -0.037823074 0.05363082 -0.03503866 0.02991761 0.032975014
-0.018874144 0.055795807 -0.049858168 -0.03239338 0.019474728 0.012584203 -0.025864087 -0.02009803
0.00022400651 0.033305354 0.049138654 0.05891962 0.053577658 -0.015780574 0.023758305 -0.0039959843
-0.058906022 -0.046566494 -0.054373216 0.055101078 -0.008564654 0.04870509 0.0071813446 0.055976614
0.032540433 0.040644415 0.056705464 0.0074538863 -0.050249323 0.022542557 0.058547467 0.033122804
-0.002769305 0.050464556 -0.060552776 0.019211512 0.060988266 -0.02585014 -0.023252036 0.02072427
0.03581581 -0.062014993 0.038048487 0.04680114 -0.030780127 0.035206236 -0.056930386 -0.011625424
-0.049683884 -0.026715197 0.029914035 0.049156 0.042954687 0.032432314 -0.03112867 0.008004185
0.03864232 0.060603194 -0.034307137 -0.046444207 -0.033911914 0.032451957 -0.0611332 0.036238905
0.016492456 0.05767847 0.048211668 0.015558469 0.033644676 -0.014495989 -0.029626362 -0.02495296
00000000: 02d4 98bc 9a2d 303d d88d 93ba 4b41 25ba
00000010: 38a7 96b7 69a7 06bd 44ac 753c 9f1c 74bd
00000020: 0bad f7bb 0fd7 54bb 0d5f 4b3c 7b1b 01bd
00000030: b37c 7abd 3d32 743d b574 17bd 5435 f8bc
00000040: 129e 1e3d 58db e4bb 3437 1ebd 7f64 2fbd
00000050: e1b9 68bd df68 413b 122e 5a3b 7ee6 4f3d
00000060: 6404 78bd c109 db3c 2d5e 0e3b a472 58bd
00000070: 1af2 823b 6c1f 02bd 4d34 813c 1247 e13c
00000080: 32c8 663d f583 9dbc 0d3d 723d 49cb 7d3c
00000090: 424f 953c 85d5 6abd e75f 62bd d9d8 bcbc
000000a0: 4637 723d f294 083d 80eb 613d 77d6 6ebd
000000b0: 6dab 9b3b a5fc 67bd 21bf 743d b869 2e3d
000000c0: 63f4 0d3d b03c 00bd 5840 0ebd 5eec 1abd
000000d0: feab 5b3d b384 0fbd c715 f53c cf10 073d
000000e0: f39d 9abc 258a 643d 1438 4cbd ecae 04bd
000000f0: 7789 9f3c f92d 4e3c ece0 d3bc a0a4 a4bc
00000100: 4ae3 6a39 326b 083d 9d45 493d b355 713d
00000110: 3f74 5b3d 4346 81bc c7a0 c23c bff0 82bb
00000120: 7147 71bd 82bc 3ebd 73b6 5ebd abb1 613d
00000130: c352 0cbc fd7e 473d 7c51 eb3b bc47 653d
00000140: 1e49 053d c27a 263d fd43 683d bb3f f43b
00000150: 3cd2 4dbd 2bab b83c 78cf 6f3d c7ab 073d
00000160: 3a7d 35bb ecb3 4e3d 3006 78bd 7661 9d3c
00000170: d5ce 793d acc3 d3bc 0e7b bebc f2c5 a93c
00000180: 99b3 123d 6f03 7ebd bbd8 1b3d 8db2 3f3d
00000190: 9b26 fcbc 6a34 103d d62f 69bd 9078 3ebc
000001a0: 5481 4bbd d4d9 dabc 470e f53c cd57 493d
000001b0: 41f1 2f3d bfd7 043d 8d01 ffbc fc23 033c
000001c0: 6947 1e3d 0e3b 783d a485 0cbd 483c 3ebd
000001d0: 38e7 0abd 58ec 043d ce66 7abd 3f6f 143d
000001e0: 301b 873c 4240 6c3d 9979 453d f3e8 7e3c
000001f0: 00cf 093d 9680 6dbc fcb2 f2bc 266a ccbc

conv_blocks.12.weight f4 [128]
1.0255065 1.0299065 1.0065424 1.0037119 1.000988 0.99889046 1.026399 0.99728173
1.0032879 1.0242063 1.0073953 1.0189941 1.0068787 1.0058174 1.0310119 1.0177833
1.0268328 0.99877805 1.007354 1.008213 1.0211282 1.0230292 1.020386 0.9945334
1.0269285 1.0280154 1.007589 1.0220671 0.998952 1.0474547 1.0056646 1.031353
1.0358526 1.0336968 1.0252724 1.0299019 1.0400192 1.0031837 1.0204626 1.0508448
1.023335 1.0508075 1.0245751 1.0206559 1.0202137 1.0316771 1.0289282 1.030206
1.0140911 1.0192411 1.0130204 1.0267099 1.0442531 1.0097417 1.0213822 1.0316095
1.0300803 1.0275713 1.0143622 1.0419105 1.0101264 1.0387002 0.98814166 0.99808395
1.0240557 0.9889236 1.0173826 0.99200445 1.0100608 1.0195379 1.0466446 1.0043457
1.0209144 1.024097 1.0413597 1.0087285 1.0336919 1.003972 1.0244782 1.0508857
1.044983 0.9996132 1.025872 1.044838 1.0235476 1.0189054 1.0340402 1.0312625
1.0064864 0.99718636 1.0116338 1.0008715 1.0168158 1.0050558 1.0086392 1.025864
1.0212622 1.0085392 1.0247082 1.0302709 1.0179398 1.0320456 1.0044572 1.0309589
1.0267771 1.0354391 1.0175419 1.0241129 1.0157193 1.0433933 1.0337602 1.0093503
1.0083832 1.0266387 1.0052618 1.0078017 1.0199405 1.0130304 1.0126637 1.0407335
1.0041618 1.0179374 1.0135659 1.0303906 1.0159839 1.0232918 1.0070026 1.0104599
00000000: cc43 833f fad3 833f 62d6 803f a279 803f
00000010: 6020 803f 49b7 7f3f 0b61 833f db4d 7f3f
00000020: bd6b 803f 3119 833f 54f2 803f 666e 823f
00000030: 67e1 803f a0be 803f 33f8 833f b946 823f
00000040: 426f 833f ebaf 7f3f faf0 803f 200d 813f
00000050: 54b4 823f 9ff2 823f 029c 823f be99 7e3f
00000060: 6572 833f 0296 833f adf8 803f 18d3 823f
00000070: 51bb 7f3f ff12 863f 9eb9 803f 6003 843f
00000080: d196 843f 2d50 843f 203c 833f d3d3 833f
00000090: 591f 853f 5368 803f 859e 823f 1582 863f
000000a0: a4fc 823f dc80 863f 4725 833f daa4 823f
000000b0: 5d96 823f ff0d 843f ebb3 833f cadd 833f
000000c0: bdcd 813f 7e76 823f a7aa 813f 3b6b 833f
000000d0: 16aa 853f 373f 813f a7bc 823f c80b 843f
000000e0: acd9 833f 7587 833f 9fd6 813f 535d 853f
000000f0: d24b 813f 21f4 843f daf6 7c3f 6e82 7f3f
00000100: 4214 833f 192a 7d3f 9839 823f 01f4 7d3f
00000110: ac49 813f 3880 823f 73f8 853f 668e 803f
00000120: 53ad 823f 9c15 833f 464b 853f 041e 813f
00000130: 0450 843f 2882 803f 1a22 833f 6c83 863f
00000140: 01c2 853f a7e6 7f3f c64f 833f 40bd 853f
00000150: 9c03 833f 7e6b 823f 6e5b 843f 6900 843f
00000160: 8cd4 803f 9b47 7f3f 377d 813f 8f1c 803f
00000170: 0527 823f aba5 803f 171b 813f 834f 833f
00000180: b8b8 823f d017 813f a329 833f ebdf 833f
00000190: da4b 823f 121a 843f 0e92 803f 76f6 833f
000001a0: 6f6d 833f 4589 843f d03e 823f 2216 833f
000001b0: 1703 823f e98d 853f 4152 843f 6432 813f
000001c0: b312 813f e668 833f 6bac 803f a5ff 803f
000001d0: 698d 823f fbaa 813f f79e 813f c136 853f
000001e0: 6088 803f c64b 823f 87bc 813f d7e3 833f
000001f0: c30b 823f 3afb 823f 76e5 803f c056 813f

conv_blocks.12.bias f4 [128]
0.034320686 0.010681856 0.017399466 -0.007983448 -0.0052156984 -0.00721597 0.019204061 -0.010806502
0.026967542 0.033915337 -0.00057697203 0.033662826 -0.013709409 -0.0122056315 -0.0002788002 0.0038932068
0.019383013 0.001946128 0.005592235 0.003615277 0.0029496357 0.008776669 0.012887549 0.0069416533
-0.010780674 0.040956426 0.016671922 0.011408131 -0.0056404416 -0.013254674 0.01072155 -0.010199158
0.02950381 0.045445066 0.023810504 0.025972644 0.006951074 -0.00043660108 0.01576598 0.016942747
0.0022107102 0.011620456 0.008324234 -0.020656155 0.007851466 0.008322494 -0.0034729424 -0.013254497
0.030291196 0.031120779 0.015946448 -0.02124726 0.02357821 0.0018684805 -0.008847801 0.020630278
-0.0064864727 0.013797868 0.001102179 -0.023816694 0.030679477 0.02365519 -0.019425958 -0.014248413
0.023189275 -0.017746067 -0.02273634 -0.00807078 -0.0044382447 0.0015343147 0.019334866 -0.023191769
-0.000950338 0.022176903 0.044020478 -0.014193271 0.018987942 0.009298078 -0.03440096 -0.0037429
-0.019181307 7.5094045e-05 0.008739094 0.0037773186 0.016905922 -0.011811922 0.0010211535 0.031297136
0.036623262 0.0026185263 0.021721404 0.007208451 0.02202381 0.005116058 0.0003041715 -0.0068387706
0.015089675 -0.008065274 0.035152894 0.001106177 0.0021273384 -0.004659906 -0.016348539 0.020263914
-0.00025457627 0.0186569 0.018860377 0.014619113 0.032046217 -0.0008068911 0.008148193 0.023308368
-0.020707304 -0.02664461 -0.014381078 -0.007552605 0.04283648 -0.010653477 -0.0139139155 -0.0050326325
0.00951821 0.0015797627 -0.034116525 -0.020912647 0.0125228 0.00081122917 -0.020677999 0.007653713
00000000: d993 0c3d f402 2f3c 5389 8e3c 02cd 02bc
00000010: 73e8 aabb f273 ecbb d651 9d3c c10d 31bc
00000020: 09eb dc3c cfea 0a3d f03f 17ba 08e2 093d
00000030: 6e9d 60bc 21fa 47bc ee2b 92b9 2c25 7f3b
00000040: 20c9 9e3c 3815 ff3a 113f b73b 48ee 6c3b
00000050: ad4e 413b 05cc 0f3c 4c26 533c cf76 e33b
00000060: 6da1 30bc edc1 273d 8e93 883c 2be9 3a3c
00000070: 74d3 b8bb 222a 59bc 71a9 2f3c 5f1a 27bc
00000080: f9b1 f13c 9b24 3a3d 3f0e c33c 95c4 d43c
00000090: d6c5 e33b 9be7 e4b9 a827 813c 84cb 8a3c
000000a0: 90e1 103b ba63 3e3c 5e62 083c 1937 a9bc
000000b0: 6fa3 003c 125b 083c 4e9a 63bb 6429 59bc
000000c0: 3e25 f83c 01f1 fe3c 20a2 823c bc0e aebc
000000d0: 1727 c13c cde7 f43a 5ef6 10bc d400 a93c
000000e0: 7a8c d4bb 7410 623c fe76 903a 3a1b c3bc
000000f0: 8753 fb3c 87c8 c13c 3023 9fbc 2d72 69bc
00000100: 6ff7 bd3c 3360 91bc 9041 babc 4e3b 04bc
00000110: b26e 91bb 0f1b c93a 2764 9e3c aafc bdbc
00000120: 1b20 79ba 56ac b53c d14e 343d e58a 68bc
00000130: 9a8c 9b3c f756 183c 05e8 0cbd 714b 75bb
00000140: 1e22 9dbc cf7b 9d38 6b2e 0f3c e48c 773b
00000150: 4a7e 8a3c cb86 41bc 3ad8 853a 6d31 003d
00000160: 4602 163d 959b 2b3b 16f1 b13c df34 ec3b
00000170: 476b b43c 9ba4 a73b 3579 9f39 c417 e0bb
00000180: af3a 773c 3624 04bc 7bfc 0f3d 24fd 903a
00000190: d16a 0b3b 20b2 98bb 5fed 85bc 8200 a63c
000001a0: a678 85b9 5bd6 983c 1481 9a3c 0185 6f3c
000001b0: e542 033d 8c85 53ba 0080 053c 31f1 be3c
000001c0: 5da2 a9bc cc45 dabc 9d9e 6bbc d87b f7bb
000001d0: 4e75 2f3d ec8b 2ebc 31f7 63bc c8e8 a4bb
000001e0: 44f2 1b3c 0a10 cf3a c5bd 0bbd 0051 abbc
000001f0: 6e2c 4d3c aba8 543a e864 a9bc 00cc fa3b

conv_blocks.12.running_mean f4 [128]
-0.49265864 0.10860617 -0.32956794 -0.005217092 0.035440482 0.07277428 -0.0924602 -0.16483243
-0.5356447 -0.3091645 -0.25913528 -0.3279667 -0.16937123 0.166499 0.05588118 0.1540985
0.071661875 0.025398586 0.055470057 -0.10876779 -0.05758564 0.07473235 0.18933612 -0.5125782
-0.20025449 -0.37832 -0.18175405 0.040788468 -0.14794025 -0.14906777 -0.038353432 0.28961658
-0.1272708 -0.20580438 -0.30898955 0.060429253 -0.42967662 -0.20867446 0.18108988 -0.08298141
0.19620854 0.059435107 0.030110974 0.044957023 0.05767142 -0.18689635 0.026954789 -0.041987825
-0.24131039 -0.30303454 0.094672434 0.14451474 0.21034214 -0.077588834 0.1311561 0.014426279
-0.03480315 0.042203277 0.014612107 0.09258531 -0.20837769 -0.045105144 -0.011949782 0.19313951
0.015026711 0.3594001 -0.096984245 -0.1215043 0.05480445 0.25368026 -0.057724133 0.0654916
0.07633373 0.061099455 -0.74600124 -0.042960774 0.064895846 0.40271655 0.044756923 -0.021818563
-0.037910637 0.16314188 -0.080232345 -0.036637194 -0.12587757 0.2256471 0.11924699 0.30472168
-0.2823214 0.32423562 -0.013249343 0.061723378 0.16414073 0.15806219 -0.062142618 0.1256265
0.22012003 -0.3146997 -0.12912688 0.022711845 -0.01236133 0.12816547 0.18276578 -0.3108167
0.091922216 0.023608202 0.09748353 0.103325345 0.02944342 0.050490826 0.0013302506 -0.31831062
-0.035717696 -0.23520522 -0.023416769 0.14021842 -0.35293755 0.14585517 -0.36046112 0.026519245
-0.02294726 0.026332378 0.07284067 -0.065188795 0.11313061 0.029404204 0.0822994 0.074363075
00000000: c13d fcbe e96c de3d 21bd a8be 24f4 aabb
00000010: 0a2a 113d af0a 953d c65b bdbd d5c9 28be
00000020: 0320 09bf cf4a 9ebe 61ad 84be 40eb a7be
00000030: a76f 2dbe b77e 2a3e aae3 643d ffcb 1d3e
00000040: 76c3 923d b210 d03c 9234 633d a6c1 debd
00000050: ecde 6bbd 460d 993d 54e1 413e 5338 03bf
00000060: 830f 4dbe 29b3 c1be bc1d 3abe cf11 273d
00000070: a67d 17be 39a5 18be 7d18 1dbd a048 943e
00000080: 4753 02be 62be 52be e133 9ebe aa84 773d
00000090: 93fe dbbe c2ae 55be a06f 393e 28f2 a9bd
000000a0: e4ea 483e 3a72 733d 4aab f63c db24 383d
000000b0: de38 6c3d c261 3fbe 4ad0 dc3c 6dfb 2bbd
000000c0: 121a 77be 5827 9bbe 9fe3 c13d acfb 133e
000000d0: ee63 573e e5e6 9ebd c94d 063e 335c 6c3c
000000e0: bf8d 0ebd 58dd 2c3d 9e67 6f3c 5e9d bd3d
000000f0: f660 55be 2cc0 38bd 05c9 43bc 5dc6 453e
00000100: 9832 763c 4a03 b83e ad9f c6bd 3fd7 f8bd
00000110: a27a 603d 61e2 813e 2470 6cbd 7620 863d
00000120: dc54 9c3d 6c43 7a3d f0f9 3ebf a3f7 2fbd
00000130: 1de8 843d dd30 ce3e 0953 373d d8bc b2bc
00000140: 2f48 1bbd aa0e 273e db50 a4bd e210 16bd
00000150: 0de6 00be 0910 673e c437 f43d 7b04 9c3e
00000160: 6e8c 90be 3602 a63e c613 59bc a7d1 7c3d
00000170: 8214 283e 0edb 213e 4289 7ebd 3ca4 003e
00000180: 2567 613e 5220 a1be d639 04be 310e ba3c
00000190: 2d87 4abc cf3d 033e f426 3b3e 5e23 9fbe
000001a0: b741 bc3d fd65 c13c 72a5 c73d 3d9c d33d
000001b0: 5433 f13c 78cf 4e3d ce5b ae3a 9cf9 a2be
000001c0: b84c 12bd a3d9 70be 86d4 bfbc 6b95 0f3e
000001d0: 3bb4 b4be 0f5b 153e 5c8e b8be e33e d93c
000001e0: e4fb bbbc 00b7 d73c 7d2d 953d b481 85bd
000001f0: 05b1 e73d 16e1 f03c 968c a83d ab4b 983d

conv_blocks.12.running_var f4 [128]
0.2538918 0.28479114 0.2679121 0.194665 0.23064463 0.26435062 0.25192612 0.23126622
0.27600503 0.24197714 0.2890379 0.24420452 0.2889003 0.22479448 0.234855 0.24688242
0.24726167 0.22210029 0.2552022 0.24266562 0.23174363 0.2291334 0.22461942 0.27688518
0.26602036 0.3024908 0.31077147 0.23007426 0.20738763 0.25520688 0.26382455 0.28766134
0.19954768 0.25159922 0.24779287 0.22360428 0.3280122 0.20841265 0.23316965 0.23727345
0.277252 0.26779327 0.24273486 0.24381842 0.21880004 0.2651392 0.28615633 0.27981564
0.25809154 0.24565053 0.19803226 0.2915269 0.22835423 0.20575802 0.22139756 0.25099063
0.23848724 0.21234532 0.22956769 0.27254534 0.23704605 0.23763965 0.2301064 0.22800077
0.24524766 0.22589669 0.25967297 0.22886406 0.2376257 0.23887712 0.2707241 0.20793618
0.28078076 0.24444261 0.3256831 0.25619218 0.2514514 0.2214552 0.25752264 0.27126127
0.33726498 0.21807921 0.22563894 0.29045144 0.25260305 0.21545102 0.27737498 0.25868183
0.3080801 0.23821484 0.19837345 0.22774106 0.32476917 0.22602628 0.24804851 0.2422332
0.17628667 0.25448847 0.26249722 0.21982291 0.19473694 0.22569595 0.24063975 0.24007788
0.26076922 0.31466773 0.21025006 0.20457743 0.2311562 0.2102748 0.23771553 0.27710986
0.24297395 0.26132837 0.2308371 0.26182035 0.3001975 0.24894705 0.3015282 0.27647296
0.19882457 0.2947415 0.2529541 0.27495065 0.25328377 0.24826856 0.24707928 0.24778447
00000000: 1bfe 813e 25d0 913e c62b 893e 4356 473e
00000010: 1b2e 6c3e f758 873e 76fc 803e 0dd1 6c3e
00000020: 8850 8d3e dbc8 773e c7fc 933e c010 7a3e
00000030: bdea 933e 8630 663e d47d 703e bfce 7c3e
00000040: 2a32 7d3e 426e 633e dda9 823e 567d 783e
00000050: 344e 6d3e f2a1 6a3e a202 663e e5c3 8d3e
00000060: d233 883e 13e0 9a3e 701d 9f3e 9698 6b3e
00000070: 6c5d 543e 7aaa 823e 0314 873e 5948 933e
00000080: 3a56 4c3e 9dd1 803e 6abd 7d3e 85f8 643e
00000090: 37f1 a73e 206a 553e 06c4 6e3e d0f7 723e
000000a0: f9f3 8d3e 331c 893e 7d8f 783e 89ab 793e
000000b0: 1e0d 603e 53c0 873e 1583 923e ff43 8f3e
000000c0: 9324 843e d08b 7b3e f8c8 4a3e 0443 953e
000000d0: b1d5 693e 3bb2 523e 0bb6 623e d881 803e
000000e0: 0036 743e 0d71 593e cb13 6b3e 108b 8b3e
000000f0: 33bc 723e cf57 733e 03a1 6b3e 0979 693e
00000100: 3422 7b3e 7651 673e dbf3 843e 575b 6a3e
00000110: 2754 733e 349c 743e 599c 8a3e 39ed 543e
00000120: 7fc2 8f3e 2a4f 7a3e efbf a63e 9f2b 833e
00000130: 3dbe 803e 27c5 623e 02da 833e c2e2 8a3e
00000140: ffad ac3e 2850 5f3e e50d 673e 0db6 943e
00000150: 3055 813e 319f 5c3e 1804 8e3e f271 843e
00000160: adbc 9d3e 97ee 733e 6922 4b3e f434 693e
00000170: 2548 a63e 6f73 673e 6e00 7e3e fb0b 783e
00000180: 7e84 343e 504c 823e 0966 863e 4219 613e
00000190: 1f69 473e d71c 673e 446a 763e fad6 753e
000001a0: 8b83 853e 211c a13e cb4b 573e bf7c 513e
000001b0: 36b4 6c3e 4752 573e b36b 733e 58e1 8d3e
000001c0: 2ace 783e d5cc 853e 9060 6c3e 510d 863e
000001d0: 7db3 993e faeb 7e3e e761 9a3e dd8d 8d3e
000001e0: ab98 4b3e 5ce8 963e 3383 813e 55c6 8c3e
000001f0: 69ae 813e 1d3a 7e3e 5a02 7d3e 36bb 7d3e
