data/gan_output/discriminator_epoch_70.pth (torch, 191742 bytes, 21 tensors)

conv_blocks.0.weight f4 [16, 1, 4]
000000 24 21 6f 3d be 6d bd 3d dc 7b 3c bd b1 c9 d4 3e
       0.058381215 0.09249447 -0.04601656 0.41560128
000010 d0 29 fd ba b1 53 56 3d 61 2e c7 be 7d 2e 59 3d
       -0.0019314829 0.052325908 -0.38902572 0.05302285
000020 2b cd 0f 3e f1 e4 d3 be aa 89 d7 3d f2 eb 01 bd
       0.14043109 -0.41385606 0.10524304 -0.031719156
000030 cf 55 df be 4d c7 95 3e bc 14 be 3e 6f 6b e2 be
       -0.43620154 0.29253617 0.37125194 -0.4422259
000040 e6 b6 ce be 31 cb a8 3d e5 3f b9 bd a9 1c 8d 3e
       -0.40373915 0.08241881 -0.0904539 0.27560928
000050 27 a2 c0 be c2 c7 8b 3e ae 56 f9 bd dd 71 b9 3e
       -0.37623712 0.2730084 -0.12174736 0.36219683
000060 ee 68 a4 3e a5 61 ff be 88 67 c5 3e 31 9f 6a 3e
       0.32111305 -0.49879184 0.3855555 0.22912289
000070 5b 40 11 bc 82 27 5d be a8 83 a0 3e 0c e6 f5 be
       -0.008865441 -0.21597102 0.31350446 -0.48027074
000080 af fd 79 be 07 a2 af be 4c 35 f5 3d 14 0f 7b 3e
       -0.24413179 -0.34303305 0.11973056 0.2451747
000090 30 b1 c8 3d d3 23 32 3e 4f 00 e8 3e e7 8f e8 3d
       0.09799421 0.17396478 0.45312735 0.11355572
0000a0 5c df 6c 3e 82 7f a5 be a7 bd f3 be 45 bc a2 be
       0.2313208 -0.32323843 -0.4760563 -0.31784263
0000b0 2f 6a 4c be f5 5e 7a 3d e8 d0 93 be 64 52 dd bd
       -0.19962381 0.061125714 -0.2887032 -0.108067304
0000c0 c4 bf 1d be c1 77 64 3e 64 76 d1 be de 87 fb be
       -0.15405184 0.22311307 -0.40910637 -0.49127096
0000d0 a6 63 ed 3b 0e 1b eb bd aa 37 aa be de a0 d9 be
       0.007244545 -0.1147977 -0.33245593 -0.42505544
0000e0 64 60 13 be d8 b7 40 be 71 4a e4 3c d9 1a 2e be
       -0.14392239 -0.18820131 0.027867528 -0.17002429
0000f0 f4 44 72 3e 07 cd 56 3e 94 ed 9f be 45 3a ba be
       0.23659116 0.20976649 -0.31235945 -0.3637258

conv_blocks.0.bias f4 [16]
000000 1c 7c ff be 6b d3 05 be 42 bd 76 be c4 58 79 3e
       -0.49899375 -0.13068931 -0.24095634 0.24350268
000010 16 1f 18 3e 68 d9 42 3d 95 71 aa be 0d a8 ec 3e
       0.14855608 0.047570616 -0.3328978 0.46221963
000020 b0 04 75 3e 2d 96 a9 3d cd a1 21 be f0 29 f6 be
       0.2392757 0.08280597 -0.15784378 -0.4807887
000030 43 da 77 bd ec 42 bb 3d 7d 9e af 3e 64 3f 7f be
       -0.060510885 0.09143624 0.34300604 -0.24926525

conv_blocks.3.weight f4 [32, 16, 4]
000000 17 f0 6a bd db 05 d0 3d d1 62 b2 3d de 45 be bd
       -0.057357874 0.10157367 0.08710254 -0.0929067
000010 36 1a e4 bd cd 4a 2f 3d c1 b3 bd bd 37 61 44 3d
       -0.11137812 0.042795945 -0.09262801 0.047944274
000020 24 7f 1d 3d d0 2b 6d 3d d8 0c 83 3c 5a e8 be bc
       0.03845133 0.05790311 0.015997335 -0.023304153
000030 d4 44 1f bd 44 34 fc bd 12 5b f7 3d df e9 c8 bd
       -0.038884 -0.123146564 0.12077917 -0.09810232
000040 67 75 65 bd db d9 65 3d 41 81 f6 bd bb c9 90 3d
       -0.056020167 0.056115966 -0.12036372 0.07069727
000050 3c fa 93 bd 81 4e 9a 3c 70 c0 ef 3d 50 91 2e bd
       -0.07225463 0.018836262 0.117066264 -0.04261905
000060 69 28 8a 3b df 48 8d 3d b8 c0 aa bc e5 cf 37 3d
       0.004216243 0.06898665 -0.020843849 0.044875998
000070 86 0a ae 3d 23 98 f5 bd e1 6d bc bd 4b 4c 90 3d
       0.08498101 -0.119919084 -0.09200645 0.07045802
000080 b5 66 3d bd 08 14 6d bb d6 f7 44 3d 0b 70 cd bd
       -0.046240527 -0.003617527 0.048087917 -0.10031136
000090 49 e8 5f bd a6 f0 72 3b dd fd 72 3b 08 bd 49 bc
       -0.054664884 0.0037069707 0.0037077584 -0.012313135
0000a0 d1 e6 71 bd 01 6c 13 bd b3 fe 05 3d bc 4a 5e 3d
       -0.059058014 -0.035991672 0.032713603 0.05427049
0000b0 37 c0 7f bd 9f 1c e6 bc 46 63 2b bd 90 ae 2b 3d
       -0.06243917 -0.02808982 -0.04184272 0.041914523
0000c0 29 fc ac 3d 29 4e 02 3d 49 90 cd 3d 5c d8 36 3d
       0.08446533 0.03181282 0.10037286 0.04463993
0000d0 d8 39 be bd 8e ce 34 bd e2 ab b7 3b dd 66 1d bc
       -0.092883766 -0.0441423 0.005605207 -0.009607044
0000e0 3f 18 fb bd c8 fe a3 bd 66 a9 e9 bd 71 86 48 3d
       -0.12260484 -0.0800758 -0.11409263 0.04895634
0000f0 b3 ca 8e bd bb 36 82 3d 3e 2e 7b bd 1d 1b 6b bc
       -0.069722556 0.06358095 -0.061323397 -0.014349726
000100 c7 0f 9b bd 46 d4 e7 3d 3c 46 ab 3a 02 c4 b3 3d
       -0.07571369 0.11319785 0.0013067196 0.0877762
000110 48 b1 d4 bd 5f b5 8c bd a7 bc f5 bb f5 70 ca 3c
       -0.10385376 -0.06870531 -0.0074992958 0.024712065
000120 23 1e 95 bd 6e a7 ca bd 67 06 e0 3d 23 31 85 bd
       -0.07281139 -0.09895216 0.10938721 -0.06503513
000130 3d b8 91 bd d1 a2 6d 3d 74 03 80 bd 10 b7 dd 3d
       -0.07115219 0.058016602 -0.06250659 0.10825932
000140 0f bb 73 3c 2a 44 ec 3d da ef 9c 3c 32 e7 7c bd
       0.014876141 0.11536439 0.019157339 -0.061743923
000150 18 c4 60 bd f3 8d 4c 3d 1a 8c 58 3d 33 68 8e 3d
       -0.05487451 0.04994006 0.052867986 0.06953468
000160 38 cf 62 bc dd 31 aa bd 62 a4 df bb a2 a1 a0 bc
       -0.01384335 -0.08310292 -0.006825016 -0.019608323
000170 f6 c3 c6 bb b8 82 42 3c 2e 94 39 bc 49 20 73 3d
       -0.006065841 0.011871986 -0.011326833 0.05935696
000180 14 3a 11 bd 40 41 d9 3d ec 76 f9 3c 8a 14 5d bd
       -0.03545578 0.106081486 0.030452214 -0.053974666
000190 44 31 88 bd c6 13 10 3d dc a7 c9 3d 8e eb e3 bd
       -0.06650022 0.035175107 0.0984647 -0.11128913
0001a0 6a 66 c9 bc 8f 12 d1 bd cb a9 78 bd d0 63 f6 bd
       -0.024584968 -0.10208618 -0.060708802 -0.120307565
0001b0 2a bc ac bc 45 8a 5d 3d e4 25 c1 3d 44 56 5a bd
       -0.021085817 0.054086942 0.09431055 -0.053304926
0001c0 1f 5a e8 3d 9e 42 57 bd df 13 c5 3d ca f1 70 3d
       0.11345314 -0.052553765 0.09622931 0.058824338
0001d0 01 ca 0a 3c f5 f6 ff bd fd 83 19 3d 5b e6 8f bd
       0.008471013 -0.12498275 0.03747939 -0.07026359
0001e0 30 eb 84 3d 42 35 00 be c1 17 42 3d e1 63 91 bd
       0.06490171 -0.12520316 0.047385935 -0.070991285
0001f0 38 7d cb 3d e8 d0 ca 3c c7 0e 53 bd 21 d2 e6 3c
       0.09935993 0.024757817 -0.051527765 0.02817637
000200 4a 68 b2 3d 5d c4 8c 3c 69 44 23 3d 1f cf e6 3b
       0.08711298 0.017183477 0.039860163 0.0070437337
000210 a2 50 88 bb 4c ac 95 ba 7f 97 94 3d d1 50 c4 bc
       -0.004160003 -0.0011419146 0.07255458 -0.023964318
000220 c4 d1 35 bd e6 b3 60 3d 21 8e 53 bc 8d ac cc bd
       -0.0443895 0.054859065 -0.012912304 -0.09993849
000230 b0 c7 88 bd 62 fe 8f 3d a1 0f d1 3b e6 6b f6 3d
       -0.06678712 0.070309415 0.006380037 0.12032299
000240 9f 43 a8 bd 35 9a c3 bd c2 53 e9 bd cf eb f4 bd
       -0.08216023 -0.09550897 -0.11392929 -0.119590394
000250 e1 ed 16 3b d9 ac db bb c9 e5 e9 3d 8a e3 0a 3c
       0.002302997 -0.0067039547 0.11420781 0.008477101
000260 f9 c6 8a bd 2d f6 e0 bd 94 b6 dc 3d 40 ba b9 3d
       -0.06776232 -0.10984454 0.107770115 0.090687275
000270 dd 92 9c bd 07 19 9b bd 5b 2c b2 3d 08 d6 65 3d
       -0.076451994 -0.07573133 0.086998664 0.05611232
000280 a0 c3 be 3d c9 f9 fc bd fa 62 cd 3d b0 db 7f bd
       0.09314656 -0.1235233 0.10028644 -0.06246537
000290 93 9c a6 3d e6 18 d0 3d 18 ae 22 3d 35 3c f2 3c
       0.08135333 0.10160999 0.03971681 0.029569725
0002a0 9a fe c8 3d d5 ef 80 3d f6 98 1a 3d 4f 6c e0 bc
       0.098141864 0.06295744 0.03774353 -0.027395396
0002b0 52 58 a1 bd 25 69 a6 bd 8c 08 9c 3c bc 6f 30 3c
       -0.07878174 -0.081255235 0.019047044 0.010768827
0002c0 78 53 f9 bd 8e 2c cf bd 4c 5c 9e 3c ee a1 66 bb
       -0.121741235 -0.1011592 0.01933112 -0.0035191732
0002d0 1b 65 86 3d 83 c2 7a 3d 55 7f c9 bd 1a 24 9e 3d
       0.06562253 0.061220657 -0.0983874 0.077217296
0002e0 d8 4e ca bb 33 93 e6 3c f2 e5 16 3d 65 91 53 bd
       -0.0061739497 0.028146362 0.036840387 -0.05165233
0002f0 da 69 ee 3d c4 46 6d bd 72 d1 8c 3d 85 62 a4 bd
       0.11641283 -0.057928815 0.06875886 -0.080266036
000300 ad 64 5a bd 6c 94 cd 3d e1 e2 c8 bd 0c 89 ca 3d
       -0.05331867 0.10038075 -0.09808899 0.09889421
000310 a7 8f a6 bd 1a 6a cf 3a 2e 92 56 3d 57 bb 1e bd
       -0.08132868 0.0015824467 0.0523855 -0.03875288
000320 a5 56 a2 bd e2 06 9a bd c1 98 77 3c 0a 12 d5 3c
       -0.079266824 -0.07520844 0.015112103 0.026009578
000330 71 59 ad 3d 03 11 5a bd 88 37 8d bd 98 36 7d 3d
       0.08464325 -0.05323888 -0.06895357 0.061819643
000340 30 a3 43 3c 29 7d 28 3c 73 4e ae 3d d9 96 6e 3c
       0.011940762 0.010283747 0.08511057 0.014562332
000350 2b 85 9a bd 39 c4 02 3e 9f 1f c2 bc 5e e9 d4 3b
       -0.07544931 0.12770166 -0.023696719 0.006497546
000360 dc 39 df 3d 81 ef b3 bd 77 d5 a6 bd 39 31 ee bd
       0.10899708 -0.08785916 -0.08146184 -0.11630482
000370 a0 03 f6 3d a0 33 8e 3d f6 f7 c5 3d 83 49 a5 3d
       0.1201241 0.069434404 0.096664354 0.08070662
000380 6f 7f a2 bd 22 ec 7e bc 2e 37 ac 3c 9b 17 41 3d
       -0.07934462 -0.015559228 0.021022405 0.047141653
000390 a7 d4 4a bc 58 92 51 bd a3 c6 e0 3d 91 a3 97 bd
       -0.012379802 -0.051164955 0.10975387 -0.07404245
0003a0 58 7d a9 bd 85 b9 e9 bd d6 ca ae 3d 21 cb 41 bd
       -0.082758605 -0.11412338 0.08534782 -0.04731286
0003b0 b4 6f d1 3d c0 23 ed 3d ac 66 f3 3d a1 c9 bc bd
       0.10226384 0.115790844 0.118848175 -0.09218145
0003c0 5f 87 b9 bd 89 55 b6 bc a2 ae 88 bc 28 5f bc bd
       -0.09059023 -0.022257583 -0.016684834 -0.09197837
0003d0 3f df bc 3d a2 2b ba bd 1d 22 88 bd 72 ef c8 bc
       0.09222268 -0.090903535 -0.066471316 -0.024528239
0003e0 87 a7 f2 bd b9 12 71 bc 4c d9 ef 3c 2f c7 64 bc
       -0.118483596 -0.0147139365 0.02927842 -0.013963505
0003f0 32 36 ce bd 30 c1 87 3d 2b 51 cb bd b1 d8 e1 3c
       -0.10068931 0.066286445 -0.09927591 0.027569147

conv_blocks.3.bias f4 [32]
000000 ac 45 5b bd 54 90 1c bd 3c cb 0c 3d 16 61 8e bc
       -0.05353324 -0.03822358 0.034373507 -0.017380279
000010 fe 57 bc bd f7 b8 c2 bc f0 0b aa 3c 42 6a 1e bc
       -0.09196471 -0.023769839 0.020757645 -0.0096688885
000020 10 15 84 3c a2 ce dd 3d f8 c8 70 3b ce 0c 66 bb
       0.016123325 0.10830428 0.003674088 -0.0035102847
000030 1e e5 18 3c 5b 52 19 3d a3 b4 59 3d 7f ee 3e 3d
       0.00933197 0.037432056 0.053150784 0.046614166
000040 51 f8 a1 bd 54 4c a7 3d 4e a1 77 bd 27 ca 23 3d
       -0.07908691 0.08168855 -0.060456567 0.03998771
000050 70 67 45 3d fa 85 d5 3c d9 97 51 3d 2f 53 30 3d
       0.04819435 0.026064862 0.051170204 0.04304808
000060 d2 15 ef bd 09 8d 99 3d 23 2d ae 3b af f2 e1 3d
       -0.11674084 0.074976034 0.0053154393 0.11032616
000070 58 5f 60 bd 72 9a 83 bb 86 4e 54 3d e8 8c 73 bd
       -0.054778427 -0.004016214 0.0518327 -0.05946055

conv_blocks.4.weight f4 [32]
000000 51 5f 7f 3f 05 03 80 3f 06 2d 80 3f 5a db 7f 3f
       0.99754816 1.0000921 1.001374 0.9994408
000010 31 5b 7f 3f 8d 53 80 3f 89 38 80 3f d3 54 80 3f
       0.9974852 1.0025498 1.0017253 1.0025886
000020 ea 2f 7f 3f 33 09 80 3f e0 3d 80 3f 8f dd 7e 3f
       0.99682486 1.0002807 1.0018883 0.9955682
000030 8a 36 80 3f f2 80 7f 3f 6d 84 7f 3f 68 de 7f 3f
       1.0016644 0.9980613 0.9981144 0.9994874
000040 1a 84 80 3f 1e 5b 80 3f f5 37 80 3f 93 cb 7f 3f
       1.0040314 1.0027807 1.0017077 0.99920005
000050 92 6a 7f 3f eb bd 7f 3f a0 47 80 3f 40 36 7f 3f
       0.9977199 0.99899167 1.0021858 0.99692154
000060 40 2c 7f 3f ad c9 7f 3f c7 00 80 3f 93 15 80 3f
       0.99676895 0.9991711 1.0000237 1.0006584
000070 35 21 80 3f b1 c7 7f 3f b3 f8 7f 3f a7 6c 80 3f
       1.0010134 0.9991408 0.9998886 1.0033158

conv_blocks.4.bias f4 [32]
000000 ff ed 0e bb e7 76 96 ba 30 53 33 bb 0e 88 c7 b9
       -0.0021809337 -0.0011479527 -0.0027362816 -0.00038057606
000010 8e 05 cf ba 2b fc 6f 3a a8 d9 46 3a 10 d7 64 3a
       -0.0015794502 0.00091547024 0.0007585534 0.00087295566
000020 59 a5 10 ba 37 08 b4 b9 be 9a 69 3a 0d 79 33 bb
       -0.0005517803 -0.00034338396 0.0008911303 -0.0027385384
000030 1e 23 7e 39 8a a8 55 bb ef f2 ed ba ed 6b 2a 3a
       0.0002423641 -0.0032601678 -0.0018154065 0.00065010675
000040 ab 1f 16 3b 09 b6 f4 3a 4c ff 36 ba 79 20 0e bb
       0.002290706 0.0018669973 -0.0006980791 -0.0021686836
000050 35 a4 2c ba 31 df 3e bb b1 33 35 3a 39 8f dd ba
       -0.0006585748 -0.0029124732 0.00069123047 -0.0016903646
000060 89 ab 33 bb 37 ee 96 ba 77 af ba ba f6 3a 72 ba
       -0.0027415475 -0.0011515085 -0.0014242966 -0.0009240353
000070 28 ad 3e 3b ac 9b 87 ba 20 d5 6f b7 7b f4 49 3b
       0.0029094908 -0.0010346076 -1.4295132e-05 0.0030815888

conv_blocks.4.running_mean f4 [32]
000000 75 36 87 be d4 57 0e bd 4d c0 32 3d 00 0f b8 3d
       -0.26408735 -0.03475173 0.043640424 0.08987236
000010 f2 48 0d 3e de 16 ac bb d5 32 32 be 81 06 01 3c
       0.13797358 -0.0052517494 -0.17402203 0.007875086
000020 d1 93 30 3e ff 47 81 3e f6 89 14 be 8f bc 0e 3e
       0.17243887 0.2525024 -0.14505753 0.13939117
000030 61 f8 aa 3d 79 3a e1 bd b8 21 c8 bd b5 99 3f be
       0.08348156 -0.10997481 -0.09772056 -0.18710978
000040 d4 23 00 3e fc d4 c5 3d 64 db ed 3b e8 3c 90 3d
       0.12513667 0.09659764 0.0072588194 0.07042867
000050 e7 ba 35 3e da 25 23 be 47 7f 7e bd 52 28 03 3e
       0.17747079 -0.15932408 -0.0621331 0.1280835
000060 50 5c 4c be 33 0d 90 3d 5c e6 4f 3e 82 8f 37 bd
       -0.1995709 0.070337676 0.20302719 -0.044814594
000070 c2 41 97 3d 9e 9d 4b 3e 7b d9 2c 3c 2d 8d 54 bc
       0.07385589 0.19884345 0.010549898 -0.012973112

conv_blocks.4.running_var f4 [32]
000000 7e 98 f9 3c f0 93 d6 3c 82 51 df 3c e2 57 ce 3c
       0.030468222 0.026193589 0.027260546 0.02518839
000010 fa 04 9d 3c 65 6c 31 3d b7 be 83 3d eb a9 b0 3c
       0.019167412 0.043316264 0.0643286 0.021565398
000020 fb d3 b5 3c b1 37 88 3d 7e 43 51 3d a4 9d ba 3c
       0.022195807 0.06651247 0.051089756 0.022780247
000030 1b d4 a2 3c 5c c8 73 3d c4 da 9b 3c c7 09 9d 3c
       0.01987653 0.05951725 0.019025214 0.019169701
000040 31 3d ab 3c 47 36 a7 3c 20 2e c7 3c 2d 4c ab 3c
       0.020903202 0.020411624 0.024313986 0.020910347
000050 0f bf af 3c d2 92 65 3d 44 5a 04 3d 76 47 a7 3c
       0.021453409 0.056048222 0.032312647 0.020419817
000060 c9 1b a0 3c 66 2e a2 3c 2b bc d5 3c e9 fe 85 3d
       0.019544499 0.019797515 0.026090702 0.06542761
000070 d3 2a ed 3c 73 23 b8 3c 76 f3 02 3d b4 12 9c 3c
       0.028951084 0.022477841 0.031970464 0.019051887

conv_blocks.7.weight f4 [64, 32, 4]
000000 77 3a 2c 3c 3d 4d 79 3c b2 f6 ce bb fe c1 6d 3d
       0.010511986 0.015216169 -0.0063160295 0.058046333
000010 a6 c6 41 3d 78 cc bb bc 00 15 5c 3d e2 6e a9 3c
       0.047308587 -0.022924647 0.053730965 0.020682756
000020 29 4a 46 bd 7c 35 41 bd 19 40 8a 3d 1d 0c 84 3d
       -0.04841057 -0.047170147 0.06750507 0.06447623
000030 fb bd 07 bd 30 4f 6c 3d 57 48 b3 3d c0 76 7b bd
       -0.033140164 0.057692707 0.08754032 -0.061392546
000040 bf 41 8a bc 65 46 27 3d 89 69 79 bb 0c 86 82 3d
       -0.016877053 0.040838618 -0.0038057289 0.06373224
000050 0c a9 85 bd dd bf 6e bd 7e d6 4c 3d 9f 0a 90 3c
       -0.06526384 -0.058288444 0.050009243 0.01758319
000060 64 98 43 bc 29 da 8b 3d 4a 55 5d 3d 46 1a 57 bd
       -0.011938188 0.0682872 0.054036416 -0.05251529
000070 92 ff 87 bd fb 19 8d 3d 6a 01 bd bc 57 8e 3f 3d
       -0.06640543 0.06889721 -0.023071963 0.046766605
000080 37 f3 8d 3c b5 a9 91 3d 63 01 b6 3d ce 9d 93 3d
       0.017327888 0.07112447 0.08886983 0.07207833
000090 f9 22 5e bd f2 2c 0b bd c7 f9 17 3c d1 a5 90 3d
       -0.05423257 -0.03397841 0.00927586 0.07062877
0000a0 f7 a9 89 bb 2b 0a 89 3d a8 4f 8a 3d 22 ee da 3c
       -0.0042011696 0.066913925 0.067534745 0.026724879
0000b0 b8 9d 1a 3d 9c 8e c3 bc 08 85 1a bd e2 ad e0 3c
       0.03774807 -0.023871712 -0.037724525 0.027426664
0000c0 89 6f 61 3c bc db e0 ba 97 a1 ee 3c 2c ec 7a bd
       0.013759502 -0.001715533 0.029129786 -0.061260387
0000d0 09 5e 14 3d a2 8c 88 bd 9b f3 8d 3c d8 02 38 3a
       0.03622249 -0.066674486 0.017328074 0.0007019467
0000e0 99 54 45 bd 6c 55 18 bd ce aa d6 bc 32 1f 77 bd
       -0.04817638 -0.03719084 -0.026204493 -0.060332485
0000f0 0c 2b fc bc 41 72 69 bd cf b3 0e bd a9 e3 37 bd
       -0.030782245 -0.056993727 -0.034839448 -0.044894848
000100 8c 21 59 bc d8 81 4f 3c a7 be ac 3d d5 69 3c 3d
       -0.013252627 0.0126652345 0.084348015 0.045999367
000110 0d f4 e6 bc 88 89 29 bc 10 50 a0 3d 1c de e1 3b
       -0.028192544 -0.010347731 0.07827771 0.0068929326
000120 ce 77 fa 3c 84 c0 20 3d 3d 75 ee bc 46 d3 49 bd
       0.030574705 0.039246097 -0.029108638 -0.04927375
000130 57 36 20 bd 6e 23 8e 3b e8 af 48 3d 15 57 6a 3d
       -0.039114323 0.0043377196 0.048995882 0.057211954
000140 d7 a3 64 bd 34 8c e5 3c 79 31 0c 3d a0 e6 5d bc
       -0.055820312 0.028020956 0.03422687 -0.013543755
000150 44 96 8c bd b4 69 8f ba 65 50 09 3d bb 4e 36 bd
       -0.068645984 -0.0010941536 0.033523936 -0.044508677
000160 e6 b6 84 bd ce 6a 5b 3d fc 5a ac 3d 60 3a 88 3c
       -0.064801976 0.053568654 0.084157914 0.016629398
000170 27 4c a7 3d 4b 73 3f bd 6e ba 82 3d b8 79 03 3c
       0.08168822 -0.04674081 0.06383215 0.0080246255
000180 eb a4 7a 3d 09 29 91 bc 47 f4 33 3d 64 82 39 bd
       0.061192434 -0.017719762 0.043934133 -0.045290366
000190 ad c4 8a 3d 24 47 9f 3d c7 23 99 3d cb 5f 59 3d
       0.06775794 0.07777241 0.07477527 0.05306987
0001a0 b4 2d 5b 3d 02 09 07 3c f2 50 69 bc a0 09 a7 3d
       0.053510383 0.008241894 -0.01424049 0.08156133
0001b0 59 a1 a5 bd c1 c2 8d bd ba ef 61 3c b9 de 3b bd
       -0.08087415 -0.06921912 0.013790065 -0.0458667
0001c0 8e 46 c2 3c 21 e1 94 3d 89 5e 41 bd da c6 2f 3d
       0.023715284 0.072695024 -0.047209296 0.04291425
0001d0 79 f9 4c bd 41 df 99 bc 62 1a 5d bd 11 70 6b 3d
       -0.050042603 -0.018783214 -0.05398024 0.05747992
0001e0 9c d0 10 bd ab 03 5f 3d bf a7 91 3c fa 26 65 bd
       -0.035355195 0.054446857 0.017780183 -0.055945374
0001f0 e9 ad 9e 3d d6 00 e7 ba 70 96 a5 bd 42 c0 7e bd
       0.077480145 -0.001762415 -0.08085334 -0.06219507
000200 fa e7 1d 3d 6f 03 dc bc 76 91 f7 3c d5 f9 31 3d
       0.03855131 -0.026857106 0.030220728 0.04345115
000210 72 18 01 3c d2 c6 df 3b 45 35 8f bc 17 15 57 3d
       0.007879363 0.006829121 -0.017481456 0.052510347
000220 01 58 7e 3c 47 cc b0 3d b0 9c 22 bd 47 0c b4 bd
       0.015523911 0.08632713 -0.03970021 -0.08791404
000230 b6 e9 22 3d f3 d8 87 bd d9 12 33 3c a7 2e 40 3d
       0.039773665 -0.06633177 0.010929787 0.04691949
000240 59 c6 b3 bd ac 86 86 3d 9c 78 a8 3d c0 dd 81 3d
       -0.08778066 0.06568655 0.082261294 0.063411236
000250 7f dc f5 3c bf c7 82 bd ed 3b 9b 3d 2a ee 4a 3d
       0.030012367 -0.06385755 0.07579789 0.049543537
000260 84 40 8c 3c ea 56 14 bd 0e 3c 81 bd ce 55 90 bd
       0.017120607 -0.0362157 -0.06310283 -0.07047616
000270 c1 59 9d 3d 90 a3 69 3d e5 c2 ee bc 07 f9 fc bc
       0.07683135 0.05704075 -0.029145667 -0.030880464
000280 75 c7 83 bd e8 9e a4 bd 98 cd b6 3b b5 17 5f bd
       -0.06434528 -0.080381215 0.005578708 -0.05446597
000290 06 c9 85 3d b9 84 b0 bc f6 46 79 bd 53 8c 7c bd
       0.06532483 -0.021547662 -0.06085869 -0.06165726
0002a0 40 e7 b3 bd 3d 42 13 bc 0d 8d 92 bc b3 be 5b 3d
       -0.08784342 -0.00898796 -0.017889524 0.05364866
0002b0 de 98 18 3c 67 1f 54 bc e4 72 b4 3b 99 8a 74 bc
       0.00931379 -0.01294694 0.00550686 -0.014925622
0002c0 65 4f 5b 3c 7a d6 64 3d 40 90 7b 3d 9a 7d 3a 3d
       0.013385628 0.055868603 0.061416864 0.04552994
0002d0 72 45 7a bb 2d d7 18 3d 1a 51 a3 bd fb 42 8c bd
       -0.0038188365 0.037314583 -0.07974453 -0.06848713
0002e0 be b8 9e 3d 60 ff a5 3d 82 8d a5 3d de fa 97 bd
       0.077500805 0.081053495 0.08083631 -0.07420896
0002f0 14 64 a6 3d 3e af d5 bb 69 12 b1 3c fa 7e 09 3d
       0.08124557 -0.0065211346 0.021615224 0.03356836
000300 bd ed 05 3d a8 d6 8d ba b1 c6 23 bc 94 75 f1 b9
       0.032697428 -0.0010821419 -0.009996102 -0.00046054705
000310 90 a3 3a 3d 61 04 f7 3c 79 8f 72 3d ac c6 d8 bc
       0.04556614 0.030153455 0.059218857 -0.026461922
000320 a0 4d d3 3c 2c 25 8c 3d e8 32 a0 bd af a1 75 bd
       0.02579385 0.068430275 -0.078222096 -0.059968647
000330 0d 86 6e bd 38 38 0c 3d 61 41 2a 3d cb 40 1a 3d
       -0.05823331 0.034233302 0.041566256 0.037659448
000340 bf 64 14 3d 1f 5c a1 bc 14 00 9e 3d 14 e5 76 bd
       0.03622889 -0.019697247 0.07714859 -0.06027706
000350 e0 0b 96 3d 90 79 8e 3d 75 9e 71 bc 04 ce 9d 3c
       0.07326484 0.0695678 -0.014747252 0.019263275
000360 a4 c7 83 bc a2 b2 35 3c 52 88 7e 3d c0 31 67 3c
       -0.016086407 0.011089953 0.062141724 0.014110982
000370 9e f2 83 bd 70 73 52 bd e5 c5 3a 3d f7 8f 0f bc
       -0.0644276 -0.05137962 0.045598883 -0.008762351
000380 44 32 e0 3b b3 43 a3 bd 39 54 ac 3d a0 c9 80 3d
       0.0068419296 -0.07971897 0.08414502 0.06288457
000390 bc d0 aa bd b7 44 ad 3d 63 5b 4a 3d 67 24 ca 3c
       -0.08340594 0.08460372 0.04940356 0.024675561
0003a0 e3 7d 62 3d 3d 19 57 bd ae d7 11 bd d1 fd 93 3d
       0.055295836 -0.052514303 -0.03560608 0.07226146
0003b0 8d 09 f0 3b 19 68 20 3c 4b a5 9c 3d eb 5e 41 3c
       0.0073253573 0.009790444 0.07648715 0.011802415
0003c0 d1 12 2d bd 8d 4d cb 3c ff 10 6e 3d 63 6b ac 3d
       -0.042254273 0.024817253 0.058121677 0.0841892
0003d0 51 df 4c 3d 0f 3e ad bd 2a 24 22 bd 12 92 b7 b9
       0.05001766 -0.08459102 -0.03958527 -0.0003501331
0003e0 06 07 ca bc 01 20 5c 3c 38 7d d2 bc 38 a8 e0 bc
       -0.024661552 0.013435365 -0.025694475 -0.027423963
0003f0 92 51 96 bd ca 7e a6 3d e7 c6 86 bc 23 ff 99 3d
       -0.07339777 0.08129652 -0.016452266 0.075193666

conv_blocks.7.bias f4 [64]
000000 db 80 8b 3c 76 3f 74 bd 98 e2 8a ba 65 ce f7 bc
       0.017029217 -0.059630834 -0.0010596095 -0.030249784
000010 77 ff 3c bd b1 5d 90 bc 9c 71 5b bd 4e 9d cb 3b
       -0.046142068 -0.0176228 -0.053575143 0.0062138205
000020 cc 4b d1 3c 6e f4 5c bd cf 92 9a 3d 4e 6d 82 bc
       0.025548838 -0.053944044 0.07547533 -0.015921261
000030 d8 dd 31 bd 09 da 62 bb 53 0f 77 3d a4 44 1a bd
       -0.043424457 -0.0034614822 0.06031735 -0.037663117
000040 9c 81 1e bd 62 41 c2 3b 98 41 ad 3d 01 ee b2 bd
       -0.038697824 0.0059282044 0.08459777 -0.08736802
000050 3b 3c 87 bd b9 da 94 bc 15 1e 24 bd 34 30 47 bd
       -0.06603285 -0.018170701 -0.04006775 -0.048629954
000060 04 94 b4 3c 71 88 59 bd b6 cf a7 bd ed 5a 73 3d
       0.022043236 -0.053108636 -0.081939146 0.059412885
000070 23 be 48 3d f5 80 8e 3d e6 f9 ae bd a6 d7 f8 bc
       0.049009454 0.0695819 -0.08543758 -0.030376267
000080 63 59 98 3d c1 b8 a5 bc 8f ca a3 3d b5 7d 2a bd
       0.07438924 -0.0202297 0.07997619 -0.04162379
000090 ad 99 2b 3d 3e a4 74 3d 2b cb ef bc 30 e9 43 bd
       0.041894604 0.059726946 -0.029271683 -0.047829807
0000a0 fd 84 b0 3d 07 b7 5b bd 71 9f 2b bd 69 2c ae bd
       0.086191155 -0.053641345 -0.041900102 -0.08504564
0000b0 3b 85 30 bd e9 80 43 bd 02 be 9a bd 83 54 4b 3d
       -0.04309581 -0.04773036 -0.07555772 0.049641144
0000c0 4e e0 78 bd 8b b8 35 bd 60 1e 9c 3c 95 ad 1d bd
       -0.06076079 -0.044365447 0.019057453 -0.03849562
0000d0 7d de a1 3c 5a 88 97 3d c2 59 41 bd e1 f9 20 bc
       0.019759411 0.07399054 -0.04720474 -0.009825201
0000e0 07 c0 8b bc a6 1e 87 bd f6 d3 0d bd a8 93 5c 3d
       -0.01705934 -0.065976426 -0.03462597 0.053851753
0000f0 8d 4d b0 3d 4e db 48 bc 88 e3 a8 bd 48 81 9c bd
       0.08608542 -0.012259318 -0.08246523 -0.07641846

conv_blocks.8.weight f4 [64]
000000 91 49 80 3f 5b 09 80 3f 3c c6 7f 3f 41 09 80 3f
       1.0022451 1.0002855 0.99911857 1.0002824
000010 93 69 80 3f ae 34 80 3f 0d 38 80 3f e9 6f 7f 3f
       1.0032219 1.0016077 1.0017105 0.99780136
000020 88 0d 7f 3f 7c a9 80 3f d7 2b 80 3f 22 53 80 3f
       0.9963002 1.0051723 1.0013379 1.002537
000030 af 51 80 3f 74 d6 7f 3f b0 c9 7f 3f 0b 55 80 3f
       1.0024928 0.99936604 0.99917126 1.0025953
000040 aa 57 80 3f b3 68 80 3f 12 26 80 3f da 47 7f 3f
       1.0026753 1.0031952 1.0011618 0.9971901
000050 20 4c 80 3f f1 52 80 3f 47 14 7f 3f fc e4 7f 3f
       1.0023232 1.0025312 0.99640316 0.9995878
000060 56 82 80 3f 30 db 7f 3f 53 67 80 3f 9d 95 7f 3f
       1.0039775 0.9994383 1.0031532 0.99837667
000070 6a 75 80 3f 04 b0 7f 3f b9 ee 7f 3f 43 fe 7e 3f
       1.0035832 0.99877954 0.99973637 0.9960672
000080 69 2a 80 3f e4 d9 7e 3f 1e 99 7f 3f df ac 7f 3f
       1.0012943 0.99551225 0.99843013 0.99873155
000090 ce 40 7f 3f cf 0d 7f 3f 82 53 7f 3f 6f 1a 7f 3f
       0.9970826 0.99630445 0.997368 0.9964971
0000a0 ae 6b 80 3f ca 30 7f 3f 5d bb 7f 3f 82 7a 7f 3f
       1.0032861 0.9968382 0.9989527 0.9979631
0000b0 48 53 80 3f 14 31 80 3f 39 cd 7e 3f 5a 69 80 3f
       1.0025415 1.0014977 0.99531895 1.0032151
0000c0 2b b4 7f 3f 10 14 80 3f 8b 6a 80 3f fd 2e 80 3f
       0.9988429 1.0006123 1.0032514 1.001434
0000d0 09 dd 7e 3f 9c c3 80 3f b4 58 7f 3f 48 81 80 3f
       0.9955602 1.0059695 0.99744725 1.0039454
0000e0 10 19 7f 3f ad 0e 80 3f 96 43 80 3f a5 33 7f 3f
       0.9964762 1.0004479 1.0020626 0.9968818
0000f0 24 fe 7f 3f 80 c5 7f 3f 0a f7 7f 3f 34 0a 7f 3f
       0.9999716 0.99910736 0.99986327 0.99624944

conv_blocks.8.bias f4 [64]
000000 4d b2 42 3b 2c bf 70 3a 3d a1 a4 ba 4a 47 b7 3a
       0.0029708326 0.000918376 -0.001256026 0.0013983038
000010 35 58 1f 3b c2 4c 17 3a e8 35 08 3b e3 5d ed ba
       0.002431405 0.00057716307 0.0020784084 -0.0018109645
000020 62 02 71 ba 62 8d 57 3b a9 09 99 3a 4b b2 34 3b
       -0.00091937755 0.0032890667 0.0011675853 0.0027572091
000030 58 0d b7 b9 2c cd 1d 3b 17 d9 9e ba 43 30 77 3a
       -0.00034914422 0.002407859 -0.0012119141 0.0009429494
000040 4d f0 02 3b df eb 80 3a b8 1f 17 3a d0 dd ee ba
       0.0019979656 0.000983592 0.00057649193 -0.0018224064
000050 20 b8 21 3b f2 f6 a4 ba f4 c2 87 bb da 48 d4 b8
       0.0024676397 -0.0012585802 -0.0041431133 -0.000101225174
000060 f0 16 74 3b e7 22 20 3a ff 09 d0 3a e7 d5 46 ba
       0.0037245117 0.00061087165 0.001587212 -0.00075849745
000070 ad 5b 56 3b 61 06 9b bb 78 66 b0 3a 1e 67 c3 ba
       0.0032708452 -0.004730985 0.0013458272 -0.0014908051
000080 5e 84 a1 3a de e5 6f bb 74 36 39 39 1a d2 f9 b9
       0.0012322774 -0.0036605517 0.0001766326 -0.0004764952
000090 86 d0 7e ba 72 37 09 bb 5d f2 22 bb 7f 16 a5 ba
       -0.00097204035 -0.002093759 -0.0024863698 -0.0012595205
0000a0 b0 2b 2f 3b d5 f8 5d bb 2a 3e c3 ba 33 7b 7b bb
       0.002672892 -0.003387024 -0.0014895846 -0.0038372993
0000b0 c7 ab be 3a 44 c5 01 39 3a 59 69 bb 1e c4 e8 3a
       0.0014547043 0.00012375886 -0.0035606162 0.0017758643
0000c0 94 a3 87 b9 66 95 4e ba 0a 79 52 3a 9b 79 2e 3a
       -0.00025871082 -0.00078805385 0.00080289005 0.0006655694
0000d0 9d 19 36 bb bd e1 9a 3b 51 9f 02 bb 61 68 dc 3a
       -0.0027786263 0.004726617 -0.0019931386 0.0016815775
0000e0 55 ec 59 bb 30 09 be 38 eb 01 33 3b 52 a8 43 bb
       -0.0033252437 9.061617e-05 0.0027314376 -0.0029854965
0000f0 52 b0 0e ba 02 ee 04 39 b8 3a c1 ba f5 e5 30 bb
       -0.0005443144 0.00012677166 -0.0014742231 -0.0026992534

conv_blocks.8.running_mean f4 [64]
000000 58 06 a3 3e 15 25 6b 3e f2 d5 e8 3d 13 3e 1d 3e
       0.31840777 0.22963364 0.11368932 0.1535571
000010 c0 4d 51 3b ba c8 25 bd e3 1b 3f 3d f8 f3 49 be
       0.0031937212 -0.04047463 0.046657454 -0.19721973
000020 0f 9f b8 bd 85 ae 8a be f8 ef c7 bd 36 0d ce 3d
       -0.09014713 -0.27086273 -0.09762567 0.100611135
000030 9a 2b e0 bd 4f 3d 56 bd 39 89 5b 3e 59 38 6a bd
       -0.10945816 -0.052304562 0.21439065 -0.057182644
000040 66 37 ad 3e c9 ab bc 3d 19 44 7a bd 20 ef 69 3e
       0.33831328 0.09212453 -0.0611001 0.22845125
000050 5c 6f c4 be 1a 31 e9 3d c3 a0 f3 bd da d0 c0 bd
       -0.3836621 0.113863185 -0.11895897 -0.09414835
000060 86 e0 aa bc 2c d6 52 be f3 7b 2d be ad 72 f8 3e
       -0.020859014 -0.20589513 -0.16941814 0.4852499
000070 10 66 25 3d e9 7d 28 be 47 7a 9e be ff 2f c3 bd
       0.040380538 -0.16454281 -0.30952665 -0.09530639
000080 ec 49 76 3e ee 82 c7 3d 1a 68 65 3e 33 4b ae 3d
       0.24051636 0.0974177 0.22402993 0.08510437
000090 93 74 8e 3e 58 ff 38 3d 06 5f 59 bd a7 f3 c0 3c
       0.27823314 0.04516539 -0.053069137 0.023553682
0000a0 40 fb 43 be 01 ac 9e 3e ba 35 9c bc c8 a2 cb bc
       -0.19138813 0.30990604 -0.019068588 -0.024857894
0000b0 e1 ae 99 3d 0c d4 55 be db 11 1e 3d 71 e8 03 be
       0.07504059 -0.2088167 0.038591247 -0.12881638
0000c0 7b a3 8c bc ed c1 36 be 95 c2 86 3e b0 a8 46 bd
       -0.017167797 -0.17847414 0.2632033 -0.048500717
0000d0 cf 1d a1 3e b9 52 0d 3e d3 3b 80 3d 82 67 d8 3d
       0.31468055 0.13801087 0.062614106 0.105666175
0000e0 6c b9 0f 3e 97 44 a7 3c 12 8e b8 be 01 e3 03 3e
       0.14035577 0.020418448 -0.3604589 0.12879564
0000f0 22 62 c0 bc 02 84 35 3e 0c f3 49 bd f7 46 42 be
       -0.023484293 0.17726138 -0.049304053 -0.18972383

conv_blocks.8.running_var f4 [64]
000000 7f c2 63 3e 6d 82 5d 3e d3 73 8a 3e cd 01 77 3e
       0.22242163 0.21631785 0.27041492 0.2412178
000010 c2 2f 41 3e 61 12 89 3e 28 81 36 3e 0f 44 c5 3e
       0.18865874 0.26771834 0.17822707 0.38528487
000020 08 4f 5c 3e 34 68 5c 3e 39 e3 25 3e b3 90 58 3e
       0.21514523 0.21524125 0.1619996 0.21148948
000030 78 00 49 3e bb 28 83 3e 11 d1 3d 3e 21 37 4b 3e
       0.19629085 0.25617012 0.18536784 0.19845249
000040 cc 14 66 3e 88 1e 89 3e 53 c8 79 3e 7c 5d 77 3e
       0.22468871 0.26781106 0.24392824 0.24156755
000050 ec 19 3f 3e 5c 96 44 3e 36 bd 28 3e a8 15 70 3e
       0.18662232 0.19197983 0.16478428 0.23445761
000060 02 51 50 3e 6d 25 46 3e 3a 11 5b 3e 25 49 78 3e
       0.20343402 0.19350214 0.2139329 0.24246652
000070 0f e5 84 3e f1 59 57 3e d4 1e 79 3e ba 37 64 3e
       0.25956008 0.21030404 0.24328166 0.22286883
000080 62 ae 5b 3e 0d 73 59 3e 9f 80 21 3e cb af 52 3e
       0.2145324 0.21235295 0.15771721 0.20574872
000090 9d e1 5e 3e 8f 65 4e 3e 64 5d 49 3e 56 e8 2f 3e
       0.21765752 0.20155929 0.19664532 0.17178473
0000a0 d3 7c 53 3e 3d dd 5a 3e 6a ac 4e 3e 47 e6 5f 3e
       0.20653085 0.21373458 0.20182958 0.21865188
0000b0 7b 4e 53 3e 9d 40 60 3e aa 5e 3e 3e 79 b0 20 3e
       0.20635407 0.21899648 0.18590799 0.15692319
0000c0 dc 8a 39 3e 39 e9 3e 3e 19 9c 28 3e 76 83 46 3e
       0.18119377 0.18643655 0.16465797 0.19386086
0000d0 46 53 4c 3e bf 5e 5a 3e 95 9a 36 3e cb 2f 37 3e
       0.19953641 0.21325205 0.17832406 0.17889325
0000e0 73 f0 5a 3e 8e 59 44 3e 8e e1 62 3e 7e e1 5b 3e
       0.21380787 0.19174787 0.22156355 0.21472737
0000f0 fa 18 24 3e 17 4c 44 3e e1 07 62 3e 37 be 63 3e
       0.16025153 0.19169651 0.22073318 0.2224053

conv_blocks.11.weight f4 [128, 64, 4]
000000 32 75 75 bd 29 50 a8 bc 6f e5 4c bc 16 76 e6 bc
       -0.05992622 -0.020546036 -0.012505873 -0.02813248
000010 10 48 4e bd 9d 77 96 3c b9 23 09 3c 78 eb 21 3c
       -0.050361693 0.018367583 0.008370333 0.0098828
000020 ef 8a 37 3d 58 23 17 3d 32 6c 9d bc 98 ca 39 3d
       0.04481023 0.03689894 -0.01921663 0.045359224
000030 21 f8 1e 3d 96 38 6a bd b2 92 2b bd 73 93 0c bd
       0.038810853 -0.05718287 -0.041887946 -0.034320306
000040 2c 97 5a bd 9a 73 e6 3c eb 68 23 bc 69 5f 73 bd
       -0.053366825 0.028131295 -0.009973745 -0.059417162
000050 4e 8d 57 3d 5d 17 04 3d 40 a7 08 3d 55 b3 44 bc
       0.052624993 0.032248843 0.033362627 -0.012005647
000060 2c 4b 8e bc 4b fa 8f ba a0 de 79 bd 57 de 8e bc
       -0.01736983 -0.0010984627 -0.061003327 -0.017440004
000070 b6 da 2f bc 2c fb 4f 3d 99 c1 12 3d 9b 72 25 3d
       -0.010733297 0.050776646 0.03582916 0.0403925
000080 2f 83 3f 3c 39 ca f1 bb a6 c5 e5 3a 31 de 2d 3d
       0.011688991 -0.007378843 0.0017530217 0.042448226
000090 29 88 4f bc e2 24 12 bd e9 f1 53 bd e2 a5 5b bd
       -0.01266674 -0.035679705 -0.051744375 -0.053624995
0000a0 30 24 a7 bb ed 3d e0 bc ba 3f 78 3d f5 bc 48 3d
       -0.0051007494 -0.027373279 0.06060765 0.04900833
0000b0 db 45 66 3c c2 87 34 ba 20 72 4c b9 48 27 73 bb
       0.014054741 -0.00068866846 -0.00019497471 -0.003710227
0000c0 bc 94 d9 3c d4 3c 5a bd 74 30 b3 3c fc 12 45 bc
       0.02656018 -0.053280666 0.02187369 -0.012028452
0000d0 7b b2 46 3c f2 2c 0b bc 91 30 31 bd 0f e8 a3 bc
       0.012127514 -0.0084946025 -0.043259207 -0.020008115
0000e0 03 da c6 bc c5 67 04 bd ef fb d2 bc 7a 13 44 3d
       -0.024273878 -0.032325525 -0.025754897 0.047870137
0000f0 b4 e2 57 3d 67 74 2f 3d 20 04 49 bd 61 52 78 bd
       0.052706435 0.04283562 -0.0490762 -0.060625438
000100 6b ad 3f 3d 3f 25 6c bd 5a 70 ee 3c d0 eb d5 3c
       0.046796244 -0.05765271 0.029106308 0.02611342
000110 aa ca 42 3c b4 0a ba bc d7 dc 55 bd ef 1d ba bc
       0.011889139 -0.022710182 -0.052212562 -0.022719352
000120 6a 5f 06 bd 91 89 40 bc 50 33 82 bd 1d 34 da bc
       -0.032805838 -0.011751548 -0.06357443 -0.026636178
000130 e4 a2 bc 3c cf 0d 57 bd d5 c6 9a 3c de ed 1a bd
       0.023026891 -0.052503403 0.018893639 -0.037824504
000140 26 b1 2e bd e3 a9 31 3d 74 d9 9a bc b0 33 49 bd
       -0.04264941 0.043374907 -0.018902518 -0.04912156
000150 fe a3 21 bc 09 1f 3a bd 75 91 9d bb 26 af 1c bd
       -0.009865759 -0.045439754 -0.0048085996 -0.038252972
000160 cc 81 52 bd ac df 61 3d b7 1e 7a 3a 6f 17 82 3c
       -0.051393315 0.05514495 0.000954132 0.015880315
000170 e1 ca 72 3d b7 05 59 3c 6c 6e ee 3c b3 42 46 bb
       0.05927551 0.013245991 0.029105388 -0.0030252158
000180 d4 19 24 3d 93 85 a9 3b 98 ba c8 bc ba a2 36 bd
       0.040063694 0.005173394 -0.024503037 -0.044588782
000190 6a c6 d9 bc 79 d7 4c bd 01 d9 db bb 88 47 f5 3c
       -0.026583869 -0.05001018 -0.0067092185 0.029941335
0001a0 31 ed 25 bd c2 99 15 3d b3 d8 31 bd a6 a9 bb 3c
       -0.040509406 0.036523588 -0.04341955 0.022908043
0001b0 18 42 72 bd 23 73 1d 3d b3 9c 62 3c ce f9 4b bd
       -0.059145063 0.03843988 0.013831305 -0.04979878
0001c0 79 ca 45 bc 45 63 3b 3d 96 19 fe bc 9e a3 2d bd
       -0.012072199 0.045748968 -0.03101806 -0.042392366
0001d0 77 a6 5d bd 23 3b 95 3c a5 26 6b bc 42 ea a2 bb
       -0.05411383 0.018216675 -0.014352475 -0.0049717734
0001e0 be 46 e7 bc c0 49 e5 3c 7d 8b 3d 3b b3 a3 48 bd
       -0.028231975 0.027989268 0.0028922253 -0.04898424
0001f0 db de f7 bc 7b 1d 74 bd 0e 76 38 3c a7 21 9c 3c
       -0.030257633 -0.059598427 0.011258615 0.019059015
000200 83 d9 34 3d 58 71 d4 bc 59 a1 2f bd d4 ac 68 bd
       0.044152748 -0.025932953 -0.042878482 -0.056805447
000210 54 5c d9 3c 6d d0 60 bd 2f dd d3 bc d9 f0 21 bd
       0.026533283 -0.05488627 -0.025862304 -0.03953633
000220 c7 6a 15 3c 0b 19 61 bd 0b c9 a7 3c e0 2d 4d bd
       0.009119696 -0.054955523 0.020481607 -0.050092578
000230 38 91 d0 bc 57 5d 10 3d cc 5a 49 bd 28 7c 09 bd
       -0.02545987 0.035245266 -0.049158856 -0.03356567
000240 0c 0e 67 3c c7 95 c6 3c c1 a1 fc 3c f3 84 04 bd
       0.01410247 0.024241341 0.030838849 -0.032353353
000250 fa c0 2e bd e7 ed b5 bc 2e 3f 18 bc 30 3c 44 bd
       -0.042664506 -0.022208167 -0.009292407 -0.04790896
000260 39 68 1e 3d f0 23 1b 3d 18 7d 14 3d d3 cb 93 3c
       0.038673613 0.03787607 0.03625211 0.018041527
000270 6c fc 63 bd 7d 0c 60 bd 92 38 da bc b7 cc 2e bd
       -0.05566065 -0.05469941 -0.026638303 -0.0426757
000280 68 ce 26 3d b9 87 48 3d 96 d5 4b 3c 08 50 18 3d
       0.040724188 0.04895756 0.01244106 0.0371857
000290 3a 2d 06 3d df ab 49 bd a4 fc 56 3c 69 59 21 3d
       0.032757975 -0.049236175 0.013121758 0.03939191
0002a0 1f 4c 68 bd 62 7f 47 bd 37 65 dc 3c 9b dc 02 bc
       -0.05671322 -0.048705466 0.026903732 -0.007987167
0002b0 8a 5d a5 bc c8 e3 2c bc 35 a7 6c bd 81 7c 49 bd
       -0.020186204 -0.010552354 -0.05777665 -0.049191
0002c0 c4 34 31 bc 8b 54 0f 3d 8c 11 6b bd 45 f9 3d bd
       -0.010815803 0.034992736 -0.05738978 -0.0463803
0002d0 3e 0e 67 bd e5 19 67 3c 17 f6 0b bd 96 42 0a 3d
       -0.056410067 0.014105295 -0.034170236 0.033754908
0002e0 34 79 20 3d be 53 77 bd a3 62 04 bd 0b 3c 4c bd
       0.03917809 -0.060382597 -0.03232063 -0.04986195
0002f0 a8 cd bf bc d9 c9 26 bd 9e 13 ee bc 08 b3 a0 bb
       -0.023413494 -0.04071984 -0.029062089 -0.0049041547
000300 a2 90 c1 bb cd 66 31 3c 01 16 3f bd df 2f fb 3c
       -0.005907134 0.010827732 -0.046651844 0.030662475
000310 66 8b 6a bd a4 85 18 3d 97 e8 01 bd 38 3a 62 bd
       -0.057261847 0.037236825 -0.031715956 -0.055231303
000320 62 5c 2b 3d dd 9a 2e bd 0c 4f 83 3c ff 07 e2 bc
       0.04183615 -0.042628158 0.016028903 -0.027591703
000330 df ab 74 3d 39 69 bc 3c 33 14 e6 3c 52 b5 35 bd
       0.05973422 0.022999393 0.028085804 -0.044362374
000340 3b 9c 35 3d 62 f7 f3 bc e2 e0 f1 bc c9 11 52 bc
       0.044338446 -0.029781047 -0.029526178 -0.012821623
000350 73 a5 05 bd 60 86 5d bd 82 49 93 3c a2 3d f7 3c
       -0.032628488 -0.054083228 0.017979387 0.030180756
000360 9a b4 15 3d 75 c0 7d 3c b5 b4 79 bd 71 53 1b 3c
       0.03654919 0.01548778 -0.06096335 0.009480343
000370 f9 97 fe 3a c5 00 1c 39 4f 93 54 ba 47 52 16 bb
       0.0019423953 0.00014877606 -0.0008109109 -0.0022937225
000380 6a 32 f9 3b 8d 6b 11 bd 28 63 a0 3c 8a b6 8e 3c
       0.007604887 -0.03550296 0.019578531 0.017421026
000390 26 2d 37 3d 9a 93 1c bd c1 c3 37 bd 79 47 39 3d
       0.04472079 -0.0382267 -0.04486442 0.045234177
0003a0 1a 61 8f bb 3f e7 1c bd ce a1 14 bd 1d 36 54 3d
       -0.004375589 -0.03830647 -0.03628712 0.05180942
0003b0 ca bb b9 bb 45 9c 69 bd 58 d6 a6 bb 60 99 9f bc
       -0.005668138 -0.057033796 -0.0050914697 -0.019482315
0003c0 38 1c a8 3b 5e af 4e bb d5 a1 3a 3d a1 5c 37 bd
       0.005130317 -0.0031537632 0.04556449 -0.044766072
0003d0 d4 37 5e 3d 45 cd 2b 3d e2 6a 1a 3d 4f fa 23 b8
       0.05425246 0.041943807 0.037699588 -3.9095346e-05
0003e0 ff f1 2b bd 22 6d 3d bd 66 fa da bc 9c c1 19 3d
       -0.041978832 -0.046246655 -0.026730727 0.037538156
0003f0 a5 9f 00 3c c4 a3 03 3d 15 60 08 3d df 8b b0 bc
       0.007850562 0.0321386 0.033294756 -0.02155107

conv_blocks.11.bias f4 [128]
000000 61 4e 9c bc 4c 02 33 3d 4b 07 7a ba f0 f8 44 ba
       -0.019080343 0.043703362 -0.000953783 -0.0007513901
000010 27 74 6d b9 2d 83 07 bd 74 7d 73 3c 20 6d 73 bd
       -0.00022645351 -0.033084083 0.014861453 -0.05943024
000020 ab 5a fc bb 65 86 49 bb f8 82 57 3c 2a 45 01 bd
       -0.007701238 -0.0030750271 0.013153784 -0.0315601
000030 a1 d0 79 bd fe 9b 75 3d bc 61 16 bd 8c b9 f8 bc
       -0.06098998 0.05996322 -0.0367143 -0.030361913
000040 40 9c 1f 3d c6 03 d2 bb a2 2d 1f bd e0 5b 2f bd
       0.03896737 -0.0064091412 -0.03886188 -0.04281223
000050 5c c3 6a bd d7 a9 47 3b 74 b6 72 3b 38 1b 53 3d
       -0.057315215 0.0030466223 0.003703502 0.05153963
000060 fc cd 7c bd 8d 58 d7 3c 39 76 1d 3b d7 0e 58 bd
       -0.06171988 0.026287341 0.0024026765 -0.052748527
000070 e0 c0 82 3b 83 1e 02 bd ad f7 82 3c 96 f1 e2 3c
       0.0039902776 -0.03176738 0.015987242 0.027703088
000080 bb 67 67 3d 62 46 9e bc 78 c9 72 3d 3b fc 7d 3c
       0.05649541 -0.01932067 0.059274167 0.015502031
000090 58 3e 95 3c 8a b0 69 bd 44 53 61 bd 51 c1 b8 bc
       0.018218204 -0.057053126 -0.05501105 -0.022553118
0000a0 2d 2c 73 3d c0 f0 08 3d 64 db 61 3d 86 68 6e bd
       0.0593683 0.033432722 0.055140868 -0.05820515
0000b0 d1 ba 82 3b 25 63 69 bd e7 b3 73 3d 21 00 2f 3d
       0.0039895554 -0.056979317 0.05949774 0.042724732
0000c0 60 a4 0c 3d 77 09 fe bc e2 de 0e bd 18 f9 1b bd
       0.034336448 -0.031010373 -0.034880526 -0.03807935
0000d0 a9 f3 5b 3d b5 30 0e bd a9 73 f6 3c 60 76 07 3d
       0.05369917 -0.03471442 0.030084448 0.033071876
0000e0 b0 6b 9a bc 0c 20 64 3d be ca 48 bd 4a a4 04 bd
       -0.018850178 0.055694625 -0.049021475 -0.03238324
0000f0 5e 16 9e 3c 0c 9a 50 3c b5 9e d5 bc 87 f9 a8 bc
       0.019297775 0.01273204 -0.026076654 -0.020626796
000100 4c 28 3f 3a 49 b7 08 3d 19 5f 48 3d 1b 24 72 3d
       0.00072920765 0.03337792 0.048918817 0.059116464
000110 4d aa 5a 3d 85 3e 87 bc cc 5d c3 3c 1d 1a 5c bb
       0.053385068 -0.016509304 0.023848437 -0.00335849
000120 e7 a6 71 bd 77 e0 3e bd c2 fc 5d bd 33 7c 62 3d
       -0.05899706 -0.046600785 -0.054196127 0.055294227
000130 15 bf 0a bc 4d e8 46 3d d4 a0 e6 3b d8 c9 64 3d
       -0.008468409 0.048561383 0.007038215 0.055856556
000140 31 bb 06 3d 31 42 26 3d 89 17 69 3d 66 2f d6 3b
       0.032893363 0.04059047 0.05690721 0.006536412
000150 a3 0b 4e bd 04 2c b5 3c 0f c9 70 3d 5f 20 08 3d
       -0.050304066 0.022115715 0.058785494 0.033233996
000160 be e0 03 bb c2 fb 4f 3d 81 88 77 bd ed a1 9b 3c
       -0.002012297 0.050777204 -0.060432915 0.01899811
000170 af de 7a 3d 44 41 d7 bc ab c0 bf bc 30 c7 a5 3c
       0.061247524 -0.026276238 -0.023407301 0.020236582
000180 76 9e 10 3d 74 83 7c bd 63 c8 1a 3d 7c b8 3d 3d
       0.03530737 -0.0616488 0.03778876 0.046318516
000190 7a 19 fd bc a1 67 13 3d 8c 0f 6a bd 71 8f 3d bc
       -0.030895937 0.0359875 -0.057143733 -0.011569844
0001a0 eb 2b 4c bd 01 87 e4 bc bc de f6 3c 4c 52 4b 3d
       -0.04984657 -0.027896406 0.030135505 0.04963903
0001b0 7d 22 2f 3d 75 f3 02 3d 1b 2a 01 bd 65 1d 01 3c
       0.0427575 0.03197046 -0.031534296 0.007880543
0001c0 7e 89 1f 3d bc 05 77 3d 63 56 0c bd 5b 07 3e bd
       0.038949482 0.060308203 -0.034262072 -0.046393733
0001d0 6e cd 0d bd a8 e2 05 3d d1 c2 78 bd d4 76 16 3d
       -0.03461974 0.03268686 -0.060732666 0.036734417
0001e0 da a6 8b 3c 15 3c 6c 3d 34 86 46 3d 56 4b 7c 3c
       0.017047334 0.057674486 0.04846783 0.015398821
0001f0 62 75 09 3d 4f 43 68 bc 9a 95 ed bc e5 37 ce bc
       0.03355921 -0.014176204 -0.029002 -0.025173137

conv_blocks.12.weight f4 [128]
000000 c5 bc 7e 3f 43 92 7f 3f 61 f9 7f 3f 5d 53 7f 3f
       0.9950679 0.9983255 0.99989897 0.9973658
000010 9b be 7f 3f d3 10 7f 3f 82 76 80 3f dc 7e 80 3f
       0.99900216 0.99635047 1.0036166 1.0038714
000020 3f f9 7e 3f 09 b1 7f 3f 6d 26 80 3f d6 8a 7f 3f
       0.9959907 0.9987951 1.0011727 0.9982122
000030 bf 7b 7f 3f f5 0a 80 3f a0 1b 80 3f 22 64 7f 3f
       0.99798197 1.0003344 1.000843 0.99762166
000040 04 45 7f 3f 7f 6b 80 3f b1 88 80 3f d6 a0 7f 3f
       0.99714684 1.0032805 1.0041715 0.9985479
000050 1a fb 7f 3f 4a 16 7f 3f c1 66 80 3f 7d ed 7f 3f
       0.99992526 0.99643385 1.0031358 0.99971753
000060 f9 88 80 3f 1d c7 7f 3f 6b f4 7e 3f f9 e0 7e 3f
       1.0041801 0.999132 0.995917 0.9956203
000070 65 8a 80 3f 48 d1 80 3f c5 0c 7f 3f 70 4d 80 3f
       1.0042235 1.0063868 0.9962886 1.0023632
000080 c1 b5 80 3f 13 f2 7e 3f 59 13 80 3f a9 ac 80 3f
       1.0055467 0.99588126 1.0005904 1.0052692
000090 85 50 80 3f 25 46 80 3f c4 c4 80 3f fa a9 80 3f
       1.0024573 1.0021406 1.0060048 1.0051873
0000a0 30 ab 80 3f d0 91 80 3f db cb 7f 3f 8f a9 80 3f
       1.0052242 1.0044498 0.99920434 1.0051745
0000b0 e3 8f 7f 3f f7 c0 7f 3f 4a 4b 80 3f 96 81 80 3f
       0.9982893 0.99903816 1.0022976 1.0039546
0000c0 34 65 7f 3f bf fe 7e 3f 88 8f 80 3f 4e 27 7f 3f
       0.997638 0.9960746 1.0043802 0.9966935
0000d0 8c aa 80 3f e7 26 80 3f 6b ee 7f 3f 66 ad 80 3f
       1.0052047 1.0011872 0.9997317 1.0052917
0000e0 3d f1 80 3f 93 5e 80 3f 00 f1 7e 3f 6b bb 80 3f
       1.007362 1.0028862 0.99586487 1.0057195
0000f0 c1 ab 7f 3f 67 20 80 3f b3 4d 7f 3f 1a 6c 80 3f
       0.9987145 1.0009888 0.99727935 1.003299
000100 21 80 80 3f 99 17 80 3f bd 62 7f 3f 66 fe 7e 3f
       1.0039102 1.0007201 0.9976004 0.9960693
000110 61 e7 7f 3f 67 e7 7e 3f ad 2e 80 3f a3 58 80 3f
       0.9996243 0.9957184 1.0014244 1.002705
000120 5d 75 80 3f fc af 7f 3f e4 ab 7f 3f 6b 2c 80 3f
       1.0035816 0.99877906 0.9987166 1.0013555
000130 68 90 80 3f ac 91 80 3f a8 86 7f 3f a1 97 80 3f
       1.0044069 1.0044456 0.99814844 1.0046273
000140 1a 10 7f 3f ff 4b 80 3f 59 01 80 3f b6 12 80 3f
       0.99633944 1.0023192 1.0000411 1.000571
000150 de 8a 80 3f c9 77 80 3f ee ba 80 3f 91 9b 80 3f
       1.0042379 1.0036556 1.0057046 1.0047475
000160 29 f7 7e 3f b6 f2 7e 3f cd 00 80 3f 88 45 7f 3f
       0.99595886 0.995891 1.0000244 0.9971547
000170 3d 42 7f 3f 5f 1c 7f 3f 55 3e 80 3f 85 ae 7f 3f
       0.99710447 0.99652666 1.0019022 0.9987567
000180 98 b3 80 3f 64 e4 7f 3f 0d a9 7f 3f 8b 35 80 3f
       1.0054808 0.9995787 0.99867326 1.001634
000190 d1 11 80 3f a1 09 80 3f 3b 07 80 3f dc 5f 80 3f
       1.0005437 1.0002939 1.0002207 1.0029254
0001a0 b8 82 80 3f a7 04 80 3f db 65 80 3f 29 7b 80 3f
       1.0039892 1.000142 1.0031084 1.0037585
0001b0 85 d2 7e 3f 77 ad 80 3f 9b 48 80 3f b6 14 7f 3f
       0.9953998 1.0052937 1.0022157 0.9964098
0001c0 7e 48 7f 3f 80 91 80 3f 97 30 7f 3f 57 ce 7f 3f
       0.9971999 1.0044403 0.9968352 0.99924225
0001d0 f3 ac 7e 3f 6e cf 7f 3f 88 d0 7f 3f 9f 50 80 3f
       0.9948265 0.9992589 0.9992757 1.0024604
0001e0 53 46 80 3f bb 4d 80 3f e9 a5 80 3f 60 e0 80 3f
       1.0021461 1.0023721 1.0050632 1.0068474
0001f0 12 07 80 3f 97 ca 80 3f 77 ba 80 3f d3 3b 80 3f
       1.0002158 1.0061826 1.0056905 1.0018257

conv_blocks.12.bias f4 [128]
000000 8c e3 f1 b9 30 c7 8b bb 0e ad 22 bb ad 91 2e 3a
       -0.00046136638 -0.0042656884 -0.0024822387 0.00066592806
000010 7a 63 a9 ba af fd 18 bb 0b 88 17 3b 44 98 2a 3b
       -0.0012923323 -0.0023344567 0.002312186 0.0026030699
000020 e6 1c 96 bb 23 00 2a bb f0 75 88 3a 51 04 dd ba
       -0.0045810817 -0.0025940023 0.0010411125 -0.0016862248
000030 ce 79 08 39 f8 9d ed ba c6 fc 46 3a a0 32 18 bb
       0.00013015346 -0.0018128743 0.0007590767 -0.0023223534
000040 bf 7e 8b bb 1c 78 cc 3a 47 6f 07 3b 29 88 e1 ba
       -0.0042570527 0.001559976 0.0020665692 -0.0017206717
000050 7e da 3a 3b c0 10 48 bb 06 64 72 3b 62 ec 12 bb
       0.002851158 -0.0030527562 0.0036985888 -0.0022418727
000060 30 54 96 3b 56 f0 f6 3a 60 d7 14 bb 2f 3a 72 bb
       0.0045876727 0.0018839936 -0.0022711381 -0.003696095
000070 af c1 46 38 7c 41 9c 3b b3 9d 28 bb b2 69 a7 3b
       4.738726e-05 0.0047685485 -0.0025728762 0.0051090354
000080 02 1d 9f 3b 86 a7 86 3a 2b 2e 58 3b 3a 3e 6c 3b
       0.004855753 0.0010273315 0.0032986503 0.0036047832
000090 db 7a 70 3b 01 1e 82 b9 e0 28 80 3b 85 30 8a 3b
       0.0036694321 -0.00024817887 0.0039111227 0.0042172098
0000a0 8e 2b a1 3b cb 38 ac 3b 7c 13 d0 39 2b 47 4d 3b
       0.004918522 0.0052557937 0.0003968737 0.0031322937
0000b0 93 cd b3 3a a2 43 40 3b fd 6c 03 3b 69 93 7e 3b
       0.0013717882 0.0029337187 0.0020053976 0.0038845188
0000c0 f9 c2 24 3a 3e c7 9d 3a b3 19 8b 3b 76 af 33 bb
       0.00062851567 0.0012037528 0.004245007 -0.0027417815
0000d0 5c c4 d1 3b ad 93 aa ba 30 16 2a 3b 03 0d d9 3b
       0.0064015817 -0.0013013982 0.0025953166 0.0066238656
0000e0 08 5e 95 3b c8 26 37 3b b2 9a 70 bb ff 8d 09 3b
       0.0045583285 0.00279467 -0.00367133 0.0020989177
0000f0 89 a2 e3 ba f6 9f f4 39 78 bf 40 bb 81 b9 2a 3b
       -0.0017367165 0.00046658487 -0.0029411 0.002605051
000100 20 41 fc 3a b2 ef 95 b9 dc 57 b3 ba fe 0c 50 bb
       0.0019245483 -0.00028598082 -0.00136828 -0.0031746025
000110 64 3f 61 ba 0f d8 59 bb 9c d9 d0 ba e9 f0 aa 3b
       -0.0008592515 -0.0033240353 -0.0015933993 0.005216707
000120 06 65 80 3b 02 cd aa bb a2 e7 14 3b c9 06 11 3b
       0.003918293 -0.005212427 0.0022721072 0.0022129288
000130 b8 a9 80 3b 7f 0c 81 3b fb 3c 24 39 79 92 25 3b
       0.003926482 0.003938257 0.00015662976 0.0025264306
000140 db 83 8e bb 68 a2 1f ba 81 96 51 3a 00 1d 6c 3a
       -0.0043492145 -0.0006089569 0.0007995144 0.0009007007
000150 7b 42 96 3b 11 0b 9f 3a d3 22 5e 3b 7f e3 a3 3b
       0.004585562 0.0012134035 0.0033895269 0.005001485
000160 b8 19 78 ba ca 02 27 bb 11 61 c2 b9 c0 ec 6e bb
       -0.00094642816 -0.002548384 -0.00037074884 -0.0036457032
000170 20 9a 3c 38 da 0d 6a bb 25 fb cf 3b 02 ba 20 ba
       4.4966233e-05 -0.0035713823 0.0063470774 -0.0006131233
000180 fb fb d5 3b da ef aa 39 e3 a6 fc 39 9d fc 28 ba
       0.0065302826 0.0003260363 0.00048189526 -0.0006446334
000190 a9 d8 a1 39 bf f4 6d 3a 8a 6b 4a 3a d9 91 8a 3b
       0.00030869737 0.00090773025 0.0007721713 0.004228812
0001a0 e1 ac 73 3b 64 08 91 3b 6b 69 b1 ba 61 08 36 3b
       0.0037181901 0.004426049 -0.0013535445 0.002777599
0001b0 94 18 62 bb 7b 86 1c 3b 9d 29 f8 b9 d9 51 c1 ba
       -0.0034499513 0.0023883868 -0.0004733325 -0.0014749124
0001c0 90 91 81 b9 dd 7d ee 3a 5a b2 f2 39 0c 02 a3 3a
       -0.0002471325 0.0018195469 0.0004629072 0.0012436523
0001d0 ae e5 a6 bb 83 78 87 b8 23 6a f0 ba b9 4b da 3a
       -0.005093298 -6.459749e-05 -0.0018342178 0.0016654647
0001e0 c3 53 3e bb 7c 91 91 3b 4d a1 c4 3a 74 7f b5 3b
       -0.0029041625 0.004442392 0.0015001685 0.0055388752
0001f0 5e a9 d1 b9 d4 61 df 3b 35 fd bf 3b 51 f6 e9 ba
       -0.00039989775 0.006817082 0.005859042 -0.0017849897
