data/gan_output/discriminator_epoch_40.pth (torch, 191742 bytes, 21 tensors)

conv_blocks.0.weight f4 [16, 1, 4]
0	0x3d8d78ec	0.0690783
1	0x3ddf11bc	0.108920544
2	0xbcace420	-0.021104872
3	0x3edaa336	0.42702645
4	0xbc8c5360	-0.0171296
5	0x3d17991f	0.037011262
6	0xbec7e208	-0.39039636
7	0x3d18a47b	0.037266236
8	0x3e04fc3f	0.12986849
9	0xbed344e8	-0.4126351
10	0x3db71d05	0.08941082
11	0xbd3a0270	-0.04541248
12	0xbede8699	-0.43462065
13	0x3e949a27	0.2902386
14	0x3ebed24d	0.37269822
15	0xbee511ae	-0.4474005
16	0xbecbe95c	-0.39826477
17	0x3dbfe432	0.09369697
18	0xbdb31a4b	-0.08745249
19	0x3e910a53	0.2832819
20	0xbebbd3ac	-0.3668493
21	0x3e8b1d7c	0.27170932
22	0xbde54c78	-0.11196226
23	0x3ebabc45	0.36471763
24	0x3e9d4ade	0.30721182
25	0xbef60051	-0.48047116
26	0x3ec06b5c	0.3758191
27	0x3e64156f	0.22273801
28	0xbc184f77	-0.00929629
29	0xbe60de28	-0.21959746
30	0x3ea69fdb	0.32543835
31	0xbef0399b	-0.4691895
32	0xbe6d073e	-0.23147294
33	0xbeab5984	-0.33466733
34	0x3e11303c	0.14178556
35	0x3e896556	0.26835126
36	0x3de717d9	0.112838455
37	0x3e3e6e8e	0.18596861
38	0x3ee23a06	0.44184893
39	0x3e06ae7c	0.13152498
40	0x3e5ea15e	0.21741244
41	0xbe9da2f7	-0.30788395
42	0xbeefec6d	-0.46860066
43	0xbea0ee16	-0.31431645
44	0xbe58d98c	-0.21176738
45	0x3d3213b2	0.043475814
46	0xbe9981ca	-0.29981834
47	0xbdf4314f	-0.11923467
48	0xbe26093a	-0.16214457
49	0x3e5def03	0.21673207
50	0xbed9fcdf	-0.42575738
51	0xbeff89ce	-0.49909824
52	0x3c1f7e0f	0.009734645
53	0xbdc4c1bf	-0.09607267
54	0xbea63d03	-0.32468423
55	0xbed4cef2	-0.41564137
56	0xbe11256e	-0.14174435
57	0xbe3270ad	-0.17425795
58	0x3d06456f	0.03278106
59	0xbe2a435b	-0.16627257
60	0x3e75f884	0.24020582
61	0x3e5b7a46	0.21433362
62	0xbe989632	-0.2980209
63	0xbeb4b089	-0.35290936

conv_blocks.0.bias f4 [16]
0	0xbf0213af	-0.50811285
1	0xbe0fda10	-0.14048028
2	0xbe804337	-0.2505128
3	0x3e80f505	0.25186935
4	0x3e21f21f	0.15815018
5	0x3d861d6c	0.065485805
6	0xbeb3a272	-0.35084873
7	0x3eed5b6b	0.4635881
8	0x3e81e539	0.25370196
9	0x3dac80f4	0.08423033
10	0xbe305f49	-0.17223848
11	0xbef86b28	-0.48519254
12	0xbc81e47d	-0.015856022
13	0x3dd5016b	0.10400661
14	0x3eb7a668	0.35869145
15	0xbe838a88	-0.25691628

conv_blocks.3.weight f4 [32, 16, 4]
0	0xbd20e1ee	-0.039277963
1	0x3e0403ab	0.12892024
2	0x3dddfff4	0.10839835
3	0xbd81013c	-0.062990636
4	0xbdecbec2	-0.11559822
5	0x3d0bf03b	0.03416465
6	0xbdcf0c2a	-0.10109742
7	0x3d316a49	0.043314252
8	0x3d3e93d9	0.046527717
9	0x3d48e8a1	0.049049977
10	0x3caa9f1a	0.020827819
11	0xbcbb816f	-0.022888867
12	0xbd41b3a3	-0.047290456
13	0xbe015c6b	-0.12632911
14	0x3dfe4a19	0.12416477
15	0xbddf75a9	-0.10911114
16	0xbd53b258	-0.051683754
17	0x3d5f2428	0.05447784
18	0xbe024e94	-0.12725288
19	0x3d7c1287	0.061541107
20	0xbd90a6b6	-0.070630476
21	0x3cc87adc	0.024472646
22	0x3dea6f0d	0.114469625
23	0xbd480131	-0.04882926
24	0x3c073c10	0.008254066
25	0x3d8a49d8	0.06752366
26	0xbb9840bc	-0.004646389
27	0x3d81a3a5	0.06330041
28	0x3d9e6fc3	0.077361606
29	0xbdeabdaf	-0.114619605
30	0xbdadedb7	-0.08492606
31	0x3d7ebc27	0.062191155
32	0xbd1746ec	-0.03693287
33	0xbc2baf7d	-0.010478851
34	0x3d5361e2	0.05160702
35	0xbdca7d8a	-0.09887226
36	0xbd401e45	-0.046903867
37	0x3c5c9859	0.013464057
38	0x3c90de6d	0.017684186
39	0x3a3af4d2	0.0007131818
40	0xbd4ac281	-0.0495019
41	0xbd1fae87	-0.0389848
42	0x3d1a86b9	0.037726138
43	0x3d30259f	0.04300463
44	0xbd408f2e	-0.047011547
45	0xbccf7a4c	-0.02532687
46	0xbd29d879	-0.04146621
47	0x3d27c694	0.040960863
48	0x3daec4ce	0.08533631
49	0x3d3b1cf8	0.045681924
50	0x3dd7d2cf	0.105382554
51	0x3d2d5ae6	0.042323016
52	0xbdbf86b4	-0.093518645
53	0xbd364fea	-0.044509806
54	0x3c2dc321	0.010605604
55	0xbc830d75	-0.015997628
56	0xbdfac48d	-0.1224452
57	0xbda92baf	-0.08260285
58	0xbdda7ad6	-0.1066796
59	0x3d31f270	0.043444097
60	0xbd973224	-0.073826104
61	0x3d83ba82	0.06432058
62	0xbd69087a	-0.05689285
63	0xbcb03248	-0.021508351
64	0xbd8f622a	-0.07001145
65	0x3e016acb	0.12638395
66	0x3b87e708	0.004147414
67	0x3da69a26	0.0813487
68	0xbdd68214	-0.10474029
69	0xbd96922e	-0.073521
70	0xbb81bec4	-0.0039595086
71	0x3ce95c3d	0.028486365
72	0xbd980ef2	-0.074247256
73	0xbdbca74b	-0.09211596
74	0x3ddb41ac	0.10705885
75	0xbd70d2a8	-0.058794647
76	0xbd7c9706	-0.061667465
77	0x3d42784e	0.047478013
78	0xbd572791	-0.052527968
79	0x3dd6de01	0.10491563
80	0x3c0094e1	0.0078479955
81	0x3dea825e	0.11450647
82	0x3ca29b55	0.019849459
83	0xbd54632e	-0.051852398
84	0xbd757d87	-0.059934165
85	0x3d40c427	0.047062065
86	0x3d5cfa72	0.05394978
87	0x3d9d1bf1	0.07671345
88	0xbc17b0cb	-0.009258459
89	0xbd92ab12	-0.07161535
90	0xbb8eb3a8	-0.004354913
91	0xbc0b76d6	-0.008512219
92	0x3added65	0.0016931711
93	0x3c69d855	0.014272769
94	0xbc076cc0	-0.008265674
95	0x3d66249b	0.056187253
96	0xbd32c698	-0.043646425
97	0x3dfb96e7	0.12284642
98	0x3cc555f0	0.02408883
99	0xbd2398b7	-0.039940562
100	0xbd760b98	-0.06006965
101	0x3d012a14	0.03153427
102	0x3dc5b5ae	0.09653793
103	0xbde9812b	-0.1140159
104	0xbc877c07	-0.016538633
105	0xbdd6d9b6	-0.10490744
106	0xbd6ec873	-0.058296632
107	0xbdef8660	-0.11695552
108	0xbcfa0764	-0.030521102
109	0x3d24d284	0.040239826
110	0x3db01c39	0.08599133
111	0xbd692c16	-0.05692681
112	0x3e00e93f	0.12588976
113	0xbd59e86b	-0.053200167
114	0x3de497f4	0.11161795
115	0x3d76c8a2	0.060249932
116	0x3c9f3a22	0.0194369
117	0xbe01405c	-0.12622207
118	0x3d4b5427	0.0496408
119	0xbd8c51bf	-0.06851529
120	0x3d847d32	0.064691916
121	0xbde769ed	-0.112995006
122	0x3d4b2f94	0.04960592
123	0xbd896627	-0.06708937
124	0x3dec35a7	0.11533671
125	0x3c78528b	0.0151563985
126	0xbd104407	-0.035221126
127	0x3cfeeec1	0.031119706
128	0x3dc8819c	0.09790346
129	0x3d160eb2	0.03663511
130	0x3d66cee5	0.056349654
131	0x3d00aeb4	0.03141661
132	0xbc832134	-0.016007043
133	0xbb1596b8	-0.002282543
134	0x3d895652	0.067059174
135	0xbd088ca7	-0.03333726
136	0xbd2c4b93	-0.04206426
137	0x3d5729d5	0.05253013
138	0xbcdb8129	-0.026794987
139	0xbddb2612	-0.10700621
140	0xbd9c56e1	-0.07633758
141	0x3d6614c7	0.05617216
142	0x3b026461	0.0019896256
143	0x3ddd6384	0.10809997
144	0xbdb37cba	-0.08764024
145	0xbddca82a	-0.10774262
146	0xbdf934d0	-0.12168276
147	0xbe0ec8f1	-0.1394384
148	0xbc0d9cab	-0.00864331
149	0xbccbb157	-0.024864836
150	0x3dd741da	0.10510607
151	0xbc2220ba	-0.009895498
152	0xbd93f67e	-0.07224749
153	0xbdd25e57	-0.102719
154	0x3dbcf956	0.092272446
155	0x3db6761f	0.089092486
156	0xbd93f884	-0.07225135
157	0xbda1383e	-0.078720555
158	0x3db958b4	0.09050122
159	0x3d5280f6	0.051392518
160	0x3dbe029f	0.09277844
161	0xbe049e46	-0.12951002
162	0x3dcb7edf	0.09936308
163	0xbd89c41c	-0.06726858
164	0x3dae8588	0.08521563
165	0x3dc07ae2	0.09398438
166	0x3d298251	0.041384045
167	0x3d04d02b	0.032425087
168	0x3dd1fffe	0.10253905
169	0x3d7f36da	0.06230817
170	0x3d349828	0.04409042
171	0xbd1f89ea	-0.038949884
172	0xbd857cfe	-0.06517981
173	0xbd92e25b	-0.0717208
174	0x3d10f77c	0.03539227
175	0x3c9e335d	0.019311601
176	0xbde9d3b2	-0.11417331
177	0xbdbfadbc	-0.09359309
178	0x3cf3b76f	0.029750554
179	0xbc2e14b1	-0.01062505
180	0x3d8b4637	0.06800502
181	0x3d79d082	0.060989864
182	0xbdbb611d	-0.09149382
183	0x3d8e4237	0.06946223
184	0x3b2045ed	0.0024455742
185	0x3d0cc3ec	0.034366533
186	0x3d49dbd6	0.049281918
187	0xbd5f26b6	-0.054480277
188	0x3de4534a	0.11148699
189	0xbd7c4495	-0.061588842
190	0x3d83cc43	0.06435444
191	0xbdb90eca	-0.09036024
192	0xbd24c89c	-0.04023038
193	0x3dcfeefe	0.10153006
194	0xbdcb0aaa	-0.099141434
195	0x3dce3eac	0.100705475
196	0xbdb97888	-0.09056193
197	0xbbbaa3aa	-0.00569578
198	0x3d2a3aa0	0.041559815
199	0xbd413583	-0.047170173
200	0xbdbdd8e3	-0.092698835
201	0xbdaa9ff4	-0.0833129
202	0x3c401a47	0.011725015
203	0x3cb23ce0	0.021757543
204	0x3db626f4	0.088941485
205	0xbd765aef	-0.060145315
206	0xbd8e84fd	-0.06958959
207	0x3d4f4d16	0.050610624
208	0x3c7ab632	0.015302228
209	0x3beb3507	0.007177952
210	0x3d9f68f8	0.07783693
211	0x3c163ea4	0.009170208
212	0xbd906e34	-0.070522696
213	0x3df3171b	0.118696414
214	0xbd086be7	-0.03330603
215	0x3b82d451	0.0039925952
216	0x3dce7d76	0.100825235
217	0xbdbc3ab8	-0.09190887
218	0xbda0337f	-0.07822322
219	0xbdec2ebe	-0.11532353
220	0x3ddcc08d	0.10778914
221	0x3d7e8712	0.06214053
222	0x3dba5dc7	0.09099918
223	0x3d96a34a	0.07355364
224	0xbdac35e9	-0.0840872
225	0xbc79939e	-0.015232949
226	0x3c67a4cd	0.014138413
227	0x3d351425	0.044208664
228	0xbc0848a8	-0.008318104
229	0xbd45ef3f	-0.048323866
230	0x3de99503	0.11405375
231	0xbd9bfa62	-0.07616116
232	0xbdc4d189	-0.09610278
233	0xbe00f566	-0.12593612
234	0x3d984b3d	0.074362256
235	0xbd5381d7	-0.051637497
236	0x3dbe95f3	0.09305944
237	0x3ddcef12	0.107877865
238	0x3ddcd84c	0.10783443
239	0xbdcdb77a	-0.10044761
240	0xbdcb32fd	-0.099218346
241	0xbd05e594	-0.032689646
242	0xbcf77013	-0.030204808
243	0xbdd7bcaa	-0.10534032
244	0x3db2379a	0.087020114
245	0xbdd02421	-0.10163141
246	0xbd9f0ab6	-0.07765715
247	0xbd049a4b	-0.032373708
248	0xbdf6547e	-0.12027834
249	0xbc8a6960	-0.01689595
250	0x3cc4e75a	0.024036098
251	0xbc9fab8f	-0.019490985
252	0xbddb22c6	-0.10699992
253	0x3d828b61	0.06374241
254	0xbddbc436	-0.10730784
255	0x3ccfd547	0.025370253

conv_blocks.3.bias f4 [32]
0	0xbd65a7c6	-0.056068204
1	0xbd133f1d	-0.03594886
2	0x3d11adc4	0.035566106
3	0xbc8e4999	-0.017369078
4	0xbdb6d33c	-0.089270085
5	0xbcccc1f2	-0.024994824
6	0x3c9af344	0.018914826
7	0xbc352a33	-0.011057424
8	0x3c8f591e	0.01749855
9	0x3ddde8ac	0.10835394
10	0x3b8284f8	0.0039831363
11	0xbba37a01	-0.0049889092
12	0x3c241249	0.010014125
13	0x3d10a0ef	0.03530973
14	0x3d563ec9	0.05230597
15	0x3d4ac78b	0.049506705
16	0xbda1a87c	-0.07893464
17	0x3da61048	0.08108574
18	0xbd75306c	-0.05986063
19	0x3d211194	0.039323404
20	0x3d3c1d71	0.045926515
21	0x3cd93b00	0.026517391
22	0x3d4be6cc	0.049780652
23	0x3d2f8882	0.042854793
24	0xbdf53523	-0.11973026
25	0x3d99b359	0.07504911
26	0x3bce08ff	0.0062876935
27	0x3de4fc0d	0.11180887
28	0xbd6c4017	-0.05767831
29	0xbb4c3988	-0.003116222
30	0x3d5a4191	0.053285185
31	0xbd7829bb	-0.060586672

conv_blocks.4.weight f4 [32]
0	0x3f809afa	1.0047295
1	0x3f7df62b	0.9920375
2	0x3f8005c7	1.0001763
3	0x3f7fe0da	0.9995247
4	0x3f7f28f3	0.9967186
5	0x3f80901d	1.004398
6	0x3f81867a	1.0119164
7	0x3f7eeaba	0.99576914
8	0x3f7ed78b	0.9954764
9	0x3f805817	1.0026883
10	0x3f7e68c3	0.99378604
11	0x3f7ebc35	0.9950593
12	0x3f81c779	1.0138999
13	0x3f801d51	1.0008947
14	0x3f80095b	1.0002855
15	0x3f8010d1	1.0005132
16	0x3f8154f3	1.010405
17	0x3f7f8057	0.99805206
18	0x3f80e856	1.0070903
19	0x3f7e659a	0.9937378
20	0x3f7c6848	0.9859662
21	0x3f8128c8	1.009057
22	0x3f803e07	1.0018929
23	0x3f80d301	1.0064393
24	0x3f7e341f	0.9929828
25	0x3f7f71b6	0.99782884
26	0x3f7f3253	0.99686164
27	0x3f81af99	1.0131713
28	0x3f7c7ec6	0.9863094
29	0x3f7d0d9e	0.98848903
30	0x3f81d2f2	1.01425
31	0x3f7d97f1	0.9905997

conv_blocks.4.bias f4 [32]
0	0xbb8417a3	-0.004031138
1	0xbc872399	-0.016496466
2	0x3be38b4c	0.0069440957
3	0xbc4134f6	-0.011792412
4	0x3bf82a59	0.0075734076
5	0x3c5b61b1	0.013389991
6	0xbbca34f5	-0.0061708638
7	0x3c1c8a5f	0.009554475
8	0x3cb4d345	0.022073397
9	0x3a5921c1	0.0008282923
10	0xbc79548a	-0.01521791
11	0xbc820c14	-0.0158749
12	0x3cb3623f	0.021897433
13	0xbc41cb6b	-0.011828284
14	0xbc020fbf	-0.0079383245
15	0xbc1374e5	-0.009000038
16	0x3cb561bb	0.022141328
17	0xbbdf9073	-0.0068226396
18	0xbba871da	-0.0051405253
19	0x3b910e63	0.004426764
20	0x3a829733	0.0009963274
21	0xbbbca98f	-0.0057575176
22	0xbb95d482	-0.004572452
23	0xbb4506cd	-0.0030063868
24	0xbc86257e	-0.0163753
25	0xbc498e97	-0.0123020625
26	0xbc4b8a27	-0.012423075
27	0xbb4e6767	-0.0031494738
28	0x3c2b5256	0.010456642
29	0xbc29b889	-0.010358938
30	0x3c8280b3	0.01593051
31	0x3c84938c	0.016183637

conv_blocks.4.running_mean f4 [32]
0	0xbe88e6cc	-0.26738584
1	0x3b4227c5	0.0029625755
2	0x3cfb1016	0.030647319
3	0x3c777843	0.015104356
4	0x3e14fe73	0.1455019
5	0x3c8ff4f9	0.017572867
6	0xbe53eb6d	-0.20695277
7	0x3ba15c3d	0.0049243257
8	0x3e385dc5	0.1800452
9	0x3e4ffa18	0.20310247
10	0xbe442625	-0.19155176
11	0x3e06cdcd	0.13164444
12	0x3d035af8	0.032069176
13	0xbdf2c60e	-0.11854182
14	0xbdb97517	-0.09055536
15	0xbe25d98c	-0.16196269
16	0x3e1dc793	0.15408163
17	0x3d9068d8	0.07051247
18	0xba978b2a	-0.001156186
19	0x3da8e05e	0.0824592
20	0x3e4cda3e	0.20005128
21	0xbe065865	-0.13119657
22	0xbda8cf1a	-0.082426265
23	0x3e204fc6	0.15655431
24	0xbe636b36	-0.22208866
25	0x3d75049e	0.059818856
26	0x3e673499	0.22578658
27	0xbd505861	-0.050865535
28	0x3da0e1de	0.07855581
29	0x3e493998	0.19650877
30	0x3cb5dd7a	0.022200335
31	0xbb7ef2eb	-0.0038902115

conv_blocks.4.running_var f4 [32]
0	0x3d4bc94f	0.04975253
1	0x3d1e6ff0	0.03868097
2	0x3d280bb4	0.041026786
3	0x3d1b46a4	0.037909165
4	0x3d187ff2	0.037231393
5	0x3d69cc5e	0.057079665
6	0x3d9287bd	0.07154796
7	0x3d24fe7e	0.040281765
8	0x3cf04987	0.029331936
9	0x3da70dce	0.0815693
10	0x3d969034	0.07351723
11	0x3cffcab9	0.031224595
12	0x3cc941c2	0.024567489
13	0x3d9b70d5	0.075898804
14	0x3d0ab879	0.033867333
15	0x3ce97411	0.028497728
16	0x3cee6753	0.029102003
17	0x3d15eed3	0.036604714
18	0x3d222b7c	0.03959225
19	0x3d146ffb	0.036239605
20	0x3cfbe93d	0.030750865
21	0x3d6c39f3	0.057672452
22	0x3d19bc5d	0.037533153
23	0x3d11d1d3	0.035600495
24	0x3d1ce662	0.038305648
25	0x3d153e3a	0.036436297
26	0x3d10f507	0.035389926
27	0x3d53e8c8	0.05173567
28	0x3d1ae113	0.037812304
29	0x3d187e05	0.037229557
30	0x3d01b5e3	0.0316676
31	0x3cb1fe3d	0.021727676

conv_blocks.7.weight f4 [64, 32, 4]
0	0x3b94f69f	0.004546001
1	0x3c507dbe	0.012725292
2	0x3b89fa67	0.0042107585
3	0x3d79a6f5	0.06095024
4	0x3d4da8e0	0.05020988
5	0xbc6281b1	-0.013824866
6	0x3d49848e	0.04919868
7	0x3c87051f	0.016481934
8	0xbd51f796	-0.051261507
9	0xbd1ad104	-0.03779699
10	0x3d8c92ef	0.06863963
11	0x3d876817	0.066116504
12	0xbd15352b	-0.036427658
13	0x3d664612	0.056219168
14	0x3dbb6aa7	0.09151202
15	0xbd878587	-0.06617265
16	0xbcc2a7c3	-0.023761636
17	0x3d3e6323	0.046481263
18	0xbba7dd22	-0.0051227966
19	0x3d6b0218	0.057375044
20	0xbd9521d0	-0.0728184
21	0xbd44bcf9	-0.04803178
22	0x3d282199	0.041047666
23	0x3c89b18b	0.016808292
24	0xbc80819c	-0.015686803
25	0x3d92f54a	0.071756914
26	0x3d6c2668	0.057653815
27	0xbd481c39	-0.04885504
28	0xbd8fa7f2	-0.07014455
29	0x3d80f24f	0.06296217
30	0xbce57776	-0.028011065
31	0x3d2f6901	0.04282475
32	0x3c236149	0.009971925
33	0x3d870100	0.065919876
34	0x3db4e83d	0.088333584
35	0x3da01089	0.07815654
36	0xbd5be1a4	-0.053681985
37	0xbd326947	-0.04355743
38	0x3c686ec8	0.014186569
39	0x3da284a9	0.07935459
40	0xbc47a654	-0.012185652
41	0x3d80b558	0.062845886
42	0x3d9b7da5	0.07592324
43	0x3c8f427c	0.017487757
44	0x3ce4ce77	0.027930481
45	0xbc9dc378	-0.019258246
46	0xbd34cfb4	-0.044143394
47	0x3cb62b3c	0.022237413
48	0x3c68746c	0.014187913
49	0xbc01a321	-0.007912428
50	0x3d22ab0e	0.03971391
51	0xbd677489	-0.05650762
52	0x3d02a014	0.031890944
53	0xbd9a203b	-0.07525679
54	0x3c856fb6	0.01628862
55	0xbc63b90e	-0.013899101
56	0xbd6b9714	-0.057517126
57	0xbd16b73f	-0.03679585
58	0xbcdfc432	-0.027315233
59	0xbd85be89	-0.06530482
60	0xbd1bf2e9	-0.038073454
61	0xbd5bd767	-0.05367222
62	0xbd12d965	-0.035851855
63	0xbd456b38	-0.048197955
64	0xbcb992d6	-0.022653025
65	0x3b87a999	0.0041400907
66	0x3dbe354e	0.09287511
67	0x3d561159	0.052262638
68	0xbce25463	-0.02762813
69	0xbacdd4fd	-0.0015703734
70	0x3d80b6e7	0.06284886
71	0x3bd26b53	0.0064214855
72	0x3cb8d4f6	0.022562485
73	0x3d263259	0.04057536
74	0xbcf86fdd	-0.030326778
75	0xbd76339f	-0.060107823
76	0xbd3e6378	-0.04648158
77	0xbbdcbc0a	-0.006736283
78	0x3d28e52c	0.04123418
79	0x3d4f9b41	0.05068517
80	0xbd80957c	-0.06278512
81	0x3ca06669	0.019580083
82	0x3d0de64b	0.034643453
83	0xbc9b2731	-0.018939586
84	0xbd9960ef	-0.07489192
85	0x3b3bc12e	0.002864908
86	0x3cfb74a5	0.030695269
87	0xbd32e919	-0.04367933
88	0xbd952144	-0.072817355
89	0x3d483a10	0.048883498
90	0x3db4dfbc	0.088317364
91	0x3bce2114	0.0062905643
92	0x3d95bea1	0.0731175
93	0xbd34f85d	-0.04418217
94	0x3d7efc65	0.06225242
95	0x3c6d78d6	0.014494142
96	0x3d688060	0.056763053
97	0xbc6f0eaa	-0.0145908985
98	0x3d29f7f9	0.04149625
99	0xbd343fee	-0.04400628
100	0x3d638389	0.055545364
101	0x3db927de	0.09040807
102	0x3d88ff46	0.066893145
103	0x3d623e0b	0.05523495
104	0x3d69044e	0.05688887
105	0x3bf72318	0.0075420253
106	0xba914fa5	-0.0011086358
107	0x3da15354	0.07877222
108	0xbdaeb6d6	-0.08530967
109	0xbd9353c5	-0.07193712
110	0x3c6d2183	0.014473322
111	0xbd38dfa1	-0.045135144
112	0x3c7c0490	0.015381947
113	0x3d86f45a	0.06589575
114	0xbd42b2bc	-0.047533736
115	0x3d296935	0.0413601
116	0xbd61ab48	-0.055094987
117	0xbca77c30	-0.02044496
118	0xbd4101db	-0.04712091
119	0x3d40dce8	0.047085673
120	0xbd08b5e8	-0.033376604
121	0x3d802339	0.06256718
122	0x3c960638	0.018313512
123	0xbd656518	-0.056004614
124	0x3d934246	0.07190375
125	0xbc502274	-0.012703527
126	0xbda38c30	-0.07985723
127	0xbd4b9104	-0.049698845
128	0x3d1fbb14	0.03899677
129	0xbd06579a	-0.032798387
130	0x3d063799	0.032767866
131	0x3d0e7bc7	0.034786012
132	0xbb0fd731	-0.0021948332
133	0xbb40611e	-0.0029354761
134	0xbca0e621	-0.019640984
135	0x3d4b1f80	0.049590588
136	0x3c23a227	0.009987391
137	0x3d9e8b37	0.07741397
138	0xbd58f5e0	-0.05296886
139	0xbdb9ffd8	-0.090820014
140	0x3d28ebd4	0.04124053
141	0xbd81ce1a	-0.06338139
142	0x3c54240a	0.0129480455
143	0x3d339e51	0.043852154
144	0xbdb1d806	-0.08683781
145	0x3d72f271	0.05931324
146	0x3da2a687	0.07941919
147	0x3d84126b	0.064488254
148	0x3cf8d551	0.030375155
149	0xbd924e31	-0.0714382
150	0x3d8add7e	0.067805275
151	0x3d4a5476	0.049396954
152	0x3c792782	0.015207173
153	0xbd00d022	-0.03144849
154	0xbd898b9c	-0.067160815
155	0xbd91ae86	-0.07113366
156	0x3d94b5f1	0.07261265
157	0x3d416c08	0.047222167
158	0xbcf1a253	-0.029496348
159	0xbceebf13	-0.029143846
160	0xbd948fed	-0.07254014
161	0xbdb02830	-0.08601415
162	0x396c73f8	0.00022549916
163	0xbd6b9bc1	-0.057521585
164	0x3d76c8bd	0.060250033
165	0xbc9d9031	-0.019233795
166	0xbd4a5f32	-0.04940719
167	0xbd798bbb	-0.060924273
168	0xbdb8ea4c	-0.090290636
169	0xbb8b8928	-0.0042582937
170	0xbc92c469	-0.017915921
171	0x3d3cf085	0.046127815
172	0x3bbfbf32	0.0058516497
173	0xbca6e3f0	-0.020372361
174	0x3b0db358	0.002162179
175	0xbcaa7ec5	-0.020812402
176	0x3c28aa3a	0.010294491
177	0x3d79ece1	0.06101692
178	0x3d849ffd	0.06475828
179	0x3d1be7d6	0.038062893
180	0xbb58f880	-0.0033107102
181	0x3cf105ab	0.029421648
182	0xbdb25e1a	-0.08709355
183	0xbd995d77	-0.0748853
184	0x3da8f956	0.08250682
185	0x3d97a0c9	0.07403714
186	0x3d9e31b6	0.07724325
187	0xbda54741	-0.08070231
188	0x3dac9fd8	0.08428925
189	0xbc634a25	-0.013872658
190	0x3caad6af	0.020854322
191	0x3ce30773	0.027713513
192	0x3d0a8b44	0.03382422
193	0xbbaf928a	-0.005358045
194	0xbc9b7590	-0.018976957
195	0xbbecd408	-0.0072274245
196	0x3d1f0f6c	0.038833067
197	0x3ce4964c	0.027903698
198	0x3d65084c	0.055916116
199	0xbcbf1527	-0.023325516
200	0x3ce17a81	0.027524235
201	0x3d939ab4	0.07207242
202	0xbdb7b731	-0.08970488
203	0xbd987516	-0.07444207
204	0xbd6a00cf	-0.057129677
205	0x3d198d1f	0.0374881
206	0x3d1c005e	0.038086288
207	0x3d0e2278	0.03470084
208	0x3d006ed1	0.031355683
209	0xbcb07fa7	-0.021545244
210	0x3d9cb79b	0.076522075
211	0xbd8d46e9	-0.06898291
212	0x3d8a8f4c	0.06765613
213	0x3d872ddf	0.06600546
214	0xbc7f5364	-0.015583847
215	0x3c40ddad	0.011771602
216	0xbccc902c	-0.02497109
217	0x3c0e7f95	0.00869741
218	0x3d840267	0.06445771
219	0x3c44d8b2	0.012014555
220	0xbd8ebb35	-0.06969301
221	0xbd5a61cc	-0.053315923
222	0x3d2cdfe3	0.042205703
223	0xbc1217da	-0.0089168195
224	0x3c097145	0.008388822
225	0xbd9d0f52	-0.07668938
226	0x3dabbb11	0.083852895
227	0x3d8767f0	0.066116214
228	0xbda840e3	-0.08215501
229	0x3dacf6a0	0.084454775
230	0x3d3836b5	0.044974048
231	0x3cec2411	0.028825792
232	0x3d62ebd5	0.05540069
233	0xbd5bde22	-0.05367864
234	0xbd14c532	-0.036320873
235	0x3d84589f	0.06462216
236	0x3bdba146	0.006702575
237	0x3bb0def3	0.0053976714
238	0x3d8d39af	0.06895768
239	0x3c3555ad	0.01106779
240	0xbd4fb7af	-0.050712284
241	0x3c9a697e	0.01884913
242	0x3d69abbb	0.05704854
243	0x3dac09df	0.0840032
244	0x3d59abea	0.053142466
245	0xbdc9729f	-0.09836315
246	0xbd2d7736	-0.042350017
247	0xbbf1f174	-0.00738352
248	0xbcf925a1	-0.03041345
249	0x3bad83ea	0.0052952664
250	0xbccf5178	-0.025307402
251	0xbcce3148	-0.025169984
252	0xbda73ba4	-0.081656724
253	0x3d8db131	0.06918562
254	0xbc916118	-0.017746493
255	0x3d8e663e	0.06953095

conv_blocks.7.bias f4 [64]
0	0x3c8d13a6	0.017221283
1	0xbd7578d8	-0.0599297
2	0xbab93e4f	-0.0014132949
3	0xbcf6578e	-0.030071046
4	0xbd3aad29	-0.045575295
5	0xbc9750ca	-0.01847114
6	0xbd5c9f8c	-0.053863093
7	0x3ba8274b	0.005131637
8	0x3ccaa8d8	0.024738714
9	0xbd5e484b	-0.054268163
10	0x3d9b7788	0.07591158
11	0xbc8a315a	-0.016869236
12	0xbd3553aa	-0.04426924
13	0xbb370535	-0.0027926688
14	0x3d714b57	0.05890974
15	0xbd19e968	-0.03757611
16	0xbd1fcfcd	-0.039016534
17	0x3bcd3495	0.006262372
18	0x3dac6c3e	0.08419083
19	0xbdb13bd5	-0.0865399
20	0xbd883707	-0.06651121
21	0xbc93a321	-0.018022122
22	0xbd22f169	-0.039781008
23	0xbd471a1e	-0.04860889
24	0x3cb9e627	0.022692753
25	0xbd598548	-0.053105623
26	0xbda7fd47	-0.08202606
27	0x3d74c464	0.059757605
28	0x3d462787	0.04837754
29	0x3d8e8fdb	0.06961032
30	0xbdadf1c2	-0.08493377
31	0xbcf51dd5	-0.029921452
32	0x3d987982	0.07445051
33	0xbca3db8c	-0.020002149
34	0x3da5130c	0.080602735
35	0xbd29aa63	-0.04142226
36	0x3d2bdb8d	0.041957427
37	0x3d74447e	0.05963563
38	0xbcf57dee	-0.029967275
39	0xbd4466fb	-0.047949772
40	0x3db0b5fc	0.08628461
41	0xbd5f09bb	-0.05445264
42	0xbd2aeed7	-0.04173168
43	0xbdac6a75	-0.084187426
44	0xbd2f542d	-0.042804886
45	0xbd408537	-0.047002044
46	0xbd9c824d	-0.076420404
47	0x3d4d53c1	0.050128702
48	0xbd7d6a54	-0.06186898
49	0xbd359d5d	-0.044339526
50	0x3c987788	0.018611684
51	0xbd206369	-0.039157305
52	0x3c9f687e	0.019459005
53	0x3d986ead	0.07442985
54	0xbd451696	-0.048117243
55	0xbc28ec2e	-0.010310216
56	0xbc89da16	-0.016827624
57	0xbd882e07	-0.06649404
58	0xbd0e8ca1	-0.034802083
59	0x3d5eff85	0.0544429
60	0x3db08b20	0.08620286
61	0xbc5146c0	-0.012773216
62	0xbda8b49d	-0.08237574
63	0xbd9b97b4	-0.075972944

conv_blocks.8.weight f4 [64]
0	0x3f80de32	1.0067809
1	0x3f7e157c	0.9925153
2	0x3f8006ab	1.0002035
3	0x3f8052c0	1.0025253
4	0x3f7fdfaf	0.9995069
5	0x3f7e94e4	0.9944594
6	0x3f815f04	1.0107121
7	0x3f814d67	1.0101746
8	0x3f7e915b	0.99440545
9	0x3f809b4e	1.0047395
10	0x3f7e177d	0.9925459
11	0x3f7dab1a	0.99089205
12	0x3f8037e0	1.0017052
13	0x3f800464	1.000134
14	0x3f7f33da	0.99688494
15	0x3f80a1e0	1.00494
16	0x3f803ecc	1.0019164
17	0x3f808514	1.0040612
18	0x3f81772e	1.0114496
19	0x3f7d0a88	0.98844194
20	0x3f80b9a8	1.0056658
21	0x3f804f13	1.0024132
22	0x3f7dd69c	0.9915559
23	0x3f7e30a5	0.99292976
24	0x3f80197d	1.0007778
25	0x3f7f3531	0.9969054
26	0x3f7f9f33	0.99852294
27	0x3f7f740f	0.99786466
28	0x3f83110c	1.0239577
29	0x3f80c567	1.0060242
30	0x3f7fced2	0.9992496
31	0x3f7d834e	0.9902848
32	0x3f7f6154	0.99757886
33	0x3f7feeef	0.9997396
34	0x3f8177b3	1.0114654
35	0x3f7f19f8	0.99649
36	0x3f800659	1.0001937
37	0x3f7f088f	0.99622434
38	0x3f7fe9b2	0.99965966
39	0x3f7e6b96	0.99382913
40	0x3f805320	1.0025368
41	0x3f80995b	1.00468
42	0x3f7de087	0.99170727
43	0x3f7e3ef5	0.99314815
44	0x3f80b495	1.0055109
45	0x3f7faa2c	0.99869037
46	0x3f7fc914	0.99916196
47	0x3f8210ac	1.0161338
48	0x3f7fc938	0.9991641
49	0x3f7f0f3b	0.99632615
50	0x3f800095	1.0000178
51	0x3f81abd0	1.0130558
52	0x3f7dba27	0.9911217
53	0x3f806199	1.0029784
54	0x3f7db7aa	0.99108374
55	0x3f8040f7	1.0019826
56	0x3f7d4d69	0.98946244
57	0x3f7ec40d	0.995179
58	0x3f817944	1.0115132
59	0x3f7d8b39	0.9904056
60	0x3f7e8403	0.99420184
61	0x3f7fbb67	0.9989533
62	0x3f7e0515	0.99226505
63	0x3f80d9c6	1.0066459

conv_blocks.8.bias f4 [64]
0	0x3cad7428	0.021173552
1	0x3bcdce9d	0.0062807337
2	0xbbadecc0	-0.005307764
3	0xbb5c76ea	-0.0033640214
4	0x3bbec64a	0.0058219777
5	0x3ba172c2	0.0049270103
6	0x3c3be5f7	0.011468402
7	0x3c20f6eb	0.009824495
8	0xbb8a0cd1	-0.0042129536
9	0xbae5ba36	-0.0017526809
10	0xbbf92aa1	-0.0076039587
11	0x3bb7411b	0.005592478
12	0xbb5fb104	-0.003413261
13	0x3a1ab898	0.00059021404
14	0xbb696630	-0.0035613887
15	0x3c8a08ff	0.016849993
16	0x3c8c3492	0.017114911
17	0x3caa6521	0.020800175
18	0xb9e953d4	-0.0004450368
19	0xba85ce9a	-0.0010208667
20	0x3a8f0cd4	0.0010913857
21	0x3c3d9de9	0.011573293
22	0xbc70f82b	-0.014707605
23	0xbbbf4446	-0.0058369962
24	0x3c378860	0.011201948
25	0xbb408bd1	-0.0029380212
26	0x3b04af0b	0.0020245935
27	0x3cd43d5c	0.025908165
28	0x3c40183b	0.011724527
29	0xbc1077aa	-0.008817593
30	0xbb07b36e	-0.0020706314
31	0xbc3727e0	-0.011178941
32	0x3c162b76	0.009165635
33	0xbc24ee4b	-0.010066579
34	0x3c8158db	0.01578944
35	0xba6f76be	-0.00091348204
36	0x39a0fca6	0.00030705816
37	0xbaf63839	-0.0018785066
38	0xb8c0f575	-9.2009934e-05
39	0x3bfad38d	0.0076546133
40	0xbb2c76e1	-0.0026315975
41	0x3be57cce	0.0070034033
42	0xbc18fd49	-0.009337732
43	0xbb8ef27b	-0.004362402
44	0xbb6f2738	-0.0036491882
45	0xbc142c5e	-0.009043781
46	0x3c44c994	0.012010951
47	0x3c9ad5f0	0.018900841
48	0x3b313327	0.0027038546
49	0xbc525d17	-0.012839577
50	0x3bf00bce	0.007325626
51	0x3be02c43	0.006841214
52	0xbb83634e	-0.004009641
53	0x3b7f0c9e	0.0038917433
54	0xbc45ddd1	-0.012076811
55	0x3c05803a	0.008148247
56	0xbc7dcaed	-0.015490276
57	0xbbc80334	-0.0061038975
58	0x3c4f5adc	0.01265594
59	0xbc4829f3	-0.012217033
60	0xbbe30c1a	-0.006928933
61	0x39ee5956	0.00045461458
62	0xbbe85d24	-0.0070911814
63	0x3b8d04b2	0.0043035382

conv_blocks.8.running_mean f4 [64]
0	0x3e8154cc	0.25260007
1	0x3db1ebd1	0.086875565
2	0x3d0c2ece	0.034224324
3	0x3dee8ad4	0.11647573
4	0xbd72cab8	-0.05927536
5	0xbe3cbddc	-0.184318
6	0x3d9de35f	0.07709383
7	0xbe17f9b7	-0.14841352
8	0xbccf203b	-0.025283923
9	0xbea66297	-0.32497093
10	0xbe2d2a37	-0.16910635
11	0x3e2fac1b	0.17155497
12	0xbd72ef71	-0.05931038
13	0xbe13d048	-0.14434922
14	0x3e3966a3	0.18105559
15	0xbd81e79c	-0.06343004
16	0x3e7951fb	0.2434768
17	0x3d86aa47	0.065754466
18	0x3c0a398a	0.00843657
19	0x3e31f3af	0.17378114
20	0xbeb90ce5	-0.3614265
21	0x3d867310	0.06564915
22	0xbda94660	-0.08265376
23	0xbdfaefad	-0.12252746
24	0xbc02df61	-0.007987828
25	0xbe2430e0	-0.1603427
26	0xbe01e38b	-0.12684457
27	0x3eb5f90c	0.3554157
28	0xbde4b8dd	-0.111680724
29	0xbe5c0979	-0.21487989
30	0xbead9a4e	-0.33906788
31	0xbd8041ab	-0.06262525
32	0x3e396137	0.18103491
33	0x3d63b952	0.055596657
34	0x3e5918c0	0.21200848
35	0x3e43739b	0.19087069
36	0x3e85527b	0.2603949
37	0xbd1e2aea	-0.038615145
38	0xbd64439b	-0.055728536
39	0xba3769ee	-0.0006996681
40	0xbe8e879a	-0.2783783
41	0x3e9d1543	0.30680284
42	0xbd457466	-0.04820671
43	0xbd3ce890	-0.046120226
44	0x3d8a60a8	0.06756717
45	0xbe4234ab	-0.18965404
46	0xbdca5cd8	-0.0988099
47	0xbe1653a5	-0.14680345
48	0xbd12dea6	-0.035856865
49	0xbe37fda2	-0.17967847
50	0x3e4a6d44	0.19768244
51	0xbe3205fc	-0.17385095
52	0x3e27e076	0.16394219
53	0x3dc2c8a6	0.09510927
54	0x3de967db	0.11396762
55	0x3d2811e6	0.041032694
56	0x3e6a06fb	0.22854225
57	0x3df82014	0.121154934
58	0xbe9838ed	-0.2973093
59	0x3e0e5d74	0.13902837
60	0x3c881560	0.016611755
61	0x3e1fc33d	0.15601821
62	0xbdd7fa45	-0.10545782
63	0xbe5c3558	-0.21504724

conv_blocks.8.running_var f4 [64]
0	0x3e5821ed	0.21106692
1	0x3e72fd20	0.23729372
2	0x3e7a6625	0.24453028
3	0x3e926f02	0.28600317
4	0x3e42670e	0.18984625
5	0x3e939479	0.28824213
6	0x3e5c01d7	0.21485077
7	0x3e8f5387	0.27993414
8	0x3e828614	0.25492918
9	0x3e63fc73	0.2226427
10	0x3e436019	0.19079627
11	0x3e6685d5	0.2251199
12	0x3e3f8cb3	0.18706016
13	0x3e8bb125	0.27283588
14	0x3e56e929	0.20987381
15	0x3e576da6	0.21037921
16	0x3e670319	0.22559775
17	0x3e939ae3	0.28829107
18	0x3e665066	0.22491607
19	0x3e796213	0.24353819
20	0x3e4aa235	0.1978844
21	0x3e566962	0.20938638
22	0x3e52fd15	0.20604356
23	0x3e87329e	0.26405805
24	0x3e4de80a	0.20108047
25	0x3e600f3e	0.21880814
26	0x3e5e959f	0.21736763
27	0x3e78cc23	0.24296622
28	0x3e82dbbb	0.25558266
29	0x3e7c64a0	0.2464776
30	0x3e6f84a9	0.2339045
31	0x3e6c3e45	0.23070629
32	0x3e6b410b	0.2297403
33	0x3e5d89f2	0.21634653
34	0x3e1ebc83	0.15501599
35	0x3e5779e0	0.21042585
36	0x3e5e7c20	0.21727037
37	0x3e67f53e	0.22652146
38	0x3e488c79	0.19584836
39	0x3e59d742	0.2127352
40	0x3e4b2918	0.19839895
41	0x3e5240fa	0.20532599
42	0x3e63bb64	0.22239453
43	0x3e5ac53a	0.21364298
44	0x3e612726	0.2198759
45	0x3e766b8e	0.24064466
46	0x3e38513a	0.17999735
47	0x3e2a8609	0.16652693
48	0x3e3f84f9	0.18703069
49	0x3e3afee3	0.18261294
50	0x3e3d2be0	0.18473768
51	0x3e7343bb	0.23756306
52	0x3e3f56d1	0.18685462
53	0x3e755637	0.2395867
54	0x3e61e37f	0.22059439
55	0x3e390b2c	0.18070668
56	0x3e61cafc	0.22050089
57	0x3e6fb95a	0.2341055
58	0x3e5ae997	0.2137817
59	0x3e5da754	0.21645862
60	0x3e3350e4	0.17511326
61	0x3e5444e3	0.20729403
62	0x3e5ba5ba	0.21449938
63	0x3e6dc05a	0.23217908

conv_blocks.11.weight f4 [128, 64, 4]
0	0xbd7481fa	-0.059694268
1	0xbc2222d6	-0.009896001
2	0xbc1ba42c	-0.009499591
3	0xbcb64a41	-0.022252204
4	0xbd43a57f	-0.04776525
5	0x3cd52f04	0.026023395
6	0x3caeed62	0.021353427
7	0x3c20d49d	0.009816316
8	0x3d50f4ed	0.05101483
9	0x3d0a7297	0.033800688
10	0xbc93c1e9	-0.0180368
11	0x3d5c6ace	0.053812794
12	0x3d1df3b7	0.038562503
13	0xbd6a73c3	-0.057239305
14	0xbd07ef09	-0.033186946
15	0xbca72e00	-0.020407677
16	0xbd5dfd0e	-0.05419641
17	0x3ce4aa12	0.027913127
18	0xba814afa	-0.0009864264
19	0xbd5ba2d8	-0.053622097
20	0x3d3cd9a0	0.04610598
21	0x3d0fda2a	0.035120167
22	0x3d1b7712	0.03795535
23	0xbc7c2c07	-0.015391356
24	0xbc8a887c	-0.016910784
25	0xbb41f0a4	-0.0029592896
26	0xbd8b089d	-0.06788752
27	0xbcc2b6b3	-0.023768758
28	0xbbcfeb4b	-0.006345188
29	0x3d482aeb	0.048869055
30	0x3cf815f9	0.030283915
31	0x3d38728e	0.045031123
32	0x3c0ec53d	0.008714017
33	0xbaad7fe5	-0.0013236968
34	0x3bffbd1d	0.0078045265
35	0x3d0c77d5	0.03429397
36	0xbc89e7bd	-0.016834134
37	0xbd007587	-0.031362083
38	0xbd5b2004	-0.05349733
39	0xbd7418ec	-0.05959408
40	0xbc4ac292	-0.012375491
41	0xbd0f873a	-0.03504107
42	0x3d86df15	0.06585518
43	0x3d6dd9d9	0.058069084
44	0x3bdbb3f5	0.006704802
45	0x3ab79e06	0.0014008887
46	0x3c5ed16a	0.013599733
47	0x3b51a85f	0.0031991226
48	0x3d0c9841	0.03432489
49	0xbd3eb21f	-0.04655659
50	0x3c9f4365	0.019441316
51	0xbc3f58d8	-0.011678897
52	0x3c88e591	0.016711028
53	0xbc027d7a	-0.007964486
54	0xbd611e0f	-0.054960307
55	0xbccf47f7	-0.02530287
56	0xbc4c1cb8	-0.012458019
57	0xbced99d1	-0.02900401
58	0xbc854aa7	-0.016270949
59	0x3d5122dd	0.05105864
60	0x3d595144	0.053056017
61	0x3d35de91	0.04440171
62	0xbd552b97	-0.052043524
63	0xbd983ecd	-0.07433853
64	0x3d33a227	0.043855812
65	0xbd48708a	-0.04893545
66	0x3d0b8ab8	0.03406784
67	0x3c92e286	0.01793028
68	0x3c088d10	0.008334413
69	0xbcc6b6dd	-0.024257118
70	0xbd26bbaa	-0.040706314
71	0xbc26396e	-0.010145528
72	0xbd248782	-0.040168293
73	0xbc033ec0	-0.008010566
74	0xbd9af383	-0.075659774
75	0xbd0cb779	-0.03435466
76	0x3cb9a4d1	0.022661598
77	0xbd6a4e85	-0.05720379
78	0x3c8ace95	0.01694421
79	0xbd1296ca	-0.035788335
80	0xbd1e2172	-0.038606115
81	0x3d1e9a35	0.038721282
82	0xbc47c97d	-0.012194035
83	0xbd2fd880	-0.04293108
84	0xbc53517f	-0.012897848
85	0xbd3dd364	-0.046344176
86	0xbbccd73f	-0.0062512453
87	0xbd036d63	-0.03208674
88	0xbd5c221f	-0.053743478
89	0x3d4f1d06	0.05056479
90	0x3ba8f0e7	0.005155671
91	0x3c61b695	0.013776441
92	0x3d612564	0.0549673
93	0x3b9d2512	0.004795679
94	0x3d027fa4	0.03186001
95	0xbb153298	-0.0022765752
96	0x3d1e5f8b	0.038665336
97	0x3c36c591	0.011155502
98	0xbc9a5719	-0.01884036
99	0xbd2713f2	-0.040790506
100	0xbccdcc67	-0.02512188
101	0xbd3d7031	-0.046249572
102	0xbc150ae7	-0.009096838
103	0x3d176e6d	0.036970545
104	0xbd1bf4ab	-0.03807513
105	0x3d21f043	0.039535772
106	0xbd1da579	-0.038487885
107	0x3c4c4b9c	0.012469199
108	0xbd5a977a	-0.053367116
109	0x3d345a5d	0.04403149
110	0x3cb69a18	0.022290275
111	0xbd3b58b9	-0.04573891
112	0xbc3f6362	-0.01168141
113	0x3d56699e	0.05234682
114	0xbcc6aaf8	-0.024251446
115	0xbd459db0	-0.048246086
116	0xbd57b733	-0.052664947
117	0x3c62bf90	0.013839617
118	0xbc81fe4b	-0.015868327
119	0xbc2f7e94	-0.010711331
120	0xbd04f1cd	-0.03245716
121	0x3d20ea34	0.039285854
122	0x3c02c707	0.007982022
123	0xbd3e0298	-0.046389192
124	0xbcde3019	-0.027122544
125	0xbd87900a	-0.0661927
126	0x3c8d0f73	0.01721928
127	0x3cb2b105	0.021812925
128	0x3d533c79	0.051571343
129	0xbcf9eb5c	-0.030507736
130	0xbd545420	-0.05183804
131	0xbd64e62d	-0.055883575
132	0x3d0a9952	0.033837624
133	0xbd284c0e	-0.041088156
134	0xbccc3ab5	-0.024930337
135	0xbd38c936	-0.045113765
136	0x3c00fe97	0.007873199
137	0xbd511501	-0.05104542
138	0x3cdb825d	0.02679556
139	0xbd42f264	-0.047594443
140	0xbcd6600d	-0.026168847
141	0x3d1fa0e0	0.03897178
142	0xbd4872df	-0.048937675
143	0xbcefee22	-0.029288355
144	0x3c713f6f	0.014724596
145	0x3ccb0b51	0.02478567
146	0x3d07600e	0.03305059
147	0xbd0563b4	-0.032565787
148	0xbd2d82e0	-0.04236114
149	0xbca016d8	-0.019542143
150	0xbb8c2db1	-0.004277908
151	0xbd12c5e7	-0.035833266
152	0x3d119723	0.035544526
153	0x3d0fd335	0.035113532
154	0x3cfef2e2	0.031121675
155	0x3c905ce1	0.017622413
156	0xbd8243af	-0.06360566
157	0xbd7440a9	-0.059631977
158	0xbce7cdf7	-0.028296454
159	0xbd2257da	-0.039634563
160	0x3d4353a6	0.047687195
161	0x3d3753a5	0.044757504
162	0x3c4d5f37	0.012534908
163	0x3d0f349d	0.034962285
164	0x3d234ce5	0.039868254
165	0xbd36bdf1	-0.044614736
166	0x3c541d80	0.0129464865
167	0x3d1b7e5c	0.037962303
168	0xbd80a0f5	-0.062807
169	0xbd1ac8a2	-0.037788995
170	0x3c85588c	0.016277574
171	0xbc53cd3e	-0.0129273515
172	0xbcb39bfc	-0.021924965
173	0xbc3f8d38	-0.011691384
174	0xbd5de2f3	-0.054171514
175	0xbd179f75	-0.037017304
176	0xbc2e291e	-0.01062992
177	0x3cf8b7cf	0.030361084
178	0xbd879155	-0.06619517
179	0xbd45f70f	-0.048331317
180	0xbd3c8670	-0.046026647
181	0x3ca8aa99	0.02058916
182	0xbd0d5516	-0.034504972
183	0x3ce75b73	0.028241849
184	0x3d2f995a	0.042870857
185	0xbd85980a	-0.0652314
186	0xbcf2fb12	-0.029660735
187	0xbd549537	-0.051900115
188	0xbcb14ca5	-0.021642992
189	0xbd2d5ea3	-0.04232658
190	0xbd029a2b	-0.031885307
191	0x3b9f3252	0.0048582936
192	0xbaa10617	-0.001228514
193	0x3bb0475a	0.0053795995
194	0xbd5c953d	-0.053853262
195	0x3d05e986	0.03269341
196	0xbd6a8732	-0.05725784
197	0x3d1334eb	0.03593914
198	0xbcefda24	-0.029278822
199	0xbd54310d	-0.05180459
200	0x3d111724	0.03542246
201	0xbd392616	-0.045202337
202	0x3c41cef2	0.011829125
203	0xbcc1cab4	-0.023656227
204	0x3d91270b	0.07087525
205	0x3c8d01b8	0.017212734
206	0x3cc47c0c	0.023984931
207	0xbd0ca01a	-0.034332372
208	0x3d2e0532	0.042485423
209	0xbccdcf96	-0.025123399
210	0xbc9f3e8a	-0.019439
211	0xbb9740a6	-0.004615861
212	0xbd19c782	-0.03754378
213	0xbd656de5	-0.056013007
214	0x3c5ff56a	0.013669351
215	0x3cd15d05	0.02555705
216	0x3d09efcd	0.033675957
217	0x3cce8fcc	0.025215052
218	0xbd81f6db	-0.06345912
219	0x3c2ab2dc	0.01041862
220	0xba17c4df	-0.0005789529
221	0x3b1f5788	0.0024313647
222	0x3ba6e13c	0.005092768
223	0xbb556d33	-0.0032566309
224	0x3c922293	0.017838752
225	0xbd122710	-0.035681784
226	0x3c8ed9de	0.017437872
227	0x3cad92a3	0.021188086
228	0x3d3a9234	0.045549586
229	0xbd161eb2	-0.036650367
230	0xbd260d19	-0.040539835
231	0x3d390f75	0.045180757
232	0x3a819dfb	0.0009889001
233	0xbd02870b	-0.03186707
234	0xbd03b58c	-0.03215556
235	0x3d42bf08	0.047545463
236	0xba75e765	-0.0009380489
237	0xbd624328	-0.055239826
238	0xb9c64356	-0.00037815672
239	0xbc0f1a57	-0.008734307
240	0x3c0808a3	0.00830284
241	0xbc2a23d7	-0.010384521
242	0x3d26f565	0.04076137
243	0xbd249c47	-0.0401881
244	0x3d59b041	0.053146604
245	0x3d2cd6ad	0.04219692
246	0x3d24d3f9	0.040241215
247	0x3c5a2f67	0.013316966
248	0xbd192ab2	-0.037394233
249	0xbd57050f	-0.05249506
250	0xbcfa15f5	-0.030528048
251	0x3d25cb79	0.04047725
252	0x3c79552c	0.01521806
253	0x3d16a2fa	0.03677652
254	0x3ced8630	0.02899465
255	0xbcdc7b5e	-0.026914295

conv_blocks.11.bias f4 [128]
0	0xbc972024	-0.018447943
1	0x3d31343b	0.0432627
2	0xba8dd7cc	-0.0010821759
3	0xba0c093e	-0.00053419534
4	0xb8058348	-3.1831936e-05
5	0xbd0728f0	-0.032998025
6	0x3c74297b	0.014902468
7	0xbd73cbcf	-0.05952054
8	0xbbf78639	-0.0075538424
9	0xbb637dcf	-0.003471244
10	0x3c50e976	0.012750974
11	0xbd0017c9	-0.031272683
12	0xbd790714	-0.060797766
13	0x3d75cc36	0.060009204
14	0xbd16c7e3	-0.03681172
15	0xbcfa4cc9	-0.030554192
16	0x3d1f4100	0.03888035
17	0xbbe56ba6	-0.007001358
18	0xbd1e0d57	-0.03858694
19	0xbd2f4a0b	-0.042795222
20	0xbd6a62a5	-0.05722298
21	0x3b4276d3	0.0029672876
22	0x3b560f31	0.0032662863
23	0x3d50c13d	0.050965536
24	0xbd78d929	-0.060753975
25	0x3cd8def5	0.026473502
26	0x3b0da2df	0.0021611971
27	0xbd58288a	-0.052773036
28	0x3b8156dd	0.0039471225
29	0xbd035c7b	-0.032070618
30	0x3c81dfbc	0.015853755
31	0x3ce148c4	0.027500518
32	0x3d677a45	0.05651309
33	0xbc9dc966	-0.019261073
34	0x3d724fc7	0.059158113
35	0x3c7a4a7b	0.015276547
36	0x3c941be5	0.018079707
37	0xbd6b0e04	-0.057386413
38	0xbd622bd6	-0.055217586
39	0xbcbd259b	-0.02308922
40	0x3d7287b2	0.05921144
41	0x3d080e7a	0.03321693
42	0x3d61483d	0.055000532
43	0xbd6f38cb	-0.05840377
44	0x3b933d70	0.004493408
45	0xbd6a292a	-0.057168163
46	0x3d743a52	0.05962593
47	0x3d2ff638	0.042959422
48	0x3d0e5603	0.034749996
49	0xbd0112f5	-0.03151222
50	0xbd0e9d95	-0.03481825
51	0xbd1a31b5	-0.03764506
52	0x3d5b0e87	0.05348065
53	0xbd0f4216	-0.034975134
54	0x3cf63d72	0.030058596
55	0x3d079e8f	0.033110198
56	0xbc9deffb	-0.01927947
57	0x3d6511ac	0.055925056
58	0xbd4b2c65	-0.049602885
59	0xbd04fda3	-0.03246845
60	0x3c9d7ecd	0.019225502
61	0x3c535c92	0.012900488
62	0xbcd44fea	-0.025917012
63	0xbca6e81f	-0.020374356
64	0x397b5904	0.00023970386
65	0x3d08bbcf	0.033382233
66	0x3d495200	0.049150467
67	0x3d71c328	0.059024006
68	0x3d5b69d5	0.053567726
69	0xbc82c0d3	-0.015961086
70	0x3cc2da13	0.023785627
71	0xbb6837cb	-0.0035433646
72	0xbd709d5a	-0.058743812
73	0xbd3f95df	-0.046773788
74	0xbd5e85b1	-0.054326717
75	0x3d626f18	0.05528173
76	0xbc0f229d	-0.00873628
77	0x3d47a129	0.04873768
78	0x3bed1e8e	0.0072363084
79	0x3d63d96a	0.055627264
80	0x3d04ba25	0.032404084
81	0x3d266dbe	0.040632002
82	0x3d687e62	0.056761153
83	0x3be2a546	0.006916675
84	0xbd4cbeb9	-0.049986575
85	0x3cb65fe9	0.02226253
86	0x3d6ff8f6	0.058587037
87	0x3d093a84	0.03350307
88	0xbb124e6e	-0.002232458
89	0x3d4ece15	0.050489504
90	0xbd77fd36	-0.060544215
91	0x3c9cdbe3	0.019147819
92	0x3d7af675	0.061270196
93	0xbcd48075	-0.02594016
94	0xbcc02e44	-0.023459561
95	0x3ca9709d	0.020683581
96	0x3d141a21	0.03615773
97	0xbd7f31c5	-0.062303323
98	0x3d1b9cbe	0.037991278
99	0x3d3e49db	0.046457153
100	0xbcfbbd07	-0.030729784
101	0x3d115daa	0.035489716
102	0xbd6a347f	-0.05717897
103	0xbc3ff076	-0.011715045
104	0xbd4ac344	-0.049502626
105	0xbcde00c7	-0.02709998
106	0x3cf74d04	0.030188091
107	0x3d48ca48	0.049021035
108	0x3d2edd9d	0.042691816
109	0x3d045c90	0.032314837
110	0xbd00101e	-0.03126537
111	0x3c013249	0.007885524
112	0x3d1f5f47	0.038909223
113	0x3d77c964	0.060494795
114	0xbd0c45b3	-0.034246158
115	0xbd3e7b08	-0.04650405
116	0xbd0d9e5e	-0.03457486
117	0x3d0603e7	0.032718565
118	0xbd799921	-0.06093705
119	0x3d15d034	0.03657551
120	0x3c886a48	0.016652241
121	0x3d6bc6e7	0.057562735
122	0x3d4595b0	0.048238456
123	0x3c7d4885	0.015459185
124	0x3d09e02b	0.03366105
125	0xbc6cb050	-0.014446333
126	0xbcf14dc7	-0.029456032
127	0xbccd10f4	-0.025032498

conv_blocks.12.weight f4 [128]
0	0x3f81a249	1.012765
1	0x3f826d23	1.0189556
2	0x3f8085ea	1.0040867
3	0x3f806f9a	1.0034058
4	0x3f7f9015	0.99829227
5	0x3f7f4e73	0.9972908
6	0x3f81816b	1.011762
7	0x3f7f35ba	0.99691355
8	0x3f7e82a5	0.994181
9	0x3f81dad9	1.0144912
10	0x3f80cab4	1.006186
11	0x3f814606	1.0099494
12	0x3f7ff6b4	0.99985814
13	0x3f7fcbe3	0.9992048
14	0x3f81e662	1.0148432
15	0x3f818d7a	1.01213
16	0x3f817831	1.0114805
17	0x3f7fff11	0.99998575
18	0x3f802653	1.0011696
19	0x3f80a41d	1.0050083
20	0x3f819528	1.0123644
21	0x3f81a108	1.0127268
22	0x3f811023	1.008305
23	0x3f7db0b3	0.99097747
24	0x3f8207ec	1.0158668
25	0x3f81f22e	1.0152032
26	0x3f80b652	1.005564
27	0x3f816e41	1.0111772
28	0x3f7f5876	0.99744356
29	0x3f83d25d	1.0298573
30	0x3f80354b	1.0016264
31	0x3f828435	1.0196596
32	0x3f82342c	1.0172172
33	0x3f82de84	1.0224156
34	0x3f8118ac	1.0085654
35	0x3f82668e	1.0187547
36	0x3f831d5e	1.0243337
37	0x3f80aaf1	1.0052167
38	0x3f82620c	1.0186172
39	0x3f83da28	1.0300951
40	0x3f81be33	1.0136169
41	0x3f840846	1.0315025
42	0x3f818f0d	1.0121781
43	0x3f810b00	1.0081482
44	0x3f81c66d	1.013868
45	0x3f81dc77	1.0145406
46	0x3f829352	1.0201209
47	0x3f825120	1.0181007
48	0x3f80546b	1.0025762
49	0x3f8072df	1.0035056
50	0x3f81195c	1.0085864
51	0x3f824714	1.0177941
52	0x3f840035	1.0312563
53	0x3f80cdbc	1.0062785
54	0x3f814e12	1.010195
55	0x3f83147e	1.0240629
56	0x3f8288fe	1.0198057
57	0x3f828129	1.0195667
58	0x3f800b39	1.0003425
59	0x3f8318e1	1.0241967
60	0x3f800e5a	1.000438
61	0x3f82ff12	1.0234091
62	0x3f7dfc4c	0.992131
63	0x3f7dfbfe	0.99212635
64	0x3f816eb9	1.0111915
65	0x3f7dd245	0.9914897
66	0x3f81084f	1.008066
67	0x3f7e7f35	0.9941285
68	0x3f805018	1.0024443
69	0x3f808acb	1.0042356
70	0x3f83c0a8	1.0293169
71	0x3f807cf1	1.0038129
72	0x3f812fc7	1.0092705
73	0x3f819c2f	1.0125788
74	0x3f82d0ec	1.0220008
75	0x3f80a0b8	1.0049047
76	0x3f82f0a7	1.0229691
77	0x3f804e42	1.0023882
78	0x3f81152a	1.0084584
79	0x3f83ca1c	1.0296054
80	0x3f827f0a	1.0195019
81	0x3f7f93bb	0.99834794
82	0x3f818482	1.0118563
83	0x3f82272b	1.0168203
84	0x3f81a604	1.0128789
85	0x3f8147d1	1.0100042
86	0x3f81bce0	1.0135765
87	0x3f824ea8	1.0180254
88	0x3f7f9c6a	0.99848044
89	0x3f7ed223	0.99539393
90	0x3f80ed2c	1.0072379
91	0x3f7eee94	0.9958279
92	0x3f811992	1.0085928
93	0x3f7fa8f4	0.99867177
94	0x3f80c32a	1.0059559
95	0x3f809b89	1.0047466
96	0x3f81a489	1.0128337
97	0x3f80804a	1.0039151
98	0x3f827417	1.0191678
99	0x3f81e737	1.0148686
100	0x3f81c7a5	1.0139052
101	0x3f81c358	1.0137739
102	0x3f7f94af	0.9983625
103	0x3f82a472	1.0206435
104	0x3f81b8a9	1.0134479
105	0x3f832cb1	1.0248014
106	0x3f816aed	1.0110756
107	0x3f81921f	1.0122718
108	0x3f809484	1.0045323
109	0x3f83934d	1.0279328
110	0x3f822f3b	1.0170664
111	0x3f808120	1.0039406
112	0x3f805a56	1.0027568
113	0x3f8201dc	1.0156817
114	0x3f7f3b7b	0.99700135
115	0x3f7f6d52	0.99776185
116	0x3f80e145	1.0068747
117	0x3f808ef2	1.0043623
118	0x3f810524	1.0079694
119	0x3f822539	1.016761
120	0x3f80a62b	1.005071
121	0x3f815ebc	1.0107036
122	0x3f80bddd	1.0057942
123	0x3f827cd5	1.0194346
124	0x3f81b4f0	1.0133343
125	0x3f8199ad	1.0125023
126	0x3f80be92	1.0058157
127	0x3f809204	1.004456

conv_blocks.12.bias f4 [128]
0	0x3c8a07bd	0.016849393
1	0x3c3efa0d	0.011656296
2	0x3bfd1dc1	0.007724494
3	0xba7f7376	-0.0009744683
4	0xbb1dbad8	-0.0024067666
5	0xba414369	-0.00073724106
6	0x3c41bf72	0.011825429
7	0xbb58162b	-0.0032972198
8	0x3c068d7d	0.008212444
9	0x3cbf76d6	0.023372095
10	0x3b2d52da	0.0026447088
11	0x3c962926	0.018330168
12	0xbc16214f	-0.009163215
13	0xbb0196cc	-0.001977372
14	0x3b817ed1	0.0039518853
15	0x3c1de1ce	0.009636356
16	0x3c1eab3c	0.00968438
17	0x3b309e9a	0.0026950003
18	0x3b12cff8	0.002240179
19	0x3b0288e0	0.001991801
20	0x3c181245	0.0092817
21	0x3c03c1f3	0.008041847
22	0x3c294fd9	0.010333979
23	0x3a742788	0.0009313752
24	0xbb9b4103	-0.0047379746
25	0x3cb8282b	0.022480091
26	0x3c4eb3b3	0.012616086
27	0x3bf86e14	0.0075814817
28	0xbb154b57	-0.0022780502
29	0x3b2e6d93	0.0026615604
30	0x3c0d91c4	0.00864071
31	0x3b17eda4	0.0023182416
32	0x3cb87ef6	0.022521477
33	0x3cdecbd2	0.027196798
34	0x3c1db536	0.009625724
35	0x3cadd3d4	0.021219172
36	0x3b8bbfe6	0.0042648194
37	0x3b85682a	0.004071255
38	0x3c8b6d44	0.017019875
39	0x3cbf0ac4	0.023320563
40	0x3b609b5c	0.003427229
41	0x3cb0a382	0.021562342
42	0x3be9a3a8	0.007130105
43	0xbc7b6058	-0.015342794
44	0x3c561e72	0.013068782
45	0x3bc8f5de	0.0061328253
46	0x3bbc2c1f	0.0057425643
47	0x3b2b2824	0.0026116455
48	0x3c58e9b8	0.013239317
49	0x3c54c2b1	0.012985871
50	0x3c3488be	0.01101893
51	0xbc313290	-0.010815278
52	0x3ccb6b1f	0.024831353
53	0x3b66613b	0.0035153169
54	0xbbb5746d	-0.0055375607
55	0x3cb863a0	0.022508442
56	0xba0a46b7	-0.00052748196
57	0x3c8606d9	0.016360687
58	0xbb87b8c5	-0.0041418993
59	0xbc460d3c	-0.012088116
60	0x3c78691a	0.015161777
61	0x3ca7b33e	0.020471212
62	0xbc0d2b69	-0.008616307
63	0xbc219759	-0.009862744
64	0x3c365ef2	0.011131035
65	0xbc414428	-0.011796035
66	0xbc3659f3	-0.011129844
67	0xbb4c6345	-0.00311871
68	0xbb6a9b6d	-0.0035798207
69	0x3abf6c36	0.0014604393
70	0x3c965ba5	0.018354246
71	0xbc1a2b97	-0.009409807
72	0x3bf50471	0.007477336
73	0x3c3ae58a	0.011407265
74	0x3cc89cf8	0.024488911
75	0xbb324123	-0.002719947
76	0x3c931197	0.017952723
77	0x3bd86e57	0.0066049504
78	0xbc992636	-0.018694978
79	0x3c321dc8	0.010871358
80	0xbbc985d2	-0.006149986
81	0x399754e5	0.00028864216
82	0x3c146096	0.009056231
83	0x3c14b2d7	0.009075842
84	0x3c0ba5d7	0.008523426
85	0xbb9d6c1a	-0.0048041465
86	0x3be0dbc4	0.0068621356
87	0x3cbdee40	0.023184896
88	0x3c861e3c	0.016371839
89	0xbaeed32b	-0.0018220892
90	0x3c9c1d4e	0.019056942
91	0x3b0fcd8f	0.002194259
92	0x3c56c15a	0.013107622
93	0xbadd2177	-0.0016870935
94	0x3c1257f6	0.008932104
95	0xbbce9bb0	-0.0063051805
96	0x3c66c3dc	0.014084782
97	0xbba70504	-0.0050970335
98	0x3cb6910c	0.02228596
99	0x3a0b09ef	0.00053039094
100	0x3bc40abf	0.0059827263
101	0xbb3327d1	-0.0027336965
102	0xbbbbcebe	-0.0057314327
103	0x3c6a82dd	0.014313427
104	0x3be214e5	0.0068994635
105	0x3cac6541	0.021044375
106	0x3c4aaa46	0.012369698
107	0x3c60d1b2	0.01372187
108	0x3c70d9b2	0.01470034
109	0x3bb00824	0.005372064
110	0x3c1c8d8c	0.009555232
111	0x3c734b5f	0.014849513
112	0xbc0de8c8	-0.008661456
113	0xbc46e7cc	-0.012140226
114	0xbc0d6589	-0.008630165
115	0xbb75f3e8	-0.0037529413
116	0x3cc103ce	0.023561385
117	0xbb6501ac	-0.0034943623
118	0xbbf72d25	-0.0075432234
119	0x3b7996b7	0.0038084218
120	0x3c13ad5e	0.009013502
121	0x3ba32a8a	0.0049794363
122	0xbcaf70e0	-0.021416128
123	0xbc1439da	-0.009046996
124	0x3c35e899	0.011102819
125	0x3bd682de	0.0065463623
126	0xbc013e35	-0.0078883665
127	0x3b8293fa	0.0039849253

conv_blocks.12.running_mean f4 [128]
0	0xbf01de85	-0.5073016
1	0x3db54ef7	0.08852952
2	0xbe8e2ea7	-0.27769968
3	0xbd374f88	-0.04475358
4	0x3c89d015	0.016822854
5	0x3dec3684	0.115338355
6	0xbdaabdb8	-0.08336967
7	0xbe0fccdc	-0.14042991
8	0xbed3bd32	-0.41355282
9	0xbeb4132c	-0.35170877
10	0xbe5f0403	-0.21778874
11	0xbea29d62	-0.317607
12	0xbe538dcf	-0.20659564
13	0x3d903601	0.070415504
14	0xbbea4854	-0.0071497355
15	0x3e2b00c4	0.16699511
16	0x3d816179	0.063174196
17	0x3d34fbd0	0.04418546
18	0x3d73dc1c	0.059536085
19	0xbde73d4f	-0.112909906
20	0xbd9560e1	-0.07293869
21	0x3d54a97a	0.051919438
22	0x3e502b7d	0.2032909
23	0xbec12253	-0.377215
24	0xbe6964b1	-0.22792317
25	0xbecdfd7e	-0.40232462
26	0xbe52cc66	-0.20585784
27	0x3d636678	0.055517644
28	0xbe624f06	-0.22100458
29	0xbe224a11	-0.15848567
30	0xbd2f8141	-0.042847876
31	0x3e2dca9c	0.1697182
32	0xbda95770	-0.082686305
33	0xbe6c0308	-0.23048031
34	0xbe87da55	-0.26533762
35	0x3d5b70fd	0.05357455
36	0xbec473ea	-0.38369685
37	0xbe4a7da2	-0.19774488
38	0x3e6b8bbd	0.23002525
39	0xbda84180	-0.08215618
40	0x3e770224	0.2412191
41	0xbc79adf2	-0.015239226
42	0x3d1fb964	0.03899516
43	0xbcf880cc	-0.030334853
44	0x3d00d80f	0.03145605
45	0xbe66cb80	-0.22538567
46	0xba9d929a	-0.001202184
47	0xbca39552	-0.019968662
48	0xbe7af65c	-0.24508041
49	0xbeb7a883	-0.35870752
50	0x3ddeb30c	0.10873994
51	0x3e189e9a	0.14904252
52	0x3e4eae81	0.20183755
53	0xbd869592	-0.06571497
54	0x3d54935b	0.05189834
55	0x3c9dc0aa	0.019256908
56	0xbdaf464b	-0.08558329
57	0x3c8bbe4e	0.017058518
58	0x3c997863	0.018734163
59	0x3cf93d11	0.030424627
60	0xbe957867	-0.29193422
61	0xbdd3f44d	-0.10349331
62	0xbccee855	-0.025257269
63	0x3e08d61c	0.13362926
64	0x3d53fced	0.05175488
65	0x3eaaf445	0.33389488
66	0xbe1f1244	-0.15534312
67	0xbe27a31f	-0.1637082
68	0x3c65ce9c	0.01402631
69	0x3e3e21d5	0.18567593
70	0xbd9e2331	-0.07721556
71	0x3d38b8ab	0.045097988
72	0x3dadd87a	0.08488555
73	0x3cbc574c	0.022990845
74	0xbf2b59e8	-0.6693406
75	0xbd6c0e91	-0.05763108
76	0x3ddad8d7	0.1068589
77	0x3ec7f311	0.39052632
78	0x3bf010e0	0.0073262304
79	0xbd1eaab8	-0.03873703
80	0xbd68fb87	-0.0568805
81	0x3dfe8f35	0.12429658
82	0xbde30215	-0.110843815
83	0xbd0ab39f	-0.033862706
84	0xbde1bdaa	-0.11022504
85	0x3e34ff88	0.17675602
86	0x3d5aa1c7	0.05337694
87	0x3e938a03	0.28816232
88	0xbe6495ee	-0.22322819
89	0x3e908e5b	0.2823361
90	0x3d40b606	0.04704859
91	0x3da0e7fc	0.078567475
92	0x3e1063e5	0.14100607
93	0x3e5000d7	0.2031282
94	0xbd532c4a	-0.05155591
95	0x3e0b3108	0.13592923
96	0x3e8f7fe8	0.28027272
97	0xbe845115	-0.2584311
98	0xbe1e256b	-0.15443961
99	0xbc1f5d3f	-0.009726821
100	0xbaa99f41	-0.0012941138
101	0x3db1c520	0.08680177
102	0x3e4c83fb	0.19972222
103	0xbe87c3f2	-0.26516682
104	0x3d5c2c9a	0.053753473
105	0xbbc2918f	-0.005937762
106	0x3e10a019	0.14123572
107	0x3e01699a	0.1263794
108	0xbd00d517	-0.03145322
109	0x3b7e3793	0.003879045
110	0xbcaaa647	-0.02083124
111	0xbe6f5604	-0.23372656
112	0xbd0e7c00	-0.034786224
113	0xbe723279	-0.23652066
114	0xbce1c52c	-0.02755984
115	0x3e3c489d	0.18387075
116	0xbea3e7cf	-0.32012793
117	0x3d9188ee	0.071061954
118	0xbec05be7	-0.37570116
119	0xbd1a08e7	-0.037606146
120	0xbce96ace	-0.028493311
121	0x3cd4b20d	0.025963807
122	0x3ca53700	0.020167828
123	0xbd8add88	-0.06780535
124	0x3d9294fa	0.07157321
125	0x3d18c907	0.03730109
126	0x3ababa04	0.0014246111
127	0x3d861e5d	0.0654876
