data/gan_output/discriminator_epoch_10.pth (torch, 191742 bytes, 21 tensors)

conv_blocks.0.weight f4 [16, 1, 4]
000000 65 4b 6b 3d 00 4e bc 3d 90 1b 46 bd 0b 22 d4 3e
       0.05744495 0.09194565 -0.04836613 0.41432223
000010 d6 24 fb ba c7 61 5a 3d a7 53 c6 be c9 e3 55 3d
       -0.0019160758 0.053315904 -0.38735697 0.052219186
000020 01 7d 10 3e 8a 05 d3 be aa 9e da 3d fb 10 f0 bc
       0.14110185 -0.41215163 0.10674794 -0.029304972
000030 9a b7 e1 be fc b9 93 3e 07 e0 be 3e 8f 3b e4 be
       -0.4408539 0.28852832 0.37280294 -0.4457669
000040 f0 62 cd be 2c 92 ae 3d 38 05 b0 bd 39 c1 8f 3e
       -0.40114546 0.08523974 -0.085947454 0.28077105
000050 82 6f c1 be d8 f8 8a 3e b1 f8 fc bd 40 65 b9 3e
       -0.37780386 0.27142978 -0.123521216 0.3621006
000060 d8 13 a5 3e 32 84 fe be 63 ca c6 3e 10 6b 6b 3e
       0.32241702 -0.49710232 0.38826284 0.2299006
000070 98 cc 10 bc cd 5b 60 be 1c 0d a0 3e ba 37 f8 be
       -0.008837841 -0.21910019 0.31260002 -0.48480016
000080 00 94 7c be 49 33 b0 be 8e a2 f6 3d d3 9b 77 3e
       -0.24665833 -0.34414127 0.120427236 0.24180536
000090 9a ea ce 3d 3b 2a 34 3e a3 41 e9 3e 5d a7 ef 3d
       0.101033404 0.17594235 0.4555789 0.11701844
0000a0 7a b6 6d 3e 75 30 a5 be 3c 4a f3 be ed 47 a2 be
       0.2321414 -0.32263532 -0.47517574 -0.316955
0000b0 62 1f 4c be 53 59 7a 3d a6 a6 93 be 15 c9 dd bd
       -0.19933847 0.061120342 -0.2883808 -0.10829369
0000c0 3f be 20 be 48 d0 60 3e dc 60 d3 be cc 93 fd be
       -0.15697573 0.21954453 -0.41284835 -0.49526823
0000d0 02 1a c9 3b 09 30 eb bd 3a 38 ab be 27 eb db be
       0.0061371336 -0.11483771 -0.33441335 -0.42952845
0000e0 48 e7 13 be 11 88 43 be b3 24 ed 3c c3 4f 32 be
       -0.14443696 -0.19094874 0.028948164 -0.17413239
0000f0 22 06 72 3e f8 64 56 3e ee 61 a0 be ec cc bb be
       0.23635152 0.20936954 -0.31324714 -0.3667978

conv_blocks.0.bias f4 [16]
000000 8a bc ff be bb 4e 07 be 38 5d 75 be 53 61 76 3e
       -0.4994853 -0.13213627 -0.23961341 0.24060564
000010 5c d0 14 3e 24 df 4a 3d 70 c2 a9 be 91 e0 e9 3e
       0.14532608 0.04952921 -0.33156157 0.45679143
000020 d1 35 70 3e 7d b0 a9 3d bc ee 1d be c7 66 f5 be
       0.2345803 0.082856156 -0.15423101 -0.47929975
000030 7d 32 67 bd ce d2 c0 3d fe e7 ac 3e e7 6b 7d be
       -0.056444634 0.09415208 0.33770746 -0.24748193

conv_blocks.3.weight f4 [32, 16, 4]
000000 7b db 74 bd 85 c9 cd 3d ca 72 ad 3d 5e 5a c3 bd
       -0.059779625 0.100482024 0.0846916 -0.095387205
000010 bf ec de bd 5e 42 36 3d 47 87 bc bd 6a 32 44 3d
       -0.108849995 0.044496886 -0.092054896 0.04789964
000020 83 3a 24 3d ce 25 6a 3d f3 29 6a 3c b1 84 ba bc
       0.040094864 0.05716496 0.014292228 -0.02276835
000030 fc 4f 2c bd 72 10 fc bd 07 f8 fb 3d e2 9d c3 bd
       -0.042068467 -0.12307824 0.12303167 -0.09551598
000040 22 f9 5d bd 8d 94 71 3d 26 ed f2 bd 94 ae 8b 3d
       -0.05419267 0.05897956 -0.11861639 0.068204075
000050 c7 e7 97 bd d6 8f b8 3c 5e db f2 3d c2 13 3a bd
       -0.07417255 0.022529524 0.11858247 -0.045429
000060 d5 17 3b 3b 13 42 87 3d 61 fe bc bc 34 d6 2b 3d
       0.002854814 0.066043995 -0.023070516 0.041952327
000070 25 6d af 3d b5 4c f5 bd ad d8 b9 bd ea 67 92 3d
       0.085657395 -0.11977521 -0.09074531 0.07148726
000080 b8 00 32 bd 79 be 30 bb a4 48 3f 3d 73 af cc bd
       -0.043457717 -0.0026969 0.046700135 -0.09994402
000090 70 52 66 bd 4f bd df 3a 50 d1 27 3b 34 e8 68 bc
       -0.056230962 0.0017069968 0.0025606938 -0.014215518
0000a0 e0 8b 6c bd 39 cb 19 bd f5 f0 01 3d c2 5e 5f 3d
       -0.057750583 -0.037547324 0.031723935 0.054533727
0000b0 8e 44 79 bd 30 dd dd bc 4a 51 25 bd f1 16 2a 3d
       -0.060856394 -0.02708301 -0.040360726 0.041525785
0000c0 6c 71 ad 3d d4 04 fb 3c 73 ea ce 3d 01 68 3a 3d
       0.08468899 0.03064195 0.101033114 0.045509342
0000d0 1c bf bf bd cb 09 3f bd 9c 3b a6 3b 9e 3c 14 bc
       -0.09362623 -0.0466402 0.005073024 -0.009047655
0000e0 c5 48 f5 bd 8c 9e a4 bd 80 90 e9 bd e2 7b 4a 3d
       -0.1197677 -0.08038053 -0.11404514 0.04943455
0000f0 b3 f8 90 bd 67 8d 7c 3d ac 1d 7c bd 6a d8 69 bc
       -0.070786856 0.06165829 -0.061551735 -0.014272789
000100 2f 6f 9c bd b8 3b e4 3d df 99 06 b9 d5 9a ac 3d
       -0.07638394 0.11144203 -0.00012836557 0.08427969
000110 be 95 d0 bd 3f 14 88 bd 97 03 7a bb 3e 18 e8 3c
       -0.10184811 -0.06644487 -0.0038149112 0.028331872
000120 79 85 92 bd 83 55 c4 bd 10 6b e2 3d c2 0d 83 bd
       -0.07154364 -0.095866226 0.11055577 -0.063991085
000130 f8 25 8c bd 9e bf 5e 3d d1 7a 80 bd 4e 35 e4 3d
       -0.068431795 0.05438196 -0.06273425 0.111429796
000140 c3 49 2e 3c 46 7d e8 3d d8 0b b0 3c 9e 2d 77 bd
       0.010637703 0.11352019 0.021490023 -0.06034624
000150 29 6f 6f bd ed 60 3f 3d b3 18 5c 3d 97 18 8b 3d
       -0.05845562 0.046723295 0.053734493 0.067917995
000160 7f 2a 5d bc 0f 1a ab bd 25 d0 06 bc 48 35 c0 bc
       -0.013498901 -0.0835458 -0.008228336 -0.023462906
000170 28 ef 98 bb ae b7 5c 3c 15 c4 50 bc ff 96 76 3d
       -0.0046671815 0.013471527 -0.012742062 0.060202595
000180 64 9f 1a bd bb 7b dc 3d df d6 f8 3c 81 ec 5e bd
       -0.037749663 0.10765787 0.030375896 -0.054424766
000190 41 13 87 bd c6 30 0a 3d 84 7e c7 3d 3b e6 eb bd
       -0.06595469 0.03373792 0.09740928 -0.11518522
0001a0 f4 6c b7 bc ae 94 ca bd 79 06 6d bd 58 66 f1 bd
       -0.02239082 -0.0989164 -0.0578675 -0.11787099
0001b0 54 d1 9d bc 1f 21 69 3d f0 5d c7 3d 4a f2 49 bd
       -0.019264854 0.056916352 0.09734714 -0.04930333
0001c0 02 e9 ef 3d 77 1b 50 bd ad 3e cc 3d 6c ec 80 3d
       0.117143646 -0.050807443 0.09972892 0.06295094
0001d0 67 b4 32 3c 0b dd fd bd 45 0a 24 3d 12 46 89 bd
       0.010907269 -0.12395676 0.040048856 -0.06702818
0001e0 18 fe 84 3d 53 df f9 bd bc 92 42 3d c9 83 8f bd
       0.06493777 -0.12200799 0.047503218 -0.07007558
0001f0 c6 dd d1 3d 79 61 e3 3c 9a 1f 47 bd 65 30 01 3d
       0.10247378 0.02775644 -0.048614122 0.031540293
000200 16 30 ac 3d 03 64 86 3c 3a a2 1e 3d d8 3c f6 3b
       0.08407609 0.016405111 0.03872893 0.0075145774
000210 fd 75 06 ba 44 33 22 3b c2 71 99 3d bd 51 aa bc
       -0.0005129276 0.0024749795 0.07492401 -0.020790929
000220 03 6e 2f bd d2 ad 65 3d 8a 26 3f bc fd a1 c9 bd
       -0.042829525 0.05607397 -0.011666903 -0.0984535
000230 2b 39 89 bd b6 45 91 3d 70 fe 0b 3c 38 0b f4 3d
       -0.06700357 0.070933744 0.008544549 0.11916202
000240 90 42 a6 bd a1 65 bc bd 10 6b e5 bd d1 b9 f9 bd
       -0.081181645 -0.09199072 -0.11202061 -0.12193645
000250 76 7e 3d 3b 3b f7 67 bb 74 05 ee 3d 1f 3c 02 3c
       0.0028914488 -0.0035395164 0.11622134 0.007948904
000260 1b 3f 93 bd 5c 9f e6 bd 50 05 d6 3d 7b 70 b9 3d
       -0.07189771 -0.11260864 0.10450232 0.09054657
000270 72 de 9c bd bd e8 97 bd 60 73 b3 3d a7 9f 6b 3d
       -0.076596156 -0.07417438 0.087622404 0.057525303
000280 8c fc b6 3d 64 8c f7 bd f9 3f ce 3d b3 56 82 bd
       0.08934888 -0.12087324 0.100707956 -0.06364193
000290 be 25 a3 3d 81 18 ce 3d 2c b7 2b 3d 5f 68 ec 3c
       0.07966183 0.100632675 0.041922733 0.028858362
0002a0 c6 e8 d0 3d 76 dc 87 3d b7 97 25 3d 54 e3 ca bc
       0.10200648 0.066338465 0.04042789 -0.024766602
0002b0 f9 51 99 bd 4e 86 a0 bd 44 a1 b0 3c 77 1e 4f 3c
       -0.07486338 -0.078381166 0.021561272 0.012641541
0002c0 18 f9 f5 bd c0 9e cb bd b5 54 b1 3c 3b cb 86 ba
       -0.120104015 -0.099423885 0.021646837 -0.0010283956
0002d0 80 db 88 3d a9 d5 7f 3d c5 5e cb bd 94 5c a5 3d
       0.06682491 0.06245962 -0.09930185 0.080742985
0002e0 e2 f4 d1 bb 50 f2 ed 3c cf b5 18 3d a0 0f 50 bd
       -0.006407366 0.029046208 0.03728276 -0.05079615
0002f0 25 68 f5 3d 2b f3 6e bd 64 74 8c 3d 55 00 9e bd
       0.119827546 -0.05833737 0.06858137 -0.07714907
000300 56 09 60 bd 20 76 cc 3d 21 90 cb bd da 43 c8 3d
       -0.054696403 0.09983468 -0.099396 0.09778567
000310 10 8c a3 bd 7c 10 2a 3b 8b c2 64 3d b0 28 10 bd
       -0.07985699 0.0025949767 0.055849593 -0.035195053
000320 9a 3e 9f bd ba 78 92 bd 58 a1 88 3c 3e 9e ca 3c
       -0.07775612 -0.07151933 0.016678497 0.024733659
000330 7f f2 b2 3d 51 5e 5b bd 81 76 96 bd 35 fa 83 3d
       0.08737659 -0.053556744 -0.073468216 0.064442076
000340 36 60 4e 3c c9 d4 12 3c 6b a8 b0 3d e1 de 9a 3c
       0.012596181 0.008961865 0.08625873 0.018905105
000350 8d 18 9e bd a5 e8 fe 3d 38 43 be bc dc 93 3b 3c
       -0.077195264 0.12446717 -0.023225412 0.011448827
000360 d7 55 de 3d 2d ae b2 bd fb a6 a8 bd 05 01 f5 bd
       0.108562164 -0.08724628 -0.08234974 -0.11963085
000370 33 f8 f9 3d fd 6f 91 3d 82 e1 bf 3d d0 19 a3 3d
       0.12205543 0.07101438 0.09369184 0.07963908
000380 4c f1 9f bd 77 15 5b bc b8 0e aa 3c 28 75 48 3d
       -0.078096956 -0.013371817 0.020758972 0.048939854
000390 a2 7c 3e bc 06 72 4e bd cd 2b dc 3d 54 bf 99 bd
       -0.011626394 -0.05040171 0.10750542 -0.07507196
0003a0 d0 00 a4 bd c2 11 e5 bd fd 73 b3 3d e8 ee 3b bd
       -0.080079675 -0.11185028 0.087623574 -0.045882136
0003b0 cd de d5 3d ba 6b f0 3d 3c cc f8 3d 09 3f b7 bd
       0.104428865 0.11739297 0.121483296 -0.0894757
0003c0 49 51 b5 bd 96 30 b5 bc ec 30 83 bc d5 92 b7 bd
       -0.088533945 -0.022117894 -0.016014539 -0.08963553
0003d0 23 7c c2 3d 0f 19 ba bd a2 21 87 bd c7 43 c5 bc
       0.094963335 -0.09086811 -0.06598212 -0.02408017
0003e0 10 78 ed bd 05 7a 59 bc 35 f4 e2 3c f0 72 69 bc
       -0.11595166 -0.013273721 0.027704338 -0.014248595
0003f0 57 92 c9 bd 82 19 89 3d df 92 c8 bd 5e a1 e1 3c
       -0.09842365 0.06694318 -0.097936384 0.027542766

conv_blocks.3.bias f4 [32]
000000 9b 93 5f bd cc e4 1b bd 2b 82 10 3d f9 60 91 bc
       -0.054584127 -0.038059995 0.035280388 -0.017746435
000010 fe 3f ba bd 9f 3d c8 bc 4d b1 a4 3c a2 69 1c bc
       -0.09094237 -0.024443446 0.020104075 -0.009546669
000020 91 6a 87 3c a3 43 dd 3d 6a 94 5b 3b d9 e2 96 bb
       0.016530307 0.10803916 0.003350521 -0.004604679
000030 f7 c3 13 3c 01 f9 16 3d ba e1 5a 3d 2b 61 40 3d
       0.00901889 0.036858562 0.053437926 0.046967667
000040 7c b4 a2 bd e9 38 a6 3d d4 96 76 bd 5f 69 23 3d
       -0.07944581 0.081163235 -0.060202435 0.03989541
000050 92 75 45 3d e5 5e d1 3c 23 06 4f 3d 4b 3c 31 3d
       0.048207827 0.025557945 0.05054296 0.04327039
000060 3d 4f f1 bd d5 9a 99 3d 9c 50 b4 3b 07 1d e3 3d
       -0.11782692 0.07500235 0.0055027734 0.11089521
000070 cb 40 67 bd bf fb 50 bb 8c 21 55 3d ca 74 75 bd
       -0.056458276 -0.0031888334 0.052033946 -0.05992583

conv_blocks.4.weight f4 [32]
000000 b5 e9 7f 3f 7c 11 80 3f 03 09 80 3f 17 08 80 3f
       0.99965984 1.0005336 1.000275 1.0002469
000010 36 07 80 3f 79 12 80 3f ae 12 80 3f fb 1e 80 3f
       1.0002201 1.0005637 1.00057 1.0009454
000020 19 d6 7f 3f 75 e4 7f 3f 65 12 80 3f f7 f8 7f 3f
       0.9993606 0.9995797 1.0005614 0.99989265
000030 73 12 80 3f 2b 04 80 3f 6a f1 7f 3f 72 05 80 3f
       1.000563 1.0001272 0.99977744 1.0001662
000040 10 f8 7f 3f 7c 06 80 3f 47 e5 7f 3f 9e d9 7f 3f
       0.9998789 1.0001979 0.99959224 0.9994143
000050 83 d0 7f 3f 22 d0 7f 3f 37 e7 7f 3f a0 02 80 3f
       0.9992754 0.9992696 0.9996218 1.0000801
000060 f0 eb 7f 3f fc 04 80 3f 34 00 80 3f ba f2 7f 3f
       0.9996939 1.0001521 1.0000062 0.99979746
000070 9d f7 7f 3f b9 dd 7f 3f 81 cd 7f 3f 9d 15 80 3f
       0.999872 0.99947697 0.9992295 1.0006596

conv_blocks.4.bias f4 [32]
000000 fb 8f d7 b9 19 9f b3 39 8b 93 da 38 85 f2 06 3a
       -0.0004111527 0.00034260078 0.00010422532 0.00051478326
000010 32 3f a3 39 a1 f9 4b 3a d7 bf 34 3a f5 7d 28 3a
       0.00031136867 0.0007781033 0.00068950414 0.00064274605
000020 98 7d 97 b9 68 ea 09 b9 de e3 41 3a 08 79 28 37
       -0.0002889454 -0.00013152661 0.00073963206 1.004176e-05
000030 ea bf e1 38 ae e5 a3 37 43 42 a6 b8 93 2b 11 3a
       0.00010764583 1.9538067e-05 -7.927839e-05 0.0005537804
000040 a6 fb 3a ba d1 a1 ce 39 c4 23 79 b9 5c aa 11 ba
       -0.00071328355 0.00039411944 -0.00023759814 -0.00055566966
000050 cd dd 17 ba 58 fc 71 b9 42 9d 0d 39 87 0f eb 39
       -0.0005793244 -0.00023077556 0.00013505391 0.00044834262
000060 48 48 c6 38 bc 14 12 38 f9 2c ae 39 00 26 2d 39
       9.454839e-05 3.4828423e-05 0.00033221373 0.00016512722
000070 20 26 2f 39 16 06 b5 b9 c4 06 6d b7 ae f9 07 3a
       0.00016703503 -0.00034527545 -1.4127876e-05 0.00051870465

conv_blocks.4.running_mean f4 [32]
000000 4c 9c 7f be 3c 00 05 bd 07 be 70 3d 66 eb 96 3d
       -0.24961966 -0.032470927 0.058774974 0.073691174
000010 46 fb 0d 3e 62 2a ef bb d3 07 39 be fa 9e f8 3c
       0.13865384 -0.0072987536 -0.18069391 0.030349243
000020 dc 5d 46 3e 82 2c 7a 3e 90 03 1e be 83 df 00 3e
       0.19371742 0.24431041 -0.15431046 0.12585263
000030 c2 1a ae 3d 66 3e f7 bd d1 de ae bd 38 6d 2d be
       0.085011974 -0.120724484 -0.085385926 -0.16936195
000040 ee 0c 02 3e 44 8f b5 3d 9b 71 9b bb 9a cf 82 3d
       0.12700245 0.088652164 -0.0047437674 0.06387253
000050 eb b9 42 3e 1a c9 23 be 5a bc 8a bd c7 76 fa 3d
       0.19016235 -0.15994683 -0.067742065 0.12229686
000060 b9 c5 4d be ba 7e 78 3d 57 09 42 3e 74 f9 51 bd
       -0.20094956 0.06066773 0.18948875 -0.051263288
000070 c1 2b b2 3d c4 a6 33 3e c3 96 43 3c 78 06 74 3c
       0.08699752 0.17544085 0.0119378 0.01489412

conv_blocks.4.running_var f4 [32]
000000 40 d4 a7 3d 44 83 95 3d 63 9d 96 3d a0 69 8d 3d
       0.0819478 0.073004276 0.07354238 0.06904912
000010 a2 e3 8d 3d c0 8d cb 3d f6 a1 e5 3d b2 85 96 3d
       0.06928183 0.09939146 0.11212532 0.07349719
000020 61 27 93 3d 42 d3 f6 3d 20 2d cd 3d 5d b2 8e 3d
       0.07185245 0.12052013 0.100183725 0.06967614
000030 8f 0b 88 3d 6e fc e7 3d 01 ff 89 3d 29 ed 85 3d
       0.066428296 0.11327444 0.06738091 0.06539375
000040 bf ef 8b 3d 28 80 89 3d 80 89 97 3d ae 92 8c 3d
       0.06832837 0.06713897 0.07399273 0.068639144
000050 01 46 8d 3d d1 e5 db 3d c1 ea 9f 3d 30 3c 8a 3d
       0.06898118 0.107371934 0.07808448 0.06749761
000060 48 4d 8b 3d 0b aa 89 3d 6a eb 97 3d 0d ff f4 3d
       0.068018496 0.06721886 0.074179485 0.119627096
000070 18 e3 a2 3d b0 f7 93 3d 40 37 a7 3d 48 ef 85 3d
       0.07953471 0.07224977 0.08164835 0.0653978

conv_blocks.7.weight f4 [64, 32, 4]
000000 74 bd e6 3b 0d 66 77 3c 2f 50 c5 bb 25 9e 65 3d
       0.0070416275 0.015100014 -0.0060215215 0.05605902
000010 32 6f 31 3d d6 56 b9 bc 4a 3f 60 3d 24 5c 9e 3c
       0.043318935 -0.022624414 0.054747857 0.019331045
000020 af 37 4e bd 19 4c 4b bd 2c e4 84 3d 45 7f 81 3d
       -0.050346073 -0.04963312 0.06488833 0.06323103
000030 d2 1c 0c bd a7 ff 6c 3d d8 15 b2 3d 5c dc 7a bd
       -0.034207173 0.057860997 0.086955726 -0.061245307
000040 da 26 82 bc e2 5f 2b 3d 6f dc c4 ba ce c7 87 3d
       -0.015887666 0.041839488 -0.0015019308 0.066299066
000050 8f 98 90 bd 73 4a 79 bd b4 98 43 3d 65 88 83 3c
       -0.07060348 -0.060862016 0.04775305 0.016056249
000060 a6 19 52 bc d5 5b 80 3d 2f df 55 3d f7 01 66 bd
       -0.012823498 0.062675156 0.052214798 -0.056154218
000070 a3 ba 83 bd 45 cd 90 3d 05 a3 a8 bc e0 4b 4c 3d
       -0.064320825 0.07070402 -0.020585546 0.049877048
000080 fa 46 91 3c 67 f9 8f 3d ec 21 b3 3d 78 56 93 3d
       0.01773404 0.070299916 0.087467045 0.07194227
000090 08 ed 4b bd 52 6c 10 bd a1 f1 0b 3c eb 81 94 3d
       -0.049786597 -0.035259552 0.008541496 0.072513424
0000a0 a4 e3 9c bb ea 37 89 3d ab a1 87 3d a8 13 e0 3c
       -0.004787879 0.06700118 0.066226326 0.027353123
0000b0 a8 9a 14 3d 79 88 c7 bc 01 ee 19 bd c7 b5 ec 3c
       0.036280304 -0.024357067 -0.037580494 0.028895272
0000c0 5a 30 78 3c 1b ac f8 ba 71 20 e3 3c 00 a8 74 bd
       0.015148247 -0.001897219 0.02772543 -0.05973053
0000d0 15 19 12 3d 17 48 8b bd 34 c3 97 3c 3c 9b 84 3a
       0.03566845 -0.068008594 0.018525697 0.0010117064
0000e0 35 8e 3e bd 1b 02 16 bd ac be c5 bc d3 0e 70 bd
       -0.046522338 -0.0366231 -0.024138771 -0.058607887
0000f0 bb eb 09 bd 50 5a 62 bd e9 a7 08 bd 5c 5b 34 bd
       -0.033672076 -0.05526191 -0.033363257 -0.04403244
000100 58 ac 51 bc 9f 87 27 3c c5 d3 a8 3d 84 60 3a 3d
       -0.012797438 0.010225206 0.08243517 0.0455022
000110 88 f7 c6 bc 61 ef f0 bb db f8 97 3d 68 40 db 3b
       -0.024287954 -0.007352755 0.07420512 0.0066910274
000120 cb a9 ea 3c 53 2f 1b 3d cd 20 00 bd 78 b0 4f bd
       0.028645417 0.03788693 -0.03128128 -0.050705403
000130 37 0f 1f bd 06 83 c3 3b ff 91 53 3d 51 ed 74 3d
       -0.03883287 0.005966547 0.051652905 0.059796635
000140 e4 89 6e bd ee b7 e1 3c 3d 13 17 3d f9 1b 3c bc
       -0.05823697 0.027553525 0.03688358 -0.011481279
000150 e2 3d 96 bd c8 6b 5c bb 8a f8 f6 3c 6d e8 39 bd
       -0.07336022 -0.0033633579 0.03014781 -0.045387674
000160 b7 c6 89 bd 2c 6a 4d 3d ab d0 a5 3d 09 c6 70 3c
       -0.06727355 0.05015008 0.08096441 0.014695653
000170 8a a6 ae 3d a4 5a 34 bd ea df 84 3d ed 8a 20 3c
       0.085278586 -0.044031754 0.06488021 0.0097987475
000180 50 46 82 3d b8 bd 86 bc 69 ec 2e 3d 9b 68 38 bd
       0.06361067 -0.016447887 0.042705927 -0.045021635
000190 df 8f 8f 3d 48 de a0 3d ac d5 96 3d 08 09 67 3d
       0.07009863 0.07854897 0.073649734 0.056405097
0001a0 27 22 5e 3d a6 d8 9b 3b 0f 03 7c bc e8 f0 a1 3d
       0.05423179 0.004756051 -0.015381589 0.07907277
0001b0 ae 43 ab bd 71 f6 90 bd c4 d1 25 3c 1e f9 44 bd
       -0.08362518 -0.07078255 0.010120813 -0.04808914
0001c0 04 3a d8 3c cb 9c 96 3d e8 f3 3c bd ab b3 34 3d
       0.026394852 0.07354125 -0.046131045 0.044116657
0001d0 73 b1 48 bd 4d d7 ab bc 80 3b 5f bd fc 26 68 3d
       -0.048997354 -0.020976687 -0.054500103 0.056677803
0001e0 cb 59 1f bd ab 7b 59 3d 30 cb 70 3c 86 73 6f bd
       -0.038903993 0.053096455 0.014696881 -0.05845978
0001f0 af 06 9f 3d a9 d4 bc ba ed 42 a3 bd e8 2a 7a bd
       0.07764947 -0.0014406639 -0.079717495 -0.061076075
000200 56 7e 1c 3d 27 79 bb bc e0 ad 05 3d b8 97 1f 3d
       0.03820642 -0.022884918 0.032636523 0.03896305
000210 13 0d db 3b ea 5c ec 3b 96 cf 98 bc 55 8a 5d 3d
       0.006684908 0.0072132247 -0.018653672 0.054087
000220 57 c7 6b 3c f8 58 b3 3d 9d af 1e bd db 39 b3 bd
       0.014390788 0.08757204 -0.038741697 -0.087512694
000230 cc 80 1e 3d e3 4e 88 bd 8f df 43 3c 23 ed 37 3d
       0.03869705 -0.066556714 0.011955156 0.044903886
000240 6a ba b1 bd 7b bb 86 3d 27 8c a8 3d 48 d6 87 3d
       -0.08678134 0.06578728 0.08229857 0.06632668
000250 a4 9e fc 3c 40 a5 81 bd ca b1 99 3d 21 23 4c 3d
       0.030837364 -0.06330347 0.07504614 0.04983819
000260 a7 cf 90 3c e3 ee 1a bd 12 78 82 bd 42 79 8f bd
       0.017677141 -0.037825476 -0.06370558 -0.0700555
000270 19 ab 9a 3d e2 b1 69 3d bf bb f4 bc 6e 2a f1 bc
       0.075521655 0.057054408 -0.02987468 -0.029439177
000280 60 d8 81 bd c2 30 a4 bd 4d 86 ef 3b ab d2 63 bd
       -0.063400984 -0.08017112 0.007309711 -0.05562083
000290 5c df 85 3d 69 c3 a1 bc 83 e2 6c bd 4a 4c 84 bd
       0.06536743 -0.0197465 -0.057833206 -0.064598635
0002a0 d1 3d b4 bd e6 51 0a bc 39 fb 9a bc d3 ec 53 3d
       -0.08800853 -0.008442378 -0.01891862 0.051739525
0002b0 20 6f f3 3b 1f 47 4a bc 0a a2 03 3c 98 d8 7c bc
       0.0074290186 -0.012346058 0.008034239 -0.015432499
0002c0 8b 4d 56 3c d4 76 66 3d 29 c0 83 3d 80 8b 33 3d
       0.013080011 0.056265667 0.06433136 0.04383421
0002d0 c0 65 94 bb 72 b3 12 3d e4 bf a7 bd ff 9a 88 bd
       -0.004528731 0.035815664 -0.08190897 -0.06670188
0002e0 59 a0 9c 3d bc 3d a6 3d d7 2a a1 3d 4f 7e 9b bd
       0.076477714 0.08117244 0.07869499 -0.07592451
0002f0 82 44 a4 3d 94 68 89 bb 84 7a c0 3c c5 60 05 3d
       0.08020879 -0.004193375 0.02349592 0.03256299
000300 7d af 05 3d 10 0e c2 3a e7 44 c8 bb 9f 40 01 bb
       0.03263806 0.0014805216 -0.0061117294 -0.0019722355
000310 69 7c 38 3d 1d 69 e3 3c f9 38 6e 3d f6 e1 c0 bc
       0.04504052 0.027760083 0.058159802 -0.023545247
000320 9f 4c db 3c b3 f0 8e 3d 12 7a 9f bd 1f cd 6e bd
       0.026769934 0.069795035 -0.07786955 -0.058301087
000330 62 2d 6c bd 21 bd ff 3c 23 f6 26 3d 0e 2b 22 3d
       -0.057660468 0.031218113 0.040762078 0.03959184
000340 c6 94 09 3d 94 81 a4 bc b0 b2 9b 3d 45 f2 81 bd
       0.033589147 -0.020081319 0.07602441 -0.06345037
000350 ac c7 91 3d ed aa 92 3d 02 11 65 bc dc ab 8c 3c
       0.071181625 0.07161508 -0.013981106 0.017171793
000360 0b 24 90 bc 19 13 30 3c 77 42 7e 3d 5f ca 61 3c
       -0.017595312 0.010746741 0.062075105 0.013781159
000370 8b 65 86 bd 59 e9 56 bd 97 80 3c 3d 21 33 aa bb
       -0.065623365 -0.05246863 0.04602107 -0.0051940833
000380 05 21 cd 3b 77 b8 a2 bd b3 3f ae 3d bf 40 81 3d
       0.0062600398 -0.0794534 0.085082434 0.063111775
000390 e8 05 ad bd 53 7f ab 3d 48 56 56 3d 28 29 d5 3c
       -0.08448392 0.083738945 0.052328378 0.026020601
0003a0 89 c1 5f 3d 62 47 50 bd 6f 23 08 bd 8b b2 94 3d
       0.05462793 -0.050849326 -0.033236917 0.07260617
0003b0 41 1b 0f 3c 22 d7 31 3c a4 ac 9a 3d c4 a4 67 3c
       0.008734525 0.010854514 0.0755246 0.014138404
0003c0 66 34 2c bd e9 47 cc 3c 72 0b 74 3d 49 1b b5 3d
       -0.04204216 0.024936633 0.059581228 0.08843095
0003d0 7b 43 49 3d 72 07 ad bd c1 fb 22 bd 47 87 1f 3b
       0.04913662 -0.08448686 -0.039790872 0.0024342106
0003e0 01 83 ce bc 81 51 80 3c c4 28 c8 bc 84 85 d9 bc
       -0.025208952 0.015663864 -0.024433501 -0.026552923
0003f0 b6 b9 97 bd ae ec a4 3d 2f 5b 4c bc dc 9b 99 3d
       -0.074084684 0.080529556 -0.012472912 0.07500431

conv_blocks.7.bias f4 [64]
000000 8a 26 8c 3c 70 38 73 bd 9e 5b 98 ba 51 eb f7 bc
       0.01710822 -0.059379995 -0.0011623984 -0.030263575
000010 dc 38 3c bd 2c e5 8e bc 27 37 5b bd 33 cd c5 3b
       -0.045952663 -0.017443262 -0.053519394 0.0060364245
000020 ed 90 cf 3c bb 1a 5c bd c0 11 9a 3d 73 f9 83 bc
       0.02533766 -0.05373643 0.07522917 -0.016110158
000030 2f c2 32 bd 39 47 52 bb 69 b3 76 3d e1 75 1b bd
       -0.04364222 -0.003208591 0.060229693 -0.037954215
000040 9b 93 1e bd eb 2a c7 3b d4 c6 ac 3d 5f 88 b2 bd
       -0.038714986 0.0060781143 0.08436361 -0.08717417
000050 e8 26 87 bd 01 8c 93 bc 5f 16 24 bd af 3e 47 bd
       -0.06599218 -0.018011095 -0.040060397 -0.048643764
000060 df 86 b4 3c 83 08 5b bd f5 8f a7 bd 86 97 72 3d
       0.022036968 -0.053474914 -0.081817545 0.059226535
000070 f0 b8 48 3d d9 78 8e 3d ed 02 ae bd 53 53 f7 bc
       0.049004495 0.069566436 -0.08496652 -0.0301911
000080 f9 42 98 3d 19 e4 a1 bc a5 e9 a3 3d 7f 75 2a bd
       0.07434649 -0.019762086 0.080035485 -0.04161596
000090 5e 19 2b 3d f2 97 74 3d 10 04 f0 bc 29 2a 43 bd
       0.04177224 0.05971522 -0.029298812 -0.04764763
0000a0 9a 59 b0 3d 9b 2c 5c bd 3a 1f 2b bd 22 f4 ad bd
       0.0861084 -0.053753477 -0.041777827 -0.0849383
0000b0 ee fb 2f bd 60 6a 43 bd 28 cd 9a bd be c9 4b 3d
       -0.04296487 -0.04770887 -0.07558662 0.049752943
0000c0 24 86 7a bd 91 34 36 bd 9d 75 9d 3c 44 73 1e bd
       -0.061163083 -0.044483725 0.019221121 -0.038684145
0000d0 2d 8b a3 3c 31 a8 97 3d a5 09 41 bd 00 81 1b bc
       0.019963825 0.07405127 -0.04712834 -0.009491205
0000e0 ab b4 8b bc 3a 92 86 bd cd 82 0e bd 07 e9 5c 3d
       -0.017053923 -0.06570859 -0.03479271 0.05393317
0000f0 7c e8 b0 3d bd f2 45 bc a2 4b a8 bd 42 7e 9c bd
       0.08638093 -0.012081799 -0.08217551 -0.07641269

conv_blocks.8.weight f4 [64]
000000 7d 05 80 3f 1c 10 80 3f 04 dc 7f 3f 0e fc 7f 3f
       1.0001675 1.0004916 0.9994509 0.9999398
000010 fa 13 80 3f 42 ea 7f 3f 94 04 80 3f 9f d9 7f 3f
       1.0006096 0.99966824 1.0001397 0.9994144
000020 f9 c5 7f 3f 94 18 80 3f 66 15 80 3f 99 f8 7f 3f
       0.9991146 1.0007501 1.000653 0.99988705
000030 d1 14 80 3f 84 e2 7f 3f 37 04 80 3f 67 18 80 3f
       1.0006353 0.9995501 1.0001286 1.0007447
000040 fd f4 7f 3f 06 12 80 3f 02 ef 7f 3f be ce 7f 3f
       0.999832 1.00055 0.9997407 0.9992484
000050 d8 0f 80 3f b4 13 80 3f 1f 0b 80 3f 24 cd 7f 3f
       1.0004835 1.0006013 1.0003394 0.99922395
000060 5a 11 80 3f b7 ed 7f 3f 3f 03 80 3f 19 e5 7f 3f
       1.0005295 0.999721 1.0000991 0.9995895
000070 c6 19 80 3f 7d 10 80 3f 03 cd 7f 3f 3d d0 7f 3f
       1.0007865 1.0005032 0.999222 0.9992712
000080 91 03 80 3f c2 ec 7f 3f 69 c5 7f 3f 59 12 80 3f
       1.0001088 0.9997064 0.999106 1.0005599
000090 f1 ca 7f 3f 49 ce 7f 3f 8d ef 7f 3f 88 d2 7f 3f
       0.9991904 0.9992414 0.999749 0.9993062
0000a0 6c 17 80 3f 7e dd 7f 3f 00 dc 7f 3f 9c 16 80 3f
       1.0007148 0.99947345 0.9994507 1.00069
0000b0 f8 0f 80 3f 50 15 80 3f 62 ce 7f 3f b7 00 80 3f
       1.0004873 1.0006504 0.9992429 1.0000218
0000c0 d4 c1 7f 3f c4 07 80 3f aa 07 80 3f 62 17 80 3f
       0.99905133 1.000237 1.0002339 1.0007136
0000d0 ff ce 7f 3f 92 1f 80 3f b4 ea 7f 3f 37 21 80 3f
       0.99925226 1.0009634 0.99967504 1.0010136
0000e0 2a e5 7f 3f fd f7 7f 3f e4 0a 80 3f 0a e1 7f 3f
       0.9995905 0.99987775 1.0003324 0.9995276
0000f0 86 16 80 3f f0 e8 7f 3f ee eb 7f 3f da da 7f 3f
       1.0006874 0.9996481 0.99969375 0.99943316

conv_blocks.8.bias f4 [64]
000000 99 61 8e 39 85 d9 be 39 aa 65 04 b9 72 18 8c 39
       0.00027157067 0.0003640169 -0.00012626374 0.00026721094
000010 01 71 3c 3a ff 65 ba b9 a8 f9 ed 39 cd 95 35 b9
       0.000718847 -0.00035552678 0.0004539017 -0.0001731731
000020 7a 92 12 3a 80 d8 6c 35 70 f9 de 39 ba 62 ff 38
       0.0005591285 8.82319e-07 0.00042528985 0.00012177737
000030 fa af 40 b9 90 69 08 3a da 58 3d 37 e2 6c 4c 3a
       -0.00018376103 0.00052037183 1.1285965e-05 0.0007798207
000040 02 7c 91 38 d2 83 98 39 ce 77 5b 39 78 22 0b ba
       6.937237e-05 0.00029089913 0.00020930098 -0.00053075654
000050 30 96 0c 3a e3 8e 61 39 c9 11 9f 39 04 74 48 ba
       0.0005362956 0.00021510902 0.00030340094 -0.0007646682
000060 2c a7 55 3a 9d d5 77 39 f6 bc c0 38 cc df a5 b9
       0.0008150216 0.00023635333 9.19047e-05 -0.00031637994
000070 f5 d9 33 3a 3f d5 e0 b9 85 1e 17 37 06 c4 86 39
       0.0006860786 -0.0004288349 9.007407e-06 0.0002570452
000080 67 2e 18 ba d4 8b af b9 93 9e 07 ba 18 e2 b7 39
       -0.00058052543 -0.0003348278 -0.00051734707 0.00035072933
000090 e9 88 b4 b8 20 dc 6a 37 d9 09 17 b9 70 f6 7b 38
       -8.60857e-05 1.3998739e-05 -0.0001440415 6.0072576e-05
0000a0 ae b0 0d 3a c4 6a d6 b9 9a 95 75 b9 68 85 87 37
       0.00054050505 -0.00040896807 -0.00023420752 1.6155376e-05
0000b0 24 5c 4d 39 02 b1 04 3a 2a a4 9d b9 98 78 a1 b9
       0.00019584649 0.00050617766 -0.00030067685 -0.00030798162
0000c0 91 01 8c b7 4d 96 b5 b8 69 5e 4e 39 28 09 2f 3a
       -1.669003e-05 -8.658748e-05 0.00019680861 0.00066770846
0000d0 44 8a d1 b9 46 18 b3 39 04 2d b3 b9 ea 93 23 39
       -0.00039966602 0.00034159626 -0.0003417508 0.00015599994
0000e0 48 b9 d2 b9 65 87 36 b9 41 b3 5f 3a e2 f7 04 ba
       -0.00040192367 -0.00017407311 0.0008533486 -0.0005072338
0000f0 e1 48 a3 39 74 4a 19 38 9f cc 0b ba fb 3e 21 ba
       0.00031144082 3.6547382e-05 -0.000533292 -0.00061510474

conv_blocks.8.running_mean f4 [64]
000000 26 27 92 3e bd a2 5b 3e ab c1 09 3e fd 2e 21 3e
       0.28545493 0.21448798 0.13452785 0.15740581
000010 5b a2 34 bb 5d 59 0f bd d6 a3 f3 3c b1 44 40 be
       -0.0027562592 -0.034997333 0.029741209 -0.18776204
000020 c6 cb ac bd f4 f2 7c be 0a f7 8e bd 49 b0 f5 3d
       -0.08437304 -0.24702054 -0.06980713 0.11996514
000030 fa d3 d8 bd c4 48 07 bd 26 70 62 3e 7d 0c be bd
       -0.10587306 -0.03302838 0.22113094 -0.09279726
000040 c0 dc a0 3e eb 53 ab 3d 6d 22 55 bd 97 34 73 3e
       0.3141842 0.083656155 -0.052034784 0.2375053
000050 8c f5 bc be 3e fe 63 3d 2d 19 09 be d8 c8 89 bd
       -0.36906087 0.055662386 -0.1338851 -0.06727761
000060 88 76 0e bd 02 b1 42 be 4a d6 28 be 61 40 f4 3e
       -0.03478101 -0.19012836 -0.16487995 0.47705367
000070 68 48 f7 3c 47 2f 48 be f5 02 92 be 28 8e 3b bd
       0.030185893 -0.19549285 -0.2851788 -0.045789868
000080 26 16 50 3e 98 c7 e3 3d 4e 00 69 3e ca 7b c1 3d
       0.20320949 0.11122054 0.22754022 0.09447439
000090 e3 76 7f 3e b0 c5 59 3d e2 c8 52 bd 35 fb 0b 3d
       0.24947695 0.053167045 -0.051461108 0.034175117
0000a0 58 84 34 be 69 a0 90 3e 57 69 21 bd b3 df 1e bd
       -0.1762861 0.28247383 -0.0394071 -0.038787555
0000b0 0f e0 d7 3d 9b 5c 57 be d4 c4 87 3c 53 31 f6 bd
       0.10540783 -0.2103142 0.016573347 -0.120211266
0000c0 be 3a 94 bb cb 1e 45 be 82 9f 6c 3e 64 22 6c bd
       -0.004523604 -0.19250028 0.23107722 -0.057649985
0000d0 f8 f1 94 3e 3f cf 04 3e ec 1f 5b 3d a2 f2 f1 3d
       0.29090858 0.12969683 0.05349724 0.11813857
0000e0 14 86 f5 3d df cc be 3c 4e ca a9 be 34 58 ed 3d
       0.11988464 0.02329105 -0.3316216 0.11589089
0000f0 91 62 04 bd b6 5d 39 3e d3 ba 67 bd 2b b9 3d be
       -0.032320563 0.18102154 -0.056574654 -0.18527667

conv_blocks.8.running_var f4 [64]
000000 fc 16 86 3e 44 c3 82 3e 95 fa 8b 3e 2b a0 9a 3e
       0.2618941 0.255396 0.27339616 0.30200323
000010 74 42 69 3e b8 90 98 3e fc e1 5d 3e 24 8e c9 3e
       0.22779256 0.29797912 0.21668237 0.39366257
000020 3a 59 8a 3e d3 b4 7f 3e 99 30 42 3e 54 af 84 3e
       0.270212 0.24971323 0.18963851 0.25915015
000030 d1 3d 5c 3e 4d 88 8a 3e 10 9b 60 3e 0e 0b 6d 3e
       0.21507956 0.27057114 0.21934152 0.23148748
000040 7b ce 88 3e d2 e8 9b 3e 6b 62 84 3e 02 a8 8b 3e
       0.26720032 0.30451065 0.25856337 0.27276617
000050 6f 56 64 3e 58 71 79 3e 04 04 6e 3e c0 61 92 3e
       0.22298597 0.24359643 0.2324372 0.28590202
000060 47 6f 6a 3e 7a cc 62 3e d3 b3 83 3e 3d 1e 92 3e
       0.22894011 0.22148314 0.25723132 0.28538695
000070 69 b5 90 3e 08 14 7e 3e b8 ba 89 3e 54 30 88 3e
       0.28263405 0.24812329 0.26900268 0.2659937
000080 33 97 84 3e 93 6c 74 3e c0 60 41 3e f0 64 7f 3e
       0.25896606 0.23869543 0.18884563 0.24940848
000090 44 4b 6a 3e a2 9e 62 3e f9 7a 60 3e a6 b6 6a 3e
       0.22880274 0.22130826 0.2192191 0.22921237
0000a0 d0 49 76 3e e1 b6 7a 3e ec 04 7c 3e 3f 32 81 3e
       0.24051595 0.24483825 0.24611253 0.25233647
0000b0 e8 c2 6e 3e 47 4d 83 3e 9d ac 66 3e bf 9a 44 3e
       0.23316538 0.25644895 0.22526784 0.19199656
0000c0 2a ec 65 3e b9 76 55 3e d9 89 4a 3e f3 51 5c 3e
       0.2245337 0.2084607 0.19779147 0.21515636
0000d0 bc ec 73 3e 1c b8 83 3e 8b c1 67 3e 15 62 64 3e
       0.23820776 0.25726402 0.22632425 0.2230304
0000e0 53 df 84 3e 6c e8 76 3e bc 48 73 3e 83 6d 82 3e
       0.25951633 0.241121 0.23758215 0.25474176
0000f0 df bc 4a 3e 3f e2 60 3e 7b 1b 72 3e 29 a6 81 3e
       0.19798611 0.21961306 0.23643295 0.25322083

conv_blocks.11.weight f4 [128, 64, 4]
000000 47 c1 6f bd 7b 04 a4 bc f3 10 1b bc 09 ae d3 bc
       -0.058533933 -0.020021668 -0.00946449 -0.025839822
000010 4d 49 5c bd 3b db 9d 3c 5c f9 01 3c e1 21 34 3c
       -0.053780843 0.019269576 0.007932987 0.0109944055
000020 8d 47 34 3d 3f c5 21 3d 44 30 84 bc e6 06 3f 3d
       0.04401355 0.03949475 -0.016136296 0.04663744
000030 76 5f 13 3d 74 e0 71 bd 9e 5c 24 bd 94 8a 0b bd
       0.03597971 -0.059051946 -0.04012739 -0.034067705
000040 f2 b7 64 bd c0 73 d5 3c a9 89 4b bc 29 4a 6e bd
       -0.055839486 0.02605617 -0.012422957 -0.058176193
000050 01 0d 4e 3d ff 1d fe 3c cb 66 0f 3d 4c fd 25 bc
       0.05030537 0.031020163 0.03501014 -0.010131191
000060 70 cb 98 bc d9 6c 2c bb 33 07 80 bd fe bf 68 bc
       -0.018651694 -0.0026309995 -0.06251373 -0.014205931
000070 e4 55 3a bc ec 5c 4f 3d 13 d5 11 3d 99 e9 2e 3d
       -0.011373017 0.050625727 0.035603594 0.042703245
000080 8f cb 5c 3c ff ef 01 bc 47 65 b1 ba 89 28 2d 3d
       0.0134762665 -0.007930755 -0.0013534211 0.042274985
000090 46 0e 4a bc a5 e9 0a bd 7b fd 5f bd 1c 63 5a bd
       -0.012332505 -0.033914227 -0.054685097 -0.053317174
0000a0 41 6c a0 bb 47 bd e2 bc 84 87 76 3d 95 60 48 3d
       -0.0048957174 -0.027678145 0.06018783 0.048920233
0000b0 67 f0 40 3c 0d 1d c2 b9 43 ee 95 3a 37 2e 91 bb
       0.011776066 -0.00037024208 0.0011438805 -0.004430558
0000c0 b7 f1 cd 3c 7a df 59 bd e5 be ba 3c 99 d4 3b bc
       0.025139673 -0.05319164 0.022796104 -0.011464261
0000d0 60 4c 59 3c 3f 3d fd bb cf 23 3b bd 6e b9 9d bc
       0.013262838 -0.0077282484 -0.045688447 -0.019253459
0000e0 26 a8 cb bc 06 d4 00 bd a6 0f d5 bc 2a 57 4c 3d
       -0.024860453 -0.0314522 -0.026008438 0.049887814
0000f0 84 87 52 3d 90 c8 35 3d fa 59 4b bd 78 06 7f bd
       0.05139877 0.044380724 -0.049646355 -0.06226203
000100 62 11 35 3d a8 ce 6d bd 67 65 fc 3c e5 42 e6 3c
       0.04420603 -0.05805841 0.030810071 0.02810807
000110 8c 44 23 3c 9c 0e af bc 7b d6 57 bd 04 c2 cd bc
       0.009965073 -0.021369271 -0.05269478 -0.025116928
000120 9a f1 07 bd e8 79 46 bc fb d4 80 bd a3 9a cf bc
       -0.033189394 -0.012114026 -0.06290623 -0.025342291
000130 4a f6 b1 3c af ef 50 bd a1 93 9e 3c 4c b7 13 bd
       0.021723885 -0.05100983 0.019357504 -0.036063477
000140 3f 82 27 bd bb 14 3a 3d e1 0c 97 bc 4f 2e 52 bd
       -0.040895697 0.045429926 -0.018438758 -0.051313695
000150 42 f0 22 bc 1d c5 38 bd f1 af a7 ba a3 b3 10 bd
       -0.009944977 -0.045109857 -0.0012793523 -0.035327565
000160 95 15 51 bd 0a 77 76 3d d1 73 b4 b9 17 ef 7e 3c
       -0.051045973 0.06017212 -0.00034418565 0.015559933
000170 b1 86 6c 3d 6e cb 51 3c 57 e8 e4 3c 96 bf 9a ba
       0.05774564 0.012804849 0.02794282 -0.0011806365
000180 86 a1 27 3d 8c a7 fb 3b cb 07 bb bc 89 8a 32 bd
       0.040925525 0.0076798853 -0.022830864 -0.04358915
000190 ae b7 f3 bc f4 02 41 bd fe d7 ea bb 0c 11 ff 3c
       -0.029750671 -0.047121957 -0.0071668616 0.031136058
0001a0 19 6a 27 bd 3e e0 17 3d 49 05 26 bd 81 57 bc 3c
       -0.040872667 0.03707909 -0.040532384 0.022990944
0001b0 34 b3 79 bd c3 c6 25 3d 22 82 59 3c 8c e8 43 bd
       -0.060961917 0.040472757 0.013275655 -0.047829196
0001c0 72 4c 5d bc 51 85 3e 3d 21 50 ef bc 48 c0 20 bd
       -0.0135069955 0.04651386 -0.029213013 -0.039245874
0001d0 d8 9b 64 bd b9 86 9b 3c 41 16 6e bc d0 b5 ca bb
       -0.055812687 0.01898514 -0.014531673 -0.0061862245
0001e0 72 01 f8 bc da 07 d3 3c 39 fc 05 3b 35 24 36 bd
       -0.030274127 0.02576058 0.0020444526 -0.044468123
0001f0 5d 9b 02 bd 97 47 77 bd 33 9d 22 3c 78 e4 9a 3c
       -0.031886447 -0.060371008 0.0099251745 0.01890777
000200 e2 59 38 3d 79 59 be bc cb 48 28 bd 48 d8 73 bd
       0.045007594 -0.023236023 -0.041085046 -0.059532434
000210 19 88 d0 3c b3 f5 6a bd 29 c3 cd bc 14 bc 20 bd
       0.025455521 -0.057363223 -0.025117474 -0.039241865
000220 7d 7d a9 3b 86 09 55 bd d8 eb b5 3c b4 f8 4b bd
       0.00517243 -0.052011035 0.022207186 -0.04979773
000230 d0 c9 e2 bc d3 49 08 3d 90 b4 38 bd 3b fc 08 bd
       -0.027684122 0.03327353 -0.045094073 -0.03344367
000240 b5 f0 80 3c 12 c7 d1 3c c1 cc 07 3d 2e 3b 0a bd
       0.015739778 0.02560762 0.033154253 -0.033747844
000250 fb 64 34 bd 43 f2 bc bc 23 d3 d3 bb 20 6a 4f bd
       -0.044041615 -0.023064738 -0.0064643784 -0.050638318
000260 29 dd 17 3d 76 64 17 3d 4f 12 15 3d 0f 56 85 3c
       0.03707615 0.03696104 0.036394414 0.016276387
000270 fd 14 6a bd 78 f7 53 bd ee 36 c9 bc f1 46 2b bd
       -0.057148922 -0.051749676 -0.024562325 -0.041815702
000280 d0 61 23 3d f4 9e 41 3d 6a e1 3f 3c 4c 93 09 3d
       0.039888203 0.04727073 0.011711458 0.03358774
000290 d8 93 08 3d 61 dd 4e bd b1 c4 7f 3c e2 94 2e 3d
       0.03334412 -0.050504092 0.01561086 0.042622454
0002a0 8b 9f 69 bd 0f 19 57 bd e9 30 dc 3c 4c 3c 08 bc
       -0.057036918 -0.052514132 0.02687879 -0.008315157
0002b0 75 0b b6 bc 75 d0 6a bc fa f4 62 bd 01 39 43 bd
       -0.02222226 -0.014331927 -0.05540941 -0.047661785
0002c0 2b f6 3a bc 6e 69 08 3d 13 70 67 bd d8 dd 37 bd
       -0.01141123 0.03330367 -0.056503367 -0.0448893
0002d0 c7 39 6c bd b6 33 76 3c 8d b4 04 bd 7b 98 09 3d
       -0.05767229 0.015026977 -0.03239875 0.033592682
0002e0 af 3f 19 3d 56 82 65 bd 80 45 ec bc ae 44 50 bd
       0.03741425 -0.0560325 -0.028841734 -0.050846748
0002f0 88 8e be bc 12 2f 26 bd c8 92 02 bd 36 9b cf bb
       -0.023261324 -0.040572233 -0.031878263 -0.0063356413
000300 ea 8c 98 bb 30 82 68 3c ff 45 30 bd fb 90 04 3d
       -0.00465547 0.014191195 -0.043035503 0.032364827
000310 36 57 6c bd b6 ba 18 3d 15 68 ee bc dc 35 64 bd
       -0.05770036 0.037287436 -0.029102365 -0.055715427
000320 64 69 2d 3d 14 96 29 bd f0 17 9b 3c 38 b7 e2 bc
       0.042336836 -0.04140289 0.018932313 -0.027675256
000330 8e d0 78 3d 0b 4b d8 3c 8d 5d f0 3c 4b 58 36 bd
       0.06074577 0.02640297 0.029341483 -0.044517796
000340 d8 8b 31 3d 2f bf e9 bc d3 6d fc bc 26 99 5e bc
       0.043346256 -0.028533546 -0.030814087 -0.013586318
000350 3b 04 0a bd bf 4b 61 bd d9 a0 a3 3c 56 91 03 3d
       -0.03369544 -0.055003878 0.01997416 0.032121025
000360 83 87 10 3d 67 37 77 3c 80 ec 74 bd 2c 9b 3d 3c
       0.035285484 0.015088893 -0.059795856 0.01157264
000370 63 4a 18 3b d0 66 3f 3b e3 83 0a bb 29 f5 7c bb
       0.0023237697 0.0029205568 -0.002113574 -0.0038598275
000380 eb 18 c7 3b ba 39 09 bd ba 8c ad 3c c9 f2 82 3c
       0.0060759685 -0.033502318 0.021185268 0.01598491
000390 c4 62 36 3d f1 2e 16 bd c9 7c 29 bd 31 b8 40 3d
       0.044527784 -0.03666586 -0.04137877 0.04705066
0003a0 eb e1 c6 bb 3e 02 25 bd a3 15 18 bd 42 98 56 3d
       -0.006069412 -0.04028534 -0.03713001 0.052391298
0003b0 bb 2e f6 bb e6 5e 5e bd d8 80 8e bb bc 12 aa bc
       -0.007512895 -0.05428972 -0.0043488555 -0.020760886
0003c0 f2 78 87 3b ff be a3 bb 9a 62 43 3d 68 e7 3d bd
       0.004134291 -0.0049971337 0.047701456 -0.046363264
0003d0 60 1a 55 3d b4 10 2f 3d 4e 69 15 3d ae d8 37 3b
       0.052027106 0.04274054 0.03647738 0.0028052735
0003e0 00 d2 39 bd e0 20 40 bd a4 24 bc bc 30 0f 1c 3d
       -0.045366287 -0.046906352 -0.02296669 0.03810042
0003f0 3d 3a 11 3c 87 4b 0b 3d 62 dd 01 3d 31 20 c1 bc
       0.008863983 0.034007575 0.031705268 -0.02357492

conv_blocks.11.bias f4 [128]
000000 7c 2f 9b bc e9 00 33 3d cb 2a 81 ba 95 46 0e ba
       -0.01894354 0.04370204 -0.0009854672 -0.00054273877
000010 b3 78 e6 b8 77 06 08 bd 1f 1b 71 3c f4 d9 73 bd
       -0.000109897366 -0.03320929 0.014715939 -0.05953403
000020 b4 be fe bb bb 11 57 bb 7b 74 57 3c 7a f8 00 bd
       -0.0077741984 -0.0032816965 0.01315033 -0.031486966
000030 a2 04 79 bd 36 86 75 3d c2 80 15 bd 9a 03 f9 bc
       -0.060795434 0.059942447 -0.036499746 -0.030397225
000040 69 7a 1f 3d d4 7e cf bb 92 99 1f bd f7 ca 2f bd
       0.0389351 -0.0063322578 -0.038964815 -0.04291817
000050 ed 3b 6b bd 5b 33 41 3b 3d 1c 78 3b 73 ab 52 3d
       -0.057430197 0.0029480073 0.0037858628 0.051433038
000060 75 e2 7c bd af b4 d7 3c fd 73 1e 3b 0c d2 57 bd
       -0.061739404 0.026331274 0.002417802 -0.05269055
000070 65 5c 84 3b a8 78 02 bd 6e 22 83 3c c7 35 e2 3c
       0.0040393346 -0.031853348 0.016007628 0.027613534
000080 fe 55 66 3d ae 40 9e bc 97 ea 72 3d 69 11 7b 3c
       0.056234352 -0.019317951 0.059305754 0.015323975
000090 f5 9c 96 3c 41 f5 69 bd fa e9 60 bd e3 74 ba bc
       0.01838539 -0.057118658 -0.054910637 -0.022760814
0000a0 c4 6a 73 3d 0c d5 08 3d a3 ef 61 3d 94 a6 6e bd
       0.05942799 0.033406302 0.055160176 -0.05826433
0000b0 d8 4f 84 3b 9f 70 69 bd 3a 28 74 3d 1c 3e 2e 3d
       0.0040378384 -0.05699217 0.059608676 0.0425397
0000c0 70 76 0c 3d 00 67 ff bc 2b 38 0e bd ba 46 1b bd
       0.03429264 -0.031177044 -0.034721535 -0.037909247
0000d0 f4 07 5c 3d eb a8 0e bd d6 31 f6 3c 14 dd 08 3d
       0.053718522 -0.03482906 0.03005306 0.03341396
0000e0 d5 34 9a bc 9f 73 64 3d ea 3c 49 bd 83 a9 04 bd
       -0.01882402 0.055774327 -0.049130358 -0.03238822
0000f0 37 32 9e 3c 88 50 4f 3c cd 56 d5 bc 02 75 a8 bc
       0.019311054 0.0126534775 -0.026042366 -0.020563606
000100 c7 af 1c 3a cc 7b 08 3d 7d 1a 49 3d 09 0b 73 3d
       0.00059771206 0.033321187 0.049097527 0.059336696
000110 2d 43 5a 3d 86 ba 86 bc 7a 63 c3 3c fc 88 57 bb
       0.05328672 -0.016446363 0.023851145 -0.0032888046
000120 92 56 71 bd 35 94 3e bd 60 b8 5e bd e3 5f 62 3d
       -0.05892045 -0.04652806 -0.054375052 0.055267226
000130 72 da 0b bc 8e c4 46 3d 20 00 e7 3b 43 64 65 3d
       -0.008535968 0.048527293 0.0070495754 0.05600382
000140 46 15 07 3d ee 14 26 3d ce 30 69 3d d1 c9 d5 3b
       0.032979272 0.040547304 0.05693131 0.0065243025
000150 9a 7a 4e bd 45 51 b6 3c 8e 70 71 3d 7a d4 07 3d
       -0.05040989 0.02225555 0.05894523 0.033161618
000160 0d 90 00 bb c4 49 4f 3d ff fa 77 bd ca cf 9a 3c
       -0.001961711 0.050607458 -0.060542103 0.01889791
000170 23 29 7b 3d ec 22 d7 bc bc c4 bf bc 63 1f a6 3c
       0.061318528 -0.02626177 -0.02340924 0.020278638
000180 cd 90 11 3d f7 99 7d bd 62 06 1b 3d 81 8f 3f 3d
       0.035538483 -0.06191441 0.037847884 0.046767715
000190 5a c1 fc bc 04 9b 13 3d f5 39 6a bd 82 e8 3c bc
       -0.030853916 0.036036506 -0.05718418 -0.011530044
0001a0 41 81 4c bd 75 d5 e3 bc 6f 10 f7 3c 76 e2 4a 3d
       -0.049927954 -0.027811745 0.030159203 0.049532376
0001b0 fe 2a 2f 3d 01 12 03 3d 56 8a 00 bd 99 ab 00 3c
       0.04276561 0.03199959 -0.031381927 0.007853412
0001c0 51 61 1f 3d 56 d0 76 3d f7 b0 0b bd ad 57 3e bd
       0.038911168 0.06025728 -0.034104314 -0.046470333
0001d0 9c ca 0d bd c6 0d 06 3d 7c e3 78 bd ec ba 15 3d
       -0.03461705 0.03272798 -0.06076382 0.036555216
0001e0 4f a5 8a 3c 78 58 6c 3d f4 36 47 3d 90 df 7c 3c
       0.016924528 0.057701558 0.04863639 0.015434161
0001f0 ad c6 08 3d ab fe 69 bc 41 be ed bc 1b 49 ce bc
       0.033392597 -0.014281909 -0.029021384 -0.025181344

conv_blocks.12.weight f4 [128]
000000 5e e9 7f 3f 66 01 80 3f fe fc 7f 3f bc d4 7f 3f
       0.99965465 1.0000427 0.9999541 0.9993398
000010 4e 13 80 3f 52 c8 7f 3f 6e 0a 80 3f ad 17 80 3f
       1.0005891 0.9991504 1.0003183 1.0007225
000020 8e f1 7f 3f 59 07 80 3f b7 02 80 3f d8 cb 7f 3f
       0.9997796 1.0002242 1.0000829 0.99920416
000030 8a ed 7f 3f 1d eb 7f 3f 69 cc 7f 3f d4 c7 7f 3f
       0.9997183 0.9996813 0.9992128 0.9991429
000040 48 08 80 3f 3a 07 80 3f 5f 1e 80 3f b6 cb 7f 3f
       1.0002527 1.0002205 1.0009269 0.99920213
000050 0d c8 7f 3f ac d2 7f 3f 2a 08 80 3f 78 f8 7f 3f
       0.9991463 0.99930835 1.0002491 0.9998851
000060 7c dc 7f 3f 64 e0 7f 3f f3 da 7f 3f 8a cf 7f 3f
       0.9994581 0.9995177 0.99943465 0.99926054
000070 20 11 80 3f 5d 1a 80 3f 0a e1 7f 3f 3f c9 7f 3f
       1.0005226 1.0008045 0.9995276 0.9991645
000080 12 1e 80 3f e7 cf 7f 3f df e7 7f 3f 88 0e 80 3f
       1.0009177 0.9992661 0.9996318 1.0004435
000090 88 18 80 3f 35 f5 7f 3f 37 0a 80 3f 24 1f 80 3f
       1.0007486 0.9998353 1.0003117 1.0009503
0000a0 44 0f 80 3f 12 03 80 3f 74 df 7f 3f f8 15 80 3f
       1.0004659 1.0000937 0.9995034 1.0006704
0000b0 55 c1 7f 3f 8e bc 7f 3f 76 df 7f 3f f1 e7 7f 3f
       0.99904376 0.99897087 0.9995035 0.9996329
0000c0 54 c7 7f 3f 6b e4 7f 3f 61 1c 80 3f 32 c5 7f 3f
       0.99913526 0.99957913 1.000866 0.9991027
0000d0 55 d6 7f 3f a8 09 80 3f 18 ca 7f 3f bd ff 7f 3f
       0.9993642 1.0002947 0.99917746 0.999996
0000e0 2f 12 80 3f 6c 05 80 3f 94 d9 7f 3f 88 f2 7f 3f
       1.0005549 1.0001655 0.9994137 0.9997945
0000f0 dc fe 7f 3f 76 dc 7f 3f de 02 80 3f 7e 15 80 3f
       0.9999826 0.9994577 1.0000875 1.0006559
000100 0f 1c 80 3f 4f f3 7f 3f bb d5 7f 3f 1b c4 7f 3f
       1.0008563 0.99980634 0.999355 0.9990861
000110 be 08 80 3f bc d4 7f 3f d7 1e 80 3f bd f0 7f 3f
       1.0002668 0.9993398 1.0009412 0.9997671
000120 b0 07 80 3f 32 15 80 3f ae 05 80 3f da 13 80 3f
       1.0002346 1.0006468 1.0001733 1.0006058
000130 81 12 80 3f 52 1f 80 3f 7c cc 7f 3f f1 0f 80 3f
       1.0005647 1.0009558 0.99921393 1.0004865
000140 75 cd 7f 3f cf 03 80 3f 94 e0 7f 3f 17 04 80 3f
       0.9992288 1.0001162 0.99952054 1.0001248
000150 01 f1 7f 3f f8 fc 7f 3f d6 1a 80 3f 85 1f 80 3f
       0.9997712 0.99995375 1.000819 1.0009619
000160 2f c8 7f 3f 48 e1 7f 3f c4 d2 7f 3f 1a ea 7f 3f
       0.9991483 0.99953127 0.9993098 0.99966586
000170 ea c4 7f 3f 0e d7 7f 3f ca c0 7f 3f 28 ec 7f 3f
       0.9990984 0.9993752 0.9990355 0.9996972
000180 25 03 80 3f c6 f2 7f 3f ff 10 80 3f 44 c8 7f 3f
       1.000096 0.9997982 1.0005187 0.99914956
000190 40 ed 7f 3f 57 f6 7f 3f 74 e7 7f 3f eb 1e 80 3f
       0.9997139 0.9998526 0.99962544 1.0009435
0001a0 ce 13 80 3f d2 c9 7f 3f 19 0e 80 3f e5 06 80 3f
       1.0006044 0.9991733 1.0004302 1.0002104
0001b0 22 d7 7f 3f f2 13 80 3f 73 07 80 3f af cc 7f 3f
       0.9993764 1.0006087 1.0002273 0.999217
0001c0 70 bf 7f 3f 98 03 80 3f 09 cc 7f 3f 16 eb 7f 3f
       0.99901485 1.0001097 0.9992071 0.9996809
0001d0 b4 de 7f 3f ea cf 7f 3f f5 d9 7f 3f e9 0d 80 3f
       0.99949193 0.99926627 0.9994195 1.0004245
0001e0 3a 0c 80 3f 38 fb 7f 3f 14 19 80 3f a0 17 80 3f
       1.0003731 0.99992704 1.0007653 1.000721
0001f0 18 0c 80 3f 78 0b 80 3f 39 f5 7f 3f 5f 17 80 3f
       1.0003691 1.00035 0.99983555 1.0007132

conv_blocks.12.bias f4 [128]
000000 61 c8 5b 3a b0 fc ee 39 a4 06 19 b9 2f 99 de 39
       0.0008384046 0.00045583164 -0.00014593691 0.0004245727
000010 24 41 5a 3a 3b b4 3a ba b9 e2 42 ba eb 60 ff 39
       0.0008325747 -0.00071221933 -0.0007434297 0.000487096
000020 dd 94 c8 b9 e7 4b ed 39 8a 98 8f b9 a2 61 03 b9
       -0.00038257884 0.00045260714 -0.00027388736 -0.00012529505
000030 e0 27 78 b8 d6 50 b5 b9 3e eb 52 ba 02 73 5b ba
       -5.9164944e-05 -0.00034583238 -0.0008045918 -0.00083713245
000040 d3 23 83 b8 00 24 68 34 52 f5 bc 39 8f 23 6a ba
       -6.2532396e-05 2.161978e-07 0.00036040932 -0.000893169
000050 93 57 34 ba 30 00 57 39 4a 26 25 b9 c9 07 61 ba
       -0.00068795047 0.00020504068 -0.0001574989 -0.0008584229
000060 a4 c6 18 ba da 61 7d 3a d2 7c ee b9 d5 f0 8a b9
       -0.00058279396 0.0009665765 -0.00045487896 -0.00026500845
000070 ab b0 31 39 35 7d 25 ba b2 a9 33 39 72 71 44 38
       0.0001694585 -0.0006312908 0.00017133987 4.6835696e-05
000080 16 fd d9 39 50 3d 62 3a e1 37 01 3a 29 20 de b8
       0.0004157803 0.0008630352 0.0004929286 -0.00010591775
000090 a0 d1 be b9 50 a0 3d b9 92 27 56 ba f3 e1 4b 3a
       -0.00036395807 -0.00018084166 -0.00081693486 0.00077775045
0000a0 ed ef e5 38 07 43 9b 39 ac 96 15 ba 9e 98 f2 b9
       0.000109642606 0.00029613843 -0.0005706351 -0.00046271546
0000b0 56 4e fd b9 dc e3 da b9 e3 9d 42 ba 42 06 20 ba
       -0.00048314285 -0.0004174997 -0.00074240396 -0.0006104448
0000c0 84 91 c8 39 b9 1c 69 3a 45 20 29 3a ce 73 ca 38
       0.0003825539 0.00088925246 0.0006451647 9.653681e-05
0000d0 8c 09 b8 b7 3e a7 3b 39 c9 35 2d ba 49 63 c4 38
       -2.1938955e-05 0.00017896012 -0.0006607441 9.3645016e-05
0000e0 2a 3f 35 ba af e4 aa 38 10 c9 78 ba 52 aa 4c ba
       -0.0006914014 8.148827e-05 -0.000949041 -0.0007807362
0000f0 07 a1 1c 3a 8b 2b 13 ba 9e 2c ae b9 9a 37 89 36
       0.00059749227 -0.00056140934 -0.0003322111 4.089391e-06
000100 8d ba 3f 3a 37 c2 40 ba 25 48 36 ba ae af 19 ba
       0.000731387 -0.0007353159 -0.00069534994 -0.0005862665
000110 ba ac bf 39 b6 de 5b 39 8e 13 67 3a a2 2c 2b 39
       0.0003655905 0.00020968434 0.00088148646 0.00016324458
000120 4c ef 14 38 da d4 a6 38 08 05 7c 3a f2 2f f9 39
       3.5508812e-05 7.9551435e-05 0.0009613787 0.00047528703
000130 16 f1 72 b9 d0 a3 66 3a 1b 70 00 ba 92 b5 3e ba
       -0.0002316873 0.00087982137 -0.00048995175 -0.0007274981
000140 bc c2 66 ba ef 25 0c 3a d9 1c f6 b9 50 7c 0c 3a
       -0.00088028214 0.0005346229 -0.0004694227 0.00053591
000150 c4 ce 91 b9 e1 4c 5d ba a0 22 09 3a f5 bd 62 3a
       -0.00027810608 -0.0008441937 0.0005231295 0.00086495216
000160 25 2d 18 3a c8 b9 24 3a 34 b9 d9 b9 14 82 2b ba
       0.0005805067 0.0006283787 -0.00041527452 -0.00065425155
000170 8a 4a 44 b9 2f e2 16 38 cf bb 1f b9 02 ed f6 39
       -0.00018719785 3.5973437e-05 -0.00015233386 0.0004709736
000180 f0 f3 77 39 56 17 5e ba b7 a2 3a 3a 88 e2 5a ba
       0.0002364663 -0.0008472105 0.00071195833 -0.0008349796
000190 67 f1 cf b9 4e 15 5b b8 37 d3 d0 b9 cc 0d 08 3a
       -0.00039661975 -5.223351e-05 -0.0003983022 0.0005190044
0001a0 70 a0 c8 b9 57 18 27 ba a2 16 c4 b7 99 19 7a 39
       -0.00038266508 -0.00063741714 -2.337556e-05 0.00023851394
0001b0 16 9a 32 39 ad bf 3c ba 5d 5d 22 3a 77 b4 87 39
       0.00017032804 -0.0007200193 0.0006193722 0.00025883663
0001c0 32 0d 8a ba ec b8 5f ba 03 c7 fc b9 45 c8 4a b9
       -0.0010532497 -0.00085343304 -0.0004821346 -0.00019338827
0001d0 1a 57 f9 38 4e 89 0d 3a 0a 26 42 ba 85 c4 31 39
       0.00011889469 0.0005399183 -0.0007406181 0.00016953245
0001e0 bc 3b e5 39 89 5e 60 b8 27 43 72 ba 28 79 00 ba
       0.0004372279 -5.3493804e-05 -0.0009241574 -0.0004900866
0001f0 de c3 37 3a a8 c4 4b 39 ac 0e 35 b9 28 bc 45 38
       0.00070100825 0.00019432849 -0.00017266971 4.7143694e-05
