data/gan_output/discriminator_epoch_30.pth (torch, 191742 bytes, 21 tensors)

conv_blocks.0.weight f4 [16, 1, 4]
0.07256278 0.10861476 -0.02537304 0.4265074 -0.01492186 0.040412433 -0.39269403 0.03912509
0.1349444 -0.41119176 0.09291043 -0.041737225 -0.4361636 0.2839436 0.36381012 -0.447449
-0.3975034 0.092552915 -0.08664394 0.2800809 -0.3648165 0.26931325 -0.11176896 0.3615442
0.3132358 -0.48162833 0.3806296 0.22557239 -0.013237816 -0.22104818 0.31659672 -0.4771942
-0.24290268 -0.34090856 0.13001895 0.25701308 0.11554811 0.18762113 0.45222664 0.13309324
0.21750389 -0.31385258 -0.47207645 -0.3175676 -0.20582454 0.050709225 -0.29218638 -0.111690685
-0.16575608 0.21070038 -0.42747793 -0.5033945 0.0037906568 -0.105818816 -0.32797882 -0.42286143
-0.14377704 -0.17817385 0.028693294 -0.16916539 0.23650168 0.21104912 -0.30254334 -0.3553544
00000000: cb9b 943d 6a71 de3d 1fdb cfbc 2e5f da3e
00000010: d17a 74bc 8287 253d 310f c9be a141 203d
00000020: dd2e 0a3e ba87 d2be d347 be3d a7f4 2abd
00000030: d650 dfbe 0e61 913e 5245 ba3e 0918 e5be
00000040: 9185 cbbe 628c bd3d 6172 b1bd c466 8f3e
00000050: 3ac9 babe 6de3 893e 20e7 e4bd 521c b93e
00000060: 7160 a03e fd97 f6be e2e1 c23e 73fc 663e
00000070: 6de3 58bc 745a 62be f718 a23e cc52 f4be
00000080: 7bbb 78be 918b aebe b023 053e 3897 833e
00000090: 7da4 ec3d c11f 403e 408a e73e 9849 083e
000000a0: 57b9 5e3e 49b1 a0be 01b4 f1be 3898 a2be
000000b0: abc3 52be 7ab4 4f3d 7499 95be 16be e4bd
000000c0: f6bb 29be d7c1 573e 63de dabe 76de 00bf
000000d0: ab6c 783b 89b7 d8bd d7ec a7be 4b81 d8be
000000e0: 4a3a 13be 3573 36be 330e eb3c b139 2dbe
000000f0: 7f2d 723e 431d 583e f6e6 9abe 03f1 b5be

conv_blocks.0.bias f4 [16]
-0.4932823 -0.1363586 -0.24855058 0.2479093 0.15434447 0.05801085 -0.34428906 0.46233252
0.24762078 0.079310216 -0.16236843 -0.4827226 -0.028881341 0.10621415 0.35465994 -0.2576527
00000000: 7f8f fcbe 97a1 0bbe 0b84 7ebe efdb 7d3e
00000010: 7a0c 1e3e c99c 6d3d a846 b0be d9b6 ec3e
00000020: 4d90 7d3e 656d a23d e943 26be 6b27 f7be
00000030: 9098 ecbc ce86 d93d fd95 b53e 0eeb 83be

conv_blocks.3.weight f4 [32, 16, 4]
-0.045691308 0.11915058 0.10000396 -0.07314107 -0.11211175 0.035473686 -0.10118666 0.046079926
0.047332775 0.051010117 0.017388863 -0.022168422 -0.04839439 -0.122561045 0.1237995 -0.10755361
-0.05640027 0.055228785 -0.12740542 0.061083328 -0.07106498 0.02525448 0.11245808 -0.049224257
0.011425054 0.06786404 -0.008727668 0.05786879 0.07853641 -0.11766085 -0.08577003 0.06414145
-0.04064091 -0.009549376 0.0488705 -0.10103694 -0.047901936 0.013220469 0.017189043 -0.00065492233
-0.05165509 -0.03999245 0.03437801 0.04698976 -0.05620557 -0.03018714 -0.045544196 0.03915677
0.08300738 0.04140972 0.10255509 0.042504083 -0.093589015 -0.045815382 0.009144738 -0.012749482
-0.12503608 -0.08334659 -0.10994005 0.044115454 -0.07279621 0.063069284 -0.05794463 -0.01746505
-0.072207555 0.11938833 0.002070849 0.08346853 -0.09987222 -0.070397496 -0.004064696 0.028059347
-0.07424261 -0.09404456 0.11009594 -0.057812143 -0.06414955 0.051498137 -0.05404151 0.10745386
0.009017236 0.11345325 0.019717837 -0.05558676 -0.0582291 0.04625351 0.051046185 0.072257556
-0.01158668 -0.077664465 -0.0044627525 -0.011259356 -0.0023661824 0.015319505 -0.005978418 0.06139981
-0.04344752 0.11703869 0.027507054 -0.04319291 -0.061745692 0.03187792 0.09719177 -0.114681676
-0.01779412 -0.10090795 -0.056714885 -0.11524583 -0.023956263 0.047414467 0.09132444 -0.05451424
0.12643674 -0.048902564 0.11090848 0.06167515 0.018040469 -0.12300559 0.051036283 -0.06707284
0.063796885 -0.115807995 0.052434877 -0.06565797 0.11293553 0.020808186 -0.039465077 0.03209808
0.091091275 0.031556882 0.05027874 0.02368259 -0.013865162 0.0011863307 0.07094007 -0.02979196
-0.044433318 0.05238104 -0.025927521 -0.10518811 -0.07032938 0.05460317 0.0051627476 0.10897128
-0.08551926 -0.104784206 -0.119194284 -0.1335747 -0.0048810844 -0.019938316 0.10786771 -0.0025292442
-0.07165601 -0.104004316 0.09241695 0.08835291 -0.07278532 -0.08212922 0.08934417 0.051136572
0.09273923 -0.1272628 0.096290946 -0.0630982 0.08908678 0.099761404 0.04477303 0.03486364
0.102248326 0.065565705 0.04471693 -0.034820132 -0.072545044 -0.075488694 0.031357046 0.015754696
-0.11561727 -0.09577985 0.032794986 -0.009140621 0.06910921 0.06319772 -0.090783805 0.073621795
2.641601e-05 0.031582158 0.045384374 -0.054518636 0.112121165 -0.05975854 0.067788824 -0.089541405
-0.045902073 0.10264606 -0.09900227 0.09856275 -0.08993889 -0.0042024315 0.046338867 -0.04351984
-0.08929452 -0.078554265 0.010527695 0.023947572 0.09125297 -0.064258076 -0.068550184 0.053938676
0.013376423 0.005379493 0.07936761 0.012508276 -0.07278346 0.11874234 -0.030062387 0.0062759994
0.10098727 -0.088252105 -0.08175611 -0.11591654 0.113648735 0.062444873 0.0914956 0.0765809
-0.081017725 -0.013597895 0.012530275 0.045869928 -0.0067542503 -0.04798128 0.11451506 -0.075702175
-0.092624135 -0.121797144 0.078100346 -0.04863729 0.096132725 0.10924686 0.111413196 -0.098034725
-0.096060045 -0.03195582 -0.024400432 -0.10046422 0.0890694 -0.100087136 -0.07437121 -0.028280022
-0.11891064 -0.017535191 0.024704404 -0.01749046 -0.10684438 0.062123857 -0.10272981 0.027098466
00000000: cf26 3bbd 3805 f43d e0ce cc3d fcca 95bd
00000010: d89a e5bd db4c 113d f43a cfbd 4ebe 3c3d
00000020: 03e0 413d fcef 503d 1773 8e3c 8d9a b5bc
00000030: 3239 46bd 4901 fbbd 988a fd3d 1145 dcbd
00000040: f803 67bd 9437 623d 9176 02be 8332 7a3d
00000050: 848a 91bd 7ce2 ce3c 6c50 e63d 609f 49bd
00000060: 2630 3b3c 4dfc 8a3d 7efe 0ebc d307 6d3d
00000070: b3d7 a03d 2cf8 f0bd 33a8 afbd 985c 833d
00000080: 1577 26bd fc74 1cbc 6f2c 483d 75ec cebd
00000090: d234 44bd aa9a 583c 09d0 8c3c 18af 2bba
000000a0: 4a94 53bd 20cf 23bd f5cf 0c3d 5678 403d
000000b0: d037 66bd 054b f7bc 8d8c 3abd d962 203d
000000c0: c6ff a93d 3d9d 293d 6708 d23d c318 2e3d
000000d0: 99ab bfbd e9a8 3bbd d0d3 153c 34e3 50bc
000000e0: 7509 00be 9eb1 aabd 4028 e1bd 68b2 343d
000000f0: 2e16 95bd 782a 813d 5957 6dbd dd12 8fbc
00000100: 8ee1 93bd de81 f43d 15b7 073b 8cf1 aa3d
00000110: ce89 ccbd 902c 90bd 2431 85bb b7dc e53c
00000120: 820c 98bd 6f9a c0bd fb79 e13d 6dcc 6cbd
00000130: d760 83bd b6ef 523d a15a 5dbd c510 dc3d
00000140: 07bd 133c 2d5a e83d 4d87 a13c f1ae 63bd
00000150: a381 6ebd 5274 3d3d ce15 513d c5fb 933d
00000160: 0fd6 3dbc 8c0e 9fbd 483c 92bb 2979 38bc
00000170: f411 1bbb a9fe 7a3c 9be6 c3bb 5e7e 7b3d
00000180: 07f6 31bd fbb1 ef3d 7956 e13c 0ceb 30bd
00000190: 0de9 7cbd 6c92 023d 7b0c c73d 3ade eabd
000001a0: f9c4 91bc d4a8 cebd de4d 68bd 0106 ecbd
000001b0: ed3f c4bc ac35 423d 4f08 bb3d 534a 5fbd
000001c0: a278 013e 0e4e 48bd fc23 e33d 159f 7c3d
000001d0: 9bc9 933c 5bea fbbd 6c0b 513d 7c5d 89bd
000001e0: f1a7 823d be2c edbd f4c5 563d b077 86bd
000001f0: be4a e73d ee75 aa3c 22a6 21bd 4779 033d
00000200: 108e ba3d ca41 013d 14f1 4d3d fe01 c23c
00000210: b42a 63bc a77e 9b3a 0749 913d 450e f4bc
00000220: b6ff 35bd 808d 563d f465 d4bc dd6c d7bd
00000230: da08 90bd 93a7 5f3d 442c a93b 562c df3d
00000240: b924 afbd 1a99 d6bd 221c f4bd cec7 08be
00000250: 81f1 9fbb ae55 a3bc bfe9 dc3d adc1 25bb
00000260: 63c0 92bd 3700 d5bd 1945 bd3d 5ff2 b43d
00000270: 7810 95bd 5d33 a8bd 14fa b63d 9574 513d
00000280: 11ee bd3d 2e51 02be 3034 c53d a139 81bd
00000290: 2173 b63d b54f cc3d ed63 373d 2dcd 0e3d
000002a0: 9267 d13d 5047 863d 1929 373d 8e9f 0ebd
000002b0: 7f92 94bd d199 9abd 3f70 003d fe0f 813c
000002c0: bfc8 ecbd 3a28 c4bd 0954 063d 8bc2 15bc
000002d0: 2189 8d3d ce6d 813d dcec b9bd 06c7 963d
000002e0: f397 dd37 4b5c 013d f7e4 393d ef4e 5fbd
000002f0: c89f e53d 5fc5 74bd ded4 8a3d 7c61 b7bd
00000300: d003 3cbd 1938 d23d b4c1 cabd 44db c93d
00000310: e131 b8bd 8db4 89bb d3cd 3d3d dc41 32bd
00000320: 0ce0 b6bd 0fe1 a0bd 5a7c 2c3c b32d c43c
00000330: d6e2 ba3d bd99 83bd 0a64 8cbd cdee 5c3d
00000340: c928 5b3c 7546 b03b 7c8b a23d 83ef 4c3c
00000350: 7f0f 95bd 2f2f f33d 6545 f6bc e6a6 cd3b
00000360: 6ad2 ce3d 85bd b4bd bf6f a7bd a765 edbd
00000370: abc0 e83d 32c6 7f3d 0c62 bb3d 72d6 9c3d
00000380: 9fec a5bd b5c9 5ebc c84b 4d3c 1be2 3b3d
00000390: c252 ddbb 0588 44bd df86 ea3d be09 9bbd
000003a0: b9b1 bdbd c870 f9bd 13f3 9f3d e537 47bd
000003b0: 3ce1 c43d d1bc df3d 9a2c e43d 6ec6 c8bd
000003c0: 21bb c4bd 1be4 02bd 6ae3 c7bc 2fc0 cdbd
000003d0: 056a b63d 7cfa ccbd ef4f 98bd 81ab e7bc
000003e0: 6c87 f3bd f6a5 8fbc e460 ca3c 2748 8fbc
000003f0: 3ad1 dabd 9675 7e3d 0264 d2bd 9afd dd3c

conv_blocks.3.bias f4 [32]
-0.056139573 -0.03572108 0.036972735 -0.017149387 -0.08975141 -0.024380162 0.019052662 -0.0110552665
0.017702973 0.1084364 0.003909797 -0.0045969593 0.009352677 0.036026943 0.053391926 0.047818463
-0.07864716 0.081232816 -0.060307927 0.0392422 0.046334747 0.026408719 0.049652316 0.04276042
-0.11824448 0.07519093 0.005784588 0.111922145 -0.057883028 -0.0033027064 0.052904774 -0.060696732
00000000: 9cf2 65bd 4450 12bd b970 173d df7c 8cbc
00000010: 96cf b7bd e8b8 c7bc 5414 9c3c 2621 35bc
00000020: d305 913c e713 de3d c11d 803b 17a2 96bb
00000030: f83b 193c fd90 133d 7eb1 5a3d 4bdd 433d
00000040: c311 a1bd 645d a63d 7205 77bd 6ebc 203d
00000050: 81c9 3d3d 1957 d83c 3a60 4b3d 8d25 2f3d
00000060: 292a f2bd b4fd 993d a48c bd3b 7037 e53d
00000070: c116 6dbd 3872 58bb adb2 583d 239d 78bd

conv_blocks.4.weight f4 [32]
1.0025252 0.9920124 0.999881 0.999954 0.99638927 1.0036805 1.006962 0.99466664
0.99552256 1.003516 0.9943966 0.9935769 1.0126482 0.99891806 1.0011464 0.998404
1.0074773 0.99624056 1.0052843 0.99308383 0.99057126 1.007364 1.0044644 1.0042466
0.99655235 0.9998276 0.9973109 1.0165714 0.9886391 0.99323815 1.01103 0.9944358
00000000: bf52 803f 86f4 7d3f 34f8 7f3f fcfc 7f3f
00000010: 5e13 7f3f 9a78 803f 21e4 803f 79a2 7e3f
00000020: 91da 7e3f 3673 803f c790 7e3f 0e5b 7e3f
00000030: 759e 813f 18b9 7f3f 9125 803f 6897 7f3f
00000040: 04f5 803f 9f09 7f3f 28ad 803f be3a 7e3f
00000050: 1496 7d3f 4ef1 803f 4a92 803f 278b 803f
00000060: 0e1e 7f3f b4f4 7f3f c44f 7f3f 031f 823f
00000070: 7417 7d3f db44 7e3f 6e69 813f 5893 7e3f

conv_blocks.4.bias f4 [32]
-0.0032797141 -0.013959395 0.0052516237 -0.0064480244 0.002904685 0.010666056 -0.00573577 0.0054277787
0.015302486 3.425381e-05 -0.012577824 -0.0130220875 0.019311454 -0.012742547 -0.006216876 -0.009586189
0.015512067 -0.0047434536 -0.0051803924 0.0005547091 0.0025116147 -0.0041120877 -0.003557354 -0.0031262317
-0.01068759 -0.0063931835 -0.008973406 0.0014846186 0.005870686 -0.0053432817 0.011802819 0.013613477
00000000: 79f0 56bb f2b5 64bc d015 ac3b f349 d3bb
00000010: 875c 3e3b aec0 2e3c 20f3 bbbb 82db b13b
00000020: 47b7 7a3c c0ab 0f38 3813 4ebc 985a 55bc
00000030: 0e33 9e3c 1ec6 50bc f0b6 cbbb 640f 1dbc
00000040: 5326 7e3c f96e 9bbb 48c0 a9bb e669 113a
00000050: e799 243b b1be 86bb 7f22 69bb 77e1 4cbb
00000060: 001b 2fbc e97d d1bb 3105 13bc 8997 c23a
00000070: e25e c03b b216 afbb 9c60 413c 100b 5f3c

conv_blocks.4.running_mean f4 [32]
-0.27151763 0.003772588 0.039235484 0.037168995 0.15065588 0.009531238 -0.20915999 0.018313173
0.19142523 0.23144174 -0.18754654 0.13468057 0.057732075 -0.12338538 -0.08995702 -0.17044479
0.14916497 0.07563663 -0.011279104 0.07320164 0.1998586 -0.1356341 -0.07524587 0.15494837
-0.20560408 0.04716129 0.22850633 -0.046049114 0.08627622 0.18754773 0.016854921 0.0013042814
00000000: 5c04 8bbe 863d 773b 63b5 203d 843e 183d
00000010: 8945 1a3e e928 1c3c 092e 56be 8205 963c
00000020: fa04 443e 10ff 6c3e 330c 40be b4e9 093e
00000030: 7878 6c3d 79b1 fcbd 633b b8bd 1489 2ebe
00000040: b4be 183e 61e7 9a3d fecb 38bc beea 953d
00000050: bca7 4c3e aae3 0abe 821a 9abd c9aa 1e3e
00000060: e089 52be 322c 413d 90fd 693e ff9d 3cbd
00000070: 96b1 b03d 830c 403e 5513 8a3c 6cf4 aa3a

conv_blocks.4.running_var f4 [32]
0.049115982 0.036652587 0.03711851 0.03236909 0.0365211 0.055744268 0.06797746 0.036610596
0.029381923 0.074774474 0.06508284 0.027292317 0.02528416 0.06451672 0.034550253 0.027756047
0.028374461 0.03323023 0.036904592 0.033788394 0.028765298 0.05498514 0.033144876 0.031952344
0.03625283 0.034231562 0.03151418 0.049942195 0.03844687 0.034521185 0.03088065 0.020974757
00000000: d72d 493d 0621 163d 9409 183d 7395 043d
00000010: 2697 153d 1a54 643d c437 8b3d fef4 153d
00000020: 5cb2 f03c 5c23 993d 274a 853d 2394 df3c
00000030: ba20 cf3c 5821 843d 9184 0d3d a660 e33c
00000040: 8f71 e83c 6c1c 083d 4529 173d b365 0a3d
00000050: 34a5 eb3c 1938 613d ecc2 073d 76e0 023d
00000060: d97d 143d 6536 0c3d 0315 013d 3090 4c3d
00000070: 777a 1d3d 1666 0d3d 6bf9 fc3c 41d3 ab3c

conv_blocks.7.weight f4 [64, 32, 4]
0.0053162104 0.0143937925 0.0045319893 0.060228694 0.053061612 -0.019528218 0.050539725 0.017513357
-0.048854187 -0.038707286 0.068954915 0.06544506 -0.036953647 0.05606862 0.08962444 -0.068082765
-0.018547578 0.044268105 -0.0035050241 0.059599306 -0.07046704 -0.04862421 0.038750067 0.017193226
-0.016057128 0.07146041 0.057146724 -0.049790956 -0.06519206 0.06384567 -0.025499353 0.045987524
0.011647126 0.06823601 0.0910884 0.07722068 -0.05555436 -0.04180022 0.016382365 0.08281961
-0.011857179 0.06331105 0.07496001 0.017390989 0.030700302 -0.020525243 -0.04482289 0.022056948
0.011079011 -0.00786679 0.03862144 -0.057455193 0.036563918 -0.0728285 0.014771238 -0.010141065
-0.053101603 -0.036070127 -0.027366538 -0.0655177 -0.03744477 -0.054105654 -0.035168067 -0.04744784
-0.022677131 0.008362975 0.093840666 0.05161933 -0.023351533 -0.0035340274 0.06574538 0.0073013403
0.026357718 0.039163504 -0.031440947 -0.06123849 -0.043600786 -0.0043358165 0.04367356 0.051310226
-0.06330278 0.021081705 0.035422407 -0.015135717 -0.072152056 0.0013751236 0.031736664 -0.042880148
-0.07087465 0.050858974 0.08851601 0.0088802725 0.07693037 -0.044071216 0.06100933 0.014387035
0.05610263 -0.015155396 0.043399647 -0.043703772 0.056760922 0.08868147 0.06549136 0.055126723
0.056245286 0.009428892 -0.00348154 0.07763115 -0.08409599 -0.06936816 0.014451282 -0.044781327
0.018728692 0.065446146 -0.04579735 0.043914564 -0.051717296 -0.018570762 -0.049434084 0.0479197
-0.033522498 0.060608406 0.018338809 -0.056561563 0.0719272 -0.008382381 -0.07965548 -0.049735013
0.041009836 -0.030344365 0.032480195 0.03655203 0.0008006968 -0.0035999645 -0.018190738 0.051850785
0.0123637365 0.077554755 -0.052378412 -0.09036601 0.040713713 -0.064622276 0.012238058 0.04306343
-0.086345606 0.058512565 0.078875296 0.06362753 0.028192151 -0.06775515 0.06875283 0.05254126
0.012809115 -0.032686785 -0.0648787 -0.07094424 0.073305786 0.048744872 -0.028795402 -0.026385456
-0.07087578 -0.08750112 9.9110286e-05 -0.05906814 0.05886548 -0.020057002 -0.051699728 -0.061113525
-0.08907329 -0.0056317113 -0.01708163 0.045692805 0.0062521934 -0.018034825 0.0035269395 -0.018699784
0.011307113 0.05991765 0.065024175 0.03825145 -0.0048598046 0.029676357 -0.08521656 -0.071447626
0.08221447 0.07503393 0.07632796 -0.07930455 0.086793624 -0.012947574 0.022172784 0.028482601
0.0341754 -0.0032881682 -0.016250558 -0.006790451 0.041707173 0.025892377 0.05473383 -0.024486305
0.028214222 0.07131926 -0.08739297 -0.07416349 -0.059055865 0.039281387 0.041266054 0.03684282
0.033611074 -0.021360854 0.07781376 -0.06594939 0.06919303 0.067468934 -0.014574948 0.013479754
-0.023691827 0.0074972687 0.06334896 0.012360281 -0.067285486 -0.054243445 0.043524485 -0.009624962
0.009886883 -0.07811622 0.08483239 0.06341357 -0.08169965 0.08544605 0.04380633 0.025237111
0.05357937 -0.05226556 -0.036302127 0.06668363 0.006067678 0.007158879 0.07115256 0.011700774
-0.04898834 0.018182373 0.058648042 0.0840038 0.052804217 -0.09715334 -0.042900547 -0.0074588796
-0.028350003 0.007252504 -0.026341345 -0.025534468 -0.08017532 0.07271189 -0.017977212 0.070919044
00000000: 9b33 ae3b f1d3 6b3c 1581 943b 5db2 763d
00000010: 2257 593d a4f9 9fbc be02 4f3d 2c78 8f3c
00000020: 541b 48bd 888b 1ebd 3c38 8d3d 0f08 863d
00000030: b55c 17bd 36a8 653d 058d b73d fa6e 8bbd
00000040: 17f1 97bc 7952 353d 8cb4 65bb 671e 743d
00000050: 0651 90bd 2e2a 47bd 64b8 1e3d cfd8 8c3c
00000060: 3d8a 83bc d659 923d af12 6a3d 9af1 4bbd
00000070: 6a83 85bd 85c1 823d 05e4 d0bc 6a5d 3c3d
00000080: 96d3 3e3c 52bf 8b3d 8e8c ba3d e025 9e3d
00000090: f88c 63bd b536 2bbd 4f34 863c 549d a93d
000000a0: 9d44 42bc 39a9 813d a284 993d 8c77 8e3c
000000b0: 337f fb3c 8e24 a8bc 3598 37bd c6b0 b43c
000000c0: bd84 353c b5e3 00bc 8431 1e3d 2356 6bbd
000000d0: 0cc4 153d 1c27 95bd 1003 723c b626 26bc
000000e0: 1181 59bd 45be 13bd ca2f e0bc 252e 86bd
000000f0: b05f 19bd e49d 5dbd 640c 10bd ab58 42bd
00000100: 64c5 b9bc dc04 093c 892f c03d ca6e 533d
00000110: b74b bfbc 249b 67bb 84a5 863d 1540 ef3b
00000120: 24ec d73c e969 203d 39c8 00bd 36d5 7abd
00000130: bd96 32bd 7713 8ebb 0ce3 323d ac2a 523d
00000140: e3a4 81bd 8ab3 ac3c 1617 113d ccfb 77bc
00000150: 75c4 93bd 7e3d b43a 4efe 013d 18a3 2fbd
00000160: ba26 91bd 8051 503d e247 b53d 907e 113c
00000170: ab8d 9d3d 0584 34bd ebe4 793d 99b7 6b3c
00000180: dfcb 653d 574e 78bc d4c3 313d ba02 33bd
00000190: 247e 683d a19e b53d 5620 863d 8fcc 613d
000001a0: 7561 663d a47b 1a3c 8c2a 64bb 15fd 9e3d
000001b0: 853a acbd e510 8ebd 12c5 6c3c a06c 37bd
000001c0: ea6c 993c a108 863d 0196 3bbd c2df 333d
000001d0: 84d5 53bd b621 98bc 657b 4abd 7347 443d
000001e0: e34e 09bd 8540 783d 453b 963c 19ad 67bd
000001f0: 914e 933d 4156 09bc 6a22 a3bd f1b6 4bbd
00000200: eef9 273d bf94 f8bc f409 053d 95b7 153d
00000210: dae5 513a 62ed 6bbb be04 95bc 7d61 543d
00000220: 4591 4a3c 07d5 9e3d bf8a 56bd d111 b9bd
00000230: 6cc3 263d af58 84bd 2382 483c 4763 303d
00000240: f7d5 b0bd dfaa 6f3d 5f89 a13d 274f 823d
00000250: 3af3 e63c 36c3 8abd 49ce 8c3d 8135 573d
00000260: 53dd 513c 94e2 05bd 20df 84bd 374b 91bd
00000270: 5821 963d b4a8 473d 56e4 ebbc 5026 d8bc
00000280: 5227 91bd ca33 b3bd 6ed9 cf38 6ff1 71bd
00000290: ee1c 713d 954e a4bc 18c3 53bd 2d52 7abd
000002a0: 0f6c b6bd 388a b8bb c6ee 8bbc 6128 3b3d
000002b0: 33df cc3b c5bd 93bc 3a24 673b 4a30 99bc
000002c0: 7841 393c 366c 753d 652b 853d 8dad 1c3d
000002d0: ff3e 9fbb d51b f33c 0586 aebd 2253 92bd
000002e0: 0f60 a83d 64ab 993d d551 9c3d 6d6a a2bd
000002f0: dbc0 b13d 1022 54bc b3a3 b53c 5854 e93c
00000300: 81fb 0b3d 4f7e 57bb e41f 85bc 6e82 debb
00000310: 24d5 2a3d 401c d43c 9530 603d 8197 c8bc
00000320: 8321 e73c d50f 923d 16fb b2bd 07e3 97bd
00000330: 90e4 71bd 85e5 203d 9806 293d 7fe8 163d
00000340: c4ab 093d f5fc aebc d25c 9f3d 7910 87bd
00000350: 13b5 8d3d 272d 8a3d c3cb 6ebc 30da 5c3c
00000360: 5d15 c2bc a6ab f53b 19bd 813d c782 4a3c
00000370: f9cc 89bd 602e 5ebd bb46 323d 04b2 1dbc
00000380: 98fc 213c 66fb 9fbd 9bbc ad3d f9de 813d
00000390: 2552 a7bd 57fe ae3d 446e 333d 0fbe ce3c
000003a0: 0b76 5b3d 6914 56bd 8ab1 14bd 6d91 883d
000003b0: 5fd3 c63b 0895 ea3b 6fb8 913d 9ab4 3f3c
000003c0: ffa7 48bd 33f3 943c ee38 703d 2f0a ac3d
000003d0: 3c49 583d 55f8 c6bd 7cb8 2fbd 9e69 f4bb
000003e0: 443e e8bc 6aa6 ed3b cec9 d7bc a92d d1bc
000003f0: f532 a4bd f9e9 943d f244 93bc 013e 913d

conv_blocks.7.bias f4 [64]
0.01692423 -0.0600227 -0.0012835097 -0.03004435 -0.04586053 -0.018117208 -0.053563207 0.005367982
0.024615029 -0.053708475 0.076126605 -0.01681873 -0.04416474 -0.002928855 0.059319824 -0.037291933
-0.039125293 0.006293803 0.08378323 -0.08643456 -0.06625709 -0.017900435 -0.040122643 -0.048481736
0.023079857 -0.05348331 -0.08173535 0.059446882 0.048409946 0.06948763 -0.0850494 -0.0299757
0.074422725 -0.020259522 0.08061795 -0.041485984 0.041928545 0.0592907 -0.029500134 -0.047761142
0.08646043 -0.05445555 -0.041772325 -0.084039256 -0.04245437 -0.046745885 -0.07633585 0.049853623
-0.06205134 -0.044504296 0.01889899 -0.03950404 0.019434255 0.07444749 -0.04786914 -0.009349155
-0.016652718 -0.066224 -0.034900345 0.054744203 0.08601209 -0.012504933 -0.08244173 -0.07605552
00000000: afa4 8a3c 5dda 75bd 703b a8ba 921f f6bc
00000010: 40d8 3bbd 8a6a 94bc 1865 5bbd e6e5 af3b
00000020: 75a5 c93c 6bfd 5bbd 44e8 9b3d 6fc7 89bc
00000030: 16e6 34bd 08f2 3fbb 58f9 723d 6dbf 18bd
00000040: d841 20bd 3f3c ce3b 8b96 ab3d 9a04 b1bd
00000050: ccb1 87bd efa3 92bc a457 24bd c994 46bd
00000060: f811 bd3c 5111 5bbd dd64 a7bd 937e 733d
00000070: 8249 463d 884f 8e3d 612e aebd 998f f5bc
00000080: f16a 983d 4cf7 a5bc 061b a53d 35ed 29bd
00000090: 44bd 2b3d ceda 723d 44aa f1bc 30a1 43bd
000000a0: 2a12 b13d c80c 5fbd 7519 2bbd c61c acbd
000000b0: a2e4 2dbd 9d78 3fbd f855 9cbd 5033 4c3d
000000c0: 8c29 7ebd 234a 36bd 0ed2 9a3c fdce 21bd
000000d0: 9634 9f3c ed77 983d 6e12 44bd 332d 19bc
000000e0: 486b 88bc 73a0 87bd aaf3 0ebd 753b 603d
000000f0: 1b27 b03d 7ee1 4cbc 36d7 a8bd ffc2 9bbd

conv_blocks.8.weight f4 [64]
1.0045301 0.9920034 1.00055 1.0008693 1.0008612 0.9959627 1.0096773 1.007241
0.99604565 1.0045984 0.99317586 0.99341697 1.0036621 1.0005294 0.99676025 1.0076307
1.0024115 0.9995776 1.0090637 0.99006414 1.0063912 1.0035119 0.99431723 0.9972526
0.998977 0.99552816 0.9986566 0.99962735 1.0203241 1.0014985 1.0004905 0.9902918
0.99734753 0.9985713 1.0067642 0.9939246 1.0026165 0.99613684 0.99830043 0.99466807
1.0038058 1.0030341 0.991558 0.9937793 1.0073013 0.99757034 0.99786246 1.0125828
0.99668664 0.9989281 1.0002888 1.010486 0.9897228 1.0026565 0.992413 1.006103
0.9928853 0.9970722 1.0124755 0.99193984 0.9959702 1.0000259 0.9946257 1.0060977
00000000: 7194 803f eff3 7d3f 0612 803f 7c1c 803f
00000010: 381c 803f 69f7 7e3f 1b3d 813f 46ed 803f
00000020: d9fc 7e3f ae96 803f c640 7e3f 9350 7e3f
00000030: 0078 803f 5911 803f ae2b 7f3f 0bfa 803f
00000040: 054f 803f 51e4 7f3f 0029 813f d874 7d3f
00000050: 6dd1 803f 1473 803f 938b 7e3f f24b 7f3f
00000060: f5bc 7f3f efda 7e3f f5a7 7f3f 94e7 7f3f
00000070: fb99 823f 1a31 803f 1310 803f c383 7d3f
00000080: 2b52 7f3f 5ea2 7f3f a6dd 803f d871 7e3f
00000090: bd55 803f d302 7f3f 9e90 7f3f 91a2 7e3f
000000a0: b57c 803f 6c63 803f bfd6 7d3f 5268 7e3f
000000b0: 40ef 803f c560 7f3f ea73 7f3f 509c 813f
000000c0: db26 7f3f c1b9 7f3f 7709 803f 9b57 813f
000000d0: 795e 7d3f 0c57 803f c70e 7e3f fcc7 803f
000000e0: bb2d 7e3f 2040 7f3f cc98 813f c5ef 7d3f
000000f0: e7f7 7e3f d900 803f ca9f 7e3f cfc7 803f

conv_blocks.8.bias f4 [64]
0.017145723 0.003448776 -0.0023948336 -0.004265591 0.005950193 0.0032800708 0.009444379 0.0074045057
-0.0038342525 0.0021318255 -0.0060843737 0.0027517658 0.00086519826 0.0014478837 -0.0032854967 0.015507576
0.013953544 0.012520736 0.0002514827 8.193194e-05 0.003409882 0.0075937747 -0.011171662 -0.00083122985
0.006772635 -0.0050638462 0.0007584571 0.020146532 0.0140701495 -0.00872797 9.0926886e-05 -0.010700166
0.0050723366 -0.008261585 0.009996016 -0.0033458173 -0.0005230052 -0.0016980249 -0.00047124087 0.005631804
0.00070730277 0.003657411 -0.008566696 -0.0051677483 -0.001755194 -0.007109282 0.0076671406 0.016010044
-0.002010001 -0.008569689 0.005235426 0.007825109 -0.0031692134 0.00339206 -0.011773867 0.010581989
-0.011914621 -0.005031634 0.012550801 -0.010039712 -0.004145783 0.0015462956 -0.004363112 0.0031210387
00000000: 3075 8c3c dc04 623b a4f2 1cbb 5fc6 8bbb
00000010: d6f9 c23b 75f6 563b 99bc 1a3c 7fa1 f23b
00000020: 1548 7bbb 19b6 0b3b 6d5f c7bb f856 343b
00000030: 79ce 623a eac6 bd3a 7d51 57bb 7d13 7e3c
00000040: 689d 643c c623 4d3c 70d9 8339 e0d2 ab38
00000050: 5478 5f3b 33d5 f83b 5909 37bc e4e6 59ba
00000060: fbec dd3b 9fee a5bb 32d3 463a 570a a53c
00000070: 7c86 663c c2ff 0ebc 00b0 be38 c04f 2fbc
00000080: d835 a63b 995b 07bc 54c6 233c 8045 5bbb
00000090: 491a 09ba 4390 deba e110 f7b9 ff8a b83b
000000a0: 496a 393a 2db1 6f3b 545b 0cbc 3756 a9bb
000000b0: 8a0e e6ba fbf4 e8bb a33c fb3b 7f27 833c
000000c0: 39ba 03bb e167 0cbc f08d ab3b e334 003c
000000d0: 94b2 4fbb 534d 5e3b 2de7 40bc 1460 2d3c
000000e0: 8b35 43bc 68e0 a4bb e0a1 4d3c 9b7d 24bc
000000f0: 59d9 87bb 12ad ca3a 70f8 8ebb 578a 4c3b

conv_blocks.8.running_mean f4 [64]
0.27288005 0.13565268 0.06693469 0.12172212 -0.05158469 -0.1436957 0.090596795 -0.14088392
-0.039331462 -0.31452715 -0.1540883 0.16988319 -0.05316209 -0.113856554 0.1780244 -0.07501265
0.28616333 0.068534106 0.0065045767 0.18177769 -0.39251232 0.096146494 -0.0893111 -0.1115077
0.009855816 -0.15062061 -0.1207068 0.3939062 -0.053370137 -0.20858864 -0.32671952 -0.07962125
0.2004332 0.066058956 0.23183276 0.19273889 0.2750308 0.006949979 -0.04438611 -0.0006672563
-0.28186783 0.32292292 -0.029707871 -0.031187555 0.07004971 -0.19774947 -0.047062464 -0.17499161
-0.011523374 -0.16954839 0.21579055 -0.16453724 0.1832941 0.11575306 0.12158261 0.05301167
0.21722078 0.11315992 -0.32577473 0.15872878 0.018178094 0.15217158 -0.10164294 -0.21225095
00000000: efb6 8b3e 89e8 0a3e 0e15 893d 7249 f93d
00000010: 784a 53bd f724 13be d08a b93d e043 10be
00000020: 071a 21bd b409 a1be 53c9 1dbe dcf5 2d3e
00000030: 7ec0 59bd a02d e9bd 074c 363e 3ba0 99bd
00000040: 0084 923e 9c5b 8c3d 5824 d53b ee23 3a3e
00000050: 60f7 c8be 74e8 c43d bde8 b6bd 265e e4bd
00000060: 4a7a 213c 4a3c 1abe 2035 f7bd 13ae c93e
00000070: a59a 5abd 4398 55be c847 a7be 7710 a3bd
00000080: 5c3e 4d3e eb49 873d 9165 6d3e 585d 453e
00000090: d6d0 8c3e a6bc e33b 36ce 35bd d0ea 2eba
000000a0: fb50 90be 2756 a53e ec5d f3bc 0b7d ffbc
000000b0: 3976 8f3d d67e 4abe 92c4 40bd 0031 33be
000000c0: 89cc 3cbc 189e 2dbe 33f8 5c3e 737c 28be
000000d0: 73b1 3b3e f10f ed3d 4e00 f93d c422 593d
000000e0: 206f 5e3e 63c0 e73d f2cb a6be cc89 223e
000000f0: 3aea 943c ded2 1b3e 2c2a d0bd 5058 59be

conv_blocks.8.running_var f4 [64]
0.21732211 0.23884992 0.2427937 0.30102924 0.1912686 0.2805626 0.2063124 0.28480265
0.23786233 0.2057886 0.18138792 0.224675 0.18152454 0.2621648 0.20714931 0.22384909
0.23865776 0.28350276 0.22982799 0.23181514 0.19617318 0.20679441 0.20339134 0.25875506
0.18823673 0.20155838 0.21909901 0.25015956 0.22947423 0.23509128 0.23265864 0.23102856
0.23332624 0.22905764 0.15489016 0.21603937 0.22430821 0.20520462 0.19477162 0.2035968
0.21632574 0.21234718 0.21813907 0.22135743 0.21482623 0.23256941 0.18091778 0.1751003
0.19861634 0.18200764 0.18830477 0.23218328 0.1924375 0.24784428 0.2312631 0.18520406
0.23419054 0.22518338 0.21761066 0.21980508 0.18576123 0.20714486 0.21003923 0.21829203
00000000: b089 5e3e 1395 743e e99e 783e 8120 9a3e
00000010: eadb 433e e7a5 8f3e 8f43 533e a7d1 913e
00000020: 2f92 733e 3fba 523e c1bd 393e 3411 663e
00000030: 92e1 393e 773a 863e f31e 543e b238 653e
00000040: b362 743e 4627 913e 0758 6b3e f360 6d3e
00000050: 9fe1 483e eac1 533e d245 503e 8b7b 843e
00000060: 21c1 403e 5265 4e3e 7e5b 603e ea14 803e
00000070: 4bfb 6a3e c5bb 703e 113e 6e3e c092 6c3e
00000080: 13ed 6e3e 168e 6a3e 879b 1e3e 6d39 5d3e
00000090: 0db1 653e 2921 523e 3672 473e ae7b 503e
000000a0: 7f84 5d3e 8a71 593e d95f 5f3e 86ab 623e
000000b0: 68fb 5b3e ad26 6e3e 8342 393e 7e4d 333e
000000c0: 1562 4b3e 3660 3a3e f7d2 403e 74c1 6d3e
000000d0: 560e 453e e4ca 7d3e 3cd0 6c3e 22a6 3d3e
000000e0: a5cf 6f3e 7996 663e 54d5 5e3e 9514 613e
000000f0: 3138 3e3e c81d 543e 8614 573e f287 5f3e

conv_blocks.11.weight f4 [128, 64, 4]
-0.057219986 -0.010372621 -0.007916991 -0.023694873 -0.048414774 0.02449868 0.019582031 0.011349657
0.047396284 0.035031147 -0.01298122 0.051480576 0.041359533 -0.057287123 -0.03332209 -0.025530258
-0.052341644 0.027538102 -0.0025507414 -0.052157316 0.04745212 0.03574713 0.035876114 -0.01833489
-0.0171698 -0.002158544 -0.067884825 -0.021876965 -0.006624419 0.049282495 0.034053557 0.04309962
0.00929426 -0.003938555 0.0049462444 0.038411483 -0.017952532 -0.030850172 -0.055586755 -0.056174047
-0.0125402035 -0.03401405 0.06377317 0.05651541 0.00793412 -0.0016293939 0.012424294 0.0024211004
0.02952349 -0.04713211 0.020430723 -0.013733926 0.011626241 -0.009872752 -0.052822255 -0.0228267
-0.015396575 -0.030967498 -0.01862356 0.04960226 0.053436086 0.041325424 -0.05372127 -0.07187114
0.04350972 -0.050956935 0.035406623 0.020799326 0.010949832 -0.024439877 -0.04310144 -0.011770024
-0.039290816 -0.009317496 -0.07327426 -0.031584945 0.022730155 -0.055719618 0.017105307 -0.0355057
-0.037975408 0.04166968 -0.01230724 -0.043938257 -0.0125801945 -0.046688884 -0.004355195 -0.03481103
-0.052083872 0.053038638 0.0015127842 0.01039854 0.055262875 0.0063810493 0.02946672 -0.004954188
0.037791915 0.010230526 -0.018421097 -0.04428177 -0.025200652 -0.048289835 -0.0060429736 0.037509024
-0.039803848 0.040550776 -0.037658 0.020209566 -0.05356851 0.04111283 0.023617988 -0.04821089
-0.011689821 0.050656423 -0.024984121 -0.047893673 -0.052673668 0.015615294 -0.015203759 -0.008322762
-0.032475896 0.037881657 0.0056472444 -0.046465725 -0.027860086 -0.06802094 0.01417835 0.02039551
0.049814925 -0.030894877 -0.0472159 -0.054925688 0.031952742 -0.04239437 -0.02401862 -0.044500295
0.0090711 -0.05002686 0.02691147 -0.046228502 -0.0278298 0.037705123 -0.050164085 -0.031139903
0.013835141 0.026387418 0.03419729 -0.03536186 -0.042393643 -0.018836785 -0.0049592396 -0.039451882
0.036782023 0.035193074 0.031819716 0.017334193 -0.06259708 -0.05782122 -0.028323887 -0.037299097
0.04690164 0.04582895 0.0130336825 0.03577549 0.036314864 -0.047434907 0.015876098 0.038704287
-0.063556984 -0.03920327 0.01916318 -0.009550231 -0.020209579 -0.009730217 -0.054276146 -0.03792733
-0.013290187 0.029896382 -0.065410785 -0.047918413 -0.04440887 0.021888038 -0.03333355 0.031995583
0.042862188 -0.06463977 -0.027722398 -0.050339308 -0.022172794 -0.042569377 -0.031000901 0.0033881157
-0.0029531165 0.0087008905 -0.0494219 0.03145531 -0.058206562 0.037374783 -0.02855332 -0.050200067
0.03715524 -0.041702647 0.015618376 -0.024722137 0.06774442 0.021147156 0.0260473 -0.039506596
0.04169208 -0.026007352 -0.022282492 -0.0071568643 -0.040003303 -0.05599086 0.013537287 0.0262059
0.033198077 0.023777355 -0.0609958 0.007449766 -0.0009922517 0.0031900357 0.0061491258 -0.0039040346
0.01717884 -0.034179762 0.021566017 0.019943817 0.046305668 -0.037447818 -0.040500585 0.04697958
-0.0018490333 -0.033796743 -0.031280577 0.049700174 -0.0027336741 -0.05706209 -0.00083334505 -0.010311679
0.005324468 -0.00886033 0.04337481 -0.044269823 0.055081956 0.042756673 0.041111846 0.010863177
-0.03913742 -0.05090379 -0.031484112 0.039729428 0.0114120245 0.035677854 0.031493854 -0.025536919
00000000: 815f 6abd edf1 29bc 44b6 01bc c01b c2bc
00000010: 924e 46bd 75b1 c83c 7f6a a03c e9f3 393c
00000020: 9b22 423d d27c 0f3d 2faf 54bc 4cdd 523d
00000030: 9d68 293d e7a5 6abd be7c 08bd d524 d1bc
00000040: 3164 56bd 9697 e13c 572a 27bb e9a2 55bd
00000050: 275d 423d 956b 123d d5f2 123d 0d33 96bc
00000060: aea7 8cbc 5c76 0dbb 3307 8bbd 5237 b3bc
00000070: a711 d9bb 71dc 493d be7b 0b3d 3a89 303d
00000080: f446 183c fe0e 81bb 1b14 a23b 5c55 1d3d
00000090: 3011 93bc 80b9 fcbc f0ae 63bd c216 66bd
000000a0: 6d75 4dbc 5152 0bbd 829b 823d b47c 673d
000000b0: 1cfe 013c 6391 d5ba 448f 4b3c 53ab 1e3b
000000c0: 3fdb f13c 990d 41bd 555e a73c 4304 61bc
000000d0: fd7b 3e3c 53c1 21bc 265c 58bd 0fff babc
000000e0: eb41 7cbc 8daf fdbc 7090 98bc bd2b 4b3d
000000f0: ccdf 5a3d d944 293d d60a 5cbd 2d31 93bd
00000100: 4037 323d 38b8 50bd 8906 113d 5963 aa3c
00000110: ed66 333c 2336 c8bc 238b 30bd 0fd7 40bc
00000120: 68ef 20bd 69a8 18bc d110 96bd 375f 01bd
00000130: 9734 ba3c 413a 64bd 6e20 8c3c 6d6e 11bd
00000140: 1a8c 1bbd d4ad 2a3d 4ea4 49bc 9af8 33bd
00000150: 291d 4ebc d83c 3fbd 06b6 8ebb 0396 0ebd
00000160: e655 55bd 0b3f 593d 9d48 c63a a35e 2a3c
00000170: 535b 623d 1f18 d13b 3164 f13c be56 a2bb
00000180: b2cb 1a3d f09d 273c d7e7 96bc cd60 35bd
00000190: 9971 cebc 90cb 45bd 2304 c6bb 10a3 193d
000001a0: 5c09 23bd 9218 263d 463f 1abd 888e a53c
000001b0: a76a 5bbd ed65 283d 837a c13c c878 45bd
000001c0: aa86 3fbc 1c7d 4f3d 80ab ccbc 282c 44bd
000001d0: 58c0 57bd 4ad7 7f3c 3019 79bc 325c 08bc
000001e0: 7205 05bd cc29 1b3d 850c b93b d852 3ebd
000001f0: d63a e4bc 904e 8bbd 4f4c 683c 7c14 a73c
00000200: bc0a 4c3d 4117 fdbc 7665 41bd c2f9 60bd
00000210: e1e0 023d b8a5 2dbd b2c2 c4bc f145 36bd
00000220: f39e 143c f7e8 4cbd 7175 dc3c 195a 3dbd
00000230: 52fb e3bc b070 1a3d db78 4dbd 1c19 ffbc
00000240: caac 623c 6d2a d83c 7512 0c3d 99d7 10bd
00000250: f5a4 2dbd 9a4f 9abc 1e81 a2bb 4c98 21bd
00000260: bfa8 163d 9d26 103d 6455 023d 7000 8e3c
00000270: e632 80bd f2d5 6cbd 7f07 e8bc f0c6 18bd
00000280: ef1b 403d 23b7 3b3d 3a8b 553c 5289 123d
00000290: e5be 143d 1b4b 42bd 970e 823c 6388 1e3d
000002a0: 2a2a 82bd 9c93 20bd 1afc 9c3c 9278 1cbc
000002b0: 8f8e a5bc 7d6b 1fbc aa50 5ebd b059 1bbd
000002c0: 16bf 59bc 42e9 f43c 17f6 85bd 1946 44bd
000002d0: 13e6 35bd 8b4e b33c c388 08bd cd0d 033d
000002e0: 4390 2f3d db61 84bd 151a e3bc 9730 4ebd
000002f0: b8a3 b5bc 3a5d 2ebd 9af5 fdbc 260b 5e3b
00000300: 1389 41bb 2e8e 0e3c 9e6e 4abd 48d7 003d
00000310: 016a 6ebd 4d16 193d a7e8 e9bc 969e 4dbd
00000320: 1830 183d 65d0 2abd 38e4 7f3c 1486 cabc
00000330: 96bd 8a3d cd3c ad3c 2661 d53c abd1 21bd
00000340: 51c5 2a3d 5f0d d5bc c689 b6bc 2184 eabb
00000350: 81da 23bd ac56 65bd 7fcb 5d3c c1ad d63c
00000360: b5fa 073d bac8 c23c bbd6 79bd 2b1d f43b
00000370: 710e 82ba eb0f 513b 9b7e c93b d5da 7fbb
00000380: a3ba 8c3c 1400 0cbd 37ab b03c 3761 a33c
00000390: 03ab 3d3d e262 19bd f1e3 25bd a96d 403d
000003a0: 435b f2ba 746e 0abd 1020 00bd 6992 4b3d
000003b0: 7127 33bb f0b9 69bd d774 5aba 51f2 28bc
000003c0: e078 ae3b eb2a 11bc c9a9 313d 4654 35bd
000003d0: 9e9d 613d 9f21 2f3d e564 283d 77fb 313c
000003e0: 8f4e 20bd 7e80 50bd 7cf5 00bd 53bb 223d
000003f0: 80f9 3a3c f122 123d b3ff 003d cd32 d1bc

conv_blocks.11.bias f4 [128]
-0.018489776 0.043139234 -0.0010015605 -0.00051516097 3.514875e-05 -0.032914575 0.01486182 -0.059693526
-0.0076155844 -0.0037292645 0.012701888 -0.03131794 -0.060848977 0.05999658 -0.0364954 -0.030473823
0.03883924 -0.006680316 -0.03867574 -0.042763133 -0.057280585 0.0028800482 0.0033646459 0.050896794
-0.061081763 0.026288426 0.0021731935 -0.052725296 0.0037722448 -0.031600274 0.015864782 0.027578892
0.05664072 -0.019026566 0.059018157 0.015201721 0.018125743 -0.05736652 -0.055270188 -0.0231934
0.059156176 0.033377036 0.055000313 -0.05844292 0.0043397415 -0.057149086 0.059616383 0.04276774
0.034641314 -0.03131683 -0.034769475 -0.037549816 0.05334917 -0.03487972 0.030009054 0.03332486
-0.01890424 0.05589618 -0.04930663 -0.032531876 0.019130405 0.012670203 -0.02597748 -0.020411214
0.00046140412 0.03328485 0.049231716 0.059034787 0.05330922 -0.016141105 0.023948144 -0.0032137667
-0.058820464 -0.04673519 -0.054187194 0.05531824 -0.00867298 0.048545122 0.007130259 0.055999737
0.032518573 0.040508084 0.05665552 0.0068334066 -0.049988654 0.022328777 0.05862447 0.03337901
-0.0020273966 0.05050206 -0.06054156 0.019070886 0.061125528 -0.025792226 -0.023325946 0.020692552
0.0359625 -0.062332943 0.03801612 0.04666564 -0.0306459 0.035763815 -0.05719558 -0.01150592
-0.049500354 -0.027399547 0.030223886 0.0492913 0.04274966 0.032385062 -0.03133881 0.007943225
0.03885457 0.060389753 -0.03433054 -0.04656208 -0.03461754 0.032842588 -0.06089915 0.036680732
0.016617054 0.057659734 0.048261184 0.015314516 0.03346889 -0.014613122 -0.029532358 -0.025066186
00000000: df77 97bc c4b2 303d cb46 83ba de0b 07ba
00000010: af6c 1338 6fd1 06bd fe7e 733c 3381 74bd
00000020: 278c f9bb ad66 74bb 941b 503c 3e47 00bd
00000030: c73c 79bd f9be 753d 337c 15bd 3da4 f9bc
00000040: e515 1f3d 8de6 dabb 746a 1ebd 6528 2fbd
00000050: 0c9f 6abd 31bf 3c3b 6481 5c3b 2879 503d
00000060: df30 7abd d35a d73c 236c 0e3b 7bf6 57bd
00000070: c437 773b 4a6f 01bd dcf6 813c 21ed e13c
00000080: 1a00 683d 9add 9bbc 06bd 713d a410 793c
00000090: 707c 943c 28f9 6abd fe62 62bd 1600 bebc
000000a0: bf4d 723d 5cb6 083d 0248 613d d861 6fbd
000000b0: 6434 8e3b 2915 6abd 4f30 743d 3a2d 2f3d
000000c0: 0de4 0d3d 1446 00bd 706a 0ebd d6cd 19bd
000000d0: a984 5a3d 0ade 0ebd 8cd5 f53c a67f 083d
000000e0: 11dd 9abc 65f3 643d c0f5 49bd 2540 05bd
000000f0: 5eb7 9c3c af96 4f3c b9ce d4bc 6b35 a7bc
00000100: 9de8 f139 b255 083d 32a7 493d 76ce 713d
00000110: c55a 5a3d 5a3a 84bc e62e c43c 0f9e 52bb
00000120: baed 70bd 666d 3fbd 64f3 5dbd 6195 623d
00000130: 1d19 0ebc 40d7 463d f3a4 e93b fb5f 653d
00000140: 3232 053d ceeb 253d 9e0f 683d c5ea df3b
00000150: e7c0 4cbd d7ea b63c 3620 703d 6eb8 083d
00000160: 12de 04bb 40db 4e3d 6dfa 77bd 8c3a 9c3c
00000170: c35e 7a3d 384a d3bc 0e16 bfbc 6d83 a93c
00000180: 6a4d 133d d450 7fbd cbb6 1b3d 7824 3f3d
00000190: 1c0d fbbc 147d 123d ea45 6abd 5483 3cbc
000001a0: e2c0 4abd 0475 e0bc 1598 f73c ade5 493d
000001b0: 441a 2f3d 33a6 043d 205d 00bd 4d24 023c
000001c0: f825 1f3d 3f5b 773d 2e9e 0cbd e1b7 3ebd
000001d0: 1fcb 0dbd f385 063d 6371 79bd 893e 163d
000001e0: 7d20 883c 9d2c 6c3d 85ad 453d bce9 7a3c
000001f0: ad16 093d e06b 6fbc d8ed f1bc 9a57 cdbc

conv_blocks.12.weight f4 [128]
1.0095848 1.0128365 1.0043029 1.0072922 0.997454 0.99696624 1.0048962 0.99851465
0.9934134 1.0077323 1.0072886 1.0080667 0.9984416 0.997299 1.0101066 1.0088804
1.0043108 1.002214 0.9992312 1.0052904 1.0076988 1.0077639 1.0021985 0.9916926
1.0123025 1.012185 1.0061876 1.0070478 0.9981829 1.022111 1.0017384 1.0150672
1.0137061 1.0179648 1.0067835 1.0127 1.0166203 1.0038421 1.0179696 1.0212258
1.013196 1.0250268 1.007147 1.0022559 1.0121825 1.0086099 1.0149169 1.0135471
1.0010909 0.9997091 1.0074502 1.0115979 1.025449 1.0044389 1.0105494 1.0203305
1.0144376 1.0166514 0.99501854 1.0203108 1.0016778 1.0177841 0.9892588 0.9941272
1.0102093 0.989965 1.0020593 0.99431163 0.99604505 1.0023625 1.0233068 1.0041445
1.0071595 1.0072296 1.0180598 1.0029057 1.0161967 1.0012071 1.0058447 1.022419
1.0094466 1.0010031 1.0117785 1.0113547 1.0106363 1.0060768 1.0117303 1.0124165
0.9933667 0.9934909 1.0045768 0.9940394 1.0048418 0.9965058 1.0025623 1.0018917
1.0099752 1.0011039 1.0136677 1.0086404 1.0079783 1.0127522 0.9981794 1.0158204
1.0081055 1.017679 1.0095092 1.0088922 0.99911803 1.0214148 1.0091498 1.0024681
0.99921656 1.0132197 0.9949502 0.9968886 1.0069735 1.0041676 1.0042146 1.0072467
0.9995925 1.0063183 1.0072784 1.016092 1.0095428 1.0079757 1.0042202 1.0032665
00000000: 133a 813f a0a4 813f ff8c 803f f3ee 803f
00000010: 2559 7f3f 2e39 7f3f 70a0 803f a89e 7f3f
00000020: 5750 7e3f 5ffd 803f d5ee 803f 5408 813f
00000030: de99 7f3f fd4e 7f3f 2c4b 813f fe22 813f
00000040: 428d 803f 8c48 803f 9ecd 7f3f 5bad 803f
00000050: 46fc 803f 68fe 803f 0a48 803f 91df 7d3f
00000060: 2193 813f 478f 813f c1ca 803f f1e6 803f
00000070: ea88 7f3f 89d4 823f f738 803f b9ed 813f
00000080: 1fc1 813f ac4c 823f 48de 803f 27a0 813f
00000090: 9d20 823f e67d 803f d44c 823f 87b7 823f
000000a0: 68b0 813f 1434 833f 31ea 803f ec49 803f
000000b0: 328f 813f 211a 813f cce8 813f e9bb 813f
000000c0: bf23 803f f0ec 7f3f 21f4 803f 0a7c 813f
000000d0: ea41 833f 7491 803f af59 813f 319a 823f
000000e0: 17d9 813f a221 823f 89b9 7e3f 8b99 823f
000000f0: fa36 803f c046 823f 1140 7d3f 1f7f 7e3f
00000100: 8a4e 813f 596e 7d3f 7b43 803f 358b 7e3f
00000110: cffc 7e3f 6a4d 803f b8fb 823f cf87 803f
00000120: 9aea 803f e6ec 803f c94f 823f 375f 803f
00000130: bc12 823f 8e27 803f 85bf 803f a0de 823f
00000140: 8c35 813f df20 803f f581 813f 1274 813f
00000150: 885c 813f 20c7 803f 6180 813f dd96 813f
00000160: 484d 7e3f 6b55 7e3f f995 803f 5e79 7e3f
00000170: a89e 803f 011b 7f3f f653 803f fd3d 803f
00000180: de46 813f 2c24 803f ddbf 813f 211b 813f
00000190: 6f05 813f dda1 813f af88 7f3f 6706 823f
000001a0: 9a09 813f 4e43 823f 9937 813f 6123 813f
000001b0: 33c6 7f3f b8bd 823f d22b 813f e050 803f
000001c0: a8cc 7f3f 2fb1 813f 0eb5 7e3f 1734 7f3f
000001d0: 82e4 803f 9088 803f 1b8a 803f 76ed 803f
000001e0: 4be5 7f3f 0acf 803f 80ee 803f 4d0f 823f
000001f0: b338 813f 5905 813f 4a8a 803f 096b 803f

conv_blocks.12.bias f4 [128]
0.0126001295 0.009591888 0.004903471 0.0026497454 -0.0019704176 -0.000713333 0.006710791 -0.00043090392
0.0031981287 0.016013779 0.003384273 0.013845039 -0.007927892 0.00074651215 0.0033942263 0.0074621197
0.0035797604 0.002834623 0.0012752033 0.001955258 0.008780771 0.004085632 0.00564822 4.5331893e-05
-0.0018768454 0.018322874 0.010682781 0.005819944 0.0005302347 0.004936305 0.0078618275 0.0052274824
0.019077798 0.02030258 0.0072851554 0.016863337 0.0033254004 0.0027535404 0.015598751 0.021137642
0.0063404185 0.020100206 0.0039163018 -0.013199906 0.013852604 0.003886505 0.004675327 0.005548806
0.008976988 0.006613683 0.0075695175 -0.009061009 0.022250345 0.0023991037 -0.0009857483 0.020821111
-0.0006045671 0.014671646 -0.00819687 -0.007276458 0.012727459 0.017400445 -0.009431657 -0.0054676323
0.008348476 -0.011711151 -0.009241801 -0.0030546675 -0.0062873107 0.0023516263 0.015831294 -0.0035875377
0.009225916 0.005002236 0.018492205 -0.0012614023 0.013040023 0.003741988 -0.012080744 0.011616635
-0.0049344916 0.0011050365 0.008742366 0.007706229 0.007445665 -0.0033709141 0.008794972 0.016563607
0.007880961 -0.0037823825 0.014706913 -0.0013640871 0.0086274315 -0.0026942436 0.008011772 -0.0035593319
0.0118527785 -0.003949986 0.016728032 -0.00222746 0.0024621498 0.00023706918 -0.001986996 0.011544569
0.0061436743 0.017399563 0.009933506 0.011448861 0.0075655584 0.0056443284 0.006696706 0.0118669495
-0.0060558063 -0.0073168003 -0.006828509 -0.0033726464 0.019641072 -0.0011374942 -0.006366675 0.0016319634
0.0035374446 0.0039122 -0.014226401 -0.0049655833 0.00777013 0.006286352 -0.0039507276 0.0037331725
00000000: c670 4e3c 4b27 1d3c 4cad a03b 5aa7 2d3b
00000010: 1f22 01bb f8fe 3aba 32e6 db3b f2ea e1b9
00000020: b297 513b 542f 833c aeca 5d3b 4dd6 623c
00000030: fde3 01bc 95b1 433a ab71 5e3b cc84 f43b
00000040: 6a9a 6a3b 15c5 393b b924 a73a c923 003b
00000050: 39dd 0f3c c4e0 853b b414 b93b c022 3e38
00000060: 7b00 f6ba da19 963c d506 2f3c 3bb5 be3b
00000070: 73ff 0a3a bac0 a13b e5ce 003c 4d4b ab3b
00000080: 0b49 9c3c 9951 a63c 50b8 ee3b fb24 8a3c
00000090: f6ee 593b be74 343b e791 7f3c d928 ad3c
000000a0: 49c3 cf3b 30a9 a43c 5254 803b 6b44 58bc
000000b0: 08f6 623c bcb4 7e3b 7c33 993b c2d2 b53b
000000c0: 3714 133c 98b7 d83b b709 f83b a074 14bc
000000d0: 5b46 b63c 483a 1d3b 3934 81ba 0991 aa3c
000000e0: d07b 1eba 5861 703c 2a4c 06bc 5b6f eebb
000000f0: d586 503c 618b 8e3c 3d87 1abc d329 b3bb
00000100: 0cc8 083c 21e0 3fbc ec6a 17bc d130 48bb
00000110: c905 cebb be1d 1a3b a1b0 813c e51c 6bbb
00000120: 4c28 173c cce9 a33b f77c 973c a355 a5ba
00000130: d2a5 553c 243c 753b 50ee 45bc b353 3e3c
00000140: 84b1 a1bb dfd6 903a 243c 0f3c 8984 fc3b
00000150: c4fa f33b 8eea 5cbb c918 103c 67b0 873c
00000160: 251f 013c d9e1 77bb 44f5 703c 2bcb b2ba
00000170: 125a 0d3c e891 30bb cf43 033c ae43 69bb
00000180: 2832 423c e26e 81bb 3a09 893c 94fa 11bb
00000190: 055c 213b c695 7839 4338 02bb 6f25 3d3c
000001a0: e050 c93b 8789 8e3c 25c0 223c 0194 3b3c
000001b0: 81e8 f73b 0ff4 b83b 0b70 db3b 986d 423c
000001c0: c96f c6bb c5c1 efbb afc1 dfbb 9e07 5dbb
000001d0: 50e6 a03c f917 95ba 8a9f d0bb 9be7 d53a
000001e0: 79d4 673b ea31 803b da15 69bc 55b6 a2bb
000001f0: 939c fe3b befd cd3b 1b75 81bb 3ea8 743b

conv_blocks.12.running_mean f4 [128]
-0.49541116 0.12446748 -0.24128969 -0.052015275 0.031893473 0.12086705 -0.07925347 -0.1428753
-0.3840456 -0.3463632 -0.20077339 -0.29002202 -0.22236715 0.04957935 0.026090644 0.20152003
0.06474765 0.059499923 0.051064666 -0.106965855 -0.061260827 0.018877832 0.19620803 -0.30782703
-0.20259309 -0.3911275 -0.18983287 0.011337591 -0.2239867 -0.16495454 -0.049144402 0.14532691
-0.06142833 -0.22928967 -0.23359957 0.053621676 -0.3764791 -0.18706106 0.24639364 -0.0978965
0.18291521 0.010231528 0.03456503 -0.095907696 0.025917972 -0.21969235 -0.019878676 -0.013763384
-0.19205336 -0.33100417 0.12880944 0.13868392 0.19289508 -0.09066628 0.01346148 0.0033363225
-0.11212859 0.020348676 0.036137827 0.02298569 -0.29054475 -0.06920022 -0.02277776 0.17468426
0.07028728 0.33013406 -0.18777011 -0.17240162 -0.020101618 0.1747899 -0.075393 0.0156442
0.10759954 0.06806277 -0.6142746 -0.07537877 0.117000684 0.3883867 -0.023716362 -0.00983966
-0.06967717 0.0917484 -0.09407159 -0.013620922 -0.101170525 0.18036836 0.05209745 0.31491682
-0.20122215 0.25118378 0.07778144 0.084227026 0.17822549 0.206831 -0.034881115 0.123808175
0.2972539 -0.24521556 -0.123965085 -0.017076332 -0.017878572 0.0948877 0.19946769 -0.28081614
0.0448929 -0.0008577474 0.19186221 0.109916955 0.016243378 -0.03426318 -0.028586106 -0.18991171
-0.067115664 -0.28818062 -0.030652504 0.20277476 -0.2751335 0.08236287 -0.3581425 -0.07896314
-0.024134379 0.033725437 0.02434444 -0.06106072 0.0478216 0.060112726 -0.02017394 0.024247505
00000000: 88a6 fdbe cee8 fe3d a514 77be f80d 55bd
00000010: bba2 023d 2589 f73d a54f a2bd e74d 12be
00000020: a0a1 c4be 8456 b1be 8a97 4dbe c47d 94be
00000030: 37b4 63be b713 4b3d 0cbc d53c 445b 4e3e
00000040: 6a9a 843d 31b6 733d 2f29 513d ea10 dbbd
00000050: a2ec 7abd afa5 9a3c c2ea 483e 819b 9dbe
00000060: 9074 4fbe dd41 c8be 8c63 42be 4ec1 393c
00000070: c55c 65be d8e9 28be a44b 49bd 94d0 143e
00000080: 469c 7bbd e9ca 6abe ba34 6fbe 67a2 5b3d
00000090: dec1 c0be ef8c 3fbe 9d4e 7c3e f67d c8bd
000000a0: 204e 3b3e 24a2 273c 1094 0d3d 416b c4bd
000000b0: ed51 d43c 08f7 60be 9bd8 a2bc d17f 61bc
000000c0: a3a9 44be 6179 a9be 9fe6 033e 2803 0e3e
000000d0: 4a86 453e 3eaf b9bd 8a8d 5c3c 34a6 5a3b
000000e0: ada3 e5bd 44b2 a63c 4205 143d 7c4c bc3c
000000f0: 48c2 94be d8b8 8dbd 6d98 babc 6ee0 323e
00000100: c7f2 8f3d 5507 a93e cf46 40be 0d8a 30be
00000110: 26ac a4bc 20fc 323e a567 9abd 4428 803c
00000120: 265d dc3d 7e64 8b3d 1a41 1dbf 2f60 9abd
00000130: 0e9e ef3d 9fda c63e d148 c2bc 8636 21bc
00000140: e7b2 8ebd 96e6 bb3d 9ba8 c0bd 4a2a 5fbc
00000150: 7e32 cfbd 7cb2 383e 2364 553d c73c a13e
00000160: 2e0d 4ebe 299b 803e e04b 9f3d 387f ac3d
00000170: be80 363e 81cb 533e 80df 0ebd 248f fd3d
00000180: aa31 983e ca19 7bbe 68e1 fdbd aae3 8bbc
00000190: 1576 92bc 7c54 c23d 4241 4c3e 22c7 8fbe
000001a0: 9ee1 373d 74da 60ba 8777 443e 241c e13d
000001b0: d510 853c 8c57 0cbd 692d eabc 3778 42be
000001c0: f073 89bd 698c 93be f61a fbbc 30a4 4f3e
000001d0: 4cde 8cbe ddad a83d 745e b7be 6db7 a1bd
000001e0: 76b5 c5bc af23 0a3d fe6d c73c ce1a 7abd
000001f0: 95e0 433d c338 763d d243 a5bc b4a2 c63c

conv_blocks.12.running_var f4 [128]
0.27601883 0.28678104 0.25950134 0.20067132 0.22246596 0.26432735 0.24391186 0.23642996
0.26123494 0.22799522 0.2639078 0.22384606 0.2271504 0.22897995 0.24978329 0.2289617
0.23167747 0.24102975 0.2183365 0.2045862 0.20495956 0.22219259 0.21461076 0.27054748
0.24918796 0.32136977 0.2855393 0.21108463 0.21153174 0.23180875 0.25796863 0.25138414
0.22424278 0.28201416 0.23155615 0.23123048 0.273436 0.22951083 0.23375234 0.20222628
0.26109615 0.23886345 0.23670384 0.23573194 0.2377275 0.24787092 0.2669141 0.23024155
0.23375542 0.24232851 0.18420002 0.2936738 0.22333483 0.19442031 0.21008019 0.23567264
0.20196636 0.22221044 0.24587224 0.24579991 0.25688556 0.24822654 0.22726436 0.22759432
0.24340963 0.21146224 0.27234304 0.21946804 0.21517947 0.22451486 0.2339112 0.20534392
0.24190687 0.21444434 0.28337023 0.26668957 0.22734174 0.20506783 0.2594751 0.23055479
0.2762616 0.21515581 0.23663792 0.24113409 0.24203175 0.19524874 0.26533988 0.24012098
0.26801196 0.22505958 0.22153732 0.23795609 0.2985165 0.21933156 0.21839131 0.21493316
0.18039587 0.22755936 0.275395 0.21750061 0.21849279 0.20888965 0.24426246 0.22502407
0.26426965 0.3123763 0.2295094 0.20629562 0.22462417 0.1940552 0.21578015 0.25883114
0.235342 0.2832628 0.21826595 0.22554094 0.27218342 0.2552127 0.27773505 0.25108755
0.19050522 0.26671973 0.22912069 0.27658808 0.22736019 0.29423964 0.23978044 0.23555979
00000000: 5752 8d3e f7d4 923e 5cdd 843e c87c 4d3e
00000010: 1ece 633e ea55 873e 08c4 793e b21a 723e
00000020: 96c0 853e 9477 693e ec1e 873e e737 653e
00000030: 1d9a 683e b879 6a3e 31c7 7f3e f074 6a3e
00000040: dc3c 6d3e 81d0 763e 9a93 5f3e 0b7f 513e
00000050: ebe0 513e 7486 633e ecc2 5b3e 3385 8a3e
00000060: 212b 7f3e 948a a43e 3532 923e 9226 583e
00000070: c79b 583e 465f 6d3e 7714 843e 6cb5 803e
00000080: e69f 653e 2964 903e 0e1d 6d3e afc7 6c3e
00000090: ceff 8b3e e304 6b3e c65c 6f3e 6814 4f3e
000000a0: 65ae 853e 9f98 743e 7e62 723e b763 713e
000000b0: d66e 733e e0d1 7d3e f7a8 883e 71c4 6b3e
000000c0: 955d 6f3e f724 783e ee9e 3c3e 6a5c 963e
000000d0: e3b1 643e 1e16 473e 431f 573e 2b54 713e
000000e0: 45d0 4e3e 228b 633e efc5 7b3e f9b2 7b3e
000000f0: 8186 833e 192f 7e3e fdb7 683e 7c0e 693e
00000100: 6040 793e 8f89 583e 8c70 8b3e 3bbc 603e
00000110: 0258 5c3e 39e7 653e 6b86 6f3e ad45 523e
00000120: 6fb6 773e 4c97 5b3e e715 913e 898b 883e
00000130: 46cc 683e 4dfd 513e ecd9 843e 8e16 6c3e
00000140: 2972 8d3e ce51 5c3e 3651 723e dbeb 763e
00000150: 2cd7 773e 49ef 473e a1da 873e 46e2 753e
00000160: dd38 893e 0576 663e aeda 623e c3aa 733e
00000170: 28d7 983e 7498 603e f9a1 5f3e 7017 5c3e
00000180: b2b9 383e 5205 693e 9300 8d3e 7bb8 5e3e
00000190: 93bc 5f3e 2be7 553e f01f 7a3e b66c 663e
000001a0: 5a4e 873e c9ef 9f3e 8304 6b3e 293f 533e
000001b0: e103 663e 68b6 463e 79f5 5c3e 8485 843e
000001c0: 7efd 703e d207 913e 1c81 5f3e 34f4 663e
000001d0: a05b 8b3e 3dab 823e 4a33 8e3e 8c8e 803e
000001e0: cd13 433e 7d8f 883e 9d9e 6a3e f49c 8d3e
000001f0: 1cd1 683e 94a6 963e 0189 753e 9636 713e
