data/gan_output/discriminator_epoch_100.pth (torch, 191771 bytes, 21 tensors)

conv_blocks.0.weight f4 [16, 1, 4]
00000000: e54b 763d a184 bf3d 197a 37bd c315 d63e
00000010: 6479 97ba eccc 553d 08c2 c6be 9cf1 573d
00000020: 8d10 103e 92fd d3be 46f4 d63d 05a7 05bd
00000030: 7e31 debe d7eb 963e eaa0 bd3e 4cb1 e2be
00000040: 38c4 cfbe f96a a53d e698 b9bd 8e25 8c3e
00000050: a472 bfbe 293a 8c3e 7ed7 f7bd a8c3 b83e
00000060: 15f2 a23e 5319 00bf 6054 c43e a28e 673e
00000070: f067 17bc 37cc 5dbe 1664 a13e 4ad7 f5be
00000080: c67e 77be d4a2 aebe 8022 fb3d 8e4f 7e3e
00000090: 6190 bf3d c71d 303e b3da e53e 62e3 e03d
000000a0: 6039 6d3e d633 a5be af5c f2be 4a64 a2be
000000b0: 14c8 4ebe 21b2 713d 66b5 94be ade8 e1bd
000000c0: a77b 19be 1651 673e 6574 cfbe 0e70 fabe
000000d0: e03d 213c 9666 e5bd d62d a8be db1d d8be
000000e0: ca7b 0fbe 2bf5 3cbe 62af fe3c bfeb 2bbe
000000f0: 1d84 723e 62b2 573e a268 9fbe 4f67 b9be
0.060130972 0.09351469 -0.044794176 0.41813478 -0.0011556563 0.05219738 -0.3881991 0.05272065
0.14068814 -0.41404396 0.1049581 -0.032629985 -0.43397135 0.29476807 0.3703683 -0.44275892
-0.4057939 0.08077044 -0.09062366 0.27372402 -0.3739215 0.27388123 -0.12101649 0.36086774
0.3182532 -0.5003864 0.38345623 0.22613004 -0.009241089 -0.21659933 0.31521672 -0.48015815
-0.24169454 -0.34108603 0.1226244 0.24835035 0.0935371 0.17198859 0.44893417 0.1098087
0.23166418 -0.3226611 -0.47336337 -0.3171714 -0.20193511 0.059007768 -0.29044646 -0.110307075
-0.14988576 0.22589526 -0.4051849 -0.48913616 0.009841412 -0.11201207 -0.3284747 -0.42210278
-0.14012066 -0.18452899 0.031089488 -0.16789149 0.2368321 0.21064141 -0.31134516 -0.3621163

conv_blocks.0.bias f4 [16]
00000000: 61ef febe 190a 09be 6c77 78be 0fa6 7b3e
00000010: 20f0 193e 12b5 433d cabd abbe 8047 ee3e
00000020: 4bb2 773e c496 ad3d af11 27be 047d f6be
00000030: cd1e 83bd 0735 b53d e348 b13e 29f7 80be
-0.49792007 -0.13382758 -0.24264306 0.24575065 0.15033007 0.047780104 -0.33543235 0.46538925
0.24189107 0.08476022 -0.1631534 -0.48142254 -0.06402359 0.08848005 0.3462592 -0.25188568

conv_blocks.3.weight f4 [32, 16, 4]
00000000: fb35 66bd ebb3 d13d c08d b33d b359 bbbd
00000010: dc75 e7bd 638a 2a3d 277e c1bd 6383 403d
00000020: 30ed 173d ead1 663d 4104 7d3c 2f03 b7bc
00000030: 361d 23bd e782 fbbd 21b9 f73d a2e2 c9bd
00000040: 4692 68bd 26f7 653d 489c f5bd eefd 903d
00000050: a3ac 94bd 1d9f 963c f343 ef3d 02f8 2dbd
00000060: c55f a03b 43b7 8d3d c65d a4bc 9510 403d
00000070: 18df ae3d 601a f5bd 7adc bbbd e4b6 8f3d
00000080: e6ed 43bd f13e 8ebb ded9 473d 883a cdbd
00000090: e3f5 5dbd a808 823b 34af 6f3b 364d 44bc
000000a0: 15af 77bd 65d3 15bd 04ed 033d f79c 5a3d
000000b0: d32c 83bd 7a99 f2bc 8e06 32bd 8def 253d
000000c0: 84c6 a93d ef02 033d edde cc3d ae63 313d
000000d0: cd96 bfbd 574a 31bd 19d7 ba3b 86d2 29bc
000000e0: 5684 fbbd 78bb a3bd b741 e9bd 5668 4a3d
000000f0: f408 8fbd 744c 823d 553a 79bd aaa6 6dbc
00000100: eac9 9bbd e10b ea3d 9e2e 263b c991 b73d
00000110: 967b d2bd 2a15 8cbd f2af 0dbc 8ca7 c73c
00000120: 4e23 93bd 1fcf c9bd 682d dc3d 60bf 87bd
00000130: 2ba5 93bd 9847 6a3d 6797 78bd 3679 d93d
00000140: ef00 693c 20fd f13d 9e72 aa3c 7a16 7fbd
00000150: b7e6 63bd cfc6 553d 5dde 603d a773 8f3d
00000160: b0ad 56bc febd a9bd 814a e4bb 6895 92bc
00000170: e339 b0bb 6b33 353c 8a0f 3fbc 065f 6f3d
00000180: 755b 0fbd 19c4 dd3d ae4d 003d 3da9 5cbd
00000190: a9ef 88bd a7fc 0b3d 3907 cb3d 4ff9 dfbd
000001a0: 6a8e c0bc 60ae d1bd 4123 7ebd 32c2 f5bd
000001b0: 7ccb a8bc 28e2 5b3d a325 be3d f5fe 5fbd
000001c0: d555 e83d e39c 57bd a2ae c33d b255 6d3d
000001d0: 201d 153c 27db fdbd 1a65 153d b0ca 90bd
000001e0: 2729 863d 7caf 00be 6a56 403d d415 92bd
000001f0: a237 cc3d 819c c13c fab2 59bd 345b dc3c
00000200: f466 b53d 6b95 893c 43b1 243d 7154 db3b
00000210: 5ce9 a4bb ff7a 02bb a7ea 913d 5ffd c7bc
00000220: 917d 3cbd 4f00 5d3d 269f 5abc af4b d0bd
00000230: adb2 89bd af22 923d 0286 d13b a44a f73d
00000240: 3a58 a8bd b9e1 c3bd 9871 e8bd b6a5 f2bd
00000250: 92bf 023b a027 f1bb d9bc e93d c57e 183c
00000260: 0772 88bd 01b0 debd dbb7 de3d 9a35 b93d
00000270: 4c92 9dbd dc0e 9cbd fdd5 b33d 197f 673d
00000280: e7e6 bf3d 41de fdbd 77bb d03d 5314 7fbd
00000290: ba58 a43d a2a2 cc3d 8e3e 173d 287a e43c
000002a0: 80c9 c63d 8cff 7f3d 7d8c 153d 2940 e5bc
000002b0: 5f7e a4bd c123 a8bd 92bb 913c 6a4f 253c
000002c0: 538f f7bd 2fc2 cebd 3c52 943c 7ea7 5bbb
000002d0: 9bdd 873d 1f1a 7e3d 0acf c8bd 1076 9e3d
000002e0: 8d3b c1bb e59e f13c befd 193d 280c 54bd
000002f0: 9302 ed3d 98b1 71bd b8c9 8b3d ea38 a5bd
00000300: 4ac0 51bd bc78 d13d 72f2 c5bd c172 ce3d
00000310: 2dde a9bd a244 dc3a 132d 533d 5d7c 23bd
00000320: 07eb a7bd 620a 9cbd a3cc 6e3c b738 d73c
00000330: f3b7 b13d b499 5ebd f785 89bd 2f2f 713d
00000340: 2dc2 5e3c f0bf 073c 9373 ad3d 5730 733c
00000350: 03a1 94bd 9b91 023e 6a2a c7bc 618b d53b
00000360: 836c df3d 3cd9 b0bd 4311 a4bd d2a4 e8bd
00000370: 0866 f53d fd35 8e3d b3ad c93d 3925 a23d
00000380: ab0e a4bd c7f9 87bc cd5a ab3c 2f9b 473d
00000390: 8bd2 2dbc 5628 54bd 41de e23d f152 98bd
000003a0: 6018 aebd 67a7 eabd 66a7 ad3d 6fa7 43bd
000003b0: d124 cf3d cfda eb3d 3138 f13d 237d bfbd
000003c0: f66a bbbd b3d3 b1bc 413d 81bc 2c6b bebd
000003d0: c7b7 b93d f5fd b7bd 4772 85bd 97d5 c5bc
000003e0: 9521 f3bd 6fa7 7abc d344 f63c 2ac4 66bc
000003f0: 3d27 d2bd f565 883d 6b27 ccbd 262c dc3c
-0.056203824 0.10239395 0.08767271 -0.09147968 -0.11301777 0.041635882 -0.0944789 0.0470003
0.037091434 0.056352533 0.015442909 -0.022340385 -0.03982278 -0.12280827 0.120958574 -0.0985768
-0.056780122 0.056143902 -0.11992699 0.07079683 -0.0725949 0.018386418 0.11682882 -0.042472847
0.004894229 0.0691972 -0.020064246 0.046890814 0.085386455 -0.11967921 -0.09172912 0.070173055
-0.0478343 -0.0043409993 0.04879176 -0.100209296 -0.054189574 0.003968317 0.0036572935 -0.011981299
-0.060469706 -0.036578555 0.032208458 0.05337235 -0.06405034 -0.029614199 -0.043463282 0.040511657
0.08289817 0.03198522 0.10003457 0.043307953 -0.09354935 -0.043283787 0.005701911 -0.010365134
-0.122811005 -0.07994741 -0.11389487 0.04941591 -0.069841295 0.063622385 -0.060846645 -0.014505068
-0.076068714 0.11428047 0.0025357376 0.08963353 -0.102774784 -0.06839974 -0.008647906 0.024371885
-0.07184468 -0.09853958 0.10750848 -0.06628299 -0.07209238 0.057197183 -0.060691264 0.10618822
0.014221414 0.11815858 0.020806607 -0.062277295 -0.05563995 0.05219155 0.054899562 0.07004481
-0.013102934 -0.08288191 -0.0069668894 -0.017893508 -0.0053779944 0.011059622 -0.01166142 0.05844023
-0.03499933 0.10828418 0.03132408 -0.053872336 -0.066863365 0.034176495 0.09913487 -0.10936224
-0.023505408 -0.102383375 -0.06204534 -0.119999304 -0.020604841 0.053682476 0.092845224 -0.054686505
0.11344496 -0.052639853 0.09554793 0.057943054 0.009101182 -0.123953156 0.03647337 -0.070699096
0.06550818 -0.12566942 0.04695741 -0.0713307 0.099715486 0.023634197 -0.0531492 0.026898958
0.088575274 0.01679488 0.040208112 0.006693416 -0.0050327014 -0.0019909737 0.071248345 -0.024412809
-0.046018187 0.053955372 -0.013343608 -0.101706855 -0.06723533 0.071355216 0.006394149 0.120747834
-0.08219953 -0.095645376 -0.11349791 -0.11848013 0.001995061 -0.00735946 0.11412973 0.009307568
-0.06662374 -0.10873414 0.108749114 0.09043427 -0.076939195 -0.07620022 0.087810494 0.056517694
0.09370213 -0.12395907 0.10192006 -0.062275242 0.08024736 0.09991957 0.03692489 0.02789028
0.09706402 0.062499568 0.036510933 -0.027984696 -0.08031916 -0.082099445 0.017789636 0.010089735
-0.12087884 -0.10095631 0.018105619 -0.0033516581 0.06634065 0.06203663 -0.098051146 0.077373624
-0.0058969916 0.029494712 0.037595503 -0.051769406 0.115727566 -0.059007257 0.06825584 -0.08067496
-0.05120877 0.102281064 -0.096653834 0.10080481 -0.0829433 0.0016805122 0.051556658 -0.039913524
-0.08199125 -0.07619168 0.014575156 0.026272161 0.08677664 -0.0543458 -0.06715005 0.05888289
0.0135961 0.008285508 0.0846931 0.014843068 -0.07257273 0.12750857 -0.024312217 0.0065168594
0.10909369 -0.08635184 -0.08011105 -0.11359562 0.119823515 0.06943891 0.098475836 0.07917256
-0.0801061 -0.016598595 0.02091732 0.04873198 -0.010609279 -0.05179628 0.11077548 -0.07437695
-0.08500743 -0.11457711 0.08479194 -0.0477671 0.10114444 0.11516344 0.11778296 -0.0935004
-0.091512606 -0.021707391 -0.015776278 -0.09297785 0.09068256 -0.08983985 -0.06515937 -0.0241497
-0.1187164 -0.015298708 0.030062115 -0.014084855 -0.1026139 0.06660072 -0.09968456 0.02687652

conv_blocks.3.bias f4 [32]
00000000: a18a 5bbd 6aa9 1dbd d716 0d3d 4b0b 92bc
00000010: 7644 bcbd ba98 c6bc e8d0 a73c 15e9 14bc
00000020: 3223 883c fa5a dd3d bd18 7a3b e7c4 5ebb
00000030: a399 183c 0c05 183d 9dfb 5b3d 2195 3d3d
00000040: 19b7 a2bd 6537 a83d eee0 78bd 64bf 203d
00000050: 4f7a 453d 010b d63c cf1a 523d f083 313d
00000060: 0a7c efbd 3554 993d 79ad a93b eab4 e13d
00000070: bc15 60bd 3e75 6ebb d313 563d 2728 73bd
-0.053599004 -0.038491644 0.03444561 -0.01782765 -0.091927454 -0.024242748 0.020485356 -0.009088774
0.016618345 0.10808368 0.0038161718 -0.0033991875 0.009313974 0.037114188 0.053706754 0.0462848
-0.07945079 0.08213691 -0.060761385 0.039245024 0.048212346 0.026128294 0.051295098 0.043338716
-0.116935804 0.07486764 0.0051781503 0.11020835 -0.054708228 -0.00363858 0.052265 -0.059364464

conv_blocks.4.weight f4 [32]
00000000: 8040 7f3f 67f0 7f3f 8b01 803f 261f 803f
00000010: dff7 7e3f 6345 803f ab43 803f d939 803f
00000020: ade2 7e3f 27fb 7f3f 3163 803f 1570 7e3f
00000030: c74f 803f b840 7f3f 6d7a 7f3f 63da 7f3f
00000040: a9db 803f 7e87 803f bf5c 803f 8771 7f3f
00000050: a773 7f3f 5ef2 7f3f 465a 803f e0e2 7e3f
00000060: f96f 7f3f 1c0f 803f 442f 803f bc07 803f
00000070: f255 803f eb55 7f3f 611f 803f a84d 803f
0.99707794 0.999762 1.0000471 1.0009506 0.9959697 1.0021175 1.0020651 1.0017654
0.9956463 0.99992603 1.0030271 0.99389774 1.0024346 0.9970813 0.9979618 0.99942607
1.0067035 1.0041349 1.0028304 0.99782604 0.99785846 0.999792 1.0027549 0.99564934
0.9978023 1.0004611 1.0014424 1.000236 1.0026228 0.99740475 1.0009576 1.0023699

conv_blocks.4.bias f4 [32]
00000000: 73cb 72bb fbc6 0abb 74bd 9ebb e265 61ba
00000010: eba7 1cbb f18c 9db9 548d dd39 de3a 0a3a
00000020: fc7f e3b8 c847 a038 6087 853a 70a1 8cbb
00000030: a41e db3a bc87 b1bb 8047 32bb 422d 053a
00000040: 3a34 883b 975f 003b f5eb e4ba 0549 49bb
00000050: 9e2f 2dba 7a91 90bb 4e95 1c39 1ad6 07bb
00000060: f432 c8ba 2ffd c5ba ac86 96ba a99b 1cbb
00000070: 3d90 b93b 2555 3bbb f37f 4ab9 38a3 373b
-0.0037047535 -0.002117573 -0.004844362 -0.00085982506 -0.0023903798 -0.00030050383 0.00042257702 0.0005273054
-0.000108480424 7.642765e-05 0.001018744 -0.004291706 0.0016717506 -0.005417792 -0.0027203262 0.00050802913
0.0041566165 0.0019588226 -0.001746534 -0.003071369 -0.0006606522 -0.0044118734 0.0001493294 -0.002072698
-0.0015273974 -0.0015105362 -0.0011484227 -0.0023896492 0.0056629465 -0.0028584686 -0.00019311886 0.002802087

conv_blocks.4.running_mean f4 [32]
00000000: b9e1 86be f18b 03bd b725 3c3d d321 ac3d
00000010: 8e0f 0c3e 5aba 3f3c 0b1a 34be 5d9f 953b
00000020: 2494 333e f021 803e 7b7e 1cbe c72a 0b3e
00000030: 702b 993d 6688 d3bd 3b54 c5bd f692 46be
00000040: 12b6 043e baa7 b23d 2b7d 553c 7175 993d
00000050: e5e8 3a3e 87e3 24be 54d9 67bd d4da fe3d
00000060: 9b59 58be ccea 733d 8ab5 503e e01f 07bd
00000070: 4482 913d 424b 4e3e fc23 ad3c 380e 86bc
-0.26344088 -0.03211588 0.045934405 0.08404889 0.13677809 0.0117021445 -0.1758806 0.0045661167
0.1753698 0.25025892 -0.15282623 0.13590537 0.07478988 -0.1032875 -0.09635206 -0.19391999
0.1296008 0.087233976 0.013030331 0.07493103 0.18252905 -0.1610242 -0.056603745 0.12444082
-0.21127932 0.05955009 0.20381752 -0.032989383 0.07104924 0.20145896 0.021135323 -0.016364202

conv_blocks.4.running_var f4 [32]
00000000: 4c4b f93c 84b1 e73c 2d39 013d 2270 ce3c
00000010: 7e00 993c 4ef0 263d 9b25 8f3d d674 9e3c
00000020: 67dc bb3c 01ba 913d e6f3 4c3d a976 c53c
00000030: b0ae 9a3c b2d5 603d 8e59 a73c d079 ae3c
00000040: c9d4 b43c 7866 b53c 8cd3 b83c a420 c03c
00000050: 3541 b93c 5435 6c3d 2352 0e3d 97d7 a43c
00000060: 3d52 9b3c 4826 b53c 0b2f e53c fbce 6b3d
00000070: 9251 d83c d0cc b63c 6e16 f83c cb71 913c
0.030431412 0.028282888 0.031548668 0.025199953 0.018676993 0.040756516 0.069895945 0.019342821
0.022932244 0.071155556 0.050037287 0.024104433 0.018882126 0.054891296 0.020428445 0.02129832
0.02207412 0.022143587 0.02256181 0.023453064 0.022614101 0.057668045 0.0347463 0.020122332
0.018960113 0.02211298 0.027976533 0.05757044 0.026406083 0.02231446 0.030284133 0.017754456

conv_blocks.7.weight f4 [64, 32, 4]
00000000: dbb1 543c d3c3 8f3c 64d6 9bbb 31f7 743d
00000010: c00b 403d 47b2 c0bc 175d 573d 417d a73c
00000020: 9c1f 44bd 9793 3ebd 3f55 893d aaac 813d
00000030: af8e 02bd df0f 753d 36fe b63d 2c63 78bd
00000040: dac7 96bc 1d8b 1b3d 970b a4bb 2df8 7f3d
00000050: c343 83bd 5223 6abd 112a 4f3d bed5 8f3c
00000060: 4911 1bbc b600 8d3d b418 623d 8c8a 54bd
00000070: d1d9 8bbd e3d1 873d 8ea1 c8bc b2e1 373d
00000080: cf32 823c 6578 903d 2616 b73d dc97 913d
00000090: a097 66bd e071 06bd e681 3a3c 4c8c 903d
000000a0: c947 a0ba b8af 8c3d 9f17 8d3d 3e08 de3c
000000b0: 335c 173d cdea b7bc 459f 20bd 3bf0 e03c
000000c0: 2000 623c 4ffa 1dbb 63c9 fa3c 6f30 7ebd
000000d0: 2cda 103d e2e8 8abd 158f 823c 3e24 cbba
000000e0: 473c 4bbd 7228 1cbd 7c6b e9bc 870b 7ebd
000000f0: 24e7 f9bc f899 64bd 7904 19bd cf41 37bd
00000100: 2faf 54bc ec47 5c3c 2924 ae3d eca2 3c3d
00000110: 3340 e4bc 5fc2 51bc da30 a43d caf7 f13b
00000120: ac3b fa3c da93 1f3d 48e4 f2bc f960 48bd
00000130: f0e6 23bd 3475 113b 1771 433d c1e8 623d
00000140: d254 5ebd 134c f43c 2978 0c3d fbd9 6cbc
00000150: 2217 87bd 4820 e43a 6e32 0f3d dffe 30bd
00000160: 951c 82bd 385c 613d 244c ae3d c034 7f3c
00000170: f0a8 a33d bf2c 47bd 4090 803d 8d4b 003c
00000180: d061 803d 49c2 95bc f2e4 3a3d d3a3 36bd
00000190: dba3 8b3d 133c a13d 2a47 993d a995 5a3d
000001a0: 7ff7 5e3d f540 173c bcb7 4fbc ad5d a63d
000001b0: e672 a2bd 1793 8cbd d10d 703c 5b2d 39bd
000001c0: e1f4 bd3c c6d6 903d 68c7 3fbd 49d6 2b3d
000001d0: 1aa1 4cbd 1126 9ebc a101 5fbd 142b 673d
000001e0: b56e 0abd b9b6 663d 0ea0 9e3c f0ec 60bd
000001f0: c910 9c3d c566 e1ba b5e4 a5bd cb2d 84bd
00000200: 5162 203d f4aa e9bc 74b9 ff3c 2c22 383d
00000210: cd90 2c3c f03f be3b ba2e 8fbc 91c4 503d
00000220: 8cd3 7f3c 04e6 af3d 26ed 22bd aea3 b3bd
00000230: 54c7 233d 35a4 87bd 8e73 3c3c 3d51 463d
00000240: d9e2 b3bd e401 833d 720e a53d 983d 793d
00000250: b674 fc3c 0ba5 80bd 2187 983d 7b65 4d3d
00000260: 4de9 873c 4006 0dbd f077 80bd 3a9d 8cbd
00000270: 038e 9c3d 0d4a 673d fff9 ebbc 31dc 01bd
00000280: f1d1 84bd 5c25 a5bd 6ace 843b d0e3 5cbd
00000290: 7422 813d 1d8c b6bc cc59 81bd 4c8c 77bd
000002a0: 9522 b4bd 7e78 08bc 382e 82bc 37a6 613d
000002b0: ea60 243c 7d23 5abc 553f 8c3b bbfb 6cbc
000002c0: 9ae6 383c 39bd 613d fc6a 793d 602e 423d
000002d0: 631c 2dbb ec46 223d 7c30 a1bd ce3e 8dbd
000002e0: 0e35 a23d bf65 a53d 9a90 a73d 8a37 99bd
000002f0: 4145 a93d 7b12 fdbb cd6d ba3c 4c69 0b3d
00000300: 814b 003d 5493 79bb 0fed 38bc 054e bbb9
00000310: c3c7 323d e720 003d 8f7a 723d 05fd e7bc
00000320: 0307 cf3c efa7 8a3d 8aed 9fbd 4c87 7cbd
00000330: cdf3 6abd ea52 133d 23cf 263d 1847 153d
00000340: 2836 1b3d 299c a0bc a17c a13d a04e 70bd
00000350: 72df 973d d0a5 8e3d 7234 5cbc de1c ad3c
00000360: d5d7 82bc 2d90 473c ee64 813d 1810 7a3c
00000370: 5bc2 86bd 72aa 57bd 95fc 343d 3e1b 28bc
00000380: 1655 c43b 3dea a5bd 4039 ab3d 608c 813d
00000390: 4c27 aebd dcbf af3d 94b3 483d 4e7d d13c
000003a0: 94b6 5d3d 4990 59bd 120f 16bd 16b7 943d
000003b0: d61e db3b ecc8 2f3c a18a 9c3d 9fec 383c
000003c0: 2dc4 2fbd 70dd be3c 20ba 673d b2dd a83d
000003d0: d4bf 4c3d 0b7f acbd 68e4 1cbd 05cb 46ba
000003e0: 0ee4 cbbc fef2 473c ace3 d3bc d7f0 e4bc
000003f0: df54 97bd 1bae a53d 8189 9fbc 9f02 9d3d
0.012981857 0.017549431 -0.004755782 0.059806053 0.046886206 -0.02352251 0.05257901 0.020445468
-0.047881708 -0.04652747 0.067057125 0.06331761 -0.031874355 0.05982959 0.08935206 -0.060641453
-0.018405844 0.037974466 -0.0050062644 0.06249254 -0.06409409 -0.05716259 0.050577227 0.017557975
-0.00946457 0.06884901 0.05519934 -0.05188994 -0.068286546 0.066318296 -0.024491098 0.044892974
0.015893368 0.070542134 0.08939771 0.07109043 -0.056296945 -0.032823443 0.011383509 0.070580095
-0.0012228425 0.06869453 0.06889271 0.02710354 0.036953162 -0.022450829 -0.03921439 0.0274583
0.013793975 -0.0024105494 0.030613607 -0.06205791 0.035364315 -0.067827 0.015937367 -0.0015498472
-0.04961803 -0.03812451 -0.028493635 -0.062022712 -0.030505724 -0.0558109 -0.03735778 -0.044740494
-0.01298122 0.013444882 0.08502991 0.046053812 -0.027862644 -0.012802689 0.0801713 0.007384275
0.030546032 0.03895936 -0.029649869 -0.048920605 -0.04001516 0.0022195103 0.047715273 0.055397753
-0.05428011 0.029821431 0.03429428 -0.0144562675 -0.06596209 0.001740464 0.034960203 -0.043211814
-0.06353108 0.055019587 0.085106164 0.015576541 0.07991207 -0.048626658 0.062775135 0.007830513
0.06268656 -0.018281119 0.045628496 -0.04458983 0.06818362 0.078727864 0.074842766 0.053365383
0.05443525 0.009231796 -0.012678083 0.08123336 -0.079320714 -0.06863993 0.014651732 -0.04520927
0.023188056 0.07072215 -0.046821028 0.041952405 -0.049958326 -0.01930526 -0.054444913 0.056437567
-0.033796985 0.0563266 0.01936343 -0.05491346 0.07620389 -0.0017196765 -0.08100263 -0.06454047
0.03915626 -0.0285239 0.03121636 0.044954464 0.01053257 0.005805962 -0.017478336 0.05096871
0.015614402 0.08588794 -0.039776944 -0.08771454 0.039985016 -0.06623117 0.01150216 0.04841732
-0.08783502 0.06396845 0.08059396 0.060849756 0.03081737 -0.062814794 0.07447649 0.050145607
0.016590739 -0.03442979 -0.06272876 -0.06865926 0.07644274 0.056467105 -0.02880573 -0.03170413
-0.06485356 -0.08063766 0.004052927 -0.053928196 0.063053995 -0.022283608 -0.063159555 -0.060436532
-0.087956585 -0.008329509 -0.01589118 0.055090155 0.010032872 -0.013314125 0.0042800107 -0.014464314
0.011285448 0.055112097 0.060893044 0.047407508 -0.0026414625 0.039618418 -0.07870576 -0.06896745
0.07920276 0.08076047 0.081818774 -0.07481296 0.08265162 -0.0077231503 0.022757435 0.034035966
0.031322006 -0.00380822 -0.011286988 -0.00035725549 0.04364754 0.031281378 0.059198912 -0.028318891
0.025271898 0.06770312 -0.07808979 -0.061652467 -0.057361413 0.035967745 0.040724885 0.036444753
0.037893444 -0.019605713 0.07885099 -0.058668733 0.07415666 0.0696522 -0.013440238 0.021131929
-0.015972057 0.01218037 0.06318079 0.015262626 -0.06580039 -0.052652784 0.044186193 -0.010260401
0.0059915883 -0.08101318 0.08360529 0.063256025 -0.08503589 0.08581516 0.048999384 0.025572445
0.0541292 -0.053116117 -0.036635466 0.07261483 0.0066870255 0.010729056 0.07643629 0.011286884
-0.042911697 0.023298949 0.056573987 0.0824541 0.04998763 -0.08422669 -0.038303763 -0.0007583353
-0.024889018 0.01220393 -0.025865398 -0.027946873 -0.07389235 0.080898486 -0.019474747 0.076665156

conv_blocks.7.bias f4 [64]
00000000: 60dd 8c3c 5855 74bd 67e4 a0ba c6f9 f7bc
00000010: ddc3 3cbd 849c 90bc e645 5bbd e615 c83b
00000020: 7724 d13c 4162 5cbd a548 9a3d 68f0 81bc
00000030: 1eb6 31bd b8e0 68bb c80a 773d 9515 1abd
00000040: 417a 1ebd 5f44 bf3b 385a ad3d d2c7 b2bd
00000050: e129 87bd 1aac 95bc ed89 24bd 54d1 47bd
00000060: c0ea b43c dd51 59bd 92c8 a7bd 92aa 723d
00000070: cd00 493d ff5a 8e3d 0f7d aebd e804 f9bc
00000080: 76a1 983d 90bc a4bc 140e a43d 17c8 2abd
00000090: c22b 2b3d f818 753d 483d f1bc 0947 44bd
000000a0: e5e0 b03d c6a3 5bbd 8eb4 2bbd 0dfb adbd
000000b0: 3027 31bd 2c3f 43bd 69a6 9abd 95a4 4b3d
000000c0: 03d2 78bd 2780 35bd 41e6 9c3c 6c6c 1dbd
000000d0: fdc7 a13c 7560 973d 243a 41bd c68a 21bc
000000e0: 3281 8bbc 25e6 86bd 2665 0dbd fdea 5b3d
000000f0: ee2a b03d a874 44bc 93f3 a8bd cbcf 9cbd
0.017195404 -0.059651703 -0.00122751 -0.030270468 -0.046085227 -0.017652757 -0.053533457 0.006106126
0.025530083 -0.05380464 0.07533387 -0.015861705 -0.04338657 -0.0035534333 0.060313016 -0.03761824
-0.03869081 0.005837008 0.084644735 -0.08729519 -0.06599785 -0.018270541 -0.0401706 -0.048783615
0.022084594 -0.053056587 -0.081925526 0.0592447 0.04907303 0.0695095 -0.08519947 -0.030397847
0.07452671 -0.020109445 0.08010498 -0.041694727 0.041789778 0.059838265 -0.029448166 -0.047919307
0.08636645 -0.053622983 -0.041920237 -0.0849515 -0.043250263 -0.047667667 -0.075512715 0.049717505
-0.060747158 -0.04431167 0.019152762 -0.038433477 0.019748682 0.073914446 -0.047174588 -0.009859746
-0.017029379 -0.06586865 -0.03452029 0.0536909 0.08601938 -0.011990704 -0.08249583 -0.07656821

conv_blocks.8.weight f4 [64]
00000000: 9a59 803f 78ef 7f3f 7d86 7f3f 2d3e 803f
00000010: 2a81 803f 126b 803f 9915 803f 145f 7f3f
00000020: 6cd2 7e3f 0ad5 803f 5571 803f a35f 803f
00000030: ac76 803f d50e 803f 7660 7f3f c732 803f
00000040: 9360 803f 3b74 803f 0b15 803f 421d 7f3f
00000050: a468 803f 0408 803f 0626 7f3f 11f9 7f3f
00000060: 72b1 803f 75b0 7f3f fc4f 803f 9d4b 7f3f
00000070: 4689 803f 2166 7f3f 68d3 7f3f 37dc 7e3f
00000080: ea4a 803f 497e 7e3f b703 803f eb7e 7f3f
00000090: 173b 7f3f d21d 7f3f 04a5 7e3f 1b0b 7f3f
000000a0: 3673 803f dddc 7e3f 2565 7f3f 2303 7f3f
000000b0: 9278 803f 7b4f 803f bdae 7e3f 4a5e 803f
000000c0: 19a8 7f3f a32c 803f 61d9 803f 663b 803f
000000d0: cd9a 7e3f faf1 803f eea1 7f3f 828f 803f
000000e0: e427 7f3f 4a0a 803f 444c 803f ef14 7f3f
000000f0: 64ca 7f3f 25a3 7f3f e20e 803f 1320 7f3f
1.0027344 0.99974775 0.9981459 1.0018975 1.0039418 1.0032675 1.0006591 0.9975445
0.9953983 1.0065014 1.0034586 1.0029186 1.0036216 1.0004526 0.9975656 1.0015496
1.0029472 1.0035471 1.0006422 0.9965402 1.0031934 1.0002446 0.99667394 0.9998942
1.0054152 0.9987863 1.0024409 0.9972475 1.0041893 0.9976521 0.99931955 0.9955477
1.0022862 0.99411446 1.0001134 0.99803036 0.9969954 0.9965488 0.99470544 0.9962632
1.003516 0.9955576 0.9976371 0.9961416 1.0036795 1.0024256 0.9948538 1.0028775
0.9986587 1.0013622 1.0066339 1.0018127 0.9945496 1.0073845 0.9985646 1.0043795
0.99670243 1.000314 1.0023274 0.9964132 0.999182 0.99858314 1.0004542 0.99658316

conv_blocks.8.bias f4 [64]
00000000: 25bc 883b bea8 613a 7e90 5abb aeae 113b
00000010: 9a82 733b 7837 233b b07b 873a f530 50bb
00000020: caa1 26bb a355 543b 672d 023b a5dc 7b3b
00000030: daef c637 dd1b 7b3b 351b 16bb 7bdf 83b9
00000040: fc8e e53a d6c2 b539 9fb0 64ba c7fe 10bb
00000050: f4ad 163b fdf1 67bb 9664 7dbb d49e 0fba
00000060: e4fb b83b 9363 90b7 80e1 853a a8c3 2eba
00000070: 8082 883b 2a47 c4bb 8299 673a 624b a7ba
00000080: d7b3 2f3b f902 a3bb 1a8c c03a 304e 99ba
00000090: 090d 21ba 3eee 0fbb 20b4 8fbb 5b79 a4ba
000000a0: 40b8 9c3a 2ebb acbb 3663 37bb 42f6 acbb
000000b0: 6fd3 d43a 9ece d139 22ce 6dbb 1ccb a53a
000000c0: bf4e d938 b153 4dba 680c 1f3b 2c32 b237
000000d0: 0288 2dbb 0100 b53b 8cb4 09bb 0ca0 023b
000000e0: 651e 6ebb 99f4 3bba 59ce 543b f6af 58bb
000000f0: 6356 adba 9086 f6b9 c718 c3ba 8ebf 40bb
0.004172819 0.00086082134 -0.0033350284 0.0022229361 0.0037156702 0.0024904888 0.0010336544 -0.0031767462
-0.0025426024 0.0032399676 0.0019863488 0.0038431075 2.3715129e-05 0.0038316168 -0.00229044 -0.00025152773
0.0017513926 0.00034668174 -0.00087238284 -0.0022124515 0.0022991868 -0.003539204 -0.003866469 -0.00054786843
0.005645262 -1.7212506e-05 0.0010214299 -0.00066667283 0.0041659474 -0.0059899287 0.0008834825 -0.0012763555
0.0026810074 -0.0049747196 0.0014690191 -0.0011696275 -0.0006143605 -0.0021962072 -0.0043854862 -0.0012548374
0.0011956766 -0.005271337 -0.0027982718 -0.0052783797 0.0016237329 0.00040017528 -0.0036286195 0.0012649032
0.00010362034 -0.00078326004 0.002426887 2.1242617e-05 -0.0026478772 0.005523682 -0.0021012155 0.001993182
-0.0036334035 -0.0007169932 0.0032471626 -0.0033063865 -0.0013224598 -0.00047021033 -0.0014884704 -0.002941105

conv_blocks.8.running_mean f4 [64]
00000000: 9c64 a03e 0f25 673e 94a2 003e 8f5b 1d3e
00000010: 6c99 eabb edb3 19bd a492 263d 7028 4dbe
00000020: 1e73 c5bd 2a35 90be f64c b4bd af53 cd3d
00000030: 0994 f6bd d741 80bd 096a 4b3e d243 83bd
00000040: e6b7 ac3e b415 b73d 0d29 70bd d0e2 633e
00000050: 634b bdbe bfa4 fa3d 824e fbbd 763a c9bd
00000060: 043b 98bc 6ce9 55be da71 30be 170a f13e
00000070: 15d9 013d ae39 1ebe def7 9abe c3ff b2bd
00000080: e05e 7c3e b9f3 c13d 3099 6b3e 82c3 9b3d
00000090: 2c22 8e3e 4c44 353d 1698 45bd fed6 bc3c
000000a0: d448 38be 9c37 9f3e c123 b0bc 49f3 6fbc
000000b0: c801 a23d 0336 49be b2f0 233d fd79 f7bd
000000c0: 9642 e9bc 0f53 31be 19df 8a3e bc3a 4cbd
000000d0: 3062 963e 820e 0d3e c9fd 613d b64a 933d
000000e0: b9f7 ff3d 5796 203d 6d87 aebe 0be9 fb3d
000000f0: e1f1 0bbc 5f68 353e cef3 78bd f1a9 4bbe
0.3132676 0.2257273 0.12562019 0.15366958 -0.0071594026 -0.037525106 0.04066719 -0.20034957
-0.096410975 -0.2816556 -0.08803742 0.10025727 -0.12039954 -0.06262558 0.19864668 -0.0640942
0.33734053 0.089396864 -0.0586329 0.22254491 -0.36971578 0.12238454 -0.122708336 -0.09825604
-0.018582828 -0.20889825 -0.17230931 0.4707801 0.031701166 -0.1545169 -0.30267233 -0.08740189
0.24645567 0.094703145 0.23007655 0.076056495 0.27760446 0.044254586 -0.048240744 0.023051735
-0.17996532 0.31097114 -0.021501424 -0.014645406 0.07910496 -0.1964951 0.040024467 -0.12083814
-0.028474133 -0.1731684 0.27123335 -0.0498607 0.29371786 0.13775066 0.05517367 0.07191984
0.12498421 0.039205875 -0.34087697 0.12300309 -0.008541555 0.17715596 -0.060779385 -0.19889046

conv_blocks.8.running_var f4 [64]
00000000: 1efb 4c3e 176e 533e 82d8 8b3e c003 603e
00000010: 6718 3c3e 7c42 7e3e 86b8 3d3e 8413 cd3e
00000020: 2858 4f3e cec8 473e bbb5 233e 4f4b 5b3e
00000030: 5db5 413e c9c9 853e 7367 3c3e 5e80 493e
00000040: 0797 643e 6143 8f3e 5023 833e 788e 803e
00000050: 1ffd 413e 1ee3 453e 35da 293e 1013 703e
00000060: d7e5 513e c975 463e e81d 693e 3a61 6d3e
00000070: d716 6c3e 89a8 653e 333c 683e b78d 623e
00000080: c7d7 5a3e 0028 523e 660b 143e e4d6 413e
00000090: bda2 5e3e 2216 593e 16e1 463e a8a8 3a3e
000000a0: 68d5 533e 42f7 763e 8cb1 423e 1ac6 593e
000000b0: 0350 553e acda 5d3e d594 2f3e 6acf 193e
000000c0: 82f5 2b3e b7da 323e 710e 253e 0a8e 563e
000000d0: 3601 453e 84f7 693e 1d09 453e 975e 363e
000000e0: 44e5 633e d03c 493e bafb 653e 0f96 583e
000000f0: 90d0 253e 59ce 383e e188 623e 1985 733e
0.20017669 0.20647465 0.2731362 0.2187643 0.18368684 0.2483005 0.18527421 0.40053952
0.20248473 0.19510195 0.15987293 0.21415447 0.18916841 0.26130512 0.18398838 0.19677874
0.22323237 0.27981094 0.2561288 0.25108695 0.18944214 0.1932492 0.16587146 0.23444772
0.20497833 0.19380869 0.22765315 0.2318162 0.23055588 0.22427572 0.22679214 0.22124372
0.21371375 0.20523071 0.14457473 0.1892963 0.21741767 0.21199849 0.19421801 0.182284
0.20686877 0.24117759 0.19013041 0.21266976 0.20831303 0.21665448 0.17146619 0.15020528
0.16792873 0.17466246 0.1611879 0.20952621 0.19238743 0.22848326 0.19241758 0.1780952
0.22255427 0.19652104 0.22459307 0.21150993 0.16192842 0.18047465 0.22122528 0.23781241

conv_blocks.11.weight f4 [128, 64, 4]
00000000: 2056 7bbd c791 9bbc 7a4c 55bc 1825 f2bc
00000010: 9069 47bd 8e16 8e3c 124f db3b a178 0e3c
00000020: 30f0 343d c83d 133d b531 94bc 6e53 393d
00000030: 0307 263d fbd6 64bd 1a50 2ebd c287 12bd
00000040: d3b9 53bd 2466 ea3c 3276 1cbc 22f8 7abd
00000050: cd5b 563d 5484 063d 71ef 053d 8f98 5ebc
00000060: 80be 94bc 1a7f 2abb 7349 7bbd 70ef 83bc
00000070: a6da 38bc 2294 4a3d c76f 0f3d 3644 263d
00000080: acc3 4f3c 32f5 f9bb 9a14 fb3a 15a0 263d
00000090: b402 44bc ce21 10bd 97c9 54bd 7f2e 5ebd
000000a0: 781a b8bb 9c32 dfbc 61c9 783d b524 4a3d
000000b0: 1326 683c bb1d 84ba 1e94 9b3a 4604 75bb
000000c0: aebb d73c 9341 5bbd 5de0 ad3c 939a 65bc
000000d0: 1b57 423c 95f6 10bc 9c8b 30bd d261 94bc
000000e0: bb50 b0bc d284 00bd bb00 d9bc 1f8b 3b3d
000000f0: 1d3c 5f3d d8ef 2a3d bec3 4fbd 4736 78bd
00000100: 9436 403d bd52 70bd 65a6 e23c 9b72 d43c
00000110: f2e7 5b3c abe3 acbc c15a 58bd 666e c0bc
00000120: be0b 08bd 067f 36bc 60c7 83bd 29e6 cebc
00000130: 3ed6 bf3c de92 57bd f537 893c 220d 14bd
00000140: e2dc 2abd 9c72 363d 4142 a2bc 6fc5 50bd
00000150: 8bb6 4fbc e8a0 3bbd 03a3 79bb b7a0 16bd
00000160: ada9 56bd cecc 5d3d 001f 503b 5fb5 853c
00000170: eb0e 6f3d 9a96 3a3c 3e41 003d 2849 bbb9
00000180: f06c 283d 467b b43b 2dec cabc 619e 41bd
00000190: a5fb d6bc 3bba 50bd d22d eabb fecb ea3c
000001a0: 0464 27bd 447c 173d 0964 30bd 8f50 ac3c
000001b0: 2240 70bd 6547 163d ff5a 623c 5227 51bd
000001c0: 789c 48bc 0659 363d 94c7 01bd 2ef9 2fbd
000001d0: c4d8 57bd 71a0 8b3c da08 82bc 9e42 cabb
000001e0: 7826 d9bc 52d5 eb3c 689e 653b fb12 4dbd
000001f0: 758b e5bc 6919 77bd a83f 4a3c ce03 a33c
00000200: b06c 323d da94 debc ec36 2bbd 932c 62bd
00000210: 3b82 d93c ffad 5dbd 1b50 ddbc 8e39 26bd
00000220: 535a 2c3c a807 66bd c4f9 ae3c 5152 51bd
00000230: 76f2 cfbc a84b 0e3d 537a 4ebd ebdb 01bd
00000240: a5f3 483c b6d7 c53c 98de ff3c d2bc 02bd
00000250: a260 2dbd e60c a8bc b303 1dbc 73e8 44bd
00000260: f4ff 1f3d c83a 1c3d aba0 0f3d 5d07 9f3c
00000270: 92c6 67bd 9f85 6cbd 4ecf cfbc 8da1 25bd
00000280: 6d44 273d 88aa 4a3d 76be 673c 995d 1c3d
00000290: 8d87 003d bf34 52bd 7e0b 5c3c ccef 243d
000002a0: 45c8 6bbd f8c1 3dbd f7bb d63c 239b f3bb
000002b0: e762 9fbc b6d1 1dbc 5020 71bd c5ed 46bd
000002c0: 9d7d 1bbc ef9b 133d a9ca 6abd 3a4e 3bbd
000002d0: b3be 63bd 9033 5e3c dff4 14bd d9e1 033d
000002e0: 4707 263d 33f5 7abd a931 08bd 8bee 4dbd
000002f0: 27b9 b1bc 0910 29bd 1194 eebc 5c5d 8bbb
00000300: 044f fcbb 70e8 223c 999e 3fbd 5e9f f43c
00000310: 8ac2 6cbd 0eab 143d 2d49 06bd ef73 5bbd
00000320: 157c 283d 1891 2cbd 77bb 7a3c aac4 e5bc
00000330: 801a 6d3d 2cf3 aa3c 911c e53c 48a0 2bbd
00000340: dec4 383d df4b f3bc 6788 f5bc 9b12 54bc
00000350: abe3 07bd 54af 5ebd 94c4 8d3c 724b 033d
00000360: d694 133d fa15 693c c112 79bd ed10 123c
00000370: cee8 d23a ec36 71ba d835 3fba 40db d0ba
00000380: 07e5 203c 7a8b 0fbd f328 a43c 56fb 7a3c
00000390: 767a 383d 09e8 1fbd 1071 3abd 7e29 363d
000003a0: 281e 73bb 8b4e 1fbd f43f 15bd 7aca 4d3d
000003b0: 2b26 abbb cc7f 6dbd 2cf7 4bbb 72ea a4bc
000003c0: b44c 8e3b fc1c 4fbb da6d 383d 0295 2fbd
000003d0: d33e 643d d29f 2b3d 03e9 1e3d 87e4 ddb9
000003e0: af99 2abd 08fd 44bd be95 e1bc 57e3 1e3d
000003f0: d3bc e63b ee7a 003d c6f6 063d 6187 aebc
-0.061361432 -0.01899041 -0.013018722 -0.029558703 -0.048684657 0.01734474 0.0066927755 0.008695752
0.044174373 0.03594759 -0.018090108 0.04524558 0.04053403 -0.055869084 -0.04255686 -0.035774
-0.051690888 0.028613158 -0.009549664 -0.061271794 0.05233364 0.03284104 0.032699052 -0.0135861775
-0.018157244 -0.00260157 -0.061349344 -0.016105384 -0.011282599 0.049457677 0.03501871 0.040592395
0.012680929 -0.0076281065 0.001915592 0.04068001 -0.011963535 -0.03518849 -0.051950064 -0.05424356
-0.0056183897 -0.027245812 0.060738925 0.049351413 0.014169234 -0.0010079661 0.0011869704 -0.003738658
0.02633461 -0.053529333 0.021225149 -0.014013904 0.011861588 -0.008847852 -0.043101892 -0.01811305
-0.02152287 -0.031376667 -0.026489606 0.045786973 0.054500688 0.04173264 -0.050723784 -0.060598638
0.04692705 -0.058672655 0.027667234 0.025933554 0.013421999 -0.021104654 -0.052820925 -0.023490142
-0.033214323 -0.011138683 -0.06434512 -0.025256233 0.023417588 -0.052630298 0.016750315 -0.036145337
-0.041714557 0.044542894 -0.019806983 -0.050969537 -0.012677799 -0.04580775 -0.0038091547 -0.036774363
-0.05240791 0.054150395 0.0031756759 0.016321836 0.058363836 0.011388445 0.03131222 -0.00035721925
0.041119516 0.0055078594 -0.02477082 -0.047270183 -0.02624304 -0.050958853 -0.0071465755 0.028661724
-0.040866867 0.036983743 -0.04306415 0.021034507 -0.05865491 0.03668918 0.0138156405 -0.05106289
-0.012244336 0.044518493 -0.031684473 -0.042962246 -0.05269696 0.017044278 -0.015873361 -0.006172492
-0.026507601 0.028788242 0.0035037044 -0.05006693 -0.0280206 -0.060326967 0.012344278 0.019899275
0.043560684 -0.027170587 -0.041800424 -0.05521829 0.026551357 -0.054121014 -0.027015736 -0.040582232
0.010519582 -0.056159645 0.021359332 -0.051103894 -0.02538417 0.03474012 -0.050409626 -0.03170387
0.012265121 0.02415071 0.03123407 -0.031918354 -0.042328484 -0.020513963 -0.0095834015 -0.048073243
0.039062455 0.038141996 0.035065334 0.01941269 -0.056585856 -0.05774462 -0.025367405 -0.04043727
0.04083674 0.049479038 0.0141445305 0.0381752 0.03137927 -0.051319834 0.013430474 0.04026775
-0.05756404 -0.04632756 0.026212675 -0.007434265 -0.01945634 -0.0096325185 -0.058868706 -0.0485666
-0.009490398 0.03603738 -0.057322178 -0.0457289 -0.055601787 0.013562098 -0.03636634 0.032197807
0.040534284 -0.061268996 -0.033250485 -0.05027632 -0.021694733 -0.041275058 -0.029123338 -0.0042530727
-0.007699849 0.009943113 -0.04678211 0.029861148 -0.057802714 0.036295943 -0.03278463 -0.05357736
0.04113396 -0.04213056 0.015303484 -0.028047878 0.0578866 0.020867907 0.027967723 -0.041900903
0.045109622 -0.029699264 -0.029972268 -0.012943889 -0.033176105 -0.054366425 0.01730565 0.032054372
0.036030613 0.014226431 -0.0608089 0.008915168 0.001609111 -0.00092016044 -0.0007294095 -0.0015934482
0.009820229 -0.035045125 0.020039057 0.015318712 0.045038663 -0.039039645 -0.04551798 0.044473164
-0.0037096832 -0.038893264 -0.036437944 0.050241925 -0.005223056 -0.057983205 -0.0031122668 -0.020131323
0.00434264 -0.003160297 0.045026638 -0.042866714 0.055723976 0.041900463 0.038796436 -0.0004232267
-0.04165047 -0.048092872 -0.027537223 0.038791027 0.0070415526 0.031367235 0.032950185 -0.021304788

conv_blocks.11.bias f4 [128]
00000000: dbbe 9cbc b323 333d bf61 6bba 1799 3bba
00000010: 5a95 53b9 fe72 07bd f56c 763c ef11 73bd
00000020: 2069 ffbb 9d40 4cbb ba7b 583c 4476 01bd
00000030: cc4b 79bd 7b69 753d 8bde 15bd 244b f8bc
00000040: dedb 1f3d c5de d2bb 3e3a 1fbd 6bdd 2fbd
00000050: a440 6abd 2c3e 453b 32d5 713b 0953 533d
00000060: d820 7dbd 710b d73c 9e83 1b3b 15cc 57bd
00000070: 6d93 823b 10ac 02bd 0d5d 833c e4dd e23c
00000080: 3752 673d 83c2 9ebc f7f2 723d 7e15 7d3c
00000090: 18fc 943c be5a 69bd f0b6 61bd a4de b8bc
000000a0: 3f06 733d 7e10 093d 2abd 613d c89d 6ebd
000000b0: 76d8 863b 8f81 69bd 6560 733d c2dc 2e3d
000000c0: 3062 0c3d 78f0 fdbc e5d7 0ebd 23f6 1bbd
000000d0: fc0a 5c3d de49 0ebd 7775 f63c 7ebb 073d
000000e0: 323e 99bc 3146 643d c2e2 48bd 90e3 04bd
000000f0: 782b 9e3c a477 503c 80c8 d5bc 5924 a9bc
00000100: fc0d 5f3a abd7 083d b037 483d 56e5 713d
00000110: 8aa9 5a3d 41cc 86bc 8e1e c33c c360 53bb
00000120: d005 71bd 6aaa 3ebd e809 5ebd 3992 623d
00000130: 727e 0cbc 66e7 463d 9c2c e33b 3869 643d
00000140: ccdb 063d db57 263d 9111 693d cfa8 d43b
00000150: e442 4ebd 4066 b53c e9f9 703d fb5f 083d
00000160: 0bad 05bb 3870 503d fc65 77bd 2368 9b3c
00000170: 4ae9 7a3d d646 d7bc 6ba9 bfbc 3fbb a63c
00000180: 57c2 103d a1ad 7cbd 9955 1a3d 5d8e 3d3d
00000190: 23ff fcbc cfe7 133d 0198 6abd 7d90 3ebc
000001a0: 5289 4cbd 9818 e4bc ebe9 f63c d536 4b3d
000001b0: d83d 2f3d a36a 033d 1360 01bd fb1e 023c
000001c0: e162 1f3d 320c 773d 873e 0cbd c54c 3ebd
000001d0: b746 0dbd 1b2e 063d e65e 78bd 16c4 163d
000001e0: 5296 8c3c 540d 6c3d 2d51 463d 0736 7b3c
000001f0: cd24 093d 3d4a 69bc ccd6 edbc 2632 cebc
-0.019133976 0.043735217 -0.0008979104 -0.0007156296 -0.00020178166 -0.03306865 0.015040626 -0.059343275
-0.0077945143 -0.0031166442 0.013213092 -0.031606928 -0.0608633 0.059915047 -0.036589187 -0.030309267
0.03902804 -0.0064352476 -0.038873903 -0.04293577 -0.057190552 0.0030096872 0.0036900756 0.05159286
-0.0617989 0.026250573 0.0023729573 -0.052684862 0.0039848597 -0.031902373 0.016035581 0.027693696
0.05647489 -0.01937986 0.05931374 0.015447019 0.018186614 -0.056971304 -0.055106103 -0.0225671
0.05933213 0.033462994 0.05511204 -0.05825594 0.0041151596 -0.057008322 0.0594181 0.042691
0.034273326 -0.030998453 -0.03487386 -0.03807653 0.053721413 -0.034738414 0.030085308 0.03313779
-0.018706415 0.055731002 -0.049044378 -0.032443583 0.019307837 0.012723837 -0.026096582 -0.020647215
0.0008508859 0.033408802 0.048881233 0.059056602 0.05338434 -0.016454818 0.02381828 -0.003225372
-0.058843434 -0.04654924 -0.054208666 0.05531523 -0.008575069 0.048560522 0.006932808 0.055764407
0.03292446 0.04061113 0.05690152 0.00648985 -0.05035676 0.022143483 0.058832083 0.03329466
-0.002039733 0.05088827 -0.060399994 0.018970555 0.061257638 -0.026278894 -0.023396214 0.020352958
0.035341587 -0.061689023 0.03767929 0.046278346 -0.030883377 0.03610974 -0.05727387 -0.011631128
-0.049935646 -0.027843758 0.030140838 0.04961284 0.04278359 0.03208412 -0.031585764 0.007941957
0.038912658 0.060314365 -0.03423932 -0.046459932 -0.034491267 0.032758813 -0.060637377 0.036808096
0.017161522 0.0576299 0.04841726 0.015332705 0.03348236 -0.014238891 -0.029033087 -0.025170397

conv_blocks.12.weight f4 [128]
00000000: 5490 7e3f 9dae 7f3f 73d0 7f3f 899d 7f3f
00000010: 4e78 7f3f 2cea 7e3f 90cf 803f 75b0 803f
00000020: 636e 7e3f 3401 7f3f 274c 803f a368 7f3f
00000030: 06ae 7f3f cc2e 803f 9a7b 803f a83d 7f3f
00000040: a341 7f3f bc90 803f 54b2 803f 0903 803f
00000050: 8d55 803f 623e 7f3f c392 803f c616 803f
00000060: 58cc 803f db1f 803f 02f4 7e3f 3084 7e3f
00000070: 9cbd 803f 58fd 803f b05c 7f3f 5f71 803f
00000080: acd1 803f afcb 7e3f 4038 803f 6d25 813f
00000090: ca58 803f 0b3f 803f 3ce4 803f a3e4 803f
000000a0: b2f3 803f 59f3 803f 7cff 7f3f 9bdd 803f
000000b0: d753 7f3f c103 803f eeac 803f f3a9 803f
000000c0: ae6d 7f3f 1fd8 7e3f b2b8 803f 5961 7f3f
000000d0: 8cf4 803f d361 803f 6b09 803f 84ff 803f
000000e0: 623d 813f 6b77 803f f2f4 7e3f 7216 813f
000000f0: 19de 7f3f 4d6f 803f 96df 7e3f af91 803f
00000100: 3aa6 803f ed44 803f 1da6 7f3f d1b1 7e3f
00000110: d4c1 7f3f e472 7e3f 1631 803f 04a9 803f
00000120: 4fd3 803f 3a9f 7f3f f6b7 7f3f 2835 803f
00000130: 90fa 803f ecb8 803f b7c1 7f3f 0ae6 803f
00000140: 3c6e 7f3f d985 803f ab48 803f 4933 803f
00000150: e1d8 803f 2f9a 803f 84e3 803f 2dd4 803f
00000160: 8230 7f3f 3ead 7e3f b43e 803f c511 7f3f
00000170: d13e 7f3f 8a1d 7f3f 1984 803f 8f3c 7f3f
00000180: 8301 813f f391 7f3f e390 7f3f 996f 803f
00000190: 3e21 803f 5b0c 803f b608 803f da8c 803f
000001a0: c792 803f f028 803f 29b9 803f 2aa9 803f
000001b0: dd9a 7e3f e4db 803f 7854 803f 2991 7e3f
000001c0: 5071 7f3f b5c0 803f 78dc 7e3f b5ca 7f3f
000001d0: a6a5 7e3f 4efa 7f3f 83a7 7f3f 9786 803f
000001e0: 8a32 803f 7b5d 803f c8eb 803f f01c 813f
000001f0: 45cb 7f3f 7419 813f 0116 813f ca7c 803f
0.9943898 0.99875814 0.99927443 0.99849755 0.99792945 0.9957607 1.0063343 1.005385
0.99387187 0.9961121 1.002324 0.9976904 0.99874914 1.0014281 1.003772 0.99703455
0.9970953 1.004417 1.0054421 1.0000926 1.0026108 0.99704564 1.0044788 1.000695
1.0062361 1.0009722 0.99591076 0.9942045 1.0057864 1.0077314 0.99750805 1.0034598
1.0063987 0.99529546 1.0017166 1.0089546 1.0027096 1.0019239 1.0069652 1.0069774
1.007437 1.0074264 0.99999213 1.0067629 0.99737304 1.0001146 1.0052774 1.0051864
0.9977673 0.99548525 1.0056365 0.99757916 1.007463 1.0029854 1.0002874 1.0077977
1.0096858 1.0036443 0.99592507 1.0084975 0.9994827 1.0033966 0.99559915 1.0044459
1.0050728 1.0021034 0.99862844 0.99490076 0.99905133 0.9939406 1.001498 1.005158
1.0064486 0.99852335 0.9989008 1.0016222 1.0076466 1.0056434 0.9990496 1.0070202
0.9977758 1.0040847 1.0022177 1.0015651 1.0066186 1.0047053 1.0069432 1.0064751
0.9968339 0.99483097 1.0019135 0.9963649 0.99705225 0.9965445 1.0040313 0.9970178
1.0078586 0.99832076 0.99830455 1.0034057 1.0010145 1.000377 1.0002658 1.0042984
1.0044793 1.0012493 1.0056506 1.0051625 0.9945505 1.0067105 1.0025778 0.99440247
0.99782276 1.005881 0.9955516 0.9991868 0.9947151 0.9999131 0.9986498 1.0041074
1.0015423 1.0028528 1.0071955 1.0086956 0.9991954 1.0085893 1.008484 1.0038083

conv_blocks.12.bias f4 [128]
00000000: ed5a a3b9 dd5b b1bb fbf8 82bb 4ce5 df3a
00000010: ac08 e5ba 5d43 34bb f735 8c3b eb8d 6a3b
00000020: dca1 dbbb 36c0 90bb 6239 6d3a 5a3e 05bb
00000030: 360e c13a cf2a b1ba c197 1a3b a1b9 12bb
00000040: 18b4 8ebb 18f1 3a3b 6f05 503b 465b e6b9
00000050: 86d4 ab3b 96f5 24bb 4d48 a93b 015c 0dbb
00000060: 635d c63b fa96 4d3b 0bd9 47bb 1e98 9dbb
00000070: 019b 773a 11bc c63b fad6 0bbb 0feb cc3b
00000080: cc7f cd3b 7cc4 9f3a c7c7 9d3b afd7 dd3b
00000090: 4666 963b 0320 07b9 4682 b83b 242e db3b
000000a0: 2acb f23b 5cab f33b e966 8d3a 35d5 8a3b
000000b0: 93ee af3a 9887 843b 0ad0 883b d6e6 b23b
000000c0: b893 623a f9db 043b bb71 c13b bc04 d4ba
000000d0: c665 0b3c 6403 0db8 578f 6b3b 39cd 133c
000000e0: c399 dc3b f18a 883b 7de3 6fbb b028 583b
000000f0: 13e8 07bb 2aaf f93a fd16 75bb 4099 713b
00000100: 2b6a 593b 009a 963a b276 b6ba e825 8fbb
00000110: 5e4c aaba 62e0 94bb d4a6 bfba 248f ee3b
00000120: 24a2 d13b 4886 d6bb 594d 443b 74b9 413b
00000130: 4c02 e43b eca5 b53b 8937 9c3a 59bf 733b
00000140: fb79 8abb 2603 6cba ab7b 243b 86c3 a43a
00000150: 13cc d83b dc15 e23a 670f 733b 3312 fc3b
00000160: 6343 a9b9 d1ed 4bbb 6fa6 8b3a 5185 88bb
00000170: 85ab 7a3a 5925 81bb 0c73 0b3c d34f caba
00000180: 490b 123c 420e 6237 8166 383a f434 8b37
00000190: 34f6 1db7 191b 143a cae1 f2b8 2df3 a33b
000001a0: 882f 8f3b 5235 da3b 7cba 7239 027c 773b
000001b0: 96e1 82bb 37e7 393b bed6 01bb 3f0e 09bb
000001c0: 1247 973a 77aa 163b d87f a636 a9b5 bf3a
000001d0: 070a b3bb ca3e cb39 e1db 2ebb efcd ef3a
000001e0: 858d a4bb d783 bd3b a7b7 103b 23be ef3b
000001f0: 982d cdba 2424 163c 59de fe3b 01b0 49ba
-0.00031157528 -0.0054125623 -0.003996966 0.0017081886 -0.0017473898 -0.0027505972 0.004278894 0.0035790156
-0.0067026448 -0.0044174446 0.0009049383 -0.0020331354 0.0014728967 -0.0013516786 0.0023588988 -0.0022388475
-0.004354965 0.002852505 0.003174152 -0.00043937023 0.0052438406 -0.0025170795 0.0051660896 -0.0021569731
0.006053613 0.0031370507 -0.0030494358 -0.0048093935 0.00094453996 0.0060648997 -0.0021337853 0.006253607
0.006271338 0.0012189294 0.004815075 0.0067700963 0.0045898287 -0.00012886529 0.005630764 0.00668885
0.007409473 0.007436199 0.0010788116 0.004236842 0.0013422541 0.0040444843 0.004175191 0.0054596467
0.00086432276 0.0020272715 0.0059034503 -0.0016175727 0.008508151 -3.3620177e-05 0.0035943592 0.009021097
0.006732197 0.0041669537 -0.00366041 0.0032983236 -0.0020737692 0.0019049395 -0.0037397735 0.0036865026
0.0033174853 0.0011489987 -0.0013920872 -0.0043685324 -0.001299273 -0.00454335 -0.0014621862 0.0072802473
0.0063975025 -0.0065467693 0.002995333 0.0029560002 0.0069582816 0.005543461 0.0011918406 0.003719291
-0.004225967 -0.00090031547 0.0025098126 0.0012570478 0.0066161244 0.0017248946 0.0037088038 0.007692599
-0.000322844 -0.0031117091 0.001065446 -0.004166283 0.00095623016 -0.0039412198 0.008511316 -0.0015435166
0.008913823 1.3473969e-05 0.0007034317 1.659475e-05 -9.415253e-06 0.000564979 -0.00011581516 0.005003354
0.00436968 0.0066591883 0.0002314839 0.0037763123 -0.003994177 0.0028366575 -0.0019811834 -0.0020913032
0.0011541566 0.0022989789 4.9620685e-06 0.0014626283 -0.005463842 0.0003876596 -0.002668135 0.0018295626
-0.0050217533 0.005783539 0.0022082122 0.0073163672 -0.0015653847 0.00916389 0.0077779707 -0.0007693768

conv_blocks.12.running_mean f4 [128]
00000000: e93a 0cbf 9041 1b3e f65b e0bd 731e 71be
00000010: 2ed2 8dbc bd8f 403e abcf 9dbd b60e 433d
00000020: 323f 2fbe 5a09 16be 8858 d6bd e79c 14be
00000030: 1328 d5be 48cb 3f3e 5072 923c 1d15 973e
00000040: d47d 793d 08fa cb3d 445e 7f3d 3356 a8be
00000050: af85 dbbd bca8 a2bd 888f 263e 421c c3bb
00000060: feb9 34bd 32cf 47be 15ce b6bd 6e8b 1bbd
00000070: b5a8 0cbe 4081 d3bb 5962 62bd f0ab 4cbd
00000080: 25c3 83bc fee6 f9bd 4de9 14bc 275a dc3d
00000090: dcc3 6bbe f7b2 99bd 0c86 8b3e 0d57 9cbc
000000a0: 08f4 8c3e 2b35 5a3d 0b68 95bd cad5 9cbe
000000b0: 7ecb b4bc e4b3 f1bd ac10 61bd 120f 193b
000000c0: afe1 85bd c1df b4be dad6 0e3e 2a95 8ebb
000000d0: af7d 253e 827d 8bbd e043 98bd 4be4 ff3d
000000e0: d5b1 15be 0ca2 c73d 3815 453e 6d9f 18bd
000000f0: 6423 08be 1e6a 4b3c 4aa2 b73d cf45 883e
00000100: 5ebf 043e e0d8 b13e 7c5e 98be 9ae0 47be
00000110: b5f5 c93c d967 103e de6f 88bd 5330 e33d
00000120: d1b5 283e 5b2a da3d 197b 02bf 70ac a63d
00000130: a587 9b3d 68f2 c03e ce71 af3b 8a02 b73c
00000140: 7076 29bd 1ce0 df3c f172 45be 1a1d aebd
00000150: edb6 04bc 767c b73d ac0f 333e 341e c03e
00000160: 962c 4dbe 6e79 303e fd7e 2b3e 1f4f db3d
00000170: 5237 2a3e 0964 113e da53 703c 44c3 503d
00000180: ce9e b73e a2e8 dbbd 7a8c 303d 1746 48bd
00000190: 0836 71bd 0dd2 0ebd 7889 713e 2b02 cfbd
000001a0: 9248 e83c 8315 373c 33c9 3b3e 7a91 323e
000001b0: 71f6 f63d 2d44 3dbe 0187 bdbc a544 eaba
000001c0: f334 1fbe 42ff 31be b8a2 54bd 8392 0a3e
000001d0: 56ed 303c ea60 21be 1986 c7be d209 ec3b
000001e0: 4d56 923d 344c edbb 209d fbbd adc7 b43d
000001f0: 8d2b cebd 8794 da3d 1fc9 2d3d 7b0d 473d
-0.5477739 0.15161729 -0.1095504 -0.23546772 -0.017312136 0.18804832 -0.07705625 0.04762145
-0.17113951 -0.14652005 -0.10466105 -0.14512978 -0.41632137 0.1872989 0.017876774 0.29508296
0.060911015 0.09959799 0.062345758 -0.32878265 -0.107188575 -0.0794234 0.1626569 -0.0059542963
-0.04412269 -0.19512632 -0.08926026 -0.037974767 -0.13736232 -0.006454617 -0.055269573 -0.04996866
-0.016084263 -0.122022614 -0.009088826 0.10759383 -0.23023933 -0.07504838 0.27250707 -0.019084478
0.2752993 0.05327336 -0.07295235 -0.30631858 -0.022069689 -0.118018895 -0.05494754 0.002335493
-0.06537186 -0.3532696 0.13949147 -0.004351278 0.16161226 -0.06811048 -0.07434821 0.12494715
-0.14618619 0.09747705 0.19246376 -0.037261415 -0.1329475 0.012415437 0.08966501 0.2661576
0.12963626 0.34735775 -0.29759586 -0.19519272 0.024653295 0.14102115 -0.06661962 0.110932015
0.16475607 0.1065261 -0.5096908 0.081383586 0.075942315 0.3768494 0.0053541427 0.022340078
-0.041372716 0.027328543 -0.19282128 -0.085016444 -0.0081002535 0.08959286 0.17486447 0.37523043
-0.2003654 0.17233822 0.16747661 0.107084505 0.16622666 0.14198317 0.014668429 0.05096747
0.35863346 -0.107377306 0.04310272 -0.048894968 -0.05888942 -0.03486829 0.23587596 -0.101078354
0.028354917 0.011174562 0.1833847 0.17438307 0.12058724 -0.18483038 -0.023135664 -0.0017873241
-0.15547542 -0.1738253 -0.051912993 0.13532452 0.010798773 -0.15759626 -0.38969496 0.007203319
0.07145367 -0.00724175 -0.122858286 0.08827148 -0.100669004 0.106728606 0.042428132 0.04859684

conv_blocks.12.running_var f4 [128]
00000000: 46a2 c93e 67a0 933e 0c75 583e 17c1 5c3e
00000010: 00aa 513e 5853 803e b114 6a3e a92c 833e
00000020: ed16 583e 8400 743e e88d 903e 24b6 4a3e
00000030: e1ea 6a3e 64c4 673e efe4 6f3e 6bd6 733e
00000040: 6523 493e 746d 6d3e a290 693e 19d1 7a3e
00000050: 0af8 463e 8a00 673e d7fd 543e 6295 813e
00000060: a444 513e b2bc 833e 8afb 8d3e 0679 5c3e
00000070: a0a1 7a3e e1f3 663e 9825 843e cbe6 773e
00000080: 3023 623e b126 7f3e cc2b 523e 86e8 4b3e
00000090: ad30 823e a666 613e c76a 5e3e 8b2d 5a3e
000000a0: 8e6a 623e 31f9 503e d11a 4b3e 82c2 6d3e
000000b0: f2e8 4f3e 6f7d 3c3e 2d37 6e3e ddc7 563e
000000c0: e3b9 623e 5835 8a3e 70e1 433e f715 7c3e
000000d0: 1349 4c3e 3754 613e 5422 5b3e 2938 903e
000000e0: 22ad 643e 4653 513e 0d86 8e3e af22 763e
000000f0: 28c2 8c3e 157e 693e 0aea 6b3e cb39 873e
00000100: 702e 933e ce2b 7a3e e1cf 803e e3f3 403e
00000110: 4fb5 6c3e 6499 643e 349b 823e 34da 453e
00000120: 0e0a 733e 69ed 643e c61d 8f3e a0df 813e
00000130: b5ba 523e fc42 623e 0db9 6b3e e701 6e3e
00000140: fd66 7b3e 3c19 673e a6f8 713e af01 6d3e
00000150: 0de8 5d3e a360 5d3e cdd2 843e 4031 793e
00000160: 48cd 7a3e 9163 5e3e 5edb 493e c2e6 5e3e
00000170: fa4e 8a3e dcc2 513e f90d 533e e4bb 523e
00000180: 939b 343e f94f 623e 6693 6b3e 98b6 713e
00000190: a233 483e 660b 503e 182e 963e 1309 443e
000001a0: f8aa 813e 9340 993e 3f11 823e 3ee3 4c3e
000001b0: a3a6 673e adb8 2d3e c692 7c3e 166f 743e
000001c0: e393 6b3e 4987 5c3e ba1d 633e 95c4 5b3e
000001d0: c7eb 653e 51c2 843e 506d 913e c23a 813e
000001e0: 6300 493e 9114 703e b41c 893e 0485 903e
000001f0: 658e 6a3e d7ba 743e 0c96 553e 717e 603e
0.39381617 0.28833315 0.211384 0.21558033 0.20475006 0.25063586 0.22859456 0.2562001
0.21102495 0.23828322 0.28233266 0.19796044 0.22941162 0.22633511 0.23427175 0.23812263
0.19642408 0.23186284 0.2280908 0.24493827 0.19430557 0.225588 0.20799957 0.25309283
0.2043634 0.257299 0.27730972 0.21530542 0.24475718 0.2255397 0.25809932 0.24209134
0.22083735 0.24917103 0.2052452 0.1991292 0.25427762 0.22011814 0.2172042 0.21306436
0.2211096 0.20407559 0.19834448 0.2321873 0.20303705 0.18407224 0.23263235 0.2097468
0.22141223 0.26993823 0.19128966 0.24617754 0.1994975 0.22004782 0.21399814 0.28167847
0.2233167 0.20441923 0.27836648 0.24036668 0.2749188 0.22802003 0.23038498 0.2641128
0.28746367 0.24430773 0.251586 0.18843035 0.23116039 0.22324139 0.25509036 0.19321519
0.23734304 0.2235619 0.27952403 0.25365925 0.20579036 0.22095865 0.2301981 0.23242913
0.24551006 0.2256822 0.23630008 0.23145173 0.21670552 0.21618895 0.25942078 0.24335194
0.24492371 0.21717669 0.19712588 0.21767715 0.2701338 0.20484489 0.20610799 0.20579487
0.17637472 0.2210082 0.23005447 0.2360481 0.19550946 0.20316848 0.29332042 0.19144087
0.2532575 0.2993208 0.25403783 0.20008561 0.2262216 0.1696498 0.24665365 0.23870501
0.23005633 0.21535982 0.22179309 0.21461709 0.22453223 0.25929502 0.2840371 0.2524014
0.19629054 0.23445345 0.2677971 0.28226483 0.22905882 0.23899399 0.2085802 0.21923234
