data/gan_output/discriminator_epoch_10.pth (torch, 191742 bytes, 21 tensors)

conv_blocks.0.weight f4 [16, 1, 4]
0	0x3d83806f	0.06420981
1	0x3dcc7e19	0.09984989
2	0xbd2a5eb1	-0.04159421
3	0x3ed6a1fd	0.41920462
4	0xbb31a895	-0.002710854
5	0x3d52ea52	0.051492997
6	0xbec75969	-0.38935402
7	0x3d472d80	0.048627377
8	0x3e0d5239	0.13800897
9	0xbed3b2ca	-0.41347343
10	0x3dd0667a	0.10175796
11	0xbd0b2883	-0.03397418
12	0xbee16b2a	-0.44027072
13	0x3e91bb14	0.28463042
14	0x3ebc8e17	0.36827156
15	0xbee4754f	-0.4462075
16	0xbecb685d	-0.3972806
17	0x3db654fc	0.08902928
18	0xbdae47b9	-0.08509774
19	0x3e8f1d3d	0.27951995
20	0xbebe5c98	-0.37180018
21	0x3e8c05ae	0.27348083
22	0xbdf0db0d	-0.117605306
23	0x3ebb0625	0.36528125
24	0x3ea2fe98	0.31834865
25	0xbefe3c6a	-0.49655467
26	0x3ec5b8e5	0.38617626
27	0x3e69a33d	0.22816177
28	0xbc4046cc	-0.011735629
29	0xbe60442d	-0.21901007
30	0x3e9f99d2	0.31172043
31	0xbef6e2e3	-0.48219976
32	0xbe7e8616	-0.24855837
33	0xbeafd8f2	-0.34345204
34	0x3df2d034	0.11856118
35	0x3e7848f7	0.24246584
36	0x3de17de6	0.11010341
37	0x3e3c7071	0.18402268
38	0x3eecb0d0	0.46228647
39	0x3dffdcce	0.12493287
40	0x3e6aca90	0.22928834
41	0xbea58ccb	-0.3233398
42	0xbef33531	-0.4750152
43	0xbea2a7c5	-0.31768623
44	0xbe4b1ba7	-0.19834767
45	0x3d78a298	0.060701936
46	0xbe9297e5	-0.2863151
47	0xbdda11b7	-0.1064791
48	0xbe24bd14	-0.16087753
49	0x3e5ba286	0.21448717
50	0xbed5aaee	-0.41731972
51	0xbeff1849	-0.49823216
52	0x3b96d5b5	0.0046031126
53	0xbdf0e69d	-0.11762736
54	0xbeaafcca	-0.33395988
55	0xbedbf642	-0.42961317
56	0xbe14d3a1	-0.14533855
57	0xbe4326ce	-0.19057772
58	0x3cf1e05d	0.02952593
59	0xbe32399e	-0.17404792
60	0x3e6eb864	0.23312527
61	0x3e566479	0.20936765
62	0xbea0c286	-0.3139841
63	0xbebb0cb7	-0.36533138

conv_blocks.0.bias f4 [16]
0	0xbefc6897	-0.49298546
1	0xbe07a961	-0.13248207
2	0xbe7758f8	-0.24155033
3	0x3e7497ef	0.23886083
4	0x3e13e87f	0.14444159
5	0x3d4d1a1a	0.05007372
6	0xbeaaf58e	-0.33390468
7	0x3ee86989	0.45393017
8	0x3e707dfa	0.23485556
9	0x3da74b75	0.08168689
10	0xbe1cb8a9	-0.15304817
11	0xbef68380	-0.48147202
12	0xbd546720	-0.05185616
13	0x3dc6f945	0.09715513
14	0x3ead6c68	0.3387177
15	0xbe80045a	-0.2500332

conv_blocks.3.weight f4 [32, 16, 4]
0	0xbd6a8b0e	-0.05726152
1	0x3dd648e0	0.104631186
2	0x3db5e7c0	0.088820934
3	0xbdb81ac1	-0.08989478
4	0xbddf8e5a	-0.10915823
5	0x3d2c3a72	0.042047925
6	0xbdc157af	-0.094405524
7	0x3d461046	0.048355363
8	0x3d33a51b	0.04385863
9	0x3d6d2545	0.05789687
10	0x3c655f84	0.0139998235
11	0xbcc06576	-0.02348588
12	0xbd2b2c01	-0.041790012
13	0xbdfcd563	-0.12345388
14	0x3df6d650	0.120525956
15	0xbdc43c5e	-0.095818266
16	0xbd589e72	-0.05288548
17	0x3d6cf3bc	0.05784963
18	0xbdf59f59	-0.11993284
19	0x3d887f52	0.066649094
20	0xbd93e039	-0.072205015
21	0x3cc4e8b7	0.024036748
22	0x3df62a82	0.120198265
23	0xbd39a855	-0.04532655
24	0x3bd1b8be	0.006400197
25	0x3d8fd220	0.070225
26	0xbc97f5ab	-0.01854976
27	0x3d382c92	0.04496438
28	0x3dacd7cf	0.084396
29	0xbdf6b36a	-0.12045939
30	0xbdbae113	-0.09124961
31	0x3d8be50c	0.068307966
32	0xbd3075e3	-0.043081176
33	0xbaaa4a44	-0.0012992104
34	0x3d3c8076	0.046020947
35	0xbdd4184b	-0.10356196
36	0xbd59882d	-0.053108383
37	0x3bd42076	0.006473596
38	0x3c02a485	0.007973795
39	0xbc1955c3	-0.009358826
40	0xbd6a051c	-0.05713378
41	0xbd1c30de	-0.03813254
42	0x3cfc96fa	0.03083371
43	0x3d5f5c63	0.054531466
44	0xbd79e5f2	-0.06101031
45	0xbcf6118a	-0.03003766
46	0xbd31ac71	-0.043377344
47	0x3d28a490	0.041172564
48	0x3dabe884	0.08393958
49	0x3cfa74d3	0.030573284
50	0x3dcae9b1	0.09907854
51	0x3d413168	0.047166258
52	0xbdbe234f	-0.09284078
53	0xbd45ef0b	-0.048323672
54	0x3b320dd1	0.002716888
55	0xbc17f3a1	-0.009274394
56	0xbdf88bbe	-0.12136029
57	0xbda7b6ee	-0.08189188
58	0xbdeef885	-0.11668495
59	0x3d3f7c88	0.04674962
60	0xbd94c1e5	-0.07263545
61	0x3d7b9fd4	0.06143172
62	0xbd775938	-0.06038782
63	0xbc4bdc7f	-0.012442707
64	0xbd918c36	-0.07106821
65	0x3def8177	0.11694615
66	0x3b4844be	0.0030558552
67	0x3db12efd	0.086515404
68	0xbdcf205f	-0.10113596
69	0xbd8d52ee	-0.06900583
70	0xbb754d02	-0.0037429933
71	0x3ccba807	0.024860395
72	0xbd938269	-0.07202608
73	0xbdc781ee	-0.09741579
74	0x3de0e743	0.1098161
75	0xbd84dd7f	-0.064875595
76	0xbd8d9a0e	-0.06914149
77	0x3d63d3ef	0.055622038
78	0xbd85d2bb	-0.06534334
79	0x3de68a95	0.11256901
80	0x3c572e44	0.013133589
81	0x3de443cc	0.11145744
82	0x3ca2bb08	0.019864574
83	0xbd77eecb	-0.060530465
84	0xbd5f3773	-0.05449624
85	0x3d409d57	0.04702505
86	0x3d570e9c	0.052504167
87	0x3d8d4f40	0.06899881
88	0xbc2d9789	-0.010595211
89	0xbda73515	-0.081644215
90	0xbb9b4cce	-0.0047393804
91	0xbc96c8a1	-0.018406214
92	0xbbe774e8	-0.007063497
93	0x3c578365	0.0131538855
94	0xbc59e197	-0.013298414
95	0x3d7a58a9	0.06111971
96	0xbd195201	-0.03743172
97	0x3dd96048	0.10614067
98	0x3cead2c4	0.028664954
99	0xbd5e879c	-0.054328546
100	0xbd786912	-0.060647078
101	0x3d1fe2ad	0.039034534
102	0x3dd01bce	0.10161553
103	0xbde4cc71	-0.111718066
104	0xbcbfc850	-0.023410946
105	0xbdd09166	-0.101839826
106	0xbd6c3d05	-0.05767538
107	0xbdf2e570	-0.11860168
108	0xbca7d537	-0.020487411
109	0x3d591fd7	0.05300888
110	0x3dc3a083	0.095520996
111	0xbd53a0cc	-0.05166702
112	0x3deeb0f9	0.116548486
113	0xbd4e931a	-0.050433256
114	0x3dcd8a34	0.10036126
115	0x3d7e31c5	0.062059183
116	0x3c277c8f	0.010222568
117	0xbe009a8b	-0.12558953
118	0x3d26e386	0.040744327
119	0xbd8a8d92	-0.06765284
120	0x3d81ee59	0.06344289
121	0xbdf9e397	-0.122016124
122	0x3d3eebc7	0.046611574
123	0xbd8f6d96	-0.07003324
124	0x3dd30023	0.103027605
125	0x3ccca63a	0.024981607
126	0xbd4478db	-0.04796682
127	0x3cfaaec3	0.030600911
128	0x3db0a6fb	0.08625599
129	0x3cb3b1fc	0.021935456
130	0x3d2bb554	0.041920975
131	0x3c32315b	0.010876025
132	0xbb3a637e	-0.002844065
133	0x3b46f977	0.0030361095
134	0x3d9d4ef5	0.076810755
135	0xbcbfc190	-0.023407727
136	0xbd2f9568	-0.042867094
137	0x3d67c43f	0.05658364
138	0xbc86a6c3	-0.01643694
139	0xbdcf14c5	-0.10111383
140	0xbd85570c	-0.065107435
141	0x3d87b872	0.06626977
142	0x3bdb091b	0.006684435
143	0x3df2976b	0.11845287
144	0xbda33839	-0.07969708
145	0xbdc04970	-0.09389007
146	0xbde8221e	-0.11334632
147	0xbdf99b96	-0.12187879
148	0x3b41d997	0.0029579157
149	0xbbc469d2	-0.00599406
150	0x3deb1493	0.114785336
151	0x3c0b8d8e	0.008517636
152	0xbd914fee	-0.070953235
153	0xbddeda19	-0.108814426
154	0x3dcf7447	0.101296
155	0x3db56c88	0.08858591
156	0xbd9ac97c	-0.07557961
157	0xbd9ca47d	-0.07648561
158	0x3dafa466	0.085762784
159	0x3d58068c	0.05274062
160	0x3db8f2d0	0.09030688
161	0xbdf7a662	-0.12092282
162	0x3dc95e2a	0.098324135
163	0xbd8303cd	-0.06397209
164	0x3dadc134	0.08484116
165	0x3dd507b7	0.10401862
166	0x3d396aa1	0.045267705
167	0x3d0fa8c0	0.035073042
168	0x3dd35333	0.10318603
169	0x3d8b570f	0.068037145
170	0x3d2e8a62	0.04261244
171	0xbcde08cd	-0.027103806
172	0xbd990a7f	-0.07472705
173	0xbd9cd23d	-0.07657287
174	0x3cca08d3	0.02466241
175	0x3c74eef6	0.014949551
176	0xbdf25339	-0.1183228
177	0xbdc92041	-0.09820605
178	0x3cd0449c	0.02542334
179	0xbb598e53	-0.0033196404
180	0x3d8c8882	0.06861974
181	0x3d8083e3	0.062751554
182	0xbdc6476f	-0.096815936
183	0x3da0b009	0.07846076
184	0xbb85fd9c	-0.0040890705
185	0x3cf68760	0.030093849
186	0x3d1b8c1a	0.037975408
187	0xbd58da63	-0.052942645
188	0x3df15ce7	0.11785298
189	0xbd721882	-0.059105404
190	0x3d8d7b9e	0.06908344
191	0xbda9e8c2	-0.08296348
192	0xbd54ceb0	-0.051954925
193	0x3dccd313	0.10001197
194	0xbdcb7802	-0.09934999
195	0x3dc741cc	0.09729347
196	0xbda9c4c5	-0.08289484
197	0xb9f3dae4	-0.00046511658
198	0x3d57bb1f	0.052668687
199	0xbd1ad949	-0.037804876
200	0xbda44111	-0.08020223
201	0xbd9a358c	-0.075297445
202	0x3c78495b	0.015154208
203	0x3cc7954d	0.024363184
204	0x3dae0cfc	0.0849857
205	0xbd61b4b2	-0.055103965
206	0xbd9468c0	-0.07246542
207	0x3d790834	0.06079884
208	0x3c647740	0.013944447
209	0x3c0900cb	0.008362005
210	0x3da78149	0.08178956
211	0x3c85bbbc	0.01632487
212	0xbd99ce11	-0.07510007
213	0x3dfb3730	0.122663856
214	0xbce43cf9	-0.027861105
215	0x3bff8735	0.0077981004
216	0x3dd94d91	0.10610498
217	0xbdb6f0fc	-0.08932683
218	0xbdaa6701	-0.08320428
219	0xbdf5bc00	-0.11998749
220	0x3df399d7	0.11894577
221	0x3d8cc879	0.068741746
222	0x3dbf8fb5	0.09353582
223	0x3da4d8c9	0.08049161
224	0xbda10c74	-0.07863703
225	0xbc555979	-0.01302182
226	0x3c8faf93	0.017539775
227	0x3d48c403	0.049015056
228	0xbc3fbb56	-0.011702379
229	0xbd469a56	-0.04848703
230	0x3de02cec	0.10946068
231	0xbd9da8c9	-0.07698209
232	0xbda75e45	-0.08172277
233	0xbdede00a	-0.11614998
234	0x3dadbeea	0.084836796
235	0xbd3d02b8	-0.04614517
236	0x3dd50088	0.10400492
237	0x3ded144c	0.11576137
238	0x3df37084	0.11886695
239	0xbdbce8dd	-0.09224103
240	0xbdbab182	-0.09115888
241	0xbccd0509	-0.025026815
242	0xbc9512a1	-0.01819736
243	0xbdbd81c6	-0.09253268
244	0x3dc12ea4	0.09432724
245	0xbdc1ead5	-0.09468619
246	0xbd8c6bc1	-0.0685649
247	0xbcd1b68f	-0.025599746
248	0xbdf18a36	-0.1179394
249	0xbc62e3b0	-0.01384823
250	0x3cd67d60	0.02618283
251	0xbc5eff60	-0.013610691
252	0xbdd0611e	-0.10174774
253	0x3d845dcb	0.06463202
254	0xbdcbd1d1	-0.09952129
255	0x3ce497d6	0.027904432

conv_blocks.3.bias f4 [32]
0	0xbd628a94	-0.05530794
1	0xbd18d6d6	-0.03731426
2	0x3d145c9d	0.036221135
3	0xbc9a55ba	-0.018839706
4	0xbdb8d055	-0.09024111
5	0xbcc949ad	-0.024571264
6	0x3ca2c4ef	0.019869296
7	0xbc268310	-0.010163084
8	0x3c89731a	0.016778518
9	0x3ddd0385	0.10791687
10	0x3b341d7c	0.0027483394
11	0xbba46e83	-0.005018057
12	0x3c000df1	0.007815824
13	0x3d168f50	0.036757767
14	0x3d5a91f6	0.053361855
15	0x3d3e445c	0.04645191
16	0xbda1564e	-0.078777894
17	0x3da635a7	0.08115702
18	0xbd751c39	-0.05984137
19	0x3d243049	0.04008511
20	0x3d3f3eea	0.04669086
21	0x3cd12c5c	0.025533848
22	0x3d4f2617	0.050573435
23	0x3d2ff833	0.04296131
24	0xbdf2fb48	-0.11864334
25	0x3d9afc73	0.07567682
26	0x3ba7007b	0.005096493
27	0x3de345be	0.11097287
28	0xbd684645	-0.05670764
29	0xbb63a0a0	-0.003473319
30	0x3d5ac0c9	0.05340651
31	0xbd73befc	-0.05950831

conv_blocks.4.weight f4 [32]
0	0x3f7fe221	0.9995442
1	0x3f7f2934	0.99672246
2	0x3f806708	1.0031443
3	0x3f7edb8d	0.9955376
4	0x3f80697d	1.0032192
5	0x3f80b07b	1.0053858
6	0x3f7f77a7	0.9979195
7	0x3f7fd4ad	0.9993389
8	0x3f7ffb2c	0.9999263
9	0x3f802e7f	1.001419
10	0x3f7fa732	0.99864495
11	0x3f7fb088	0.9987874
12	0x3f8099d2	1.0046942
13	0x3f7fb2d9	0.99882275
14	0x3f800087	1.0000161
15	0x3f7fe918	0.9996505
16	0x3f801375	1.0005938
17	0x3f7f8f34	0.99827886
18	0x3f7fefa3	0.9997503
19	0x3f7f7521	0.997881
20	0x3f7f671e	0.9976672
21	0x3f7fcd7a	0.9992291
22	0x3f80ace2	1.005276
23	0x3f7f4ebe	0.99729526
24	0x3f7ea95c	0.9947717
25	0x3f7f6d4d	0.99776155
26	0x3f7f866f	0.99814504
27	0x3f80dc3e	1.0067213
28	0x3f7fd8d6	0.9994024
29	0x3f7ed6fa	0.9954678
30	0x3f809a7a	1.0047143
31	0x3f800d01	1.0003968

conv_blocks.4.bias f4 [32]
0	0xbadd97dd	-0.0016906221
1	0xbb881484	-0.0041528363
2	0x3b14159b	0.0022595886
3	0xbb1ed4c4	-0.0024235705
4	0x3a5512ea	0.00081281236
5	0x3b45ae0c	0.0030163554
6	0xbb6d99c0	-0.0036254972
7	0x3ae0c267	0.001714778
8	0x3b0e3a6b	0.00217023
9	0xbad63a68	-0.0016344311
10	0xbb2e5d88	-0.0026606042
11	0xbb92f156	-0.004484336
12	0x3b8a71dd	0.0042249993
13	0xbbce5abe	-0.0062974384
14	0xbb444bd0	-0.0029952414
15	0xbb571354	-0.0032817917
16	0x3aac978f	0.0013167727
17	0xb90506aa	-0.00012686351
18	0xbb295bbc	-0.0025842031
19	0xba730879	-0.0009270977
20	0xba3fb9ce	-0.0007313759
21	0xba57cc78	-0.00082320673
22	0xba9d7322	-0.0012012462
23	0xbb6abd9b	-0.003581858
24	0xbbf2f242	-0.0074141333
25	0xbab26241	-0.0013609604
26	0xbb1fd39f	-0.002438761
27	0xb94a45dd	-0.00019290247
28	0x3aa6043e	0.0012666059
29	0xbb455930	-0.0030112974
30	0x3b5fd067	0.0034151317
31	0x3b7d0380	0.0038606822

conv_blocks.4.running_mean f4 [32]
0	0xbe847e9c	-0.25877845
1	0xbd016a39	-0.031595442
2	0x3d7f3b1a	0.062312223
3	0x3d7942a1	0.060854558
4	0x3e1cdfee	0.15319797
5	0xbb9325bc	-0.0044905823
6	0xbe42878c	-0.1899702
7	0x3d022a38	0.031778544
8	0x3e5035c1	0.20333005
9	0x3e7e4518	0.24831045
10	0xbe238eb1	-0.15972401
11	0x3e106a34	0.14103013
12	0x3db0546c	0.08609852
13	0xbde51a8e	-0.111867055
14	0xbda95c99	-0.08269615
15	0xbe2fd2c2	-0.17170241
16	0x3e03b35b	0.12861387
17	0x3daa70c3	0.08322289
18	0xbb81717c	-0.003950296
19	0x3d886bb9	0.066611715
20	0x3e4a2afc	0.1974296
21	0xbe20e2ca	-0.15711513
22	0xbd838f32	-0.06423797
23	0x3e07ac0c	0.13249224
24	0xbe562ec4	-0.20916277
25	0x3d6c2bf5	0.05765911
26	0x3e51c0a2	0.2048364
27	0xbd28775b	-0.04112945
28	0x3db378be	0.08763264
29	0x3e3847fa	0.17996207
30	0x3ce40270	0.027833194
31	0x3c82d770	0.01597187

conv_blocks.4.running_var f4 [32]
0	0x3d3d4b38	0.046214312
1	0x3d14cf95	0.03633078
2	0x3d089534	0.033345416
3	0x3cda095b	0.02661579
4	0x3d063a63	0.032770526
5	0x3d68d390	0.056842387
6	0x3d778d3a	0.06043742
7	0x3d0bd82a	0.034141697
8	0x3ce56203	0.028000837
9	0x3d831e83	0.06402304
10	0x3d5f682e	0.054542713
11	0x3cd014b7	0.025400503
12	0x3ccac12e	0.024750318
13	0x3d62f92c	0.05541341
14	0x3cee6361	0.029100122
15	0x3ce79531	0.028269382
16	0x3cdb9ba6	0.026807617
17	0x3cfa2f7d	0.030540222
18	0x3cf59edb	0.029982975
19	0x3d0358aa	0.03206698
20	0x3cdf5a36	0.027264696
21	0x3d638277	0.055544343
22	0x3d0cf3d3	0.034412216
23	0x3cca13d0	0.02466765
24	0x3cf34bc4	0.029699214
25	0x3cf02029	0.02931221
26	0x3cfc9e0e	0.030837085
27	0x3d5a10ec	0.053238794
28	0x3d17cae7	0.037058737
29	0x3d0a7e9c	0.03381215
30	0x3d079682	0.03310252
31	0x3ca94e63	0.02066726

conv_blocks.7.weight f4 [64, 32, 4]
0	0x3bb5bdef	0.0055463235
1	0x3c6301e9	0.013855436
2	0xbb4e534c	-0.0031482754
3	0x3d6f0366	0.05835285
4	0x3d39a568	0.04532376
5	0xbc9dd85f	-0.019268213
6	0x3d5f659f	0.054540273
7	0x3ca9a4c8	0.020708457
8	0xbd461f61	-0.04836977
9	0xbd3f940b	-0.046772044
10	0x3d8d3069	0.06893999
11	0x3d89b65d	0.06724236
12	0xbd0d4283	-0.03448726
13	0x3d5dc797	0.05414542
14	0x3daadf21	0.0834334
15	0xbd82c5be	-0.063853726
16	0xbc9a7a39	-0.018857108
17	0x3d3c81cc	0.04602222
18	0xbad5f6fe	-0.001632422
19	0x3d87328f	0.0660144
20	0xbd8a0a49	-0.06740243
21	0xbd6ad986	-0.057336353
22	0x3d426cbf	0.04746699
23	0x3caab4c6	0.020838153
24	0xbc66de53	-0.014091092
25	0x3d867a55	0.06566302
26	0x3d616086	0.055023693
27	0xbd567929	-0.05236164
28	0xbd82faf9	-0.063955255
29	0x3d91d6b6	0.07121031
30	0xbc983b3f	-0.018582938
31	0x3d4b032c	0.04956357
32	0x3c87d2ed	0.01658007
33	0x3d939a34	0.07207146
34	0x3db53638	0.08848232
35	0x3d9df934	0.07713547
36	0xbd4c6135	-0.04989739
37	0xbd193de7	-0.03741255
38	0x3c30c702	0.010789635
39	0x3d97daf4	0.07414809
40	0xbc065e4b	-0.008201192
41	0x3d8a0e11	0.06740964
42	0x3d8b8ca1	0.06813932
43	0x3cc35c2b	0.02384766
44	0x3d1089fb	0.03528784
45	0xbcb8a143	-0.022537833
46	0xbd2193cc	-0.03944759
47	0x3ce46fce	0.027885344
48	0x3c745c6c	0.014914613
49	0xbb806d33	-0.0039192676
50	0x3cf89dd6	0.0303487
51	0xbd69a708	-0.05704406
52	0x3d0f125f	0.03492963
53	0xbd8ba7e7	-0.06819134
54	0x3c9d202f	0.019180385
55	0xba8379d2	-0.0010030812
56	0xbd45111b	-0.048112016
57	0xbd15fc56	-0.0366176
58	0xbcab848d	-0.020937229
59	0xbd750136	-0.059815608
60	0xbd186ff2	-0.037216134
61	0xbd654435	-0.05597325
62	0xbcf74db6	-0.030188423
63	0xbd31f587	-0.043447044
64	0xbc6f25e9	-0.014596441
65	0x3c33a9ef	0.010965808
66	0x3dae7688	0.08518702
67	0x3d440248	0.047853738
68	0xbccf53c6	-0.025308501
69	0xbb98c9f1	-0.004662745
70	0x3d94b74f	0.07261526
71	0x3bd4ca5c	0.0064938497
72	0x3ce087f7	0.027408583
73	0x3d25e58f	0.040502127
74	0xbcf97f42	-0.030456189
75	0xbd56dfe1	-0.0524596
76	0xbd1d11bc	-0.03834699
77	0x3b8b522f	0.0042517404
78	0x3d529df4	0.051420167
79	0x3d6ab094	0.057297304
80	0xbd6cb5bb	-0.0577905
81	0x3cc5bf58	0.024139091
82	0x3d139f5a	0.03604064
83	0xbc0e2224	-0.008675132
84	0xbd935463	-0.0719383
85	0xbb5e8045	-0.0033950966
86	0x3d00808b	0.031372588
87	0xbd25cfe7	-0.040481474
88	0xbd87c08d	-0.06628523
89	0x3d546e1c	0.05186282
90	0x3dad20ca	0.0845352
91	0x3c994f27	0.0187145
92	0x3da936e0	0.0826242
93	0xbd2a83e9	-0.041629706
94	0x3d8066e7	0.06269627
95	0x3c1761bf	0.009239613
96	0x3d7ad9e6	0.06124296
97	0xbc6ffdfe	-0.014647959
98	0x3d28e297	0.041231718
99	0xbd391f4f	-0.045195874
100	0x3d8a1fdd	0.06744359
101	0x3da4bead	0.08044181
102	0x3d8f1ce7	0.069879346
103	0x3d6357ca	0.055503644
104	0x3d64c12b	0.05584828
105	0x3bead3d5	0.0071663656
106	0xbc54a8d2	-0.012979703
107	0x3da147d6	0.0787503
108	0xbda9fed1	-0.083005555
109	0xbd8be396	-0.06830518
110	0x3c7e3a5b	0.015516843
111	0xbd342cf9	-0.0439882
112	0x3cc29a25	0.023755142
113	0x3d98d565	0.07462577
114	0xbd391f8f	-0.045196112
115	0x3d390969	0.04517499
116	0xbd570a4b	-0.05250005
117	0xbc8ff28b	-0.017571708
118	0xbd5760ff	-0.052582737
119	0x3d66e90a	0.056374587
120	0xbd1b4584	-0.037908092
121	0x3d6ae5e3	0.057348143
122	0x3c8c8a2e	0.017155733
123	0xbd5e3f3f	-0.054259535
124	0x3da1ba2f	0.0789684
125	0xbb9df8d1	-0.004820921
126	0xbda2e017	-0.07952898
127	0xbd647b00	-0.055781364
128	0x3d24e655	0.040258724
129	0xbcd2fe81	-0.025756123
130	0x3d08ab9d	0.03336679
131	0x3d15fce1	0.036618117
132	0x3bb00aaa	0.005372365
133	0x3b77d4e7	0.0037816109
134	0xbc8abfb0	-0.016937107
135	0x3d5da25c	0.054109916
136	0x3c81230f	0.015763788
137	0x3dafa072	0.085755244
138	0xbd23b7b2	-0.039970107
139	0xbdb4a1df	-0.08819937
140	0x3d204942	0.039132364
141	0xbd86a3ac	-0.06574187
142	0x3c4d8d07	0.012545831
143	0x3d34d4f6	0.044148408
144	0xbdb07db5	-0.08617727
145	0x3d8483f3	0.0647048
146	0x3da07f61	0.078367956
147	0x3d8c917d	0.06863687
148	0x3d01d599	0.031697843
149	0xbd878b0c	-0.06618318
150	0x3d9909de	0.07472585
151	0x3d5e3afd	0.054255474
152	0x3c9a875c	0.018863373
153	0xbd128b99	-0.035777662
154	0xbd853749	-0.065046854
155	0xbd891956	-0.066942856
156	0x3d999d10	0.075006604
157	0x3d60dade	0.054896228
158	0xbced4d96	-0.02896766
159	0xbcdfa8bb	-0.027302137
160	0xbd8101f9	-0.062992044
161	0xbda964a1	-0.082711466
162	0x3b9d08a2	0.004792289
163	0xbd651b7d	-0.055934418
164	0x3d82d254	0.06387773
165	0xbca80785	-0.020511398
166	0xbd68d5fd	-0.0568447
167	0xbd7e1944	-0.062035814
168	0xbdb7d5e4	-0.08976343
169	0xbbf050dd	-0.0073338584
170	0xbcab336c	-0.020898543
171	0x3d50f603	0.051015865
172	0x3bc16150	0.005901493
173	0xbc822a91	-0.015889438
174	0x3bed75ab	0.007246693
175	0xbc793aac	-0.015211742
176	0x3c4825a3	0.012216005
177	0x3d6b5585	0.057454605
178	0x3d8251a6	0.063632295
179	0x3d338931	0.043832008
180	0xbb6ca460	-0.0036108717
181	0x3d0f5dd9	0.03500161
182	0xbda8f96f	-0.08250701
183	0xbd8828cc	-0.066484064
184	0x3d9ebe5f	0.07751154
185	0x3da18fa5	0.07888726
186	0x3d9f14cb	0.07767638
187	0xbd9d8a05	-0.07692341
188	0x3da4e6db	0.08051845
189	0xbbe11764	-0.0068692435
190	0x3cd2af7c	0.025718443
191	0x3cf47480	0.029840708
192	0x3d120c32	0.03565616
193	0xba46fcb9	-0.0007590759
194	0xbc0294fd	-0.007970092
195	0xbb245460	-0.0025074705
196	0x3d3d396e	0.046197347
197	0x3ce3ee07	0.027823461
198	0x3d6408a2	0.055672295
199	0xbcbb8d55	-0.02289454
200	0x3ccb49fc	0.024815552
201	0x3d91b335	0.07114259
202	0xbda56cd0	-0.08077395
203	0xbd7a548d	-0.06111579
204	0xbd698de4	-0.057020083
205	0x3d081102	0.033219345
206	0x3d2b3811	0.041801516
207	0x3d261850	0.04055053
208	0x3d0a8b62	0.033824332
209	0xbcafd39c	-0.021463208
210	0x3d9c4cba	0.07631822
211	0xbd86eb84	-0.0658789
212	0x3d91e7f5	0.071243204
213	0x3d91f5b5	0.07126943
214	0xbc60a0ee	-0.013710244
215	0x3c71ec4d	0.014765811
216	0xbc82f409	-0.015985506
217	0x3c3e8971	0.011629448
218	0x3d7716fe	0.06032466
219	0x3c7f2ca7	0.015574611
220	0xbd8abbb3	-0.06774082
221	0xbd5c0a88	-0.05372098
222	0x3d3502d8	0.044192165
223	0xbb858199	-0.004074287
224	0x3bdd11b8	0.006746497
225	0xbda0b248	-0.078465044
226	0x3daaf5b1	0.08347643
227	0x3d81d180	0.06338787
228	0xbdac404d	-0.08410702
229	0x3dab8db4	0.08376637
230	0x3d438445	0.047733564
231	0x3cd3ffdd	0.025878841
232	0x3d6653c9	0.056232248
233	0xbd4cf9f1	-0.05004305
234	0xbd0edd3d	-0.034878958
235	0x3d976720	0.073927164
236	0x3c1a45fd	0.009416101
237	0x3c372f41	0.0111807
238	0x3d962143	0.07330563
239	0x3c7933c7	0.015210099
240	0xbd36a794	-0.04459341
241	0x3cbc7334	0.023004152
242	0x3d6c2a9c	0.057657823
243	0x3db7b529	0.089701004
244	0x3d4eb101	0.050461773
245	0xbdb4101f	-0.08792137
246	0xbd2e983a	-0.042625643
247	0x3aa05e71	0.0012235177
248	0xbcbf1e2a	-0.023329813
249	0x3c754dcd	0.014972162
250	0xbccc6170	-0.024948806
251	0xbccd605e	-0.025070366
252	0xbd994e68	-0.07485658
253	0x3da004fc	0.07813451
254	0xbc63ab15	-0.01389577
255	0x3d96fb8f	0.073722

conv_blocks.7.bias f4 [64]
0	0x3c8c3d0b	0.017118951
1	0xbd74f033	-0.059799384
2	0xbaa3b039	-0.0012488432
3	0xbcf69a60	-0.030102909
4	0xbd3abb55	-0.04558881
5	0xbc92dea9	-0.017928438
6	0xbd5a77d5	-0.053336937
7	0x3bbc83d0	0.005753018
8	0x3ccc81e6	0.024964284
9	0xbd5c4807	-0.053779628
10	0x3d9b1eca	0.07574232
11	0xbc83a1f3	-0.016068434
12	0xbd330d45	-0.043713827
13	0xbb3d88e6	-0.002892071
14	0x3d74ba1d	0.059747804
15	0xbd1b7512	-0.037953444
16	0xbd1f19af	-0.038842853
17	0x3bcd8972	0.0062724883
18	0x3dac6f2e	0.08419643
19	0xbdb1d777	-0.08683675
20	0xbd864644	-0.06556371
21	0xbc9370c6	-0.01799811
22	0xbd25291b	-0.040322404
23	0xbd45ad93	-0.048261236
24	0x3cb6c01f	0.022308407
25	0xbd59a131	-0.05313224
26	0xbda71386	-0.08158021
27	0x3d728044	0.059204355
28	0x3d487d08	0.048947364
29	0x3d8f3c3d	0.069939114
30	0xbdaddd70	-0.084895015
31	0xbcf85ddc	-0.030318193
32	0x3d986670	0.074414134
33	0xbca5cb63	-0.020238584
34	0x3da46b88	0.080283225
35	0xbd299ef0	-0.04141134
36	0x3d2aa7d2	0.041663952
37	0x3d72cf70	0.05927986
38	0xbcf120d6	-0.029434603
39	0xbd42f022	-0.04759229
40	0x3db14ea7	0.0865758
41	0xbd5bd6db	-0.0536717
42	0xbd2afff3	-0.041748
43	0xbdad97df	-0.08476233
44	0xbd2f8366	-0.04284992
45	0xbd42fe30	-0.047605693
46	0xbd9bb84e	-0.07603513
47	0x3d4a2ba5	0.04935803
48	0xbd7c2887	-0.061562087
49	0xbd33cc79	-0.043896172
50	0x3c9d1567	0.019175244
51	0xbd1ef747	-0.03881004
52	0x3ca09718	0.019603297
53	0x3d97635f	0.073920004
54	0xbd42c3cf	-0.04755002
55	0xbc1a51df	-0.009418934
56	0xbc893b3f	-0.016751884
57	0xbd86544d	-0.06559048
58	0xbd0ef386	-0.03490021
59	0x3d5ee0c0	0.054413557
60	0x3db0c5a7	0.08631449
61	0xbc4834e9	-0.012219646
62	0xbda8122e	-0.082065925
63	0xbd9c52e7	-0.07633

conv_blocks.8.weight f4 [64]
0	0x3f80790f	1.0036944
1	0x3f7f5810	0.9974375
2	0x3f7f685c	0.99768615
3	0x3f7fb805	0.99890167
4	0x3f801043	1.0004963
5	0x3f7f4ae3	0.99723643
6	0x3f805cd3	1.0028328
7	0x3f80723f	1.0034865
8	0x3f800c3d	1.0003735
9	0x3f7fc8ac	0.99915576
10	0x3f7f7e99	0.9980255
11	0x3f7eb977	0.99501747
12	0x3f7fc0b2	0.99903405
13	0x3f7f3e19	0.9970413
14	0x3f7fc06b	0.9990298
15	0x3f80ab8c	1.0052352
16	0x3f806ce5	1.0033232
17	0x3f7f763b	0.9978978
18	0x3f807441	1.0035478
19	0x3f7efa61	0.996008
20	0x3f805c4a	1.0028164
21	0x3f80d2cc	1.006433
22	0x3f7f4fe9	0.9973131
23	0x3f7f5840	0.99744034
24	0x3f7f2cab	0.9967753
25	0x3f804fe9	1.0024387
26	0x3f802832	1.0012267
27	0x3f804c24	1.0023236
28	0x3f80e33c	1.0069346
29	0x3f7f8aee	0.99821365
30	0x3f7ff495	0.9998258
31	0x3f7f7764	0.9979155
32	0x3f7f4a2b	0.99722546
33	0x3f7ff499	0.999826
34	0x3f80245b	1.0011095
35	0x3f7f5d7f	0.9975204
36	0x3f80028b	1.0000776
37	0x3f7f357f	0.99691004
38	0x3f7f1d6d	0.99654275
39	0x3f7f9e17	0.998506
40	0x3f7fb0c5	0.99879104
41	0x3f803c00	1.001831
42	0x3f7f975d	0.9984034
43	0x3f7fb806	0.9989017
44	0x3f806868	1.0031862
45	0x3f7ff0aa	0.999766
46	0x3f7f8454	0.9981129
47	0x3f7fdaa9	0.99943024
48	0x3f7fa589	0.9986196
49	0x3f7fbbcb	0.99895924
50	0x3f803038	1.0014715
51	0x3f8010d7	1.0005139
52	0x3f7fb339	0.9988285
53	0x3f8087e6	1.0041473
54	0x3f7f6bf4	0.997741
55	0x3f806366	1.0030334
56	0x3f7f28ad	0.9967144
57	0x3f7ff5db	0.9998452
58	0x3f812429	1.008916
59	0x3f7fce28	0.99923944
60	0x3f7f4e81	0.9972916
61	0x3f7f66a5	0.99766
62	0x3f7fe09b	0.99952096
63	0x3f804945	1.002236

conv_blocks.8.bias f4 [64]
0	0x3bdb6055	0.0066948333
1	0x3939f64e	0.0001773473
2	0xb98ca29c	-0.00026824034
3	0xbb4f1cfc	-0.003160297
4	0x3b1c4235	0.0023843173
5	0xbaa29a42	-0.0012405592
6	0x3ae9025e	0.0017777195
7	0x3b7b9a6d	0.0038391605
8	0xba74b203	-0.0009334387
9	0xba82eaae	-0.0009988153
10	0x39adbf14	0.00033139496
11	0xbb18233a	-0.0023214356
12	0xba6f0c13	-0.00091189257
13	0x398f520b	0.00027336212
14	0xbab3879c	-0.0013697031
15	0x3baa02f2	0.0051883394
16	0x3bb96fbe	0.0056590727
17	0x3ab1eb44	0.0013574143
18	0xba47fa04	-0.0007628503
19	0xba42fdfa	-0.0007438358
20	0x3b8b2fa7	0.004247624
21	0x3b53248f	0.0032217836
22	0xbb73c2bf	-0.0037194935
23	0xbaa265bd	-0.001238994
24	0xb9ca8fac	-0.00038635486
25	0xb8f5edbe	-0.00011726793
26	0x3af0eafb	0.0018380577
27	0x3bd5bb97	0.0065226066
28	0x3bafbfce	0.005363441
29	0xbb7f4884	-0.0038953135
30	0x3a50a3b2	0.0007958963
31	0xbb4b2c38	-0.0031001698
32	0xba96153b	-0.0011450419
33	0xbaee0ae1	-0.0018161201
34	0x3a0c65a6	0.0005355723
35	0xbaf39aa4	-0.0018585515
36	0xbb2e4b7a	-0.002659528
37	0xba57c02b	-0.00082302344
38	0xbb4dcf06	-0.0031403913
39	0xba22d2d0	-0.0006211223
40	0xba650f35	-0.0008737923
41	0xb987ee38	-0.00025926693
42	0xbb84f95f	-0.0040580477
43	0xba8b4d9b	-0.0010627987
44	0xba4da2be	-0.000784438
45	0xba9f979f	-0.0012175924
46	0x3993d9a8	0.0002820019
47	0x3b5670e4	0.0032721097
48	0xbb39ff86	-0.0028381064
49	0xbb3504e4	-0.0027621323
50	0x3a6ca3b3	0.00090270786
51	0x3b90cdfd	0.004419087
52	0xb9bd856e	-0.00036148302
53	0x3b30fb5a	0.0027005286
54	0xbb4932dd	-0.0030700483
55	0x3aec485d	0.0018026937
56	0xbbbe1d0a	-0.0058018016
57	0xbb07903a	-0.002068533
58	0x3c0ebe90	0.008712426
59	0xbb2c9cbe	-0.0026338543
60	0x39139a36	0.0001407646
61	0xba67c5dd	-0.00088414346
62	0xb8ff8bd6	-0.00012185394
63	0x3b43b53f	0.002986267

conv_blocks.8.running_mean f4 [64]
0	0x3ea8a792	0.32940346
1	0x3e5a5bee	0.21324131
2	0x3dd1440e	0.102180585
3	0x3e15bcfa	0.1462287
4	0xbbd2f7fb	-0.006438253
5	0xbd462563	-0.0483755
6	0x3d9ffa3b	0.078113995
7	0xbe7361ff	-0.23767851
8	0xbd996f6d	-0.07491956
9	0xbe826b4b	-0.25472483
10	0xbdf3806a	-0.118897274
11	0x3e0c8f44	0.13726526
12	0xbda35d48	-0.07976776
13	0xbd9a831a	-0.07544537
14	0x3e483a13	0.19553404
15	0xba7e119c	-0.0009691955
16	0x3eb5880f	0.35455367
17	0x3ddfda3b	0.10930296
18	0x3c94956b	0.018137654
19	0x3e68af18	0.22723043
20	0xbedfadce	-0.4368729
21	0x3e138f1a	0.14410058
22	0xbdf4bb18	-0.11949748
23	0xbdc38887	-0.09547525
24	0xbb0a273c	-0.0021080514
25	0xbe131828	-0.14364684
26	0xbe1c4dea	-0.15264097
27	0x3f02bd3a	0.51069987
28	0x3d872a49	0.06599862
29	0xbe27d947	-0.16391478
30	0xbe9fe485	-0.31229034
31	0xbd6594dd	-0.05605017
32	0x3e57dd8c	0.21080607
33	0x3dc7b48e	0.09751235
34	0x3e897b8d	0.26852074
35	0x3e256dc6	0.16155156
36	0x3e9163bf	0.28396413
37	0x3cf6929d	0.030099208
38	0xbd2cd4b7	-0.04219505
39	0x3d781323	0.060565125
40	0xbe772758	-0.24136102
41	0x3ea371e8	0.3192284
42	0xbbb83cfe	-0.005622505
43	0xbcd631d2	-0.026146803
44	0x3df16fab	0.11788877
45	0xbe6dc0a5	-0.2321802
46	0x3cbb38e4	0.022854276
47	0xbe41b4c1	-0.18916608
48	0x3b720998	0.0036931988
49	0xbe4584ce	-0.19288942
50	0x3e936563	0.2878829
51	0xbe291082	-0.16510203
52	0x3e934feb	0.2877191
53	0x3e0db4d6	0.13838515
54	0x3da2d079	0.07949919
55	0x3e211b90	0.1573317
56	0x3e3fc8df	0.1872897
57	0x3d8a54ed	0.067544796
58	0xbee5faf6	-0.4491803
59	0x3e1768f9	0.14786138
60	0xbd61221b	-0.054964166
61	0x3e38552c	0.1800124
62	0xbd87b853	-0.06626954
63	0xbe699cb1	-0.2281368

conv_blocks.8.running_var f4 [64]
0	0x3e732173	0.23743229
1	0x3e6c06ae	0.23049423
2	0x3e74ca76	0.23905358
3	0x3e8ddaf6	0.27706116
4	0x3e389e8a	0.18029228
5	0x3e82e300	0.25563812
6	0x3e3ed540	0.18636036
7	0x3ea21aae	0.3166098
8	0x3e77af47	0.24187957
9	0x3e5a912b	0.2134444
10	0x3e2b08ff	0.1670265
11	0x3e67c270	0.22632766
12	0x3e40554f	0.18782543
13	0x3e6d256d	0.23158808
14	0x3e4816ed	0.19539995
15	0x3e59b9e7	0.21262322
16	0x3e714709	0.23562254
17	0x3e859447	0.2608969
18	0x3e65871b	0.2241482
19	0x3e67bc2a	0.22630373
20	0x3e554296	0.20826182
21	0x3e5801e8	0.21094477
22	0x3e58a4ac	0.21156567
23	0x3e88bc64	0.2670623
24	0x3e46b357	0.1940435
25	0x3e3f059b	0.18654482
26	0x3e6f9b97	0.23399197
27	0x3e8f29f3	0.27961692
28	0x3e767fc5	0.24072178
29	0x3e569098	0.20953596
30	0x3e86f0d9	0.26355627
31	0x3e779b9a	0.24180451
32	0x3e70b6be	0.2350721
33	0x3e5f41c4	0.21802431
34	0x3e1fc716	0.15603289
35	0x3e623c21	0.2209325
36	0x3e58144d	0.21101494
37	0x3e4482e2	0.19190553
38	0x3e40046f	0.18751691
39	0x3e5b8929	0.21439041
40	0x3e4c8536	0.19972691
41	0x3e5d129b	0.21589129
42	0x3e5c05a0	0.21486521
43	0x3e59905e	0.21246478
44	0x3e3fae5e	0.1871886
45	0x3e7c8174	0.24658757
46	0x3e30bcd2	0.17259529
47	0x3e2482a6	0.16065463
48	0x3e53416c	0.20630425
49	0x3e39be4e	0.18139002
50	0x3e3635a8	0.17793906
51	0x3e5cfb70	0.21580291
52	0x3e5f9ee0	0.2183795
53	0x3e7787d6	0.24172911
54	0x3e54aafc	0.2076835
55	0x3e477b52	0.19480637
56	0x3e74820e	0.23877737
57	0x3e5e1695	0.21688302
58	0x3e6c5836	0.23080525
59	0x3e60fa70	0.21970534
60	0x3e33a48b	0.17543237
61	0x3e518932	0.20462492
62	0x3e5194d1	0.20466925
63	0x3e640890	0.22268891

conv_blocks.11.weight f4 [128, 64, 4]
0	0xbd7152ee	-0.05891698
1	0xbca6d3d8	-0.020364687
2	0xbc10ab83	-0.008829954
3	0xbce399d2	-0.027783308
4	0xbd59fdae	-0.053220443
5	0x3c98915c	0.018624
6	0x3bf4a89e	0.00746639
7	0x3c1149c3	0.008867684
8	0x3d2d0fac	0.042251274
9	0x3d1452f9	0.03621194
10	0xbc5bb31c	-0.013409402
11	0x3d337f19	0.04382238
12	0x3d1d0b0e	0.03834062
13	0xbd6f76a4	-0.058462754
14	0xbd23eb78	-0.040019482
15	0xbd0a730a	-0.033801116
16	0xbd5b2ffc	-0.05351256
17	0x3cdadd8f	0.026716975
18	0xbc487a06	-0.012236124
19	0xbd6d653e	-0.05795788
20	0x3d449e9f	0.048002835
21	0x3cf8f59a	0.03039055
22	0x3d071e32	0.03298778
23	0xbc5c6796	-0.013452431
24	0xbc94f4c4	-0.01818312
25	0xbb93cd30	-0.0045105442
26	0xbd826798	-0.06367415
27	0xbc8db803	-0.017299658
28	0xbbff0c4e	-0.0077834493
29	0x3d4ddf31	0.05026168
30	0x3d11a148	0.0355542
31	0x3d337bd3	0.04381926
32	0x3c7c5af8	0.015402548
33	0xbbfe831e	-0.007767095
34	0xbb286667	-0.0025695802
35	0x3d2afc7c	0.041744694
36	0xbc801e70	-0.015639514
37	0xbd07565d	-0.033041347
38	0xbd654e48	-0.055982858
39	0xbd60f2be	-0.054918997
40	0xbbc0cf4f	-0.005884088
41	0xbcfd6fd0	-0.030937105
42	0x3d7d13e9	0.061786566
43	0x3d3efc56	0.046627365
44	0x3c23e724	0.010003839
45	0xbb3f5896	-0.0029197088
46	0x3b31849a	0.0027087093
47	0xbbe957c3	-0.0071210577
48	0x3cd09d6b	0.025465688
49	0xbd4e09fe	-0.050302498
50	0x3cb23a1c	0.021756224
51	0xbc352a95	-0.011057516
52	0x3c4feb1e	0.012690334
53	0xbc0f9006	-0.008762365
54	0xbd4457ce	-0.0479353
55	0xbcb0a400	-0.021562576
56	0xbcbeaca6	-0.023275685
57	0xbd0f1d21	-0.03493989
58	0xbcd0cc12	-0.025487933
59	0x3d3cedb1	0.046125118
60	0x3d555918	0.05208692
61	0x3d2c0ad8	0.04200253
62	0xbd59c54c	-0.053166673
63	0xbd7a89e7	-0.06116667
64	0x3d2c616b	0.042085093
65	0xbd773003	-0.060348522
66	0x3cf02b49	0.029317515
67	0x3ccb17b0	0.024791569
68	0x3c30d8b6	0.010793855
69	0xbcc03864	-0.02346439
70	0xbd4b76b2	-0.049673744
71	0xbcc251b4	-0.0237206
72	0xbd0f4f70	-0.034987867
73	0xbc5fef5e	-0.013667909
74	0xbd868cf8	-0.065698564
75	0xbce283ab	-0.027650675
76	0x3ca629b1	0.020283552
77	0xbd628a1d	-0.055307496
78	0x3c84d007	0.016212476
79	0xbd11a61e	-0.035558812
80	0xbd1f67cf	-0.03891736
81	0x3d38fadb	0.04516111
82	0xbc876985	-0.016529808
83	0xbd49a5b0	-0.049230278
84	0xbc64ce72	-0.013965236
85	0xbd47f74d	-0.04881983
86	0xbb37db02	-0.0028054123
87	0xbd1c28b0	-0.03812474
88	0xbd555cc7	-0.052090432
89	0x3d74b5de	0.059743755
90	0xba0ac958	-0.0005294285
91	0x3c48e2b7	0.012261084
92	0x3d6d2521	0.057896737
93	0x3c596eaf	0.013271018
94	0x3ce15243	0.027505046
95	0xbb96e5bb	-0.0046050227
96	0x3d1ae761	0.037818316
97	0x3bd34de9	0.0064484966
98	0xbcc792a4	-0.024361916
99	0xbd3bf076	-0.04588362
100	0xbce74908	-0.028233066
101	0xbd4a62be	-0.049410574
102	0xbc1284d1	-0.008942799
103	0x3cfc47c7	0.030795945
104	0xbd2bcbbe	-0.04194235
105	0x3d1637ce	0.036674313
106	0xbd2b26de	-0.041785114
107	0x3cae16a4	0.02125103
108	0xbd76b4ef	-0.060231145
109	0x3d1b35b4	0.037893012
110	0x3c37b3fb	0.011212344
111	0xbd4a87ba	-0.049445845
112	0xbc4a2128	-0.012337007
113	0x3d3622a6	0.044466637
114	0xbced11a9	-0.028939085
115	0xbd2bff97	-0.041991796
116	0xbd5fd8cf	-0.054650124
117	0x3c93f157	0.018059416
118	0xbc89f580	-0.016840696
119	0xbbbd3f18	-0.0057753436
120	0xbcfd02c0	-0.0308851
121	0x3cf08c4e	0.029363777
122	0x3b771cf6	0.003770647
123	0xbd43444e	-0.047672562
124	0xbd072cf0	-0.03300184
125	0xbd796839	-0.06089041
126	0x3c4482c1	0.011994065
127	0x3c887416	0.016656917
128	0x3d321648	0.04347828
129	0xbcdb95ef	-0.026804892
130	0xbd3b63ab	-0.045749348
131	0xbd6e2fc2	-0.058151014
132	0x3cde3288	0.027123705
133	0xbd552b0a	-0.052043
134	0xbccdd292	-0.025124822
135	0xbd1ab222	-0.037767537
136	0x3b40ddec	0.002942915
137	0xbd523fb2	-0.051330276
138	0x3cad6dcf	0.021170525
139	0xbd4b8818	-0.049690336
140	0xbceffc75	-0.029295186
141	0x3d08daf9	0.033411954
142	0xbd3fca23	-0.046823632
143	0xbd0a1bbc	-0.033717856
144	0x3c49fb46	0.012327975
145	0x3cc2f80e	0.023799922
146	0x3d07ef9e	0.0331875
147	0xbd0a9e79	-0.033842538
148	0xbd317517	-0.043324556
149	0xbcafff5b	-0.021484068
150	0xbba455dd	-0.0050151185
151	0xbd4687ea	-0.04846946
152	0x3d1b9cac	0.03799121
153	0x3d0b5219	0.03401384
154	0x3d0e0f70	0.03468269
155	0x3c6f3fbb	0.014602597
156	0xbd78c4be	-0.060734503
157	0xbd59a131	-0.05313224
158	0xbcd84ecd	-0.026404763
159	0xbd2acbc0	-0.041698217
160	0x3d299de9	0.04141036
161	0x3d436a47	0.047708776
162	0x3c4849c5	0.012224619
163	0x3d11ea47	0.035623815
164	0x3cfd2993	0.030903613
165	0xbd58f037	-0.05296346
166	0x3c6ef4ba	0.014584715
167	0x3d216809	0.039405856
168	0xbd703d12	-0.05865199
169	0xbd4bd865	-0.049766917
170	0x3cbf611c	0.023361735
171	0xbc15f23e	-0.009151993
172	0xbcb769ad	-0.022389257
173	0xbc71b5a0	-0.014752775
174	0xbd61a3d2	-0.05508787
175	0xbd3a13da	-0.04542909
176	0xbc59a97c	-0.013285037
177	0x3ceb09a0	0.028691113
178	0xbd6d052f	-0.05786627
179	0xbd40bd72	-0.04705567
180	0xbd609d20	-0.054837346
181	0x3c8ca33b	0.017167678
182	0xbd094197	-0.033509817
183	0x3d08c79f	0.0333935
184	0x3d1621fb	0.0366535
185	0xbd771f4e	-0.06033259
186	0xbcf51a1a	-0.029919673
187	0xbd5264f8	-0.051365823
188	0xbcb699a8	-0.022290066
189	0xbd1eb860	-0.038750052
190	0xbcfcda54	-0.030865826
191	0xbba4c6ea	-0.005028595
192	0xbbe94876	-0.0071192337
193	0x3c22588f	0.009908809
194	0xbd3bf3ad	-0.045886684
195	0x3cee96bb	0.029124608
196	0xbd76bad5	-0.06023677
197	0x3d143e0a	0.036191978
198	0xbcf4d7bc	-0.029888026
199	0xbd642b8c	-0.055705592
200	0x3d1cf8a0	0.038323045
201	0xbd2dd98c	-0.042443797
202	0x3c9f0eab	0.019416174
203	0xbce2f4a2	-0.02770454
204	0x3d7ae775	0.06125589
205	0x3cccf9f3	0.025021529
206	0x3d01150b	0.03151421
207	0xbd318f00	-0.043349266
208	0x3d32daa0	0.04366553
209	0xbd02aa25	-0.031900544
210	0xbcf20759	-0.02954452
211	0xbc8049e1	-0.015660228
212	0xbd1655f1	-0.036703054
213	0xbd6a251a	-0.05716429
214	0x3c9795df	0.018504081
215	0x3ce764fd	0.028246397
216	0x3d0f7c80	0.03503084
217	0x3c8b7f49	0.017028468
218	0xbd7eb532	-0.06218452
219	0x3c4c3928	0.012464799
220	0x3a7032c1	0.00091628364
221	0x3912a53f	0.00013985204
222	0x3a74b860	0.00093353353
223	0xbbd50f01	-0.0065020327
224	0x3c0de4ae	0.0086604785
225	0xbd0485d3	-0.032354187
226	0x3c995a9c	0.018719964
227	0x3c72d23f	0.014820634
228	0x3d3121f3	0.043245267
229	0xbd1f4200	-0.038881302
230	0xbd29e6ba	-0.041479804
231	0x3d32679f	0.043555852
232	0xbb5f0bfb	-0.003403424
233	0xbd132c1e	-0.035930745
234	0xbd0c4460	-0.034244895
235	0x3d6409ae	0.055673294
236	0xbbe66280	-0.007030785
237	0xbd5c5083	-0.05378772
238	0xbb71df38	-0.003690673
239	0xbcb2ad82	-0.02181125
240	0x3b6972c2	0.003562138
241	0xbc09a583	-0.0084012775
242	0x3d432689	0.047644172
243	0xbd3bbb7d	-0.0458331
244	0x3d5581b6	0.052125655
245	0x3d29520d	0.041338015
246	0x3d18e72a	0.03732983
247	0x3adea7d3	0.0016987271
248	0xbd2ae19b	-0.04171906
249	0xbd42b0c9	-0.047531877
250	0xbcd6851c	-0.026186518
251	0x3d16293b	0.036660414
252	0x3c3230b5	0.0108758705
253	0x3d16822e	0.036745243
254	0x3d0038c3	0.031304132
255	0xbcb03c62	-0.021513168

conv_blocks.11.bias f4 [128]
0	0xbc99109b	-0.018684676
1	0x3d32554c	0.043538377
2	0xba86b7c9	-0.0010278161
3	0xba369ae4	-0.00069658295
4	0x385e458c	5.2993695e-05
5	0xbd06caf5	-0.0329084
6	0x3c6fe597	0.014642141
7	0xbd73a500	-0.059483528
8	0xbc00d692	-0.007863658
9	0xbb6c76aa	-0.0036081471
10	0x3c576f31	0.013149069
11	0xbcff85b3	-0.031191682
12	0xbd79674d	-0.06088953
13	0x3d748f20	0.059706807
14	0xbd16bf38	-0.036803454
15	0xbcf995fc	-0.030467026
16	0x3d1f7f68	0.038939863
17	0xbbd3107a	-0.006441173
18	0xbd1e79c3	-0.03869034
19	0xbd2f61c9	-0.042817865
20	0xbd6b2ae2	-0.057413943
21	0x3b429277	0.002968935
22	0x3b65554a	0.0034993463
23	0x3d5144a7	0.051090863
24	0xbd7bb155	-0.061448414
25	0x3cd66b3a	0.026174176
26	0x3b259370	0.0025264882
27	0xbd57ea14	-0.05271347
28	0x3b7e9355	0.003884514
29	0xbd02a6c6	-0.03189733
30	0x3c81fb09	0.015866773
31	0x3ce285c3	0.027651673
32	0x3d6757e5	0.056480307
33	0xbc9c8fdd	-0.019111568
34	0x3d71d288	0.05903867
35	0x3c799ec5	0.0152356075
36	0x3c96f3c0	0.018426776
37	0xbd6a666e	-0.05722659
38	0xbd61adba	-0.05509732
39	0xbcbd3bdc	-0.023099832
40	0x3d734177	0.059388604
41	0x3d097ffe	0.03356933
42	0x3d6183a8	0.055057198
43	0xbd6e5622	-0.05818761
44	0x3b879817	0.0041380036
45	0xbd695339	-0.056964133
46	0x3d759a90	0.059961855
47	0x3d2e080e	0.04248815
48	0x3d0d6668	0.03452149
49	0xbcffda7f	-0.031232117
50	0xbd0e7ae3	-0.034785163
51	0xbd1a7876	-0.037712537
52	0x3d5b44ea	0.05353252
53	0xbd0e4085	-0.0347295
54	0x3cf4178b	0.029796382
55	0x3d083426	0.033252858
56	0xbc982d70	-0.018576354
57	0x3d6521cb	0.05594043
58	0xbd48e5ec	-0.049047396
59	0xbd04cf38	-0.03242418
60	0x3c9d529b	0.019204428
61	0x3c519a51	0.01279314
62	0xbcd65b2f	-0.026166527
63	0xbca852b8	-0.020547256
64	0x3a1af51f	0.00059111597
65	0x3d08d640	0.03340745
66	0x3d4932e5	0.049120802
67	0x3d72e27a	0.059298016
68	0x3d59d640	0.05318284
69	0xbc847ac5	-0.016171822
70	0x3cc3a0fa	0.02388047
71	0xbb52f649	-0.0032190254
72	0xbd7186a0	-0.05896628
73	0xbd3e9553	-0.046529125
74	0xbd5e3b90	-0.054256022
75	0x3d62b726	0.055350445
76	0xbc0a8505	-0.008454566
77	0x3d477a65	0.04870071
78	0x3bea64de	0.0071531376
79	0x3d64d225	0.055864472
80	0x3d06c263	0.032900225
81	0x3d25f897	0.040520277
82	0x3d68e78e	0.056861453
83	0x3bdb6aa4	0.006696062
84	0xbd4e5ef2	-0.050383516
85	0x3cb84878	0.022495493
86	0x3d713206	0.058885597
87	0x3d079a0f	0.033105906
88	0xbb0e2008	-0.0021686573
89	0x3d4fdea6	0.050749443
90	0xbd78359a	-0.060597993
91	0x3c9ab157	0.01888339
92	0x3d7b4a32	0.061350055
93	0xbcd48605	-0.025942812
94	0xbcbf26d4	-0.023333944
95	0x3ca9890e	0.020695236
96	0x3d10e1ba	0.03537152
97	0xbd7ed12e	-0.062211208
98	0x3d1a1464	0.037617102
99	0x3d3efe36	0.046629153
100	0xbcfd6066	-0.030929755
101	0x3d13d70a	0.03609375
102	0xbd6aa203	-0.057283413
103	0xbc3b4760	-0.011430591
104	0xbd4c706f	-0.049911913
105	0xbce237ae	-0.02761444
106	0x3cf6d146	0.030129086
107	0x3d4acf53	0.049514126
108	0x3d2f862c	0.042852566
109	0x3d05e528	0.032689244
110	0xbcff7caf	-0.031187383
111	0x3c001c00	0.007819176
112	0x3d1fce98	0.039015383
113	0x3d77c259	0.06048808
114	0xbd0c642f	-0.03427523
115	0xbd3e4a1e	-0.046457402
116	0xbd0d3d36	-0.034482203
117	0x3d05f82b	0.032707375
118	0xbd783d0c	-0.060605094
119	0x3d15b304	0.036547676
120	0x3c893b0c	0.016751789
121	0x3d6c1f54	0.057647064
122	0x3d46345e	0.048389785
123	0x3c7ddc30	0.015494391
124	0x3d092e7a	0.03349159
125	0xbc6ca620	-0.014443904
126	0xbced9796	-0.029002946
127	0xbcce04ee	-0.025148835

conv_blocks.12.weight f4 [128]
0	0x3f80b119	1.0054046
1	0x3f80ae4f	1.0053195
2	0x3f8002f8	1.0000906
3	0x3f7fd2c1	0.9993096
4	0x3f7f95e4	0.9983809
5	0x3f7ed921	0.9955006
6	0x3f800981	1.00029
7	0x3f7fb654	0.99887586
8	0x3f7ee5a9	0.99569184
9	0x3f7fbc6b	0.9989688
10	0x3f7fda83	0.999428
11	0x3f803d0b	1.0018629
12	0x3f7fe356	0.9995626
13	0x3f7f5863	0.9974424
14	0x3f801c6c	1.0008674
15	0x3f802be7	1.0013398
16	0x3f8013c7	1.0006036
17	0x3f7fa687	0.99863476
18	0x3f7fb1af	0.998805
19	0x3f7f3984	0.99697137
20	0x3f805f1a	1.0029023
21	0x3f7fe798	0.9996276
22	0x3f8027ec	1.0012183
23	0x3f7f4ece	0.9972962
24	0x3f8018b0	1.0007534
25	0x3f8020aa	1.0009968
26	0x3f805f12	1.0029013
27	0x3f803d87	1.0018777
28	0x3f7f9103	0.99830645
29	0x3f80f272	1.0073988
30	0x3f80218e	1.001024
31	0x3f80b6fe	1.0055845
32	0x3f80e13a	1.0068734
33	0x3f8054fa	1.0025933
34	0x3f801b7a	1.0008385
35	0x3f803607	1.0016488
36	0x3f80b7b9	1.0056068
37	0x3f801247	1.0005578
38	0x3f80d8f0	1.0066204
39	0x3f8110b2	1.008322
40	0x3f80745d	1.0035511
41	0x3f810d00	1.0082092
42	0x3f7ff496	0.99982584
43	0x3f8013ed	1.0006081
44	0x3f808bef	1.0042704
45	0x3f800835	1.0002505
46	0x3f8082be	1.0039899
47	0x3f8066b9	1.0031348
48	0x3f7f397a	0.9969708
49	0x3f7f6d08	0.99775743
50	0x3f805315	1.0025355
51	0x3f802721	1.0011941
52	0x3f81450d	1.0099198
53	0x3f7fa7cf	0.9986543
54	0x3f80752a	1.0035756
55	0x3f80f75a	1.0075486
56	0x3f80a558	1.0050459
57	0x3f80c248	1.005929
58	0x3f7f5bad	0.9974926
59	0x3f80f681	1.0075227
60	0x3f7fb220	0.9988117
61	0x3f80dc1c	1.0067172
62	0x3f7e9fc5	0.9946254
63	0x3f7f6b18	0.9977279
64	0x3f80a2cd	1.0049683
65	0x3f7ec5e5	0.99520713
66	0x3f7fce6f	0.9992437
67	0x3f7fa607	0.9986271
68	0x3f7f4c08	0.9972539
69	0x3f7f3874	0.99695516
70	0x3f80e6bd	1.0070416
71	0x3f807633	1.0036072
72	0x3f80382f	1.0017146
73	0x3f806e3f	1.0033644
74	0x3f807e57	1.0038556
75	0x3f801ea0	1.0009346
76	0x3f80acf2	1.0052779
77	0x3f7f9825	0.9984153
78	0x3f800238	1.0000677
79	0x3f80e81a	1.0070832
80	0x3f7f9e8a	0.99851286
81	0x3f7fbf27	0.9990105
82	0x3f8034f3	1.0016159
83	0x3f808e99	1.0043517
84	0x3f806fea	1.0034153
85	0x3f800bc9	1.0003597
86	0x3f80439d	1.0020634
87	0x3f809743	1.0046161
88	0x3f7f7713	0.9979107
89	0x3f7f13a6	0.99639356
90	0x3f801abb	1.0008157
91	0x3f7f1efe	0.99656665
92	0x3f80114b	1.0005277
93	0x3f7f91de	0.9983195
94	0x3f7f896a	0.9981905
95	0x3f801048	1.0004969
96	0x3f80587b	1.0027002
97	0x3f7f6ad5	0.9977239
98	0x3f8071bd	1.003471
99	0x3f801744	1.00071
100	0x3f8054b8	1.0025854
101	0x3f80a270	1.0049572
102	0x3f7fada4	0.9987433
103	0x3f807ce1	1.003811
104	0x3f8090b1	1.0044156
105	0x3f80d0cb	1.0063719
106	0x3f809734	1.0046144
107	0x3f80b5f4	1.0055528
108	0x3f7f36d1	0.9969302
109	0x3f80cf1e	1.0063207
110	0x3f807eaf	1.0038661
111	0x3f7efbb4	0.9960282
112	0x3f7fb6ab	0.99888104
113	0x3f80d215	1.0064112
114	0x3f7f0152	0.9961139
115	0x3f7fbc2d	0.9989651
116	0x3f7fd856	0.9993948
117	0x3f7eda46	0.9955181
118	0x3f7ff271	0.9997931
119	0x3f7f742d	0.99786645
120	0x3f7ffc86	0.99994695
121	0x3f807335	1.0035158
122	0x3f8024d9	1.0011245
123	0x3f80d636	1.0065372
124	0x3f806d7f	1.0033416
125	0x3f801672	1.000685
126	0x3f801184	1.0005345
127	0x3f7fc5b2	0.99911034

conv_blocks.12.bias f4 [128]
0	0x3ba90801	0.005158425
1	0x3b4ceadf	0.0031267924
2	0x399c52cc	0.00029816327
3	0xba921124	-0.0011144024
4	0xb918f291	-0.00014586213
5	0xbb77a626	-0.0037788241
6	0xb717f492	-9.057245e-06
7	0x3ade342d	0.0016952805
8	0xb9d8af7f	-0.00041329485
9	0x3bb6952d	0.0055719824
10	0x3a28c76e	0.0006438409
11	0x3baa413e	0.0051957658
12	0xba303ef4	-0.0006723248
13	0x3b1cfde0	0.0023955032
14	0xb963f8c1	-0.00021741075
15	0xba2d6dcd	-0.0006615788
16	0xb8a89e42	-8.040342e-05
17	0xb8961986	-7.1573115e-05
18	0xbaa31375	-0.0012441712
19	0xbba35a12	-0.0049851025
20	0x3b875ace	0.004130698
21	0xba951ff4	-0.0011377321
22	0x398d9b6b	0.0002700941
23	0x3aba637d	0.0014220324
24	0xba3e7d25	-0.0007266573
25	0x3bb6c245	0.005577358
26	0x3ba543b2	0.0050434703
27	0x3b0f41b6	0.0021859235
28	0x3a70ca36	0.0009185405
29	0x3b7e114c	0.0038767634
30	0x3b56e424	0.003278979
31	0x3b968150	0.004593052
32	0x3bb2f7fc	0.005461691
33	0x3bcf562f	0.0063274126
34	0x3b78268f	0.003786478
35	0x3b1814c7	0.0023205744
36	0x3b1d9c91	0.002404962
37	0x3834f0e4	4.313969e-05
38	0x3b8605db	0.0040900535
39	0x3c1da564	0.009621952
40	0x3b3c9780	0.0028776824
41	0x3c03b0c7	0.0080377525
42	0xba968085	-0.0011482394
43	0xbb19ac4f	-0.0023448651
44	0x3bc2d4ec	0.0059457924
45	0x3ac66286	0.0015135563
46	0x3a2ae548	0.0006519151
47	0x3b24f990	0.0025173165
48	0x39bb56cf	0.00035732097
49	0x3a82ab4b	0.0009969262
50	0x390f6334	0.00013674499
51	0xbb7fd1b0	-0.0039034896
52	0x3c1d6af2	0.009608017
53	0xbafa02fa	-0.0019074373
54	0x3b0aadaf	0.0021160652
55	0x3c120030	0.0089111775
56	0xb9eef607	-0.00045578202
57	0x3bc39c8b	0.005969589
58	0xbb89335e	-0.0041870316
59	0xba7efd19	-0.00097270455
60	0x3b7665d6	0.003759732
61	0x3be14139	0.00687423
62	0xbb58e18f	-0.0033093428
63	0xbadabede	-0.0016688963
64	0x3abbfa91	0.0014341642
65	0xbb6a462e	-0.0035747397
66	0xbb7b36f0	-0.0038332306
67	0x392c1e16	0.00016414406
68	0xba901224	-0.0010991734
69	0x3a0da586	0.0005403388
70	0x3b463900	0.0030246377
71	0x3b555d53	0.0032556846
72	0x3b645849	0.003484266
73	0xb8430d0c	-4.6503774e-05
74	0x3bba62ed	0.0056880624
75	0x3ae8df0b	0.0017766667
76	0x3b8502bf	0.0040591653
77	0xb7ad6a9e	-2.0672855e-05
78	0xbb24b1c3	-0.0025130368
79	0x3b2cad65	0.0026348468
80	0xbb62a574	-0.003458348
81	0xba2ba271	-0.0006547338
82	0x3a40f472	0.0007360644
83	0x3af7d1f2	0.0018907173
84	0x3b8543b5	0.004066909
85	0xbb0c4202	-0.0021401648
86	0x3b7e31d9	0.0038787036
87	0x3bbb7001	0.005720139
88	0x3afb28da	0.0019161955
89	0xbb1208fd	-0.002228319
90	0x3b4b10f1	0.003098544
91	0xbaf6c9c9	-0.0018828447
92	0x3b4cdbd8	0.0031258967
93	0xbb0ca352	-0.0021459651
94	0x3a97dc3d	0.0011586022
95	0x382093a0	3.828446e-05
96	0x3b61e538	0.00344689
97	0xbafc66cc	-0.001925671
98	0x3bd33a7d	0.0064461813
99	0xbb68b841	-0.0035510215
100	0xbaad7d76	-0.0013236243
101	0x3a6c8dc9	0.0009023813
102	0xba2a7350	-0.0006502168
103	0x3b9be59a	0.0047575952
104	0x3b27fd23	0.002563306
105	0x3bd57420	0.0065140873
106	0x3b3e51a7	0.0029040368
107	0x3b632432	0.0034659025
108	0x3a390d77	0.00070591964
109	0x3ab3faac	0.0013731322
110	0x3ab63b75	0.0013903218
111	0x3b45f6a0	0.0030206814
112	0xba004d8a	-0.0004894367
113	0xba0c9edf	-0.000536425
114	0xbb23ab26	-0.0024973839
115	0xbaee0c5f	-0.0018161646
116	0x3bbdc110	0.005790837
117	0xbb0fdeb8	-0.002195282
118	0xbb144ab6	-0.002262754
119	0xbb1a2a11	-0.0023523609
120	0xba507fc8	-0.0007953611
121	0x3b010f54	0.0019692974
122	0xbb7ef6a7	-0.003890434
123	0x3adfd3aa	0.0017076631
124	0x3b5dd368	0.0033847932
125	0x3b18f4c8	0.002333926
126	0x3b091ba1	0.002092101
127	0x3a53dda2	0.0008082037

conv_blocks.12.running_mean f4 [128]
0	0xbf1b4031	-0.60644823
1	0x3e2e172d	0.17001028
2	0xbe5f0162	-0.21777871
3	0xbdf8a1f8	-0.12140268
4	0xbc55f7f8	-0.013059609
5	0x3e4efb2a	0.20212999
6	0xbdb2d705	-0.08732418
7	0xbdcf74f0	-0.10129726
8	0xbe8f5ca8	-0.2800038
9	0xbea1228e	-0.31471676
10	0xbe70c8e3	-0.23514132
11	0xbe8f87c6	-0.28033274
12	0xbe975052	-0.29553467
13	0x3c43a7e8	0.011941887
14	0x3c9ab38c	0.018884443
15	0x3e92765b	0.28605923
16	0x3c8cdceb	0.017195186
17	0x3d6d6b82	0.057963856
18	0x3d044d01	0.0323
19	0xbe091d1f	-0.13390015
20	0xbc9a2b57	-0.018819494
21	0xbbfe7527	-0.0077654305
22	0x3e5a35e4	0.2130962
23	0xbe779bc6	-0.24180517
24	0xbe35a2d9	-0.17737903
25	0xbe83549e	-0.25650495
26	0xbe20f932	-0.1572006
27	0xbda0c3fe	-0.078498825
28	0xbe9048b2	-0.28180462
29	0xbe07be66	-0.13256225
30	0xbdb46eb7	-0.0881018
31	0x3d5c675e	0.053809516
32	0xbc403dbc	-0.011733469
33	0xbe498497	-0.19679485
34	0xbe374eb8	-0.17901123
35	0x3dff1fd4	0.124572426
36	0xbeb5df8e	-0.3552212
37	0xbd7d64cd	-0.06186371
38	0x3e838977	0.25690815
39	0x3ca27a98	0.019833848
40	0x3e5893c9	0.21150126
41	0x3db8c80b	0.0902253
42	0xbc8d9fc6	-0.0172881
43	0xbe6d662e	-0.2318351
44	0x3db43419	0.08798999
45	0xbdae5499	-0.085122295
46	0xbd9bb28b	-0.07602414
47	0x3cfa66ee	0.030566659
48	0xbdb63095	-0.08895985
49	0xbe9d3d40	-0.30710793
50	0x3e149b16	0.14512286
51	0x3dbfc2bc	0.093633145
52	0x3e838a70	0.25691557
53	0xbe0a5d4d	-0.13512154
54	0xbdd7a688	-0.1052981
55	0x3db2f071	0.08737267
56	0xbe313a29	-0.17307343
57	0x3d470230	0.04858607
58	0x3d5c33ce	0.053760342
59	0xbde0c485	-0.10974983
60	0xbe6a0788	-0.22854435
61	0x3d019f0f	0.03164583
62	0xbd34e539	-0.044163916
63	0x3dff4237	0.12463801
64	0x3dceb5ee	0.10093294
65	0x3e80f5db	0.25187573
66	0xbe755b04	-0.23960501
67	0xbe344130	-0.17602992
68	0xbda20c67	-0.07912522
69	0x3e1b2bea	0.1515347
70	0xbc5d0c8a	-0.013491759
71	0x3d5ac850	0.05341369
72	0x3e367151	0.17816664
73	0x3d5be8d0	0.053688824
74	0xbf0768e2	-0.52894413
75	0xbd49473d	-0.049140204
76	0x3d943413	0.07236495
77	0x3ec006b1	0.37505105
78	0xbc286aa9	-0.010279336
79	0x3da40c60	0.08010173
80	0xbdda8e5a	-0.10671683
81	0x3d5bfe81	0.05370951
82	0xbe386209	-0.18006147
83	0x3cb2dbb8	0.021833286
84	0xbcffe647	-0.031237734
85	0x3e100422	0.14064077
86	0x3d1f25a2	0.03885425
87	0x3ebdabaa	0.37045032
88	0xbdaebb4a	-0.08531816
89	0x3e632fcc	0.22186202
90	0x3e42e830	0.19033885
91	0x3db39ad2	0.08769764
92	0x3e5417fc	0.20712274
93	0x3e388870	0.18020797
94	0x3d499ed4	0.049223736
95	0x3dc7e744	0.09760907
96	0x3eb1e1b4	0.3474251
97	0xbe6850f6	-0.22687134
98	0xbe0e2bc9	-0.1388389
99	0xbdffdcaa	-0.1249326
100	0x3c9dfd3c	0.01928579
101	0x3bd01e33	0.0063512563
102	0x3e83a81b	0.25714192
103	0xbe98ff10	-0.29882097
104	0x3d9cc362	0.07654454
105	0x3d62abae	0.055339508
106	0x3e5f2c93	0.21794347
107	0x3e33152f	0.1748855
108	0x3db057ee	0.08610521
109	0xbd86e9e3	-0.06587579
110	0x3d23a836	0.03995534
111	0xbd84a4ab	-0.064767204
112	0xbd019083	-0.031631958
113	0xbeb4667b	-0.35234436
114	0xba9ce079	-0.0011968754
115	0x3e5a8808	0.21340954
116	0xbe3f034f	-0.18653606
117	0xbd2a0874	-0.041511968
118	0xbec1a214	-0.37818968
119	0xbc4fa7ec	-0.012674313
120	0x3d77dcc5	0.060513277
121	0x3d2b9034	0.04188557
122	0xbd6a8ab1	-0.057261173
123	0xbde3085f	-0.11085581
124	0xbd5df3b6	-0.0541875
125	0x3d8dfeba	0.06933351
126	0xbc467974	-0.012113918
127	0xbd37947f	-0.04481935
