data/gan_output/discriminator_epoch_60.pth (torch, 191742 bytes, 21 tensors)

conv_blocks.0.weight f4 [16, 1, 4]
000000 3a 74 46 3d 52 54 c1 3d d1 7d e2 bc 27 9e da 3e
       0.048450686 0.09439911 -0.027647885 0.42698786
000010 ae 79 8c bc 8f 0a 03 3d 89 b2 c6 be b3 1c 08 3d
       -0.017147865 0.03199249 -0.38808087 0.033230495
000020 d4 83 f7 3d af 4f d5 be d4 8d a9 3d c3 2c 4c bd
       0.12085691 -0.41662356 0.08279005 -0.049847376
000030 bb 8a dd be 9b ab 9c 3e 02 a0 c7 3e ba c1 e3 be
       -0.43269905 0.30599675 0.38989264 -0.4448374
000040 46 71 ca be 53 d7 d4 3d 17 bb b5 bd 4c db 94 3e
       -0.39539546 0.10392632 -0.08873575 0.2907356
000050 44 0c c2 be 48 82 8b 3e 89 5c f3 bd 89 2e ba 3e
       -0.37899983 0.27247834 -0.11882884 0.36363629
000060 9e d8 95 3e fc 95 fa be 33 df b8 3e b9 eb 56 3e
       0.29266828 -0.48942554 0.36107787 0.20988359
000070 10 0a 90 3b c2 7d 5c be f9 a5 ac 3e 12 ae ec be
       0.004395731 -0.21532348 0.33720377 -0.46226555
000080 86 ea 5a be 12 aa a4 be 3b 24 26 3e 17 b9 93 3e
       -0.21378526 -0.32161003 0.16224758 0.2885215
000090 ca 8f ca 3d bb c4 3a 3e c8 7e da 3e ce 5b f8 3d
       0.09890707 0.18239109 0.4267485 0.12126885
0000a0 a7 d9 6e 3e cb bf 96 be 20 6b e8 be f2 2e 9b be
       0.23325215 -0.294432 -0.4539423 -0.30309254
0000b0 ad 86 54 be bc a4 20 3d ac a6 9d be 69 06 fd bd
       -0.207545 0.039219603 -0.30791223 -0.12354738
0000c0 dd 46 15 be f6 8d 6f 3e e2 a0 d5 be 88 5f f9 be
       -0.14577813 0.23393998 -0.41724306 -0.48705697
0000d0 1e 5d c0 3c 75 d3 a6 bd 46 bf a1 be be 4e d1 be
       0.023481902 -0.08145801 -0.31591243 -0.40880388
0000e0 56 90 00 be 86 e5 22 be 4a cc 34 3d 6d 22 1e be
       -0.1255506 -0.15907869 0.044140138 -0.1544282
0000f0 77 80 7f 3e d9 61 63 3e e5 6d 90 be a7 d0 af be
       0.24951349 0.22205295 -0.28208843 -0.34338877

conv_blocks.0.bias f4 [16]
000000 ba 2c 09 bf 2e b7 17 be af 9a 85 be c3 57 84 3e
       -0.5358387 -0.14815971 -0.26094577 0.25848207
000010 e3 a6 26 3e ca 66 91 3d a6 5a bc be 62 3e ea 3e
       0.162746 0.070996836 -0.3678791 0.4575072
000020 39 01 82 3e 21 c5 ba 3d 64 87 4a be 74 aa 04 bf
       0.25391558 0.091196306 -0.1977821 -0.5182259
000030 14 47 91 b9 2e a5 cd 3d 00 9e b6 3e 9b 82 84 be
       -0.00027709513 0.10041271 0.3566742 -0.25880894

conv_blocks.3.weight f4 [32, 16, 4]
000000 e6 1e e1 bc 04 25 14 3e 48 22 fa 3d b3 6d 42 bd
       -0.027480554 0.14467245 0.1221357 -0.0474679
000010 2c 2b f1 bd 76 14 e9 3c 40 f0 c7 bd 58 0a 20 3d
       -0.117758125 0.02845214 -0.09762621 0.039072365
000020 64 65 7b 3d 82 12 41 3d c3 46 c7 3c 96 fb 9b bc
       0.06137599 0.04713679 0.024325734 -0.019040864
000030 12 0d 4f bd d3 f6 03 be a6 7d 06 3e 1b 2b d8 bd
       -0.050549574 -0.12887125 0.13133869 -0.10555097
000040 fa 2a 3f bd a2 0a 7b 3d db 26 f5 bd a9 08 88 3d
       -0.046671845 0.061289437 -0.11970302 0.06642277
000050 5b e0 8e bd 97 ab 04 3d ca c8 fc 3d 64 06 3f bd
       -0.06976386 0.032390203 0.12342985 -0.046636954
000060 14 b5 95 3c 5a f8 73 3d 43 c0 ff 3a e2 30 91 3d
       0.018274821 0.05956302 0.0019512255 0.07089402
000070 3f bd 97 3d d8 9a e5 bd e3 4b a6 bd 50 f6 70 3d
       0.07409143 -0.11211175 -0.08119943 0.058828652
000080 e9 cc f6 bc 7b 70 48 bc 88 7e 4e 3d 39 50 bb bd
       -0.030127006 -0.012233849 0.05041364 -0.09146161
000090 16 8d 63 bd 21 00 ef 3b 0d d5 74 3c 1d 11 70 bb
       -0.055554472 0.0072937165 0.014943373 -0.0036631294
0000a0 77 73 39 bd 2b ea 20 bd e9 df 22 3d 7d f4 14 3d
       -0.04527613 -0.03928582 0.03976432 0.036365975
0000b0 23 c8 09 bd fa 0f 98 bc 2d 0e 0e bd 24 91 2b 3d
       -0.03363813 -0.018562306 -0.034681488 0.041886464
0000c0 5d ee ae 3d 41 b7 47 3d d8 0e e5 3d 9b 52 1c 3d
       0.08541558 0.04875875 0.11184472 0.038164716
0000d0 0c bd c2 bd 84 1a 47 bd 18 c8 2d 3c 7a 9b b0 bc
       -0.09508714 -0.04860927 0.010606788 -0.021558512
0000e0 ed a6 e7 bd b3 c6 a6 bd ce 55 c4 bd 13 8f 2b 3d
       -0.113111354 -0.081433676 -0.095866784 0.041884493
0000f0 a8 d0 9c bd f9 13 81 3d 73 23 51 bd bd ec d5 bc
       -0.076569855 0.063026376 -0.051059198 -0.026113862
000100 a3 22 74 bd c8 02 10 3e 4d fa 40 3c f8 33 a3 3d
       -0.059603345 0.14063561 0.011778426 0.079688966
000110 c4 b0 e1 bd 27 ae a2 bd e0 8f 74 b9 30 d7 d0 3c
       -0.110200435 -0.07943373 -0.00023323251 0.025493234
000120 e4 98 88 bd 73 b1 b2 bd 4c ca d9 3d ee d1 57 bd
       -0.066697866 -0.08725252 0.10634288 -0.05269044
000130 bb cd 77 bd f8 7e 42 3d 61 67 58 bd f3 da e4 3d
       -0.060498934 0.047484368 -0.052832965 0.11174574
000140 df b1 29 3c 92 c4 f4 3d 8a 2c 94 3c 00 f8 45 bd
       0.010357349 0.11951555 0.018087644 -0.048332214
000150 b4 e7 73 bd a8 f3 43 3d 4a fa 69 3d f1 69 9f 3d
       -0.05954714 0.04783979 0.05712346 0.077838786
000160 1e c0 cd 3a 32 8d 7e bd c2 09 56 38 98 14 93 bb
       0.0015697514 -0.062146373 5.1030664e-05 -0.004488539
000170 d1 42 bb 3b 78 c5 2c 3c 13 90 b0 bb ec 72 7c 3d
       0.0057147522 0.010545127 -0.0053882687 0.061633036
000180 c4 c6 1f bd 31 78 01 3e 7e 82 81 3c be 01 07 bd
       -0.039007917 0.12643506 0.015809294 -0.032960646
000190 c1 76 6a bd b1 5b 00 3d cd b0 b9 3d 83 51 e4 bd
       -0.05724216 0.031337444 0.09066925 -0.111483596
0001a0 f1 ca 86 bc 6d 48 da bd 03 cf 51 bd 28 c6 e1 bd
       -0.016454192 -0.10658345 -0.051222812 -0.110241234
0001b0 c4 a9 09 bd b8 3c 0f 3d 9a 93 b0 3d 30 52 5a bd
       -0.033609167 0.034970015 0.08621903 -0.053301036
0001c0 9d c2 f8 3d 66 42 60 bd ea 90 fa 3d a0 d2 80 3d
       0.121464945 -0.054750822 0.122346714 0.062901735
0001d0 23 90 90 3c 50 d6 04 be d8 b0 66 3d be 35 82 bd
       0.017646855 -0.12972379 0.056320995 -0.06357907
0001e0 3f cf 82 3d 61 01 de bd 1c 42 4a 3d 55 29 76 bd
       0.06387185 -0.10840107 0.049379453 -0.06009801
0001f0 84 e7 f0 3d 48 cc 85 3c 08 6d a1 bc f2 6c e8 3c
       0.11762908 0.01633276 -0.01970531 0.028372262
000200 0a 70 e5 3d 35 38 3e 3d 29 72 8e 3d 6e 13 2e 3d
       0.112030104 0.046440322 0.06955368 0.042499
000210 7b 63 a4 bc 0b ff d8 bb d7 2f 85 3d 8f 54 10 bd
       -0.020066967 -0.0066222004 0.06503265 -0.03523689
000220 25 4d 06 bd b4 e7 76 3d 52 c8 a4 bc b9 3a d4 bd
       -0.032788415 0.060279563 -0.020115051 -0.10362763
000230 cf f6 9d bd ff b9 7e 3d 51 79 98 ba 7e 26 e9 3d
       -0.07713091 0.0621891 -0.0011632835 0.11384295
000240 21 bc b6 bd b0 c8 e8 bd 11 96 fb bd 3d f7 14 be
       -0.089226015 -0.11366403 -0.12284482 -0.14547439
000250 05 b2 32 bc c2 88 09 bd 86 63 d1 3d c9 0f 94 bc
       -0.010906701 -0.033577688 0.10224061 -0.018073933
000260 14 44 8a bd 70 a3 c9 bd ad 78 c6 3d bf d7 b1 3d
       -0.06751266 -0.09845626 0.09690986 0.086837284
000270 38 77 90 bd 3d eb 8f bd 3a 6b c4 3d 4c fe 65 3d
       -0.07053989 -0.0702729 0.09590764 0.05615072
000280 ff d4 c2 3d 6b b4 09 be 38 22 d3 3d 2f 05 93 bd
       0.09513282 -0.1344773 0.10309261 -0.07178723
000290 d8 c3 a4 3d 91 94 a6 3d 41 4b dc 3c 56 ef 9e 3c
       0.08045167 0.081338055 0.026891353 0.019401234
0002a0 f9 be cc 3d ab 74 74 3d d8 ff 36 3d d0 d4 1f bd
       0.09997363 0.059681576 0.044677585 -0.039021313
0002b0 90 cf 51 bd 5b 93 7e bd eb d5 47 3d 42 d5 f6 3c
       -0.051223338 -0.062152248 0.048787992 0.030130986
0002c0 55 6d ea bd 0c 07 bc bd 8d 89 e4 3c 3b 78 dc bb
       -0.11446635 -0.091810316 0.02789762 -0.0067282
0002d0 7c 89 7e 3d 4a 04 6c 3d b7 b9 be bd d2 b6 84 3d
       0.062142834 0.057621278 -0.09312766 0.06480183
0002e0 5f c9 01 3c 5e f1 25 3d 8e 61 71 3d 9e 63 3c bd
       0.007921546 0.04051339 0.058930926 -0.04599344
0002f0 80 9a e5 3d 55 91 6e bd 11 c1 8b 3d cc 15 ad bd
       0.11211109 -0.05824407 0.06823934 -0.08451423
000300 c3 2a f6 bc 58 86 d6 3d 36 bb c1 bd fd f2 df 3d
       -0.030049687 0.10474843 -0.09459536 0.10935018
000310 d1 d5 bf bd 83 67 23 bc f0 36 0a 3d f3 cf 56 bd
       -0.09366954 -0.00997341 0.0337438 -0.05244441
000320 9f 9b cc bd 71 ee bd bd c3 0a 51 3c 35 42 9b 3c
       -0.0999062 -0.09273995 0.012758913 0.018952468
000330 68 3e b2 3d ae ca 63 bd 7e 53 8c bd 33 f3 3d 3d
       0.08703309 -0.055613212 -0.06851862 0.04637451
000340 0d 47 67 3c 28 ad e4 3b 1c 27 9a 3d a7 e5 bc 3b
       0.014116061 0.0069786496 0.07526991 0.0057646814
000350 aa 50 96 bd bf 78 e0 3d 20 aa 2d bd 85 f7 9c bb
       -0.07339604 0.109605305 -0.042398572 -0.004790249
000360 fd e2 be 3d 92 df ca bd c6 42 a1 bd 85 24 f2 bd
       0.09320638 -0.09905924 -0.07874064 -0.11823372
000370 a2 97 ce 3d 04 55 82 3d e6 d8 b9 3d 60 a2 96 3d
       0.100875154 0.06363872 0.09074573 0.07355189
000380 c3 ad b6 bd fd 2c 75 bc f2 fc 7f 3c 09 65 2e 3d
       -0.08919861 -0.014964339 0.015624272 0.042576823
000390 e0 14 b8 bc 7c 25 7e bd dc 8c cb 3d f2 41 b6 bd
       -0.022470891 -0.062047467 0.09938976 -0.08899297
0003a0 03 18 ce bd ab 1f 06 be da f2 8b 3d 11 34 74 bd
       -0.100631736 -0.13098018 0.0683343 -0.059619967
0003b0 9d 18 be 3d 8f c9 e1 3d a7 06 df 3d cd 8a c8 bd
       0.09282038 0.110247724 0.10889941 -0.09792099
0003c0 36 b2 ce bd 30 f5 16 bd 3a 79 18 bd 29 c5 de bd
       -0.10092585 -0.036854923 -0.037224986 -0.10877449
0003d0 83 7f ab 3d 12 e4 d1 bd 71 ef a6 bd 1b c7 11 bd
       0.0837393 -0.10248579 -0.081511386 -0.035590272
0003e0 0d f7 e1 bd 09 42 09 bc 9e c8 08 3d 56 6c 61 bc
       -0.11033449 -0.00837756 0.03339445 -0.013758739
0003f0 2e ce e1 bd 91 ac 7c 3d af c3 e7 bd ac 4b b0 3c
       -0.11025654 0.06168801 -0.113166206 0.021520458

conv_blocks.3.bias f4 [32]
000000 3b 49 65 bd 8d 54 13 bd 96 f4 0d 3d d9 4a 89 bc
       -0.05597804 -0.035969306 0.034657083 -0.016759323
000010 12 78 b5 bd e7 52 cf bc ec f0 8f 3c e0 2a 39 bc
       -0.08860792 -0.025308086 0.017570935 -0.011301726
000020 58 7b 90 3c 5c 83 dd 3d 43 4a 57 3b c2 5f a0 bb
       0.01763694 0.108160704 0.003285066 -0.0048942277
000030 fc 6a 2a 3c a3 b8 10 3d ca 3d 55 3d 6c 37 45 3d
       0.010401484 0.035332333 0.05206088 0.048148558
000040 1a 47 a2 bd 28 f4 a3 3d b0 d6 6e bd 47 49 22 3d
       -0.07923718 0.080055535 -0.05831021 0.039620664
000050 70 86 39 3d eb fe d8 3c 0c 78 53 3d de 42 2d 3d
       0.045294225 0.026488742 0.051628157 0.042300098
000060 56 3d f6 bd 5d d6 98 3d 0d 61 b8 3b a2 b4 e4 3d
       -0.12023418 0.074627616 0.0056268037 0.111672655
000070 5f ec 72 bd 32 91 8d bb d5 45 5b 3d d7 91 7a bd
       -0.059307452 -0.004320287 0.053533394 -0.06117424

conv_blocks.4.weight f4 [32]
000000 1b fd 80 3f 14 9f 7f 3f ea 57 80 3f 5c a2 80 3f
       1.0077242 0.9985211 1.0026829 1.0049548
000010 db f9 7d 3f 7c 79 80 3f b7 15 82 3f a0 09 7e 3f
       0.99209374 1.0037074 1.0162877 0.99233437
000020 49 33 7e 3f 5a 92 7f 3f 85 b5 7d 3f 99 51 7e 3f
       0.99297005 0.9983269 0.991051 0.9934326
000030 de 7b 82 3f 81 d9 7f 3f 19 05 7f 3f 79 0e 81 3f
       1.0194051 0.9994126 0.99617153 1.0082542
000040 1f d9 81 3f 17 7e 80 3f e4 52 81 3f 01 16 80 3f
       1.0144385 1.003848 1.0103421 1.0006715
000050 e2 85 7b 3f 40 19 81 3f 0d 0b 7f 3f e9 2c 80 3f
       0.98251164 1.0085831 0.9962624 1.0013705
000060 37 f6 7c 3f 46 02 7f 3f 43 0f 80 3f 4a ef 80 3f
       0.98813194 0.99612844 1.0004658 1.0073025
000070 6f 2f 7a 3f 38 b0 7c 3f 80 f9 82 3f 74 c0 7c 3f
       0.9772863 0.9870639 1.0232391 0.9873116

conv_blocks.4.bias f4 [32]
000000 49 80 28 bc c2 e3 a4 bc ea 4e 37 3c de 3c 89 bc
       -0.010284492 -0.020128135 0.011188248 -0.016752657
000010 63 a2 a9 3b e2 1a 67 3c 15 c3 3e bc 5f 54 25 3c
       0.0051768287 0.01410553 -0.011643191 0.010090916
000020 38 42 c2 3c ee 90 62 bb 4c a5 cf bc e7 cc b0 bc
       0.023713216 -0.0034571248 -0.025347374 -0.02158208
000030 6d af 98 3c 6a dc 99 bc cd 2b 80 bc 3a 53 37 bc
       0.018638337 -0.01878186 -0.015645886 -0.011189276
000040 72 26 ce 3c 30 80 d7 bb 8e fc 02 bc e1 f2 07 3c
       0.025164817 -0.0065765604 -0.007994784 0.008297653
000050 32 d3 88 bb f4 2c 41 bc 12 51 75 bc 56 5a 17 bc
       -0.004175567 -0.011790503 -0.014972942 -0.009237846
000060 dc 5e df bc cd 1f 99 bc 75 54 8d bc e4 88 13 bc
       -0.027266912 -0.018691922 -0.017252186 -0.009004805
000070 12 6a 09 3c 54 62 92 bc ea 8c 8f 3c d4 85 99 3c
       0.008387106 -0.017869152 0.017523248 0.018740572

conv_blocks.4.running_mean f4 [32]
000000 49 de 86 be 04 5a c5 3c bc 59 df 3c 9a 1c 3f bc
       -0.26341465 0.024090774 0.027264468 -0.011664534
000010 2e 9b 11 3e 06 37 69 3c c2 a4 4d be 4d ab ff bc
       0.14219353 0.01423431 -0.20082381 -0.031209612
000020 a5 63 28 3e 0e 89 33 3e f6 ff 3c be 0a 30 ff 3d
       0.16444261 0.17532751 -0.18457016 0.124603346
000030 fd 96 16 3c 87 b3 ed bd d3 9f f2 bd 81 0a 34 be
       0.009191272 -0.11606508 -0.1184689 -0.17582132
000040 98 4e 29 3e a2 90 a9 3d 25 b2 9d 3c 3b cc b1 3d
       0.16533887 0.0827954 0.019249985 0.08681532
000050 af 8f 3c 3e 79 1e f3 bd f3 7d a6 bd ab ba 26 3e
       0.18414186 -0.118710466 -0.08129492 0.16282146
000060 25 02 76 be c1 6d 90 3d fd 26 76 3e cb 82 31 bd
       -0.24024256 0.07052184 0.2403831 -0.043337625
000070 b7 12 89 3d 00 d8 4e 3e 3e 6f 6a bc 0e 12 15 bc
       0.06693023 0.20199585 -0.014308749 -0.009098543

conv_blocks.4.running_var f4 [32]
000000 e6 eb 3f 3d a3 d7 22 3d ba 66 19 3d 65 73 21 3d
       0.04685583 0.03975643 0.037451483 0.03941669
000010 48 e6 19 3d f7 04 56 3d 81 54 6a 3d fc c9 18 3d
       0.03757313 0.05225083 0.057209495 0.037302002
000020 4d 43 e3 3c 48 33 8a 3d 4b 77 9a 3d db 02 2c 3d
       0.027742052 0.06748062 0.075422846 0.04199491
000030 47 0e c8 3c 6b 1c 92 3d 3f ae 15 3d 17 85 ef 3c
       0.02442087 0.071343265 0.036543127 0.029238267
000040 fb 86 f1 3c c7 cc 0f 3d 1b 20 18 3d aa c4 13 3d
       0.029483309 0.0351074 0.037139993 0.036076225
000050 95 57 01 3d bc 8c 5d 3d 64 8e 26 3d 80 98 19 3d
       0.031577665 0.054089293 0.040663138 0.03749895
000060 2d 80 22 3d c3 3c 23 3d 53 4f 2c 3d c9 c9 25 3d
       0.03967302 0.03985287 0.042067837 0.04047564
000070 d2 de 11 3d 60 1e 26 3d 53 ff f8 3c e9 c9 be 3c
       0.03561289 0.04055631 0.030395186 0.023289638

conv_blocks.7.weight f4 [64, 32, 4]
000000 ba 89 09 3b f8 ed 60 3c a6 cd f9 3b 30 a2 78 3d
       0.0020986632 0.013728611 0.007623392 0.06070155
000010 d6 3e 50 3d 89 50 e1 bb 63 e4 6c 3d 2a 4a da 3c
       0.050841175 -0.0068760556 0.057834994 0.026646692
000020 65 df 48 bd 3f dd 0f bd 3a 00 8f 3d 30 ef 8b 3d
       -0.04904117 -0.035123106 0.06982465 0.06832731
000030 58 35 08 bd 36 bb 81 3d a0 95 c4 3d 59 41 89 bd
       -0.033253998 0.06334536 0.09598851 -0.06701917
000040 05 58 cc bc cd 60 3b 3d d8 72 33 bc 03 37 63 3d
       -0.024944315 0.045746613 -0.010952674 0.055472385
000050 a7 59 97 bd 55 06 43 bd 48 a0 24 3d 5f d9 88 3c
       -0.07390147 -0.04761346 0.04019192 0.016705213
000060 b2 d9 49 bc 8a 5c 97 3d ae 61 79 3d b2 3b 48 bd
       -0.012319969 0.07390697 0.06088417 -0.048885055
000070 74 c5 95 bd d8 f0 6d 3d 7f c9 f2 bc 2f 96 2d 3d
       -0.07313052 0.058091015 -0.029637096 0.042379554
000080 c9 33 ea 3b 30 b1 84 3d b7 c7 b4 3d 1a 57 a6 3d
       0.0071472866 0.06479108 0.08827155 0.08122082
000090 f4 e6 6e bd c2 d2 3d bd 8c e3 56 3c 60 1f a0 3d
       -0.058325723 -0.046343572 0.013115775 0.07818484
0000a0 bc 60 4c bc 51 aa 73 3d fd 22 94 3d a8 d7 37 3c
       -0.012474235 0.0594886 0.07233236 0.01122085
0000b0 3d 01 c7 3c 2f 85 99 bc ae e1 35 bd dc f0 d4 3c
       0.024292583 -0.018740265 -0.044404678 0.025993757
0000c0 9e 83 6a 3c 6f c1 06 bc 0b 16 2b 3d 3e 3e 74 bd
       0.014313607 -0.008224829 0.04176907 -0.05962967
0000d0 8b 34 e8 3c b1 b5 9a bd 2e 1a 7d 3c 7d 6a 98 bc
       0.028345367 -0.07554186 0.015448136 -0.018605465
0000e0 60 20 74 bd c0 7c 0f bd 52 82 ec bc 48 9d 6b bd
       -0.059601188 -0.03503108 -0.028870735 -0.057523042
0000f0 b9 cd 26 bd b4 71 52 bd ab 35 09 bd cc 2a 3b bd
       -0.040723536 -0.051377967 -0.033498447 -0.04569511
000100 a2 0a d3 bc 96 2e 38 ba ac 9f b9 3d a0 54 52 3d
       -0.025761906 -0.0007025985 0.09063658 0.051350236
000110 2b bb e6 bc 96 45 04 3b 43 5a 74 3d 88 e0 25 3b
       -0.02816542 0.0020183078 0.059656393 0.0025310833
000120 4b b0 a2 3c 83 4f 3c 3d 70 b8 0a bd 14 29 6f bd
       0.019859454 0.045974266 -0.0338673 -0.058388785
000130 5a 31 4b bd 8b 3e 00 bc 8a 7f 27 3d d8 fa 4b 3d
       -0.049607612 -0.007827411 0.040893115 0.04979977
000140 3a 03 8f bd 89 09 64 3c 0d 4a 02 3d 66 2e ac bc
       -0.06983037 0.013918289 0.0318089 -0.021018218
000150 71 22 a2 bd 04 94 a9 37 78 37 ee 3c 46 4f 32 bd
       -0.079167254 2.0215295e-05 0.029079184 -0.043532632
000160 d6 a0 96 bd 5f de 37 3d 3c 89 a6 3d d8 81 4e 3a
       -0.07354896 0.044889804 0.08131644 0.00078776246
000170 90 45 8e 3d 98 66 50 bd cc 12 75 3d d7 2e 48 3c
       0.06946862 -0.05087909 0.05983238 0.012218199
000180 2c 17 5c 3d b7 3e 99 bc 50 8c 23 3d 97 1c 42 bd
       0.053733036 -0.018706663 0.039928734 -0.047390547
000190 ba 60 6e 3d 83 1d b9 3d 77 19 8a 3d 82 a3 64 3d
       0.058197714 0.09038832 0.06743138 0.055819996
0001a0 6e 5d 5c 3d 49 7a b1 3b 83 7a 8e 39 81 1b a4 3d
       0.05380004 0.005416189 0.0002717563 0.080130585
0001b0 5c b1 a7 bd 55 16 97 bd a5 2b 40 3c cf 6a 46 bd
       -0.081881255 -0.07377306 0.011729156 -0.048441704
0001c0 00 01 4a 3c 36 62 7f 3d 98 ea 45 bd d8 f6 1a 3d
       0.01232934 0.06234952 -0.04831943 0.037833065
0001d0 6c f2 69 bd 0c a7 ad bc 2c 02 49 bd 0a 87 3c 3d
       -0.057115957 -0.021197818 -0.049074337 0.04602722
0001e0 b1 6c 0d bd a7 f0 84 3d e1 d4 83 3c 68 89 55 bd
       -0.034527484 0.06491213 0.01609272 -0.052132994
0001f0 9a 02 85 3d ed d4 91 bc 32 e8 a5 bd 8b 0b 48 bd
       0.06494637 -0.017801726 -0.08100928 -0.048839133
000200 ce a2 0e 3d 2a db 1b bd bd 50 07 3d c9 54 0f 3d
       0.03482323 -0.038050808 0.033035982 0.034992967
000210 4b 03 a0 bb f0 04 92 ba 48 47 6a bc c2 6b 4f 3d
       -0.004883205 -0.0011140388 -0.014299221 0.050639875
000220 ba 46 09 3c 4b 4d 92 3d cd a4 65 bd fd 7e bc bd
       0.008378679 0.07143649 -0.05606537 -0.092039086
000230 d3 7f 2d 3d 7c 6f 78 bd ba b8 88 3c 14 8b 3c 3d
       0.04235823 -0.060653195 0.016689647 0.046031073
000240 25 72 ac bd 23 c3 82 3d 11 b2 9e 3d 9c 1f 83 3d
       -0.08420209 0.063848756 0.07748807 0.064025134
000250 07 7a fe 3c a4 f9 9b bd 60 3e 8a 3d 48 ac 52 3d
       0.031064047 -0.076159745 0.06750178 0.05143383
000260 0e 07 83 3c f6 98 f0 bc e0 29 88 bd b5 8f 92 bd
       0.015994575 -0.029369812 -0.06648612 -0.07156316
000270 2f 25 95 3d b7 96 2c 3d 12 aa ef bc 38 df eb bc
       0.07282483 0.04213592 -0.0292559 -0.028792962
000280 ad 4c 9a bd 6a ea b6 bd 2e 64 05 bb 04 33 6a bd
       -0.07534156 -0.0893143 -0.0020353901 -0.05717756
000290 a1 8e 86 3d f1 9c 56 bc 21 2c 4e bd 07 a4 7b bd
       0.06570173 -0.013098941 -0.050335053 -0.061435726
0002a0 a9 74 c2 bd d8 77 7b b8 8e 5b 8f bc e3 27 32 3d
       -0.094949074 -5.9954677e-05 -0.017499711 0.04349507
0002b0 b8 58 30 bb 28 da bd bc d0 2f b8 39 69 5f bc bc
       -0.002690835 -0.023175314 0.00035130838 -0.022994714
0002c0 5c a8 2c 3c 36 94 86 3d fc fd 78 3d 7a 91 12 3d
       0.010538187 0.06571238 0.060789093 0.03578327
0002d0 2b 85 17 bc cc 63 c1 3c 65 e2 b0 bd d9 6c 9f bd
       -0.009248058 0.023607157 -0.08636931 -0.07784433
0002e0 5b 5b ad 3d a5 e9 8c 3d 77 cd 99 3d 9f 8f b0 bd
       0.0846469 0.06880502 0.075098924 -0.086211435
0002f0 76 8d a5 3d c3 ad 95 bc 13 cd a7 3c 6a 95 c7 3c
       0.08083622 -0.018271333 0.02048353 0.024363238
000300 f3 ba ff 3c d6 db d7 bb 9a 64 c2 bc 2e e9 09 bc
       0.031217074 -0.006587486 -0.023729611 -0.008417411
000310 24 48 21 3d ec c7 05 3d 73 8f 5c 3d ee dc c5 bc
       0.03937544 0.032661363 0.05384774 -0.024153199
000320 38 8a cd 3c 41 b2 97 3d f5 39 c3 bd bb ea 99 bd
       0.025090322 0.07407046 -0.09532539 -0.075154744
000330 6f b4 6b bd a1 a5 23 3d ea c4 17 3d 56 f7 11 3d
       -0.05754512 0.039952878 0.037053026 0.03563627
000340 2d fb d8 3c 8b d7 bb bc cf 96 9b 3d 2e 7f 8f bd
       0.026486957 -0.022929927 0.07597124 -0.070066795
000350 6c 90 82 3d 3f 3e 85 3d a8 8a 92 bc ed ae 61 3c
       0.063752025 0.06506013 -0.017888382 0.013774616
000360 fc 80 07 bd 4d 1d bd 3b e3 26 87 3d 81 c7 38 3c
       -0.033081993 0.005771315 0.06599214 0.011278034
000370 eb e0 8a bd 84 ce 4b bd 5b 61 2d 3d c6 58 1d bc
       -0.06781181 -0.049757496 0.042329174 -0.009603685
000380 24 d5 04 3c 61 91 8f bd 77 ed ab 3d 3a dd 82 3d
       0.008107457 -0.07010151 0.08394902 0.06389852
000390 19 ae a6 bd 28 a4 b2 3d a9 96 36 3d 2e 3b eb 3c
       -0.08138675 0.087227166 0.044577274 0.028714743
0003a0 fa 1d 5b 3d 89 67 6d bd 31 79 21 bd 0b 85 81 3d
       0.053495385 -0.057960067 -0.039422218 0.06324204
0003b0 44 3a 11 3c 70 cd 7f 3b ba 5a 8d 3d cf a1 4d 3c
       0.008863989 0.0039032362 0.0690207 0.012550785
0003c0 f6 da 61 bd 05 b3 a0 3c 71 a1 6d 3d fc 7d a6 3d
       -0.055140458 0.019616613 0.05801529 0.08129498
0003d0 b6 2c 46 3d 7b 13 cd bd 49 0d 31 bd dd 60 37 bc
       0.048382483 -0.10013481 -0.04322556 -0.011192528
0003e0 5d c5 04 bd bf c1 98 3b 83 6a ba bc 2d 34 ad bc
       -0.032414783 0.004661768 -0.022755867 -0.021143043
0003f0 67 1f aa bd 63 8a 76 3d fb d8 93 bc db c6 8a 3d
       -0.08306771 0.06019057 -0.0180478 0.0677621

conv_blocks.7.bias f4 [64]
000000 25 8d 8c 3c 74 f4 75 bd a9 d5 1b bb 4d cf f6 bc
       0.017157147 -0.06004758 -0.0023778474 -0.030128146
000010 a7 2b 3a bd d7 91 95 bc ac 6c 5d bd e9 1a b4 3b
       -0.045451786 -0.018258018 -0.054058716 0.005496372
000020 04 1c c8 3c 6c cc 5f bd a8 22 9a 3d 04 6e 8a bc
       0.024427421 -0.05463831 0.075261414 -0.016898163
000030 5f 3d 36 bd 98 4d 21 bb a5 3f 6e 3d 42 30 1b bd
       -0.04449212 -0.00246129 0.058166165 -0.03788782
000040 74 40 1e bd 68 96 bd 3b f1 a3 aa 3d f2 ba b1 bd
       -0.038635686 0.005785752 0.083320506 -0.08678235
000050 a8 ba 88 bd ef 75 91 bc 6d 78 1f bd 78 a7 47 bd
       -0.06676227 -0.01775643 -0.038933206 -0.048743695
000060 11 6e b5 3c e5 71 59 bd 51 10 a7 bd b1 36 74 3d
       0.02214721 -0.053087134 -0.08157409 0.05962247
000070 29 f5 47 3d 77 a7 8d 3d 9e 36 ad bd 65 7c ee bc
       0.048817787 0.06916707 -0.08457683 -0.02911205
000080 c6 db 99 3d 85 30 a8 bc 98 18 a5 3d 94 07 2b bd
       0.075126216 -0.020530948 0.080613315 -0.041755274
000090 0a d6 2a 3d 48 f2 73 3d 38 76 f4 bc 1c 71 45 bd
       0.04170803 0.05955723 -0.029841527 -0.048203573
0000a0 55 db b0 3d f8 e7 5b bd 43 d9 2c bd c9 06 ac bd
       0.08635584 -0.05368802 -0.042199384 -0.08399732
0000b0 95 b7 2f bd 52 9c 42 bd 28 9d 9c bd e2 1a 4f 3d
       -0.042899687 -0.04751236 -0.07647163 0.050562747
0000c0 bf 6e 7e bd 6c 9a 33 bd 22 69 95 3c 8d 34 1e bd
       -0.062117334 -0.04384844 0.018238608 -0.038624335
0000d0 f8 c5 a2 3c 96 c5 98 3d 50 41 44 bd 4c 93 28 bc
       0.01986979 0.074595615 -0.04791385 -0.010289025
0000e0 f1 36 87 bc 15 00 88 bd d9 41 0e bd 3f 2e 60 3d
       -0.01650569 -0.06640641 -0.034730766 0.054731604
0000f0 7f 8a af 3d 4f 08 56 bc 6f 65 a8 bd 0a ad 9b bd
       0.08571338 -0.013063504 -0.08222472 -0.07601364

conv_blocks.8.weight f4 [64]
000000 8c 90 81 3f 43 4d 7e 3f f9 84 7f 3f 88 b0 80 3f
       1.0122237 0.9933664 0.99812275 1.0053873
000010 55 35 80 3f a6 3d 7e 3f 70 ec 80 3f 7c 33 82 3f
       1.0016276 0.9931282 1.0072155 1.0171962
000020 bc 01 7e 3f 31 cf 80 3f 14 b9 7d 3f 1c 4f 7c 3f
       0.99221396 1.006323 0.9911053 0.9855821
000030 e1 24 80 3f ad 49 80 3f 15 3b 7e 3f c7 c9 80 3f
       1.0011255 1.0022484 0.993089 1.0061578
000040 f1 0b 80 3f ea 39 80 3f 1d 78 81 3f 3e 27 7c 3f
       1.0003644 1.0017674 1.0114781 0.9849738
000050 8f e2 80 3f de 26 80 3f 24 db 7d 3f f0 2d 7d 3f
       1.006914 1.0011861 0.9916251 0.9889822
000060 0c 72 80 3f 22 65 7f 3f b9 fc 7e 3f 9e 76 7f 3f
       1.0034804 0.9976369 0.99604374 0.9979037
000070 73 8e 83 3f 17 50 80 3f 65 39 7e 3f 74 91 7c 3f
       1.0277847 1.0024441 0.9930633 0.98659444
000080 cc 54 7f 3f bf 91 80 3f 15 cd 82 3f 52 e6 7f 3f
       0.99738765 1.0044478 1.0218836 0.99960816
000090 dc 05 7f 3f 02 13 7e 3f 1e b9 80 3f 4b e3 7d 3f
       0.99618316 0.99247754 1.0056493 0.99174947
0000a0 e5 f3 7f 3f 64 d1 80 3f a5 3f 7e 3f 8e b3 7d 3f
       0.9998153 1.0063901 0.99315864 0.99102104
0000b0 65 e8 80 3f 16 39 7e 3f af 76 7e 3f 73 f0 82 3f
       1.0070921 0.99305856 0.99399847 1.0229629
0000c0 be b5 80 3f c4 e0 7d 3f fa 5b 80 3f e8 8d 82 3f
       1.0055463 0.9917109 1.0028069 1.0199556
0000d0 01 2c 7d 3f 9f 6a 81 3f 83 4e 7d 3f 42 b1 7f 3f
       0.9889527 1.0110663 0.98947924 0.9987985
0000e0 b3 15 7c 3f e1 e2 7e 3f 0c f5 80 3f c9 c3 7b 3f
       0.9847061 0.9956494 1.0074782 0.9834562
0000f0 58 a8 7e 3f a3 15 80 3f 35 03 7e 3f 7f eb 80 3f
       0.9947562 1.0006603 0.99223644 1.0071868

conv_blocks.8.bias f4 [64]
000000 b2 8b be 3c 99 b1 eb 3b ad 3c 59 bc e2 ca a0 bb
       0.023259971 0.007192802 -0.013259095 -0.004906998
000010 88 e8 23 3c d0 74 8f 3b 33 a6 3b 3c 48 20 3f 3c
       0.01000417 0.004377939 0.011453199 0.011665411
000020 7f dc ba bb ba db 31 bc 70 f3 55 bc aa 51 a2 3b
       -0.0057025547 -0.01085561 -0.013058528 0.004953583
000030 18 fa 20 bc 24 5c b2 39 b2 0c 0d bc 31 1b 9d 3c
       -0.009825252 0.00034019456 -0.008608984 0.019178005
000040 3d be 96 3c 35 e0 ce 3c 02 ed a1 bb 4f 12 b8 bb
       0.01840126 0.025253395 -0.0049415836 -0.005617417
000050 24 f0 6b ba e3 9d 8e 3c b0 30 68 bc db d5 22 bc
       -0.00090003223 0.01740927 -0.014171764 -0.009938682
000060 cc 50 63 3c 12 ba 30 b9 4a c9 d0 b9 07 27 ff 3c
       0.013874244 -0.00016853985 -0.00039822824 0.03114654
000070 78 52 b2 3b d8 87 82 bc ef 66 06 bc 5b de 84 bc
       0.00544196 -0.015933916 -0.008203252 -0.016219309
000080 cf 14 5d 3c 8a 2b 74 bc ed 3a 9b 3c fe 1c 08 3b
       0.013493731 -0.014902959 0.018948996 0.0020769234
000090 24 7d 26 3b 62 4d 93 bb d6 4b c8 39 09 4f 26 3c
       0.002540418 -0.0044953087 0.00038203475 0.010150679
0000a0 0f 52 2d bc 18 33 43 3c 75 50 44 bc 1a 4d f2 bb
       -0.010578646 0.011914037 -0.011982073 -0.007394445
0000b0 6c 30 95 bb 1a d9 c4 bc 6a d8 3b 3c f7 31 dc 3c
       -0.0045528915 -0.024029303 0.011465171 0.026879294
0000c0 26 3b 55 3b 78 4f c6 bc da d2 2a 3c a5 69 08 3c
       0.0032536476 -0.024207816 0.0104262475 0.008325969
0000d0 02 0e 0c bc 2a ab 88 39 e0 d1 73 bc e2 6e e1 b8
       -0.008548262 0.0002606747 -0.014881581 -0.000107494896
0000e0 b0 ce bd bc 1e 27 b4 bb d1 97 66 3c d8 4f 8b bc
       -0.023169845 -0.005497827 0.014074282 -0.017005846
0000f0 63 b1 2e bc df 9f 97 3a 2e ce 2d bc 84 91 b5 3b
       -0.0106624095 0.0011568031 -0.010608239 0.0055410285

conv_blocks.8.running_mean f4 [64]
000000 18 71 58 3e a3 3a 81 3d 39 30 68 bc 78 52 06 3e
       0.21136892 0.06310012 -0.014171653 0.13117397
000010 df dd 91 bd c5 1d 1a be 8d f9 96 3d e2 58 0a be
       -0.07122397 -0.15050419 0.07371817 -0.13510469
000020 b3 fe 85 bd c2 3c 9b be 38 7c 42 be 44 1a 5c 3e
       -0.06542721 -0.30319792 -0.18992698 0.21494395
000030 34 f9 32 bd a8 57 35 be 6f 24 16 3e 98 2e 8b bd
       -0.04369469 -0.1770922 0.14662336 -0.067959964
000040 c5 9c 4b 3e d1 70 8a 3d 0b 07 19 3c 0e 6e 09 3e
       0.19884022 0.06759799 0.009340058 0.13420889
000050 52 a0 ac be e0 1f 40 3d f3 a4 4d bd ee 6f dd bd
       -0.33716065 0.0469054 -0.050206136 -0.108123645
000060 30 e3 06 3c c3 30 1e be 18 25 0c be 33 20 9c 3e
       0.008232877 -0.15448289 -0.13686025 0.30493316
000070 74 64 cb bd 14 d7 27 be c9 4a b2 be 14 39 7d bc
       -0.09931269 -0.1639064 -0.34822682 -0.015455503
000080 f8 8c 2a 3e 17 73 76 3d 8c ba 64 3e 00 74 4b 3e
       0.16655338 0.060168352 0.22336787 0.19868469
000090 5c 27 71 3e 7e 8f 46 bd 2a 21 16 bd f2 b4 0e 3a
       0.2355017 -0.04847669 -0.03665272 0.0005443833
0000a0 2e a0 a3 be 43 9c 97 3e 2d 94 c5 bd 11 37 24 bd
       -0.31958145 0.29611406 -0.09647403 -0.040091578
0000b0 6c 06 8b 3d 24 0b 13 be 21 42 bc bd 91 2e fb bd
       0.06788334 -0.14359719 -0.091923006 -0.12264741
0000c0 e6 b0 83 bd 7c 87 3d be 95 8e 38 3e 47 d7 21 be
       -0.06430225 -0.18508714 0.1802314 -0.15804778
0000d0 64 88 04 3e f6 c5 e4 3d 89 f1 05 3e e6 a1 b9 3c
       0.12942654 0.111705706 0.1308042 0.022660207
0000e0 33 85 68 3e f2 f8 14 3e e5 7a 89 be 21 68 d6 3d
       0.22707061 0.1454809 -0.26851574 0.1046908
0000f0 cc 4a 5f 3d 84 ed 4b 3e df 1c ef bd 59 56 61 be
       0.05451469 0.19914824 -0.116754286 -0.22005595

conv_blocks.8.running_var f4 [64]
000000 36 cd 64 3e 54 f9 75 3e ab 2d 79 3e 4a df 95 3e
       0.22343907 0.24020892 0.24333827 0.2927192
000010 0d 29 4d 3e bd 4c 6a 3e ba 47 5f 3e a7 ba 9f 3e
       0.20035191 0.22880836 0.21804705 0.31197092
000020 a1 cf 8e 3e 2a c4 61 3e 0f 40 37 3e bb de 6b 3e
       0.27892783 0.22047487 0.1789553 0.23034184
000030 59 4c 3c 3e 5a e7 8c 3e ee 74 54 3e df b9 54 3e
       0.183885 0.27520257 0.2074773 0.20774029
000040 38 a9 5e 3e 35 c8 8b 3e a1 0f 57 3e 70 92 65 3e
       0.2174424 0.27301183 0.21002056 0.22419143
000050 ab df 3d 3e 96 35 4e 3e 0c d3 54 3e 5d 39 83 3e
       0.18542354 0.20137629 0.20783633 0.25629702
000060 a2 3b 4d 3e f7 dc 63 3e c8 9d 5f 3e 2f f9 6a 3e
       0.2004228 0.2225226 0.21837533 0.22946618
000070 b2 ad 6a 3e 3a 0f 82 3e dc d3 6c 3e bd c3 6a 3e
       0.22917822 0.25402242 0.23127693 0.2292623
000080 40 8d 5e 3e f5 95 4f 3e 39 89 16 3e d8 8e 69 3e
       0.2173357 0.20272048 0.14700784 0.22808397
000090 3b 20 5d 3e 82 4e 5b 3e 22 5f 44 3e cf 41 5a 3e
       0.21594326 0.21416667 0.19176915 0.21314166
0000a0 3a 53 54 3e fa 02 5c 3e 7c a6 61 3e 7f 30 47 3e
       0.20734873 0.2148551 0.22036165 0.19452094
0000b0 f2 e7 47 3e 53 79 5f 3e cc 5c 45 3e bc 66 2a 3e
       0.19522074 0.21823625 0.1927368 0.16640753
0000c0 5f 78 2f 3e eb c7 2f 3e 97 1c 29 3e 21 cb 7f 3e
       0.17135762 0.17166106 0.16514812 0.24979831
0000d0 c1 c7 33 3e 11 1a 6a 3e 04 ef 66 3e 3e 92 3c 3e
       0.17556669 0.22861506 0.22552115 0.18415162
0000e0 cd b9 61 3e c5 94 7d 3e e7 1c 59 3e 37 69 53 3e
       0.22043534 0.24763782 0.21202432 0.20645605
0000f0 06 ab 28 3e eb a4 50 3e 64 6f 51 3e 7e 14 8f 3e
       0.1647149 0.20375411 0.20452648 0.27945322

conv_blocks.11.weight f4 [128, 64, 4]
000000 8d ac 6e bd c1 d4 1a bc 15 ca 2f bc 16 42 c7 bc
       -0.058270026 -0.009450139 -0.010729332 -0.024323504
000010 6b f6 43 bd d4 96 dc 3c 92 2a a6 3c 53 41 51 3c
       -0.047842424 0.02692739 0.020283971 0.012771922
000020 32 08 5c 3d df cb 03 3d a7 03 b0 bc 35 f5 55 3d
       0.053718753 0.03217685 -0.021486117 0.0522358
000030 b6 3c 0a 3d e4 32 7c bd d0 08 13 bd 07 ec 66 bc
       0.033749305 -0.06157197 -0.035897076 -0.014094359
000040 61 a1 68 bd 6f 57 e4 3c ea 7d 22 3a c8 21 3f bd
       -0.056794528 0.027873723 0.0006198572 -0.046663076
000050 31 6f 3b 3d 08 79 fe 3c 31 96 17 3d d4 8a 46 bc
       0.045760337 0.031063572 0.037008468 -0.01211806
000060 4a 0b 84 bc 4d b9 98 b8 54 b2 8f bd d5 d3 c6 bc
       -0.016118664 -7.28244e-05 -0.07016435 -0.024270931
000070 1f 9f 74 bb f8 61 46 3d 19 77 d7 3c df 9b 3d 3d
       -0.003732629 0.048433274 0.026301907 0.04629123
000080 5e 70 f6 3b 1a ff 86 3a 8d 57 7b 3c 9f 97 1a 3d
       0.0075207194 0.0010299415 0.015340698 0.037742253
000090 8b a5 91 bc c8 db 01 bd 14 f0 40 bd fd e8 75 bd
       -0.017779132 -0.03170374 -0.047103956 -0.060036648
0000a0 dc fd 74 bc 79 e6 17 bd 90 34 8d 3d e7 74 5c 3d
       -0.014953103 -0.03708503 0.06894791 0.053822424
0000b0 fd 57 94 3b 90 94 af b7 a4 38 97 3c d6 40 c4 3b
       0.0045270906 -2.0930805e-05 0.018459626 0.0059891744
0000c0 ba 9c 0d 3d f9 1d 3f bd e6 29 c3 3c ab ec 2a bc
       0.034573294 -0.046659444 0.02382369 -0.010432403
0000d0 0c d6 b9 3c 4b 22 98 3a 36 10 6e bd 71 8e f3 bc
       0.022685073 0.00116069 -0.05812093 -0.029731007
0000e0 9b 20 3d bc c2 52 ec bc 78 9c 88 bc 71 46 6b 3d
       -0.011543418 -0.028848056 -0.016676173 0.057440225
0000f0 be 77 52 3d 42 55 3d 3d 5e c6 48 bd 2a c3 9a bd
       0.051383726 0.046223886 -0.049017303 -0.07556756
000100 9b 6a 35 3d 2c 12 39 bd e6 63 06 3d cb 8e 85 3c
       0.04429112 -0.045183346 0.032810114 0.01630344
000110 12 d3 b5 3a c2 46 d0 bc 7b 6a 15 bd b1 17 27 bc
       0.0013872108 -0.025424365 -0.0364785 -0.01019852
000120 41 81 22 bd 0c 2d 88 bb ee 60 a4 bd 9d 02 03 bd
       -0.039674047 -0.0041557606 -0.080263 -0.031984914
000130 c4 4e ae 3c d6 bf 6c bd 45 81 6a 3c 04 2d 1d bd
       0.021277793 -0.057800137 0.014313047 -0.03837301
000140 6c 3c 28 bd e6 ea 22 3d 32 0f 2f bc de 50 31 bd
       -0.041073248 0.039774798 -0.010684775 -0.04329001
000150 0e f5 6a bc 6c 51 49 bd ad 72 0f bc 7f 85 08 bd
       -0.014340652 -0.049149916 -0.008755368 -0.033330437
000160 ad d9 66 bd 67 a8 42 3d c6 65 07 3c c9 79 90 3c
       -0.056359936 0.047523882 0.008264011 0.017636197
000170 ba 4a 5a 3d 19 23 b3 3a 70 0b ff 3c 83 40 08 bc
       0.05329392 0.0013667076 0.031133384 -0.008316162
000180 1a bd 20 3d fb ba 1e 3c c0 11 91 bc e6 e3 24 bd
       0.03924284 0.009688134 -0.01770866 -0.040256403
000190 a1 10 f9 bc c1 e9 38 bd 07 ac a2 bb aa c5 23 3d
       -0.030403437 -0.0451448 -0.004964355 0.03998343
0001a0 9c 08 09 bd b0 dd 16 3d 69 96 14 bd 2d 2e f2 3b
       -0.033455476 0.03683251 -0.036276255 0.0073907585
0001b0 a4 6f 59 bd 1f a4 29 3d cf a7 c8 3c 21 3b 31 bd
       -0.053084984 0.041416284 0.02449408 -0.04326928
0001c0 0b 3d 1e bc 3d b6 57 3d 35 0c de bc 63 39 3e bd
       -0.009658108 0.05266403 -0.02710543 -0.046441447
0001d0 67 bf 51 bd cb 9e 15 3c c9 c2 79 bc 0b 22 b2 bb
       -0.051207926 0.0091320975 -0.015244194 -0.005436187
0001e0 6d 46 ed bc ca e9 22 3d fb 64 a5 3b a3 8b 46 bd
       -0.028964246 0.03977374 0.005047438 -0.04847301
0001f0 b2 d7 dc bc ad f8 8e bd f9 ff 8b 3c db b9 d2 3c
       -0.02695832 -0.06981025 0.01708983 0.025723388
000200 9d e7 4c 3d d0 31 09 bd e6 29 45 bd 33 a1 5d bd
       0.05002557 -0.03349477 -0.04813566 -0.05410881
000210 7e c4 14 3d 76 47 2b bd 60 6d af bc 29 55 4a bd
       0.036320202 -0.041816197 -0.021414459 -0.04939762
000220 fe 84 e3 3b 22 36 64 bd 96 19 e5 3c 24 fe 37 bd
       0.006943344 -0.055715688 0.027966302 -0.0449201
000230 62 7e 0b bd ef 12 2c 3d 7e e4 4a bd 92 83 04 bd
       -0.034056075 0.042010244 -0.049534313 -0.032352038
000240 da 86 97 3c d6 02 c8 3c b3 a4 f2 3c 32 40 09 bd
       0.01849692 0.024415415 0.02961955 -0.033508487
000250 a8 46 1f bd 1d 50 c6 bc b6 3a c3 bb 29 4b 0e bd
       -0.038885742 -0.024208123 -0.0059579266 -0.034739647
000260 b4 25 0b 3d 40 a4 17 3d c2 8a 05 3d d3 7e 9d 3c
       0.033971503 0.037021875 0.032603033 0.019225514
000270 ac 42 7c bd 34 61 86 bd 39 d1 e5 bc ef f8 10 bd
       -0.06158702 -0.06561509 -0.028053867 -0.03539365
000280 f1 82 49 3d f8 31 1d 3d da 5f 07 3c f3 77 02 3d
       0.04919714 0.038377732 0.008262599 0.031852674
000290 ce 04 37 3d 2c 6b 33 bd 1c 02 16 3c cf 38 13 3d
       0.044682316 -0.04380338 0.009155776 0.03594285
0002a0 ca 3b 84 bd ad b7 0d bd b8 38 6f 3c 46 26 3d bc
       -0.06456716 -0.034598995 0.014600925 -0.01154477
0002b0 9b f6 c6 bc b9 50 8a bc 38 d8 6b bd 75 18 08 bd
       -0.024287513 -0.016884195 -0.05757925 -0.03322645
0002c0 92 e0 54 bb a0 e8 07 3d cb be 8e bd 26 e4 4e bd
       -0.0032482487 0.033180833 -0.069699846 -0.050510548
0002d0 3b e5 34 bd ba 47 95 3c 4c 8e 05 bd 47 02 d4 3c
       -0.044163924 0.018222678 -0.032606408 0.025879992
0002e0 c5 04 34 3d b8 4a 89 bd 95 4f fa bc b5 09 3a bd
       0.04394986 -0.067037046 -0.030555526 -0.045419414
0002f0 45 ae 97 bc 5a f0 1f bd 5d c3 fc bc 4f 7c f5 3b
       -0.018515715 -0.039047576 -0.030854875 0.0074916254
000300 47 25 65 3a 61 88 bb 3a 97 ec 49 bd 29 0b 04 3d
       0.00087412115 0.0014307612 -0.049297895 0.032237206
000310 6a 07 5b bd 7b f5 00 3d 98 47 f5 bc 41 b3 49 bd
       -0.053473867 0.03148411 -0.029941365 -0.049243215
000320 70 c0 0a 3d 2a b7 43 bd d3 a2 24 3c 16 eb c5 bc
       0.03387493 -0.0477821 0.010048586 -0.02415995
000330 5e c0 9a 3d 40 82 5c 3c b6 d2 b0 3c da 37 0a bd
       0.075562224 0.013458788 0.02158485 -0.03374467
000340 ae 93 1c 3d 92 14 cd bc f0 79 9c bc 04 da ed ba
       0.038226776 -0.025034223 -0.019101113 -0.0018146639
000350 fc 77 17 bd be b8 6e bd fe f5 37 3c 7f 2b d2 3c
       -0.03697966 -0.058281653 0.011228083 0.025655506
000360 2b d6 04 3d 04 0f 00 3d 3e d0 80 bd ff 4d 68 3c
       0.03243081 0.03126432 -0.06289719 0.014178752
000370 44 bd 3e 3b a4 13 83 3b 20 2a 33 3a f4 0a c4 ba
       0.002910451 0.004000144 0.0006834585 -0.0014956878
000380 1a 79 a6 3c 7e 33 19 bd 88 46 5b 3c 77 0a 9d 3c
       0.020321418 -0.037402622 0.013383515 0.01917003
000390 3e 79 51 3d 69 3e 05 bd 3d c8 29 bd 76 17 3d 3d
       0.051141016 -0.032530222 -0.041450728 0.046164952
0003a0 d8 a4 45 3b 37 69 04 bd 64 15 09 bd 9d 48 44 3d
       0.003015807 -0.032326903 -0.033467665 0.047920812
0003b0 71 52 df 3a 35 d7 59 bd 9c 91 41 3a 22 d5 25 bc
       0.0017038119 -0.053183753 0.0007384063 -0.010121616
0003c0 8b c5 15 3c 4d fc 88 bc 71 d8 1f 3d 73 3b 20 bd
       0.009141336 -0.016721869 0.039024774 -0.039119195
0003d0 43 a7 49 3d 96 7c 1a 3d 09 f0 1c 3d 8c 77 4c 3c
       0.04923178 0.03771647 0.038314853 0.012479674
0003e0 50 c2 10 bd 1e 01 65 bd 31 87 fd bc 81 ae 29 3d
       -0.03534156 -0.05590927 -0.030948253 0.041426186
0003f0 35 29 c5 3c da da 2a 3d b6 ea cd 3c 61 05 e3 bc
       0.0240675 0.04171262 0.025136333 -0.027712526

conv_blocks.11.bias f4 [128]
000000 8c a7 97 bc 4e a3 30 3d 3e c9 85 ba 94 fb 27 ba
       -0.01851251 0.04312449 -0.001020707 -0.00064080325
000010 07 11 7c 37 d5 e6 06 bd 92 3d 75 3c f3 35 74 bd
       1.5024335e-05 -0.032934982 0.014968293 -0.059621762
000020 44 23 f8 bb 79 bf 5f bb ad 03 4f 3c e3 a2 01 bd
       -0.0075725634 -0.0034141226 0.012635154 -0.03164948
000030 9c 7a 79 bd 97 25 75 3d 49 0c 17 bd 32 81 f8 bc
       -0.060907945 0.0598503 -0.03687695 -0.030335043
000040 b7 fd 1e 3d e3 f7 e2 bb bf d2 1d bd e2 af 2f bd
       0.03881618 -0.006926523 -0.03853106 -0.042892344
000050 95 cc 68 bd 13 58 41 3b c2 d8 50 3b ff a6 4f 3d
       -0.05683573 0.002950196 0.003186748 0.05069637
000060 b1 0c 78 bd d0 d8 d9 3c a8 fe 0d 3b 20 b8 57 bd
       -0.06055898 0.026592642 0.002166668 -0.05266583
000070 63 bb 83 3b 7b 6d 01 bd 96 71 81 3c 67 21 e3 3c
       0.004020141 -0.03159855 0.015801232 0.027725888
000080 3a dd 66 3d 8b 9a 9d bc 75 35 71 3d fd 23 7d 3c
       0.05636332 -0.01923873 0.05888887 0.015450475
000090 9c e4 94 3c 60 ae 6a bd e2 84 61 bd 54 53 bc bc
       0.018175416 -0.057295203 -0.055058368 -0.022988953
0000a0 93 db 72 3d 94 cf 08 3d 2d 22 61 3d 24 81 6e bd
       0.059291434 0.033401087 0.054964233 -0.058228627
0000b0 e8 d1 98 3b 0b 58 68 bd 6c 9b 73 3d a0 69 2d 3d
       0.0046636946 -0.05672459 0.059474394 0.04233706
0000c0 21 52 0e 3d 5f 82 00 bd f2 50 0e bd ad cb 1a bd
       0.034746293 -0.03137433 -0.034745164 -0.037791897
0000d0 a0 1a 5b 3d 5c ab 0f bd 62 68 f6 3c 4d 7e 06 3d
       0.05349219 -0.03507553 0.03007907 0.032835294
0000e0 e7 ad 99 bc 7d 03 65 3d 1b 21 4c bd 00 9e 03 bd
       -0.01875968 0.05591153 -0.04983626 -0.032133102
0000f0 e9 5d 9f 3c 8f 40 51 3c 2b bc d3 bc f3 8e a4 bc
       0.01945396 0.01277174 -0.025846561 -0.020087695
000100 58 e2 b2 39 59 7a 08 3d 5f 33 49 3d eb 27 71 3d
       0.00034119445 0.033319805 0.049121257 0.05887596
000110 e5 7a 5b 3d 58 3c 82 bc 77 28 c3 3c f6 80 7e bb
       0.053584 -0.015897915 0.023823006 -0.003883419
000120 0d 4e 71 bd 37 19 3f bd 03 8d 5e bd ae d0 61 3d
       -0.058912326 -0.046654906 -0.054333698 0.055130653
000130 16 a4 0e bc 5f 25 47 3d 9b 78 ea 3b ae 4d 63 3d
       -0.008706113 0.048619624 0.0071554906 0.055494003
000140 e3 5f 05 3d 63 eb 26 3d 82 3a 68 3d e0 69 e8 3b
       0.032562148 0.040751826 0.056696422 0.0070926994
000150 1f 22 4d bd 98 41 b7 3c 70 2d 6f 3d 3e 39 08 3d
       -0.05008137 0.022370145 0.058392942 0.033257715
000160 f5 4a 30 bb 7b c6 4e 3d ca ab 77 bd dc 6e 9d 3c
       -0.0026900147 0.050482254 -0.060466565 0.019217901
000170 46 0d 7a 3d fb 03 d3 bc 8e 14 bf bc 2a 3b a9 3c
       0.061047815 -0.025758734 -0.02332523 0.020658094
000180 13 ef 12 3d 92 2e 7e bd d6 00 1c 3d ed 10 3f 3d
       0.03587253 -0.06205613 0.038086735 0.046647
000190 cd 3c fc bc 52 c6 10 3d 2f f0 68 bd e8 ef 3b bc
       -0.03079071 0.035345383 -0.056869682 -0.011470772
0001a0 a1 9d 4a bd b5 b8 db bc 6d 1a f5 3c 37 50 49 3d
       -0.049466733 -0.026821474 0.029919827 0.049148764
0001b0 6a 7b 2f 3d 62 64 03 3d 24 91 fd bc d0 7f 00 3c
       0.042842306 0.032078154 -0.030952998 0.007842973
0001c0 51 3c 1f 3d 25 a3 77 3d 90 a4 0c bd 62 0d 3e bd
       0.03887588 0.06045832 -0.034336627 -0.04639948
0001d0 0c 63 0b bd 9d 44 05 3d d4 02 7a bd 2a 1e 15 3d
       -0.034030005 0.032536138 -0.061037853 0.03640572
0001e0 f0 9f 87 3c 44 96 6c 3d 22 74 46 3d 95 d5 79 3c
       0.016555756 0.057760492 0.048450597 0.015248676
0001f0 54 f2 09 3d be 69 6b bc c8 e6 f1 bc b7 0e cd bc
       0.033678368 -0.014368473 -0.02952899 -0.02503143

conv_blocks.12.weight f4 [128]
000000 b7 ba 82 3f f5 51 83 3f e8 59 80 3f da 69 80 3f
       1.0213231 1.0259386 1.0027437 1.0032303
000010 70 b3 7f 3f 35 83 7f 3f 60 26 83 3f 97 19 7f 3f
       0.99883175 0.9980958 1.0246086 0.9964842
000020 df d1 7f 3f 88 be 82 3f c4 ca 80 3f ac b3 81 3f
       0.9992961 1.0214396 1.0061879 1.0132957
000030 d5 c9 80 3f f3 3d 80 3f 55 44 83 3f a0 19 82 3f
       1.0061594 1.0018905 1.0255228 1.016407
000040 05 f0 82 3f 38 76 7f 3f 38 82 80 3f 27 e3 80 3f
       1.0229498 0.9978976 1.003974 1.0069321
000050 86 79 82 3f 74 a4 82 3f 21 07 82 3f 80 23 7e 3f
       1.0193336 1.0206437 1.0158426 0.9927292
000060 3c 10 83 3f 4b 57 83 3f 10 d1 80 3f d4 65 82 3f
       1.0239329 1.0261015 1.0063801 1.0187325
000070 79 ad 7f 3f 30 63 85 3f ad 87 80 3f 2e 74 83 3f
       0.99874073 1.0420895 1.0041405 1.026983
000080 11 01 84 3f ae ea 83 3f d1 18 83 3f 48 39 83 3f
       1.0312825 1.0305994 1.0241948 1.0251856
000090 15 62 84 3f 14 67 80 3f 80 8a 82 3f 9c aa 85 3f
       1.0342432 1.0031457 1.0198517 1.0442691
0000a0 fb b4 82 3f a3 9d 85 3f 5b a0 82 3f b0 26 82 3f
       1.0211481 1.0438732 1.0205187 1.0168056
0000b0 ed 3b 82 3f fb 78 83 3f e5 82 83 3f 84 88 83 3f
       1.0174538 1.0271295 1.0274321 1.0276036
0000c0 e2 87 81 3f e7 d3 81 3f de a3 81 3f 9c 14 83 3f
       1.0119593 1.0142792 1.0128133 1.0240664
0000d0 b6 25 85 3f c7 fb 80 3f 3e 27 82 3f 2d cc 83 3f
       1.0402133 1.0076836 1.0168226 1.0296685
0000e0 0b 78 83 3f 5c e4 82 3f 68 51 81 3f 02 b3 84 3f
       1.0271009 1.022594 1.0102968 1.0367129
0000f0 a2 a8 80 3f df 6d 84 3f a7 38 7d 3f 34 1c 7f 3f
       1.0051463 1.034603 0.9891457 0.9965241
000100 dc 72 82 3f fb 9a 7d 3f 3d cd 81 3f 48 5c 7e 3f
       1.0191302 0.99064606 1.0140759 0.9935956
000110 a3 f0 80 3f 77 03 82 3f 7b 4b 85 3f ac b2 80 3f
       1.0073436 1.0157307 1.041366 1.0054526
000120 9d 5b 82 3f 0a 9e 82 3f c3 8c 84 3f f0 e5 80 3f
       1.0184208 1.020448 1.0355457 1.0070171
000130 5f ef 83 3f b4 71 80 3f 66 7e 82 3f 04 b9 85 3f
       1.0307425 1.00347 1.0194824 1.0447087
000140 6f 9b 84 3f 73 d9 7f 3f 9a 92 82 3f 45 86 84 3f
       1.0359935 0.99941176 1.0200989 1.0353476
000150 71 98 82 3f ea 15 82 3f e3 99 83 3f e1 78 83 3f
       1.0202771 1.0162938 1.0281337 1.0271264
000160 f1 5b 80 3f dd 26 7f 3f ee 57 81 3f 63 cb 7f 3f
       1.0028058 0.99668676 1.0104959 0.9991972
000170 28 06 82 3f ab 44 80 3f 82 e2 80 3f 5c 9c 82 3f
       1.0158129 1.0020956 1.0069125 1.0203967
000180 d0 0b 82 3f ba e0 80 3f bb d4 82 3f 12 61 83 3f
       1.0159855 1.0068581 1.022117 1.0263999
000190 04 28 82 3f d2 5a 83 3f 8c 71 80 3f 62 80 83 3f
       1.0168462 1.0262091 1.0034652 1.0273554
0001a0 2b e1 82 3f e7 7a 84 3f 82 f2 81 3f 99 9f 82 3f
       1.0224966 1.0350007 1.0152133 1.0204955
0001b0 e4 47 81 3f cd e8 84 3f ec a9 83 3f cc 14 81 3f
       1.0100064 1.0383545 1.0286231 1.0084472
0001c0 71 fe 80 3f c1 b6 82 3f fe 97 80 3f 60 d2 80 3f
       1.0077649 1.0212022 1.0046384 1.0064201
0001d0 8c 24 82 3f e6 69 81 3f 0f b4 81 3f b1 59 84 3f
       1.0167403 1.0110443 1.0133075 1.0339872
0001e0 32 5b 80 3f 7b 0c 82 3f d1 5d 81 3f fe 7a 83 3f
       1.0027831 1.0160059 1.0106755 1.0271909
0001f0 22 fa 81 3f 36 87 82 3f 8d d4 80 3f ae f7 80 3f
       1.015446 1.0197513 1.0064865 1.0075586

conv_blocks.12.bias f4 [128]
000000 bb 05 e9 3c 83 6d 3b 3c 5d a2 4f 3c e1 b0 c7 bb
       0.028445115 0.011439684 0.012672988 -0.0060940837
000010 1c c3 aa bb 17 99 88 bb ba b8 9d 3c 5a 76 09 bc
       -0.005211247 -0.0041686404 0.019253124 -0.008390034
000020 61 ed a9 3c 21 b2 f9 3c 04 07 c2 b7 e4 e2 dc 3c
       0.020743074 0.030480446 -2.3129869e-05 0.026963659
000030 e0 44 35 bc ee ec 23 bc 51 da 83 3a 76 18 d2 3b
       -0.011063784 -0.010005219 0.001005957 0.0064116074
000040 4a b9 92 3c a0 97 99 3a 46 0c 44 3b 1c 2a 68 3b
       0.017910618 0.0011718161 0.0029914542 0.003542549
000050 bd 6c bf 3b c4 91 0c 3c 46 72 57 3c ba 04 98 3b
       0.00584182 0.008579675 0.0131498035 0.0046392353
000060 b9 ea 04 bc 41 20 13 3d 03 5d 77 3c bf 8f 23 3c
       -0.008112603 0.03591943 0.015097859 0.009983002
000070 f0 e6 8d bb bf 9f f4 bb 26 ae 28 3c 75 27 bf bb
       -0.0043305084 -0.0074653323 0.0102954265 -0.005833561
000080 c4 e3 f6 3c f9 e8 24 3d b3 6e ad 3c 91 3c ca 3c
       0.030137904 0.040261243 0.02117095 0.024687083
000090 5c 97 a5 3b 6c 92 b4 3a 4e ed 8b 3c c8 60 ab 3c
       0.005053444 0.0013776547 0.01708093 0.020920172
0000a0 32 2d 4e 3b 2c c6 80 3c 69 b2 09 3c 3a 2c 9f bc
       0.0031460044 0.015719496 0.008404353 -0.019430269
0000b0 3e 88 21 3c d1 14 0b 3c 7c e4 62 b9 12 e8 e8 bb
       0.009859143 0.00848885 -0.00021638157 -0.007107743
0000c0 c9 d0 d3 3c 29 a9 d0 3c 77 8f 80 3c d3 49 8c bc
       0.025856392 0.025471287 0.01569341 -0.017125046
0000d0 50 82 ca 3c a3 6c bd 3a de 6f f2 bb d0 b1 bc 3c
       0.024720341 0.0014451932 -0.0073985895 0.023034006
0000e0 b7 84 65 bb 6a 5b 5b 3c 23 65 49 ba 1b d5 9d bc
       -0.0035021731 0.013388494 -0.0007682612 -0.019266656
0000f0 98 18 c8 3c 09 18 c4 3c 17 f2 7f bc 3d 22 54 bc
       0.02442579 0.023937242 -0.015621684 -0.012947616
000100 dd 3f 99 3c d2 bc 7a bc 48 77 9d bc 0e 8a c6 bb
       0.01870721 -0.015303807 -0.019221917 -0.006058938
000110 e2 1c 85 bb 0f 42 26 3b 2f a4 a1 3c 44 4a 94 bc
       -0.004062281 0.0025368964 0.01973161 -0.018101819
000120 35 c9 42 3b 66 92 a4 3c a1 86 1c 3d 3c 0d 31 bc
       0.002972198 0.02008934 0.03821433 -0.010806378
000130 2e 42 a3 3c 66 3d 1b 3c b8 00 ee bc 92 fe 37 3b
       0.019929018 0.009475088 -0.029053077 0.002807532
000140 11 75 75 bc be e4 dd b8 99 e4 01 3c c2 92 ec 3b
       -0.014981524 -0.00010580708 0.007928037 0.0072196433
000150 70 f2 58 3c 99 6a 1c bc 1b 9f 9f 3b 24 cb ee 3c
       0.013241395 -0.009546899 0.004871262 0.0291496
000160 d0 b2 f1 3c bc f4 96 3a a0 da af 3c e5 05 f3 3b
       0.02950421 0.0011517028 0.021466553 0.007416474
000170 01 06 99 3c 72 60 18 3b c3 13 08 3b d3 4a 87 bb
       0.01867962 0.0023250845 0.0020763732 -0.004128793
000180 66 46 62 3c e6 41 0c bc 6b 9f f8 3c c6 06 f7 3a
       0.01381073 -0.008560633 0.030349454 0.0018846623
000190 c6 42 b4 3b 6a ec 45 bb 36 08 34 bc 79 f2 91 3c
       0.005501124 -0.0030200728 -0.010988286 0.017815815
0001a0 b5 29 28 3b a4 ad ba 3c 40 a8 8e 3c 57 15 74 3c
       0.0025659625 0.022787876 0.017414212 0.014897666
0001b0 0f cb cf 3c 18 b5 7e 3a 4a 1d 11 3c 7e 02 a7 3c
       0.02536538 0.0009716316 0.008857081 0.02038693
0001c0 5c 56 87 bc 45 10 bb bc 32 1e 32 bc 17 02 9e bb
       -0.016520672 -0.022834906 -0.010871457 -0.0048220265
0001d0 17 ee 19 3d 8e 81 f1 bb e7 6a 2a bc 13 c9 1a b9
       0.037580576 -0.0073701805 -0.010401464 -0.0001476149
0001e0 f7 fd 06 3c fc 5a 74 3b 3b a8 f5 bc fe 18 8d bc
       0.008239261 0.0037285676 -0.029987445 -0.017223831
0001f0 ae 38 30 3c e8 fa 40 3b 95 b2 87 bc ec 87 b2 3b
       0.010755701 0.0029446427 -0.016564647 0.005448332
