data/gan_output/discriminator_epoch_60.pth (torch, 191742 bytes, 21 tensors)

conv_blocks.0.weight f4 [16, 1, 4]
000000 64 3a 6d 3d 57 10 bd 3d f8 03 3e bd 1a 99 d4 3e
       0.057917014 0.09231632 -0.046390504 0.41523057
000010 3b 0f 01 bb ee 8e 57 3d a9 04 c7 be 5f f6 58 3d
       -0.0019692916 0.052626543 -0.38870743 0.052969333
000020 b7 10 10 3e c2 b9 d3 be 51 42 d8 3d 92 6c fe bc
       0.14068876 -0.4135266 0.10559524 -0.03105763
000030 fc e4 df be b4 68 95 3e 8b 25 be 3e 0c 7d e2 be
       -0.4372939 0.29181445 0.37138018 -0.44236028
000040 a6 a6 ce be c4 57 a9 3d 32 9e b8 bd 29 73 8d 3e
       -0.40361518 0.08268693 -0.09014548 0.27626923
000050 b7 de c0 be 88 99 8b 3e e0 ac f9 bd 2a 91 b9 3e
       -0.37669918 0.27265573 -0.121911764 0.36243564
000060 5d a2 a4 3e a6 3c ff be 21 b0 c5 3e 60 22 6b 3e
       0.32155123 -0.4985096 0.38610938 0.22962332
000070 b3 52 13 bc 03 68 5d be 67 2e a0 3e ec 2a f6 be
       -0.008991885 -0.21621709 0.31285402 -0.48079622
000080 83 9a 7a be 7e f3 af be b3 c1 f3 3d db e3 79 3e
       -0.24473004 -0.34365457 0.119021796 0.24403326
000090 cd 88 ca 3d 58 8b 32 3e dd 57 e8 3e eb ec e9 3d
       0.09889374 0.17435968 0.45379534 0.11422142
0000a0 cb d2 6c 3e be 97 a5 be bb f3 f3 be 28 c2 a2 be
       0.23127286 -0.32342333 -0.4764689 -0.31788754
0000b0 61 18 4c be cb 63 7b 3d 61 ba 93 be d0 f9 dc bd
       -0.19931175 0.061374467 -0.28853133 -0.107898355
0000c0 42 ff 1e be a4 46 63 3e 38 23 d2 be f1 08 fc be
       -0.1552706 0.22194916 -0.41042495 -0.49225572
0000d0 a4 16 db 3b 7c 93 eb bd d5 b7 aa be db 3b da be
       0.0066860486 -0.1150274 -0.33343378 -0.4262379
0000e0 d5 2d 14 be a5 04 42 be b6 9e db 3c 83 2f 2f be
       -0.14470609 -0.18947084 0.026809078 -0.17107968
0000f0 c5 ec 71 3e 1f 1c 56 3e 30 42 a0 be 9d a1 ba be
       0.23625477 0.20909165 -0.31300497 -0.36451426

conv_blocks.0.bias f4 [16]
000000 56 81 ff be 80 25 06 be e0 45 76 be 6a 6a 78 3e
       -0.49903363 -0.13100243 -0.24050093 0.24259344
000010 8a 6e 17 3e e7 81 42 3d 9c 0d aa be 08 18 ec 3e
       0.14788261 0.047487166 -0.33213508 0.46112084
000020 00 18 74 3e 44 ea a9 3d 8c f3 1f be c7 d8 f5 be
       0.2383728 0.08296636 -0.1562025 -0.4801695
000030 74 ad 73 bd ef a6 bd 3d f4 1d af 3e 6c c6 7e be
       -0.05949159 0.09260356 0.3420254 -0.2488038

conv_blocks.3.weight f4 [32, 16, 4]
000000 ad a9 6b bd aa e3 cf 3d cf ac b1 3d 32 25 bf bd
       -0.057534862 0.10150845 0.08675539 -0.09333266
000010 0a ab e3 bd 15 63 2f 3d 6a dd bd bd 50 74 43 3d
       -0.111166075 0.0428191 -0.09270747 0.047718346
000020 5a 34 1e 3d 64 cb 6c 3d 21 34 7b 3c 47 3a c0 bc
       0.038624145 0.057811156 0.015332253 -0.023465289
000030 2e f7 1f bd c4 7d fc bd 13 0a f7 3d 25 ef c7 bd
       -0.03905409 -0.123286754 0.120624684 -0.0976241
000040 3b ef 63 bd 8c b6 67 3d 1d d0 f6 bd b6 57 90 3d
       -0.05564807 0.056570575 -0.12051413 0.070479795
000050 6a d8 93 bd 0f f2 a0 3c 48 e9 ef 3d 90 33 30 bd
       -0.07219012 0.019646673 0.11714417 -0.043017924
000060 e5 aa 8a 3b a2 c6 8c 3d b1 6c ac bc 00 d5 36 3d
       0.004231798 0.06873824 -0.021047922 0.044636726
000070 dd 2f ae 3d e4 54 f5 bd db 96 bc bd 52 7b 90 3d
       0.08505223 -0.11979082 -0.09208461 0.070547715
000080 20 b1 3b bd 85 c2 5a bb 86 68 42 3d 92 76 cd bd
       -0.045823216 -0.0033380103 0.047462963 -0.10032381
000090 da ea 5e bd 49 20 67 3b ca 59 76 3b b1 6d 4d bc
       -0.05442319 0.0035267046 0.003759014 -0.0125383595
0000a0 5d 6a 71 bd 1d 24 17 bd d3 4e 04 3d be f2 5c 3d
       -0.058939327 -0.036899675 0.032301735 0.053942434
0000b0 73 2e 7f bd c2 92 e7 bc 76 87 2b bd c9 c6 2a 3d
       -0.062300157 -0.028268222 -0.041877232 0.041693483
0000c0 a6 b8 ac 3d 2f fa fd 3c 5d 07 cd 3d 65 5b 37 3d
       0.084336564 0.031003086 0.1001117 0.044764895
0000d0 ce 38 bf bd 3a 7a 39 bd 5d c3 b3 3b e8 98 22 bc
       -0.093370065 -0.04528258 0.0054859356 -0.009924151
0000e0 2a 70 fa bd bf 22 a5 bd e4 3f ea bd b2 a3 48 3d
       -0.12228425 -0.08063268 -0.114379674 0.048984237
0000f0 73 ae 8f bd 8c b3 80 3d d4 11 7b bd 29 2b 6c bc
       -0.070156954 0.06284246 -0.0612963 -0.014414587
000100 40 ee 9a bd 93 93 e7 3d 1c 27 94 3a 1d 5e b2 3d
       -0.07564974 0.113074444 0.0011303159 0.08709357
000110 5e 49 d4 bd 6d 42 8c bd be ae dd bb 4c 72 cd 3c
       -0.10365556 -0.06848607 -0.0067652157 0.025078915
000120 f5 db 94 bd 81 6f ca bd 0c db e0 3d b6 db 84 bd
       -0.07268516 -0.09884549 0.1097928 -0.06487219
000130 26 b9 90 bd 0a 7c 6c 3d 12 a7 81 bd 3f 81 df 3d
       -0.07066564 0.05773548 -0.06330694 0.109133236
000140 fd 40 71 3c 2d 26 eb 3d 7b e4 9b 3c 96 ab 7c bd
       0.014724967 0.11481891 0.019029846 -0.061687075
000150 33 92 61 bd e9 ff 4b 3d d7 b3 58 3d d0 e9 8d 3d
       -0.055071067 0.0498046 0.052905884 0.06929362
000160 9f b6 60 bc e3 04 aa bd 40 7f df bb 4c 35 a5 bc
       -0.013715415 -0.08301713 -0.0068205893 -0.020167015
000170 f2 a4 d0 bb ae 46 46 3c 22 b0 3e bc 2e a1 74 3d
       -0.0063673193 0.012101812 -0.011638673 0.059724025
000180 ba 42 11 bd b4 30 d8 3d 89 90 f4 3c cd 0a 5e bd
       -0.035464026 0.105561644 0.029854076 -0.05420952
000190 a4 74 87 bd 90 9c 11 3d c2 01 ca 3d 73 78 e4 bd
       -0.06614044 0.0355497 0.098636165 -0.11155786
0001a0 91 54 c8 bc b7 b6 d0 bd 6d c2 76 bd db 76 f6 bd
       -0.024454387 -0.101911 -0.060244013 -0.12034389
0001b0 96 1d ab bc 79 2f 5d 3d 61 41 c2 3d 90 3c 59 bd
       -0.020888131 0.05400035 0.09485126 -0.053036273
0001c0 8e f9 e8 3d 03 56 57 bd 81 db c5 3d 46 bd 72 3d
       0.11375724 -0.05257226 0.09661008 0.059262536
0001d0 07 35 0a 3c 7b 5e 00 be b2 27 1b 3d 9a 22 8f bd
       0.008435494 -0.12536041 0.037879653 -0.069890216
0001e0 c8 59 84 3d a2 a5 ff bd c3 23 40 3d f2 02 90 bd
       0.06462437 -0.12482764 0.046909105 -0.07031812
0001f0 62 27 cc 3d c8 be cb 3c 2a 10 51 bd 0f 1d ea 3c
       0.09968449 0.024871245 -0.051040806 0.02857831
000200 0f 33 b1 3d cd 63 8c 3c 93 e5 22 3d 74 84 e1 3b
       0.08652317 0.017137432 0.03976972 0.0068822447
000210 86 dc 64 bb 08 1e 22 ba 6c 8c 95 3d ec d9 c0 bc
       -0.0034921481 -0.00061842846 0.07302174 -0.023541413
000220 d8 0f 33 bd 3d 19 63 3d 08 46 51 bc e6 99 cc bd
       -0.04371628 0.05544399 -0.012773044 -0.09990291
000230 72 38 88 bd 30 93 8f 3d 7a f4 ce 3b ee 49 f6 3d
       -0.06651391 0.07010496 0.006315765 0.1202582
000240 ed 73 a7 bd ea 1d c3 bd 3a 06 e9 bd 84 d8 f5 bd
       -0.08176408 -0.0952719 -0.11378141 -0.12004188
000250 cf 91 2a 3b 01 b8 d9 bb be cb ea 3d 71 9c 0e 3c
       0.002602685 -0.0066442494 0.11464642 0.008704291
000260 7b d8 8b bd c9 c7 e1 bd 88 90 db 3d e2 4b b9 3d
       -0.068284 -0.11024434 0.107209265 0.090476766
000270 fd a5 9b bd fc 1e 9a bd 8b 6e b1 3d 8a 5a 66 3d
       -0.07600019 -0.07525441 0.086636625 0.05623869
000280 7f be be 3d bd 02 fd bd 0a 73 cd 3d 65 24 80 bd
       0.09313678 -0.12354038 0.100317076 -0.06256942
000290 eb 60 a6 3d c1 eb d0 3d 56 74 25 3d 3d de f4 3c
       0.081239544 0.102012165 0.04039415 0.029891128
0002a0 66 4c ca 3d 9f 26 82 3d c4 12 1d 3d 4e 46 de bc
       0.09877853 0.06355023 0.038347974 -0.027133133
0002b0 55 aa 9f bd b6 57 a5 bd fd c6 a2 3c b1 2d 35 3c
       -0.0779616 -0.0807337 0.019870276 0.011058257
0002c0 1d 17 f9 bd bc 19 cf bd 03 a0 a0 3c 98 c5 5c bb
       -0.12162612 -0.1011233 0.01960755 -0.003368711
0002d0 99 8e 86 3d a7 27 7a 3d 40 52 ca bd f5 6b 9e 3d
       0.06570167 0.06107297 -0.09878969 0.07735435
0002e0 c8 03 c4 bb 7b b6 e2 3c 85 63 16 3d da 05 52 bd
       -0.005981896 0.027674904 0.036716003 -0.05127511
0002f0 c0 7a ef 3d fc 7d 6c bd 51 d1 8c 3d 8e 49 a3 bd
       0.116933346 -0.057737336 0.068758614 -0.07973014
000300 fa b8 5c bd c3 bb cc 3d d3 cc c9 bd 89 33 c9 3d
       -0.053887345 0.0999675 -0.0985352 0.09824283
000310 96 b0 a5 bd f4 18 d8 3a 81 8c 59 3d 0d b5 1b bd
       -0.08090322 0.0016486929 0.05311251 -0.03801446
000320 04 b4 a1 bd 05 2f 99 bd d1 a7 7c 3c ed e2 d2 3c
       -0.078956634 -0.074796714 0.01542087 0.025742972
000330 c7 36 ad 3d 67 16 59 bd 82 f6 8e bd 98 00 80 3d
       0.084577136 -0.05299988 -0.069806114 0.06250113
000340 e2 7c 3f 3c d0 6e 23 3c f2 a7 ae 3d 39 9d 74 3c
       0.011687489 0.00997515 0.08528127 0.014930063
000350 7c 67 9a bd a9 20 02 3e 3a 22 c3 bc 57 33 ea 3b
       -0.07539269 0.12707771 -0.023820031 0.0071472335
000360 43 27 df 3d 88 b4 b3 bd e8 2a a7 bd bc 6b f0 bd
       0.108961605 -0.08774668 -0.081624806 -0.11739299
000370 8e 09 f7 3d ae 0c 8f 3d f8 b3 c4 3d 01 b2 a4 3d
       0.12062369 0.0698484 0.09604639 0.08041764
000380 cb 01 a2 bd cf 67 73 bc 9f 35 ac 3c a6 fc 41 3d
       -0.07910498 -0.014856293 0.021021662 0.047360085
000390 cf b4 4e bc 18 a9 50 bd d1 1b e0 3d 40 90 98 bd
       -0.01261635 -0.05094251 0.109428056 -0.074493885
0003a0 00 2f a8 bd 20 6e e9 bd 91 d4 af 3d a5 33 3f bd
       -0.082120895 -0.11397958 0.08585466 -0.04668011
0003b0 9a fc d1 3d 49 f1 ed 3d 1d 49 f4 3d 62 c5 bb bd
       0.10253258 0.11618287 0.11928008 -0.09168507
0003c0 04 ca b8 bd 70 73 b5 bc 46 25 89 bc c6 23 bb bd
       -0.090229064 -0.022149771 -0.016741406 -0.091376826
0003d0 c0 bd bd 3d 64 8e ba bd 26 20 88 bd da 3e c7 bc
       0.092647076 -0.0910919 -0.06646757 -0.024321962
0003e0 d2 5d f2 bd 62 48 73 bc ff b9 ec 3c d2 35 63 bc
       -0.11834301 -0.0148488 0.028897284 -0.013867812
0003f0 23 dd cc bd 37 d1 87 3d 5e 6c ca bd 92 a0 e5 3c
       -0.10003116 0.066317014 -0.09883951 0.028030667

conv_blocks.3.bias f4 [32]
000000 09 12 5b bd 85 b0 1c bd dd 03 0d 3d 96 e6 8c bc
       -0.053483997 -0.03825428 0.034427512 -0.017199796
000010 1b 74 bc bd 78 7b c2 bc 95 c6 aa 3c ad a9 1c bc
       -0.09201833 -0.023740515 0.020846644 -0.009561938
000020 42 e3 82 3c 3c da dd 3d 18 7d 73 3b 0d d6 63 bb
       0.015977506 0.108326405 0.003715342 -0.0034765035
000030 c7 ff 1a 3c 08 e6 18 3d e0 cf 59 3d d8 8a 3e 3d
       0.009460396 0.03732875 0.05317676 0.04651913
000040 0b 37 a2 bd 39 41 a7 3d d4 20 76 bd e0 16 24 3d
       -0.07920655 0.08166737 -0.0600899 0.040060878
000050 73 16 46 3d 5f 1c d7 3c 63 54 51 3d e2 04 30 3d
       0.048361253 0.026258646 0.051105868 0.042973407
000060 16 9d ef bd a5 7b 99 3d 48 95 af 3b f6 1e e2 3d
       -0.11699884 0.074942864 0.005358372 0.110410616
000070 b4 15 62 bd 15 30 80 bb f1 ec 55 3d 60 4f 74 bd
       -0.05519648 -0.003911982 0.052227918 -0.05964601

conv_blocks.4.weight f4 [32]
000000 6e 57 7f 3f 70 08 80 3f 95 32 80 3f 69 cf 7f 3f
       0.9974278 1.0002575 1.0015436 0.9992586
000010 c2 78 7f 3f 45 57 80 3f c7 25 80 3f 01 4e 80 3f
       0.99793637 1.0026633 1.0011529 1.0023805
000020 d2 47 7f 3f ed 0c 80 3f e9 2b 80 3f d5 00 7f 3f
       0.99718964 1.0003945 1.00134 0.99610645
000030 12 2d 80 3f 20 c2 7f 3f 1f 8d 7f 3f a1 c5 7f 3f
       1.0013754 0.99905586 0.9982471 0.9991093
000040 20 65 80 3f 94 51 80 3f 5b 2a 80 3f 2b 05 80 3f
       1.0030861 1.0024896 1.0012926 1.0001577
000050 e0 6c 7f 3f 7f ad 7f 3f 02 3a 80 3f 12 5e 7f 3f
       0.99775505 0.9987411 1.0017703 0.99752915
000060 74 24 7f 3f c6 cb 7f 3f 87 e7 7f 3f ba 12 80 3f
       0.99665 0.9992031 0.9996266 1.0005715
000070 d2 1d 80 3f 6b b9 7f 3f 72 eb 7f 3f 49 75 80 3f
       1.00091 0.998923 0.99968636 1.0035793

conv_blocks.4.bias f4 [32]
000000 5e 80 06 bb 04 81 19 ba 7b 63 01 bb 13 e0 89 b9
       -0.002052329 -0.00058557116 -0.0019743133 -0.00026297625
000010 09 dc bc ba a4 5a bf 3a a9 2a 79 3a e5 73 58 3a
       -0.0014408837 0.0014599157 0.0009504953 0.0008257016
000020 e6 8a 1f ba 7c 94 ed 38 a9 ae fe 39 8f bf 0f bb
       -0.0006086066 0.00011328698 0.00048576787 -0.0021934246
000030 bf af e3 b9 0e 3f 16 bb 94 4c c7 ba 6f 33 06 3a
       -0.00043427755 -0.0022925767 -0.0015205317 0.00051193585
000040 2d e0 bc 3a 1f f3 f0 3a 17 46 de b9 8c af a8 ba
       0.0014410071 0.0018383003 -0.0004239536 -0.00128697
000050 ba 53 56 ba 3e 0b 1d bb 2b 37 47 3a 6e 5f 97 ba
       -0.00081759284 -0.0023963 0.0007599468 -0.0011548826
000060 65 e1 39 bb 3c ae 8e ba 39 75 b4 ba 24 3d 23 ba
       -0.0028363105 -0.0010885666 -0.0013767845 -0.0006227067
000070 26 0d 07 3b 79 a8 90 ba 20 70 b0 b7 0b 19 57 3b
       0.0020607202 -0.0011036537 -2.1033047e-05 0.0032821323

conv_blocks.4.running_mean f4 [32]
000000 41 7a 86 be 50 b0 15 bd 0c 65 31 3d 24 1e ba 3d
       -0.26265147 -0.036545098 0.043309256 0.0908778
000010 5d 5b 0f 3e 3f 64 16 bc 4a 7f 30 be eb 26 22 3c
       0.13999696 -0.009179174 -0.17236057 0.009896974
000020 34 87 30 3e 58 a3 80 3e 85 65 12 be c0 08 10 3e
       0.17239076 0.2512462 -0.14296539 0.14065838
000030 bd 8e ae 3d 42 fd e0 bd 34 68 c6 bd 32 8a 3b be
       0.08523319 -0.10985805 -0.09687844 -0.18314436
000040 0b 09 fc 3d 6e 0f c8 3d 5e 83 66 3b 9b cd 90 3d
       0.12306412 0.09768568 0.0035173516 0.07070466
000050 08 da 36 3e d6 49 22 be cb 69 84 bd ab 31 05 3e
       0.1785661 -0.15848479 -0.06465491 0.13007228
000060 a0 7f 4a be ec 46 99 3d 5a 3c 50 3e b9 f6 42 bd
       -0.19775248 0.074842304 0.20335522 -0.047598574
000070 e5 40 95 3d 49 d9 4a 3e 2c b1 2c 3c 3a f7 3b bc
       0.07287768 0.1980945 0.010540288 -0.011472518

conv_blocks.4.running_var f4 [32]
000000 a1 26 ec 3c 5d 43 d4 3c 90 70 e1 3c 16 da c7 3c
       0.028827013 0.025911028 0.027519494 0.024395984
000010 51 be 9e 3c 14 41 37 3d 7f a7 86 3d 02 e3 bf 3c
       0.01937786 0.044739798 0.06574916 0.023423675
000020 8a d7 bb 3c 5a 5e 85 3d e4 30 4f 3d 59 e4 b8 3c
       0.022929925 0.06512137 0.050583735 0.022569822
000030 34 96 a5 3c 1a 89 71 3d 54 39 98 3c 5a 31 92 3c
       0.020213224 0.05896864 0.018582024 0.017845798
000040 b1 f8 b4 3c 0e 1c a4 3c 32 d5 d6 3c 95 25 a9 3c
       0.022091242 0.020032909 0.026224706 0.020647803
000050 2f af b1 3c 2d 61 63 3d 5a 76 09 3d 98 31 a8 3c
       0.02168998 0.055512596 0.033560134 0.02053146
000060 2e d7 93 3c 93 f6 a6 3c 0e 38 df 3c 02 cb 89 3d
       0.018046942 0.020381248 0.027248409 0.06728174
000070 16 54 eb 3c 8f 01 c1 3c 26 b6 0a 3d f7 59 a2 3c
       0.028726619 0.023560314 0.033865117 0.01981829

conv_blocks.7.weight f4 [64, 32, 4]
000000 c3 ad 1b 3c a2 3b 74 3c c2 2e d9 bb 0c 27 6b 3d
       0.009501877 0.014906796 -0.0066278884 0.057410285
000010 c1 3c 3f 3d 23 32 bc bc 4f 53 5d 3d d1 23 a7 3c
       0.0466888 -0.022973126 0.054034527 0.02040282
000020 b2 80 47 bd 0c dc 42 bd ed 0d 8a 3d f7 62 84 3d
       -0.048706718 -0.047573134 0.067409374 0.064641885
000030 82 6d 09 bd e4 28 6c 3d 17 d6 b1 3d b9 86 7a bd
       -0.0335517 0.057656184 0.086834125 -0.061163638
000040 53 59 89 bc e3 1c 2a 3d ee e7 55 bb 83 b4 83 3d
       -0.016766226 0.041531455 -0.0032639462 0.06430914
000050 e2 92 87 bd 5f 41 72 bd aa 71 4a 3d 30 f8 90 3c
       -0.066198125 -0.059144374 0.049424805 0.01769647
000060 13 b7 4d bc 41 eb 89 3d a2 bb 59 3d 4b d1 59 bd
       -0.012555855 0.06734324 0.053157456 -0.053178113
000070 a7 38 86 bd ed 86 8e 3d 5f 2b b8 bc 04 42 41 3d
       -0.06553774 0.06959329 -0.022481618 0.047182098
000080 bb e5 8e 3c f9 8d 92 3d 73 90 b5 3d f5 9a 93 3d
       0.017443528 0.071559854 0.08865442 0.0720729
000090 7c f0 59 bd 3b a9 0c bd 23 67 0f 3c c1 bc 90 3d
       -0.05320786 -0.03434108 0.008752617 0.07067252
0000a0 3a b1 a1 bb b5 0c 89 3d 19 36 89 3d db 7b db 3c
       -0.004934457 0.06691877 0.066997714 0.026792457
0000b0 01 a2 1a 3d 0d 8c c3 bc 19 52 18 bd d3 02 e0 3c
       0.037752155 -0.023870492 -0.03718767 0.027345097
0000c0 7d ac 67 3c f2 65 02 bb a4 6f ec 3c a0 ee 79 bd
       0.0141402455 -0.001989719 0.028861828 -0.061018586
0000d0 e1 d0 14 3d 1a 45 88 bd 88 68 92 3c 4d 83 8d 3a
       0.036332015 -0.06653805 0.01787211 0.0010796577
0000e0 bc 3d 43 bd 48 c4 15 bd b2 ab d3 bc 63 f2 75 bd
       -0.047666296 -0.03656414 -0.025838707 -0.06004561
0000f0 32 ea ff bc d4 28 66 bd 1e db 0c bd 71 94 36 bd
       -0.031239603 -0.05619128 -0.034388654 -0.04457516
000100 cd f3 54 bc 11 c4 4a 3c 28 28 ac 3d c1 bf 3b 3d
       -0.01299758 0.012375847 0.08406097 0.045837168
000110 a6 57 e2 bc b9 73 20 bc 7f 0f 9f 3d 71 f8 dd 3b
       -0.027629685 -0.009793215 0.077666275 0.0067740013
000120 8e 49 f7 3c 0f 8a 20 3d d5 20 f5 bc 75 b9 49 bd
       0.03018644 0.039194163 -0.029922882 -0.04924913
000130 16 82 1e bd 8c e3 9f 3b 95 d4 4b 3d b2 6a 6d 3d
       -0.03869828 0.0048794206 0.04976328 0.05796308
000140 00 34 67 bd 97 7e e2 3c 02 33 0d 3d 8d d2 57 bc
       -0.056446075 0.027648253 0.034472473 -0.013172758
000150 74 4d 8e bd c4 b7 02 bb 48 3b 06 3d 54 c2 36 bd
       -0.06948367 -0.0019945959 0.03277138 -0.04461892
000160 23 d9 85 bd d2 a8 59 3d 2d 3d ab 3d b3 70 88 3c
       -0.06535556 0.053139515 0.08361278 0.016655302
000170 ed 91 a8 3d 2c 9a 3c bd 39 31 83 3d 2d 19 02 3c
       0.08230958 -0.046045467 0.06405873 0.007940573
000180 3f a8 7b 3d 15 8b 8c bc 1b d1 30 3d aa bf 3a bd
       0.06143975 -0.017156163 0.04316817 -0.04559294
000190 1a d7 8b 3d 2c b4 9f 3d 0a 21 99 3d 3a 6e 5b 3d
       0.06828137 0.07798037 0.07477005 0.053571917
0001a0 d9 c7 5a 3d 30 c0 f0 3b 8c 89 6c bc ef 4d a6 3d
       0.053413246 0.0073471293 -0.014437091 0.081203334
0001b0 9c cb a6 bd 2b f1 8d bd 2d e6 5a 3c a6 7f 3d bd
       -0.08144304 -0.06930765 0.013360542 -0.046264313
0001c0 78 98 c4 3c 44 d9 96 3d ec 02 41 bd d3 2d 30 3d
       0.023998484 0.07365659 -0.047121927 0.04301245
0001d0 b0 16 4c bd 6b ba 9b bc 77 48 5c bd 56 a1 6d 3d
       -0.049826324 -0.01900979 -0.053780045 0.05801519
0001e0 72 94 14 bd 64 12 5d 3d 6c 5e 8b 3c b1 6a 67 bd
       -0.03627438 0.053972617 0.017012797 -0.056498233
0001f0 f4 26 9f 3d d1 92 bb ba 41 85 a5 bd 23 a5 7d bd
       0.077711016 -0.0014310722 -0.08082057 -0.061925065
000200 7c 6c 1c 3d cf 01 d4 bc b3 01 f7 3c 45 42 2d 3d
       0.038189396 -0.025879769 0.030152177 0.042299528
000210 28 50 ee 3b 65 5f dd 3b 14 da 92 bc 15 01 57 3d
       0.007272739 0.0067557567 -0.017926253 0.052491266
000220 e6 a5 7e 3c bd 0f b1 3d 74 35 22 bd 54 a0 b4 bd
       0.015542483 0.0864558 -0.039601758 -0.08819643
000230 79 a6 22 3d ed e8 87 bd 7c e3 2d 3c f4 50 3e 3d
       0.039709542 -0.06636224 0.0106133185 0.04646392
000240 86 33 b3 bd a4 a0 86 3d 7d d2 a8 3d db b0 83 3d
       -0.08750062 0.065736085 0.082432725 0.06430217
000250 97 f2 f1 3c 4d 44 83 bd ba f1 9a 3d 26 fe 49 3d
       0.029534621 -0.06409512 0.07565637 0.04931464
000260 9d 6d 8c 3c c0 c7 17 bd 02 cd 81 bd 7f 52 90 bd
       0.017142111 -0.03705573 -0.0633793 -0.07046985
000270 35 88 9d 3d 6e 0a 6b 3d 94 d3 eb bc 2f ca fa bc
       0.07691995 0.057382993 -0.028787412 -0.030613987
000280 75 4e 83 bd 40 a1 a4 bd cb ca c5 3b ad 9d 5f bd
       -0.06411449 -0.080385685 0.0060361377 -0.05459373
000290 30 87 87 3d 73 49 af bc 19 48 76 bd 7b 2d 7d bd
       0.06617582 -0.021397328 -0.06012735 -0.06181095
0002a0 f1 73 b3 bd b0 1d 14 bc 9d 97 97 bc 6f 34 5a 3d
       -0.087623484 -0.009040281 -0.018504912 0.05327266
0002b0 8e d0 11 3c 66 c5 52 bc 50 4d c0 3b 8b 27 76 bc
       0.008899821 -0.012864446 0.0058685914 -0.015024076
0002c0 9f f4 60 3c 04 f2 65 3d 1f ed 7d 3d 70 d4 37 3d
       0.013730197 0.056139007 0.061993714 0.04488033
0002d0 3d af 8f bb a7 58 16 3d 67 fe a4 bd e6 3a 8c bd
       -0.0043849037 0.03670564 -0.08056336 -0.068471715
0002e0 26 17 9e 3d 82 a5 a5 3d d2 5a a5 3d dc 9f 98 bd
       0.07719259 0.08088209 0.08073963 -0.07452366
0002f0 8b fe a4 3d 18 a1 c3 bb c5 18 b0 3c 97 b0 07 3d
       0.08056363 -0.0059701316 0.021496186 0.033127394
000300 25 69 07 3d 00 3f 3e 36 aa 3e 17 bc 97 0c 89 ba
       0.033059258 2.8348877e-06 -0.009231249 -0.0010456023
000310 4d df 3d 3d 4e 9b f3 3c 13 b8 71 3d cd 8d cf bc
       0.046355534 0.029737141 0.059013437 -0.02533617
000320 7e 9e d1 3c 70 1b 8c 3d 81 40 a0 bd 0f 82 74 bd
       0.02558827 0.06841171 -0.07824803 -0.059694346
000330 2e 04 70 bd e9 22 0b 3d b8 a4 2a 3d 7a 42 1c 3d
       -0.058597736 0.03396884 0.041660994 0.038149334
000340 90 20 12 3d 25 19 a1 bc cf 77 9d 3d 83 b3 78 bd
       0.035675585 -0.01966531 0.07688867 -0.06071807
000350 50 06 95 3d dc c5 8e 3d 0a 60 78 bc f2 20 98 3c
       0.07276595 0.069713324 -0.015159616 0.018570397
000360 88 0b 88 bc c5 12 37 3c 18 f8 7c 3d bc 19 65 3c
       -0.016607061 0.011173909 0.06176004 0.013983186
000370 ac 3f 83 bd 22 1b 52 bd 68 76 3a 3d 25 75 01 bc
       -0.06408629 -0.051295407 0.045523077 -0.007901465
000380 a3 cb f1 3b f4 42 a2 bd fc ac ac 3d 88 d0 81 3d
       0.0073790117 -0.079229265 0.08431432 0.06338602
000390 dd d5 a9 bd 6d ca ac 3d be 49 4c 3d 86 c1 c8 3c
       -0.08292744 0.08437047 0.049875014 0.024506342
0003a0 be a6 64 3d 8b d3 56 bd cb 7c 10 bd eb ee 93 3d
       0.05582308 -0.052447837 -0.03527526 0.07223304
0003b0 c1 95 f8 3b 5b 47 18 3c ef c8 9b 3d e7 eb 43 3c
       0.0075862114 0.009294356 0.076066844 0.011958099
0003c0 cc 67 2b bd 50 2e cd 3c 52 68 6f 3d 0d 63 ae 3d
       -0.041847035 0.025046498 0.058449097 0.08514986
0003d0 6b ed 4c 3d a9 f9 ad bd a8 6b 23 bd d0 45 78 37
       0.050031107 -0.084948845 -0.03989759 1.4798206e-05
0003e0 b6 7c c9 bc 49 3e 5c 3c d5 19 d0 bc 61 fe e2 bc
       -0.0245956 0.013442584 -0.025402943 -0.027709188
0003f0 19 8a 96 bd 7a b4 a6 3d 71 0c 7c bc 82 b4 98 3d
       -0.07350559 0.08139892 -0.015383826 0.07456304

conv_blocks.7.bias f4 [64]
000000 f1 55 8b 3c 81 37 74 bd ed c6 90 ba 65 c1 f7 bc
       0.017008753 -0.059623245 -0.0011045613 -0.030243585
000010 86 c4 3c bd 69 9c 8f bc fc aa 5b bd 84 1b cb 3b
       -0.046085857 -0.017530637 -0.05362986 0.0061983485
000020 79 32 d1 3c ae 65 5d bd b1 41 9a 3d 7b 0c 82 bc
       0.025536763 -0.054052047 0.07532061 -0.015875092
000030 9e 16 32 bd e3 34 5a bb e6 70 77 3d 02 6c 1a bd
       -0.0434786 -0.0033295683 0.060410403 -0.03770066
000040 42 4e 1e bd 36 ac c0 3b 6c 16 ad 3d 6b d2 b2 bd
       -0.03864885 0.005879904 0.08451542 -0.0873154
000050 2a 0d 87 bd 94 cd 94 bc ae 30 24 bd 85 8a 47 bd
       -0.06594308 -0.018164434 -0.040085487 -0.048716087
000060 27 8f b4 3c da b9 59 bd 7a db a7 bd a9 42 73 3d
       0.022040917 -0.053155757 -0.08196159 0.059389744
000070 9b 12 49 3d 92 9d 8e 3d 47 fd ae bd b9 71 f8 bc
       0.04909001 0.06963648 -0.085444026 -0.030327665
000080 02 62 98 3d 48 29 a5 bc 89 a4 a3 3d 6c b5 2a bd
       0.074405685 -0.020161286 0.07990367 -0.041676924
000090 3d ad 2b 3d a3 bc 74 3d c2 d2 ef bc e9 ca 43 bd
       0.04191326 0.05975021 -0.029275302 -0.047800932
0000a0 a9 a1 b0 3d f9 16 5c bd 93 45 2b bd 45 f7 ad bd
       0.08624584 -0.053732846 -0.041814398 -0.084944285
0000b0 ff a3 30 bd 8a 93 43 bd a5 c8 9a bd 45 62 4b 3d
       -0.04312515 -0.047748126 -0.07557801 0.049654264
0000c0 fe 06 79 bd 85 6c 35 bd b7 9f 9c 3c cb ab 1d bd
       -0.060797684 -0.044292945 0.019119127 -0.038493913
0000d0 2f f0 a1 3c 2c 54 97 3d ff 54 41 bd 9c 54 21 bc
       0.019767849 0.073891014 -0.0472002 -0.009846833
0000e0 93 51 8b bc 0e f8 86 bd ef 99 0d bd 53 c0 5c 3d
       -0.017006671 -0.065902814 -0.03457063 0.053894352
0000f0 c9 73 b0 3d 21 d4 47 bc b4 dd a8 bd 25 90 9c bd
       0.08615834 -0.012196572 -0.082454115 -0.07644681

conv_blocks.8.weight f4 [64]
000000 e3 39 80 3f fb 10 80 3f 0a bc 7f 3f ca 11 80 3f
       1.0017666 1.0005182 0.998963 1.0005429
000010 ca 58 80 3f 3c 2a 80 3f f3 39 80 3f 09 77 7f 3f
       1.0027096 1.0012889 1.0017685 0.9979101
000020 26 19 7f 3f 70 92 80 3f 36 28 80 3f 07 37 80 3f
       0.9964775 1.0044689 1.0012271 1.0016793
000030 20 4a 80 3f 99 d2 7f 3f 53 d8 7f 3f 9d 4b 80 3f
       1.0022621 0.9993072 0.9993946 1.0023075
000040 e0 45 80 3f bd 5b 80 3f db 25 80 3f 2d 3c 7f 3f
       1.0021324 1.0027996 1.0011553 0.99701196
000050 9f 42 80 3f ed 5c 80 3f 73 19 7f 3f b2 db 7f 3f
       1.0020331 1.0028359 0.9964821 0.99944603
000060 f2 6e 80 3f 62 d7 7f 3f 69 68 80 3f ce 94 7f 3f
       1.0033858 0.99938023 1.0031863 0.9983643
000070 16 73 80 3f 80 dc 7f 3f af dc 7f 3f bc 28 7f 3f
       1.0035121 0.9994583 0.9994611 0.9967153
000080 b1 2d 80 3f 2c 18 7f 3f cd 98 7f 3f ac c5 7f 3f
       1.0013944 0.9964626 0.9984253 0.99911
000090 a1 5f 7f 3f 8d 30 7f 3f ae 8a 7f 3f 24 28 7f 3f
       0.99755293 0.9968346 0.99820983 0.99670625
0000a0 1b 63 80 3f d6 47 7f 3f e0 d3 7f 3f 10 b4 7f 3f
       1.0030245 0.9971899 0.9993267 0.9988413
0000b0 4a 48 80 3f a4 38 80 3f fa ee 7e 3f 24 60 80 3f
       1.0022061 1.0017285 0.995834 1.002934
0000c0 9c 9b 7f 3f da 02 80 3f 8b 4d 80 3f a4 23 80 3f
       0.99846816 1.000087 1.0023664 1.0010877
0000d0 cc 02 7f 3f f6 b2 80 3f 14 5c 7f 3f f0 64 80 3f
       0.9961364 1.0054615 0.99749875 1.0030804
0000e0 75 14 7f 3f bc 0b 80 3f 7a 40 80 3f 2b 51 7f 3f
       0.9964059 1.0003581 1.0019677 0.9973323
0000f0 53 11 80 3f 89 9d 7f 3f 64 00 80 3f 91 1f 7f 3f
       1.0005287 0.99849755 1.0000119 0.9965754

conv_blocks.8.bias f4 [64]
000000 e1 85 1b 3b b2 88 04 3a cf 09 83 ba 69 62 a6 3a
       0.002373092 0.00050557696 -0.000999743 0.0012694123
000010 23 34 00 3b 47 98 3e 39 02 cc 19 3b 28 4c c6 ba
       0.0019562326 0.0001817654 0.0023467545 -0.0015128898
000020 47 ca 54 ba 1d 6f 36 3b 4b cf 92 3a 98 40 e1 3a
       -0.00081173 0.0027837225 0.0011200694 0.0017185388
000030 02 c0 f4 b8 e9 de fe 3a 8d ed a3 ba 20 0b 9e 3a
       -0.00011670591 0.0019445095 -0.0012506709 0.0012057759
000040 fa 91 e0 3a 99 06 49 3a 36 f6 a3 3a 95 6b 06 bb
       0.0017133348 0.00076685246 0.001250929 -0.0020510901
000050 71 f4 03 3b 3a b5 85 ba 24 39 7a bb ee 4b a5 b9
       0.0020134712 -0.0010201104 -0.003818103 -0.00031527824
000060 12 16 49 3b 46 89 50 3a ac 58 d5 3a 98 87 71 ba
       0.003068332 0.00079550256 0.0016277037 -0.00092136255
000070 a6 ec 47 3b 1c 82 84 bb fc b7 8a 3a fb 55 82 ba
       0.0030506044 -0.0040438306 0.0010583396 -0.0009943837
000080 3e d4 5f 3a 1e a7 3f bb aa 4e d7 38 f0 21 1c 39
       0.00085384015 -0.0029243897 0.00010266651 0.00014889962
000090 d3 b1 3e ba 4a 85 ea ba 37 c2 e7 ba a7 5a 81 ba
       -0.00072744227 -0.0017892506 -0.0017681782 -0.0009868935
0000a0 16 0f 2d 3b 30 bd 3e bb 51 7f 93 ba 06 49 44 bb
       0.0026406697 -0.0029104464 -0.0011253153 -0.0029950752
0000b0 ca d8 7a 3a 31 88 20 3a b7 e0 42 bb dd 8a e5 3a
       0.0009569047 0.000612381 -0.0029735991 0.0017512698
0000c0 a3 4b 19 ba c2 b7 3b ba 7c 2c 9f 39 69 b8 33 3a
       -0.00058477576 -0.0007160866 0.00030359987 0.00068557874
0000d0 b7 4c 27 bb ab 50 8a 3b 66 ac f8 ba cc cc 31 3a
       -0.0025527903 0.004221042 -0.0018972277 0.0006782531
0000e0 fd 73 50 bb 1a 4b ac 37 90 7a 2c 3b 2b 99 35 bb
       -0.0031807416 2.053897e-05 0.002631817 -0.0027709703
0000f0 09 6d 38 b9 de 87 94 b9 73 aa b0 ba 25 b4 14 bb
       -0.00017588226 -0.0002832999 -0.0013478532 -0.0022690382

conv_blocks.8.running_mean f4 [64]
000000 01 26 a2 3e 25 30 64 3e ca ba f4 3d 50 68 20 3e
       0.3166962 0.2228399 0.1194969 0.15664792
000010 28 50 3b 3c 3a 9d 1a bd 9b 58 32 3d 88 bb 57 be
       0.011432685 -0.0377476 0.043541532 -0.21067631
000020 d5 db b5 bd fd c4 8c be 8e 7a ba bd 47 0b e7 3d
       -0.0887982 -0.2749404 -0.09105407 0.11281448
000030 5b 7e d9 bd 75 8e 31 bd 74 86 5f 3e 07 bd 82 bd
       -0.106198035 -0.04334875 0.21828634 -0.0638371
000040 ce f2 af 3e 8a 77 b3 3d 52 8b 5d bd 30 33 7a 3e
       0.34364933 0.08763035 -0.054087944 0.24433589
000050 b1 95 c2 be 82 74 cb 3d dc c5 06 be f9 e3 c2 bd
       -0.3800483 0.099343315 -0.13161415 -0.095161386
000060 41 4c b7 bc 8b 11 4f be 09 19 28 be af 9d fc 3e
       -0.022375228 -0.20221536 -0.164158 0.49339053
000070 55 d0 4c 3d b1 9b 2f be 53 70 9b be 5a d5 ba bd
       0.05000337 -0.17149235 -0.30359134 -0.09122725
000080 8d 58 74 3e 36 22 d9 3d 31 db 67 3e c5 f5 9c 3d
       0.23861904 0.10602228 0.22642209 0.07664064
000090 65 96 88 3e cf fc 4d 3d a0 be 51 bd 47 84 a8 3c
       0.26677242 0.050289925 -0.051207185 0.020570887
0000a0 36 9a 45 be 58 62 9c 3e 3f 75 03 bd c6 5c e8 bc
       -0.19297108 0.3054378 -0.032094236 -0.02836455
0000b0 34 2b 8f 3d e3 2a 58 be 4e 12 00 3d 9e d4 02 be
       0.06990662 -0.2111011 0.031267457 -0.1277642
0000c0 a8 af 5c bc 64 46 32 be 74 77 85 3e f7 7f 64 bd
       -0.013469614 -0.17409664 0.26067698 -0.0557861
0000d0 a8 af 9e 3e 00 3f 10 3e ab 58 5b 3d a7 fb f4 3d
       0.3099339 0.14086533 0.053551357 0.119620614
0000e0 b6 44 0b 3e d1 f6 c7 3c fe 31 b7 be d7 d7 07 3e
       0.1360043 0.024409683 -0.3578033 0.1326593
0000f0 3a 50 c8 bc ad 37 3c 3e 9e ec 81 bd a9 a0 3a be
       -0.024452318 0.18380614 -0.06343959 -0.1822535

conv_blocks.8.running_var f4 [64]
000000 db 53 69 3e c1 ac 5a 3e 86 db 8b 3e 71 25 78 3e
       0.22785895 0.21354963 0.2731592 0.24233033
000010 4d 68 50 3e 8e 04 8c 3e 81 a8 33 3e 4a e7 c5 3e
       0.20352288 0.27347225 0.17544748 0.38653022
000020 2f c5 5e 3e f8 68 5f 3e e0 e4 1f 3e 7a 79 50 3e
       0.21754907 0.21817386 0.15614653 0.2035884
000030 33 31 41 3e d9 d5 77 3e 23 79 41 3e e0 23 4b 3e
       0.18866424 0.2420267 0.18893866 0.19837904
000040 6d 5b 6d 3e 07 3f 8b 3e 03 c0 6c 3e ca 85 7a 3e
       0.23179407 0.27196524 0.23120122 0.24465099
000050 e8 1e 3f 3e be 41 4c 3e ba 8a 2f 3e ce a2 6d 3e
       0.18664134 0.19946954 0.17142764 0.23206636
000060 e3 92 58 3e a4 79 49 3e bc 60 55 3e 6e eb 79 3e
       0.21149783 0.19675308 0.20837682 0.24406216
000070 04 41 8a 3e 9b 87 59 3e 01 d2 80 3e 6a ff 5d 3e
       0.27002728 0.21243136 0.2516022 0.21679464
000080 99 09 61 3e 3f f3 55 3e 19 6e 1c 3e 13 ca 5d 3e
       0.21976317 0.20893572 0.15276374 0.21659116
000090 17 30 5b 3e 20 b4 4b 3e e0 d4 43 3e e5 0f 2c 3e
       0.21405064 0.19892931 0.19124174 0.16802938
0000a0 88 19 4b 3e d4 7e 51 3e 25 21 50 3e a5 01 65 3e
       0.19833958 0.20458537 0.20325144 0.22363909
0000b0 8e bb 54 3e 37 bf 57 3e de 56 45 3e 7e 72 21 3e
       0.20774671 0.21069036 0.19271418 0.15766332
0000c0 7f bb 2f 3e 28 a7 42 3e 6e c1 28 3e 0e 17 3b 3e
       0.17161368 0.19009078 0.16480038 0.18270513
0000d0 08 f4 50 3e 52 3a 57 3e de f4 3b 3e fb 7e 44 3e
       0.2040559 0.21018341 0.18355128 0.19189064
0000e0 39 fd 5a 3e 96 1c 52 3e ef 12 61 3e 8e c5 68 3e
       0.2138566 0.20518717 0.21979879 0.22731611
0000f0 c5 33 26 3e b0 02 45 3e dc 5c 5d 3e 42 dc 68 3e
       0.16230686 0.19239306 0.21617454 0.22740272

conv_blocks.11.weight f4 [128, 64, 4]
000000 01 f4 73 bd d9 db aa bc 23 fd 43 bc c4 e9 e0 bc
       -0.059558872 -0.020856785 -0.011962208 -0.027455218
000010 2c 49 50 bd 39 90 97 3c 52 d7 0d 3c 9e b5 22 3c
       -0.050851032 0.018501388 0.008657293 0.009930996
000020 4d 9f 37 3d 20 32 19 3d 3b 42 9a bc 12 e4 39 3d
       0.044829655 0.03740132 -0.01883041 0.04538352
000030 1f dc 1b 3d 4e 69 6c bd 3a 7c 2a bd 6b d9 09 bd
       0.03805172 -0.057717614 -0.041622378 -0.03365461
000040 6d ef 5c bd e8 5d e4 3c 5b 6b 2b bc 2a 44 70 bd
       -0.05393927 0.02787681 -0.010462607 -0.058658756
000050 22 79 57 3d 3c 1e 02 3d 90 21 09 3d 53 e8 34 bc
       0.052605756 0.031767115 0.033479273 -0.011041719
000060 3c ad 8d bc bd 0d 50 ba 35 b2 79 bd 48 03 8e bc
       -0.017294519 -0.00079366175 -0.060960967 -0.017335549
000070 75 a7 2d bc 7c cd 52 3d fc 03 13 3d ae bd 27 3d
       -0.010599007 0.051465496 0.03589247 0.040952377
000080 46 98 3f 3c 40 10 fc bb 93 0d b7 3a df 45 30 3d
       0.01169402 -0.007692367 0.0013965837 0.043035384
000090 ad 0f 4f bc 58 17 10 bd 35 de 55 bd b8 d7 59 bd
       -0.012638015 -0.035178512 -0.052213866 -0.05318424
0000a0 b5 46 a6 bb ac 79 e3 bc 8c 8d 77 3d d0 79 47 3d
       -0.005074347 -0.027767979 0.060437724 0.048700154
0000b0 61 33 59 3c c5 c6 4b ba b5 6e 2e ba a8 58 85 bb
       0.013256879 -0.00077734544 -0.000665407 -0.0040694065
0000c0 b6 94 d9 3c e7 be 5b bd 1d 86 b5 3c f7 6c 3e bc
       0.026560169 -0.053648856 0.022158677 -0.011622659
0000d0 99 c2 4b 3c d7 01 08 bc d9 f7 31 bd 51 01 a5 bc
       0.012436532 -0.00830122 -0.043449257 -0.02014223
0000e0 dc d3 cd bc 34 8b 03 bd 77 75 d3 bc 83 7b 46 3d
       -0.025125436 -0.032115176 -0.025812848 0.048457634
0000f0 8f 6f 56 3d 84 1b 30 3d d6 a1 47 bd 47 cf 77 bd
       0.052352484 0.04299499 -0.048738323 -0.06050041
000100 ec bd 3e 3d 15 e5 6d bd bb bb f2 3c fe 59 d5 3c
       0.046567842 -0.058079798 0.029630532 0.026043888
000110 8f b1 37 3c 33 3c c0 bc d4 42 58 bd e1 ee ba bc
       0.011211767 -0.023466205 -0.052798107 -0.022818984
000120 5a 62 05 bd be 6c 44 bc a7 13 82 bd 0a 4b dc bc
       -0.0325645 -0.011988817 -0.06351405 -0.02689125
000130 b9 82 ba 3c e6 47 56 bd d0 a8 9e 3c c1 95 1b bd
       0.022767412 -0.05231466 0.019367605 -0.037984613
000140 00 95 2d bd 5c 85 31 3d 93 00 9c bc 7c a8 48 bd
       -0.042378426 0.043340072 -0.019043243 -0.048988804
000150 20 3d 1a bc 6d 1a 38 bd 56 23 8f bb dd 69 1c bd
       -0.009413987 -0.044947077 -0.004368226 -0.038186897
000160 59 f9 51 bd 05 13 65 3d 1b 10 38 3a 7c 97 83 3c
       -0.051263187 0.05592634 0.0007021443 0.016063444
000170 b0 d0 71 3d 89 0d 5d 3c 19 8f e9 3c 16 10 4e bb
       0.05903691 0.013491997 0.028510617 -0.0031442693
000180 11 ae 24 3d c9 36 b7 3b 82 e6 c5 bc 44 fe 35 bd
       0.040205065 0.0055912477 -0.024157766 -0.04443194
000190 8d 9a dc bc d8 fe 49 bd ac c5 e0 bb e9 78 f7 3c
       -0.026929164 -0.049315304 -0.006859502 0.030209022
0001a0 a3 38 25 bd df bc 16 3d 66 89 30 bd 9b e6 bd 3c
       -0.040337216 0.036801215 -0.043099783 0.02318125
0001b0 cf 05 75 bd 24 d2 20 3d ad e4 61 3c 48 c9 4a bd
       -0.059819993 0.039262906 0.013787431 -0.049508363
0001c0 06 e1 49 bc c4 d2 3c 3d 06 fd fa bc 53 34 2c bd
       -0.012321716 0.04609944 -0.03063823 -0.042042088
0001d0 08 bd 5f bd 21 a3 98 3c 8d 58 6c bc 0b 1a a3 bb
       -0.054623634 0.018632473 -0.014425409 -0.00497747
0001e0 66 bf ea bc 03 67 e3 3c bc ed 30 3b 5d 92 45 bd
       -0.028655719 0.02775908 0.002699717 -0.048235286
0001f0 ef 1d fe bc 16 b6 71 bd eb dd 32 3c 00 85 97 3c
       -0.031020133 -0.05901154 0.010917167 0.018496037
000200 96 42 35 3d 14 89 ce bc 28 a7 2f bd 56 12 6c bd
       0.044252954 -0.025211848 -0.042884022 -0.057634674
000210 d4 fe d5 3c 0f e2 63 bd fc 85 d3 bc 5e fe 20 bd
       0.026122488 -0.05563551 -0.025820725 -0.039305083
000220 9d d4 10 3c d6 e3 5f bd 9b d1 a7 3c 06 98 4c bd
       0.008839753 -0.05466064 0.02048569 -0.04994967
000230 38 ba d1 bc e4 6f 0f 3d 56 b9 45 bd 88 52 0c bd
       -0.025601491 0.035018817 -0.048272453 -0.034258395
000240 60 d6 6f 3c 1f 63 c9 3c b5 46 fd 3c ae 6c 05 bd
       0.014638513 0.024583397 0.030917505 -0.03257435
000250 98 6a 2e bd 96 08 b8 bc 42 96 0d bc c7 be 45 bd
       -0.042582124 -0.022465032 -0.008641781 -0.048277643
000260 e7 d8 1d 3d ef f9 18 3d 0f 85 15 3d 4a 7b 90 3c
       0.038536932 0.03734773 0.036503848 0.017636914
000270 20 71 64 bd 3e dc 5b bd 08 07 d5 bc 18 51 30 bd
       -0.055771947 -0.053676836 -0.02600433 -0.043046087
000280 8f ba 24 3d e4 60 49 3d 6e 07 47 3c 04 2c 16 3d
       0.04021698 0.049164668 0.0121477675 0.03666307
000290 bb b4 06 3d d5 d4 47 bd f8 0b 5b 3c f3 a4 21 3d
       0.0328872 -0.048786957 0.013369553 0.03946395
0002a0 1e 03 68 bd af c5 4a bd 3c ef da 3c 1b 38 0a bc
       -0.056643598 -0.049504932 0.026725404 -0.008436228
0002b0 56 d7 a7 bc c7 1b 3c bc 3d df 69 bd 67 24 4a bd
       -0.020488422 -0.011481232 -0.057097662 -0.049351122
0002c0 b0 fb 36 bc d5 6b 0d 3d 59 2a 6a bd 51 11 3f bd
       -0.011168405 0.034526665 -0.057169292 -0.046647374
0002d0 a1 38 67 bd 9b b6 63 3c a4 1c 0a bd b0 1a 0b 3d
       -0.05645049 0.013898517 -0.03371872 0.033960998
0002e0 42 a2 1e 3d 0c d3 74 bd 1b e1 01 bd 20 83 4e bd
       0.03872896 -0.059771582 -0.031708818 -0.05041802
0002f0 e0 37 c3 bc 38 59 26 bd e8 6b ed bc 9d 01 b4 bb
       -0.023830354 -0.04061243 -0.028982118 -0.0054933564
000300 f6 5a ac bb 67 bc 3c 3c eb 9d 3e bd cc 98 fc 3c
       -0.005259867 0.011519528 -0.04653732 0.030834578
000310 1d c7 68 bd 29 7c 16 3d ef d6 fe bc 64 4b 64 bd
       -0.056830514 0.036739502 -0.031108348 -0.05573596
000320 af 6b 2d 3d cc 69 2f bd 0b 52 88 3c 0f ed e4 bc
       0.042339023 -0.042825505 0.016640684 -0.02794507
000330 c5 8d 77 3d 9b b9 c0 3c 0b c4 e8 3c 4a 98 36 bd
       0.060437936 0.023526004 0.028413793 -0.044578828
000340 3a a0 34 3d a8 ab f1 bc c1 2e f6 bc 50 c2 57 bc
       0.044098116 -0.029500797 -0.03005159 -0.013168886
000350 1e a6 05 bd a1 be 5d bd f6 4c 97 3c 17 1d f7 3c
       -0.032629125 -0.054136876 0.018469315 0.030165238
000360 00 3d 15 3d 16 27 82 3c 83 7b 78 bd 0a 6e 1e 3c
       0.036435127 0.015887778 -0.060664665 0.00966979
000370 5e c3 f0 3a ad 6f 0e 3a 30 b1 61 ba 49 a9 33 bb
       0.0018368771 0.0005433511 -0.0008609472 -0.0027414134
000380 9e de ea 3b 2c f4 10 bd de 3e 9e 3c 03 14 8e 3c
       0.0071676513 -0.03538911 0.019317087 0.017343527
000390 da 3a 38 3d ca f2 1a bd bf 4f 35 bd 31 ce 39 3d
       0.044978 -0.037829198 -0.044265505 0.045362655
0003a0 9b a5 90 bb 74 8b 1e bd 61 d4 15 bd 37 28 56 3d
       -0.004414273 -0.03870721 -0.036579493 0.052284446
0003b0 93 f0 ce bb fd 09 67 bd 86 97 b5 bb da 85 9e bc
       -0.0063153 -0.05640601 -0.0055417446 -0.019350935
0003c0 e8 2f a9 3b 8a 24 77 bb d9 2d 3c 3d df 72 38 bd
       0.0051631816 -0.0037710988 0.04594216 -0.045031425
0003d0 b3 58 5a 3d 78 78 2c 3d af 4a 19 3d cd db 50 39
       0.053307246 0.042107075 0.03742474 0.00019918308
0003e0 21 9c 2e bd 2c e3 3c bd 94 a7 d6 bc bd 1c 18 3d
       -0.042629365 -0.046115085 -0.026202954 0.037136782
0003f0 58 37 01 3c 62 39 05 3d 7b 17 08 3d 7f 32 b3 bc
       0.00788673 0.032525428 0.033225518 -0.021874664

conv_blocks.11.bias f4 [128]
000000 4e e4 9b bc 1a fd 32 3d 36 78 77 ba b7 c2 35 ba
       -0.019029763 0.043698408 -0.0009440215 -0.0006933617
000010 0a 60 64 b9 95 77 07 bd 33 b8 73 3c 0b 90 73 bd
       -0.00021779552 -0.033073027 0.0148754595 -0.059463542
000020 af da fd bb d4 ba 47 bb f8 29 57 3c b2 1d 01 bd
       -0.0077470164 -0.0030476348 0.013132565 -0.03152246
000030 11 cd 79 bd 22 7b 75 3d 52 53 16 bd b3 8f f8 bc
       -0.060986582 0.05993188 -0.036700554 -0.030341959
000040 86 c5 1f 3d 1e 41 d2 bb c6 18 1f bd e6 8d 2f bd
       0.039006732 -0.006416454 -0.038841985 -0.042859934
000050 c7 d1 6a bd 29 c6 46 3b de 97 74 3b a7 2e 53 3d
       -0.057328966 0.0030330515 0.0037321965 0.051558163
000060 b3 d1 7c bd e4 42 d7 3c 96 90 1f 3b 6b df 57 bd
       -0.061723422 0.026277013 0.0024347655 -0.052703302
000070 fc 61 83 3b 92 10 02 bd d9 f5 82 3c 59 7d e2 3c
       0.0040094834 -0.031754084 0.01598637 0.027647661
000080 12 2c 67 3d 8c 4e 9e bc bb 9f 72 3d a5 a1 7d 3c
       0.056438513 -0.019324563 0.059234362 0.015480434
000090 4b e8 94 3c e6 d8 69 bd 11 1e 61 bd 0e e8 b8 bc
       0.018177172 -0.057091616 -0.054960314 -0.02257159
0000a0 df 6c 73 3d 8e cb 08 3d 56 ed 61 3d ea 28 6e bd
       0.05943 0.03339725 0.05515798 -0.058144487
0000b0 b4 29 82 3b 81 86 69 bd cb 9a 73 3d d0 7c 2e 3d
       0.0039722566 -0.05701304 0.059473794 0.0425995
0000c0 70 a0 0c 3d 35 96 fe bc 23 c5 0e bd c2 ce 1b bd
       0.034332693 -0.031077484 -0.034855973 -0.038038976
0000d0 f0 d7 5b 3d 12 18 0e bd 5b 42 f6 3c 9f cd 07 3d
       0.05367273 -0.034690924 0.030060938 0.03315508
0000e0 d2 28 9a bc c9 60 64 3d f3 b6 48 bd be df 04 bd
       -0.018818293 0.055756364 -0.0490026 -0.03243994
0000f0 e3 0e 9e 3c 2a 1e 51 3c f1 3c d5 bc 7a 5a a9 bc
       0.019294208 0.012763539 -0.026030036 -0.020673025
000100 5c fc 38 3a 38 b0 08 3d e8 8f 48 3d 83 4b 72 3d
       0.00070566474 0.03337118 0.048965365 0.059154045
000110 70 b6 5a 3d a5 ca 86 bc 58 3b c3 3c 21 08 5c bb
       0.053396642 -0.01645405 0.023832008 -0.003357418
000120 c9 9e 71 bd 1a 05 3f bd 9e 00 5e bd e9 5a 62 3d
       -0.05898932 -0.046635725 -0.054199807 0.05526248
000130 88 9b 0b bc 6f ef 46 3d 99 ea e5 3b 20 18 65 3d
       -0.008520968 0.048568185 0.0070164916 0.05593121
000140 6d c9 06 3d 2e 6c 26 3d 78 30 69 3d ee f3 d5 3b
       0.03290694 0.040630512 0.05693099 0.006529323
000150 dc 16 4e bd fa d6 b5 3c a3 e1 70 3d 31 01 08 3d
       -0.05031477 0.022197235 0.058808934 0.03320426
000160 8b a6 05 bb b1 dd 4f 3d f2 c1 77 bd c5 66 9b 3c
       -0.0020393457 0.05074853 -0.060487695 0.018969903
000170 af cc 7a 3d 0b cf d6 bc 4e cd bf bc 36 de a5 3c
       0.061230358 -0.026221773 -0.023413327 0.02024756
000180 3b df 10 3d 3e a9 7c bd ae fc 1a 3d 8e 4f 3e 3d
       0.03536914 -0.06168484 0.03783863 0.046462588
000190 b5 f5 fc bc 24 75 13 3d 12 02 6a bd d0 28 3d bc
       -0.030878881 0.036000386 -0.05713088 -0.011545375
0001a0 35 4f 4c bd 4e 65 e4 bc dc 1b f7 3c ac 80 4b 3d
       -0.049880225 -0.027880337 0.030164652 0.049683258
0001b0 4c 3e 2f 3d 0e 2c 03 3d cc e8 00 bd 02 5c 00 3c
       0.04278402 0.032024436 -0.031472012 0.007834436
0001c0 f2 91 1f 3d d7 f4 76 3d 78 15 0c bd a8 1a 3e bd
       0.038957544 0.06029209 -0.03420016 -0.04641214
0001d0 b0 cf 0d bd b4 f9 05 3d 78 cf 78 bd 03 83 16 3d
       -0.034621894 0.03270884 -0.060744733 0.036746036
0001e0 99 6c 8b 3c 86 0e 6c 3d af bb 46 3d 14 72 7d 3c
       0.017019557 0.057631038 0.048518833 0.015469093
0001f0 83 9e 09 3d ee 61 68 bc c6 e3 ed bc bc 72 ce bc
       0.033598434 -0.0141835045 -0.029039275 -0.025201194

conv_blocks.12.weight f4 [128]
000000 95 d4 7e 3f 63 97 7f 3f 72 06 80 3f 2e 42 7f 3f
       0.99543124 0.9984037 1.0001967 0.9971036
000010 f5 d4 7f 3f bf 2e 7f 3f a1 5d 80 3f 75 69 80 3f
       0.9993432 0.99680704 1.0028573 1.0032183
000020 a4 20 7f 3f 70 c8 7f 3f 3e 1d 80 3f 9f 71 7f 3f
       0.9965918 0.9991522 1.0008924 0.9978275
000030 6e 7a 7f 3f 25 ff 7f 3f 9c 07 80 3f 96 76 7f 3f
       0.9979619 0.99998695 1.0002322 0.9979032
000040 78 58 7f 3f 0c 64 80 3f 79 7e 80 3f 6f 7d 7f 3f
       0.9974437 1.0030532 1.0038596 0.9980077
000050 92 d9 7f 3f e9 17 7f 3f 81 64 80 3f 65 f3 7f 3f
       0.9994136 0.9964586 1.0030671 0.99980766
000060 1d 74 80 3f 10 97 7f 3f 5c 0a 7f 3f 47 f5 7e 3f
       1.0035435 0.9983988 0.9962518 0.99593014
000070 c0 80 80 3f 5c b9 80 3f b4 50 7f 3f e1 3d 80 3f
       1.0039291 1.0056567 0.9973252 1.0018884
000080 ec a1 80 3f aa 1f 7f 3f 9b 03 80 3f 57 8c 80 3f
       1.0049415 0.9965769 1.00011 1.0042828
000090 8f 56 80 3f 70 2e 80 3f 05 b1 80 3f 4b 94 80 3f
       1.0026416 1.0014172 1.0054022 1.0045255
0000a0 3e 91 80 3f 3a 6d 80 3f 13 b8 7f 3f f2 9a 80 3f
       1.0044324 1.0033333 0.9989025 1.0047286
0000b0 9d 94 7f 3f 90 bb 7f 3f e4 30 80 3f fb 5c 80 3f
       0.9983614 0.9989557 1.001492 1.0028375
0000c0 d8 46 7f 3f 1b 12 7f 3f 38 76 80 3f 88 19 7f 3f
       0.99717474 0.99637 1.0036077 0.9964833
0000d0 9f 8c 80 3f d0 15 80 3f b2 c4 7f 3f 0a 94 80 3f
       1.0042914 1.0006657 0.9990951 1.0045178
0000e0 7e d2 80 3f 8b 5a 80 3f 92 19 7f 3f 71 99 80 3f
       1.0064237 1.0027632 0.9964839 1.0046827
0000f0 58 84 7f 3f f2 07 80 3f 30 7e 7f 3f c4 67 80 3f
       0.99811316 1.0002425 0.9980192 1.0031667
000100 d0 72 80 3f 62 0f 80 3f 71 6d 7f 3f 91 1b 7f 3f
       1.0035038 1.0004694 0.9977637 0.9965144
000110 1d 08 80 3f 41 01 7f 3f 75 2b 80 3f f3 39 80 3f
       1.0002476 0.9961129 1.0013262 1.0017685
000120 84 61 80 3f b2 c2 7f 3f c2 9f 7f 3f a0 32 80 3f
       1.002976 0.99906456 0.99853146 1.001545
000130 ba 76 80 3f f1 77 80 3f 4f 87 7f 3f 35 85 80 3f
       1.0036232 1.0036603 0.9981584 1.0040652
000140 80 14 7f 3f 14 31 80 3f 2d ed 7f 3f 70 15 80 3f
       0.99640656 1.0014977 0.99971277 1.0006542
000150 e1 73 80 3f 91 61 80 3f f1 9e 80 3f 6a 8c 80 3f
       1.0035363 1.0029775 1.0048505 1.0042851
000160 eb fa 7e 3f fa fc 7e 3f fe ce 7f 3f 13 4e 7f 3f
       0.9960162 0.9960476 0.9992522 0.99728507
000170 f5 55 7f 3f c2 42 7f 3f 9c 29 80 3f 53 cf 7f 3f
       0.99740535 0.9971124 1.0012698 0.99925727
000180 7c 94 80 3f e0 fa 7f 3f 96 ce 7f 3f f6 27 80 3f
       1.0045314 0.9999218 0.999246 1.0012195
000190 64 10 80 3f 39 09 80 3f 05 09 80 3f 2c 65 80 3f
       1.0005002 1.0002815 1.0002753 1.0030875
0001a0 6f 77 80 3f 54 e4 7f 3f 1a 4e 80 3f 89 72 80 3f
       1.0036448 0.99957776 1.0023835 1.0034953
0001b0 c7 f3 7e 3f 8a 9c 80 3f 74 3f 80 3f ef 43 7f 3f
       0.99590725 1.0047772 1.0019364 0.99713033
0001c0 8a 4a 7f 3f 0b 82 80 3f e5 48 7f 3f 4c c8 7f 3f
       0.9972311 1.0039686 0.99720603 0.99915004
0001d0 4e cc 7e 3f a5 af 7f 3f a4 d4 7f 3f 4c 46 80 3f
       0.99530494 0.9987739 0.9993384 1.0021453
0001e0 8f 3b 80 3f 4e 39 80 3f ef 85 80 3f 8e c7 80 3f
       1.0018176 1.0017488 1.0040873 1.0060899
0001f0 ae 13 80 3f b2 a4 80 3f 48 93 80 3f 41 23 80 3f
       1.0006006 1.0050261 1.0044947 1.0010759

conv_blocks.12.bias f4 [128]
000000 47 fa 03 ba 7a fe 69 bb f2 a2 07 bb da 3d 78 39
       -0.00050345476 -0.0035704658 -0.0020696488 0.00023674165
000010 0b 6b 4d ba 53 8a fb ba 7b 54 d7 3a 89 61 fb 3a
       -0.000783608 -0.0019191004 0.0016428375 0.0019178848
000020 3d e7 82 bb 26 3f 16 bb 95 e0 52 3a 5c c8 00 bb
       -0.003994851 -0.0022925823 0.00080443296 -0.0019650673
000030 b4 e6 65 b9 6b 6b ec ba a0 dc 88 39 11 86 0b bb
       -0.00021925085 -0.0018037384 0.0002610432 -0.0021289627
000040 36 4c 7d bb 1c c4 bb 3a 1c c6 f4 3a 75 84 09 bb
       -0.0038650162 0.0014325413 0.0018674764 -0.0020983492
000050 b6 ad 09 3b 2b bd 3a bb 22 fe 6b 3b 42 f7 0e bb
       0.002100808 -0.00284941 0.003600963 -0.0021814858
000060 e9 65 7d 3b e9 87 c6 3a 22 e2 01 bb 59 3e 6b bb
       0.003866548 0.0015146706 -0.0019818624 -0.0035895316
000070 0d ed bf 37 71 3a 83 3b 06 53 00 bb 4c 06 93 3b
       2.287936e-05 0.0040047695 -0.0019580736 0.0044868346
000080 ba 0e 8b 3b 97 bd ad 3a 21 4f 2a 3b 06 59 30 3b
       0.004243699 0.0013255355 0.0025987106 0.002690853
000090 6c 76 53 3b d6 1f 43 ba 26 a0 46 3b 06 0d 68 3b
       0.003226663 -0.00074434036 0.0030307858 0.0035408153
0000a0 1d 95 7d 3b 8f de 88 3b 44 1d 2a 37 b6 bd 28 3b
       0.0038693615 0.0041769217 1.0139604e-05 0.0025747842
0000b0 1b 3e 9d 3a 35 db 11 3b 84 03 a2 3a 1c 8a 44 3b
       0.0011996658 0.0022255902 0.0012360667 0.0029989546
0000c0 11 f0 1a 37 71 81 8a 3a 9c 14 52 3b 1c ac 1e bb
       9.23501e-06 0.0010567141 0.0032055741 -0.0024211472
0000d0 f0 90 b6 3b cc aa bd ba e4 28 e6 3a 35 38 ba 3b
       0.005571477 -0.0014470457 0.0017559794 0.00568297
0000e0 2f 79 6e 3b 22 f9 15 3b 8c ec 5a bb 0e 0f b7 3a
       0.003638815 0.002288409 -0.0033405153 0.0013966279
0000f0 8e 83 c0 ba e6 f4 35 39 5b 4c 1c bb 81 fd 12 3b
       -0.0014687644 0.00017352737 -0.0023849222 0.0022428932
000100 26 0f c6 3a 7b 15 45 ba 5c cf a0 ba c9 64 30 bb
       0.0015110716 -0.00075181545 -0.0012268829 -0.0026915541
000110 08 44 9d b8 c7 5d 3d bb 80 97 cb ba a0 66 8e 3b
       -7.499015e-05 -0.0028895007 -0.0015532821 0.00434573
000120 c3 da 5d 3b 49 e7 93 bb c2 d8 04 3b 15 b1 0a 3b
       0.0033852316 -0.0045136553 0.00202708 0.0021162678
000130 80 91 44 3b 3e 0f 46 3b 44 4a 02 39 cb fb f9 3a
       0.0029993951 0.0030221487 0.00012425432 0.0019072233
000140 23 17 80 bb 1c d4 8f b9 3f 4e 98 39 b8 22 37 3a
       -0.003909008 -0.0002743312 0.00029049997 0.00069860695
000150 16 15 81 3b 74 18 7c 3a 07 67 2b 3b 83 cf 8d 3b
       0.003939281 0.0009616681 0.0026153938 0.004327716
000160 28 2d a1 ba 6a 0f 20 bb d6 4f 9d ba 65 47 6b bb
       -0.0012296783 -0.002442325 -0.0012001942 -0.0035900709
000170 c9 b3 f0 b8 8a 72 4b bb c2 15 ae 3b 6b 4a c0 b9
       -0.000114775794 -0.0031043612 0.0053126523 -0.0003667654
000180 fc e5 b3 3b 07 0a b5 b8 dd ec 21 3a b4 73 4b ba
       0.0054900628 -8.63262e-05 0.0006176958 -0.00077610766
000190 de 1c cf 39 ee 71 77 3a da d7 8c 3a 5f 36 8c 3b
       0.00039503624 0.0009439279 0.0010745481 0.0042789425
0001a0 54 19 4d 3b 67 c3 58 3b 85 c1 ba ba de 3a 38 3b
       0.0031295614 0.0033075453 -0.0014248347 0.002811126
0001b0 ba da 48 bb b1 a8 02 3b 5e 41 15 37 05 f1 8e ba
       -0.003064795 0.0019936974 8.896312e-06 -0.001090557
0001c0 fa f4 15 ba cd c4 97 3a dc a6 5b 39 60 ba 7c 3a
       -0.0005720403 0.0011579037 0.00020947627 0.0009640809
0001d0 89 fe 94 bb eb ce 7f b9 69 d9 f3 ba a1 e2 a2 3a
       -0.0045469445 -0.00024395778 -0.0018604222 0.001242716
0001e0 1d 4a 16 bb 19 55 67 3b d8 ee 58 3a fa 93 9a 3b
       -0.0022932359 0.0035298525 0.00082753366 0.004717347
0001f0 e6 33 09 b8 a1 85 b9 3b 7e af a0 3b 3a ce f3 ba
       -3.271168e-05 0.0056616818 0.004903733 -0.0018600889
