data/gan_output/discriminator_epoch_20.pth (torch, 191742 bytes, 21 tensors)

conv_blocks.0.weight f4 [16, 1, 4]
0.06995067 0.10540327 -0.03320382 0.4242683 -0.00836731 0.046456344 -0.39356208 0.043912407
0.13605587 -0.41232294 0.0958486 -0.03949615 -0.43476507 0.28227282 0.3637642 -0.4461286
-0.3965459 0.08999019 -0.085867584 0.27865523 -0.36633724 0.2731025 -0.11250143 0.3641325
0.31628877 -0.49128267 0.3841512 0.2267836 -0.013002959 -0.2182548 0.31153584 -0.48347273
-0.24750192 -0.3435347 0.12263914 0.24697134 0.11664048 0.18604106 0.46122697 0.1300545
0.22347447 -0.31886637 -0.47450078 -0.31640857 -0.2002706 0.058000762 -0.2879503 -0.10640468
-0.16331795 0.21165134 -0.42184412 -0.5015444 0.0034944066 -0.115627125 -0.33275223 -0.42663124
-0.14253187 -0.18647133 0.02970964 -0.16855656 0.23212644 0.20854227 -0.30876082 -0.36008677
00000000: 4c42 8f3d abdd d73d bb00 08bd b239 d93e
00000010: 0b17 09bc 0249 3e3d f880 c9be 7fdd 333d
00000020: 3b52 0b3e fe1b d3be 454c c43d b7c6 21bd
00000030: 8799 debe 1086 903e 4d3f ba3e f86a e4be
00000040: 1008 cbbe c74c b83d 58db afbd e6ab 8e3e
00000050: 8e90 bbbe 17d4 8b3e 2667 e6bd 936f ba3e
00000060: 9af0 a13e 6789 fbbe 77af c43e f639 683e
00000070: 5d0a 55bc 307e 5fbe a081 9f3e bd89 f7be
00000080: 2571 7dbe c8e3 afbe 3b2a fb3d 0ee6 7c3e
00000090: 34e1 ee3d 8c81 3e3e f125 ec3e 022d 053e
000000a0: 7ed6 643e 7442 a3be c4f1 f2be 4e00 a2be
000000b0: bc13 4dbe 3592 6d3d 396e 93be b2ea d9bd
000000c0: d23c 27be 21bb 583e f4fb d7be 3765 00bf
000000d0: 6a02 653b eacd ecbd 805e aabe 696f dabe
000000e0: e0f3 11be 57f2 3ebe a261 f33c 179a 2cbe
000000f0: 8eb2 6d3e 1b8c 553e e615 9ebe 4b5d b8be

conv_blocks.0.bias f4 [16]
-0.48998025 -0.13207982 -0.24536961 0.24286655 0.14898604 0.05360088 -0.3368971 0.45833108
0.241168 0.07872349 -0.15569597 -0.4827507 -0.042169567 0.10319415 0.34815395 -0.2550499
00000000: b1de fabe ef3f 07be 2c42 7bbe 02b2 783e
00000010: cc8f 183e 998c 5b3d c77d acbe 5faa ea3e
00000020: bff4 763e c839 a13d c46e 1fbe 1a2b f7be
00000030: ffb9 2cbd 7457 d33d 3c41 b23e e795 82be

conv_blocks.3.weight f4 [32, 16, 4]
-0.054174405 0.11026746 0.09338079 -0.081639916 -0.11085848 0.037654724 -0.09764699 0.047967568
0.045114122 0.057188347 0.01411925 -0.021597482 -0.04295121 -0.123735055 0.12304705 -0.103320144
-0.055880655 0.055551615 -0.12554508 0.06423284 -0.072961785 0.022551198 0.1153638 -0.046229042
0.009119411 0.07143256 -0.014591916 0.05224272 0.08336524 -0.11802087 -0.088340774 0.06615737
-0.043332458 -0.002620042 0.04636469 -0.10163624 -0.051086467 0.00898377 0.0120715145 -0.0052996906
-0.053527694 -0.03866124 0.03223175 0.05076855 -0.059934527 -0.031725988 -0.045273066 0.03986423
0.08667826 0.03502603 0.10090922 0.044006523 -0.09120365 -0.04666006 0.0059494977 -0.012649148
-0.12237298 -0.08075611 -0.113369524 0.044411197 -0.07138732 0.06101404 -0.05842705 -0.016290927
-0.069213726 0.11953515 0.0036377385 0.086638495 -0.10012177 -0.072137706 -0.0042285486 0.02574263
-0.07334227 -0.09686927 0.11132057 -0.061495446 -0.068125345 0.05535844 -0.060968794 0.109361246
0.012382109 0.11029129 0.017957017 -0.058113087 -0.055062078 0.045869082 0.049934268 0.07012251
-0.009511837 -0.080023624 -0.0028926388 -0.014857908 -0.006723764 0.014939668 -0.009060965 0.062091187
-0.039969034 0.110595554 0.028635517 -0.048542242 -0.05914871 0.03759825 0.10077315 -0.11309574
-0.0218852 -0.102197014 -0.05643878 -0.11719213 -0.021679502 0.050172575 0.09375118 -0.052639
0.12123471 -0.048379198 0.10535512 0.0616706 0.0127829015 -0.124858364 0.046245396 -0.06730247
0.063357376 -0.119828425 0.05062622 -0.06870352 0.107070655 0.022577964 -0.04370211 0.030753126
0.08756975 0.02574733 0.045638707 0.01712243 -0.008084606 0.0014080186 0.07505851 -0.027691482
-0.04325956 0.055397388 -0.02164156 -0.102235615 -0.066422276 0.05981507 0.0058147847 0.112520844
-0.08305013 -0.10010244 -0.118157305 -0.12628008 -0.0009514391 -0.013422934 0.11092029 0.0051741023
-0.07106201 -0.1044571 0.09774484 0.08968444 -0.072971284 -0.07937142 0.08780515 0.050785694
0.092032366 -0.12250309 0.09556217 -0.061617583 0.088070534 0.10358204 0.045697045 0.03656037
0.10390363 0.06728571 0.045238927 -0.031149512 -0.074458726 -0.07723236 0.027296135 0.014572531
-0.11581421 -0.09775419 0.030724771 -0.0078042573 0.07065459 0.06388914 -0.092168815 0.07538956
-0.0008150827 0.031364676 0.041533392 -0.05440016 0.11458298 -0.061208624 0.070612304 -0.087926
-0.046417106 0.104612045 -0.09722779 0.099133305 -0.08563662 -0.0036486401 0.04930618 -0.040257175
-0.08518786 -0.0788179 0.012312913 0.023927948 0.085391365 -0.059539303 -0.071627274 0.05766076
0.014755531 0.008041926 0.08040161 0.013842362 -0.072959185 0.12234802 -0.028975531 0.006143135
0.10301601 -0.09043679 -0.08282011 -0.11752012 0.11389104 0.06465292 0.09215606 0.07832554
-0.080040015 -0.013967817 0.01414906 0.046671726 -0.008134965 -0.0476949 0.11342875 -0.076050274
-0.0874667 -0.12089312 0.08152741 -0.048080742 0.09958846 0.11197768 0.115694135 -0.09464526
-0.09375695 -0.029075824 -0.020527385 -0.09585923 0.091913685 -0.09908937 -0.072064295 -0.026627306
-0.12106779 -0.016087614 0.024214394 -0.015124179 -0.103393085 0.06231231 -0.100163825 0.028531125
00000000: fbe5 5dbd e8d3 e13d 6d3e bf3d d432 a7bd
00000010: c509 e3bd d73b 1a3d 25fb c7bd a479 443d
00000020: 96c9 383d 543e 6a3d 6d54 673c 34ed b0bc
00000030: 9ced 2fbd ce68 fdbd 1700 fc3d 8399 d3bd
00000040: 1de3 64bd 178a 633d e48e 00be 828c 833d
00000050: fd6c 95bd 4abd b83c db43 ec3d aa5a 3dbd
00000060: 9569 153c 3c4b 923d ef12 6fbc 76fc 553d
00000070: 65bb aa3d edb4 f1bd 02ec b4bd 847d 873d
00000080: 607d 31bd 03b5 2bbb e7e8 3d3d a926 d0bd
00000090: 0b40 51bd aa30 133c 9ac7 453c 07a9 adbb
000000a0: db3f 5bbd 405b 1ebd 7105 043d aff2 4f3d
000000b0: e87d 75bd 1cf3 01bd 4070 39bd ad48 233d
000000c0: 5f84 b13d 7477 0f3d 7ea9 ce3d 2f40 343d
000000d0: fbc8 babd 9e1e 3fbd 01f4 c23b 5f3e 4fbc
000000e0: af9e fabd 7663 a5bd 482e e8bd 84e8 353d
000000f0: 8433 92bd dce9 793d 3451 6fbd 8d74 85bc
00000100: edbf 8dbd d8ce f43d 2067 6e3b 866f b13d
00000110: a40c cdbd efbc 93bd a38f 8abb 35e2 d23c
00000120: 7934 96bd 6563 c6bd 0afc e33d a6e2 7bbd
00000130: 4d85 8bbd 88bf 623d 6aba 79bd caf8 df3d
00000140: 54de 4a3c 66e0 e13d 981a 933c fd07 6ebd
00000150: c688 61bd 38e1 3b3d e087 4c3d 649c 8f3d
00000160: 89d7 1bbc 6de3 a3bd 6d92 3dbb 956e 73bc
00000170: 0553 dcbb 82c5 743c 7174 14bc 5453 7e3d
00000180: 92b6 23bd ec7f e23d 0895 ea3c 3bd4 46bd
00000190: eb45 72bd 9f00 1a3d 2762 ce3d bd9e e7bd
000001a0: 9748 b3bc ab4c d1bd 5a2c 67bd 6d02 f0bd
000001b0: 3699 b1bc c281 4d3d 9e00 c03d fe9b 57bd
000001c0: e749 f83d 4429 46bd 6dc4 d73d 509a 7c3d
000001d0: 606f 513c beb5 ffbd d06b 3d3d e1d5 89bd
000001e0: 83c1 813d 9b68 f5bd 705d 4f3d 6eb4 8cbd
000001f0: dc47 db3d 6cf5 b83c fc00 33bd fbed fb3c
00000200: c557 b33d 11ec d23c a7ef 3a3d 5744 8c3c
00000210: 4c75 04bc 448d b83a 47b8 993d 3fd9 e2bc
00000220: f030 31bd 5fe8 623d a449 b1bc e860 d1bd
00000230: 6708 88bd a600 753d f389 be3b 5471 e63d
00000240: 3016 aabd 8202 cdbd 75fc f1bd 914f 01be
00000250: ff69 79ba deeb 5bbc 2d2a e33d 848b a93b
00000260: f688 91bd 9bed d5bd 722e c83d 7aac b73d
00000270: f871 95bd 7c8d a2bd 30d3 b33d a904 503d
00000280: 777b bc3d e6e2 fabd 19b6 c33d b862 7cbd
00000290: 535e b43d d222 d43d d32c 3b3d 54c0 153d
000002a0: 6dcb d43d 17cd 893d 744c 393d 432d ffbc
000002b0: d17d 98bd 002c 9ebd 259c df3c a0c1 6e3c
000002c0: 0030 edbd 5933 c8bd 84b2 fb3c dbba ffbb
000002d0: 5bb3 903d 4fd8 823d 01c3 bcbd d765 9a3d
000002e0: 46ab 55ba 3f78 003d eb1e 2a3d b4d2 5ebd
000002f0: 7baa ea3d e5b5 7abd 2f9d 903d 8c12 b4bd
00000300: dd1f 3ebd d73e d63d 5d1f c7bd 6706 cb3d
00000310: 4162 afbd 061e 6fbb 47f5 493d b5e4 24bd
00000320: f976 aebd 476b a1bd 1abc 493c 8b04 c43c
00000330: abe1 ae3d 7cdf 73bd 52b1 92bd b02d 6c3d
00000340: 2fc1 713c 48c2 033c 99a9 a43d 13cb 623c
00000350: a06b 95bd 9991 fa3d 185e edbc 5a4c c93b
00000360: 0ffa d23d ec36 b9bd 979d a9bd 64ae f0bd
00000370: b53f e93d c068 843d 51bc bc3d 2469 a03d
00000380: 05ec a3bd 45d9 64bc 75d1 673c da2a 3f3d
00000390: 8448 05bc ba5b 43bd 554d e83d 3fc0 9bbd
000003a0: be21 b3bd d096 f7bd d8f7 a63d 50f0 44bd
000003b0: 09f5 cb3d 8e54 e53d 0cf1 ec3d 60d5 c1bd
000003c0: a503 c0bd 6c30 eebc 0c29 a8bc d851 c4bd
000003d0: 3e3d bc3d 5eef cabd 7296 93bd 8221 dabc
000003e0: 64f2 f7bd 2cca 83bc 445d c63c 68cb 77bc
000003f0: c1bf d3bd 313b 7f3d b122 cdbd 1bba e93c

conv_blocks.3.bias f4 [32]
-0.05534154 -0.036821615 0.036764294 -0.017981408 -0.09087787 -0.024973636 0.020004975 -0.011437776
0.016905067 0.10867002 0.0028158813 -0.005319629 0.009213126 0.036372043 0.05265532 0.04700879
-0.07921663 0.081197225 -0.06013367 0.03994979 0.046497878 0.02567631 0.049363893 0.043124985
-0.11914428 0.076006785 0.0057251286 0.11195078 -0.05765311 -0.0038885784 0.053316742 -0.060757965
00000000: d0ad 62bd 43d2 16bd 2896 163d bf4d 93bc
00000010: 2d1e babd 8395 ccbc 79e1 a33c 8265 3bbc
00000020: 7f7c 8a3c 638e de3d a68a 383b 4850 aebb
00000030: a7f2 163c dafa 143d 1bad 573d 4a8c 403d
00000040: 543c a2bd bb4a a63d b94e 76bd 64a2 233d
00000050: 8f74 3e3d 2057 d23c cb31 4a3d d3a3 303d
00000060: eb01 f4bd 72a9 9b3d dc99 bb3b 7346 e53d
00000070: ab25 6cbd 85d7 7ebb a862 5a3d 58dd 78bd

conv_blocks.4.weight f4 [32]
1.0009121 0.9919037 0.9993581 0.99646604 0.9982147 1.0043844 1.0021127 0.99517393
0.9970981 1.0041062 0.9973321 0.99722755 1.0100503 0.9954843 1.0007513 0.99862945
1.0044067 0.9949337 1.0011111 0.9928619 0.99438226 1.0035393 1.0081826 1.0006851
0.9951958 0.99750936 0.99969786 1.0157498 0.99374235 0.9971162 1.0110544 0.9981685
00000000: e31d 803f 67ed 7d3f efd5 7f3f 6618 7f3f
00000010: 008b 7f3f ab8f 803f 3b45 803f b8c3 7e3f
00000020: d241 7f3f 8d86 803f 2851 7f3f 4e4a 7f3f
00000030: 5449 813f 0fd8 7e3f 9e18 803f 2ea6 7f3f
00000040: 6690 803f fab3 7e3f 6924 803f 332c 7e3f
00000050: d68f 7e3f fa73 803f 210c 813f 7316 803f
00000060: 27c5 7e3f c65c 7f3f 33ec 7f3f 1704 823f
00000070: e665 7e3f 0243 7f3f 3b6a 813f f987 7f3f

conv_blocks.4.bias f4 [32]
-0.0018973476 -0.010315124 0.00045493394 -0.0052425815 -0.0011369891 0.006212373 -0.0046582804 0.0015541067
0.0076790946 4.8864313e-05 -0.0071639656 -0.008174145 0.012905796 -0.0119835865 -0.0042367843 -0.0078622
0.008026477 -0.0033295352 -0.004314791 -0.0024682153 0.0020126593 -0.0031856094 -0.0016692627 -0.004734314
-0.009442231 -0.0034133971 -0.0042692423 0.0040500266 0.0037551685 -0.001658782 0.0097356755 0.009600554
00000000: 6cb0 f8ba c400 29bc 3384 ee39 f6c9 abbb
00000010: 0607 95ba 2991 cb3b 7da4 98bb 2bb3 cb3a
00000020: eaa0 fb3b a8f3 4c38 b3bf eabb d9ec 05bc
00000030: d572 533c ce56 44bc b9d4 8abb 75d0 00bc
00000040: 7c81 033c 5534 5abb 1763 8dbb c8c1 21bb
00000050: d2e6 033b a8c5 50bb 29cb daba 4e22 9bbb
00000060: 96b3 1abc 4db3 5fbb 00e5 8bbb 16b6 843b
00000070: 4619 763b 7d6b d9ba 6282 1f3c a44b 1d3c

conv_blocks.4.running_mean f4 [32]
-0.26567638 -0.019021695 0.057043992 0.043608993 0.15466955 -0.00035596703 -0.19895622 0.030605398
0.2017077 0.24531163 -0.17446338 0.14198118 0.07314758 -0.11961352 -0.08105958 -0.17355093
0.14023946 0.078893855 -0.0127225565 0.0689337 0.1978022 -0.1508582 -0.061969157 0.14194524
-0.20686433 0.04713612 0.21303475 -0.03551435 0.088542916 0.18498325 0.02076891 0.004687803
00000000: bc06 88be 63d3 9bbc f6a6 693d 589f 323d
00000010: b261 1e3e 16a1 bab9 2ebb 4bbe 2cb8 fa3c
00000020: 778c 4e3e f932 7b3e 87a6 32be 8463 113e
00000030: 66ce 953d eff7 f4bd 9102 a6bd 56b7 31be
00000040: ef9a 0f3e 1a93 a13d 4572 50bc 1d2d 8d3d
00000050: a98c 4a3e 927a 1abe 5fd3 7dbd 185a 113e
00000060: 3ed4 53be ce11 413d c825 5a3e 7f77 11bd
00000070: fd55 b53d 406c 3d3e 9023 aa3c 249c 993b

conv_blocks.4.running_var f4 [32]
0.047873702 0.035311945 0.034338646 0.02899346 0.037060708 0.057237655 0.066283055 0.037270624
0.02885752 0.077108264 0.060883574 0.024788229 0.026656875 0.062091045 0.031259876 0.029555151
0.02755766 0.032610912 0.03334989 0.032108136 0.027110154 0.05787059 0.03258901 0.028770987
0.033299033 0.030427378 0.031037645 0.054910216 0.038067404 0.03428128 0.034354456 0.020079674
00000000: 3717 443d 42a3 103d aea6 0c3d b183 ed3c
00000010: f8cc 173d 0872 6a3d 69bf 873d 15a9 183d
00000020: 9b66 ec3c f0ea 9d3d 0e61 793d af10 cb3c
00000030: 855f da3c 2e53 7e3d 5b0a 003d a51d f23c
00000040: 9ac0 e13c 0593 053d e599 083d d283 033d
00000050: 1d16 de3c b609 6d3d 0e7c 053d 22b1 eb3c
00000060: 9164 083d d642 f93c a942 fe3c 89e9 603d
00000070: 91ec 1b3d 876a 0c3d 42b7 0c3d 217e a43c

conv_blocks.7.weight f4 [64, 32, 4]
0.006837005 0.014234662 0.0034531853 0.05996448 0.049702268 -0.021720141 0.053144127 0.019092016
-0.048716158 -0.043189462 0.06689938 0.06554919 -0.035523668 0.05545102 0.086183466 -0.0671669
-0.01997933 0.044364646 -0.0037351367 0.06292082 -0.06953109 -0.05254198 0.04081477 0.019878307
-0.014432124 0.071819894 0.055337757 -0.04973714 -0.067368686 0.065146394 -0.023165869 0.04753108
0.014590006 0.070023656 0.088601515 0.076151714 -0.053235132 -0.038489033 0.015592966 0.079384536
-0.008449321 0.06620763 0.07443851 0.021900736 0.032973543 -0.021262404 -0.043616965 0.024020476
0.013124607 -0.0052479208 0.033419993 -0.05696239 0.035838414 -0.07111327 0.015835267 -0.0066585867
-0.05275737 -0.038579307 -0.024540002 -0.06536982 -0.037461463 -0.05822404 -0.032854028 -0.045378763
-0.018241018 0.010484902 0.09028007 0.050499044 -0.024065848 -0.0037483384 0.06944965 0.005990325
0.02621575 0.03930727 -0.032235067 -0.058085203 -0.04273558 -0.0016603363 0.046461042 0.053946003
-0.060266457 0.02171432 0.03577299 -0.011192124 -0.069121085 -0.0011268135 0.03341183 -0.04038841
-0.06649988 0.05259216 0.08764704 0.014897956 0.07789895 -0.043456845 0.060271706 0.011887855
0.058630113 -0.014022756 0.04329472 -0.043624923 0.06116981 0.08697669 0.066329546 0.056161586
0.056302954 0.007984569 -0.008091109 0.07630511 -0.08371211 -0.06679091 0.01603982 -0.043293446
0.019492684 0.06944923 -0.045065753 0.045995302 -0.052955326 -0.019296004 -0.052170563 0.04950851
-0.036319662 0.060110446 0.017594516 -0.053134706 0.07610959 -0.006149164 -0.08073945 -0.052231148
0.042026676 -0.027175324 0.033607457 0.038182106 0.004710411 -0.0009307258 -0.017183911 0.05251719
0.015047018 0.08031949 -0.047819212 -0.09010035 0.039537996 -0.06529538 0.011513268 0.04463883
-0.08749609 0.061318174 0.07848792 0.06325817 0.02839918 -0.06492402 0.07297442 0.054737374
0.013894588 -0.033511307 -0.062986985 -0.06730982 0.07431657 0.051402893 -0.030451706 -0.028819304
-0.067143 -0.085259296 0.0012852892 -0.05918302 0.061670735 -0.019607414 -0.056459356 -0.061853454
-0.08954676 -0.005080854 -0.01822226 0.049419273 0.0074666697 -0.016850585 0.0041212365 -0.01710103
0.01062817 0.06029728 0.06368715 0.03849983 -0.004649942 0.030918576 -0.08348372 -0.06891017
0.08104838 0.075672485 0.07462011 -0.079154775 0.08432244 -0.012104491 0.025811344 0.029762609
0.034638006 -0.0019274052 -0.013820201 -0.0055651343 0.043120142 0.0274702 0.054586355 -0.023535311
0.02607393 0.071681514 -0.08263468 -0.06957659 -0.05841492 0.0369407 0.042331744 0.03902117
0.034634974 -0.021399258 0.07762794 -0.065730505 0.07094028 0.07037608 -0.012285731 0.01641081
-0.019699343 0.01055521 0.061448142 0.013784913 -0.06860153 -0.052924436 0.0438761 -0.009289876
0.009654244 -0.07837515 0.08408484 0.061929025 -0.08401959 0.0857807 0.04488946 0.024614844
0.0545991 -0.050633565 -0.03647546 0.06960766 0.0068574967 0.011646817 0.07416035 0.01355328
-0.04752562 0.020444978 0.05878609 0.08433081 0.050814327 -0.09319219 -0.04293865 -0.004167165
-0.025506917 0.013072262 -0.024666186 -0.025328455 -0.07745354 0.07516842 -0.016640222 0.071781516
00000000: f408 e03b 8038 693c d64e 623b 519d 753d
00000010: 9b94 4b3d 70ee b1bc a8ad 593d dc66 9c3c
00000020: 988a 47bd 6fe7 30bd 8b02 893d a73e 863d
00000030: 4481 11bd 9c20 633d f580 b03d cd8e 89bd
00000040: b1ab a3bc b4b7 353d 32c9 74bb a2dc 803d
00000050: 5166 8ebd 4236 57bd 632d 273d d5d7 a23c
00000060: b774 6cbc 4f16 933d d8a9 623d 2cb9 4bbd
00000070: 98f8 89bd 796b 853d 59c6 bdbc f3af 423d
00000080: ec0a 6f3c 9068 8f3d b674 b53d 6ef5 9b3d
00000090: 150d 5abd ada6 1dbd a479 7f3c 5c94 a23d
000000a0: 056f 0abc de97 873d 3873 983d 2c69 b33c
000000b0: 440f 073d 7e2e aebc b4a7 32bd 97c6 c43c
000000c0: 9708 573c c0f6 abbb 67e3 083d 6551 69bd
000000d0: 4dcb 123d d6a3 91bd f6b8 813c 4630 dabb
000000e0: 1d18 58bd 5605 1ebd 1d08 c9bc 9de0 85bd
000000f0: 3171 19bd 557c 6ebd f291 06bd 15df 39bd
00000100: 306e 95bc dec8 2b3c c2e4 b83d 16d8 4e3d
00000110: be25 c5bc afa6 75bb 9e3b 8e3d 7d4a c43b
00000120: 6ac2 d63c a900 213d eb08 04bd c0ea 6dbd
00000130: 810b 2fbd a49f d9ba ef4d 3e3d 7cf6 5c3d
00000140: f6d9 76bd 3be2 b13c b386 123d 2c5f 37bc
00000150: 5b8f 8dbd 96b1 93ba d8da 083d 516e 25bd
00000160: 1731 88bd e06a 573d 4b80 b33d 8e16 743c
00000170: 7c89 9f3d ceff 31bd 77df 763d 47c5 423c
00000180: 2126 703d b4bf 65bc ce55 313d 0cb0 32bd
00000190: 328d 7a3d d620 b23d c9d7 873d b109 663d
000001a0: ed9d 663d b6d1 023c 9290 04bc da45 9c3d
000001b0: 4171 abbd acc9 88bd f165 833c 7854 31bd
000001c0: 1faf 9f3c 663b 8e3d de96 38bd 9265 3c3d
000001d0: afe7 58bd a712 9ebc cdb0 55bd 6fc9 4a3d
000001e0: edc3 14bd 5f36 763d 6022 903c c7a3 59bd
000001f0: 58df 9b3d ed7e c9bb ba5a a5bd 54f0 55bd
00000200: 2a24 2c3d c99e debc f9a7 093d d764 1c3d
00000210: cb59 9a3b f3fb 73ba 46c5 8cbc 441c 573d
00000220: c587 763c 8b7e a43d 14de 43bd 8886 b8bd
00000230: 98f2 213d 96b9 85bd 25a2 3c3c 35d7 363d
00000240: 2631 b3bd c428 7b3d 46be a03d 808d 813d
00000250: 66a5 e83c e2f6 84bd 9d73 953d 4c34 603d
00000260: 20a6 633c 2743 09bd 52ff 80bd bbd9 89bd
00000270: 4933 983d d78b 523d db75 f9bc 7616 ecbc
00000280: 4582 89bd 6d9c aebd 2677 a83a e569 72bd
00000290: 749a 7c3d ba9f a0bc ed41 67bd 0c5a 7dbd
000002a0: 4b64 b7bd 4b7d a6bb d946 95bc dd6b 4a3d
000002b0: f7aa f43b 3d0a 8abc 700b 873b 7617 8cbc
000002c0: c721 2e3c 48fa 763d 696e 823d ffb1 1d3d
000002d0: 8a5e 98bb f448 fd3c 83f9 aabd c620 8dbd
000002e0: b1fc a53d 2dfa 9a3d 6ed2 983d e61b a2bd
000002f0: 3eb1 ac3d ea51 46bc 5072 d33c b7d0 f33c
00000300: 95e0 0d3d fda0 fcba 206e 62bc bb5b b6bb
00000310: bf9e 303d 2f09 e13c f195 5f3d 20cd c0bc
00000320: ff98 d53c c2cd 923d 5f3c a9bd 2c7e 8ebd
00000330: 7c44 6fbd 224f 173d 0d64 2d3d aad4 1f3d
00000340: 67dd 0d3d 7f4d afbc 66fb 9e3d b79d 86bd
00000350: 2349 913d 5621 903d 174a 49bc f76f 863c
00000360: 8460 a1bc c2ef 2c3c 0cb1 7b3d 1eda 613c
00000370: f57e 8cbd 4bc7 58bd 6db7 333d 9034 18bc
00000380: d62c 1e3c 2783 a0bd ac34 ac3d 4aa9 7d3d
00000390: 7612 acbd cbad af3d 03de 373d 12a5 c93c
000003a0: 4ea3 5f3d 2465 4fbd 4b67 15bd 768e 8e3d
000003b0: dab4 e03b 4bd2 3e3c 62e1 973d 940e 5e3c
000003c0: 39aa 42bd 3a7c a73c afc9 703d a2b5 ac3d
000003d0: af22 503d 8cdb bebd 70e0 2fbd b78c 88bb
000003e0: e2f3 d0bc 0a2d 563c be10 cabc 9f7d cfbc
000003f0: f69f 9ebd e7f1 993d 1351 88bc 3002 933d

conv_blocks.7.bias f4 [64]
0.017143892 -0.060188055 -0.0010783765 -0.03001726 -0.04602235 -0.017805826 -0.05361485 0.0057277856
0.024595782 -0.05364386 0.07591833 -0.016510053 -0.044213872 -0.0029633301 0.059502862 -0.037815746
-0.038684 0.0062794834 0.08379432 -0.08660733 -0.065926135 -0.017850447 -0.04030551 -0.048544608
0.022993488 -0.0532871 -0.08173031 0.059305705 0.048892196 0.06965734 -0.08507356 -0.030108798
0.074438184 -0.020342765 0.08047043 -0.041426223 0.04188721 0.059212275 -0.029405521 -0.047584817
0.08657145 -0.053979278 -0.04151992 -0.084336795 -0.04278061 -0.047055412 -0.075984284 0.049773395
-0.061810177 -0.043718517 0.018878344 -0.039095897 0.019799935 0.07429598 -0.04717698 -0.00912513
-0.016629446 -0.06569985 -0.034901053 0.05455262 0.08604567 -0.012331266 -0.08218682 -0.076296575
00000000: 5971 8c3c c087 76bd 5058 8dba c2e6 f5bc
00000010: ef81 3cbd 86dd 91bc 3f9b 5bbd 26b0 bb3b
00000020: 187d c93c aab9 5bbd 127b 9b3d 1740 87bc
00000030: 9b19 35bd 6e34 42bb 46b9 733d afe4 1abd
00000040: 1d73 1ebd 20c4 cd3b 5b9c ab3d 2f5f b1bd
00000050: 4804 87bd 1a3b 92bc 6417 25bd b6d6 46bd
00000060: d75c bc3c 9343 5abd 3962 a7bd 8aea 723d
00000070: 2f43 483d 82a8 8e3d 0c3b aebd baa6 f6bc
00000080: 0c73 983d dfa5 a6bc aecd a43d 8bae 29bd
00000090: ec91 2b3d 9288 723d d9e3 f0bc 4ce8 42bd
000000a0: 5f4c b13d 6019 5dbd cb10 2abd c5b8 acbd
000000b0: b93a 2fbd 2dbd 40bd a69d 9bbd 30df 4b3d
000000c0: ab2c 7dbd 3012 33bd c2a6 9a3c 0523 20bd
000000d0: 7933 a23c 7e28 983d a63c 41bd 9281 15bc
000000e0: 7a3a 88bc a58d 86bd 68f4 0ebd 9172 5f3d
000000f0: b638 b03d 1409 4abc 9051 a8bd 6141 9cbd

conv_blocks.8.weight f4 [64]
1.0053229 0.9962659 1.0009619 0.99916095 0.99918664 0.99337184 1.0065253 1.0061854
0.99997836 1.0034795 0.99430263 0.994016 1.0009369 0.9992565 0.9974414 1.0065833
1.003333 0.9965428 1.0072418 0.9920892 1.004279 1.0050821 0.99602085 0.9974985
0.99937475 0.9988797 0.9992607 1.0011028 1.0127131 0.99737906 1.001603 0.99404454
0.9980686 0.9980492 1.0032594 0.9950439 1.0009172 0.9942029 0.99671715 0.9966306
1.0021201 1.0035232 0.9939786 0.99511796 1.0083756 0.99806654 0.9978874 1.0058471
0.99658614 1.0006174 1.0028131 1.0042162 0.9916865 1.005791 0.9953916 1.006056
0.9940332 1.0007193 1.0131778 0.99633384 0.99493843 1.0004541 0.99772435 1.0012064
00000000: 6cae 803f 480b 7f3f 851f 803f 03c9 7f3f
00000010: b2ca 7f3f 9e4d 7e3f d2d5 803f afca 803f
00000020: 95fe 7f3f 0472 803f 9e8a 7e3f d577 7e3f
00000030: b31e 803f 46cf 7f3f 5258 7f3f b9d7 803f
00000040: 376d 803f 6e1d 7f3f 4ded 803f 8ff9 7d3f
00000050: 378c 803f 88a6 803f 39fb 7e3f 105c 7f3f
00000060: 06d7 7f3f 94b6 7f3f 8dcf 7f3f 2324 803f
00000070: 95a0 813f 3c54 7f3f 8734 803f b479 7e3f
00000080: 6c81 7f3f 2780 7f3f ce6a 803f 32bb 7e3f
00000090: 0e1e 803f 1584 7e3f db28 7f3f 2f23 7f3f
000000a0: 7945 803f 7373 803f 6275 7e3f 0dc0 7e3f
000000b0: 7412 813f 4a81 7f3f 8c75 7f3f 99bf 803f
000000c0: 4520 7f3f 3b14 803f 2e5c 803f 288a 803f
000000d0: 2bdf 7d3f c2bd 803f fcd1 7e3f 71c6 803f
000000e0: f678 7e3f 9217 803f cfaf 813f bc0f 7f3f
000000f0: 49b4 7e3f e10e 803f dd6a 7f3f 8827 803f

conv_blocks.8.bias f4 [64]
0.013490892 0.004109971 -0.0012578969 -0.004525265 0.002876408 -0.0004321369 0.0062833903 0.007470609
-0.00047953543 0.0019589332 -0.0035429003 0.00015800452 -0.0008433916 0.0018755558 -0.003287257 0.009916431
0.009735271 0.005232888 -0.00015035007 -0.0012703831 0.005066887 0.004864764 -0.007841992 -0.0011742138
0.0022587688 -0.0026751524 0.0009309645 0.014058454 0.010480002 -0.007881186 0.0015669845 -0.007015278
0.0021455472 -0.005757823 0.0052624443 -0.0036196292 -0.0030531515 -0.0021581992 -0.001238786 0.0012763992
0.0004954733 0.0029875601 -0.007470397 -0.00426617 0.00065077655 -0.0039599035 0.0037417086 0.010602729
-0.0032683467 -0.0047920784 0.005200424 0.0061404034 -0.003438497 0.0050446074 -0.008188793 0.007752785
-0.010029449 -0.0019812402 0.012635446 -0.005854113 -0.0033897841 0.0010648863 -0.00094611844 0.0010180294
00000000: e708 5d3c f0ac 863b 04e0 a4ba ad48 94bb
00000010: 1e82 3c3b 6f90 e2b9 e6e4 cd3b 03cc f43b
00000020: 286a fbb9 7261 003b 0130 68bb 04ae 2539
00000030: 0d17 5dba 36d5 f53a 056f 57bb 8778 223c
00000040: b080 1f3c a578 ab3b 4aa7 1db9 fc82 a6ba
00000050: 2108 a63b 9968 9f3b b37b 00bc 14e8 99ba
00000060: da07 143b 9c51 2fbb f80b 743a 6e55 663c
00000070: 50b4 2b3c 1720 01bc 4663 cd3a 6be0 e5bb
00000080: 4f9c 0c3b 1fac bcbb 9570 ac3b 4d37 6dbb
00000090: 6217 48bb 9370 0dbb c35e a2ba da4c a73a
000000a0: a6e2 013a f1ca 433b 3bca f4bb 3acb 8bbb
000000b0: e098 2a3a 14c2 81bb 7437 753b 12b7 2d3c
000000c0: c231 56bb de06 9dbb 5268 aa3b 7035 c93b
000000d0: 6858 61bb 3c4d a53b 4a2a 06bc 130b fe3b
000000e0: 8f52 24bc b2d7 01bb e704 4f3c dcd3 bfbb
000000f0: 2427 5ebb a893 8b3a ef04 78ba 666f 853a

conv_blocks.8.running_mean f4 [64]
0.3017657 0.16766287 0.088199124 0.13831984 -0.021319415 -0.087646626 0.079317704 -0.1909405
-0.056009673 -0.28032863 -0.13790856 0.14030321 -0.048086744 -0.109430626 0.20244397 -0.027193736
0.33406684 0.07982619 0.0389047 0.20489323 -0.42458928 0.12003123 -0.11409213 -0.1036202
0.027107587 -0.12937526 -0.13364805 0.45406938 0.016362121 -0.17557293 -0.32278982 -0.06888427
0.21864918 0.07347127 0.24091886 0.17272879 0.28019765 0.007883354 -0.038256805 0.03762947
-0.2669313 0.338908 -0.005018626 -0.047657833 0.09270852 -0.20854512 -0.010474274 -0.20645161
-0.0064639365 -0.15925157 0.24838783 -0.17178425 0.23853326 0.12791707 0.10916837 0.09624356
0.21728706 0.098254144 -0.3993267 0.16491342 -0.021823969 0.1589733 -0.09689167 -0.21108015
00000000: 0981 9a3e d1af 2b3e bea1 b43d b7a3 0d3e
00000010: 0ea6 aebc 1380 b3bd 5271 a23d e885 43be
00000020: 666a 65bd 3c87 8fbe e737 0dbe a5ab 0f3e
00000030: 9bf6 44bd 2a1d e0bd 794d 4f3e 66c5 debc
00000040: cf0a ab3e ea7b a33d 895a 1f3d 88cf 513e
00000050: c463 d9be efd2 f53d 22a9 e9bd d436 d4bd
00000060: bb10 de3c f37a 04be 09db 08be c87b e83e
00000070: db09 863c 64c9 33be b544 a5be 3213 8dbd
00000080: 92e5 5f3e 1b78 963d 6fb3 763e d1df 303e
00000090: 1176 8f3e 2f29 013c 2bb3 1cbd 5c21 1a3d
000000a0: 38ab 88be 5985 ad3e 4973 a4bb dc34 43bd
000000b0: f7dd bd3d da8c 55be 4a9c 2bbc 0d68 53be
000000c0: 6ecf d3bb d812 23be 6159 7e3e 36e8 2fbe
000000d0: 1042 743e b1fc 023e ab93 df3d 581b c53d
000000e0: 8080 5e3e 7839 c93d 8d74 ccbe 10df 283e
000000f0: 2ec8 b2bc e6c9 223e 246f c6bd 6525 58be

conv_blocks.8.running_var f4 [64]
0.22613189 0.22225988 0.2544627 0.28819135 0.18519843 0.25141627 0.19096024 0.3108378
0.24211192 0.20444842 0.17224044 0.22732641 0.17974585 0.2487567 0.21457812 0.21695264
0.24213293 0.24445413 0.24135846 0.2369759 0.21528365 0.21059635 0.19510023 0.25618735
0.20290609 0.19385853 0.2175411 0.27620465 0.2333493 0.20712078 0.26047707 0.24329013
0.23726894 0.2139216 0.16260265 0.21414839 0.21379404 0.19931448 0.19083798 0.20331983
0.2116711 0.22284721 0.22275293 0.23154183 0.20357709 0.2429601 0.18017839 0.17800193
0.20388128 0.17324285 0.19361602 0.22021268 0.19386558 0.24426512 0.21285707 0.18770495
0.2315783 0.2263694 0.21970262 0.2250573 0.17730457 0.19964969 0.20984067 0.2083087
00000000: 1e8f 673e 1898 633e ef48 823e d18d 933e
00000010: a8a4 3d3e a2b9 803e 158b 433e 2226 9f3e
00000020: 30ec 773e ed5a 513e cc5f 303e 41c8 683e
00000030: 4c0f 383e 14ba 7e3e 5eba 5b3e d528 5e3e
00000040: b2f1 773e 2f52 7a3e ac26 773e cfa9 723e
00000050: 5173 5c3e 92a6 573e 5bc8 473e fd2a 833e
00000060: 9dc6 4f3e da82 463e 18c3 5e3e b26a 8d3e
00000070: 1ef3 6e3e 7817 543e 405d 853e 0c21 793e
00000080: a1f6 723e 440e 5b3e 4f81 263e b749 5b3e
00000090: d3ec 5a3e 1819 4c3e 086b 433e 1333 503e
000000a0: 4fc0 583e 0f32 643e 5819 643e 4d19 6d3e
000000b0: 8376 503e 88ca 783e af80 383e 2346 363e
000000c0: 41c6 503e 9366 313e 4743 463e 6f7f 613e
000000d0: b384 463e a320 7a3e 34f7 593e ba35 403e
000000e0: dd22 6d3e 61cd 673e b9f9 603e 6c75 663e
000000f0: 548f 353e f870 4c3e 79e0 563e e04e 553e

conv_blocks.11.weight f4 [128, 64, 4]
-0.059687912 -0.017096356 -0.00838911 -0.025496336 -0.05297292 0.02101985 0.014651161 0.011328851
0.04624459 0.034931183 -0.014647682 0.045381222 0.039199725 -0.057331186 -0.035323095 -0.028516885
-0.05441094 0.028247315 -0.00687693 -0.055239543 0.046103865 0.033947572 0.035000164 -0.015697468
-0.02133308 -0.0037245392 -0.0630063 -0.019289447 -0.008305408 0.050969787 0.03535909 0.04232348
0.011169521 -0.0057888767 -0.0003365989 0.04170603 -0.017975109 -0.03150102 -0.054825313 -0.055445943
-0.009382843 -0.032874063 0.064090654 0.05034507 0.008949501 -0.0042645186 0.009642948 -0.0021666803
0.027972644 -0.047405235 0.019931188 -0.014126818 0.011216643 -0.011685785 -0.048115756 -0.023891483
-0.021207115 -0.034176346 -0.022019207 0.048135057 0.052318107 0.039220244 -0.053145446 -0.063893445
0.042683702 -0.05415735 0.031545226 0.024308873 0.009747028 -0.0254845 -0.04377198 -0.019176327
-0.03904461 -0.0127105 -0.07026032 -0.029571159 0.021899413 -0.054843605 0.017121742 -0.03402733
-0.03592453 0.04165411 -0.017976357 -0.04790977 -0.012985735 -0.046814393 -0.0027199625 -0.036739577
-0.050788026 0.056010827 -0.0006790744 0.011190666 0.05592949 0.009259015 0.032008708 -0.0049547846
0.038743414 0.005398996 -0.02252975 -0.045272574 -0.025691992 -0.048692744 -0.0060183913 0.03537776
-0.04000461 0.03876562 -0.041776188 0.0213418 -0.0566761 0.039234962 0.018614253 -0.046766758
-0.013280703 0.04772899 -0.02479913 -0.043622565 -0.05409901 0.017286193 -0.014924882 -0.0035075804
-0.034818348 0.032912325 0.007959003 -0.04849935 -0.029703816 -0.06380132 0.015635379 0.0190398
0.0500446 -0.029433534 -0.048508525 -0.05549553 0.027823173 -0.047148246 -0.025152171 -0.039116893
0.0068881745 -0.050544996 0.023752015 -0.047215924 -0.027972922 0.03708487 -0.049081884 -0.032851625
0.0122388415 0.024938004 0.033426356 -0.035164006 -0.04274811 -0.021409854 -0.007930846 -0.043876186
0.035614446 0.0347918 0.034518562 0.017641371 -0.059855677 -0.054469455 -0.028164836 -0.03857112
0.046019606 0.049213517 0.013397109 0.036130358 0.031195102 -0.04872585 0.0152783515 0.040935867
-0.06276712 -0.04328624 0.023887958 -0.0095135765 -0.023207992 -0.011907396 -0.05494873 -0.042795137
-0.0143675385 0.030072656 -0.060957532 -0.04740735 -0.050618973 0.020641817 -0.03389599 0.035753056
0.043008324 -0.06236787 -0.030968662 -0.04791397 -0.021880187 -0.03986228 -0.029331518 -0.0018240483
-0.0029796902 0.008852479 -0.04825686 0.029622793 -0.059452184 0.03913853 -0.028658066 -0.05082834
0.03732973 -0.044006515 0.015733508 -0.02488464 0.06393987 0.02189599 0.02969494 -0.04464586
0.042440105 -0.029703856 -0.024148956 -0.010125229 -0.040636767 -0.05592617 0.01679926 0.031149289
0.03382257 0.022206763 -0.06346623 0.012116681 -0.0023832705 0.0012685573 0.00437775 -0.0037841343
0.015124375 -0.03436779 0.018013058 0.01596898 0.044005077 -0.038310695 -0.042113 0.04524751
-0.004075723 -0.03506244 -0.0332095 0.051161095 -0.0047713113 -0.05598976 -0.0031343 -0.016822333
0.0048746266 -0.008920545 0.045802705 -0.045386046 0.053294864 0.042851456 0.040517118 0.0064001796
-0.039361104 -0.048911992 -0.029071063 0.039372742 0.012238333 0.035394456 0.028611464 -0.021510871
00000000: 507b 74bd a80d 8cbc 7a72 09bc b1dd d0bc
00000010: 22fa 58bd d231 ac3c 6c0b 703c a59c 393c
00000020: f86a 3d3d 0014 0f3d d5fc 6fbc a9e1 393d
00000030: e48f 203d 1bd4 6abd f3ae 10bd 3e9c e9bc
00000040: 01de 5ebd ea66 e73c df57 e1bb dc42 62bd
00000050: 68d7 3c3d 9c0c 0b3d 555c 0f3d fa97 80bc
00000060: b6c2 aebc 6617 74bb 7209 81bd e704 9ebc
00000070: 6813 08bc b2c5 503d b1d4 103d 635b 2d3d
00000080: 5e00 373c 9eb0 bdbb 8a79 b0b9 f1d3 2a3d
00000090: 8940 93bc 3707 01bd 8290 60bd 491b 63bd
000000a0: 7fba 19bc f4a6 06bd f641 833d a236 4e3d
000000b0: eea0 123c 60bd 8bbb 75fd 1d3c ddfe 0dbb
000000c0: e326 e53c fe2b 42bd bb46 a33c 2b74 67bc
000000d0: 03c6 373c bc75 3fbc 0715 45bd 12b8 c3bc
000000e0: 8bba adbc 7ffc 0bbd a061 b4bc 4429 453d
000000f0: 834b 563d 68a5 203d 0aaf 59bd 91da 82bd
00000100: 1bd5 2e3d 19d4 5dbd 9135 013d 6723 c73c
00000110: 00b2 1f3c dfc4 d0bc 3f4a 33bd ac17 9dbc
00000120: 3eed 1fbd b33f 50bc a5e4 8fbd 373f f2bc
00000130: 6666 b33c b0a3 60bd e542 8c3c 3e60 0bbd
00000140: 9a25 13bd 809d 2a3d 2743 93bc 093d 44bd
00000150: 1fc2 54bc 73c0 3fbd 6641 32bb 3d7c 16bd
00000160: 1b07 50bd 9c6b 653d e903 32ba 0e59 373c
00000170: 5216 653d 20b3 173c 901b 033d bf5b a2bb
00000180: 6ab1 1e3d 10ea b03b 4f90 b8bc bc6f 39bd
00000190: 0378 d2bc 0b72 47bd ed35 c5bb 45e8 103d
000001a0: e0db 23bd b3c8 1e3d 821d 2bbd 00d5 ae3c
000001b0: 3325 68bd d7b4 203d eb7c 983c 808e 3fbd
000001c0: 4e97 59bc 797f 433d 8c27 cbbc 93ad 32bd
000001d0: ec96 5dbd c69b 8d3c 7e87 74bc 6fdf 65bb
000001e0: af9d 0ebd 13cf 063d 7a66 023c 41a7 46bd
000001f0: 6b55 f3bc 44aa 82bd c415 803c 5bf9 9b3c
00000200: 91fb 4c3d 981e f1bc e0b0 46bd 484f 63bd
00000210: 6ced e33c 851e 41bd ed0b cebc 0939 20bd
00000220: 32b6 e13b 4508 4fbd 9693 c23c 7c65 41bd
00000230: 7827 e5bc 4ee6 173d 160a 49bd 6d8f 06bd
00000240: 6c85 483c c94a cc3c 13ea 083d 2208 10bd
00000250: a418 2fbd b863 afbc 61f0 01bc 84b7 33bd
00000260: 74e0 113d d981 0e3d 5663 0d3d a384 903c
00000270: 3a2b 75bd 5d1b 5fbd f1b9 e6bc c0fc 1dbd
00000280: 0e7f 3c3d 1d94 493d 8c7f 5b3c 6dfd 133d
00000290: df8c ff3c c294 47bd 0d52 7a3c 5eac 273d
000002a0: 0c8c 80bd ea4c 31bd aeb0 c33c d5de 1bbc
000002b0: b01e bebc 3d17 43bc eb11 61bd f449 2fbd
000002c0: d365 6bbc ee5a f63c 9bae 79bd 362e 42bd
000002d0: d755 4fbd 0719 a93c 86d6 0abd cc71 123d
000002e0: 7f29 303d 7475 7fbd feb1 fdbc 7041 44bd
000002f0: 143e b3bc a146 23bd a748 f0bc e814 efba
00000300: e846 43bb fd09 113c fca8 45bd 80ab f23c
00000310: 2284 73bd b94f 203d 52c4 eabc 6131 50bd
00000320: 0fe7 183d 2d40 34bd 8fe3 803c dfda cbbc
00000330: e8f2 823d 385f b33c ce42 f33c 94de 36bd
00000340: add5 2d3d 8055 f3bc 08d4 c5bc 4ae4 25bc
00000350: bd72 26bd d712 65bd 9a9e 893c cb2c ff3c
00000360: 8989 0a3d f5ea b53c 95fa 81bd 0b85 463c
00000370: a530 1cbb b845 a63a 3b73 8f3b 3dff 77bb
00000380: 3acc 773c 3dc5 0cbd 1f90 933c 61d1 823c
00000390: ab3e 343d adeb 1cbd ae7e 2cbd 7455 393d
000003a0: a48d 85bb a29d 0fbd af06 08bd 4c8e 513d
000003b0: a958 9cbb 8555 65bd d468 4dbb fdce 89bc
000003c0: 55bb 9f3b 7a27 12bc 9e9b 3b3d b8e6 39bd
000003d0: b74b 5a3d 0285 2f3d 47f5 253d 99b8 d13b
000003e0: 1c39 21bd f157 48bd 7026 eebc 5045 213d
000003f0: 4a83 483c c7f9 103d 9762 ea3c 9137 b0bc

conv_blocks.11.bias f4 [128]
-0.018595405 0.043270327 -0.000989076 -0.0007322842 7.610084e-05 -0.03276778 0.014792581 -0.059541777
-0.007725985 -0.0034816202 0.012731222 -0.031311136 -0.061050124 0.059804678 -0.03652048 -0.030438792
0.038780253 -0.006517975 -0.03859261 -0.04273064 -0.057310015 0.002953937 0.0032667755 0.05102068
-0.061192326 0.026069932 0.0023209995 -0.05264803 0.0039013166 -0.031860184 0.01581774 0.027615711
0.056305055 -0.019019406 0.059018712 0.015217223 0.018280072 -0.05723842 -0.055129066 -0.022956401
0.05935885 0.03351183 0.05505764 -0.05842337 0.004374649 -0.057041723 0.05964805 0.042594664
0.034619983 -0.03126083 -0.034802265 -0.03755556 0.053472303 -0.03478419 0.02984722 0.033253945
-0.01870739 0.055873755 -0.049264852 -0.032566324 0.019145224 0.012761 -0.026089229 -0.02048065
0.00061421335 0.03335222 0.04925247 0.05919879 0.053241044 -0.016243525 0.023700293 -0.0031339596
-0.058723178 -0.04659962 -0.05420154 0.055192895 -0.008428393 0.048664063 0.0071038716 0.055588596
0.032670353 0.04065238 0.05672996 0.0067792996 -0.050086763 0.022390323 0.05889872 0.03326357
-0.0020844138 0.050458953 -0.06048976 0.018875415 0.06123112 -0.025861915 -0.023524925 0.020707726
0.03583137 -0.062043052 0.037969116 0.046722904 -0.030675147 0.035724804 -0.05713209 -0.011470753
-0.049687505 -0.027548306 0.030156996 0.049387872 0.042877316 0.03254489 -0.031265702 0.008033549
0.038925316 0.06037262 -0.034505837 -0.04650701 -0.034537632 0.032767717 -0.060704384 0.036591217
0.016653106 0.05765238 0.048298128 0.015384552 0.033315983 -0.014496028 -0.02926758 -0.025151236
00000000: 6455 98bc 3a3c 313d e2a3 81ba c3f6 3fba
00000010: 5498 9f38 8237 06bd 955c 723c 14e2 73bd
00000020: 422a fdbb e52b 64bb 9e96 503c 1b40 00bd
00000030: b20f 7abd c0f5 743d 8096 15bd c65a f9bc
00000040: 0bd8 1e3d bd94 d5bb 4913 1ebd 5306 2fbd
00000050: e8bd 6abd d796 413b 6617 563b 10fb 503d
00000060: cea4 7abd 9c90 d53c e91b 183b 76a5 57bd
00000070: 3bad 7f3b d37f 02bd 3494 813c 583a e23c
00000080: 21a0 663d 96ce 9bbc 9bbd 713d a951 793c
00000090: 17c0 953c d572 6abd 04cf 61bd 100f bcbc
000000a0: 4422 733d b343 093d 1f84 613d 584d 6fbd
000000b0: 3759 8f3b 95a4 69bd 8451 743d be77 2e3d
000000c0: afcd 0d3d 5b0b 00bd d28c 0ebd dcd3 19bd
000000d0: c605 5b3d de79 0ebd 2882 f43c 4a35 083d
000000e0: 3e40 99bc e1db 643d f1c9 49bd 4464 05bd
000000f0: 72d6 9c3c 8313 513c 14b9 d5bc 09c7 a7bc
00000100: 2903 213a 569c 083d f5bc 493d 6e7a 723d
00000110: 4813 5a3d 2411 85bc 1e27 c23c 1e63 4dbb
00000120: b787 70bd 3edf 3ebd 6f02 5ebd f211 623d
00000130: 3e17 0abc f853 473d 98c7 e83b deb0 633d
00000140: 59d1 053d 1c83 263d ad5d 683d e324 de3b
00000150: c727 4dbd e96b b73c c93f 713d 623f 083d
00000160: a99a 08bb 0cae 4e3d 1cc4 77bd 9da0 9a3c
00000170: 7ccd 7a3d 5edc d3bc 58b7 c0bc 40a3 a93c
00000180: eac3 123d db20 7ebd 8185 1b3d 8460 3f3d
00000190: 724a fbbc 2c54 123d 5703 6abd d3ef 3bbc
000001a0: 2085 4bbd fcac e1bc ce0b f73c f04a 4a3d
000001b0: 20a0 2f3d ca4d 053d 7710 00bd 269f 033c
000001c0: 2770 1f3d 4849 773d fe55 0dbd 227e 3ebd
000001d0: 5577 0dbd 7137 063d 29a5 78bd ace0 153d
000001e0: 186c 883c e724 6c3d 42d4 453d 7d0f 7c3c
000001f0: 5776 083d c080 6dbc 90c2 efbc f709 cebc

conv_blocks.12.weight f4 [128]
1.0072378 1.009128 1.0026213 1.0021275 0.9974204 0.9952738 1.0045993 0.9989766
0.9927773 1.0039787 1.0036783 1.0050116 0.99806553 0.99648786 1.005228 1.0034518
0.9991366 1.001397 0.99703926 1.0021628 1.0049735 1.0027723 1.0023062 0.9930008
1.0062633 1.0079542 1.0045121 1.0011016 0.9970597 1.0145308 1.0006945 1.0108668
1.0111276 1.0076077 1.0034775 1.0067623 1.0093561 1.0004387 1.0139079 1.0130125
1.0072886 1.0159984 1.0029157 1.0006787 1.0059812 1.003569 1.0097343 1.007424
0.9986527 0.9978366 1.0046076 1.0054744 1.0170575 1.0012443 1.0062715 1.0152586
1.0109047 1.0094596 0.99524236 1.0153868 0.99914545 1.0126095 0.9898158 0.99587303
1.0084854 0.99081415 0.9993041 0.99564964 0.99429154 0.99717695 1.0150316 1.0058719
1.0059378 1.0041214 1.0086814 1.0006806 1.0115539 0.9999228 1.0032957 1.0140342
1.0030357 1.0008839 1.0072776 1.00718 1.0089594 1.0030795 1.0060489 1.0095205
0.9939174 0.99380827 1.0010502 0.99494904 1.0019367 0.9980546 0.9980187 1.0034956
1.0072584 1.000322 1.0060048 1.0045153 1.0044013 1.008644 0.99823016 1.0079616
1.0068636 1.0124794 1.0049392 1.0072972 0.9964665 1.0138819 1.0049783 0.9987055
0.9994089 1.0100374 0.99468035 0.9983335 1.0014611 0.9991555 1.0015512 1.001282
0.9983119 1.0042024 1.0046607 1.0119977 1.0055143 1.0053526 1.0038004 0.9996667
00000000: 2bed 803f 1b2b 813f e555 803f b745 803f
00000010: f156 7f3f 44ca 7e3f b696 803f eebc 7f3f
00000020: a726 7e3f 6082 803f 8878 803f 38a4 803f
00000030: 3981 7f3f d419 7f3f 50ab 803f 1c71 803f
00000040: 6bc7 7f3f c72d 803f f73d 7f3f df46 803f
00000050: f9a2 803f d85a 803f 924b 803f 4d35 7e3f
00000060: 3ccd 803f a504 813f da93 803f 1924 803f
00000070: 4e3f 7f3f 25dc 813f c216 803f 1564 813f
00000080: a16c 813f 4af9 803f f371 803f 96dd 803f
00000090: 9532 813f 600e 803f bcc7 813f 65aa 813f
000000a0: d5ee 803f 3c0c 823f 8b5f 803f 3d16 803f
000000b0: fec3 803f f374 803f f93e 813f 45f3 803f
000000c0: b4a7 7f3f 3872 7f3f fb96 803f 63b3 803f
000000d0: f12e 823f c628 803f 81cd 803f fef3 813f
000000e0: 5365 813f f935 813f 34c8 7e3f 32f8 813f
000000f0: ffc7 7f3f 309d 813f 9164 7d3f 89f1 7e3f
00000100: 0d16 813f ffa5 7d3f 65d2 7f3f e5e2 7e3f
00000110: e489 7e3f fd46 7f3f 8eec 813f 69c0 803f
00000120: 92c2 803f 0d87 803f 791c 813f 4d16 803f
00000130: 997a 813f f1fa 7f3f fe6b 803f dfcb 813f
00000140: 7963 803f f71c 803f 79ee 803f 46eb 803f
00000150: 9525 813f e964 803f 36c6 803f f837 813f
00000160: 5f71 7e3f 386a 7e3f 6a22 803f fbb4 7e3f
00000170: 763f 803f 8280 7f3f 277e 7f3f 8b72 803f
00000180: d8ed 803f 8d0a 803f c4c4 803f f593 803f
00000190: 3990 803f 3f1b 813f 038c 7f3f e304 813f
000001a0: e8e0 803f ed98 813f d9a1 803f 1def 803f
000001b0: 6e18 7f3f e2c6 813f 21a3 803f 2aab 7f3f
000001c0: 43d9 7f3f e848 813f 5fa3 7e3f c992 7f3f
000001d0: e12f 803f a8c8 7f3f d432 803f 022a 803f
000001e0: 5e91 7f3f b489 803f b998 803f 2489 813f
000001f0: b1b4 803f 65af 803f 887c 803f 28ea 7f3f

conv_blocks.12.bias f4 [128]
0.00835222 0.0064760065 0.002476411 0.00023219426 -0.0010778604 -0.0023673293 0.0056244126 0.00059994566
-0.0006610913 0.011925764 0.0030297674 0.009652421 -0.005890951 0.0030665493 0.002529855 0.0029661513
-0.00095886015 0.0023990697 -0.0012641895 -0.0015752475 0.0076622423 0.001016015 0.0043234387 -0.00055090233
-0.0007368585 0.012582385 0.00791076 0.0023727647 0.000316868 0.0066880267 0.004740242 0.0065579847
0.013705833 0.012022004 0.0050110565 0.009961313 0.0024726859 0.0012949894 0.0121562155 0.014896894
0.0043629906 0.0149466535 0.0013925495 -0.00728617 0.009505289 0.0029189754 0.004173313 0.006003133
0.0047264555 0.0023733624 0.0045393975 -0.007037459 0.017211555 -0.00027606293 0.00010739577 0.017351953
0.0006130382 0.010073557 -0.0072828326 -0.0014319111 0.007827274 0.012872991 -0.006253228 -0.0022376466
0.0048708734 -0.009586789 -0.0071636904 -0.0018758515 -0.0048550228 0.00019924168 0.009328809 0.0019097064
0.009635989 0.0012667576 0.010234257 0.0003922039 0.01011284 0.0011558356 -0.0060244068 0.008287803
-0.003814947 0.00080726366 0.0059765773 0.00436422 0.0072414437 -0.0023217124 0.006433555 0.012027935
0.0028953915 -0.004938977 0.008821768 -0.0025294025 0.0063151265 -0.0020016518 0.004353449 0.00045933758
0.008861922 -0.0013523347 0.00966858 -0.003541319 -0.000344789 0.0011006715 -0.00015581492 0.007553345
0.0061310288 0.013237324 0.0040449216 0.0089331865 0.002568118 0.004675158 0.0036535196 0.007524306
-0.0019153808 -0.0027596366 -0.0038053808 -0.0014939285 0.011466967 -0.0012600527 -0.0047069164 -0.00028222485
-0.00042200036 0.0027145692 -0.00826973 0.00010463275 0.004363955 0.0056952136 0.0013008427 0.00052189385
00000000: c0d7 083c ae34 d43b 484b 223b 2c79 7339
00000010: fe46 8dba 3225 1bbb fe4c b83b ac45 1d3a
00000020: 164d 2dba 4864 433c 108f 463b 3025 1e3c
00000030: e108 c1bb 29f8 483b eccb 253b c363 423b
00000040: 045c 7bba b639 1d3b 29b3 a5ba 8978 ceba
00000050: 8c13 fb3b ce2b 853a a2ab 8d3b 6e6a 10ba
00000060: bd29 41ba 5926 4e3c 229c 013c 6380 1b3b
00000070: 4e21 a639 3c27 db3b 0854 9b3b 5de4 d63b
00000080: 6e8e 603c f1f7 443c ca33 a43b c634 233c
00000090: c90c 223b a2bc a93a dd2a 473c 1a12 743c
000000a0: 6bf7 8e3b cfe2 743c 3586 b63a d3c0 eebb
000000b0: 12bc 1b3c 484c 3f3b 49c0 883b eeb5 c43b
000000c0: 62e0 9a3b 6a8a 1b3b 3abf 943b 7c9a e6bb
000000d0: 3fff 8c3c 8abc 90b9 aa39 e138 af25 8e3c
000000e0: 4cb4 203a 8f0b 253c d4a4 eebb f7ae bbba
000000f0: f73d 003c 3de9 523c e1e7 ccbb 7ba5 12bb
00000100: d99b 9f3b e811 1dbc 64bd eabb 22df f5ba
00000110: e216 9fbb 88eb 5039 dcd7 183c 1d4f fa3a
00000120: 44e0 1d3c 5509 a63a 96ad 273c b7a0 cd39
00000130: 53b0 253c 687f 973a 6368 c5bb 91c9 073c
00000140: 3104 7abb 8c9e 533a 2ad7 c33b bb01 8f3b
00000150: a249 ed3b df27 18bb 92d0 d23b d110 453c
00000160: 9cc0 3d3b 24d7 a1bb 2d89 103c 55c4 25bb
00000170: 1fef ce3b 252e 03bb 61a7 8e3b 3fd3 f039
00000180: 9831 113c d340 b1ba f768 1e3c 7915 68bb
00000190: ccc4 b4b9 6844 903a 4062 23b9 0d82 f73b
000001a0: cce6 c83b 5ce1 583c 438b 843b 805c 123c
000001b0: df4d 283b 1132 993b e36f 6f3b 748e f63b
000001c0: 840d fbba 05db 34bb b263 79bb eccf c3ba
000001d0: f2df 3b3c 5a28 a5ba 7a3c 9abb 94f7 93b9
000001e0: ee3f ddb9 eae6 313b c37d 07bc 486e db38
000001f0: 82ff 8e3b ea9e ba3b 0a81 aa3a b4cf 083a

conv_blocks.12.running_mean f4 [128]
-0.5460217 0.15760192 -0.20813014 -0.0628694 0.0043673217 0.1672937 -0.08980561 -0.117035545
-0.31822854 -0.33613068 -0.20230366 -0.27290303 -0.26155844 0.017422164 0.048661273 0.22422998
0.05800932 0.081453405 0.023950938 -0.109914936 -0.03245069 0.021041228 0.21097353 -0.30713442
-0.20703083 -0.36395657 -0.15264016 -0.02539716 -0.28029072 -0.12916702 -0.06713784 0.079923145
-0.05178737 -0.24753502 -0.24930431 0.08670562 -0.39681184 -0.15392366 0.25689778 -0.061049424
0.19984183 0.021213774 0.013646881 -0.18610562 0.030189022 -0.15067469 -0.031025838 0.024702625
-0.16361102 -0.3405029 0.15716228 0.13353585 0.21446337 -0.10325179 -0.026087621 0.022790426
-0.13968666 0.04336844 0.020540258 -0.05779411 -0.2751367 -0.027862646 -0.047663398 0.14650336
0.06476731 0.31502423 -0.20665273 -0.20574985 -0.056738455 0.16434333 -0.04532498 0.04371654
0.124370694 0.06379103 -0.5914115 -0.06397716 0.11744672 0.3979346 -0.040383365 0.033485614
-0.075574756 0.09145873 -0.13254364 0.024707574 -0.08843567 0.174647 0.04909559 0.35580948
-0.14242704 0.22542383 0.13349997 0.1135851 0.18626487 0.19862393 0.009084238 0.1024448
0.31745386 -0.22975273 -0.15063354 -0.020508915 0.02402917 0.052337766 0.23633286 -0.29592732
0.07661785 0.016021663 0.21244979 0.13660127 0.036865976 -0.028557451 0.0273377 -0.11682834
-0.060530074 -0.33761537 -0.03935045 0.20431972 -0.24778882 0.033982635 -0.3381474 -0.03276865
0.03392419 0.023726905 0.022027735 -0.050929986 0.030217508 0.08011074 -0.036991905 -0.0073341206
00000000: 14c8 0bbf 6662 213e 1120 55be acc1 80bd
00000010: c01b 8f3b 0a4f 2b3e 01ec b7bd 55b0 efbd
00000020: daee a2be 5219 acbe b128 4fbe f2b9 8bbe
00000030: fdea 85be edb8 8e3c 0b51 473d 8b9c 653e
00000040: 2e9b 6d3d 0bd1 a63d c234 c43c 151b e1bd
00000050: 04eb 04bd a75e ac3c 7209 583e b940 9dbe
00000060: e4ff 53be 8458 babe b44d 1cbe b40d d0bc
00000070: 4482 8fbe 5c44 04be 907f 89bd bfae a33d
00000080: fe1e 54bd d279 7dbe a149 7fbe b792 b13d
00000090: ec2a cbbe 2a9e 1dbe 1b88 833e f60e 7abd
000000a0: 56a3 4c3e 82c8 ad3c 2b97 5f3c 7992 3ebe
000000b0: f84e f73c 774a 1abe e629 febc 295d ca3c
000000c0: a689 27be 6556 aebe 26ef 203e 9fbd 083e
000000d0: 499c 5b3e ad75 d3bd b5b5 d5bc fdb2 ba3c
000000e0: 050a 0fbe 1ba3 313d 0b44 a83c 84b9 6cbd
000000f0: b8de 8cbe 3440 e4bc b23a 43bd fa04 163e
00000100: b9a4 843d db4a a13e c69c 53be 17b0 52be
00000110: 9566 68bd 9e49 283e b0a6 39bd 1d10 333d
00000120: 10b6 fe3d dfa4 823d be66 17bf 7506 83bd
00000130: e887 f03d 15be cb3e 0769 25bd 3628 093d
00000140: f0c6 9abd b74e bb3d 85b9 07be 8a67 ca3c
00000150: c31d b5bd aad6 323e 7518 493d a92c b63e
00000160: 65d8 11be 81d5 663e 37b4 083e 4e9f e83d
00000170: 38bc 3e3e 1264 4b3e 0ed6 143c 94ce d13d
00000180: 5089 a23e 4d44 6bbe ae3f 1abe 5002 a8bc
00000190: d2d8 c43c 2060 563d 3e01 723e c983 97be
000001a0: d2e9 9c3d dd3f 833c 708c 593e 34e1 0b3e
000001b0: c700 173d 51f1 e9bc 50f3 df3c b243 efbd
000001c0: 62ee 77bd ecdb acbe f02d 21bd 3039 513e
000001d0: 5abc 7dbe 6031 0b3d a821 adbe 6c38 06bd
000001e0: 17f4 0a3d ed5e c23c 8273 b43c f69b 50bd
000001f0: b58a f73c 1a11 a43d d384 17bd 1053 f0bb

conv_blocks.12.running_var f4 [128]
0.27384663 0.30628246 0.23771176 0.19211814 0.23061894 0.2451379 0.22892518 0.25506467
0.2430678 0.22155116 0.26535705 0.24359438 0.22836307 0.2373397 0.23865007 0.19852106
0.23682311 0.23833062 0.22747047 0.20054792 0.19545017 0.24297343 0.2200261 0.25925785
0.2390156 0.30305126 0.27471417 0.21102808 0.23494773 0.21736921 0.28430906 0.24723499
0.21655735 0.27010345 0.24849574 0.22108608 0.29443306 0.23361629 0.23659535 0.21539928
0.28562266 0.21209513 0.23757441 0.23720829 0.2262444 0.23039284 0.24300721 0.22107084
0.23887694 0.2278572 0.19380528 0.28617927 0.2326085 0.19158068 0.23507932 0.24656667
0.19231655 0.21162674 0.23877107 0.2650006 0.26235515 0.25057894 0.23687294 0.2329416
0.2529945 0.20962004 0.21908844 0.20645389 0.21609843 0.21535808 0.24941033 0.19801638
0.23462257 0.20829335 0.26495025 0.27231497 0.22851224 0.21764679 0.25816068 0.2364146
0.26461962 0.23394406 0.22817688 0.24300872 0.23804048 0.20860907 0.24206422 0.24636735
0.25199553 0.22909483 0.21706733 0.24164368 0.2936586 0.21173963 0.21026519 0.20044711
0.1803389 0.23939148 0.27332392 0.2065403 0.21261793 0.21758163 0.2595031 0.21978287
0.2758728 0.29738635 0.23895481 0.2022851 0.22661014 0.19455567 0.22285241 0.2391923
0.22989728 0.2867803 0.21851552 0.21900842 0.26975757 0.2596253 0.24387155 0.2408975
0.20258535 0.25310647 0.228579 0.27807695 0.23545246 0.2608237 0.22225542 0.22849654
00000000: a035 8c3e 0ed1 9c3e b66a 733e 9eba 443e
00000010: 5f27 6c3e 6e05 7b3e 5d6b 6a3e d697 823e
00000020: c4e6 783e 4fde 623e e1dc 873e ce70 793e
00000030: 02d8 693e 2e09 733e af60 743e 1b49 4b3e
00000040: c281 723e f10c 743e 05ee 683e 6f5c 4d3e
00000050: 1724 483e 07ce 783e 864e 613e 72bd 843e
00000060: 81c0 743e 8929 9b3e 56a7 8c3e bf17 583e
00000070: 2396 703e 0996 5e3e f590 913e 2b2b 7d3e
00000080: 36c1 5d3e 004b 8a3e ab75 7e3e 6464 623e
00000090: eebf 963e 1c39 6f3e 0d46 723e a191 5c3e
000000a0: 223d 923e 772f 593e b546 733e bbe6 723e
000000b0: 9dac 673e 1aec 6b3e e2d6 783e 6560 623e
000000c0: 289c 743e 6653 693e e474 463e 1786 923e
000000d0: ec30 6e3e ba2d 443e a2b8 703e f97b 7c3e
000000e0: a1ee 443e aeb4 583e 6780 743e 29ae 873e
000000f0: 6a53 863e e24b 803e d28e 723e 3e88 6e3e
00000100: 7f88 813e a3a6 563e b858 603e a668 533e
00000110: e848 5d3e d486 5c3e 6c65 7f3e cec4 4a3e
00000120: e640 703e da4a 553e 8fa7 873e de6c 8b3e
00000130: 1dff 693e cdde 5e3e a32d 843e ab16 723e
00000140: 397c 873e 088f 6f3e 33a7 693e 47d7 783e
00000150: e2c0 733e 9e9d 553e afdf 773e b947 7c3e
00000160: 8f05 813e d697 6a3e e646 5e3e 7171 773e
00000170: 6c5a 963e 46d2 583e c24f 573e 0242 4d3e
00000180: c3aa 383e 0a23 753e 1df1 8b3e 4d7f 533e
00000190: 84b8 593e b8cd 5e3e 97dd 843e c30e 613e
000001a0: 333f 8d3e 0643 983e 92b0 743e d323 4f3e
000001b0: 7d0c 683e 9a39 473e 6c33 643e d4ee 743e
000001c0: 316a 6b3e ded4 923e 88c2 5f3e be43 603e
000001d0: aa1d 8a3e 9bed 843e 77b9 793e d6ad 763e
000001e0: 8972 4f3e 2c97 813e 9d10 6a3e 1a60 8e3e
000001f0: 731a 713e af8a 853e ed96 633e fffa 693e
