data/gan_output/discriminator_epoch_30.pth (torch, 191742 bytes, 21 tensors)

conv_blocks.0.weight f4 [16, 1, 4]
00000000: cd74 6a3d e163 bc3d 07db 43bd 1944 d43e
00000010: f028 d8ba 2c46 5b3d 125f c6be 7c2c 583d
00000020: 9233 103e 9154 d3be b2ab d93d 316b f4bc
00000030: 0621 e1be 6d48 943e 5483 be3e 40df e3be
00000040: d7f9 cdbe 5b8c ac3d 7e82 b3bd d1f1 8e3e
00000050: 153f c1be 5832 8b3e 4e1d fcbd e278 b93e
00000060: 2503 a53e 74b4 febe 5965 c63e 6273 6b3e
00000070: a1d2 0ebc 704c 5fbe 5ae7 9f3e 91bc f7be
00000080: 2da2 7cbe 1992 b0be efe3 f43d a28b 773e
00000090: 2375 cc3d a850 333e dbb9 e83e 9bd6 ec3d
000000a0: 0a60 6d3e 4c37 a5be 4574 f3be 8b51 a2be
000000b0: f6c9 4bbe 5513 7c3d 9e8c 93be 4d3e ddbd
000000c0: 328e 20be fb75 613e 9b40 d3be d48e fdbe
000000d0: 7945 b03b 8e4b edbd 50a0 abbe 2828 dcbe
000000e0: 0403 15be 6a21 44be 8ea9 e33c 69ce 32be
000000f0: f3c2 713e 94d7 553e 9b87 a0be 649d bbbe
0.057240296 0.09198738 -0.047816303 0.41458204 -0.0016491693 0.053533718 -0.38744408 0.0527768
0.14082173 -0.41275457 0.106284514 -0.02983627 -0.43970507 0.28961506 0.3720957 -0.44506264
-0.40229675 0.08425208 -0.08765124 0.27918866 -0.3774344 0.27186847 -0.12310277 0.3622504
0.32228962 -0.4974705 0.38749197 0.22993234 -0.00871721 -0.21806502 0.31231195 -0.48386052
-0.2467124 -0.34486464 0.119575374 0.2417436 0.099832796 0.17511237 0.45454296 0.1156437
0.23181167 -0.3226875 -0.47549644 -0.31702837 -0.1990126 0.061541874 -0.2881822 -0.108028986
-0.15679243 0.22017662 -0.41260228 -0.49523032 0.0053793755 -0.115866765 -0.33520746 -0.42999387
-0.14551932 -0.19153371 0.02779081 -0.17461552 0.23609523 0.20883018 -0.3135346 -0.36643517

conv_blocks.0.bias f4 [16]
00000000: 9eaf ffbe f985 06be 8556 75be e7fa 753e
00000010: 9f86 153e 2716 463d d394 a9be e717 ea3e
00000020: c44b 713e e7d6 aa3d 3928 1ebe ea36 f5be
00000030: 935a 65bd 87bc c13d 1e5c ad3e 2536 7ebe
-0.49938673 -0.13137044 -0.23958786 0.24021493 0.14602135 0.04836097 -0.33121356 0.4572136
0.23564059 0.083417706 -0.15445031 -0.4789346 -0.05599458 0.09459787 0.33859342 -0.24825342

conv_blocks.3.weight f4 [32, 16, 4]
00000000: 7c13 70bd 4ec6 ce3d 131d af3d a78d c1bd
00000010: 1d0a e1bd 7f0c 343d 1a5a bcbd 30f0 433d
00000020: 29b8 213d 5698 6b3d b833 6d3c 4028 c2bc
00000030: 7657 28bd d79e fdbd b3c0 f83d a090 c4bd
00000040: 1c92 5fbd 5cf2 6d3d 1ab3 f4bd d3c7 8d3d
00000050: 4012 95bd 210b b63c 0957 f23d 20e9 34bd
00000060: 8134 753b 31ea 893d 0444 b6bc dca0 2f3d
00000070: 7d51 ac3d beec f5bd 7bca bbbd 04dc 903d
00000080: 0675 36bd e288 57bb 8c16 3d3d 75b3 cdbd
00000090: d939 62bd 1b8d 463b ff88 533b 4a03 58bc
000000a0: e08f 6fbd cd9e 1abd 852f 033d c47b 5d3d
000000b0: ca67 7bbd 6e8b e2bc 4d6a 26bd db15 2b3d
000000c0: 12a7 ac3d 5313 f93c e87b ce3d f0e9 393d
000000d0: dbf7 c0bd 411b 3fbd 9bcc a83b 080d 18bc
000000e0: 69cb f7bd cb9e a5bd 6f8a eabd 3088 4a3d
000000f0: 7173 90bd 915e 7e3d 77f2 7abd a279 6bbc
00000100: d2d2 9cbd 910a e43d 4835 7639 39a4 ae3d
00000110: dbc7 d2bd 920f 8bbd 53c1 a6bb 26f8 dc3c
00000120: d084 93bd 604c c6bd 3972 e13d fca9 84bd
00000130: 5471 8cbd 80bd 643d 7a93 82bd f40e e33d
00000140: 02a1 563c 0d83 e83d c936 a63c 1b63 7abd
00000150: 052c 6abd 996b 423d 0f41 593d d202 8b3d
00000160: 1f41 69bc 3fcb a9bd 0330 f6bb a810 b8bc
00000170: 79c0 bbbb 3f7a 4f3c a441 49bc e2b0 733d
00000180: 8598 17bd 687a db3d b82c ef3c 0ea8 60bd
00000190: 0869 87bd e4b1 0c3d ab79 c83d d2a3 e9bd
000001a0: 2c4a c1bc 9a34 cebd ed04 72bd 3c31 f4bd
000001b0: 9aaa a4bc f8d0 613d c20b c53d 9223 50bd
000001c0: 8f5f ed3d f8c1 55bd 49b4 c83d 36f2 7c3d
000001d0: 0db7 233c f326 00be f674 1e3d 0f46 8abd
000001e0: 3e8c 833d 430a fcbd cb3a 403d faac 8fbd
000001f0: e91f d03d 509a d53c 7f75 4bbd d91d fb3c
00000200: 33d3 ae3d 4ad8 883c 4bfc 1f3d 2640 eb3b
00000210: 07dc ebba 710f 913a f875 973d 5781 b4bc
00000220: 3acc 32bd 6bce 643d 7399 48bc 828a cbbd
00000230: 6691 88bd fc38 903d 4124 fb3b 8c64 f33d
00000240: ddd4 a5bd 5125 bfbd 0024 e7bd 10a7 f8bd
00000250: 50ea 583b fee9 92bb 4120 ed3d c2b2 003c
00000260: fa31 90bd 82b1 e4bd 3b99 d73d 8eeb b83d
00000270: 3b36 9dbd 2abd 99bd bfcc b13d de13 673d
00000280: c9cf b93d 2b28 fabd 04d1 cb3d 05f6 82bd
00000290: 637a a63d c79e d03d b60e 2e3d c37b f03c
000002a0: 02ce cd3d b75c 853d 1e4f 213d 4d1c d2bc
000002b0: 2b2c 9cbd 85fb a1bd bd99 a93c 769c 453c
000002c0: 6bda f7bd eb06 cebd ba36 a93c b447 0fbb
000002d0: ce80 863d f524 7b3d 5caf ccbd 536d a23d
000002e0: d767 d9bb 6e63 e23c 6cd1 153d bebd 51bd
000002f0: 184a f33d 22bf 6ebd 247e 8c3d 03e8 9fbd
00000300: c674 5fbd 82bf cb3d ecc8 c9bd 255d c93d
00000310: 24a6 a4bd f041 033b d1dd 5f3d 8a98 15bd
00000320: 7e8e a0bd d73f 95bd af78 803c 962e cd3c
00000330: 07f2 b03d 2635 59bd 3209 94bd 81ec 813d
00000340: 75e7 423c 4e48 153c c004 b03d aed3 8d3c
00000350: 8d91 9dbd cd53 003e eb5d bdbc f893 233c
00000360: 03df de3d e16e b2bd cd58 a9bd 0840 f3bd
00000370: a054 f83d c2ee 903d 578d c03d 21e6 a23d
00000380: fba3 a1bd 6305 57bc eef8 a43c ba53 453d
00000390: 169d 48bc afc2 4cbd 9225 de3d 91ea 98bd
000003a0: 7fba a5bd 0354 e7bd b1b6 b13d ddc2 3ebd
000003b0: 4545 d43d 6b1b ef3d 424a f63d ab35 b9bd
000003c0: cf90 b6bd 8613 babc 8cec 88bc e971 b9bd
000003d0: 2145 c03d 11a9 bbbd 2db7 88bd 65ba cbbc
000003e0: c6bd efbd 6721 68bc f21d e03c a93c 74bc
000003f0: 1efb cabd 6491 873d 0ebf c9bd a958 e43c
-0.05861233 0.10096417 0.08550467 -0.09450846 -0.10988257 0.04395723 -0.09196873 0.047836483
0.03948227 0.057518326 0.014477663 -0.023700833 -0.041099034 -0.12383812 0.121461295 -0.095978975
-0.0545827 0.05809246 -0.119482234 0.06922879 -0.072788715 0.022222104 0.11833007 -0.044167638
0.0037415328 0.067341216 -0.02224923 0.042878017 0.0841398 -0.120080456 -0.091694795 0.07073215
-0.044545196 -0.0032887985 0.04616408 -0.10043994 -0.05523095 0.0030296508 0.00322777 -0.013184378
-0.05848682 -0.0377491 0.03202774 0.05407311 -0.061378278 -0.027654376 -0.04062872 0.04176889
0.08430304 0.030404722 0.10082227 0.045389116 -0.09422275 -0.04665685 0.005151344 -0.009280451
-0.12099344 -0.08086928 -0.11452185 0.049446285 -0.07053269 0.062101904 -0.06126639 -0.014372261
-0.07657398 0.11134828 0.00023480237 0.08527417 -0.10292026 -0.06790079 -0.005088964 0.026973795
-0.07203066 -0.09682536 0.11008114 -0.064777344 -0.06857553 0.055844784 -0.06375785 0.110868365
0.013099911 0.11353121 0.020289795 -0.06112967 -0.057170887 0.047465894 0.05304056 0.06787647
-0.0142367175 -0.08290719 -0.0075130477 -0.02246888 -0.0057297316 0.012663423 -0.012283716 0.05949486
-0.03701069 0.107167065 0.029196128 -0.05484777 -0.0661183 0.034349337 0.09788831 -0.11408199
-0.023594938 -0.10068627 -0.05908673 -0.11923453 -0.02010088 0.05513093 0.09621383 -0.050815172
0.11590492 -0.052186936 0.09800012 0.061754428 0.009992373 -0.12514858 0.03868576 -0.06751644
0.064232334 -0.12306645 0.04693107 -0.070154145 0.101623364 0.026074558 -0.0496726 0.03065388
0.08536377 0.016704697 0.039058965 0.007179278 -0.001799465 0.0011067224 0.07395548 -0.02203433
-0.043651797 0.055860918 -0.012243616 -0.09938528 -0.066683576 0.07042119 0.007664234 0.11884412
-0.08097241 -0.093332894 -0.11286163 -0.1214124 0.0033098646 -0.0044834604 0.115784176 0.007855119
-0.07040782 -0.111666694 0.10527273 0.090293035 -0.07676359 -0.07506783 0.0868163 0.05641543
0.09072835 -0.12214693 0.09951976 -0.06394581 0.08128812 0.101865344 0.0424945 0.02935589
0.100490585 0.065118246 0.039382093 -0.02564826 -0.07625612 -0.07909302 0.020703191 0.012061229
-0.12102207 -0.10059913 0.020655978 -0.0021862807 0.06567536 0.06131454 -0.09994385 0.07931008
-0.006634693 0.027635302 0.036576673 -0.051206343 0.11879367 -0.058287747 0.06859997 -0.078079246
-0.054554723 0.099486366 -0.09852776 0.09832219 -0.08039501 0.0020028315 0.0546549 -0.036522426
-0.07839678 -0.07287567 0.015682546 0.025046628 0.08639913 -0.053029202 -0.07228316 0.06343938
0.011896004 0.009111477 0.08594656 0.01731285 -0.07693777 0.12531967 -0.023116073 0.009984009
0.1088238 -0.08712555 -0.082688905 -0.11877447 0.12125516 0.070767894 0.094019584 0.0795405
-0.07892605 -0.013123843 0.02013823 0.04817555 -0.012244483 -0.049990352 0.1084701 -0.07466615
-0.08092212 -0.11295321 0.08677424 -0.046572555 0.103647746 0.116751514 0.12025882 -0.090434395
-0.08914339 -0.022714388 -0.016714357 -0.0905493 0.09388185 -0.09163106 -0.06675563 -0.024869153
-0.11706118 -0.01416812 0.027358029 -0.014907041 -0.09911178 0.06619528 -0.09850894 0.027874308

conv_blocks.3.bias f4 [32]
00000000: 525e 5ebd 8366 1cbd 6faf 0f3d 4cc9 91bc
00000010: 3934 bcbd ba76 c4bc c2d9 a63c 1d35 1abc
00000020: 5b07 853c 6e31 dd3d 7be0 503b 0359 8bbb
00000030: e5c9 1a3c c4cf 193d 691b 5b3d 5c83 403d
00000040: 6cb1 a2bd 8abe a63d 1323 76bd 3247 253d
00000050: 648d 453d d3de d53c 9e0b 503d af57 2e3d
00000060: 9767 f1bd d1cb 9a3d eaa6 af3b c522 e23d
00000070: 4ee8 65bd 6fc8 6ebb 1468 543d 4c08 74bd
-0.05428917 -0.0381837 0.035079416 -0.017796181 -0.09189648 -0.023982394 0.020367507 -0.009412077
0.016238859 0.108004436 0.0031872082 -0.0042525544 0.0094475495 0.037551656 0.053492937 0.047000274
-0.07943997 0.08141811 -0.060092043 0.0403511 0.048230544 0.026107227 0.05079233 0.04256409
-0.11787336 0.07558406 0.005360474 0.11041788 -0.056129746 -0.0036435386 0.05185707 -0.059578225

conv_blocks.4.weight f4 [32]
00000000: ead6 7f3f 4127 803f c11a 803f 24ef 7f3f
00000010: 11f1 7f3f e837 803f 4a1a 803f d03c 803f
00000020: 7480 7f3f 6c03 803f 7822 803f d396 7f3f
00000030: c726 803f f502 803f 5c9f 7f3f 5701 803f
00000040: 1f09 803f 9116 803f a50e 803f 6c0e 803f
00000050: ff8c 7f3f 04ab 7f3f 2ce7 7f3f 2900 803f
00000060: 5099 7f3f eeca 7f3f 84d6 7f3f ea00 803f
00000070: 61ee 7f3f b0b3 7f3f dad2 7f3f 3649 803f
0.9993731 1.0011979 1.0008165 0.99974275 0.99977213 1.0017061 1.0008023 1.0018559
0.9980538 1.0001044 1.0010519 0.99839514 1.0011834 1.0000902 0.9985254 1.0000409
1.0002784 1.0006887 1.0004469 1.0004401 0.9982452 0.99870324 0.99962115 1.0000049
0.9984331 0.9991902 0.999367 1.0000279 0.9997311 0.99883556 0.9993111 1.0022342

conv_blocks.4.bias f4 [32]
00000000: 9b53 ceb9 d719 0f3a f487 d8b9 2c55 9539
00000010: 066f 3db9 91d5 c33a 9613 853a 4666 973a
00000020: 5f2d 9dba 1ab6 41b8 11cb 323a 35a2 dbb9
00000030: f7db 9fb9 202f 55b9 a17e 8fba fdde 7b3a
00000040: 126e 36ba 7756 613a 1c54 a8b9 a4fe 94b9
00000050: bb15 96ba eb1f 44ba 99f9 45b9 e94a 3b3a
00000060: 2abe b3ba 4f84 90ba cdd6 1fba 4e9d b238
00000070: 6aa2 6439 845a 11ba 056b 1e39 fe40 e03a
-0.00039353673 0.00054588675 -0.00041300023 0.00028482953 -0.00018065804 0.0014940967 0.0010152932 0.0011550866
-0.0011991671 -4.618438e-05 0.00068204204 -0.0004189179 -0.0003049073 -0.00020330818 -0.0010947773 0.0009608118
-0.0006959151 0.0008595953 -0.00032106123 -0.00028418482 -0.0011450568 -0.0007481563 -0.00018880366 0.00071446464
-0.001371329 -0.0011025759 -0.00060973765 8.517002e-05 0.00021804278 -0.0005544799 0.00015107922 0.0017109213

conv_blocks.4.running_mean f4 [32]
00000000: c126 86be 6c61 11bd 980f 443d c3cd b93d
00000010: 6a11 103e fd0e a0bc 7260 2fbe 4cc1 483c
00000020: 8e5b 333e a887 803e badf 0abe 3ef7 123e
00000030: ce9d ac3d 7731 e3bd dbc4 b9bd 1bd6 33be
00000040: 8a39 f53d 99d2 d73d 3adf 31ba b1a5 823d
00000050: bfc0 353e a0d9 1ebe 3024 83bd df11 033e
00000060: 80f0 47be f181 a83d 258c 4d3e 8948 52bd
00000070: f84b 963d 5a8b 453e 853a a53b 5e88 0bbc
-0.26201442 -0.0354933 0.047866434 0.09072449 0.14069143 -0.019538397 -0.17126635 0.012253117
0.17515394 0.25103498 -0.13561907 0.14352128 0.08428536 -0.11093419 -0.0907075 -0.17562144
0.11973865 0.10538215 -0.00067852775 0.063792594 0.17749308 -0.15512705 -0.064033866 0.12799786
-0.19525337 0.08227909 0.20072992 -0.051338706 0.07338709 0.1929144 0.0050423765 -0.008516399

conv_blocks.4.running_var f4 [32]
00000000: 3746 de3c a091 ae3c 0a05 cd3c dc02 cd3c
00000010: eaff 993c 356b 3f3d baf1 7e3d fe8d c83c
00000020: f49a bd3c 5b8c 863d 3b03 3a3d 48c3 ad3c
00000030: 9196 993c b4c3 723d cc62 943c df84 863c
00000040: 4965 ae3c 5fd0 973c 0817 e33c 0a56 9a3c
00000050: 604c b73c 106a 5b3d ed08 043d 9753 a73c
00000060: 841f 983c a1e9 8c3c 22e9 d73c 8317 8f3d
00000070: b027 f93c d325 cc3c 10c6 043d d8ef a53c
0.02713309 0.021309674 0.025026817 0.025025778 0.018798787 0.0467331 0.062242247 0.02448177
0.023145176 0.065697394 0.045413237 0.021211281 0.018748553 0.05926867 0.018113516 0.01642078
0.02128853 0.018531976 0.027720943 0.018839855 0.022375286 0.053567946 0.032235075 0.0204256
0.018569715 0.017201247 0.026356284 0.069869064 0.030414432 0.02492038 0.03241545 0.020255968

conv_blocks.7.weight f4 [64, 32, 4]
00000000: ba5d f63b 4ee2 6d3c 7060 bcbb ad8a 683d
00000010: 2527 373d 4045 b8bc 6e94 603d 0193 a13c
00000020: 5cad 4bbd 2f67 46bd e83e 873d e3f1 833d
00000030: b2cf 09bd 6cba 6a3d b5fc b03d 2fb1 7bbd
00000040: f11b 7dbc 6662 2c3d 12b9 bdba 97cd 863d
00000050: 0988 8dbd 92eb 76bd 0a1b 473d 7d06 8c3c
00000060: 668d 48bc 9186 833d 8b40 573d e435 60bd
00000070: 0fae 83bd 4cb0 913d e82b aabc 4388 473d
00000080: 5316 963c dd29 913d f113 b43d 45c2 923d
00000090: d6ae 4fbd 9bf2 0dbd c31b 093c 6d02 923d
000000a0: 18ca 9fbb fb53 893d 4d29 873d b7fb dd3c
000000b0: 808d 173d 4168 c8bc c85f 1abd d76e f13c
000000c0: 1b7f 7b3c d925 f3ba 0d00 e63c 0a42 76bd
000000d0: e1db 133d bcf3 89bd 6f95 993c 3d28 e53a
000000e0: 845d 40bd 990c 16bd 75a1 c7bc 4954 72bd
000000f0: 5037 07bd b461 63bd 1fb6 0abd cf1b 32bd
00000100: 8c72 52bc 85b6 383c 1da7 aa3d 43aa 3b3d
00000110: 9772 cbbc ce39 07bc 5670 9a3d ebdb d73b
00000120: c356 f13c cf14 1d3d c2ba fabc e97e 4bbd
00000130: d1ef 1ebd 1acc ca3b 8adc 513d 6eb4 713d
00000140: efda 6cbd fa98 de3c f91e 123d 17eb 4abc
00000150: 70cc 93bd 7a18 53bb be68 fe3c f587 38bd
00000160: c65c 88bd c344 513d 9a5d a83d 0bcf 7c3c
00000170: 4341 ad3d b8c4 34bd d3d1 843d 3e96 1b3c
00000180: 2bdf 813d 610c 88bc f305 2f3d 3c74 38bd
00000190: 1e0b 8f3d 8750 a03d 45f1 973d 192d 633d
000001a0: 0d05 5e3d ee74 be3b 6a4a 76bc 64c6 a33d
000001b0: 25f4 a8bd fe51 8fbd a0f4 3c3c ee96 41bd
000001c0: 6d9f d63c c2ac 983d 634b 3ebd 11e1 323d
000001d0: 219d 48bd 0225 a3bc 4b61 5ebd ec63 6c3d
000001e0: c65b 1bbd c010 5b3d f269 833c 80a3 6abd
000001f0: 3bc6 9e3d a22b a7ba 8737 a3bd af14 7cbd
00000200: 5de7 183d 48f9 c1bc 2300 fc3c 9c8c 223d
00000210: 56f8 cd3b 9bc2 e73b 84c5 99bc b2f5 5b3d
00000220: 1c54 7a3c 7f6e b33d 9c55 20bd 965a b4bd
00000230: f933 203d 0707 88bd 9c3c 373c 6495 393d
00000240: 34eb b0bd 59cb 863d 05bd a83d 61f7 873d
00000250: dad2 f43c a11f 84bd 70c9 983d 52a0 463d
00000260: 2f4c 903c 3283 1ebd 3ace 83bd 41d0 8fbd
00000270: 8985 9c3d 36f8 6b3d 0dbf edbc 6ce5 efbc
00000280: 6998 82bd 840b a4bd afe3 eb3b 00a0 61bd
00000290: 4fc0 873d 84ef a5bc 70e4 6ebd 87fd 80bd
000002a0: bfcb b3bd 8e33 18bc 8d71 9bbc f480 573d
000002b0: 83e7 053c be7a 43bc 1e94 003c 4e9a 7ebc
000002c0: 506d 613c 74ea 683d 3455 823d 578d 343d
000002d0: d6c2 82bb a28a 113d bf2e a7bd 1d1f 8abd
000002e0: 068d 9d3d 445b a63d fb55 a33d ec6c 99bd
000002f0: 252e a43d c26f 8cbb ec01 b63c 0366 053d
00000300: 26e5 073d d41b a73a 1c19 eebb 8155 edba
00000310: abbc 3e3d b30a eb3c 8ecc 703d e983 bfbc
00000320: 67ab d83c 7623 8e3d 431a 9fbd 3d2a 6ebd
00000330: 77b6 6ebd 00f9 003d 9efe 273d cd2f 233d
00000340: 88b0 0b3d 9eca a4bc 4fc2 9a3d 33ca 80bd
00000350: f225 913d fe2e 903d 0f14 7ebc 4b01 8a3c
00000360: 3568 85bc cfe6 2f3c 1daa 7b3d 9b4a 5e3c
00000370: 96a9 83bd b834 55bd 682a 3e3d e802 bdbb
00000380: ac82 df3b c2d8 a1bd b9e8 ad3d 787a 823d
00000390: f335 abbd 3896 ac3d 3be4 543d 8de6 d03c
000003a0: 3818 633d 63c0 52bd 0d50 09bd 774d 943d
000003b0: e498 0b3c 1819 183c 2949 9a3d 8dab 553c
000003c0: afe2 2bbd 9787 cb3c 0a80 733d 37e2 b33d
000003d0: f5be 4c3d 2dc9 acbd 39e1 23bd bc6e e23a
000003e0: ca42 cfbc 96a6 6f3c 8158 d1bc c098 ddbc
000003f0: 94c8 96bd e2d9 a43d 6be5 59bc 92e2 973d
0.0075184973 0.014519287 -0.005748801 0.056772877 0.044715066 -0.022493958 0.054829054 0.019723417
-0.049725875 -0.048438247 0.06603795 0.064426206 -0.03364534 0.057306692 0.0864195 -0.061448272
-0.015448556 0.042086028 -0.0014474711 0.06582182 -0.06910712 -0.06028325 0.04860977 0.017092938
-0.012240743 0.06422151 0.052551787 -0.054738894 -0.064296834 0.07113704 -0.02077289 0.048713934
0.018321192 0.07088063 0.08792866 0.0716596 -0.050703846 -0.034655195 0.008368435 0.07129369
-0.0048763864 0.06705471 0.065996744 0.027097566 0.03700018 -0.024463775 -0.037689 0.029471798
0.0153501285 -0.0018550708 0.028076196 -0.060121574 0.036098365 -0.06735942 0.018748013 0.0017483305
-0.046964183 -0.036633108 -0.02436898 -0.05916241 -0.033011734 -0.0555131 -0.03386509 -0.04348355
-0.012844693 0.011273985 0.083326556 0.04581667 -0.024834914 -0.008253528 0.07540958 0.0065874956
0.029460317 0.038349923 -0.030606631 -0.049681578 -0.038802925 0.0061888816 0.051235713 0.05900996
-0.05782598 0.027172554 0.03567407 -0.012385151 -0.07216728 -0.0032210634 0.031055804 -0.045051534
-0.0665832 0.051090967 0.08220978 0.015430222 0.08459713 -0.044132918 0.06485333 0.00949627
0.06341394 -0.016607465 0.042730283 -0.045032725 0.06984542 0.07827859 0.074190654 0.05546293
0.054204036 0.005812279 -0.01503239 0.079968244 -0.08249692 -0.06998061 0.0115329325 -0.04726308
0.026199067 0.07454826 -0.046458613 0.04367167 -0.048977975 -0.019915108 -0.054292005 0.05771248
-0.03792932 0.05348277 0.01604173 -0.057284832 0.07752653 -0.0012754092 -0.079695754 -0.061543163
0.03733002 -0.023678437 0.030761784 0.039684877 0.0062857075 0.0070727593 -0.01877094 0.05370111
0.015278842 0.0876131 -0.039144143 -0.088063404 0.039112065 -0.06641965 0.011183884 0.045308486
-0.086386114 0.06581754 0.082391776 0.06638981 0.029885698 -0.06451345 0.07460296 0.048492737
0.017614452 -0.038699336 -0.06435819 -0.07022143 0.07642657 0.05760976 -0.029021764 -0.029284202
-0.06376726 -0.08010009 0.007198773 -0.05508423 0.06628477 -0.020255812 -0.058323324 -0.062983565
-0.08779096 -0.009289635 -0.018975044 0.052613214 0.0081728725 -0.0119311195 0.007847814 -0.015539719
0.013758972 0.056864217 0.063639075 0.044080105 -0.0039905114 0.0355326 -0.08163213 -0.06744216
0.07692914 0.08122876 0.07975384 -0.07491478 0.08016614 -0.0042857835 0.022217713 0.03256799
0.033177517 0.0012749382 -0.007266177 -0.0018107147 0.046566647 0.028691625 0.05878883 -0.02337833
0.026448919 0.069403574 -0.07768681 -0.05814575 -0.05827948 0.031487465 0.041014306 0.03984051
0.0341039 -0.020116147 0.07556593 -0.062885664 0.070873156 0.07040213 -0.015507712 0.01684632
-0.016285041 0.010736181 0.06144153 0.013567592 -0.0642883 -0.05205223 0.04642716 -0.0057681687
0.006820997 -0.079026714 0.08491654 0.06371015 -0.08359899 0.084270895 0.05197547 0.02550056
0.05544302 -0.051453006 -0.033523608 0.07241338 0.008520339 0.009283327 0.075334854 0.013041389
-0.04196423 0.024844928 0.05944828 0.087833814 0.0499868 -0.08436809 -0.04000971 0.0017275433
-0.025300402 0.0146271195 -0.025554897 -0.027050376 -0.07362476 0.0804937 -0.013299326 0.07416262

conv_blocks.7.bias f4 [64]
00000000: 7c73 8b3c 60a2 73bd 814b 8cba ecf6 f7bc
00000010: 8e6f 3cbd 2b08 8ebc e7b9 5bbd 1bce c93b
00000020: bfa4 cf3c ae0c 5dbd 5e4b 9a3d 6592 83bc
00000030: d4b7 32bd 55e3 53bb 5202 773d e4eb 1abd
00000040: 7784 1ebd 7e60 c93b 91f3 ac3d e2bf b2bd
00000050: 1b35 87bd dedb 92bc 38e1 23bd 4b06 47bd
00000060: ea57 b43c 5f6b 5abd e3d9 a7bd 722d 733d
00000070: f4e4 483d 989d 8e3d 0f80 aebd cb24 f7bc
00000080: 5121 983d 3958 a2bc a2f4 a33d bdcd 2abd
00000090: 753b 2b3d c9cd 743d 57b7 f0bc f723 43bd
000000a0: f667 b03d 389a 5cbd edf3 2abd 890a aebd
000000b0: 189c 30bd 9f6f 43bd c00e 9bbd 3796 4b3d
000000c0: e4b6 79bd 61bd 35bd 54a0 9d3c 1de6 1dbd
000000d0: 6bce a23c e2b4 973d 403a 41bd 908b 1abc
000000e0: 47d0 8abc 1ee9 86bd b20f 0ebd bb9d 5c3d
000000f0: 25c6 b03d 308d 47bc 779c a8bd 8554 9cbd
0.01702284 -0.059481025 -0.0010703654 -0.030269109 -0.046004824 -0.01733788 -0.053644087 0.006158603
0.025347112 -0.05396717 0.075339064 -0.016061017 -0.043632343 -0.0032331545 0.060304947 -0.03782262
-0.038700547 0.006145536 0.08444894 -0.08728005 -0.06601926 -0.017927106 -0.040009707 -0.048589986
0.022014577 -0.053325053 -0.081958555 0.059369512 0.04904647 0.06963652 -0.08520519 -0.030168911
0.074282296 -0.019817458 0.080056444 -0.041700114 0.04180475 0.059766565 -0.029384298 -0.04764172
0.08613579 -0.053858012 -0.041736532 -0.08498103 -0.043117613 -0.047713872 -0.07571173 0.049703803
-0.060965434 -0.04437006 0.01924149 -0.03854953 0.019873818 0.074075475 -0.047174692 -0.009432688
-0.016945018 -0.06587432 -0.034682937 0.05386136 0.08631543 -0.012179658 -0.08232968 -0.07633308

conv_blocks.8.weight f4 [64]
00000000: c114 803f eb1b 803f a8cc 7f3f 1c1c 803f
00000010: d334 803f 120b 803f b90b 803f f791 7f3f
00000020: a45a 7f3f 383f 803f 0a2e 803f 47e8 7f3f
00000030: 2b2d 803f 62ce 7f3f 100d 803f f22e 803f
00000040: 2f0b 803f 7123 803f 47f8 7f3f ae99 7f3f
00000050: 9e1d 803f 6745 803f 62a5 7f3f 3da5 7f3f
00000060: 0630 803f 8bc5 7f3f 013c 803f 2abb 7f3f
00000070: 7a4e 803f a310 803f 25bf 7f3f 6286 7f3f
00000080: 0d06 803f ceac 7f3f 3487 7f3f 8416 803f
00000090: 9a9c 7f3f 4ea0 7f3f 25e4 7f3f 9982 7f3f
000000a0: c436 803f 9188 7f3f fdf4 7f3f d238 803f
000000b0: 0026 803f 122e 803f ef5e 7f3f f41c 803f
000000c0: a77e 7f3f ab04 803f db26 803f 2211 803f
000000d0: ca95 7f3f 5554 803f b5c6 7f3f 553b 803f
000000e0: 638a 7f3f 21f8 7f3f 742a 803f 87a9 7f3f
000000f0: bf14 803f 0cba 7f3f 9ce3 7f3f 7e95 7f3f
1.0006334 1.000852 0.99921656 1.0008578 1.0016121 1.0003378 1.0003577 0.998321
0.9974768 1.0019293 1.001405 0.999638 1.0013784 0.9992429 1.0003986 1.0014327
1.0003413 1.0010816 0.99988216 0.9984387 1.0009038 1.002118 0.9986173 0.9986151
1.0014656 0.999108 1.0018312 0.99894965 1.0023949 1.0005077 0.9990104 0.99814427
1.0001847 0.99873054 0.9981568 1.0006871 0.9984833 0.9985398 0.99957496 0.9980865
1.0016713 0.9981776 0.999832 1.001734 1.0011597 1.001406 0.9975423 1.0008836
0.9980263 1.0001425 1.0011858 1.0005229 0.99837935 1.0025736 0.9991258 1.0018107
0.99820536 0.9998799 1.0012956 0.99868053 1.0006331 0.9989326 0.9995668 0.9983748

conv_blocks.8.bias f4 [64]
00000000: 5996 983a daf4 1a3a 558d e3b9 2a8e 753a
00000010: beb9 503a 1fb5 c0b9 dcce 5c3a 25a0 84ba
00000020: 9458 edb8 c12d 4e3a 5b0f c63a 413b 9138
00000030: 4670 d238 f608 b13a 0e21 e7b9 5d65 b23a
00000040: 87e7 3e3a 467a 4fb9 f040 043a 9217 89ba
00000050: 93c0 963a 9447 d539 4a60 ddba 03ea 8cba
00000060: 00a7 b53a 8c7f 89b7 8edc a93a 7f0b 03ba
00000070: a170 0c3b 1f44 b2ba c689 a238 0471 36b9
00000080: e89b 7bba c101 a4ba 2160 4aba 3d7c 5c3a
00000090: f283 2038 e553 ffb9 07a1 01ba b068 31ba
000000a0: f0d2 aa3a 0741 9eba 9e7f 1fba f8e0 39ba
000000b0: fb3f 8c3a c53c 8c3a c4e8 c9ba efe0 083a
000000c0: 6aab 4dba 2b36 0dba 6588 f439 36e9 743a
000000d0: 128c 2dba 988c ca3a 3893 0cba e199 1239
000000e0: c4ac c9ba 8ce0 4637 154d f23a 4444 d6ba
000000f0: feb7 023a e6fb b239 15fb 8dba 20d9 a6ba
0.0011641487 0.00059111195 -0.00043402115 0.00093671924 0.0007962248 -0.0003675604 0.00084231584 -0.0010118528
-0.000113175396 0.0007865094 0.0015110777 6.925176e-05 0.00010034493 0.0013506699 -0.0004408438 0.0013610531
0.0007282425 -0.00019786609 0.0005045077 -0.0010459295 0.0011501483 0.00040679856 -0.0016889658 -0.0010750893
0.0013858974 -1.6391066e-05 0.0012959407 -0.00049989665 0.0021429437 -0.0013600624 7.750424e-05 -0.00017398974
-0.0009598122 -0.001251273 -0.0007720013 0.0008410847 3.8269856e-05 -0.00048699896 -0.00049449544 -0.0006767614
0.0013032835 -0.0012073823 -0.0006084385 -0.0007090713 0.001070022 0.0010699263 -0.0015404453 0.0005221506
-0.0007845672 -0.0005386795 0.00046640928 0.00093426125 -0.00066202984 0.0015453277 -0.00053625135 0.0001398097
-0.0015386571 1.1854001e-05 0.0018486107 -0.0016347249 0.00049865234 0.00034138485 -0.0010832275 -0.0012729503

conv_blocks.8.running_mean f4 [64]
00000000: 91c8 a13e 2127 693e 465b ff3d 84ff 1d3e
00000010: 6850 8e3b 3aec 18bd 3791 2c3d 43ae 5cbe
00000020: 75f6 d9bd 11d8 8abe 3e05 a0bd f2cd da3d
00000030: 03e9 d6bd bd42 1cbd 3539 5e3e 2604 a9bd
00000040: 4389 a63e adb8 ab3d bb8d 63bd dea3 823e
00000050: e940 c6be 7e39 b93d 6ddd 0dbe dd40 bcbd
00000060: 2a42 8fbc 1f08 50be 5f38 29be 5f06 003f
00000070: 6e89 3e3d 7988 3dbe 9828 99be 9466 9ebd
00000080: 70da 6f3e d770 ef3d d471 6b3e 87e8 be3d
00000090: 7116 863e e70a 413d 7a32 75bd ee09 dd3c
000000a0: 9927 46be 3350 9b3e 0ce3 23bd 0640 cbbc
000000b0: d42a a63d 9152 54be b360 8c3c 5608 05be
000000c0: 1888 6bbb 056d 47be 0f60 803e 0e1b 57bd
000000d0: 0c56 9a3e 43ee 033e a5df 473d bd30 fc3d
000000e0: aef2 063e 0ec3 a93c b3f7 b5be 765c 013e
000000f0: 33b0 03bd 36e6 413e 2985 93bd 9156 43be
0.31598333 0.22768833 0.12468581 0.15429503 0.0043430813 -0.03733466 0.042130675 -0.2155085
-0.10642711 -0.2711797 -0.078135 0.10683812 -0.10493662 -0.038149584 0.2170151 -0.082527444
0.32526597 0.083848335 -0.055555087 0.25515646 -0.38721398 0.09044169 -0.13853998 -0.09192059
-0.017487604 -0.20315598 -0.1652541 0.5000972 0.046517782 -0.18509091 -0.29913783 -0.07734409
0.23423171 0.11691444 0.2299264 0.09321695 0.26188996 0.047129538 -0.05986259 0.026982274
-0.19351043 0.30334625 -0.04001145 -0.024810802 0.081136376 -0.20734622 0.017135954 -0.12991461
-0.0035939272 -0.19475181 0.25073287 -0.052516036 0.30143774 0.12883858 0.04879727 0.123139836
0.13178512 0.020722892 -0.35540542 0.12632927 -0.03215046 0.18935475 -0.07203133 -0.19075991

conv_blocks.8.running_var f4 [64]
00000000: eef4 6b3e 0de8 5a3e ee04 893e e86a 783e
00000010: 6400 513e 5a19 853e 432f 3b3e 4799 cc3e
00000020: 9456 673e 7a60 643e ea95 1f3e 9b21 583e
00000030: 0055 3f3e 6b2a 743e cc90 473e 4022 4f3e
00000040: 8268 6c3e 6514 883e d43c 703e 26e0 713e
00000050: 056f 493e 4cee 4d3e 6659 323e 075a 723e
00000060: cee5 553e da81 4c3e 113b 523e b3c7 6d3e
00000070: 2d24 843e 1c99 503e 1b5c 893e ac7e 583e
00000080: 6590 5c3e ac72 583e c785 223e 8bc5 5b3e
00000090: 19ee 5d3e 1e4c 433e e049 533e 0ec3 2f3e
000000a0: 0cbe 553e b362 473e 1675 563e 3f48 643e
000000b0: f72e 543e 29ef 573e 8156 483e f801 273e
000000c0: 4fe5 353e b1d4 393e b492 243e 3858 3b3e
000000d0: 3195 4e3e 3dbb 543e 53e9 433e 83d0 323e
000000e0: d653 633e 700f 5b3e ead8 5c3e d453 603e
000000f0: afbb 2b3e 580a 433e d3f8 633e a525 5d3e
0.23042652 0.21377583 0.26761574 0.24259531 0.20410305 0.25995904 0.18279748 0.3996069
0.2259162 0.22302428 0.15584531 0.2110657 0.18684769 0.23844306 0.1948883 0.20227909
0.23086742 0.2657806 0.23460704 0.23620662 0.19671257 0.20110434 0.17416915 0.23667155
0.20888445 0.1997141 0.20530345 0.2322071 0.2580885 0.20370907 0.26828083 0.21142071
0.21539457 0.21137494 0.15871345 0.21462075 0.21672858 0.19072005 0.2063365 0.17164251
0.20873278 0.19471245 0.20943102 0.22293185 0.2072104 0.21087326 0.19564249 0.16309345
0.17763256 0.18147542 0.16071588 0.18295372 0.201741 0.2077455 0.19131975 0.17462353
0.2219995 0.21392608 0.21567121 0.21906978 0.16770814 0.19046915 0.22262888 0.21596391

conv_blocks.11.weight f4 [128, 64, 4]
00000000: d56b 72bd 7e26 acbc 8ecd 30bc 8092 d5bc
00000010: 52df 5abd fc53 9d3c 3784 013c 7379 2e3c
00000020: 8567 373d da3a 1d3d e3bd 8cbc fc9c 3d3d
00000030: eda1 133d 9023 72bd 343a 26bd 2e8c 08bd
00000040: 07a1 62bd 84ea d63c 9ce1 42bc 7eb4 6dbd
00000050: 0ccd 503d 71d8 f93c d19c 0e3d 7212 24bc
00000060: 861d 93bc f22d e6ba 7357 80bd f64c 7ebc
00000070: e855 32bc b99b 503d f8bd 0f3d 57b7 2c3d
00000080: f47a 503c 9456 02bc c381 5fb9 85a6 2d3d
00000090: 9a8e 50bc 5ff5 0cbd ced9 5dbd 7478 59bd
000000a0: 56d2 8dbb 00b6 debc 5497 753d bf43 463d
000000b0: 3e12 423c 1cb1 fcb9 d211 8d39 a2af 8ebb
000000c0: 6f11 d53c c2cc 5cbd fdda b93c 3c6a 3cbc
000000d0: 606e 5c3c 4ac3 ecbb 238d 36bd e96c a5bc
000000e0: f015 d3bc e2a7 01bd f4bc d2bc 84c4 4b3d
000000f0: 0de7 533d 62fb 343d 6286 48bd 7310 7cbd
00000100: 0f8b 393d 5ffd 6fbd 2cec fa3c 0c1b de3c
00000110: bbb5 203c a598 bbbc feb5 57bd 76d2 c2bc
00000120: 4b44 03bd 01d6 4dbc 3ab1 81bd e97a d8bc
00000130: 46f5 b63c 49b9 52bd 9b83 a13c 14ea 16bd
00000140: bec0 2abd 627d 363d 36a3 93bc 9b5f 4cbd
00000150: 59e0 15bc bfe1 38bd a12e 29bb 9e0b 16bd
00000160: 05f4 52bd 9cc2 6f3d 489e dd37 1943 863c
00000170: 4bd8 6e3d 662e 563c c27f df3c 8c78 03bb
00000180: 1c07 253d eceb db3b 7b9d bdbc a306 33bd
00000190: 9b55 eebc 8028 43bd 9853 e1bb 7756 fe3c
000001a0: 57f6 25bd 3111 163d 36e4 29bd b473 bf3c
000001b0: 282c 77bd 7299 273d a797 513c f7c3 47bd
000001c0: c61f 5cbc 5135 3c3d eb0f f2bc 16f6 22bd
000001d0: 7ea7 61bd 1957 9f3c f7f8 66bc 99c5 adbb
000001e0: e5f6 f7bc 8b9f d93c 0c01 de3a b8e6 3bbd
000001f0: 109e 04bd 3094 73bd fd3f 223c d940 9b3c
00000200: c44e 383d 8fc4 c2bc d8b9 2abd c22a 74bd
00000210: 3b49 cf3c f0e9 6abd dcf1 cfbc 32b7 20bd
00000220: fb98 d33b b6ae 59bd c561 aa3c 5f0f 4bbd
00000230: 3969 d9bc 0eb3 093d 4800 3ebd 4ace 0bbd
00000240: 714b 7d3c c77c cb3c cad8 023d 7628 0abd
00000250: 393b 33bd cb41 c3bc 2f4f e0bb 729d 4abd
00000260: 7a43 193d 7015 163d 594b 153d ea43 833c
00000270: 1156 66bd f11f 57bd 6247 cfbc 7fd1 2cbd
00000280: 331a 243d eb18 443d 3f72 3c3c aab7 0e3d
00000290: 432c 0a3d ecae 4abd 55a0 683c 0a7f 293d
000002a0: 05df 67bd bde5 52bd 34a2 dc3c a33e 08bc
000002b0: 8c20 b1bc 3f08 67bc 5f07 66bd 4428 45bd
000002c0: 2b64 3ebc 2db8 0b3d 32b7 6abd fdc7 3bbd
000002d0: c3af 6cbd e488 683c 54b1 04bd a476 0d3d
000002e0: d66c 1a3d 6405 6bbd 09e4 f5bc 3a2c 51bd
000002f0: 306d c4bc 619e 25bd 6e3b fcbc e986 b6bb
00000300: 924f 94bb 478b 5a3c 6e1d 37bd 0863 ff3c
00000310: 3e38 68bd 6428 153d cee2 f0bc ae6a 66bd
00000320: 833f 303d fda1 2dbd c616 923c eaeb e8bc
00000330: bda7 783d 2539 cf3c 85bf eb3c 3a93 36bd
00000340: a11c 333d 01b6 eebc 43c0 fdbc a17d 67bc
00000350: e860 07bd a43c 62bd cd2e 9a3c 7368 fe3c
00000360: 4837 123d b53d 763c d1bc 75bd 3818 2d3c
00000370: c511 003b d0e2 f13a 2d47 e7ba 429d 5dbb
00000380: d033 c33b 9687 0bbd 2a92 a43c 4149 863c
00000390: d5c9 353d a1a0 17bd 7393 2dbd 77ef 3f3d
000003a0: 9a05 a6bb 32ed 20bd 3e3e 1cbd 8a50 573d
000003b0: 612d f9bb 08d2 5fbd 7ad2 b2bb a636 a3bc
000003c0: 11d3 9e3b daad 9abb 9f3f 3f3d 5441 3ebd
000003d0: e744 543d d6ba 2c3d a48c 143d df82 b93a
000003e0: 58fe 34bd 5880 3bbd 5670 c5bc 2126 183d
000003f0: c0dd 0c3c 8f3a 0b3d dfe6 063d e096 bebc
-0.059184868 -0.021014448 -0.010791196 -0.026070833 -0.05343563 0.019205086 0.007905058 0.010649073
0.04477646 0.038386203 -0.017180389 0.04629229 0.036043096 -0.059115946 -0.04058285 -0.03333681
-0.05532935 0.026234873 -0.01189461 -0.05803346 0.050976798 0.030498715 0.03481752 -0.010014163
-0.017958414 -0.00175613 -0.062666796 -0.015521279 -0.010884739 0.05092976 0.035093278 0.042167034
0.012724627 -0.007955212 -0.00021315277 0.042395134 -0.012729311 -0.03441369 -0.054162793 -0.05309339
-0.0043280525 -0.027186394 0.05995877 0.04840445 0.01184517 -0.00048197142 0.00026906893 -0.004354433
0.02600929 -0.05390621 0.02268743 -0.011499938 0.01345405 -0.0072254287 -0.044568192 -0.020193534
-0.025767297 -0.031654246 -0.025724865 0.04974796 0.05173402 0.04418505 -0.048956282 -0.061539125
0.045298632 -0.058591243 0.030630194 0.027112506 0.009808953 -0.022899935 -0.052663796 -0.023781996
-0.03204755 -0.01256323 -0.063326314 -0.026425796 0.022333752 -0.051446233 0.019716075 -0.036844328
-0.04168772 0.044553168 -0.018022161 -0.049895864 -0.009147727 -0.045137163 -0.0025815147 -0.036632173
-0.051502246 0.058535203 2.6418958e-05 0.016389417 0.05831174 0.013072586 0.0272826 -0.0020060865
0.040289983 0.0067114737 -0.023146382 -0.0437075 -0.029093554 -0.047646046 -0.00687642 0.031047089
-0.04051813 0.03663749 -0.041477405 0.023370601 -0.060344845 0.04091782 0.012792504 -0.04877087
-0.01343531 0.045949284 -0.029548606 -0.039785467 -0.055091374 0.019450711 -0.014097444 -0.0053030965
-0.030269096 0.026565334 0.0016937568 -0.045874327 -0.032377303 -0.059467494 0.009902951 0.01895182
0.04499699 -0.023775367 -0.04168114 -0.05961109 0.025303474 -0.057352006 -0.025383882 -0.03923721
0.0064574457 -0.053145133 0.020798573 -0.049575206 -0.026539432 0.033618025 -0.046386987 -0.03413228
0.015459881 0.024839772 0.031945027 -0.033729993 -0.04375765 -0.023835083 -0.006845377 -0.049466558
0.037417866 0.03664154 0.03644881 0.016023595 -0.056234423 -0.052520696 -0.025302593 -0.04219198
0.040064048 0.047875326 0.011501848 0.034843124 0.033733618 -0.049483225 0.014198382 0.04138092
-0.056609172 -0.051488627 0.026932813 -0.008315715 -0.021621965 -0.014101087 -0.056159373 -0.048134103
-0.011620562 0.03411119 -0.057303615 -0.04584502 -0.057784807 0.0141927935 -0.032395676 0.034536973
0.03770145 -0.057378188 -0.030015962 -0.05106757 -0.023977846 -0.040434245 -0.030790057 -0.0055702818
-0.004526087 0.01333887 -0.0447058 0.031175151 -0.05669426 0.036415473 -0.029405024 -0.05625408
0.04302932 -0.042390812 0.017833125 -0.028432805 0.060706843 0.025295803 0.028777847 -0.044574
0.043728475 -0.02913952 -0.030975467 -0.014129073 -0.0330514 -0.055233613 0.018821144 0.031055665
0.03569725 0.015029361 -0.059994522 0.010564856 0.0019541841 0.0018454436 -0.0017645113 -0.0033815657
0.0059571043 -0.03406485 0.020089228 0.016392352 0.044381935 -0.037018422 -0.042376947 0.04685923
-0.0050665857 -0.039288707 -0.038145296 0.052567042 -0.0076042865 -0.05464366 -0.0054572197 -0.01992352
0.0048469384 -0.0047204318 0.046691533 -0.04644902 0.051823523 0.042170368 0.036266938 0.0014153383
-0.044187874 -0.045776695 -0.024101418 0.037145738 0.008597791 0.033991393 0.03293502 -0.023265302

conv_blocks.11.bias f4 [128]
00000000: b451 9bbc acbb 323d 2d8d 87ba 9253 2dba
00000010: 909a 36b9 ccb6 07bd 02d3 713c 739e 73bd
00000020: f46a fdbb d50e 53bb 6c0b 583c 2fb9 00bd
00000030: 3073 79bd de83 753d dd25 16bd 0a27 f9bc
00000040: 35a4 1f3d 87c1 d0bb e34d 1fbd 88cd 2fbd
00000050: 0b31 6bbd 7364 433b a457 743b 41e5 523d
00000060: 9325 7dbd 4270 d73c 304f 1d3b a6bd 57bd
00000070: 45f8 833b 8aa7 02bd 55ec 823c 71e0 e13c
00000080: 92ce 663d 5b6e 9ebc c39f 723d 2185 7c3c
00000090: 56b1 963c 6dc5 69bd 8fcf 60bd 709f b9bc
000000a0: 387b 733d 81c1 083d 0786 613d fa59 6ebd
000000b0: 4865 833b 7140 69bd c7f0 733d b13d 2e3d
000000c0: c548 0c3d 9f5a ffbc ce7b 0ebd f4a0 1bbd
000000d0: a540 5c3d 634e 0ebd abb1 f53c 0fc5 083d
000000e0: 3dd3 9abc 6f7c 643d 171b 49bd 039c 04bd
000000f0: b6ab 9d3c 3234 503c 4506 d5bc 0c75 a8bc
00000100: 8c1f 283a 1667 083d a8f3 483d 3ba1 723d
00000110: d982 5a3d 08fb 85bc 78d8 c33c 2154 55bb
00000120: 7e80 71bd 417b 3ebd 2360 5ebd b94c 623d
00000130: 83b7 0cbc 41d5 463d 5f85 e93b bf19 653d
00000140: e933 073d a943 263d d025 693d 6b8c d53b
00000150: f7f3 4dbd b235 b73c 625a 713d 5dd4 073d
00000160: fefd 00bb 48c3 4f3d 921a 78bd 8869 9b3c
00000170: f0d0 7a3d 7057 d7bc 8505 bfbc 7ac0 a63c
00000180: 9108 113d 62ed 7cbd 0bfe 1a3d 563b 3f3d
00000190: 36db fcbc 03b7 133d fa7f 6abd 46c8 3bbc
000001a0: d251 4cbd b8f2 e3bc 07c3 f63c de3f 4b3d
000001b0: ea85 2f3d d042 033d b4ea 00bd 5ecb 003c
000001c0: 3957 1f3d 987b 763d 25fa 0bbd b743 3ebd
000001d0: f385 0dbd d805 063d 3308 79bd e012 163d
000001e0: 4531 8b3c b935 6c3d ecc2 463d 98b5 7c3c
000001f0: ebff 083d 37f5 68bc d828 edbc c1ed cdbc
-0.018959858 0.04363601 -0.0010341756 -0.0006611879 -0.00017414452 -0.033133313 0.014759781 -0.05947728
-0.007733697 -0.0032204886 0.013186317 -0.031426605 -0.060900867 0.05994021 -0.036657203 -0.030414123
0.03897496 -0.0063707265 -0.038892638 -0.04292062 -0.057419818 0.002981451 0.0037283683 0.051488165
-0.06180341 0.026298646 0.0024003498 -0.052671097 0.004027399 -0.03189806 0.015981833 0.027572842
0.056349345 -0.019339731 0.059234392 0.0154126 0.018395107 -0.057073046 -0.054885443 -0.022659034
0.059443682 0.033387665 0.05505946 -0.058191277 0.0040098764 -0.05694622 0.059555795 0.042539302
0.034249086 -0.031171141 -0.034786038 -0.037995294 0.053772587 -0.034742724 0.029991945 0.033391055
-0.018899554 0.05578273 -0.0490981 -0.032375347 0.019246917 0.012707757 -0.026003966 -0.020563625
0.0006413392 0.033301435 0.049060494 0.059235793 0.053347442 -0.016355053 0.023906931 -0.0032551365
-0.05896043 -0.046504263 -0.054290902 0.05524895 -0.0085886745 0.04854322 0.007126495 0.055932757
0.03300849 0.04059187 0.056920826 0.0065169833 -0.05028149 0.022364471 0.058924086 0.03316151
-0.001968264 0.050723344 -0.060572214 0.01897122 0.061234415 -0.02628681 -0.023318062 0.020355452
0.03540856 -0.061749823 0.03783993 0.046687447 -0.030866247 0.036063205 -0.057250954 -0.011461323
-0.049882717 -0.027825698 0.030122293 0.049621455 0.04285232 0.03204614 -0.03147383 0.0078609865
0.03890154 0.060176462 -0.034174103 -0.046451297 -0.034551572 0.032720417 -0.060798835 0.036639094
0.016991267 0.05766842 0.048525736 0.015424155 0.033447187 -0.01421862 -0.02895014 -0.025137784

conv_blocks.12.weight f4 [128]
00000000: 1672 7f3f db08 803f 8607 803f c17f 7f3f
00000010: 6116 803f 7d74 7f3f 801a 803f 1133 803f
00000020: 2ba3 7f3f cb0c 803f 7801 803f 59a1 7f3f
00000030: 17b1 7f3f 65f2 7f3f 69b3 7f3f 6290 7f3f
00000040: d902 803f 8921 803f bf49 803f 8665 7f3f
00000050: e28c 7f3f f972 7f3f 8c38 803f 4611 803f
00000060: cc02 803f fe83 7f3f 979e 7f3f fe69 7f3f
00000070: 4f41 803f b35a 803f bed0 7f3f 04d2 7f3f
00000080: f754 803f 8fb6 7f3f c9e8 7f3f 4b3f 803f
00000090: e246 803f 771e 803f 8a4d 803f 2652 803f
000000a0: a031 803f a410 803f 7bbb 7f3f d83e 803f
000000b0: c098 7f3f d89d 7f3f 08e2 7f3f a60b 803f
000000c0: 9776 7f3f 95a0 7f3f d047 803f 2e7a 7f3f
000000d0: b514 803f 110b 803f 4b94 7f3f 5d1e 803f
000000e0: ce59 803f 3236 803f b2a6 7f3f 7527 803f
000000f0: b9b6 7f3f 28cf 7f3f 650c 803f 3f48 803f
00000100: d548 803f 2e08 803f ec91 7f3f d68a 7f3f
00000110: d537 803f dd85 7f3f e636 803f e4ff 7f3f
00000120: 0623 803f 0c14 803f b0c0 7f3f e139 803f
00000130: a925 803f 3654 803f a894 7f3f 214c 803f
00000140: 857b 7f3f 730e 803f abc2 7f3f 7807 803f
00000150: ff11 803f f21d 803f 6d4c 803f a957 803f
00000160: f063 7f3f e07c 7f3f 6197 7f3f 7d9e 7f3f
00000170: d29b 7f3f c3a2 7f3f acb9 7f3f 0efe 7f3f
00000180: 321f 803f 52f8 7f3f fb29 803f d9cd 7f3f
00000190: 8df9 7f3f 47ff 7f3f 5def 7f3f 9b4b 803f
000001a0: fa3e 803f 0ca5 7f3f 9619 803f 8030 803f
000001b0: 718f 7f3f 4a47 803f 2737 803f 0a93 7f3f
000001c0: 4f80 7f3f 3344 803f cd93 7f3f 35d3 7f3f
000001d0: ae74 7f3f 90a8 7f3f 1acb 7f3f 9128 803f
000001e0: 472b 803f 7d04 803f 7a45 803f cf60 803f
000001f0: 6221 803f 3c44 803f 6b28 803f e014 803f
0.99783456 1.0002702 1.0002296 0.9980431 1.000683 0.9978712 1.0008087 1.0015584
0.9985835 1.0003904 1.0000448 0.9985557 0.9987959 0.9997924 0.99883133 0.99829686
1.0000869 1.0010234 1.0022506 0.9976429 0.99824345 0.9978481 1.0017257 1.0005271
1.0000854 0.9981078 0.99851364 0.99771106 1.0019931 1.0027679 0.9992789 0.99929833
1.0025929 0.9988794 0.99964577 1.0019315 1.0021632 1.0009297 1.0023663 1.002507
1.0015144 1.0005078 0.9989545 1.0019178 0.99842453 0.99850225 0.9995427 1.0003555
0.9979033 0.99854404 1.0021915 0.99795806 1.0006319 1.0003377 0.9983565 1.0009266
1.0027406 1.0016539 0.9986373 1.0012041 0.9988819 0.9992547 1.0003783 1.0022048
1.0022227 1.0002496 0.99832034 0.9982122 1.0017039 0.99813634 1.0016754 0.99999833
1.0010688 1.0006118 0.9990339 1.0017663 1.0011493 1.0025699 0.99836206 1.0023233
0.9979785 1.000441 0.99906415 1.0002279 1.0005492 1.0009139 1.0023323 1.0026752
0.9976187 0.9979992 0.9984036 0.9985121 0.9984714 0.9985773 0.9989269 0.9999703
1.000952 0.9998828 1.0012811 0.99923474 0.9999016 0.999989 0.99974614 1.0023073
1.0019219 0.99861217 1.0007808 1.0014801 0.9982825 1.0021756 1.0016831 0.9983374
0.9980516 1.0020813 0.998349 0.9993165 0.99787414 0.9986658 0.99919283 1.001238
1.0013207 1.000137 1.0021203 1.0029544 1.0010188 1.0020823 1.0012335 1.000637

conv_blocks.12.bias f4 [128]
00000000: 5e2d 4f3a f4f0 85b9 379d 66ba 6f61 293a
00000010: 241d 6c3a 0029 d4ba 8fd5 3bba fa54 783a
00000020: 511b e5ba fe11 65b9 82ab cab9 9d0e 9cb9
00000030: f467 15ba 27bb 6dba e87c afba 5a3e f3ba
00000040: 3601 63ba b157 90b9 194b 953a 29b1 0dbb
00000050: 04a7 f6b9 09c9 60ba b0b7 bd3a 7be1 a5ba
00000060: 66b6 bd39 6f11 aa3a 47bb 0dba 934a afba
00000070: af2b 88b8 3bab 0e3a 5e07 9f39 d9ca da3a
00000080: 34c6 dc3a e6a7 e73a 8c8f 983a 5b80 b539
00000090: 2a17 9f3a b945 cfb9 86a2 10b9 e691 e33a
000000a0: 41d2 523a a7b5 873a d59b 8eba 08e2 5a38
000000b0: 216d 10ba b4de d5b8 8951 6bba 3146 09b8
000000c0: 4666 e139 a05c ad3a cf16 e33a ad48 efb9
000000d0: 8e7a 003b a19c 2cba da0b 72ba a6ae ff3a
000000e0: b797 1c39 2bc6 623a 108a 0fbb 5275 80ba
000000f0: fa42 a739 abc8 40ba b54c b9b9 4929 803a
00000100: 18c8 c83a b229 9eba f96d b6ba 4891 89ba
00000110: d695 813a aaca d3b9 b2dc cc39 2e7c 9a3a
00000120: 3064 7e3a ce42 b4ba 2f90 e33a 8706 c03a
00000130: 9a22 3a39 82ea 143b 8e8e 93ba 2877 b238
00000140: 5f61 12bb b722 223a 9ddc 5bba 2829 4c3a
00000150: 02e9 793a 6306 93ba 28c1 4a3a aa58 173b
00000160: 7de6 023a 16b6 3d38 8817 8dba 2441 ffba
00000170: a5ad 8fb7 c51e 25ba 8fd4 d73a b84f 383a
00000180: b812 d63a d664 83ba 9b6f be3a 1c8b c4ba
00000190: 1627 18ba 7c53 a038 db7a 4b39 9206 083b
000001a0: a4c1 d039 500b b637 0327 5eba db75 b83a
000001b0: 6e66 0fba 92a2 21ba c90d bd3a 768e 5e39
000001c0: 23da afba a0c1 5bba dc6b 92b9 7029 2338
000001d0: 705f e3ba 8055 2f3a ee39 c3ba 953e de39
000001e0: ee74 8739 2e41 263a f794 8eba 10ea 9a3a
000001f0: 5ec5 ac3a ad46 003b c996 c73a 4a9a 92b9
0.00079031836 -0.0002554726 -0.00087972305 0.0006461357 0.0009007028 -0.0016186535 -0.00071653066 0.0009473112
-0.0017479454 -0.00021845844 -0.00038656226 -0.00029765526 -0.0005699389 -0.00090687204 -0.0013388665 -0.0018558011
-0.0008659543 -0.00027531156 0.0011390179 -0.0021620488 -0.00047045213 -0.00085748784 0.0014474299 -0.0012655699
0.00036184787 0.0012975166 -0.00054066296 -0.0013373665 -6.493122e-05 0.00054423854 0.00030332332 0.0016692533
0.0016843737 0.0017673939 0.001163946 0.00034618643 0.0012137641 -0.00039534064 -0.00013793455 0.0017362207
0.00080421945 0.0010353819 -0.0010880182 5.218576e-05 -0.00055094255 -0.00010198113 -0.0008976688 -3.2728716e-05
0.00042991544 0.0013226457 0.0017325523 -0.0004563978 0.0019604298 -0.0006584619 -0.00092333334 0.0019507005
0.00014933838 0.0008650745 -0.002190236 -0.0009800589 0.00031902624 -0.00073541206 -0.000353431 0.0009777929
0.0015318422 -0.001206687 -0.0013918272 -0.0010495568 0.0009886574 -0.00040396053 0.00039074343 0.0011786276
0.000970426 -0.001375282 0.0017361696 0.0014650383 0.00017751232 0.0022722785 -0.0011257695 8.509896e-05
-0.002233587 0.00061849825 -0.0008387061 0.0007788115 0.0009533317 -0.0011217113 0.0007734471 0.002309362
0.0004993452 4.5230692e-05 -0.0010764459 -0.001947437 -1.7127788e-05 -0.00062988355 0.0016466546 0.0007030922
0.0016332483 -0.0010024558 0.0014529111 -0.0014995071 -0.0005804164 7.644945e-05 0.00019405356 0.002075587
0.00039817125 2.1701358e-05 -0.0008474441 0.001407321 -0.00054702803 -0.00061658875 0.0014423664 0.0002122464
-0.001341645 -0.00083830394 -0.00027927652 3.890082e-05 -0.0017347168 0.00066884607 -0.0014894584 0.00042389767
0.00025836326 0.000634211 -0.0010878135 0.0011819024 0.0013181379 0.0019573376 0.0015227433 -0.00027962244

conv_blocks.12.running_mean f4 [128]
00000000: cfd4 0dbf 4282 0b3e fc7e 3cbe 2f7f 50be
00000010: 3020 4abd 7376 5d3e 4dad f7bd ec25 e73c
00000020: f4c8 4ebe 8427 25be 0552 f8bd 562d 61be
00000030: b6d6 b9be 926b 253e f591 e2bb cac2 8f3e
00000040: c992 893c 2338 a33d c3c5 0d3d 442f a5be
00000050: e09b 91bd 6139 b6bd bb08 cf3d 40b2 dfbd
00000060: 0fb2 04bd 0a35 1bbe 9fc7 9fbd ba25 b8bd
00000070: 147e 1abe 94ee 79bc a54f bcbd eecd ea3c
00000080: 5613 62bd 792c 9cbd 950a 3f3b b813 a43d
00000090: 1ec0 5bbe 0145 7dbd 2c6e 693e 2765 ebbb
000000a0: 9fce 8f3e 4f52 1d3d 9383 c9bd f282 a7be
000000b0: f64f 1e3d dbb0 30bd 2b56 debd 519f 5ebc
000000c0: fbf2 06bd e816 a3be c08d 003e 552d c93c
000000d0: 6485 473e b38b 03be 17a2 56bd 2e70 b83d
000000e0: 3d9e 3fbe 6111 9c3d 815d f83d 8039 ffbd
000000f0: 6c48 1cbe 4791 5bbb 58a6 6d3d a55b 813e
00000100: aa25 983d f6e9 913e 1d20 8abe 75de 41be
00000110: 3372 08bc a90f 233e 5535 ebbc 4b44 153e
00000120: c46f 183e 5fba f83c 4d4e debe df67 883d
00000130: f0f1 aa3d 10b2 bb3e d2d9 2c3d d272 3cbc
00000140: 8ceb a2bd 8d6f c73c d5b3 61be f51e a9bd
00000150: 1090 363d 7073 613d 1be2 0e3e ca96 bf3e
00000160: f318 02be f4de 3d3e 1e48 f63d db17 c83d
00000170: 7e25 863e 0c5e ff3d 3802 483d 3d53 663d
00000180: c5f7 af3e 8c6e 29be 6bc4 c63c a013 34be
00000190: 3859 f1bd 1867 84bc 12a6 763e 25ab febd
000001a0: f830 e63c 73a3 543c 7038 2a3e ac12 fd3d
000001b0: ebc1 1b3e d583 29be 3224 07bd f7a7 443d
000001c0: fae7 54bd 6c52 58be 417c 833b 8f94 013e
000001d0: 28c8 293c 860f 17be 5820 c8be 8361 f83c
000001e0: 5348 563c 8648 ebbc 8a1e 26be 66aa 8c3d
000001f0: a791 b7bd 6df3 3e3d 80d1 1e3d 522d 17bd
-0.55402845 0.13623908 -0.18407816 -0.20361017 -0.049347103 0.21627216 -0.120936014 0.028216325
-0.20193845 -0.16128355 -0.12125019 -0.2198995 -0.36296624 0.16154316 -0.006914372 0.280783
0.016793625 0.079696916 0.03461243 -0.32262623 -0.07109809 -0.08897663 0.10109087 -0.1092267
-0.032396372 -0.15156952 -0.078017466 -0.08991571 -0.15087157 -0.015254635 -0.091948785 0.028662648
-0.05519422 -0.0762567 0.0029150594 0.080115736 -0.21460006 -0.061833385 0.22795933 -0.007183689
0.28087327 0.038408574 -0.09839549 -0.3271709 0.038650475 -0.043137413 -0.10856279 -0.013587789
-0.032946568 -0.31853414 0.12554073 0.024557749 0.19484478 -0.1284626 -0.052400675 0.090057716
-0.18712707 0.07620502 0.121272095 -0.12462139 -0.15262002 -0.003350334 0.058019966 0.25265232
0.07429059 0.2849881 -0.26977625 -0.18932517 -0.008328008 0.15923943 -0.028711954 0.14576833
0.14886385 0.030362306 -0.43419114 0.06660437 0.08346927 0.36659288 0.042199917 -0.011501985
-0.07955083 0.024345184 -0.22041257 -0.08257858 0.044570982 0.05504173 0.1395344 0.3741973
-0.1270483 0.18542081 0.12025474 0.09770175 0.2620048 0.1246911 0.04883024 0.056231726
0.3436872 -0.16546077 0.024263581 -0.17585611 -0.11784595 -0.01616244 0.24086788 -0.12434987
0.028099522 0.012978422 0.16623092 0.12357077 0.15210693 -0.16554196 -0.032993503 0.048011746
-0.051979043 -0.21125191 0.004012615 0.12654327 0.010362662 -0.14752015 -0.39087176 0.030319935
0.013078767 -0.028721105 -0.16222587 0.068684384 -0.08963328 0.046618868 0.038774014 -0.036908455

conv_blocks.12.running_var f4 [128]
00000000: 7406 a63e b973 893e 2125 673e 6cd4 4b3e
00000010: 5a15 583e e097 7f3e 1c6b 5b3e 58dd 5e3e
00000020: 0f8d 5d3e 1727 5a3e 2526 8c3e 9c9c 4f3e
00000030: 6478 563e afe8 503e 6e7a 4a3e 0479 783e
00000040: 29fd 553e db70 673e db91 5c3e 34a6 693e
00000050: fe2e 473e aa8f 5f3e a1ed 483e 981b 803e
00000060: 281e 433e 5631 803e 699c 8a3e e609 5a3e
00000070: dc6a 7a3e 56ac 483e 6da4 773e 32b3 5d3e
00000080: fc89 4e3e 8c15 6a3e 3d6c 5b3e 950d 423e
00000090: b20e 7b3e 770a 583e fe0c 593e 500d 513e
000000a0: 4239 6d3e 9e37 4e3e 3067 503e 7e89 743e
000000b0: 8389 543e 53a1 373e 29fd 653e 01c7 553e
000000c0: 2308 613e 3ae0 6b3e e9d2 3c3e 7664 6f3e
000000d0: 3c8e 463e 7ca0 483e 75f4 583e be31 863e
000000e0: 7515 4c3e 05b5 493e acc0 7d3e e725 703e
000000f0: 3379 8c3e fe23 5b3e 6183 793e dd35 6f3e
00000100: d35e 803e c0e0 5c3e cfc7 803e 2880 433e
00000110: 21cf 613e 0b20 593e e749 773e a5a0 3b3e
00000120: 3790 5b3e 4e1a 653e 4319 6d3e 420f 6f3e
00000130: efd8 603e a3e1 6f3e e90f 643e 20cc 5c3e
00000140: dd74 813e 3333 5d3e 7bb3 5c3e 9a3a 6f3e
00000150: 5c01 5c3e 8414 4d3e d605 7c3e 1ac7 7c3e
00000160: 440b 663e 17ae 643e 3a61 513e 6657 543e
00000170: 14c7 673e 5269 513e 189d 503e ccd6 4a3e
00000180: 2140 303e 56c9 6f3e db6e 6c3e 5c80 563e
00000190: bdeb 6b3e 754b 4a3e 6734 813e 2962 383e
000001a0: 7953 793e 3e59 8b3e b5c0 763e e6d9 3f3e
000001b0: 6872 673e 3f54 313e 6526 683e 9e67 693e
000001c0: 0f93 5d3e 9644 743e 0c26 533e 1976 573e
000001d0: 5b6b 663e c704 723e db45 953e 009e 5d3e
000001e0: 3fd1 433e 2cfc 603e 7137 833e 47ae 833e
000001f0: b4c1 673e 7fe7 6e3e 5874 503e b597 5d3e
0.32426798 0.26846102 0.22572757 0.19905251 0.21101895 0.2496028 0.21427578 0.21764123
0.21635841 0.21303974 0.27372852 0.20274585 0.20944363 0.20401262 0.19773266 0.24264914
0.20897354 0.22601645 0.21540014 0.22817308 0.1945152 0.21832147 0.19621898 0.25021052
0.19054472 0.2503764 0.27072456 0.21292838 0.24454826 0.19596991 0.24183817 0.21650389
0.20169824 0.22859782 0.21428008 0.18950494 0.24517325 0.21097742 0.21196362 0.20415235
0.23166373 0.20138404 0.20351863 0.23880574 0.20755582 0.17932634 0.22459854 0.20876695
0.2197576 0.23034754 0.18439831 0.23378167 0.19390196 0.1959247 0.21187003 0.26209825
0.1993006 0.1969796 0.2478053 0.23451959 0.27436218 0.21400449 0.24366523 0.23360391
0.25072345 0.2157011 0.25152442 0.19091856 0.2205167 0.2120363 0.24149285 0.18323
0.21441732 0.22373316 0.23154168 0.23345664 0.21957754 0.23425917 0.22271694 0.21562243
0.25284472 0.21601562 0.21552841 0.23362198 0.21484894 0.20027357 0.24611601 0.24685326
0.22465235 0.22332035 0.20447245 0.20736465 0.22634536 0.20450333 0.20372427 0.19808501
0.17211963 0.23416647 0.23089163 0.20947403 0.23039146 0.19755347 0.25235292 0.18006195
0.24348249 0.27216524 0.2409695 0.18735465 0.22602236 0.17317294 0.22670896 0.22793433
0.2163813 0.23854288 0.20619982 0.21041144 0.2250189 0.23634635 0.29154858 0.21642303
0.1912279 0.21971196 0.25628236 0.257189 0.22632486 0.23330496 0.20356882 0.21639903
