data/gan_output/discriminator_epoch_20.pth (torch, 191742 bytes, 21 tensors)

conv_blocks.0.weight f4 [16, 1, 4]
000000 2b 7a 6a 3d 98 32 bc 3d c2 79 45 bd 06 3e d4 3e
       0.057245415 0.091893375 -0.04821182 0.4145357
000010 ac e7 db ba 1e f1 5a 3d 68 4e c6 be a8 29 57 3d
       -0.0016777418 0.053452604 -0.38731694 0.05252996
000020 b3 75 10 3e 59 20 d3 be a3 53 da 3d 29 88 f1 bc
       0.14107399 -0.41235617 0.10660484 -0.029483872
000030 97 73 e1 be c1 f1 93 3e cc a6 be 3e d1 38 e4 be
       -0.440335 0.2889538 0.3723663 -0.44574597
000040 b2 9b cd be 89 c4 ad 3d 7c aa b1 bd 05 6c 8f 3e
       -0.4015785 0.08484752 -0.086750954 0.280121
000050 cc 48 c1 be a0 31 8b 3e e4 4e fc bd 3b 79 b9 3e
       -0.37750852 0.27186298 -0.12319735 0.36225304
000060 90 d7 a4 3e bb c7 fe be f5 6b c6 3e 9f 19 6b 3e
       0.3219571 -0.49761757 0.3875424 0.22958992
000070 92 5d 0c bc d2 cf 5f be 81 2e a0 3e 62 ed f7 be
       -0.008567231 -0.21856621 0.3128548 -0.48423296
000080 97 b9 7c be 3d 78 b0 be 45 c2 f5 3d 62 3c 77 3e
       -0.24680172 -0.34466735 0.119999446 0.24144128
000090 ec 16 cd 3d 03 cd 33 3e 76 05 e9 3e 45 e9 ed 3d
       0.100141376 0.17558675 0.4551198 0.11616758
0000a0 e2 60 6d 3e aa 2c a5 be 8a 5e f3 be ee 47 a2 be
       0.23181489 -0.32260638 -0.47533065 -0.31695503
0000b0 7c c0 4b be 1f 08 7c 3d c5 76 93 be f6 f4 dc bd
       -0.19897646 0.061531182 -0.2880155 -0.1078891
0000c0 9f d5 20 be f3 e1 60 3e dc 6b d3 be 4a be fd be
       -0.1570649 0.21961193 -0.41293228 -0.49559242
0000d0 f0 0a b8 3b f4 8e ec bd e2 79 ab be 8d 4f dc be
       0.005616538 -0.11550704 -0.33491427 -0.43029442
0000e0 13 8e 14 be 9b 29 44 be 22 b5 e7 3c b6 0f 33 be
       -0.14507322 -0.19156496 0.028284613 -0.17486462
0000f0 ff cd 71 3e 51 fb 55 3e 1b 87 a0 be 7f da bb be
       0.23613738 0.20896651 -0.31353077 -0.36690137

conv_blocks.0.bias f4 [16]
000000 80 a2 ff be 5d 09 07 be 1a 6c 75 be aa 07 76 3e
       -0.49928665 -0.13187166 -0.23967019 0.24026361
000010 08 a6 14 3e ae b1 48 3d ee c7 a9 be 4c cb e9 3e
       0.14516461 0.048997574 -0.33160347 0.45662916
000020 1d 94 70 3e e7 0d ab 3d 99 41 1e be 5b 50 f5 be
       0.23494 0.08352261 -0.15454711 -0.4791287
000030 44 a1 65 bd c2 b9 c1 3d ca 07 ad 3e 15 9e 7d be
       -0.056061998 0.094592586 0.33795005 -0.24767335

conv_blocks.3.weight f4 [32, 16, 4]
000000 30 76 72 bd 90 34 ce 3d bb 85 ae 3d 15 4a c2 bd
       -0.059194744 0.10068619 0.08521601 -0.09486786
000010 9c 1c e0 bd de 29 35 3d d8 c7 bc bd 40 64 43 3d
       -0.10942957 0.04422938 -0.09217805 0.047703028
000020 29 a2 23 3d 9c d0 6b 3d a2 34 66 3c ef 14 bf bc
       0.03994957 0.057571992 0.014050635 -0.023325412
000030 0b be 29 bd a7 da fd bd 99 bd fa 3d bd e4 c3 bd
       -0.041441005 -0.1239522 0.12243194 -0.09565113
000040 3c 50 5f bd db 00 70 3d 57 07 f3 bd 72 e8 8c 3d
       -0.054519877 0.058594566 -0.11866634 0.06880273
000050 13 9c 96 bd 7b 47 b8 3c 0a 77 f3 3d 11 64 37 bd
       -0.073539875 0.022495022 0.11887939 -0.044773165
000060 67 a7 53 3b fa bd 88 3d eb 9f b9 bc a5 75 2d 3d
       0.0032295824 0.0667686 -0.022659263 0.042348523
000070 9d c1 ad 3d ca 51 f6 bd 46 02 ba bd 17 80 91 3d
       0.084841944 -0.12027319 -0.09082465 0.07104509
000080 d7 d8 34 bd fa f2 29 bb 70 cb 3d 3d c7 e3 cc bd
       -0.044152107 -0.0025932179 0.04633659 -0.100043826
000090 1b f0 64 bd b9 8e 18 3b 7f 3d 46 3b be 85 5f bc
       -0.055893045 0.0023278429 0.0030249057 -0.0136427265
0000a0 a2 7a 6d bd 1d 86 19 bd 1f ed 01 3d dc 78 5e 3d
       -0.05797828 -0.037481416 0.031720277 0.05431448
0000b0 0e 5d 79 bd b7 46 df bc 8c 16 25 bd 92 08 29 3d
       -0.06087976 -0.0272554 -0.040304706 0.04126794
0000c0 d9 31 ad 3d 0f 06 f9 3c 22 7f ce 3d af c4 39 3d
       0.08456773 0.030398397 0.100828424 0.045353588
0000d0 83 5e c0 bd 6f 13 3f bd 81 80 a1 3b 77 d9 19 bc
       -0.09393027 -0.046649393 0.004928649 -0.009390227
0000e0 1d 26 f6 bd e1 a6 a5 bd c0 2b ea bd e0 8c 49 3d
       -0.12018988 -0.0808847 -0.11434126 0.049206614
0000f0 ff c5 90 bd ea 8d 7d 3d b0 e7 7b bd 29 be 6d bc
       -0.07069015 0.061902918 -0.06150025 -0.01451067
000100 6f d7 9b bd d4 2f e5 3d 44 9e 5b 3a 24 87 ae 3d
       -0.0760945 0.11190763 0.00083777704 0.0852187
000110 b2 fe d1 bd a1 44 89 bd 51 cb 93 bb 7e 57 e2 3c
       -0.102536574 -0.06702543 -0.004510321 0.02762961
000120 f7 11 93 bd 60 f8 c4 bd a4 8a e1 3d 4f c4 83 bd
       -0.07181161 -0.09617686 0.11012772 -0.06433927
000130 65 51 8c bd 7f fc 5f 3d 38 1c 81 bd 89 f2 e3 3d
       -0.06851462 0.05468416 -0.063042104 0.11130244
000140 d9 24 3f 3c 42 df e8 3d 95 3f ac 3c 3a a5 79 bd
       0.0116665 0.11370708 0.021026412 -0.060948588
000150 e1 ee 6c bd 9b a7 41 3d da a0 5c 3d fb 51 8a 3d
       -0.057845 0.04727898 0.053864338 0.06753918
000160 0d bb 5f bc 41 47 a9 bd fa 1f f8 bb 28 57 b9 bc
       -0.013655436 -0.08265544 -0.0075721713 -0.022624567
000170 ac 12 9a bb 5b 47 52 3c b2 35 51 bc 17 30 75 3d
       -0.004701933 0.012834395 -0.01276915 0.059860315
000180 eb 6d 19 bd 6e 16 dc 3d 1a 72 f2 3c af 33 5f bd
       -0.03745834 0.107464656 0.029595423 -0.05449265
000190 c2 97 86 bd 54 bf 0c 3d 88 11 c9 3d 2b 58 ea bd
       -0.06571914 0.034362152 0.09817797 -0.11442598
0001a0 f4 0b bc bc 0c 69 cc bd f2 1d 70 bd b6 92 f2 bd
       -0.022954918 -0.099809736 -0.058622308 -0.11844389
0001b0 c0 86 9f bc e2 d5 64 3d 14 4c c6 3d 13 11 4d bd
       -0.019473433 0.055868037 0.096824795 -0.05006511
0001c0 e7 a2 ee 3d 5d c1 52 bd d6 71 ca 3d fc c7 7f 3d
       0.11652165 -0.051453937 0.09884994 0.06244658
0001d0 6c 95 2e 3c 71 aa fe bd bf 36 21 3d 86 87 89 bd
       0.010655742 -0.12434853 0.03935885 -0.06715302
0001e0 26 0b 84 3d 2a 83 fb bd a9 50 41 3d d6 fa 8e bd
       0.06447439 -0.12280877 0.047196064 -0.06981437
0001f0 68 16 d1 3d ad 84 db 3c 86 ae 49 bd 82 12 00 3d
       0.10209352 0.026796663 -0.049238704 0.03126765
000200 8e 89 ad 3d 02 29 86 3c d6 af 1f 3d c2 88 f9 3b
       0.08473502 0.016376976 0.03898605 0.0076151798
000210 9f 10 9b ba ef e6 e5 3a af 70 98 3d 2d c9 af bc
       -0.0011830515 0.0017540137 0.07443368 -0.021458233
000220 51 4b 31 bd 3c 1e 65 3d 0e 98 48 bc fd 61 ca bd
       -0.043284718 0.055937037 -0.012243284 -0.09881971
000230 69 bc 89 bd 38 9f 90 3d 0b 50 09 3c 0d 3a f4 3d
       -0.067253895 0.070616186 0.0083809 0.11925135
000240 ba 04 a6 bd de 60 bd bd 4d 71 e5 bd 5f 23 f9 bd
       -0.0810637 -0.092469916 -0.11203251 -0.121649496
000250 9b a4 48 3b fc 1f 60 bb f0 98 ed 3d 54 4a 00 3c
       0.003061569 -0.0034198752 0.11601436 0.007830221
000260 a2 78 91 bd 37 07 e6 bd 94 3a d6 3d d8 45 b9 3d
       -0.07103087 -0.11231845 0.10460392 0.09046525
000270 11 e9 9c bd 94 22 99 bd 36 a9 b2 3d 8b 11 6a 3d
       -0.076616414 -0.074772984 0.08723681 0.057145637
000280 3d 8a b7 3d b2 92 f8 bd 2b f7 cc 3d ba 44 83 bd
       0.08961914 -0.12137355 0.10008081 -0.06409593
000290 05 db a4 3d f2 25 cf 3d 00 18 2d 3d d1 23 f0 3c
       0.08049587 0.10114659 0.042259216 0.029313954
0002a0 c8 4d cf 3d 67 56 86 3d 69 ed 22 3d a5 ad ce bc
       0.101222575 0.06559449 0.039777193 -0.025229285
0002b0 c9 08 9b bd 4f 8d a1 bd 43 a3 ab 3c 62 c5 45 3c
       -0.07570035 -0.078882806 0.020951873 0.0120709855
0002c0 25 e1 f6 bd 92 e0 cc bd 77 b8 ac 3c 32 9f d4 ba
       -0.12054662 -0.10003771 0.021084053 -0.001622176
0002d0 4a b0 87 3d 8a 73 7d 3d 47 64 cc bd 64 e4 a3 3d
       0.06625421 0.061877765 -0.09980064 0.080025464
0002e0 dc c2 cf bb 98 16 ea 3c 62 5b 16 3d e5 4f 51 bd
       -0.0063403677 0.028575227 0.036708243 -0.051101584
0002f0 2c eb f4 3d b6 bb 6f bd 27 61 8c 3d 1d 21 9f bd
       0.11958918 -0.058528624 0.06854468 -0.07769988
000300 8c c6 5e bd be f0 cc 3d 67 d8 c9 bd 8f 34 c9 3d
       -0.054388568 0.100068554 -0.098557286 0.09824478
000310 60 66 a4 bd 0c 5b 10 3b 55 d6 61 3d b4 5b 13 bd
       -0.08027339 0.0022026924 0.055136044 -0.035976127
000320 f7 a6 a0 bd b8 e8 93 bd f5 11 83 3c c9 48 ca 3c
       -0.07844346 -0.07222122 0.015999774 0.02469291
000330 e0 99 b1 3d dd 78 5a bd 5c 34 95 bd 77 0a 83 3d
       0.086719275 -0.05333792 -0.072853774 0.063984804
000340 45 3a 48 3c 56 cb 10 3c 75 31 b0 3d 05 ef 93 3c
       0.012220924 0.008837542 0.08603183 0.01805831
000350 26 e9 9d bd cf cb ff 3d 81 40 bc bc be 4b 32 3c
       -0.07710485 0.12490045 -0.022979977 0.010882316
000360 86 f5 de 3d e7 4d b2 bd 7c 65 a8 bd 83 83 f3 bd
       0.10886674 -0.08706265 -0.082224816 -0.11890318
000370 e1 95 f8 3d 0b 65 91 3d 24 41 c0 3d 59 e6 a2 3d
       0.12137962 0.070993505 0.093874246 0.079540916
000380 e9 ac a1 bd ee 3a 58 bc 24 09 a6 3c 3a 65 46 3d
       -0.07894308 -0.013197644 0.02026803 0.04843638
000390 67 81 44 bc c2 76 4c bd c3 9e dd 3d 00 f5 98 bd
       -0.011993743 -0.049917944 0.10821297 -0.07468605
0003a0 b7 2f a5 bd 6a a1 e6 bd e9 33 b2 3d 73 fa 3d bd
       -0.080657415 -0.11261256 0.08701307 -0.046381425
0003b0 9f c3 d4 3d 91 25 ef 3d a9 61 f7 3d 22 bb b8 bd
       0.10388874 0.11677087 0.12079174 -0.09020068
0003c0 cc 35 b6 bd c4 a7 b9 bc f0 6a 87 bc 17 e6 b8 bd
       -0.0889698 -0.022663005 -0.016530484 -0.09028261
0003d0 63 10 c1 3d b4 33 bb bd 5a 25 88 bd 2e 2c ca bc
       0.09426954 -0.09140721 -0.06647749 -0.02467927
0003e0 7b e3 ee bd bd fd 66 bc c8 0f df 3c 5a 93 6f bc
       -0.11664482 -0.014098582 0.027229205 -0.014622534
0003f0 bb e8 ca bd fd a6 87 3d 2a fc c8 bd db 96 e1 3c
       -0.09907671 0.06623647 -0.098137215 0.027537754

conv_blocks.3.bias f4 [32]
000000 ac 4a 5e bd 6c 3f 1c bd c1 23 10 3d 16 1b 91 bc
       -0.05427043 -0.03814642 0.035190348 -0.01771311
000010 a0 8d bb bd da 73 c7 bc 6e 81 a4 3c c7 19 1b bc
       -0.09157872 -0.024347235 0.020081248 -0.009466595
000020 5e d4 84 3c 6a da dc 3d 79 6f 5b 3b 1e f8 88 bb
       0.016214546 0.10783847 0.003348319 -0.0041799685
000030 42 e6 16 3c 10 c4 18 3d 9c fc 5a 3d 11 5b 40 3d
       0.009210171 0.037296355 0.053463563 0.046961848
000040 61 4c a2 bd 1d d5 a5 3d 56 1c 77 bd d8 a5 25 3d
       -0.07924724 0.08097289 -0.060329758 0.040441364
000050 1b 01 45 3d 4b b0 d2 3c 44 e7 4f 3d ac a7 2f 3d
       0.048096757 0.025718829 0.05075766 0.042884514
000060 73 01 f1 bd b8 34 9a 3d 1c 1d af 3b 46 ca e2 3d
       -0.117678545 0.075295866 0.0053440463 0.11073737
000070 a4 8c 65 bd 3a 87 50 bb d3 42 54 3d c0 28 75 bd
       -0.05604233 -0.0031818883 0.05182154 -0.059853315

conv_blocks.4.weight f4 [32]
000000 d6 f3 7f 3f 43 20 80 3f e4 0a 80 3f ae fc 7f 3f
       0.9998144 1.0009845 1.0003324 0.99994934
000010 51 00 80 3f 74 1e 80 3f 2b 1b 80 3f 6c 36 80 3f
       1.0000097 1.0009294 1.0008291 1.0016608
000020 0d ad 7f 3f f0 eb 7f 3f c0 1c 80 3f 5e ca 7f 3f
       0.9987343 0.9996939 1.0008774 0.9991816
000030 4d 1f 80 3f 93 fb 7f 3f 6b ba 7f 3f 52 12 80 3f
       1.0009552 0.99993247 0.99893826 1.0005591
000040 79 01 80 3f fe 0f 80 3f 04 00 80 3f a5 f7 7f 3f
       1.000045 1.000488 1.0000005 0.9998725
000050 49 bd 7f 3f 54 c0 7f 3f c4 d0 7f 3f 85 03 80 3f
       0.998982 0.99902844 0.99927926 1.0001074
000060 b9 b3 7f 3f 81 ec 7f 3f 68 ef 7f 3f 76 f9 7f 3f
       0.9988361 0.9997025 0.9997468 0.9999002
000070 5e f1 7f 3f b2 c8 7f 3f 36 cb 7f 3f 1c 2d 80 3f
       0.9997767 0.9991561 0.9991945 1.0013766

conv_blocks.4.bias f4 [32]
000000 74 7c 97 b9 32 25 ae 39 a6 ac fb b9 2c 79 fa 39
       -0.0002889369 0.0003321558 -0.00048003084 0.00047773996
000010 60 5a 1f b9 e5 52 b6 3a ce 86 5f 3a eb a7 84 3a
       -0.00015197089 0.0013910203 0.00085268624 0.0010120844
000020 03 be 5f ba e4 3a 65 b7 b5 c7 89 3a eb c2 ee b8
       -0.0008535089 -1.3663175e-05 0.0010511788 -0.00011385031
000030 16 0d c5 b8 aa 1c 97 b9 d8 b3 0e ba d9 21 87 3a
       -9.3961295e-05 -0.0002882232 -0.0005443669 0.001030977
000040 56 5f 78 ba df 9f 23 3a 78 11 a2 b9 84 5a f4 b9
       -0.00094746554 0.0006241779 -0.00030912063 -0.00046606746
000050 fa 33 19 ba 76 3f 68 b9 72 c5 b4 b9 de 23 20 3a
       -0.0005844232 -0.00022148885 -0.00034479384 0.000610886
000060 3d ef 2a ba 9f fe 0c ba 9a 06 7a b9 c1 5b 06 38
       -0.00065206346 -0.00053785177 -0.00023844317 3.2033542e-05
000070 92 33 8d 39 f7 8c 9b b9 8f f1 75 39 fa ee 90 3a
       0.0002693204 -0.0002966893 0.00023455008 0.0011057549

conv_blocks.4.running_mean f4 [32]
000000 ce fa 85 be 07 93 0c bd 4d cf 51 3d 46 7a bd 3d
       -0.2616791 -0.034319904 0.051223088 0.092518374
000010 77 07 12 3e d0 15 a0 bc d8 79 2f be 31 ee 62 3c
       0.1426066 -0.019541651 -0.17136323 0.013850735
000020 b6 12 36 3e 9c aa 80 3e 49 e8 0d be 2d 47 13 3e
       0.17780575 0.25130165 -0.13858141 0.1438262
000030 de d7 af 3d 3a cd e5 bd 5d 85 ba bd 5b a9 32 be
       0.08586095 -0.112207845 -0.09107468 -0.17447416
000040 b8 f0 f5 3d 69 58 dc 3d 28 dc 06 3b ff 0e 75 3d
       0.12008804 0.107590504 0.0020578 0.059828755
000050 77 e8 36 3e 02 f8 1f be bb f1 86 bd 1c c5 02 3e
       0.17862116 -0.15621951 -0.06589075 0.12770504
000060 0b 48 4a be 70 a6 ab 3d de 03 4e 3e d0 f5 58 bd
       -0.19754045 0.08381355 0.20118663 -0.0529688
000070 d5 5b 96 3d ef e2 47 3e 84 e6 99 3b 2f 07 08 bc
       0.07341734 0.19520162 0.004696669 -0.008302494

conv_blocks.4.running_var f4 [32]
000000 d0 63 f6 3c ef c9 be 3c 5d fe db 3c 6f 1b c9 3c
       0.030076891 0.023289649 0.026854688 0.024549214
000010 7d ac a5 3c 3c 03 4d 3d 9a 35 85 3d cd 99 d3 3c
       0.02022385 0.050051913 0.06504364 0.025830174
000020 a7 28 d4 3c 84 49 8d 3d 64 c8 45 3d 24 e1 bb 3c
       0.02589829 0.068987876 0.04828681 0.022934504
000030 91 f7 a9 3c 40 42 7f 3d 44 66 a6 3c 0d f8 96 3c
       0.020747932 0.06231904 0.020312436 0.018428827
000040 d4 e6 bc 3c e3 96 a2 3c b5 1f eb 3c eb 5f a0 3c
       0.023059286 0.019847339 0.028701643 0.019576987
000050 6d 4f c6 3c fe e1 63 3d aa 24 0d 3d b3 f0 b9 3c
       0.024207795 0.055635445 0.034458794 0.022697782
000060 7c 38 a4 3c 80 58 9f 3c 0d a5 dc 3c 8f b5 97 3d
       0.020046465 0.01945138 0.026934171 0.074076764
000070 a7 cb 04 3d 3c 2e c8 3c 58 df 16 3d b9 a9 ac 3c
       0.03242078 0.024436109 0.03683409 0.021077024

conv_blocks.7.weight f4 [64, 32, 4]
000000 99 07 e9 3b 6a ed 78 3c e5 ff c0 bb 3b c2 66 3d
       0.0071115014 0.015193323 -0.00588988 0.056337576
000010 8c b0 33 3d 6d f5 b8 bc 5b 51 60 3d f4 d6 a0 3c
       0.04386954 -0.022577966 0.054765087 0.019633748
000020 f3 1a 4d bd 41 da 48 bd 1a 71 86 3d 3e a6 82 3d
       -0.05007453 -0.04903627 0.06564541 0.063793644
000030 a2 15 0b bd f7 74 6a 3d e0 98 b1 3d b5 07 7a bd
       -0.033956178 0.057240453 0.08671737 -0.061042506
000040 c8 4e 7e bc ae b7 2b 3d cc bd d1 ba 3f a9 87 3d
       -0.015521713 0.041923217 -0.0016001998 0.06624078
000050 64 e7 8e bd 11 76 77 bd 53 90 45 3d 7a 34 89 3c
       -0.06977728 -0.06041533 0.04823334 0.016748656
000060 9b e5 4a bc a5 09 82 3d 51 f0 57 3d ef d1 62 bd
       -0.012383844 0.06349496 0.052719418 -0.05537599
000070 35 7a 83 bd 5c 52 91 3d 38 c1 a9 bc 86 54 4a 3d
       -0.064197935 0.07095787 -0.020722017 0.049397014
000080 61 84 90 3c 1a c3 90 3d 48 8a b3 3d 5d 61 93 3d
       0.017641248 0.07068463 0.087666094 0.07196305
000090 f7 dc 4d bd 5f fb 0f bd 08 32 03 3c 27 29 93 3d
       -0.050259557 -0.035151836 0.008007534 0.071855836
0000a0 88 6e 92 bb a5 3d 89 3d 36 52 87 3d 77 af e1 3c
       -0.0044687428 0.06701211 0.06607477 0.027549488
0000b0 3c ea 16 3d be 54 c8 bc f9 f4 1a bd 9b dd f1 3c
       0.036844477 -0.02445447 -0.03783128 0.029524615
0000c0 4e 1d 7a 3c 5b f7 ff ba a1 2f e4 3c da 07 76 bd
       0.015265776 -0.0019528674 0.027854742 -0.06006608
0000d0 f7 8d 13 3d dd 75 8a bd 16 6a 99 3c a7 c5 b5 3a
       0.03602406 -0.06760762 0.018727344 0.0013868109
0000e0 4b f2 3e bd 27 60 16 bd f8 56 c8 bc 95 38 71 bd
       -0.046617787 -0.03671279 -0.024455532 -0.05889185
0000f0 86 f0 07 bd 4b a2 62 bd 09 b9 07 bd 7e b8 33 bd
       -0.033188365 -0.055330556 -0.033135448 -0.043877117
000100 9c a2 53 bc 88 a4 30 3c 84 4a aa 3d 1c ef 3b 3d
       -0.012917187 0.010781415 0.08314994 0.04588233
000110 10 fc c6 bc ae c1 fe bb 6d 0d 99 3d 67 c7 d9 3b
       -0.024290115 -0.0077745533 0.07473264 0.006646085
000120 91 53 ed 3c 65 36 1c 3d 86 c5 fb bc 27 24 4e bd
       0.028970512 0.038137812 -0.030733835 -0.050327446
000130 5e 3b 1d bd ad 81 ca 3b be c4 52 3d fc 5e 73 3d
       -0.038386695 0.0061800093 0.05145716 0.059416756
000140 85 d5 6e bd 25 d2 df 3c 02 9a 14 3d 24 b7 44 bc
       -0.058309097 0.027321884 0.036279686 -0.012006555
000150 f2 7b 95 bd bd 8b 50 bb f4 19 fb 3c d5 50 38 bd
       -0.07299031 -0.0031821572 0.030652024 -0.044998962
000160 bd db 88 bd 51 d6 4e 3d 3d ee a6 3d 46 3c 7b 3c
       -0.06682537 0.050497357 0.08150909 0.0153341945
000170 fb 13 ae 3d f3 67 35 bd 04 09 84 3d e4 7b 23 3c
       0.08499905 -0.044288587 0.06447032 0.009978268
000180 55 68 82 3d 90 fd 87 bc c2 31 2e 3d 6a 58 37 bd
       0.06367556 -0.0166004 0.04252792 -0.044762053
000190 04 46 8f 3d 57 de a0 3d 9d b1 97 3d 19 eb 64 3d
       0.06995776 0.07854908 0.07406924 0.05588827
0001a0 78 84 5e 3d 79 08 af 3b 4e de 74 bc 07 f8 a2 3d
       0.05432555 0.005341586 -0.01494558 0.07957464
0001b0 39 e7 a9 bd da 0b 90 bd bd d7 2e 3c 40 aa 43 bd
       -0.08296055 -0.070335105 0.010671553 -0.047769785
0001c0 9b 61 d9 3c 7b 1e 97 3d 1f 2a 3e bd 8d 4b 33 3d
       0.0265358 0.073788606 -0.04642689 0.043773223
0001d0 2b de 48 bd 1e 26 a6 bc 55 f2 5e bd ca 17 6b 3d
       -0.04904 -0.020281848 -0.054430325 0.057395734
0001e0 b7 2b 1d bd 2d 05 5b 3d f7 d6 7f 3c bd af 6c bd
       -0.038371768 0.053471733 0.015615216 -0.057784785
0001f0 0f 14 9e 3d d7 5a cf ba 36 84 a2 bd 04 67 7b bd
       0.077186696 -0.0015819919 -0.079353735 -0.06137754
000200 ad f8 1a 3d 7a c6 ba bc 21 51 02 3d 4e 2f 21 3d
       0.037834812 -0.02279972 0.03181565 0.039351754
000210 bd 22 ca 3b 8e fc e5 3b f5 e3 9a bc c5 48 5c 3d
       0.006168692 0.0070186323 -0.018907527 0.053780336
000220 38 e8 74 3c 4f c7 b3 3d 3b 24 1f bd 0e 63 b3 bd
       0.014947943 0.087782495 -0.03885291 -0.087591276
000230 c3 04 1f 3d 6c 8c 87 bd c3 3e 3e 3c 0f 44 37 3d
       0.0388229 -0.0661858 0.011611643 0.04474264
000240 76 d4 b0 bd 14 1c 86 3d d1 8e a8 3d 5e 36 88 3d
       -0.08634274 0.06548324 0.08230365 0.06650995
000250 9e 45 f8 3c 2c 23 83 bd 52 27 99 3d 95 f7 49 3d
       0.030306634 -0.06403193 0.07478203 0.04930838
000260 62 40 91 3c 65 14 1d bd 86 e5 83 bd af 2b 90 bd
       0.017730895 -0.038349528 -0.064402625 -0.07039582
000270 fb 26 9c 3d b1 46 6b 3d f0 ba ef bc d4 4f ed bc
       0.076246224 0.057440463 -0.029263943 -0.02896873
000280 db 0a 82 bd a2 65 a4 bd 75 86 ed 3b 33 ef 62 bd
       -0.06349727 -0.080271974 0.0072486945 -0.0554039
000290 f4 3b 87 3d 60 d4 a0 bc a4 a7 6d bd 75 d4 82 bd
       0.06603232 -0.019632518 -0.058021203 -0.06388179
0002a0 e1 52 b4 bd cf de 10 bc 40 82 9a bc bb 18 54 3d
       -0.088048704 -0.008842184 -0.018860936 0.051781397
0002b0 81 12 01 3c ae e7 47 bc ac c9 05 3c 6d f8 80 bc
       0.007877947 -0.012201233 0.008165758 -0.015743459
0002c0 68 1b 5a 3c fc 74 68 3d fd db 83 3d 3e a2 35 3d
       0.013312198 0.05675219 0.06438444 0.04434418
0002d0 4b 7a 92 bb cc fd 11 3d 75 c4 a7 bd 90 8b 89 bd
       -0.004470145 0.03564243 -0.08191768 -0.067160726
0002e0 63 6f 9c 3d da 5b a6 3d be 01 a2 3d 3f d8 99 bd
       0.07638433 0.08122988 0.079104885 -0.07511949
0002f0 af 11 a4 3d c2 e7 89 bb f7 ab ba 3c 4d 09 04 3d
       0.080111854 -0.004208536 0.022787077 0.032235432
000300 3d 0f 08 3d 09 d6 ce 3a 5e 2a d6 bb 1d 3f f8 ba
       0.033217657 0.001578034 -0.0065358123 -0.0018939708
000310 5b ac 3a 3d 4a ef e9 3c 15 68 6f 3d 9e d8 be bc
       0.045574527 0.028556485 0.05844887 -0.02329665
000320 28 d5 da 3c 27 4c 8e 3d 9d a1 9f bd ab 81 6e bd
       0.026712969 0.06948119 -0.07794497 -0.05822913
000330 bc 91 6d bd 81 c3 fe 3c ff 0b 28 3d 81 83 22 3d
       -0.05800031 0.031099083 0.041027065 0.039676193
000340 43 f2 08 3d 90 95 a2 bc 55 3d 9b 3d 6a ce 81 bd
       0.033434164 -0.019846708 0.075800575 -0.063381985
000350 0d 55 91 3d c0 da 91 3d 82 c2 6f bc 9d 28 8a 3c
       0.070963 0.071218014 -0.014633777 0.016865069
000360 44 36 8a bc 7a c6 32 3c 79 b3 7c 3d 5d 6f 5b 3c
       -0.016871579 0.010911578 0.061694596 0.01339325
000370 82 a5 84 bd 5d 0f 56 bd 3d 37 3d 3d c1 4d b1 bb
       -0.064768806 -0.052260745 0.046195257 -0.0054108803
000380 38 f7 d2 3b b2 d9 a1 bd ca 92 ad 3d a0 06 82 3d
       0.006438162 -0.0790285 0.084752634 0.0634892
000390 dc 2a ac bd eb d0 ab 3d fd 88 56 3d ab 0e d3 3c
       -0.08406612 0.08389457 0.052376736 0.02576383
0003a0 8a 81 61 3d f8 f1 51 bd b6 08 09 bd 9f 3a 94 3d
       0.05505518 -0.05125615 -0.033455573 0.072377436
0003b0 76 dd 14 3c 25 4a 25 3c e0 e6 99 3d 17 2e 5a 3c
       0.0090860035 0.010088478 0.07514739 0.013316653
0003c0 71 e1 2b bd ca 97 cc 3c 5f d4 73 3d 31 7f b4 3d
       -0.041963045 0.024974722 0.059528705 0.08813322
0003d0 72 e6 4b 3d e7 58 ad bd 51 a0 23 bd 57 85 17 3b
       0.049780317 -0.084642224 -0.03994781 0.0023120248
0003e0 be f2 cd bc 4d 10 76 3c bc 76 cd bc 60 d4 dd bc
       -0.025140163 0.015018535 -0.025081031 -0.027078807
0003f0 87 e8 96 bd f1 2d a5 3d 1a 8e 51 bc 82 6c 98 3d
       -0.0736857 0.08065403 -0.012790227 0.07442571

conv_blocks.7.bias f4 [64]
000000 b2 05 8c 3c f8 25 73 bd 28 ec 8e ba b5 e1 f7 bc
       0.01709256 -0.05936238 -0.001090412 -0.030258993
000010 cb 62 3c bd d4 73 8e bc df 5f 5b bd 51 d9 c8 3b
       -0.045992654 -0.017389216 -0.053558227 0.0061294218
000020 0b 83 cf 3c 9f 87 5c bd d9 f2 99 3d 22 23 84 bc
       0.02533104 -0.053840276 0.07517023 -0.016130034
000030 6b ce 32 bd 03 b6 55 bb 4a b9 76 3d de 37 1b bd
       -0.043653887 -0.0032609708 0.0602353 -0.037895076
000040 15 95 1e bd 91 2e c5 3b 60 cf ac 3d 47 ac b2 bd
       -0.038716394 0.006017514 0.08437991 -0.087242655
000050 85 3a 87 bd 98 dd 92 bc 23 e4 23 bd 40 0d 47 bd
       -0.066029586 -0.01792793 -0.04001249 -0.04859662
000060 fb d0 b3 3c fe ee 5a bd b5 a0 a7 bd 9c ca 72 3d
       0.021950236 -0.053450577 -0.08184949 0.059275255
000070 32 ee 48 3d 1e bc 8e 3d 54 29 ae bd 2f af f6 bc
       0.049055286 0.06969474 -0.085039765 -0.03011283
000080 99 3f 98 3d 81 4d a2 bc d5 04 a4 3d 9a fe 2a bd
       0.07434005 -0.019812347 0.08008734 -0.041746713
000090 dd 16 2b 3d d9 88 74 3d 47 98 ef bc e2 7d 43 bd
       0.04176985 0.05970082 -0.029247416 -0.047727473
0000a0 6d 88 b0 3d 24 80 5c bd 6c 05 2b bd 0a fd ad bd
       0.08619771 -0.053833142 -0.041753218 -0.08495529
0000b0 b5 a0 30 bd 5d 11 43 bd b7 e0 9a bd 74 e8 4b 3d
       -0.043122012 -0.04762398 -0.07562392 0.04978223
0000c0 73 6b 7a bd 98 10 36 bd 28 54 9e 3c 0b 6d 1e bd
       -0.061137628 -0.04444942 0.019327238 -0.03867821
0000d0 0c 61 a3 3c 74 a1 97 3d 24 23 41 bd 5e 04 1a bc
       0.019943736 0.074038416 -0.047152653 -0.009400455
0000e0 c9 3a 8b bc 22 aa 86 bd c2 33 0e bd 47 da 5c 3d
       -0.016995804 -0.06575419 -0.03471733 0.053919103
0000f0 7b ba b0 3d 50 38 48 bc bf 9c a8 bd cc 52 9c bd
       0.08629318 -0.012220457 -0.08233022 -0.0763298

conv_blocks.8.weight f4 [64]
000000 58 09 80 3f a2 1b 80 3f 04 c9 7f 3f 4f 0e 80 3f
       1.0002851 1.0008433 0.999161 1.0004367
000010 34 27 80 3f d9 f9 7f 3f ea 03 80 3f 44 bd 7f 3f
       1.0011964 0.9999061 1.0001194 0.9989817
000020 8f 94 7f 3f 06 26 80 3f 46 20 80 3f de db 7f 3f
       0.9983606 1.0011604 1.0009849 0.99944866
000030 b1 21 80 3f a9 db 7f 3f fc 0e 80 3f dd 1a 80 3f
       1.0010282 0.9994455 1.0004573 1.0008198
000040 4b 04 80 3f dd 16 80 3f bb df 7f 3f 7b ad 7f 3f
       1.000131 1.0006977 0.9995076 0.99874085
000050 2a 19 80 3f 9f 2c 80 3f ad e4 7f 3f 2a b7 7f 3f
       1.000768 1.0013617 0.99958307 0.9988886
000060 9d 27 80 3f 70 cb 7f 3f 5f 1e 80 3f 90 ca 7f 3f
       1.0012089 0.99919796 1.0009269 0.9991846
000070 3d 2f 80 3f af 16 80 3f 30 c7 7f 3f 4e be 7f 3f
       1.0014416 1.0006922 0.9991331 0.99899757
000080 50 10 80 3f 23 c4 7f 3f 4d 94 7f 3f 86 21 80 3f
       1.0004978 0.99908656 0.99835664 1.001023
000090 b5 ae 7f 3f 61 c8 7f 3f dd e8 7f 3f 8e 9a 7f 3f
       0.99875957 0.9991513 0.99964696 0.99845207
0000a0 96 22 80 3f fe a2 7f 3f 52 dd 7f 3f f2 2a 80 3f
       1.0010555 0.9985808 0.99947083 1.0013106
0000b0 35 16 80 3f 27 20 80 3f 61 94 7f 3f 82 0f 80 3f
       1.0006777 1.0009812 0.99835783 1.0004733
0000c0 4f 91 7f 3f 54 14 80 3f 0f 14 80 3f 05 15 80 3f
       0.998311 1.0006204 1.0006121 1.0006415
0000d0 4d b7 7f 3f 66 3a 80 3f 8b f8 7f 3f 1f 35 80 3f
       0.9988907 1.0017822 0.9998862 1.0016211
0000e0 16 bb 7f 3f f7 f0 7f 3f 1a 1c 80 3f fa db 7f 3f
       0.99894845 0.9997706 1.0008576 0.9994503
0000f0 ad 1c 80 3f 60 c9 7f 3f a8 e1 7f 3f 9e c2 7f 3f
       1.0008751 0.9991665 0.999537 0.9990634

conv_blocks.8.bias f4 [64]
000000 f0 ec 46 3a a5 08 02 3a fe f6 09 ba 05 c0 12 3a
       0.0007588407 0.00049603946 -0.000526294 0.0005598071
000010 11 d7 43 3a a5 8a 24 ba d1 a3 c9 39 d2 27 e9 b9
       0.0007470707 -0.0006276763 0.0003845976 -0.00044470892
000020 a4 da 22 39 37 86 b9 39 7a bc 62 3a 5f f1 4b b9
       0.00015530974 0.00035385948 0.0008649301 -0.00019449506
000030 a8 f4 36 39 0e 6e a2 3a 75 b1 d0 b8 9d f7 77 3a
       0.00017448014 0.0012392418 -9.951267e-05 0.00094591995
000040 61 49 11 3a c8 6a bc 37 8e 93 04 39 00 85 4d ba
       0.00055422453 2.246107e-05 0.0001264347 -0.0007839948
000050 b2 f8 3a 3a 84 6f e8 39 99 db e8 b9 33 e5 8b ba
       0.00071323954 0.00044333574 -0.000444141 -0.0010673165
000060 35 3a b9 3a 4d 8d e4 b8 47 65 df 39 f1 94 f2 b9
       0.0014131727 -0.000108982065 0.00042609332 -0.00046268807
000070 02 b0 95 3a 30 d5 68 ba 24 11 99 38 a3 7f f3 39
       0.0011420252 -0.0008881865 7.298801e-05 0.00046443669
000080 a2 2b 36 ba 58 c2 45 ba db 74 5d ba ae 26 7e 3a
       -0.0006949251 -0.0007543913 -0.0008447894 0.0009695095
000090 c6 22 52 39 de be 6d b8 16 cd e0 b9 6b 4b 05 ba
       0.00020040115 -5.6682962e-05 -0.0004287741 -0.00050847855
0000a0 0c 53 70 3a 59 54 3f ba ef 3d dc b9 29 b8 60 b9
       0.00091676484 -0.00072986406 -0.00042007814 -0.0002143091
0000b0 73 73 41 3a bf 17 1b 3a 2c 38 72 ba 17 69 8a 37
       0.0007379569 0.0005916319 -0.00092399376 1.6499818e-05
0000c0 a0 db d5 b9 19 20 20 b8 73 dc 6b 39 b3 56 64 3a
       -0.0004079016 -3.8176866e-05 0.0002249347 0.0008710429
0000d0 95 2e b1 b9 c3 2c 85 3a df 09 a9 38 82 d0 a1 39
       -0.00033794777 0.0010160435 8.0603866e-05 0.00030863663
0000e0 33 7d 7c ba 90 ed 12 37 5d d6 ba 3a 94 1e 68 ba
       -0.0009631693 8.75759e-06 0.0014254559 -0.0008854654
0000f0 82 58 37 3a 19 12 90 39 9a 9b bc b9 b2 d6 3c ba
       0.00069940847 0.00027479304 -0.00035974086 -0.0007203623

conv_blocks.8.running_mean f4 [64]
000000 b5 e5 9b 3e c0 0f 63 3e 91 39 fa 3d 97 7d 24 3e
       0.3044869 0.22173977 0.12218011 0.16063534
000010 18 6f 71 bb 10 95 17 bd cc 81 11 3d aa 46 4d be
       -0.0036839899 -0.03700739 0.035524175 -0.20046487
000020 38 f1 be bd 7e 00 87 be f9 99 8b bd c1 c2 ff 3d
       -0.093233526 -0.26367563 -0.06816477 0.12488318
000030 2b 92 d4 bd 7f 16 e2 bc b2 8c 5c 3e 2c ec b3 bd
       -0.10379442 -0.027598618 0.21538046 -0.087852806
000040 8c 1d a9 3e f8 35 bf 3d ea 4d 55 bd a2 11 84 3e
       0.33030355 0.093364656 -0.052076258 0.25794703
000050 9f ba c3 be b4 2a 9f 3d c1 05 14 be d1 e9 8f bd
       -0.38228318 0.07771817 -0.1445532 -0.07027019
000060 af e8 e6 bc 7f 2f 4b be 16 aa 2a be 2a bf fd 3e
       -0.028187124 -0.19842337 -0.16666445 0.4955991
000070 87 c3 36 3d e3 d4 48 be 4e 26 96 be c0 17 82 bd
       0.044620063 -0.1961246 -0.293261 -0.06352186
000080 27 cb 65 3e 2a 42 ed 3d c5 c3 71 3e 74 28 d2 3d
       0.22440778 0.115848854 0.23609836 0.10261622
000090 5c d3 84 3e 6a a7 61 3d 6c 80 6d bd 70 39 0e 3d
       0.25942504 0.0550913 -0.0579838 0.034722745
0000a0 b6 e2 3e be 8a e2 96 3e 78 9a 37 bd 87 58 ec bc
       -0.18641171 0.2946971 -0.044825047 -0.028850807
0000b0 db 78 bf 3d 4e e6 58 be a1 f4 43 3c 1a e6 04 be
       0.09349223 -0.21181604 0.01196018 -0.12978402
0000c0 28 90 5c bc 3a c2 42 be 28 37 73 3e 32 bb 73 bd
       -0.013462104 -0.19019404 0.23751509 -0.059504695
0000d0 d5 d2 9a 3e 25 fd 05 3e ed 06 3e 3d 48 64 f1 3d
       0.30238977 0.13084848 0.046393324 0.11786705
0000e0 e5 59 03 3e 89 0a 82 3c 51 2a b0 be 6b f6 02 3e
       0.12827261 0.015874164 -0.34407285 0.12789313
0000f0 8a 6a 06 bd 24 16 45 3e c4 41 89 bd 94 da 43 be
       -0.032816447 0.19246727 -0.06701997 -0.1912635

conv_blocks.8.running_var f4 [64]
000000 55 23 71 3e 65 be 5b 3e da ff 83 3e 74 42 78 3e
       0.23548634 0.21459348 0.25781137 0.242441
000010 bc ee 54 3e fe 52 84 3e 58 26 35 3e 75 49 cb 3e
       0.20794195 0.25844568 0.17690408 0.3970448
000020 6b a7 62 3e c4 b2 65 3e 07 93 1e 3e cb 42 5a 3e
       0.22134177 0.22431475 0.15485774 0.21314542
000030 e0 02 42 3e b5 1d 72 3e 91 fd 3f 3e c3 39 48 3e
       0.18946409 0.23644145 0.18749072 0.19553284
000040 70 3f 6e 3e 7a c3 92 3e fb 8b 6a 3e 15 77 78 3e
       0.23266387 0.28664762 0.22904961 0.24264176
000050 0a ba 37 3e 16 d5 4e 3e 8b 20 30 3e d3 fc 69 3e
       0.17942062 0.20198473 0.17199914 0.22850351
000060 ab 3d 4b 3e 43 69 48 3e b1 b8 51 3e d1 7b 6b 3e
       0.19847743 0.19571404 0.2048061 0.22996451
000070 08 0e 87 3e 50 37 52 3e 95 d0 85 3e ec d5 62 3e
       0.26377892 0.20528913 0.26135698 0.22151917
000080 6c c2 57 3e e7 71 5f 3e 88 ae 28 3e 57 55 5b 3e
       0.2107026 0.21820794 0.16472828 0.21419273
000090 18 c1 53 3e 3f 67 44 3e 21 fc 47 3e 40 2a 2a 3e
       0.20679128 0.1918001 0.19529773 0.1661768
0000a0 dd 92 56 3e 84 ed 54 3e e7 5d 54 3e 6b 4b 60 3e
       0.20954461 0.2079373 0.20738946 0.2190377
0000b0 5b a4 50 3e 80 1d 5a 3e b9 fa 40 3e 1a 30 27 3e
       0.20375197 0.21300316 0.18845643 0.16326943
0000c0 bc f7 33 3e 1e 0c 3c 3e 14 8c 27 3e f1 9b 3a 3e
       0.17574972 0.18363997 0.1636203 0.1822355
0000d0 f2 38 51 3e 3a 33 4e 3e f4 bf 48 3e e6 14 36 3e
       0.20431879 0.20136729 0.19604474 0.1778141
0000e0 52 f7 5b 3e 61 0e 52 3e da f5 5d 3e 4f e9 62 3e
       0.21481064 0.20513298 0.21675816 0.22159313
0000f0 69 20 27 3e 39 26 3d 3e a6 39 5c 3e 40 71 5c 3e
       0.16320957 0.18471612 0.21506366 0.21527576

conv_blocks.11.weight f4 [128, 64, 4]
000000 d9 62 70 bd c5 65 a6 bc 48 09 22 bc 78 42 d4 bc
       -0.05868802 -0.0203122 -0.009889908 -0.025910601
000010 00 25 5c bd 6f 45 a0 3c 57 6d 05 3c 95 22 33 3c
       -0.053746223 0.019564359 0.008143744 0.010933538
000020 ce e1 35 3d 79 e9 1f 3d 00 e6 89 bc cd b8 3c 3d
       0.044404797 0.039041016 -0.016833305 0.046074677
000030 f9 cd 13 3d 06 45 72 bd bc c0 25 bd df 83 09 bd
       0.036085103 -0.059147857 -0.04046701 -0.033573028
000040 d1 37 64 bd 7a 0f d6 3c e4 3a 47 bc a9 5c 6d bd
       -0.055717293 0.026130427 -0.012160037 -0.057949696
000050 a5 65 4e 3d d3 85 f9 3c 71 57 0f 3d db a3 25 bc
       0.050389905 0.03045932 0.0349955 -0.010109867
000060 73 1e 99 bc d4 6c 05 bb 2e 1e 80 bd 38 81 74 bc
       -0.018691277 -0.0020359056 -0.06255756 -0.014923386
000070 7b 76 2f bc 77 6f 50 3d 00 e2 0f 3d 86 45 2d 3d
       -0.0107094 0.05088755 0.03512764 0.04230263
000080 fe a0 57 3c 43 b4 06 bc 94 06 a9 ba 44 ef 2c 3d
       0.013160942 -0.008221689 -0.0012895637 0.04222037
000090 f7 c0 4e bc 96 7f 0b bd ec d2 5f bd 09 f6 5a bd
       -0.012619249 -0.034057222 -0.05464451 -0.053457294
0000a0 58 cb 93 bb 1c 3e e0 bc 13 c8 76 3d c5 18 46 3d
       -0.0045103244 -0.027373366 0.0602494 0.048363466
0000b0 4b 27 40 3c 2b 1f fe b9 9b 95 85 3a 98 0e 86 bb
       0.011728118 -0.00048469877 0.0010191681 -0.004091095
0000c0 b7 2d d2 3c 07 b6 5a bd 1f a2 bc 3c cf 59 3e bc
       0.025656564 -0.05339625 0.023026524 -0.011618092
0000d0 f2 be 5e 3c 9a 07 e5 bb 01 21 39 bd f7 f9 a1 bc
       0.01359533 -0.0069894316 -0.04519749 -0.019772513
0000e0 87 4b cf bc 67 1c 02 bd 87 91 d8 bc f0 2d 4b 3d
       -0.025304569 -0.031765368 -0.02643658 0.049604356
0000f0 e6 22 54 3d 06 6f 35 3d 72 75 48 bd a5 da 7d bd
       0.051791094 0.044295333 -0.04894013 -0.061976094
000100 a4 99 37 3d 9e 46 70 bd 05 e0 fc 3c e0 ce e1 3c
       0.044824257 -0.058661096 0.03086854 0.027564466
000110 10 57 1e 3c 06 e2 b6 bc f0 86 57 bd 40 a6 c9 bc
       0.009664312 -0.022324573 -0.05261892 -0.024615407
000120 ae 51 05 bd 73 24 49 bc c9 b5 80 bd 90 49 d4 bc
       -0.0325486 -0.012276757 -0.06284673 -0.025913984
000130 7e 8c b3 3c f9 4a 52 bd c3 fd a0 3c f6 1e 15 bd
       0.021917578 -0.05134103 0.019652253 -0.03640648
000140 3d 13 29 bd 18 60 38 3d 82 9a 95 bc 3a be 4f bd
       -0.041278113 0.045013517 -0.018262152 -0.050718524
000150 1e ea 1f bc 8d 70 38 bd f4 7d df ba 08 e1 13 bd
       -0.009760408 -0.04502921 -0.0017051087 -0.03610328
000160 94 c8 52 bd de 90 73 3d ec 59 0e b8 a0 5a 81 3c
       -0.051460817 0.059464328 -3.3939185e-05 0.015790284
000170 53 44 6d 3d c5 13 54 3c ae ba e2 3c ee 45 d1 ba
       0.057926487 0.012944167 0.027676906 -0.0015966275
000180 5a 80 27 3d 0d 63 eb 3b b3 65 ba bc 91 d4 32 bd
       0.04089389 0.0071834386 -0.022753572 -0.04365975
000190 36 df f1 bc e5 cd 40 bd df d9 db bb 4e f9 fe 3c
       -0.02952538 -0.047071356 -0.006709322 0.031124737
0001a0 76 8d 27 bd 42 4b 18 3d 25 dd 26 bd 96 9a be 3c
       -0.040906392 0.037181146 -0.040738244 0.023267072
0001b0 fd 4f 79 bd 91 c7 26 3d 7b a8 52 3c bc 93 44 bd
       -0.0608673 0.040717665 0.012857552 -0.047992453
0001c0 bf ca 5d bc 98 7c 3e 3d c3 71 ef bc 14 a8 21 bd
       -0.013537108 0.04650554 -0.02922905 -0.039466932
0001d0 60 89 63 bd e1 d4 9d 3c c8 b4 6b bc 16 ae bc bb
       -0.055550933 0.019266548 -0.014386363 -0.0057580573
0001e0 16 95 fa bc 81 79 d6 3c 1d 50 fb 3a f9 e0 38 bd
       -0.030588668 0.026180984 0.0019173656 -0.045136426
0001f0 72 ea 03 bd 82 54 76 bd fe 2b 1e 3c e0 19 9d 3c
       -0.032206006 -0.060139187 0.009654043 0.019177377
000200 82 fa 38 3d 9f 51 bd bc e6 ae 28 bd e9 c8 72 bd
       0.045160778 -0.023110209 -0.04118242 -0.059273634
000210 b1 a2 d0 3c eb b1 6b bd 9b ac cf bc 56 a2 20 bd
       0.025468202 -0.057542723 -0.02535086 -0.039217316
000220 7c 87 b1 3b 0d 8f 57 bd d3 02 b0 3c 4b 46 4c bd
       0.0054177623 -0.05262666 0.021485722 -0.049871724
000230 1f a2 dc bc 8a 5f 08 3d 3d 4d 3a bd 3a 3a 0b bd
       -0.026932774 0.03329424 -0.045483816 -0.033991076
000240 de 11 7d 3c 3f 16 ce 3c 68 45 05 3d 1a 01 0b bd
       0.015446154 0.025157092 0.032536894 -0.033936597
000250 f2 fe 34 bd 6a e9 c0 bc e2 86 d1 bb 41 47 4d bd
       -0.044188447 -0.0235488 -0.006394253 -0.05011678
000260 1c ee 18 3d af 38 16 3d d9 14 15 3d 5b 2f 85 3c
       0.037336454 0.03667515 0.036396835 0.016257932
000270 96 b8 66 bd 27 3e 55 bd 95 85 cb bc a1 3f 2b bd
       -0.05632838 -0.052061226 -0.02484397 -0.041808728
000280 85 5d 21 3d 09 23 41 3d d9 c6 3a 3c 3d 21 0c 3d
       0.039395828 0.047152553 0.011399948 0.034211386
000290 e4 d7 0a 3d 0c 8c 4c bd f8 ba 75 3c 90 b5 2b 3d
       0.033897296 -0.049938247 0.01499819 0.0419212
0002a0 92 59 68 bd d9 8b 54 bd c4 8a dc 3c 20 46 0e bc
       -0.056726046 -0.05189118 0.026921637 -0.008683711
0002b0 c9 66 b4 bc 44 88 6d bc 41 ef 64 bd 29 6f 42 bd
       -0.022021668 -0.01449782 -0.055892233 -0.04746929
0002c0 52 f6 41 bc 03 2d 0a 3d 20 64 6a bd ee b2 39 bd
       -0.0118385125 0.033734333 -0.057224393 -0.045336656
0002d0 9a 46 6d bd 74 81 74 3c fd 67 04 bd 60 a4 0b 3d
       -0.05792866 0.014923442 -0.032325733 0.034092307
0002e0 9b e0 19 3d a9 94 66 bd b0 3a f1 bc e7 57 51 bd
       0.037567716 -0.056294117 -0.02944693 -0.05110922
0002f0 f0 f8 c3 bc 2a 30 25 bd 8f 76 00 bd 8e 37 c5 bb
       -0.023922414 -0.040329136 -0.031363066 -0.0060185855
000300 eb f0 8c bb 41 00 65 3c b6 37 33 bd 92 5e 02 3d
       -0.0043011806 0.013977111 -0.043754302 0.03182847
000310 79 9f 69 bd 29 f5 17 3d cf d7 ec bc 00 3d 65 bd
       -0.05703685 0.037099037 -0.0289115 -0.055966377
000320 9a c9 30 3d ea 53 2b bd bd 44 96 3c f0 1c e8 bc
       0.043161012 -0.041828074 0.018343324 -0.028334111
000330 36 87 79 3d 9b 55 d6 3c 0e 27 eb 3c 79 60 37 bd
       0.060919963 0.026163867 0.028705146 -0.044769738
000340 59 13 31 3d e3 0f eb bc 01 ad fc bc c0 12 66 bc
       0.043231342 -0.028694099 -0.030844213 -0.014042556
000350 1e 83 08 bd f1 63 61 bd cd 92 a0 3c 21 a1 00 3d
       -0.033328168 -0.055026952 0.01960125 0.031403664
000360 be db 11 3d e5 95 75 3c c2 bb 75 bd 6c 70 36 3c
       0.035609953 0.014989351 -0.059993513 0.011135202
000370 bf 7b 0d 3b 10 90 20 3b 06 8c 0e bb 5b 0f 75 bb
       0.002158865 0.002449993 -0.002175094 -0.0037393186
000380 27 86 c2 3b c5 06 0a bd 1e 2f a8 3c d4 9a 86 3c
       0.0059364024 -0.033697862 0.02053028 0.01643125
000390 ce 77 36 3d a3 b5 15 bd 94 d4 2a bd 6e 64 41 3d
       0.04454785 -0.036550175 -0.041706637 0.047214918
0003a0 6f e0 bb bb be 0e 22 bd 2e 6d 19 bd c8 23 57 3d
       -0.0057335417 -0.03956484 -0.037457637 0.052524358
0003b0 80 d5 ff bb de 7e 5e bd 23 6d 9c bb 58 16 a7 bc
       -0.0078074336 -0.05432021 -0.0047737523 -0.020396397
0003c0 b6 6c 9a 3b 40 ce 99 bb 32 a2 41 3d d6 8e 3e bd
       0.0047126664 -0.0046937764 0.047273822 -0.046522938
0003d0 dd 68 55 3d fd 11 2e 3d bd 65 14 3d 46 36 19 3b
       0.05210196 0.042497624 0.036229838 0.0023378297
0003e0 92 f8 36 bd 78 cb 3c bd 5d 3f c0 bc fd 0c 1b 3d
       -0.04467065 -0.04609248 -0.023467714 0.037854183
0003f0 f1 db 13 3c 7b 36 0c 3d 6a 50 04 3d bf 02 c2 bc
       0.009024606 0.034231644 0.03230325 -0.02368295

conv_blocks.11.bias f4 [128]
000000 51 51 9b bc e2 c2 32 3d 72 92 83 ba 7f 68 29 ba
       -0.018959673 0.043642886 -0.0010038151 -0.00064624095
000010 c8 92 07 b9 2a db 07 bd 25 7d 71 3c cf d4 73 bd
       -0.00012929284 -0.033167996 0.014739309 -0.059529122
000020 e6 69 fe bb be 89 52 bb 24 f7 57 3c 58 df 00 bd
       -0.007764089 -0.0032125558 0.0131814815 -0.031462997
000030 1c 68 79 bd c1 64 75 3d 65 fd 15 bd d7 c9 f8 bc
       -0.060890302 0.05991054 -0.03661861 -0.030369682
000040 84 3b 1f 3d 20 b9 ce bb 71 83 1f bd a6 d1 2f bd
       0.038875118 -0.0063086897 -0.03894371 -0.042924546
000050 8a 42 6b bd 91 8f 44 3b 44 f5 74 3b 3b 9a 52 3d
       -0.057436503 0.0029992799 0.0037377635 0.051416617
000060 9c 0a 7d bd ee 97 d7 3c 70 d2 1d 3b b9 c9 57 bd
       -0.061777696 0.026317563 0.002408173 -0.052682612
000070 66 d6 82 3b 0a 7b 02 bd 3c e1 82 3c ea d2 e1 3c
       0.0039928434 -0.03185562 0.01597654 0.027566392
000080 a5 ae 66 3d 38 8b 9e bc da ac 72 3d 31 bb 7b 3c
       0.056318898 -0.019353494 0.059246875 0.015364454
000090 ea 98 96 3c df ed 69 bd 62 c2 60 bd 80 d6 b9 bc
       0.018383462 -0.057111617 -0.054872878 -0.02268529
0000a0 20 31 73 3d fa b2 08 3d 18 e7 61 3d d8 98 6e bd
       0.05937302 0.03337381 0.05515203 -0.058251232
0000b0 13 87 83 3b a8 29 69 bd 93 37 74 3d 98 74 2e 3d
       0.004013905 -0.056924492 0.059623312 0.04259166
0000c0 03 44 0c 3d a9 77 ff bc b3 39 0e bd 4a 64 1b bd
       0.03424455 -0.031184988 -0.034722995 -0.03793744
0000d0 05 0a 5c 3d d9 87 0e bd 93 0b f6 3c 55 ac 08 3d
       0.053720493 -0.034797523 0.030034816 0.033367474
0000e0 8e 16 9b bc 9d ac 64 3d fd 26 49 bd c6 bc 04 bd
       -0.018931653 0.05582868 -0.049109448 -0.03240659
0000f0 e9 e3 9d 3c d7 ee 4f 3c ee 00 d5 bc 30 a3 a8 bc
       0.019273715 0.012691221 -0.02600142 -0.020585626
000100 a4 41 37 3a 0b 70 08 3d e5 fd 48 3d d6 e0 72 3d
       0.0006990677 0.033309978 0.049070258 0.05929645
000110 86 6f 5a 3d 6d 7f 86 bc 33 a7 c3 3c 61 44 59 bb
       0.053329013 -0.016418183 0.023883438 -0.003315233
000120 b2 69 71 bd 9d a8 3e bd 7f 7e 5e bd 59 52 62 3d
       -0.05893869 -0.04654752 -0.054319855 0.055254314
000130 55 18 0c bc 63 bd 46 3d b6 7b e7 3b a6 49 65 3d
       -0.008550723 0.048520457 0.007064308 0.05597844
000140 c8 f4 06 3d a2 f2 25 3d 76 2b 69 3d 11 51 d4 3b
       0.032948285 0.040514596 0.056926213 0.0064793904
000150 7a 6f 4e bd 67 57 b6 3c d5 45 71 3d 09 fd 07 3d
       -0.05039928 0.022258474 0.058904488 0.033200298
000160 4b 3c 01 bb 4e 6d 4f 3d 30 22 78 bd 0d f1 9b 3c
       -0.0019719775 0.05064135 -0.06057948 0.01903584
000170 58 ce 7a 3d c2 64 d7 bc 7b 41 bf bc ef 3d a6 3c
       0.06123194 -0.026293162 -0.023346653 0.020293204
000180 3b 2b 11 3d 9e 24 7d bd a2 df 1a 3d d7 34 3f 3d
       0.03544162 -0.0618025 0.03781093 0.04668125
000190 ff c8 fc bc af a7 13 3d f7 30 6a bd 7d 0a 3d bc
       -0.030857561 0.036048587 -0.057175603 -0.011538145
0001a0 1b 7c 4c bd 5a 11 e4 bc ba 0f f7 3c ac 0d 4b 3d
       -0.049923044 -0.027840305 0.030158866 0.049573585
0001b0 9f 83 2f 3d c1 16 03 3d 2f 94 00 bd 65 2a 01 3c
       0.042850133 0.03200412 -0.03139132 0.007883643
0001c0 95 59 1f 3d e6 95 76 3d 21 e3 0b bd 38 40 3e bd
       0.03890379 0.060201548 -0.034152154 -0.046447963
0001d0 d8 53 0d bd 47 23 06 3d 75 ed 78 bd 6e f1 15 3d
       -0.034503788 0.032748487 -0.06077333 0.0366072
0001e0 31 c7 8a 3c 4e 61 6c 3d bf 06 47 3d 0d bd 7c 3c
       0.016940685 0.057709984 0.048590418 0.015425933
0001f0 34 b0 08 3d 9e 0d 69 bc 14 50 ed bc 3e 4b ce bc
       0.033371165 -0.014224438 -0.028968848 -0.025182363

conv_blocks.12.weight f4 [128]
000000 c9 b6 7f 3f 13 0e 80 3f f6 07 80 3f 58 aa 7f 3f
       0.99888283 1.0004295 1.000243 0.998693
000010 e8 0c 80 3f 95 9c 7f 3f 6c 0d 80 3f 9b 28 80 3f
       1.0003939 0.998483 1.0004096 1.0012392
000020 0b ce 7f 3f e6 08 80 3f 0b 02 80 3f 49 a8 7f 3f
       0.9992377 1.0002716 1.0000623 0.9986616
000030 31 d2 7f 3f 32 f2 7f 3f 49 bb 7f 3f f5 a4 7f 3f
       0.999301 0.99978936 0.9989515 0.9986108
000040 fc 12 80 3f a8 15 80 3f ae 36 80 3f 48 92 7f 3f
       1.0005794 1.0006609 1.0016687 0.9983258
000050 7e a6 7f 3f 5b a5 7f 3f dc 20 80 3f 2c 14 80 3f
       0.9986342 0.9986169 1.0010028 1.0006156
000060 64 d5 7f 3f ff bd 7f 3f 77 ba 7f 3f 6a 9b 7f 3f
       0.99934983 0.99899286 0.998939 0.9984652
000070 64 22 80 3f 16 34 80 3f 5b dd 7f 3f bd b5 7f 3f
       1.0010495 1.0015895 0.99947137 0.99886686
000080 c3 39 80 3f dd de 7f 3f 96 e8 7f 3f 4a 22 80 3f
       1.0017627 0.9994944 0.9996427 1.0010464
000090 0f 36 80 3f 9a 0e 80 3f 6a 2a 80 3f 49 3f 80 3f
       1.0016497 1.0004456 1.0012944 1.0019313
0000a0 2c 23 80 3f 45 06 80 3f 58 d4 7f 3f 30 1e 80 3f
       1.0010734 1.0001913 0.99933386 1.0009212
0000b0 14 a4 7f 3f 43 aa 7f 3f fe e4 7f 3f 64 f5 7f 3f
       0.9985974 0.99869174 0.9995879 0.9998381
0000c0 d3 a3 7f 3f 3c c8 7f 3f d5 32 80 3f fc 9e 7f 3f
       0.9985935 0.9991491 1.0015513 0.99851966
0000d0 d4 f0 7f 3f 59 14 80 3f fe a4 7f 3f b2 08 80 3f
       0.9997685 1.000621 0.99861133 1.0002654
0000e0 c8 2e 80 3f cb 1d 80 3f 2a c8 7f 3f 00 07 80 3f
       1.0014277 1.0009092 0.999148 1.0002136
0000f0 f1 d4 7f 3f 88 e4 7f 3f 67 14 80 3f aa 32 80 3f
       0.999343 0.99958086 1.0006226 1.0015461
000100 58 35 80 3f 08 0b 80 3f 24 bb 7f 3f 3e b2 7f 3f
       1.0016279 1.0003366 0.9989493 0.9988135
000110 3a 26 80 3f 98 ab 7f 3f 8a 2b 80 3f ad fa 7f 3f
       1.0011666 0.99871206 1.0013287 0.99991876
000120 0a 1c 80 3f 93 21 80 3f 18 d9 7f 3f 42 2d 80 3f
       1.0008557 1.0010246 0.99940634 1.0013812
000130 70 14 80 3f 8b 3a 80 3f ee a9 7f 3f a9 2d 80 3f
       1.0006237 1.0017866 0.9986867 1.0013934
000140 fa 9c 7f 3f 24 06 80 3f 5b d7 7f 3f cd 07 80 3f
       0.998489 1.0001874 0.9993798 1.0002381
000150 40 e9 7f 3f 32 11 80 3f af 33 80 3f 26 38 80 3f
       0.99965286 1.0005248 1.0015773 1.0017135
000160 6d 93 7f 3f 1b c8 7f 3f ef b2 7f 3f 6a c1 7f 3f
       0.9983433 0.9991471 0.99882406 0.999045
000170 01 b2 7f 3f 90 c7 7f 3f e0 b1 7f 3f 79 fe 7f 3f
       0.9988099 0.99913883 0.9988079 0.9999767
000180 12 13 80 3f a4 f0 7f 3f ac 2a 80 3f 44 ba 7f 3f
       1.000582 0.99976563 1.0013022 0.99893594
000190 1d eb 7f 3f 8f f7 7f 3f 23 e8 7f 3f 67 35 80 3f
       0.9996813 0.9998712 0.9996359 1.0016297
0001a0 c6 25 80 3f dd b0 7f 3f 80 16 80 3f e8 1d 80 3f
       1.0011528 0.99879247 1.0006866 1.0009127
0001b0 99 a6 7f 3f 3b 2c 80 3f c0 24 80 3f ea ab 7f 3f
       0.9986358 1.0013498 1.0011215 0.99871695
0001c0 3f 92 7f 3f 13 1d 80 3f 0b ba 7f 3f cb d1 7f 3f
       0.9983253 1.0008873 0.99893254 0.99929494
0001d0 20 b0 7f 3f 8d b4 7f 3f ee d2 7f 3f f4 1f 80 3f
       0.9987812 0.99884874 0.9993123 1.0009751
0001e0 92 23 80 3f 08 f3 7f 3f 7b 30 80 3f db 39 80 3f
       1.0010855 0.9998021 1.0014795 1.0017656
0001f0 07 21 80 3f 87 2a 80 3f a1 0b 80 3f 6b 14 80 3f
       1.0010079 1.0012978 1.0003549 1.0006231

conv_blocks.12.bias f4 [128]
000000 30 7f 90 3a 0d c3 21 3a 4c 9c 10 ba a9 86 37 3a
       0.0011024233 0.00061707274 -0.0005516454 0.0007000962
000010 34 ac 74 3a dd ca 91 ba 36 9d 91 ba b6 18 6d 3a
       0.00093335216 -0.001112308 -0.0011109475 0.0009044515
000020 39 89 4f ba 3f f6 19 39 73 47 71 b9 b5 e0 f9 b8
       -0.0007916871 0.00014682951 -0.00023010168 -0.000119151
000030 14 95 ab b9 c9 8f 02 ba 46 fb a5 ba a4 0e c6 ba
       -0.00032726733 -0.0004980532 -0.0012663386 -0.0015110564
000040 7e d2 62 b8 49 c7 82 b9 8f 44 7b 3a 35 b7 c9 ba
       -5.4078635e-05 -0.0002494401 0.0009585106 -0.0015389683
000050 c4 c5 57 ba 75 7f 2e b9 e9 1a b8 39 12 83 7e ba
       -0.00082310685 -0.00016641415 0.00035115264 -0.0009708862
000060 38 2a 16 ba 50 08 b9 3a f8 7e 38 ba 9b 9e da b9
       -0.0005728337 0.0014116857 -0.0007037963 -0.0004169837
000070 13 5c 01 b9 d3 9e eb b9 89 93 bb 39 b1 83 33 3a
       -0.00012336699 -0.00044941026 0.00035777342 0.00068479317
000080 4a e8 61 3a 06 f9 d8 3a 09 8e 42 3a 84 58 6a b9
       0.00086176826 0.0016553707 0.00074216776 -0.00022348954
000090 f4 e4 a6 39 b3 4a 92 b9 99 3f 4c ba 34 5e b7 3a
       0.0003183257 -0.00027902945 -0.0007791459 0.0013989867
0000a0 9c 02 08 3a d4 22 81 39 8f 93 6e ba cb d7 03 ba
       0.0005188377 0.00024630746 -0.00091009674 -0.0005029409
0000b0 36 c4 36 ba 99 75 1d ba e2 e4 6c ba c7 2e 17 ba
       -0.0006971987 -0.0006006598 -0.0009036792 -0.0005767163
0000c0 8c 86 24 3a e2 50 ab 3a df 17 96 3a 5a 1f 59 38
       0.00062761526 0.001307037 0.0011451206 5.176603e-05
0000d0 6c ab 29 3a 7a 14 db b8 8e e7 8e ba 70 3b 2e 3a
       0.0006472382 -0.00010446548 -0.0010902749 0.000664643
0000e0 16 72 38 ba 28 92 f4 39 c0 ae c0 ba 68 6b a9 ba
       -0.0007036043 0.00046648202 -0.0014700517 -0.0012925686
0000f0 3f ff 09 3a 67 6d 5b b9 f0 ff 58 b8 2c 68 bc 39
       0.000526417 -0.00020926223 -5.1736773e-05 0.00035935768
000100 63 2c 9b 3a 66 cf 80 ba 25 4c 8b ba c8 bf 20 ba
       0.001183879 -0.0009827435 -0.0010627551 -0.0006132093
000110 52 f8 36 3a b6 ea 9b 38 86 bd 65 3a d9 38 c7 39
       0.00069797516 7.434694e-05 0.0008763898 0.00037998593
000120 a7 ae 13 3a f5 df 3d b9 0d a4 b2 3a a8 84 82 3a
       0.000563363 -0.00018107875 0.0013629213 0.0009957748
000130 e3 a4 98 b9 33 7e c9 3a b7 8e 85 ba 91 9b 1b ba
       -0.0002911455 0.0015372693 -0.0010189627 -0.0005935962
000140 ec 5b d6 ba da 43 3c 3a 64 2a 55 ba 1f ec 72 3a
       -0.0016354299 0.00071817415 -0.0008131622 0.0009266752
000150 3d 30 02 b9 e2 aa 97 ba 3b 57 46 3a cd 9c c8 3a
       -0.00012415736 -0.0011571313 0.0007566099 0.0015305519
000160 1e 95 6a 3a 8b ec 4e 3a 1f d8 67 ba b6 36 9a ba
       0.0008948612 0.0007893524 -0.0008844155 -0.0011765573
000170 db e6 a0 b8 dc ad 10 b9 b7 8d 15 3a 03 51 49 3a
       -7.672395e-05 -0.00013797678 0.0005705016 0.0007679613
000180 6c 8d 2e 3a b1 96 72 ba 05 31 b0 3a 2f 5e ad ba
       0.0006658647 -0.0009254022 0.0013442343 -0.0013226921
000190 be 7d 4a ba 3c ec 7b b9 0a 7c 24 b9 6a d1 a5 3a
       -0.00077244255 -0.0002402523 -0.00015686467 0.0012650911
0001a0 39 de 13 b9 02 bc 28 ba bc 18 77 37 70 b5 39 3a
       -0.00014101797 -0.0006436707 1.4728106e-05 0.0007084226
0001b0 20 02 45 b8 75 2e 8b ba 66 37 a6 3a a3 ce ab 39
       -4.697044e-05 -0.0010618704 0.0012681305 0.00032769618
0001c0 98 57 ca ba af f0 9e ba 01 fc bf b9 f1 11 a7 b9
       -0.0015437482 -0.0012126173 -0.00036618116 -0.0003186609
0001d0 2f 84 01 ba 27 13 63 3a 96 c5 8c ba 4f 51 da 39
       -0.00049406564 0.0008662217 -0.0010740038 0.0004164078
0001e0 e4 17 50 3a 8e 5e ad b8 25 94 bb ba 25 d9 0b 39
       0.00079381303 -8.266895e-05 -0.0014311118 0.00013336966
0001f0 b6 48 b1 3a fd 2a 89 3a 9d 79 b7 39 94 8a 2a 38
       0.0013525698 0.0010465082 0.0003499509 4.066022e-05
