data/gan_output/discriminator_epoch_50.pth (torch, 191742 bytes, 21 tensors)

conv_blocks.0.weight f4 [16, 1, 4]
00000000: 6007 693d 70be ca3d 85c0 d6bc f06f d83e
00000010: 8939 8cbc 1c39 0f3d a695 c7be 1c83 0c3d
00000020: aa2b fe3d b830 d4be 4c3a af3d baec 44bd
00000030: 8a44 debe 50b2 993e 1e46 c33e 8284 e4be
00000040: 9cf7 c9be ce52 cb3d 6198 b4bd cbae 933e
00000050: 3abf bebe c375 8c3e 1216 eabd 65c3 bb3e
00000060: b284 993e fe3d f8be c18c bc3e 416d 5d3e
00000070: fabd efba 0165 5dbe f2fb aa3e c56b eebe
00000080: 907d 62be 1862 a7be 341e 1c3e cc0a 8f3e
00000090: b1f4 dc3d 86c5 3d3e cfe7 dd3e c274 023e
000000a0: cce8 643e b6f7 9abe 3d6f ecbe 537e 9ebe
000000b0: 9f22 58be 66ba 1e3d 0dd3 9bbe 962e fcbd
000000c0: fae5 1cbe 4d9f 673e 4d7b d7be 3b89 fbbe
000000d0: 9daf 903c 7243 b4bd e797 a3be f50a d2be
000000e0: 7296 08be 5ceb 2abe 3860 1b3d 238e 23be
000000f0: 3fe6 7c3e 09c7 5f3e 576b 94be b71a b2be
0.0568918 0.09899604 -0.026214847 0.42272902 -0.017117279 0.034966573 -0.3898136 0.034304723
0.12410672 -0.4144342 0.08556041 -0.048077323 -0.43411666 0.30018854 0.38139433 -0.44632345
-0.39446723 0.09927903 -0.088181265 0.28844294 -0.3725527 0.27433595 -0.11429991 0.36672512
0.2998405 -0.48484796 0.36826137 0.21623708 -0.001829087 -0.21620561 0.33395344 -0.46566597
-0.22118211 -0.32692027 0.15245897 0.27937925 0.10788859 0.1853238 0.43340918 0.12739852
0.2235443 -0.30267113 -0.46178618 -0.30955753 -0.21106957 0.038751982 -0.30434456 -0.12313573
-0.15322104 0.22619362 -0.4208626 -0.49128136 0.017661864 -0.08801927 -0.3195183 -0.41023985
-0.1333864 -0.16691345 0.03793356 -0.1597219 0.24697207 0.2185327 -0.28988144 -0.34786007

conv_blocks.0.bias f4 [16]
00000000: b09b 06bf 004c 13be d0e8 81be 23e5 823e
00000010: e2c6 243e f71c 8f3d 8ccd b7be 71d0 ec3e
00000020: 7a1b 833e 0d48 b63d 4f77 3dbe 4363 00bf
00000030: 6792 5bbb 0fad cf3d eee9 b73e 628c 83be
-0.5258131 -0.1438446 -0.25372934 0.25565442 0.16091493 0.069879465 -0.35899007 0.46252778
0.256069 0.08900461 -0.18502544 -0.5015146 -0.003350401 0.1014043 0.35920662 -0.2569304

conv_blocks.3.weight f4 [32, 16, 4]
00000000: 6f66 10bd 2c2c 0c3e 8195 ec3d 24ac 61bd
00000010: f4ab eebd ef07 003d fab9 c8bd c867 293d
00000020: ef9d 613d d290 473d 3490 9e3c a83e bfbc
00000030: 8aa8 43bd 3dde 03be ceb6 013e 8662 d8bd
00000040: 037c 4cbd 83ff 683d e5e6 fdbd a782 873d
00000050: d7c7 93bd d8fa e03c a2d1 f43d 6c81 3abd
00000060: 2ca8 503c f763 893d e10f 17bb 60c4 893d
00000070: 6470 9e3d 4563 e7bd 084f afbd 6051 773d
00000080: 0d9f 06bd 18c7 0fbc 519c 4b3d 682c c0bd
00000090: 22a7 4fbd 216c 2f3c 7587 853c e271 4bba
000000a0: 6ddb 3abd b2a3 1fbd 4aa7 1f3d d812 1b3d
000000b0: 3139 20bd 7762 bdbc 790c 18bd 2e84 2a3d
000000c0: 960e b13d 317b 3c3d 53ce df3d 194f 233d
000000d0: 5bfa bdbd 8fa6 43bd f854 373c bdf0 9ebc
000000e0: 56ea f1bd 4911 a6bd fc85 d1bd f242 323d
000000f0: 7e2e 99bd 7a0c 813d 6cca 5ebd cfc1 cfbc
00000100: 1ee5 86bd af33 083e 8eb8 073c c59c a03d
00000110: 267c ddbd 89d6 9abd f4f0 c838 5182 de3c
00000120: e09a 92bd 5986 b9bd 00f7 d63d 7b2f 6ebd
00000130: ab58 79bd e023 393d c792 59bd c5cf e33d
00000140: 3f02 063c 4782 ec3d 4715 a43c 3c1c 4abd
00000150: 6e1a 77bd adc2 433d b6e3 6d3d db53 a03d
00000160: dcdd 72bb 9271 87bd c067 43bb 80c4 07bc
00000170: 3189 7b3b 8067 373c f7c0 18bc e125 723d
00000180: a718 2dbd 370e ff3d 5354 a83c 7c8f 19bd
00000190: 9204 67bd 461e 023d fec7 bf3d 4c27 e7bd
000001a0: 89bc 86bc 5868 d9bd 04a3 64bd 5023 ebbd
000001b0: 1909 0abd 930f 153d c86e ae3d f3a9 60bd
000001c0: d2d3 fb3d ec12 59bd 9e58 ee3d 0c02 823d
000001d0: b42c 983c 94ad 02be 14d3 573d 27ec 87bd
000001e0: db99 7f3d cee7 e2bd 48eb 453d e914 82bd
000001f0: 3343 ee3d 0a0d 833c d02c e8bc e303 fc3c
00000200: 5ee5 d33d 3957 1f3d 29f6 7d3d ca82 133d
00000210: 6cc9 8bbc a5f8 82bb 1631 893d 35e6 07bd
00000220: 40ff 16bd 9b26 643d a497 b6bc 16f1 ddbd
00000230: 5c64 a1bd 698f 783d 92e0 13bb 8605 e63d
00000240: 54d2 b7bd e93e e3bd b35f f7bd b6e8 10be
00000250: 7868 3bbc 26be f0bc 9600 d73d 90d5 58bc
00000260: c38d 8ebd e066 d1bd a0ba c43d 5239 b23d
00000270: 7b37 92bd d70a 97bd 7fee bd3d c9c3 5a3d
00000280: 5e79 c13d b044 07be 2e59 d43d 779e 90bd
00000290: 3a75 a63d 1e05 b03d a505 033d 404a cf3c
000002a0: 4231 d03d d9d5 7d3d 427a 353d b024 25bd
000002b0: 55c8 67bd bb5c 85bd 02bc 323d 1a0b d73c
000002c0: b8fd e9bd dee9 bbbd 1ca1 e83c b290 08bc
000002d0: e5a2 853d 5f2f 773d 0e21 bdbd 42fe 883d
000002e0: 6f23 9f3b abf8 213d b96d 5f3d 68eb 4abd
000002f0: 1b64 e33d 57ef 6fbd c862 833d d96b b2bd
00000300: 5a83 18bd 3030 d03d 8e74 c8bd e4b5 d53d
00000310: f7b9 b8bd 11f9 c5bb e37e 1e3d ade0 44bd
00000320: c98d bebd 1c6c b1bd c2f7 653c 18e7 b23c
00000330: 93f9 b53d 4624 6bbd aa9b 8cbd f430 403d
00000340: 7cff 603c 2d5c e93b a188 9a3d d0f0 ed3b
00000350: e83f 97bd d7a8 ea3d 8024 1fbd ef82 ae38
00000360: f730 cd3d 2cc5 bfbd a4dd 9dbd fd5c ebbd
00000370: 285e d93d 169e 833d 6bd9 be3d f6a5 953d
00000380: 68fb b1bd 1fef 6ebc 0e19 6f3c 7b27 353d
00000390: 0d13 62bc 3965 5cbd b2a4 e13d bf3f a4bd
000003a0: 9042 c7bd 7192 01be a4e6 963d 53bc 5bbd
000003b0: 352d bc3d 71c8 dd3d 042d dc3d 4a42 cfbd
000003c0: 2440 ccbd 077b 0abd 67d8 03bd ae21 debd
000003d0: 42c9 b13d 3213 cdbd 684a a0bd 961f 0cbd
000003e0: f1eb ebbd d5bb 3bbc 9b02 ed3c c2ef 8fbc
000003f0: ec53 ddbd 37de 833d e2d7 e1bd 8d47 c03c
-0.03525394 0.13688725 0.11551953 -0.055095807 -0.11653891 0.031257566 -0.09801097 0.04135874
0.055082258 0.048722096 0.01935587 -0.023345307 -0.047768153 -0.12877746 0.1266739 -0.10565667
-0.049922954 0.0568843 -0.12397555 0.06616717 -0.07215851 0.027463362 0.11954047 -0.045533583
0.012735408 0.0670852 -0.0023050236 0.06726909 0.077362806 -0.11298231 -0.08559996 0.06038034
-0.032866526 -0.008775495 0.04970962 -0.0938347 -0.0506965 0.010706932 0.016299943 -0.00077608053
-0.045619417 -0.03897447 0.0389779 0.037859768 -0.039117042 -0.02311824 -0.03712127 0.041629963
0.0864536 0.046015922 0.10928025 0.039870355 -0.09276267 -0.047766265 0.011189692 -0.019401902
-0.11812274 -0.08108766 -0.102306336 0.043520875 -0.07479571 0.06301208 -0.054392263 -0.02536097
-0.065866694 0.13300966 0.008283747 0.078424014 -0.10814695 -0.075604506 9.581624e-05 0.02716175
-0.07158446 -0.09058828 0.1049633 -0.05815075 -0.060875576 0.04520023 -0.053118493 0.11123613
0.008179246 0.11548286 0.020029677 -0.049343333 -0.06032794 0.04779308 0.05807849 0.07828494
-0.0037058508 -0.06613459 -0.0029816478 -0.008286595 0.0038381333 0.01119411 -0.00932335 0.059118155
-0.04225984 0.12453883 0.020548021 -0.037490353 -0.056400843 0.031767152 0.09364317 -0.11286792
-0.016447322 -0.10615605 -0.055819526 -0.11481345 -0.033700082 0.036391806 0.085172236 -0.054849576
0.12296261 -0.05299656 0.11637996 0.06348047 0.018576004 -0.12761527 0.052691534 -0.06636839
0.062402587 -0.110793695 0.048320085 -0.063516445 0.11633911 0.015997428 -0.02834168 0.030763572
0.10346483 0.03890154 0.062002335 0.036013402 -0.017063819 -0.003996926 0.066988155 -0.033178527
-0.03686452 0.05570088 -0.022289105 -0.10836999 -0.0788047 0.06068364 -0.0022564274 0.11231522
-0.08975664 -0.110959835 -0.120788 -0.14151272 -0.0114384815 -0.029387545 0.10498159 -0.013234511
-0.06960633 -0.102247 0.096059084 0.08702339 -0.07139488 -0.073751144 0.09274005 0.05340937
0.09446977 -0.13209796 0.10368572 -0.07061475 0.08127828 0.08594726 0.031987805 0.02530396
0.10165645 0.06197152 0.044306047 -0.04031819 -0.056587536 -0.065118276 0.04363633 0.02625041
-0.11425346 -0.09175466 0.028397135 -0.008335279 0.0652521 0.06034791 -0.0923482 0.06689121
0.004856519 0.03954379 0.054548 -0.049540907 0.11103078 -0.05857786 0.064153254 -0.087119766
-0.03723464 0.10165441 -0.09787856 0.104350835 -0.09019845 -0.006041654 0.038695227 -0.04806583
-0.09304387 -0.08663198 0.014036121 0.02183871 0.08885493 -0.05740764 -0.06865628 0.046921685
0.013732787 0.007121584 0.07545591 0.007261373 -0.07385236 0.11457985 -0.03885317 8.321355e-05
0.10019105 -0.093637794 -0.0770829 -0.114923455 0.10613662 0.06426637 0.09318813 0.07307045
-0.0869053 -0.014583378 0.014593376 0.044227105 -0.013798487 -0.05380747 0.11017741 -0.08019971
-0.09729493 -0.12653519 0.0736821 -0.053646397 0.0918831 0.10829247 0.107507735 -0.101200655
-0.09973171 -0.033808734 -0.0321888 -0.10846268 0.08680965 -0.10013427 -0.07826692 -0.03420981
-0.115196116 -0.011458357 0.028931906 -0.01757038 -0.108070225 0.064388685 -0.110275045 0.023471618

conv_blocks.3.bias f4 [32]
00000000: 2111 68bd 4275 16bd 8a1d 0f3d 58dd 81bc
00000010: 398f b4bd e409 cabc a662 953c 7d39 2dbc
00000020: 938e 883c 7bfb dd3d b95e 883b 4ce1 a1bb
00000030: 5cf2 153c 7b63 133d ff34 563d 6331 483d
00000040: 9e51 a0bd 707a a53d 9e22 73bd 2dcb 213d
00000050: a356 3a3d 02ac d73c 94bb 4e3d 1676 2f3d
00000060: dab5 f5bd 27d6 983d 1d1e d43b 42a6 e33d
00000070: eaa1 6cbd d945 3fbb 55ef 5b3d 1857 77bd
-0.05665696 -0.03673292 0.03494028 -0.015852615 -0.0881638 -0.02466292 0.018235516 -0.010572788
0.016669547 0.10838982 0.0041616824 -0.0049401876 0.009152021 0.035983544 0.052296635 0.048875224
-0.07828067 0.08079994 -0.059359185 0.039500404 0.04549278 0.026327137 0.050471857 0.042837225
-0.11997576 0.07462721 0.0064733163 0.111156955 -0.0577716 -0.002918592 0.05369504 -0.060385793

conv_blocks.4.weight f4 [32]
00000000: 9be5 803f e29f 7e3f a724 803f 6a1b 803f
00000010: 2381 7e3f 2e8b 803f c3d2 813f 34bb 7e3f
00000020: a563 7e3f 4ce6 7f3f 72f8 7d3f 26e6 7e3f
00000030: 7d30 823f e547 803f 0a27 7f3f 6372 803f
00000040: 748b 813f 9605 803f 973e 813f 2356 7f3f
00000050: e5e1 7b3f df38 813f 40ed 7f3f 47a9 803f
00000060: b656 7d3f 8dd3 7f3f b3b7 7f3f 292c 813f
00000070: 9039 7b3f 16f3 7c3f f166 823f 9114 7d3f
1.007007 0.9946271 1.0011185 1.0008366 0.99415797 1.0042474 1.0142444 0.995044
0.99370795 0.9996078 0.9920722 0.9956993 1.0171047 1.002194 0.99668944 1.0034908
1.0120683 1.0001705 1.0097226 0.9974081 0.9839156 1.0095481 0.9997139 1.0051659
0.98960435 0.99932176 0.9988968 1.0091602 0.9813471 0.9880842 1.0187665 0.98859507

conv_blocks.4.bias f4 [32]
00000000: 5b3f e3bb 4817 9dbc d33b 143c 66ff 71bc
00000010: 1f7b d73b aaf2 653c 2b1c 0bbc 3d6d 493c
00000020: 4f50 c43c 1740 0638 f337 aebc ed99 8abc
00000030: 58a4 b33c 047e 6bbc a47b 53bc 2670 21bc
00000040: bb35 cd3c 6696 f1bb 6eca bebb 67f0 da3b
00000050: 7822 21ba af5e 09bc 4234 19bc e9aa aebb
00000060: a26d b4bc 197d 66bc 127c 7fbc b53d a9bb
00000070: 0fca 1e3c 304c 66bc 74b9 923c 6435 993c
-0.006935043 -0.01917614 0.009047466 -0.014770364 0.0065759565 0.014034906 -0.0084906025 0.012294111
0.023964075 3.2007778e-05 -0.021266913 -0.0169191 0.021928951 -0.014373306 -0.012907896 -0.009853398
0.025050035 -0.007372665 -0.0058224713 0.00668149 -0.0006146799 -0.008384391 -0.009350838 -0.0053304327
-0.022024933 -0.014067912 -0.0155935455 -0.0051648268 0.009691729 -0.01405625 0.017910697 0.018702216

conv_blocks.4.running_mean f4 [32]
00000000: bec0 84be cd19 a43a 117e fb3c 1a7d 3b3c
00000010: 5e3b 133e e3ee 613c a57b 51be fe2d dabc
00000020: e547 2a3e 277b 463e 6784 37be 3e8e 003e
00000030: a67c c93c 6e3c f8bd ba61 d1bd 27b2 24be
00000040: 1e2a 243e 9db5 9e3d a268 4e3c 9d9c 993d
00000050: 499c 493e 5098 01be c3e0 a6bd b6e8 213e
00000060: 88e7 68be 8612 913d fee6 6e3e 4f23 55bd
00000070: c5ab 8c3d 2c59 4c3e 8d83 153c 197c f3bb
-0.259283 0.0012519896 0.030699762 0.011443401 0.14378116 0.013789865 -0.20457323 -0.026633259
0.16628988 0.19382916 -0.17921601 0.12554261 0.02459557 -0.12120901 -0.10223718 -0.16083585
0.16031691 0.07749484 0.012598189 0.07500575 0.19688524 -0.12655759 -0.08148339 0.15811428
-0.22744572 0.07083611 0.23330304 -0.052035626 0.068687 0.19955891 0.009125602 -0.007430565

conv_blocks.4.running_var f4 [32]
00000000: 6554 403d 2597 1e3d 0a0b 1d3d 6eed 1b3d
00000010: bd01 163d 4c81 623d b92c 803d 9360 143d
00000020: ed62 ed3c 36f1 a33d 04fb 9a3d f044 203d
00000030: 1b6c c43c 41c6 a23d 61ae 173d eba9 e13c
00000040: 92ff ef3c 2cfb 0a3d ee24 193d 349a 0b3d
00000050: 443e fd3c 14a4 703d f322 223d 0826 1b3d
00000060: 7efe 223d 6dbb 1b3d 94f1 1f3d 76d1 423d
00000070: e7e2 133d 24f9 253d eb7e f93c c733 b03c
0.046955485 0.03871836 0.038340606 0.038068227 0.03662275 0.05529909 0.0625853 0.036224913
0.028977836 0.08004992 0.07567409 0.039128244 0.02397733 0.0794797 0.037031535 0.027546844
0.02929667 0.033930942 0.037388735 0.034082606 0.03091348 0.058750227 0.03958411 0.037878066
0.039793484 0.03802054 0.039048746 0.04756304 0.036105063 0.040520802 0.030456027 0.021509064

conv_blocks.7.weight f4 [64, 32, 4]
00000000: 0c00 883b 5c70 3c3c 4032 cf3b af04 7d3d
00000010: d192 463d 4bea 31bc 6414 563d a350 b33c
00000020: 4991 4ebd bdc5 12bd 9032 8d3d dbae 8a3d
00000030: b21b 0fbd 8177 703d 164b bf3d 5515 87bd
00000040: f6b1 c3bc 89d0 3b3d bde7 07bc 18d8 613d
00000050: e2f1 96bd c7f6 4bbd 5f4d 253d 853f 993c
00000060: f688 68bc c7f6 973d c46f 713d 5fc4 47bd
00000070: 250c 92bd ba63 753d 77a5 ebbc 2f80 2e3d
00000080: 679d 0a3c e049 843d 39d0 b13d f095 a33d
00000090: de01 5ebd 1676 3cbd f50d 423c 59da 9c3d
000000a0: 6ca8 53bc 13e6 7e3d e87c 9d3d f9ee 743c
000000b0: 7c0a da3c 5a45 a4bc e192 30bd 4724 ce3c
000000c0: 80ad 733c 5580 04bc 7e4d 273d 0532 73bd
000000d0: cb06 fa3c 8355 9bbd d987 853c f393 7cbc
000000e0: e8c2 70bd ab2f 13bd 024b ecbc 52be 77bd
000000f0: 4705 25bd 835e 5abd 2252 10bd 1752 3fbd
00000100: a281 bfbc 535b 773a d9de bb3d fda5 533d
00000110: 0149 e3bc 1eda 2b3b 4528 783d 370c 193b
00000120: 81ba b43c 3a62 333d 9356 f9bc 3e7b 75bd
00000130: 3863 45bd 14bc 02bc 96b6 2a3d 42cb 493d
00000140: 0939 88bd 6c35 803c e4c3 043d 6fbd a1bc
00000150: 1624 9ebd a516 0e3b 8922 fc3c ad33 2fbd
00000160: 0bad 96bd 021e 443d 287b ae3d 2887 853b
00000170: 6c62 923d 5fc7 3dbd a772 763d da8f 513c
00000180: bf8c 603d 26ce 71bc 60c9 243d f3b6 42bd
00000190: 683a 693d 6a52 bc3d b38e 8a3d b3c8 5c3d
000001a0: 2197 673d 1c61 c33b bffa 98ba d5e0 a33d
000001b0: a90f abbd f314 95bd 5294 613c fec1 3ebd
000001c0: a1f7 563c 6daa 873d 5bcc 43bd 88d8 1c3d
000001d0: 7e23 64bd cb0a a2bc e055 44bd 325c 3f3d
000001e0: 0f7c 0bbd 1ac9 813d 9931 9d3c f948 60bd
000001f0: 3dc7 8e3d bff7 7ebc 9050 a8bd d100 46bd
00000200: 635e 1a3d 3cda 11bd bbdd 123d 4ca0 143d
00000210: 9074 84bb 230f 89ba 7abe 8ebc 4dd2 4f3d
00000220: 9961 083c 0720 993d eb4f 63bd 0e0f bcbd
00000230: 4f95 2a3d 99df 80bd ab48 723c 36dc 3b3d
00000240: 6d74 aebd 4531 7f3d c7d8 9e3d 6a5e 803d
00000250: 9fc7 003d e25f 98bd 97f0 883d f709 493d
00000260: 66ad 873c 4efd e2bc 1e92 87bd fc74 92bd
00000270: 1564 923d fc42 303d b860 fcbc 9ff8 fdbc
00000280: 528c 95bd a060 b3bd 27a2 f4ba 252f 70bd
00000290: 4d20 833d bb2a 84bc bc40 51bd 74a3 7abd
000002a0: c8fa bdbd 51db 2bba d833 81bc 6171 3c3d
000002b0: b6fc 6fb9 1efa a0bc fba0 a43a 3acb aebc
000002c0: 21f8 253c cff2 833d 0cbf 813d a27b 123d
000002d0: b555 b3bb 8424 d53c 250e afbd f22b 9dbd
000002e0: 1e17 ab3d 213f 8e3d c081 9a3d 4158 aebd
000002f0: bd46 a63d 5df6 8abc 6865 ab3c 1e33 d63c
00000300: 984b 083d 60ee eabb 0f58 afbc 806a 05bc
00000310: e087 1f3d 0f77 013d e31d 603d ad67 cebc
00000320: d6a8 d83c 385a 973d a2d7 bdbd 8305 9abd
00000330: 5e61 67bd 290f 173d 3fc1 193d 20c9 0a3d
00000340: b642 fd3c 2f4f c0bc 8f30 9b3d 3748 8dbd
00000350: 39a4 863d 3329 873d 23d5 83bc 41e4 813c
00000360: 6229 ecbc 08c9 033c deb7 883d ca78 463c
00000370: 1266 90bd d9df 55bd 4698 273d 2771 2dbc
00000380: aaf7 e93b 480d 94bd 6a58 a93d 0162 843d
00000390: a54c abbd ad64 b33d 498e 393d 8cdc ef3c
000003a0: 55d3 643d 04c6 64bd 0e48 18bd c33e 803d
000003b0: 811e 043c 993c a93b 34db 8f3d 19f2 403c
000003c0: e0e5 54bd e018 a03c cfd2 693d e76f a73d
000003d0: d523 563d 946b c9bd 1813 31bd 1398 32bc
000003e0: 19f3 ffbc 2fa6 cf3b 3cee cdbc b770 c2bc
000003f0: 3acf a5bd b5f0 803d 438f 8bbc d0ad 8e3d
0.004150396 0.011501398 0.006323129 0.061772045 0.04847986 -0.010859082 0.05226554 0.021889037
-0.050431523 -0.03583311 0.0689441 0.06771632 -0.03493852 0.058707718 0.093404934 -0.06595866
-0.02388857 0.04585317 -0.008294997 0.055137724 -0.07370354 -0.049795892 0.04035699 0.018707046
-0.01419281 0.07420116 0.05894448 -0.04877126 -0.07131223 0.05990956 -0.028765423 0.042602714
0.008460379 0.06459403 0.086822934 0.07987583 -0.054201 -0.046011053 0.011844148 0.07658834
-0.012918573 0.062231135 0.076898396 0.014949554 0.026616327 -0.0200526 -0.043108825 0.025163783
0.014872909 -0.008087237 0.040845387 -0.059373874 0.030520817 -0.075846694 0.016300129 -0.015416133
-0.058779627 -0.03593413 -0.02884436 -0.060484238 -0.040288236 -0.05331279 -0.035234578 -0.046709146
-0.023377243 0.00094359106 0.09173364 0.05167197 -0.027744772 0.0026222537 0.06058528 0.0023353228
0.022061588 0.043794848 -0.03043679 -0.059931986 -0.048190325 -0.007979412 0.041678034 0.049266107
-0.066515036 0.015650474 0.03241338 -0.01974365 -0.077217266 0.0021680978 0.030778186 -0.04277389
-0.07357224 0.04788018 0.08519584 0.00407495 0.07147679 -0.046332713 0.060167935 0.012790645
0.054821726 -0.014758622 0.04023111 -0.047537755 0.056940466 0.09195407 0.06765499 0.05390234
0.056540612 0.005962504 -0.0011671408 0.08001868 -0.08352596 -0.07279386 0.0137682725 -0.046571724
0.013120563 0.06624303 -0.04780231 0.038292438 -0.05569791 -0.019780537 -0.04793346 0.046718784
-0.03405386 0.06337185 0.019188689 -0.054757092 0.069715954 -0.015561997 -0.08218491 -0.048340622
0.03768767 -0.035608515 0.03585599 0.036285684 -0.0040422156 -0.0010456782 -0.01742481 0.050737668
0.00832405 0.07476812 -0.055496138 -0.09182559 0.041646298 -0.06292648 0.014787833 0.045864306
-0.085183 0.062302846 0.07756191 0.06268008 0.031440374 -0.07440163 0.06686514 0.04908177
0.016562175 -0.027708676 -0.066196665 -0.07151219 0.071479954 0.04303263 -0.030807838 -0.03100234
-0.073021546 -0.08758664 -0.0018664048 -0.05863871 0.06402645 -0.016133657 -0.051087126 -0.061191037
-0.09276348 -0.0006555813 -0.015771791 0.046006564 -0.00022886958 -0.019650515 0.0012560183 -0.02133714
0.010129959 0.064427964 0.063352674 0.035762437 -0.0054728636 0.026018389 -0.0854762 -0.076743975
0.08354019 0.06945635 0.07544279 -0.08512927 0.08118961 -0.016963178 0.020922378 0.026147421
0.033275217 -0.00716953 -0.021404294 -0.008143067 0.03894794 0.031607684 0.054716002 -0.02519592
0.026447695 0.07390255 -0.09269644 -0.075205825 -0.05648934 0.036879692 0.03753781 0.033883214
0.0309156 -0.023475258 0.07577621 -0.068985395 0.06574292 0.06599655 -0.016092842 0.01585591
-0.028828327 0.008043535 0.06675695 0.012113759 -0.07050718 -0.05221543 0.040916704 -0.01058606
0.0071401196 -0.07229096 0.08268817 0.06464005 -0.08364228 0.08759437 0.04530171 0.02927997
0.055865604 -0.055852905 -0.03717809 0.06261971 0.008063913 0.0051646945 0.070242316 0.011776471
-0.05197704 0.019543111 0.05708581 0.081756406 0.052280266 -0.09834972 -0.0432311 -0.010900515
-0.031243848 0.0063369493 -0.025138013 -0.023735387 -0.08096166 0.06295911 -0.017036086 0.06966746

conv_blocks.7.bias f4 [64]
00000000: 391c 8d3c bd0d 76bd ae2d ecba 4e5f f8bc
00000010: 69a0 3abd 980a 97bc 1622 5dbd 6e12 b13b
00000020: 2d7d c73c a699 5ebd f85b 9a3d c4c9 89bc
00000030: 8c23 33bd 56bf 35bb c92d 6f3d f927 1abd
00000040: 473f 1fbd dfec c73b f261 ac3d b998 b1bd
00000050: 72cb 88bd 6316 91bc 9204 21bd c95d 46bd
00000060: 7636 ba3c 591c 5abd 15b4 a7bd 7a39 753d
00000070: 6153 483d c572 8d3d daf4 adbd 7a43 f3bc
00000080: b132 993d 4352 a5bc 6792 a53d 9dd2 2abd
00000090: 4ca3 2a3d c4e9 753d 9e7d f6bc 430c 46bd
000000a0: 1e26 b13d e21c 5dbd d343 2cbd f579 acbd
000000b0: cab0 2fbd f571 41bd 4998 9cbd 1fa8 4f3d
000000c0: fbd4 7dbd 4a18 33bd 71c2 9a3c 46a6 1fbd
000000d0: f2d8 a03c 29e3 983d e98c 44bd 5cd8 28bc
000000e0: 2e1b 89bc 094b 88bd 8492 0dbd d3c8 5f3d
000000f0: 06b3 af3d 1e32 54bc f831 a9bd b765 9bbd
0.017225372 -0.060071696 -0.0018018985 -0.030318882 -0.045563135 -0.018437669 -0.053987585 0.0054038083
0.02435168 -0.05434575 0.07537073 -0.016819842 -0.043735072 -0.0027732453 0.058393274 -0.037635777
-0.038878705 0.0061012353 0.08417119 -0.08671708 -0.06679429 -0.01771087 -0.039311 -0.048429284
0.022731047 -0.05324969 -0.08188645 0.059869267 0.04890764 0.06906656 -0.08493967 -0.029695261
0.07480372 -0.020180827 0.08084565 -0.041704763 0.04165964 0.06003739 -0.030089196 -0.048351537
0.086498484 -0.053982623 -0.04205687 -0.08421699 -0.04289321 -0.04722782 -0.076462336 0.050697442
-0.061970692 -0.043724336 0.018891545 -0.03897693 0.019634698 0.07465202 -0.047985945 -0.01030549
-0.016736593 -0.06654937 -0.034563556 0.05463488 0.08579068 -0.012951402 -0.08261484 -0.0758776

conv_blocks.8.weight f4 [64]
00000000: 2521 813f fb35 7e3f 40f9 7f3f 0766 803f
00000010: 7a25 803f ba63 7e3f 8649 813f 32e6 813f
00000020: 092f 7e3f b2b2 803f 6ef5 7d3f 38f7 7c3f
00000030: 8a3f 803f 3206 803f f6b3 7e3f 6ebe 803f
00000040: 5f2e 803f dc96 803f 2f6a 813f 17ae 7c3f
00000050: eb15 813f ba43 803f 5348 7e3f b85e 7d3f
00000060: a315 803f 10d5 7f3f 406e 7f3f dd64 7f3f
00000070: 6754 833f c2da 803f 9e25 7f3f 15af 7c3f
00000080: fd86 7f3f a508 803f 7748 823f a1b9 7f3f
00000090: 5284 7f3f cfcb 7e3f 871e 803f 2f04 7e3f
000000a0: 5712 803f 51af 803f e8e4 7d3f daf3 7d3f
000000b0: 69b6 803f 2ede 7e3f 6043 7f3f 2686 823f
000000c0: 7f1f 803f 49a7 7e3f b22e 803f f326 823f
000000d0: 4f1f 7d3f 9cbb 803f c33c 7d3f e418 803f
000000e0: 247c 7c3f 2702 7f3f ff3b 813f d27d 7c3f
000000f0: 06c3 7e3f 9c92 7f3f 94dd 7d3f abc2 803f
1.008824 0.9930112 0.999897 1.0031136 1.0011437 0.9937092 1.0100563 1.0148375
0.9929052 1.0054533 0.9920262 0.98814726 1.001939 1.0001891 0.9949335 1.0058115
1.0014151 1.0046039 1.011053 0.9870314 1.0084814 1.0020669 0.9932911 0.98972654
1.0006603 0.9993448 0.99777603 0.9976328 1.0260133 1.006676 0.99666774 0.98704654
0.9981535 1.0002638 1.0178365 0.9989262 0.9981128 0.9952974 1.0009316 0.99225134
1.0005597 1.0053502 0.9917741 0.9920021 1.0055667 0.9955777 0.9971218 1.0197189
1.0009612 0.99474007 1.001425 1.0168136 0.988759 1.0057254 0.9892084 1.0007596
0.98626924 0.9961266 1.0096434 0.98629487 0.9951633 0.99833083 0.99166226 1.0059408

conv_blocks.8.bias f4 [64]
00000000: 9521 b53c b2fa 0b3c 5ec4 07bc 7ce1 99bb
00000010: ed17 123c fc43 b13b 67ad 413c bb85 473c
00000020: 6bfb 86bb dfea b1bb d015 1fbc 8399 c03b
00000030: 5a13 b6bb 4d97 b439 c4cf cbbb 89cc 983c
00000040: 913f 973c 0ba2 c13c 6477 37bb 47f6 0ebb
00000050: 1cfc 883a 92d0 733c 1acb 59bc b742 0bbc
00000060: 187a 573c 8838 453a dfa1 b73a 829c f53c
00000070: b2dd 253c 8cec 46bc bb1d 96bb 398e 62bc
00000080: 9c4d 4d3c c61f 67bc a4f5 a13c 2890 1e3b
00000090: 6aca 9c3a 3867 67bb 896c 1c3a 255c 1f3c
000000a0: 26b4 d5bb 4d45 223c 4aff 34bc 9a69 d7bb
000000b0: 9431 9cbb 8f1b 8abc bfe3 483c 228f a93c
000000c0: 16d2 473b 8c35 98bc 42ea 143c e151 e23b
000000d0: f46e e9bb 052a 3f3b 52cd 69bc c3df 883b
000000e0: 844d a0bc 4c50 ccbb b372 573c 418d 81bc
000000f0: 7c8e 06bc ad91 4fba d489 02bc 9571 813b
0.02211074 0.008543657 -0.008286564 -0.0046960693 0.008916837 0.0054097157 0.0118211275 0.01217788
-0.004119327 -0.00542961 -0.00970979 0.005877675 -0.005556506 0.00034445003 -0.006219836 0.018652217
0.018462928 0.023636838 -0.0027994746 -0.0021814273 0.0010451111 0.01488127 -0.013293052 -0.008499793
0.013151668 0.00075233774 0.0014010033 0.029981855 0.010123657 -0.012141358 -0.004581181 -0.013827854
0.012530711 -0.0141066965 0.01977045 0.002419481 0.001196218 -0.0035309326 0.0005967101 0.009726559
-0.0065217195 0.009904218 -0.011047194 -0.006573868 -0.0047666524 -0.016858844 0.01226133 0.020698134
0.0030490211 -0.01858022 0.009089055 0.0069067334 -0.0071238223 0.0029169333 -0.014270144 0.004177065
-0.019568212 -0.006235158 0.013149905 -0.015814425 -0.008212682 -0.0007918131 -0.007967431 0.0039503076

conv_blocks.8.running_mean f4 [64]
00000000: 3585 713e 8735 aa3d b8ff 993c d049 f63d
00000010: b40f 91bd f699 35be c33c 993d e842 16be
00000020: c6e4 38bd ca3a a8be 5e19 36be b232 453e
00000030: bb05 87bd 4288 22be 81e8 243e e876 99bd
00000040: 4f1d 5d3e 91ac 893d 5ba6 1f3c c39a 283e
00000050: 1c11 b2be ba9d 553d 9af4 9abd c8c0 09be
00000060: 3472 8c3b ca25 2abe 285c ecbd ce2c aa3e
00000070: 8ab3 e9bd e4d3 4fbe d8c3 acbe 194a 4cbd
00000080: 2cd0 253e 13af 6d3d d0bd 4f3e 2301 423e
00000090: d80c 753e 2a6e debc 4719 5dbd 0a17 41bc
000000a0: 9a00 a3be 2042 963e b533 9bbd e6cd 38bd
000000b0: 9984 8c3d 87dc 21be 66c7 ddbd 8e1c 0abe
000000c0: 1222 89bd a4fc 2abe ca4d 383e 62ea 2cbe
000000d0: 37d1 113e 58af be3d f563 fc3d 1eef 023d
000000e0: 8aab 543e 1e6c 043e 955f 91be da6d 033e
000000f0: 11ae 3d3d c008 413e dfa7 0ebe ed64 4cbe
0.2358597 0.08310991 0.018798694 0.12025797 -0.07083073 -0.17734513 0.074822925 -0.1467396
-0.04514005 -0.32857352 -0.17783114 0.1925762 -0.0659289 -0.1587229 0.16104318 -0.07493383
0.21593212 0.067223676 0.009744252 0.16465287 -0.34778678 0.052152373 -0.07566185 -0.13452446
0.004286075 -0.16615978 -0.11541015 0.33237308 -0.114111975 -0.20295674 -0.33743167 -0.049875353
0.16192693 0.058028292 0.20287251 0.18945746 0.23930681 -0.02715214 -0.053979184 -0.011785278
-0.31836396 0.29347324 -0.07578222 -0.045118235 0.068612285 -0.15806781 -0.10829048 -0.13487455
-0.066959515 -0.16697937 0.17998424 -0.16886285 0.14239965 0.09310788 0.12323753 0.03196632
0.20768562 0.12931868 -0.28393236 0.12834874 0.04630858 0.18850994 -0.13931225 -0.19960375

conv_blocks.8.running_var f4 [64]
00000000: 79f5 6c3e b74f 803e e88a 753e 7cd6 973e
00000010: 7413 513e 2eb3 7a3e 366f 623e 2b0a 8e3e
00000020: 5f1c 823e 2fdd 623e 5655 373e a7f8 703e
00000030: d8c3 413e 37d5 853e 55bd 5c3e 0c47 4e3e
00000040: f2d3 733e 2804 863e 01a2 633e a1d1 793e
00000050: f955 4e3e dbb6 4c3e 528f 5d3e c0bd 8a3e
00000060: 6d33 4f3e ce36 563e 85bc 5b3e 7fa9 753e
00000070: fa46 833e 3d74 7b3e c2ff 743e b0a3 6e3e
00000080: c562 723e 0d96 583e 7b65 193e 13ad 653e
00000090: 123c 693e d740 673e 436a 4d3e 8e9c 5b3e
000000a0: 4b9b 5e3e 8949 603e aa2d 6b3e be9b 4e3e
000000b0: 6269 5c3e f44b 683e ace5 363e 8d97 2c3e
000000c0: a912 323e ae0d 403e f17d 293e 6485 663e
000000d0: 5a16 2a3e 827d 803e 0af9 623e f6d0 323e
000000e0: cd20 693e 2324 753e 06ce 5b3e 56b9 4d3e
000000f0: 00ff 373e 6e33 563e 0021 5c3e 787d 843e
0.23140515 0.25060818 0.2397877 0.29655826 0.20417577 0.24482414 0.22112736 0.27742133
0.2541227 0.22154687 0.17903647 0.23532353 0.18922365 0.26139233 0.215566 0.2014429
0.2381132 0.26175046 0.22229768 0.24396373 0.20149983 0.19991629 0.21636704 0.27097893
0.20234461 0.20919344 0.21458633 0.23990439 0.25640088 0.2455606 0.23925689 0.2330463
0.2367049 0.2115099 0.14980118 0.22429304 0.22776821 0.22583328 0.20060067 0.2144644
0.21738927 0.21903051 0.22966638 0.20176598 0.21524575 0.22685224 0.1786105 0.16854687
0.17389931 0.18755218 0.16551949 0.22511822 0.16610089 0.25095755 0.22165313 0.17462525
0.22766419 0.23939566 0.2146531 0.20090231 0.17968369 0.20918056 0.21496964 0.25876975

conv_blocks.11.weight f4 [128, 64, 4]
00000000: 6f35 6fbd 9466 f4bb 563f 21bc 5944 b7bc
00000010: 59b5 3fbd dea6 dd3c b78d a83c b958 2a3c
00000020: 7aa3 5d3d 2c5e 053d 89b0 9bbc 0539 5c3d
00000030: e8ae 1a3d 6145 6dbd 0768 11bd f8f5 8abc
00000040: 1146 60bd 1754 eb3c e489 b3ba 71f6 54bd
00000050: 1d4b 3a3d 662f 0d3d 9cf8 1c3d 2b29 59bc
00000060: e4a0 8cbc 0cf1 09ba 5ed6 8dbd 797c bfbc
00000070: 1112 62bb bf5f 413d 2820 f13c 5192 413d
00000080: e983 193c d9a2 0fbb 5e14 343c 97ee 113d
00000090: 26ca 8cbc 0dc8 04bd f1d5 53bd 5ce3 78bd
000000a0: 4d1d 58bc 84cb 12bd 0647 863d 71a0 663d
000000b0: 78a4 aa3b 20c0 ac3a 7e56 723c 1515 7d3b
000000c0: aa91 0d3d 5a02 40bd d13b a53c 1d6b 27bc
000000d0: cc8a a63c c97d 34bb 476f 68bd d756 eabc
000000e0: 0874 22bc a296 e3bc 9f58 87bc 6638 5b3d
000000f0: 12cd 513d 8235 383d 5567 4fbd 6521 99bd
00000100: 5db9 313d 03cf 3bbd 9ac1 0b3d 744c 973c
00000110: ec5c ba3b c803 c9bc 162a 1fbd d943 2dbc
00000120: 1bd6 26bd 7064 a6bb 1db4 9cbd 0447 08bd
00000130: 34c6 a63c b2a9 68bd febc 853c 7b3b 18bd
00000140: 5a73 22bd 48af 233d 2bd2 27bc 3b62 2ebd
00000150: 2dac 5bbc 2633 3fbd 10d4 96bb 8697 01bd
00000160: cc74 60bd 1133 4a3d 2379 f23b fa51 8b3c
00000170: 0b03 583d 5ae4 163b 7056 073d c440 4bbb
00000180: 6566 253d 6d40 453c 6990 8bbc 1e81 2abd
00000190: 73cf e2bc e5ac 34bd 83b5 1fbc 1339 1a3d
000001a0: c34e 13bd 0dae 1d3d 4ee7 1dbd 2e43 133c
000001b0: d081 53bd 1c03 313d feff b53c 8df9 35bd
000001c0: 522e 27bc 8ba9 573d 4301 d5bc 3f4d 3fbd
000001d0: b285 59bd 9e5f 3a3c 1c56 91bc 6ca5 21bc
000001e0: ea40 f7bc 9f2d 233d 7faf fc3b b4e2 48bd
000001f0: a7a8 dabc a6e3 8bbd 7699 823c abc8 bb3c
00000200: d138 553d 5f9d 01bd ca2c 4bbd 90d0 66bd
00000210: 7fcb 183d 2c62 24bd 2c67 c5bc 0cc1 3fbd
00000220: 728f f23b 911b 59bd 67fe d93c dc1a 3ebd
00000230: b789 febc 00a6 2a3d b6c1 4cbd f2e5 f0bc
00000240: d8c1 923c c3b8 da3c 732d 073d 7914 04bd
00000250: ab58 29bd a8d4 aebc 7495 7bbb a57a 12bd
00000260: 36ad 113d 6276 193d 8479 fa3c bbd7 9c3c
00000270: e920 83bd 1a44 7fbd 3507 c7bc 77a7 1dbd
00000280: dbc1 483d 38f5 293d c553 243c 8468 043d
00000290: 20c8 2f3d f20f 33bd d50b 2e3c 0e95 153d
000002a0: 6ad2 82bd c5c7 0fbd ad32 863c eba7 56bc
000002b0: 6bb9 c4bc 973f 67bc 7b01 63bd 9f41 0cbd
000002c0: e097 acbb f688 023d b5ab 8ebd 770a 4abd
000002d0: d907 34bd 9129 a83c 306a 07bd 6ec7 e63c
000002e0: 4131 383d 7aff 85bd a18b fcbc c136 4dbd
000002f0: bdcf a6bc 4fd3 25bd fea9 02bd 106a c63b
00000300: ffd8 f43a 5cc8 3b3b 05af 53bd bb2f 033d
00000310: 10bd 64bd fd50 0b3d 5a7f e9bc 5a1a 52bd
00000320: b7da 123d 9c3f 39bd dc68 2a3c c85b cbbc
00000330: 696f 943d 915a 7f3c bb44 bf3c 50da fcbc
00000340: a198 243d c022 b8bc b210 a7bc a149 62bb
00000350: 8345 1bbd 28e2 67bd 258d 4c3c 6d56 e03c
00000360: 5cc3 093d dc1e f43c bfcb 7ebd ad06 4f3c
00000370: ec6b a1b8 a143 4b3b 0166 223b 0ec4 00bb
00000380: ecbb b43c c286 0dbd d2ab 803c d8da a73c
00000390: c166 403d c3c5 0bbd bbbc 1cbd a413 3e3d
000003a0: e13d 4e3b 254f 09bd 6e9b 0cbd d1c6 453d
000003b0: ae80 403a 1530 5cbd 042d 043a 7dcb 13bc
000003c0: d10a fb3b 2756 6bbc 41ec 213d 0e95 23bd
000003d0: 367e 553d f626 233d 0e0f 1c3d 347d 493c
000003e0: 50e0 11bd 22ca 5ebd 546e f2bc d887 2a3d
000003f0: 3451 a93c a564 243d 4445 e93c 8834 e1bc
-0.058400568 -0.0074585173 -0.009841761 -0.022371458 -0.046803806 0.027057108 0.020575387 0.01039713
0.05411098 0.032560512 -0.019005077 0.053765316 0.03776446 -0.057927493 -0.0354996 -0.01696299
-0.05475432 0.02872662 -0.0013697711 -0.051992837 0.04548179 0.03446903 0.03832303 -0.013254444
-0.017166562 -0.0005262054 -0.06925653 -0.023374783 -0.0034495632 0.04721045 0.029434279 0.04725868
0.009369829 -0.0021917133 0.010991184 0.035627928 -0.017186236 -0.032417346 -0.051717702 -0.0607637
-0.01319058 -0.03583862 0.065565154 0.056305353 0.0052075945 0.0013179816 0.014791129 0.0038617302
0.034562744 -0.046877243 0.020170124 -0.010218409 0.020329855 -0.0027540794 -0.056746747 -0.028605862
-0.009915359 -0.027781788 -0.01652175 0.053520583 0.05122096 0.044972904 -0.050635654 -0.074770726
0.043389667 -0.04585172 0.03412018 0.018469073 0.0056873467 -0.024537936 -0.038858496 -0.010575258
-0.04073153 -0.005077891 -0.076515414 -0.03327085 0.020358182 -0.05680246 0.01632547 -0.0371661
-0.03966079 0.039962083 -0.010242979 -0.04257415 -0.013407749 -0.04667964 -0.0046029165 -0.031638645
-0.054798886 0.049365107 0.0073996945 0.017006863 0.052737277 0.0023024292 0.033041418 -0.0031013945
0.040380854 0.012039286 -0.017036634 -0.041627042 -0.02768681 -0.044110198 -0.009747866 0.037652086
-0.035963785 0.038496066 -0.038550667 0.008988185 -0.05163747 0.043215856 0.022216793 -0.044427443
-0.010203915 0.052651923 -0.026001578 -0.046704527 -0.053106017 0.011375336 -0.017741255 -0.0098661
-0.03018232 0.03983843 0.0077113505 -0.049044326 -0.026691748 -0.0683053 0.015942317 0.022922834
0.052056137 -0.03164422 -0.04960326 -0.056351244 0.037303444 -0.040132686 -0.024097048 -0.046814963
0.007402354 -0.053004805 0.026610566 -0.046412334 -0.031071527 0.041662216 -0.049989425 -0.029406521
0.017914698 0.02669943 0.033002328 -0.032246087 -0.041344326 -0.021341637 -0.0038388642 -0.035761494
0.035565577 0.037466414 0.030575521 0.019145837 -0.064027615 -0.062320806 -0.024295429 -0.038489785
0.049013 0.041493624 0.010029738 0.032326236 0.042915463 -0.04371638 0.010622938 0.036519103
-0.063877895 -0.035102624 0.016381586 -0.013101558 -0.024014195 -0.014114282 -0.055421334 -0.03424227
-0.0052671283 0.031868897 -0.06966344 -0.049326386 -0.043952797 0.020527633 -0.033060253 0.028171267
0.044968847 -0.06542869 -0.030828299 -0.050101046 -0.02036273 -0.040484723 -0.0319004 0.006055124
0.0018680393 0.002865336 -0.051680584 0.03202794 -0.055844367 0.034012783 -0.028503109 -0.051294662
0.035853114 -0.04522668 0.010400977 -0.024824038 0.07247812 0.015585558 0.023348203 -0.030865818
0.04018462 -0.022477508 -0.020393703 -0.003452875 -0.03790809 -0.056612164 0.012484823 0.027384961
0.033633575 0.029799871 -0.062206026 0.012635869 -7.69718e-05 0.0031015652 0.0024780037 -0.0019648108
0.022062264 -0.034552343 0.01570693 0.020490095 0.046972994 -0.034124147 -0.038265925 0.04640545
0.0031469988 -0.033522744 -0.034327917 0.04828531 0.00073433935 -0.053756792 0.0005042108 -0.009020683
0.0076612015 -0.014363802 0.03953195 -0.03993707 0.052122317 0.039832078 0.038100295 0.012297917
-0.03561431 -0.054391988 -0.029593624 0.041633457 0.020668603 0.040135045 0.028475411 -0.02749087

conv_blocks.11.bias f4 [128]
00000000: ed29 97bc 3092 303d bc2e 87ba 00f9 02ba
00000010: 43a5 fc37 bacd 06bd 5998 723c 81b4 73bd
00000020: 3320 f8bb d1e0 6fbb 471f 503c 6dde 00bd
00000030: b47d 79bd 0f66 753d ec04 18bd e97d fabc
00000040: e71c 1f3d de79 e4bb 39d1 1dbd 6c6b 2fbd
00000050: ea14 69bd b6ce 503b 6632 523b dda9 503d
00000060: 2c4e 78bd 8cac d83c 1a5a 103b 48f1 57bd
00000070: 032e 833b 2124 02bd e860 813c 8399 e13c
00000080: 98cf 673d 7c8e 9cbc c281 713d aee8 7a3c
00000090: 360c 963c 5280 6abd 6706 61bd 3807 bdbc
000000a0: 346d 733d 2850 083d c365 603d f908 6fbd
000000b0: 8bc7 983b 552e 69bd e14b 733d c556 2f3d
000000c0: 5f34 0e3d d405 00bd 9dab 0ebd 9460 1abd
000000d0: bb06 5b3d d0b9 0fbd b855 f73c b018 073d
000000e0: 56a7 9dbc bade 643d 3a03 4bbd 0635 04bd
000000f0: 7a1d 9f3c a05e 4f3c a509 d4bc 1345 a5bc
00000100: c32c 9639 ba5a 083d bef0 483d 9366 713d
00000110: 459e 5b3d afd4 81bc 4d58 c23c 0e70 64bb
00000120: 0cc0 70bd cc51 3fbd a29f 5dbd 46d6 613d
00000130: 3133 10bc 5bfb 463d 4bdb ea3b 03e2 633d
00000140: 7dac 043d f098 263d 9d9c 683d b536 e13b
00000150: 1930 4dbd 7aff b43c 19e5 6f3d 48a0 083d
00000160: f379 26bb 9da5 4e3d 8d7a 77bd 0b80 9d3c
00000170: 9d86 7a3d 8495 d3bc c00b c1bc f20a a83c
00000180: 795a 143d 7dcd 7ebd 42b1 1b3d 2b19 3f3d
00000190: 2368 fcbc e754 103d 03de 69bd 1f0f 40bc
000001a0: c779 4abd 1517 debc 83a4 f53c 1757 493d
000001b0: add8 2e3d d9c5 023d 93fe febc 6c29 003c
000001c0: 98f9 1f3d fbfa 773d 6bd5 0cbd e88e 3ebd
000001d0: 22ae 0bbd f573 053d 9ce3 79bd 0def 143d
000001e0: 12e9 883c 700c 6c3d cbf4 463d 6668 7d3c
000001f0: 14d5 093d d412 6ebc bfb3 f2bc 0e71 ccbc
-0.018452609 0.043108165 -0.001031361 -0.00049962103 3.0117697e-05 -0.03291104 0.01480683 -0.059498314
-0.007572198 -0.0036602507 0.01270277 -0.03146212 -0.060910895 0.059911784 -0.03711407 -0.030577617
0.038845923 -0.0069725355 -0.03852961 -0.042827055 -0.05690471 0.003186149 0.0032073497 0.050943244
-0.060621426 0.026449464 0.002202636 -0.052720338 0.0040032878 -0.031772736 0.015793279 0.02753902
0.05659446 -0.01911091 0.058961637 0.015314264 0.01831637 -0.057251282 -0.054937746 -0.023074731
0.059430316 0.033279568 0.054784548 -0.058358166 0.0046624593 -0.05692895 0.059398536 0.04280736
0.034717914 -0.031255558 -0.034831632 -0.03768976 0.053473216 -0.035089314 0.030192241 0.03298253
-0.019244831 0.05587647 -0.049563624 -0.03227713 0.019423235 0.012656838 -0.025883505 -0.020174539
0.0002864358 0.03328965 0.049057715 0.058935713 0.053617734 -0.015848486 0.023723746 -0.003485683
-0.0587769 -0.046708867 -0.054107316 0.055135988 -0.0088012675 0.048579555 0.007167255 0.055635463
0.03239106 0.040673196 0.056789983 0.0068729767 -0.050094698 0.022094477 0.058568094 0.03335598
-0.0025402277 0.05045091 -0.060419608 0.019226095 0.061163533 -0.02582813 -0.023565173 0.020513032
0.036219094 -0.062207688 0.038010843 0.04665486 -0.030811375 0.03523722 -0.057096492 -0.011722355
-0.049432542 -0.027110616 0.029985672 0.04915532 0.042687107 0.031926963 -0.03112725 0.007822376
0.03905639 0.060542088 -0.03438322 -0.046523005 -0.034101613 0.03258129 -0.06100808 0.03636079
0.0167127 0.05762905 0.048573297 0.015466785 0.033650473 -0.014530856 -0.029626725 -0.024956252

conv_blocks.12.weight f4 [128]
00000000: 372c 823f 0f1f 833f 4166 803f 0545 803f
00000010: 79ab 7f3f ab67 7f3f c586 823f 0dd8 7e3f
00000020: 6c22 7f3f ff56 823f a0e3 803f 3986 813f
00000030: 287b 803f 3d04 803f 857f 823f 5fdf 813f
00000040: 8613 823f d96b 7f3f 805a 803f aad1 803f
00000050: 8bf5 813f 484b 823f 40b4 813f 12dd 7d3f
00000060: fabc 823f 37a7 823f a0aa 803f cad6 813f
00000070: f0d3 7f3f 789c 843f 2081 803f ce03 833f
00000080: 1333 833f 0b4a 833f c935 823f 39e5 823f
00000090: 0111 843f 28a5 803f 2178 823f 0ec2 843f
000000a0: 2d22 823f 2ecd 843f 6822 823f 58c4 813f
000000b0: 28e5 813f 3b98 823f 6028 833f b8ed 823f
000000c0: 781a 813f 7a02 813f 6e59 813f f7af 823f
000000d0: f58b 843f a8e3 803f c17a 813f 9c85 833f
000000e0: 5e22 833f c787 823f a6a0 803f 30f3 833f
000000f0: 9665 803f 6492 833f 4fe6 7d3f a452 7e3f
00000100: 79ff 813f 0944 7e3f d578 813f 9355 7e3f
00000110: 5fbd 803f f35f 813f 199d 843f 1176 803f
00000120: 2cc5 813f 4109 823f e1a8 833f 70d3 803f
00000130: 7177 833f 9760 803f b1b6 813f d5ce 843f
00000140: 267b 833f 0bc4 7f3f 65ea 813f 1c44 833f
00000150: eb2c 823f aeb3 813f d96e 823f be0a 833f
00000160: af2c 803f e409 7f3f 7849 813f 7321 7f3f
00000170: e294 813f f320 803f f0a5 803f 2168 813f
00000180: cdc5 813f 53a9 803f 33b4 823f a1bb 823f
00000190: 2bfb 813f 8a77 823f 88d7 7f3f bf22 833f
000001a0: 1a3e 823f 47cb 833f 288f 813f 2712 823f
000001b0: 7911 813f 653e 843f 310d 833f 43e9 803f
000001c0: 62c7 803f 7a3f 823f 0e40 803f a352 803f
000001d0: 7a85 813f 4ffe 803f ec66 813f 524c 833f
000001e0: f1a7 803f 64ae 813f 2403 813f e819 833f
000001f0: 15cf 813f c2fa 813f 46cc 803f 6fbb 803f
1.0169743 1.0243853 1.0031205 1.0021063 0.9987102 0.9976756 1.0197378 0.9954842
0.996619 1.0182799 1.0069466 1.0119087 1.0037584 1.0001293 1.0195166 1.0146292
1.0162208 0.9977394 1.0027618 1.0063984 1.0153059 1.0179224 1.0133133 0.9916545
1.0213921 1.020728 1.0052071 1.0143673 0.99932766 1.036025 1.0039406 1.0235536
1.0249962 1.0256971 1.0172664 1.0226203 1.0317689 1.0050402 1.019291 1.0371721
1.016668 1.0375116 1.016675 1.0138044 1.0148058 1.0202707 1.0246696 1.0228796
1.0086203 1.0078881 1.0105417 1.020995 1.0355211 1.0069475 1.0115587 1.0275149
1.0244863 1.0197686 1.0049026 1.030859 1.0031002 1.027905 0.9917955 0.9934485
1.0156089 0.99322563 1.0115 0.99349326 1.0057791 1.0107406 1.0360442 1.0036031
1.0138297 1.0159074 1.0285913 1.0064526 1.0270826 1.0029477 1.0133878 1.037562
1.0271957 0.9990851 1.0149657 1.025516 1.0169958 1.0132959 1.0190078 1.0237653
1.0013636 0.99624467 1.0100546 0.99660414 1.012356 1.0010055 1.005064 1.0109903
1.0138489 1.0051674 1.0211242 1.021351 1.0154775 1.019273 0.9993825 1.0244979
1.0175202 1.029641 1.0121813 1.016179 1.0083457 1.0331541 1.0238401 1.0071186
1.0060847 1.0175622 1.0019548 1.0025219 1.0118859 1.0077609 1.0109534 1.0257666
1.0051252 1.0131345 1.0079083 1.0242281 1.0141321 1.015465 1.0062339 1.00572

conv_blocks.12.bias f4 [128]
00000000: 3f7c b53c d01e 603c 6626 1b3c 05d6 7ebb
00000010: c540 74bb 61d5 05bb de67 883c 6149 d6bb
00000020: dadd 683c d737 e03c 6c22 8e3a 9639 bd3c
00000030: 66b6 27bc dd8f e2bb 1558 1e3b eb88 053c
00000040: ee58 563c c22b 843a 9144 4d3b 4fff 593b
00000050: 5b0e e43b f931 223c c4ed 533c 9cc1 0d3b
00000060: dbc1 b6bb 39e5 f03c b7b2 693c 94a2 053c
00000070: aa21 18bb 5422 27bb 757f 2c3c 443a 99ba
00000080: ce78 de3c 8a53 083d 0753 803c d943 c53c
00000090: 2656 d23b 8e5c 4b3b 2f84 953c 745e b73c
000000a0: 343b 373b 6b21 9c3c 2ce7 043c 6944 8fbc
000000b0: 55dd 483c 860e e83b 437e 5b3b d7c8 0bbb
000000c0: 67be a23c 3701 963c 921d 663c dc28 5fbc
000000d0: dacf d33c 332e 653b 515c e2bb e5eb c23c
000000e0: 3c2c 5aba 8973 603c 9632 34bb 9609 82bc
000000f0: cca1 a73c 9f2a ba3c 067f 3ebc 6dc2 36bc
00000100: 617a 7f3c 39a0 44bc 371d 79bc eb7f a7bb
00000110: 150b 28bb 5093 1a3b 5930 9e3c a5c1 78bc
00000120: e03c b03b d245 7d3c d97d 013d 1abd dabb
00000130: 2f82 9c3c adcb 0f3c 3fcf c4bc 33f5 033c
00000140: 1cdd 35bc 4c23 f238 8d54 053c 683f 103c
00000150: 8cf0 2c3c 2e4c d4bb 0e5e 9c3b a1ab df3c
00000160: c9fc c13c 999f 95ba 030e b63c b25a 9f3b
00000170: 88cb 763c 9e61 fa39 5a03 9f3b 1b1d bfbb
00000180: 8fa4 6f3c 93af debb 92bb dd3c 1801 223b
00000190: 77e3 d33b 7788 41bb 4337 16bc 2363 7e3c
000001a0: 6d66 9f3b 2a1e b33c 5352 723c 57b5 733c
000001b0: feee a43c 08a0 4d3b 3725 313c d6aa 963c
000001c0: a8c8 46bc 7f2e 95bc 4c89 11bc b211 91bb
000001d0: 1aae fb3c 5107 b4bb 8602 0bbc d1f4 363b
000001e0: 7b40 2a3c e8fb 923b d74d d6bc 7926 5bbc
000001f0: bc2c 2b3c 8997 a13b 4004 53bc cd13 9b3b
0.022153972 0.013679221 0.009469604 -0.003888489 -0.003727005 -0.0020421373 0.01665109 -0.006539509
0.01421305 0.027370377 0.0010843999 0.023098748 -0.010236358 -0.0069141225 0.0024161388 0.00815032
0.013082726 0.0010083842 0.0031321386 0.0033263748 0.006959719 0.00989961 0.012935106 0.0021630293
-0.0055773086 0.029406177 0.0142638 0.008156437 -0.0023213425 -0.002550264 0.010528435 -0.0011690338
0.027157214 0.033282794 0.01566459 0.024080204 0.006418961 0.0031030509 0.018251507 0.022383906
0.0027958872 0.019058904 0.008111756 -0.017488675 0.012259801 0.0070818095 0.0033492006 -0.0021329427
0.019866182 0.018311126 0.014045136 -0.0136205815 0.025855947 0.0034970164 -0.0069079776 0.023794124
-0.00083226315 0.013699421 -0.0027495972 -0.015873712 0.020462893 0.022725401 -0.011626964 -0.011154753
0.015593142 -0.012001091 -0.015204719 -0.0051116846 -0.002564137 0.002358634 0.019310163 -0.015182887
0.0053783506 0.015458541 0.03161416 -0.0066753747 0.019105045 0.008776587 -0.024024604 0.0080540655
-0.01110008 0.00011546034 0.008137834 0.00880418 0.010555398 -0.006478808 0.0047719544 0.027303519
0.023680108 -0.0011415362 0.022223478 0.0048631066 0.015063174 0.00047756446 0.0048526945 -0.005832327
0.014626636 -0.0067958324 0.02706698 0.002471989 0.006466325 -0.0029530802 -0.009168449 0.015526566
0.004864505 0.02186497 0.014790135 0.014874778 0.020133492 0.0031375904 0.010812095 0.018392008
-0.012132801 -0.018210648 -0.008882832 -0.0044271583 0.030722667 -0.0054940362 -0.008484488 0.0027916918
0.01039135 0.004485596 -0.026160164 -0.013375872 0.010447677 0.0049313945 -0.012879431 0.004732585

conv_blocks.12.running_mean f4 [128]
00000000: c8e2 fcbe 09ce a93d 2bb7 91be 55c4 b7bc
00000010: 5895 2f3d 5d37 c83d 665b b9bd 9ce9 2ebe
00000020: b898 f6be 7009 abbe adbe 66be ca9e a9be
00000030: 577c 38be 0fb4 d13d 2f5b 513c ba53 2a3e
00000040: 6439 913d aa8e 8e3c 888e 823d 7f67 c5bd
00000050: f18a c2bd 5254 5f3d 7cf2 3f3e ce3b cebe
00000060: 3ef0 41be c378 c6be 1900 4cbe 4da2 823d
00000070: f7a2 51be 8106 22be 9072 2abd 1b7d 5d3e
00000080: 700b c4bd 0adb 73be 64c7 7fbe c3b9 a13d
00000090: 3ce2 c7be 4bee 59be b78d 573e 8d24 bdbd
000000a0: 8dc7 663e 1504 913c 5b73 1f3d c10e d9bb
000000b0: 82ca a43c c975 52be 2ce2 d43c 6506 c9bc
000000c0: b75a 68be 7e61 a5be 52c7 f53d 34c9 153e
000000d0: 4dfc 4a3e daf0 b2bd a157 9b3d 7137 583c
000000e0: 2264 85bd 1707 aa3c d58c e93c 222c b23d
000000f0: 35fc 84be f99c f7bd ed38 07bd ffc6 423e
00000100: 65e1 573d 8d1e c03e 43d3 08be cfd4 1abe
00000110: ac2e a43c da49 663e a974 a4bd 064b 1b3d
00000120: 1b17 cc3d 9aa6 5d3d 82e7 39bf e81f 37bd
00000130: cb66 df3d d5bb ca3e ba05 fe3c 4fef 4cbd
00000140: c9aa 95bc 3356 0a3e 570a e4bd b617 93bd
00000150: 6bfa b2bd 2cae 4a3e 4a60 913d f3a3 9b3e
00000160: 8b69 8fbe 29af 8a3e f24b 723c 1f5d 8f3d
00000170: d04a 223e fc77 533e 6f9c 8bbd dc3b 123e
00000180: b6c3 6b3e 1020 99be 60aa 15be 73bd c63b
00000190: e6ad 82bc 3ed8 d43d 6d95 493e 430a 8cbe
000001a0: 31f4 943d 3ef3 35bc c55c f13d c444 ee3d
000001b0: 5f20 55bc 4fb6 d93c b8ed 11bd 7580 93be
000001c0: b5c4 7cbd 28a2 70be fbaf 5abc 383f 233e
000001d0: c726 adbe 1f59 f33d d45e c1be 3ae7 e3bc
000001e0: 18ba 3dbd 140c 0c3d 5dcb 6c3d 0e9a 6ebd
000001f0: 0681 8b3d 4a55 8b3c eca9 d43c 7855 723d
-0.4939177 0.08291251 -0.2846006 -0.022432486 0.042867035 0.09776185 -0.09050636 -0.17081302
-0.4816339 -0.33405638 -0.22533675 -0.3312896 -0.18016182 0.102394216 0.0127780875 0.16633502
0.070910245 0.017402012 0.06374842 -0.09638881 -0.09499157 0.054523773 0.18744844 -0.40280002
-0.18939301 -0.3876401 -0.19921912 0.06378613 -0.20472322 -0.15822794 -0.04161316 0.21629755
-0.09572494 -0.23814026 -0.24978405 0.07896759 -0.3903979 -0.21282308 0.21050154 -0.09235487
0.2253706 0.017702142 0.03892837 -0.0066240733 0.020116094 -0.20552744 0.025986753 -0.024539182
-0.22690855 -0.32300943 0.12000908 0.14627534 0.19822808 -0.08737345 0.07585073 0.013196812
-0.065132394 0.020755334 0.028509537 0.08699824 -0.2597367 -0.12090487 -0.033013273 0.19021223
0.052705187 0.37523308 -0.1336184 -0.15120243 0.020041786 0.2248911 -0.08030064 0.037913345
0.099653445 0.05411396 -0.7261888 -0.044708163 0.10908278 0.3959643 0.03100859 -0.05003291
-0.018269913 0.13509445 -0.11134785 -0.07182257 -0.0873917 0.19793004 0.07098444 0.3039852
-0.2801021 0.27086762 0.014788615 0.07000183 0.15848851 0.20651239 -0.06816947 0.14280647
0.23023877 -0.29907274 -0.14615774 0.0060650646 -0.015952062 0.103928074 0.19685908 -0.2735158
0.07273138 -0.011105357 0.117852725 0.1163421 -0.013008206 0.02657619 -0.035627097 -0.28808942
-0.061711032 -0.23499358 -0.013347621 0.15942085 -0.33818647 0.11882233 -0.3776766 -0.027820218
-0.04632005 0.034191206 0.05781113 -0.058252387 0.06811719 0.017008442 0.025959931 0.05916354

conv_blocks.12.running_var f4 [128]
00000000: 526f 873e 32c2 8b3e c060 873e 3c98 5e3e
00000010: aa53 7b3e 4d33 8d3e 7241 803e fbc2 813e
00000020: 5e6d 903e 30d0 713e 24c3 913e 0ad2 743e
00000030: 8f02 853e 023c 713e 4f56 6a3e fc2d 653e
00000040: 1eab 863e 9194 603e c940 833e 4438 6a3e
00000050: d58f 6a3e 6f46 6d3e f089 623e 4ac0 803e
00000060: 2ccb 793e 31d0 a03e 530e 9c3e 2fea 733e
00000070: 8c01 6c3e 996a 813e fd76 813e dca8 8e3e
00000080: 9586 563e f61a 8a3e 95b2 7b3e e17f 6c3e
00000090: efc6 ac3e fdd1 5e3e a933 803e 821b 503e
000000a0: cdae 8b3e 4c63 833e 34f8 7a3e 04f7 783e
000000b0: 8bdd 5f3e 8ec6 843e 22e7 943e 0a5c 813e
000000c0: 1b52 763e d156 773e 5cf6 3e3e 9d50 913e
000000d0: 6ef5 6b3e 0d5f 563e 18b5 613e 573e 783e
000000e0: 6809 4c3e 4a01 673e d2e8 6b3e 3d48 8b3e
000000f0: 453e 793e 514f 753e 4478 7c3e 9b72 643e
00000100: f113 763e e19a 593e 84d1 813e 70b6 533e
00000110: 065a 7c3e ba18 733e fa96 823e f2c5 563e
00000120: 97db 8c3e 231f 6d3e ecd8 a63e cb87 893e
00000130: 2a76 7d3e 3f82 563e 7eb6 8f3e f329 883e
00000140: cc97 a93e cc73 6a3e bd58 6a3e 794e 873e
00000150: bc6c 7a3e 6acf 553e 6224 8d3e 34d4 863e
00000160: f371 9a3e 17a6 663e 001a 513e 10c9 673e
00000170: ed91 9d3e c7e5 6d3e 74ae 653e d790 7e3e
00000180: d98d 3e3e 1f09 763e 9f50 953e 076b 5f3e
00000190: 452a 5a3e ee68 4d3e 0f06 813e 4405 753e
000001a0: 5ce4 903e 9f25 b13e 7483 683e ff87 583e
000001b0: fecb 773e 93d0 593e 6c04 7c3e 9695 8c3e
000001c0: c5b5 553e f9b6 983e 3eec 643e 9e89 7b3e
000001d0: 8278 903e 3843 993e cfb8 943e 0962 853e
000001e0: aa0d 553e ae7f 823e 1fe6 613e 7e06 863e
000001f0: d2d7 863e 3eb1 8d3e 9528 833e f458 6b3e
0.26452118 0.27296597 0.26441002 0.2173776 0.24543634 0.27578202 0.2504993 0.2534407
0.2820844 0.23614573 0.28469193 0.23908249 0.25978515 0.23558047 0.22884487 0.22380823
0.26302427 0.21931674 0.25635365 0.22873026 0.2290643 0.231714 0.22122931 0.25146705
0.2439391 0.31408837 0.3047968 0.23819803 0.23047465 0.2527664 0.25286093 0.27863204
0.20949776 0.26973695 0.24579842 0.23095657 0.33745524 0.21759792 0.25039414 0.20322993
0.272818 0.25661695 0.24508744 0.24312979 0.21861856 0.25932735 0.2908259 0.25265533
0.24054758 0.24154212 0.18648666 0.28381816 0.23042843 0.20934696 0.22041738 0.24242531
0.19925463 0.22559085 0.23038033 0.2720355 0.2434016 0.23956038 0.24655253 0.22309344
0.24031045 0.21250488 0.2535516 0.20675063 0.24643716 0.23739901 0.2550581 0.20973948
0.27511284 0.23156409 0.32587373 0.26861414 0.24752107 0.20948122 0.28068918 0.26594505
0.33123624 0.22895736 0.22885413 0.26427057 0.24455541 0.20879903 0.2756682 0.26333773
0.3016506 0.22524296 0.20420074 0.22635293 0.30775395 0.23232184 0.2242983 0.2485994
0.18608798 0.24026917 0.29163072 0.21818171 0.21305187 0.20059559 0.25199935 0.2392779
0.28299224 0.34599015 0.22706395 0.21145628 0.2419891 0.21270971 0.24611062 0.27457875
0.20870121 0.29827097 0.22355744 0.24564216 0.2821694 0.29934096 0.29047248 0.26051357
0.20805994 0.25488037 0.2206044 0.26176828 0.26336533 0.27674288 0.256169 0.22983152
