data/gan_output/discriminator_epoch_80.pth (torch, 191742 bytes, 21 tensors)

conv_blocks.0.weight f4 [16, 1, 4]
0	0x3d2ae522	0.041722424
1	0x3dc423ba	0.09577127
2	0xbc84ca44	-0.016209729
3	0x3ee3d93b	0.4450167
4	0xbc82a1c3	-0.015946275
5	0x3ce8c176	0.028412562
6	0xbec8cebf	-0.39220235
7	0x3d17595b	0.03695045
8	0x3ddcc50e	0.10779773
9	0xbed5b3f0	-0.41738844
10	0x3d9aa8a6	0.075516984
11	0xbd5f0dc7	-0.0544565
12	0xbedb0c65	-0.42782894
13	0x3ea20d43	0.31650743
14	0x3ece095c	0.40241516
15	0xbee163dc	-0.440215
16	0xbec849ed	-0.391189
17	0x3dde6c62	0.10860516
18	0xbdaa4535	-0.083139814
19	0x3e9a2b3a	0.30111104
20	0xbec46be9	-0.3836358
21	0x3e87322e	0.26405472
22	0xbdf9201f	-0.1216433
23	0x3eb8534f	0.3600106
24	0x3e964af6	0.29354066
25	0xbef79902	-0.48358923
26	0x3eb757f0	0.35809278
27	0x3e5a8aaf	0.21341966
28	0x3bdd817e	0.0067598214
29	0xbe59c96b	-0.21268241
30	0x3eac3158	0.33631396
31	0xbee92d48	-0.4554236
32	0xbe559bb4	-0.20860177
33	0xbea48cc5	-0.3213865
34	0x3e2f0838	0.17092979
35	0x3e972963	0.29523763
36	0x3dbf7c7e	0.09349917
37	0x3e39add5	0.18132718
38	0x3ed7660d	0.42070046
39	0x3df2d781	0.1185751
40	0x3e73551b	0.23762934
41	0xbe92012d	-0.28516522
42	0xbee3cb76	-0.44491166
43	0xbe97f1a5	-0.29676548
44	0xbe53fd3b	-0.20702069
45	0x3d04d625	0.032430787
46	0xbea31ebc	-0.31859386
47	0xbe048b99	-0.12943877
48	0xbe08abcc	-0.13346785
49	0x3e7255a5	0.23665483
50	0xbed34eb7	-0.41270992
51	0xbef75ae1	-0.48311523
52	0x3ce2cb8c	0.02768495
53	0xbd98a238	-0.07452816
54	0xbe9d281b	-0.3069466
55	0xbecfcdc5	-0.40586677
56	0xbdf9e0c5	-0.122010745
57	0xbe1ca3d9	-0.15296878
58	0x3d3ecb72	0.04658074
59	0xbe17e76f	-0.14834379
60	0x3e80d420	0.2516184
61	0x3e659f0d	0.22423954
62	0xbe8e3e9c	-0.27782142
63	0xbeac4a4c	-0.33650434

conv_blocks.0.bias f4 [16]
0	0xbf0b5b35	-0.54436046
1	0xbe11c0ff	-0.14233778
2	0xbe91bc49	-0.28463963
3	0x3e80b756	0.25139874
4	0x3e221702	0.1582909
5	0x3d8bbcb9	0.06823105
6	0xbebe30a6	-0.3714649
7	0x3ee39740	0.44451332
8	0x3e7808a8	0.24222052
9	0x3dbb90f9	0.09158511
10	0xbe5dd515	-0.21663316
11	0xbf0a6942	-0.5406686
12	0xb8601977	-5.3429478e-05
13	0x3dc7b6ee	0.09751688
14	0x3eb23020	0.3480234
15	0xbe851258	-0.25990558

conv_blocks.3.weight f4 [32, 16, 4]
0	0xbc8b4edb	-0.017005375
1	0x3e20bc06	0.15696725
2	0x3e09353d	0.13399215
3	0xbd0b073e	-0.033942454
4	0xbe006f90	-0.12542558
5	0x3c98b370	0.01864025
6	0xbdcd58a2	-0.10026671
7	0x3d248c41	0.04017282
8	0x3d850aff	0.06496238
9	0x3d541317	0.051776018
10	0x3d023f4a	0.03179864
11	0xbc632089	-0.013862737
12	0xbd4aa27e	-0.04947137
13	0xbe06c6ea	-0.13161817
14	0x3e084b8b	0.13310067
15	0xbddc6668	-0.1076172
16	0xbd3b73a9	-0.0457646
17	0x3d819f81	0.06329251
18	0xbdf510d9	-0.11966104
19	0x3d956ba0	0.072959185
20	0xbd9108db	-0.07081767
21	0x3d0b3ac4	0.03399159
22	0x3e001799	0.12509002
23	0xbd36afb7	-0.04460117
24	0x3c868ad7	0.016423626
25	0x3d7ad638	0.06123945
26	0x3c27908b	0.010227333
27	0x3d9df4ad	0.07712684
28	0x3d95a857	0.07307499
29	0xbde14b10	-0.11000645
30	0xbd9cb965	-0.07652549
31	0x3d4cd59d	0.050008405
32	0xbcf2addf	-0.029623924
33	0xbbec5bf6	-0.007213111
34	0x3d59906b	0.053116243
35	0xbdab1e49	-0.08355386
36	0xbd653dd7	-0.05596718
37	0x3bb11cf2	0.005405062
38	0x3c6ef6d9	0.01458522
39	0xbb8ae041	-0.004238159
40	0xbd3c0c34	-0.045910075
41	0xbd145d49	-0.036221776
42	0x3d316764	0.04331149
43	0x3d13d693	0.036093306
44	0xbcc7a8ae	-0.024372425
45	0xbc6216bd	-0.013799367
46	0xbcf2eef5	-0.02965496
47	0x3d381c1e	0.04494869
48	0x3daa85ea	0.08326323
49	0x3d4c0bb1	0.049815837
50	0x3de92c19	0.11385364
51	0x3d14cb75	0.036326844
52	0xbdc60560	-0.09668994
53	0xbd44abcb	-0.048015397
54	0x3c497969	0.012297013
55	0xbcb02c1b	-0.021505406
56	0xbdd9397e	-0.10606669
57	0xbda4ce07	-0.08047109
58	0xbdb5b409	-0.088722296
59	0x3d1c191c	0.038109884
60	0xbd9611a4	-0.073275834
61	0x3d842ca2	0.064538255
62	0xbd3949c4	-0.045236364
63	0xbcbf4887	-0.023350013
64	0xbd5130d2	-0.05107195
65	0x3e1a7c71	0.15086533
66	0x3caaac4d	0.020834113
67	0x3dab9f6e	0.08380018
68	0xbdeed434	-0.11661568
69	0xbdb0a86b	-0.08625873
70	0xb9961f40	-0.00028633513
71	0x3cbc3c49	0.022977965
72	0xbd840c16	-0.06447618
73	0xbda5e636	-0.0810055
74	0x3dde5abc	0.1085715
75	0xbd494910	-0.049141943
76	0xbd71d8d1	-0.059044663
77	0x3d4f4683	0.050604355
78	0xbd6dff13	-0.058104586
79	0x3de2de85	0.110775985
80	0x3c184810	0.009294525
81	0x3dfe6896	0.12422292
82	0x3c90365e	0.01760405
83	0xbd2c9cc4	-0.04214169
84	0xbd74e84a	-0.05979184
85	0x3d51338f	0.05107456
86	0x3d717060	0.05894506
87	0x3dacd715	0.08439461
88	0x3ae7502d	0.0017647796
89	0xbd6184ab	-0.055058163
90	0x3a64c0cb	0.0008726238
91	0xbb0f1598	-0.002183294
92	0x3c05c391	0.008164302
93	0x3c047b03	0.008085969
94	0xbbe3da00	-0.006953478
95	0x3d5ac4d3	0.053410362
96	0xbd0fce22	-0.035108693
97	0x3e0a77f3	0.1352232
98	0x3c0df8c8	0.008665271
99	0xbcc8ac10	-0.024496108
100	0xbd6d1581	-0.057881836
101	0x3d075ec2	0.033049352
102	0x3db28024	0.08715847
103	0xbdd86a31	-0.105671294
104	0xbc98be61	-0.018645467
105	0xbddc05d1	-0.10743297
106	0xbd3f0ef5	-0.046645124
107	0xbdd72836	-0.105057165
108	0xbd020efd	-0.031752575
109	0x3d09e817	0.033668604
110	0x3db132c2	0.086522594
111	0xbd4f74d2	-0.050648518
112	0x3df16faa	0.11788876
113	0xbd6f8e78	-0.05848548
114	0x3dfc6b2b	0.12325128
115	0x3d82e2a1	0.06390882
116	0x3c942bfb	0.018087378
117	0xbe093b9b	-0.13401644
118	0x3d678a7c	0.056528553
119	0xbd7fd7a0	-0.062461495
120	0x3d82cb66	0.063864514
121	0xbdd8f5be	-0.105937466
122	0x3d365e40	0.044523478
123	0xbd754852	-0.059883423
124	0x3df0681c	0.11738607
125	0x3c87e673	0.016589379
126	0xbc0a3be2	-0.008437129
127	0x3cdbd81a	0.026836444
128	0x3e02ca7f	0.12772559
129	0x3d7ba727	0.061438706
130	0x3dae48ae	0.08509956
131	0x3d6fc412	0.058536597
132	0xbcbfcd7b	-0.02341341
133	0xbc246954	-0.010034878
134	0x3d7aca90	0.061228335
135	0xbd0a932a	-0.033831753
136	0xbce6a354	-0.028154053
137	0x3d8ad51b	0.06778928
138	0xbc9f03e4	-0.019411035
139	0xbdc8b8ea	-0.098008946
140	0xbd9b7f4d	-0.0759264
141	0x3d7fc3fd	0.06244277
142	0xbb8b323a	-0.004247931
143	0x3de573ca	0.11203726
144	0xbdb195dd	-0.08671162
145	0xbdeb986c	-0.115036815
146	0xbe00024b	-0.12500875
147	0xbe190124	-0.14941841
148	0xbc4588c6	-0.012056535
149	0xbd14707f	-0.036240097
150	0x3dcde536	0.10053484
151	0xbcb02fc0	-0.021507144
152	0xbd8c9f26	-0.06866293
153	0xbdbe25f8	-0.09284586
154	0x3dc24849	0.094864435
155	0x3db17314	0.086645275
156	0xbd92a116	-0.07159631
157	0xbd907f23	-0.070554994
158	0x3dc3e391	0.09564889
159	0x3d4ca1f0	0.049959123
160	0x3dc4c77e	0.096083626
161	0xbe09fc18	-0.13475072
162	0x3dd9f34e	0.1064211
163	0xbd9985e7	-0.07496243
164	0x3da0c6b2	0.07850398
165	0x3d9e9216	0.077427074
166	0x3cc6eb91	0.024282249
167	0x3c8490c1	0.016182305
168	0x3dc88c0a	0.09792335
169	0x3d72ff84	0.05932571
170	0x3d2ec0b9	0.042664263
171	0xbd1ae175	-0.03781267
172	0xbd242e9c	-0.040083513
173	0xbd5807f7	-0.05274197
174	0x3d77391f	0.06035721
175	0x3d183a18	0.037164778
176	0xbde6e3e5	-0.11273936
177	0xbdbc1e5a	-0.091854766
178	0x3cd1332b	0.025537094
179	0xbbc419d3	-0.005984524
180	0x3d6eeef3	0.05833335
181	0x3d612085	0.054962654
182	0xbdc70be8	-0.09719068
183	0x3d7d77a1	0.061881665
184	0x3c0f6a04	0.008753303
185	0x3d203fd7	0.039123382
186	0x3d7b5e4b	0.06136922
187	0xbd35fddf	-0.044431563
188	0x3de82f59	0.11337156
189	0xbd6c8f30	-0.05775374
190	0x3d91c1ed	0.071170665
191	0xbda32655	-0.07966296
192	0xbc6e0e45	-0.014529769
193	0x3dea6cc6	0.11446528
194	0xbda785ed	-0.08179841
195	0x3dfbac40	0.122887135
196	0xbddc9d27	-0.10772162
197	0xbce3b69d	-0.027797038
198	0x3c7b9bfa	0.015357012
199	0xbd86b8d3	-0.06578221
200	0xbde289ae	-0.110614166
201	0xbdd86c81	-0.105675705
202	0x3c03da4c	0.0080476515
203	0x3c51d216	0.012806436
204	0x3d99cd5e	0.07509874
205	0xbd3c4da1	-0.04597247
206	0xbd972d76	-0.07381718
207	0x3d233fbe	0.03985571
208	0x3c3b8f93	0.011447805
209	0x3aa26a49	0.0012391295
210	0x3d8b5068	0.06802446
211	0x3ac97af3	0.0015371725
212	0xbda0c033	-0.07849159
213	0x3db8b689	0.09019191
214	0xbd605559	-0.054768894
215	0xbc7ecbe2	-0.015551539
216	0x3da8552d	0.08219371
217	0xbde79aa4	-0.11308792
218	0xbda7aaee	-0.08186899
219	0xbe03f2b0	-0.12885547
220	0x3daf9a6a	0.08574374
221	0x3d759d62	0.059964545
222	0x3dad6bc4	0.0846782
223	0x3d88ce3c	0.06679961
224	0xbdb4ea38	-0.08833736
225	0xbc95a56e	-0.01826736
226	0x3cb04b3c	0.02152025
227	0x3d171760	0.036887527
228	0xbd2ae6dc	-0.04172407
229	0xbda37944	-0.07982114
230	0x3d9e68df	0.07734846
231	0xbddd6268	-0.10809785
232	0xbde6096b	-0.11232265
233	0xbe11f3c9	-0.14253153
234	0x3d604725	0.05475535
235	0xbd8f7d5f	-0.070063345
236	0x3dc68d66	0.09694938
237	0x3de28d3c	0.110620946
238	0x3dded153	0.10879769
239	0xbdc19424	-0.09452084
240	0xbdda0e40	-0.10647249
241	0xbd38e922	-0.045144208
242	0xbd433ef9	-0.047667477
243	0xbde01c8c	-0.10942945
244	0x3d91a6ad	0.07111869
245	0xbdd649de	-0.10463308
246	0xbdb1a66a	-0.08674319
247	0xbd2376fd	-0.039908398
248	0xbdcae007	-0.09906011
249	0xba1ef36e	-0.00060634955
250	0x3d29a6b3	0.041418742
251	0xbbd4d2ff	-0.0064948793
252	0xbde3893a	-0.11110158
253	0x3d5f2408	0.05447772
254	0xbdf88367	-0.12134438
255	0x3c8dac84	0.017294176

conv_blocks.3.bias f4 [32]
0	0xbd6716ae	-0.056418113
1	0xbd13b8c2	-0.03606487
2	0x3d14245e	0.036167495
3	0xbc827d58	-0.01592891
4	0xbdb67c53	-0.08910432
5	0xbccce369	-0.025010781
6	0x3ca59236	0.02021132
7	0xbc4a4705	-0.012346034
8	0x3c8ce493	0.017198836
9	0x3ddcc502	0.10779764
10	0x3b0e73e6	0.0021736561
11	0xbb900338	-0.004394915
12	0x3c52c176	0.0128635075
13	0x3d134466	0.0359539
14	0x3d576035	0.052581985
15	0x3d3ecebb	0.046583872
16	0xbda169a2	-0.07881476
17	0x3d9f9d6f	0.077937
18	0xbd718ac8	-0.058970243
19	0x3d2383d3	0.03992064
20	0x3d3e5c92	0.046475
21	0x3ce080d0	0.027405173
22	0x3d4e40d7	0.050354805
23	0x3d2d8cc2	0.042370565
24	0xbdf41d0f	-0.11919605
25	0x3d9b0448	0.07569176
26	0x3b89f6ea	0.0042103427
27	0x3de4ff72	0.11181535
28	0xbd732390	-0.059360087
29	0xbbabcaf4	-0.0052426998
30	0x3d58cf35	0.052931983
31	0xbd75279d	-0.05985223

conv_blocks.4.weight f4 [32]
0	0x3f80819b	1.0039552
1	0x3f800578	1.0001669
2	0x3f7fde3a	0.99948466
3	0x3f82016b	1.0156683
4	0x3f7d9250	0.9905138
5	0x3f808f5e	1.0043752
6	0x3f827a31	1.019354
7	0x3f7e3a2d	0.9930752
8	0x3f7d2c83	0.98896044
9	0x3f7e5d73	0.9936134
10	0x3f7d6693	0.9898464
11	0x3f7decc6	0.9918941
12	0x3f832625	1.0246016
13	0x3f7fd4eb	0.9993426
14	0x3f7e8870	0.9942694
15	0x3f81b3d6	1.0133007
16	0x3f8187c7	1.0119561
17	0x3f819f3d	1.0126721
18	0x3f81e925	1.0149275
19	0x3f802736	1.0011966
20	0x3f7aec3d	0.9801672
21	0x3f809970	1.0046825
22	0x3f7db3c3	0.9910242
23	0x3f7f72d0	0.99784565
24	0x3f7cacbf	0.9870109
25	0x3f7f2efa	0.99681056
26	0x3f7fe348	0.9995618
27	0x3f80d613	1.006533
28	0x3f7885b8	0.9707904
29	0x3f7bff77	0.98436683
30	0x3f83ca97	1.02962
31	0x3f7c5e4b	0.9858138

conv_blocks.4.bias f4 [32]
0	0xbc84b375	-0.016198853
1	0xbca80eb0	-0.020514816
2	0x3c0dd299	0.008656167
3	0xbca5e8c0	-0.020252585
4	0x3b8d0961	0.0043040966
5	0x3c825d2e	0.015913572
6	0xbc955131	-0.018227192
7	0x3c0175ee	0.007901652
8	0x3cbf9f75	0.023391465
9	0xbc40d7dc	-0.011770215
10	0xbd0bf083	-0.034164917
11	0xbcc7db6c	-0.02439662
12	0x3c8c5b2e	0.017133322
13	0xbcc74347	-0.024324073
14	0xbca46aa2	-0.020070378
15	0xbc3897b1	-0.011266635
16	0x3cc7f108	0.024406925
17	0xbbc37cf1	-0.005965822
18	0xbc2a6359	-0.010399663
19	0x3c21d0ae	0.009876413
20	0xbc1971f6	-0.009365549
21	0xbc8ce509	-0.017199056
22	0xbcbd5510	-0.02311185
23	0xbc69105f	-0.014225095
24	0xbd0a7ee4	-0.03381242
25	0xbcbe8662	-0.023257438
26	0xbccc784d	-0.024959708
27	0xbc5ce729	-0.013482847
28	0x3be79be2	0.007068143
29	0xbcd0d01e	-0.025489863
30	0x3c48224e	0.01221521
31	0x3c98fa33	0.018673992

conv_blocks.4.running_mean f4 [32]
0	0xbe856e6b	-0.26060805
1	0x3c9a8d4f	0.01886621
2	0x3c1e66cd	0.009668064
3	0xbd894cc2	-0.067040935
4	0x3e010ee7	0.12603341
5	0xbb95ac6f	-0.004567675
6	0xbe4961c7	-0.19666205
7	0xbd2896f8	-0.0411596
8	0x3e12e240	0.1434412
9	0x3e1133f7	0.1417998
10	0xbe32433b	-0.17408459
11	0x3e054ecb	0.13018338
12	0xbca9f2cd	-0.02074566
13	0xbdd98549	-0.10621125
14	0xbe13d781	-0.14437677
15	0xbe3f8713	-0.1870387
16	0x3e3205ad	0.17384978
17	0x3de95d41	0.1139474
18	0x3d1f8d23	0.038952958
19	0x3db40b7b	0.08791252
20	0x3e2d9352	0.1695073
21	0xbdd02878	-0.10163969
22	0xbd9dc2e9	-0.07703192
23	0x3e2ea042	0.17053321
24	0xbe75dc27	-0.24009763
25	0x3dd059e5	0.10173396
26	0x3e80e50a	0.25174743
27	0xbd4347ef	-0.047676023
28	0x3da8c66a	0.082409695
29	0x3e516c42	0.20451453
30	0xbd00f4e4	-0.031483546
31	0x3bdbfcbc	0.006713478

conv_blocks.4.running_var f4 [32]
0	0x3d3c11e8	0.045915514
1	0x3d286ad2	0.041117497
2	0x3d28762a	0.041128315
3	0x3d4cf06d	0.050033975
4	0x3d259cbe	0.040432684
5	0x3d65b7fc	0.056083664
6	0x3d2e45e4	0.04254712
7	0x3d1cb9bd	0.03826307
8	0x3ce523ac	0.027971111
9	0x3d847209	0.06467063
10	0x3da50e6f	0.080593936
11	0x3d419218	0.047258466
12	0x3cc6a8bb	0.024250379
13	0x3d98e22b	0.07465013
14	0x3d1d6fc5	0.03843667
15	0x3cec637e	0.028856035
16	0x3d046bac	0.032329246
17	0x3d0cbab9	0.03435776
18	0x3d21b6e0	0.039481044
19	0x3d132eb8	0.035933226
20	0x3d01be98	0.031675905
21	0x3d6ab825	0.05730452
22	0x3d4cbc53	0.049984287
23	0x3d35ecaf	0.044415172
24	0x3d2fd64d	0.042928983
25	0x3d2447e8	0.040107638
26	0x3d24517f	0.040116783
27	0x3d229e14	0.039701536
28	0x3d24c363	0.040225398
29	0x3d2ff790	0.042960703
30	0x3cfb405a	0.030670334
31	0x3ccbc5b9	0.024874555

conv_blocks.7.weight f4 [64, 32, 4]
0	0x3b319299	0.0027095436
1	0x3c9db187	0.01924969
2	0x3c0b4f34	0.00850277
3	0x3d77119e	0.060319535
4	0x3d5f25ec	0.054479524
5	0xbb3c66f2	-0.0028747884
6	0x3d7bfbb8	0.061519355
7	0x3cf1817e	0.029480692
8	0xbd47a344	-0.048739687
9	0xbd105922	-0.035241254
10	0x3d8e86b7	0.069592886
11	0x3d89d088	0.06729227
12	0xbcfbc980	-0.030735731
13	0x3d90fc0d	0.07079325
14	0x3dc71132	0.097200766
15	0xbd88f963	-0.06688192
16	0xbcbcca5d	-0.023045713
17	0x3d397185	0.045274276
18	0xbc48ad07	-0.012248284
19	0x3d53ca08	0.051706344
20	0xbd91d9d8	-0.071216285
21	0xbd3177dd	-0.0433272
22	0x3d170289	0.036867652
23	0x3c706dde	0.014674632
24	0xbc486ca0	-0.0122329295
25	0x3d9890cb	0.07449492
26	0x3d870c76	0.065941736
27	0xbd44b5d0	-0.048024952
28	0xbd96ed40	-0.073694706
29	0x3d58665a	0.052831985
30	0xbd052485	-0.03250553
31	0x3d2f9fa3	0.04287685
32	0x3bc07f3a	0.0058745416
33	0x3d8406d4	0.06446615
34	0x3db4437f	0.08801936
35	0x3da41b7a	0.08013053
36	0xbd82aea3	-0.063809656
37	0xbd35992f	-0.04433554
38	0x3c83c8f7	0.016087038
39	0x3da1f60d	0.079082586
40	0xbc55dc36	-0.013052991
41	0x3d796b48	0.060893327
42	0x3d926ae3	0.07149293
43	0x3c5c900b	0.013462077
44	0x3cae0ad2	0.021245394
45	0xbc807fbc	-0.015685908
46	0xbd472c47	-0.04862621
47	0x3ce1074a	0.027469296
48	0x3c4a903e	0.012363492
49	0xbbd1b78a	-0.0064000534
50	0x3d3583e8	0.04431525
51	0xbd6a6093	-0.057221007
52	0x3cbdd1c5	0.023171315
53	0xbd9dc9d8	-0.07704514
54	0x3c85a923	0.016316002
55	0xbcbd7c36	-0.023130517
56	0xbd72f689	-0.059317145
57	0xbd0b0d25	-0.033948082
58	0xbcd2dedb	-0.025741031
59	0xbd58924b	-0.05287389
60	0xbd25f4bc	-0.0405166
61	0xbd581246	-0.052751802
62	0xbd09d6d4	-0.03365214
63	0xbd37a615	-0.044836123
64	0xbd0092ff	-0.031390186
65	0x3b683a98	0.0035435315
66	0x3dbe47e5	0.092910565
67	0x3d407703	0.0469885
68	0xbce84de7	-0.02835746
69	0xbb0f84dd	-0.002189926
70	0x3d6f7715	0.058463175
71	0xb81bfeae	-3.719207e-05
72	0x3c96cc50	0.01840797
73	0x3d450f7d	0.048110474
74	0xbd1a2af7	-0.03763863
75	0xbd70b4c6	-0.05876615
76	0xbd57afa9	-0.052657757
77	0xbbfb30b4	-0.007665718
78	0x3d29af04	0.041426674
79	0x3d551609	0.052022967
80	0xbd90b49a	-0.07065697
81	0x3c450d0f	0.012027039
82	0x3d010171	0.031495515
83	0xbcb4fcc3	-0.022093182
84	0xbd9cf0ce	-0.07663117
85	0x3baa6197	0.005199622
86	0x3ceb080a	0.028690357
87	0xbd2e4e99	-0.042555425
88	0xbd95e000	-0.07318115
89	0x3d2de8cb	0.042458337
90	0x3d9e6344	0.07733777
91	0xbacd865e	-0.0015680303
92	0x3d8f54d0	0.069985986
93	0xbd5d64a1	-0.054051045
94	0x3d796729	0.060889397
95	0x3c38971a	0.011266494
96	0x3d648aee	0.055796556
97	0xbcb3d857	-0.021953745
98	0x3d25174d	0.040305424
99	0xbd341a54	-0.04397042
100	0x3d77dd40	0.060513735
101	0x3db93485	0.090432204
102	0x3d8a3824	0.06748989
103	0x3d7c5cfc	0.061612114
104	0x3d48ddfa	0.04903982
105	0x3c0cae97	0.008586547
106	0x3b111e34	0.0022143247
107	0x3da09a26	0.078419015
108	0xbd9f3b34	-0.07774964
109	0xbd957e97	-0.07299536
110	0x3c1cc3d9	0.009568178
111	0xbd3c94d4	-0.04604037
112	0x3c6e8eae	0.014560385
113	0x3d718fe4	0.058975115
114	0xbd47eea5	-0.048811574
115	0x3d0b6bdd	0.034038413
116	0xbd7b15d1	-0.061300103
117	0xbcccdf18	-0.025008723
118	0xbd4e8ffc	-0.050430283
119	0x3d28b4e1	0.041188125
120	0xbcfe9907	-0.031078828
121	0x3d8a120d	0.06741724
122	0x3c5170e9	0.012783268
123	0xbd4d40ac	-0.050110504
124	0x3d7577d4	0.05992873
125	0xbca4b7c5	-0.02010716
126	0xbdab3907	-0.083604865
127	0xbd52a936	-0.051430903
128	0x3cfe6288	0.031052843
129	0xbd1d4e34	-0.03840466
130	0x3cdcb989	0.026943939
131	0x3cf55a3a	0.02995025
132	0xbb8dfd62	-0.004333184
133	0xbb664897	-0.0035138482
134	0xbc3ee05f	-0.011650174
135	0x3d546b39	0.051860068
136	0x3bfaa7d7	0.0076494026
137	0x3d961139	0.07327504
138	0xbd650f99	-0.05592308
139	0xbdba5937	-0.09099048
140	0x3d335e4a	0.043791093
141	0xbd6e59bd	-0.05819105
142	0x3ca5e12e	0.020248976
143	0x3d431297	0.04762515
144	0xbda86689	-0.08222682
145	0x3d85fc36	0.06542246
146	0x3da16e66	0.07882385
147	0x3d871bdc	0.06597111
148	0x3ce145af	0.027499048
149	0xbda04978	-0.07826513
150	0x3d8a4e9e	0.06753276
151	0x3d545570	0.051839292
152	0x3c8cdba0	0.01719457
153	0xbd06b72b	-0.032889526
154	0xbd8102c6	-0.06299357
155	0xbd97566a	-0.07389529
156	0x3d9308ab	0.07179388
157	0x3d36205c	0.044464454
158	0xbcf4ec83	-0.029897934
159	0xbce2bcfd	-0.027678007
160	0xbd9ea576	-0.07746403
161	0xbdb2cf9a	-0.08731003
162	0xba884f41	-0.0010399596
163	0xbd5aa342	-0.05337835
164	0x3d909e5a	0.07061453
165	0xbc3ded37	-0.011592201
166	0xbd3beb16	-0.045878492
167	0xbd82a02f	-0.06378209
168	0xbdc0c96f	-0.094134204
169	0xba0baf63	-0.0005328564
170	0xbca31812	-0.019908939
171	0x3d2052bb	0.039141398
172	0xbba4b238	-0.005026128
173	0xbcdba266	-0.026810836
174	0x394d0f3f	0.00019556003
175	0xbcce56c3	-0.025187856
176	0x3c21ecc3	0.009883109
177	0x3d8de801	0.06929017
178	0x3d7f5d2c	0.062344715
179	0x3d0a9c7e	0.03384065
180	0xbc261cfc	-0.010138746
181	0x3cbadf4e	0.022811558
182	0xbdb98183	-0.090579055
183	0xbda11921	-0.07866121
184	0x3db1c416	0.086799785
185	0x3d8bfc16	0.06835191
186	0x3d96e02b	0.073669754
187	0xbdb2107b	-0.0869455
188	0x3da3556a	0.07975276
189	0xbc95d70d	-0.01829102
190	0x3c98b38b	0.0186403
191	0x3cb041e9	0.021515803
192	0x3ceb6f46	0.028739583
193	0xbc1ca313	-0.009560364
194	0xbcd42575	-0.025896767
195	0xbc1ca42a	-0.009560624
196	0x3d25f6b8	0.040518492
197	0x3d0243df	0.03180301
198	0x3d5b8be8	0.053600222
199	0xbcb49101	-0.0220418
200	0x3ccac118	0.024750277
201	0x3d9b4967	0.0758236
202	0xbdc783c5	-0.0974193
203	0xbd9bb7af	-0.07603394
204	0xbd70979c	-0.058738336
205	0x3d23718a	0.0399032
206	0x3d197295	0.03746279
207	0x3d0a2d1b	0.033734422
208	0x3cad6533	0.02116642
209	0xbc9c3423	-0.01906783
210	0x3d97afb1	0.07406557
211	0xbd95336f	-0.07285201
212	0x3d746cb5	0.059673984
213	0x3d795310	0.06087023
214	0xbcb2b254	-0.02181355
215	0x3c22a763	0.009927603
216	0xbd0d019e	-0.03442537
217	0x3b365bed	0.0027825788
218	0x3d83348d	0.06406508
219	0x3c1c8d19	0.009555125
220	0xbd86b3be	-0.06577252
221	0xbd521f22	-0.05129922
222	0x3d3c305a	0.04594455
223	0xbbdac1b2	-0.0066759223
224	0x3c09df19	0.008415007
225	0xbd868c35	-0.06569711
226	0x3db13059	0.086518
227	0x3d833189	0.064059325
228	0xbd9ed291	-0.07755006
229	0x3db478fb	0.08812138
230	0x3d433374	0.04765649
231	0x3ce24a31	0.027623268
232	0x3d525fdb	0.051360946
233	0xbd7c0fe7	-0.061538603
234	0xbd24929b	-0.040178876
235	0x3d81039b	0.06299516
236	0x3c1b5389	0.009480366
237	0x3b1bd11f	0.002377577
238	0x3d8d7340	0.06906748
239	0x3c40d72c	0.011770051
240	0xbd694a03	-0.05695535
241	0x3c9b6a11	0.018971475
242	0x3d668bb6	0.056285582
243	0x3da99023	0.08279445
244	0x3d42c8de	0.047554843
245	0xbdd079f7	-0.10179513
246	0xbd36768e	-0.044546656
247	0xbc249741	-0.010045827
248	0xbd159940	-0.036523104
249	0x3b41c29f	0.0029565466
250	0xbcc1c915	-0.023655454
251	0xbc9a3dcf	-0.0188283
252	0xbdae3ffa	-0.08508296
253	0x3d683cb6	0.056698523
254	0xbc87c8d2	-0.01657525
255	0x3d7d0619	0.061773393

conv_blocks.7.bias f4 [64]
0	0x3c888d4e	0.016668942
1	0xbd760da4	-0.060071602
2	0xbb238388	-0.0024950225
3	0xbcf4953e	-0.02985632
4	0xbd386789	-0.045020614
5	0xbc954f6c	-0.018226348
6	0xbd5ccfa8	-0.053908974
7	0x3bb341a5	0.005470472
8	0x3cc9dce8	0.02464147
9	0xbd5fda4b	-0.05465154
10	0x3d99c905	0.075090446
11	0xbc8b090b	-0.016972085
12	0xbd367747	-0.044547345
13	0xbb33cd51	-0.002743561
14	0x3d6d690f	0.05796152
15	0xbd198791	-0.0374828
16	0xbd1c7b39	-0.03820345
17	0x3bb5de54	0.005550185
18	0x3dab4ba4	0.08364037
19	0xbdb3399a	-0.08751221
20	0xbd88dd27	-0.066828065
21	0xbc8f0087	-0.017456306
22	0xbd200e0e	-0.039075904
23	0xbd46f9a7	-0.04857793
24	0x3cb8291b	0.022480538
25	0xbd564467	-0.052311327
26	0xbda6ba8b	-0.08141049
27	0x3d741321	0.059588555
28	0x3d48807a	0.04895065
29	0x3d8ca58c	0.06867513
30	0xbdac52a7	-0.08414202
31	0xbcf0a37a	-0.029374827
32	0x3d9b948f	0.07596695
33	0xbca91fdd	-0.020645076
34	0x3da3d1e0	0.07999015
35	0xbd2bac8a	-0.041912593
36	0x3d285d93	0.041104864
37	0x3d73f1c9	0.059556756
38	0xbcfa63ad	-0.030565107
39	0xbd44a861	-0.04801214
40	0x3db063a1	0.08612753
41	0xbd5cf5d3	-0.053945374
42	0xbd2b9978	-0.041894406
43	0xbdacbbf9	-0.084342904
44	0xbd2cf87a	-0.042229153
45	0xbd4296cb	-0.04750709
46	0xbd9e1a57	-0.07719868
47	0x3d4e06ab	0.050299328
48	0xbd79d7a9	-0.060996685
49	0xbd32e59b	-0.043676
50	0x3c924bac	0.017858349
51	0xbd1f7a4e	-0.038935
52	0x3c9ca78f	0.019122867
53	0x3d991b2f	0.07475888
54	0xbd440861	-0.047859553
55	0xbc251af5	-0.010077228
56	0xbc867b99	-0.016416358
57	0xbd8863f4	-0.066596895
58	0xbd1057e9	-0.035240088
59	0x3d5f093b	0.054452162
60	0x3db01f10	0.08599675
61	0xbc5b9ceb	-0.013404111
62	0xbda93036	-0.08261149
63	0xbd9bec03	-0.07613375

conv_blocks.8.weight f4 [64]
0	0x3f81f713	1.0153526
1	0x3f7ebf59	0.99510723
2	0x3f7f22c1	0.99662405
3	0x3f81ab9d	1.0130497
4	0x3f808b8a	1.0042584
5	0x3f7d583a	0.9896275
6	0x3f8095f1	1.0045758
7	0x3f822932	1.0168822
8	0x3f7cec6c	0.9879825
9	0x3f810ec7	1.0082635
10	0x3f7c9ac7	0.9867367
11	0x3f7d43a3	0.9893133
12	0x3f7fa7ed	0.9986561
13	0x3f80b40c	1.0054946
14	0x3f7d406b	0.9892642
15	0x3f80dd41	1.0067521
16	0x3f7f74c0	0.9978752
17	0x3f802045	1.0009848
18	0x3f82387b	1.0173486
19	0x3f7abef3	0.97947615
20	0x3f806d6a	1.003339
21	0x3f7e221a	0.99270785
22	0x3f7db435	0.991031
23	0x3f7d7fa6	0.990229
24	0x3f80869e	1.0041082
25	0x3f7f7834	0.9979279
26	0x3f7f76f8	0.99790907
27	0x3f800ced	1.0003945
28	0x3f83ef3b	1.0307382
29	0x3f8006b2	1.0002043
30	0x3f7c64c8	0.9859128
31	0x3f7b73e1	0.9822369
32	0x3f7eb8af	0.99500555
33	0x3f811a23	1.0086101
34	0x3f839a81	1.0281526
35	0x3f7f70eb	0.99781674
36	0x3f7f22b1	0.9966231
37	0x3f7d3ae0	0.9891796
38	0x3f8196ee	1.0124185
39	0x3f7dac3c	0.99090934
40	0x3f7ff894	0.99988675
41	0x3f813bb3	1.0096344
42	0x3f7ef4ac	0.9959209
43	0x3f7d5a45	0.98965865
44	0x3f81548a	1.0103924
45	0x3f7e3a28	0.9930749
46	0x3f7de94d	0.99184114
47	0x3f82d92c	1.0222526
48	0x3f81a6df	1.012905
49	0x3f7d0fa0	0.98851967
50	0x3f80af0c	1.005342
51	0x3f828e67	1.0199708
52	0x3f7d215f	0.98879045
53	0x3f81ec83	1.0150303
54	0x3f7d1aec	0.98869205
55	0x3f7ebaa2	0.9950353
56	0x3f7ae7e6	0.980101
57	0x3f7d4f1d	0.9894884
58	0x3f811190	1.0083485
59	0x3f7abd1f	0.97944826
60	0x3f7d9c83	0.9906694
61	0x3f80708d	1.0034348
62	0x3f7e29a5	0.99282295
63	0x3f817977	1.0115193

conv_blocks.8.bias f4 [64]
0	0x3cb59e15	0.022170106
1	0x3bc81f47	0.006107244
2	0xbcbeca74	-0.023289897
3	0xbb4f2312	-0.0031606597
4	0x3c3ee9e4	0.011652444
5	0x3ae4018d	0.0017395482
6	0x3c307ff0	0.01077269
7	0x3c177644	0.009244505
8	0xbc1bc9e3	-0.009508583
9	0xbca54e5e	-0.02017897
10	0xbc9dc2ca	-0.019257922
11	0x3bae3e8e	0.0053175157
12	0xbc8f3a14	-0.017483748
13	0xba02c8ab	-0.00049890083
14	0xbc418f12	-0.011813896
15	0x3c9a635a	0.018846203
16	0x3c853364	0.016259857
17	0x3ce71b3b	0.028211227
18	0xbbf2d2eb	-0.0074103973
19	0xbc168fa6	-0.009189522
20	0xbc0de676	-0.008660903
21	0x3c922858	0.017841503
22	0xbc6e900f	-0.014560713
23	0xbc1da0d5	-0.009620865
24	0x3c598f4b	0.013278793
25	0xba78089d	-0.00094617327
26	0x3a5205fc	0.0008011756
27	0x3d105c1f	0.035244104
28	0xbb59fc27	-0.0033261867
29	0xbca4e723	-0.020129746
30	0xbc810319	-0.015748547
31	0xbcba8d1d	-0.022772366
32	0x3c61f095	0.013790269
33	0xbcafaaf6	-0.021443825
34	0x3c5ebd6b	0.013594965
35	0x3b5f0994	0.0034032809
36	0x3b72ee95	0.0037068476
37	0xbc13df4a	-0.009025404
38	0xbb0bc19c	-0.0021325117
39	0x3c354813	0.011064547
40	0xbc9ec0ba	-0.019379009
41	0x3c82d1b3	0.015969133
42	0xbc77dd52	-0.0151284505
43	0xbbf20773	-0.007386142
44	0xbc123c24	-0.008925471
45	0xbd0e1e1c	-0.034696683
46	0x3c341689	0.010991701
47	0x3cf9cd0e	0.030493286
48	0xbabd9637	-0.0014464323
49	0xbd076d58	-0.033063263
50	0x3c4b485e	0.01240739
51	0x3bbf867d	0.0058448897
52	0xbc49d3cd	-0.012318564
53	0xbb0cec4c	-0.0021503149
54	0xbca2a566	-0.019854259
55	0xbc1b35ef	-0.009473308
56	0xbcf2cadd	-0.029637748
57	0xbc12cfcf	-0.008960678
58	0x3c8473d8	0.01616852
59	0xbcb57fa3	-0.022155588
60	0xbc7f7890	-0.015592709
61	0x3b124401	0.0022318366
62	0xbc63e38b	-0.013909231
63	0x3bf10f70	0.0073565766

conv_blocks.8.running_mean f4 [64]
0	0x3e5827f4	0.21108991
1	0x3d552232	0.052034564
2	0xbc278ca4	-0.010226402
3	0x3de9ab93	0.11409678
4	0xbda9da96	-0.08293645
5	0xbe1b86ea	-0.15188184
6	0x3d61cd2a	0.0551273
7	0xbe1c9879	-0.15292539
8	0xbd57a8ae	-0.0526511
9	0xbe89c1b6	-0.26905602
10	0xbe5d6a23	-0.21622519
11	0x3e98035c	0.29690063
12	0xbcd528da	-0.026020456
13	0xbe311dac	-0.17296475
14	0x3dfc3b29	0.123159714
15	0xbd70232b	-0.05862729
16	0x3e475a9a	0.19468156
17	0x3d76b9a2	0.060235627
18	0xbccece28	-0.025244787
19	0x3e165faf	0.14684938
20	0xbe9bb2df	-0.30409905
21	0x3ce55a3f	0.027997134
22	0xbd68467c	-0.056707844
23	0xbe058d77	-0.13042246
24	0x3cf348b4	0.029697753
25	0xbe2f93a3	-0.17146163
26	0xbe084f8e	-0.13311598
27	0x3ea4c5fe	0.32182306
28	0xbdbf5669	-0.09342653
29	0xbe297f4e	-0.16552469
30	0xbeb3a54e	-0.35087055
31	0x3c30a56a	0.010781625
32	0x3e19010f	0.1494181
33	0x3d84b154	0.06479135
34	0x3e621af6	0.22080597
35	0x3e4024b8	0.18764007
36	0x3e7d8ef8	0.2476157
37	0xbcfec745	-0.031100878
38	0xbc98726b	-0.018609246
39	0x3c8439db	0.016140869
40	0xbee1a81b	-0.44073567
41	0x3e95c07f	0.29248425
42	0xbdd25929	-0.10270912
43	0xbc8b4679	-0.017001377
44	0x3d1d935b	0.038470607
45	0xbe08f791	-0.13375689
46	0xbdcb1ccc	-0.09917602
47	0xbe01f82c	-0.12692326
48	0xbd85a66e	-0.065258846
49	0xbe4a41c7	-0.19751655
50	0x3e3e321f	0.18573807
51	0xbe3d9f8d	-0.18517895
52	0x3e0eda4d	0.13950463
53	0x3dda889a	0.10670586
54	0x3e07db98	0.13267362
55	0x3d856056	0.06512515
56	0x3e6572da	0.22407094
57	0x3df75936	0.120775625
58	0xbe7c7600	-0.24654388
59	0x3de95c0f	0.11394512
60	0x3d8dc42e	0.06922184
61	0x3e42c557	0.19020592
62	0xbe13c5fd	-0.14430995
63	0xbe648b58	-0.2231878

conv_blocks.8.running_var f4 [64]
0	0x3e6f050a	0.23341766
1	0x3e922911	0.28546956
2	0x3e7b1b3a	0.24522105
3	0x3e9c4c2d	0.30526868
4	0x3e6726fb	0.22573464
5	0x3e6781dc	0.22608131
6	0x3e630fad	0.22173949
7	0x3ea55d9f	0.3229799
8	0x3e9dc9d2	0.3081804
9	0x3e6440ff	0.22290419
10	0x3e38964a	0.1802608
11	0x3e871257	0.2638118
12	0x3e3e234f	0.18568157
13	0x3e984a97	0.29744408
14	0x3e70f883	0.235323
15	0x3e5767e1	0.2103572
16	0x3e52c318	0.20582235
17	0x3e95f2fc	0.29286945
18	0x3e5c6ef9	0.21526708
19	0x3e7368cd	0.23770447
20	0x3e45892b	0.19290607
21	0x3e5a5454	0.21321231
22	0x3e5a91b5	0.21344645
23	0x3e7a7fe9	0.24462856
24	0x3e4b26b5	0.19838984
25	0x3e48cf21	0.19610263
26	0x3e6c7748	0.23092377
27	0x3e7f7ef7	0.24950777
28	0x3e6788a6	0.22610721
29	0x3e651b0f	0.22373603
30	0x3e6d0e3f	0.23149966
31	0x3e71c056	0.23608527
32	0x3e682832	0.22671583
33	0x3e650185	0.22363861
34	0x3e1f69cb	0.155677
35	0x3e7dcb61	0.24784614
36	0x3e6af7aa	0.22946039
37	0x3e70ac55	0.2350324
38	0x3e4c8732	0.19973448
39	0x3e6cccaa	0.23124948
40	0x3e8aa41d	0.27078333
41	0x3e64bb87	0.22337161
42	0x3e680374	0.22657567
43	0x3e59f468	0.2128464
44	0x3e4ce954	0.20010883
45	0x3e6d74ae	0.23189041
46	0x3e37773b	0.17916577
47	0x3e2ed46c	0.1707322
48	0x3e3a7a94	0.18210822
49	0x3e4020c6	0.18762502
50	0x3e347fab	0.17626826
51	0x3e811c2f	0.25216815
52	0x3e454629	0.19265045
53	0x3e6f385b	0.23361342
54	0x3e7a2772	0.2442911
55	0x3e44693c	0.19180769
56	0x3e60a135	0.21936496
57	0x3e77b5fb	0.24190514
58	0x3e63df25	0.22253092
59	0x3e5d747f	0.21626471
60	0x3e2f88c0	0.1714201
61	0x3e5bf07e	0.21478459
62	0x3e521930	0.20517421
63	0x3e876e46	0.2645132

conv_blocks.11.weight f4 [128, 64, 4]
0	0xbd789a23	-0.06069387
1	0xbbeb9b55	-0.007190148
2	0xbc1c230c	-0.00952984
3	0xbcc9df57	-0.02464263
4	0xbd4e2b5c	-0.05033432
5	0x3ce1db44	0.027570374
6	0x3c8a7db1	0.016905637
7	0x3c8d59fc	0.017254822
8	0x3d583951	0.052789036
9	0x3cfd6794	0.030933179
10	0xbcbc6584	-0.022997625
11	0x3d572eaa	0.052534737
12	0x3ceb884e	0.028751519
13	0xbd81502c	-0.0631412
14	0xbd18f330	-0.037341297
15	0xbc12e9b5	-0.008966853
16	0xbd7067f1	-0.058692876
17	0x3cce313a	0.025169957
18	0x3a8836b1	0.0010392276
19	0xbd2a6d12	-0.041607924
20	0x3d32fb8b	0.04369692
21	0x3ce4d62d	0.027934158
22	0x3d162ec8	0.036665708
23	0xbc4211d9	-0.0118450755
24	0xbc7cb4a8	-0.015423931
25	0xbbed3a1f	-0.0072395946
26	0xbd909b53	-0.07060876
27	0xbcf110ca	-0.029426951
28	0xbb9c4495	-0.004768918
29	0x3d3d517d	0.04622029
30	0x3cd4ff63	0.026000684
31	0x3d3b948c	0.045795962
32	0x3c2b8f48	0.010471173
33	0x3b971565	0.0046107047
34	0x3cc616ed	0.024180854
35	0x3d1725fe	0.036901467
36	0xbc836b19	-0.01604228
37	0xbd03736f	-0.032092508
38	0xbd388d1b	-0.045056444
39	0xbd846c70	-0.06465995
40	0xbc709f8c	-0.014686476
41	0xbd125a8f	-0.035730895
42	0x3d9689eb	0.073505245
43	0x3d5d41b6	0.054017745
44	0x3b79b3d0	0.0038101561
45	0x3ba9d30c	0.0051826295
46	0x3ca81ee4	0.020522542
47	0x3c4a9ffd	0.012367246
48	0x3d1e4c38	0.038646907
49	0xbd3cd39a	-0.046100236
50	0x3ce57104	0.028007992
51	0xbc724a60	-0.01478824
52	0x3cd326c4	0.02577532
53	0x3bbddb2a	0.0057939487
54	0xbd7064b5	-0.05868979
55	0xbd041919	-0.032250497
56	0xbc7e3a52	-0.015516834
57	0xbcf643fd	-0.030061716
58	0xbca0e552	-0.019640598
59	0x3d77ff3d	0.06054615
60	0x3d523127	0.051316407
61	0x3d2ff9cb	0.04296283
62	0xbd3e5abf	-0.04647326
63	0xbd98a6e7	-0.07453709
64	0x3d23db92	0.04000432
65	0xbd360551	-0.044438664
66	0x3d0feaf4	0.035136178
67	0x3ca082be	0.019593593
68	0x3b47ba26	0.0030475943
69	0xbce6bf48	-0.028167382
70	0xbcf63df5	-0.03005884
71	0xbc2837b9	-0.010267192
72	0xbd210f5d	-0.039321292
73	0xbc14446b	-0.009049515
74	0xbda4f3e7	-0.08054333
75	0xbd09773c	-0.033560976
76	0x3ccb4520	0.024813235
77	0xbd6ecd3d	-0.0583012
78	0x3c606bf5	0.013697614
79	0xbd247a7a	-0.040155865
80	0xbd293334	-0.041308597
81	0x3d29c22e	0.04144495
82	0xbc1b2071	-0.009468184
83	0xbd3795cf	-0.044820603
84	0xbc850560	-0.016237915
85	0xbd46e331	-0.04855651
86	0xbc10c2c9	-0.008835503
87	0xbcff617d	-0.031174416
88	0xbd57513d	-0.05256771
89	0x3d2df65d	0.04247128
90	0x3c0dd998	0.008657835
91	0x3c9f2758	0.01942794
92	0x3d6a1189	0.05714563
93	0xbb1892bd	-0.0023280822
94	0x3ce569fa	0.028004635
95	0xbc2de4c3	-0.010613623
96	0x3d1cc8ee	0.03827756
97	0x3c3a64c7	0.011376566
98	0xbc888a0b	-0.016667387
99	0xbd1aa467	-0.037754443
100	0xbd04944e	-0.032367997
101	0xbd43e084	-0.047821537
102	0xba4d7937	-0.0007838192
103	0x3d2f8638	0.04285261
104	0xbcee7ec1	-0.029113175
105	0x3d0dbede	0.034605853
106	0xbd068269	-0.032839213
107	0x3be932c3	0.007116647
108	0xbd62e664	-0.0553955
109	0x3d28e95b	0.04123817
110	0x3ccfeef0	0.025382489
111	0xbd21d06f	-0.03950542
112	0xbc4827ca	-0.012216518
113	0x3d51541f	0.051105615
114	0xbce2c956	-0.027683895
115	0xbd38eb3e	-0.04514622
116	0xbd3e48d8	-0.046456188
117	0x3bae9e9a	0.0053289654
118	0xbc535726	-0.012899196
119	0xbbb666ec	-0.0055664685
120	0xbce64797	-0.028110309
121	0x3d18b756	0.037284218
122	0x3b5e478f	0.0033917164
123	0xbd44c7d8	-0.04804215
124	0xbcdcdf1e	-0.02696186
125	0xbd961530	-0.0732826
126	0x3c555d8a	0.01302279
127	0x3cfb8b07	0.030705942
128	0x3d38be0e	0.045103125
129	0xbd06f0a8	-0.03294435
130	0xbd3a571f	-0.04549324
131	0xbd5975ef	-0.053090986
132	0x3d0e323a	0.03471587
133	0xbd256d1e	-0.040387265
134	0xbca528f0	-0.020161122
135	0xbd62b969	-0.055352602
136	0x3bf2d274	0.007410342
137	0xbd600bd9	-0.0546988
138	0x3cff9da7	0.031203104
139	0xbd219fce	-0.039459042
140	0xbd0f7e38	-0.03503248
141	0x3d295433	0.041340064
142	0xbd56b017	-0.052414026
143	0xbd04fdcb	-0.0324686
144	0x3c96d1af	0.018410532
145	0x3cc773b4	0.024347164
146	0x3cddaf71	0.027061196
147	0xbd0d82b3	-0.034548473
148	0xbd20e5d7	-0.039281692
149	0xbcc4c486	-0.02401949
150	0xbbdb7dc1	-0.0066983406
151	0xbd09b19a	-0.03361664
152	0x3d0aa7ba	0.033851363
153	0x3d0dac80	0.034588337
154	0x3d00252e	0.031285457
155	0x3ca2a119	0.019852208
156	0xbd7298ed	-0.059227873
157	0xbd84604c	-0.0646368
158	0xbce9fede	-0.028563913
159	0xbd18d5b0	-0.037313163
160	0x3d39a2bc	0.04532121
161	0x3d089f56	0.03335508
162	0x3baeb305	0.0053313994
163	0x3cf83a29	0.03030117
164	0x3d2c6e72	0.042097516
165	0xbd292d2c	-0.041302845
166	0x3c28dbd5	0.010306318
167	0x3d25dc4a	0.040493287
168	0xbd83a6b3	-0.0642828
169	0xbd1cb2e2	-0.038256533
170	0x3c77e59a	0.015130425
171	0xbc30c748	-0.0107897
172	0xbcd91ac4	-0.02650202
173	0xbc8c9eb7	-0.017165525
174	0xbd75eb3c	-0.06003879
175	0xbd0b505c	-0.034012184
176	0xbbe8bf76	-0.007102902
177	0x3d0e5a5c	0.034754142
178	0xbd90a399	-0.07062454
179	0xbd5c4d14	-0.053784445
180	0xbd3410c4	-0.0439613
181	0x3c8bedcd	0.017081166
182	0xbd03d86b	-0.032188814
183	0x3cbdbdda	0.023161817
184	0x3d26c890	0.040718615
185	0xbd879c1b	-0.06621572
186	0xbd0430db	-0.032273155
187	0xbd2940df	-0.04132163
188	0xbc8a252a	-0.016863424
189	0xbd26228f	-0.0405603
190	0xbd025034	-0.03181477
191	0x3c18db5c	0.009329643
192	0xbacb426b	-0.0015507465
193	0x3aa959b6	0.0012920413
194	0xbd524af6	-0.05134102
195	0x3d04056e	0.03223174
196	0xbd59e160	-0.05319345
197	0x3cedd211	0.029030832
198	0xbd01b122	-0.031663068
199	0xbd44cccb	-0.04804687
200	0x3ce77167	0.028252317
201	0xbd3af83e	-0.0456469
202	0x3bca7f75	0.006179745
203	0xbcce42ab	-0.025178274
204	0x3d9bea6c	0.07613072
205	0x3c3c4b91	0.011492626
206	0x3c8c21f6	0.017106038
207	0xbd193875	-0.037407357
208	0x3d20bf53	0.03924496
209	0xbcdf4ffc	-0.02725982
210	0xbc8febf4	-0.017568566
211	0x3b029316	0.0019924096
212	0xbd165099	-0.036697958
213	0xbd829046	-0.06375174
214	0x3bf65653	0.007517615
215	0x3cd260c6	0.02568091
216	0x3cfe9485	0.031076679
217	0x3cfa821b	0.030579617
218	0xbd78e21b	-0.060762506
219	0x3c51d2c0	0.012806594
220	0x3b947eb0	0.004531704
221	0x3bce1d4a	0.0062901126
222	0x39ca7b58	0.0003862034
223	0xbafb08b1	-0.001915237
224	0x3c8acac6	0.016942393
225	0xbd1836b8	-0.03716156
226	0x3c59f89d	0.013303903
227	0x3ca6ca91	0.020360263
228	0x3d4d68ec	0.05014889
229	0xbcfe3ec0	-0.03103578
230	0xbd446efd	-0.04795741
231	0x3d43d2ec	0.047808573
232	0x3acb4a2e	0.0015509778
233	0xbcec2a8f	-0.028828887
234	0xbcfe2fdc	-0.03102868
235	0x3d5382dc	0.05163847
236	0x3b4392f1	0.0029842223
237	0xbd52ea63	-0.05149306
238	0x3b09d3d0	0.002103079
239	0xbbf7afa1	-0.0075587784
240	0x3c3f3202	0.011669638
241	0xbc92cca9	-0.017919855
242	0x3d200a18	0.039072126
243	0xbd1021be	-0.03518843
244	0x3d3e6a15	0.046487886
245	0x3d16e3db	0.036838394
246	0x3d194079	0.037415
247	0x3c438e79	0.011935824
248	0xbd2ac2a5	-0.041689534
249	0xbd6e0ba1	-0.05811656
250	0xbd0d9552	-0.03456623
251	0x3d2fc4d6	0.042912327
252	0x3d032bcd	0.032024194
253	0x3d2fbbb1	0.042903606
254	0x3cc4987a	0.023998488
255	0xbcfb75be	-0.030695792

conv_blocks.11.bias f4 [128]
0	0xbc9771e0	-0.018486917
1	0x3d30a71e	0.043128125
2	0xbaa1479d	-0.0012304668
3	0xba388b31	-0.0007039784
4	0xb8bb8a6a	-8.9426365e-05
5	0xbd063448	-0.032764703
6	0x3c74dca3	0.014945182
7	0xbd73eec9	-0.059553895
8	0xbbfc2b02	-0.0076955566
9	0xbb4c50df	-0.0031176133
10	0x3c4c4ff2	0.012470232
11	0xbd015fa8	-0.031585366
12	0xbd7aa5b7	-0.061193194
13	0x3d7442b3	0.05963392
14	0xbd18a016	-0.037262045
15	0xbcf85b17	-0.030316873
16	0x3d1e7f19	0.03869543
17	0xbbe6775b	-0.0070332712
18	0xbd1e3d06	-0.038632415
19	0xbd2fa7f2	-0.042884775
20	0xbd68f31d	-0.056872476
21	0x3b4f13b7	0.0031597444
22	0x3b57145b	0.003281853
23	0x3d4fdfaf	0.05075043
24	0xbd78193e	-0.060570948
25	0x3cda687e	0.026661154
26	0x3b14a905	0.0022683751
27	0xbd57c52d	-0.052678276
28	0x3b7ee3aa	0.0038893023
29	0xbd02a7ff	-0.031898495
30	0x3c81aa30	0.015828222
31	0x3ce1577d	0.027507538
32	0x3d676eb2	0.05650205
33	0xbc9b9127	-0.018990112
34	0x3d7257ae	0.05916565
35	0x3c7f4a17	0.015581629
36	0x3c9587de	0.018253263
37	0xbd6b1dce	-0.05740147
38	0xbd629b3b	-0.05532382
39	0xbcbbaaa9	-0.022908526
40	0x3d72556b	0.059163492
41	0x3d085f6b	0.033294123
42	0x3d623a3b	0.055231314
43	0xbd6e2599	-0.058141325
44	0x3b9d7d14	0.0048061702
45	0xbd682c6d	-0.056682993
46	0x3d749592	0.059712954
47	0x3d2ddeb4	0.042448714
48	0x3d0db7d5	0.034599144
49	0xbd0027f5	-0.031288106
50	0xbd0ee72a	-0.034888424
51	0xbd1ab4ad	-0.037769962
52	0x3d5b23f2	0.053501077
53	0xbd0fad08	-0.035077125
54	0x3cf52dc5	0.029929051
55	0x3d07f640	0.033193827
56	0xbc9bad59	-0.019003557
57	0x3d641eb7	0.055693354
58	0xbd4c2487	-0.049839523
59	0xbd04682d	-0.032325912
60	0x3ca056e5	0.019572685
61	0x3c4e140c	0.012578022
62	0xbcd39938	-0.025829896
63	0xbca4224d	-0.020035887
64	0x392f6981	0.00016728604
65	0x3d088564	0.033330336
66	0x3d488762	0.048957236
67	0x3d71c3bf	0.05902457
68	0x3d5b3878	0.05352065
69	0xbc81e103	-0.015854364
70	0x3cc15718	0.0236011
71	0xbb8183aa	-0.003952463
72	0xbd70ac85	-0.058758277
73	0xbd3edeec	-0.046599314
74	0xbd5eaf2e	-0.054366283
75	0x3d61d137	0.055131163
76	0xbc0dabde	-0.008646933
77	0x3d476033	0.048675727
78	0x3be6aa80	0.007039368
79	0x3d643b03	0.05572034
80	0x3d059ef4	0.032622293
81	0x3d26c309	0.040713344
82	0x3d68e82a	0.056862034
83	0x3bf374af	0.0074296813
84	0xbd4dd6c1	-0.050253633
85	0x3cb9e2cc	0.022691153
86	0x3d7005cb	0.058599275
87	0x3d07ac0c	0.03312306
88	0xbb2f1839	-0.0026717319
89	0x3d4e3ac1	0.050349
90	0xbd778732	-0.060431667
91	0x3c9e915a	0.019356418
92	0x3d79c694	0.060980394
93	0xbcd3facf	-0.02587643
94	0xbcbe1b29	-0.02320631
95	0x3ca90422	0.020631853
96	0x3d12366b	0.03569643
97	0xbd7d2bb7	-0.061809268
98	0x3d1ba9ae	0.038003616
99	0x3d3f6d7b	0.046735268
100	0xbcfb67a9	-0.030689077
101	0x3d1047b5	0.035224635
102	0xbd692105	-0.056916256
103	0xbc40d0fa	-0.011768574
104	0xbd4b2311	-0.04959399
105	0xbcd9c7ac	-0.026584469
106	0x3cf3e7e3	0.029773658
107	0x3d494371	0.049136583
108	0x3d313234	0.043260768
109	0x3d0341d8	0.032045215
110	0xbcfdcd8d	-0.030981803
111	0x3c02f130	0.007992074
112	0x3d1f1ba5	0.038844723
113	0x3d788cd8	0.060681194
114	0xbd0cbac5	-0.034357805
115	0xbd3deec9	-0.0463703
116	0xbd0aeb44	-0.033915773
117	0x3d047fdd	0.032348502
118	0xbd7a4ce4	-0.061108485
119	0x3d14ec42	0.036358126
120	0x3c873271	0.016503545
121	0x3d6c4951	0.057687107
122	0x3d44b491	0.048023764
123	0x3c7cd83c	0.015432414
124	0x3d0aba34	0.033868983
125	0xbc71fc11	-0.01476957
126	0xbcf11c77	-0.029432518
127	0xbccca51f	-0.02498108

conv_blocks.12.weight f4 [128]
0	0x3f83c399	1.0294067
1	0x3f840d8a	1.0316632
2	0x3f815170	1.0102978
3	0x3f80724b	1.003488
4	0x3f80918a	1.0044415
5	0x3f8028fe	1.001251
6	0x3f834447	1.0255212
7	0x3f7f830e	0.9980935
8	0x3f80d7c0	1.0065842
9	0x3f8312b1	1.0240079
10	0x3f8111bc	1.0083537
11	0x3f82b967	1.021283
12	0x3f8135ef	1.0094584
13	0x3f80e6a5	1.0070387
14	0x3f84b015	1.0366236
15	0x3f826157	1.0185956
16	0x3f83f939	1.0310432
17	0x3f7fd539	0.99934727
18	0x3f816929	1.0110217
19	0x3f80fa22	1.0076334
20	0x3f82f0c7	1.022973
21	0x3f8333cf	1.0250186
22	0x3f836eee	1.0268228
23	0x3f7fce00	0.99923706
24	0x3f83ab29	1.0286609
25	0x3f83dd50	1.0301914
26	0x3f81091f	1.0080909
27	0x3f8300ed	1.0234658
28	0x3f800a41	1.0003129
29	0x3f86e255	1.0537821
30	0x3f80e221	1.0069009
31	0x3f846b73	1.0345291
32	0x3f84d451	1.0377294
33	0x3f847d55	1.0350748
34	0x3f836173	1.0264114
35	0x3f848e27	1.0355881
36	0x3f85adb6	1.0443637
37	0x3f805baf	1.002798
38	0x3f829b05	1.0203558
39	0x3f876b56	1.0579631
40	0x3f8310d2	1.0239508
41	0x3f875cc6	1.0575187
42	0x3f837167	1.0268983
43	0x3f82e966	1.0227478
44	0x3f82c40f	1.0216082
45	0x3f84c5ee	1.0372903
46	0x3f84311d	1.0327488
47	0x3f84599e	1.0339849
48	0x3f8205af	1.0157984
49	0x3f82e03d	1.0224682
50	0x3f81eaae	1.0149744
51	0x3f83c29c	1.0293765
52	0x3f8630d6	1.0483654
53	0x3f81947b	1.0123438
54	0x3f835829	1.0261279
55	0x3f846adc	1.0345111
56	0x3f844206	1.0332649
57	0x3f83a5ce	1.0284975
58	0x3f823f5e	1.0175588
59	0x3f85b9a1	1.0447274
60	0x3f81b582	1.0133517
61	0x3f858239	1.0430366
62	0x3f7d2c3d	0.9889563
63	0x3f802be8	1.0013399
64	0x3f8353d3	1.0259956
65	0x3f7d3c9c	0.9892061
66	0x3f82d548	1.0221338
67	0x3f7e095a	0.9923302
68	0x3f81d6d5	1.0143687
69	0x3f82b39f	1.0211066
70	0x3f8663cf	1.0499209
71	0x3f805413	1.0025657
72	0x3f830c94	1.0238214
73	0x3f8367b4	1.0266023
74	0x3f861825	1.0476118
75	0x3f811788	1.0085306
76	0x3f846caf	1.0345668
77	0x3f80c85a	1.0061142
78	0x3f83881c	1.0275912
79	0x3f8775d9	1.0582839
80	0x3f86efc1	1.0541917
81	0x3f7ff884	0.9998858
82	0x3f839948	1.0281153
83	0x3f86b83e	1.0524976
84	0x3f830b2c	1.0237784
85	0x3f82ca5f	1.0218009
86	0x3f85504d	1.0415131
87	0x3f842703	1.0324405
88	0x3f811588	1.0084696
89	0x3f7f3a5b	0.9969842
90	0x3f81c211	1.0137349
91	0x3f80412e	1.0019891
92	0x3f828cc3	1.0199207
93	0x3f81242e	1.0089166
94	0x3f814007	1.0097665
95	0x3f83e78b	1.0305036
96	0x3f83095f	1.0237235
97	0x3f817072	1.011244
98	0x3f839355	1.0279337
99	0x3f8442b9	1.0332862
100	0x3f828c3a	1.0199044
101	0x3f84baa9	1.0369464
102	0x3f80c0db	1.0058855
103	0x3f843fbc	1.033195
104	0x3f83aac8	1.0286493
105	0x3f84c2e9	1.0371982
106	0x3f8265bd	1.0187298
107	0x3f8352b0	1.0259609
108	0x3f8255fe	1.0182493
109	0x3f85fd5b	1.0467943
110	0x3f84c83c	1.0373607
111	0x3f813938	1.0095587
112	0x3f813b49	1.0096217
113	0x3f83ba04	1.0291142
114	0x3f810cc3	1.008202
115	0x3f8151e6	1.0103118
116	0x3f82d3ec	1.0220923
117	0x3f81ea53	1.0149635
118	0x3f81c8af	1.0139369
119	0x3f8622bf	1.0479354
120	0x3f80fcd6	1.007716
121	0x3f8255d3	1.0182441
122	0x3f81fb78	1.0154867
123	0x3f8415db	1.031917
124	0x3f822c41	1.0169755
125	0x3f831d04	1.024323
126	0x3f81420e	1.0098283
127	0x3f81765a	1.0114243

conv_blocks.12.bias f4 [128]
0	0x3d24ae83	0.04020549
1	0x3c2d0065	0.010559176
2	0x3cb05850	0.021526486
3	0xbc2a7330	-0.010403439
4	0xbbcaa04c	-0.0061836597
5	0xbc1f1666	-0.00970993
6	0x3c8c8df2	0.017157529
7	0xbc4a47cf	-0.012346222
8	0x3d040ecc	0.032240674
9	0x3d126523	0.035740983
10	0xba3d115a	-0.00072123634
11	0x3d1c6162	0.03817881
12	0xbc731b3e	-0.014838038
13	0xbc868186	-0.016419183
14	0xbadb7d8c	-0.001674579
15	0x39e54d69	0.0004373596
16	0x3cb511de	0.022103246
17	0x3b02bda6	0.0019949465
18	0x3c0819ea	0.00830696
19	0x3b55f43d	0.0032646798
20	0x39c5b04f	0.00037706128
21	0x3c0fd6f2	0.008779274
22	0x3c4ced7c	0.012507793
23	0x3c32a903	0.010904553
24	0xbc52ffb0	-0.012878343
25	0x3d3d3c8d	0.046200324
26	0x3c8df9eb	0.017331084
27	0x3c4a494a	0.012346575
28	0xbbb09c85	-0.0053897523
29	0xbc98220b	-0.01857092
30	0x3c1d8ce3	0.00961611
31	0xbc73e525	-0.014886175
32	0x3ce4ad31	0.027914615
33	0x3d4b9ecb	0.049711984
34	0x3cde6617	0.02714829
35	0x3cdc4c47	0.02689184
36	0x3c0dc10c	0.008651983
37	0xbaa6c131	-0.001272237
38	0x3c661d5f	0.014045089
39	0x3c55d797	0.013051889
40	0x38f73ab7	0.00011788814
41	0x3c023a59	0.0079484815
42	0x3bd55cc2	0.0065113017
43	0xbcc38042	-0.023864869
44	0x3bb1242b	0.005405923
45	0x3c21ef16	0.009883663
46	0xbbc97f2b	-0.006149193
47	0xbc99cc91	-0.018774303
48	0x3d0fb793	0.03508718
49	0x3d1a0ac6	0.03760793
50	0x3c87d19f	0.016579447
51	0xbcbcd539	-0.023050891
52	0x3cb3f443	0.021967059
53	0x3b31156b	0.0027020823
54	0xbc139a87	-0.00900901
55	0x3ca6c173	0.020355916
56	0xbc1eca71	-0.0096918205
57	0x3c587433	0.013211298
58	0x3b248004	0.0025100717
59	0xbce8ef77	-0.028434498
60	0x3d0dd6d3	0.0346287
61	0x3cc7b67f	0.024379013
62	0xbcb5d121	-0.022194447
63	0xbc640019	-0.013916039
64	0x3ccb0d6e	0.024786677
65	0xbc9cd82e	-0.019146051
66	0xbcd55b71	-0.02604458
67	0xbc0e4abc	-0.00868481
68	0xbbbf6fb4	-0.0058421735
69	0xbb597cf8	-0.003318606
70	0x3c8c4658	0.017123386
71	0xbce53648	-0.027979985
72	0xbbbb0a9a	-0.005708051
73	0x3ccd7a4a	0.025082726
74	0x3d4d1ccd	0.050076295
75	0xbc930075	-0.017944554
76	0x3c8c6901	0.017139914
77	0x3c3c53d9	0.0114946
78	0xbd231c5d	-0.03982197
79	0xbc2c4e29	-0.010516682
80	0xbcba95df	-0.022776542
81	0x3ac20556	0.0014802616
82	0x3bf023b9	0.007328477
83	0xba86fb99	-0.0010298371
84	0x3c9915aa	0.018687088
85	0xbc60c303	-0.013718369
86	0xbb033060	-0.0020017847
87	0x3d029ec7	0.031889703
88	0x3d27b645	0.04094531
89	0x3b90ddfa	0.004420993
90	0x3cb1955e	0.02167767
91	0x3bcd584a	0.0062666284
92	0x3cceb3c4	0.025232203
93	0x3c0a0bd5	0.008425673
94	0xbb29d699	-0.0025915264
95	0xbc29b458	-0.010357939
96	0x3c756002	0.014976503
97	0xbbf4aea8	-0.0074671097
98	0x3d24bdc4	0.040220037
99	0xba30678a	-0.0006729296
100	0xba7c401e	-0.00096225913
101	0xbbe323f9	-0.0069317785
102	0xbca7c91b	-0.020481637
103	0x3cb41ad3	0.021985447
104	0xbb2ab572	-0.0026048091
105	0x3c762d1c	0.015025403
106	0x3ca20241	0.019776465
107	0x3c3cc621	0.011521847
108	0x3d17e574	0.037084058
109	0xbb89ea02	-0.004208804
110	0x3b86f947	0.0041190716
111	0x3cca40b0	0.024689049
112	0xbcc7ef01	-0.024405958
113	0xbcfa76d9	-0.03057425
114	0xbc8689ab	-0.016423067
115	0xbc3346b9	-0.010942155
116	0x3d4621d5	0.04837211
117	0xbc595dc9	-0.013266989
118	0xbc80d347	-0.015725745
119	0xbc1f02f5	-0.009705295
120	0x3c4b22d9	0.012398445
121	0xbaaade10	-0.001303615
122	0xbd2224e9	-0.03958598
123	0xbcdbc02e	-0.026825037
124	0x3c4dffd6	0.012573203
125	0xbb2461d2	-0.002508272
126	0xbcc30beb	-0.023809394
127	0x3bde1295	0.0067771175

conv_blocks.12.running_mean f4 [128]
0	0xbf0026b5	-0.5005906
1	0x3e31f219	0.17377509
2	0xbeaa5403	-0.3326722
3	0xbc370daf	-0.011172696
4	0x3d80d7cc	0.0629116
5	0x3d827c67	0.06371384
6	0xbd981178	-0.07425207
7	0xbe300263	-0.1718841
8	0xbf0c5a27	-0.5482506
9	0xbea41116	-0.32044286
10	0xbe81dcd0	-0.2536378
11	0xbea12090	-0.31470156
12	0xbe2dc1b3	-0.16968422
13	0x3e1cc7b5	0.15310557
14	0x3d749ea6	0.05972161
15	0x3e17c6cf	0.14821933
16	0x3da58c98	0.08083457
17	0x3d19d9c0	0.03756118
18	0x3d5665ea	0.052343287
19	0xbddc4054	-0.10754457
20	0xbd80f0b4	-0.062959105
21	0x3dc93319	0.09824199
22	0x3e46f0ea	0.19427839
23	0xbf111c3c	-0.5668371
24	0xbe629f3b	-0.22131054
25	0xbecce7cc	-0.40020597
26	0xbe4aafbe	-0.19793603
27	0x3d3a3e29	0.045469437
28	0xbe0e701c	-0.13909954
29	0xbe171032	-0.14752272
30	0xbb508574	-0.0031817826
31	0x3e92cc6f	0.28671595
32	0xbdc5f503	-0.09665873
33	0xbe6fd341	-0.2342043
34	0xbeb40cf5	-0.35166135
35	0x3d97e4dc	0.07416698
36	0xbed85ac6	-0.42256755
37	0xbe574718	-0.21023214
38	0x3e195e3a	0.14977351
39	0xbdabc18c	-0.083865255
40	0x3e4d7017	0.2006229
41	0x3cbfc453	0.023409044
42	0x3c49045f	0.012269109
43	0x3ce7a449	0.02827658
44	0x3d99971f	0.07499527
45	0xbe3a4737	-0.18191229
46	0x3ceeb8dc	0.029140882
47	0xbc53c659	-0.012925708
48	0xbe6d7c84	-0.2319203
49	0xbea534e0	-0.32266903
50	0x3d8a15ce	0.0674244
51	0x3e19e47d	0.15028568
52	0x3e6be616	0.2303699
53	0xbd733f88	-0.05938676
54	0x3e1d1ac3	0.1534224
55	0xb9ac6de0	-0.0003288826
56	0xbd3ebf3e	-0.0465691
57	0x3cfb09af	0.030644266
58	0xbc16e5a4	-0.009210024
59	0x3e046689	0.12929739
60	0xbe7f9bc8	-0.2496177
61	0xbcf4226c	-0.02980157
62	0xbcd9da2d	-0.026593292
63	0x3e5dfda1	0.21678783
64	0xbc340df0	-0.010989651
65	0x3eade576	0.33964127
66	0xbd9d4511	-0.07679189
67	0xbdc430ee	-0.09579645
68	0x3ddb12dc	0.106969565
69	0x3e9eb6bb	0.30998787
70	0xbca3f8d4	-0.020016111
71	0x3da25ee5	0.07928256
72	0x3d45e997	0.04831847
73	0x3d76adf4	0.06022449
74	0xbf478f0a	-0.77952635
75	0xbd0586c2	-0.03259922
76	0x3d994651	0.07484115
77	0x3eb7a632	0.35868984
78	0x3d2b85a4	0.041875497
79	0xbcc339f8	-0.023831353
80	0xbd8ee082	-0.06976415
81	0x3e28dcd8	0.16490495
82	0xbd75d5b1	-0.060018245
83	0x3c9bf42a	0.019037325
84	0xbdfeb37d	-0.124365784
85	0x3e809559	0.25113943
86	0x3e17c58b	0.1482145
87	0x3e8bbb6d	0.27291432
88	0xbe9a1b08	-0.30098748
89	0x3e915fe5	0.28393474
90	0x3ccb7b56	0.024839085
91	0x3da83cbe	0.08214711
92	0x3e36408d	0.17798062
93	0x3e38a80e	0.18032858
94	0xbd5791b8	-0.052629203
95	0x3e16c060	0.14721823
96	0x3e5fe9df	0.21866558
97	0xbeb6b878	-0.35687613
98	0xbe17eb6c	-0.148359
99	0x3d34c921	0.044137124
100	0xbc400a93	-0.011721271
101	0x3e320c3a	0.17387477
102	0x3e445f84	0.19177061
103	0xbea4ec8a	-0.32211715
104	0x3df152de	0.11783384
105	0x3d13ac0e	0.036052756
106	0x3dd2ae77	0.10287183
107	0x3df46193	0.11932673
108	0x3ca21df7	0.019789679
109	0x3dbd09ee	0.092304096
110	0x3cd02e91	0.02541283
111	0xbea0dbbc	-0.31417644
112	0xbd31f496	-0.043446146
113	0xbe566a31	-0.20938946
114	0x39a83408	0.00032082223
115	0x3dfa17b0	0.12211549
116	0xbec35964	-0.38154137
117	0x3e28ff1d	0.16503568
118	0xbed0ebeb	-0.4080499
119	0x3ce11ab2	0.02747855
120	0xbcdd2e56	-0.026999634
121	0x3bebf809	0.007201199
122	0x3db82deb	0.08993133
123	0xbd98f8d7	-0.074693374
124	0x3e03b84a	0.1286327
125	0x3d019e4a	0.031645097
126	0x3daca75a	0.08430357
127	0x3d5a491a	0.05329237
