data/gan_output/discriminator_epoch_100.pth (torch, 191771 bytes, 21 tensors)

conv_blocks.0.weight f4 [16, 1, 4]
0.034928016 0.09463644 -0.004140792 0.45539758 -0.015020464 0.031678177 -0.3982408 0.039688937
0.09449239 -0.41460738 0.06467263 -0.0557608 -0.42174295 0.3231913 0.4107217 -0.43728644
-0.39094138 0.110510334 -0.0806712 0.30145988 -0.38134587 0.2616615 -0.12048401 0.35940388
0.29743767 -0.47692615 0.36324337 0.21922693 0.007195557 -0.20886943 0.33427453 -0.45253658
-0.20543697 -0.32292348 0.1762646 0.3003123 0.0965101 0.18801013 0.4232889 0.12345659
0.2367388 -0.2817134 -0.44263652 -0.29228085 -0.20733254 0.027102735 -0.32524568 -0.13199821
-0.12858619 0.23532008 -0.40997484 -0.48122698 0.03645674 -0.074493445 -0.29329842 -0.40757525
-0.12024778 -0.15333544 0.044811316 -0.14334375 0.25168493 0.22206275 -0.2788018 -0.33290312
00000000: ae10 0f3d c0d0 c13d 7baf 87bb df29 e93e
00000010: 6418 76bc fac0 013d 38e6 cbbe de90 223d
00000020: 3a85 c13d 6b47 d4be 1573 843d 7065 64bd
00000030: b1ee d7be 5479 a53e 1d4a d23e 02e4 dfbe
00000040: 7829 c8be 3e53 e23d f136 a5bd f358 9a3e
00000050: c43f c3be 7ff8 853e 52c0 f6bd c903 b83e
00000060: c049 983e aa2f f4be 09fb b93e 067d 603e
00000070: b5c8 eb3b dee1 55be 0826 ab3e e0b2 e7be
00000080: 125e 52be 3a56 a5be b57e 343e 89c2 993e
00000090: 16a7 c53d ba85 403e 53b9 d83e cfd6 fc3d
000000a0: a86b 723e bd3c 90be 41a1 e2be d6a5 95be
000000b0: fb4e 54be 8e06 de3c 9a86 a6be 8a2a 07be
000000c0: 19ac 03be bff7 703e 39e8 d1be 6263 f6be
000000d0: aa53 153d 0590 98bd 362b 96be b4ad d0be
000000e0: 7844 f6bd f703 1dbe 128c 373d b4c8 12be
000000f0: d9dc 803e 6b64 633e 1cbf 8ebe 4772 aabe

conv_blocks.0.bias f4 [16]
-0.5473691 -0.13133726 -0.3051085 0.2386155 0.1518859 0.067859255 -0.36901942 0.43352562
0.23016365 0.088827625 -0.22726978 -0.5520824 0.0001242534 0.09303463 0.33924606 -0.2579744
00000000: 6220 0cbf 467d 06be 2e37 9cbe 9f57 743e
00000010: fa87 1b3e cbf9 8a3d 1df0 bcbe 12f7 dd3e
00000020: 05b0 6b3e 42eb b53d 69b9 68be 4655 0dbf
00000030: 054a 0239 f188 be3d a9b1 ad3e 3815 84be

conv_blocks.3.weight f4 [32, 16, 4]
-0.01142715 0.1630405 0.13914727 -0.027058437 -0.12802522 0.013795079 -0.10097676 0.039016064
0.06793846 0.056993853 0.03878711 -0.009875877 -0.048638538 -0.13630879 0.13345747 -0.10870935
-0.04420858 0.06307176 -0.11845048 0.072814494 -0.06977778 0.033145986 0.12542574 -0.047340658
0.013522784 0.06145088 0.013623053 0.07928328 0.07197028 -0.10763801 -0.0738974 0.044683874
-0.032061443 -0.0059206937 0.056452353 -0.078345135 -0.055552322 0.0044327993 0.015719801 -0.0011748788
-0.04609577 -0.030676749 0.046632424 0.037873507 -0.017952627 -0.007854264 -0.023568494 0.046561908
0.08366347 0.05494978 0.11547232 0.03655114 -0.09599343 -0.044370506 0.015149965 -0.021449007
-0.10279168 -0.07949115 -0.084149554 0.036031283 -0.071045816 0.0670996 -0.042711463 -0.026301928
-0.04546955 0.15559071 0.024419965 0.081486136 -0.11596481 -0.09216219 -0.004455942 0.019773075
-0.062661566 -0.080297 0.110064924 -0.045666017 -0.061198767 0.054502904 -0.061159555 0.112401076
0.012432127 0.12674965 0.015253076 -0.042827696 -0.057184644 0.05299162 0.057249583 0.082214415
0.0016917621 -0.051901214 0.0025280018 -0.0011772737 0.008842795 0.0083077755 -0.007871939 0.05098167
-0.03226837 0.14091225 0.007233364 -0.025036298 -0.056913495 0.03787551 0.08885895 -0.10133692
-0.016859422 -0.10728332 -0.044294212 -0.09968416 -0.030539058 0.03258992 0.08624263 -0.05008358
0.11732429 -0.05791649 0.121226124 0.06545752 0.01982782 -0.13546784 0.056409005 -0.061087232
0.062093813 -0.1036346 0.041138954 -0.06082946 0.11752405 0.015231457 -0.0058491738 0.025152197
0.13613705 0.06911517 0.09595238 0.06697196 -0.02401623 -0.012076315 0.060695793 -0.03647581
-0.022570213 0.074061856 -0.016446045 -0.09574815 -0.07335054 0.062213637 -0.009344384 0.11368712
-0.08438884 -0.117895216 -0.12418754 -0.15093698 -0.009791075 -0.03873389 0.10077896 -0.024507916
-0.06943955 -0.08783137 0.09290144 0.08486216 -0.071949765 -0.06882509 0.092034444 0.04503923
0.096638374 -0.1334849 0.10619177 -0.07535826 0.08026105 0.077338815 0.024174035 0.0148031805
0.09714632 0.060928896 0.041720297 -0.038249083 -0.031618312 -0.047029123 0.06773632 0.044378694
-0.10904801 -0.08999481 0.02700506 -0.003795928 0.05714082 0.054887876 -0.097127154 0.06091967
0.010497213 0.038210522 0.061178345 -0.04373934 0.1151033 -0.06051892 0.07365729 -0.07907457
-0.013369332 0.112791605 -0.07997808 0.1261104 -0.12348311 -0.040944707 0.00079606526 -0.07962178
-0.113180034 -0.115247056 -0.004087269 0.0006483049 0.062227324 -0.042897753 -0.07299186 0.031717602
0.0053228037 -0.0061525377 0.06554819 -0.0022697193 -0.08687195 0.07162008 -0.05829457 -0.025741423
0.069752455 -0.12640303 -0.095391385 -0.14243923 0.07494617 0.053014588 0.07414298 0.0547774
-0.08676115 -0.019419653 0.025115047 0.030609222 -0.059081078 -0.09895266 0.05715908 -0.12437199
-0.11634602 -0.15194729 0.03729678 -0.07977733 0.095622934 0.10746474 0.101652816 -0.09697668
-0.10447971 -0.048943166 -0.051950518 -0.10505439 0.06691176 -0.10048473 -0.08772461 -0.04122295
-0.086729854 0.0070951907 0.05053149 -0.0019804437 -0.111130625 0.041209728 -0.13075162 0.002940298
00000000: f138 3bbc 17f4 263e 9f7c 0e3e a8a9 ddbc
00000010: 0b19 03be c104 623c e7cc cebd 4fcf 1f3d
00000020: 5223 8b3d 6372 693d 3cdf 1e3d 6ece 21bc
00000030: 3439 47bd 8894 0bbe 13a9 083e 02a3 debd
00000040: 0e14 35bd c42b 813d 2a96 f2bd c41f 953d
00000050: a7e7 8ebd 16c4 073d 9b6f 003e 47e8 41bd
00000060: ab8e 5d3c ebb3 7b3d 3a33 5f3c 465f a23d
00000070: 2765 933d 5171 dcbd 8557 97bd 7006 373d
00000080: dc52 03bd 6102 c2bb 953a 673d 6a73 a0bd
00000090: d58a 63bd 0441 913b d0c6 803c 64fe 99ba
000000a0: ebce 3cbd ce4d fbbc a401 3f3d 4021 1b3d
000000b0: 6311 93bc 2caf 00bc b712 c1bc b3b7 3e3d
000000c0: c157 ab3d 0513 613d c07c ec3d a6b6 153d
000000d0: 3498 c4bd d9bd 35bd 8f37 783c d4b5 afbc
000000e0: 7284 d2bd 42cc a2bd 9a56 acbd 8a95 133d
000000f0: 7880 91bd 846b 893d 37f2 2ebd 2477 d7bc
00000100: 473e 3abd 2c53 1f3e 610c c83c 34e2 a63d
00000110: f57e edbd 88bf bcbd 2703 92bb 25fb a13c
00000120: b554 80bd c172 a4bd b869 e13d 4a0c 3bbd
00000130: 8fab 7abd 703e 5f3d 7182 7abd 8932 e63d
00000140: 1fb0 4b3c a9ca 013e 0ae8 793c 186c 2fbd
00000150: 723a 6abd be0d 593d 8a7e 6a3d 0860 a83d
00000160: 1ebe dd3a 5e96 54bd d5ac 253b c04e 9aba
00000170: 5fe1 103c 561d 083c 4ef9 00bc 28d2 503d
00000180: d72b 04bd 4d4b 103e db05 ed3b ec18 cdbc
00000190: 201e 69bd 5a23 1b3d aefb b53d bb89 cfbd
000001a0: c51c 8abc 5bb7 dbbd d96d 35bd 3527 ccbd
000001b0: 0c2d fabc 027d 053d fa9f b03d 7124 4dbd
000001c0: b847 f03d d739 6dbd 6745 f83d 980e 863d
000001d0: f46d a23c 15b8 0abe 210d 673d 9b36 7abd
000001e0: 1556 7e3d 613e d4bd 5281 283d 5028 79bd
000001f0: 73b0 f03d 5c8d 793c 6daa bfbb fb0b ce3c
00000200: 8367 0b3e 418c 8d3d ae82 c43d 9828 893d
00000210: afbd c4bc bcdb 45bc 279c 783d a967 15bd
00000220: 2be5 b8bc bead 973d dbb9 86bc 9b17 c4bd
00000230: cf38 96bd bad3 7e3d 3019 19bc cbd4 e83d
00000240: 0ed4 acbd 0c73 f1bd 0956 febd 398f 1abe
00000250: bf6a 20bc 6da7 1ebd 3365 ce3d d3c4 c8bc
00000260: 5336 8ebd efe0 b3bd 1c43 be3d 36cc ad3d
00000270: 665a 93bd 2bf4 8cbd 8e7c bc3d 0e7b 383d
00000280: 57ea c53d 44b0 08be 127b d93d 6e55 9abd
00000290: e85f a43d d063 9e3d a008 c63c 0a89 723c
000002a0: a6f4 c63d 9490 793d e7e2 2a3d 12ab 1cbd
000002b0: 3482 01bd 9ca1 40bd 57b9 8a3d 6fc6 353d
000002c0: 9054 dfbd 334f b8bd b739 dd3c 1bc5 78bb
000002d0: 7e0c 6a3d 1cd2 603d 9aea c6bd e786 793d
000002e0: 81fc 2b3c a382 1c3d 2596 7a3d 0628 33bd
000002f0: 47bb eb3d b0e2 77bd a2d9 963d d9f1 a1bd
00000300: 0b0b 5bbc 49ff e63d 8ccb a3bd 1623 013e
00000310: b6e4 fcbd a3b5 27bd 09af 503a be10 a3bd
00000320: efca e7bd a606 ecbd 7fee 85bb 01f3 293a
00000330: 14e2 7e3d 8eb5 2fbd c27c 95bd 51ea 013d
00000340: ea6a ae3b 3a9b c9bb 213e 863d 92bf 14bb
00000350: ece9 b1bd 8cad 923d 49c6 6ebd addf d2bc
00000360: 60da 8e3d cc6f 01be 8f5c c3bd 97db 11be
00000370: 617d 993d d325 593d 46d8 973d 445e 603d
00000380: d4af b1bd f715 9fbc 12be cd3c 31c0 fa3c
00000390: 00ff 71bd b1a7 cabd a41f 6a3d beb6 febd
000003a0: d246 eebd 1298 1bbe 82c4 183d 4c62 a3bd
000003b0: f5d5 c33d 7916 dc3d 5a2f d03d b69b c6bd
000003c0: 75f9 d5bd a178 48bd 11ca 54bd c226 d7bd
000003d0: 0809 893d f0ca cdbd f6a8 b3bd 65d9 28bd
000003e0: 6c9f b1bd c67e e83b 1cfa 4e3d 55ca 01bb
000003f0: 7498 e3bd 88cb 283d c1e3 05be 04b2 403b

conv_blocks.3.bias f4 [32]
-0.056012474 -0.036193144 0.035901383 -0.017406186 -0.0876746 -0.024805725 0.021225689 -0.010687017
0.016798008 0.10723941 0.002197081 -0.005766976 0.013347806 0.03488209 0.0531952 0.04642229
-0.07804122 0.07984908 -0.059273496 0.03986703 0.045698274 0.028297003 0.051346447 0.043703526
-0.11897581 0.07616925 0.004305659 0.1119995 -0.058205042 -0.006062833 0.0510331 -0.059433263
00000000: 566d 65bd 433f 14bd 540d 133d 6b97 8ebc
00000010: be8e b3bd 6035 cbbc 7fe1 ad3c 9918 2fbc
00000020: fa9b 893c 56a0 db3d e7fc 0f3b e7f8 bcbb
00000030: c2b0 5a3c 86e0 0e3d 36e3 593d 4d25 3e3d
00000040: 13d4 9fbd ea87 a33d c4c8 72bd 9c4b 233d
00000050: 1d2e 3b3d 1ecf e73c a750 523d 7802 333d
00000060: 97a9 f3bd a0fe 9b3d 7c16 8d3b fe5f e53d
00000070: 6968 6ebd bbaa c6bb 1508 513d 4b70 73bd

conv_blocks.4.weight f4 [32]
0.99676174 0.9974187 1.0014818 1.0237414 0.9921897 1.0055109 1.01764 0.99505776
0.9874478 0.99193937 0.9867562 0.99134195 1.0229934 1.0016636 0.9934513 1.0091853
1.010017 1.0141398 1.0175755 1.0019845 0.9796341 1.0064434 0.9903379 0.9963397
0.9855165 0.99549735 1.0001913 1.0089214 0.96644855 0.98413116 1.0336349 0.98497564
00000000: c72b 7f3f d556 7f3f 8e30 803f f509 833f
00000010: 2500 7e3f 95b4 803f 0742 823f 1bbc 7e3f
00000020: 61c9 7c3f bdef 7d3f 0e9c 7c3f 96c8 7d3f
00000030: 73f1 823f 8336 803f d352 7e3f fc2c 813f
00000040: 3d48 813f 55cf 813f ea3f 823f 0741 803f
00000050: 4dc9 7a3f 23d3 803f c986 7d3f 1e10 7f3f
00000060: cf4a 7c3f ead8 7e3f 4506 803f 5624 813f
00000070: 2c69 773f 05f0 7b3f 264e 843f 5d27 7c3f

conv_blocks.4.bias f4 [32]
-0.021604571 -0.02552624 0.008476051 -0.024781827 0.004788639 0.021412393 -0.024721242 0.005696207
0.020810569 -0.015482645 -0.04260019 -0.02770057 0.012561279 -0.027531076 -0.023650656 -0.016951654
0.0229414 -0.007733115 -0.0118030775 0.010280284 -0.0130207455 -0.019089943 -0.028636418 -0.017495373
-0.038262624 -0.02947941 -0.026951127 -0.015716573 0.004708459 -0.029339153 0.006436251 0.017765922
00000000: 12fc b0bc 681c d1bc 22df 0a3c 4203 cbbc
00000010: 04ea 9c3b 0b69 af3c 3484 cabc 3fa7 ba3b
00000020: ed7a aa3c ebaa 7dbc 897d 2ebd 4eec e2bc
00000030: d3cd 4d3c da88 e1bc 05bf c1bc 32de 8abc
00000040: 9aef bb3c 1266 fdbb b261 41bc a36e 283c
00000050: f754 55bc 8362 9cbc ec96 eabc 7552 8fbc
00000060: 45b9 1cbd ce7e f1bc 9cc8 dcbc 0bc0 80bc
00000070: 6b49 9a3b aa58 f0bc 30e7 d23b d789 913c

conv_blocks.4.running_mean f4 [32]
-0.2613029 0.014925245 0.0047997404 -0.10651801 0.11857109 -0.026806664 -0.19105536 -0.04838581
0.14187048 0.1291701 -0.17200884 0.13305824 -0.025973622 -0.109619305 -0.1417437 -0.18571599
0.17201416 0.1414063 0.04601963 0.08221749 0.16646844 -0.09977952 -0.07401878 0.18091832
-0.23129207 0.11723278 0.2439117 -0.047021978 0.087314114 0.20557055 -0.051399 0.017749144
00000000: 7ec9 85be 0489 743c 2447 9d3b 1d26 dabd
00000010: 66d5 f23d a699 dbbc 04a4 43be 3330 46bd
00000020: 7f46 113e 2b45 043e 1623 30be 6b40 083e
00000030: a2c6 d4bc 1680 e0bd 4325 11be 552c 3ebe
00000040: 7b24 303e d0cc 103e 147f 3c3d a561 a83d
00000050: b476 2a3e 3459 ccbd 2897 97bd a742 393e
00000060: d4d7 6cbe bd17 f03d fdc3 793e 1e9a 40bd
00000070: bed1 b23d 1681 523e c287 52bd a766 913c

conv_blocks.4.running_var f4 [32]
0.042366605 0.04715432 0.04052579 0.053492762 0.042179592 0.058246713 0.038824793 0.040680807
0.028118502 0.06449881 0.08834441 0.04879617 0.025084725 0.08176486 0.041079167 0.029500306
0.032834906 0.033748336 0.04346487 0.037914094 0.033236556 0.058568392 0.055453874 0.047196582
0.04445069 0.043166168 0.044116143 0.036714017 0.040265847 0.045178477 0.030080082 0.025556302
00000000: 9b88 2d3d e324 413d 5ffe 253d 3a1b 5b3d
00000010: 82c4 2c3d 1b94 6e3d bf06 1f3d eba0 263d
00000020: c658 e63c f417 843d eaed b43d 7ede 473d
00000030: 7b7e cd3c 5674 a73d a142 283d a0aa f13c
00000040: e57d 063d b23b 0a3d 3808 323d cf4b 1b3d
00000050: 0e23 083d 69e5 6f3d 9a23 633d 3451 413d
00000060: ed11 363d 02cf 303d 21b3 343d 7061 163d
00000070: cded 243d 110d 393d 816a f63c 735b d13c

conv_blocks.7.weight f4 [64, 32, 4]
0.0020886976 0.019463817 0.009024539 0.05757036 0.054153003 0.0011238742 0.063749395 0.030189246
-0.047771454 -0.03432783 0.07011657 0.0703236 -0.029809108 0.07388898 0.0980197 -0.06498686
-0.022077506 0.048262488 -0.009189492 0.049658373 -0.070381224 -0.03931434 0.037221335 0.017039947
-0.008012595 0.07471637 0.06878116 -0.047753472 -0.07377548 0.052458674 -0.033778947 0.043986507
0.0051244167 0.064795725 0.08811766 0.080532186 -0.064640634 -0.04300888 0.012958379 0.07636597
-0.0132338945 0.060329456 0.07373624 0.013875878 0.020473693 -0.014717875 -0.049922526 0.029729847
0.012228 -0.0057900175 0.041210957 -0.058074262 0.02049777 -0.07963584 0.019633394 -0.019819293
-0.062164836 -0.031675126 -0.024241814 -0.049363807 -0.044278115 -0.054099914 -0.031953473 -0.04727968
-0.03165018 0.002579402 0.088807665 0.043717828 -0.028084025 -2.223649e-06 0.05760093 -0.0005363044
0.017219728 0.04890457 -0.033904545 -0.058378864 -0.053523853 -0.0075366716 0.041994393 0.05343835
-0.07311301 0.008800577 0.030735476 -0.022283847 -0.07628119 0.00563616 0.02892586 -0.04148901
-0.073257394 0.041048087 0.07642362 0.00061319536 0.070230685 -0.054751873 0.06123027 0.0067930385
0.0584621 -0.024399098 0.03948496 -0.0477397 0.063091256 0.09034009 0.06848078 0.060060713
0.049198966 0.010843605 0.003264132 0.08110994 -0.07508177 -0.06816458 0.010968216 -0.04507052
0.013616914 0.059262447 -0.047226105 0.029149145 -0.06225027 -0.02608922 -0.04888922 0.042665854
-0.029561153 0.06697924 0.012970963 -0.052238528 0.0568371 -0.02033913 -0.085332386 -0.05266275
0.029596034 -0.03706573 0.027049195 0.025806589 -0.003220206 -0.0038219776 -0.01205985 0.05278209
0.0065321787 0.07170431 -0.056114417 -0.09311682 0.048700284 -0.055389397 0.024340082 0.049209766
-0.08085143 0.06596143 0.07766098 0.06747261 0.028783878 -0.07884726 0.068885244 0.047964193
0.020050738 -0.03523481 -0.060293708 -0.07470196 0.07116255 0.042698897 -0.029141782 -0.025791954
-0.07823721 -0.0891332 -0.00019872047 -0.050771747 0.07099551 -0.009388669 -0.04241495 -0.061602615
-0.0909511 0.003085043 -0.020632878 0.037790447 -0.0046066493 -0.026891524 0.0010523667 -0.02831612
0.005227832 0.07138064 0.06279068 0.03364405 -0.0073661157 0.022632226 -0.093683496 -0.077895686
0.08860768 0.06651153 0.07346876 -0.08671074 0.07816478 -0.018354537 0.019198196 0.019545935
0.029008273 -0.009190765 -0.026212169 -0.012857528 0.03854215 0.033971403 0.051697772 -0.021856723
0.025857115 0.07713563 -0.09862397 -0.07763703 -0.05733659 0.040508043 0.040994447 0.03229787
0.019858938 -0.016667357 0.07534363 -0.07274847 0.06096807 0.061804112 -0.022866882 0.008869414
-0.03487878 0.0006227284 0.060417864 0.011906662 -0.066850804 -0.052403342 0.04643986 -0.0038802323
0.008307383 -0.06620829 0.0838545 0.063396566 -0.07755862 0.08992125 0.049771603 0.024285916
0.049879007 -0.061939653 -0.039217096 0.06359291 0.011564631 0.0030621376 0.06754446 0.009378917
-0.05785961 0.019735087 0.054492943 0.086075656 0.045943893 -0.10183529 -0.04739547 -0.009997152
-0.03877434 0.003746539 -0.025799876 -0.019316869 -0.08730348 0.052705 -0.014915493 0.060647365
00000000: 88e2 083b 9572 9f3c a9db 133c e6ce 6b3d
00000010: 8acf 5d3d f64e 933a 0b8f 823d 704f f73c
00000020: 00ac 43bd 579b 0cbd 4799 8f3d d205 903d
00000030: 3b32 f4bc 1b53 973d 8dbe c83d d517 85bd
00000040: e3db b4bc e3ae 453d 868f 16bc 9466 4b3d
00000050: 0824 90bd 1308 21bd 6675 183d 5c97 8b3c
00000060: 4247 03bc e504 993d 23dd 8c3d 2599 43bd
00000070: 9917 97bd e8de 563d cb5b 0abd 322b 343d
00000080: b9ea a73b 9fb3 843d 0877 b43d 0fee a43d
00000090: 4f62 84bd 142a 30bd 624f 543c c365 9c3d
000000a0: fad2 58bc 051c 773d 0703 973d a757 633c
000000b0: 72b8 a73c 3e23 71bc 907b 4cbd 028c f33c
000000c0: f357 483c 30ba bdbb d2cc 283d 47df 6dbd
000000d0: f0ea a73c 1e18 a3bd 36d6 a03c 125c a2bc
000000e0: 8ea0 7ebd c7bd 01bd c596 c6bc b431 4abd
000000f0: f85c 35bd df97 5dbd a5e1 02bd 56a8 41bd
00000100: 9fa3 01bd 2f0b 293b cbe0 b53d 7711 333d
00000110: 7810 e6bc 003a 15b6 f4ee 6b3d c796 0cba
00000120: 6310 8d3c 2950 483d 7edf 0abd ad1e 6fbd
00000130: d43b 5bbd 2ff6 f6bb 5002 2c3d 2ce2 5a3d
00000140: 46bc 95bd 4c30 103c f7c8 fb3c 9d8c b6bc
00000150: 5039 9cbd 89af b83b edf5 ec3c 61f0 29bd
00000160: f907 96bd 0a22 283d fd83 9c3d d8be 203a
00000170: 1bd5 8f3d 8043 60bd 97cc 7a3d 2398 de3b
00000180: f475 6f3d 9ee0 c7bc fbba 213d b48a 43bd
00000190: fd35 813d 3a04 b93d a73f 8c3d 3902 763d
000001a0: db84 493d 60a9 313c 0ceb 553b f81c a63d
000001b0: 79c4 99bd df99 8bbd 08b4 333c de9b 38bd
000001c0: 7a19 5f3c 2ebd 723d 2970 41bd 30ca ee3c
000001d0: 24fa 7ebd 0fb9 d5bc 1040 48bd 64c2 2e3d
000001e0: 3b2a f2bc 692c 893d 2984 543c 11f8 55bd
000001f0: 05ce 683d 3f9e a6bc bfc2 aebd e5b4 57bd
00000200: 6273 f23c 3cd2 17bd 4696 dd3c 5768 d33c
00000210: 170a 53bb 257a 7abb ad96 45bc 0832 583d
00000220: e30b d63b b6d9 923d 3bd8 65bd 08b4 bebd
00000230: f379 473d fedf 62bd da64 c73c 2e90 493d
00000240: 6f95 a5bd c916 873d b80c 9f3d 142f 8a3d
00000250: 2bcc eb3c ac7a a1bd b513 8d3d 1a76 443d
00000260: 7241 a43c 6052 10bd 89f6 76bd 57fd 98bd
00000270: acbd 913d 0ae5 2e3d bfba eebc a649 d3bc
00000280: d53a a0bd 788b b6bd 9f5f 50b9 09f6 4fbd
00000290: 1866 913d efd2 19bc 4cbb 2dbd 0653 7cbd
000002a0: 9244 babd 6f2e 4a3b 4806 a9bc 28ca 1a3d
000002b0: 60f3 96bb 9d4b dcbc 91ef 893a 35f7 e7bc
000002c0: 3c4e ab3b 0330 923d 6698 803d 58ce 093d
000002d0: 755f f1bb 3867 b93c 22dd bfbd c687 9fbd
000002e0: f177 b53d 3237 883d ca76 963d 6795 b1bd
000002f0: db14 a03d 415c 96bc 8945 9d3c cc1e a03c
00000300: c2a2 ed3c dd94 16bc e7ba d6bc 62a8 52bc
00000310: 60de 1d3d 9925 0b3d 0bc1 533d df0c b3bc
00000320: 4dd2 d33c 49f9 9d3d 5dfb c9bd 2a00 9fbd
00000330: c6d9 6abd c3eb 253d cbe9 273d c54a 043d
00000340: 36af a23c fb89 88bc c34d 9a3d 26fd 94bd
00000350: a8b9 793d 4f26 7d3d 5453 bbbc 0551 113c
00000360: 0ddd 0ebd 983e 233a b978 773d 2914 433c
00000370: 13e9 88bd e3a4 56bd b937 3e3d 7f4b 7ebb
00000380: b11b 083c 3698 87bd e8bb ab3d 0fd6 813d
00000390: 0ed7 9ebd a228 b83d 4fdd 4b3d 42f3 c63c
000003a0: ee4d 4c3d 6fb4 7dbd 1ba2 20bd 003d 823d
000003b0: 9479 3d3c 25ae 483b c054 8a3d 07aa 193c
000003c0: 33fe 6cbd 7aab a13c fe33 5f3d 6f48 b03d
000003d0: aa2f 3c3d 058f d0bd c121 42bd 18cb 23bc
000003e0: d8d1 1ebd 7e88 753b 435a d3bc 693e 9ebc
000003f0: 2bcc b2bd 33e1 573d 1d60 74bc 5f69 783d

conv_blocks.7.bias f4 [64]
0.01670994 -0.06043738 -0.002421536 -0.030134575 -0.044921443 -0.018588172 -0.05429556 0.005474345
0.02457415 -0.054493982 0.074928254 -0.016977383 -0.044758637 -0.0028668935 0.057965115 -0.037299443
-0.03783704 0.0057024653 0.08296664 -0.08753858 -0.0668775 -0.017466044 -0.03929034 -0.0487862
0.02204171 -0.05262089 -0.08141101 0.059111927 0.0499615 0.06878334 -0.0841464 -0.030224435
0.07605472 -0.020036317 0.07961812 -0.041480836 0.04066972 0.059592746 -0.030788535 -0.04824328
0.086237915 -0.053896558 -0.04219018 -0.084747285 -0.042971116 -0.047406804 -0.077592395 0.049286883
-0.061962992 -0.04370965 0.017138766 -0.039286774 0.018783836 0.07500987 -0.04789806 -0.010582503
-0.0164922 -0.067220524 -0.034921188 0.054623205 0.08585184 -0.013410363 -0.08246715 -0.07625968
00000000: 49e3 883c 308d 77bd a2b2 1ebb c9dc f6bc
00000010: 8cff 37bd 3946 98bc 0565 5ebd 2262 b33b
00000020: ba4f c93c 1535 5fbd fc73 993d 2714 8bbc
00000030: d554 37bd 7ee2 3bbb d46c 6d3d 4dc7 18bd
00000040: 03fb 1abd bfdb ba3b 6aea a93d 6d47 b3bd
00000050: 12f7 88bd f314 8fbc e8ee 20bd 0ad4 47bd
00000060: d190 b43c 0189 57bd d1ba a6bd 591f 723d
00000070: 6ea4 4c3d 48de 8c3d f354 acbd 3c99 f7bc
00000080: 94c2 9b3d 3423 a4bc d30e a33d cfe7 29bd
00000090: 4b95 263d 8617 743d 3d38 fcbc bf9a 45bd
000000a0: 819d b03d a3c2 5cbd 9ccf 2cbd fc8f adbd
000000b0: 7b02 30bd a32d 42bd c3e8 9ebd 0be1 493d
000000c0: e8cc 7dbd e408 33bd 9966 8c3c 2beb 20bd
000000d0: 8fe0 993c c69e 993d c230 44bd 3c62 2dbc
000000e0: a61a 87bc eaaa 89bd 8509 0fbd 95bc 5f3d
000000f0: 17d3 af3d 24b7 5bbc 8ae4 a8bd 092e 9cbd

conv_blocks.8.weight f4 [64]
1.0176376 0.9961057 0.9945727 1.0128964 1.0021406 0.9895363 1.0074315 1.0156262
0.9863375 1.0066727 0.9863969 0.99207777 0.99723476 1.0049498 0.9871179 1.0069488
1.0001763 0.9996843 1.0239297 0.97761494 1.0064344 0.9881717 0.9906925 0.9902531
1.002237 0.99784225 0.99644154 0.9990303 1.0312474 0.9966032 0.98433876 0.982258
0.9944094 1.0092505 1.0316563 0.99473715 0.9992255 0.9901569 1.0138026 0.98858035
1.0167724 1.0122598 0.99551016 0.9884284 1.0143695 0.99603415 0.9922631 1.0185398
1.0140842 0.9889798 1.0039409 1.0192933 0.99028707 1.0128859 0.99087584 0.9943149
0.97752744 0.9864037 1.0063049 0.97917455 0.98659533 1.0004972 0.99276376 1.0107849
00000000: f341 823f c800 7f3f 519c 7e3f 97a6 813f
00000010: 2546 803f 4052 7d3f 84f3 803f 0a00 823f
00000020: 9d80 7c3f a7da 803f 8284 7c3f cff8 7d3f
00000030: c74a 7f3f 32a2 803f c2b3 7c3f b3e3 803f
00000040: c705 803f 4feb 7f3f 2110 833f f944 7a3f
00000050: d8d2 803f d2f8 7c3f 069e 7d3f 3a81 7d3f
00000060: 4d49 803f 9772 7f3f cb16 7f3f 73c0 7f3f
00000070: eaff 833f 6321 7f3f a0fd 7b3f 4375 7b3f
00000080: 9d91 7e3f 1f2f 813f 500d 843f 18a7 7e3f
00000090: 3ecd 7f3f ec7a 7d3f 49c4 813f 9a13 7d3f
000000a0: 9925 823f bb91 813f c1d9 7e3f a509 7d3f
000000b0: dcd6 813f 18fc 7e3f f404 7e3f 835f 823f
000000c0: 83cd 813f c82d 7d3f 2381 803f 3478 823f
000000d0: 7483 7d3f 3fa6 813f 0aaa 7d3f 6c8b 7e3f
000000e0: 3d3f 7a3f f484 7c3f 99ce 803f 2fab 7a3f
000000f0: 8391 7c3f 4b10 803f c425 7e3f 6661 813f

conv_blocks.8.bias f4 [64]
0.02150371 0.0050752405 -0.031428907 -0.006426558 0.011519142 -0.0005066027 0.010539377 0.0063922126
-0.010437146 -0.028920148 -0.022412894 0.0057375454 -0.021823306 -0.0029159763 -0.01382221 0.016191155
0.015602752 0.02900934 -0.012293296 -0.0100581255 -0.010940087 0.01966878 -0.014362421 -0.011385576
0.01083076 -0.0028154596 6.250205e-05 0.035231236 -0.012626342 -0.025439525 -0.018556044 -0.026006341
0.01142801 -0.027072798 0.007576922 0.0016298896 0.0027319316 -0.008879635 -0.011103795 0.010351541
-0.020733047 0.017891169 -0.019872572 -0.004401178 -0.012506101 -0.039422635 0.011363274 0.029665248
-0.007062941 -0.040500652 0.010541956 0.0034713596 -0.014091292 -0.0056514377 -0.022102961 -0.014422762
-0.032369193 -0.011888581 0.016609803 -0.0242924 -0.020330656 0.001035114 -0.017359965 0.005971932
00000000: 8c28 b03c 344e a63b 99bb 00bd e095 d2bb
00000010: c9ba 3c3c 88cd 04ba 5aad 2c3c c475 d13b
00000020: 9000 2bbc f2e9 ecbc 3f9b b7bc 0502 bc3b
00000030: cac6 b2bc f719 3fbb 8d76 62bc 50a3 843c
00000040: afa2 7f3c ffa4 ed3c d269 49bc d6ca 24bc
00000050: 0d3e 33bc 6c20 a13c 5c50 6bbc 918a 3abc
00000060: 8073 313c 9383 38bb 8813 8338 a14e 103d
00000070: b7de 4ebc 8d66 d0bc d802 98bc 400b d5bc
00000080: 8c3c 3b3c c6c7 ddbc d447 f83b 05a2 d53a
00000090: 350a 333b e37b 11bc b1ec 35bc 8399 293c
000000a0: 5ad8 a9bc 8090 923c cecb a2bc c237 90bb
000000b0: 64e6 4cbc a179 21bd 072d 3a3c 8904 f33c
000000c0: 3e70 e7bb 03e4 25bd 2bb8 2c3c c07f 633b
000000d0: 2adf 66bc b22f b9bb 4511 b5bc 734d 6cbc
000000e0: 8f95 04bd 53c8 42bc 4811 883c db00 c7bc
000000f0: 7a8c a6bc aaac 873a 7c36 8ebc 32b0 c33b

conv_blocks.8.running_mean f4 [64]
0.20869139 0.033722308 -0.01918221 0.09793481 -0.09261026 -0.12771703 0.0728209 -0.13021837
-0.06866986 -0.2754807 -0.22639933 0.33960643 -0.010730499 -0.1621223 0.10596257 -0.035555657
0.22615649 0.05603633 0.0049470477 0.13963692 -0.35290766 0.023106351 -0.07396226 -0.15429987
0.034491077 -0.18412605 -0.114654556 0.29691836 -0.09558389 -0.1639975 -0.38406342 0.031904355
0.17750734 0.04954013 0.24006647 0.20281772 0.25352547 -0.05504687 -0.00016041892 0.04073258
-0.6555446 0.31623164 -0.12126308 -0.01339719 0.045315158 -0.12492118 -0.10851449 -0.14426199
-0.05648383 -0.15728746 0.18778548 -0.21773745 0.1357216 0.09838587 0.16400182 0.08195217
0.2534995 0.13749072 -0.22994293 0.10822549 0.08953965 0.16489518 -0.11620074 -0.2283637
00000000: 32b3 553e 6720 0a3d 0324 9dbc 0c92 c83d
00000010: 73aa bdbd 41c8 02be 2023 953d f757 05be
00000020: c9a2 8cbd ce0b 8dbe 3ad5 67be e5e0 ad3e
00000030: face 2fbc 6303 26be e702 d93d cfa2 11bd
00000040: 9195 673e 5a86 653d d81a a23b fbfc 0e3e
00000050: 50b0 b4be 8849 bd3c 8679 97bd c900 1ebe
00000060: 8446 0d3d 8a8b 3cbe 02d0 eabd af05 983e
00000070: 7dc1 c3bd f6ee 27be f6a3 c4be 24ae 023d
00000080: 7cc4 353e 97ea 4a3d fcd3 753e 73af 4f3e
00000090: 17ce 813e d478 61bd 2036 28b9 35d7 263d
000000a0: c5d1 27bf 1de9 a13e c758 f8bd e37f 5bbc
000000b0: 639c 393d add6 ffbd d83c debd 6ab9 13be
000000c0: 975b 67bd f70f 21be d64a 403e 91f6 5ebe
000000d0: 9afa 0a3e 887e c93d 18f0 273e 8ad6 a73d
000000e0: b0ca 813e 5eca 0c3e 2976 6bbe 53a5 dd3d
000000f0: 9060 b73d 48da 283e a7fa edbd 2cd8 69be

conv_blocks.8.running_var f4 [64]
0.23255406 0.2826972 0.24704604 0.3512413 0.24866708 0.23504068 0.22178948 0.30979443
0.28896585 0.21037166 0.1885388 0.28185758 0.18808529 0.3173747 0.2524176 0.21426168
0.21088894 0.30795094 0.21945812 0.23851357 0.21087678 0.22216636 0.2251503 0.272227
0.21507882 0.21569636 0.24271919 0.25838766 0.24923703 0.23068516 0.23554257 0.23705842
0.22324057 0.22531247 0.16801348 0.24554336 0.22444303 0.23055804 0.22046386 0.25125512
0.39822456 0.24523744 0.23298964 0.22241116 0.198694 0.24187674 0.19625583 0.16791955
0.19547924 0.18751165 0.16406657 0.29061136 0.18658058 0.22922052 0.23061888 0.1954396
0.22111985 0.24765275 0.22263177 0.20675813 0.18320844 0.20442261 0.21093799 0.32369238
00000000: a722 6e3e b0bd 903e a3f9 7c3e e6d5 b33e
00000010: 95a2 7e3e 81ae 703e c81c 633e 609d 9e3e
00000020: 55f3 933e ab6b 573e 5110 413e a34f 903e
00000030: 6e99 403e f07e a23e e13c 813e 6a67 5b3e
00000040: 45f3 573e bfab 9d3e a1b9 603e e73c 743e
00000050: 15f0 573e 947f 633e cd8d 663e 5661 8b3e
00000060: 9f3d 5c3e 82df 5c3e 618b 783e 634b 843e
00000070: fe37 7f3e bb38 6c3e 1232 713e 71bf 723e
00000080: 2d99 643e 50b8 663e ba0b 2c3e b86f 7b3e
00000090: 65d4 653e 6817 6c3e 47c1 613e 83a4 803e
000000a0: 17e4 cb3e 861f 7b3e d694 6e3e c0bf 633e
000000b0: 7176 4b3e 89ae 773e 4af7 483e 1af3 2b3e
000000c0: b62b 483e 0e03 403e 1101 283e 03cb 943e
000000d0: fb0e 3f3e c9b8 6a3e 5b27 6c3e 5221 483e
000000e0: 3e6d 623e af98 7d3e 95f9 633e 67b8 533e
000000f0: fe9a 3b3e 2954 513e 2100 583e 02bb a53e

conv_blocks.11.weight f4 [128, 64, 4]
-0.06174027 -0.007512091 -0.009475276 -0.023966681 -0.048125044 0.03225305 0.017412804 0.019404504
0.052176893 0.033229694 -0.02600258 0.052672453 0.029357323 -0.06221978 -0.03449203 -0.00858487
-0.05884214 0.029226037 0.00039679167 -0.043412916 0.042944662 0.028757008 0.038312577 -0.011164263
-0.016250085 -0.008476621 -0.07063483 -0.03359365 -0.0035366127 0.04048091 0.02331923 0.047555342
0.011832851 0.0065941946 0.0245766 0.037736297 -0.016596237 -0.027262913 -0.046658255 -0.064253375
-0.013792295 -0.035761073 0.07253841 0.054127026 -0.00028058712 0.0074886847 0.022107428 0.014012606
0.041226298 -0.04490647 0.0313513 -0.014733091 0.027187483 0.0045326394 -0.060126506 -0.035462808
-0.015526876 -0.028049638 -0.019876914 0.06188992 0.05224845 0.039471008 -0.044425312 -0.0726442
0.03784782 -0.04566844 0.03266773 0.01710942 0.0049144723 -0.027035227 -0.02692055 -0.009399988
-0.04128033 -0.014941569 -0.078544594 -0.03444434 0.02545006 -0.062727526 0.011952134 -0.044004526
-0.04191946 0.041035764 -0.010039429 -0.046798673 -0.019555876 -0.04526191 -0.0066189948 -0.031604756
-0.05416636 0.041863855 0.0033642487 0.019748466 0.053163297 -0.005729209 0.024260852 -0.011690057
0.03953858 0.0129702035 -0.012033276 -0.032977983 -0.030208128 -0.04587785 -0.0013967329 0.045019317
-0.02912449 0.03488736 -0.03337077 0.008721133 -0.05308849 0.03978917 0.025317278 -0.040167056
-0.012209322 0.052856617 -0.02731384 -0.044492647 -0.043796163 0.0071833264 -0.011079397 -0.0038160621
-0.028001994 0.037454884 -0.0002564614 -0.047227424 -0.02727131 -0.07666046 0.012098387 0.028791105
0.047181405 -0.031820364 -0.04241983 -0.055818092 0.038371764 -0.039448485 -0.022241458 -0.05912619
0.0061903475 -0.0520488 0.031743843 -0.03716683 -0.0326505 0.042768046 -0.05481034 -0.033780806
0.017572265 0.025244497 0.026687529 -0.035772763 -0.03724865 -0.026554825 -0.007628723 -0.031102683
0.036679525 0.0381796 0.033377312 0.019247904 -0.063477844 -0.06459081 -0.026837252 -0.039148536
0.04156654 0.02518637 0.00040602445 0.024456954 0.041099418 -0.042998634 0.00953314 0.04107277
-0.06534057 -0.03800943 0.013540777 -0.009445794 -0.024370931 -0.016656954 -0.05669492 -0.03352913
-0.010462486 0.034065686 -0.07506543 -0.05483006 -0.03880795 0.01975982 -0.031264227 0.021455172
0.040170245 -0.06564578 -0.029448666 -0.041910008 -0.019721117 -0.041815188 -0.033726085 0.0073478757
-0.001018796 0.0013704235 -0.047905777 0.033698507 -0.050543405 0.030593503 -0.029595226 -0.05041303
0.027789867 -0.04447199 0.006530318 -0.027698318 0.076572575 0.009626581 0.014854726 -0.037736256
0.041086767 -0.028914671 -0.016148033 0.00024973706 -0.038238134 -0.066638835 0.0064127753 0.02363812
0.02920428 0.031072903 -0.057906587 0.0114584835 0.0038813674 0.008213129 0.0006640011 0.00068695133
0.01836582 -0.035823636 0.01213197 0.022129834 0.04602035 -0.032996535 -0.04787612 0.04725597
0.003002226 -0.031189863 -0.03191876 0.05349109 0.0009989371 -0.05328469 0.0014974397 -0.0062140757
0.013027095 -0.023898395 0.04113337 -0.032667566 0.045057114 0.03795945 0.036257975 0.010046784
-0.043284815 -0.057823706 -0.035150994 0.041520353 0.033416025 0.041633822 0.019960348 -0.03172918
00000000: 5ee3 7cbd fd27 f6bb 303e 1bbc c655 c4bc
00000010: c41e 45bd c61b 043d 4ca5 8e3c 32f6 9e3c
00000020: 70b7 553d dc1b 083d 5d03 d5bc 12bf 573d
00000030: c57e f03c 2bda 7ebd 8447 0dbd 8ea7 0cbc
00000040: 7504 71bd 716b ef3c 7a08 d039 bed1 31bd
00000050: bee6 2f3d d193 eb3c a6ed 1c3d 50ea 36bc
00000060: e61e 85bc 86e1 0abc fea8 90bd 7f99 09bd
00000070: 84c6 67bb 50cf 253d f807 bf3c 64c9 423d
00000080: 93de 413c 1d14 d83b de54 c93c 6091 1a3d
00000090: d5f4 87bc 7956 dfbc ba1c 3fbd 4697 83bd
000000a0: 14f9 61bc 347a 12bd 058f 943d 4db4 5d3d
000000b0: c41b 93b9 a463 f53b a31a b53c 2195 653c
000000c0: e8dc 283d d9ef 37bd 396a 003d 1063 71bc
000000d0: 49b8 de3c 8986 943b 3647 76bd 7341 11bd
000000e0: 7064 7ebc 5bc8 e5bc e9d4 a2bc 4980 7d3d
000000f0: 7902 563d 5aac 213d 51f7 35bd 7bc6 94bd
00000100: 5106 1b3d d50e 3bbd 99ce 053d 0e29 8c3c
00000110: 9509 a13b fb78 ddbc 7c88 dcbc 6802 1abc
00000120: 9015 29bd 7ccd 74bc fddb a0bd 8215 0dbd
00000130: a57c d03c 4a77 80bd e2d2 433c 173e 34bd
00000140: bdb3 2bbd 1e15 283d 6b7c 24bc f7af 3fbd
00000150: a533 a0bc 8d64 39bd 27e4 d8bb fd73 01bd
00000160: 8cdd 5dbd 6f79 2b3d ba7a 5c3b 89c7 a13c
00000170: c2c1 593d 17bc bbbb b2be c63c a787 3fbc
00000180: 35f3 213d fa80 543c 3827 45bc ec13 07bd
00000190: 0977 f7bc 6aea 3bbd 9412 b7ba 2d66 383d
000001a0: 7c96 eebc 0ce6 0e3d caaf 08bd 15e3 0e3c
000001b0: 5173 59bd f8f9 223d 2e66 cf3c 3686 24bd
000001c0: 9c09 48bc 2e80 583d 46c1 dfbc ec3d 36bd
000001d0: 9b63 33bd 1c62 eb3b 5c86 35bc e616 7abb
000001e0: 7064 e5bc 4b6a 193d ab75 86b9 8b71 41bd
000001f0: 1568 dfbc 2900 9dbd 5038 463c 53db eb3c
00000200: 4a41 413d 1256 02bd 6ac0 2dbd 83a1 64bd
00000210: b62b 1d3d bc94 21bd b833 b6bc 4e2e 72bd
00000220: 66d8 ca3b 1f31 55bd d505 023d 3f3c 18bd
00000230: 88bc 05bd 8c2d 2f3d cf80 60bd be5d 0abd
00000240: b6f3 8f3c 8ccd ce3c ce9f da3c 7686 12bd
00000250: 0a92 18bd 8189 d9bc 5efa f9bb 0ecb febc
00000260: 453d 163d 3662 1c3d a6b6 083d c8ad 9d3c
00000270: ac00 82bd 3048 84bd ccd9 dbbc 375a 20bd
00000280: ad41 2a3d a553 ce3c aedf d439 f359 c83c
00000290: dd57 283d 561f 30bd e330 1c3c ec3b 283d
000002a0: 47d1 85bd c7af 1bbd 23da 5d3c 88c2 1abc
000002b0: 8ca5 c7bc 2a74 88bc ef38 68bd d755 09bd
000002c0: d96a 2bbc 7688 0b3d e7bb 99bd 7c95 60bd
000002d0: 16f5 1ebd 59df a13c eb0e 00bd c2c2 af3c
000002e0: 8e89 243d 4b71 86bd 543e f1bc d4a9 2bbd
000002f0: 2e8e a1bc 6746 2bbd 5d24 0abd 73c6 f03b
00000300: 1f89 85ba c89f b33a d938 44bd 7207 0a3d
00000310: 9a06 4fbd 3a9f fa3c b071 f2bc e57d 4ebd
00000320: 93a7 e33c 4328 36bd 47fc d53b 95e7 e2bc
00000330: 15d2 9c3d cfb8 1d3c 3d61 733c 5591 1abd
00000340: 994a 283d 76de ecbc e148 84bc 24ef 8239
00000350: 979f 1cbd f179 88bd 4222 d23b bba4 c13c
00000360: d03d ef3c 9a8c fe3c 752f 6dbd 5dbc 3b3c
00000370: 8a5e 7e3b 5c90 063c 5c10 2e3a 8614 343a
00000380: eb73 963c cebb 12bd 2cc5 463c a049 b53c
00000390: d67f 3c3d 6027 07bd c019 44bd 7a8f 413d
000003a0: fec0 443b e281 ffbc 3fbd 02bd 7919 5b3d
000003b0: c4ee 823a 0c41 5abd bd45 c43a 729f cbbb
000003c0: 996f 553c 91c6 c3bc 777b 283d 6dce 05bd
000003d0: cf8d 383d 5e7b 1b3d 3e83 143d 449b 243c
000003e0: 6b4b 31bd 8dd8 6cbd 7dfa 0fbd 3f11 2a3d
000003f0: 3edf 083d 3a88 2a3d e283 a33c 75f6 01bd

conv_blocks.11.bias f4 [128]
-0.01807575 0.043114528 -0.0010610701 -0.00059541437 -8.679619e-05 -0.03280549 0.014766727 -0.05941213
-0.007883041 -0.0032010388 0.012379172 -0.031146048 -0.06116625 0.059577197 -0.03684112 -0.03037679
0.03865854 -0.0070374236 -0.038617563 -0.042828288 -0.05673603 0.0033195147 0.0031783085 0.0507325
-0.060419332 0.026582237 0.0022938503 -0.052731555 0.0037878 -0.031761963 0.015929127 0.02712655
0.056695044 -0.019287305 0.05924693 0.015598946 0.018172245 -0.05760045 -0.05499203 -0.02268224
0.059129402 0.033529628 0.0550876 -0.0581668 0.004882571 -0.056545515 0.059940938 0.042672582
0.034304798 -0.031174758 -0.035031725 -0.037698347 0.053237524 -0.03506812 0.029935086 0.033163235
-0.01891683 0.055701092 -0.0499782 -0.03242277 0.019536166 0.012822064 -0.025751542 -0.02014304
0.00024312868 0.033330515 0.04904744 0.05901531 0.05356119 -0.015859736 0.023482872 -0.0036063443
-0.058648877 -0.046702467 -0.054698925 0.055233125 -0.0086044045 0.048818216 0.006834765 0.05597783
0.032280587 0.040758625 0.056929667 0.0071420954 -0.050238702 0.022917293 0.058655314 0.033103157
-0.0026948103 0.050447788 -0.06033367 0.019553725 0.061026677 -0.025760762 -0.023330517 0.02058398
0.035479527 -0.061991643 0.03826444 0.046946097 -0.030567251 0.03527626 -0.056868326 -0.011947218
-0.04984316 -0.026777145 0.029816028 0.04912303 0.043636464 0.032182578 -0.030902946 0.007921699
0.03892503 0.060478825 -0.034385256 -0.04620648 -0.033716377 0.032468356 -0.061020147 0.03636593
0.016428804 0.05767421 0.048144314 0.015613205 0.033835806 -0.014758874 -0.029555717 -0.02493677
00000000: 9813 94bc dc98 303d 9b13 8bba 9515 1cba
00000010: 5a06 b6b8 0d5f 06bd 24f0 713c 225a 73bd
00000020: df27 01bc 85c8 51bb 03d2 4a3c ff25 ffbc
00000030: 7689 7abd 3807 743d b7e6 16bd bfd8 f8bc
00000040: 6b58 1e3d 309a e6bb 732d 1ebd b76c 2fbd
00000050: 0a64 68bd 378c 593b 2b4b 503b e2cc 4f3d
00000060: 437a 77bd fec2 d93c 6c54 163b 0bfd 57bd
00000070: bd3c 783b d518 02bd cd7d 823c 8038 de3c
00000080: 1039 683d 6900 9ebc e9ac 723d b992 7f3c
00000090: f6dd 943c 73ee 6bbd 533f 61bd 1bd0 b9bc
000000a0: ac31 723d 5d56 093d 89a3 613d 4f40 6ebd
000000b0: f9fd 9f3b 459c 67bd a184 753d 72c9 2e3d
000000c0: 3083 0c3d 3562 ffbc 6d7d 0fbd 9569 1abd
000000d0: 970f 5a3d 97a3 0fbd 6d3a f53c 2cd6 073d
000000e0: 78f7 9abc d426 643d f1b5 4cbd bdcd 04bd
000000f0: 4f0a a03c a213 523c e6f4 d2bc 0403 a5bc
00000100: 5cf0 7e39 9485 083d f8e5 483d 0aba 713d
00000110: fa62 5b3d 47ec 81bc 275f c03c 6b58 6cbb
00000120: ce39 70bd 164b 3fbd fb0b 60bd 213c 623d
00000130: 7df9 0cbc 9cf5 473d 2af6 df3b 0249 653d
00000140: a638 043d 84f2 263d 152f 693d 3d08 ea3b
00000150: 19c7 4dbd 0cbd bb3c 8e40 703d 2d97 073d
00000160: 6a9b 30bb 57a2 4e3d 7020 77bd 222f a03c
00000170: 1cf7 793d 3c08 d3bc a41f bfbc bc9f a83c
00000180: fb52 113d f3ea 7dbd 2cbb 1c3d 8d4a 403d
00000190: 2c68 fabc d77d 103d c3ee 68bd 44be 43bc
000001a0: 5728 4cbd be5b dbbc be40 f43c 3b35 493d
000001b0: 26bc 323d e1d1 033d 2d28 fdbc 04ca 013c
000001c0: da6f 1f3d a5b8 773d 8ed7 0cbd 0243 3dbd
000001d0: 2f1a 0abd 8afd 043d 43f0 79bd 71f4 143d
000001e0: b395 863c cb3b 6c3d f932 453d 87ce 7f3c
000001f0: 6a97 0a3d 34cf 71bc d51e f2bc 3248 ccbc

conv_blocks.12.weight f4 [128]
1.0327905 1.0354794 1.0139592 1.0045801 1.0084076 1.0000174 1.0278841 0.99827373
1.0132589 1.0253019 1.0127258 1.0247692 1.0091964 1.0077136 1.0435896 1.0181167
1.0367966 0.99871165 1.0161942 1.0092293 1.0239285 1.0268545 1.0342412 1.0064222
1.0271595 1.0358328 1.006268 1.0252057 1.0031853 1.0611626 1.0064087 1.0402213
1.0383722 1.0383762 1.030841 1.0437258 1.049523 1.0028149 1.0227627 1.0666589
1.0255656 1.0656748 1.0287392 1.0254806 1.0231148 1.0402547 1.0351481 1.0389639
1.0242834 1.0248154 1.0169942 1.0288025 1.054785 1.0127909 1.0303562 1.0365112
1.0378447 1.0279664 1.0208782 1.0485775 1.013217 1.049771 0.9888727 1.0032508
1.0284073 0.991695 1.0249965 0.9920599 1.0200046 1.0249481 1.0556682 1.0031751
1.027825 1.0279695 1.0561216 1.0069026 1.0356104 1.0094993 1.033085 1.0664549
1.0637441 1.0008142 1.0267941 1.0633179 1.0220009 1.0245674 1.048851 1.0353628
1.0146515 0.9979965 1.0187526 1.0049092 1.0204446 1.0123789 1.0115737 1.0355428
1.0257621 1.0141857 1.0298113 1.0360918 1.0232921 1.0445448 1.007019 1.0350292
1.0315815 1.0411252 1.0188562 1.0287641 1.0167965 1.0519154 1.0431845 1.0124649
1.0107874 1.0325646 1.009219 1.0141082 1.0267535 1.0190837 1.0195488 1.0580004
1.0094488 1.0187136 1.0196695 1.0349325 1.0182111 1.0236669 1.0147965 1.0110122
00000000: 7b32 843f 978a 843f 6ac9 813f 1596 803f
00000010: 8013 813f 9200 803f b591 833f de8e 7f3f
00000020: 78b2 813f 183d 833f 00a1 813f a32b 833f
00000030: 592d 813f c2fc 803f 5894 853f a651 823f
00000040: c0b5 843f 91ab 7f3f a712 823f 6d2e 813f
00000050: 1710 833f f86f 833f 0462 843f 71d2 803f
00000060: f679 833f 2b96 843f 64cd 803f f139 833f
00000070: 6068 803f 2dd4 873f 00d2 803f f925 853f
00000080: 61e9 843f 83e9 843f 99f2 833f cf98 853f
00000090: c556 863f 3d5c 803f e3e9 823f 4788 883f
000000a0: bc45 833f 0868 883f baad 833f f342 833f
000000b0: 6df5 823f 1127 853f bc7f 843f c5fc 843f
000000c0: b81b 833f 272d 833f de2c 823f cdaf 833f
000000d0: 3203 873f 22a3 813f b6e2 833f 66ac 843f
000000e0: 18d8 843f 6794 833f 23ac 823f ca37 863f
000000f0: 18b1 813f e55e 863f c326 7d3f 866a 803f
00000100: daa2 833f b9df 7d3f 1633 833f a3f7 7d3f
00000110: 838f 823f 8031 833f 2320 873f 0b68 803f
00000120: c58f 833f 8194 833f fe2e 873f 2fe2 803f
00000130: e28e 843f 4637 813f 213c 843f 9881 883f
00000140: c428 883f ae1a 803f fd6d 833f cd1a 883f
00000150: edd0 823f 0625 833f c040 863f c586 843f
00000160: 1ae0 813f b37c 7f3f 7c66 823f dda0 803f
00000170: ee9d 823f a295 813f 3f7b 813f ab8c 843f
00000180: 2c4c 833f d6d0 813f dbd0 833f a89e 843f
00000190: 3cfb 823f a5b3 853f 00e6 803f d67b 843f
000001a0: dd0a 843f 9743 853f e169 823f 8bae 833f
000001b0: 6326 823f 2aa5 863f 1287 853f 7398 813f
000001c0: 7b61 813f 142b 843f 172e 813f 4cce 813f
000001d0: a96c 833f 5671 823f 9380 823f 8f6c 873f
000001e0: 9e35 813f 3565 823f 8884 823f ab78 843f
000001f0: be54 823f 8407 833f dae4 813f d968 813f

conv_blocks.12.bias f4 [128]
0.048104722 0.010672755 0.026720513 -0.013937226 -0.0071838563 -0.016365567 0.015835008 -0.0153742
0.041361675 0.03989996 0.0005501496 0.04597178 -0.022055326 -0.022388253 -0.006459175 -0.0056906487
0.025371658 0.00013900954 0.011709989 0.0029176981 -0.0044535175 0.008130997 0.009058208 0.017143026
-0.019314224 0.05505023 0.019146591 0.0140364 -0.0043155192 -0.02765696 0.006965424 -0.022129796
0.023936268 0.057087224 0.03569141 0.028510826 0.00808599 -0.0040199407 0.0112242205 0.006521727
-0.0033042862 -0.0008449027 0.0035843682 -0.029165106 0.0021560276 0.00888318 -0.012084858 -0.028432595
0.046297424 0.04650949 0.017466577 -0.031027673 0.017694041 -0.00065064523 -0.01127623 0.016143259
-0.0149448225 0.01125561 0.0021452617 -0.035920214 0.04223462 0.02419573 -0.02666446 -0.01652985
0.02826498 -0.020441607 -0.031171106 -0.011656047 -0.007227782 -0.007957936 0.016178153 -0.033098683
-0.012267518 0.028527375 0.058800887 -0.024548972 0.0132768825 0.014615073 -0.048114274 -0.022019224
-0.0321967 0.0033576975 0.0018787707 -0.0076623545 0.021071432 -0.017831577 -0.009723887 0.03271882
0.051028244 0.007826283 0.023389313 0.0049812654 0.027100373 0.011288226 -0.006663084 -0.0175442
0.01142974 -0.005688758 0.04610033 -0.0038222093 -0.0052362015 -0.010693962 -0.02688476 0.024990859
-0.006331487 0.010846058 0.019744873 0.006651515 0.04336392 -0.008730175 -0.004194641 0.03064252
-0.029750686 -0.03895793 -0.02199773 -0.017942969 0.05686856 -0.018085182 -0.017683513 -0.02009428
0.012636755 -0.0056983703 -0.046173006 -0.034728024 0.01427214 -0.00710451 -0.028756736 0.0065214904
00000000: 7509 453d c7dc 2e3c fae4 da3c f658 64bc
00000010: 8e66 ebbb 1511 86bc 6bb8 813c 12e4 7bbc
00000020: dc6a 293d 246e 233d ea37 103a e84c 3c3d
00000030: 5fad b4bc 9267 b7bc 7da7 d3bb 9f78 babb
00000040: 39d8 cf3c 17c3 1139 41db 3f3c da36 3f3b
00000050: d0ee 91bb e037 053c e168 143c 886f 8c3c
00000060: dd38 9ebc 5a7c 613d 50d9 9c3c eef8 653c
00000070: 3369 8dbb d990 e2bc 363e e43b 8c49 b5bc
00000080: fe15 c43c 4bd4 693d 2831 123d 898f e93c
00000090: 1a7b 043c b5b9 83bb cbe5 373c 36b4 d53b
000000a0: b98c 58bb 767c 5dba b8e7 6a3b a9eb eebc
000000b0: 244c 0d3b c28a 113c 91ff 45bc 79eb e8bc
000000c0: 5ea2 3d3d bc80 3e3d 1116 8f3c bf2d febc
000000d0: 18f3 903c 1090 2aba f0bf 38bc de3e 843c
000000e0: 21db 74bc 7369 383c 8597 0c3b 1321 13bd
000000f0: 35fe 2c3d 2036 c63c 6d6f dabc 9c69 87bc
00000100: f68b e73c 2875 a7bc 8c5a ffbc 01f9 3ebc
00000110: 08d7 ecbb 0162 02bc 0c88 843c 7c92 07bd
00000120: b3fd 48bc 3eb2 e93c 33d9 703d ed1a c9bc
00000130: 4887 593c 0f74 6f3c 7913 45bd a961 b4bc
00000140: b0e0 03bd d10c 5c3b 1541 f63a 7d14 fbbb
00000150: ff9d ac3c 8713 92bc f050 1fbc 2b04 063d
00000160: fe02 513d cf39 003c f29a bf3c e239 a33b
00000170: 9a01 de3c 40f2 383c 0056 dabb dbb8 8fbc
00000180: ce43 3b3c c368 babb b3d3 3c3d 087e 7abb
00000190: 7194 abbb ba35 2fbc 6e3d dcbc a1b9 cc3c
000001a0: 5d78 cfbb aab3 313c 00c0 a13c f4f4 d93b
000001b0: 5e9e 313d 0209 0fbc 3373 89bb 0606 fb3c
000001c0: b6b7 f3bc 5a92 1fbd 9534 b4bc 22fd 92bc
000001d0: 02ef 683d 6027 94bc 04dd 90bc c29c a4bc
000001e0: 640a 4f3c 65b9 babb e81f 3dbd f93e 0ebd
000001f0: b2d5 693c f3cc e8bb 3f93 ebbc 3ab2 d53b

conv_blocks.12.running_mean f4 [128]
-0.5247127 0.17517859 -0.3522709 -0.0055864765 0.10115427 0.06529005 -0.06129934 -0.2287089
-0.5732153 -0.33375552 -0.28015012 -0.35871965 -0.14556618 0.16485094 0.090042576 0.14532402
0.07684414 0.052356016 0.057079915 -0.10781076 -0.070413485 0.12327339 0.2170199 -0.61357903
-0.21678047 -0.43783787 -0.24798149 0.04541859 -0.09192456 -0.15940842 0.034179106 0.31479996
-0.052610375 -0.2785683 -0.39370912 0.11879423 -0.47782904 -0.2053011 0.1355976 -0.06956154
0.19406198 0.041144624 0.01568348 0.036757853 0.08395804 -0.20608252 0.04233018 -0.019889278
-0.27682322 -0.3810147 0.08450684 0.15201336 0.26606137 -0.012183942 0.15661557 0.04889579
0.0030635525 0.028012471 -0.03963773 0.16710505 -0.30659857 -0.027609298 0.021748163 0.23245278
-0.017095039 0.32912776 -0.055501334 -0.08434324 0.1356837 0.33196536 -0.010470048 0.11762075
0.020086106 0.056152053 -0.8640918 0.00285361 0.082799375 0.34584624 0.034386907 -0.031858597
-0.05311538 0.15242508 -0.04631084 0.038194522 -0.17498922 0.2950169 0.17127958 0.26104465
-0.35070485 0.24694839 0.03970438 0.09516927 0.17672695 0.17101431 -0.059350234 0.13918857
0.2611627 -0.37650165 -0.1930719 0.11122469 0.016819933 0.20257676 0.17923677 -0.37510976
0.13943695 0.040336404 0.111431986 0.13663201 -0.04340724 0.12385152 0.032515284 -0.3323096
-0.042704895 -0.21148124 0.020958398 0.118857116 -0.38256377 0.1786693 -0.4178304 0.033535417
0.011558956 0.008927045 0.09081335 -0.07559559 0.12950197 0.06828644 0.09880497 0.02416212
00000000: 9253 06bf 0462 333e da5c b4be c30e b7bb
00000010: f829 cf3d cab6 853d 0415 7bbd aa32 6abe
00000020: 3dbe 12bf 01e2 aabe d66f 8fbe 1aaa b7be
00000030: 4d0f 15be afce 283e 3e68 b83d d2cf 143e
00000040: 7660 9d3d 4373 563d a1cc 693d e3cb dcbd
00000050: f234 90bd c276 fc3d 773a 5e3e 8413 1dbf
00000060: b3fb 5dbe 492c e0be dcee 7dbe d808 3a3d
00000070: f242 bcbd f63b 23be 64ff 0b3d 762d a13e
00000080: fa7d 57bd 81a0 8ebe 3e94 c9be 644a f33d
00000090: 02a6 f4be 743a 52be 19da 0a3e 4876 8ebd
000000a0: 2fb8 463e 4487 283d a47a 803c 678f 163d
000000b0: 31f2 ab3d 4c07 53be 6962 2d3d d7ee a2bc
000000c0: c6bb 8dbe 5c14 c3be ec11 ad3d 64a9 1b3e
000000d0: 3239 883e 289f 47bc d55f 203e f446 483d
000000e0: e2c5 483b 697a e53c 2c5b 22bd 961d 2b3e
000000f0: 7dfa 9cbe e52c e2bc 3429 b23c 1a08 6e3e
00000100: e50a 8cbc 6f83 a83e 5e55 63bd 26bc acbd
00000110: abf0 0a3e 5df7 a93e 908a 2bbc 26e3 f03d
00000120: 9e8b a43c b2ff 653d 1f35 5dbf a203 3b3b
00000130: b892 a93d c212 b13e 49d9 0c3d 297e 02bd
00000140: 838f 59bd 5215 1c3e 6fb0 3dbd dc71 1c3d
00000150: 6030 33be 750c 973e ea63 2f3e a5a7 853e
00000160: 968f b3be 0ae0 7c3e 0fa1 223d 1be8 c23d
00000170: e9f7 343e 601e 2f3e 3b19 73bd 7387 0e3e
00000180: 1eb7 853e d3c4 c0be a4b4 45be c5c9 e33d
00000190: f5c9 893c 4870 4f3e d889 373e 630e c0be
000001a0: 8fc8 0e3e c937 253d 7436 e43d 43e9 0b3e
000001b0: cacb 31bd dea5 fd3d bf2e 053d 7c24 aabe
000001c0: 54eb 2ebd 8a8e 58be f2b0 ab3c 5c6b f33d
000001d0: 66df c3be 16f5 363e deed d5be 6f5c 093d
000001e0: c661 3d3c be42 123c 5afc b93d dcd1 9abd
000001f0: 2a9c 043e c3d9 8b3d 435a ca3d a3ef c53c

conv_blocks.12.running_var f4 [128]
0.23778056 0.318946 0.26440275 0.20652184 0.23350883 0.30922487 0.31036165 0.26250434
0.29736722 0.24274439 0.3404177 0.2705779 0.2932329 0.25324565 0.26106894 0.2561841
0.21823107 0.24315538 0.25264007 0.20969269 0.2639002 0.2304769 0.26307306 0.31839582
0.29092756 0.328569 0.3458673 0.2160676 0.22335495 0.3720982 0.29635566 0.31981716
0.22300436 0.28089258 0.2632421 0.26624718 0.40614185 0.2202635 0.2348773 0.26433638
0.35256946 0.35633296 0.23342144 0.2751866 0.24013306 0.31342968 0.33246565 0.33407736
0.24894921 0.25607592 0.19064143 0.30536556 0.2558128 0.2363542 0.24078794 0.2694438
0.25512266 0.21693647 0.27511406 0.3295502 0.2652039 0.2424236 0.27531558 0.22791499
0.24247164 0.20584278 0.32708725 0.21675584 0.26146933 0.27248916 0.25641355 0.2055824
0.33429778 0.22385782 0.40503126 0.24852765 0.26410043 0.19449435 0.34149432 0.41379344
0.41955706 0.23809466 0.21116492 0.37631714 0.28759068 0.21519189 0.31103006 0.2363412
0.31416476 0.22994289 0.21357498 0.25672972 0.31384102 0.24741876 0.2383993 0.3089202
0.18760487 0.2882728 0.26921517 0.24918531 0.21702172 0.24069503 0.25908196 0.255312
0.27886868 0.3486528 0.22113255 0.22897705 0.22155346 0.25442913 0.28166616 0.29137623
0.28558028 0.35178393 0.26339874 0.28210747 0.29378992 0.31528226 0.36854 0.37255824
0.21872051 0.27871907 0.28097066 0.3444418 0.2582127 0.2748063 0.27216318 0.22769846
00000000: bf7c 733e e44c a33e cc5f 873e 767a 533e
00000010: f01c 6f3e b952 9e3e b9e7 9e3e f866 863e
00000020: 8440 983e fc91 783e 3b4b ae3e 3089 8a3e
00000030: 9f22 963e 6aa9 813e d4aa 853e 902a 833e
00000040: f777 5f3e b9fd 783e 0a5a 813e aeb9 563e
00000050: ed1d 873e 2302 6c3e 83b1 863e c704 a33e
00000060: 75f4 943e 323a a83e 8515 b13e d340 5d3e
00000070: 29b7 643e a883 be3e eebb 973e 13bf a33e
00000080: 415b 643e 27d1 8f3e abc7 863e 8d51 883e
00000090: d3f1 cf3e c18c 613e ad83 703e 1957 873e
000000a0: fc83 b43e 4671 b63e 0806 6f3e 42e5 8c3e
000000b0: 71e5 753e db79 a03e f038 aa3e 300c ab3e
000000c0: 8bec 7e3e 621c 833e 8237 433e e058 9c3e
000000d0: e5f9 823e d606 723e 1d91 763e 8af4 893e
000000e0: 709f 823e 9824 5e3e c0db 8c3e ceba a83e
000000f0: cec8 873e e43d 783e 2af6 8c3e 8c62 693e
00000100: 7c4a 783e 73c8 523e fb77 a73e 3ef5 5d3e
00000110: 4fdf 853e b383 8b3e a348 833e 3184 523e
00000120: 1429 ab3e fc3a 653e 4260 cf3e 087e 7e3e
00000130: 2c38 873e 8729 473e 58d8 ae3e bcdc d33e
00000140: 2fd0 d63e 16cf 733e 9e3b 583e a4ac c03e
00000150: 163f 933e 435b 5c3e 553f 9f3e 6d03 723e
00000160: 34da a03e 2676 6b3e 66b3 5a3e 1472 833e
00000170: c5af a03e 585b 7d3e f21e 743e ca2a 9e3e
00000180: 7e1b 403e 7e98 933e 92d6 893e 6f2a 7f3e
00000190: f13a 5e3e c278 763e 64a6 843e 41b8 823e
000001a0: e0c7 8e3e 9f82 b23e 9270 623e f678 6a3e
000001b0: e9de 623e 8944 823e 8c36 903e 442f 953e
000001c0: 9437 923e 061d b43e 33dc 863e 6470 903e
000001d0: a26b 963e ad6c a13e 46b1 bc3e f4bf be3e
000001e0: 45f8 5f3e 44b4 8e3e 63db 8f3e ad5a b03e
000001f0: 7434 843e 69b3 8c3e f958 8b3e c929 693e
