data/gan_output/discriminator_epoch_40.pth (torch, 191742 bytes, 21 tensors)

conv_blocks.0.weight f4 [16, 1, 4]
00000000: 56f5 6a3d 2480 bc3d abfd 41bd 3a58 d43e
00000010: 9fba efba 2dde 593d 54a8 c6be b731 583d
00000020: 811e 103e 7c7b d3be 5adf d83d 34e2 f7bc
00000030: 23c8 e0be dab4 943e 165e be3e 746b e3be
00000040: d41c cebe ab9a ab3d 9927 b5bd 6784 8e3e
00000050: f60c c1be 3330 8b3e cbb1 fbbd 1a8b b93e
00000060: 3609 a53e bac8 febe 0c37 c63e ec77 6b3e
00000070: 9fd6 10bc eb4c 5ebe 06e9 9f3e 9a16 f7be
00000080: 9112 7cbe 0869 b0be 9fff f33d eb2b 783e
00000090: 8af7 cc3d d646 333e dfaf e83e 0125 ec3d
000000a0: 8247 6d3e a83b a5be 448d f3be 3b5b a2be
000000b0: ba05 4cbe b345 7b3d 3db7 93be 12a0 ddbd
000000c0: 8a1b 20be aaeb 613e 63fa d2be 511c fdbe
000000d0: 80a7 b83b b24d edbd a880 abbe e97d dbbe
000000e0: 7125 15be f303 44be 1714 e03c 64e3 31be
000000f0: 4cb2 713e 86c2 553e a784 a0be 984d bbbe
0.057362877 0.092041284 -0.047361057 0.41473562 -0.001828987 0.0531904 -0.388003 0.052781787
0.14074136 -0.4130515 0.10589476 -0.03025923 -0.43902692 0.2904423 0.37181157 -0.44417918
-0.4025637 0.0837911 -0.08845443 0.2783539 -0.377052 0.2718521 -0.12289771 0.3623894
0.3223359 -0.49762517 0.38713872 0.22994965 -0.008840232 -0.2170903 0.3123247 -0.4825943
-0.24616458 -0.34455132 0.1191399 0.24235503 0.10008152 0.1750749 0.4544668 0.115304954
0.2317181 -0.32272077 -0.47568715 -0.31710228 -0.1992406 0.061345767 -0.28850737 -0.108215466
-0.15635505 0.22062555 -0.41206655 -0.49435666 0.005635202 -0.11587085 -0.33496594 -0.428695
-0.14565064 -0.19142132 0.02735333 -0.17371899 0.23603171 0.20874986 -0.31351206 -0.36582637

conv_blocks.0.bias f4 [16]
00000000: 3791 ffbe ab5f 06be 3bcb 75be 3dc9 763e
00000010: 1914 163e d5c3 433d ccc6 a9be e4c5 ea3e
00000020: c06b 723e 5ae5 aa3d 5ff1 1ebe c778 f5be
00000030: 3e11 6abd 99e1 c03d 35b9 ad3e 9e39 7ebe
-0.49915478 -0.13122432 -0.24003308 0.24100204 0.14656104 0.04779418 -0.33159482 0.45854104
0.23673916 0.083445266 -0.15521763 -0.47943708 -0.05714535 0.09418029 0.33930364 -0.24826667

conv_blocks.3.weight f4 [32, 16, 4]
00000000: 6c22 6fbd 914f cf3d ba0d b03d 5de2 c0bd
00000010: 1b06 e2bd da63 323d 96ae bcbd 8bc2 433d
00000020: c9b1 203d 817f 6a3d 62ce 6f3c d91a c5bc
00000030: 67c7 25bd f85e fdbd 913f f73d 53d0 c5bd
00000040: 0777 60bd b057 6c3d a00b f5bd fab7 8f3d
00000050: 9882 94bd dcc0 ae3c 25f0 f13d af19 32bd
00000060: 8773 713b 0fcb 8a3d df70 b3bc 9d9b 313d
00000070: 058b ac3d ff69 f5bd 52e4 bcbd 6455 903d
00000080: af9b 39bd 26b4 5cbb f56e 3f3d e07d cdbd
00000090: 3eea 60bd e6df 4f3b 4dba 663b 5fc2 53bc
000000a0: 40be 70bd 27ad 1abd b9dd 023d 5fc5 5c3d
000000b0: 3313 7dbd 9a8c e6bc b89a 29bd 7ef0 2a3d
000000c0: a573 ac3d 63b4 f73c 78d4 cd3d bba8 383d
000000d0: d97c c0bd d1dc 3ebd 2c16 aa3b 37c0 20bc
000000e0: 5327 f8bd d7f4 a4bd 5888 ebbd 1743 4b3d
000000f0: a154 90bd f4c6 7e3d 344a 7abd bb85 6cbc
00000100: 27da 9bbd e492 e53d 00bb c739 5a2f af3d
00000110: 00d2 d3bd d0c1 8bbd 7492 b4bb ee57 d73c
00000120: 91f3 93bd 8323 c8bd 3964 e13d f486 84bd
00000130: 53f7 8cbd d9fd 673d db8b 82bd 8acb e23d
00000140: 5685 683c 18ba e93d 85fe 9f3c 6bcc 7bbd
00000150: 6de8 66bd 3b68 453d 99ba 573d 3cab 8b3d
00000160: 1f8e 68bc 4a2b aabd fa7a f4bb 7aaa b2bc
00000170: 22a1 c2bb 7269 4a3c 425d 44bc d3e6 763d
00000180: 19f8 13bd 588a da3d 7989 ee3c 6d30 5fbd
00000190: d4ea 87bd a633 0e3d c9b5 c83d af38 e8bd
000001a0: 7f54 c2bc d8c6 cebd f93b 73bd 6ff5 f4bd
000001b0: aa7d a4bc 2f6f 603d a7fd c33d 37e5 53bd
000001c0: 021c ec3d 2e88 56bd d3e2 c73d 486c 793d
000001d0: f1d4 193c 3e35 00be db26 1e3d 1c84 8bbd
000001e0: c2c5 833d edd4 fcbd 6a90 403d 6586 8ebd
000001f0: 2066 ce3d 4c12 d23c 6167 4dbd c157 f43c
00000200: 98af af3d b9c2 883c c867 213d b265 e43b
00000210: 3ac0 19bb 42f6 053a fce2 963d 0e96 babc
00000220: 8679 33bd 9ba8 633d ada6 4abc 8f6b ccbd
00000230: fcd5 87bd 7414 903d 9e20 e73b c8e6 f43d
00000240: 71f1 a5bd 303b c0bd bb2d e8bd 7ce7 f7bd
00000250: f7f4 463b f90e a6bb 828c ec3d 9328 063c
00000260: 99f9 8ebd b676 e3bd 295f d93d 944b b93d
00000270: f66d 9dbd d3b6 99bd 6e96 b03d 7df4 673d
00000280: bfdc bb3d 995f fabd 3ee2 cb3d fb7f 81bd
00000290: b957 a63d ef58 d13d 0218 2c3d 55b9 f13c
000002a0: 2fc5 cc3d 4e4c 843d 3929 203d 6f1e d6bc
000002b0: b43d 9dbd aa1c a3bd dd5b a83c 2465 403c
000002c0: ef44 f8bd 3cce cebd d6d5 a63c 0252 2bbb
000002d0: 4364 863d 5925 7a3d b638 ccbd 4592 a03d
000002e0: 9134 d7bb a392 de3c a2fd 143d 4e4f 50bd
000002f0: 7912 f23d 7786 6ebd b4ee 8c3d 304b a1bd
00000300: 6a34 5fbd 0dde cb3d b6e9 c9bd 7c2c c93d
00000310: 69fa a4bd f06f 073b 8066 5e3d e7e3 16bd
00000320: 5fc2 a0bd 8327 96bd 868a 843c 9ef7 ce3c
00000330: 363c b03d 1b6b 57bd 727b 92bd f7c3 813d
00000340: 7212 403c 59c3 193c 72a6 af3d 10f0 883c
00000350: 8cd0 9cbd beb9 003e ce81 c1bc 49f4 163c
00000360: 2937 de3d 5d2d b3bd 92d6 a8bd 8b1f f3bd
00000370: 83fb f73d 344e 913d e8d4 c13d 2cb5 a33d
00000380: 798d a1bd a0ff 5cbc 1794 a93c 9c06 433d
00000390: 7f94 50bc 4fb9 4fbd 8b65 de3d 8197 99bd
000003a0: c12d a6bd ffd5 e7bd fc76 b13d 73f5 3dbd
000003b0: f9f3 d33d 2355 ef3d e7cd f53d 9c9a b9bd
000003c0: f5db b6bd b614 b9bc 09aa 89bc af5f b9bd
000003d0: 51b8 bf3d 021e bbbd 9993 88bd daf0 cabc
000003e0: d78e efbd a90c 65bc 6fc6 e43c 22b5 6dbc
000003f0: f282 cbbd dfd9 873d 2cbd c9bd 9ea3 e63c
-0.058382437 0.10122598 0.08596368 -0.09418175 -0.11036321 0.043552257 -0.09212987 0.047792953
0.03923205 0.057250503 0.014636608 -0.024060654 -0.040473368 -0.123716295 0.12072671 -0.09658875
-0.054801013 0.057700813 -0.11965108 0.070175126 -0.07251471 0.021332197 0.11813382 -0.043481525
0.0036842541 0.067770116 -0.021904407 0.043361295 0.08424953 -0.11983108 -0.09223236 0.07047537
-0.045314487 -0.0033676713 0.046736676 -0.100337744 -0.05491089 0.0031719147 0.0035206259 -0.01292476
-0.058775187 -0.037762787 0.031949732 0.053899165 -0.061785888 -0.028143216 -0.041407317 0.041733257
0.08420495 0.030237382 0.10050291 0.04508279 -0.09398813 -0.046597306 0.0051906314 -0.009811453
-0.121168755 -0.08054512 -0.11500615 0.04962453 -0.07047392 0.062201455 -0.061105922 -0.014436181
-0.07609969 0.11209658 0.00038095564 0.085539535 -0.10342789 -0.06824076 -0.0055106226 0.026287045
-0.07224191 -0.09772398 0.11005444 -0.06471053 -0.06883111 0.056638572 -0.063743316 0.11073978
0.014191946 0.11412448 0.019530544 -0.061474245 -0.056374002 0.048195105 0.052668188 0.0681977
-0.014194041 -0.08309038 -0.007460949 -0.021809805 -0.0059396187 0.012354242 -0.011985125 0.060278725
-0.036125276 0.10670918 0.029118286 -0.05448954 -0.06636587 0.034717225 0.09800298 -0.113389365
-0.023721932 -0.1009652 -0.059383366 -0.11960875 -0.020079453 0.054793533 0.09569865 -0.05173227
0.115287796 -0.052375965 0.0976006 0.06089428 0.009389148 -0.1252031 0.038611274 -0.06812307
0.06434204 -0.123453 0.047012724 -0.069592275 0.100780725 0.02564349 -0.050147418 0.029827
0.08578414 0.016694413 0.039405614 0.006970131 -0.0023460523 0.00051102426 0.073675126 -0.02277663
-0.043817066 0.055580717 -0.01236884 -0.09981453 -0.06632611 0.07035151 0.007053449 0.119580805
-0.08102692 -0.09386289 -0.113368474 -0.12104699 0.0030358413 -0.005067703 0.11550237 0.008188385
-0.06981201 -0.11106627 0.106138535 0.090476185 -0.07686989 -0.07505574 0.08622442 0.056629647
0.09172963 -0.12225265 0.09955262 -0.063232385 0.081222005 0.10222041 0.042015083 0.029507319
0.09998547 0.064598665 0.039101813 -0.026137559 -0.076777846 -0.079644516 0.020551616 0.011742864
-0.12122523 -0.1009793 0.020365637 -0.002614141 0.06562092 0.061070774 -0.09971754 0.07840399
-0.0065675457 0.027169531 0.036374696 -0.05085688 0.1181993 -0.058233704 0.068814665 -0.07875669
-0.054493345 0.09954462 -0.0985903 0.09822938 -0.080555744 0.0020666085 0.05429697 -0.03683844
-0.07849573 -0.07331755 0.016179334 0.025264557 0.08605234 -0.052592378 -0.071524516 0.063362055
0.011723148 0.009384953 0.08576669 0.016716033 -0.07656965 0.12570855 -0.023621466 0.009213516
0.10850365 -0.08748887 -0.08244051 -0.11871251 0.12108519 0.07094994 0.09464437 0.0799354
-0.07888312 -0.01348868 0.020700498 0.047613725 -0.012730717 -0.050713833 0.108592115 -0.074996
-0.081141956 -0.113201134 0.086652726 -0.046376657 0.103492685 0.116861604 0.120021634 -0.090626925
-0.08928672 -0.022592884 -0.016804712 -0.09051453 0.093613274 -0.09136583 -0.06668777 -0.02477305
-0.116971664 -0.013980069 0.027926652 -0.014508517 -0.09937085 0.066333525 -0.09850535 0.02815419

conv_blocks.3.bias f4 [32]
00000000: fb78 5cbd d7c8 1cbd 6a94 0f3d f9cf 8ebc
00000010: 50ae bbbd 56f0 c1bc 9fe9 a93c 49d6 18bc
00000020: b821 853c 9849 dd3d 8eca 7b3b e767 6cbb
00000030: b588 1c3c ae9f 1a3d fa0d 5a3d c1eb 3e3d
00000040: 8e5d a2bd 5b33 a73d 0415 76bd 338a 243d
00000050: ac85 453d 5508 d53c 93d1 503d c608 2e3d
00000060: fe8e f0bd 1de1 9a3d 07b3 b13b 6eaa e13d
00000070: c792 65bd 62df 77bb c2d6 543d 040f 73bd
-0.053826313 -0.038277473 0.035053648 -0.017433153 -0.09164107 -0.023674171 0.020741282 -0.009328433
0.01625143 0.108050525 0.0038420293 -0.0036072673 0.009554078 0.03774994 0.053235985 0.04661155
-0.079280004 0.08164092 -0.060078636 0.04017086 0.048223183 0.02600495 0.050981116 0.042488836
-0.117460236 0.07562468 0.005422953 0.11018835 -0.05604818 -0.0037822356 0.05196262 -0.059340492

conv_blocks.4.weight f4 [32]
00000000: c79a 7f3f fe24 803f b928 803f cbee 7f3f
00000010: 1dc2 7f3f 2b52 803f 331f 803f bd3c 803f
00000020: fa62 7f3f 6202 803f 5f30 803f d854 7f3f
00000030: ff20 803f 8000 803f c484 7f3f fde4 7f3f
00000040: 6d2e 803f 9a22 803f 7a19 803f 4c16 803f
00000050: e077 7f3f 679c 7f3f a914 803f 57cd 7f3f
00000060: bb71 7f3f 71bd 7f3f 42d1 7f3f c006 803f
00000070: 5b06 803f c0b2 7f3f 7dc6 7f3f 8960 803f
0.99845546 1.0011289 1.0012428 0.99973744 0.9990557 1.0025076 1.0009521 1.0018536
0.997604 1.0000727 1.0014762 0.99738836 1.001007 1.0000153 0.9981196 0.99958783
1.0014168 1.001056 1.0007775 1.0006804 0.9979229 0.99848026 1.0006305 0.999227
0.99782914 0.9989844 0.9992868 1.000206 1.000194 0.99882126 0.99912244 1.002946

conv_blocks.4.bias f4 [32]
00000000: 78fa 7aba 7ebe b339 cf49 32ba 8b10 9839
00000010: 6f2c 45ba 56a5 ed3a a6d6 c43a a602 7b3a
00000020: f83c 2fba e16b 1f39 17dd 5e3a c91b 80ba
00000030: ec4a 43ba 53ee 6dba 1ad6 b0ba 6edb 413a
00000040: e251 9939 1682 7f3a b883 2d39 1584 c5b9
00000050: 9a82 81ba 96d2 bcba 61f8 013a 5bb6 ff38
00000060: 2808 08bb d149 a5ba a0cc 94ba 2f01 4fb9
00000070: eb6d f039 dc6d 34ba f5e9 deb9 b7c3 1d3b
-0.0009574066 0.00034283468 -0.00068011595 0.00029004025 -0.0007521575 0.0018130939 0.0015017584 0.0009575285
-0.0006684805 0.0001520361 0.0008501573 -0.0009773906 -0.0007449824 -0.00090763456 -0.0013491542 0.00073950633
0.00029243442 0.00097468623 0.00016547635 -0.00037673177 -0.0009880841 -0.0014406021 0.0004957971 0.00012193314
-0.0020756815 -0.00126105 -0.0011352487 -0.000197415 0.00045858262 -0.00068828254 -0.0004251745 0.0024072954

conv_blocks.4.running_mean f4 [32]
00000000: d1f0 86be 22d3 06bd 51cd 323d 9363 c13d
00000010: 893f 103e 63c3 82bc e4fb 2fbe 7209 4c3c
00000020: 54ac 323e 3919 823e 07fd 0cbe f3c4 133e
00000030: ed30 b13d 4ba3 e4bd ccf8 c4bd 7ef3 37be
00000040: 987c f53d d094 d73d e065 0e3a d6c5 843d
00000050: dcea 333e 71ab 1ebe 9d12 82bd f7cc 043e
00000060: cb3d 48be 8a4a a63d 9f7f 4f3e 0788 5fbd
00000070: d037 963d 6670 473e d2e2 e73b 0ba6 15bc
-0.26355603 -0.032916196 0.043652836 0.094428204 0.14086737 -0.015962308 -0.17185932 0.012453424
0.1744855 0.25409868 -0.13768397 0.14430599 0.0865191 -0.11163958 -0.09617767 -0.17963979
0.11986655 0.105264306 0.00054320507 0.06483047 0.1757006 -0.15495087 -0.063512065 0.12968813
-0.19554822 0.08119686 0.20263527 -0.054573085 0.07334864 0.1947647 0.0070765996 -0.009133826

conv_blocks.4.running_var f4 [32]
00000000: 6863 e33c fcb8 ba3c 38ff d63c 49b1 cc3c
00000010: 9d79 9c3c 1bf2 3c3d 6ecb 843d 4564 ce3c
00000020: b655 c43c d405 8c3d 1884 393d b7c2 a83c
00000030: 52e9 9a3c 729d 7f3d 5d33 8f3c 9645 8c3c
00000040: f484 ab3c 196a 963c 81d1 e23c b6e4 9e3c
00000050: 10cc ab3c fdfe 5a3d 5fce 023d c3eb a93c
00000060: 7158 973c ba89 893c 1cb0 da3c f99b 903d
00000070: 0719 fd3c a470 b93c 62ca 043d 6383 a43c
0.027757362 0.022793286 0.026244745 0.02498688 0.019100958 0.046129327 0.06484114 0.025194297
0.023966651 0.06837049 0.04529199 0.02060066 0.018910084 0.06240601 0.017480547 0.017123025
0.02093742 0.018361138 0.02768779 0.019396167 0.020971328 0.053465832 0.031935092 0.020742303
0.01847479 0.016789306 0.026695304 0.070609994 0.030895723 0.022636719 0.03241957 0.020082181

conv_blocks.7.weight f4 [64, 32, 4]
00000000: a71b 043c afe6 6c3c e1cd cebb 32b7 683d
00000010: feb5 3a3d 443c b5bc c46f 603d fd24 a53c
00000020: 317c 4abd 39a6 44bd 8093 883d c7b6 843d
00000030: 37f6 07bd 542d 6a3d eebd b03d c325 7cbd
00000040: d471 82bc 2246 2c3d 6c56 06bb 9df9 853d
00000050: 1761 8bbd bb21 75bd 0ca7 483d b3d1 903c
00000060: 4c7d 46bc acf6 853d b3c3 583d 4c19 5ebd
00000070: acda 83bd 3985 913d 891e acbc e890 463d
00000080: e9f5 953c 10d9 913d 77d5 b43d 1eee 923d
00000090: 63df 52bd 549a 0dbd d76b 053c 2af4 903d
000000a0: 1dc0 a1bb 45de 883d 09b1 873d d343 de3c
000000b0: e83a 193d af59 c7bc 5f65 19bd efb4 e93c
000000c0: 5f1e 783c 6926 02bb 0794 e63c 10bc 78bd
000000d0: 1876 133d a5a2 88bd c343 993c c547 ed3a
000000e0: 8165 41bd ccea 16bd 7055 cabc d596 71bd
000000f0: 7b79 05bd 3bc1 63bd c6e8 0bbd c3fb 33bd
00000100: 1c41 52bc 4c2a 413c 2544 ab3d 4d29 3b3d
00000110: de32 d0bc 88fb 12bc 32a3 9b3d 7e7f d73b
00000120: dadd ef3c 08a7 1e3d e6b8 fbbc 851e 4bbd
00000130: bb9c 1ebd f6b0 bb3b b1ab 513d d9fd 703d
00000140: 3e59 69bd 43cf df3c 9075 0f3d 6781 4ebc
00000150: 44be 91bd ad8a 39bb 7fa6 003d c263 37bd
00000160: 02b7 87bd 639c 533d e3e0 a93d 40be 833c
00000170: 8ec5 ab3d d385 37bd 6995 843d 01a2 153c
00000180: 4810 813d ed0d 89bc 61b3 2e3d f277 39bd
00000190: 2de2 8e3d 286b 9f3d 2bc3 983d 7349 5f3d
000001a0: 9663 5d3d a5d2 cd3b 992b 74bc 52dc a43d
000001b0: 32b5 a7bd c9b1 8ebd 9da2 483c 5f0f 3ebd
000001c0: 33eb cf3c c7b8 983d 4b44 3ebd deb3 323d
000001d0: d3a3 47bd 4af0 a1bc ef0d 5dbd 663c 6d3d
000001e0: d3a0 19bd 97c0 5c3d 19ef 853c 3c1c 69bd
000001f0: 92b4 9e3d 9fc7 caba f532 a4bd 8ca1 7bbd
00000200: 7777 183d 0b69 c9bc d36b f93c 3a20 263d
00000210: 589e d53b 3c63 ef3b 5e5d 99bc 0fd4 5b3d
00000220: 51a4 7c3c a0be b23d 99f3 20bd c573 b4bd
00000230: 7867 203d 0a7a 87bd 7cdd 3a3c 8943 3b3d
00000240: e2e8 b0bd 98c5 863d 90f9 a83d d4e5 863d
00000250: e48f f43c 6743 84bd 3b0a 993d 4088 473d
00000260: 70e4 903c 60cf 1dbd 3511 83bd 4210 90bd
00000270: ea2e 9d3d 4867 6a3d 23d3 efbc d71f f3bc
00000280: fa54 82bd 0dfe a4bd 7cc0 ed3b 6e83 60bd
00000290: 7cc0 873d 7583 abbc 6b0c 70bd fd21 7fbd
000002a0: 31ed b3bd afc8 12bc 6455 99bc 4838 583d
000002b0: 3ab9 073c 4ac9 42bc 83ba f53b 6110 7bbc
000002c0: 768c 663c 0d56 673d 65f8 803d b81f 373d
000002d0: 73e5 87bb a58d 113d f179 a7bd 075e 8abd
000002e0: f542 9d3d 3884 a63d 07c6 a33d b2ee 98bd
000002f0: fe5f a43d cf7c 92bb 1724 b33c 0bfc 043d
00000300: 8fd8 083d 9630 813a 558c fcbb 80b3 93ba
00000310: 58a8 3f3d 1fbc ea3c 3e41 713d aba0 c2bc
00000320: f494 d63c d88e 8d3d 3ade 9fbd 25da 70bd
00000330: 35f2 6ebd 7988 043d 6e76 283d 9255 203d
00000340: 3e65 0c3d c004 a1bc e08d 9b3d 7c6c 80bd
00000350: 54c6 913d d683 8f3d 7e75 7dbc 02c7 8c3c
00000360: a77d 85bc 5b26 353c 9f48 7b3d edb9 5e3c
00000370: d003 83bd 7e15 53bd a060 3c3d 9998 ccbb
00000380: 04f3 fb3b 145c a1bd 8852 ae3d 12b9 823d
00000390: 1feb a9bd a25a ad3d ae74 533d 1e47 ce3c
000003a0: ca69 653d 1aee 53bd 5405 0cbd 08b6 943d
000003b0: 26c0 013c a1f4 163c c0ce 9a3d 932a 523c
000003c0: 9cb4 2abd f702 cb3c 4dde 703d a5aa b23d
000003d0: e21d 4c3d 18e2 adbd 74ad 23bd f722 7a3a
000003e0: d2f7 ccbc 436d 683c 2017 d1bc d9c3 dfbc
000003f0: 66a3 96bd 815e a53d e37c 64bc c8d5 973d
0.008063233 0.014459296 -0.006311164 0.056815334 0.045583718 -0.022123463 0.054794088 0.020159239
-0.049434844 -0.048010085 0.066687584 0.064801745 -0.033193793 0.057172135 0.08629976 -0.06155945
-0.015923418 0.04205907 -0.0020498289 0.065417506 -0.06805628 -0.05984662 0.048987433 0.017678117
-0.012114834 0.065411896 0.05292101 -0.054223344 -0.06438193 0.07105488 -0.021010654 0.048478037
0.018305736 0.071214795 0.08829778 0.071743235 -0.05148257 -0.034571007 0.008143387 0.070778206
-0.0049362318 0.066830195 0.06625564 0.02713195 0.037409693 -0.024334757 -0.03745019 0.028528659
0.01514396 -0.001985932 0.028146757 -0.060726225 0.036001295 -0.06671647 0.01870907 0.0018103054
-0.047215942 -0.036845013 -0.024698943 -0.058981735 -0.032586556 -0.0556042 -0.034157537 -0.04394127
-0.012832906 0.0117898695 0.08362607 0.045693684 -0.02541488 -0.008971103 0.075994864 0.0065764775
0.029280592 0.038733512 -0.030727815 -0.049589653 -0.03872369 0.0057278825 0.05118913 0.058835838
-0.056969874 0.02732051 0.035024226 -0.012604094 -0.071163684 -0.0028311417 0.031408783 -0.04477287
-0.06626703 0.051662814 0.08294847 0.01608193 0.0838729 -0.04480536 0.0647381 0.009132863
0.063019335 -0.016730273 0.042651538 -0.045280404 0.06976733 0.0778411 0.074591 0.054513406
0.05405005 0.0062812143 -0.014902973 0.08049835 -0.08188857 -0.069675036 0.012245801 -0.046401378
0.025380706 0.074571185 -0.046451848 0.043628566 -0.04874022 -0.019767899 -0.053968366 0.05791893
-0.03750689 0.053894605 0.016349362 -0.056911692 0.07749285 -0.0015470869 -0.08017532 -0.06143336
0.037223306 -0.024586221 0.030446922 0.040558077 0.00651912 0.007305531 -0.018721279 0.05366903
0.015420035 0.08727765 -0.039294813 -0.08811144 0.039161175 -0.06615074 0.011405345 0.045718703
-0.08638169 0.06580657 0.08250725 0.06586805 0.029853769 -0.064581685 0.074726544 0.048713923
0.017687052 -0.038527846 -0.06399766 -0.07034351 0.07674964 0.057227403 -0.029275483 -0.029678268
-0.06363864 -0.08056269 0.007255612 -0.05481284 0.0662851 -0.020936707 -0.058605593 -0.062288273
-0.08785475 -0.0089589795 -0.018717475 0.05278805 0.008283908 -0.011888811 0.0074990406 -0.015323729
0.014071574 0.05647855 0.062973775 0.044707984 -0.0041472255 0.035535473 -0.08177555 -0.067562155
0.07678787 0.081306875 0.07996755 -0.074674025 0.080261216 -0.0044704448 0.021867795 0.03246693
0.03340965 0.0009856399 -0.0077071586 -0.0011268705 0.046791404 0.028654156 0.05890011 -0.023758253
0.026194073 0.06912011 -0.07806058 -0.05880179 -0.058336455 0.032356713 0.04112857 0.039144106
0.03427624 -0.019655585 0.0759542 -0.06270692 0.07117906 0.070075676 -0.015469907 0.017184738
-0.016295267 0.011056508 0.061348554 0.013594133 -0.063972116 -0.05153417 0.045990586 -0.006243777
0.007688882 -0.07878891 0.08511835 0.063829556 -0.08296799 0.084645525 0.051624946 0.025180396
0.05600909 -0.051740743 -0.03418477 0.07261282 0.007919347 0.0092135975 0.07558966 0.012827533
-0.04167615 0.024781687 0.058805753 0.08723954 0.049833186 -0.084903896 -0.03996034 0.00095419533
-0.025020514 0.014186206 -0.025523722 -0.027315067 -0.073553845 0.08074666 -0.013945791 0.074138224

conv_blocks.7.bias f4 [64]
00000000: e66a 8b3c 9a2d 74bd 8da2 95ba 1e54 f8bc
00000010: 501f 3cbd a5dd 8dbc 0b94 5bbd 744e ca3b
00000020: c68e cf3c 6e1a 5dbd 363f 9a3d 39f4 82bc
00000030: 79e5 32bd cb76 53bb 7134 773d 79ca 1abd
00000040: 5385 1ebd 46dc c83b bc11 ad3d 60c4 b2bd
00000050: 081c 87bd 2c5e 93bc b8c9 23bd d750 47bd
00000060: 691d b43c d820 5abd e2ca a7bd 8fb8 723d
00000070: 2d20 493d b194 8e3d aabe aebd 7b7a f7bc
00000080: a812 983d 90a0 a3bc 23cf a33d 94b0 2abd
00000090: 4c95 2b3d c9aa 743d bdf1 f0bc 740a 44bd
000000a0: 5388 b03d d2c0 5cbd b432 2bbd f427 aebd
000000b0: 7fa3 30bd 4180 43bd f908 9bbd 3fc2 4b3d
000000c0: c52f 79bd 50a5 35bd eb8e 9d3c 331c 1ebd
000000d0: bf48 a33c efa2 973d f7a3 41bd 813e 1dbc
000000e0: 248e 8abc 17e5 86bd cfaa 0dbd 6cec 5c3d
000000f0: 76ea b03d db18 47bc edb1 a8bd a7ba 9cbd
0.017018747 -0.0596138 -0.0011416242 -0.030313548 -0.0459283 -0.017317602 -0.05360798 0.006173903
0.025336634 -0.053980283 0.07531588 -0.015985595 -0.043675873 -0.003226685 0.060352746 -0.03779075
-0.038701367 0.0061297743 0.08450648 -0.08728862 -0.065971434 -0.01798924 -0.039987296 -0.04866108
0.02198668 -0.05325398 -0.08192994 0.05925804 0.04910295 0.069619544 -0.0853246 -0.03020977
0.074254334 -0.019974023 0.079984926 -0.041672304 0.041890427 0.059733186 -0.029412145 -0.04786153
0.08619752 -0.053894825 -0.0417964 -0.08503714 -0.043124672 -0.047729734 -0.07570071 0.049745794
-0.060836572 -0.044347107 0.019233188 -0.03860111 0.019932149 0.07404124 -0.04727551 -0.009597422
-0.016913481 -0.06586664 -0.034586724 0.053936407 0.0863847 -0.012151922 -0.08237062 -0.076527886

conv_blocks.8.weight f4 [64]
00000000: c71a 803f 8d18 803f abc6 7f3f a323 803f
00000010: 2a41 803f 7f0f 803f 3e1e 803f 5876 7f3f
00000020: ac2f 7f3f bd5a 803f 622c 803f 9606 803f
00000030: 4739 803f 67d2 7f3f c3fe 7f3f 4933 803f
00000040: 1016 803f 0135 803f 6d07 803f f080 7f3f
00000050: 8329 803f b352 803f 646d 7f3f 2fb5 7f3f
00000060: 754a 803f 7feb 7f3f f250 803f 8fb3 7f3f
00000070: c861 803f e40f 803f abce 7f3f 7666 7f3f
00000080: e010 803f 3188 7f3f cd81 7f3f c602 803f
00000090: 059a 7f3f b579 7f3f 5fd7 7f3f 4b72 7f3f
000000a0: 0b48 803f 5566 7f3f 02fa 7f3f d821 803f
000000b0: 612c 803f a82f 803f 4532 7f3f e732 803f
000000c0: aa6f 7f3f ca07 803f a02b 803f 490d 803f
000000d0: ce69 7f3f 1279 803f 3491 7f3f e24b 803f
000000e0: 774c 7f3f 6800 803f 2435 803f 1a99 7f3f
000000f0: 8617 803f c2a6 7f3f 33dd 7f3f 7d64 7f3f
1.0008172 1.0007492 0.9991252 1.0010875 1.0019886 1.0004729 1.0009229 0.99789953
0.99682117 1.0027691 1.0013545 1.000201 1.001748 0.99930423 0.9999811 1.0015651
1.0006733 1.0016176 1.0002266 0.9980612 1.0012668 1.0025238 0.9977629 0.9988584
1.0022722 0.99968714 1.0024703 0.9988336 1.002984 1.000485 0.99924725 0.9976572
1.000515 0.99817187 0.99807435 1.0000846 0.9984439 0.99795085 0.99938005 0.9978377
1.0021986 0.9976552 0.99990857 1.0010328 1.0013543 1.0014544 0.9968608 1.0015534
0.9977976 1.0002377 1.0013313 1.0004054 0.9977082 1.0036948 0.9983094 1.0023158
0.9972605 1.0000124 1.0016217 0.9984299 1.0007179 0.9986383 0.999469 0.9976271

conv_blocks.8.bias f4 [64]
00000000: 12e3 b63a 599f fe39 c9e0 28ba 9427 a23a
00000010: 8ef3 4f3a 4741 94b9 c35f b33a 1f0e c1ba
00000020: 8ad9 2aba b0f5 a53a 867a a43a 70b0 2f3a
00000030: 9f06 2939 6030 cf3a a9af 85ba 3956 9e3a
00000040: c261 8c3a 6911 7039 1624 553a 9c55 b5ba
00000050: 4855 cf3a 10da c3b8 dd69 1dbb 37ee 5bba
00000060: 4268 003b 00d7 3d3a da0b d83a 1d49 07ba
00000070: 3a6f 323b 2614 12bb 2486 9339 5b2a 03ba
00000080: 6b67 e9b9 8e77 c1ba 9aa8 0cba 5c22 103a
00000090: 4318 8639 d569 4fba 8f86 dfb9 01d6 42ba
000000a0: 94ae fa3a 5615 e8ba 7605 f2b9 1808 c0ba
000000b0: 4da7 933a 50a1 733a 1089 18bb 3ba3 933a
000000c0: 82e6 87ba 8c18 32ba 6078 f539 1509 6d3a
000000d0: 5221 a3ba f71f 173b d7f2 9cba 5a9d 8239
000000e0: a12c 14bb 535b 6538 f906 0b3b 450f e7ba
000000f0: b58f 353a ca68 e138 5f0d b7ba cae4 e8ba
0.001395317 0.00048565379 -0.0006442187 0.0012371414 0.0007932716 -0.00028277395 0.0013685155 -0.001472894
-0.0006517401 0.0012661722 0.0012548722 0.00067020115 0.00016119562 0.0015807264 -0.0010199446 0.001208014
0.0010710286 0.0002289467 0.00081306824 -0.0013834718 0.0015818262 -9.338942e-05 -0.0024019398 -0.0008389684
0.0019593392 0.00072418153 0.0016483024 -0.0005160736 0.002722694 -0.0022289841 0.00028137967 -0.0005003565
-0.00044518276 -0.0014760362 -0.00053657 0.0005498284 0.00025576548 -0.00079121935 -0.00042634128 -0.0007432402
0.0019125515 -0.0017706554 -0.00046161906 -0.001465085 0.001126507 0.0009293752 -0.0023275055 0.0011263856
-0.0010368379 -0.0006793819 0.00046819728 0.0009042186 -0.0012445843 0.0023059824 -0.0011974227 0.00024912768
-0.0022609609 5.4682907e-05 0.0021213873 -0.0017628452 0.0006926016 0.000107483545 -0.0013965777 -0.001776838

conv_blocks.8.running_mean f4 [64]
00000000: e1e1 a23e e0f7 6a3e 193a 023e f927 1e3e
00000010: f3a1 c93a b38f 19bd bff6 193d 2bfd 4fbe
00000020: 9b03 d4bd 8b66 8bbe b8d3 aebd e61f df3d
00000030: f296 d0bd 8560 3bbd 43b6 5f3e 7019 afbd
00000040: 598b a73e a59f a93d 09f1 71bd fe5d 7d3e
00000050: dc47 c9be 4cd3 c93d 6232 09be b83f b9bd
00000060: 1bda 92bc 5916 53be 37d9 2ebe 773b fd3e
00000070: 9ae3 553d 4d70 3fbe 00dd 99be 7b83 b4bd
00000080: 11b8 783e 0719 023e 5114 663e de09 ab3d
00000090: 0244 893e c95a 373d 8cfa 6cbd a1e0 eb3c
000000a0: 15d9 45be c728 9e3e 0c13 1cbd c654 ecbc
000000b0: 7a5b 9d3d 8cf9 4ebe ae5b c93c 1409 0ebe
000000c0: c8e6 963b 0ee0 42be 2555 7f3e 8c46 52bd
000000d0: f5bb 9a3e a0f0 fc3d 54eb 6e3d c05c ef3d
000000e0: 9a50 0b3e 5f0a a53c 12ac b6be ae67 093e
000000f0: 6188 d5bc 8cfb 3e3e ee21 81bd e198 4bbe
0.31812957 0.2294612 0.12717475 0.15444936 0.0015383348 -0.037490558 0.03758883 -0.2031142
-0.1035225 -0.27226672 -0.08536476 0.10894756 -0.101850405 -0.045746345 0.21846871 -0.08549774
0.327235 0.08282403 -0.05906776 0.24742886 -0.39312637 0.09854755 -0.13398126 -0.090453565
-0.017926266 -0.20613994 -0.17075048 0.4945943 0.05221901 -0.18695183 -0.30051422 -0.088141404
0.24288966 0.1270486 0.22468688 0.083514914 0.26809698 0.044764314 -0.057856128 0.028793635
-0.19321091 0.30890486 -0.038104102 -0.028849017 0.076834634 -0.20212382 0.02457985 -0.1387065
0.004605148 -0.19030783 0.24934824 -0.05133681 0.30221525 0.12350583 0.058329895 0.116876125
0.13604966 0.020146547 -0.35678154 0.13418457 -0.026066007 0.18650645 -0.063053 -0.19882537

conv_blocks.8.running_var f4 [64]
00000000: 0d86 6d3e b225 5c3e b27f 8c3e 6717 7d3e
00000010: 6405 513e a8b9 873e 241a 3c3e 5f42 c43e
00000020: aa37 663e e0f3 613e b40b 243e f9bd 573e
00000030: a52e 413e 9e2e 7b3e 2120 483e 85d7 503e
00000040: 180b 733e 37a2 8a3e 4fbf 703e 5803 733e
00000050: 7fec 3a3e 4beb 4d3e 4991 2e3e 014e 6f3e
00000060: d906 5b3e b78e 473e 8605 533e c4d7 6a3e
00000070: c84e 853e e7f3 533e 4e57 843e fca6 623e
00000080: 20fa 603e 8069 5b3e 948f 213e ed6a 553e
00000090: adfe 5e3e bdbc 463e b90e 513e 3ecc 323e
000000a0: e23a 523e 4261 493e 3e1d 4f3e fadb 6b3e
000000b0: 8a49 553e 57f6 593e fca8 3e3e 1bfd 2b3e
000000c0: e0af 3c3e dcf2 3a3e ec6f 273e ed7c 393e
000000d0: cec4 4c3e 3f04 553e 0cac 423e 32fe 383e
000000e0: 0d24 5d3e 40b0 503e a6d8 613e 6409 5a3e
000000f0: d5d5 233e 3f87 3f3e 2b52 5d3e 338e 623e
0.23195668 0.21498755 0.27441174 0.24715959 0.20412213 0.26508832 0.18369347 0.38331887
0.22482172 0.22065687 0.1602009 0.21068563 0.1886545 0.24529502 0.19543506 0.20394714
0.237347 0.27076885 0.23510478 0.23731744 0.18254279 0.20109288 0.1704761 0.233696
0.21389331 0.19488035 0.20607576 0.2293387 0.26036668 0.2069851 0.25847858 0.22134012
0.21970415 0.21426964 0.15777427 0.2084157 0.21776839 0.19407935 0.20415772 0.17460725
0.20530275 0.19666007 0.20225999 0.23033133 0.20828834 0.21285377 0.1861915 0.16795771
0.18426466 0.18256706 0.16351289 0.18114062 0.1999695 0.20802401 0.19010943 0.18065718
0.21595784 0.20379734 0.22055301 0.21292645 0.15999539 0.18703936 0.21613376 0.22124557

conv_blocks.11.weight f4 [128, 64, 4]
00000000: 19bf 74bd e5bc abbc 1b13 3abc 59e9 d7bc
00000010: 010f 58bd b7a0 9c3c 96b0 053c a7c8 2a3c
00000020: a40b 373d afe7 1a3d 94ba 94bc f297 3c3d
00000030: 30db 143d 1b05 70bd 44f7 26bd 36e4 09bd
00000040: 053f 60bd 53fa de3c 3b44 39bc 0ab0 6ebd
00000050: 29a5 533d 81f2 fc3c c4fe 0c3d 6ece 27bc
00000060: 8090 8fbc a321 d1ba 8176 7dbd cacd 84bc
00000070: 6444 32bc 7bc7 513d a572 0f3d 6a20 2b3d
00000080: dbde 4c3c 0600 05bc 41eb 78b7 d1b8 2d3d
00000090: 682a 48bc fbd2 0ebd 6c55 5cbd e920 58bd
000000a0: 594e 8ebb 9867 e2bc ee71 753d 147a 473d
000000b0: 94de 4b3c f092 bfb9 2b67 e2b9 4eb1 8bbb
000000c0: 71d4 d63c fff9 5bbd 5eba b83c 290b 3dbc
000000d0: fab9 573c 8b40 f3bb bdad 34bd 0a62 a6bc
000000e0: 45e6 d0bc 9858 03bd 809d d3bc 54f1 493d
000000f0: d8b7 533d 1db2 343d 913c 48bd 507c 7abd
00000100: f97c 393d cb24 6fbd efd6 f63c 90a4 d93c
00000110: 7e03 293c 473f bfbc ecd4 59bd 5323 bdbc
00000120: cd95 03bd 1728 4cbc 1b3d 82bd 8322 d9bc
00000130: e470 b53c 2fbc 53bd 7676 a13c aece 18bd
00000140: 4a34 2dbd ba24 353d a634 97bc 314a 4abd
00000150: bd42 17bc 6b07 38bd 87c3 50bb 68a8 17bd
00000160: c943 52bd 569f 6b3d f3f1 f339 f496 873c
00000170: 2bb7 6f3d a88c 5a3c 7643 df3c 49ff 48bb
00000180: fbe9 223d 713a da3b b854 c3bc 63c7 32bd
00000190: 3466 e7bc b156 45bd 989b e6bb 5f9a fc3c
000001a0: 3c4e 26bd ca36 163d 3fa5 2abd 4d80 bd3c
000001b0: 3d6c 77bd 5953 273d dbeb 523c 1381 49bd
000001c0: f9d3 54bc 2ad5 3c3d 01b3 f5bc a081 26bd
000001d0: aaf3 61bd f5ff 9b3c 2f32 60bc 4e61 b1bb
000001e0: 2a80 f3bc eeb2 dc3c 6037 043b 231d 3fbd
000001f0: 2853 04bd 0800 71bd 2db6 263c 3591 993c
00000200: 408f 373d d3e3 c5bc ccb0 2dbd a563 71bd
00000210: ae1f d53c 281e 6bbd 9cf8 d0bc 38ab 21bd
00000220: 9d80 f43b e80f 5bbd 0dc6 a83c 4555 4cbd
00000230: 3268 d5bc 7278 0a3d 041d 40bd 8732 0cbd
00000240: 065b 7b3c 116f c93c bbeb 013d 7b1d 09bd
00000250: 7189 32bd 4c06 c0bc 5824 fabb b15e 49bd
00000260: cab6 1c3d 4963 163d 67c6 153d b966 873c
00000270: 54ed 65bd 6c5d 58bd fc95 d2bc 5252 2fbd
00000280: 0ace 223d 77b5 463d 8aab 3d3c 9b74 103d
00000290: 3b91 093d 6da2 49bd 4ece 5f3c 71df 253d
000002a0: a2b5 66bd bf0c 51bd 4835 dc3c 6413 08bc
000002b0: df11 adbc c84b 54bc 4b46 67bd d984 46bd
000002c0: c3d0 3cbc 03b6 0c3d 8a84 6bbd 2715 3dbd
000002d0: 8d52 6abd d708 693c 89cf 06bd 7134 0e3d
000002e0: 42e0 1a3d 887d 6cbd 87da f8bc 52bb 51bd
000002f0: ee89 c3bc 578d 24bd d3ff f6bc 358c b3bb
00000300: 8ed0 8fbb be7d 533c 50a9 3abd 5888 fe3c
00000310: 4a35 68bd 7f97 153d 7848 f5bc bdd0 65bd
00000320: 20c8 2f3d b9e0 2ebd e886 8e3c 4f36 e7bc
00000330: 2b9d 793d 995b ca3c 18ca ea3c ba88 36bd
00000340: 6cc4 343d b0a4 efbc 9777 fcbc b7dc 61bc
00000350: f16b 07bd bdd9 60bd ae1e 9a3c ac06 fb3c
00000360: 942f 133d 9a3c 7c3c 64af 76bd 3fb2 273c
00000370: 4a30 e23a 165b b23a c5bc ceba 6cb5 64bb
00000380: ab9f d03b c0e9 0cbd 5b5f 9d3c 9c43 883c
00000390: bb74 363d 2949 19bd 72c7 30bd 16cf 3d3d
000003a0: 1e99 a3bb eb89 1fbd faa9 19bd 28a2 563d
000003b0: 094b f0bb 0e7a 61bd 7e6b b1bb 8c96 a3bc
000003c0: cb6e a13b a91a 87bb 7186 3d3d f563 3dbd
000003d0: 1664 553d 7703 2d3d 24a0 153d 20b2 453a
000003e0: 967c 34bd dcd3 3abd 8806 ccbc d32a 163d
000003f0: 27c8 043c 49c4 073d 725d 083d 8e69 babc
-0.059752557 -0.020964095 -0.011357094 -0.026356386 -0.052748684 0.019119604 0.008159777 0.010423816
0.044688836 0.037818607 -0.018155374 0.046043344 0.036341846 -0.05859862 -0.040763155 -0.033664905
-0.0547476 0.027218973 -0.011307771 -0.058273353 0.05167118 0.030877354 0.03442265 -0.010242088
-0.017524958 -0.0015955459 -0.061880592 -0.01621141 -0.010880563 0.05121563 0.035021443 0.04177896
0.012504305 -0.008117681 -1.4836726e-05 0.042412583 -0.012217142 -0.034869175 -0.053792402 -0.05276576
-0.004342836 -0.027637288 0.059923105 0.048700407 0.0124432035 -0.00036539836 -0.00043182945 -0.0042630797
0.026224347 -0.05370521 0.022549804 -0.011538305 0.013166899 -0.0074234656 -0.044111002 -0.02031042
-0.025500426 -0.03206691 -0.025831938 0.049302414 0.051689 0.044115175 -0.048885886 -0.06115371
0.0452852 -0.058384698 0.030131785 0.026567727 0.010315774 -0.023345603 -0.053181574 -0.023088133
-0.032125283 -0.01246073 -0.06359311 -0.026505714 0.022148557 -0.051693138 0.019709807 -0.03730648
-0.042286195 0.04422448 -0.018457722 -0.04938716 -0.00923222 -0.04492895 -0.0031854825 -0.03702584
-0.051334176 0.057525 0.00046528838 0.016551472 0.058524292 0.013339199 0.027253848 -0.003066974
0.039773922 0.006659799 -0.023844108 -0.04364718 -0.028246976 -0.04817838 -0.007037591 0.030835329
-0.040601954 0.036673345 -0.041661497 0.023132468 -0.06040596 0.04085097 0.012873615 -0.04919536
-0.012989991 0.046101727 -0.029992582 -0.040650964 -0.055164017 0.019042948 -0.01368384 -0.005413211
-0.0297242 0.02694079 0.0020174608 -0.046658646 -0.032305866 -0.05883792 0.01017527 0.018745998
0.04481435 -0.024156487 -0.042404935 -0.05893292 0.026016083 -0.057401806 -0.025509171 -0.039469928
0.007461621 -0.053481966 0.02060225 -0.049886007 -0.02605066 0.03380627 -0.04690267 -0.034227874
0.015341526 0.024589093 0.03171895 -0.03347538 -0.043588106 -0.023440503 -0.007633727 -0.04916257
0.03826026 0.03671578 0.036566164 0.016528474 -0.056134537 -0.05282347 -0.025706284 -0.042803116
0.039747275 0.048512902 0.011576543 0.035267454 0.03358577 -0.049227167 0.013660027 0.040496293
-0.056325562 -0.051037546 0.026880875 -0.008305404 -0.021126686 -0.012957521 -0.05646352 -0.048466537
-0.011524382 0.034353267 -0.057499446 -0.04616275 -0.057207633 0.014223299 -0.032912765 0.03471798
0.037811525 -0.057736903 -0.03037764 -0.051204033 -0.023869481 -0.040173855 -0.030151283 -0.0054793605
-0.0043888753 0.012908397 -0.045571625 0.031070873 -0.056691445 0.03652143 -0.029941782 -0.05610727
0.042915463 -0.04269478 0.017398313 -0.028224139 0.060940903 0.02470188 0.028660819 -0.044563986
0.044132635 -0.029253334 -0.030818744 -0.013785533 -0.033061925 -0.05489515 0.018813457 0.03064283
0.035934046 0.015395308 -0.06022586 0.010235368 0.0017256823 0.0013607468 -0.001577281 -0.0034898175
0.00636669 -0.03440261 0.019210508 0.016633801 0.044544917 -0.037423287 -0.043158956 0.04634007
-0.004992618 -0.03894989 -0.037515618 0.052400738 -0.0073331636 -0.05504804 -0.0054144254 -0.019969247
0.0049265376 -0.004123051 0.04627079 -0.046237905 0.052097403 0.042239632 0.036529675 0.00075414963
-0.044064127 -0.0456122 -0.024905458 0.036661934 0.008104361 0.033146176 0.03329224 -0.02275541

conv_blocks.11.bias f4 [128]
00000000: 39a4 9bbc 02cb 323d 4abd 84ba fcba 21ba
00000010: 5539 6ab9 428f 07bd eb45 723c 8cd8 73bd
00000020: 8730 febb 3ef6 4dbb b4f3 573c dcca 00bd
00000030: 8cab 79bd 07a1 753d fa15 16bd 26ee f8bc
00000040: 5db2 1f3d 12cb d1bb 3f3f 1fbd 2276 2fbd
00000050: 502b 6bbd 8ffc 423b 3871 753b 713a 533d
00000060: 8d06 7dbd 223b d73c 2835 1e3b dde2 57bd
00000070: 6d1d 843b dd48 02bd dc05 833c ea35 e23c
00000080: da02 673d ad18 9ebc 1581 723d 08cd 7c3c
00000090: ea4f 963c 52a7 69bd daa9 60bd c595 b9bc
000000a0: df6f 733d db96 083d 82c9 613d 2d59 6ebd
000000b0: 1ccf 833b fb6e 69bd f5ac 733d 3743 2e3d
000000c0: d14e 0c3d bf10 ffbc 6f9c 0ebd 15a5 1bbd
000000d0: 3af6 5b3d 785f 0ebd 130c f63c bc50 083d
000000e0: 793b 9abc 896e 643d e2e7 48bd edcf 04bd
000000f0: bbbd 9d3c c387 503c b3fd d4bc 12ca a8bc
00000100: 53f9 243a e7bd 083d ccc4 483d 0936 723d
00000110: 00a8 5a3d 8c15 86bc b1a1 c33c 9f61 57bb
00000120: e7ae 71bd f7a6 3ebd 455d 5ebd ae54 623d
00000130: b333 0dbc b6a4 463d 9590 e73b 042b 653d
00000140: 3bfe 063d cd46 263d e547 693d 8487 d63b
00000150: 00fd 4dbd 1e31 b63c b12c 713d 3fed 073d
00000160: e0fa 04bb 9e90 4f3d 09f0 77bd ca3b 9b3c
00000170: 9dbf 7a3d fd3b d7bc 5c6f bfbc ca1e a63c
00000180: 4222 113d 3ee2 7cbd b309 1b3d 71f1 3e3d
00000190: cf9b fcbc 0196 133d 445a 6abd d2a3 3dbc
000001a0: 3973 4cbd 7667 e4bc e0c8 f63c e23f 4b3d
000001b0: 9989 2f3d 4f38 033d b09f 00bd c37a 003c
000001c0: bb80 1f3d 75ba 763d b90f 0cbd 562e 3ebd
000001d0: 878f 0dbd 9ae8 053d 5a06 79bd 0a6d 163d
000001e0: 0f45 8b3c 324f 6c3d c2d9 463d b3d5 7d3c
000001f0: f10d 093d f7fd 68bc 9702 edbc 61ef cdbc
-0.018999206 0.043650635 -0.0010127213 -0.00061695254 -0.00022337337 -0.033095606 0.014787178 -0.059532687
-0.0077572498 -0.003142729 0.013180662 -0.03144346 -0.060954615 0.05996802 -0.036642052 -0.030386996
0.03898846 -0.0064023817 -0.038878676 -0.04283727 -0.057414353 0.0029752587 0.0037451517 0.051569406
-0.061773825 0.026273314 0.002414057 -0.052706588 0.004031828 -0.03180777 0.015994005 0.027613599
0.056399204 -0.019298876 0.059205133 0.015429743 0.018348653 -0.057044335 -0.054849483 -0.022654423
0.05943286 0.033346992 0.055123813 -0.058190513 0.004022492 -0.056990605 0.059491117 0.04254457
0.034254853 -0.031135915 -0.034817155 -0.03799923 0.053701617 -0.034759015 0.030035054 0.03328012
-0.018827187 0.055769477 -0.049049266 -0.032424856 0.01925551 0.012727681 -0.02599988 -0.020604167
0.0006293256 0.03338423 0.049015805 0.059133563 0.053382874 -0.016367696 0.023880811 -0.0032864583
-0.05900469 -0.04654595 -0.054288168 0.055256538 -0.008618283 0.048496924 0.007066796 0.055949226
0.032957297 0.040594865 0.05695333 0.0065469164 -0.050290108 0.022240218 0.05888051 0.03318524
-0.0020291135 0.050675027 -0.06053165 0.018949408 0.061217893 -0.026273722 -0.02336853 0.020278353
0.03543306 -0.0617392 0.037851047 0.046616975 -0.030836014 0.036031727 -0.05721499 -0.011574702
-0.049914572 -0.027881365 0.030125082 0.04962147 0.042855833 0.032036122 -0.03140229 0.007841769
0.038941126 0.060236413 -0.03419468 -0.04643091 -0.034560706 0.03269253 -0.060797073 0.03672508
0.017000703 0.057692714 0.048547514 0.015492844 0.03346056 -0.014220706 -0.028931899 -0.025138559

conv_blocks.12.weight f4 [128]
00000000: 7428 7f3f 23f2 7f3f 650f 803f 055e 7f3f
00000010: 1908 803f 7e4c 7f3f 4f26 803f c845 803f
00000020: 0075 7f3f 3400 803f a204 803f bf89 7f3f
00000030: f78b 7f3f 1deb 7f3f d7dd 7f3f 868a 7f3f
00000040: 7ec8 7f3f 1438 803f ba5f 803f b15f 7f3f
00000050: 439c 7f3f cb45 7f3f e048 803f ec08 803f
00000060: 9633 803f 8e6f 7f3f 9b69 7f3f 5539 7f3f
00000070: fc54 803f bf7e 803f 8593 7f3f 5505 803f
00000080: 676f 803f e799 7f3f 33dd 7f3f 7c57 803f
00000090: 3b5b 803f 371d 803f e171 803f bc6d 803f
000000a0: 9650 803f 3f2b 803f 16c3 7f3f f766 803f
000000b0: df8b 7f3f 648a 7f3f 63f9 7f3f 6122 803f
000000c0: 7153 7f3f ce67 7f3f 4a59 803f 904f 7f3f
000000d0: fb4a 803f 5d0d 803f 5194 7f3f 5740 803f
000000e0: 9286 803f 1d47 803f b36a 7f3f 364c 803f
000000f0: 7692 7f3f f5c1 7f3f 35e0 7f3f b354 803f
00000100: 1653 803f b905 803f c991 7f3f 9167 7f3f
00000110: 423d 803f 6930 7f3f 373b 803f f50d 803f
00000120: 6b31 803f f2f5 7f3f 2cb3 7f3f 3e3e 803f
00000130: a03b 803f e165 803f e08b 7f3f ed5e 803f
00000140: b154 7f3f 7d14 803f dfde 7f3f f608 803f
00000150: 4c39 803f ae40 803f 2469 803f fb72 803f
00000160: b037 7f3f da40 7f3f 31a1 7f3f 6a9f 7f3f
00000170: 4e7e 7f3f 6798 7f3f 4ce3 7f3f 0cde 7f3f
00000180: d748 803f 2602 803f 891c 803f 2700 803f
00000190: 6e03 803f 22e7 7f3f 4afe 7f3f 5c62 803f
000001a0: d356 803f 8ea2 7f3f 051f 803f 9747 803f
000001b0: 9d59 7f3f 7e6d 803f ab34 803f a589 7f3f
000001c0: 5776 7f3f bd5c 803f 2d77 7f3f 53bd 7f3f
000001d0: 622f 7f3f 1198 7f3f a5f1 7f3f 7d2e 803f
000001e0: b61e 803f 3e16 803f e467 803f 9e8a 803f
000001f0: 302a 803f 965d 803f a93e 803f 591d 803f
0.996711 0.99978846 1.0004698 0.9975284 1.0002471 0.9972609 1.0011691 1.0021296
0.997879 1.0000062 1.0001414 0.9981956 0.99822944 0.9996813 0.99947876 0.99820745
0.999153 1.0017114 1.0029213 0.9975539 0.9984781 0.9971587 1.002224 1.0002723
1.0015743 0.99779594 0.99770516 0.99696857 1.0025935 1.003868 0.9983447 1.0001627
1.0033997 0.9984421 0.999469 1.0026698 1.0027841 1.0008916 1.0034753 1.0033488
1.0024593 1.0013198 0.9990705 1.0031422 0.998228 0.9982054 0.9998991 1.0010492
0.99736696 0.9976777 1.0027249 0.9973078 1.0022882 1.0004078 0.9983569 1.0019635
1.0041068 1.0021702 0.99772185 1.0023258 0.99832857 0.9990533 0.9995149 1.0025848
1.0025356 1.0001746 0.99831825 0.99767405 1.0018694 0.99683243 1.0018071 1.0004259
1.0015081 0.9998466 0.9988277 1.0018995 1.0018196 1.0031091 0.9982281 1.0028969
0.99738604 1.0006253 0.9994945 1.0002735 1.0017486 1.0019739 1.0032086 1.0035089
0.9969435 0.9970833 0.99855334 0.9985262 0.998021 0.9984192 0.999562 0.9994819
1.0022229 1.0000656 1.0008708 1.0000046 1.0001047 0.99962056 0.9999739 1.0030017
1.0026497 0.99857414 1.0009466 1.0021847 0.99746114 1.0033414 1.0016073 0.99819404
0.9978995 1.0028301 0.9979122 0.9989826 0.99681675 0.9984141 0.99978095 1.0014187
1.0009372 1.0006788 1.0031705 1.0042303 1.0012875 1.002856 1.0019122 1.0008956

conv_blocks.12.bias f4 [128]
00000000: 1e2e c938 f9c0 b8ba 4990 8aba 04cc 9d39
00000010: 158c 0839 8b6c fcba 987f 3eb7 8ae6 b23a
00000020: 1851 2dbb 38b3 6fba 5cb4 acb9 8d0b 7aba
00000030: 3a07 38ba edfc bbba e427 32ba e206 f5ba
00000040: 60b5 12bb 96ca db39 d02a 9f3a 5341 1ebb
00000050: 026c b239 fc44 e0ba 8c09 053b 73f7 beba
00000060: 5223 ed3a f53d 813a 65b4 82ba 84b8 1bbb
00000070: 9e81 bcb9 fe0b ee3a b94b 0cba 02fe 293b
00000080: b136 343b 849a ed3a 54c3 ae3a ffca 9d3a
00000090: 177b 103b 86b9 1cba 9e8a 8d3a 6289 263b
000000a0: 0205 dc3a 069b 053b 8f4e 30ba ba6f a73a
000000b0: 94c6 2339 1426 f139 807a ccb9 f7b8 933a
000000c0: b8d0 5538 5487 893a 1ce6 133b 9898 95ba
000000d0: 5975 633b f7bf 85ba 1ebe 15b9 ef82 543b
000000e0: b991 b63a 2407 b73a 7ee0 39bb 5eaf 37b9
000000f0: 11a1 26ba 8cc1 8eba c7d7 a1ba 6928 c53a
00000100: e0f2 a53a 735e acba 3dd6 b2ba 42b8 d2ba
00000110: 6809 873a 67cf e7ba a07b 52b9 36a0 113b
00000120: 4a19 e63a 4b9c 31bb b429 de3a 44bf ff3a
00000130: 2666 953a 2df8 333b 8cca 33ba 2b8d 403a
00000140: ccb3 2fbb c0d9 0eb7 70a4 c6b9 c65c 3a3a
00000150: 3aaa 0e3b 3055 d4b9 7c59 a63a 1b10 593b
00000160: a95d e5b9 9cd4 95ba 4d4c baba 295b 1abb
00000170: 6a52 dfb8 9d40 cdba 5067 3c3b 63de 4039
00000180: 9bda 3e3b 81a5 12ba 4eae b73a 726a a3ba
00000190: 4a03 d1b9 e5fe 3eb8 bbc3 363a 1968 4e3b
000001a0: ec27 bd3a 3c8c 8b3a bad9 b5ba c507 1c3b
000001b0: a5a6 e0ba cb97 003a 4adb 7c3a 11b2 eab8
000001c0: 24e8 8eba 049b 33b9 808a a3b9 26f4 1837
000001d0: f90c 42bb 5256 a037 926e 9dba 70b0 033a
000001e0: 7ebf 83ba 28fa d83a d65c eab8 1a70 323b
000001f0: b69a 5f3a 2c2b 4d3b fc6c 293b a163 4cba
9.593017e-05 -0.0014095596 -0.0010571565 0.00030097377 0.00013022155 -0.0019258423 -1.135459e-05 0.0013649028
-0.002644604 -0.0009143832 -0.00032940775 -0.00095384644 -0.000702012 -0.0014342346 -0.00067961053 -0.0018694068
-0.002238594 0.00041921873 0.0012143496 -0.0024147823 0.00034031278 -0.0017110403 0.002029988 -0.0014569595
0.0018092191 0.0009860384 -0.0009971975 -0.0023761103 -0.00035954727 0.0018161533 -0.000535186 0.0025938754
0.002749842 0.0018127714 0.0013333359 0.0012038647 0.0022046024 -0.0005978573 0.0010798757 0.0025411476
0.001678616 0.002038659 -0.00067255733 0.0012774386 0.00015618867 0.00045995472 -0.00039001182 0.0011270334
5.0977542e-05 0.0010492601 0.0022567576 -0.0011413274 0.0034707396 -0.0010204305 -0.00014280571 0.0032426675
0.0013928927 0.001396392 -0.0028362568 -0.0001751757 -0.0006356398 -0.0010891422 -0.0012347632 0.001504195
0.0012660883 -0.0013150707 -0.001364417 -0.0016076642 0.0010302486 -0.0017685712 -0.00020073215 0.0022220737
0.0017555144 -0.0027101215 0.0016949684 0.0019511958 0.001139824 0.0027461157 -0.000685849 0.00073452544
-0.0026810048 -8.514558e-06 -0.00037888018 0.0007109161 0.0021768943 -0.0004049926 0.0012691463 0.0033121172
-0.00043748066 -0.001143116 -0.0014213413 -0.002355287 -0.000106488194 -0.0015659515 0.0028748102 0.00018393392
0.0029121998 -0.000559412 0.0014013739 -0.0012467636 -0.00039866037 -4.553692e-05 0.0006971915 0.0031495153
0.0014431453 0.0010646651 -0.0013874092 0.0023808342 -0.0017139508 0.00049054314 0.0009645714 -0.00011191157
-0.0010902924 -0.00017128518 -0.00031192973 9.116751e-06 -0.0029609783 1.9113682e-05 -0.0012011102 0.00050235447
-0.0010051576 0.0016554045 -0.000111752815 0.0027227462 0.00085298286 0.003130625 0.0025852313 -0.0007796828

conv_blocks.12.running_mean f4 [128]
00000000: cae2 0dbf b9dc 093e 302f 28be 6171 61be
00000010: f5ef 2dbd b675 6e3e dfe2 d8bd 7aa5 0a3d
00000020: cab1 43be 586f 28be 4375 00be 5474 49be
00000030: d26b c1be 82a2 253e 56aa 78bb 1897 8f3e
00000040: 1305 a73c 5f21 b13d ca7a d03c 2bdd a9be
00000050: 1e43 c8bd ab5b c9bd 2298 cf3d 54ba dabd
00000060: 5019 19bd f001 37be 0732 95bd 1452 9bbd
00000070: 5084 15be 7392 32bc 7e0f c9bd a6df 943c
00000080: fccb 2abd fddf c3bd 20f3 68bc d824 b93d
00000090: 94de 71be f052 91bd 751f 7c3e 3194 fc3a
000000a0: 29b4 8c3e 7557 233d c821 b7bd aa82 aebe
000000b0: efd8 9c3c f164 43bd 4e42 d0bd a89b e83b
000000c0: 1a35 8ebd 37bd abbe c37a 033e 49c4 1abc
000000d0: 4ce7 4a3e a7d8 d6bd a93a 7cbd eb45 bd3d
000000e0: 794f 31be e7c4 a03d 6648 fe3d 0d7d 01be
000000f0: 92b2 25be e409 5e3c db53 aa3d c721 803e
00000100: a71c ac3d 5346 9a3e 333f 90be 18f8 47be
00000110: d6c9 debb 573e 0e3e a4f6 13bd 314d 123e
00000120: a2c3 1a3e ca7f 083d ab0c e7be d7e0 7f3d
00000130: d20e b73d 5ab7 c83e 6ca2 043d d014 f6b9
00000140: be96 a7bd cac5 0e3d b0f8 6dbe 2363 97bd
00000150: c831 a93c 0fff 913d b0a4 183e 9ef0 bd3e
00000160: 2389 0cbe 98af 493e 719f 0c3e 13b5 dc3d
00000170: da2b 633e 0b8d fa3d b2a4 573d 6c86 203d
00000180: d294 b33e e5ba 0fbe 66ec e13c a678 29be
00000190: a5cc e3bd aa3f ccbc 6046 6c3e d706 01be
000001a0: d87c e23c 2048 d53c ee2a 453e 360e 0d3e
000001b0: d337 0e3e f73d 30be c1c6 26bd 064b 4c3d
000001c0: f7be 80bd 0e28 4abe 4783 4bbb 950a fb3d
000001d0: 48f1 603b 2e9b 16be bf92 bfbe 52fc d13c
000001e0: 5543 a73c e560 0abd 447f 0ebe 1de4 8b3d
000001f0: d1df c2bd 3243 2a3d 94fe 1d3d 12da 99bc
-0.5542418 0.13463105 -0.1642425 -0.22015907 -0.04246517 0.2328709 -0.10590147 0.033849217
-0.1911079 -0.16448724 -0.12544732 -0.19673282 -0.37777573 0.16175273 -0.0037943325 0.28044963
0.020388162 0.08648943 0.025449175 -0.3317655 -0.097784266 -0.098319374 0.10136439 -0.106800705
-0.037377656 -0.17871833 -0.072849326 -0.075840145 -0.14601254 -0.010899174 -0.09817408 0.01817305
-0.04169844 -0.09564207 -0.014218122 0.090402305 -0.23620063 -0.07095897 0.24621375 0.0019270239
0.274812 0.039878327 -0.0894199 -0.34084064 0.01914641 -0.047703687 -0.101688966 0.007098634
-0.06943722 -0.33542797 0.12839799 -0.009446212 0.19814795 -0.10490542 -0.06157938 0.092418514
-0.17315473 0.07850056 0.12416153 -0.1264536 -0.161814 0.013552163 0.083167754 0.2502577
0.084039025 0.30131778 -0.28173217 -0.19528234 -0.006798963 0.13890968 -0.036123887 0.14287259
0.1511369 0.033324994 -0.45126852 0.062470283 0.089383736 0.39202386 0.03238146 -0.00046936283
-0.08183049 0.034856595 -0.23239398 -0.07391956 0.02065362 0.07128727 0.14906573 0.3709764
-0.13724189 0.1969589 0.13732697 0.10776725 0.22184697 0.12233933 0.0526473 0.039190695
0.35074478 -0.14036138 0.027578544 -0.1654993 -0.11123017 -0.024932701 0.23073721 -0.12600265
0.02764742 0.026035368 0.19254658 0.13774952 0.13888483 -0.17211138 -0.04071689 0.049876235
-0.06286424 -0.19741842 -0.003105359 0.12257878 0.0034323502 -0.14707634 -0.37416646 0.025633011
0.020417849 -0.033783812 -0.13915735 0.068306185 -0.09515346 0.04156799 0.038572863 -0.018780742

conv_blocks.12.running_var f4 [128]
00000000: 826c a73e efca 953e 129c 683e 5246 483e
00000010: e977 5e3e 7dbc 803e 918b 5d3e c20f 713e
00000020: 9475 583e af95 543e 820d 893e 14b3 503e
00000030: 164a 543e 57cf 4f3e 4c7e 5b3e 9ea8 7c3e
00000040: bba8 543e 6a61 703e 3156 593e b7b4 613e
00000050: 1b71 453e 2ef0 6b3e a59b 4f3e 9a26 7a3e
00000060: 2f8b 4d3e 7d66 823e e4b2 8d3e 2ac9 563e
00000070: 01ec 7a3e f430 4f3e b5eb 763e 6766 613e
00000080: d002 513e 33e2 753e 4841 543e 4a7c 4b3e
00000090: 8594 733e 2d33 5a3e 2664 613e 4f2f 603e
000000a0: 09a4 6a3e 275a 463e e59d 593e de0d 743e
000000b0: 9117 4d3e e0e0 3e3e cb35 663e 41be 503e
000000c0: bbf2 5b3e fa1b 783e 3018 3e3e 4fd8 623e
000000d0: fbe1 433e a3a6 433e d852 633e 73b5 863e
000000e0: d647 4b3e d08f 523e 14a0 833e 9454 643e
000000f0: d3a2 913e 6b0e 5b3e 4b8b 803e d098 723e
00000100: 9cc6 883e e090 693e 6ceb 753e 9d8f 423e
00000110: f70f 633e bf30 5e3e 42bc 7f3e 268b 3c3e
00000120: ef6b 563e d0be 5c3e 92eb 743e bc27 713e
00000130: f23a 5b3e 9f0a 703e 919c 663e efff 583e
00000140: 0abd 6e3e 58ac 613e 446e 593e c54b 6d3e
00000150: 1af7 5a3e e392 4f3e b5a0 7b3e b7b9 713e
00000160: 3c84 693e 24cb 6e3e 7439 5a3e 7dd4 563e
00000170: a280 7d3e 4f1f 5d3e 7d5b 533e 109c 483e
00000180: beeb 323e 4220 5e3e 173f 633e a96b 583e
00000190: fa54 603e 09fc 493e 93e5 7d3e d249 493e
000001a0: 9e11 783e 76fe 8f3e 43af 703e 521a 483e
000001b0: c60c 643e 4a2e 3d3e 2b28 7d3e 5bd7 5f3e
000001c0: d280 653e bf63 723e 7922 5d3e fac0 5e3e
000001d0: 82b2 673e d4e7 6a3e 434c 923e 8471 693e
000001e0: 94c8 483e 5576 593e 2331 8a3e 4067 8f3e
000001f0: 44c4 613e 1e7f 703e 0bf0 533e cd1b 623e
0.32699972 0.2925639 0.22715786 0.19558075 0.2172543 0.25143805 0.21635272 0.23541167
0.21138602 0.20760225 0.26768118 0.20380813 0.20731387 0.20293938 0.21434897 0.24673697
0.2076749 0.2347466 0.21224286 0.22041593 0.19281428 0.2304084 0.20274217 0.24428788
0.20072626 0.25468817 0.27675545 0.20975175 0.24504091 0.20233518 0.24113353 0.2201172
0.20411229 0.2401207 0.20728028 0.19871631 0.23787124 0.21308585 0.2201086 0.21893047
0.22914137 0.19370328 0.21251638 0.23833415 0.20028521 0.1864047 0.22481458 0.20385076
0.21479313 0.24229422 0.18563914 0.22152828 0.19129173 0.19106536 0.22199571 0.2631031
0.19851622 0.20562673 0.25708067 0.22297889 0.28444538 0.21392219 0.25106272 0.23691106
0.26714027 0.22809172 0.24015588 0.19000097 0.22174059 0.21698283 0.24974158 0.18412456
0.20939611 0.21557164 0.23917988 0.23550314 0.21409205 0.23441552 0.22520663 0.21191381
0.233143 0.220384 0.21233469 0.23173435 0.21383324 0.20270877 0.24573024 0.23606001
0.2280435 0.2331968 0.21310979 0.20979495 0.24756101 0.21593975 0.20640369 0.19590783
0.17472741 0.21691993 0.22192036 0.21134819 0.21907416 0.1972505 0.24794607 0.19657066
0.2422547 0.28123826 0.23504357 0.1954129 0.22270498 0.18474689 0.24722354 0.21859495
0.22412422 0.23670863 0.21595182 0.21753302 0.22626689 0.22939998 0.28573808 0.22797209
0.19607764 0.21236546 0.26990613 0.2800846 0.22047526 0.23485991 0.20697038 0.22080918
